gnn/gnn_outputs/checkpoint_epoch_90.pt (torch, 972380 bytes, 208 tensors)

node_encoder.layers.0.weight f4 [64, 3]
000000 59 f3 e4 3e 6b 20 f2 3e 4b db 0f be 10 a0 09 3f
       0.4471691 0.47290358 -0.14048497 0.5375986
000010 14 19 fb bd f2 25 d7 3d 88 ee 89 be 81 2b b3 3e
       -0.12260643 0.10505284 -0.26939797 0.34994128
000020 20 b4 03 3f 38 38 d3 be 62 98 03 3f 34 fb bd 3d
       0.51446724 -0.4125383 0.5140439 0.09276429
000030 86 41 dd 3e 7a c3 8e 3d 9f dc 8b 3e 8a 49 b6 bd
       0.43214053 0.06970878 0.27316758 -0.08900745
000040 be 71 df 3e ad bb bf 3d ca 02 91 be 88 85 1b 3e
       0.43641466 0.09361968 -0.2832244 0.15187657
000050 30 07 7b be 8f e9 83 bd 0f 66 6a be e8 cf c6 3e
       -0.2451446 -0.06441032 -0.22890495 0.38830495
000060 a6 68 ef be d1 b9 80 be 85 a9 24 be ae ea ab be
       -0.46759528 -0.25141767 -0.16080292 -0.33577484
000070 07 06 6b 3d 16 91 14 bf 7c 69 04 3f ee 51 fb be
       0.057378795 -0.58033884 0.51723456 -0.49085945
000080 f9 74 e6 3e 40 27 cc 3d 63 be 33 be b9 55 ba 3e
       0.45011118 0.09968424 -0.17553096 0.36393526
000090 72 0a af 3d 30 01 f1 3e 65 a4 72 3d 5d b8 3b be
       0.08546914 0.47071218 0.05923881 -0.18332048
0000a0 ae 89 1c 3e 2e f1 24 be fa c2 76 3e 46 d3 fb 3e
       0.15286896 -0.16107628 0.24097815 0.49184626
0000b0 0f 89 b3 3e df f8 6f be 9c e9 b0 3e 4a 45 d3 3d
       0.35065505 -0.2343478 0.3455323 0.1031595
0000c0 78 b0 96 3e df 1c b0 be e0 93 14 bf 23 32 61 be
       0.2943151 -0.34397027 -0.5803814 -0.21991782
0000d0 ae 4c eb be 88 52 ec 3e ef 78 25 3e 61 64 73 3e
       -0.4595694 0.46156716 0.16159414 0.2376876
0000e0 65 66 48 3e c0 61 81 bc 04 0b ec 3e 3b 11 cd be
       0.1957031 -0.015793681 0.46102154 -0.40052208
0000f0 27 44 fa 3c 8e fb cc be 2e e2 2f 3e b0 1a 49 be
       0.030550076 -0.4003567 0.17176124 -0.19639087
000100 eb 98 33 3e 68 66 fb bd fe 47 f5 3e 7a 25 b2 be
       0.17538802 -0.12275392 0.47906488 -0.34794217
000110 3f 8a ae be e0 b3 b6 be 34 85 01 3f 41 90 40 3e
       -0.34089848 -0.3568411 0.50593877 0.18805028
000120 dd e3 0c 3f 13 da f2 be 81 ad 13 bf a4 7c e6 be
       0.5503519 -0.47432002 -0.5768662 -0.45016968
000130 fd 5e cb be 11 bd 61 3e de c5 4e 3e 65 e1 f9 3e
       -0.39720908 0.2204478 0.20192668 0.48804775
000140 9f 6b 94 be 42 e3 c0 be 6e 1d a4 3e 97 dd 69 be
       -0.28988358 -0.37673384 0.32053703 -0.22838436
000150 e2 12 b3 3e 58 7d 15 be 38 c4 a5 3e 15 6b ef be
       0.34975344 -0.14598596 0.32376266 -0.46761385
000160 5f bc 8f be 42 be 36 3e b0 2c fe 3d 7e 91 0f be
       -0.28073403 0.17846015 0.12410867 -0.14020345
000170 59 75 b3 3e db 7a c4 3e 94 2c da be c1 0a 9c be
       0.35050467 0.3837498 -0.42612135 -0.30476955
000180 d7 70 07 3f 01 81 52 be 7b 25 4c be bd 1a 0d bf
       0.52906555 -0.20557024 -0.19936173 -0.55118924
000190 12 82 ac be fc 44 11 3e 6c 99 b2 bd b7 9b d0 be
       -0.33692986 0.14186472 -0.08720669 -0.407438
0001a0 b8 2b 5d 3b 88 79 cb be af e7 03 bf 44 f7 99 be
       0.0033747982 -0.39741158 -0.51525396 -0.3007146
0001b0 25 02 02 bf 72 59 bb be 28 eb 12 3f 5c 24 e3 3d
       -0.5078452 -0.3659168 0.5739007 0.110909194
0001c0 9c 67 43 3e 29 e6 05 bf c5 82 bf be ca 04 45 be
       0.19082493 -0.5230432 -0.37404457 -0.19240108
0001d0 83 d4 bd 3d c6 37 ff be 46 3b 7e be 23 6b b5 be
       0.09269049 -0.4984724 -0.24827299 -0.354333
0001e0 af f0 fd 3b 05 f2 63 be 8d 41 08 bd 98 3c d0 be
       0.007749639 -0.22260292 -0.03326564 -0.4067123
0001f0 7a 6b cc be a1 5b a6 be 94 30 50 be a5 a7 ea be
       -0.39925748 -0.32491782 -0.20331031 -0.45831028
000200 0f 9e f5 3e 98 ea df bd 83 2c f8 3e 1e f3 45 3e
       0.47972152 -0.10933417 0.4847146 0.19331023
000210 5d 62 f9 be b8 1a d2 3e 60 dd 1f be 4d c6 67 be
       -0.48707858 0.4103601 -0.15611792 -0.2263424
000220 bf 64 f5 be e6 41 12 bf bc 8c 32 3e fb 12 fb bd
       -0.47928426 -0.57131803 0.17436498 -0.122594796
000230 1b d5 54 3e 82 57 f1 be cc 3a da 3e 00 1e da be
       0.20784418 -0.47137076 0.42622983 -0.42601013
000240 17 cf cf bd 82 3e ea 3d 03 79 9d 3e 37 d9 f6 3e
       -0.10146921 0.11437704 0.30756387 0.48212597
000250 4d c6 06 3f 9b 74 e2 be 8b 09 12 3e 61 0d 86 be
       0.5264633 -0.44229588 0.14261453 -0.26182082
000260 9e d8 5c bd d5 85 df be 35 d0 04 3f df 65 dc be
       -0.05391752 -0.43656793 0.518802 -0.4304647
000270 ab 5c a1 3e 32 22 44 3e 80 df 41 3e e0 a6 9c be
       0.31516013 0.1915367 0.18932915 -0.30596066
000280 32 b3 07 3f d7 8e 00 3e 50 7b 9c 3d a9 c1 03 bf
       0.53007805 0.12554489 0.076407075 -0.51467377
000290 3d 98 70 3e c0 ba a5 bd 28 e4 85 be 19 56 ff 3e
       0.23495574 -0.0809226 -0.26150632 0.49870375
0002a0 06 02 0b 3e 7d a7 a2 be 9d d8 93 be a0 2e 13 bd
       0.1357499 -0.31768408 -0.288762 -0.035933137
0002b0 12 77 a3 3e 76 53 19 be ca 2e a3 be 9e 8c 4f be
       0.3192678 -0.14973244 -0.31871635 -0.20268485
0002c0 19 94 e3 be 5c ff 44 3e db 45 de 3e 0d c8 0e bf
       -0.44448927 0.19238037 0.4341267 -0.55774003
0002d0 cd 1c 1a 3e 2c ff 90 3e 2f 08 e6 3d 85 29 58 be
       0.15050049 0.2831968 0.1123203 -0.21109588
0002e0 d1 72 97 3e 1e fc 9d 3e c6 3b 60 3e 24 04 cb bd
       0.29579785 0.30856413 0.21897802 -0.09912899
0002f0 f6 50 1a be 6d 81 88 3d 29 5e c2 bd 88 1e 38 be
       -0.15069947 0.06665311 -0.09490616 -0.17980397

node_encoder.layers.0.bias f4 [64]
000000 46 f7 90 3e 33 82 d1 3e c2 d3 f6 ba f7 0a 57 bd
       0.28313655 0.40919647 -0.0018831419 -0.05250069
000010 32 cf d9 b6 d0 19 8a 39 d5 af 79 3d 51 e5 a7 3d
       -6.4912247e-06 0.00026340643 0.060958702 0.081980355
000020 e3 d9 df be 5d b2 05 be 83 6b cc 3e 34 48 11 3e
       -0.43720922 -0.13056321 0.39925775 0.141877
000030 7b 4c 4d b9 7f 5c 86 be 51 f7 88 be 32 2c dc be
       -0.00019578815 -0.26242444 -0.26751187 -0.43002468
000040 7c b0 da bd 62 dd e7 3d 38 8d 90 3e d3 c2 3a 3e
       -0.10678193 0.11321522 0.2823274 0.18238382
000050 91 b1 d8 be 3e ef 85 be 0d 79 ad bc 8e 3b f1 3e
       -0.42322972 -0.2615909 -0.021175886 0.4711575
000060 a2 8b 81 3c 55 b4 90 bd 08 27 1f 3e 1a 5e 0c be
       0.015813652 -0.070656456 0.15542233 -0.13707772
000070 c9 51 93 be e9 7e ab 3e 1a b8 36 be f4 06 27 bd
       -0.28773335 0.33495262 -0.17843667 -0.040778115
000080 9d 4d f9 be cc c0 99 3e ea 9f b3 3e 39 0e 03 3e
       -0.48692027 0.30029905 0.35082942 0.12798394
000090 fa f0 a1 be 8a fa f6 be 35 a2 c3 be 5e 20 b0 3e
       -0.31629163 -0.4823802 -0.38209692 0.34399694
0000a0 0e 60 45 3e 38 3c cc 3e 07 bf 5e 3e b9 63 8a 3d
       0.19274923 0.39889693 0.21752559 0.06757302
0000b0 68 c3 ab b7 22 79 b4 be 5d b3 d0 be 82 cf e7 be
       -2.0475782e-05 -0.35248667 -0.40761843 -0.45275503
0000c0 2d a8 1c 3e e5 ac 4b be 02 44 28 bd fc c1 7c be
       0.15298529 -0.19890173 -0.041080482 -0.24683374
0000d0 39 70 03 bd 8e dd a3 be fe 21 95 be a0 1e e1 3d
       -0.032089446 -0.3200497 -0.29127496 0.109921694
0000e0 52 aa ba bd 64 95 8a 3e 95 f6 d4 bd 80 91 ac be
       -0.09114517 0.270671 -0.10398594 -0.33704758
0000f0 d6 94 f0 bc 68 13 48 be a3 72 c4 bd 0b c3 ec be
       -0.029367846 -0.19538653 -0.09592178 -0.46242556

node_encoder.layers.1.weight f4 [64]
000000 33 fe 80 3f a8 3f 7f 3f 93 98 7d 3f 9e 01 80 3f
       1.0077575 0.99706507 0.99060935 1.0000494
000010 e6 25 7e 3f d7 ad 80 3f 7f 07 7b 3f 46 76 80 3f
       0.9927658 1.0053052 0.98058313 1.0036094
000020 99 89 7e 3f f5 0b 7e 3f ab 29 7f 3f 93 4d 80 3f
       0.9942871 0.99236995 0.99672955 1.0023674
000030 84 18 80 3f 29 3b 82 3f d6 6e 7d 3f 66 cd 7f 3f
       1.0007482 1.0174304 0.9899725 0.9992279
000040 02 94 7b 3f bc 46 7e 3f d9 b3 7c 3f 88 1b 80 3f
       0.98272717 0.9932668 0.98711926 1.0008402
000050 3b ab 80 3f b4 f3 7c 3f cb 88 80 3f 64 6b 7e 3f
       1.0052255 0.9880936 1.0041746 0.99382615
000060 83 b0 80 3f fc 3a 81 3f 62 19 80 3f 49 19 82 3f
       1.0053867 1.0096126 1.0007746 1.0163966
000070 ab 6f 7e 3f 58 75 80 3f 23 19 80 3f 54 d1 80 3f
       0.9938914 1.003581 1.0007671 1.0063882
000080 ad 94 7f 3f d2 b3 80 3f 53 d5 81 3f d5 79 80 3f
       0.99836236 1.0054877 1.0143226 1.003718
000090 94 3b 81 3f 5a 0b 81 3f 22 f9 7e 3f 72 5c 7e 3f
       1.0096307 1.0081589 0.99598897 0.9935981
0000a0 19 9f 80 3f d8 69 7f 3f 87 9d 80 3f 15 b3 7f 3f
       1.0048553 0.9977088 1.0048074 0.9988263
0000b0 e3 64 7f 3f 34 9e 7d 3f 85 83 80 3f d2 b0 80 3f
       0.99763316 0.99069524 1.0040137 1.0053961
0000c0 38 08 7f 3f 5d 31 7e 3f 7b d5 81 3f c5 b6 81 3f
       0.99621916 0.9929407 1.0143274 1.0133902
0000d0 5f 31 7c 3f fa 34 80 3f 6a 17 7e 3f 47 f5 7d 3f
       0.98512834 1.0016167 0.9925448 0.9920239
0000e0 10 d7 7b 3f 17 dd 7e 3f 4f 9a 7d 3f cc 99 80 3f
       0.98375034 0.99556106 0.9906358 1.0046935
0000f0 f6 b9 7d 3f d8 c9 7c 3f b7 fc 7c 3f c1 31 7c 3f
       0.9911188 0.9874549 0.9882311 0.9851342

node_encoder.layers.1.bias f4 [64]
000000 11 d7 d3 3a 0f b8 86 bb c1 e3 0b bc 4d 80 92 3c
       0.0016162117 -0.004111297 -0.0085381875 0.017883444
000010 e6 4f 89 bc 4c 7b 17 3c 40 0b d7 bc 54 70 de 3b
       -0.016761731 0.009245705 -0.026250482 0.006788293
000020 0e a1 d7 bc 05 0f a1 bb 70 23 bb 3b 66 dd 90 bb
       -0.026321914 -0.0049151205 0.0057110116 -0.004420924
000030 4c 52 21 3b 89 c0 23 3b 03 33 4b bb ba da f8 3b
       0.0024615703 0.0024986586 -0.0031005747 0.0075944336
000040 9e 48 a3 bb d1 32 a0 3a 35 50 1b bc 94 29 84 bb
       -0.004983022 0.0012222176 -0.009479572 -0.004033277
000050 d2 a2 12 bc c2 b7 fe bb 82 25 e1 3a 1d f2 10 3b
       -0.008949952 -0.0077733705 0.0017177316 0.0022116967
000060 cf a4 d6 b9 e8 e6 d6 bb 10 59 9f 3c 14 eb 63 3c
       -0.00040940053 -0.006558288 0.019451648 0.013911027
000070 b1 1d 10 bc ad ed b2 bb 2f 40 a1 3b d1 2b 61 3b
       -0.0087961415 -0.005460462 0.0049209814 0.0034358392
000080 c1 20 59 bb af 52 37 bc 1a 94 92 bb 65 8f 4c bb
       -0.0033131095 -0.011189147 -0.0044732215 -0.00312134
000090 e5 82 10 3c f7 a1 0a 3c ed 55 a0 bb 45 db af 39
       0.00882027 0.008461467 -0.0048930557 0.0003354197
0000a0 34 1d e2 3b a0 d4 4e bc 84 72 9e bb 78 58 0b 3c
       0.006900454 -0.012623936 -0.0048354287 0.008504979
0000b0 f1 47 b7 3b c5 5e 22 3b b9 a8 c0 ba f7 d8 20 bc
       0.005593293 0.0024775725 -0.0014698721 -0.009817353
0000c0 1c e8 56 3b 49 7f 97 bb 6e 40 1d 3c 4f f1 b9 3c
       0.0032792157 -0.004623328 0.009597881 0.022698073
0000d0 3f 03 55 3b 04 f1 df 3b e3 27 2a bc 03 96 01 bd
       0.0032503156 0.006834151 -0.010385486 -0.031637203
0000e0 ec 25 10 bc f4 6a b3 bb 44 97 25 bc 49 9b 23 3c
       -0.008798104 -0.0054753963 -0.010106865 0.009985753
0000f0 17 a6 9f bb 0a 20 1b 3c 84 d9 ef 39 fe 0a 60 bc
       -0.0048720944 0.009468088 0.00045747694 -0.013674496

node_encoder.layers.1.running_mean f4 [64]
000000 72 ae 3d 3f 66 94 2c 3f 98 f5 ac 3e 1d ba be 3d
       0.7409431 0.6741394 0.33781123 0.09312842
000010 2f 5c d2 3e ff dd 8a 3e 9f 00 f0 bd 45 de e3 3d
       0.41085956 0.27122495 -0.117188685 0.11126379
000020 89 d6 6c bf 20 35 13 bf 27 d5 1a 3f bb 37 8e 3e
       -0.92514855 -0.5750294 0.60481495 0.27776894
000030 f1 48 bb 3e ed 1a b4 be 1d ae ad 3e 4b fa 94 be
       0.36579087 -0.35176793 0.339219 -0.29097208
000040 14 b9 ef be 1c 43 31 bd 82 73 1e 3f 49 e1 82 3e
       -0.4682089 -0.04327689 0.61895 0.25562504
000050 a0 de 11 bf b7 e5 a5 be c4 03 27 be 7b 9f 32 3f
       -0.56980324 -0.3240182 -0.1631003 0.697746
000060 86 62 91 be a5 dc e1 be 42 3c d5 3e 42 a1 84 be
       -0.2839548 -0.4411365 0.41647536 -0.2590428
000070 36 5b 00 bd 71 91 53 3c d4 69 bb bc 04 6f 86 be
       -0.031336986 0.012913094 -0.022877611 -0.26256573
000080 ea 30 e3 be 4d ac f3 bd 7c 44 75 3d d8 b2 0c bf
       -0.44373256 -0.11898098 0.059879765 -0.54960394
000090 63 16 04 bf 39 dc 14 bf c5 57 27 bf 26 43 7f be
       -0.5159666 -0.58148533 -0.653683 -0.24927959
0000a0 85 64 3e 3d f1 7c 65 be ed 51 a4 3d a2 11 d3 3e
       0.04648258 -0.22410943 0.080234386 0.4122439
0000b0 2c 8c a9 bd 31 7d 88 bf 52 d2 93 be 02 5a 29 bf
       -0.08278689 -1.0663205 -0.288714 -0.66152966
0000c0 75 9a aa 3e 91 40 15 3e 70 55 22 be 45 c2 c3 be
       0.33320966 0.14575411 -0.15852904 -0.38234153
0000d0 46 5e b1 3e 03 99 be bd 0b 37 e7 be a2 96 2b 3e
       0.34642237 -0.093065284 -0.45159182 0.1675668
0000e0 00 e6 bc be 37 54 c0 3e 1b 27 21 bf 6b 85 85 be
       -0.36894226 0.3756425 -0.62950295 -0.26078352
0000f0 bf 2b 8f 3e c6 b3 01 3d 95 f2 fd bd ea 4e 15 bf
       0.27963063 0.031665586 -0.123997845 -0.5832354

node_encoder.layers.1.running_var f4 [64]
000000 ba c0 2e 3d 3e 6a ba 3c f3 ef 36 3d 78 95 0a 3d
       0.042664267 0.022755738 0.044662427 0.03383395
000010 05 36 bf 3c a1 dc 98 3c 74 46 5c 3c 82 64 af 3c
       0.023341188 0.018659892 0.013444532 0.02141023
000020 f2 09 e6 3c 18 6d 36 3d 09 65 6a 3d ed bc 8c 3c
       0.028080914 0.044537634 0.05722526 0.01717993
000030 ea db b9 3c e6 e4 db 3b f5 22 34 3d ee 5e 72 3c
       0.022687871 0.0067106364 0.04397865 0.014793141
000040 4e aa 59 3d e5 3a 43 3d 26 26 4d 3c b7 65 13 3d
       0.05314093 0.047663588 0.012521302 0.035985675
000050 4b 91 8f 3c 71 d9 d3 3b 8b 9a 1c 3d 61 54 0a 3d
       0.017525336 0.00646513 0.03823332 0.033771876
000060 66 5c 9b 3d da cf 1f 3d 3f 20 13 3d 19 77 b9 3c
       0.07585983 0.039016582 0.035919424 0.022639798
000070 95 37 ac 3c a8 19 f7 3c c6 5c 7f 3c 94 4d 10 3d
       0.021022597 0.030163601 0.015586084 0.035230234
000080 d3 f0 de 3c a9 12 23 3d 90 54 8a 3c 56 08 55 3d
       0.027214443 0.039812718 0.016886026 0.052009903
000090 c5 86 91 3d 42 3d 0b 3d 1d c7 87 3c 38 5e 29 3d
       0.071057834 0.033993967 0.016574437 0.04134962
0000a0 9f 91 9b 3b 91 f8 30 3d fc 43 47 3d b0 bd d6 3c
       0.004747584 0.0432058 0.04864882 0.026213497
0000b0 03 65 ff 3c 29 8b 84 3d cb 8d fc 3b 60 77 42 3d
       0.031176096 0.06471855 0.0077073327 0.047477126
0000c0 2a 77 48 3c 2b 06 8e 3d 89 aa f4 3b 59 69 58 3d
       0.012235442 0.0693477 0.0074666184 0.052834842
0000d0 3f 0d 86 3c ae a5 01 3d 4a 9b f1 3c 13 bd 09 3d
       0.016363738 0.031652145 0.029492993 0.03362758
0000e0 66 48 9f 3c aa 22 3c 3c e6 a5 0e 3d b6 3d 60 3d
       0.019443702 0.011482874 0.03482618 0.054746352
0000f0 ce 01 40 3c 0f 2a ac 3c 25 d6 d8 3b 12 58 98 3b
       0.01171918 0.021016149 0.006617325 0.0046491707

node_encoder.layers.3.weight f4 [64, 64]
000000 78 ba 73 3d cb 22 9d bd 5f 64 56 3d b7 86 4d 3d
       0.059504002 -0.07672652 0.052341815 0.050177302
000010 51 aa a5 3d 62 03 d1 bd 01 0d a7 3d b9 60 8c bd
       0.08089126 -0.10205723 0.08156777 -0.06854386
000020 e6 c7 2f 3d e4 c4 ee 3d bd 2d fa bb 7f 34 01 bc
       0.042915247 0.11658648 -0.007634847 -0.007886051
000030 aa 57 15 bd 53 c5 e2 bd 2b a7 4d 3d 1e fd 05 be
       -0.036460556 -0.11072793 0.050208252 -0.13084838
000040 cd 7e b4 3d 3f c7 a8 3d 59 1f dd 3d ed a9 04 bd
       0.08813248 0.08241128 0.10796995 -0.032388616
000050 29 85 bb bd a7 25 af 3c 16 3e a5 3d 5a 94 06 be
       -0.09156258 0.021380259 0.080684826 -0.13142529
000060 c5 ef 8b bc 92 cf ab bd 72 c3 89 bc 45 08 8c bd
       -0.017082104 -0.083892 -0.016816828 -0.06837515
000070 6e 28 62 bd cd 8c 48 bd 70 84 01 be f2 7e e9 3d
       -0.055214338 -0.048962403 -0.12648177 0.11401166
000080 6d fc ef 3d 4e 96 e9 bc 1f 26 c8 bb fb 5a 45 bd
       0.11718068 -0.028514054 -0.00610806 -0.04818247
000090 1c 77 07 be 6a 3f e6 bd 46 b9 18 3d 1e b5 90 bd
       -0.1322903 -0.11242564 0.037286066 -0.07065795
0000a0 20 14 90 bd 00 c2 fc bb 26 ec 50 bd 3b 1d 41 bd
       -0.070350885 -0.0077135563 -0.05100646 -0.047147017
0000b0 ec f2 13 bb 91 4d a2 bc f6 30 36 bd 68 5c 87 bd
       -0.0022575213 -0.019812377 -0.044480287 -0.06609422
0000c0 5d 43 e7 bd e5 b3 cd 3d 11 46 1c bd c2 57 e6 3c
       -0.112921454 0.10044078 -0.038152758 0.028118018
0000d0 f0 24 5d bd 2c 86 78 3b e3 02 03 3e b7 4e 40 3d
       -0.053990304 0.003792177 0.1279407 0.04695007
0000e0 b6 4d c8 bd b8 dd 39 3d fb 60 f7 3d 23 b1 08 3d
       -0.09780447 0.045377463 0.120790444 0.033372056
0000f0 43 fd 96 3d de c7 e8 3d ec 81 ef bb 8a e0 13 3d
       0.073725246 0.11366247 -0.007309189 0.03610281
000100 62 9f cc bd aa 44 9b bc a4 87 cf 3d 80 a6 80 3d
       -0.09991337 -0.01895364 0.10133293 0.06281757
000110 14 80 8c bd 29 23 c3 bd 7a f8 c2 bd b3 6a e0 bd
       -0.068603665 -0.09528191 -0.095200494 -0.10957851
000120 c3 3f c5 bd c8 23 16 bd 29 ca bc 3d 3f eb 06 3d
       -0.09631302 -0.036655217 0.092182465 0.032939192
000130 25 d3 c4 bd 77 9b e5 bd 74 e8 96 3d c7 49 b7 bd
       -0.09610585 -0.11211293 0.07368556 -0.08949619
000140 1f 5f 0a bc 35 2b 93 3d 5c 62 37 bd 24 a4 c6 bc
       -0.00844553 0.071859755 -0.044771537 -0.02424819
000150 10 67 b4 ba f2 11 30 bd aa 43 60 bd 2d 5a d9 bd
       -0.0013763625 -0.042985864 -0.05475203 -0.10612903
000160 62 8a bd bd 84 d3 82 bd d8 be df 3d cc fb 96 bd
       -0.0925491 -0.06388 0.109250724 -0.07372245
000170 a5 8c 99 bd 1d 57 05 3d 17 aa 3e 3d 5d 54 9e 3d
       -0.07497529 0.03255378 0.04654893 0.07730935
000180 8f a0 d1 3d 13 3e 90 3d 75 5d eb bd 8f cb 8a 3c
       0.10235702 0.0704309 -0.11492435 0.016942767
000190 e6 dc b3 3d bf 57 a6 bc e8 15 96 bd cf c8 f5 3d
       0.087823674 -0.020305512 -0.07328397 0.12001192
0001a0 98 10 1a bd 3a 31 88 bd 29 30 ce bd 16 57 63 3c
       -0.03761348 -0.06650014 -0.100677796 0.013875743
0001b0 06 82 28 3d bd 4c 06 3d 6b 23 0c 3d 02 e0 da bd
       0.041139625 0.032788027 0.034213465 -0.10687257
0001c0 4d 76 cf bd 28 f6 1c bc 3e 1e fc 3d 94 33 74 3d
       -0.10129986 -0.009580173 0.12310456 0.0596195
0001d0 68 95 86 bd d5 90 56 bc 90 46 a9 bd bd ad 3d bd
       -0.06571466 -0.013096054 -0.08265412 -0.046308268
0001e0 7d 32 f9 3c 3e b1 66 3d 18 7b d5 3d aa 12 ff bd
       0.030419583 0.056321375 0.10423869 -0.12454732
0001f0 bb a5 b0 3d d2 9d a3 bd 6c 00 62 3d 80 e5 e5 3d
       0.086253606 -0.07989086 0.055176184 0.11225414
000200 81 17 41 bb 41 1b 01 3e 00 ba f7 bd c4 fa 10 bd
       -0.0029463472 0.12608053 -0.120960236 -0.0353954
000210 cb 6a a9 3d 25 ae b6 bc 8a 05 91 bc eb 40 72 bd
       0.08272322 -0.022299835 -0.017702837 -0.05914394
000220 59 72 ac 3d 92 7b 8c 3d 6b bb 1c 3d 62 d3 9d bd
       0.084202476 0.06859507 0.038264673 -0.07706334
000230 fc 9c d2 bd c1 50 ae 3c 77 cb 08 3d 0c 62 3c bd
       -0.10283849 0.02127874 0.033397164 -0.045991942
000240 af b1 06 bd 56 db 9d 3d bd ea 1e 3c 5e 1a 44 3c
       -0.032884296 0.07707851 0.009699521 0.011969177
000250 c1 92 12 bd 50 39 d6 bd c5 aa e0 bd 05 fa 44 bd
       -0.035784487 -0.1046015 -0.10970072 -0.04809
000260 c9 78 7f bd 80 a2 fb 3c cd c8 0e bd c7 ca 24 bd
       -0.06237105 0.030717134 -0.034859467 -0.040232446
000270 73 89 fe 3d 47 5e 12 3d 79 cf a8 3d 1c 71 55 bd
       0.1242856 0.03573444 0.08242697 -0.052109823
000280 64 80 25 bd c9 b1 1d 3d c8 48 b8 bd b1 bd ad bd
       -0.040405646 0.038499627 -0.08998257 -0.084834464
000290 41 b0 6b bc 8a 2b 2b bd aa b7 ce bd d2 04 a6 3d
       -0.014385284 -0.04178957 -0.10093625 0.08106388
0002a0 6f 61 c3 3d 3d 55 a6 3c 0d 3e ed bc f0 59 e4 bd
       0.09540068 0.020304317 -0.028960252 -0.11149967
0002b0 37 7e 10 bd 71 58 15 3d 9d 6a 65 3d f4 de 05 bc
       -0.035276618 0.036461297 0.056009877 -0.008170832
0002c0 c3 d3 7b bd 4e a8 8c 3d 25 d9 c9 bd ec 56 b1 3d
       -0.06148125 0.06868039 -0.0985587 0.08659157
0002d0 23 3b 32 bd 43 8a 47 3c 29 9f f1 bc 65 58 00 3c
       -0.04351343 0.01217896 -0.029494839 0.007833575
0002e0 7d 9d 15 bd be 21 c8 3d a4 ae 88 3b b1 39 d0 3d
       -0.036527146 0.09772061 0.0041712094 0.10167254
0002f0 51 05 ea 3d f4 dd 9f bd c1 56 b3 bd cd 02 d4 3d
       0.11426795 -0.07806006 -0.08756781 0.10352097
000300 20 93 b9 3d d1 58 b2 bd db 5f da bb 25 4f 06 be
       0.09061265 -0.08708347 -0.006664259 -0.13116129
000310 48 af c3 bd 78 b5 76 3c 7e fa aa 3c 18 a2 f8 3c
       -0.095549166 0.015057914 0.020871397 0.03035073
000320 c9 f9 02 bd 2f 97 d2 3d e9 b2 cd 3c 99 05 8b bd
       -0.031976495 0.10282742 0.025109725 -0.06788177
000330 80 4b 52 bc cc ce 95 3c 89 b1 47 3d 02 72 c3 bd
       -0.012835383 0.018287085 0.048753295 -0.0954323
000340 3e 30 30 3d 84 08 6e bd e8 05 c8 bd c5 3a 9f bd
       0.043014757 -0.05811359 -0.097667515 -0.07774881
000350 8b f4 02 3e 6a 14 c2 3d 61 89 f4 3d 39 70 89 3d
       0.12788598 0.0947655 0.119402654 0.06710858
000360 dc 81 cf 3d 7f a4 48 bc 1b 0e 9e bd b7 66 4e 3d
       0.101321906 -0.01224625 -0.07717534 0.050390925
000370 b7 0f 6d bd ef 7c a5 bd 2b 2d 0b bd 13 05 18 3d
       -0.057876315 -0.0808047 -0.033978622 0.037114214
000380 27 d1 8c 3d 85 02 39 bd 5b 4d 88 bd 80 b8 a9 3c
       0.0687583 -0.04516842 -0.066553794 0.02071786
000390 b5 22 90 bd 64 7c bb bd 6a 72 8b 3d 65 c0 bd bc
       -0.0703787 -0.09154585 0.06808932 -0.02316303
0003a0 3c d5 f8 3d 20 8a fd 3d 0f fa 30 3d 14 72 24 3d
       0.12150046 0.12379861 0.043207224 0.040147856
0003b0 3d 46 8d 3c e1 13 7c 3a 75 84 1c bb c5 e6 22 bc
       0.017245406 0.00096159993 -0.0023882661 -0.009942715
0003c0 57 94 4a 3d b2 c6 dc 3d 13 cb bb bc ad 18 83 bd
       0.049457874 0.107800856 -0.022923982 -0.06401191
0003d0 c4 69 ce bc c5 0c 8c bd 90 b7 ea 3c 0c 44 c6 3d
       -0.025196917 -0.06838373 0.028651983 0.09680948
0003e0 e1 cd dd 3d 8b 74 46 3d 64 b7 c9 bd ff 19 9c bd
       0.10830284 0.048450988 -0.09849432 -0.07622146
0003f0 51 6e ed bc 71 43 92 bc 96 6d 3f 3c fa 1b f4 bd
       -0.028983267 -0.017854424 0.011683842 -0.119193986

node_encoder.layers.3.bias f4 [64]
000000 44 1e c6 35 ea c9 0e 3b 4c 41 87 b8 a3 ef aa bc
       1.4760958e-06 0.002178783 -6.449464e-05 -0.02086622
000010 0c 21 5b 39 ec 00 1e 3c ec 99 a5 bb 00 51 68 bc
       0.00020897778 0.0096437745 -0.0050537493 -0.014179468
000020 0a 79 8a bc f7 93 52 bb a8 4e 02 39 43 4b 88 37
       -0.016903419 -0.003213165 0.00012427068 1.624751e-05
000030 56 40 83 36 12 84 f7 38 20 34 43 3c 64 c0 09 b8
       3.911594e-06 0.00011802478 0.011914283 -3.2842523e-05
000040 f1 7f 12 bc ce bc f6 38 8f 1f 1b bc fc 03 13 3a
       -0.008941636 0.00011765362 -0.009467973 0.00056081987
000050 61 ac 2e bd 05 c7 c9 38 06 f7 d0 bc b6 ff 44 b9
       -0.042644862 9.621497e-05 -0.025508415 -0.00018787276
000060 1e 56 8d 3c e6 ef b8 bc d2 fa b2 bb 69 15 dd bc
       0.017252978 -0.02257533 -0.005462029 -0.026987748
000070 99 1b 1a b9 8b 7d 6a 39 85 6e 9d bb 14 98 2e 3c
       -0.00014696865 0.00022362747 -0.0048044347 0.010656375
000080 69 e9 ec 39 6d 85 1d bd 3d 88 18 38 37 c4 70 ba
       0.00045187332 -0.038457323 3.6366506e-05 -0.0009184512
000090 22 9a ae b8 3f 4b ef 3b a4 f5 d7 b6 16 15 94 bc
       -8.325676e-05 0.007302671 -6.4360956e-06 -0.01807646
0000a0 10 b3 9a 3c 76 11 22 bd 7e 1a 1e 3a 97 b1 4a b9
       0.018884212 -0.039567433 0.00060311693 -0.00019330379
0000b0 8a 2f 15 3d 2e a6 3a 3d 7a db 27 b9 81 be 21 ba
       0.03642229 0.045568638 -0.00016008122 -0.000617005
0000c0 9a bf 12 bd f2 f8 6d b9 2c 9f 0f 3a 90 6b aa b9
       -0.035827257 -0.0002269482 0.00054787355 -0.00032505067
0000d0 3e 2c 71 bc 94 2e 85 39 be de 9d 3b 8e 7d d4 3c
       -0.014720021 0.0002540244 0.0048178127 0.025938775
0000e0 0e 39 47 b8 ea d0 21 3d 09 65 2f bd c7 f6 a7 39
       -4.7498434e-05 0.039505877 -0.042820964 0.00032036586
0000f0 23 98 98 b9 e7 b2 02 b8 bb 6f 22 3b 54 a7 7c bc
       -0.0002910505 -3.116103e-05 0.0024785835 -0.0154207535

node_encoder.layers.4.weight f4 [64]
000000 06 90 7c 3f 13 2e 81 3f 3e cc 7e 3f a8 71 7f 3f
       0.9865726 1.0092186 0.995304 0.997828
000010 ae 7e 7f 3f 15 1f 80 3f 65 7e 80 3f 89 41 80 3f
       0.9980267 1.0009485 1.0038573 1.002
000020 d3 e5 7f 3f f5 bd 7e 3f 00 7f 7b 3f fb 18 81 3f
       0.9996006 0.995086 0.9824066 1.0085748
000030 a7 43 7e 3f 02 89 7e 3f 79 47 80 3f 37 89 7c 3f
       0.9932198 0.9942781 1.0021812 0.98646873
000040 a1 0f 80 3f 89 e6 80 3f 11 30 7d 3f 10 28 7f 3f
       1.000477 1.0070354 0.9890147 0.99670506
000050 c2 d1 80 3f 0b 10 81 3f 8b 1a 7f 3f 21 1c 81 3f
       1.0064013 1.0083021 0.99649876 1.0086709
000060 90 d3 81 3f 15 95 82 3f 7b 82 80 3f bb 0f 81 3f
       1.0142689 1.0201746 1.003982 1.0082926
000070 7e 9e 7b 3f 6f 18 7e 3f 13 0d 7d 3f fb 60 7a 3f
       0.98288715 0.9925603 0.98848075 0.9780423
000080 23 3f 80 3f c3 36 81 3f 4f 0a 81 3f 61 d3 80 3f
       1.0019268 1.0094837 1.0081271 1.0064508
000090 09 ab 7f 3f 80 a9 7d 3f ef b8 7e 3f 18 7c 82 3f
       0.99870354 0.9908676 0.99500936 1.019412
0000a0 1f 8c 7f 3f 14 4b 7f 3f 00 a2 7c 3f 45 e2 7e 3f
       0.9982318 0.99723935 0.9868469 0.9956401
0000b0 05 f2 80 3f 91 a2 81 3f ec 11 80 3f 9e 00 7f 3f
       1.0073858 1.0127736 1.0005469 0.99610317
0000c0 57 58 81 3f b3 2d 7e 3f 98 56 80 3f 80 0c 7e 3f
       1.0105084 0.9928848 1.0026426 0.99237823
0000d0 42 31 7e 3f cc ee 7f 3f a8 0a 7e 3f f8 fa 80 3f
       0.9929391 0.9997375 0.9923501 1.007659
0000e0 d5 ff 7d 3f 1d c7 80 3f 7c 63 7d 3f 02 a3 7f 3f
       0.99218494 1.0060765 0.98979926 0.99858105
0000f0 84 e5 80 3f 8f 74 7f 3f 72 30 7f 3f 9d 51 7f 3f
       1.0070043 0.9978723 0.99683297 0.99733907

node_encoder.layers.4.bias f4 [64]
000000 c0 f7 f4 bb c8 04 0a 3b f2 c6 76 bb a6 23 01 bb
       -0.007475823 0.0021059979 -0.0037655202 -0.0019705086
000010 40 09 22 bc ed 3f 24 3b 33 11 2b 3a 80 b4 13 bc
       -0.009889901 0.0025062517 0.0006525695 -0.0090152025
000020 f1 1d d9 3b 16 a4 7a 39 0d 82 ad bc 3a 7f ef 3b
       0.0066258837 0.00023902985 -0.021180177 0.0073088678
000030 da 9a 12 3c 97 0c 91 bb 29 27 b7 bb 13 b5 17 bc
       0.008948052 -0.0044265497 -0.005589385 -0.00925948
000040 6c aa e3 3b 4a 1f 98 b9 2f c9 ed 3b 2e 2e b9 3b
       0.006947806 -0.0002901501 0.007256649 0.005651257
000050 03 53 a7 3b 42 b4 9a 3c 04 e8 16 3a 21 da a2 3a
       0.0051063313 0.018884782 0.0005756619 0.0012424627
000060 b0 5e 3c 3c 0e 31 7b 3c 63 ff e8 3b 16 f9 74 bb
       0.011497185 0.01533152 0.0071105226 -0.0037379912
000070 aa b0 c4 bb d0 8b 8c bb 72 8f 6f bb 25 99 93 bc
       -0.0060025053 -0.004289128 -0.0036554006 -0.018017361
000080 64 d6 de ba f7 1f 16 3c 5b 93 4c 3b 6e d4 94 3b
       -0.0017001149 0.009162894 0.003121576 0.004541925
000090 54 3d ec bb eb 20 34 bc 1a e1 8b 3b a6 5a 36 3c
       -0.0072094593 -0.010994176 0.0042687776 0.011130011
0000a0 c5 c2 0c bc cd c8 26 3b 36 c2 4d 3b 04 5b 93 ba
       -0.008591359 0.0025449276 0.0031396276 -0.0011242335
0000b0 d7 71 bc bb 16 21 dc 3b 62 de c7 3b bb fd 87 3a
       -0.0057508755 0.0067178113 0.006099508 0.00103753
0000c0 4d 0d 01 3c 30 0f 98 3b 66 43 83 3c 90 d1 18 bc
       0.007876706 0.0046404824 0.016023349 -0.009327307
0000d0 00 21 4d bc c1 c4 1f 3c f6 15 42 bb 5f 68 23 3c
       -0.012520075 0.0097515 -0.002961514 0.0099736145
0000e0 c2 1a 13 bc c9 39 81 bc 3e f5 2d bc 3b e7 11 bc
       -0.0089785475 -0.015774624 -0.010617552 -0.008905227
0000f0 c4 34 0f 3c eb cb 19 bb 36 f7 3d 3c 3e 53 cd bb
       0.008740608 -0.0023467492 0.011594584 -0.0062660268

node_encoder.layers.4.running_mean f4 [64]
000000 c8 99 19 be 53 6f 8f be 57 3c e2 bd 5b 5b 15 3c
       -0.15000069 -0.2801462 -0.11046665 0.009116019
000010 6a 93 a8 3c 0d 6e c2 be 82 70 0b 3e 93 63 50 3d
       0.020578105 -0.37974587 0.13617137 0.05087621
000020 f4 1b 56 3d 89 10 3e 3e 48 5f 80 be f4 c7 3a be
       0.052272752 0.18560995 -0.25072694 -0.18240339
000030 04 85 b3 3c 08 b3 cd bd ea f1 8f 3e 3a 2d ab 3d
       0.021914013 -0.10043913 0.28114253 0.08358236
000040 b3 18 70 3d c5 90 f1 bd ad bc 2c be c3 52 83 3e
       0.058617305 -0.11795191 -0.16868849 0.2564908
000050 e3 06 11 3c bf e6 29 be cd 38 8e 3d a0 f8 3d 3e
       0.00885174 -0.16591929 0.06944428 0.18551874
000060 58 aa a5 3c f2 04 25 be 3f 7a f0 bc e3 f1 ea be
       0.020222828 -0.16115168 -0.029355166 -0.4588767
000070 0a b8 f1 3d 37 89 ea 3e bd bf 72 be f7 a5 e5 be
       0.11802681 0.45807812 -0.23705955 -0.44853184
000080 af 24 d9 bd 19 80 07 bf eb e7 32 3e 77 da 6b 3e
       -0.106027 -0.52929837 0.17471282 0.23032556
000090 c2 1c 8e 3e 25 8a b1 be 87 7a e8 3e 67 97 fc bd
       0.27756315 -0.34675708 0.4540598 -0.12333565
0000a0 fb 08 8b 3e e2 f1 12 be ff 9c f6 bd 81 96 ba 3d
       0.2715529 -0.14350083 -0.120416634 0.091107376
0000b0 50 ed c4 bc 21 b8 e0 3d 26 cc 3e 3e df 01 ca be
       -0.02403894 0.1097262 0.18632564 -0.39454553
0000c0 d4 1d f4 bd bb 61 bf bd 20 25 65 be bf c3 a5 be
       -0.11919752 -0.093448125 -0.22377443 -0.32375905
0000d0 4f fa a6 bd 79 a1 6e be dc 78 21 bd 3c 8d d2 3d
       -0.08153211 -0.23303784 -0.0394219 0.102808446
0000e0 06 95 4a be 6f 11 8e 3e 55 87 f0 3d e7 70 87 3e
       -0.1978341 0.27747676 0.117445625 0.26453325
0000f0 4c b8 f5 bc 57 e1 cc 3d 25 1f f1 3d 74 5b 17 3e
       -0.029995106 0.10003918 0.117735185 0.1478098

node_encoder.layers.4.running_var f4 [64]
000000 de da 06 3e fe 31 c1 3d b0 02 b6 3d 60 0d e9 3d
       0.13169429 0.094333634 0.08887231 0.11379504
000010 88 89 c3 3d c2 d1 13 3d e4 b5 82 3e 48 e4 3d 3e
       0.095477164 0.036088713 0.25529397 0.18544114
000020 5c 6c 4a 3e ba 94 b4 3d 0f d5 01 3d 4e 00 c0 3d
       0.19767898 0.0881743 0.03169733 0.09375058
000030 45 90 38 3e b9 75 3f 3e aa cc 2c 3d 94 bf 82 3d
       0.18023784 0.18697251 0.04218737 0.06384197
000040 50 9d ff 3d cb 27 08 3e 05 2a 4e 3d ac 26 6e 3d
       0.12481177 0.1329643 0.05033304 0.05814235
000050 f6 e0 ab 3d 37 46 74 3e 3f 92 64 3e 2d dd c3 3c
       0.08392517 0.2385491 0.22321413 0.023909176
000060 10 d6 07 3e 57 4a 23 3e c3 07 56 3e 2e f0 51 3d
       0.13265252 0.15946327 0.20901398 0.051254444
000070 d2 c2 1f 3d aa 38 01 3e bb 7d a2 3d 69 2c 64 3e
       0.039004155 0.12619272 0.079341374 0.22282566
000080 b9 20 69 3d d8 2f 84 3d 1a 72 96 3d 66 dc f5 3d
       0.056915972 0.06454438 0.07345982 0.12004928
000090 28 40 f8 3d 52 d7 bf 3e 73 13 46 3e f9 d1 6f 3d
       0.12121612 0.37468964 0.19343357 0.058549855
0000a0 fb 33 02 3e a3 f0 1e 3e fa e3 02 3e 4e f0 75 3e
       0.12715141 0.15521483 0.12782279 0.2401745
0000b0 7f 94 bf 3d 87 cd 16 3e 0f 85 02 3e a5 bb 2c 3e
       0.09354495 0.1472684 0.1274607 0.16868456
0000c0 7a fe f9 3d 25 85 be 3d b4 f6 c9 3d ca d5 03 3e
       0.12206741 0.09302739 0.09861508 0.12874523
0000d0 62 4e 55 3e de dc c4 3d 12 40 48 3e 95 fd 13 3e
       0.20830682 0.096124396 0.19555691 0.14452203
0000e0 ab a6 68 3e 6a b0 38 3d 49 49 06 3e ae 97 dc 3d
       0.22719829 0.045090117 0.13113894 0.10771118
0000f0 22 0a d7 3d a3 cc 4e 3e b0 5f 40 3e 12 78 18 3e
       0.104999796 0.2019525 0.18786502 0.14889553

node_encoder.layers.6.weight f4 [32, 64]
000000 d3 2b bd 3d eb b3 e4 bd 52 7c 9f bd 96 6e 74 bc
       0.092368744 -0.11167129 -0.07787384 -0.014918944
000010 ca e9 f5 bd 65 fe ed bd ce 88 df bd 50 25 cf 3d
       -0.12007482 -0.116207875 -0.10914765 0.10114539
000020 97 a4 8a 3c cd 22 2e bd a3 b1 41 bb 41 34 eb bd
       0.016924186 -0.042513657 -0.0029555343 -0.11484576
000030 ad f2 f4 bd b0 eb ba bd 1c 9c 04 be 25 5c a0 3d
       -0.11960349 -0.09126985 -0.12950176 0.07830075
000040 5d 7f 41 bd 4e 3a 23 bd d4 84 e6 bd a8 17 31 3c
       -0.047240604 -0.039850526 -0.11255804 0.010808863
000050 08 0a 87 bc eb 31 ba bd f0 0f 98 3d cb 49 ce 3d
       -0.016484275 -0.09091552 0.07424915 0.10072669
000060 a8 cb c9 bd 41 b5 9c 3d 44 4f 81 bc 94 ef 7e 3c
       -0.098532975 0.07651759 -0.015784867 0.01556005
000070 a1 0d 72 3d fc 01 f1 bc bc 57 cc 3d 39 0e 90 3d
       0.05909503 -0.029419892 0.099776715 0.07033963
000080 43 8b 9f bd f0 ca 88 bd 3e 23 07 be 2f d5 04 3d
       -0.07790234 -0.06679332 -0.13197038 0.03242987
000090 a7 f6 d8 bd ff 91 c6 bd 61 ee a9 bd 4a 49 02 be
       -0.1059392 -0.09695815 -0.0829742 -0.1272327
0000a0 d5 2e d9 bd c8 b6 e8 3d 02 45 97 3d 4c 0a d6 3d
       -0.106046356 0.11362988 0.07386209 0.10451183
0000b0 51 e3 7d bd 40 5c 4a bd 43 35 48 bd f7 d4 0a bc
       -0.061984364 -0.049404383 -0.04887892 -0.008473626
0000c0 0f 34 c6 bd 6b 53 6d 3c d7 a0 a6 bd b2 f8 10 3d
       -0.09677898 0.01448522 -0.081361465 0.035393424
0000d0 20 34 d9 3d 88 0f 3d 3c 0b 52 ae 3d eb 4e cd bd
       0.10605645 0.0115393475 0.08511742 -0.10024818
0000e0 50 b5 c6 bc cc 02 b9 bd 75 43 a5 bc bf b3 5e bd
       -0.024256378 -0.090337366 -0.020173768 -0.054370638
0000f0 39 04 9d bd 51 ff ef bd 8f 74 40 bd f4 39 97 3c
       -0.07666821 -0.117186196 -0.04698616 0.018460251
000100 a8 79 7e bc 0b e4 db bd c6 42 a2 3d 5c 0d aa 3d
       -0.015531935 -0.10736855 0.07922892 0.08303329
000110 b7 af 95 bd d5 58 81 3c c8 3e 9c 3d af cf fd bd
       -0.073089056 0.015789429 0.07629162 -0.12393128
000120 0e eb d3 bd e7 e4 86 3d d5 cb df 3b f3 d0 45 3d
       -0.103475675 0.065866284 0.0068297186 0.048294973
000130 69 29 6e bd b7 41 9a 3c fa ea 9b 3d bd 3f de bc
       -0.05814496 0.018830163 0.076131776 -0.027130002
000140 48 f3 3a bd 5b 3d 05 be 43 c2 91 bc e8 0f 9a 3d
       -0.045642167 -0.13011687 -0.017792827 0.07522565
000150 c1 a4 ff bd 0f 3d 85 bb b8 fe ac 3d 8e e5 89 bc
       -0.12482596 -0.0040661166 0.08447021 -0.016833093
000160 d1 12 53 bd f0 7b 40 bd 5a 50 4a bd d9 f6 19 3d
       -0.051531617 -0.046993196 -0.049393035 0.037588928
000170 d5 b6 de bd ac d9 29 3d 9c c5 82 bc ad 50 1e 39
       -0.10874716 0.041467354 -0.015963368 0.00015098108
000180 25 fb a8 bb 3e 2f 9f 3d b7 f1 a4 bd 58 5f 00 be
       -0.005156892 0.077726826 -0.08053916 -0.12536371
000190 93 5d ce bd bd fa ba bd eb 9c 87 bd 45 0b ec 3d
       -0.100764416 -0.09129856 -0.066217266 0.11525587
0001a0 89 49 b3 bd 03 0b 92 bd 3e 48 c9 bd 0b 54 83 bd
       -0.0875426 -0.071310066 -0.09828232 -0.06412514
0001b0 8c de 30 3b 9b d1 a8 bd bd 56 8a 39 36 b6 5e 3d
       0.0026988117 -0.08243104 0.00026386036 0.05437299
0001c0 85 b6 c8 bc b8 eb 59 3d 0a 0e 15 3d 26 13 fe 3d
       -0.024501095 0.053203315 0.03639034 0.12405996
0001d0 98 da 1a ba f2 4b d5 3d 5d f8 c4 3d f5 51 7b 3d
       -0.0005907207 0.10414876 0.09617684 0.061357457
0001e0 7e 50 ab 3d 47 27 be bd 0e d4 96 bd dc ab 3c 3d
       0.08364962 -0.09284835 -0.07364665 0.046062335
0001f0 f2 94 3f 3d a8 53 cc 3d ca bb 99 bc fe 7d ee bc
       0.046772905 0.09976894 -0.018766303 -0.029112812
000200 4b d0 a4 3d 71 47 9d 3c 80 f7 fd 3d 8e f3 6e bd
       0.08047541 0.019199105 0.124007225 -0.05833774
000210 17 2c 11 bd 43 dc 7b bb 89 3a 78 3d 45 0c e4 bd
       -0.035442438 -0.0038430847 0.0606027 -0.11135153
000220 6f f0 3d bd cc e6 c2 3d 76 af fd 3c 88 5c a5 3d
       -0.046371873 0.09516677 0.030967455 0.080742896
000230 4c 2a 37 bd ab a0 9f bd 76 8c b7 bd 9a 78 91 bd
       -0.04471807 -0.07794317 -0.08962338 -0.07103081
000240 27 0c bc bd 46 37 85 3d 5b 1e 3b 3d 8d 4d 96 bd
       -0.091820054 0.06504683 0.045683246 -0.073390104
000250 05 e2 f3 3d 9e c0 1b 3d b8 a9 23 3d eb 1f 68 bd
       0.11908344 0.03802549 0.03995678 -0.056671064
000260 9b f5 9f 3d fe e8 bd bd 37 d6 c6 3d 31 56 88 bd
       0.078105174 -0.09272955 0.09708827 -0.06657065
000270 d4 97 5b 3d 21 be 57 bd f4 67 a0 3d 48 f2 d5 bd
       0.05361159 -0.052671555 0.078323275 -0.10446602
000280 01 52 c7 bc 42 10 2e bd b4 79 aa bd d4 5a 68 bd
       -0.024331095 -0.042495973 -0.08323994 -0.056727245
000290 c0 58 32 bd 98 51 98 3b 80 ec ab 3d 10 b7 8b bc
       -0.04354167 0.0046483986 0.08394718 -0.017055064
0002a0 6c 88 ec 3d 3a a0 58 bd 2c f4 79 bd 04 08 13 bc
       0.11549458 -0.05288718 -0.061023876 -0.008974079
0002b0 60 65 98 bc 48 a2 29 3d 69 19 dc 3d cf ab 0d 3d
       -0.018603027 0.04141453 0.10747034 0.034587678
0002c0 ee 0c e0 bd 2e 58 3e bd 8d 66 cf bc 10 96 da bd
       -0.10939966 -0.046470813 -0.025317455 -0.106731534
0002d0 b8 10 41 3d 2e 5f d1 3d b4 88 7a 3d d9 3f d1 39
       0.047135085 0.10223232 0.061165527 0.00039911157
0002e0 a2 0d 80 bc ee 84 91 bd cd 66 88 bc 0f b3 e2 3d
       -0.0156315 -0.071054325 -0.016650582 0.11069309
0002f0 cf 5b 94 bd f7 03 b0 3c 53 98 ac bd 8d 2d f0 bc
       -0.072440736 0.021486266 -0.08427491 -0.029318595
000300 f6 21 9f 3c 33 00 c1 bd ca 55 19 3d 14 cf cf bd
       0.019425374 -0.09423866 0.03743533 -0.10146919
000310 43 ed 3c bd 1c d7 ba 3d 69 da 00 3e 00 16 f5 ba
       -0.046124708 0.0912306 0.12583317 -0.0018698573
000320 4e 58 bf bd 88 bc bd bd 8b fa e1 bc 95 6c 90 bd
       -0.09343015 -0.09264475 -0.027585289 -0.070519604
000330 4d 9d c3 3d 4c 59 b3 bd 1c 7d b3 3d eb b4 86 3c
       0.09551487 -0.087572664 0.08764097 0.01644369
000340 77 4e 25 bd 2f a1 db 3d 44 c8 84 3d 60 df 1a 3b
       -0.040358033 0.10724103 0.0648351 0.0023631677
000350 d6 fa 9b bd 36 85 41 bd ea 63 3b 3d eb e2 de 3d
       -0.076162025 -0.04724618 0.045749582 0.10883125
000360 92 bb 3d bd 6a 10 18 bd 36 e6 e9 bd 2b df a6 3d
       -0.04632146 -0.03712503 -0.114208624 0.08148035
000370 85 f9 fa 3d 3d d9 a1 3d b6 68 a2 bd cd 31 9a 3d
       0.12254623 0.07902763 -0.07930128 0.0752903
000380 dc cf 34 bd 95 f8 88 3d 38 75 8c 3d 9c da c3 bd
       -0.044143543 0.06688038 0.06858295 -0.09563181
000390 ba ce 08 3d 52 fc 5f 3d 60 08 86 bd 08 f1 ce 3d
       0.033400275 0.05468399 -0.06544566 0.10104567
0003a0 29 58 b9 3d d5 11 e8 3d ad ff c9 3b f5 02 8a bd
       0.09050018 0.11331526 0.006164512 -0.06738845
0003b0 85 51 81 bd 01 c0 51 3d 17 d5 e4 bc c3 df b8 3d
       -0.06314377 0.0512085 -0.02793364 0.09027054
0003c0 be b7 de 3d 93 ef 29 3c 09 21 e5 bd f6 39 3e 3d
       0.1087489 0.01037206 -0.111879416 0.046441995
0003d0 36 d2 e1 3d 6a 4d f1 bc 09 c0 96 bd 79 ce eb bc
       0.11026423 -0.02945586 -0.073608465 -0.028784977
0003e0 4e 69 3e 3c 4c f5 c7 bd c5 48 6f 3d 04 0c 6a 3d
       0.011621786 -0.097635835 0.058419008 0.057140365
0003f0 48 a0 14 bd 5b ee 13 bd e1 29 66 bd 28 16 da 3d
       -0.03628567 -0.036115985 -0.056192283 0.10648757

node_encoder.layers.6.bias f4 [32]
000000 f4 49 43 3c a1 a2 1b 3b 0b 6f f4 3b 3c 7b 86 b9
       0.011919487 0.0023748057 0.0074595264 -0.00025650288
000010 ff fe dd bc 84 b4 97 b5 dd 47 21 3d d0 38 0d 3d
       -0.02709913 -1.1302914e-06 0.039375175 0.03447801
000020 07 80 1b bc 7b 8d 8f 3c 42 1b d1 3a d2 b1 16 b9
       -0.009490973 0.017523518 0.0015953558 -0.00014371358
000030 88 d6 d7 3b 9d 46 06 b8 46 4f d6 b8 68 f4 70 bc
       0.0065868534 -3.2013853e-05 -0.00010219081 -0.0147067085
000040 86 5f e3 38 97 4e 3e 3d 54 30 42 3c 12 8f eb bc
       0.00010841996 0.046461668 0.011852343 -0.028754745
000050 77 36 37 38 8f ae 58 3c 89 81 5c ba 2c 1a f7 38
       4.3681324e-05 0.013225212 -0.0008411636 0.00011782753
000060 9d d9 7a 3b 52 07 03 3d d6 1d 1f 3d 84 a8 a8 bc
       0.003827668 0.031989403 0.038846813 -0.020588167
000070 bd 4c 2e bd f9 1f 9d 3c 95 87 35 b8 df 40 1d 3d
       -0.042553652 0.019180285 -4.3280033e-05 0.038391944

edge_encoder.layers.0.weight f4 [64, 4]
000000 61 41 b6 3e 1b ed 4b be 0a 3b 0a 3e 58 b3 22 3e
       0.35596755 -0.19914667 0.13499084 0.15888727
000010 8a cb 2b be aa 28 ea 3e e6 13 4b 3d 27 60 10 be
       -0.16776863 0.4573415 0.049579524 -0.14099179
000020 9f 79 e8 be 56 a2 cd 3e 20 b5 f9 be 1e 20 b2 3e
       -0.4540529 0.40162915 -0.48771 0.34790128
000030 57 7e 22 be 60 ab b3 bd ec 56 aa 3d ba f8 f4 3e
       -0.15868507 -0.087729216 0.0831736 0.47846013
000040 a3 22 9d be 52 88 ae be fa 91 a2 3e 31 50 54 be
       -0.30690488 -0.3408838 0.31751996 -0.20733716
000050 c0 a5 3b be 0a 00 8e 3e bf 57 5b be c2 41 8a 3e
       -0.18324947 0.27734405 -0.21420191 0.27003294
000060 09 85 50 be c2 40 c3 3e 0e 1d f9 3e 6f 5f 4b 3d
       -0.20363249 0.38135344 0.4865498 0.04965156
000070 08 43 1e be 7f 73 89 3e dc da 1a 3e ab f4 e7 3b
       -0.15455258 0.2684593 0.1512255 0.0070787272
000080 34 81 d4 3e 4d e0 87 bc e8 3d 48 3e 21 a9 f3 bd
       0.41504824 -0.016586447 0.19554865 -0.11897493
000090 4c 94 a8 bd ce be fa bc 10 6f 28 3d 22 53 67 3e
       -0.082314104 -0.03060856 0.041121542 0.22590306
0000a0 2b 54 c0 3e 5b 7b 91 3e a5 69 58 be 44 e6 ce 3e
       0.37564215 0.28414425 -0.2113405 0.40410054
0000b0 63 2a 9f 3e e9 ee 44 3e 77 ac 78 3d 84 90 81 be
       0.31087026 0.19231762 0.06071135 -0.2530557
0000c0 0b 7e 9e be 5a 04 8a 3c 93 49 b4 be 14 f8 18 3e
       -0.30955538 0.016847778 -0.35212383 0.14938384
0000d0 b8 9b e7 be fe c9 e2 be 9e bd 5f be fc 36 81 3e
       -0.4523599 -0.44294733 -0.21849677 0.25237262
0000e0 86 c0 cf 3e a6 14 d6 be 22 67 9b be b1 36 c8 3d
       0.4057657 -0.41812629 -0.30352122 0.097760566
0000f0 17 f0 a1 bd de 26 cd be 9d a6 15 3e 8c bd be be
       -0.07907122 -0.40068716 0.14614339 -0.37253988
000100 e7 ad cb 3b a7 8c 53 3e c2 89 e1 3e dd bb c9 be
       0.006215799 0.20659123 0.44050413 -0.3940114
000110 4b 56 b2 3e ca f5 88 3d 5a f6 e2 3e 88 2c e0 3e
       0.3483146 0.066875055 0.44328576 0.43783975
000120 96 71 d5 bd 2d da a6 bd 6e e1 04 be f0 e8 c0 3e
       -0.104220554 -0.081470825 -0.1297662 0.37677717
000130 b4 0b 5f be 08 83 a8 3e b9 eb 51 3e 02 9e e3 3e
       -0.21781808 0.3291247 0.20500077 0.44456488
000140 1d e3 b5 3e 7f c3 c4 3e 4d 5b ce be 7c 86 60 be
       0.35524836 0.38430402 -0.40304032 -0.21926302
000150 eb 6f b5 be 05 d9 6a 3e b1 c6 d8 3d ab 6d 40 3e
       -0.3543695 0.22934349 0.105847724 0.18791835
000160 b7 92 49 3e 5b 79 f9 3c 54 b1 38 3e b2 69 8a be
       0.19684874 0.030453375 0.18036395 -0.27033764
000170 71 98 a3 3e cf b1 de be 2e 05 e7 be 60 4b 0d 3e
       0.3195224 -0.43495032 -0.4512114 0.13798285
000180 ac ea ee 3e 6f 99 2b be db 7b ed 3e 3e 2c 22 be
       0.46663415 -0.16757749 0.46383557 -0.1583719
000190 0a ae be be 56 b4 a9 bd 4d ab 8e 3e 24 72 65 be
       -0.37242156 -0.082863495 0.27865067 -0.22406822
0001a0 16 45 ee 3e f9 b8 6c be 5c 27 60 be da ec 46 be
       0.46537083 -0.23117436 -0.21890014 -0.19426289
0001b0 a4 6c c5 be d9 cc e6 3e f9 38 91 be d6 bf 4e be
       -0.3855945 0.4507816 -0.2836378 -0.20190367
0001c0 e4 e7 0f be 24 2c ce 3e ce 9a 82 3e 62 b5 32 3e
       -0.14053303 0.40268052 0.25508732 0.17452005
0001d0 8a e3 0f be dd 9c 74 3e 78 26 b3 3d ee 5f c8 3e
       -0.14051643 0.23887964 0.08747572 0.3913569
0001e0 8b 7d ef 3d 72 78 bd 3e fd 9b a9 3e bb ac a7 3d
       0.11693867 0.37005955 0.33126822 0.081872426
0001f0 a3 76 f4 be 1d 6d e6 3d 8e ff b9 be ba 68 9a 3d
       -0.47746763 0.112512805 -0.36327785 0.07539506
000200 58 a2 40 bd de 83 c1 3e 77 51 bd be fd ba c2 be
       -0.047029823 0.3779592 -0.36976215 -0.38033286
000210 05 33 51 3e 40 bb b0 3e 7a 67 eb bd dd bf 02 3e
       0.20429619 0.3451786 -0.11494346 0.12768503
000220 50 34 cc 3e 78 6c 8e 3d d8 16 0e be 55 ab 8c 3e
       0.3988366 0.069542825 -0.13875902 0.27474466
000230 39 5a ea 3e d5 cd b8 bd 4a 8c a6 3e 0d 3b 1f 3b
       0.4577196 -0.09023634 0.32528907 0.0024296672
000240 e2 7a af bd 67 fe 5b bd 20 bc f1 be ea f0 58 3e
       -0.0856836 -0.053709414 -0.4721384 0.21185651
000250 06 60 87 be 85 ab dd be 11 aa 84 bd 54 54 34 be
       -0.26440448 -0.43294922 -0.0647775 -0.17610294
000260 59 a2 97 be e2 1c e4 bd 43 5f 6b bd f1 57 1b 3e
       -0.2961605 -0.111383215 -0.057463896 0.15170266
000270 65 7e 84 3d cc 6c 64 bd fa cd e4 3d f8 8c a9 be
       0.0646942 -0.05576782 0.111720994 -0.33115363
000280 30 74 dc 3e 5a 21 67 3e 96 6f 9d 3e 8e b4 cc be
       0.43057394 0.22571316 0.30749196 -0.39981502
000290 23 5d ad 3e 14 2d ab 3d 74 51 f1 be 74 75 e1 3e
       0.3386012 0.08358207 -0.47132456 0.44034922
0002a0 27 3c 27 bc 4f 96 dd 3d 00 3b c4 3e c4 1e a3 3e
       -0.0102072125 0.10819685 0.38326263 0.3185941
0002b0 e2 58 e1 3e 09 c8 eb be 62 e3 f5 3e 78 f4 d4 3d
       0.44013125 -0.46051052 0.48025042 0.10398191
0002c0 38 37 94 3c dc d6 ce be c4 92 7b be bb 9b e8 3e
       0.018092737 -0.403983 -0.24567705 0.45431313
0002d0 3a 48 c4 3e aa 7c c0 3e c0 46 0f bd 7c 1e 80 be
       0.38336354 0.3759511 -0.03497958 -0.25023258
0002e0 cd df df 3d e6 29 6b be 2c d8 a9 be e8 3c 1c 3e
       0.109313585 -0.22965202 -0.3317274 0.15257609
0002f0 e4 bc bf 3e b3 88 c5 be a4 90 e0 be 33 de 7f 3d
       0.374488 -0.38580856 -0.43860352 0.062467765
000300 41 d6 3d be 29 84 82 be 88 f3 cb bd a4 fb bd bc
       -0.18538763 -0.25491455 -0.09958559 -0.02319128
000310 f6 b9 14 be 47 9e b2 3e 1d 81 8d 3e 13 9c 09 3e
       -0.14524063 0.3488638 0.27637568 0.13438444
000320 b8 9a 22 be 93 f4 ec bc 51 4c a1 3e 8b 90 d9 3c
       -0.15879333 -0.028925216 0.31503537 0.026558181
000330 3f 83 f6 be aa d6 85 3d 07 79 84 3e eb ce f4 bd
       -0.48147008 0.065350845 0.25873587 -0.11953529
000340 f1 fc d7 bd af 6c 9f bd 65 15 93 3e 91 84 bc 3e
       -0.105462916 -0.077844016 0.2872726 0.3681989
000350 3f e7 c9 be f7 88 a5 3e 5a 01 4e 3e d9 f5 26 3e
       -0.3943424 0.32331058 0.20117703 0.16304721
000360 17 9a 96 be 8d b7 8d be e1 ae f5 3e 6b 68 d0 3d
       -0.29414436 -0.276791 0.47984985 0.10176166
000370 10 cf d9 bd 0f 65 c5 bd 3d 96 ac 3e 58 11 dd bd
       -0.10635197 -0.09638416 0.33708373 -0.10794324
000380 a2 30 ae 3e 11 a7 06 be 5d ca ee 3d 62 d9 db 3d
       0.3402148 -0.13149668 0.116596915 0.10734822
000390 8a 08 81 be 9f 79 88 3c 9b ae ca 3d ca e5 f4 be
       -0.25201827 0.016659556 0.098965846 -0.47831565
0003a0 8b a2 c0 bd f0 c0 f4 3c 5a bc d0 3e 1c 09 bc 3d
       -0.094060026 0.029877156 0.407687 0.09181425
0003b0 d9 0f d9 be 1c 00 20 be 55 d7 f6 3e 1b 8f af bd
       -0.42394903 -0.15625042 0.4821116 -0.08572217
0003c0 be e0 be 3e 62 36 32 3d 49 b8 a8 3e d0 04 45 be
       0.3728084 0.043508895 0.32953098 -0.19240117
0003d0 f8 27 f8 3e 06 7c d4 3d 81 ed dc bd ab 04 b1 3e
       0.48467994 0.10375218 -0.10787488 0.34573874
0003e0 9b 9f 78 3e 45 72 af be 03 6c c1 bc 5c 5e a7 3e
       0.24279635 -0.34266868 -0.023611074 0.32689178
0003f0 f1 98 f2 3d a5 77 18 be ab 7d ab be 34 22 ab be
       0.118455775 -0.14889391 -0.33494315 -0.33424532

edge_encoder.layers.0.bias f4 [64]
000000 d3 24 46 3e 45 a9 12 3e 6e 7e b6 be bb 3c f6 bc
       0.19349985 0.14322384 -0.35643333 -0.030058255
000010 74 42 4d 3d b9 25 b6 be f4 50 b0 3e 32 42 50 ba
       0.050112203 -0.35575655 0.34436762 -0.0007944434
000020 b1 c5 f7 bd 87 50 bc 3a 66 05 cc 3d 10 48 17 3d
       -0.120982535 0.0014367261 0.09961967 0.03693396
000030 5c 4c c6 3e 0e af 49 3e 6b f0 25 39 e6 75 8a 3c
       0.38730133 0.19695684 0.00015825189 0.016901921
000040 9f 1e 3a 3d 7f 60 ee bd b8 11 af be 34 c2 46 ba
       0.04543936 -0.11639499 -0.34193206 -0.0007582039
000050 81 0d df bd 61 5b c5 be ac 8a c7 3d 8d 6f 02 be
       -0.108912475 -0.3854628 0.097432464 -0.12737866
000060 2f 9b c8 3e a4 84 c8 3d 38 86 05 3e 80 b0 89 3d
       0.39180896 0.09790924 0.13039482 0.06723118
000070 2b ea e7 3d 23 8c 70 3e e8 16 90 3e d0 9f 80 b9
       0.11323961 0.23490958 0.28142476 -0.00024533132
000080 85 4b 82 bd 9c 85 6d 3d d3 05 12 be d4 61 85 b9
       -0.063620605 0.057988748 -0.14260034 -0.00025440624
000090 b9 2b 8a 3d 71 dc 0f 3e 02 1d cb be cc 32 e5 3d
       0.06746621 0.14048935 -0.3967057 0.11191329
0000a0 d6 29 e5 bd 3e 70 88 be 5c 87 05 be ae d7 a9 b8
       -0.1118962 -0.26648134 -0.13039917 -8.0987214e-05
0000b0 20 7d 26 3e c8 a2 b7 be 6e ca 6e 3d 33 44 ba 3e
       0.16258669 -0.3586638 0.05829852 0.36380157
0000c0 9d b2 4a be 0f 36 34 3d d8 a6 f3 bd 24 5e 40 3d
       -0.19794698 0.043996867 -0.11897057 0.04696478
0000d0 e7 0b 09 3e 14 54 64 be ea cc 34 3d 48 7c d0 3e
       0.13383447 -0.22297698 0.044140734 0.4071982
0000e0 f7 b5 98 b9 0e d2 89 be e7 98 f9 b6 c1 6a 14 3d
       -0.00029127274 -0.26918072 -7.4385785e-06 0.03623462
0000f0 bf 15 99 3d 3a 53 c1 39 db f5 09 bd 04 d9 28 be
       0.07474851 0.00036873837 -0.03368173 -0.16489035

edge_encoder.layers.1.weight f4 [64]
000000 96 e4 7b 3f 75 c2 79 3f 3c 0e 7d 3f ff c0 7f 3f
       0.9839567 0.9756234 0.98849845 0.99903864
000010 e0 af 7b 3f b7 74 7f 3f 0d 7e 7b 3f da 30 7f 3f
       0.9831524 0.9978747 0.98239213 0.99683917
000020 55 db 7e 3f 75 3e 7a 3f a2 05 80 3f 9a 68 7c 3f
       0.99553424 0.9775155 1.0001719 0.9859711
000030 09 b7 79 3f 9e fe 77 3f 6e a6 7c 3f fa 7f 7c 3f
       0.97544914 0.9687289 0.9869145 0.98632777
000040 e9 1e 7a 3f c1 89 7c 3f 2d 7d 79 3f 59 4d 7d 3f
       0.97703415 0.98647696 0.9745663 0.9894615
000050 39 56 7a 3f f1 b4 7a 3f 98 a8 7a 3f ac ca 7b 3f
       0.97787815 0.97932345 0.97913504 0.9835613
000060 1a ce 7b 3f c0 26 7d 3f f8 b9 79 3f a2 1a 7e 3f
       0.9836136 0.9888725 0.9754939 0.9925939
000070 d2 ce 7a 3f 7a 6c 7b 3f c3 03 7d 3f 32 50 7c 3f
       0.9797183 0.982124 0.98833865 0.9855987
000080 29 42 7f 3f 5a 91 7b 3f 66 39 7a 3f 5f e2 7c 3f
       0.9971033 0.98268664 0.97743833 0.98782915
000090 61 71 7c 3f a3 2c 7b 3f c0 93 7a 3f 7a 23 7c 3f
       0.986105 0.98114985 0.978817 0.9849163
0000a0 19 c6 7a 3f 4c 34 7c 3f 57 3f 7d 3f dc fa 7d 3f
       0.97958523 0.985173 0.98924774 0.99210906
0000b0 7d 6d 7e 3f c4 28 7c 3f 23 39 7f 3f b7 75 7b 3f
       0.99385816 0.98499703 0.9969656 0.98226494
0000c0 85 17 79 3f bc 4b 7b 3f 5c 48 7d 3f 24 5d 7a 3f
       0.9730151 0.98162436 0.98938537 0.9779837
0000d0 77 c7 77 3f ca 70 7d 3f 9d ab 7f 3f d2 f8 7d 3f
       0.96788734 0.9900023 0.99871236 0.99207795
0000e0 22 68 78 3f c6 f2 7f 3f 03 6d 7d 3f ad 55 7d 3f
       0.97033894 0.9997982 0.98994464 0.98958856
0000f0 b7 fc 7e 3f 5f fa 7f 3f d8 34 7a 3f 93 c9 7e 3f
       0.9960436 0.9999141 0.97736883 0.9952633

edge_encoder.layers.1.bias f4 [64]
000000 15 36 72 bb e5 0a 8f bb 2a 51 c5 bb 3d 1b b5 3b
       -0.0036958505 -0.0043653124 -0.0060216384 0.0055269287
000010 33 e8 e8 b9 7f 96 0c 3c 76 f2 20 bc a5 3a de 3b
       -0.0004442349 0.008580803 -0.009823432 0.0067818933
000020 23 45 57 3b 94 71 28 3b 5f b5 04 3c 09 26 1f bb
       0.0032847605 0.0025702463 0.008099883 -0.0024284145
000030 dd b3 ee bb f6 05 4b bc 2c 19 1b bc 1c 6e c1 bb
       -0.007284625 -0.012391558 -0.009466451 -0.0059030186
000040 c8 3a 7e bc 1a 08 ff bb 23 85 91 bc 4d d1 89 bb
       -0.015516944 -0.007782948 -0.01776368 -0.004205859
000050 82 d2 e3 bb 7f f0 51 bc 53 b2 e9 bb 20 8d b4 bb
       -0.0069525847 -0.012813686 -0.0071318536 -0.0055099875
000060 d3 d8 81 bb 9f 46 0d bb 76 5b 4a ba 78 63 94 3b
       -0.003962615 -0.0021556986 -0.0007719317 0.004528459
000070 0b 28 7e bb d6 ed e2 bb 53 30 9b bb 27 91 d4 bb
       -0.0038781192 -0.006925325 -0.0047359853 -0.00648703
000080 1f 64 53 3b 41 a0 9d bb 79 f0 3b bc 34 4e ff bb
       0.0032255722 -0.0048103635 -0.011470907 -0.007791305
000090 b6 75 1e bc 76 e5 93 bc 8b 16 24 bb 9f 99 2b bc
       -0.009671619 -0.018053751 -0.002503785 -0.010473638
0000a0 d7 1b e5 bb 56 d2 0d bb b6 33 9f bb e7 37 bb 3b
       -0.006991844 -0.0021640263 -0.0048584593 0.005713451
0000b0 56 51 58 3b dd cf 12 bc f6 11 73 3b 0f 5a e7 bb
       0.0033007464 -0.008960691 0.0037089563 -0.0070602964
0000c0 b2 b6 61 bc ae 6e 30 bc 8e 2e 12 bb 98 ba 44 bc
       -0.013776468 -0.010768576 -0.002230558 -0.012007378
0000d0 8d e0 98 bc 66 c4 ad bb 09 cb 07 3c 84 2c 70 bb
       -0.018661762 -0.0053029535 0.008288153 -0.0036647627
0000e0 13 20 02 bc 77 97 49 3c aa 4f 56 bb 45 00 50 39
       -0.007942217 0.012304178 -0.0032701292 0.00019836526
0000f0 5c a1 eb 3a 25 1a d2 3b b5 99 42 bc b8 43 92 39
       0.0017977166 0.006411808 -0.011877467 0.00027897744
