gnn/gnn_outputs/checkpoint_epoch_70.pt (torch, 971996 bytes, 208 tensors)

node_encoder.layers.0.weight f4 [64, 3]
0	0x3ee4e125	0.44703022
1	0x3ef2313f	0.47303197
2	0xbe0ff230	-0.14057231
3	0x3f09ad60	0.53780174
4	0xbdfb10ba	-0.1225905
5	0x3dd74cd6	0.10512702
6	0xbe89a123	-0.2688075
7	0x3eb31622	0.34977823
8	0x3f03f150	0.5154009
9	0xbed30d50	-0.41221094
10	0x3f03adb1	0.5143691
11	0x3dbf4376	0.09339039
12	0x3edcf41b	0.43154988
13	0x3d902fc1	0.07040358
14	0x3e8c36b3	0.27385482
15	0xbdb7d108	-0.089754164
16	0x3edf7205	0.43641677
17	0x3dbf4ed3	0.093412064
18	0xbe90ab9c	-0.28255928
19	0x3e1bceb5	0.15215571
20	0xbe7be0af	-0.24597429
21	0xbd8483d4	-0.06470457
22	0xbe69d7de	-0.22836253
23	0x3ec7120b	0.38880953
24	0xbeed57f7	-0.46356174
25	0xbe829641	-0.2550526
26	0xbe2632af	-0.16230272
27	0xbeac00ce	-0.33594364
28	0x3d6946a7	0.056952145
29	0xbf14a6ea	-0.5806719
30	0x3f049e6c	0.5180423
31	0xbefb2cbd	-0.4905757
32	0x3ee66135	0.44996038
33	0x3dcbc9e7	0.09950619
34	0xbe33f690	-0.17574525
35	0x3eba6b11	0.3640981
36	0x3db2e432	0.08734931
37	0x3ef0b222	0.47010905
38	0x3d726adf	0.05918395
39	0xbe3b4580	-0.18288231
40	0x3e1c9206	0.15290079
41	0xbe25b05b	-0.16180556
42	0x3e7739eb	0.24143188
43	0x3efc2e4e	0.49254078
44	0x3eb34754	0.35015357
45	0xbe703abb	-0.23459904
46	0x3eb0ea3e	0.34553713
47	0x3dd2b98f	0.10289299
48	0x3e96db27	0.29464075
49	0xbeb0492c	-0.34430826
50	0xbf148253	-0.5801136
51	0xbe612246	-0.2198573
52	0xbeeb3e37	-0.45945904
53	0x3eec75c0	0.46183586
54	0x3e25a87d	0.16177554
55	0x3e73e7ee	0.23818943
56	0x3e471773	0.19442539
57	0xbc782152	-0.015144663
58	0x3eec0e4d	0.4610466
59	0xbecd1e43	-0.4006215
60	0x3cf9e20e	0.0305033
61	0xbeccf67e	-0.4003181
62	0x3e300826	0.17190608
63	0xbe499794	-0.19686729
64	0x3e338174	0.17529851
65	0xbdfab1aa	-0.12240918
66	0x3ef55712	0.47917992
67	0xbeb24044	-0.34814656
68	0xbeae73ba	-0.34072667
69	0xbeb6a19c	-0.35670173
70	0x3f019275	0.506141
71	0x3e40d4bd	0.18831153
72	0x3f0d08e5	0.55091697
73	0xbef2c93e	-0.4741916
74	0xbf13b813	-0.5770275
75	0xbee6ec1a	-0.45102006
76	0xbecad589	-0.3961604
77	0x3e628e64	0.2212463
78	0x3e4e8b06	0.2017022
79	0x3ef9e48d	0.48807183
80	0xbe948828	-0.2901013
81	0xbec11171	-0.3770862
82	0x3ea3a5d7	0.31962463
83	0xbe6af629	-0.22945465
84	0x3eb2f1e9	0.34950188
85	0xbe153667	-0.14571534
86	0x3ea610f6	0.32434815
87	0xbef01560	-0.46891308
88	0xbe8fbc94	-0.2807356
89	0x3e363ad4	0.17795879
90	0x3dfe635a	0.124212936
91	0xbe0fe071	-0.14050461
92	0x3eb34b18	0.3501823
93	0x3ec545e0	0.38529873
94	0xbed9e8fb	-0.42560562
95	0xbe9bd7bb	-0.30438027
96	0x3f076db4	0.5290177
97	0xbe5273a0	-0.2055192
98	0xbe4c51b6	-0.19953045
99	0xbf0d3ce0	-0.5517101
100	0xbeac7272	-0.33681065
101	0x3e113156	0.14178976
102	0xbdb1355e	-0.08652757
103	0xbed11904	-0.40839398
104	0x3b67f596	0.0035394183
105	0xbecbc787	-0.39800665
106	0xbf0370d8	-0.5134406
107	0xbe9a4cca	-0.3013671
108	0xbf022e30	-0.50851727
109	0xbebb12f7	-0.36537907
110	0x3f12d9e1	0.57363707
111	0x3de1743e	0.110084996
112	0x3e42da6c	0.19028634
113	0xbf06310e	-0.524186
114	0xbec1028c	-0.37697256
115	0xbe4448e3	-0.19168429
116	0x3dbd0ef4	0.09231368
117	0xbf00197f	-0.50038904
118	0xbe7d779b	-0.24752657
119	0xbeb51fad	-0.3537573
120	0x3c06bfd9	0.008224451
121	0xbe63ce6d	-0.22246714
122	0xbd08aad9	-0.033366058
123	0xbed03c12	-0.4067083
124	0xbecc4342	-0.39895064
125	0xbea6989f	-0.32538316
126	0xbe4fc4a4	-0.20289856
127	0xbeead235	-0.458635
128	0x3ef5ac83	0.47983178
129	0xbde3264c	-0.11091289
130	0x3ef80a77	0.48445484
131	0x3e461122	0.19342473
132	0xbef95207	-0.48695394
133	0x3ed24336	0.41066903
134	0xbe200ad9	-0.15629138
135	0xbe67e87f	-0.22647284
136	0xbef566d4	-0.47930014
137	0xbf124c0f	-0.57147306
138	0x3e327a48	0.17429459
139	0xbdfa6468	-0.12226182
140	0x3e55db27	0.20884381
141	0xbef158c8	-0.47138047
142	0x3eda4a12	0.42634636
143	0xbeda27b1	-0.42608407
144	0xbdcf8796	-0.10133283
145	0x3dea522d	0.11441455
146	0x3e9d8a91	0.3076978
147	0x3ef718fe	0.48261255
148	0x3f066bec	0.52508426
149	0xbee2fe6b	-0.4433473
150	0x3e1227e9	0.14273037
151	0xbe85f15e	-0.2616071
152	0xbd5d8399	-0.05408058
153	0xbedfc6c4	-0.43706334
154	0x3f04d7a9	0.5189157
155	0xbedc36a9	-0.43010452
156	0x3ea1155e	0.31461614
157	0x3e4478f4	0.19186765
158	0x3e42a6d7	0.19008957
159	0xbe9cde7d	-0.30638495
160	0x3f07a2fc	0.5298307
161	0x3e009b97	0.12559353
162	0x3d9bf06b	0.076142155
163	0xbf03d6c8	-0.51499605
164	0x3e70621e	0.23474929
165	0xbda60e0e	-0.081081495
166	0xbe85eec1	-0.26158717
167	0x3eff67d7	0.4988391
168	0x3e09c1ab	0.13452785
169	0xbea2c367	-0.31789705
170	0xbe943b3e	-0.28951448
171	0xbd129a7e	-0.035791866
172	0x3ea37f0c	0.31932867
173	0xbe195423	-0.14973502
174	0xbea33fc9	-0.31884602
175	0xbe4fe3e3	-0.20301776
176	0xbee37a42	-0.44429213
177	0x3e4540c2	0.19262984
178	0x3ede75fb	0.43449387
179	0xbf0eb8d5	-0.5575078
180	0x3e191728	0.1495024
181	0x3e9120c3	0.28345308
182	0x3de84122	0.11340548
183	0xbe5855a4	-0.2112642
184	0x3e976d3e	0.29575533
185	0x3e9e00e7	0.30860063
186	0x3e5f6869	0.21817173
187	0xbdcb6895	-0.09932057
188	0xbe1ac353	-0.15113573
189	0x3d89a0e5	0.06720141
190	0xbdc2225c	-0.0947921
191	0xbe37e3be	-0.1795797

node_encoder.layers.0.bias f4 [64]
0	0x3e9a4304	0.30129254
1	0x3edb0ed0	0.4278474
2	0xbbd1dade	-0.006404265
3	0xbd880cd4	-0.06643072
4	0xb81938be	-3.6530888e-05
5	0x3a8ee629	0.0010902333
6	0x3d9a5e67	0.07537537
7	0x3dc7512e	0.09732281
8	0xbee970cf	-0.4559388
9	0xbe16b35f	-0.14716862
10	0x3ed5f51c	0.41788566
11	0x3e228367	0.15870439
12	0x3a3897ca	0.00070416613
13	0xbe8f9919	-0.28046492
14	0xbe923709	-0.28557613
15	0xbee5c104	-0.44873822
16	0xbdfba380	-0.122870445
17	0x3e049158	0.12946069
18	0x3e99d645	0.30046287
19	0x3e4c8b5d	0.19975038
20	0xbee244f3	-0.4419323
21	0xbe8f29d5	-0.27961603
22	0xbd02cefc	-0.031935677
23	0x3efaddec	0.48997438
24	0x3cd17c32	0.025571916
25	0xbdaf2f89	-0.085539885
26	0x3e3093a4	0.1724382
27	0xbe1d8031	-0.15380932
28	0xbe9ca0ba	-0.30591375
29	0x3eb4eac7	0.3533537
30	0xbe487506	-0.19575891
31	0xbd5c8e18	-0.05384645
32	0xbf017a17	-0.5057692
33	0x3ea31885	0.31854644
34	0x3ebd1415	0.36929384
35	0x3e14025b	0.14454024
36	0xbeab52ae	-0.33461517
37	0xbf004ff8	-0.5012202
38	0xbecd24ae	-0.40067047
39	0x3eb990fc	0.36243427
40	0x3e57441e	0.21022078
41	0x3ed5c5d5	0.41752496
42	0x3e70e0a4	0.23523194
43	0x3da894e5	0.082315244
44	0xb832d41c	-4.263605e-05
45	0xbebdedd0	-0.370955
46	0xbeda40e9	-0.42627648
47	0xbef16c6d	-0.47153035
48	0x3e2e0dac	0.16997403
49	0xbe5da1f4	-0.21643811
50	0xbd5dfcfd	-0.054196347
51	0xbe878fde	-0.2647695
52	0xbd35978d	-0.044333983
53	0xbead411e	-0.33838743
54	0xbe9e7298	-0.30946803
55	0x3e011cd3	0.12608652
56	0xbddab3bc	-0.10678813
57	0x3e93d820	0.28875828
58	0xbdf5bee9	-0.11999304
59	0xbeb5fe7a	-0.35545713
60	0xbd292ddf	-0.04130351
61	0xbe59ffb3	-0.21288948
62	0xbde4ca4c	-0.111713976
63	0xbef66084	-0.4812051

node_encoder.layers.1.weight f4 [64]
0	0x3f810e85	1.0082556
1	0x3f7f31fa	0.99685633
2	0x3f7dcfee	0.991454
3	0x3f8015fd	1.000671
4	0x3f7e2108	0.9926915
5	0x3f80aefa	1.0053399
6	0x3f7b09a4	0.98061585
7	0x3f809353	1.004496
8	0x3f7ea2f3	0.9946739
9	0x3f7e1e3b	0.9926488
10	0x3f7f7668	0.9979005
11	0x3f806eec	1.0033851
12	0x3f802a3b	1.0012888
13	0x3f82390b	1.0173658
14	0x3f7d8ea6	0.9904579
15	0x3f7fd85b	0.9993951
16	0x3f7b9f01	0.98289496
17	0x3f7e603f	0.9936561
18	0x3f7cbbe1	0.9872418
19	0x3f8029e2	1.0012782
20	0x3f80aefc	1.0053401
21	0x3f7d1fc5	0.988766
22	0x3f807dab	1.0038351
23	0x3f7e8299	0.99418026
24	0x3f80c2c4	1.0059438
25	0x3f814059	1.0097762
26	0x3f802169	1.0010196
27	0x3f8214d1	1.0162603
28	0x3f7e7468	0.9939637
29	0x3f80819a	1.0039551
30	0x3f803074	1.0014787
31	0x3f80d99d	1.006641
32	0x3f7f9d3d	0.998493
33	0x3f80b524	1.005528
34	0x3f81b6b2	1.0133879
35	0x3f807ba3	1.0037731
36	0x3f814030	1.0097713
37	0x3f810506	1.0079658
38	0x3f7ef952	0.9959918
39	0x3f7e4ad9	0.9933296
40	0x3f809dce	1.0048158
41	0x3f7f7a76	0.99796236
42	0x3f80a495	1.0050226
43	0x3f7fc527	0.99910206
44	0x3f7f9188	0.9983144
45	0x3f7de392	0.9917537
46	0x3f80a178	1.0049276
47	0x3f80b20b	1.0054334
48	0x3f7f04cc	0.99616694
49	0x3f7e4d9c	0.9933717
50	0x3f81e12a	1.014684
51	0x3f81cba3	1.014027
52	0x3f7c98ee	0.9867085
53	0x3f8042ea	1.002042
54	0x3f7e2901	0.99281317
55	0x3f7e425b	0.9932
56	0x3f7c10ab	0.98462933
57	0x3f7f0b7b	0.9962689
58	0x3f7daa4a	0.99087965
59	0x3f80a232	1.0049498
60	0x3f7dc88b	0.9913413
61	0x3f7ccab8	0.98746824
62	0x3f7d24c6	0.98884237
63	0x3f7c49c0	0.98550034

node_encoder.layers.1.bias f4 [64]
0	0x3ac4fb65	0.0015028535
1	0xbb929dec	-0.004474392
2	0xbc0598ee	-0.008154137
3	0x3c862c74	0.016378619
4	0xbc8a7872	-0.016903136
5	0x3c130652	0.008973675
6	0xbcd7662f	-0.026293842
7	0x3bd21ba0	0.0064119846
8	0xbcbc4f13	-0.022986924
9	0xbb9ea1b3	-0.0048410534
10	0x3bd013b4	0.006350005
11	0xbb8e841a	-0.004349244
12	0x3b398d33	0.002831292
13	0x3b28e961	0.002577387
14	0xbb523b68	-0.0032078866
15	0x3be733b3	0.0070557236
16	0xbba75baf	-0.005107365
17	0x3a79aaf9	0.0009524073
18	0xbc149798	-0.009069346
19	0xbb7f53e4	-0.0038959915
20	0xbc0697c6	-0.008214897
21	0xbbf2f7ce	-0.0074147945
22	0x3a8da648	0.0010807002
23	0x3b19eb96	0.0023486367
24	0xb987b397	-0.0002588301
25	0xbbe98cda	-0.0071273865
26	0x3c9a0f28	0.018806055
27	0x3c5d7250	0.013516024
28	0xbc1b5460	-0.009480566
29	0xbba06f2b	-0.0048960648
30	0x3bb03c70	0.0053782985
31	0x3b4bfb75	0.0031125222
32	0xbb3d5405	-0.002888919
33	0xbc320819	-0.010866188
34	0xbb188cb4	-0.0023277225
35	0xbb13ec8f	-0.002257142
36	0x3c0dfe55	0.0086665945
37	0x3c132d40	0.008982956
38	0xbbc52e23	-0.006017463
39	0xba750755	-0.0009347101
40	0x3bf07f1b	0.007339371
41	0xbc578815	-0.013155003
42	0xbbaed714	-0.005335698
43	0x3c0656d8	0.008199416
44	0x3bc191c8	0.005907271
45	0x3b33a7b0	0.0027413182
46	0xba8a3d90	-0.0010546912
47	0xbc1e8113	-0.009674328
48	0x3b3ef317	0.0029136592
49	0xbba10528	-0.0049139448
50	0x3c1e3813	0.009656924
51	0x3cb3fa81	0.021970036
52	0x3b4ad9bc	0.0030952534
53	0x3bcb169f	0.006197765
54	0xbc264afd	-0.010149715
55	0xbce20468	-0.027589992
56	0xbc14b3e6	-0.009076094
57	0xbbade327	-0.0053066197
58	0xbc2d9ff7	-0.010597221
59	0x3c17ab66	0.009257173
60	0xbbca6e55	-0.0061777034
61	0x3c103c1f	0.0088033965
62	0x390f1e33	0.00013648793
63	0xbc613dcb	-0.013747643

node_encoder.layers.1.running_mean f4 [64]
0	0x3f425d9a	0.75924075
1	0x3f316b8d	0.69304734
2	0x3eaa76a7	0.3329365
3	0x3da2adf6	0.07943337
4	0x3ed28464	0.4111663
5	0x3e8ae059	0.2712429
6	0xbdd1a5a8	-0.102366745
7	0x3e029e0a	0.127556
8	0xbf71ddcb	-0.94479054
9	0xbf17a3d5	-0.5923436
10	0x3f1fae9f	0.62375826
11	0x3e96d714	0.29460967
12	0x3ebc2893	0.36749706
13	0xbebd7554	-0.37003577
14	0x3ea49766	0.32146758
15	0xbe9ebb9a	-0.31002504
16	0xbef81468	-0.4845307
17	0xbcd7bdb1	-0.02633557
18	0x3f230e13	0.6369335
19	0x3e8c06f3	0.27349052
20	0xbf16aaf5	-0.5885461
21	0xbeaf6114	-0.34253752
22	0xbe3294be	-0.17439553
23	0x3f3793ad	0.7170971
24	0xbe8bf109	-0.27332333
25	0xbee93261	-0.4554625
26	0x3edde614	0.43339598
27	0xbe8e2456	-0.27762097
28	0xbd4922f4	-0.0491056
29	0x3cfaa28b	0.030595085
30	0xbd25a1be	-0.040437452
31	0xbe8caa46	-0.27473658
32	0xbeecfc28	-0.4628613
33	0xbdce7f19	-0.10082836
34	0x3da03fa3	0.07824638
35	0xbf0840fe	-0.5322417
36	0xbf08fa3f	-0.53506845
37	0xbf1a13e0	-0.60186577
38	0xbf2c6f5b	-0.67357415
39	0xbe6c8280	-0.23096657
40	0x3d8417d8	0.0644986
41	0xbe5252eb	-0.20539443
42	0x3dc94aae	0.09828697
43	0x3eda66c5	0.42656532
44	0xbda9ca39	-0.08290524
45	0xbf8ae3fc	-1.0850825
46	0xbe9cf841	-0.30658153
47	0xbf2e3078	-0.6804271
48	0x3eb373b0	0.350492
49	0x3e01df0f	0.12682746
50	0xbe3048b4	-0.17215234
51	0xbecd07c1	-0.40044978
52	0x3eaaf6bc	0.33391368
53	0xbde55c9f	-0.11199307
54	0xbef0dfd2	-0.4704576
55	0x3e3c6216	0.18396792
56	0xbec5c001	-0.3862305
57	0x3ec9c5c1	0.39408687
58	0xbf255f9a	-0.64599
59	0xbe8eb303	-0.2787095
60	0x3e88d2f7	0.26723453
61	0x3c620c9d	0.013796953
62	0xbe101988	-0.1407224
63	0xbf1a022b	-0.6015956

node_encoder.layers.1.running_var f4 [64]
0	0x3d2ec745	0.042670507
1	0x3cba87f8	0.022769913
2	0x3d373c8a	0.04473547
3	0x3d0ab1bc	0.033860907
4	0x3cbf5dfa	0.023360241
5	0x3c98d977	0.018658383
6	0x3c5cb491	0.013470785
7	0x3caf9ea7	0.021437956
8	0x3ce5bed9	0.028045105
9	0x3d368980	0.044564724
10	0x3d6a7586	0.057240985
11	0x3c8ce7a7	0.017200304
12	0x3cb9be5b	0.022673776
13	0x3bdc585b	0.0067244
14	0x3d346904	0.044045463
15	0x3c7263d8	0.014794312
16	0x3d59a33c	0.053134188
17	0x3d434847	0.04767635
18	0x3c4caf83	0.012493017
19	0x3d13781d	0.03600322
20	0x3c8f9802	0.017528538
21	0x3bd3e62d	0.006466648
22	0x3d1c9b20	0.038233876
23	0x3d0a71dc	0.03379999
24	0x3d9b7837	0.075912885
25	0x3d1fde1e	0.039030187
26	0x3d1324d7	0.035923805
27	0x3cb9b108	0.022667423
28	0x3cac6f38	0.021049127
29	0x3cf7b5b6	0.030238014
30	0x3c7f4432	0.015580224
31	0x3d1059de	0.035241954
32	0x3cdee9d0	0.0272111
33	0x3d233b9b	0.039851766
34	0x3c8ad16b	0.016945561
35	0x3d548b51	0.051890675
36	0x3d9180c7	0.071046405
37	0x3d0ba867	0.034096148
38	0x3c88e633	0.01671133
39	0x3d29a432	0.041416354
40	0x3b9b60cd	0.004741764
41	0x3d30fc31	0.04320926
42	0x3d475b9c	0.04867135
43	0x3cd6a7cd	0.02620306
44	0x3cff78cc	0.03118553
45	0x3d849945	0.06474546
46	0x3bfe3ab8	0.0077584647
47	0x3d42884e	0.04749327
48	0x3c488d0e	0.012240661
49	0x3d8e01c1	0.06933928
50	0x3bf46fd8	0.007459622
51	0x3d586d8b	0.052838843
52	0x3c8638f9	0.016384589
53	0x3d01997e	0.031640522
54	0x3cf1cb5a	0.02951591
55	0x3d09d026	0.03364577
56	0x3c9fb331	0.019494625
57	0x3c3c3efd	0.011489627
58	0x3d0eaf19	0.034834955
59	0x3d6049f0	0.054758012
60	0x3c40432d	0.011734766
61	0x3cac38e4	0.021023221
62	0x3bd8a676	0.0066116406
63	0x3b983355	0.004644791

node_encoder.layers.3.weight f4 [64, 64]
0	0x3d7620f2	0.060090013
1	0xbd9cd482	-0.0765772
2	0x3d562d95	0.052289564
3	0x3d4c2312	0.049838133
4	0x3da6a4df	0.081369154
5	0xbdd0ef7c	-0.10201928
6	0x3da664ff	0.08124732
7	0xbd8c5be3	-0.068534635
8	0x3d2f99f1	0.04287142
9	0x3dedcc6c	0.11611256
10	0xbbeebc69	-0.007285644
11	0xbbf66a26	-0.007519978
12	0xbd13b2bd	-0.03605913
13	0xbde394e7	-0.11112385
14	0x3d4f8f97	0.050674047
15	0xbe064c91	-0.13115145
16	0x3db3e53b	0.087839566
17	0x3da95780	0.082686424
18	0x3dde2fb0	0.108489394
19	0xbd063788	-0.032767802
20	0xbdbb7f4c	-0.09155139
21	0x3cac6184	0.021042593
22	0x3da4cf4c	0.08047351
23	0xbe06de50	-0.13170743
24	0xbc8e0d0c	-0.017340206
25	0xbdaaf933	-0.08348312
26	0xbc899832	-0.016796205
27	0xbd8ce04e	-0.0687872
28	0xbd5fb956	-0.05462011
29	0xbd479436	-0.04872533
30	0xbe01232f	-0.12611078
31	0x3de9113c	0.1138024
32	0x3defba6b	0.11705478
33	0xbce770bd	-0.028252
34	0xbbc349dd	-0.005959733
35	0xbd44c2d9	-0.048037384
36	0xbe0793c9	-0.1323997
37	0xbde7dd01	-0.1132145
38	0x3d198c55	0.037487347
39	0xbd9113d7	-0.07083862
40	0xbd90036c	-0.07031903
41	0xbbfaa13c	-0.007648615
42	0xbd507404	-0.05089189
43	0xbd413e11	-0.04717833
44	0xbb30e608	-0.0026992578
45	0xbca39e81	-0.019973041
46	0xbd33d7ba	-0.043906905
47	0xbd8820d4	-0.066468865
48	0xbde737b6	-0.11289923
49	0x3dce1fcf	0.10064661
50	0xbd1ce40d	-0.038303424
51	0x3ce37fca	0.027770896
52	0xbd5acfbc	-0.053420767
53	0x3b6a0fad	0.003571491
54	0x3e03137e	0.12800404
55	0x3d40897f	0.047006126
56	0xbdc8d969	-0.09807093
57	0x3d3912df	0.045184013
58	0x3df6ff1a	0.120603755
59	0x3d05fdaa	0.032712616
60	0x3d984b7a	0.07436271
61	0x3de892b0	0.113561034
62	0xbbf6b263	-0.0075285896
63	0x3d12a820	0.035804868
64	0xbdcc31ba	-0.09970422
65	0xbc99cbe2	-0.018773977
66	0x3dcfeb69	0.10152323
67	0x3d80e34b	0.06293353
68	0xbd8cbb93	-0.068717144
69	0xbdc4437b	-0.095831834
70	0xbdc3511e	-0.09536956
71	0xbddfdd3a	-0.109308675
72	0xbdc5c3e5	-0.096565045
73	0xbd17f770	-0.03710121
74	0x3dbd7023	0.09249904
75	0x3d078751	0.033088032
76	0xbdc6c88d	-0.09706221
77	0xbde5bf6e	-0.11218153
78	0x3d940b2c	0.07228693
79	0xbdb776dc	-0.089582175
80	0xbc0b24f7	-0.0084927
81	0x3d93de50	0.07220137
82	0xbd3d686f	-0.046242174
83	0xbcc6f6ab	-0.024287542
84	0xba99d25b	-0.0011735664
85	0xbd2fb874	-0.042900518
86	0xbd5ff118	-0.054673284
87	0xbdd9952b	-0.10624155
88	0xbdbd8c46	-0.09255271
89	0xbd82a6aa	-0.06379445
90	0x3de0298a	0.10945423
91	0xbd96d427	-0.073646836
92	0xbd995b48	-0.07488114
93	0x3d03a563	0.032140147
94	0x3d3f3a3b	0.046686392
95	0x3d9e6752	0.077345505
96	0x3dd1c977	0.102435045
97	0x3d8f3026	0.069916055
98	0xbdeb8c23	-0.11501338
99	0x3c86676d	0.01640674
100	0x3db55e1f	0.08855843
101	0xbca7cda3	-0.020483797
102	0xbd9724f6	-0.073800966
103	0x3df4e1e3	0.11957147
104	0xbd1a5034	-0.037674144
105	0xbd8937f7	-0.067001276
106	0xbdcd9f03	-0.10040095
107	0x3c594831	0.013261841
108	0x3d28d0ad	0.041214634
109	0x3d047c7a	0.032345273
110	0x3d0ceb43	0.03440405
111	0xbddaf750	-0.10691702
112	0xbdcffb87	-0.10155397
113	0xbc1a7997	-0.009428403
114	0x3dfc4e68	0.12319642
115	0x3d740ce9	0.059582625
116	0xbd884b01	-0.06654931
117	0xbc5783ec	-0.013154011
118	0xbda8dc50	-0.08245146
119	0xbd3c810d	-0.04602151
120	0x3cf8197e	0.030285593
121	0x3d672746	0.05643394
122	0x3dd48307	0.10376554
123	0xbdff395a	-0.12462111
124	0x3dad50cc	0.084626764
125	0xbda40f39	-0.08010716
126	0x3d624874	0.055244878
127	0x3de58e6b	0.11208805
128	0xbaf85019	-0.0018944769
129	0x3e01683c	0.12637419
130	0xbdf76969	-0.12080652
131	0xbd142524	-0.036168233
132	0x3da9bd9c	0.08288118
133	0xbcb87009	-0.02251436
134	0xbc93f42c	-0.018060766
135	0xbd7236d9	-0.059134338
136	0x3dabc3ba	0.08386941
137	0x3d8bef8c	0.06832799
138	0x3d1d94a7	0.038471844
139	0xbd9db500	-0.07700539
140	0xbdd1710d	-0.10226641
141	0x3cab7710	0.020930797
142	0x3d0a78d5	0.03380664
143	0xbd3fe8bf	-0.046852823
144	0xbd04bf58	-0.032409042
145	0x3d9e0f80	0.077178
146	0x3c25b7fc	0.010114666
147	0x3c418d30	0.011813447
148	0xbd122967	-0.035684016
149	0xbdd712e7	-0.10501652
150	0xbddea221	-0.108707674
151	0xbd491f1a	-0.049101926
152	0xbd7c6e0a	-0.06162838
153	0x3cfd1c37	0.030897243
154	0xbd0d7068	-0.034531027
155	0xbd268c5c	-0.0406612
156	0x3dfef6ab	0.12449392
157	0x3d12d022	0.035843022
158	0x3da92c08	0.082603514
159	0xbd53f16b	-0.051743906
160	0xbd20267e	-0.03909921
161	0x3d1dda08	0.03853801
162	0xbdb7ea9e	-0.089802966
163	0xbdae3c17	-0.08507555
164	0xbc698b5a	-0.014254415
165	0xbd2b4c8a	-0.04182104
166	0xbdcea50f	-0.10090076
167	0x3da4c687	0.080456786
168	0x3dc3b854	0.09556642
169	0x3ca38240	0.019959569
170	0xbcec8bc8	-0.028875247
171	0xbde511d1	-0.11185039
172	0xbd12ca57	-0.035837498
173	0x3d14daa4	0.036341324
174	0x3d6658a4	0.056236878
175	0xbc0b5f5d	-0.008506623
176	0xbd7ad603	-0.061239254
177	0x3d8e030e	0.069341764
178	0xbdc95aa3	-0.09831741
179	0x3db09a81	0.08623219
180	0xbd31348c	-0.043263003
181	0x3c3cd819	0.011526131
182	0xbcf0b6a0	-0.029383957
183	0x3c00bb01	0.007857085
184	0xbd152554	-0.036412552
185	0x3dc7f1d5	0.09762923
186	0x3b7a2eba	0.0038174824
187	0x3dd0625b	0.1017501
188	0x3deb35c4	0.11484864
189	0xbda17974	-0.078844935
190	0xbdb06734	-0.086134344
191	0x3dd4b2de	0.10385679
192	0x3db97cac	0.090569824
193	0xbdb23045	-0.08700613
194	0xbbc1bb9a	-0.0059122564
195	0xbe05ee15	-0.13079102
196	0xbdc322d5	-0.09528128
197	0x3c7db37c	0.015484687
198	0x3cac125c	0.021004848
199	0x3cf95260	0.030434787
200	0xbd02d23f	-0.031938788
201	0x3dd35f82	0.10320951
202	0x3ccd397a	0.025051821
203	0xbd8b05f7	-0.06788247
204	0xbc4e89e0	-0.012606114
205	0x3c96cfed	0.018409694
206	0x3d4a08cd	0.0493248
207	0xbdc27900	-0.09495735
208	0x3d31de1d	0.043424714
209	0xbd6e88d5	-0.058235962
210	0xbdc71cb6	-0.09722273
211	0xbd9ef905	-0.077623405
212	0x3e02d630	0.12777019
213	0x3dc26ebe	0.09493779
214	0x3df5a23e	0.11993836
215	0x3d8b003e	0.067871556
216	0x3dd0c226	0.10193281
217	0xbc4bea84	-0.01244605
218	0xbd9deccc	-0.07711181
219	0x3d4f3005	0.050582904
220	0xbd6d1252	-0.0578788
221	0xbda5c4a6	-0.08094148
222	0xbd0b067a	-0.033941723
223	0x3d192d93	0.03739698
224	0x3d8dc1be	0.06921719
225	0xbd398bda	-0.04529939
226	0xbd888a70	-0.0666703
227	0x3ca91aca	0.020642657
228	0xbd903b89	-0.070426054
229	0xbdbb1f30	-0.09136808
230	0x3d8b4ceb	0.0680178
231	0xbcbca521	-0.023027958
232	0x3df8c40b	0.12146767
233	0x3dfd8985	0.123797454
234	0x3d308a1c	0.04310046
235	0x3d2793fa	0.040912606
236	0x3c8eccd5	0.017431656
237	0x3a8e79ab	0.001087
238	0xbb1e9acd	-0.0024201155
239	0xbc20f2cf	-0.009823515
240	0x3d4b9b37	0.04970857
241	0x3ddccf3e	0.10781716
242	0xbcbc1773	-0.0229604
243	0xbd82e9f8	-0.06392282
244	0xbccb249c	-0.02479773
245	0xbd8b3816	-0.06797807
246	0x3ce9c6a2	0.028537098
247	0x3dc67160	0.09689593
248	0x3dde79c1	0.108630665
249	0x3d46ad5d	0.048505176
250	0xbdc94b3b	-0.09828802
251	0xbd9bded0	-0.076108575
252	0xbceb25b0	-0.028704494
253	0xbc896139	-0.016769992
254	0x3c46f221	0.012142689
255	0xbdf391c3	-0.11893036

node_encoder.layers.3.bias f4 [64]
0	0x376191e4	1.3445013e-05
1	0x3be2ab92	0.0069174254
2	0x39f5ec1f	0.00046905965
3	0xbd015933	-0.031579208
4	0x3b4313fc	0.002976655
5	0x3c91ff20	0.017821848
6	0xbc3c45c3	-0.011491242
7	0xbcc132bb	-0.02358376
8	0xbcdc4d17	-0.026892228
9	0xbc0db49f	-0.00864902
10	0xb98035e0	-0.00024454203
11	0xb8dde722	-0.00010581153
12	0x373435bb	1.0741346e-05
13	0x3a8fa07b	0.0010957861
14	0x3ca9ef45	0.020743975
15	0x390c4bc9	0.00013379673
16	0xbc8a7fe8	-0.016906694
17	0x3a8fb02a	0.0010962535
18	0xbc901f01	-0.017592909
19	0xb9e78fe9	-0.00044166975
20	0xbd64cf2e	-0.055861644
21	0x39a79369	0.0003196255
22	0xbd17393d	-0.03691982
23	0x3afcf518	0.0019299118
24	0x3cdfbca2	0.027311627
25	0xbd097894	-0.033562258
26	0xbc461039	-0.012088829
27	0xbd1e1f2a	-0.03860394
28	0xba904267	-0.0011006118
29	0x36dfb2c8	6.6667308e-06
30	0xbc35e83b	-0.011102731
31	0x3c9cda45	0.019147048
32	0x3b6a1ea3	0.0035723827
33	0xbd5229e8	-0.051309496
34	0xb90b4efd	-0.00013285498
35	0xbb954de8	-0.0045564063
36	0xb9b35b79	-0.00034209693
37	0x3c70a49c	0.014687683
38	0x38d45064	0.00010123922
39	0xbce7d286	-0.028298628
40	0x3cefa325	0.029252598
41	0xbd5721ff	-0.052522656
42	0xb8d45b77	-0.000101259844
43	0x3af8c8d5	0.0018980751
44	0x3d4911e8	0.049089342
45	0x3d71bbba	0.05901692
46	0x3a4fce82	0.00079271954
47	0xb9621e05	-0.00021564223
48	0xbd466d86	-0.048444293
49	0x37795496	1.4861251e-05
50	0x3a471122	0.00075938005
51	0xba8e7c9d	-0.0010870878
52	0xbcc69bff	-0.024244307
53	0xb9e84ce2	-0.0004430777
54	0x3c368458	0.011139952
55	0x3d194093	0.0374151
56	0xb9ca7d2d	-0.00038621706
57	0x3d56e988	0.052468807
58	0xbd65955f	-0.056050655
59	0x3a8ec060	0.0010891072
60	0x3acfb34b	0.001584628
61	0xba895140	-0.0010476485
62	0x3bf3d1e3	0.007440792
63	0xbccda060	-0.025100887

node_encoder.layers.4.weight f4 [64]
0	0x3f7cdf54	0.9877827
1	0x3f814089	1.009782
2	0x3f7ef46f	0.99591726
3	0x3f7f9eaa	0.9985148
4	0x3f7f862c	0.99814105
5	0x3f804a83	1.0022739
6	0x3f808450	1.0040379
7	0x3f803fb2	1.0019438
8	0x3f80079f	1.0002326
9	0x3f7ed300	0.9954071
10	0x3f7b750d	0.9822548
11	0x3f8118b7	1.0085667
12	0x3f7e979f	0.99450105
13	0x3f7eb70f	0.99498075
14	0x3f805f84	1.0029149
15	0x3f7ca8b2	0.9869491
16	0x3f802954	1.0012612
17	0x3f80ee4a	1.007272
18	0x3f7d4e80	0.98947906
19	0x3f7f54c2	0.99738705
20	0x3f80d10d	1.0063797
21	0x3f811671	1.0084974
22	0x3f7f3ccf	0.9970216
23	0x3f812ea8	1.0092363
24	0x3f81e4d3	1.0147957
25	0x3f82a904	1.020783
26	0x3f808830	1.0041561
27	0x3f81018b	1.0078596
28	0x3f7b94db	0.9827401
29	0x3f7e4557	0.99324554
30	0x3f7d4087	0.98926586
31	0x3f7ac032	0.97949517
32	0x3f802a0b	1.001283
33	0x3f814cfa	1.0101616
34	0x3f810ee2	1.0082667
35	0x3f80ea12	1.0071433
36	0x3f7fabb8	0.99871397
37	0x3f7ddf92	0.99169266
38	0x3f7ef7cf	0.99596876
39	0x3f829886	1.0202796
40	0x3f7fc3d5	0.9990819
41	0x3f7f7689	0.99790245
42	0x3f7cf96c	0.9881809
43	0x3f7ee652	0.9957019
44	0x3f80fa3b	1.0076364
45	0x3f81a021	1.0126992
46	0x3f80266c	1.0011725
47	0x3f7f0af0	0.99626064
48	0x3f815987	1.0105447
49	0x3f7e8bc5	0.9943202
50	0x3f8066c5	1.0031363
51	0x3f7e23b2	0.99273217
52	0x3f7e5252	0.9934436
53	0x3f7ff94a	0.9998976
54	0x3f7e26a0	0.9927769
55	0x3f8106f6	1.0080249
56	0x3f7e1b65	0.9926055
57	0x3f80cc4d	1.0062348
58	0x3f7df289	0.99198204
59	0x3f7f99ec	0.9984424
60	0x3f810461	1.0079461
61	0x3f7f7ae6	0.99796903
62	0x3f7f4f88	0.9973073
63	0x3f7f548a	0.9973837

node_encoder.layers.4.bias f4 [64]
0	0xbbd3ddc6	-0.0064656464
1	0x3b0f1ac0	0.0021836013
2	0xbb819e47	-0.0039556357
3	0xbb12c710	-0.0022396483
4	0xbc1780c1	-0.009247006
5	0x3b64dcdb	0.003492168
6	0x3a51d8be	0.00080050144
7	0xbc11da44	-0.008902136
8	0x3bd2c95b	0.006432695
9	0x392246d6	0.00015475912
10	0xbcac49ac	-0.021031223
11	0x3be4a055	0.006977121
12	0x3c1cac80	0.009562612
13	0xbb538519	-0.0032275377
14	0xbbb93396	-0.0056519015
15	0xbc1b7c48	-0.00949008
16	0x3be6bf4b	0.007041847
17	0x39d48c50	0.00040540332
18	0x3bbbf390	0.005735822
19	0x3bc586e4	0.006028043
20	0x3b969d6b	0.0045964024
21	0x3c94b726	0.018153738
22	0x39372016	0.00017464193
23	0x3a98ad0a	0.0011648249
24	0x3c45f8b0	0.0120832175
25	0x3c7d10f2	0.015445935
26	0x3bef99bc	0.0073120277
27	0xbb81bdf6	-0.0039594127
28	0xbbd9b748	-0.0066441633
29	0xbb8ecb2d	-0.0043577165
30	0xbb6a892c	-0.0035787327
31	0xbc8efb24	-0.017453738
32	0xbb7471b9	-0.003729923
33	0x3c0a5627	0.008443392
34	0x3b3bf1ce	0.0028678062
35	0x3b97c788	0.0046319403
36	0xbbeac7d7	-0.007164936
37	0xbc2d534e	-0.010578943
38	0x3b9c4153	0.0047685294
39	0x3c56c714	0.013108987
40	0xbbe8df59	-0.0071067032
41	0x3b46ae7d	0.0030316405
42	0x3b65c0eb	0.0035057615
43	0xba666e90	-0.0008790279
44	0xbbbb40c8	-0.0057145096
45	0x3be765ca	0.0070616947
46	0x3bcc2f24	0.0062312055
47	0x3a21d947	0.00061740394
48	0x3c073d06	0.008254295
49	0x3bb5c47c	0.0055471044
50	0x3c82cd8b	0.015967151
51	0xbc0ee7bf	-0.008722245
52	0xbc3b01a7	-0.011413968
53	0x3c10c0a5	0.008834993
54	0xbb3bdd7d	-0.0028665953
55	0x3c27f3a0	0.010250956
56	0xbc08690c	-0.008325826
57	0xbc78aaaa	-0.015177408
58	0xbc13c817	-0.009019873
59	0xbc18b6ee	-0.009320958
60	0x3c08bfc7	0.0083465045
61	0xbb0ef738	-0.0021814834
62	0x3c3fa219	0.011696362
63	0xbbbaff6c	-0.005706718

node_encoder.layers.4.running_mean f4 [64]
0	0xbe1ca12e	-0.1529586
1	0xbe8e2daf	-0.2776923
2	0xbde11301	-0.10989953
3	0x3b0dc686	0.0021633222
4	0x3c82b2c5	0.015954385
5	0xbebfa740	-0.3743229
6	0x3e05ede7	0.13079034
7	0x3d125285	0.035723228
8	0x3d3166f8	0.04331109
9	0x3e37709c	0.17914051
10	0xbe81c9e5	-0.25349346
11	0xbe3296c6	-0.17440328
12	0x3cbb9042	0.022895936
13	0xbdc70e94	-0.097195774
14	0x3e9561b9	0.2917612
15	0x3dbc2394	0.091864735
16	0x3d753487	0.059864547
17	0xbe03d7b5	-0.12875254
18	0xbe3017cc	-0.17196578
19	0x3e80ed1a	0.25180894
20	0xbbe37997	-0.006941985
21	0xbe29f200	-0.16596222
22	0x3d8aabe3	0.06771066
23	0x3e42d005	0.19024666
24	0x3cf67165	0.030083368
25	0xbe3d2a52	-0.18473175
26	0xbd125f64	-0.035735503
27	0xbef0a03d	-0.46997252
28	0x3dec52a5	0.11539201
29	0x3eee48f0	0.46540022
30	0xbe7aa123	-0.24475531
31	0xbee66082	-0.44995505
32	0xbdd29807	-0.10282903
33	0xbf09f100	-0.5388336
34	0x3e308733	0.17239074
35	0x3e686b3f	0.22697161
36	0x3e8fde08	0.28099084
37	0xbeac8038	-0.33691573
38	0x3ee80778	0.45318198
39	0xbe0621d3	-0.1309884
40	0x3e8f42e8	0.27980733
41	0xbe242a41	-0.16031744
42	0xbdf805ba	-0.12110467
43	0x3dbef2a4	0.09323624
44	0xbc8517b3	-0.016246652
45	0x3dfa7734	0.122297674
46	0x3e3fb25e	0.18720385
47	0xbec93467	-0.39297792
48	0xbe090000	-0.13378906
49	0xbdc88526	-0.09791021
50	0xbe6246b3	-0.22097282
51	0xbea38c9b	-0.3194321
52	0xbdd1621c	-0.10223791
53	0xbe6f17cc	-0.23348922
54	0xbcf0afb1	-0.029380651
55	0x3df73987	0.12071519
56	0xbe486f15	-0.19573624
57	0x3e965531	0.2936187
58	0x3de46a2d	0.11153064
59	0x3e89b9ea	0.26899654
60	0xbcebd5c9	-0.028788464
61	0x3dc67f29	0.096922226
62	0x3dfdad76	0.12386601
63	0x3e06fe54	0.13182956

node_encoder.layers.4.running_var f4 [64]
0	0x3e059ce8	0.13048136
1	0x3dc2b98b	0.09508046
2	0x3db66a8c	0.08907041
3	0x3de79fbd	0.113097645
4	0x3dc04c7b	0.093895875
5	0x3d0d4aea	0.03449527
6	0x3e831fd0	0.2561021
7	0x3e3e96c6	0.18612203
8	0x3e4c4dde	0.19951579
9	0x3db2a786	0.08723359
10	0x3d016a22	0.031595357
11	0x3dbbad65	0.09163932
12	0x3e378d6e	0.17925045
13	0x3e40fab8	0.18845642
14	0x3d28130b	0.041033786
15	0x3d7c6270	0.061617315
16	0x3df498d7	0.119432144
17	0x3e089712	0.13338879
18	0x3d506618	0.050878614
19	0x3d72be06	0.05926325
20	0x3da85741	0.08219767
21	0x3e7690cf	0.24078678
22	0x3e6079ab	0.21921413
23	0x3cc3288f	0.02382305
24	0x3e0a11bc	0.13483328
25	0x3e225c5a	0.15855542
26	0x3e56bf0f	0.2097132
27	0x3d4f4973	0.050607156
28	0x3d1df0a2	0.038559563
29	0x3dfe08c5	0.124040164
30	0x3d9fa8c2	0.0779586
31	0x3e5eabeb	0.21745269
32	0x3d65d7d4	0.056114033
33	0x3d835a68	0.06413728
34	0x3d948f00	0.072538376
35	0x3df0ed1f	0.11763977
36	0x3df4ae2a	0.11947282
37	0x3ebfdd33	0.3747345
38	0x3e422cba	0.18962374
39	0x3d711c55	0.05886491
40	0x3e010d31	0.12602688
41	0x3e1d8416	0.15382418
42	0x3e04498c	0.12918681
43	0x3e7665c2	0.24062255
44	0x3dbf3fe0	0.09338355
45	0x3e186d71	0.14885499
46	0x3e017824	0.12643486
47	0x3e2caf6f	0.16863798
48	0x3dfe5410	0.124183774
49	0x3dbac911	0.091203816
50	0x3dcc661f	0.099804156
51	0x3e051727	0.12997113
52	0x3e55c9c3	0.20877747
53	0x3dc5ab97	0.09651869
54	0x3e4d53bd	0.20051475
55	0x3e100ca0	0.14067316
56	0x3e68386b	0.22677772
57	0x3d37f2c4	0.044909254
58	0x3e0362fd	0.1283073
59	0x3dda86e7	0.10670262
60	0x3dd70900	0.104997635
61	0x3e50be5a	0.20385113
62	0x3e3e5592	0.1858733
63	0x3e1b6798	0.15176237

node_encoder.layers.6.weight f4 [32, 64]
0	0x3dbc3478	0.09189695
1	0xbde3c587	-0.1112166
2	0xbd9f9958	-0.0779292
3	0xbc69b400	-0.014264107
4	0xbdf5dd7d	-0.12005136
5	0xbded32c9	-0.11581952
6	0xbddf0cb9	-0.108910985
7	0x3dcef148	0.101046145
8	0x3c8b4a3a	0.017003167
9	0xbd2da899	-0.042397115
10	0xbb336a05	-0.0027376425
11	0xbdeb1083	-0.11477759
12	0xbdf53c53	-0.119743966
13	0xbdbb179c	-0.091353625
14	0xbe050556	-0.12990317
15	0x3d9fbf24	0.07800129
16	0xbd410276	-0.047121488
17	0xbd225918	-0.039635748
18	0xbde54449	-0.11194665
19	0x3c3a1f0b	0.01135994
20	0xbc872480	-0.016496897
21	0xbdba0fc0	-0.09085035
22	0x3d97e269	0.07416231
23	0x3dcdcb59	0.10048551
24	0xbdc94b55	-0.098288216
25	0x3d9c8f70	0.07644546
26	0xbc82067d	-0.015872234
27	0x3c78e8c4	0.015192214
28	0x3d71802f	0.058960136
29	0xbcf10f2e	-0.029426184
30	0x3dcdbeea	0.100461796
31	0x3d9081a4	0.07055977
32	0xbd9fca52	-0.078022614
33	0xbd895b83	-0.067069076
34	0xbe06ed60	-0.13176489
35	0x3d05c90f	0.032662448
36	0xbdd8d93d	-0.1058831
37	0xbdc637c9	-0.09678609
38	0xbdaa4be7	-0.083152585
39	0xbe026500	-0.12733841
40	0xbdd9a110	-0.10626423
41	0x3de8c058	0.11364812
42	0x3d97af81	0.074065216
43	0x3dd69f9c	0.10479662
44	0xbd7cb7ec	-0.06169884
45	0xbd4ad45a	-0.04951892
46	0xbd48e6a2	-0.049048074
47	0xbc0bc22a	-0.008530179
48	0xbdc65aa7	-0.09685259
49	0x3c68f420	0.01421836
50	0xbda6eb36	-0.08150332
51	0x3d0e0007	0.034667995
52	0x3ddab57d	0.106791474
53	0x3c3e5511	0.011616961
54	0x3dae63db	0.0851514
55	0xbdcbbebc	-0.09948489
56	0xbcc5f633	-0.024165248
57	0xbdb8790b	-0.09007462
58	0xbca5a7bf	-0.02022159
59	0xbd5dd285	-0.054155845
60	0xbd9cbb3a	-0.07652898
61	0xbdf03e50	-0.11730635
62	0xbd3fbb2c	-0.04680936
63	0x3c97bba5	0.018522093
64	0xbc7ab628	-0.0153022185
65	0xbddd560e	-0.10807429
66	0x3da2cae3	0.07948854
67	0x3dab37fd	0.08360288
68	0xbd95bf19	-0.073118396
69	0x3c66534e	0.014057947
70	0x3d9cb234	0.07651177
71	0xbdfd85c3	-0.12379029
72	0xbdd366c7	-0.103223376
73	0x3d868fe3	0.06570413
74	0x3be39e5f	0.0069463695
75	0x3d4ab153	0.049485516
76	0xbd6c9cb8	-0.057766646
77	0x3c9ac7e1	0.018894138
78	0x3d9d3542	0.07676174
79	0xbcdb9ccf	-0.02680817
80	0xbd39f80e	-0.04540258
81	0xbe04cb23	-0.12968116
82	0xbc92fd4a	-0.017943043
83	0x3d998b03	0.074972175
84	0xbdff0c6c	-0.12453541
85	0xbb803b7c	-0.003913341
86	0x3dad4825	0.08461026
87	0xbc8f75c2	-0.017512206
88	0xbd52b58b	-0.051442664
89	0xbd4102e6	-0.047121905
90	0xbd497a2a	-0.04918877
91	0x3d164f69	0.036696825
92	0xbdddddec	-0.10833344
93	0x3d2a53dd	0.041583885
94	0xbc82a51b	-0.015947869
95	0xb9c30541	-0.00037197213
96	0xbb93f231	-0.0045149554
97	0x3d9d6196	0.07684629
98	0xbda2f6f6	-0.0795726
99	0xbe006017	-0.12536655
100	0xbdccbaf2	-0.099965945
101	0xbdbaffca	-0.09130819
102	0xbd875efd	-0.066099145
103	0x3deb07dd	0.11476109
104	0xbdb19840	-0.086716175
105	0xbd924853	-0.07142701
106	0xbdc8ef8a	-0.098113135
107	0xbd8334b7	-0.06406539
108	0x3b3a6736	0.0028442866
109	0xbda88298	-0.08228034
110	0x38256bb7	3.9439383e-05
111	0x3d5f978b	0.054587882
112	0xbcc6639a	-0.024217416
113	0x3d5ac095	0.053406317
114	0x3d167bdb	0.03673921
115	0x3dfe30d3	0.12411656
116	0xb9d06134	-0.00039745274
117	0x3dd65b3a	0.10466619
118	0x3dc5b803	0.09654238
119	0x3d7e1879	0.062035058
120	0x3dab6abd	0.08369968
121	0xbdbc2d91	-0.091883786
122	0xbd970f06	-0.07375912
123	0x3d3c48d6	0.0459679
124	0x3d3bff40	0.045897722
125	0x3dcd418e	0.10022269
126	0xbc95e1f8	-0.018296227
127	0xbcedd00c	-0.029029869
128	0x3da8455a	0.08216353
129	0x3c994e3e	0.018714067
130	0x3dff5a9c	0.12468454
131	0xbd6f5acd	-0.058436204
132	0xbd11438f	-0.03546482
133	0xbb96348f	-0.004583902
134	0x3d7a3c8f	0.06109291
135	0xbde429a8	-0.11140758
136	0xbd3a9b8c	-0.045558497
137	0x3dc2eb12	0.09517492
138	0x3cfccca1	0.030859293
139	0x3da55180	0.080721855
140	0xbd3466bc	-0.044043288
141	0xbd9fdc54	-0.07805696
142	0xbdb63c26	-0.08898191
143	0xbd9138cd	-0.07090912
144	0xbdba6a41	-0.091022976
145	0x3d84c35e	0.06482576
146	0x3d39a5f2	0.045324273
147	0xbd960ee7	-0.07327061
148	0x3df3ce47	0.11904579
149	0x3d1a9d1b	0.037747484
150	0x3d22f790	0.039786875
151	0xbd67ae6d	-0.05656283
152	0x3da0420c	0.078250974
153	0xbdbbd118	-0.09170741
154	0x3dc6f776	0.09715168
155	0xbd87d481	-0.06632329
156	0x3d5ee682	0.054419048
157	0xbd571e78	-0.05251929
158	0x3da053a3	0.078284524
159	0xbdd5a71f	-0.104322664
160	0xbcc61e2b	-0.024184307
161	0xbd301c89	-0.042995963
162	0xbdaaa302	-0.083318725
163	0xbd691dae	-0.05691307
164	0xbd33084b	-0.04370908
165	0x3ba606f6	0.005066748
166	0x3dab8110	0.08374226
167	0xbc871b72	-0.01649258
168	0x3decdd12	0.11565603
169	0xbd590a01	-0.052988056
170	0xbd78daa6	-0.060755394
171	0xbbfda9df	-0.0077411975
172	0xbc997410	-0.0187321
173	0x3d29448a	0.04132513
174	0x3ddc16d9	0.10746545
175	0x3d0d3cd2	0.03448183
176	0xbde0510e	-0.1095296
177	0xbd3f078c	-0.046638057
178	0xbccdaaab	-0.025105795
179	0xbdd8d213	-0.105869435
180	0x3d3f1884	0.04665424
181	0x3dd122c6	0.10211711
182	0x3d7a6789	0.061133895
183	0x384a7ac9	4.8274906e-05
184	0xbc8136b2	-0.015773151
185	0xbd92162f	-0.071331374
186	0xbc884a40	-0.016636968
187	0x3de39da3	0.11114051
188	0xbd93a908	-0.072099745
189	0x3cb3e242	0.021958474
190	0xbdad0dea	-0.084499195
191	0xbcf070c0	-0.029350638
192	0x3c9d7151	0.019219073
193	0xbdc04ba9	-0.09389431
194	0x3d1cba9b	0.0382639
195	0xbdcfe127	-0.10150366
196	0xbd3cabb4	-0.046062186
197	0x3dbaec30	0.091270804
198	0x3e0029e2	0.12515977
199	0xbaeddbe3	-0.0018147196
200	0xbdbf1f55	-0.09332148
201	0xbdbdf7f0	-0.09275806
202	0xbce119b6	-0.02747808
203	0xbd907e5c	-0.07055351
204	0x3dc38070	0.09545982
205	0xbdb2ef87	-0.087370925
206	0x3db2368c	0.0870181
207	0x3c88b0a9	0.0166858
208	0xbd25fc6b	-0.040523928
209	0x3ddbbf84	0.10729888
210	0x3d856ab2	0.06514491
211	0x3b14d3c5	0.0022709232
212	0xbd9bdb30	-0.07610166
213	0xbd3ffed7	-0.046873894
214	0x3d3cce83	0.046095382
215	0x3ddf5137	0.109041624
216	0xbd3eb9d3	-0.046563935
217	0xbd1b09e2	-0.03785122
218	0xbde9ed12	-0.11422171
219	0x3da63da6	0.08117227
220	0x3dfa483a	0.122208074
221	0x3da20bb3	0.07912388
222	0xbda2308c	-0.07919416
223	0x3d9ab4db	0.07554027
224	0xbd3419a0	-0.04396975
225	0x3d877441	0.066139705
226	0x3d8c8b3d	0.06862495
227	0xbdc3eb92	-0.09566416
228	0x3d09b475	0.033619363
229	0x3d5daca3	0.054119717
230	0xbd85d325	-0.06534413
231	0x3dcf45d2	0.10120739
232	0x3db9ff4f	0.090818994
233	0x3de7d5bc	0.113200635
234	0x3bd1075a	0.00637905
235	0xbd8a459e	-0.0675156
236	0xbd8094de	-0.06278394
237	0x3d518a8c	0.05115752
238	0xbce21537	-0.027598007
239	0x3db98bef	0.09059893
240	0x3ddf0515	0.10889641
241	0x3c2ce5f4	0.010552872
242	0xbde4b7f8	-0.11167902
243	0x3d3e308e	0.046433024
244	0x3de23305	0.110448875
245	0xbcee7097	-0.029106421
246	0xbd965ff4	-0.0734252
247	0xbceafb32	-0.028684232
248	0x3c3ccd7a	0.011523599
249	0xbdc7e43f	-0.09760331
250	0x3d708f2c	0.05873029
251	0x3d68cc48	0.056835443
252	0xbd194620	-0.037420392
253	0xbd14d8db	-0.036339622
254	0xbd64ad23	-0.05582918
255	0x3dda3028	0.10653716

node_encoder.layers.6.bias f4 [32]
0	0x3caa1389	0.020761268
1	0x3bee31b0	0.007269107
2	0x3c741ab8	0.014898948
3	0x39b75c13	0.0003497308
4	0xbd1e9eb4	-0.03872557
5	0xb71ed1d4	-9.466388e-06
6	0x3d564b2d	0.052317787
7	0x3d404db5	0.046949107
8	0xbc906b9f	-0.017629443
9	0x3ce25c2b	0.02763184
10	0x3bc07f53	0.005874553
11	0xb9718aa3	-0.00023035197
12	0x3c604235	0.01368766
13	0x376cfb68	1.4125231e-05
14	0x391f18c4	0.00015172648
15	0xbcc677e2	-0.024227086
16	0xb92c545b	-0.00016434623
17	0x3d75ad47	0.059979703
18	0x3ca95ad7	0.020673199
19	0xbd26446f	-0.040592607
20	0xb909b626	-0.00013133194
21	0x3cb77b0a	0.022397537
22	0xbb9070c7	-0.0044079754
23	0xb94c761e	-0.00019498958
24	0x3c1dd14c	0.00963242
25	0x3d3513f8	0.044208497
26	0x3d53ee31	0.05174083
27	0xbd000c7b	-0.031261902
28	0xbd646bc2	-0.05576683
29	0x3cf28392	0.029603753
30	0x39203c42	0.00015281237
31	0x3d51e486	0.051243328

edge_encoder.layers.0.weight f4 [64, 4]
0	0x3eb50a4d	0.3535942
1	0xbe4d9a77	-0.20078455
2	0x3e0cc51d	0.13747068
3	0x3e207d23	0.15672736
4	0xbe2c26d0	-0.16811681
5	0x3eeabb8b	0.4584621
6	0x3d498930	0.049203098
7	0xbe178f0f	-0.14800666
8	0xbee98d75	-0.45615736
9	0x3ece7040	0.40320015
10	0xbefa18aa	-0.48846942
11	0x3eb93ceb	0.3617929
12	0xbe237347	-0.15961944
13	0xbdb8f292	-0.090306416
14	0x3daa078a	0.08302219
15	0x3ef37c3d	0.47555724
16	0xbe9ddc01	-0.30831912
17	0xbeb07988	-0.3446772
18	0x3ea233d2	0.3168016
19	0xbe59a900	-0.21255875
20	0xbe3c3ff7	-0.18383776
21	0x3e8f0bd1	0.27938703
22	0xbe5a31e0	-0.21308088
23	0x3e9067ea	0.2820428
24	0xbe511d6d	-0.20421381
25	0x3ec497a9	0.38396958
26	0x3ef9aede	0.48766226
27	0x3d5618cc	0.052269742
28	0xbe1e7257	-0.15473305
29	0x3e89a81c	0.2688607
30	0x3e1af6e9	0.15133251
31	0x3bd5bd36	0.0065228
32	0x3ed6d209	0.4195712
33	0xbc8792ca	-0.016549487
34	0x3e4722bd	0.19446845
35	0xbdfd7ceb	-0.12377342
36	0xbda9035c	-0.08252594
37	0xbcfe2e90	-0.031028062
38	0x3d2ad304	0.041705146
39	0x3e63da84	0.22251326
40	0x3ec02209	0.37525967
41	0x3e946ecf	0.2899079
42	0xbe5930c0	-0.21210003
43	0x3ed3f4f6	0.41397828
44	0x3ea0fe4c	0.31444013
45	0x3e4561b2	0.19275549
46	0x3d73e40b	0.05954365
47	0xbe8453cd	-0.25845185
48	0xbe9ec501	-0.31009677
49	0x3c81d919	0.01585059
50	0xbeb571f7	-0.3543851
51	0x3e2289dd	0.15872903
52	0xbee8bab1	-0.45454934
53	0xbee2eb0a	-0.44319946
54	0xbe604b8c	-0.21903819
55	0x3e85b54d	0.26114884
56	0x3ecf59d4	0.4049822
57	0xbed6aa00	-0.41926575
58	0xbe9c15b7	-0.30485317
59	0x3dc4c5ac	0.096080154
60	0xbda6567c	-0.08121964
61	0xbece434a	-0.40285712
62	0x3e14b0d5	0.14520581
63	0xbec337ab	-0.3812841
64	0x3c23cdcd	0.009997797
65	0x3e537040	0.20648289
66	0x3ee4de3f	0.4470081
67	0xbece497f	-0.40290448
68	0x3eb50377	0.35354206
69	0x3d88c8c3	0.06678917
70	0x3ee33f2c	0.44384134
71	0x3ee91d86	0.45530337
72	0xbdd71abf	-0.10503148
73	0xbda5eed1	-0.08102191
74	0xbe057198	-0.13031614
75	0x3ec2f832	0.38079983
76	0xbe5d9890	-0.21640229
77	0x3ea931db	0.3304585
78	0x3e535206	0.20636758
79	0x3ee642b2	0.4497276
80	0x3eb67631	0.35637048
81	0x3ec638ba	0.38715154
82	0xbed0682d	-0.4070448
83	0xbe6f7d4d	-0.23387642
84	0xbeb5f3cb	-0.35537562
85	0x3e6d1a33	0.23154525
86	0x3dd8130f	0.1055051
87	0x3e3ebdcc	0.1862709
88	0x3e489ea6	0.1959177
89	0x3cf49c96	0.029859822
90	0x3e39f2bf	0.18159007
91	0xbe8bcfa7	-0.27306864
92	0x3ea433c6	0.3207075
93	0xbedf75a1	-0.4364443
94	0xbee79e16	-0.45237797
95	0x3e171910	0.14755654
96	0x3eeedff0	0.46655226
97	0xbe2eb1f9	-0.17060079
98	0x3eef1ed9	0.46703222
99	0xbe2ba788	-0.16763127
100	0xbec046df	-0.3755407
101	0xbda7c82c	-0.08192477
102	0x3e8dfbfd	0.27731314
103	0xbe6df699	-0.23238601
104	0x3eee9e49	0.46605137
105	0xbe6d2f5d	-0.23162599
106	0xbe605da2	-0.21910718
107	0xbe4c813a	-0.19971171
108	0xbec5e248	-0.386492
109	0x3ee82adb	0.45345196
110	0xbe911d96	-0.28342885
111	0xbe5d6dda	-0.21623936
112	0xbe100f09	-0.14068235
113	0x3ecf7fe0	0.40527248
114	0x3e8225a7	0.2541935
115	0x3e3c392e	0.18381187
116	0xbe10981b	-0.14120524
117	0x3e76f796	0.24117884
118	0x3db08e30	0.0862087
119	0x3ecb445c	0.39700592
120	0x3defff7a	0.1171865
121	0x3ebe27df	0.37139794
122	0x3eaaa6ac	0.33330286
123	0x3da78df1	0.0818137
124	0xbef3af25	-0.47594562
125	0x3de6395e	0.11241411
126	0xbebd0df2	-0.36924702
127	0x3d9866c1	0.07441474
128	0xbd40af30	-0.04704207
129	0x3ec234d0	0.37930918
130	0xbebdd843	-0.37079057
131	0xbec6f946	-0.38862056
132	0x3e53cf54	0.20684558
133	0x3eb0833c	0.34475124
134	0xbde89a95	-0.11357609
135	0x3e0826a3	0.13295989
136	0x3eccccf1	0.40000108
137	0x3d8bdeec	0.06829628
138	0xbe0da5d8	-0.13832796
139	0x3e8fe8a6	0.28107184
140	0x3eeb333e	0.45937532
141	0xbdbae210	-0.09125149
142	0x3ea6e400	0.32595825
143	0x3c11680c	0.008874904
144	0xbdaf0966	-0.085467145
145	0xbd5529e6	-0.05204191
146	0xbef75094	-0.48303664
147	0x3e5f1f50	0.21789289
148	0xbe877dbd	-0.26463118
149	0xbede925f	-0.43471047
150	0xbd83223e	-0.064030156
151	0xbe39177f	-0.1807537
152	0xbe99a3d4	-0.30007803
153	0xbde2c9ca	-0.110736445
154	0xbd68c366	-0.05682697
155	0x3e1ef9db	0.15525
156	0x3d887a1a	0.06663914
157	0xbd664484	-0.056217685
158	0x3de4fd23	0.111810945
159	0xbea78b9e	-0.32723707
160	0x3edca696	0.43095845
161	0x3e6931e9	0.22772945
162	0x3e9db4de	0.30802053
163	0xbed32a77	-0.41243336
164	0x3eac8562	0.33695513
165	0x3dacbbd9	0.084342666
166	0xbef493c3	-0.47768983
167	0x3ee6c39a	0.45071107
168	0xbc138b15	-0.009005328
169	0x3ddfc845	0.1092687
170	0x3ec6255f	0.38700387
171	0x3ea758b3	0.3268486
172	0x3ee16ee6	0.4402992
173	0xbeed0ed8	-0.46300387
174	0x3ef85abe	0.4850673
175	0x3dd3a859	0.10334844
176	0x3c95a8ea	0.018269021
177	0xbeceb100	-0.40369415
178	0xbe809bb4	-0.25118792
179	0x3eeacbb4	0.45858538
180	0x3ec4616d	0.3835558
181	0x3ec196c4	0.37810338
182	0xbd10496b	-0.035226267
183	0xbe853ce2	-0.26023012
184	0x3de06c96	0.10958211
185	0xbe6bda23	-0.23032431
186	0xbea9e0ed	-0.33179417
187	0x3e21f64f	0.15816616
188	0x3ec11795	0.37713304
189	0xbec71bbc	-0.38888347
190	0xbee07c6e	-0.43844932
191	0x3d884101	0.066530235
192	0xbe3d39a4	-0.1847902
193	0xbe83c41b	-0.25735554
194	0xbdcbb6d3	-0.0994698
195	0xbcd72c71	-0.026266309
196	0xbe14e07b	-0.14538758
197	0x3eb37911	0.35053304
198	0x3e8eb3da	0.2787159
199	0x3e0fa758	0.1402868
200	0xbe250315	-0.16114457
201	0xbcf9850a	-0.030458946
202	0x3ea22488	0.31668496
203	0x3d06bbe5	0.032894034
204	0xbef6e043	-0.48217973
205	0x3d8468eb	0.06465324
206	0x3e84b7da	0.25921518
207	0xbdf628ed	-0.12019525
208	0xbdd6d484	-0.10489753
209	0xbd9daf44	-0.07699445
210	0x3e94bb15	0.29048982
211	0x3ec1c1e9	0.37843254
212	0xbec98220	-0.3935709
213	0x3ea6da20	0.3258829
214	0x3e4f031c	0.2021603
215	0x3e2833f9	0.16426076
216	0xbe97c66b	-0.29643568
217	0xbe8eff9b	-0.27929386
218	0x3ef678b7	0.48138973
219	0x3dd4ddbd	0.10393856
220	0xbdd9ae85	-0.1062899
221	0xbdc529de	-0.09627126
222	0x3ead1d5f	0.3381147
223	0xbddc8b59	-0.10768766
224	0x3eae89ef	0.3408961
225	0xbe0790db	-0.13238852
226	0x3dedaf24	0.11605671
227	0x3dde3739	0.10850377
228	0xbe82efd7	-0.25573608
229	0x3c83f53c	0.016108148
230	0x3dc8d684	0.098065406
231	0xbef45c80	-0.47726822
232	0xbdc022ca	-0.093816355
233	0x3cf50e46	0.029914033
234	0x3ed2629c	0.41090858
235	0x3dc6d71a	0.09708996
236	0xbeda0fed	-0.42590275
237	0xbe202438	-0.15638816
238	0x3ef7ac63	0.48373708
239	0xbda78ab0	-0.081807494
240	0x3ebf4c23	0.37362775
241	0x3d3977d8	0.045280308
242	0x3ea8daff	0.3297958
243	0xbe4a1548	-0.1973468
244	0x3ef83f39	0.48485735
245	0x3dd672f2	0.10471143
246	0xbdddbc71	-0.10826958
247	0x3eb591b7	0.35462734
248	0x3e776f4b	0.24163549
249	0xbeb0c19f	-0.3452272
250	0xbcc35c03	-0.023847586
251	0x3eaa3bb9	0.3324869
252	0x3df9358f	0.121684186
253	0xbe18e272	-0.14930132
254	0xbeab7f21	-0.3349543
255	0xbeabba23	-0.3354045

edge_encoder.layers.0.bias f4 [64]
0	0x3e580bce	0.21098253
1	0x3e23e582	0.16005519
2	0xbebff53f	-0.37491795
3	0xbd2c408a	-0.042053737
4	0x3d82d3a8	0.063880265
5	0xbebf9c3e	-0.3742389
6	0x3eb9c1d1	0.36280683
7	0xbb8cfcb4	-0.0043025855
8	0xbe0cb26d	-0.13739939
9	0x3bb671ec	0.0055677798
10	0x3dec9597	0.115519695
11	0x3d4b5f86	0.049651645
12	0x3ecfd120	0.40589237
13	0x3e5b9f50	0.21447492
14	0xbb036d82	-0.0020054285
15	0x3cdc4871	0.026890012
16	0x3d7127b9	0.058875773
17	0xbe07e5e6	-0.13271293
18	0xbeb88154	-0.3603617
19	0xbb8a8f2b	-0.0042284927
20	0xbe000e4b	-0.12505452
21	0xbecedf73	-0.40404853
22	0x3de7fa4b	0.113270365
23	0xbe136128	-0.14392531
24	0x3ed221d7	0.41041443
25	0x3de8fb90	0.11376107
26	0x3e168738	0.1470002
27	0x3da7db3c	0.081961125
28	0x3e04979e	0.12948462
29	0x3e816942	0.25275618
30	0x3e99615e	0.29957098
31	0x3a024bdd	0.0004970411
32	0xbda01a24	-0.07817486
33	0x3d93f532	0.07224502
34	0xbe233f36	-0.15942082
35	0x3943ace8	0.00018661062
36	0x3da85c4f	0.082207315
37	0x3e210c8e	0.15727445
38	0xbed4a5aa	-0.41532642
39	0x3e0333fc	0.12812799
40	0xbe032f7f	-0.12811087
41	0xbe91af53	-0.28454074
42	0xbe168858	-0.14700449
43	0x3971b281	0.00023050049
44	0x3e38049f	0.17970513
45	0xbec11ac3	-0.3771573
46	0x3d94a025	0.07257108
47	0x3ec3be98	0.3823135
48	0xbe5ca56b	-0.21547477
49	0x3d6acad3	0.057322334
50	0xbe0a97e7	-0.13534509
51	0x3d77dd81	0.060513977
52	0x3e1a1d53	0.15050249
53	0xbe7681d5	-0.24072964
54	0x3d6b6e3d	0.05747818
55	0x3eda0909	0.42585018
56	0xba90454d	-0.0011006981
57	0xbe931358	-0.28725696
58	0x38e5e223	0.00010961692
59	0x3d483da9	0.04888693
60	0x3db7eda6	0.08980875
61	0x3a8aa3f8	0.0010577431
62	0xbd3cbac5	-0.046076555
63	0xbe3a689d	-0.1820397

edge_encoder.layers.1.weight f4 [64]
0	0x3f7c53ce	0.98565376
1	0x3f7aeada	0.98014605
2	0x3f7da1a2	0.9907476
3	0x3f800d78	1.000411
4	0x3f7cf258	0.9880729
5	0x3f801ef4	1.0009446
6	0x3f7c06d8	0.9844794
7	0x3f7fedd9	0.999723
8	0x3f7f7164	0.99782395
9	0x3f7b61ea	0.9819628
10	0x3f805ea2	1.002888
11	0x3f7d0891	0.98841196
12	0x3f7aa40c	0.97906566
13	0x3f79bc69	0.97553116
14	0x3f7cfe6b	0.9882571
15	0x3f7cf341	0.98808676
16	0x3f7ab077	0.97925514
17	0x3f7d35d3	0.98910254
18	0x3f7a3759	0.97740704
19	0x3f7dd643	0.9915506
20	0x3f7b7b9b	0.9823548
21	0x3f7b6565	0.9820159
22	0x3f7beea5	0.9841102
23	0x3f7c619d	0.98586446
24	0x3f7c8b4b	0.98650044
25	0x3f7dd962	0.99159825
26	0x3f7b01dd	0.9804972
27	0x3f7f809d	0.99805623
28	0x3f7c254c	0.9849441
29	0x3f7c1a8a	0.98477995
30	0x3f7d78f9	0.99012715
31	0x3f7ccc70	0.98749447
32	0x3f7fe820	0.9996357
33	0x3f7c9125	0.9865897
34	0x3f7ba347	0.98296016
35	0x3f7d44d8	0.9893317
36	0x3f7d248d	0.988839
37	0x3f7bcd68	0.983603
38	0x3f7bea1f	0.98404115
39	0x3f7cace2	0.987013
40	0x3f7bd9aa	0.98379004
41	0x3f7d6d66	0.98995054
42	0x3f7dc56f	0.99129385
43	0x3f7ee4ab	0.9956767
44	0x3f7f0b24	0.99626374
45	0x3f7c9f4d	0.98680574
46	0x3f7fde2c	0.9994838
47	0x3f7c19de	0.9847697
48	0x3f7a72df	0.9783153
49	0x3f7bf7a9	0.98424774
50	0x3f7e1064	0.9924376
51	0x3f7b33dd	0.9812601
52	0x3f793a32	0.97354424
53	0x3f7dc51b	0.99128884
54	0x3f8011b7	1.0005406
55	0x3f7e689a	0.9937836
56	0x3f79f529	0.9763971
57	0x3f804058	1.0019636
58	0x3f7e0cf2	0.992385
59	0x3f7dfd2d	0.9921444
60	0x3f7f62b9	0.99760014
61	0x3f803735	1.0016848
62	0x3f7b399b	0.98134774
63	0x3f7f651c	0.99763656

edge_encoder.layers.1.bias f4 [64]
0	0xbb927bb3	-0.0044703125
1	0xbb9f8b3d	-0.0048688934
2	0xbbc0601c	-0.005870832
3	0x3bb9d56b	0.0056711934
4	0x39905912	0.00027532183
5	0x3c072b3b	0.008250053
6	0xbc1f1021	-0.009708435
7	0x3be601c4	0.0070192534
8	0x3b5e5034	0.0033922317
9	0x3b2b16b6	0.0026106066
10	0x3c07fce9	0.008300045
11	0xbb190088	-0.0023346264
12	0xbc025623	-0.007955107
13	0xbc468c57	-0.012118421
14	0xbc1920ee	-0.00934623
15	0xbbc16b8d	-0.0059027136
16	0xbc7c3322	-0.01539305
17	0xbbe86ee1	-0.007093296
18	0xbc94968c	-0.018138193
19	0xbb76f6bc	-0.0037683686
20	0xbbde96e8	-0.006792892
21	0xbc40965a	-0.011754597
22	0xbbcd9050	-0.006273307
23	0xbbbd22b0	-0.0057719573
24	0xbb992d27	-0.004674572
25	0xbb04e446	-0.0020277663
26	0xba8d5baf	-0.001078477
27	0x3bcc103e	0.006227522
28	0xbb499f54	-0.0030765133
29	0xbbe2708c	-0.0069103893
30	0xbba1f49e	-0.0049424907
31	0xbbe15478	-0.0068765245
32	0x3b6a17b9	0.0035719706
33	0xbb90fff7	-0.0044250446
34	0xbc2651e2	-0.010151358
35	0xbc003143	-0.007824245
36	0xbc128b3c	-0.008944329
37	0xbc911a1c	-0.017712645
38	0xba7d7caa	-0.00096697605
39	0xbc205395	-0.0097855525
40	0xbbdeba7f	-0.0067971344
41	0xbad72029	-0.0016412783
42	0xbb9ee093	-0.0048485487
43	0x3bb65ac5	0.00556502
44	0x3b5f2fff	0.0034055708
45	0xbc0f54d0	-0.008748248
46	0x3b8dcc78	0.004327353
47	0xbbf70697	-0.0075386274
48	0xbc4d5443	-0.012532297
49	0xbc2d3a87	-0.010573036
50	0xbaef7492	-0.0018268994
51	0xbc3fe322	-0.0117118675
52	0xbc914e5a	-0.017737556
53	0xbbb2ea1d	-0.0054600374
54	0x3c06bb28	0.008223332
55	0xbb6fdd3d	-0.0036600374
56	0xbc05681d	-0.008142498
57	0x3c3a5c56	0.011374554
58	0xbb560239	-0.0032655133
59	0x39857200	0.00025452673
60	0x3acd3206	0.0015655167
61	0x3bd0107d	0.006349622
62	0xbc45dd52	-0.012076693
63	0x3a9b3a4c	0.0011842935

edge_encoder.layers.1.running_mean f4 [64]
0	0x3e643f26	0.22289714
1	0x3e1cce3f	0.15313052
2	0xbeb937cd	-0.36175385
3	0xbcccbb51	-0.024991663
4	0x3d672542	0.056432016
5	0xbebb8415	-0.36624208
6	0x3eb89943	0.3605443
7	0xbc1fd5a2	-0.009755524
8	0xbe17c304	-0.14820486
9	0x3c887080	0.016655207
10	0x3e0e37be	0.13888451
11	0x3d24676c	0.040137693
12	0x3ed77001	0.4207764
13	0x3e70fe9f	0.2353463
14	0x3c0da99a	0.008646393
15	0x3c6843f9	0.014176362
16	0x3d1aeeaf	0.037825283
17	0xbdf894c4	-0.1213775
18	0xbeb131d9	-0.34608343
19	0x3c0e6db3	0.0086931465
20	0xbe0c6202	-0.13709262
21	0xbecee80a	-0.40411407
22	0x3dd385c1	0.10328246
23	0xbe074d0c	-0.13212985
24	0x3ecf0790	0.40435457
25	0x3dd5186b	0.10405048
26	0x3e172244	0.14759165
27	0x3d999601	0.07499314
28	0x3e0a9f86	0.13537416
29	0x3e8b0353	0.27150974
30	0x3e9a2a88	0.30110574
31	0x3bd5702e	0.006513617
32	0xbdc88e76	-0.09792797
33	0x3da5ceae	0.08096062
34	0xbe18c3e2	-0.14918473
35	0xba84c06c	-0.0010128147
36	0x3dcfd9af	0.10148942
37	0x3e20b94d	0.15695687
38	0xbed2fb69	-0.41207436
39	0x3defcb9a	0.11708756
40	0xbe1e9c4c	-0.1548931
41	0xbe86d481	-0.26334003
42	0xbe116271	-0.14197709
43	0x3b7062f6	0.003668008
44	0x3e575327	0.21027814
45	0xbeca2f91	-0.39489415
46	0x3db69c67	0.0891655
47	0x3ecc1af3	0.3986431
48	0xbe5f72db	-0.21821158
49	0x3d794d0b	0.06086449
50	0xbe111606	-0.14168558
51	0x3d5e36ba	0.05425141
52	0x3e2c7d9c	0.16844791
53	0xbe795bf8	-0.2435149
54	0x3d7c5777	0.06160685
55	0x3ed82b92	0.42220742
56	0x3b8b0ba7	0.0042433324
57	0xbea105b9	-0.3144968
58	0xba44e5e9	-0.0007511066
59	0x3d31ffe4	0.043456927
60	0x3da70456	0.08155124
61	0x3c946800	0.018115997
62	0xbcffdccf	-0.03123322
63	0xbe487ca7	-0.19578801
