gnn/gnn_outputs/checkpoint_epoch_100.pt (torch, 142201 bytes, 208 tensors)

node_encoder.layers.0.weight f4 [16, 3]
0	0x3ed5abfe	0.41732782
1	0x3ef64748	0.48101258
2	0xbe1dec66	-0.1542221
3	0x3f07c1fb	0.53030366
4	0xbe154db4	-0.14580423
5	0x3dbf50a3	0.09341552
6	0xbea9dfbe	-0.33178514
7	0x3eb67768	0.35637975
8	0x3ef0ed14	0.47055876
9	0xbecd7689	-0.40129498
10	0x3f041897	0.5160002
11	0x3dd49a39	0.10380978
12	0x3ed9fe09	0.42576626
13	0x3d957739	0.072981305
14	0x3e917726	0.28411216
15	0xbe009521	-0.12556888
16	0x3ec527d6	0.38506955
17	0x3dcd7e0c	0.10033807
18	0xbe97af42	-0.296259
19	0x3dbb862d	0.091564514
20	0xbe90ad47	-0.282572
21	0xbd87f74e	-0.066389665
22	0xbe8a152f	-0.26969287
23	0x3eb094fb	0.34488663
24	0xbef44cec	-0.47714937
25	0xbe9cbc51	-0.30612424
26	0xbdea9449	-0.114540644
27	0xbec2fc5d	-0.38083163
28	0x3cde3519	0.027124928
29	0xbf092b77	-0.5358195
30	0x3efb5882	0.49090964
31	0xbf0bb40e	-0.54571617
32	0x3ed6b10f	0.4193196
33	0x3db43434	0.087990195
34	0xbdf877e5	-0.12132243
35	0x3ed15c86	0.40890902
36	0x3d975f9b	0.07391282
37	0x3ee2441f	0.44192597
38	0x3dd524f9	0.104074426
39	0xbe484efe	-0.19561383
40	0x3e067127	0.13129102
41	0xbe316886	-0.17325029
42	0x3e869fe1	0.26293853
43	0x3efeb3a9	0.49746445
44	0x3ea6479d	0.32476512
45	0xbe8d9238	-0.2765062
46	0x3e8d4bf0	0.27596998
47	0x3e0fc190	0.14038682

node_encoder.layers.0.bias f4 [16]
0	0x3e4cb6c1	0.1999159
1	0xbe83ccf4	-0.25742304
2	0xbef31a9f	-0.47481248
3	0xbe075628	-0.1321646
4	0xbeb1be02	-0.34715277
5	0x3ec1616c	0.3776964
6	0x3da1c518	0.07898921
7	0x3e170552	0.14748123
8	0x3dc094ae	0.094033584
9	0x3896d70a	7.1926115e-05
10	0x3eb64d45	0.35605827
11	0xbea136c3	-0.31487092
12	0xb930f4e8	-0.00016875903
13	0xbe991ead	-0.29906216
14	0x3db7ae06	0.08968739
15	0xbddf94e3	-0.1091707

node_encoder.layers.1.weight f4 [16]
0	0x3f79cdba	0.9757954
1	0x3f8116fa	1.0085137
2	0x3f7d1659	0.98862225
3	0x3f84acdb	1.0365251
4	0x3f724a7c	0.94644904
5	0x3f81d141	1.0141984
6	0x3f8156a4	1.0104566
7	0x3f81821b	1.011783
8	0x3f86e9bb	1.0540079
9	0x3f7ecfc0	0.9953575
10	0x3f7fbc10	0.99896336
11	0x3f7f6a59	0.9977165
12	0x3f79f612	0.976411
13	0x3f77dd37	0.9682192
14	0x3f80af57	1.005351
15	0x3f852052	1.0400488

node_encoder.layers.1.bias f4 [16]
0	0xbcb5998a	-0.02216794
1	0x3b84ffb9	0.004058805
2	0x3d18ae04	0.03727533
3	0x3d6ec725	0.058295388
4	0xbd57e287	-0.052706268
5	0xbbccf372	-0.006254607
6	0x3c2fce93	0.0107304035
7	0xbb87a831	-0.004139923
8	0xbcb36ccd	-0.021902466
9	0xbc847cf2	-0.01617286
10	0xbd68517b	-0.05671833
11	0xbd0c26eb	-0.034216803
12	0xbc9b2d8f	-0.018942622
13	0x3d791595	0.060811598
14	0x3cecfbf0	0.028928727
15	0x3d458e9b	0.048231702

node_encoder.layers.1.running_mean f4 [16]
0	0x3f23da25	0.6400474
1	0xbcc5063a	-0.02405082
2	0xbe42be19	-0.19017829
3	0x3cd373ce	0.025812056
4	0x3d82553c	0.063639134
5	0x3f1b9781	0.6077805
6	0xbe24b8c0	-0.16086102
7	0x3e048b16	0.12943682
8	0xbeccb0ed	-0.39978734
9	0xbeeb27bf	-0.4592876
10	0x3effaea3	0.49937925
11	0xbe0d9fa4	-0.1383043
12	0x3ebaeb5f	0.365077
13	0xbed41548	-0.41422486
14	0x3f347fe9	0.70507675
15	0xbc5c8e33	-0.013461637

node_encoder.layers.1.running_var f4 [16]
0	0x3d2a683f	0.041603323
1	0x3cb65938	0.02225934
2	0x3d2ea37e	0.042636387
3	0x3d0a2f68	0.033736616
4	0x3cc20b4d	0.02368703
5	0x3c7bacfc	0.015361067
6	0x3c783d1a	0.0151512865
7	0x3ca37bb0	0.01995644
8	0x3cfc62f2	0.0308089
9	0x3d2aef3e	0.041732065
10	0x3d6ac26c	0.05731432
11	0x3c9f6676	0.019458037
12	0x3cab8b13	0.02094034
13	0x3be51489	0.0069909734
14	0x3d326a31	0.043558303
15	0x3c5db648	0.013532229

node_encoder.layers.3.weight f4 [16, 16]
0	0x3d91cf15	0.07119576
1	0xbd86afb4	-0.065764815
2	0x3e617880	0.22018623
3	0xbe00bb13	-0.12571363
4	0xbe10c053	-0.14135866
5	0xbe118510	-0.14210916
6	0x3e5b4c26	0.21415767
7	0x3ddb3663	0.10703733
8	0x3e734028	0.23754942
9	0xbe5c5992	-0.21518543
10	0xbe8041dc	-0.25050247
11	0xbe330d39	-0.17485513
12	0xbe2d3388	-0.16914189
13	0x3db0ff86	0.08642487
14	0x3dac7950	0.08421576
15	0x3e6acb76	0.22929177
16	0xbe046ce2	-0.1293216
17	0xbe4b1806	-0.19833383
18	0x3e0ff6b3	0.14058952
19	0xbdcdce83	-0.100491546
20	0x3deab44d	0.11460171
21	0xbd66a668	-0.05631104
22	0x3e0178a9	0.12643684
23	0xbe51a1a6	-0.2047182
24	0xbe12b1a1	-0.14325573
25	0x3d7ead0f	0.06217676
26	0x3bf6276b	0.007512023
27	0xbdc20733	-0.094740294
28	0x3e205cdf	0.15660428
29	0x3e1ed9cd	0.15512772
30	0xbe374c5d	-0.17900224
31	0xbe025c09	-0.12730421
32	0x3e748dad	0.2388217
33	0xbd19c4fb	-0.03754137
34	0xbdf83245	-0.12118963
35	0xbe8dfd02	-0.27732092
36	0xbe0241e5	-0.1272045
37	0x3d119d56	0.035550438
38	0xbd420e04	-0.047376648
39	0xbe685c85	-0.22691543
40	0xbc990d0e	-0.018682983
41	0xbe2f5c66	-0.17125091
42	0xbe1e52f9	-0.15461339
43	0xbe13f434	-0.14448625
44	0xbe708dba	-0.23491564
45	0xbe288581	-0.16457178
46	0x3e6e93ad	0.23298521
47	0x3c0d2a5f	0.008616059
48	0x3da8d076	0.08242886
49	0xbe63533d	-0.22199722
50	0xbe1495c8	-0.14510262
51	0xbdf42116	-0.11920373
52	0x3d3ebc17	0.046566095
53	0xbe6cd064	-0.2312637
54	0xbde8c124	-0.11364964
55	0xbe16fdad	-0.14745207
56	0x3c40d620	0.011769801
57	0xbdbb0269	-0.09131319
58	0xbc6a9f56	-0.014320215
59	0xbe27a389	-0.16370977
60	0xbe314c02	-0.17314151
61	0xbe1e3d00	-0.15452957
62	0xbd8d540c	-0.06900796
63	0xbe6bbba9	-0.23020805
64	0x3e5356c6	0.2063857
65	0xbdac1b31	-0.08403624
66	0x3e544e3b	0.20732968
67	0x3dbf4ba6	0.09340601
68	0xbe6932ec	-0.22773331
69	0x3e47a92a	0.19498125
70	0xbd4cd432	-0.050007053
71	0xbdbee0d3	-0.093202256
72	0xbe37a995	-0.17935784
73	0xbe7a9980	-0.24472618
74	0x3d40fc3d	0.047115553
75	0xbd8518b8	-0.06498855
76	0x3e064a42	0.13114265
77	0xbe41d751	-0.18929793
78	0x3e413373	0.18867283
79	0xbe29c1aa	-0.16577783
80	0xbdd31be7	-0.10308056
81	0x3d9c59fd	0.076343514
82	0x3dca7b02	0.09886743
83	0x3e361341	0.17780782
84	0x3e27e6ca	0.16396633
85	0xbe71ae4b	-0.23601644
86	0x3d23edcd	0.040021706
87	0xbe00e93e	-0.12588975
88	0xbd0611ba	-0.03273175
89	0xbe2dc51c	-0.16969723
90	0x3e7d4626	0.24733791
91	0xbe5e47ab	-0.21707027
92	0x3db14b31	0.0865692
93	0x3d957ab8	0.07298797
94	0x3cd53021	0.026023926
95	0xbe23bae7	-0.15989266
96	0x3e3bfa58	0.18357217
97	0x3d0df514	0.034657553
98	0xbba50611	-0.0050361236
99	0xbe81de45	-0.2536489
100	0x3d7aba2f	0.061212715
101	0xbd96a1ee	-0.073551044
102	0xbe194ba3	-0.1497026
103	0x3e531cf1	0.20616509
104	0x3daaa86d	0.08332906
105	0xbe182d37	-0.14860998
106	0xbde79295	-0.11307255
107	0xbd2121c0	-0.039338827
108	0x3dda7b02	0.10667993
109	0xbdd7fd3b	-0.10546347
110	0xbe330bab	-0.1748492
111	0xbdf918a0	-0.121629
112	0xbe259a79	-0.16172208
113	0x3d8ae994	0.06782833
114	0x3e363f22	0.17797521
115	0xbe7f7f6b	-0.2495095
116	0x3d1bb8b8	0.03801796
117	0x3e07b1ca	0.13251415
118	0x3c82477b	0.015903225
119	0xbd3d6e9e	-0.04624807
120	0x3e32653f	0.17421435
121	0x3de6f892	0.1127788
122	0x3db22e10	0.08700192
123	0xbd1ffcd4	-0.039059475
124	0xbd6425a8	-0.055699974
125	0xbc9c6bce	-0.019094374
126	0xbd37f97d	-0.044915665
127	0xbdbf8049	-0.0935064
128	0x3e011692	0.12606266
129	0x3e26656e	0.1624963
130	0xbdb8c068	-0.090210736
131	0xbd58f03b	-0.052963477
132	0xbd291e3f	-0.04128861
133	0xbd7d9b24	-0.06191553
134	0x3daec0cc	0.08532867
135	0x3dbb20ef	0.09137141
136	0xbe39feb5	-0.1816357
137	0xbda10ca0	-0.07863736
138	0x3e66dd47	0.22545348
139	0x3dd46b72	0.10372056
140	0xbd84fea9	-0.06493885
141	0xbe023e60	-0.12719107
142	0xbe570a82	-0.21000102
143	0xbe80daaf	-0.25166842
144	0xbca4421d	-0.020051057
145	0x3dadbd63	0.08483388
146	0x3defc816	0.11708085
147	0x3da50cf6	0.08059113
148	0xbe59a340	-0.21253681
149	0xbe19caa5	-0.15018709
150	0xbd254226	-0.040346287
151	0x3e88d4eb	0.26724944
152	0x3da64cb8	0.08120102
153	0xbd885132	-0.06656112
154	0x3df6845e	0.12036966
155	0xbdb49fd7	-0.088195495
156	0xbdcdcd8f	-0.10048973
157	0x3e3a1154	0.18170673
158	0xbe037f17	-0.1284145
159	0xbdbc6372	-0.09198655
160	0xbe3b2450	-0.18275571
161	0x3e591df2	0.2120283
162	0x3e5c3eab	0.21508281
163	0x3d9dba9f	0.07701611
164	0xbe09b08d	-0.13446255
165	0xbe5a9a0c	-0.21347827
166	0xbe682482	-0.22670177
167	0x3e4981e5	0.19678457
168	0x3dba599a	0.090991214
169	0x3e3c70e3	0.18402438
170	0x3e26c01c	0.16284221
171	0x3db0be85	0.08630089
172	0x3d379e5a	0.04482875
173	0xbe4b7535	-0.1986893
174	0xbe3218e8	-0.17392313
175	0xbe72e44f	-0.23719905
176	0x3d803538	0.06260151
177	0xbdc7e882	-0.09761144
178	0xbdda4c53	-0.10659089
179	0xbe3a303c	-0.18182462
180	0xbd1999d0	-0.037500203
181	0xbe3adb4a	-0.18247715
182	0xbe35afba	-0.17742816
183	0x3da3f1ea	0.08005126
184	0xbda24b5a	-0.079245284
185	0x3e136e0f	0.14397453
186	0xbd1b774c	-0.037955567
187	0xbe2f23ed	-0.17103548
188	0xbd3b47ad	-0.045722652
189	0xbe111038	-0.14166343
190	0xbdb334be	-0.08750294
191	0xbe974003	-0.29541025
192	0x3e14d104	0.14532858
193	0xbe3471e3	-0.1762157
194	0x3dbf36e0	0.093366385
195	0x3ddedf9a	0.10882492
196	0x3e334081	0.17505075
197	0xbe3e19d5	-0.18564542
198	0x3e446939	0.19180764
199	0xbdcdebf4	-0.1005477
200	0x3df0874a	0.11744554
201	0x3e7838ad	0.2424037
202	0xbc913c09	-0.017728822
203	0x3be75d33	0.0070606708
204	0xbd3b4428	-0.045719296
205	0xbe47de8b	-0.19518487
206	0x3dd478db	0.10374614
207	0xbe8573df	-0.26064965
208	0x3e1cd966	0.15317306
209	0x3e2de63f	0.16982363
210	0x3e70e466	0.23524627
211	0xbd9434f0	-0.072366595
212	0xbe52be61	-0.20580436
213	0x3d1f175e	0.038840644
214	0x3e01f936	0.12692723
215	0xbe839c50	-0.25705194
216	0xbda42cf0	-0.08016384
217	0xbe24be05	-0.16088112
218	0xbd7a13f1	-0.061054174
219	0xbe0332a7	-0.12812291
220	0xbdf73843	-0.12071278
221	0xbdbc2c9c	-0.09188196
222	0xbe6e4323	-0.23267798
223	0x3e493a40	0.19651127
224	0x3e810634	0.25200045
225	0xbcedf38e	-0.0290468
226	0x3cdc719d	0.026909644
227	0xbdd9abd0	-0.10628474
228	0xbe2f0c43	-0.17094521
229	0xbe801920	-0.2501917
230	0x3d9f8b8c	0.07790288
231	0xbd870570	-0.06592834
232	0xbe345a00	-0.17612457
233	0xbd0bedb7	-0.03416225
234	0xbdd763e7	-0.10517102
235	0xbc7796eb	-0.015111665
236	0x3c1a637e	0.009423135
237	0xbd8b5b47	-0.06804519
238	0xbd481e14	-0.04885681
239	0xbddd3b66	-0.10802345
240	0xbe79e210	-0.24402642
241	0x3e842371	0.2580829
242	0xbdf6fb95	-0.12059704
243	0x3c8e9eca	0.0174097
244	0xbdb44f45	-0.08804182
245	0xbcad8cde	-0.021185335
246	0x3e5b5e3e	0.2142267
247	0x3db0b57f	0.08628368
248	0xbe415c40	-0.18882847
249	0x3df76ce0	0.12081313
250	0x3e8a21a1	0.26978782
251	0x3d3b2433	0.04568882
252	0x3e05e6b0	0.13076282
253	0x3e54f30c	0.2079584
254	0xbd7e2d15	-0.062054712
255	0x3bcd75be	0.0062701395

node_encoder.layers.3.bias f4 [16]
0	0xbdafc4a3	-0.08582427
1	0x38f6fb5c	0.000117770134
2	0x3dc55ad9	0.096364684
3	0x3d39b5ad	0.045339275
4	0xbd92bd09	-0.07164962
5	0xbde2cbb5	-0.1107401
6	0xbdaa5be6	-0.083183095
7	0xbe1e8bce	-0.15483019
8	0xbdd43814	-0.103622586
9	0xbb0355e5	-0.002004021
10	0x3da652e5	0.081212796
11	0xb9cf8e07	-0.00039587935
12	0xbdcef4a6	-0.10105257
13	0xbde2f8f4	-0.1108264
14	0x3d2ccbfe	0.04218673
15	0xbdc6ecbc	-0.09713122

node_encoder.layers.4.weight f4 [16]
0	0x3f80fe6e	1.0077646
1	0x3f76345d	0.9617365
2	0x3f7b95fd	0.9827574
3	0x3f7d445c	0.98932433
4	0x3f7f174f	0.9964494
5	0x3f7c78e0	0.9862194
6	0x3f790670	0.9727545
7	0x3f807a00	1.0037231
8	0x3f7d336c	0.9890659
9	0x3f838eac	1.0277915
10	0x3f7668e5	0.96253806
11	0x3f836059	1.0263778
12	0x3f7f8818	0.9981704
13	0x3f76d804	0.96423364
14	0x3f8015f7	1.0006703
15	0x3f7f2fbe	0.99682224

node_encoder.layers.4.bias f4 [16]
0	0x3cb29a3e	0.021802064
1	0xbb4d30ee	-0.0031309682
2	0xbb007918	-0.0019603427
3	0xbc50c6cb	-0.012742708
4	0xbca5a596	-0.02022056
5	0xbb48e8c4	-0.0030656317
6	0xbc616dfc	-0.0137591325
7	0xbc7635fb	-0.015027518
8	0xbd1b7da2	-0.03796161
9	0xbd76c21e	-0.06024372
10	0xbd2c9215	-0.042131502
11	0x3d257388	0.040393382
12	0x3cd9586a	0.026531417
13	0xbcb86ce1	-0.022512855
14	0xbd2b92f9	-0.04188821
15	0x3c807a42	0.015683297

node_encoder.layers.4.running_mean f4 [16]
0	0xbda131ef	-0.07870852
1	0xbe54b221	-0.20771076
2	0xbecc74ea	-0.39932948
3	0xbf314893	-0.69251364
4	0xbe27aab2	-0.16373709
5	0xbe15be51	-0.14623381
6	0xbea5141f	-0.32241914
7	0xbe032506	-0.12807092
8	0xbe8da151	-0.27662137
9	0x3cce6841	0.025196197
10	0x3d3f6158	0.046723694
11	0xbf15cc03	-0.5851442
12	0xbd53645d	-0.051609386
13	0xbe97959f	-0.2960634
14	0xbe976953	-0.29572544
15	0x3e2ed2ea	0.17072645

node_encoder.layers.4.running_var f4 [16]
0	0x3e2419d3	0.16025476
1	0x3db2eec8	0.0873695
2	0x3df3f404	0.11911777
3	0x3e349114	0.17633468
4	0x3e800b73	0.25008735
5	0x3d451d1a	0.048123457
6	0x3e0109ca	0.1260139
7	0x3d6e6910	0.058205664
8	0x3e7c1c05	0.24620064
9	0x3dc545fb	0.09632488
10	0x3e8153b1	0.25259164
11	0x3e3ac336	0.1823853
12	0x3d950eeb	0.07278236
13	0x3da68044	0.081299335
14	0x3d9d5139	0.076815076
15	0x3df03efa	0.11730762

node_encoder.layers.6.weight f4 [4, 16]
0	0xbd937ee5	-0.072019376
1	0x3dc7217f	0.09723186
2	0xbdbf7ec4	-0.093503505
3	0xbd50e655	-0.05100091
4	0x3cc67c2a	0.024229128
5	0xbc419ffd	-0.011817929
6	0xbe2a8c27	-0.16655026
7	0xbe70691b	-0.23477595
8	0xbe4734f1	-0.1945379
9	0xbe26bbae	-0.16282532
10	0x3e50549b	0.20344774
11	0xbe0ed8d5	-0.13949902
12	0xbe230837	-0.15921102
13	0x3d0e250a	0.034703292
14	0x3dcca450	0.099922776
15	0x3df6166d	0.12015996
16	0x3e5b3b35	0.21409304
17	0x3ded1c9e	0.11577724
18	0xbe662a34	-0.22477037
19	0x3b934d33	0.004495287
20	0x3e24dcef	0.16099904
21	0xbd5be9de	-0.05368983
22	0xbdef5dc5	-0.11687807
23	0x3e66e4a2	0.22548154
24	0xbdfd540c	-0.12369546
25	0xbdfd21e3	-0.12359979
26	0xbe6be850	-0.23037839
27	0x3aaabdfc	0.001302659
28	0x3ddd4fdf	0.1080625
29	0x3d89e8ec	0.067338794
30	0x3d0d2403	0.03445817
31	0xbe55711f	-0.20843934
32	0xbe6b5bde	-0.22984263
33	0x3c2d8205	0.010590081
34	0x3e725c44	0.23668009
35	0x3e019190	0.12653184
36	0xbe0c11ad	-0.13678618
37	0xbc8db5f2	-0.017298672
38	0xbe178a5e	-0.14798877
39	0xbde2d892	-0.11076464
40	0x3d796eb3	0.060896587
41	0x3e2241e9	0.15845455
42	0x3e5fa396	0.21839747
43	0xbe758067	-0.23974763
44	0x3e292077	0.1651629
45	0xbe128e7b	-0.14312164
46	0x3db8bb1c	0.09020063
47	0x3e6815cc	0.22664565
48	0x3d348343	0.044070493
49	0x3e6db5dd	0.23213907
50	0xbe440138	-0.1914109
51	0xbdef4a9f	-0.11684155
52	0x3e0f2bef	0.13981603
53	0xbdaf2161	-0.085512884
54	0xbd31bce1	-0.04339302
55	0xbe0b808c	-0.13623255
56	0x3e1625fd	0.14662929
57	0x3e06e1b5	0.13172038
58	0x3da03a69	0.07823641
59	0xbe200655	-0.15627415
60	0xbe566c05	-0.20939644
61	0x3c1f471c	0.009721544
62	0x3d60a359	0.05484328
63	0xbdcde346	-0.100531146

node_encoder.layers.6.bias f4 [4]
0	0xbba7ece5	-0.0051246756
1	0x3da69bb4	0.08135167
2	0xb902e752	-0.0001248394
3	0x34ee9aef	4.4443684e-07

edge_encoder.layers.0.weight f4 [16, 4]
0	0xbe1f5d2f	-0.1556289
1	0xbec9507e	-0.39319223
2	0xbf06ea60	-0.5270138
3	0xbe492337	-0.1964234
4	0xbe74e736	-0.23916325
5	0x3df1fe9c	0.11816141
6	0xbe2e33f2	-0.17012003
7	0xbe44a7f9	-0.19204701
8	0x3ee56a89	0.44807842
9	0x3e3efdfb	0.18651573
10	0x3ec71d04	0.38889325
11	0xbe3b0dac	-0.18266934
12	0xbe61ab0f	-0.2203791
13	0x3e744f78	0.2385844
14	0xbe8ec0ba	-0.27881414
15	0xbeb69952	-0.3566385
16	0xbbfc74df	-0.007704362
17	0xbe3e27bb	-0.18569843
18	0xbec37f21	-0.3818293
19	0x3e816e1c	0.2527932
20	0x3ed1544b	0.40884623
21	0x3db7d123	0.089754365
22	0xbdaf67cf	-0.08564722
23	0xbee0cdfa	-0.43907148
24	0xbe46775b	-0.19381468
25	0x3db59ab1	0.08867396
26	0x3e83c2f4	0.25734675
27	0xbdadd99a	-0.0848877
28	0xbe3c4616	-0.1838611
29	0x3e70e47c	0.2352466
30	0xbedbbb26	-0.4291622
31	0x3ebe542f	0.37173602
32	0xbe416344	-0.18885523
33	0x3d31f1f9	0.043443654
34	0xbdd280fd	-0.10278509
35	0x3d642f8c	0.055709407
36	0xbe2ef762	-0.17086557
37	0x3ec6f876	0.38861436
38	0xbc5ea46e	-0.013589008
39	0x3ea9442e	0.3305983
40	0x3ee2626b	0.44215712
41	0xbe535f48	-0.20641816
42	0xbecd1f34	-0.4006287
43	0x3ece9ff7	0.40356418
44	0x3ed01734	0.40642703
45	0xbebad736	-0.36492318
46	0xbd49f0db	-0.049301963
47	0xbee6a3be	-0.450468
48	0xbed070b1	-0.40710977
49	0x3dba1b04	0.09087184
50	0x3e09e06b	0.13464515
51	0x3e1c1cb7	0.15245329
52	0xbe240e99	-0.16021194
53	0x3ed7399c	0.4203614
54	0x3dc05786	0.09391694
55	0xbe6b657b	-0.2298793
56	0xbc8ddfef	-0.017318694
57	0x3da0ce26	0.0785182
58	0x3e5bceff	0.21465681
59	0xbe999442	-0.29995924
60	0x3e4def61	0.20110847
61	0xbe869d4d	-0.26291886
62	0xbed025e3	-0.40653905
63	0xbe7d3ad9	-0.2472948

edge_encoder.layers.0.bias f4 [16]
0	0x3ec5b497	0.38614342
1	0x3ea9ef6c	0.33190477
2	0x3eb439d0	0.35200357
3	0x3e4d06f4	0.20022184
4	0x3e90cffe	0.28283685
5	0xbb77a29e	-0.0037786136
6	0xbe3ab2db	-0.1823229
7	0x3e21a310	0.1578486
8	0xbe2acbf9	-0.16679372
9	0xbe790a0a	-0.24320236
10	0xbd9576fb	-0.07298084
11	0x3cdb0ead	0.026740396
12	0x3e29210e	0.16516516
13	0xbdd6bb56	-0.1048495
14	0xbe4dcdba	-0.2009801
15	0x3b826579	0.0039793816

edge_encoder.layers.1.weight f4 [16]
0	0x3f7e40c3	0.9931757
1	0x3f75ecc5	0.96064407
2	0x3f7cd224	0.9875815
3	0x3f7f9f53	0.99852484
4	0x3f7d27e6	0.98889005
5	0x3f73528e	0.95047843
6	0x3f799ce3	0.97505015
7	0x3f80e946	1.0071189
8	0x3f831358	1.0240278
9	0x3f7224db	0.94587487
10	0x3f76450a	0.96199095
11	0x3f73aacd	0.95182496
12	0x3f785b7e	0.97014606
13	0x3f732a0b	0.9498603
14	0x3f7b80cf	0.9824342
15	0x3f812cb6	1.009177

edge_encoder.layers.1.bias f4 [16]
0	0xbbb02888	-0.0053759255
1	0xbc81a598	-0.015826032
2	0xbc475998	-0.012167357
3	0x3b82188d	0.003970212
4	0xbc0d5a56	-0.008627495
5	0xbc9440ce	-0.018097308
6	0xbcc28156	-0.023743313
7	0x3c04b177	0.008098952
8	0x3c6bb62d	0.014386696
9	0xbd7f99f3	-0.062402677
10	0xbce0df0d	-0.027450109
11	0x3bb8a0ed	0.005634418
12	0xbc949adb	-0.018140247
13	0xbd0c52bc	-0.03425859
14	0xbc90ffa9	-0.017700033
15	0x3c73adaf	0.014872952

edge_encoder.layers.1.running_mean f4 [16]
0	0x3ec7f5da	0.39054757
1	0x3ea806f2	0.328178
2	0x3eafbd45	0.3432409
3	0x3e420d1c	0.18950313
4	0x3e9bb52b	0.30411658
5	0xbcbced58	-0.023062393
6	0xbe46cbfa	-0.19413748
7	0x3e391d28	0.18077528
8	0xbe2bd185	-0.16779144
9	0xbe71943b	-0.23591702
10	0xbd51eab3	-0.051249217
11	0x3c5d271d	0.013498095
12	0x3e30cb6d	0.17265101
13	0xbdfca674	-0.12336436
14	0xbe62b849	-0.22140612
15	0x3a99dd6e	0.0011738965

edge_encoder.layers.1.running_var f4 [16]
0	0x3e632090	0.2218039
1	0x3d045757	0.032309856
2	0x3e163f5f	0.14672612
3	0x3d926a98	0.071492374
4	0x3de1dc8b	0.11028393
5	0x3d0c64a8	0.03427568
6	0x3d6337f9	0.0554733
7	0x3e15ab6b	0.14616172
8	0x3c62dc32	0.013846444
9	0x3ca907e0	0.020633638
10	0x3e1f26ac	0.15542096
11	0x3d33e8ad	0.04392307
12	0x3d2ce86f	0.042213853
13	0x3cec1220	0.028817236
14	0x3d0ce35b	0.03439651
15	0x3e0a3b4a	0.1349918

edge_encoder.layers.3.weight f4 [4, 16]
0	0xbe0743a1	-0.13209392
1	0xbe28e133	-0.16492157
2	0x3dfb03d1	0.12256587
3	0xbd394656	-0.045233093
4	0x3e747f58	0.23876703
5	0x3e676dad	0.22600432
6	0x3d2a55d7	0.04158577
7	0x3db2cb9a	0.0873024
8	0x3d86a8e5	0.06575183
9	0xbd0b87f5	-0.034065206
10	0xbc469aa8	-0.012121834
11	0x3c2c382f	0.010511442
12	0x3d4b303d	0.04960655
13	0x3e3fa946	0.18716916
14	0xbdbff6c7	-0.09373241
15	0xbdc75a51	-0.09734023
16	0xbd9196db	-0.071088515
17	0xbde4088f	-0.11134445
18	0x3d79f807	0.061027553
19	0x3e3e812c	0.18603963
20	0x3e3d7029	0.18499817
21	0x3e022609	0.12709822
22	0xbe24a89c	-0.16079944
23	0xbe0c71a8	-0.13715231
24	0xbd81bdc4	-0.06335023
25	0x3b1f6ef7	0.0024327615
26	0x3ca42381	0.02003646
27	0xbe2f7a1b	-0.17136423
28	0x3dd0c8ec	0.10194573
29	0xbe13fd77	-0.14452158
30	0xbe09d42a	-0.1345984
31	0xbe56d5af	-0.20979951
32	0x3e6c259e	0.23061225
33	0xbe4e5a8f	-0.20151733
34	0x3e340055	0.17578252
35	0x3cbf1226	0.023324084
36	0xbc391368	-0.011296131
37	0x3ddcc06c	0.10778889
38	0x3c0d1ed3	0.008613306
39	0x3e444626	0.19167385
40	0x3e5aa35d	0.2135138
41	0xbe220136	-0.15820774
42	0x3d9d7b14	0.07689491
43	0xbaca9013	-0.0015454314
44	0x3db886f2	0.09010114
45	0x3da10a10	0.078632474
46	0x3dbaf815	0.09129349
47	0xbdfc3951	-0.1231562
48	0xbc65d514	-0.014027853
49	0x3e64a7fd	0.22329707
50	0x3e1e6ffb	0.15472405
51	0xbc9f6fc9	-0.019462483
52	0xbe620c00	-0.2207489
53	0x3aa9a863	0.001294386
54	0xbe499a5c	-0.1968779
55	0x3e4c132b	0.19929187
56	0xbe1d9bc1	-0.15391447
57	0xbd2a8cd5	-0.041638214
58	0xbcf0373f	-0.029323218
59	0x3d6f08bc	0.05835794
60	0x3e524ff0	0.20538306
61	0xbc9b6d71	-0.018973084
62	0x3defa843	0.11702015
63	0x3e557134	0.20843965

edge_encoder.layers.3.bias f4 [4]
0	0x3e3f3102	0.18671039
1	0xbd832f83	-0.064055465
2	0xbab77d1e	-0.001399908
3	0x3e0249fc	0.12723535

message_passing_layers.0.message_mlp.layers.0.weight f4 [16, 12]
0	0xbd8cba46	-0.06871466
1	0x3e1189c0	0.14212704
2	0xbda742ff	-0.08167075
3	0xbe3b798f	-0.1830809
4	0x3e0021f3	0.1251295
5	0x3d2c31a5	0.042039532
6	0x3e09e346	0.13465604
7	0x3e91d6b3	0.28484115
8	0x3e5418c5	0.20712574
9	0x3e8f3b27	0.27974817
10	0xba8b7fb7	-0.001064292
11	0xbe724cbe	-0.23662087
12	0xbe66f094	-0.22552711
13	0xbe46a3ff	-0.19398497
14	0xbe7bf1f4	-0.24604017
15	0xbe3a2843	-0.18179421
16	0xbe7a6932	-0.24454191
17	0xbe65eabe	-0.22452828
18	0xbe0a5d91	-0.13512255
19	0xbe8608be	-0.26178545
20	0xbe4a8596	-0.19777521
21	0x3dbf6ad6	0.09346549
22	0x3e7d0386	0.24708375
23	0xbdfca5b1	-0.12336291
24	0xbda2309c	-0.07919428
25	0x3e04fef1	0.12987877
26	0xbe15fc9e	-0.14647147
27	0xbe14cc20	-0.14530993
28	0x3e5a1623	0.21297507
29	0xbe6bdcff	-0.23033522
30	0x3d80876e	0.06275831
31	0x3e8ab8bd	0.2709407
32	0x3d5e905f	0.0543369
33	0x3d513c54	0.051082924
34	0xbe2f9c10	-0.17149377
35	0xbc68b36a	-0.014202932
36	0x3cd1b327	0.025598122
37	0x3dcf9ee9	0.101377316
38	0x3de182c8	0.11011273
39	0x3e80bc6b	0.25143752
40	0xbe6fcfd4	-0.23419124
41	0xbbdc5cdc	-0.006724937
42	0xbe1dc0df	-0.15405606
43	0xbe731ffe	-0.23742673
44	0xbc50fcbc	-0.012755569
45	0xbe646553	-0.22304277
46	0x3e4bc87e	0.199007
47	0x3d03591f	0.032067414
48	0xbe14f1e1	-0.14545394
49	0x3e12e585	0.14345367
50	0xbe941a5e	-0.28926367
51	0xbdd8c2a7	-0.10584002
52	0xbd9e84c7	-0.07740169
53	0xbe7f727d	-0.24946018
54	0xbe3a691c	-0.18204159
55	0xbd8fabd2	-0.07015194
56	0x3e6ae958	0.22940576
57	0x3e8b6f97	0.27233574
58	0x3e2a8fb3	0.1665638
59	0xbe2a27d3	-0.16616754
60	0xbe60079e	-0.21877906
61	0x3e83e35c	0.257594
62	0x3deb354c	0.11484775
63	0x3c99e87b	0.018787613
64	0x3d5d2f98	0.054000467
65	0xbe4ea6d2	-0.20180824
66	0xbd919e66	-0.0711029
67	0x3e988712	0.2979055
68	0xbdd3acf6	-0.10335724
69	0xbb65a02d	-0.00350381
70	0xbe684d81	-0.22685815
71	0xbe180f24	-0.14849526
72	0xbb04dc40	-0.002027288
73	0xbe3e3cb1	-0.1857784
74	0xbd76b668	-0.06023255
75	0x3dccbeaf	0.099973075
76	0xbe8d9791	-0.27654698
77	0x3dce6115	0.10077111
78	0xbe35194c	-0.17685431
79	0xbe05be14	-0.1306079
80	0x3dee132b	0.1162475
81	0x3e60cc2f	0.2195289
82	0xbdcff24a	-0.10153635
83	0xbe07d31e	-0.13264129
84	0xbe7a94d0	-0.2447083
85	0xbe2adbbb	-0.16685383
86	0xbe7cdd51	-0.246938
87	0xbd4fedde	-0.050763957
88	0x3d7e71ee	0.06212037
89	0xbe8057e8	-0.25067067
90	0x3e862165	0.26197353
91	0x3e42cd93	0.19023733
92	0xbe887805	-0.26654068
93	0xbe1e9450	-0.15486264
94	0x3dcadb22	0.099050775
95	0xbd313a79	-0.043268654
96	0xbd0f8a16	-0.0350438
97	0xbe0f5d47	-0.14000426
98	0x3e5b8a8b	0.21439569
99	0xbdf1d8e2	-0.11808945
100	0x3e67fcb2	0.2265499
101	0x3c3d4997	0.01155319
102	0x3d577135	0.052598197
103	0x3e56ba90	0.20969605
104	0xbd506159	-0.050874088
105	0xbe325265	-0.17414244
106	0xbd80df0f	-0.06292545
107	0x3e8e15b9	0.27750948
108	0xbe816093	-0.25268993
109	0x3d4b8b3e	0.04969334
110	0xbe8965ab	-0.2683538
111	0x3e2946e6	0.16530952
112	0x3d6a714e	0.057236962
113	0xbce5219e	-0.027970131
114	0x3dadec72	0.08492364
115	0xbd2ef605	-0.04271509
116	0x3df8927c	0.12137315
117	0xbe7b59b2	-0.24545935
118	0xbcccc7af	-0.02499756
119	0x3e150e8a	0.14556327
120	0x3e81e7bc	0.25372112
121	0x3e159428	0.14607298
122	0xbe68a599	-0.2271942
123	0x3e710083	0.23535351
124	0xbdb4c2f3	-0.08826246
125	0xbd9e8c92	-0.077416554
126	0xbe8bc80a	-0.27301055
127	0xbd8095e8	-0.06278592
128	0x3e2f10b3	0.17096214
129	0x3d213776	0.039359532
130	0xbe3e722e	-0.18598244
131	0x3dd8965c	0.10575554
132	0xbd84c6fc	-0.06483266
133	0x3e7979e9	0.24362911
134	0xbe869c3d	-0.26291075
135	0xbd96f79c	-0.073714465
136	0xbe8931d4	-0.26795828
137	0xbdedab7d	-0.116049744
138	0x3da79abc	0.0818381
139	0x3e94812e	0.29004806
140	0x3d969228	0.07352096
141	0x3e8d5d85	0.27610412
142	0x3d2e8608	0.04260829
143	0x3e3b9a3b	0.18320553
144	0x3e813314	0.25234282
145	0x3e883bc3	0.26608095
146	0xbe2f3ffb	-0.1711425
147	0x3e828edf	0.25499627
148	0x3e45afda	0.19305363
149	0xbdc79c03	-0.09746554
150	0xbdcba094	-0.09942737
151	0xbe5fec77	-0.21867548
152	0x3dc08f5d	0.094023444
153	0xbe54b60d	-0.20772572
154	0x3de3f6ed	0.11131082
155	0x3da27936	0.079332754
156	0xbe8a70c0	-0.27039146
157	0x3d8d53d2	0.06900753
158	0xbce110a1	-0.02747375
159	0x3e29b059	0.16571178
160	0x3e075ff0	0.13220191
161	0xbe9320c3	-0.28735933
162	0x3e87d67a	0.2653082
163	0x3e501c33	0.20323257
164	0x3dc36f57	0.09542721
165	0xbe8bc688	-0.27299905
166	0xbdda5b94	-0.106619984
167	0xbd4997ee	-0.049217157
168	0xbd9e9234	-0.0774273
169	0x3e2d404a	0.16919056
170	0x3ddf4041	0.10900927
171	0x3e47ad11	0.19499613
172	0xbdb8b2ca	-0.09018476
173	0x3dd961ce	0.10614358
174	0x3dc5b80c	0.09654245
175	0xbe63eb22	-0.22257665
176	0xbe8fd2e6	-0.2809059
177	0xbe11ef2d	-0.14251395
178	0x3e4c709b	0.1996483
179	0xbe9c410c	-0.30518377
180	0xbe6f9efe	-0.23400494
181	0x3e18e0fe	0.14929578
182	0x3e302045	0.1719981
183	0x3e7d28ee	0.24722645
184	0xbe73f067	-0.23822175
185	0xbe722e7b	-0.23650543
186	0x3df95dc1	0.12176085
187	0x3e66a9bb	0.22525685
188	0x3e42500c	0.18975848
189	0x3d07b0e2	0.033127673
190	0x3de22689	0.11042506
191	0x3e90a787	0.28252813

message_passing_layers.0.message_mlp.layers.0.bias f4 [16]
0	0xbdc77ff9	-0.09741206
1	0xbd43dfc1	-0.04782081
2	0x3de5a1c6	0.112124965
3	0xbddd1949	-0.107958384
4	0xbd948ed2	-0.07253803
5	0x3df6a593	0.120432995
6	0x3c8a36c8	0.016871825
7	0x3c96423f	0.018342135
8	0xbd25f955	-0.040520985
9	0xb5e976f0	-1.7394468e-06
10	0x3e2fde7d	0.17174716
11	0xbdaededc	-0.08538601
12	0xb6e66e60	-6.8673835e-06
13	0x3d5a08a1	0.053230885
14	0xbde08285	-0.109623946
15	0x3e3fe8a9	0.18741097

message_passing_layers.0.message_mlp.layers.1.weight f4 [16]
0	0x3f7fc00c	0.99902415
1	0x3f7bdae3	0.9838087
2	0x3f819769	1.0124332
3	0x3f7c74ec	0.9861591
4	0x3f7bcc7a	0.9835888
5	0x3f7f138a	0.9963919
6	0x3f8125ff	1.008972
7	0x3f776fd9	0.9665504
8	0x3f7f1e9b	0.99656075
9	0x3f84f1ef	1.0386332
10	0x3f7f45a3	0.9971563
11	0x3f772498	0.9654021
12	0x3f817c5b	1.0116075
13	0x3f815c0d	1.0106217
14	0x3f837ee0	1.0273094
15	0x3f7d5eaa	0.9897257

message_passing_layers.0.message_mlp.layers.1.bias f4 [16]
0	0x3d3a60d7	0.04550251
1	0xbd14654d	-0.03622942
2	0x3d3809c0	0.044931173
3	0xbd018861	-0.0316242
4	0x3cea8987	0.028630031
5	0xbd050c62	-0.032482512
6	0x3cde13f6	0.027109127
7	0x3c0e8d36	0.0087006595
8	0x3d1a6a3b	0.037698966
9	0x3cf6d978	0.030132994
10	0x3d059d99	0.032621
11	0xbc9b4891	-0.0189555
12	0xbc541469	-0.012944319
13	0x3c9d45f9	0.019198405
14	0xbb53b0fc	-0.0032301536
15	0xbd22391f	-0.039605256

message_passing_layers.0.message_mlp.layers.1.running_mean f4 [16]
0	0x3e138eab	0.14409892
1	0xbe2596cb	-0.16170804
2	0x3ec60d6b	0.38682112
3	0xbece2dea	-0.40269405
4	0xbe440230	-0.1914146
5	0x3ebd59f8	0.36982703
6	0xbe97c188	-0.2963984
7	0x3ed5a926	0.41730613
8	0x3e3cdc7e	0.18443486
9	0x3cfd623e	0.030930635
10	0xbe448cee	-0.19194385
11	0xbd4b6002	-0.049652107
12	0xbe375c00	-0.17906189
13	0x3ec3d80f	0.38250777
14	0xbda39ea6	-0.07989244
15	0x3e7f3f5f	0.24926518

message_passing_layers.0.message_mlp.layers.1.running_var f4 [16]
0	0x3db28c89	0.08718211
1	0x3df67adc	0.12035152
2	0x3d14b051	0.03630096
3	0x3d493dc6	0.049131177
4	0x3dd082ea	0.1018122
5	0x3d436cf7	0.04771134
6	0x3c8186cc	0.015811346
7	0x3d7d5869	0.061851893
8	0x3d6abb00	0.057307243
9	0x3c5d3d14	0.013503332
10	0x3e0bc781	0.13650323
11	0x3deda3de	0.11603521
12	0x3d60c501	0.054875378
13	0x3c21a17e	0.009865163
14	0x3d209ff5	0.039215047
15	0x3ced700e	0.028984096

message_passing_layers.0.message_mlp.layers.3.weight f4 [16, 16]
0	0xbdfcfd86	-0.12353043
1	0xbd273fe9	-0.040832434
2	0xbd5d0e01	-0.053968433
3	0xbe17bc8c	-0.14818019
4	0xbe727c21	-0.23680164
5	0x3e1c3c76	0.15257439
6	0x3d07a723	0.03311838
7	0xbe80dea5	-0.25169864
8	0xbe2465e1	-0.16054489
9	0x3e875685	0.26433197
10	0x3d843cc4	0.064569026
11	0x3ddac638	0.106823385
12	0xbe2555c0	-0.16145992
13	0xbdcdf297	-0.10056036
14	0xbd13f5e1	-0.03612316
15	0xbd4444b7	-0.047917094
16	0xbe39beea	-0.18139234
17	0x3c02be22	0.0079799015
18	0x3c123ca5	0.008925592
19	0xbcc0bb0f	-0.023526696
20	0x3cad5c0b	0.021162054
21	0xbdf45433	-0.11930122
22	0x3d6b49bd	0.05744337
23	0x3db974bb	0.09055468
24	0xbe017567	-0.12642442
25	0xbe7437a6	-0.23849353
26	0x3df9b0d0	0.121919274
27	0x3d25e16d	0.040498186
28	0xbe11ac0d	-0.14225788
29	0x3e8044ce	0.25052494
30	0xbdf611ce	-0.12015115
31	0x3e117dc1	0.14208128
32	0x3df0352e	0.11728893
33	0xbe4113be	-0.18855187
34	0x3e27c1d8	0.1638254
35	0xbe5a7668	-0.21334231
36	0xbe09b1a5	-0.13446672
37	0xbd045b9d	-0.03231393
38	0xbe37ee9a	-0.17962113
39	0x3e643bad	0.2228839
40	0xbd3fe4b1	-0.046848956
41	0x3dc67f89	0.09692294
42	0xbe71b47a	-0.23604003
43	0x3e159bc9	0.14610209
44	0xbd963243	-0.073338054
45	0xbe5389d2	-0.20658043
46	0x3d02f7a6	0.031974457
47	0x3e030fc2	0.1279898
48	0x3e473674	0.19454366
49	0xbe2a8bb8	-0.16654861
50	0xbe18c89c	-0.14920276
51	0x3d5895dc	0.052877292
52	0x3d10be5d	0.035337795
53	0x3da8e8c5	0.08247522
54	0x3de2722e	0.11056934
55	0xbd880922	-0.06642367
56	0x3e12645c	0.14296097
57	0x3e5a4313	0.2131465
58	0xbdb73faf	-0.089476936
59	0x3e1dfb1a	0.15427819
60	0x3df24a69	0.11830599
61	0x3e74bf25	0.23901041
62	0xbe334e0e	-0.17510244
63	0xbde07d9d	-0.10961459
64	0xbd714875	-0.05890699
65	0x3ce50c64	0.02796001
66	0x3e288849	0.16458239
67	0xbe20ba49	-0.15696062
68	0x3e0e1a5e	0.13877246
69	0xbda19666	-0.07890014
70	0x3e0a9e8f	0.13537048
71	0x3b921480	0.00445801
72	0xbe6e0fbc	-0.2324819
73	0xbe223e4c	-0.15844077
74	0xbe27e82c	-0.1639716
75	0x3e0c80ee	0.13721058
76	0xbe3279e9	-0.17429318
77	0xbd1b7653	-0.03795464
78	0x3d842d21	0.0645392
79	0xbe0fb68b	-0.14034478
80	0x3d69d623	0.057088982
81	0xbe815644	-0.25261128
82	0xbe38e419	-0.18055762
83	0xbe61cc40	-0.22050571
84	0xbda6e73b	-0.081495725
85	0xbdc20e08	-0.094753325
86	0x3d1f098d	0.038827468
87	0xbd8a1806	-0.06742863
88	0x3de2b630	0.11069906
89	0x3e847841	0.25872996
90	0x3da00b7a	0.07814689
91	0xbdb9569b	-0.09049722
92	0xbe6654ff	-0.22493361
93	0x3dd3e7b6	0.1034693
94	0xbe1079af	-0.14108919
95	0x3e1a15f0	0.15047431
96	0x3e47caf7	0.19511019
97	0x3dc09d1f	0.094049685
98	0x3e805740	0.25066566
99	0x3e4cda83	0.2000523
100	0x3d6ec58c	0.058293864
101	0xbe3280d3	-0.17431955
102	0x3e69db22	0.22837499
103	0xbdca231d	-0.098699786
104	0xbe133fde	-0.14379832
105	0x3e55ed74	0.20891362
106	0x3e5dd694	0.21663886
107	0x3dad3d65	0.08458976
108	0x3c968edf	0.018378673
109	0xbe5ab38b	-0.21357553
110	0xbc24eda8	-0.010066427
111	0x3e669fd1	0.22521903
112	0x3d3baf80	0.045821667
113	0x3a5cd3cc	0.0008423894
114	0xbd983958	-0.074328125
115	0xbdc0062e	-0.09376179
116	0x3e039205	0.12848671
117	0xbb7317f8	-0.0037093144
118	0x3e3fb628	0.18721831
119	0xbce26cba	-0.027639735
120	0x3de9c9ea	0.11415465
121	0x3e078b4c	0.13236731
122	0x3d1d7a69	0.038446818
123	0x3e10244c	0.14076346
124	0x3e39a4f1	0.18129326
125	0x3e76b1ae	0.24091217
126	0x3e395dc1	0.1810217
127	0xbd92ee43	-0.07174351
128	0xbe4e1763	-0.20126109
129	0x3d799be9	0.060939703
130	0x3c1d0a04	0.009584907
131	0xbdb2953f	-0.08719873
132	0xbd07ae18	-0.033125013
133	0x3cc35d0a	0.023848075
134	0x3e1ef089	0.15521444
135	0x3d80de14	0.06292358
136	0xbdda3c3d	-0.10656021
137	0xbde5cf4c	-0.11221179
138	0xbd9681c9	-0.07348973
139	0xbdb5957b	-0.08866402
140	0x3e60d4e3	0.2195621
141	0x3dcf3158	0.101168334
142	0x3e662a56	0.22477087
143	0xbaeb98fb	-0.0017974669
144	0x3cdca86c	0.026935779
145	0x3d99429c	0.07483408
146	0xbe845b1b	-0.25850758
147	0x3ce60594	0.028078832
148	0xbd3614d5	-0.04445346
149	0xbe227924	-0.15866524
150	0xbe5a1de4	-0.21300465
151	0x3e59c281	0.21265604
152	0x3e42dbde	0.19029185
153	0x3e1522f2	0.14564112
154	0x3e669fe1	0.22521926
155	0xbdf4dbad	-0.11955962
156	0xbd2c7202	-0.042100914
157	0x3df009b5	0.117206015
158	0xbd83f7b0	-0.06443727
159	0xbcf9fc00	-0.03051567
160	0xbe4f1e0d	-0.20226307
161	0x3d9ecba8	0.07753688
162	0xbe1d6e4d	-0.15374108
163	0x3cc9b7c8	0.024623767
164	0x3e758192	0.23975208
165	0xbd985e19	-0.07439823
166	0xbe063158	-0.1310476
167	0x3e17f5f2	0.14839914
168	0xbd845bd1	-0.06462825
169	0xbd1b66fb	-0.037940007
170	0x3e4dc4c6	0.20094594
171	0xbde5487d	-0.11195467
172	0xbe50c8bf	-0.20389079
173	0xbe044cfd	-0.12919994
174	0xbd417c1f	-0.04723751
175	0xbdf44feb	-0.11929306
176	0xbe100817	-0.14065586
177	0x3dad55f3	0.08463659
178	0x3ce06da8	0.027396038
179	0xbdba7dd7	-0.09106033
180	0xbe57eacc	-0.21085662
181	0xbdb1807a	-0.08667083
182	0xbddc8a49	-0.10768563
183	0xbdba4f87	-0.090972
184	0xbe67c806	-0.22634897
185	0x3da2a926	0.07942419
186	0xbe5206d1	-0.20510413
187	0xbe5094d5	-0.20369275
188	0xbe49b3a7	-0.19697438
189	0x3df51a90	0.11967957
190	0xbe27e054	-0.16394168
191	0xbdf7056b	-0.1206158
192	0x3e4d6458	0.2005781
193	0x3e2488bb	0.16067784
194	0x3e1c762d	0.15279455
195	0xbe638b62	-0.22221139
196	0xbe364b63	-0.17802195
197	0xbdb3c9dc	-0.08778736
198	0x3e4c38d2	0.1994355
199	0x3d1fc2a2	0.039003976
200	0xbe3fa42e	-0.18714973
201	0xbd38b67f	-0.045095917
202	0xbe49206e	-0.19641277
203	0xbd687182	-0.056748874
204	0xbdd42b70	-0.103598475
205	0x3e3e9309	0.18610777
206	0x3ddd1208	0.10794455
207	0xbdaa91a1	-0.08328558
208	0x3cedfba3	0.029050654
209	0xbd963c91	-0.07335771
210	0x3dad7cb9	0.084710546
211	0x3e09bc9b	0.13450854
212	0x3d7a85f7	0.061162915
213	0xbdd2a1e7	-0.10284787
214	0x3e72468b	0.23659723
215	0xbd145272	-0.03621144
216	0xbda9638e	-0.08270942
217	0x3e08c469	0.13356175
218	0x3e427a0d	0.18991871
219	0x3e6d8ba8	0.23197806
220	0x3d97fb43	0.07420971
221	0xbda960cf	-0.08270418
222	0x3dfe1176	0.12405674
223	0x3e77fd28	0.24217665
224	0xbe83f85b	-0.25775418
225	0xbd067c59	-0.03283343
226	0xbe38b2e5	-0.18036993
227	0x3d935c7e	0.07195376
228	0x3db23dc5	0.08703188
229	0xbd6ace76	-0.057325803
230	0xbd1bb2c1	-0.03801227
231	0x3dbcb8c8	0.09214932
232	0xbd16f1ec	-0.03685181
233	0xbe3a0831	-0.18167187
234	0x3e371153	0.17877702
235	0xbe08a1d4	-0.13342983
236	0xbd0ada3c	-0.03389953
237	0x3ce0f4ab	0.027460417
238	0xbc9c43e6	-0.019075345
239	0xbe608048	-0.21923935
240	0x3e0c70c9	0.13714899
241	0xbdb7e36c	-0.08978924
242	0xbdd364e8	-0.10321981
243	0x3d86a0b4	0.065736204
244	0xbdd49446	-0.103798434
245	0xbdbef2cc	-0.093236536
246	0xbdae46a3	-0.08509567
247	0xbda1d78e	-0.07902442
248	0xbdd7ba24	-0.105335504
249	0xbdc45f30	-0.09588468
250	0x3da41b43	0.08013012
251	0xbe3c1977	-0.18369089
252	0xbe2d36b2	-0.16915396
253	0xbbac38e8	-0.005255807
254	0x3d6a7b73	0.057246637
255	0x3e095e21	0.13414814

message_passing_layers.0.message_mlp.layers.3.bias f4 [16]
0	0xbdb33ba4	-0.0875161
1	0x3c22f810	0.009946838
2	0x3d6b1d14	0.057400778
3	0x3d5f3f09	0.054503474
4	0xbe10ec10	-0.1415255
5	0xbca22e71	-0.019797536
6	0xbdfecba9	-0.12441189
7	0xbd92d2db	-0.07169124
8	0x3d60c62f	0.054876503
9	0x391c977c	0.00014933752
10	0x3ce2bb4f	0.027677206
11	0xbd7ba37b	-0.061435204
12	0xb946ef07	-0.00018971796
13	0xbd85e353	-0.06537499
14	0x3d2ee461	0.042698268
15	0xbcf65e3b	-0.03007423

message_passing_layers.0.update_mlp.layers.0.weight f4 [16, 20]
0	0xbdcb6ab1	-0.09932459
1	0xbe3c7ba4	-0.1840654
2	0xbc683313	-0.014172333
3	0x3e4d6316	0.2005733
4	0x3e031020	0.1279912
5	0xbe2e2e6d	-0.17009898
6	0x3ceeba15	0.029141465
7	0x3b239f51	0.0024966786
8	0xbe275299	-0.16340102
9	0x3e298582	0.16554835
10	0x3cca8292	0.024720464
11	0x3d96143e	0.0732808
12	0xbde606fa	-0.112317994
13	0xbdfc4357	-0.123175316
14	0x3d08af18	0.033370107
15	0x3db5f4df	0.08884596
16	0x3d885db3	0.06658497
17	0xbdb23c9b	-0.08702966
18	0x3e33aea1	0.17547084
19	0xbda9a443	-0.082832836
20	0xbe08b9e8	-0.13352168
21	0xbe0df0f9	-0.13861455
22	0x3e62c8e1	0.22146942
23	0x3c3e1c55	0.011603435
24	0xbcec532a	-0.02884825
25	0xbd9c49bb	-0.076312505
26	0xbdb4de8e	-0.088315114
27	0xbe51ea4d	-0.20499535
28	0xbe2805d8	-0.16408479
29	0x3e022636	0.12709889
30	0x3e4f5947	0.202489
31	0x3e522dfa	0.20525351
32	0xbe09b0e7	-0.13446389
33	0x3dd9521d	0.10611365
34	0xbe050402	-0.1298981
35	0x3e08c50a	0.13356414
36	0x3e2006fd	0.15627666
37	0x3e385572	0.18001345
38	0x3e2f2493	0.17103796
39	0x3e15b404	0.14619452
40	0xb8bdf6a7	-9.058165e-05
41	0x3dcf4191	0.10119928
42	0xbd9d38f1	-0.07676876
43	0x3d9c8dfc	0.07644269
44	0xbd97cd60	-0.07412219
45	0x3ce01b18	0.02735667
46	0xbe47e6c1	-0.1952162
47	0xbd13fe58	-0.036131233
48	0xbde39dbd	-0.111140706
49	0xbd818f48	-0.06326157
50	0xbe227d85	-0.15868194
51	0xbe4837ae	-0.1955249
52	0xb932b9cc	-0.00017044618
53	0x3e1378f0	0.14401603
54	0x3e4bf126	0.1991621
55	0x3e0b31d4	0.13593227
56	0xbdda30ac	-0.10653815
57	0xbe72f143	-0.23724847
58	0x3dafeb92	0.08589853
59	0x3dfdebf5	0.12398521
60	0xbe30a5bb	-0.17250721
61	0x3d5c9dd5	0.053861458
62	0x3e41e084	0.18933302
63	0x3d10f3bf	0.035388704
64	0xbde8bfff	-0.11364745
65	0x3e49eda8	0.19719565
66	0x3d854b33	0.06508484
67	0x3e20ece7	0.15715371
68	0xbe2f998e	-0.1714842
69	0x3e1afd0d	0.15135594
70	0xbe27be5e	-0.16381213
71	0x3e412432	0.18861464
72	0xbdbbc39f	-0.09168171
73	0x3e1f92b1	0.15583302
74	0x3d9da9b5	0.07698385
75	0x3dad9e06	0.08477406
76	0xbd5cd5a1	-0.05391467
77	0x3d956d69	0.07296259
78	0xbd821671	-0.063519366
79	0xbe3ea473	-0.1861742
80	0xbdd32911	-0.10310567
81	0x3e2ccf83	0.16876034
82	0xbd487885	-0.04894306
83	0x3d1e6d56	0.03867849
84	0xbdc3304b	-0.095306955
85	0x3e1ebb75	0.15501197
86	0x3e171597	0.1475433
87	0x3d7b6444	0.061374918
88	0xbda754a1	-0.081704386
89	0xbe4919c4	-0.19638735
90	0xbd1cda06	-0.03829386
91	0xbe05ad91	-0.13054492
92	0x3e47bdff	0.19506072
93	0xbe4a215f	-0.19739293
94	0x3ddea84a	0.10871942
95	0x3e69e4c1	0.22841169
96	0x3e167d50	0.1469624
97	0x3cf7b0a3	0.030235594
98	0xbe50927a	-0.20368376
99	0x3e5b0da8	0.21391928
100	0xbd0064a2	-0.03134597
101	0xbe4e5ac5	-0.20151813
102	0x3e556d6b	0.20842521
103	0xbdffaf74	-0.12484637
104	0xbd048298	-0.032351106
105	0x3e4c6565	0.19960554
106	0xbe26f43c	-0.16304106
107	0xbe2de4c7	-0.16981803
108	0x3d70eb98	0.05881843
109	0xbd5afd30	-0.053464115
110	0x3d68509b	0.056717496
111	0xbe29e36c	-0.16590661
112	0x3c8287dc	0.015933923
113	0xbdcbb223	-0.09946086
114	0xbdb64766	-0.08900337
115	0xbe5fa314	-0.21839553
116	0x3e01cdaa	0.12676111
117	0x3d4aeaa6	0.049540184
118	0xbe388983	-0.18021207
119	0x3e2c1031	0.16803052
120	0x3d419ccd	0.047268678
121	0x3bf57bc7	0.007491562
122	0xbded31ae	-0.11581741
123	0x3d7c85bd	0.06165098
124	0x3e46a142	0.19397452
125	0x3dfa3a7a	0.12218185
126	0xbe2f89ee	-0.1714246
127	0x3e6f111b	0.23346369
128	0xbc4b05ac	-0.012391489
129	0x3e05c156	0.13062033
130	0x3e15e835	0.14639361
131	0x3e42ac0e	0.19010946
132	0xbe40dd98	-0.18834531
133	0x3e67a2eb	0.22620742
134	0xbe3b29c9	-0.18277659
135	0x3d2964e0	0.041355968
136	0xbe10a095	-0.14123757
137	0xbd9db7ba	-0.07701059
138	0xbc948732	-0.018130872
139	0xbcac512e	-0.021034803
140	0xbd4a8c5b	-0.04945026
141	0x3c5220c8	0.0128251985
142	0x3e7452f2	0.23859766
143	0x3e076491	0.13221957
144	0x3de1a3ff	0.11017608
145	0x3dc2f6cc	0.09519729
146	0x3e137370	0.14399505
147	0xbc98925d	-0.018624479
148	0x3cd2ee8d	0.025748516
149	0x3ccd57b2	0.02506623
150	0xbe3dcc41	-0.18534948
151	0xbe3eceee	-0.18633625
152	0x3c80d490	0.015726358
153	0xbde51dbd	-0.11187313
154	0xbc58d5cf	-0.01323457
155	0xbd88b14d	-0.066744424
156	0x3bb55380	0.0055336356
157	0x3e178432	0.14796522
158	0xbdb4a69f	-0.08820843
159	0x3e24f54d	0.161092
160	0x3e3a64ff	0.1820259
161	0xbe42d967	-0.19028245
162	0xbe1e2782	-0.15444759
163	0xbe2beae7	-0.16788827
164	0xbe161e13	-0.1465991
165	0xbdc0144c	-0.09378871
166	0xbd082d9e	-0.03324663
167	0xbd7f373f	-0.062308546
168	0xbe0083b7	-0.12550245
169	0xbd8ad2e5	-0.06778506
170	0xbdbfb182	-0.09360029
171	0x3e5649ff	0.20926665
172	0xbd80f683	-0.062970184
173	0xbe14e4a3	-0.14540343
174	0x3dcdbb3a	0.10045476
175	0xbc53e5ec	-0.012933236
176	0x3e213077	0.15741144
177	0x3e020471	0.12697007
178	0x3e616adc	0.2201342
179	0xbe11be1c	-0.14232677
180	0x3e1057f6	0.14096054
181	0x3e5716bd	0.21004768
182	0xbdd94c73	-0.10610285
183	0x3e3278e8	0.17428935
184	0x3e46e2fd	0.19422527
185	0xbd22c25b	-0.039736133
186	0x3de4a9b9	0.111651845
187	0xbd8987ce	-0.06715356
188	0xbe21ba1b	-0.1579365
189	0x3d01f9da	0.031732418
190	0x3db9bb3c	0.09068915
191	0xbe2483d7	-0.16065918
192	0x3d91c23e	0.07117127
193	0xbe72247e	-0.23646733
194	0x3e1f21d5	0.1554025
195	0x3e58fc6d	0.21190043
196	0x3d4a1fb0	0.049346626
197	0xbe024b23	-0.12723975
198	0x3d8b5ac3	0.06804421
199	0x3cc77cf8	0.024351582
200	0x3d8ac1c2	0.067752376
201	0x3d894709	0.06703002
202	0x3e325cfe	0.17418286
203	0xbda88b16	-0.082296535
204	0xbcd331fe	-0.025780674
205	0x3d8db474	0.06919184
206	0x3ce4ca1c	0.027928405
207	0x3e41dc20	0.18931627
208	0xbe02e711	-0.12783457
209	0x3c0ec87b	0.00871479
210	0x3d406008	0.046966583
211	0xbd9dc4a1	-0.077035196
212	0x3e09bd18	0.1345104
213	0x3cc0c50f	0.023531465
214	0xbe6476fe	-0.22311017
215	0x3b4ad066	0.003094697
216	0xbdda8db0	-0.10671556
217	0x3cb7fb0b	0.022458574
218	0xbd20ca71	-0.039255563
219	0xbe58cf03	-0.21172719
220	0xbd26b0b4	-0.04069586
221	0xbd0ec271	-0.034853403
222	0xbd9049c8	-0.07045323
223	0x3e770e45	0.24126537
224	0xbd2497e4	-0.040183917
225	0x3ddbd054	0.10733095
226	0x3d50314d	0.050828267
227	0xbe21779d	-0.15768285
228	0x3d04791b	0.032342058
229	0x3e521348	0.20515168
230	0xbe0884b4	-0.13331872
231	0xbdfb3b4b	-0.122671686
232	0x3e5002e0	0.20313597
233	0x3e48cec3	0.19610123
234	0xbe11f96a	-0.142553
235	0x3e10d32a	0.14143053
236	0xbd1402db	-0.036135536
237	0xbe4cc350	-0.19996381
238	0xbbf73624	-0.007544296
239	0x3d3ce013	0.04611213
240	0xbd9c096a	-0.07618983
241	0x3d37473b	0.044745665
242	0xbe3322b3	-0.17493705
243	0x3e39867b	0.18117706
244	0x3e3e4c4f	0.18583797
245	0x3dd4ee63	0.10397031
246	0x3cbb3cc2	0.02285612
247	0x3db2ef59	0.08737058
248	0xbe48049f	-0.19533013
249	0xbd0bd220	-0.034135938
250	0xbcee6f28	-0.029105738
251	0xbe110b39	-0.14164437
252	0xbe3dab55	-0.18522389
253	0x3e35fc10	0.17771935
254	0x3e097e20	0.13427019
255	0xbe38ae3b	-0.18035214

message_passing_layers.0.update_mlp.layers.0.bias f4 [16]
0	0x3c316c97	0.0108291125
1	0x387b7396	5.995071e-05
2	0x3d908601	0.07056809
3	0x38cec28f	9.859085e-05
4	0xbd6758da	-0.05648122
5	0x3d9230f9	0.07138247
6	0x392dc935	0.00016573521
7	0xbb2912f8	-0.002579866
8	0xbd7e1c27	-0.062038567
9	0xb7884dbb	-1.624866e-05
10	0xbdfb8bc4	-0.122825176
11	0x3a9eba01	0.0012109877
12	0x3cfe896f	0.031071393
13	0xbdda7404	-0.106666595
14	0xbd7a8b8a	-0.06116823
15	0xbd9783be	-0.07398175

message_passing_layers.0.update_mlp.layers.1.weight f4 [16]
0	0x3f855023	1.0415081
1	0x3f7eed08	0.9958043
2	0x3f7caeba	0.9870411
3	0x3f77e9ef	0.9684133
4	0x3f804168	1.001996
5	0x3f826198	1.0186033
6	0x3f7ed544	0.9954417
7	0x3f839cf0	1.0282269
8	0x3f7999da	0.97500384
9	0x3f7a83d2	0.9785739
10	0x3f79e3ee	0.9761342
11	0x3f82a1bb	1.0205606
12	0x3f765d15	0.9623578
13	0x3f81693a	1.0110238
14	0x3f7d716e	0.99001205
15	0x3f816018	1.010745

message_passing_layers.0.update_mlp.layers.1.bias f4 [16]
0	0x3c913902	0.017727379
1	0xbcb5cc12	-0.022192035
2	0x3c8ee840	0.01744473
3	0xbc09558a	-0.0083822105
4	0x3cad5578	0.021158919
5	0xbd5fec48	-0.054668695
6	0x3caec5a1	0.021334471
7	0x3ce45a48	0.02787508
8	0xbd1ceea3	-0.03831352
9	0xbc9c64cf	-0.019091038
10	0xbc4ff90c	-0.012693655
11	0x3cb26b4a	0.021779675
12	0xbaa10265	-0.0012284039
13	0xbcfb3874	-0.030666567
14	0xbc318883	-0.01083577
15	0x3c7f8f10	0.015598074

message_passing_layers.0.update_mlp.layers.1.running_mean f4 [16]
0	0xbdd5ac82	-0.10433294
1	0x3dd9d0da	0.106355384
2	0xbe7684af	-0.24074052
3	0x3e6663be	0.22498986
4	0xbe2836be	-0.16427132
5	0x3e3536fd	0.17696758
6	0x3d567042	0.05235315
7	0xbdf8ff48	-0.12158066
8	0x3d2af51d	0.041737664
9	0xbed1231f	-0.40847108
10	0x3ddb9a94	0.10722843
11	0xbe9e84f3	-0.30960807
12	0x3bf840be	0.0075760772
13	0x3da9bdd0	0.08288157
14	0xbd3f4c2d	-0.046703506
15	0xbe261820	-0.1622014

message_passing_layers.0.update_mlp.layers.1.running_var f4 [16]
0	0x3ccfd0e2	0.025368158
1	0x3d275dba	0.04086087
2	0x3de0952b	0.109659515
3	0x3da8e769	0.08247263
4	0x3d4dcdbd	0.050245035
5	0x3cbcae69	0.023032384
6	0x3db9ddbd	0.09075496
7	0x3bef4a74	0.0073025767
8	0x3c651cad	0.013983888
9	0x3d96ade9	0.073573895
10	0x3c6fc856	0.014635166
11	0x3dc2dcc3	0.09514763
12	0x3cfb697f	0.030689953
13	0x3d5634d7	0.052296486
14	0x3cf7ce88	0.030249849
15	0x3db602b6	0.08887236

message_passing_layers.0.update_mlp.layers.3.weight f4 [4, 16]
0	0x3e742d12	0.23845318
1	0x3e571446	0.21003827
2	0x3c968a33	0.018376445
3	0x3e523932	0.20529631
4	0xbdc1788d	-0.09446821
5	0xbe8a2f18	-0.26989055
6	0x3da0c404	0.07849887
7	0x3df678e6	0.12034778
8	0x3e60e4ea	0.21962324
9	0xbc443b34	-0.011977006
10	0x3e22a265	0.15882261
11	0x3e26643a	0.16249171
12	0x3e1b93e3	0.15193133
13	0xbe87f364	-0.2655288
14	0x3e3f40e4	0.18677098
15	0xbe7ab018	-0.24481237
16	0x3e586213	0.21131162
17	0xba68f215	-0.00088861707
18	0xbe61d803	-0.22055058
19	0x3d8b99dd	0.068164565
20	0xbcb538b0	-0.022121757
21	0xbe53d8bd	-0.20688148
22	0xbdd23095	-0.102631725
23	0x3cfe32b3	0.031030035
24	0x3e3e473d	0.18581863
25	0xbdd9394a	-0.1060663
26	0x3e2f9244	0.1714564
27	0x3ca00f5d	0.019538576
28	0x3d08f954	0.033440903
29	0x3d8f6359	0.07001371
30	0xbe191dae	-0.14952728
31	0xbe448625	-0.19191797
32	0xbd550b20	-0.052012563
33	0xbe6cca7f	-0.23124121
34	0xbdb3de87	-0.08782678
35	0x3c24b488	0.010052808
36	0xbe32e580	-0.1747036
37	0xbe01d3a7	-0.12678395
38	0xbd128805	-0.03577425
39	0xbcf74c9c	-0.030187897
40	0xbe1d5b6d	-0.15366907
41	0xbcb5737c	-0.022149794
42	0xbd6a2fb5	-0.057174403
43	0x3dd63e5c	0.10461113
44	0xbc098d3d	-0.00839549
45	0xbe05b86a	-0.1305863
46	0xbdc55b8e	-0.09636603
47	0xbcba0213	-0.022706067
48	0xbe3af053	-0.18255739
49	0x3c20f398	0.009823702
50	0xbd356e66	-0.044294737
51	0x3db55172	0.08853425
52	0x3d5506f1	0.052008573
53	0x3e4bbe24	0.19896752
54	0xbcc5fd61	-0.024168672
55	0xbe5cebfc	-0.21574396
56	0x3df39524	0.11893681
57	0xbe14699e	-0.14493415
58	0xbcbade4e	-0.022811081
59	0xbdd4b410	-0.10385907
60	0xbd92ed68	-0.07174188
61	0xbd965411	-0.07340253
62	0x3e76cfb7	0.24102674
63	0x3e0939ff	0.1340103

message_passing_layers.0.update_mlp.layers.3.bias f4 [4]
0	0x3b99dfe2	0.0046958784
1	0x3e12c791	0.14333941
2	0xbe0ac2b9	-0.13550843
3	0xb9a83357	-0.00032081708

message_passing_layers.1.message_mlp.layers.0.weight f4 [16, 12]
0	0x3e27f3fc	0.16401666
1	0x3e36cdda	0.17851964
2	0xbe4ea38d	-0.20179577
3	0x3db4d235	0.08829156
4	0xbe3f7471	-0.18696763
5	0xbd485e86	-0.04891827
6	0xbdc16f64	-0.09445074
7	0xbe88323b	-0.26600823
8	0xbe938a2b	-0.2881635
9	0xbe4ff408	-0.20307934
10	0x3e218759	0.15774287
11	0x3dfd26bd	0.12360904
12	0xbe8bc764	-0.2730056
13	0xbe0a874d	-0.13528176
14	0xbbdec0fd	-0.0067979083
15	0xbe572431	-0.210099
16	0x3e478a83	0.19486432
17	0x3e9423f7	0.2893369
18	0x3d8532b1	0.06503809
19	0xbe330607	-0.17482768
20	0x3d821f5c	0.063536376
21	0x3daff9b5	0.0859255
22	0x3e657450	0.22407651
23	0xbde7821f	-0.113041155
24	0xbe9702a1	-0.29494193
25	0x3e18b74d	0.14913674
26	0x3bfaa3b5	0.00764891
27	0xbda6b5bc	-0.08140132
28	0xbdcdd484	-0.100503
29	0xbe137479	-0.143999
30	0x3e625b29	0.22105087
31	0xbd13d367	-0.03609028
32	0x3e23aaf3	0.1598318
33	0x3e88d385	0.26723877
34	0x3cc70db3	0.024298524
35	0x3d972a96	0.073811695
36	0xbce6954d	-0.028147364
37	0x3e340da7	0.17583333
38	0xbe9083ea	-0.28225642
39	0x3e08b7f6	0.13351426
40	0xbc8d6f9a	-0.01726513
41	0x3deace2a	0.11465104
42	0xbcbb8c3c	-0.022894017
43	0xbdb101bb	-0.08642908
44	0xbce2223e	-0.027604219
45	0x3e146098	0.14489973
46	0xbe63d1eb	-0.22248046
47	0xbe26a9b6	-0.16275677
48	0xbd4479ab	-0.047967594
49	0xbdebdbd2	-0.11516537
50	0x3e12763b	0.14302914
51	0x3e354d14	0.17705184
52	0xbd803967	-0.06260949
53	0x3e83c633	0.25737152
54	0xbe0f3fc0	-0.13989162
55	0xbe3e866b	-0.18605964
56	0xbdf12621	-0.11774851
57	0xbe5b531f	-0.21418427
58	0xbe2b5b17	-0.16733967
59	0xbe8ca956	-0.27472943
60	0xbe743260	-0.23847342
61	0x3d4e4ef2	0.050368257
62	0x3e1e11cc	0.15436476
63	0x3e97d6ba	0.2965601
64	0x3e78d4f5	0.24299987
65	0xbd1eaf31	-0.038741294
66	0x3d35efca	0.044418134
67	0xbe333b6c	-0.17503136
68	0x3df640de	0.12024091
69	0xbe928e2e	-0.286241
70	0x3de66a95	0.11250798
71	0x3d9fb9b5	0.07799093
72	0x3dbe55ca	0.09293707
73	0x3dd6042a	0.10450013
74	0xbe28474c	-0.16433448
75	0x3e8daa63	0.27669057
76	0x3e0028e3	0.12515597
77	0x3e30d071	0.17267014
78	0x3c818b66	0.01581354
79	0x3e2e0032	0.16992262
80	0x3e4b29f8	0.19840229
81	0x3e076c4b	0.13224904
82	0x3e41d9c1	0.18930723
83	0xbcd1c781	-0.025607826
84	0x3e4bb9e8	0.19895136
85	0x3d69725a	0.05699382
86	0x3e4eba00	0.20188141
87	0x3e81888d	0.25299492
88	0x3d78654c	0.06064348
89	0xbdbb216a	-0.091372326
90	0xbc87fc2b	-0.016599735
91	0x3dba0f40	0.0908494
92	0x3d755474	0.059894994
93	0xbdb9bef6	-0.09069626
94	0x3e7fc132	0.24976042
95	0x3e112715	0.14175065
96	0xbe3eb3be	-0.18623254
97	0xbc1c929b	-0.009556438
98	0xbd135b42	-0.035975702
99	0xbe404d04	-0.18779379
100	0x3d6fc764	0.058539763
101	0xbd5678d6	-0.052361332
102	0xbddeb7f0	-0.10874927
103	0xbd8b9a31	-0.06816519
104	0xbdf1b155	-0.118014015
105	0x3e949074	0.2901646
106	0x3dcc7500	0.099832535
107	0x3e8b771e	0.27239317
108	0x3dcba067	0.09942704
109	0x3db95473	0.090493105
110	0x3dd43a1b	0.10362645
111	0x3ced53f2	0.028970692
112	0xbe6cae6c	-0.23113412
113	0xbe5ade09	-0.21373762
114	0xbda37c2e	-0.0798267
115	0xbc84adfc	-0.016196243
116	0x3dc82fe5	0.0977476
117	0x3dfbcb56	0.122946426
118	0x3e585ffe	0.21130368
119	0x3d2be6a7	0.041968014
120	0xbdfd34d1	-0.123635896
121	0xbe785053	-0.24249391
122	0xbe712a4b	-0.2355129
123	0xbe16750c	-0.14693087
124	0x3d4a0818	0.049324125
125	0x3decca1d	0.115619875
126	0x3e5ab4a6	0.21357974
127	0xbe045f6c	-0.12927026
128	0xbca0fcb0	-0.01965174
129	0xbdcf2ea9	-0.101163216
130	0xbc867b01	-0.016416075
131	0x3debeeef	0.11520182
132	0xbd320c36	-0.043468677
133	0xbc9ad8e3	-0.018902248
134	0x3d4707f9	0.048591588
135	0x3e01d28e	0.12677976
136	0xbd915287	-0.07095819
137	0xbe3acb2a	-0.18241563
138	0x3d471181	0.048600677
139	0xbc36d3b3	-0.011158871
140	0xbe19dc73	-0.15025501
141	0x3dc3d8fb	0.0956287
142	0x3caa90b3	0.020820951
143	0xbcf4624c	-0.029832028
144	0xbe14b8a9	-0.14523567
145	0xbd4bf0e9	-0.049790297
146	0xbe855ebe	-0.26048845
147	0x3db4b58c	0.0882369
148	0xbc7f9f25	-0.015601908
149	0x3e0c044f	0.13673519
150	0xbca2a196	-0.01985244
151	0xbc0d57c7	-0.008626885
152	0x3d988b65	0.074484624
153	0x3e537cc1	0.20653059
154	0xbe0c9506	-0.13728723
155	0x3e472565	0.19447859
156	0x3d40a16e	0.04702895
157	0xbe48bc00	-0.19602966
158	0x3d9baa14	0.07600799
159	0xbe1e8417	-0.15480076
160	0xbda3691e	-0.07979034
161	0xbde282b9	-0.110600896
162	0xbe3315db	-0.17488806
163	0x3e82908f	0.25500914
164	0xbe8f9726	-0.28045005
165	0x3e1027cf	0.14077686
166	0xbe91c250	-0.2846856
167	0xbca3e596	-0.020006936
168	0x3c890910	0.016727954
169	0x3e367981	0.17819788
170	0xbda017e3	-0.07817056
171	0x3d970c7e	0.073754296
172	0x3d55d76e	0.052207403
173	0x3e32a2db	0.17444937
174	0x3cade0da	0.021225382
175	0x3ded2b75	0.115805544
176	0xbe2b5340	-0.16730976
177	0xbe5cf68c	-0.21578425
178	0x3e928792	0.28619057
179	0xbe5695dd	-0.20955606
180	0xbd479b9a	-0.048732378
181	0xbd9e56d5	-0.07731406
182	0x3e7f3811	0.24923731
183	0xbcb8310d	-0.022484327
184	0xbe7220c5	-0.23645313
185	0xbdb4f5b0	-0.08835924
186	0x3df4b27e	0.11948107
187	0x3dc3cecd	0.095609285
188	0x3e88bcfa	0.26706678
189	0xbdc30acc	-0.09523544
190	0x3dfa6723	0.12226703
191	0xbe6554d6	-0.22395644

message_passing_layers.1.message_mlp.layers.0.bias f4 [16]
0	0x3d02d379	0.031939957
1	0x3d496b98	0.049174875
2	0x3dc770f6	0.097383425
3	0xbda0604e	-0.07830869
4	0xbc0a837d	-0.008454201
5	0x3ba2ca64	0.0049679745
6	0xbdebccac	-0.115136474
7	0xbe0dcba2	-0.13847211
8	0xbe3d4b9e	-0.18485877
9	0x359853f2	1.1349314e-06
10	0x3dba3aa2	0.090932146
11	0x3be452cf	0.0069678794
12	0xb8863f60	-6.4014224e-05
13	0x3cc095e4	0.023508973
14	0xbdbe45dd	-0.09290669
15	0x393c1128	0.00017935468

message_passing_layers.1.message_mlp.layers.1.weight f4 [16]
0	0x3f76eeb9	0.9645801
1	0x3f7b6b04	0.9821017
2	0x3f820ff1	1.0161115
3	0x3f82933e	1.0201185
4	0x3f7c9fa6	0.98681104
5	0x3f809152	1.0044348
6	0x3f7d488a	0.9893881
7	0x3f7ec650	0.9952135
8	0x3f817521	1.011387
9	0x3f78eb74	0.9723427
10	0x3f80c5f9	1.0060416
11	0x3f7d9e96	0.9907011
12	0x3f85ab53	1.0442909
13	0x3f7a7aa0	0.9784336
14	0x3f7cc161	0.9873257
15	0x3f820141	1.0156633

message_passing_layers.1.message_mlp.layers.1.bias f4 [16]
0	0xbd0a7504	-0.033803
1	0xbc300276	-0.010742774
2	0x3cc2bc8d	0.023771549
3	0xbc5f1c6b	-0.013617615
4	0xbabcc59c	-0.0014402154
5	0xbd169d47	-0.036771085
6	0x3ca196c8	0.019725218
7	0x3cb7b006	0.022422802
8	0xbc9c5e90	-0.01908806
9	0x3c9fb89c	0.019497208
10	0xbc3e82b9	-0.011627846
11	0xbc65cac2	-0.014025392
12	0xbacf10dd	-0.0015797872
13	0xbca5d064	-0.02024097
14	0xbb91688f	-0.004437513
15	0x3ca30680	0.01990056
