gnn/gnn_outputs/checkpoint_epoch_300.pt (torch, 145785 bytes, 208 tensors)

node_encoder.layers.0.weight f4 [16, 3]
00000000: 28b2 ce3e b0f6 ef3e baac 37be 673b 073f
00000010: 5a61 2ebe e0c2 3c3d 3956 aabe a459 cd3e
00000020: 9e2b e03e 9ac1 ccbe b772 023f 1b56 ee3d
00000030: a312 dd3e da21 8d3d bf8a 8f3e e0f3 21be
00000040: 22da bc3e 96c2 9f3d 9c6f 9bbe 4d99 a83d
00000050: b8bc 8ebe 5c6c a1bd e75b 89be af50 b03e
00000060: 427a e5be ec9a b1be 6d66 e1bd 7a6c d7be
00000070: c00f f03c f2c6 f5be 0e15 003f cae0 16bf
00000080: 3813 af3e a863 d03d fac1 eebd f4fc cf3e
00000090: 987e aa3d b6e2 cf3e 4093 f83d be37 57be
000000a0: 01a3 083e 800e 21be 56d6 823e c149 033f
000000b0: 7ec9 9e3e ae9e 8fbe df91 863e 8420 173e
0.40370297 0.46867895 -0.17936984 0.52825016 -0.17029324 0.046084285 -0.33268908 0.40107453
0.43783277 -0.39991456 0.5095629 0.11637517 0.4317828 0.06891222 0.28035542 -0.15815687
0.36885172 0.07800786 -0.3035859 0.08232365 -0.27878356 -0.07881996 -0.26827928 0.34436557
-0.44819838 -0.3468851 -0.11005864 -0.4207495 0.029304385 -0.48003346 0.50032127 -0.5893675
0.3419435 0.10175258 -0.11658092 0.40622675 0.08324927 0.40602654 0.12137461 -0.21017358
0.13343431 -0.15728188 0.2555415 0.51284415 0.310131 -0.2805075 0.26283166 0.14758497

node_encoder.layers.0.bias f4 [16]
00000000: 4041 943d a0e5 eebd 1e6c 9ebe 5423 eebc
00000010: 48a9 45be 1588 613e dd62 e63b c647 1a3d
00000020: 9088 423c 4b64 62b4 8cbe 4d3e 04c5 28be
00000030: 88e0 5a36 2701 1bbe 89f6 283c fe65 92bc
0.07239008 -0.11664891 -0.30941862 -0.02906958 -0.19302857 0.22024567 0.0070308284 0.037666105
0.011873379 -2.1084377e-07 0.20092219 -0.16481405 3.2615226e-06 -0.15137158 0.010312685 -0.0178709

node_encoder.layers.1.weight f4 [16]
00000000: c28a 783f fed2 843f 0751 7a3f a532 833f
00000010: 5a3e 6f3f 49c9 823f 50e9 843f 5945 813f
00000020: 14f4 873f de52 7a3f ff66 803f b2b5 813f
00000030: 5d66 783f c584 753f 99eb 7c3f 68a1 853f
0.9708673 1.037689 0.9777989 1.024983 0.93454516 1.0217677 1.0383701 1.0099288
1.0621362 0.97782695 1.0031432 1.0133574 0.97031194 0.95905715 0.98796993 1.0439882

node_encoder.layers.1.bias f4 [16]
00000000: 6bea f7bc 6bb1 f53c 009b 203d d09d 5b3d
00000010: d086 17bd 63f0 5fbc 81b0 723c 04ca 57bc
00000020: 2b2b b8bd fe6f efbc 6535 71bd 3301 80bc
00000030: d89e b9bc b134 803d c6d7 763c 73fe 493d
-0.030263146 0.029991826 0.03921032 0.0536173 -0.0369938 -0.0136681525 0.01481259 -0.013170723
-0.08992609 -0.029228207 -0.05888881 -0.015625572 -0.02265875 0.0626005 0.015066093 0.049314927

node_encoder.layers.1.running_mean f4 [16]
00000000: 4e34 f73e dffa 9d3d cbf5 65bc 283e 093e
00000010: bcef 5e3e 8831 d13e 9387 7abe 1c1c 293c
00000020: f281 fcbe 4aae e6be a64f 8f3e fb25 be3c
00000030: 77c1 b63e d6f8 86be 3a22 1f3f db7e 933d
0.48282093 0.077138655 -0.014035652 0.13402617 0.21771139 0.40858102 -0.2446578 0.010321643
-0.4931789 -0.45054847 0.27990454 0.02321147 0.35694477 -0.26361722 0.621616 0.0720193

node_encoder.layers.1.running_var f4 [16]
00000000: dbe0 243d c8f9 b23c 2b12 2d3d 80ec 083d
00000010: 9850 c23c aeab 663c f636 793c 98fe a33c
00000020: d9eb 003d 2536 1b3d c387 643d 58af 9e3c
00000030: 3352 983c 5243 e13b 8366 333d 7d36 5a3c
0.0402535 0.02184762 0.042253654 0.03342867 0.02372007 0.014079018 0.015210858 0.02001886
0.03147492 0.037893433 0.055793535 0.01937072 0.018593883 0.0068744803 0.043798935 0.013318655

node_encoder.layers.3.weight f4 [16, 16]
00000000: d8b7 ad3d 8458 a5bd c7b3 5e3e 8e7a ecbd
00000010: c208 1abe 57c6 0fbe c4c6 673e 1491 ce3d
00000020: 96f9 6b3e 8600 51be 5425 7cbe 4bfb 34be
00000030: 3968 2ebe 8851 ce3d 2526 9b3d bcb3 6f3e
00000040: 1e9c 22be fdc8 5dbe 658f 183e b73b f2bd
00000050: 5500 f63d 4dd2 8dbd 7116 d73d b32c 41be
00000060: 59dd e3bd 6cae 2d3d a713 bb3b 755e c0bd
00000070: 587f 173e c974 0e3e 9f89 2cbe d582 0dbe
00000080: 1c53 623e 930d 91bc 2084 01be 9045 92be
00000090: b7ad 20be d073 e93c 3f1d 55bd b41f 81be
000000a0: 63c3 0ebd 0f70 1fbe 6fe9 10be f80b 11be
000000b0: 9b6b 76be 5636 2cbe 1bd2 663e 395d 5bbb
000000c0: 76e4 933d b7a1 67be 45fa 09be b560 eebd
000000d0: ee01 ed3c d0d6 5bbe 2453 fabd e183 16be
000000e0: ab5f b13c f255 b0bd 396a fbbc 1f7e 36be
000000f0: 3bb0 18be 1b2c 34be a6b0 19bd cf56 70be
00000100: edcb 5f3e f7da 91bd 9fba 463e 3885 ac3d
00000110: cd15 66be 6ffe 363e 7cc7 96bd 8610 cdbd
00000120: b9ce 3cbe a7c0 8bbe c546 533d 9064 98bd
00000130: 0437 d23d a7ce 56be ce2a 323e af29 30be
00000140: c131 e3bd 8e44 993d 8543 db3d 17fb 373e
00000150: 44e8 fa3d 0d1b 6fbe 374f 8c3d 6c17 10be
00000160: 306d 00bd 232e dbbd 2ad5 793e cba8 77be
00000170: 3648 bb3d 8452 c23d d7ac bd3c e97a 22be
00000180: 350e 3e3e 51a8 353d 1505 4bbc ede0 81be
00000190: c3ba 443d 8251 9dbd 8f87 09be febf 553e
000001a0: 8d28 e13d 7398 fbbd 0f89 c4bd 5255 3ebd
000001b0: b990 d23d fc29 bdbd 5150 36be de92 fdbd
000001c0: cf5c 13be 64d8 a23d 5b9f 2e3e 5e07 50be
000001d0: 1b43 0e3d aef6 2d3e 70b5 2abc 5c77 5bbd
000001e0: 9644 353e e5f7 c93d 168f cd3d 933b 58bd
000001f0: 97bf 04bd 4e67 27bd e543 c6bc 76a7 8bbd
00000200: 88dd ae3d 86e8 523e 7f4b e7bd 857e 14bd
00000210: f868 3dbd 1744 54bd 50ae b83d ba93 923d
00000220: 2bd4 15be 45a3 10bd fc45 823e 2132 b43d
00000230: 6f4e 94bd f21a 03be d90f 4ebe 0f60 82be
00000240: 3fd3 c2bc 8192 043e bda7 e93d 832d 873d
00000250: b229 50be 7cee 0dbe 8eed 62bd cf0a 853e
00000260: 89c5 c33d de63 93bd 9742 113e a5f1 bbbd
00000270: 94c9 8abd fd08 2a3e bcbf bbbd d01d d2bd
00000280: bbeb 21be 0a2a 5c3e 7112 663e 18cf 4b3d
00000290: 7ebc 08be 221b 62be 2b38 73be 9e80 543e
000002a0: 47c8 9d3d 0838 2f3e d347 223e 5a5a bc3d
000002b0: 4a9e 813d 0cdb 50be f2ae 28be 7388 84be
000002c0: 37bb af3d 05d8 b5bd 173e ddbd b413 31be
000002d0: 97d0 43bd 8899 38be 41d8 3abe 935d df3d
000002e0: a0eb 96bd 1503 113e 16cb a1bc f534 25be
000002f0: 9708 26bd e74c 17be 362a abbd 48de 8fbe
00000300: 9c98 103e 3557 32be a950 b23d 263b e63d
00000310: f10e 313e dc9b 39be 41bc 463e 0b47 8abd
00000320: 89c4 073e e9bf 7c3e 4455 d3bb 40df 793c
00000330: f3f7 1dbd a3e4 47be 0337 c83d 0f21 86be
00000340: 5542 3e3e dbd9 3c3e 59fe 623e 91e0 a8bd
00000350: b8e7 2cbe d588 d43c 2c13 063e 6a1a 89be
00000360: ccbe c6bd 678d 25be a575 53bd b0c6 08be
00000370: 2792 03be 8776 b3bd 1253 6dbe cb1e 3d3e
00000380: 282a 683e aed6 2c3c 15c3 5b3d 92d6 05be
00000390: 7af4 05be 5210 8ebe fda6 833d 9af3 10bd
000003a0: b0db 3ebe 617a 49bd b32a bcbd 654e a63c
000003b0: 815d 1abc e008 bdbd 6d5e 09bd cd74 d5bd
000003c0: 28f1 83be 7ad1 863e dff5 d3bd 0eaf a33b
000003d0: 7a87 04be 8fc2 ecbc dd41 4c3e 7701 ac3d
000003e0: ff84 4bbe 09b7 fc3d a08b 853e 6c5a 143d
000003f0: 7423 0c3e 49ea 3d3e 69e4 82bd cbc7 14bb
0.08482331 -0.08073524 0.21748267 -0.11546813 -0.15042403 -0.14040504 0.22634417 0.10086265
0.23044428 -0.20410356 -0.24623615 -0.17673986 -0.17031945 0.100741446 0.07575635 0.23408407
-0.15879866 -0.21658702 0.1489845 -0.11827796 0.12011782 -0.06924877 0.10502327 -0.18864708
-0.11126203 0.04240267 0.00570913 -0.09393016 0.14794672 0.13911738 -0.16849373 -0.1381944
0.22102016 -0.017706668 -0.12648058 -0.28568697 -0.15691267 0.028497607 -0.052029844 -0.252195
-0.034854304 -0.1557009 -0.14151548 -0.14164722 -0.24064486 -0.16817603 0.22541086 -0.0033472313
0.0722131 -0.22620283 -0.13474376 -0.11639539 0.028931584 -0.21468663 -0.12222889 -0.14698745
0.021652063 -0.08610143 -0.0306903 -0.17821549 -0.14910977 -0.1759495 -0.03752198 -0.23470615
0.21855135 -0.07121842 0.19407128 0.08423847 -0.22469254 0.17870496 -0.073622674 -0.10012917
-0.18438233 -0.2729542 0.051581163 -0.07441056 0.102644 -0.20977269 0.17399141 -0.17203401
-0.11093474 0.07483779 0.10706238 0.17966877 0.122513324 -0.23350163 0.068510465 -0.14071435
-0.03135413 -0.10702159 0.24397722 -0.24185483 0.091446325 0.09488395 0.023153706 -0.15867199
0.18560107 0.044349972 -0.012391348 -0.25366917 0.048029672 -0.07681562 -0.13430618 0.2087402
0.109940626 -0.12284937 -0.09596454 -0.046468087 0.1028151 -0.092365235 -0.17804076 -0.12381528
-0.14390872 0.079514295 0.17052977 -0.2031531 0.034731966 0.16988632 -0.010419235 -0.053580627
0.17701945 0.09861735 0.10037057 -0.05279119 -0.032409277 -0.040870003 -0.024202297 -0.0681905
0.085383475 0.20596513 -0.112936966 -0.03625347 -0.046242684 -0.051822748 0.090176225 0.07157083
-0.14631717 -0.035311956 0.2544402 0.08798624 -0.072415225 -0.12803248 -0.20123233 -0.25463912
-0.02378237 0.12946512 0.11408947 0.066004775 -0.20328405 -0.13860506 -0.05540233 0.2598481
0.09559161 -0.071967825 0.14185558 -0.091769494 -0.06776729 0.16604991 -0.0916743 -0.102595925
-0.1581258 0.21500412 0.22467972 0.049758047 -0.13353154 -0.22080663 -0.23751895 0.20752189
0.077042155 0.17111218 0.15847711 0.09196921 0.06329019 -0.2039606 -0.16472986 -0.25885352
0.0858063 -0.08879093 -0.10802858 -0.17292672 -0.04780635 -0.18027318 -0.18246557 0.1090652
-0.07369161 0.14161332 -0.01975016 -0.16133483 -0.040535536 -0.1477543 -0.083576605 -0.28099275
0.14120716 -0.1741608 0.08706791 0.112417504 0.17290856 -0.18125862 0.1940775 -0.067518316
0.13258566 0.24682583 -0.0064493734 0.015250981 -0.03856654 -0.19520812 0.09776118 -0.26197097
0.18579991 0.1844248 0.22167338 -0.08245958 -0.16885269 0.025944153 0.13093251 -0.26777965
-0.0970436 -0.16167222 -0.051625866 -0.13357043 -0.12848721 -0.08762842 -0.2317622 0.18468778
0.22672331 0.0105492305 0.05365284 -0.13070133 -0.13081542 -0.27746826 0.06428335 -0.035388567
-0.18638492 -0.049188975 -0.09187832 0.020301053 -0.009421707 -0.092302084 -0.033537317 -0.104226686
-0.25769925 0.26331693 -0.103496306 0.0049952334 -0.12942305 -0.028901367 0.19947 0.08398717
-0.19874953 0.12339599 0.26083088 0.036219046 0.136854 0.18546404 -0.06391222 -0.0022702094

node_encoder.layers.3.bias f4 [16]
00000000: b37d 14bc 3d0d 3836 78f0 4f3c f9b0 7c3a
00000010: d0f3 a8bb 0021 98bc 4434 07bc f165 2cbd
00000020: f884 7ebc 7695 ba35 bd33 fb3b e3a6 ae35
00000030: 3791 6dbc df8a 98bc 516a 3b3a 19aa 54bc
-0.009063172 2.7425842e-06 0.01269161 0.0009639408 -0.005156018 -0.018570423 -0.008252207 -0.042089406
-0.015534632 1.3901579e-06 0.00766608 1.3012581e-06 -0.014499954 -0.018620906 0.0007149326 -0.012980008

node_encoder.layers.4.weight f4 [16]
00000000: 4b9c 803f 76ef 703f 184c 7a3f 38c8 7c3f
00000010: 08bd 7d3f 4ec9 783f 26b6 753f 60e7 813f
00000020: d150 7b3f 2f11 843f fae4 723f e8fa 813f
00000030: 7d1e 7e3f 857d 723f 2519 813f b736 7e3f
1.0047697 0.9411539 0.9777236 0.9874301 0.99116564 0.97182167 0.9598106 1.0148735
0.9817019 1.0317744 0.9488064 1.0154696 0.9926527 0.9472278 1.0085799 0.9930224

node_encoder.layers.4.bias f4 [16]
00000000: 0454 b03c f740 a9bc 4a99 30bc e467 ff3b
00000010: b214 a1bc e37d d6bc 6c97 bebc 1f20 f3bc
00000020: 8216 55bd d856 b3bd 1bd4 45bd 94f7 a33c
00000030: c0ff 873c 661f f7bc f682 27bd 8efc 213c
0.021524437 -0.02066086 -0.010778734 0.007794367 -0.019663189 -0.026183074 -0.023265563 -0.029678402
-0.05202342 -0.087567985 -0.048297983 0.020015515 0.016601443 -0.03016634 -0.04089638 0.009886874

node_encoder.layers.4.running_mean f4 [16]
00000000: 0f2c 723a 0cf6 7abe dbf5 05bf 5298 3dbf
00000010: d924 1ebe 4fde 0ebd ac50 5dbe 22b8 e93c
00000020: 72b2 0ebe 42d3 7d3d a8e7 25bd d2e1 0bbf
00000030: 4e9a 623d 797e 3ebe 84a0 a2be e91a 633e
0.00092381326 -0.24507922 -0.5232827 -0.7406055 -0.15443744 -0.03487998 -0.21612805 0.028530184
-0.13935259 0.06196905 -0.040504128 -0.5464145 0.055322938 -0.18602933 -0.3176309 0.22178234

node_encoder.layers.4.running_var f4 [16]
00000000: 960c 3d3e 47fe 883d 1609 093e 8b95 213e
00000010: 85f2 7b3e bd85 283d dc97 043e f7aa 103d
00000020: 2f0e 8f3e 729b b83d a2b8 8a3e 3c9f 2f3e
00000030: b71f a13d 2fe6 be3d cb50 8f3d cdfa e93d
0.18461832 0.066891246 0.13382372 0.15779702 0.24604233 0.041143168 0.12948555 0.035319295
0.2794051 0.09014024 0.2709399 0.17150587 0.07867377 0.09321248 0.06997832 0.114247896

node_encoder.layers.6.weight f4 [4, 16]
00000000: 2b96 a0bd 296f c33d 8c29 adbd b6ab 1cbd
00000010: d7f6 f23c 9eca 8dbc 7f47 0cbe c58f 87be
00000020: d4e5 41be 2d05 34be a6ad 3e3e be60 05be
00000030: 584e 13be 9e19 c13c 1ccd ff3d 8c01 df3d
00000040: f918 553e b469 cb3d 25e9 61be d2cb a13c
00000050: b33a 213e a604 6fbd 81bc e1bd b391 5c3e
00000060: 9908 f2bd 956c 1cbe 078b 74be 124f 423b
00000070: f5f4 d73d 2c45 693d f8c5 b43c 1c26 58be
00000080: c61d 6abe 1d1f a83a 9e29 743e a780 0d3e
00000090: e7c4 0dbe d869 8fbc bdf0 19be b4a2 cabd
000000a0: 6e0c 753d 2366 283e 9dd5 693e a4ff 6cbe
000000b0: d361 223e aa49 03be 395d ab3d 2ce0 6a3e
000000c0: 8e05 523d e4c7 683e de11 3fbe 0fb2 b1bd
000000d0: 6bc6 043e f346 8bbd 0bb1 53bd c162 11be
000000e0: 8d25 143e 9fc2 e23d 6403 943d 0709 2ebe
000000f0: b420 61be d8a3 4b3b 2bb6 003d 4bc4 d4bd
-0.07841142 0.095426865 -0.0845519 -0.038249694 0.029658718 -0.01730853 -0.13699149 -0.26476875
-0.18935329 -0.175801 0.18620929 -0.13025185 -0.14385355 0.023571786 0.124902934 0.10888967
0.20810308 0.09932271 -0.22061594 0.01975051 0.15745048 -0.058354042 -0.110222824 0.21539955
-0.11818046 -0.15275796 -0.2388116 0.002964918 0.10544769 0.056950733 0.022067055 -0.21108288
-0.2286292 0.0012826655 0.23844 0.13818608 -0.13844644 -0.017506525 -0.1503324 -0.098943144
0.059826307 0.16445212 0.22835393 -0.23144394 0.1585763 -0.1282107 0.0836739 0.22937077
0.05127483 0.22732502 -0.1865916 -0.0867654 0.12966315 -0.06800642 -0.051682513 -0.14197828
0.1446745 0.11072277 0.07227209 -0.16995631 -0.21985132 0.0031073 0.03142373 -0.103890024

node_encoder.layers.6.bias f4 [4]
00000000: 425b c9b4 69c8 fc3b e406 b8b5 71d0 0cb6
-3.7505566e-07 0.0077143204 -1.3711074e-06 -2.0982955e-06

edge_encoder.layers.0.weight f4 [16, 4]
00000000: 0d45 09be 0896 cdbe d433 04bf 2b23 12be
00000010: c17f 6ebe 8fc5 f33d 86d5 30be 7f0c 3fbe
00000020: f9e1 d13e a520 2a3e cb7e d83e 400c 2cbe
00000030: edd6 73be 97cc 723e f1ec 89be 5263 acbe
00000040: 4dbd 2fbc e2ac 3abe e790 c4be a70f 5b3e
00000050: 57f9 cb3e d76c 133d cbbd d4bd 54e9 d8be
00000060: 5802 43be 03a9 a13d c1d7 863e a559 5abd
00000070: 2f26 32be 143b 763e 8bfc d9be 3bd1 be3e
00000080: 2ac9 3bbe 7c83 813d 2612 d3bd 6953 a23d
00000090: 693e 37be 15db c33e 9354 7fbc 22fb 9f3e
000000a0: 2c41 e43e 2fa4 65be 9b95 c1be 6345 b83e
000000b0: 12d9 c73e 12c5 c1be 12e5 43bd e4ae dabe
000000c0: ef3a cdbe 91b1 8a3d cd6e 123e 710e 113e
000000d0: 7fd1 38be 10af ce3e 7b24 b03d 22d3 53be
000000e0: d29a 2f3c 6361 d63d a596 4d3e 8dfd 8ebe
000000f0: b81b 543e 0793 70be 3b2d d3be 16ed 71be
-0.13405247 -0.40153527 -0.51641583 -0.14271228 -0.23290922 0.11902916 -0.17268953 -0.1865711
0.40992716 0.16614015 0.42284235 -0.16801548 -0.23812456 0.23710857 -0.26938584 -0.33669525
-0.010726285 -0.18230012 -0.38391802 0.2139269 0.3983867 0.03599247 -0.10387763 -0.42365515
-0.19043863 0.078935646 0.26336482 -0.053308148 -0.17397378 0.24045974 -0.42575487 0.37269005
-0.18338457 0.06323907 -0.10306196 0.079260655 -0.17894901 0.38253084 -0.015584129 0.31246287
0.44580972 -0.22425912 -0.37809452 0.35990438 0.390328 -0.37845665 -0.04782588 -0.42711556
-0.40084025 0.06772149 0.1430008 0.14165665 -0.18048666 0.40367937 0.08600708 -0.2068601
0.010718064 0.10467794 0.20076998 -0.2792782 0.20713699 -0.23493586 -0.41245446 -0.23625597

edge_encoder.layers.0.bias f4 [16]
00000000: 9d5a 693e f2ee 373e 9f0e 4a3e f7a2 943d
00000010: 61e2 0c3e c879 a7b4 7199 75bd 8c03 343d
00000020: de3a 4bbd bb8c d7bd db55 b3bb 612f 9b38
00000030: b1f2 463d 5e68 83bc e9c2 95bd 7f5a ef32
0.22788472 0.17962244 0.1973214 0.072576456 0.13758232 -3.1194782e-07 -0.059960786 0.043948695
-0.049616687 -0.10524889 -0.0054728813 7.399801e-05 0.048571292 -0.016040977 -0.07312567 2.7864415e-08

edge_encoder.layers.1.weight f4 [16]
00000000: 268b 6f3f 211f 713f 7e4e 783f 3d7e 7e3f
00000010: 5771 7e3f 0c36 633f d627 703f 6a45 7f3f
00000020: bb7b 823f 2f64 6f3f 68e7 703f 50b6 6e3f
00000030: d0a3 783f d89d 6f3f 02ae 763f be15 803f
0.935717 0.94188124 0.9699477 0.99411374 0.9939169 0.88754344 0.93810785 0.9971529
1.019401 0.93512243 0.941031 0.93246937 0.9712496 0.93600225 0.96359265 1.0006635

edge_encoder.layers.1.bias f4 [16]
00000000: 8ace ddbc 0485 13bc 331a 91bc d879 c23b
00000010: 8c7c 25bb cd06 68bd 0c86 06bd 7662 9cba
00000020: 0d8b aa3b 67df 66bd 4085 14bd 0f75 353b
00000030: 1c65 023c bf9d 50bd 6053 a4bc 90ec a73c
-0.027076025 -0.009003881 -0.017712688 0.005934935 -0.0025251238 -0.05664711 -0.03284268 -0.0011931199
0.0052045644 -0.056365397 -0.03625989 0.002768818 0.007958677 -0.05093169 -0.020059288 0.020498544

edge_encoder.layers.1.running_mean f4 [16]
00000000: ee21 6f3e 592a 333e fd30 403e 22e7 773d
00000010: f64f 1f3e 64d1 8abc 40f7 8bbd 239d 843d
00000020: 0115 43bd 5ad3 c6bd 2bae 8b3c c995 6cbc
00000030: 8346 5b3d d01e fbbc 61c6 b9bd 10bd 5cbb
0.23352787 0.17496623 0.18768688 0.06052316 0.15557846 -0.016945548 -0.068342686 0.06475284
-0.047627453 -0.09708281 0.017050823 -0.014440008 0.053534042 -0.030654341 -0.09071041 -0.0033682026

edge_encoder.layers.1.running_var f4 [16]
00000000: bc7f 5b3e 5f13 053d 5800 253e 327f 8c3d
00000010: 25b6 e33d add9 0e3d fec9 6b3d e05d 133e
00000020: 0f35 633c 96ae a93c 2d91 133e 62ea 2e3d
00000030: a0a4 2e3d 6731 e23c adec fb3c 6a2a 0d3e
0.21435446 0.032489177 0.16113412 0.06860198 0.11118726 0.03487556 0.05756568 0.14391279
0.013867631 0.020713132 0.14410849 0.042703994 0.042637467 0.027611447 0.030752504 0.13785711

edge_encoder.layers.3.weight f4 [4, 16]
00000000: 0d9d e2bd a80a 1ebe 978f da3d ffc3 1ebd
00000010: fa46 813e be41 2b3e b9da 3f3d 0e93 bb3d
00000020: 587b 9f3d aeb4 57bd d13d c1bc 1838 ac3c
00000030: 80ae 563d 66fb 2d3e b57d c1bd fb90 afbd
00000040: c06a 8abd 609a cbbd 2910 8f3d 9bca 443e
00000050: 1995 413e 439a eb3d 2278 12be 0723 08be
00000060: 5cbf 55bd 47e7 8d3b b2f0 e23c 030e 1ebe
00000070: 6493 f53d 3b9d 0dbe 5fd4 f5bd a8ba 4dbe
00000080: afa8 653e 9c03 55be 9226 1a3e e01d 773c
00000090: e3f5 9ebc db32 ba3d ed82 543c 1b2a 3a3e
000000a0: 3e8c 543e eb9f 16be db0a 903d cfd3 103c
000000b0: 3ab2 da3d 2a4d a03d 2d0d aa3d 7bfc 05be
000000c0: dc57 71bb 2cc7 5c3e ed3a 183e 0620 e7bc
000000d0: c0ba 5bbe 9a0c efbb 581e 47be b573 443e
000000e0: a1d4 23be 844e 1cbd 3768 fabc b85d 6b3d
000000f0: 7158 4d3e e2b5 17bc 0d4a f33d 2f68 5a3e
-0.11065111 -0.15433753 0.10671919 -0.038761135 0.25249463 0.16724297 0.04683945 0.09158908
0.07787198 -0.052662544 -0.023589047 0.021022841 0.05241251 0.16990432 -0.09447805 -0.08572575
-0.06758642 -0.09941554 0.06985504 0.19217913 0.18904532 0.115040325 -0.1430364 -0.13294612
-0.052184448 0.004330549 0.027702663 -0.15435033 0.11991003 -0.1382951 -0.12003397 -0.20090735
0.22427629 -0.20802158 0.15053776 0.015082806 -0.019404357 0.09091731 0.012970668 0.18180124
0.20756623 -0.14709441 0.070333205 0.008839562 0.10678525 0.07827218 0.08303294 -0.13084595
-0.003682605 0.21560353 0.14866228 -0.028213512 -0.21457958 -0.0072952034 -0.19445169 0.19184764
-0.1599908 -0.038160816 -0.030567272 0.057462424 0.20053269 -0.009259673 0.118793584 0.21328805

edge_encoder.layers.3.bias f4 [4]
00000000: 6681 4c3e ae3c 5ebd d564 4f3b 249c 153e
0.19971237 -0.054257087 0.0031645794 0.14610344

message_passing_layers.0.message_mlp.layers.0.weight f4 [16, 12]
00000000: a794 8ebd 08e9 1e3e d3e9 99bd 793c 3ebe
00000010: e26d ef3d 300d db3c a254 f43d 6ec8 893e
00000020: e978 523e 3634 933e 3c48 063c ffd5 75be
00000030: 8847 67be 74e3 45be 595a 7bbe 1579 4ebe
00000040: cc2e 60be d1c8 56be 9c5a 02be 28dc 7bbe
00000050: 9691 4bbe 23b5 be3d dd4b 7b3e 9ab1 12be
00000060: 8f54 95bd c2af e43d 078d 22be a3f6 10be
00000070: 683c 683e 4f9b 68be e337 673d 732f 883e
00000080: 9c8e 753d 02bb ec3c 1ce7 3abe 6a74 40bc
00000090: b847 e13c 430e d53d 6f20 fd3d 3c04 873e
000000a0: 1705 62be af53 883b 8530 12be dbcc 61be
000000b0: 7ead 33bc b8d4 60be 82f7 593e 98dd 393d
000000c0: 561f 0fbe 5c10 073e b15b 9abe 58ac e1bd
000000d0: f791 91bd 69e0 7fbe 26fe 3bbe 75e0 9abd
000000e0: 39bd 6f3e 1d87 853e 436a 193e 4983 2ebe
000000f0: d5c5 4cbe b3cc 8c3e e3c8 f23d c8f7 ed3c
00000100: f024 513d f0b4 3bbe ea16 43bd fe39 9e3e
00000110: 7111 aebd 03aa 853c 8cc2 62be 1895 09be
00000120: 2957 aabb c5de 3ebe 6124 8bbd 64c4 bc3d
00000130: ebc9 8dbe bc6e d63d 557c 2cbe 4481 05be
00000140: 2c43 e63d 785e 5c3e b62e debd ca28 10be
00000150: c989 73be ed76 2dbe ab75 83be 77ce 4cbd
00000160: 47b4 623d 2ca9 82be cd94 833e bee8 3b3e
00000170: dab6 84be 15d4 20be 0809 b23d ba6c 2cbd
00000180: af05 19bd 92e7 14be 9b96 593e d4f2 d4bd
00000190: dc6d 5a3e a13b 48ba fb22 223d 2c9f 473e
000001a0: 1eca 59bd 50d8 37be bfe7 83bd 72f4 943e
000001b0: 86c9 81be a9a6 5a3d 863a 8bbe f091 2c3e
000001c0: 9941 243d 04a8 26bd 5b67 983d a846 40bd
000001d0: c16b f63d 0bd6 76be 1168 efbc 3cfe 163e
000001e0: daa0 743e f154 1c3e 4b13 6ebe 7e44 773e
000001f0: 92b8 afbd d9e2 9ebd 515a 8bbe e2e6 7ebd
00000200: 5971 203e 3d8d 3c3d f5af 43be 5c6d eb3d
00000210: acd7 49bd a086 763e 2bb9 81be 3629 85bd
00000220: e335 81be 42de dabd b41b b03d b525 963e
00000230: 0900 b53d 033d 883e dbfe 4f3d 936a 433e
00000240: 0e3a 803e 791e 8a3e ec70 31be 198e 8a3e
00000250: 54ac 583e 02d6 6cbd 5183 9fbd 104f 41be
00000260: 59ea bc3d b08c 50be c811 df3d 2bef be3d
00000270: c762 8bbe 93d4 743d 6a06 b2bc f4f2 233e
00000280: fb69 e33d c6d1 9cbe 0e4e 7e3e 7504 343e
00000290: 6520 bd3d 81da 8fbe 864b d0bd 3baa 5fbd
000002a0: 1b3a 98bd 5fa8 2d3e e79e dc3d 1fd1 413e
000002b0: cdac a1bd 3463 ef3d 63f4 d53d fa03 5dbe
000002c0: 533a 8ebe ffdb 12be c7c6 4b3e 42f1 9ebe
000002d0: f1a3 6ebe b54a 103e da7f 463e bc8b 803e
000002e0: 2a49 66be 6fb5 65be 4fc0 013e 1d08 6f3e
000002f0: f7be 423e 728f ca3c c31d 083e 969f 923e
-0.06961947 0.15518582 -0.075153016 -0.18577756 0.1169088 0.026739687 0.11930205 0.26910728
0.20553936 0.2875077 0.008195933 -0.24007414 -0.22585881 -0.19325048 -0.24546184 -0.20163377
-0.21892852 -0.20975043 -0.12729877 -0.24595702 -0.19879755 0.09311893 0.24540658 -0.14325562
-0.07291519 0.11166336 -0.1587411 -0.14156584 0.22679293 -0.22715496 0.056449782 0.265987
0.059950456 0.028897766 -0.18252224 -0.011746505 0.027500018 0.10403111 0.12359702 0.26370418
-0.22072254 0.0041603665 -0.14276321 -0.22050802 -0.010966657 -0.21956146 0.21285823 0.045377344
-0.13976797 0.13189834 -0.3014808 -0.110192 -0.07107919 -0.2498795 -0.18358669 -0.07562343
0.23412026 0.26079646 0.14981942 -0.17042269 -0.19997342 0.27499923 0.11854722 0.029048815
0.051060617 -0.18330741 -0.047629274 0.3090362 -0.084994204 0.01631642 -0.22144526 -0.13435781
-0.0051983786 -0.18639667 -0.06794048 0.09217146 -0.27693114 0.1047034 -0.16844304 -0.13037592
0.11243281 0.21520412 -0.10848753 -0.1407806 -0.2378303 -0.16939898 -0.2567571 -0.050001588
0.055347707 -0.25519693 0.25699463 0.18350503 -0.25920755 -0.15705903 0.08693129 -0.042095877
-0.037358936 -0.14541462 0.21248858 -0.10397878 0.2133097 -0.000763828 0.03958414 0.19494313
-0.05317127 -0.1795361 -0.064406864 0.29092747 -0.25349063 0.053381596 -0.27193087 0.16852546
0.04010162 -0.040687576 0.074415885 -0.046942383 0.12032271 -0.24105088 -0.029224427 0.1474542
0.23889485 0.15266778 -0.23249547 0.24147221 -0.08580126 -0.077581115 -0.27217343 -0.062231906
0.15668239 0.046033133 -0.19110091 0.11495468 -0.049277946 0.24074793 -0.25336584 -0.06502001
-0.25236425 -0.106869236 0.08599034 0.29325643 0.08837897 0.26609048 0.05078016 0.19083624
0.25044292 0.26976374 -0.17328233 0.27061537 0.21159488 -0.05782128 -0.077887185 -0.18877816
0.09224386 -0.20366168 0.108920634 0.093229614 -0.272238 0.05977304 -0.021731574 0.16010648
0.111041985 -0.30628794 0.24834463 0.17579825 0.092346944 -0.28096393 -0.10170655 -0.054605704
-0.07432958 0.1695876 0.10772496 0.1892743 -0.07894287 0.11688843 0.10447004 -0.21583548
-0.27778873 -0.14341734 0.19900046 -0.3104344 -0.23304726 0.14090998 0.19384709 0.2510661
-0.22488847 -0.22432493 0.12671016 0.23342939 0.1901816 0.024726603 0.13292603 0.2863738

message_passing_layers.0.message_mlp.layers.0.bias f4 [16]
00000000: 066f 56bc fdf2 9cba 413b 9d3c fa26 8ebc
00000010: e0d2 afbb ae13 bd3c 298e 9b35 d97f 5236
00000020: 5338 1dba fb11 a8b6 7679 583d 2a39 12bc
00000030: b271 f4b5 f86a ee3a de1a 94bc 2d00 823d
-0.0130879935 -0.0011974272 0.019193294 -0.01735257 -0.0053657144 0.023080673 1.1589774e-06 3.1366856e-06
-0.00059974677 -5.0088834e-06 0.05285021 -0.008924762 -1.8212506e-06 0.0018189838 -0.018079218 0.0634769

message_passing_layers.0.message_mlp.layers.1.weight f4 [16]
00000000: ad69 7e3f 20c1 783f ed5d 813f 348a 793f
00000010: af03 7b3f 6019 7f3f c5d0 7f3f 2c58 773f
00000020: f466 7c3f cb10 873f 234e 7c3f cba0 763f
00000030: 32a7 813f 0c8c 803f f992 823f 0730 7c3f
0.9938 0.97169685 1.0106789 0.97476506 0.98052496 0.99648094 0.9992793 0.96618915
0.98594594 1.0552 0.9855673 0.963391 1.0129149 1.0042739 1.0201102 0.98510784

message_passing_layers.0.message_mlp.layers.1.bias f4 [16]
00000000: fcbe 8d3d bfec 36bd 42c6 5b3d 1940 2bbd
00000010: 0f1f 443d dcee 0fbd 7c60 193d b1fe 4a3a
00000020: 2272 3c3d eaca 233d 4de9 c83c 69e2 8dbc
00000030: 49d2 54bc 5470 bf3c addd 87bc 4822 15bd
0.06921193 -0.044659372 0.05365587 -0.041809175 0.047881182 -0.035139903 0.03744553 0.00077436405
0.046007283 0.039988436 0.024525309 -0.017319875 -0.012989589 0.023368992 -0.016585195 -0.036409646

message_passing_layers.0.message_mlp.layers.1.running_mean f4 [16]
00000000: 809d 3f3e 572b bfbd e0f1 823e 29d1 8ebe
00000010: 54b3 2ebe c2d6 6d3e 4b09 9bbe a134 c13e
00000020: d62a 743e 3da7 503c 904e a7be 5c7b 03bd
00000030: 637e 27be 1362 933e 98b8 c93c adfa c83d
0.18712425 -0.09334438 0.2557516 -0.27893952 -0.17060596 0.23226455 -0.30280527 0.37735465
0.23844466 0.012735185 -0.32677126 -0.032100067 -0.16356806 0.28785762 0.024624154 0.098134376

message_passing_layers.0.message_mlp.layers.1.running_var f4 [16]
00000000: 376c b73d ef1a e23d 1bf0 013d bcb1 3d3d
00000010: 5674 cc3d 7534 3d3d b19a 7d3c 277d 6f3d
00000020: 5fe5 6b3d ca9c 463c 0761 143e 4504 e33d
00000030: d945 593d 8af8 3f3c 34d4 2c3d dce5 a33c
0.08956187 0.110402934 0.031723123 0.04631208 0.09983127 0.046192605 0.015478776 0.058468964
0.057591792 0.012122342 0.14490138 0.11084799 0.053045128 0.011716971 0.04219456 0.020007066

message_passing_layers.0.message_mlp.layers.3.weight f4 [16, 16]
00000000: 1c12 f3bd 1053 0ebd 85dc 5bbd cf0e 12be
00000010: 929e 6fbe 564b 213e 52f8 fa3c d481 82be
00000020: 5337 27be 74d8 883e fa5f 753d 44ab df3d
00000030: dc54 2bbe 0d25 cdbd e2d9 12bd 3799 43bd
00000040: cb0b 36be 62fd 823a 59cd 1c3c 1e2a f3bc
00000050: b099 a43c 6d9f f8bd bc3d 5d3d f97c bb3d
00000060: ee8e 00be 14d6 79be 41bf f93d ec6b 293d
00000070: ac69 12be ca8a 7b3e 798d eebd a63c 043e
00000080: 69ee e43d 0ecc 3bbe 3bc6 203e 0284 4ebe
00000090: c858 0cbe fd4d 09bd 69ce 36be a59b 633e
000000a0: 509d 49bd dd70 fc3d 8eb7 72be 53b5 103e
000000b0: b412 95bd 3d24 47be 5940 d83c 24c7 043e
000000c0: afc1 463e 7f09 25be 7abd 1cbe c3f8 743d
000000d0: 5112 113d 74fe ab3d 16c2 d53d 023d 89bd
000000e0: 1d15 0e3e 465a 683e 57bb bebd 979a 1a3e
000000f0: 32ed ea3d 0881 7a3e b461 36be cb0a d5bd
00000100: 3587 69bd 2156 9d3c d752 273e dd2d 3cbe
00000110: a4a5 0c3e 9f2a afbd e9ce 1d3e 69a8 ff3b
00000120: 997c 6ebe a93c 25be 2535 15be f028 0e3e
00000130: fb19 1cbe b1cc 40bd f88f 873d 5ff4 23be
00000140: ce3d 723d ca6a 7abe 75d2 36be c399 54be
00000150: ca9e 97bd 5719 b8bd dec8 0e3d 57c8 98bd
00000160: c50f dd3d 08bc 853e 2b86 943d 6c0b a8bd
00000170: cc65 6ebe a313 cf3d 8251 13be b701 223e
00000180: 04f9 473e 1183 ae3d 3895 803e 1e68 3b3e
00000190: 387a 703d 3702 39be 7e21 663e 4fd2 c8bd
000001a0: 29ee 13be 3cc7 583e 6369 5f3e 20de b33d
000001b0: 9749 b73c c546 62be fab9 ddbb 5d85 653e
000001c0: f059 333d 427b 973b f728 96bd e985 a8bd
000001d0: 0512 013e 8437 d9bb f4cf 403e 6aae efbc
000001e0: 82b4 ed3d 4931 093e 606d 2d3d f1f8 0f3e
000001f0: 655b 3f3e 66f6 743e 5a86 363e dcb4 88bd
00000200: 8f40 50be 0530 803d 1366 df3a a7a4 c1bd
00000210: 629f 1bbd afaa 7f3c a19e 223e bd68 a03d
00000220: 58b6 dbbd daef e8bd d7e8 88bd aa6c bdbd
00000230: 534c 6b3e 65d9 d13d acac 683e d29a b9bb
00000240: 0450 d73c dcb5 9a3d 7d09 89be b2c5 953c
00000250: e0c0 4dbd d0ba 2bbe 7230 60be 001a 593e
00000260: eed2 3d3e 08cf 193e 51a4 5e3e cec8 02be
00000270: 13f9 3fbd c09b ed3d 5f31 8cbd 364c ebbc
00000280: 197c 4dbe 4c63 903d 0dcc 13be 5044 df3c
00000290: df9d 713e e3a8 84bd b4d4 efbd 8c0d 323e
000002a0: 52be 58bd d039 1ebd 190b 513e df70 eabd
000002b0: 0786 50be 4039 e9bd f0ad 0cbd 2f81 02be
000002c0: 0034 0ebe 88be db3d 52bc fb3c c43f a5bd
000002d0: 656a 5bbe efc6 abbd af7d dabd bad3 9fbd
000002e0: dae8 5fbe 93de a83d 58ab 4bbe dd3d 4dbe
000002f0: f3f0 43be 15d7 023e 672f 20be 8d49 f9bd
00000300: 4923 4b3e eb39 213e c770 173e e31e 60be
00000310: ee58 38be f60c a9bd aa68 3a3e 318e 0f3d
00000320: fcd7 43be 6ad5 87bd f775 5dbe 462a 88bd
00000330: 9860 03be 9ca1 383e 35a0 d33d ec5e bbbd
00000340: 50a9 ee3c d099 9cbd 54a3 b53d e1eb 113e
00000350: 9c3d 823d cd2e c4bd 2fa2 693e aeb2 4ebd
00000360: d4ff aebd d5e2 093e 0b63 373e 7fd7 6b3e
00000370: aa80 803d 3a61 a7bd f241 e73d 64a5 803e
00000380: 69d1 84be cf66 8fbc 4a9d 3cbe c7dc bb3d
00000390: 8676 ad3d 2eb9 5cbd 5c5d 5cbd 6c9f ae3d
000003a0: 64d8 23bd 1672 38be f7c4 273e 5e0c 0fbe
000003b0: ad25 4dbd 410c fa3c 49ad dabc c949 55be
000003c0: 6c2f 0d3e d35c c8bd d07a cfbd fd3b 6e3d
000003d0: 8149 d0bd 755b b8bd b0d6 a5bd 76d5 95bd
000003e0: 37a3 d0bd bddb c0bd 4807 a83d b63f 3cbe
000003f0: 40ce 2bbe a5f4 23bb 252f 783d 421e 013e
-0.118686885 -0.034747183 -0.0536771 -0.14263462 -0.23400334 0.15751395 0.030635986 -0.25489676
-0.16329698 0.2672764 0.059905984 0.10921338 -0.1673159 -0.100168325 -0.03585232 -0.04775354
-0.17777936 0.0009993727 0.009570443 -0.029683169 0.020092815 -0.12139783 0.054013953 0.09154696
-0.12554523 -0.2439807 0.12194682 0.041362688 -0.14298123 0.24564663 -0.116480775 0.1291376
0.11178286 -0.1833956 0.15700619 -0.20167544 -0.13705742 -0.03352164 -0.17852177 0.22227342
-0.04922229 0.123262145 -0.23702833 0.1413167 -0.07278958 -0.19447418 0.02639787 0.12966591
0.19409822 -0.16116904 -0.15306655 0.05980755 0.03541786 0.083981425 0.104374096 -0.067010894
0.13875242 0.22690687 -0.09313076 0.15098034 0.11471023 0.24463284 -0.17810708 -0.10402449
-0.05701371 0.019206109 0.16340195 -0.1837687 0.13735062 -0.08553051 0.15410961 0.0078020585
-0.23289718 -0.16136421 -0.14571054 0.13882804 -0.15244286 -0.04707021 0.06619257 -0.16011189
0.059140973 -0.244548 -0.1785372 -0.2076178 -0.074033335 -0.08989208 0.03485953 -0.07460087
0.107940234 0.2612002 0.07252153 -0.082053035 -0.2328102 0.10111167 -0.14386562 0.15820967
0.19528586 0.08521093 0.25113845 0.18301436 0.058710307 -0.18067251 0.22473714 -0.09805738
-0.1444632 0.21169752 0.21817546 0.08782601 0.022373958 -0.22097309 -0.006766555 0.22414155
0.043786943 0.004622848 -0.07332032 -0.08228666 0.1260453 -0.0066289324 0.18829328 -0.029257972
0.11606695 0.13397707 0.042340636 0.14059807 0.18687208 0.23922119 0.17824689 -0.06675121
-0.20337127 0.06259159 0.001704397 -0.09455233 -0.037993796 0.015604659 0.15880825 0.07832477
-0.10728139 -0.11373873 -0.06685036 -0.09249242 0.22978334 0.10246543 0.22722119 -0.005664208
0.026283272 0.07554218 -0.2676505 0.018282745 -0.050232768 -0.16770482 -0.2189348 0.21201324
0.18537495 0.15020382 0.21742369 -0.12771913 -0.046868395 0.116019726 -0.06845354 -0.028722864
-0.20066871 0.070501894 -0.14433308 0.027254254 0.2359538 -0.06477525 -0.11710492 0.1738798
-0.05291588 -0.038629353 0.2041439 -0.1144731 -0.20363627 -0.11387873 -0.034345567 -0.12744592
-0.13887024 0.107297 0.030729447 -0.08068803 -0.21427305 -0.08387553 -0.106685035 -0.078040555
-0.2186617 0.08245578 -0.19889581 -0.2004313 -0.19134884 0.1277736 -0.15643083 -0.12172232
0.19837679 0.1574475 0.14789115 -0.21886782 -0.18002674 -0.08254425 0.18203989 0.035047714
-0.1912536 -0.066325024 -0.21627031 -0.06648688 -0.12829816 0.18030399 0.103332914 -0.09148964
0.029133469 -0.07646525 0.08869043 0.14250137 0.06359407 -0.09579239 0.22815774 -0.05046337
-0.08544889 0.13465436 0.17908876 0.23031424 0.06274541 -0.08172841 0.11291875 0.25126183
-0.25941017 -0.017505078 -0.18419376 0.09172969 0.08469872 -0.05388754 -0.053799972 0.08526501
-0.040001288 -0.1801227 0.1638373 -0.13969561 -0.05008476 0.030523421 -0.026693957 -0.20828928
0.13787621 -0.0978333 -0.101308465 0.058162678 -0.1017027 -0.09001819 -0.08097589 -0.07316105
-0.10187381 -0.09416912 0.08204514 -0.18383679 -0.16777897 -0.0025017646 0.060591836 0.12609199

message_passing_layers.0.message_mlp.layers.3.bias f4 [16]
00000000: a544 1dbc fad0 97b5 30b6 1d3b 1326 023b
00000010: a839 0cbd c0b2 fdb6 8652 cdbc aa5d a9bb
00000020: fb5f 053b f6ab cb35 577a bd38 bc96 48bb
00000030: cfe6 feb4 9a96 78bb f9dd 443a 7ecf 15b9
-0.009598886 -1.1311197e-06 0.002406489 0.001985912 -0.034234673 -7.560797e-06 -0.025063764 -0.0051686363
0.0020351398 1.5174726e-06 9.03501e-05 -0.0030607423 -4.7479122e-07 -0.0037931562 0.0007509883 -0.00014287044

message_passing_layers.0.update_mlp.layers.0.weight f4 [16, 20]
00000000: db29 edbd 087b 41be 1789 22bc 51c1 513e
00000010: 20fa ff3d 8ab5 24be 3465 8d3b 2284 65bb
00000020: e916 2dbe d6f3 133e b893 e13c 8d62 5e3d
00000030: 7fd0 f7bd 1621 03be f579 2e3d f972 b43d
00000040: 5a81 513d d8a4 abbd 515b 393e d896 91bd
00000050: a0c9 10be 3790 16be dfef 603e e79d 643c
00000060: 4e86 d5bc af1a a3bd 04a3 b3bd afb4 4ebe
00000070: 0a17 29be e0d0 003e 3f35 4f3e 86bc 483e
00000080: 4787 21be 802d cb3d 4e28 05be 994b 0d3e
00000090: 7eab 1e3e 115a 313e efdb 2a3e 4a46 183e
000000a0: d0b7 4fbc 19e0 c43d d4fb 91bd 864c 713d
000000b0: 4ff9 a6bd 130a bf3c a6bc 45be 996f 28bd
000000c0: 658a ddbd 7dd9 90bd 6381 2cbe 13f2 38be
000000d0: 92f4 813c dccb 173e 7695 4d3e 652d 063e
000000e0: 6505 ccbd fa7d 78be f644 c23d c4f1 ef3d
000000f0: aa2c 2cbe b680 473d 8369 453e c203 193d
00000100: 0f4f e9bd 8144 4c3e f5c1 6f3d 29ea 203e
00000110: 75e1 32be 3424 1b3e 35b9 24be 7d46 383e
00000120: 3a00 d1bd 422f 213e 0804 a23d 5904 b13d
00000130: bd02 7dbd 1cc1 943d 9e63 78bd 927e 3abe
00000140: 00b5 e2bd 304e 1b3e 8340 30bd 6135 103d
00000150: ca65 d5bd 4566 203e c292 133e eebd 413d
00000160: a6b9 c4bd fe57 4dbe 8a52 64bd 92b0 00be
00000170: a3f7 5e3e e3e8 2dbe c83b ed3d 914e 6a3e
00000180: c751 1a3e b797 9d3c 16f2 43be 4b1e 5e3e
00000190: 70c7 ecbc cb31 49be 959e 543e 4bc8 03be
000001a0: c611 05bd a366 4e3e e786 20be 81d3 35be
000001b0: 7e0a 903d 6c55 5dbd 6785 5c3d 4b56 2bbe
000001c0: 6902 973c 232c d6bd 0543 b0bd df0c 61be
000001d0: 9d9d 023e e656 453d 9f50 35be 5c66 2c3e
000001e0: 9440 233d bae8 163c f40a efbd 2f40 633d
000001f0: c2d7 483e 6e43 d93d bfa6 1bbe f049 713e
00000200: 488b 34bc 31f6 003e 3efe 183e f79e 3e3e
00000210: 8809 57be 39e6 623e fa40 46be e748 293d
00000220: 6835 08be 5ba9 9abd 5f97 15bd f1a4 d0bc
00000230: 13a8 62bd a27f 573c 2723 753e c6ec 053e
00000240: 1bc9 ea3d 3b45 bd3d 0f09 093e 8832 e13a
00000250: 1be5 b33c b346 c63c 56b2 39be 844e 40be
00000260: 1eb2 033b 7d77 eebd d7b0 8dbc 8f6d 86bd
00000270: 8cb1 c7b8 05d8 183e 5f04 bdbd f0e2 223e
00000280: d02d 3b3e 000a 47be 4a66 1cbe c8d7 2abe
00000290: d684 19be b5e4 b0bd 04a6 1abd d7b2 86bd
000002a0: 915c 01be 6f31 93bd b5b6 c2bd b3bb 473e
000002b0: d16b 94bd c963 17be f171 d03d dfdf 08bc
000002c0: 8826 1d3e c7f6 fa3d 1f78 633e 1763 0bbe
000002d0: 8430 033e dfe9 5a3e ec16 e0bd a781 303e
000002e0: b815 4d3e da0b 70bd 0ca2 f73d a79a 50bd
000002f0: 5a63 20be 3bb9 fc3c db48 b73d 2d04 1ebe
00000300: 4be1 6a3d c48b 76be f8d0 133e d8db 583e
00000310: 13b7 5a3d 4d46 05be d05e 633d 7d65 ef3b
00000320: c55b 873d 9adf 8b3d 9521 363e 348f a5bd
00000330: 9a34 a5bc 554f 943d 1409 e03c 6f11 423e
00000340: b2cc 05be 694a 323c 29e5 493d a23d b8bd
00000350: 1c73 f63d 0c7a b63c d2a1 61be 702a 963c
00000360: f199 dfbd b4bf a23c 51f8 3abd c6a6 52be
00000370: e70b 0abd 79f6 2ebd 0951 8fbd 9f05 753e
00000380: 6adc 35bd b5fc e53d 07e1 1e3d 372d 24be
00000390: 328f fd3c 776f 493e 1744 08be b174 fbbd
000003a0: c065 533e 3ce0 4c3e 42c3 08be 6b00 0f3e
000003b0: 639f 19bd e1be 4bbe afe4 143c c3d7 343d
000003c0: 612c aabd 8487 2d3d ced2 2dbe b20e 303e
000003d0: 2627 413e 1d9d d83d 8f50 033d 6eb7 ac3d
000003e0: 5cda 46be 8f7c 00bd c135 1dbd 0d2f 25be
000003f0: 3f95 4dbe a4a4 353e 33d3 0d3e eaa5 2bbe
-0.11580249 -0.18894589 -0.00992038 0.204839 0.124988794 -0.16084877 0.004315043 -0.0035021384
-0.16903271 0.14448485 0.027536258 0.054293204 -0.12100314 -0.1280559 0.042596776 0.08810992
0.05114875 -0.08381051 0.1810124 -0.07108849 -0.14139414 -0.14703451 0.21966504 0.0139536625
-0.026065018 -0.07964074 -0.08771327 -0.20186113 -0.16512695 0.1257968 0.20235156 0.19603166
-0.1577426 0.09920788 -0.13003656 0.1379837 0.15495107 0.17319514 0.1668546 0.14870563
-0.012678102 0.09613056 -0.071281105 0.05891087 -0.081530206 0.023320233 -0.19310245 -0.041122053
-0.10817412 -0.070727326 -0.16846232 -0.18061094 0.01586369 0.1482386 0.20076546 0.13103254
-0.099619664 -0.24266806 0.094858095 0.11716035 -0.16813913 0.048706733 0.19278531 0.0373571
-0.11392032 0.19948007 0.05853458 0.15714325 -0.17468818 0.15150529 -0.16086276 0.17995639
-0.10205121 0.15740684 0.07910925 0.086434074 -0.06177019 0.07263395 -0.060641877 -0.18212345
-0.11069679 0.15166545 -0.043030273 0.035207156 -0.10419805 0.15664013 0.14411452 0.04730027
-0.09605722 -0.20053098 -0.055742778 -0.12567356 0.21774153 -0.1698337 0.11583668 0.22881533
0.15070258 0.019237382 -0.19135317 0.21691243 -0.028903693 -0.19647901 0.20763619 -0.12869374
-0.032487653 0.2015634 -0.15676461 -0.17756464 0.07033251 -0.054036543 0.05383816 -0.16732137
0.018433766 -0.10457637 -0.08606533 -0.21977566 0.12755437 0.048178576 -0.17706536 0.16835922
0.03985651 0.00921076 -0.11672011 0.055481132 0.19613555 0.10608564 -0.15200327 0.23563361
-0.011019535 0.12593915 0.14940736 0.18615328 -0.2099973 0.22158135 -0.19360724 0.04132929
-0.13301623 -0.07551833 -0.03652131 -0.025469275 -0.05533607 0.013152989 0.23939191 0.13078603
0.11464139 0.0924172 0.13382362 0.0017181197 0.021959832 0.024203634 -0.18134436 -0.18779951
0.002009518 -0.11643884 -0.017296238 -0.065638654 -9.52213e-05 0.14926155 -0.09229349 0.15906882
0.18279195 -0.19437408 -0.15273395 -0.16683877 -0.14992079 -0.086373724 -0.03775598 -0.0657708
-0.12632968 -0.07187163 -0.09507505 0.19505195 -0.07247127 -0.14784159 0.101779826 -0.008354156
0.1534673 0.122541 0.22213791 -0.13612019 0.12811476 0.21378277 -0.10941872 0.17236958
0.20027816 -0.058605053 0.12091455 -0.050928738 -0.156629 0.030850044 0.08949443 -0.1543128
0.057343762 -0.24076754 0.14435184 0.21177614 0.05339725 -0.13015099 0.055510342 0.0073057995
0.066093005 0.06829758 0.17786248 -0.080839545 -0.020166684 0.07241694 0.027348079 0.18951963
-0.13066366 0.010881999 0.04929081 -0.089961305 0.12033674 0.022274993 -0.22034386 0.018330783
-0.10918034 0.019866802 -0.04564697 -0.20571432 -0.033702757 -0.042715523 -0.06997878 0.23927926
-0.044399656 0.11229841 0.03878882 -0.16032873 0.03095207 0.19671427 -0.13307224 -0.122781165
0.20644283 0.20007414 -0.13355735 0.13965003 -0.03750552 -0.19897033 0.009087726 0.04415108
-0.08309246 0.042365566 -0.16974947 0.17193106 0.1886259 0.10576842 0.03205925 0.08433424
-0.19419235 -0.03136879 -0.03838134 -0.1613123 -0.20076464 0.17738587 0.13850097 -0.1676251

message_passing_layers.0.update_mlp.layers.0.bias f4 [16]
00000000: 1dae cbb5 8a05 ee35 55b3 a03b 8f34 23b3
00000010: 4c63 14bb 6165 a63b a3e3 4134 cc55 03b7
00000020: 2404 50bb 76fc 8434 2db0 c6bc 4145 a9b4
00000030: 1baa 3239 5ea4 89bc c1ad 45bb 2f6c bbbb
-1.5175352e-06 1.7733994e-06 0.0049041905 -3.7999197e-08 -0.0022642193 0.0050780033 1.805734e-07 -7.828185e-06
-0.003174075 2.4770605e-07 -0.024253929 -3.1529092e-07 0.00017038772 -0.01680201 -0.003016338 -0.0057196836

message_passing_layers.0.update_mlp.layers.1.weight f4 [16]
00000000: cb89 873f ae28 803f b392 7a3f 540b 753f
00000010: 1ce8 803f efc4 813f 84b5 7d3f cc0c 833f
00000020: 4a1c 773f a981 793f 76ec 773f 1672 823f
00000030: 29cf 753f 47c6 803f 7615 7f3f e1ee 833f
1.0588926 1.0012414 0.97880095 0.9572041 1.0070834 1.0138224 0.99105096 1.023828
0.9652754 0.9746347 0.96845186 1.0191066 0.96019226 1.006051 0.9964212 1.0307275

message_passing_layers.0.update_mlp.layers.1.bias f4 [16]
00000000: 8427 b23c 5773 97bc 2b23 ac3c 1134 21bc
00000010: 457e ed3c fc98 89bd 767a 823c a8bc 873b
00000020: 54ac 0fbd 8bdc b1bc f2be 8dbc a0fe b43c
00000030: 45f5 2ebb cf89 31bd 4214 62bc 4519 863c
0.021747358 -0.018487616 0.021012863 -0.009839074 0.028990874 -0.067186326 0.015927535 0.0041423626
-0.035076454 -0.021711608 -0.017302964 0.02209407 -0.0026696485 -0.043344315 -0.013798775 0.016369471

message_passing_layers.0.update_mlp.layers.1.running_mean f4 [16]
00000000: 870d ccbd c2d2 233e 2069 b6be 6448 3b3e
00000010: 6d53 1abe ad21 f93d 2da9 e53d d591 f0bd
00000020: 0433 a73d 621e d0be 1947 213e 1247 aebe
00000030: 2668 f5bd 9313 1a3e 534e 073e 4ef5 a6bd
-0.09963518 0.15998366 -0.3562708 0.18289334 -0.15070887 0.12164626 0.11213908 -0.11746565
0.08164027 -0.4064818 0.15749778 -0.34038597 -0.11982755 0.1504653 0.13213472 -0.08152257

message_passing_layers.0.update_mlp.layers.1.running_var f4 [16]
00000000: a8bf b23c 150b 373d 007c e83d df76 d13d
00000010: 6e8f 233d 1ac4 e03c 05b1 a53d f474 be3b
00000020: 9b81 7e3c 1515 bc3d 7a6c 6c3c 4b55 c93d
00000030: 9595 bf3c 029c 693d dcc8 eb3c 6d06 c73d
0.021819904 0.044688303 0.11351776 0.10227751 0.039931707 0.027437259 0.080904044 0.0058122817
0.01553383 0.091837086 0.01443016 0.098307215 0.023386756 0.057033546 0.0287823 0.097180225

message_passing_layers.0.update_mlp.layers.3.weight f4 [4, 16]
00000000: 73c5 733e 7fed 5d3e 4445 013d 5065 4e3e
00000010: bdae c3bd 462a 88be 76d5 9e3d c876 f43d
00000020: 0f74 643e 5f79 00bd e889 203e ad3f 293e
00000030: 9848 1b3e 80a3 87be 5d40 3c3e 20f0 77be
00000040: 2765 643e a44b 173b 727e 60be 418d 873d
00000050: 9b75 1dbc ba23 51be 4d63 e2bd a3fe 153d
00000060: 8d78 2b3e 794a f9bd 7774 2a3e 2a07 763c
00000070: c693 263d 4cad 803d cdd8 0fbe 41d1 51be
00000080: c639 85bd b5e1 70be 1abc a6bd 20ce 9c3b
00000090: f11e 41be a4e8 02be b167 06bd f59f d6bc
000000a0: fe2b 0cbe 9cf8 dbbc bbe2 65bd d65a d53d
000000b0: e2e4 83bc d143 03be c7cf ccbd 6ca4 87ba
000000c0: 2e9f 49be 886f 9ebb fedd 7dbd ccca a33d
000000d0: 1367 513d cf37 4a3e 44c0 bbbc 177d 59be
000000e0: 9a68 e63d 9a79 10be 9c8c b4bc 0f11 e5bd
000000f0: 7b0c 99bd f583 84bd f285 843e 19fe 1a3e
0.2380579 0.21672629 0.031560197 0.20155835 -0.09554813 -0.26594752 0.07755558 0.11936718
0.22309898 -0.03136575 0.15677607 0.16528197 0.15164411 -0.26491928 0.18383928 -0.24212694
0.22304212 0.0023085857 -0.21923235 0.06618739 -0.009610559 -0.20423785 -0.11054096 0.036619794
0.16745205 -0.12172408 0.1664599 0.0150163565 0.04066827 0.06283054 -0.14047547 -0.2048998
-0.0650516 -0.235236 -0.08141346 0.004785314 -0.1885946 -0.12784058 -0.03281373 -0.02619932
-0.13688657 -0.026851945 -0.05612443 0.10417716 -0.01610035 -0.12818839 -0.10000568 -0.0010348684
-0.19689628 -0.004835073 -0.061979286 0.07997665 0.05112369 0.19747852 -0.022918828 -0.21239124
0.1125042 -0.14108887 -0.022039704 -0.11184894 -0.074730836 -0.06470481 0.25883442 0.15135993

message_passing_layers.0.update_mlp.layers.3.bias f4 [4]
00000000: 7578 d334 c37b 103d 2ffd fcbc 0c1f c7b5
3.9389457e-07 0.03527428 -0.030882446 -1.4835691e-06

message_passing_layers.1.message_mlp.layers.0.weight f4 [16, 12]
00000000: 87ce 233e eff2 3d3e d2c3 4ebe e458 c23d
00000010: a9b1 3dbe 5479 4dbd d5f4 bdbd 0759 85be
00000020: f206 94be 0273 45be 554f 203e 5132 063e
00000030: 6fa2 8bbe c684 14be 24f0 33bc 15e0 4dbe
00000040: cd23 473e d51b 973e 556a b23d fea4 20be
00000050: 5882 8b3d 571f 9e3d c4af 633e 796d d4bd
00000060: 628b 9bbe cafe 143e 15cd 173c ca18 c3bd
00000070: 23a9 b3bd 1d0c 00be 7215 723e 19b5 9bbc
00000080: 5008 1b3e 5a28 853e 24e7 f03c d85f 793d
00000090: 914c 84bc b220 0e3e 98cd 99be 8ab5 0a3e
000000a0: f33b dd3b 0592 053e e213 19bc 192b 61bd
000000b0: 7f82 37bc 535a d53d 7348 6ebe 57d8 24be
000000c0: 00c8 60bd 761e fbbd e35d 1b3e acc6 343e
000000d0: aa5c abbd a060 783e 96de 18be 5424 4cbe
000000e0: 61e1 f1bd 46ff 59be 1cd7 1cbe fcb3 8ebe
000000f0: 5597 58be 89eb 2b3d 1b09 1b3e a43e a03e
00000100: 8c84 6c3e c496 23bd 8c13 533d 2285 1ebe
00000110: be0b 023e be30 95be 432f cd3d afd6 d03d
00000120: bbd6 c93d 8260 bc3d 5dd8 32be 64d8 8d3e
00000130: 744e 063e 3912 343e 06ba 8e3c 157b 2f3e
00000140: 66cf 4f3e f918 ed3d 364c 303e ffd1 a4bc
00000150: 8963 463e 1017 603d 5eb8 4b3e 7d46 853e
00000160: a810 633d c15f b5bd 1c51 5fbc 5dd9 bc3d
00000170: c3da 673d c53f b6bd c147 7e3e d02c 1a3e
00000180: 8fc9 40be 3159 12bc 3ba9 06bd 36e4 54be
00000190: c45e 7e3d bea5 4bbd 261a d8bd 0d99 85bd
000001a0: 5f66 f8bd b1c1 943e 3a7c d73d f2a1 7b3e
000001b0: da5c d13d 6d16 c83d 62cf d73d 7701 a53c
000001c0: 5132 60be cb8b 57be 445c a7bd af35 53bc
000001d0: dc4a c73d 3f10 043e 2cd1 533e 1f85 183d
000001e0: 9f39 0bbe f7b4 78be b697 80be 43a8 0abe
000001f0: aa78 413d 992c cf3d 302f 4e3e 36cf 0fbe
00000200: d470 b8bc 4a88 c4bd 795e e3bc d1d4 013e
00000210: 238e 44bd efc3 c9bc f056 0b3d dfe9 1b3e
00000220: c8f3 5ebd 4c64 34be e816 693d 0612 423c
00000230: f489 13be d98c c33d e860 1f3c 03d0 11bb
00000240: 9953 12be 4020 4dbd 05a0 89be 365b b63d
00000250: 3f05 75bc e9e4 063e b8ec eebc 1bbf 99bc
00000260: 8e16 973d ec38 513e 49a8 11be 1d78 493e
00000270: ca91 433d 000f 4bbe d6b6 943d 1a8c 2abe
00000280: e0e7 aabd b6a2 dabd 1f12 2cbe f47f 823e
00000290: bfee 8cbe ba90 0c3e e91f 91be 01c5 f3bc
000002a0: 38c0 013c 7cee 2f3e b3f0 96bd c5b5 753d
000002b0: ea45 223d 43c9 233e 99e8 e23a eff4 c33d
000002c0: a313 34be 5179 61be ad8f 953e 87fa 61be
000002d0: c847 1ebd 207f afbd 97ac 703e 491c 09bc
000002e0: 69bd 5ebe bd0a 9bbd 9ae0 013e 938c e33d
000002f0: 6aff 8d3e 70c0 dabd 4aa6 e83d 9043 54be
0.15996753 0.18549703 -0.20191887 0.09489611 -0.18524803 -0.050164536 -0.09275214 -0.26044485
-0.2891155 -0.19282153 0.15655263 0.13105132 -0.27272364 -0.14503774 -0.010982547 -0.20105012
0.1944725 0.29513422 0.087116875 -0.1568794 0.068119705 0.07720821 0.22235018 -0.10372443
-0.30379778 0.1455032 0.009265204 -0.095262125 -0.08772495 -0.12504621 0.23640993 -0.019007253
0.1513989 0.26007348 0.029407091 0.06088242 -0.016149791 0.1387966 -0.30039668 0.13545814
0.0067515313 0.13043983 -0.009343119 -0.05497274 -0.011200546 0.104176186 -0.23269825 -0.16098152
-0.054878235 -0.12261669 0.15172534 0.17653912 -0.08367284 0.2425561 -0.1492866 -0.19935733
-0.11810566 -0.21288785 -0.15316433 -0.27871692 -0.21151479 0.04197267 0.15140192 0.3129779
0.23097438 -0.039938703 0.051532313 -0.15480474 0.12699792 -0.2913875 0.1001878 0.10197198
0.0985541 0.09198095 -0.17465349 0.27704155 0.13115865 0.17585076 0.017422687 0.17136796
0.2029396 0.11577029 0.17216572 -0.020119665 0.19373907 0.054709494 0.19894549 0.2603034
0.055435807 -0.08856154 -0.013630178 0.09221146 0.05660511 -0.08898882 0.2483206 0.15056157
-0.18826889 -0.008932398 -0.032876235 -0.2079018 0.062102094 -0.04971861 -0.105518624 -0.06523333
-0.12128901 0.29054025 0.10521741 0.24573496 0.10222788 0.097699024 0.10537602 0.0201423
-0.21894194 -0.2104942 -0.08171895 -0.012891217 0.09731075 0.12896822 0.20685261 0.03723633
-0.135962 -0.24287783 -0.25115746 -0.13540749 0.047234215 0.10115928 0.20135188 -0.14043888
-0.022514738 -0.095963076 -0.027755009 0.1267884 -0.047987115 -0.024629561 0.034018457 0.15225933
-0.054431707 -0.17616385 0.05690661 0.011845117 -0.14408094 0.09548349 0.009727694 -0.0022249229
-0.14289702 -0.050079584 -0.26879898 0.08904116 -0.014954864 0.1317326 -0.02916561 -0.018767884
0.07377349 0.2043187 -0.14224352 0.19674726 0.047746457 -0.19829941 0.07261436 -0.16655007
-0.08345008 -0.10675566 -0.16803788 0.25488245 -0.275259 0.13727084 -0.28344658 -0.029757025
0.007919364 0.17180818 -0.073701285 0.059987802 0.039617456 0.15994744 0.0017311751 0.09568202
-0.17585616 -0.22018935 0.29211178 -0.22068225 -0.038642675 -0.08569169 0.23503338 -0.00836856
-0.21751942 -0.075704075 0.12683335 0.11110797 0.27733928 -0.10681236 0.11359842 -0.20728898

message_passing_layers.1.message_mlp.layers.0.bias f4 [16]
00000000: 5a0d 4d39 3c63 af3a 8a46 563c f45f e0bb
00000010: d80c 1835 a41a 74b4 3076 a8bc fa35 05bd
00000020: 71c1 7cbd 146c 0cb4 8a1f 303c 998b d234
00000030: 1e27 ee34 2064 0738 ae60 3bbc a872 1fb4
0.00019555297 0.0013381015 0.013078341 -0.006847376 5.66431e-07 -2.2733963e-07 -0.020564169 -0.03252218
-0.061707918 -1.3077835e-07 0.010749707 3.921712e-07 4.4359416e-07 3.2279757e-05 -0.011436624 -1.484974e-07

message_passing_layers.1.message_mlp.layers.1.weight f4 [16]
00000000: e8fe 743f 5fb0 793f 6435 823f 7ee0 833f
00000010: eb2d 7c3f 4759 7f3f a4f5 7b3f 0e58 7e3f
00000020: 6337 813f 3922 6d3f 2097 7e3f fa6a 7f3f
00000030: ef01 863f 10c5 793f 0a4a 773f f299 813f
0.95701456 0.97534746 1.0172544 1.0302885 0.98507565 0.997456 0.9842169 0.9935311
1.0095028 0.92630345 0.9944935 0.9977261 1.046934 0.9756632 0.9659735 1.0125105

message_passing_layers.1.message_mlp.layers.1.bias f4 [16]
00000000: f41c 29bd 9f51 9bbc c9c9 5a3d db9b 5ebc
00000010: 85da 2bbc 6b2e 6ebd 17c8 ca3c f903 a83c
00000020: 4767 5bbc e505 7fbc 7507 c8bc 7593 83bc
00000030: c8f8 253c 7853 8ebc d95b 65bc 62fb 0d3d
-0.041287377 -0.018959818 0.053415094 -0.0135869635 -0.010489111 -0.058149736 0.024753613 0.020509707
-0.013391322 -0.01556537 -0.024417618 -0.016061524 0.010130115 -0.017373785 -0.013998949 0.034663565

message_passing_layers.1.message_mlp.layers.1.running_mean f4 [16]
00000000: 2a24 84be b2c7 e13c efea eaba 8731 c73d
00000010: faa2 0abe 5c34 12bd 761f 823d b1b5 1abe
00000020: d8dd 3ebe bdd4 87be 9525 3f3e ca61 08bd
00000030: 42c1 0d3d 5ad6 d23d 5365 c13a c2de 14bd
-0.2580884 0.027561042 -0.0017922799 0.097262435 -0.13538733 -0.035694465 0.06353657 -0.15108372
-0.18639314 -0.26529494 0.1866668 -0.033296384 0.034608133 0.102947906 0.0014754928 -0.03634525

message_passing_layers.1.message_mlp.layers.1.running_var f4 [16]
00000000: a212 1a3d 1073 923d 9929 483d f1c2 253d
00000010: 55c5 7c3c bb95 ec3c 4f32 8b3d eba9 893d
00000020: 9ffb 8f3d 6f4f 3a3d d605 b23c 0d0e cb3c
00000030: e9b5 613d 75ec 053d be0f 0c3d 6c26 943d
0.037615426 0.07150853 0.048867796 0.040469114 0.015427907 0.02887999 0.06796705 0.067218624
0.07030415 0.04548591 0.021731298 0.024786973 0.055105124 0.032696206 0.0341947 0.07233891
