gnn/gnn_outputs/checkpoint_epoch_20.pt (torch, 971164 bytes, 208 tensors)

node_encoder.layers.0.weight f4 [64, 3]
000000 2b d9 e3 3e 56 17 f3 3e 67 10 0f be 0a 88 09 3f
       0.44501624 0.4747874 -0.13971101 0.53723204
000010 5b dd fa bd 94 e6 db 3d c8 c9 8a be ef 97 b1 3e
       -0.122492515 0.10737339 -0.27107072 0.3468623
000020 9c ee 03 3f 9f 94 d3 be fe 5b 03 3f bb 72 c5 3d
       0.51535964 -0.41324326 0.51312244 0.09641024
000030 c4 c8 da 3e 0f d2 99 3d 9a 68 8e 3e 1a 7a b7 bd
       0.42731297 0.075107686 0.2781418 -0.08958836
000040 dc 91 e0 3e f8 fc b9 3d e6 7d 8e be 01 5d 18 3e
       0.43861282 0.09081453 -0.27830428 0.14879228
000050 14 e1 81 be 8b 90 87 bd 0b 58 64 be e8 2f c9 3e
       -0.25367033 -0.06619366 -0.2229921 0.39294362
000060 e6 06 ea be 5d bf 83 be 51 d9 2a be 03 69 ae be
       -0.45708388 -0.25731936 -0.16684462 -0.34064493
000070 20 0d 6c 3d 5a 93 13 bf d9 86 05 3f 94 00 fb be
       0.057629704 -0.57646716 0.52158886 -0.4902388
000080 c0 78 e4 3e 0e fe cb 3d 27 b7 38 be 31 d2 b7 3e
       0.44623375 0.099605665 -0.18038617 0.3590255
000090 3f f3 b6 3d c1 4f f0 3e 08 dd 73 3d 45 cc 39 be
       0.08933114 0.46935847 0.059536964 -0.18144329
0000a0 20 66 1d 3e 0b 87 26 be ea ed 78 3e b6 07 01 3f
       0.15370989 -0.16262452 0.24309507 0.5040239
0000b0 fa b3 ae 3e a4 56 75 be 1d 76 af 3e 92 cf cf 3d
       0.34121686 -0.23958832 0.342698 0.10147013
0000c0 94 ed 96 3e 32 b8 b1 be 34 c4 13 bf 1f 39 63 be
       0.29478133 -0.34710842 -0.5772126 -0.22189759
0000d0 9e 60 e8 be bc 7c ee 3e 81 a0 28 3e d1 5e 76 3e
       -0.45386213 0.4657954 0.16467477 0.24059607
0000e0 0d 34 3b 3e 83 87 55 bc 70 1f eb 3e 23 32 ce be
       0.18281575 -0.013032797 0.45922422 -0.40272626
0000f0 99 ae ff 3c ce 46 cd be 6e 44 2f 3e f7 e4 4c be
       0.031211184 -0.40093082 0.17115948 -0.20009218
000100 c7 b4 2f 3e f5 75 fc bd 82 d4 f5 3e a4 ab b1 be
       0.17158805 -0.12327186 0.48013693 -0.34701264
000110 2c 23 ae be 13 84 b4 be 8d 94 02 3f a6 96 43 3e
       -0.3401121 -0.35257015 0.5100792 0.19100437
000120 83 2c 0c 3f 8d 53 f6 be 11 01 13 bf fc 24 e9 be
       0.5475542 -0.4811062 -0.574235 -0.4553603
000130 c6 0f c5 be cd ab 6f 3e d5 0d 50 3e 05 d8 f8 3e
       -0.38488597 0.2340538 0.20317777 0.4860231
000140 e7 8f 95 be dd 85 c4 be 16 20 a0 3e 6e 3c 6e be
       -0.2921135 -0.3838338 0.3127448 -0.2326524
000150 5e 4b b3 3e c3 11 0f be fb 67 a7 3e 2c 70 ec be
       0.35018438 -0.1397162 0.32696518 -0.4617933
000160 b2 b2 90 be d0 ee 37 3e 0f 22 00 3e 6d f7 11 be
       -0.28261334 0.17962193 0.12512992 -0.14254542
000170 f7 8d b1 3e a2 fc c7 3e 82 64 d7 be 62 cd 9c be
       0.34678623 0.3905993 -0.4206887 -0.30625445
000180 ec fb 07 3f e2 d0 4e be 2c d8 4c be 64 6d 0d bf
       0.5311878 -0.2019687 -0.20004338 -0.5524504
000190 ba 29 ac be de cb 11 3e 7d b1 ad bd 7d 19 d2 be
       -0.33625585 0.14237925 -0.08481119 -0.4103507
0001a0 5b 10 c5 3b 9b 3b cd be cf 12 00 bf 25 56 9c be
       0.0060139126 -0.40084538 -0.500287 -0.30534473
0001b0 7a 34 02 bf 2b 5c ba be 60 1d 13 3f 70 fa df 3d
       -0.5086132 -0.36398444 0.574667 0.10936439
0001c0 25 79 3f 3e 51 37 07 bf cb 44 c3 be fb bb 41 be
       0.18698557 -0.5281878 -0.38138422 -0.18919365
0001d0 ea cb bf 3d 76 bc 00 bf c8 dd 7f be cd 66 b2 be
       0.093650654 -0.5028757 -0.24986947 -0.34844056
0001e0 d5 14 47 3c 19 9d 60 be 00 ed 0f bd fd f2 ce be
       0.012150963 -0.21934928 -0.03513813 -0.4041976
0001f0 96 b5 ca be cb f3 a8 be 10 80 4d be 64 38 eb be
       -0.39591664 -0.329985 -0.20068383 -0.4594146
000200 d5 0b f6 3e ec e9 e9 bd ed 48 f9 3e 25 1d 43 3e
       0.48055902 -0.1142157 0.4868845 0.19054087
000210 63 63 fa be 86 33 d0 3e a3 42 20 be f5 dc 67 be
       -0.4890395 0.4066431 -0.1565042 -0.22642882
000220 27 7e f5 be 44 5f 12 bf 7c b1 2f 3e 34 33 f9 bd
       -0.4794781 -0.57176614 0.17157549 -0.12167969
000230 4a 79 5e 3e 03 ad f3 be 4b f5 da 3e d8 85 d8 be
       0.21725956 -0.47592935 0.4276527 -0.42289615
000240 4c 51 d1 bd 24 cb ea 3d c0 eb 9c 3e 6c bd f4 3e
       -0.10220584 0.11464527 0.30648613 0.47800767
000250 06 03 06 3f 52 ed e5 be b1 5a 14 3e 33 27 83 be
       0.52348363 -0.44907624 0.14487721 -0.25615844
000260 0b a0 69 bd f2 85 de be 7e 79 05 3f 34 80 db be
       -0.057037394 -0.43461567 0.5213851 -0.4287125
000270 ec 7e a1 3e 97 5b 45 3e 8d b0 3f 3e 32 53 9d be
       0.31542146 0.1927322 0.18719693 -0.30727535
000280 bb a6 07 3f 51 20 f7 3d b2 8e 95 3d a6 ba 03 bf
       0.52988786 0.12066711 0.073026076 -0.5145668
000290 25 9f 71 3e e9 f8 a6 bd 08 b1 85 be 02 c9 ff 3e
       0.23595865 -0.081529446 -0.26111627 0.49958044
0002a0 fe ff 01 3e 0a 25 a3 be 7b 8e 96 be 23 c2 07 bd
       0.1269531 -0.31864196 -0.2940558 -0.033144128
0002b0 9e 15 a4 3e 68 83 18 be 75 88 a4 be 9b 12 51 be
       0.32047743 -0.14893878 -0.32135358 -0.20417254
0002c0 74 52 e1 be bd 56 4a 3e 80 41 e0 3e b3 ac 0d bf
       -0.4400822 0.1975965 0.43799973 -0.55341643
0002d0 99 e6 16 3e cd b8 91 3e 02 33 e9 3d 7a d7 58 be
       0.14736404 0.28461304 0.11386682 -0.21175948
0002e0 96 b1 96 3e 00 fd 9e 3e ac 9e 56 3e 19 e1 cf bd
       0.29432362 0.310524 0.20958966 -0.10150356
0002f0 8a 91 1e be c9 14 8a 3d 88 7d c1 bd 61 db 37 be
       -0.15485206 0.06742246 -0.09447771 -0.1795478

node_encoder.layers.0.bias f4 [64]
000000 fc c5 b2 3e 9a da f3 3e cd b4 1b bd c5 82 e0 bd
       0.34916675 0.47627717 -0.038014222 -0.10962442
000010 0f 44 10 bb b1 25 84 bc 54 fb f3 3d d8 7c 11 3e
       -0.0022013222 -0.016131254 0.119131714 0.1420778
000020 65 24 01 bf 69 ee 45 be 23 be ee 3e 4e 03 52 3e
       -0.5044616 -0.19329228 0.46629438 0.20509073
000030 ca 58 2e bc fe 0b a8 be fb ac aa be dc 97 fe be
       -0.010641286 -0.3282165 -0.333351 -0.49725235
000040 e8 7a 2c be 58 69 33 3e 25 51 b2 3e 31 a7 7c 3e
       -0.1684376 0.17520654 0.34827533 0.24673153
000050 29 19 fb be bf 97 a7 be 89 ae 92 bd c2 e0 09 3f
       -0.49042633 -0.3273296 -0.07162196 0.5385858
000060 ac 41 83 3d d4 ee 04 be 02 4d 60 3e 08 e8 4c be
       0.0640901 -0.1298173 0.21904376 -0.20010388
000070 13 27 b5 be 29 92 cd 3e d7 84 78 be a7 dc c4 bd
       -0.35381374 0.40150574 -0.24269424 -0.096123986
000080 1a ef 0d bf 8a a8 bb 3e 8a c5 d5 3e d2 34 43 3e
       -0.55442965 0.36652023 0.41752273 0.19063118
000090 af ee c3 be 30 c5 0c bf 97 e4 e5 be 50 3e d2 3e
       -0.3826804 -0.54988384 -0.44900963 0.41063166
0000a0 4c c2 83 3e e8 8e ee 3e 71 b1 90 3e 54 74 01 3e
       0.25734174 0.46593404 0.28260377 0.12642032
0000b0 fe b9 83 3a 04 9f d6 be 37 10 f3 be ae 25 05 bf
       0.0010049937 -0.41918194 -0.47473308 -0.5201062
0000c0 bc bb 5d 3e e6 f8 86 be 3f bf c5 bd dd f2 9f be
       0.21653646 -0.2636177 -0.09655618 -0.31239977
0000d0 aa 66 af bd 32 df c5 be 39 fa b6 be b6 de 2f 3e
       -0.085645035 -0.38646847 -0.3573778 0.17174801
0000e0 a0 81 1b be 5e 50 ac 3e 67 72 29 be 03 a8 ce be
       -0.15186167 0.33655065 -0.16547547 -0.40362558
0000f0 39 91 a8 bd 8e 22 85 be c1 ac 20 be aa 9c 07 bf
       -0.08230824 -0.26002926 -0.156909 -0.52973425

node_encoder.layers.1.weight f4 [64]
000000 95 04 80 3f ae 55 7f 3f 5b 35 7e 3f 00 b3 7f 3f
       1.0001398 0.9974011 0.99300164 0.9988251
000010 66 8f 7e 3f ec a6 80 3f 14 4e 7d 3f 3e 2b 80 3f
       0.9943756 1.005094 0.9894726 1.0013196
000020 24 79 7f 3f 77 69 7e 3f d5 f1 7f 3f bd a2 80 3f
       0.9979422 0.99379677 0.9997838 1.0049664
000030 b8 29 80 3f 18 4d 81 3f c0 37 7e 3f 2d 9f 80 3f
       1.0012732 1.0101652 0.9930382 1.0048577
000040 a8 9c 7d 3f e6 aa 7e 3f 04 78 7d 3f 8d 26 80 3f
       0.99067163 0.9947952 0.99011254 1.0011765
000050 bd 84 80 3f 80 fb 7d 3f 2a 6e 80 3f 9c 81 7e 3f
       1.0040509 0.99211884 1.0033619 0.9941652
000060 88 d4 80 3f 88 d3 80 3f 02 50 80 3f b9 96 81 3f
       1.0064859 1.0064554 1.0024416 1.0124122
000070 70 85 7e 3f 2c 1e 80 3f f5 73 80 3f f9 02 81 3f
       0.9942236 1.0009208 1.0035387 1.0079032
000080 63 ad 7f 3f c4 96 80 3f 8e 95 80 3f 36 86 80 3f
       0.9987394 1.004601 1.004564 1.0040958
000090 84 e7 80 3f 82 e0 80 3f b9 20 7f 3f cd 89 7d 3f
       1.0070653 1.0068514 0.99659306 0.9903839
0000a0 c4 6e 80 3f 00 f8 7f 3f ad 9c 80 3f 4f 30 80 3f
       1.0033803 0.9998779 1.0047814 1.0014743
0000b0 f5 4c 80 3f f1 c5 7d 3f 6c da 80 3f f7 92 80 3f
       1.0023485 0.9913016 1.0066657 1.004485
0000c0 ba a0 7f 3f 12 55 7e 3f 0c 47 81 3f 90 46 81 3f
       0.99854624 0.99348557 1.0099807 1.0099659
0000d0 98 bd 7e 3f e4 56 80 3f 75 9c 7e 3f a2 11 80 3f
       0.9950805 1.0026517 0.99457484 1.0005381
0000e0 1e ec 7d 3f 33 8f 7f 3f 60 ab 7e 3f 05 b3 80 3f
       0.9918841 0.9982788 0.9948025 1.0054632
0000f0 cb 73 7d 3f 8f 46 7d 3f 5f b9 7d 3f b9 63 7d 3f
       0.9900481 0.9893579 0.9911098 0.9898029

node_encoder.layers.1.bias f4 [64]
000000 6c fb 81 bb 6f 8d 5c bb 53 e9 00 bc e7 21 00 3c
       -0.0039667394 -0.0033653637 -0.007868129 0.007820583
000010 91 20 36 bc 64 a2 e0 3b 70 a9 7a bc 67 06 58 3b
       -0.011116163 0.006855296 -0.015299186 0.00329628
000020 f7 88 54 bc ca a4 9c bb 93 7a d4 3b 6c b9 7c 3a
       -0.012972108 -0.0047803866 0.0064843385 0.0009640667
000030 2f d7 46 ba 52 f6 f6 39 ba cd a9 bb 57 db da 3b
       -0.00075851654 0.000471043 -0.005181995 0.0066789794
000040 61 f0 22 b9 d5 da ee 37 66 dd d4 bb 6b 5b 69 bb
       -0.00015539072 2.8473713e-05 -0.0064961193 -0.0035607468
000050 b9 f9 ab bb c8 ff 08 bc a2 fc 4c 3a c4 c3 2c bb
       -0.005248275 -0.008361764 0.00078196276 -0.0026361803
000060 a7 46 1e 3b b0 66 b6 bb 7f 6b 54 3c 01 a0 2f 3c
       0.0024150999 -0.0055664405 0.012965082 0.0107193
000070 16 09 2e bc 23 b8 5c bb ba 8a a8 3b a2 4c 66 3b
       -0.010622283 -0.003367909 0.0051434906 0.0035140892
000080 03 2a 29 bb 08 60 b8 bb f9 12 b4 ba d2 e9 94 3b
       -0.0025812394 -0.005626682 -0.0013738564 0.004544475
000090 ae 3b a4 3b 31 9c 0d 3c a4 8b c7 bb 0c 99 90 bb
       0.005011997 0.008643196 -0.0060896445 -0.004412776
0000a0 88 7c f2 3b 49 0b 00 bc 96 a0 70 bb c5 3b ab 3b
       0.007400099 -0.007815191 -0.003671681 0.005225631
0000b0 8d 57 b9 3b 6c c8 2f 3b 88 e3 53 3b fb 54 a5 bb
       0.005656189 0.0026822342 0.0032331664 -0.005045531
0000c0 f0 8e 57 3b 22 0a d1 bb c7 6b df 3b 21 3e 68 3c
       0.0032891594 -0.0063793818 0.006818268 0.014174969
0000d0 43 85 31 3b af 5c 04 3a e2 10 cd ba 83 df 7b bc
       0.0027087487 0.00050492113 -0.001564529 -0.015373114
0000e0 e8 92 c9 bb 02 4e 53 bb 89 d3 fd bb 8c 05 f0 3b
       -0.006151546 -0.0032242541 -0.007746164 0.00732488
0000f0 f2 a3 c4 bb fb 82 24 3c 89 52 49 ba 79 54 2f bc
       -0.006000989 0.010040994 -0.000767984 -0.010701292

node_encoder.layers.1.running_mean f4 [64]
000000 db b1 4b 3f e4 45 3b 3f a1 0f 94 3e 4a d9 0d 3d
       0.7956826 0.7315352 0.28918174 0.03463105
000010 9c 6c d0 3e 97 a9 7d 3e 86 c1 7d bd 3c c8 31 3e
       0.40707862 0.24771725 -0.061952136 0.1736154
000020 38 a0 7a bf fb 20 21 bf 30 c1 29 3f 4e 05 a9 3e
       -0.97900724 -0.6294095 0.66310406 0.3301186
000030 62 f6 b1 3e 47 d4 d1 be 36 fa 8b 3e 15 9c b8 be
       0.34758288 -0.40982267 0.27339333 -0.3605658
000040 37 c1 05 bf 16 bb cd 3c 01 dd 2b 3f 59 f4 a0 3e
       -0.5224795 0.025113624 0.671341 0.31436422
000050 c9 95 20 bf 67 15 c7 be 51 23 57 be 6f f7 42 3f
       -0.62728554 -0.38883516 -0.21009566 0.76158804
000060 89 ba 6f be 22 a8 f6 be b2 32 f1 3e ac bc a8 be
       -0.23411001 -0.4817515 0.4710899 -0.32956445
000070 60 61 b8 bd 77 a0 a8 3d a6 1d b9 bd c9 d4 9d be
       -0.09002948 0.08233731 -0.09038858 -0.30826405
000080 b7 03 00 bf ab c5 54 bd d8 10 01 3e 62 6b f2 be
       -0.5000567 -0.051946323 0.12604082 -0.47347552
000090 75 66 12 bf 77 6c 25 bf 76 25 36 bf d1 57 38 be
       -0.5718759 -0.6461863 -0.7115091 -0.1800225
0000a0 c6 c3 e6 3d 6c 44 1d be b5 db 13 3e eb 8c ec 3e
       0.112678096 -0.15358132 0.1443928 0.46201262
0000b0 cb 34 ac bd e2 ea 8e bf 6f 31 b1 be ad b6 37 bf
       -0.08408507 -1.116543 -0.34608027 -0.71763116
0000c0 0d f1 c7 3e a4 08 92 3d 22 7f 54 be 94 a6 df be
       0.39051095 0.07130554 -0.20751622 -0.43681777
0000d0 e6 da 92 3e 8e 8c 24 be c8 cc 02 bf 3f 2f 68 3e
       0.2868263 -0.16069242 -0.5109372 0.22674273
0000e0 87 84 dd be 11 5b e0 3e 3f 58 2e bf 67 4c a0 be
       -0.43265173 0.43819478 -0.681034 -0.3130829
0000f0 63 6c 62 3e 2f d8 05 bd 14 2f 44 be 5b f5 23 bf
       0.22111659 -0.032676872 -0.19158584 -0.6404626

node_encoder.layers.1.running_var f4 [64]
000000 23 a0 68 3d 33 5c 18 3d ea 05 70 3d b2 2b 45 3d
       0.056793343 0.037197303 0.05859939 0.048137374
000010 88 36 1b 3d 0a 81 08 3d a4 69 e7 3c ef 7a 13 3d
       0.037893802 0.033326186 0.028248616 0.03600591
000020 be ff 2c 3d 4a e0 6e 3d 95 6f 91 3d 4c c7 00 3d
       0.042236082 0.058319367 0.07101361 0.031440064
000030 1f dc 17 3d 50 55 af 3c f7 d1 70 3d 63 b7 ef 3c
       0.03707516 0.021402985 0.058793988 0.02926225
000040 8d e3 88 3d 1b d7 7c 3d cd 5a db 3c b5 08 4e 3d
       0.06684027 0.061728578 0.026776696 0.050301272
000050 d9 42 03 3d a2 4e ad 3c ea 8a 56 3d 06 68 46 3d
       0.032046173 0.02115566 0.052378573 0.04843905
000060 76 4f b7 3d 54 23 5a 3d 6c 70 4d 3d d3 c0 18 3d
       0.08950703 0.053256348 0.050156042 0.037293267
000070 d6 f2 11 3d 6e 42 34 3d fe 73 f4 3c fc e7 4a 3d
       0.035631977 0.044008665 0.029840466 0.049537644
000080 13 ca 2a 3d c1 94 5d 3d 77 8a 01 3d 47 d9 84 3d
       0.04169662 0.05409694 0.03162619 0.06486755
000090 d4 db ad 3d 60 a1 47 3d c7 d1 00 3d 38 42 63 3d
       0.084891945 0.048737884 0.03145006 0.055483073
0000a0 a9 35 9e 3c 4b 56 6a 3d c6 93 80 3d 7a e8 26 3d
       0.019312697 0.0572112 0.062781855 0.04074905
0000b0 42 ed 39 3d 0f 03 a1 3d 2e ae ba 3c 9b 71 7c 3d
       0.045392282 0.078619115 0.022788133 0.06163178
0000c0 52 06 db 3c 79 29 aa 3d d1 54 b3 3c be ba 88 3d
       0.026736412 0.083086915 0.02189103 0.06676243
0000d0 d8 e7 fc 3c 1f be 3b 3d f0 a7 33 3d 5f 97 44 3d
       0.03087227 0.04583561 0.04386133 0.04799592
0000e0 81 27 0c 3d 07 30 d6 3c f1 ce 47 3d 13 c4 8c 3d
       0.03421736 0.026145948 0.04878134 0.06873336
0000f0 2d 1d d8 3c ab 8a 11 3d 99 9c ad 3c 60 3f 9e 3c
       0.0263811 0.035532635 0.021192836 0.019317329

node_encoder.layers.3.weight f4 [64, 64]
000000 47 6d 7c 3d 02 b5 a0 bd 76 df 5a 3d 17 ed 49 3d
       0.061627652 -0.078470245 0.053435765 0.049298372
000010 6a 9f aa 3d 7c e0 d1 bd 2d 6e a6 3d 60 32 8b bd
       0.08331187 -0.10247895 0.08126483 -0.06796718
000020 65 25 3e 3d de 63 ec 3d 60 9d 1c bc 11 28 e6 bb
       0.04642238 0.11542486 -0.0095590055 -0.0070238193
000030 c5 ce 11 bd 04 44 e6 bd 67 ce 55 3d 46 d3 06 be
       -0.03559758 -0.11243442 0.052198794 -0.13166532
000040 b1 d1 ae 3d 84 44 b2 3d e4 00 e2 3d dd b4 11 bd
       0.08536089 0.087044746 0.11035326 -0.035572875
000050 62 b7 bf bd e2 01 a7 3c 28 78 9f 3d 98 44 07 be
       -0.09361149 0.02038664 0.0778659 -0.1320976
000060 ac 6c a3 bc f7 f0 9e bd 4a 37 93 bc 5c 6e 8e bd
       -0.01994928 -0.07760804 -0.0179707 -0.06954643
000070 b6 33 5d bd ae bf 30 bd 8b 4a 00 be 3a 05 e4 3d
       -0.054004394 -0.04315155 -0.12528436 0.111338094
000080 19 cd e9 3d e4 8c b9 bc 04 60 d2 bb 5c 33 3f bd
       0.114160724 -0.02265019 -0.0064201374 -0.04667984
000090 7a 4f 01 be 87 ea f1 bd d3 ba 2f 3d 05 26 8c bd
       -0.12627974 -0.11812311 0.04290278 -0.06843189
0000a0 ea 05 93 bd 84 b2 cb bb ef 3f 42 bd 14 df 42 bd
       -0.071788624 -0.006216349 -0.047424253 -0.047576025
0000b0 fb 16 55 bb 4c 0b ab bc a1 55 33 bd 4f e0 8a bd
       -0.0032514918 -0.02087941 -0.043782834 -0.06781065
0000c0 ad ea e3 bd 3d 80 c9 3d c7 74 26 bd fa e2 d3 3c
       -0.11128745 0.09838913 -0.04063871 0.025865067
0000d0 18 88 50 bd 6d a4 44 3b d1 dc 00 3e 9e cf 44 3d
       -0.05091104 0.0030005232 0.12584235 0.04804956
0000e0 c8 88 cd bd 8c 86 31 3d cb 5b f7 3d ca 73 e6 3c
       -0.100358546 0.043341205 0.12078055 0.028131384
0000f0 0b 2d 9c 3d 92 fe e9 3d a9 1d 2a bc b3 e2 08 3d
       0.07625779 0.114255086 -0.010383048 0.033419322
000100 6b 23 bf bd 65 78 97 bc eb a7 cc 3d 42 cd 85 3d
       -0.09332927 -0.018490026 0.09992965 0.065332904
000110 1f 80 93 bd f3 e1 c6 bd 1c 48 c1 bd 13 a4 e3 bd
       -0.072021715 -0.09711065 -0.09437582 -0.11115279
000120 22 0c c7 bd 01 95 1a bd c4 ff bb 3d 87 de f8 3c
       -0.09719111 -0.037739757 0.09179643 0.030379547
000130 78 95 c5 bd 9f 7b e1 bd 60 91 88 3d f2 64 b6 bd
       -0.096476495 -0.11009907 0.06668353 -0.089059725
000140 c7 6b 04 bc df 56 92 3d a2 f2 59 bd ca 14 ab bc
       -0.008082337 0.071454756 -0.05320991 -0.020883936
000150 d2 5d 1f bb 75 51 23 bd b8 5d 5e bd 7b ed d9 bd
       -0.0024317396 -0.039872605 -0.054288596 -0.10640999
000160 f6 e0 bc bd 5e 63 7d bd 96 c9 e9 3d 58 d0 90 bd
       -0.092225954 -0.061862342 0.114154026 -0.070709884
000170 5b 8e 9d bd a7 3b 08 3d 11 5d 32 3d aa eb 9d 3d
       -0.07693168 0.033260014 0.043545786 0.07710965
000180 d7 00 d5 3d 44 24 91 3d ce c1 ee bd 25 46 69 3c
       0.10400551 0.07086995 -0.11658059 0.014237915
000190 a2 bf b7 3d 55 4d 90 bc 71 35 95 bd 18 8c f1 3d
       0.08972098 -0.017615 -0.07285584 0.11794299
0001a0 75 c9 20 bd 4f c4 8d bd 12 88 cf bd e6 94 33 3c
       -0.039254624 -0.069222085 -0.10133375 0.010960793
0001b0 90 ef 36 3d 16 dd fa 3c e1 62 04 3d a6 5d d6 bd
       0.04466206 0.030623 0.03232086 -0.10467081
0001c0 a2 b5 d8 bd a5 22 85 bb 9d 6b fa 3d 2b 18 7f 3d
       -0.10581519 -0.004062968 0.12227557 0.062278908
0001d0 b8 28 90 bd 5a 73 4f bc ca 70 ab bd 1d 98 44 bd
       -0.070390165 -0.012661779 -0.08371122 -0.04799663
0001e0 5e 63 f3 3c ef de 76 3d d0 34 d1 3d 8d 71 f7 bd
       0.029710468 0.0602712 0.10215151 -0.12082205
0001f0 e5 97 aa 3d f2 04 a7 bd 8e af 67 3d db 99 e5 3d
       0.08329753 -0.0815524 0.056563906 0.11210986
000200 80 04 57 3b 6b 2f ff 3d af ea e8 bd 1c 75 21 bd
       0.0032809079 0.12460216 -0.11372887 -0.039418325
000210 12 5b aa 3d b5 15 ac bc eb 8e b3 bc 13 71 6b bd
       0.083181515 -0.021006444 -0.021918735 -0.057480883
000220 56 c7 a3 3d a4 56 84 3d 32 32 1f 3d 18 74 99 bd
       0.07997005 0.06461838 0.03886623 -0.07492846
000230 ce 5e c8 bd 83 7b 8e 3c 19 15 29 3d 71 77 49 bd
       -0.097837076 0.01739288 0.041279886 -0.049186174
000240 9f bb 0a bd c4 56 a1 3d 2c 49 83 3c b7 d7 27 3c
       -0.033870336 0.07877877 0.016026102 0.0102443015
000250 12 b3 0f bd ef f1 de bd 1c 6c e7 bd 39 35 51 bd
       -0.035082884 -0.10885989 -0.11299917 -0.051076148
000260 7f 18 82 bd 22 48 03 3d 65 08 07 bd f7 bf 36 bd
       -0.063523285 0.032051213 -0.03296699 -0.044616666
000270 21 57 ff 3d f0 9b 15 3d 76 0b ae 3d 50 3d 69 bd
       0.124677904 0.036525667 0.0849828 -0.056943238
000280 44 97 29 bd ff a3 1e 3d 27 73 b7 bd 20 44 b4 bd
       -0.041404024 0.038730618 -0.089575104 -0.08802056
000290 cd 48 4a bc 70 ef 30 bd 51 90 ce bd b9 77 97 3d
       -0.012346459 -0.043197095 -0.1008612 0.07395882
0002a0 3e 91 c2 3d 50 d8 7b 3c 87 6a df bc fe 73 df bd
       0.09500359 0.015371397 -0.027272476 -0.10910796
0002b0 73 52 25 bd 5e fa 02 3d bb 13 6b 3d 5c 69 43 bc
       -0.040361833 0.03197705 0.057391863 -0.011926975
0002c0 aa d1 62 bd eb f5 93 3d dd 84 cd bd e7 42 aa 3d
       -0.055375732 0.072246395 -0.10035107 0.08313542
0002d0 db 08 26 bd eb ed 23 3c e1 4b eb bc c0 1f 1e 3c
       -0.04053579 0.0100054545 -0.028722705 0.0096511245
0002e0 16 47 20 bd 27 af c5 3d 9a 1c a2 ba df 99 cf 3d
       -0.039130293 0.09652548 -0.0012368143 0.101367705
0002f0 49 35 fa 3d e6 9d 8d bd fd c1 b3 bd 72 c5 d0 3d
       0.122171946 -0.06914882 -0.08777235 0.1019391
000300 ca e6 b7 3d b4 bd b2 bd 1c 65 b3 bb e7 ed 04 be
       0.089795664 -0.08727589 -0.0054746997 -0.12981378
000310 5f 3d c3 bd 85 3a 86 3c 3d d2 c2 3c 7c 8d 01 3d
       -0.0953319 0.016385326 0.02378189 0.03162907
000320 86 31 fa bc 64 c6 d8 3d c3 43 ca 3c 38 0c 8b bd
       -0.030541193 0.10584715 0.024690514 -0.0678944
000330 40 7a 57 bc c0 2d a8 3c 19 76 44 3d 22 78 c0 bd
       -0.013151705 0.020529628 0.04796419 -0.093979135
000340 24 eb 2a 3d dd c1 6d bd 37 89 cb bd 9a c3 9d bd
       0.041728154 -0.05804621 -0.09938281 -0.07703324
000350 0c 38 02 3e 8c b1 c7 3d 30 aa f0 3d 78 99 8d 3d
       0.12716693 0.09750661 0.11751211 0.069140375
000360 1a 15 cb 3d fc de 3e bc 55 33 9e bd 15 41 5a 3d
       0.09916134 -0.011649843 -0.077246346 0.053284723
000370 dd 03 6e bd 9f 51 a3 bd 97 53 0b bd 8b b0 10 3d
       -0.058109153 -0.07974552 -0.034015264 0.035324614
000380 50 6c 8b 3d 60 b5 34 bd 6c 2d 89 bd 4e 82 af 3c
       0.06807768 -0.044118285 -0.06698117 0.021424439
000390 ac 42 8d bd 18 cc b8 bd 6f 4b 8e 3d fa 36 ac bc
       -0.06897482 -0.09023303 0.069479816 -0.021022309
0003a0 e7 68 f8 3d e7 13 00 3e da 1c 31 3d 34 6e 2b 3d
       0.121293835 0.12507592 0.043240406 0.041853145
0003b0 da ac a6 3c 40 be 1c 3b f2 26 2f bb d1 ca fe bb
       0.020346094 0.0023917109 -0.0026726094 -0.0077756424
0003c0 84 91 4a 3d 07 56 dd 3d aa 64 c4 bc 4a 00 7f bd
       0.04945518 0.10807424 -0.023973782 -0.062256135
0003d0 17 1c cc bc 36 2a 89 bd 27 60 e4 3c ec 12 c9 3d
       -0.024915738 -0.06697504 0.02787788 0.09818062
0003e0 2f 5a dc 3d 15 c4 46 3d ac f6 c3 bd 80 ad 9a bd
       0.10759389 0.048526842 -0.09568533 -0.07552624
0003f0 33 6d f7 bc a9 0a 88 bc 80 72 2a 3c cc 03 f7 bd
       -0.030203437 -0.016606646 0.0104032755 -0.12061271

node_encoder.layers.3.bias f4 [64]
000000 a1 bd 35 b9 ca 1d 1f 3d b3 25 2d 3b 0d cf 91 bd
       -0.00017332147 0.03884677 0.0026420176 -0.0711957
000010 a1 8e 01 3d 7e dd 5e 3d 29 c6 3b bd 65 9f 7c bd
       0.031630162 0.05441045 -0.045843277 -0.061675448
000020 95 80 86 bd da 82 2a bd b0 d1 2c b8 1e c4 16 bb
       -0.06567494 -0.041628696 -4.1203282e-05 -0.0023005079
000030 55 82 be b7 52 c8 70 bc 93 52 6e 3d ae ca d0 ba
       -2.2710456e-05 -0.014696198 0.058184218 -0.0015929544
000040 fb 17 5a bd f5 e9 70 bc 00 c7 5d bd f2 01 cf bc
       -0.053245526 -0.014704217 -0.05414486 -0.025269482
000050 87 51 c9 bd 4a 95 96 3b ea 63 9e bd 13 97 f0 3c
       -0.09830003 0.0045954334 -0.07733901 0.029368913
000060 63 89 87 3d 7c 85 96 bd 87 49 3f bd ea 4a a2 bd
       0.06618001 -0.07349679 -0.04670098 -0.07924445
000070 d6 64 75 3c a9 a8 d8 3b 82 77 39 bd 92 f7 65 3d
       0.014977654 0.0066119027 -0.045279987 0.056144305
000080 b7 79 06 3d 04 30 bf bd 16 c1 da 3a f1 4b 0e bd
       0.03283092 -0.0933533 0.0016689624 -0.034740392
000090 89 a3 91 bb 98 01 4e 3d 34 ae a7 3a 55 f2 89 bd
       -0.0044445437 0.05029449 0.0012793005 -0.06735674
0000a0 e4 38 8c 3d 48 de c1 bd cb af c5 bc 78 4c ef 3c
       0.068467885 -0.09466225 -0.024131676 0.029211268
0000b0 7c 2d ba 3d b0 46 d0 3d 1c b0 38 bc 2d f9 bb 3c
       0.09090707 0.101697326 -0.0112724565 0.022945965
0000c0 c5 ba b8 bd 45 62 dc bb 09 b0 a5 bc e1 27 8b 3c
       -0.090199985 -0.006725582 -0.020225542 0.01698679
0000d0 ac ed 7f bd 58 df 14 3c 3f b0 39 3d 6d 89 9f 3d
       -0.06248252 0.009086452 0.045334097 0.07789884
0000e0 90 94 83 bb 3e bf c1 3d c8 b6 c9 bd f7 9e 8a bc
       -0.0040155128 0.09460305 -0.09849316 -0.016921503
0000f0 92 28 e9 3c f7 41 61 3c 6d a2 22 3d 30 17 82 bd
       0.028461728 0.013748637 0.039705683 -0.06352079

node_encoder.layers.4.weight f4 [64]
000000 ed 5e 7f 3f 85 bd 80 3f bb 68 7f 3f f0 ed 7f 3f
       0.9975422 1.0057837 0.9976918 0.9997244
000010 6c 6e 7f 3f 89 a8 80 3f cb 79 80 3f 39 5f 80 3f
       0.99777865 1.0051433 1.0037168 1.002906
000020 4f 30 80 3f 7d 2c 7f 3f d8 e4 7c 3f af f4 80 3f
       1.0014743 0.9967726 0.9878669 1.0074672
000030 f6 cc 7f 3f 73 0d 80 3f 2e c0 80 3f 90 af 7d 3f
       0.9992212 1.0004104 1.0058649 0.9909601
000040 fe a9 80 3f 1c bc 80 3f bc 4a 7e 3f 03 3a 80 3f
       1.0051877 1.0057406 0.99332786 1.0017704
000050 2d a3 80 3f 32 ab 80 3f 03 09 7f 3f bd d8 80 3f
       1.0049797 1.0052245 0.99623126 1.0066143
000060 2d 64 81 3f 3f f7 81 3f 5d 8b 80 3f 65 8a 80 3f
       1.0108696 1.0153579 1.004253 1.0042235
000070 5b a7 7c 3f 7e 2a 7f 3f 92 26 7e 3f ad 20 7d 3f
       0.98692864 0.9967421 0.99277604 0.98877984
000080 df 81 7f 3f 2b 6c 81 3f 98 e9 80 3f f8 da 80 3f
       0.9980754 1.0111135 1.0071287 1.0066824
000090 2c 32 7f 3f e5 61 7f 3f 9a 34 80 3f fd 89 81 3f
       0.9968593 0.9975875 1.0016053 1.0120236
0000a0 ae d3 7f 3f c1 df 7f 3f 0c ba 7e 3f 17 a1 7f 3f
       0.9993237 0.99950796 0.99502635 0.9985518
0000b0 c2 5a 80 3f 2b 56 81 3f 10 81 80 3f aa 31 7f 3f
       1.0027697 1.0104421 1.0039387 0.99685156
0000c0 7e 16 81 3f d8 7b 7f 3f 46 58 80 3f 30 87 7f 3f
       1.0084989 0.99798346 1.0026939 0.99815655
0000d0 39 eb 7e 3f 7b 68 7f 3f 0a a1 7e 3f 1f b1 80 3f
       0.9957767 0.997688 0.99464476 1.0054053
0000e0 a8 fe 7e 3f 48 6b 80 3f 17 d8 7e 3f f4 65 7f 3f
       0.99607325 1.003274 0.99548477 0.99764943
0000f0 7a fb 80 3f 74 2c 7f 3f a2 6d 7f 3f c6 b7 7e 3f
       1.0076745 0.99677205 0.9977666 0.99499166

node_encoder.layers.4.bias f4 [64]
000000 50 37 64 3b 10 0b 3d bb 8c 56 aa bb dd 07 00 bb
       0.0034823008 -0.0028845705 -0.0051983055 -0.0019535937
000010 ec b3 c0 bb 33 b3 c1 3b dc a4 0d 3b c5 cb e6 bb
       -0.0058808234 0.005911255 0.0021613156 -0.007043334
000020 51 b5 a9 3b 41 5e c0 ba da ee 6d bc 8e bb ca 3b
       0.0051790853 -0.0014676527 -0.014522279 0.006186909
000030 2c 3c dd 3b c8 f0 a2 ba 44 2c 1f bb 2e 7e 79 bb
       0.006751558 -0.0012431378 -0.002428786 -0.0038069594
000040 9b 2a 06 3c 7f d6 e5 3a a1 91 9a 3b 98 5b c7 3b
       0.008188869 0.0017535238 0.0047170673 0.006083917
000050 27 18 1f 3b 2f 8b 36 3c db 0b f4 b9 a6 a3 74 3a
       0.002427587 0.011141582 -0.0004654814 0.0009332247
000060 55 c0 24 3c de b7 1b 3c 7b 33 21 3b 78 fa 1a bb
       0.010055621 0.009504287 0.0024597335 -0.0023647826
000070 41 47 a1 bb 0f 50 8c bb 4c 5b 72 bb cd 45 30 bc
       -0.004921824 -0.0042820047 -0.0036980687 -0.010758829
000080 c8 e9 e7 bb 48 49 f7 3b 94 44 10 3a 99 f2 a7 3b
       -0.0070774294 0.0075465776 0.0005503383 0.0051253554
000090 54 f9 c8 bb f5 61 b4 bb 19 3a b9 3b 50 0c 03 3c
       -0.006133238 -0.0055048415 0.0056526777 0.007998541
0000a0 fd 4f b4 bb 26 e7 4a 3b 7a 5b c9 3b 93 a4 a5 ba
       -0.0055026994 0.003096053 0.006144938 -0.0012637548
0000b0 19 a7 c6 bb ed 97 06 3c ad 77 77 3b 71 c8 13 ba
       -0.0060624 0.008214933 0.0037760541 -0.0005637473
0000c0 02 e3 c9 3b 1f 09 8e 3b 3b 55 11 3c 59 95 c8 bb
       0.0061610946 0.0043345834 0.008870418 -0.0061213193
0000d0 ab 29 50 bb 88 eb d6 3a 17 04 48 bb 2f a1 20 3c
       -0.0031763117 0.0016397098 -0.0030520016 0.009804054
0000e0 69 05 a2 ba 6e 66 9a bb 08 93 48 bb 45 fb f2 bb
       -0.0012361231 -0.0047119176 -0.0030605216 -0.0074152076
0000f0 3b bc 8d 3b 85 28 98 bb ae c4 17 3c d5 82 9d bb
       0.0043254173 -0.004643502 0.009263201 -0.004806856

node_encoder.layers.4.running_mean f4 [64]
000000 2f 61 06 be 98 7c 80 be dc 63 e3 bd 3b f0 c6 bc
       -0.1312301 -0.25095057 -0.11103031 -0.024284473
000010 91 c5 18 3c 56 8b a7 be 97 11 e4 3d 17 4c 9b bc
       0.009324447 -0.32723492 0.111361675 -0.01895718
000020 e0 4c 16 bb f6 b6 1e 3e 2c 7e 69 be 86 cf 45 be
       -0.0022934005 0.15499482 -0.22802037 -0.19317445
000030 35 43 6b 3d db 64 90 bd a4 43 a4 3e 97 50 f7 3d
       0.05743714 -0.07050487 0.32082856 0.12075918
000040 d4 1b 8a 3d dc 17 32 be f6 84 48 be df f0 5d 3e
       0.06743589 -0.17391914 -0.1958197 0.21673916
000050 5c 59 5b bd 6c 86 d5 bd 34 5a c0 3c de 31 63 3e
       -0.053552017 -0.104260296 0.023480512 0.22186992
000060 9c 71 e6 3d d2 08 38 be a1 41 92 bd 9b b8 02 bf
       0.11252138 -0.17972115 -0.07141424 -0.51062936
000070 26 d1 13 3e 18 78 00 3f 8b 9b 88 be 9b b8 e7 be
       0.14435253 0.5018325 -0.2668117 -0.4525803
000080 44 e4 df bc d4 c3 0b bf f4 c8 39 3e 88 cc 3b 3e
       -0.027330525 -0.54595685 0.18143064 0.18339741
000090 55 07 85 3e 1f 68 80 be 01 1c f6 3e 2c b2 2c be
       0.25982156 -0.25079438 0.4806824 -0.16864842
0000a0 c6 d8 a0 3e dd 34 3f be 06 42 06 be 41 78 37 3e
       0.31415385 -0.1867251 -0.13111123 0.17916967
0000b0 db df 6b 3c e1 ba e9 3d 0b 95 49 3e fa e7 b2 be
       0.014396633 0.114125974 0.19685762 -0.3494261
0000c0 58 00 29 be 0c 9f 04 be b9 26 4a be e5 12 55 be
       -0.16504037 -0.12951297 -0.19741334 -0.20807989
0000d0 de c7 27 be af 46 5d be 74 08 2f 3d 41 c1 41 3e
       -0.16384837 -0.21608995 0.04273267 0.18921377
0000e0 84 e8 1f be 0f 6d af 3e f1 33 81 3d c9 00 60 3e
       -0.15616041 0.34262893 0.06308735 0.218753
0000f0 2e 02 69 bd 9b 30 21 3e 3a ef 12 3e a3 2d 35 3d
       -0.056886844 0.15741198 0.1434907 0.044232976

node_encoder.layers.4.running_var f4 [64]
000000 60 32 ea 3d f8 bf d6 3d 75 10 cb 3d c0 78 f9 3d
       0.114353895 0.10485834 0.09915248 0.12181234
000010 46 1c ac 3d d9 13 27 3d 4a 1e 85 3e ed 4d 4c 3e
       0.0840383 0.040790413 0.2599967 0.19951601
000020 a0 b7 51 3e 65 82 c2 3d ad d1 42 3d b3 a8 d7 3d
       0.20480204 0.09497527 0.047563244 0.10530224
000030 8a b6 1b 3e 75 61 3f 3e 4f 09 6e 3d f3 b7 8a 3d
       0.15206352 0.1868952 0.058114346 0.06773367
000040 24 d0 d2 3d 96 7a 03 3e c1 0a 7a 3d 7f 9a 90 3d
       0.10293606 0.12839732 0.061045412 0.07060718
000050 3d f2 9d 3d 37 f1 71 3e 80 9c 47 3e 6f 70 1a 3d
       0.07712219 0.23627172 0.19493294 0.03770488
000060 d0 44 1a 3e 73 d1 24 3e 44 7d 4c 3e d0 76 66 3d
       0.15065312 0.16095524 0.1996966 0.056265652
000070 dd 5f 2e 3d cd 23 04 3e 6f 9a a9 3d 0e fc 60 3e
       0.04257189 0.12904282 0.08281409 0.21971151
000080 3f cf 5c 3d df 1c 9e 3d 00 e0 a3 3d ad 27 eb 3d
       0.053908583 0.077203505 0.08001709 0.11482177
000090 62 e2 e6 3d bf 4b 9f 3e 88 82 2f 3e be 59 81 3d
       0.11273648 0.31112477 0.17139637 0.06315945
0000a0 d5 e6 09 3e 2b b5 17 3e 13 66 0a 3e ac 53 5b 3e
       0.13466962 0.14815204 0.135155 0.21418637
0000b0 20 d8 c9 3d c6 10 0d 3e 01 7e d9 3d 8f cb 28 3e
       0.09855676 0.1377593 0.106197365 0.16483901
0000c0 f0 30 07 3e 9c 49 b6 3d c1 1d ba 3d 03 d7 0b 3e
       0.13202262 0.089007586 0.09087706 0.13656239
0000d0 cc ea 69 3e b2 87 c8 3d b7 a6 52 3e 27 77 1a 3e
       0.22843474 0.09791507 0.20571409 0.15084516
0000e0 1e d7 61 3e 3d f2 6e 3d 2d ad 14 3e dc ea ff 3d
       0.22054717 0.058336485 0.14519186 0.12495968
0000f0 b4 4f e4 3d 85 84 4d 3e 31 51 50 3e 5a 9c 24 3e
       0.11148015 0.20070083 0.20343472 0.16075268

node_encoder.layers.6.weight f4 [32, 64]
000000 01 d2 ba 3d 43 95 dd bd bc 15 a4 bd 58 46 23 bc
       0.09122086 -0.10819485 -0.08011958 -0.009965502
000010 64 35 f5 bd b3 b0 ed bd fb f6 e6 bd 0f a6 ce 3d
       -0.11973074 -0.11605968 -0.112775765 0.10090267
000020 1c 07 a1 3c 6e 4f 2d bd ee e2 11 bb ff f5 e8 bd
       0.01965671 -0.04231208 -0.0022260505 -0.11375045
000030 00 aa f5 bd e7 0b be bd 51 a8 03 be 10 b7 a0 3d
       -0.119953156 -0.09279614 -0.12857176 0.078474164
000040 98 73 39 bd 83 19 11 bd ce a1 e0 bd 1e 44 70 3c
       -0.045276254 -0.03542472 -0.10968362 0.014664678
000050 72 6e 88 bc e9 6d b4 bd 30 00 98 3d 02 25 ce 3d
       -0.016654227 -0.08810026 0.07421911 0.100656524
000060 d2 5d c4 bd df e5 94 3d 50 bb 88 bc ec ce 3b 3c
       -0.09588207 0.07270407 -0.01669088 0.011462908
000070 1b 4a 70 3d 4b d8 e7 bc 88 30 dd 3d 67 f1 99 3d
       0.058664422 -0.028301379 0.10800272 0.07516747
000080 21 b0 a1 bd 8f 2c 9d bd 5d d4 04 be 48 bb 08 3d
       -0.07894922 -0.076745145 -0.12971635 0.03338173
000090 6a 82 d5 bd 18 34 cd bd 0b b2 aa bd f0 cf ff bd
       -0.10425265 -0.10019702 -0.0833474 -0.12490833
0000a0 a6 ac d7 bd ac 1a e2 3d 89 39 96 3d 1a 5c d7 3d
       -0.10530977 0.110402435 0.07335193 0.10515614
0000b0 83 f4 74 bd ca 10 4c bd 88 02 57 bd b4 97 05 bc
       -0.059803497 -0.0498207 -0.05249265 -0.008153845
0000c0 a7 a6 c0 bd 78 e4 60 3c 75 7e 9f bd 10 c8 0d 3d
       -0.094067864 0.013726346 -0.07787792 0.034614623
0000d0 8c a3 e5 3d b8 4a 75 3c 3c 3a b0 3d 8d 34 bf bd
       0.11212835 0.014971428 0.08604857 -0.09336195
0000e0 54 94 d7 bc 94 d0 b1 bd d6 b0 9e bc da 74 5c bd
       -0.026315846 -0.08682361 -0.019371431 -0.053822376
0000f0 ee f1 9e bd f4 c0 ec bd a1 80 3a bd f0 d4 99 3c
       -0.07760988 -0.115602404 -0.045532826 0.018778294
000100 15 c9 9f bc 6e d1 e2 bd 5a 8a a4 3d a2 c6 b7 3d
       -0.019505063 -0.11075102 0.08034201 0.08973433
000110 87 51 94 bd 8c 8d 74 3c 30 23 9f 3d 2c ac fb bd
       -0.072421126 0.0149263255 0.07770383 -0.122886986
000120 e3 b4 da bd ed ec 86 3d 85 f6 eb 3b 59 0b 4b 3d
       -0.10679033 0.06588159 0.0072010183 0.04957137
000130 61 ab 66 bd c3 2b 9a 3c bf 11 a4 3d dc ee e5 bc
       -0.056315783 0.018819695 0.08011197 -0.028067999
000140 95 0f 35 bd e7 39 00 be 85 e3 7b bc 36 fb 9d 3d
       -0.044204313 -0.12522088 -0.015374069 0.0771393
000150 5e 3f f9 bd 63 70 97 bb e9 7b af 3d a0 e8 c1 bc
       -0.121702895 -0.004621552 0.08568556 -0.023670495
000160 31 d6 4a bd d1 1b 3b bd a7 ed 42 bd d3 5b fc 3c
       -0.049520675 -0.045680825 -0.047589924 0.030805504
000170 19 a9 eb bd dc ac 2a 3d b8 41 a1 bc 89 8b a9 bb
       -0.11506862 0.041668758 -0.019684657 -0.0051741046
000180 ef 9d 7c bb d6 bd 94 3d f6 92 9d bd 11 2c fa bd
       -0.0038546284 0.07262771 -0.07694046 -0.12215436
000190 ef 06 c5 bd 9b e5 ba bd 4d e9 85 bd 06 e6 dd 3d
       -0.09620463 -0.09125825 -0.06538639 0.10834889
0001a0 8f 28 bc bd 24 46 91 bd cd 92 ca bd d6 8b 82 bd
       -0.091874234 -0.070934564 -0.09891281 -0.06374328
0001b0 b9 6c b6 3b 6f 77 a6 bd fc ef d2 ba 1e 38 5a 3d
       0.00556716 -0.08128249 -0.001609325 0.053276174
0001c0 92 5b c6 bc 15 26 59 3d e4 7c 13 3d a0 22 fa 3d
       -0.024213586 0.053014833 0.036007777 0.122136354
0001d0 ad 81 0a 3a b1 61 da 3d 4c b9 c3 3d c6 c4 87 3d
       0.00052836054 0.106631644 0.09556827 0.066293284
0001e0 75 64 a3 3d 11 02 b5 bd 27 5d 9d bd d1 d5 41 3d
       0.07978145 -0.08838285 -0.07683783 0.04732305
0001f0 76 f4 23 3d 97 2d d3 3d de 02 6b bc 37 73 dc bc
       0.040028058 0.1031143 -0.014343945 -0.026910407
000200 2f c3 b6 3d 2e 91 6c 3c 7a 81 00 3e 92 ad 74 bd
       0.08923947 0.01443891 0.12549391 -0.059735842
000210 3f d4 15 bd c4 c4 03 bc 54 06 82 3d 93 f2 e1 bd
       -0.036579367 -0.008042518 0.06348863 -0.110325955
000220 64 26 28 bd e3 e4 c0 3d 5e 34 f4 3c 10 6c a9 3d
       -0.041052237 0.09418657 0.029810127 0.082725644
000230 ee 84 28 bd b0 43 9e bd ec 7c b5 bd 5e f6 8d bd
       -0.041142397 -0.07727754 -0.088617176 -0.069317564
000240 8c 56 b7 bd fc bd 82 3d 4f 91 2a 3d f1 1c 99 bd
       -0.089520544 0.06383893 0.041642483 -0.07476223
000250 71 7e f2 3d 69 2c 12 3d 7c 50 24 3d 6f 2e 6a bd
       0.11840523 0.035686884 0.04011582 -0.05717319
000260 6d 41 a2 3d 71 28 b5 bd cf b7 c4 3d 8b 65 86 bd
       0.07922635 -0.08845604 0.09605371 -0.065623365
000270 7b a9 6a 3d c9 d7 52 bd cf cf a2 3d 12 a5 d8 bd
       0.057290535 -0.05147532 0.079497926 -0.1057836
000280 c4 c2 b8 bc fe 83 2d bd 8d 53 a8 bd 5b 0b 70 bd
       -0.022553809 -0.042362206 -0.08219061 -0.05860458
000290 94 66 30 bd 50 87 f9 3b a7 c9 ac 3d fc aa 88 bc
       -0.043066576 0.0076150075 0.084369 -0.016683094
0002a0 8a 3c f0 3d 66 26 60 bd 17 67 76 bd ac f0 87 bb
       0.11730297 -0.05472412 -0.060156908 -0.0041485634
0002b0 c8 f6 a0 bc a0 2a 27 3d 4d 04 e1 3d 59 c2 12 3d
       -0.019648924 0.040812135 0.109871484 0.035829876
0002c0 5a f2 de bd 30 0a 3e bd 72 5a c4 bc 70 74 d3 bd
       -0.10886069 -0.046396434 -0.023968909 -0.10324943
0002d0 68 50 34 3d ab cc d1 3d e8 2c 7a 3d 01 47 35 ba
       0.044021994 0.102441154 0.061077982 -0.00069151825
0002e0 64 58 6f bc 12 05 8e bd 53 54 89 bc e5 a1 e2 3d
       -0.014608476 -0.06934561 -0.016763842 0.11066035
0002f0 3a 4e 90 bd 9d 00 b8 3c 3a fe b0 bd a8 1b f9 bc
       -0.070461705 0.02246123 -0.0864224 -0.030408695
000300 15 a3 91 3c e6 dd bb bd 32 ae 22 3d cf 99 d1 bd
       0.017777959 -0.09173183 0.039716907 -0.10234415
000310 f8 b2 41 bd f6 6e bc 3d 62 37 fa 3d 42 23 8a bb
       -0.04728982 0.092008516 0.12217595 -0.004215629
000320 4e 19 bf bd a0 44 c4 bd b1 bc e8 bc 1e 8f 90 bd
       -0.09330998 -0.09583402 -0.028410288 -0.070585474
000330 2e 96 c2 3d 8e 65 b5 bd 12 c2 ae 3d d2 e2 8d 3c
       0.09501301 -0.08857261 0.0853311 0.01732007
000340 fd 67 29 bd 36 5d d9 3d 37 17 88 3d 51 f2 88 3a
       -0.041358937 0.10613482 0.06645053 0.0010448192
000350 8f 48 a2 bd 18 05 36 bd 50 a4 35 3d 52 83 de 3d
       -0.07923996 -0.04443845 0.044346154 0.10864891
000360 ed 08 3a bd b5 df 27 bd 73 f0 eb bd 85 cd a4 3d
       -0.04541867 -0.040984828 -0.115204714 0.08047012
000370 c0 5a f3 3d 36 20 a4 3d 9e 2d 9e bd 76 f2 a4 3d
       0.118825436 0.08013956 -0.077235445 0.08054058
000380 b2 07 38 bd 05 92 89 3d b1 8e 8e 3d 24 a3 c8 bd
       -0.044929214 0.06717304 0.0696081 -0.097967416
000390 35 8a 05 3d 5c 91 55 3d 0b 54 8e bd e9 cb d5 3d
       0.032602508 0.05214058 -0.06949624 0.104392834
0003a0 01 10 be 3d 30 8e e5 3d 61 d5 b4 3b a2 af 8c bd
       0.09280396 0.11208761 0.005518601 -0.06869437
0003b0 35 01 85 bd 3e 7c 49 3d 18 f7 eb bc 39 0e bd 3d
       -0.06494371 0.049190752 -0.028804347 0.092312284
0003c0 34 e9 de 3d 37 d5 1b 3c f2 67 e2 bd 9a 71 3e 3d
       0.10884324 0.009511284 -0.11054982 0.046495058
0003d0 3f a5 e4 3d 7d 31 f4 bc 4c fe 93 bd c8 c9 eb bc
       0.11164331 -0.029808754 -0.07226238 -0.02878274
0003e0 12 32 44 3c c5 f4 c3 bd e1 45 76 3d a5 f7 5e 3d
       0.011974828 -0.095681705 0.060125235 0.05443539
0003f0 0d 2b 22 bd 4e 34 1b bd 82 e9 65 bd b1 96 d4 3d
       -0.039591838 -0.03789168 -0.056130894 0.103803046

node_encoder.layers.6.bias f4 [32]
000000 37 42 6e 3d 7d 7f 21 3d 46 17 4f 3d 74 58 0b bc
       0.058168616 0.039428223 0.050559305 -0.008504976
000010 95 8b a2 bd f3 2f 69 39 f0 60 c1 3d a4 5d b5 3d
       -0.079367794 0.00022238474 0.094423175 0.08855751
000020 65 00 5e bd 4a 48 88 3d 01 f9 17 3d 09 b8 ab bb
       -0.054199595 0.06654413 0.037102703 -0.0052404446
000030 01 74 48 3d c5 ee 33 3a 77 55 a7 b9 19 e7 7f bd
       0.048938755 0.00068638875 -0.00031916398 -0.06247625
000040 ec 9a 76 39 d8 69 d2 3d 6d cb 6d 3d 85 e2 a6 bd
       0.00023518101 0.10274094 0.05805533 -0.08148674
000050 c5 c6 e6 3a e0 a7 76 3d ac 0e 0d bd 36 1c 7d 38
       0.0017606845 0.06021869 -0.03443782 6.0346174e-05
000060 1c a6 30 3d 0c 1f af 3d 74 23 c0 3d 78 0b 91 bd
       0.043127164 0.085508436 0.09381762 -0.070822656
000070 79 11 c9 bd 20 0f 8d 3d 8f 45 15 3b 27 03 bf 3d
       -0.09817786 0.068876505 0.0022777056 0.09326773

edge_encoder.layers.0.weight f4 [64, 4]
000000 29 25 b4 3e df d6 4d be 7f 67 10 3e 5e 13 24 3e
       0.351846 -0.20101498 0.1410198 0.16023013
000010 32 56 2e be a8 93 ea 3e 39 c5 45 3d f8 e8 25 be
       -0.17025068 0.45815778 0.04828379 -0.16202152
000020 72 15 eb be 7c d7 ce 3e 8f 98 fb be 3f 76 c6 3e
       -0.459148 0.40398777 -0.4913983 0.3876209
000030 e2 d5 27 be 5e 2e bf bd af 4e a2 3d 87 8b f7 3e
       -0.16390184 -0.09335016 0.07925164 0.48348638
000040 17 95 a0 be 00 9e b4 be 25 0a a0 3e 0d 13 69 be
       -0.31363747 -0.35276794 0.3125774 -0.22761174
000050 65 60 3a be 80 88 90 3e 81 f1 5a be 60 e7 9b 3e
       -0.18200834 0.2822914 -0.21381189 0.30449963
000060 50 95 51 be 21 21 c6 3e c5 5e fb 3e 70 82 76 3d
       -0.20467114 0.3869715 0.4909574 0.06018299
000070 93 00 22 be da 37 8b 3e 49 53 18 3e 8f b6 d0 3b
       -0.15820532 0.2719105 0.14875521 0.006369419
000080 31 af de 3e c1 e0 97 bc e9 7f 3e 3e 89 d7 0f be
       0.43493035 -0.018539788 0.18603481 -0.14047064
000090 2a 31 ad bd a4 1e f3 bc 02 de 25 3d 7d 8d 60 3e
       -0.08456643 -0.029677697 0.040494926 0.21928973
0000a0 1e 4d bf 3e 7b 13 9a 3e 01 56 5b be 8c bb de 3e
       0.37363523 0.30092987 -0.21419527 0.43502462
0000b0 85 58 a8 3e 9f 86 3f 3e 93 ff 62 3d bd ac 8b be
       0.32880035 0.18703698 0.055419516 -0.27280226
0000c0 24 7d 9d be 4e af 22 3c 76 60 b9 be a3 87 35 3e
       -0.30759537 0.009929491 -0.36206406 0.17727523
0000d0 28 01 eb be 42 64 e3 be 34 74 60 be 8e eb 8d 3e
       -0.4589932 -0.44412428 -0.21919328 0.27718776
0000e0 0c 01 ce 3e ec 9f d7 be 14 bb 9d be 22 c1 cc 3d
       0.40235174 -0.42114198 -0.30806792 0.09997775
0000f0 61 5e ba bd 1f d1 d0 be 65 d3 0f 3e 2a 3c d0 be
       -0.091000326 -0.40784547 0.14045484 -0.40670902
000100 07 3d d6 3c 13 93 50 3e 2f 4a eb 3e 9e ac d8 be
       0.026152147 0.20368604 0.45955035 -0.42319196
000110 cd 7f bd 3e 78 61 84 3d a1 b2 df 3e 3f 5d fc 3e
       0.37011567 0.06463903 0.4369097 0.4928989
000120 15 5c ee bd 83 e3 a6 bd 70 d4 fe bd 4b 80 c4 3e
       -0.11638657 -0.08148863 -0.12442863 0.3837913
000130 15 a4 61 be 2e 1f aa 3e 49 8a 50 3e 71 a6 ec 3e
       -0.22035249 0.33226913 0.20365252 0.46220735
000140 9f e2 b5 3e 8f 8e cb 3e e0 de d3 be f9 bc 83 be
       0.3552446 0.397572 -0.41380978 -0.25730112
000150 51 47 b7 be 75 90 77 3e 21 76 d0 3d d7 4f 3c 3e
       -0.35796598 0.241762 0.10178781 0.18389831
000160 4a b9 47 3e ef f2 e2 3c 7c c5 3b 3e 7a f0 8d be
       0.19504276 0.02770373 0.18337053 -0.27722532
000170 11 b1 a5 3e 3e 06 e0 be d2 bf e8 be e6 59 30 3e
       0.32361653 -0.43754762 -0.45458847 0.17221794
000180 13 62 ef 3e 27 5f 33 be ed d8 f1 3e 39 f9 37 be
       0.46754512 -0.17516766 0.47235814 -0.17966165
000190 32 24 c5 be 70 4b a2 bd fd b5 8a 3e 8a c2 83 be
       -0.38504177 -0.07924545 0.2709197 -0.2573436
0001a0 11 23 f0 3e 1f e6 6c be 90 d9 5f be d5 6e 56 be
       0.46901754 -0.23134659 -0.21860337 -0.20940717
0001b0 45 bb c6 be 36 84 eb 3e 8a 85 90 be cd 62 6d be
       -0.3881475 0.45999306 -0.28226882 -0.23182221
0001c0 fc e0 11 be c4 05 d5 3e d8 d5 7b 3e f9 e2 4a 3e
       -0.14245981 0.4160596 0.24593294 0.19813146
0001d0 e4 a9 11 be 94 ee 7e 3e 08 5b aa 3d e3 87 ce 3e
       -0.14224964 0.24895698 0.08318144 0.40338048
0001e0 5b da f0 3d e9 9b c0 3e 10 cd ab 3e 14 6d a7 3d
       0.11760398 0.3761895 0.33554888 0.08175102
0001f0 1f 44 f1 be 8f 2b e4 3d 97 ad c3 be 87 e5 9d 3d
       -0.47122285 0.11141121 -0.38218376 0.077097945
000200 d9 bb 42 bd 05 0c c6 3e 11 cb bc be a9 1c d0 be
       -0.047542427 0.38681045 -0.36873677 -0.40646866
000210 7e 56 5b 3e f6 40 ad 3e 39 eb e4 bd 03 01 11 3e
       0.21419713 0.33838624 -0.11177678 0.14160542
000220 99 81 cd 3e 8e 20 6b 3d 61 0f 0e be 46 6d 96 3e
       0.40137938 0.057404093 -0.13873054 0.29380244
000230 9c 14 ea 3e 24 8d bd bd f2 c0 a9 3e 59 20 08 3d
       0.4571885 -0.09255436 0.33155018 0.033233974
000240 59 f0 ba bd dd 27 3d bd b8 b3 fe be 4d 87 71 3e
       -0.09127874 -0.046180595 -0.4974649 0.2358677
000250 d4 89 89 be a8 9b dd be 16 bf 83 bd b4 e1 41 be
       -0.26862967 -0.4328282 -0.06432931 -0.18933755
000260 03 05 a0 be ee 76 e3 bd 51 09 57 bd 66 0d 18 3e
       -0.31253824 -0.111066684 -0.05249912 0.14848861
000270 47 f5 94 3d 77 40 82 bd 76 2f dc 3d 13 37 a5 be
       0.072733454 -0.06359952 0.1075124 -0.3226858
000280 54 45 dc 3e 1c d3 73 3e 0b 2f 9e 3e d3 4d e4 be
       0.43021643 0.23811 0.30895266 -0.44590625
000290 82 eb aa 3e 2d fa b0 3d cb bc fa be aa f4 f0 3e
       0.33382803 0.08641467 -0.48972163 0.47061664
0002a0 d0 00 10 bc b6 ae d7 3d 2e 98 cd 3e bd a1 aa 3e
       -0.008789256 0.1053137 0.40155166 0.33326522
0002b0 bc 1c e1 3e c0 6a ef be 13 6d fd 3e e2 29 dd 3d
       0.43967235 -0.4676113 0.4949728 0.10799004
0002c0 1e cb 7a 3c 8b cc cd be eb cb 85 be 6a e1 f0 3e
       0.015307216 -0.40195116 -0.2613214 0.47046977
0002d0 35 ce c3 3e df c9 c4 3e 80 29 10 bd dd 53 8e be
       0.3824326 0.38435265 -0.035195827 -0.27798358
0002e0 27 b7 e2 3d 36 9f 6d be 0f b1 a9 be 81 93 29 3e
       0.1107009 -0.23205265 -0.33142897 0.16560175
0002f0 7b fe c3 3e 18 80 c9 be 1a 7b e0 be 5d 60 92 3d
       0.3828009 -0.3935554 -0.4384392 0.07147286
000300 6a 3b 3b be 51 ba 87 be 49 cf c9 bd a1 ee 06 bd
       -0.18284383 -0.26509336 -0.0985399 -0.032942418
000310 67 d4 14 be 82 2f b8 3e 35 fd 8c 3e f7 f7 19 3e
       -0.1453415 0.35973746 0.27536932 0.15035997
000320 54 85 26 be be 1b 1b bd 63 b6 a4 3e d2 69 30 3d
       -0.16261798 -0.037868254 0.321704 0.043069668
000330 ea 6a f7 be 86 14 65 3d d0 55 85 3e ce de 01 be
       -0.48323756 0.055927776 0.26042032 -0.1268265
000340 29 a0 d3 bd aa 79 97 bd 8d e2 97 3e 7c de cd 3e
       -0.103332825 -0.073962525 0.29665032 0.40208805
000350 9e 07 c8 be f4 98 a9 3e f0 84 51 3e 5a ba 2e 3e
       -0.3906831 0.33124506 0.20460868 0.17063275
000360 7c 49 99 be 77 8b 91 be 3e 3a f8 3e a0 14 e9 3d
       -0.29938877 -0.28426716 0.48481935 0.11380887
000370 ad 3a da bd 45 d4 c3 bd 24 e6 ad 3e 20 9e e7 bd
       -0.10655723 -0.095619716 0.33964646 -0.11309457
000380 94 a4 af 3e e1 3d 09 be 0a cf e8 3d 81 f6 f3 3d
       0.3430525 -0.13402511 0.113676146 0.11912251
000390 47 ec 86 be 7a 62 53 3c 3a 98 c1 3d be 85 f4 be
       -0.2635214 0.012901897 0.09452863 -0.47758287
0003a0 af d9 be bd d7 4a 25 3d 8a 22 d5 3e 9d fc db 3d
       -0.093188636 0.040354576 0.41627914 0.107415415
0003b0 24 96 dc be 51 9b 1e be ff d0 f8 3e c6 f9 94 bd
       -0.43083298 -0.15488936 0.4859695 -0.07274203
0003c0 19 00 bf 3e e9 d6 46 3d 24 0e aa 3e d7 ea 55 be
       0.37304762 0.048544798 0.33213913 -0.20890366
0003d0 76 91 f8 3e 8f c5 d9 3d 6e dc dd bd bb c9 c3 3e
       0.48548478 0.106333844 -0.10833059 0.38239846
0003e0 07 24 72 3e cd 29 b2 be 61 68 db bc a9 53 b5 3e
       0.23646556 -0.34797516 -0.02678317 0.3541539
0003f0 47 e6 03 3e 15 4a 1a be 93 b5 aa be a1 e3 ad be
       0.12880813 -0.15067323 -0.33341655 -0.3396273

edge_encoder.layers.0.bias f4 [64]
000000 d9 25 84 3e 37 67 53 3e 25 a9 d8 be 1d 3b aa bd
       0.25810125 0.20644842 -0.42316547 -0.08312056
000010 36 f4 da 3d c6 4f d8 be d6 6e d2 3e 24 54 0c bd
       0.10691111 -0.42248362 0.41100186 -0.03425993
000020 53 bc 3b be f0 c8 15 3d 66 bf 24 3e c5 71 bb 3d
       -0.18333559 0.036568582 0.16088638 0.09152559
000030 cd 94 e8 3e ae f4 85 3e c8 6c f1 bc 62 7f 86 3d
       0.45426026 0.26163238 -0.029470816 0.06567265
000040 9f f4 cf 3d fa d2 36 be f7 2c d1 be 19 c5 0b bd
       0.1015408 -0.17853919 -0.40854618 -0.034123514
000050 f6 c8 2e be 44 a2 e7 be f5 5f 22 3e a3 90 42 be
       -0.17068848 -0.45240986 0.15856917 -0.19000487
000060 9e e7 ea 3e 64 e4 22 3e 75 c7 45 3e 4e 12 01 3e
       0.45879835 0.15907437 0.19314368 0.12604639
000070 18 70 33 3e 89 be 99 3e e2 e2 b1 3e 3f da 19 bc
       0.17523229 0.3002818 0.3474341 -0.009390413
000080 4a fe f9 bd e0 2b ed 3d da bd 52 be 29 83 fb bb
       -0.12206705 0.11580634 -0.20580235 -0.0076755476
000090 d8 55 01 3e 05 81 50 3e c5 6d ed be 9a 03 32 3e
       0.12630403 0.20361717 -0.4637281 0.17384186
0000a0 dc fe 31 be 05 24 aa be a4 c8 45 be 40 de 0f 3b
       -0.17382377 -0.33230606 -0.1931482 0.002195254
0000b0 25 da 67 3e dc cf d9 be 84 e1 ed 3d 6f 76 dc 3e
       0.2264181 -0.42541397 0.11615279 0.43059108
0000c0 51 79 86 be 92 86 cc 3d 60 95 39 be 58 90 d3 3d
       -0.26264432 0.09986605 -0.18123388 0.10330266
0000d0 14 70 49 3e 7b 88 93 be 6c de cc 3d c7 d5 f2 3e
       0.1967166 -0.28815064 0.10003361 0.47428724
0000e0 7d 09 88 3c 5e 8a ab be 0b 28 b4 ba 7b b9 b9 3d
       0.016606087 -0.33504003 -0.0013744844 0.09068581
0000f0 1e 7a 09 3e 29 85 8f bc 08 63 b3 bd 20 47 6a be
       0.1342549 -0.01751955 -0.08759123 -0.22878695

edge_encoder.layers.1.weight f4 [64]
000000 d3 ae 7d 3f ec 50 7d 3f d6 e3 7e 3f cf 88 80 3f
       0.99094886 0.989516 0.995664 1.0041751
000010 08 7a 7f 3f 44 eb 80 3f fb 90 7d 3f 1c e8 80 3f
       0.9979558 1.0071797 0.9904935 1.0070834
000020 c9 5f 80 3f d9 31 7f 3f cb b9 80 3f b2 40 7f 3f
       1.0029231 0.99685436 1.00567 0.9970809
000030 42 09 7d 3f 14 6b 7e 3f 5a 12 7e 3f 39 4e 7e 3f
       0.9884225 0.9938214 0.9924675 0.9933811
000040 5e ad 7c 3f 27 bb 7e 3f ad df 7c 3f d6 16 7f 3f
       0.9870204 0.9950432 0.987788 0.9964422
000050 9c 8e 7e 3f 74 ba 7d 3f 59 87 7e 3f ab 22 7e 3f
       0.99436355 0.9911263 0.99425274 0.9927165
000060 b5 7c 7e 3f 3a 4d 7f 3f ba 5f 7d 3f dd 01 81 3f
       0.9940904 0.99727213 0.9897419 1.0078694
000070 26 94 7f 3f b9 2f 7e 3f 4c 53 7e 3f 08 c5 7d 3f
       0.9983543 0.9929157 0.9934585 0.9912877
000080 3e a7 80 3f af 0e 7f 3f da e9 7e 3f 31 0e 7e 3f
       1.0051038 0.9963178 0.9957558 0.99240404
000090 b4 4d 7e 3f b4 99 7d 3f 86 14 80 3f 95 17 7e 3f
       0.99337316 0.9906266 1.0006263 0.99254733
0000a0 13 a3 7e 3f c4 70 7f 3f 2c e8 7e 3f 1e 43 80 3f
       0.9946758 0.9978144 0.99573016 1.0020483
0000b0 95 1f 80 3f 45 27 7e 3f dd b0 80 3f e4 71 7d 3f
       1.0009638 0.9927867 1.0053974 0.9900191
0000c0 44 dc 7d 3f 3e 72 7d 3f c0 b5 7f 3f 5d 76 7d 3f
       0.99164224 0.99002445 0.99886703 0.99008733
0000d0 e5 d1 7c 3f be 9f 7e 3f 31 9c 80 3f 2b 1f 7f 3f
       0.98757774 0.994625 1.0047666 0.99656934
0000e0 80 31 7e 3f c1 bc 80 3f 7b 21 7f 3f 0f 82 7f 3f
       0.9929428 1.0057603 0.9966046 0.9980783
0000f0 93 ef 7f 3f 95 a4 80 3f 4f 54 7e 3f 09 c0 80 3f
       0.99974936 1.0050226 0.99347395 1.0058604

edge_encoder.layers.1.bias f4 [64]
000000 50 fb 91 bb f9 5c 82 bb 15 d0 93 bb 03 ba cb 3b
       -0.0044550076 -0.0039783684 -0.0045108893 0.0062172427
000010 63 bd fc 3a f9 5c 01 3c 1e ec 01 bc 36 45 06 3c
       0.0019282516 0.007895702 -0.00792983 0.008195212
000020 47 ee 84 3b e7 59 bc 3b ce c5 d9 3b 1e e3 80 39
       0.004056725 0.005748022 0.0066458946 0.00024583278
000030 83 33 f4 bb 5d 0b ed bb b8 bf f6 bb ac 11 a0 bb
       -0.0074524297 -0.0072340206 -0.007530179 -0.004884919
000040 e0 22 43 bc 28 d9 9e bb 1a 19 42 bc 1a 8a 2f bb
       -0.01191017 -0.0048476644 -0.011846805 -0.0026785196
000050 0e 68 15 bb ed 69 d0 bb df c6 93 bb 77 6f 9c bb
       -0.0022797617 -0.0063602836 -0.0045097913 -0.00477403
000060 ce fe 86 bb 8f 46 c1 ba ef 91 4f bb 8a 5a 08 3c
       -0.0041197306 -0.001474576 -0.0031672677 0.008322367
000070 a9 fd 16 39 3c a8 ad bb 19 3a ad bb f0 4b fa bb
       0.0001439961 -0.005299596 -0.005286467 -0.007638447
000080 8b ee af 3b b3 47 60 ba 00 85 1a bb 58 7a f0 bb
       0.0053690127 -0.0008555606 -0.002357781 -0.0073388033
000090 f1 7b e8 bb f4 32 56 bc 46 7e b8 3b d6 82 db bb
       -0.007094853 -0.013073672 0.0056302873 -0.0066989465
0000a0 b7 73 94 bb c6 82 96 ba 25 14 8b bb 8f e2 a1 3b
       -0.004530396 -0.0011483065 -0.004244345 0.004940338
0000b0 fe 87 44 3b 98 9c e3 bb 40 d1 da 3b cd 69 06 bc
       0.0029988284 -0.0069461577 0.0066777766 -0.008203936
0000c0 02 d2 0b bc cc 48 19 bc a6 ff 1d ba 00 fe 05 bc
       -0.0085339565 -0.009355735 -0.00060271693 -0.008178234
0000d0 92 f8 3f bc 15 8e 9f bb 84 1d fe 3b dc 9f 67 bb
       -0.011716979 -0.0048692324 0.0077549834 -0.0035343086
0000e0 55 98 c9 bb 1d c8 fc 3b 46 73 42 bb 3b e7 a4 3a
       -0.0061521926 0.007714285 -0.002967076 0.0012581119
0000f0 d7 8b 8f 3a 69 16 ba 3b 80 bf 04 bc fe 51 e0 3b
       0.001095171 0.005678941 -0.008102298 0.0068457117
