gnn/gnn_outputs/checkpoint_epoch_30.pt (torch, 970524 bytes, 208 tensors)

node_encoder.layers.0.weight f4 [64, 3]
00000000: 68f9 da3e 4f59 f53e 2bcb 0fbe 307b 093f
00000010: 4161 f9bd a169 e03d 8792 86be 7584 b13e
00000020: dad5 053f 02e4 d8be 066d 003f b68d da3d
00000030: 23bd de3e 2fc3 913d e3c3 8a3e 2716 aebd
00000040: 0c81 e03e 21b1 b93d 2fb9 8bbe 684b 1a3e
00000050: b06e 84be dddc 8dbd 197a 68be dccf c63e
00000060: fa79 eabe 6609 84be d918 30be ac69 b4be
00000070: a434 3e3d 79d7 10bf cf8a 053f c90f fcbe
00000080: 689a e13e 01ef d03d db47 3abe 04b7 b53e
00000090: 22e7 b43d bbe0 f23e 100d 513d 5c7c 3cbe
000000a0: 0287 183e ba9e 27be 7b5d 753e ba6b 013f
000000b0: 4262 b13e 581b 81be 7575 ac3e 260b b83d
000000c0: c43e 983e 3f00 b5be 7194 11bf 02fb 65be
000000d0: 5aea e6be b00c ed3e 9b96 2e3e 0353 6f3e
000000e0: e928 3b3e 1882 c2bc 3495 e73e faa8 d1be
000000f0: 03a6 163d 361b d0be de8a 293e 7b18 46be
00000100: 0bf0 3b3e 654c f8bd 0b4a f03e 7d6e b8be
00000110: e5d9 acbe 39bb b4be 50ea 023f 81fc 453e
00000120: 9c20 0f3f 0593 eebe 2a57 14bf fd02 eabe
00000130: 7739 c8be 7bab 653e 6084 463e 90a4 f73e
00000140: 80a5 99be 315b cebe dd6e 9d3e 0c80 67be
00000150: 5afc b23e bacf 10be 3151 a83e 3e97 eebe
00000160: fba6 91be c161 363e db78 ed3d 24fd 1ebe
00000170: 6414 ae3e a154 c63e b0e4 dbbe 3432 98be
00000180: 2e6d 083f e1fa 49be 78fd 4dbe 362e 0abf
00000190: a4a0 afbe 2557 0a3e 69de b8bd 916a cfbe
000001a0: a9be ab3a bf64 cabe 9660 00bf 422c 9dbe
000001b0: a135 02bf 146f bbbe 175f 133f 0556 d33d
000001c0: 9169 3e3e 532e 08bf a2ca c2be 0cc1 41be
000001d0: 4ee4 c63d 9453 05bf d6a9 7fbe b9f3 abbe
000001e0: 470e 203c 6dc1 62be 1df4 08bd c3d1 d0be
000001f0: 43e7 cbbe 94a9 a8be bbd5 4dbe 1201 ecbe
00000200: 83b6 f23e d7db f4bd ee44 f73e c747 453e
00000210: 1cfd fbbe 9498 ca3e 58e8 1fbe 716a 67be
00000220: 591c f5be 5d53 12bf cfd3 2a3e 0535 f7bd
00000230: 06d4 673e 55c1 eebe bf06 e03e b616 d7be
00000240: 0f3f cdbd 5ad0 f63d 923f 973e 6a4f f53e
00000250: 5bfd 043f e708 e5be 4771 103e 78ea 80be
00000260: d798 8dbd 7c10 dbbe 85ba 073f 14f4 d6be
00000270: b149 a43e 4a1f 3f3e bab8 383e 7653 9ebe
00000280: 3563 073f 0234 f43d 5f04 a93d f4ff 02bf
00000290: e1fc 723e 5752 a1bd f667 7ebe 542e 033f
000002a0: 7e24 013e 657a a5be 6afc 93be eb8f 00bd
000002b0: f06a a53e e031 16be 766f a6be 8441 54be
000002c0: 77e4 dcbe c6fa 433e 0229 e23e cf13 0dbf
000002d0: 2c70 1c3e e717 923e 347a d03d 16a4 4dbe
000002e0: 63d4 973e c64e a43e 2ea4 513e 5600 d3bd
000002f0: b0f8 24be a176 853d 5f74 b8bd 006e 3bbe
0.42768407 0.479197 -0.14042346 0.53703594 -0.12176753 0.10957647 -0.26283666 0.3467137
0.52279437 -0.42361456 0.50166357 0.106715605 0.43503675 0.071173064 0.27102575 -0.08500319
0.43848455 0.09066988 -0.2728972 0.15067828 -0.25865698 -0.06926892 -0.22702827 0.3883046
-0.45796186 -0.2578842 -0.17196979 -0.3523687 0.04643692 -0.56578785 0.5216493 -0.49230793
0.44063115 0.102018364 -0.18191473 0.35491192 0.088331476 0.4743708 0.051037848 -0.18406814
0.14895251 -0.16369143 0.23961441 0.50555 0.34645277 -0.25216174 0.33683363 0.089865014
0.29735386 -0.3535175 -0.5686713 -0.22459033 -0.4510067 0.46298742 0.17049639 0.2337151
0.18277325 -0.023743674 0.4523102 -0.4094923 0.036779415 -0.4064576 0.1655688 -0.19345276
0.18353288 -0.12123946 0.4693149 -0.36021796 -0.3375999 -0.3529909 0.5113878 0.19334604
0.5590913 -0.46596542 -0.579455 -0.45705405 -0.39106342 0.22428696 0.19386435 0.4836774
-0.3000908 -0.4030395 0.30748644 -0.2260744 0.34958154 -0.14141741 0.32874444 -0.46599764
-0.28447708 0.17810728 0.11595317 -0.15526253 0.33999932 0.38736442 -0.42947912 -0.29725802
0.53291595 -0.19724609 -0.20116222 -0.5397676 -0.34302247 0.13509806 -0.09026796 -0.4051099
0.0013103086 -0.39529988 -0.5014738 -0.3069783 -0.5086308 -0.36608183 0.5756697 0.10319141
0.18594958 -0.53195685 -0.38045222 -0.18921298 0.097115144 -0.52080655 -0.24967131 -0.33584383
0.009769029 -0.22144099 -0.03343593 -0.40785035 -0.39824876 -0.32941878 -0.20101063 -0.46094567
0.4740487 -0.119559936 0.48294777 0.19265662 -0.49216545 0.39569533 -0.15615976 -0.22599198
-0.4787319 -0.5715845 0.16682361 -0.120706595 0.22639474 -0.46631876 0.43755147 -0.42009515
-0.10021793 0.12051459 0.29540688 0.4791215 0.5194909 -0.44733354 0.14105712 -0.25178885
-0.069139175 -0.42786014 0.5301898 -0.41983092 0.32087472 0.1866428 0.18039218 -0.3092305
0.5288575 0.11923982 0.08252787 -0.51171803 0.23729278 -0.07877033 -0.24844345 0.51242566
0.12611577 -0.32319942 -0.28903514 -0.03138725 0.3230815 -0.14667463 -0.32506913 -0.20728117
-0.43143055 0.19138631 0.4417191 -0.5510835 0.15277165 0.2853386 0.101795584 -0.20082125
0.29654226 0.3209135 0.20472786 -0.103027984 -0.16110492 0.06516767 -0.09006571 -0.1830368

node_encoder.layers.0.bias f4 [64]
00000000: 10be ad3e b9cc ee3e bd8f f0bc 3c19 cdbd
00000010: 5aff 13ba 7b58 0fbc 6a7e e03d a3aa 073e
00000020: 2739 fdbe 0402 3cbe 67b0 e93e ab0e 483e
00000030: eb8f 82bb 7901 a3be a0a5 a5be 2e8a f9be
00000040: 4996 22be c583 293e 664b ad3e a0a7 723e
00000050: bd09 f6be 0e94 a2be b496 7fbd ad58 073f
00000060: 6b12 613d 4942 f6bd b255 563e 7ffa 42be
00000070: 481e b0be 4a87 c83e 1287 6ebe 8491 b1bd
00000080: d766 0bbf 419f b63e dfb9 d03e 1b47 393e
00000090: 91e4 bebe 493d 0abf 37d7 e0be fb32 cd3e
000000a0: 7b85 7d3e d180 e93e 61ae 8b3e 465c ef3d
000000b0: e6a7 41ba ab91 d1be 3301 eebe e49d 02bf
000000c0: 95c6 533e cff7 81be ca77 b2bd 4aed 9abe
000000d0: fa3c 9cbd f9d4 c0be caf1 b1be 1afa 253e
000000e0: cfa8 11be 904b a73e e18d 1fbe cf9c c9be
000000f0: 6988 95bd 8e21 80be b5cd 16be 7717 05bf
0.3393407 0.46640566 -0.029365415 -0.10014579 -0.00056456553 -0.008749123 0.109616116 0.13248686
-0.49457666 -0.18360144 0.45642397 0.19536845 -0.0039844415 -0.3183706 -0.32352924 -0.48738235
-0.15877642 0.16554172 0.33846587 0.23696756 -0.48054305 -0.31753582 -0.06239958 0.52869684
0.054949205 -0.12024362 0.20931128 -0.19040869 -0.34398103 0.39165717 -0.23293713 -0.08670333
-0.54453796 0.35668376 0.40766808 0.18093531 -0.37283757 -0.53999764 -0.43914196 0.40077958
0.2475795 0.45606092 0.27281478 0.11687522 -0.00073873845 -0.40931448 -0.4648529 -0.5102217
0.20681222 -0.25384375 -0.08714254 -0.30259162 -0.07628818 -0.37662485 -0.34754783 0.16208687
-0.14224552 0.32674837 -0.15581466 -0.39377448 -0.07301409 -0.250256 -0.14726909 -0.5198893

node_encoder.layers.1.weight f4 [64]
00000000: 6205 7e3f 15fd 7e3f 0dd6 7d3f 5fac 7f3f
00000010: 90bb 7e3f b698 803f f17c 7d3f e356 803f
00000020: 0a21 803f 59cf 7d3f 4849 7f3f 6948 813f
00000030: ee78 7f3f c24f 813f d682 7e3f 6068 803f
00000040: 032f 803f 42b1 803f 8f6e 7d3f af37 813f
00000050: 7344 803f 4133 7d3f af52 803f 799f 7e3f
00000060: 3189 7f3f bef2 803f 6367 803f 271b 803f
00000070: 6264 7e3f 7d00 7f3f e996 7d3f b521 813f
00000080: 6b58 803f 805e 803f 7c84 803f b6da 7f3f
00000090: 445a 803f 5f87 803f 3ea2 7f3f e78a 7f3f
000000a0: e8a6 7f3f e9ad 7e3f abf1 7e3f 400e 803f
000000b0: 80f1 7e3f 72ec 803f 257b 803f e938 803f
000000c0: 817b 7f3f eb0a 7f3f bf68 813f 333e 813f
000000d0: 2d5e 7d3f 295c 7e3f c2b5 7e3f af49 803f
000000e0: e0b5 7e3f b9bd 7e3f 1360 7f3f dcf2 803f
000000f0: 2ea9 803f 00b5 7e3f e974 803f 6b1c 7e3f
0.99226964 0.9960492 0.9915474 0.9987239 0.9950495 1.0046604 0.9901877 1.0026516
1.0010083 0.9914451 0.99721193 1.0100223 0.997939 1.0102465 0.9941839 1.0031853
1.0014347 1.0054095 0.98996824 1.0095118 1.0020889 0.9890633 1.0025233 0.99462086
0.9981871 1.0074079 1.0031551 1.0008286 0.9937192 0.9961012 0.99058396 1.0088412
1.0026983 1.0028839 1.0040431 0.999431 1.0027547 1.0041312 0.99856937 0.99821323
0.99864054 0.99484116 0.99587506 1.0004349 0.9958725 1.0072157 1.0037581 1.0017368
0.99797827 0.99626034 1.0110091 1.0097107 0.98971826 0.99359375 0.9949609 1.0022486
0.9949627 0.99508244 0.9975597 1.0074115 1.005163 0.99494934 1.0035678 0.9926211

node_encoder.layers.1.bias f4 [64]
00000000: daa7 85bb 76c5 ddbb bdbe 95bb dffc a43a
00000010: dd89 64bc 8301 013c 4af2 87bc accc a4bb
00000020: e5aa afba 7ca2 13bc f7a8 013c b737 063c
00000030: d9d5 d6bb ebd3 863b 51fc 22ba c46a 823c
00000040: 45b4 a4bb f85b 113c 6bcc 09bc e429 073b
00000050: a9fc 4bbc 6ce3 26bc b962 3bbb b217 9fbb
00000060: a0b3 11bc 0f70 1fbb 5082 7f3c 6c1e e4bb
00000070: bb2c 91bb c5b1 04bc ecb0 2b3a 9425 393c
00000080: cb94 93bb 7cbb 33bc d901 0ebc 6c12 e9bb
00000090: 6202 23bc 23d3 573b fe6a de3b 862a 0c39
000000a0: 39e9 af3b caaa 88bb 12b3 40bc ca79 f93b
000000b0: 3c31 5dba ddce 983b a7b2 073b 39fc 0bbc
000000c0: 74e9 b938 e8b8 e6bb b141 803b a903 803c
000000d0: 521e 8d3a b729 83bb 0a78 12bc 8e93 dbbb
000000e0: a8e0 97bb 9d22 59bb 703d 0ebc 4cc5 6e3c
000000f0: a4f5 4f3c c91d d93b 265d f83b bb4d d0bb
-0.0040788474 -0.006767924 -0.004569857 0.0012587568 -0.013948885 0.007873896 -0.016595025 -0.0050292816
-0.0013402371 -0.009010907 0.0079138195 0.008191994 -0.0065562543 0.004114618 -0.00062174076 0.01592005
-0.0050263726 0.008872025 -0.008410553 0.0020624334 -0.012450376 -0.010186058 -0.0028592779 -0.0048551196
-0.008892924 -0.0024328267 0.015595034 -0.0069616344 -0.004430381 -0.008099024 0.0006549496 0.011300463
-0.0045038215 -0.010969993 -0.008667433 -0.0071127918 -0.009949299 0.0032932244 0.006787657 0.00013367282
0.0053683785 -0.0041707503 -0.011761444 0.0076133953 -0.00084378175 0.004663332 0.002070585 -0.008544021
8.8649715e-05 -0.0070410855 0.003914081 0.015626745 0.0010766482 -0.0040027755 -0.008939752 -0.0067009395
-0.0046349354 -0.0033132203 -0.00868164 0.014573406 0.012692843 0.006625865 0.0075794635 -0.0063569224

node_encoder.layers.1.running_mean f4 [64]
00000000: 533f 4a3f ab86 3b3f 019f 9e3e a74c 1a3d
00000010: 0cff d13e a36e 853e 310a 90bd bfb0 243e
00000020: 1d42 7cbf f0ac 22bf e549 283f 3b84 a53e
00000030: 422d b73e ae7c d2be 9379 933e f5d3 bcbe
00000040: 79dd 04bf 0ce1 6e3c d770 2b3f 1af1 973e
00000050: ade8 20bf b8fd bebe 8ec5 5cbe 6645 433f
00000060: 7ba5 70be a5dd f9be 75e9 ea3e 8f3f abbe
00000070: 485c a8bd 8bae 8e3d 5c07 c5bd 3ca2 9cbe
00000080: d660 fdbe 2a03 82bd 87ab ed3d 722a fabe
00000090: 4f32 12bf 373f 26bf e732 35bf fd2d 47be
000000a0: 6937 d33d 8b60 2cbe f508 083e 455e e93e
000000b0: 3371 c3bd 4f78 8fbf 20e4 adbe 60a6 34bf
000000c0: 53c6 c43e 34b8 a83d 36fa 54be 7d67 d7be
000000d0: 0286 973e e1b9 1ebe 7d84 00bf ea61 703e
000000e0: 5685 dbbe 96df df3e 1928 2ebf acdb 9dbe
000000f0: 30ab 6c3e aefc 4dbc 6bde 42be 7ac2 23bf
0.79002875 0.7325236 0.30980685 0.037670758 0.41014898 0.26060972 -0.07033194 0.16083048
-0.9853838 -0.6354513 0.65737754 0.32327446 0.35776716 -0.41110748 0.2880369 -0.3688046
-0.5190044 0.014580023 0.66969055 0.29676133 -0.62855035 -0.37302947 -0.21559736 0.7627777
-0.23500626 -0.48801914 0.4588124 -0.3344693 -0.08220726 0.06966885 -0.09620544 -0.30592525
-0.49487942 -0.0634826 0.11604982 -0.48860508 -0.57108015 -0.6494021 -0.70780796 -0.19451137
0.10313303 -0.16833703 0.13284667 0.45579734 -0.095430754 -1.120859 -0.33963108 -0.7056637
0.3843256 0.08238259 -0.20798573 -0.42071143 0.29594427 -0.15500595 -0.5020216 0.23474851
-0.42875165 0.4372527 -0.68029934 -0.3083166 0.23112178 -0.012572451 -0.19030158 -0.6396862

node_encoder.layers.1.running_var f4 [64]
00000000: 894c 323d 631a c93c 644b 3f3d a817 113d
00000010: 316b ce3c ab4b a83c 63d2 7e3c 89b5 bd3c
00000020: 8a1d f53c 3fd9 393d eb71 6f3d 3b4c 973c
00000030: 7f3e ca3c d441 0b3c 0a43 3f3d 7d4a 853c
00000040: 706f 5d3d 3caa 483d ba56 623c 276f 1a3d
00000050: 6763 9f3c 792e 093c 90ff 223d f9c0 133d
00000060: 0f6f 9f3d 5492 273d 3fcc 193d d010 cd3c
00000070: 81c0 bc3c 3068 023d be7f 893c 6b26 173d
00000080: 8b56 ee3c 9a49 273d 9c08 983c 2f13 573d
00000090: f18f 953d 7f16 153d 1bf1 983c 5434 323d
000000a0: 9568 d43b 2c23 393d 0780 4c3d ca5e e43c
000000b0: 1e4f 043d 8fe7 873d b89f 253c 5c38 493d
000000c0: 871e 593c 5aa0 903d 5565 133c 3a9f 5d3d
000000d0: f672 923c 8c0a 083d 07de fe3c 5915 143d
000000e0: d593 af3c d144 5b3c dbe8 123d 3562 663d
000000f0: f1c7 5c3c 1434 bf3c ab96 093c 74aa d33b
0.04353002 0.024548715 0.046702757 0.03542295 0.025197597 0.020543894 0.01555309 0.023157852
0.029921312 0.045373198 0.05845825 0.018468967 0.024688004 0.008499581 0.046694793 0.01627087
0.054061353 0.048990473 0.013814623 0.03770366 0.019456578 0.008372896 0.039794505 0.036072705
0.077848546 0.040911034 0.0375483 0.02503243 0.023041012 0.031837642 0.016784545 0.036901873
0.029094001 0.040841676 0.018558793 0.05250853 0.07302845 0.036398407 0.018669656 0.043506935
0.0064821937 0.04519956 0.049926784 0.02787723 0.032302015 0.06635963 0.010108881 0.049126014
0.013251907 0.07061835 0.008996327 0.05410693 0.017877083 0.033213183 0.03111173 0.03615317
0.021432796 0.013383106 0.0358666 0.056246 0.013475404 0.023340262 0.008397738 0.0064595286

node_encoder.layers.3.weight f4 [64, 64]
00000000: d414 823d edd9 a3bd e9ed 733d 5e2e 4a3d
00000010: 825a b23d 41d0 cebd 632f 983d b8a6 90bd
00000020: 2098 3e3d 80cd d63d 6343 61bc 813a eabb
00000030: dcb4 0bbd 7867 f4bd aae1 653d 4d75 04be
00000040: c6d3 ac3d 12ce b03d 5552 ea3d 23f2 2fbd
00000050: 5426 b9bd 703b 593c 0c8c a03d b981 03be
00000060: d10f a3bc 7ce6 95bd d700 b9bc f412 9ebd
00000070: daa9 59bd 36cc 20bd 4072 ffbd 6a24 e63d
00000080: aa39 ea3d c554 9abc 4b7f 9dbb 5f0b 42bd
00000090: 8e83 fbbd d42c 04be ca95 3b3d 8507 95bd
000000a0: 24f8 90bd 3211 fdbb e084 4bbd 069b 31bd
000000b0: ba0b 37bc f28e bebc 2f8d 3dbd faa9 98bd
000000c0: 1fae d9bd dd61 c33d d058 20bd 0c2f 9d3c
000000d0: 94b0 3ebd 0083 9a3b ac53 043e 4dc4 3d3d
000000e0: 883a ccbd 9259 1d3d ccfc e83d 6827 b53c
000000f0: a566 a23d 0200 f83d ceb6 31bc f77b 023d
00000100: d463 bfbd 0e87 91bc c5ec c73d 5356 8f3d
00000110: 9fa1 8dbd fdeb bfbd b442 c5bd 3397 e6bd
00000120: 5881 d2bd e052 29bd 2fc1 bc3d 0b46 f23c
00000130: d4dd cdbd 145a e5bd a4b2 893d b66f b0bd
00000140: ff21 1bbc 1745 913d 28ae 58bd 1187 abbc
00000150: 77a4 e7ba 8291 2dbd 5c60 61bd 34e9 d5bd
00000160: a9c9 bebd 5d66 60bd 182e e93d c21c 97bd
00000170: 73ad 9bbd 4fb5 053d 2021 2f3d 1953 9d3d
00000180: 4e9a d43d a665 8b3d 129c ebbd 4ab9 a03c
00000190: a156 b33d 6284 a4bc f72f 9dbd 3000 e43d
000001a0: 90d7 1bbd 086c 94bd c3af d0bd 533e 5e3c
000001b0: bf85 293d ada5 db3c 444e 063d 7ecb d9bd
000001c0: e440 e5bd a39f a4bb 6c4b fb3d 8e89 7b3d
000001d0: caf4 86bd c888 15bc 872b aabd 0e38 4cbd
000001e0: cdd3 f43c 7752 763d 5cc1 bd3d b76d f9bd
000001f0: 49e0 a33d c722 a9bd 781c 623d 7876 e13d
00000200: 1704 bd3b 9e18 e43d b72f f1bd ef8d 2bbd
00000210: 7a7e 7c3d ac7f c0bc a002 aabc 88d1 5dbd
00000220: 1b1c a73d a3fc 843d d486 163d 7f29 9bbd
00000230: c7b2 ccbd 25de 9b3c af8c bd3c fec4 5abd
00000240: de89 18bd 7b64 a93d ff0b 77bb c547 553c
00000250: 0c72 03bd 023e dbbd d871 f5bd 37be 6abd
00000260: eb73 8cbd 968b 123d 12ed efbc 58fa 2fbd
00000270: 15d7 e53d 8096 243d c97c a93d 3727 84bd
00000280: c9c2 32bd 9bbe 2c3d e46f b1bd fbbd b2bd
00000290: 69f9 01bc 35d8 24bd b957 c7bd aeaf 8f3d
000002a0: 387e c63d d63b 713c ffad bfbc 24ac f1bd
000002b0: 447e 1ebd e23a d33c 4b67 593d 8db1 27bc
000002c0: 2181 75bd b883 9d3d 5220 d2bd 3463 ae3d
000002d0: 0605 7abd 62df d23b 1747 d4bc bc9a 4a3c
000002e0: 9a1f 37bd 991a c93d 48e9 6ebb 08fa d63d
000002f0: 2b86 db3d 86ca 95bd 0720 b6bd aee1 ca3d
00000300: 7e2d bc3d 1434 b0bd c82e 6d3b 4834 02be
00000310: f74a c1bd c006 d23c 7dc6 b33c 3711 023d
00000320: d4ec 18bd 7bbd d43d c8c9 ce3c b4d5 89bd
00000330: e77b 40bc c4dd 9e3c ce64 6a3d c3cd aabd
00000340: 145d 4c3d 2033 73bd 0c24 b7bd c894 9ebd
00000350: ac7b 013e c88f c63d efee f83d 4c04 af3d
00000360: 3bbd d53d ed5f 6dbc 6abf 9dbd 2c84 563d
00000370: 423c 6ebd e41c aebd b226 09bd d573 143d
00000380: dee6 973d 2e3c 4bbd 096a 8abd 8b4a 873c
00000390: cf4e 91bd 05ce b7bd 9a7b 833d 5c33 d8bc
000003a0: 9611 f83d a8c3 f33d 3200 2c3d 24e5 693d
000003b0: f869 a03c 766b ebba 4091 24bb 7673 0dbc
000003c0: 9eb3 753d 52c9 de3d 5b23 c3bc 1c83 80bd
000003d0: 8ac7 9cbc 85f1 67bd dedc de3c a8ff c93d
000003e0: 06d2 dc3d 9ee4 423d 9afa cdbd b296 9abd
000003f0: 2d74 9bbc c195 28bc 9cbb 8c3c ab22 edbd
0.06351629 -0.080005504 0.05955306 0.049360625 0.08708669 -0.10098315 0.07430913 -0.07063049
0.046531796 0.10488415 -0.013748976 -0.0071480875 -0.034108028 -0.119337976 0.056123413 -0.12935372
0.0843883 0.08633055 0.11441485 -0.04295553 -0.09040514 0.0132588 0.07839212 -0.12842454
-0.019905003 -0.07319352 -0.022583408 -0.07718459 -0.0531405 -0.03925725 -0.12472963 0.11237414
0.1143678 -0.01883925 -0.0048064343 -0.047374126 -0.122809514 -0.12907726 0.045797147 -0.07276825
-0.07078579 -0.007722997 -0.049687266 -0.043360732 -0.011172229 -0.023261521 -0.04627722 -0.074542955
-0.10628914 0.0954015 -0.0391472 0.019187473 -0.046555117 0.0047153234 0.12922543 0.046329785
-0.099721014 0.0384155 0.11376342 0.022113517 0.07929734 0.121093765 -0.010846807 0.031856503
-0.093452126 -0.017764594 0.09761957 0.06998887 -0.069155924 -0.09371183 -0.09631863 -0.11259308
-0.102785766 -0.0413388 0.09216534 0.029574415 -0.10052076 -0.11198822 0.06723526 -0.08615057
-0.0094685545 0.07093256 -0.052900463 -0.020938428 -0.0017672916 -0.042375095 -0.055023536 -0.104448706
-0.09315807 -0.05478512 0.11385745 -0.07378532 -0.07601442 0.032643612 0.0427562 0.07681865
0.10380994 0.06806497 -0.115043774 0.019619603 0.087567575 -0.020082656 -0.07675164 0.11132848
-0.038047373 -0.07247168 -0.10189774 0.013564664 0.041387316 0.026812399 0.032789484 -0.10634516
-0.111940175 -0.005023913 0.12270245 0.06141048 -0.065896586 -0.0091268495 -0.083090834 -0.049858145
0.02988615 0.06013724 0.09265396 -0.121791296 0.080017634 -0.082585864 0.05520293 0.11008924
0.00576831 0.11137508 -0.11776679 -0.041883405 0.061644055 -0.023498379 -0.020753205 -0.054154903
0.081596576 0.06493499 0.036749676 -0.07576274 -0.099950366 0.019026825 0.023138372 -0.053410523
-0.037240855 0.08271118 -0.003769636 0.0130175995 -0.032091185 -0.107051864 -0.119846046 -0.05731031
-0.06858047 0.03577765 -0.029287849 -0.042963356 0.11222664 0.04018259 0.08275754 -0.06452792
-0.043642793 0.042173963 -0.086639196 -0.08727642 -0.007932999 -0.040245254 -0.09733529 0.0701593
0.09692043 0.014723739 -0.023398397 -0.11800411 -0.038694635 0.025784913 0.053077023 -0.0102352025
-0.0599376 0.07691139 -0.10260071 0.08515015 -0.061039947 0.0064353207 -0.025912805 0.012365993
-0.044707872 0.09819526 -0.0036454964 0.104969084 0.1071895 -0.07314019 -0.088928275 0.09906326
0.091883644 -0.08603683 0.0036191214 -0.12715256 -0.094381265 0.025637984 0.021945233 0.0317547
-0.037335232 0.10387703 0.025242701 -0.06730214 -0.011748291 0.019392855 0.05722504 -0.08340027
0.049893454 -0.05937493 -0.08942422 -0.077432215 0.12644833 0.09695393 0.12154948 0.085457414
0.104364835 -0.0144882025 -0.07702525 0.052372143 -0.058162935 -0.08501604 -0.03348417 0.03624328
0.07417081 -0.04961794 -0.06758506 0.016515037 -0.0709511 -0.08974842 0.064200595 -0.026391678
0.12112729 0.11902553 0.041992374 0.05710329 0.01958178 -0.0017961103 -0.002511099 -0.008633485
0.05998575 0.108782426 -0.02382057 -0.06275007 -0.019138116 -0.056626815 0.027204927 0.09863216
0.10782246 0.047581308 -0.10057564 -0.07548274 -0.018976295 -0.01028961 0.017179303 -0.11578878

node_encoder.layers.3.bias f4 [64]
00000000: 288b 1739 af3a f73c 877c cdba 89dc 7dbd
00000010: e322 be3c 0f00 3a3d 638c 17bd 1951 57bd
00000020: 3c7b 67bd b6b2 06bd b03e 223b 0bfc 56ba
00000030: 322f ad37 94da f4bb 6d25 493d f329 013a
00000040: 244a 35bd a245 f5bb f0f0 38bd 7a6c 8cbc
00000050: 8d09 b6bd 1b62 f3b9 f064 8bbd a719 ac3c
00000060: a289 693d 4f99 83bd 05fc 1abd 0e48 8fbd
00000070: 0e1e fd3b 047e 723a cc41 15bd 91f7 403d
00000080: e69f c73c 3cf5 abbd 76df dfb9 ebb0 d6bc
00000090: 2bae 093a e56a 293d 3d5b 183b 9d4e 6ebd
000000a0: 91cc 723d d79e aebd 2cbe 83bc 7a32 ab3c
000000b0: 43fa a63d faf2 bc3d 1db6 94bb 6f5e 753c
000000c0: 5c8a a5bd 330f 80ba 8938 4cbc cdc3 1b3c
000000d0: 3095 5abd 63c9 343b 7186 153d 5087 8c3d
000000e0: a1e4 553a ad82 ae3d 456c b6bd 9fe4 1abc
000000f0: 144f a53c 6ecb d93b 730c fe3c 2fc5 5ebd
0.00014452322 0.03017935 -0.0015677371 -0.061977897 0.023209995 0.045410212 -0.036999118 -0.052567575
-0.05651401 -0.032885276 0.0024756603 -0.00082010095 2.0645184e-05 -0.0074723456 0.049107958 0.00049272104
-0.04426016 -0.0074851075 -0.04515165 -0.01714157 -0.088885404 -0.00046421666 -0.06806362 0.021008326
0.057016023 -0.06425726 -0.037838 -0.06996165 0.00772453 0.0009250345 -0.036439702 0.047111098
0.024368238 -0.08396384 -0.00042700366 -0.026207408 0.00052520883 0.04136171 0.0023247742 -0.05818044
0.05927712 -0.0852639 -0.016081892 0.020898093 0.081532024 0.092260316 -0.004538311 0.014976128
-0.080830306 -0.0009770155 -0.012464651 0.009507132 -0.053364933 0.0027585856 0.036505166 0.06861746
0.00081593735 0.08521018 -0.089073695 -0.009453922 0.020179309 0.006646565 0.031011796 -0.054387268

node_encoder.layers.4.weight f4 [64]
00000000: ed8b 803f deff 813f dc16 803f 7eeb 803f
00000010: 0bbf 7e3f 0a4a 7f3f 560e 803f ee3c 803f
00000020: b34e 7f3f 6081 7f3f bb8c 7e3f cd16 803f
00000030: 0085 7f3f b905 7f3f 4da4 813f dc03 7e3f
00000040: 78e9 7d3f 40ca 803f d327 7e3f 9547 7f3f
00000050: 6a6f 813f 1469 7f3f 5789 7f3f 340c 813f
00000060: e37b 813f d42b 803f adc6 803f 5889 803f
00000070: 5e74 803f a516 7e3f 34ed 7f3f 83ef 7b3f
00000080: 50ea 803f 3e8b 803f 9e81 803f 41e7 803f
00000090: 285e 803f f73b 803f 7c3a 7f3f 968c 813f
000000a0: ca81 7f3f 4750 803f 2c64 803f ee98 7e3f
000000b0: e37d 7c3f 881e 813f b906 813f 8f56 7e3f
000000c0: e1ea 7f3f 8a2e 7e3f 5b8d 7f3f 4986 7e3f
000000d0: b2ff 7d3f 687e 7f3f e1b5 7d3f 218a 803f
000000e0: 50e2 7f3f ba7e 813f f0a5 803f 2c74 7f3f
000000f0: cbd4 813f bd9b 7f3f 253d 7f3f c5ce 7d3f
1.0042702 1.015621 1.0006976 1.0071867 0.9951026 0.9972235 1.0004375 1.0018594
0.9972946 0.99806786 0.9943349 1.0006958 0.99812317 0.9961811 1.0128266 0.9922464
0.9918437 1.0061722 0.99279517 0.997186 1.0112126 0.9976971 0.9981894 1.0081849
1.0115932 1.0013375 1.0060631 1.0041914 1.0035512 0.992533 0.9997132 0.9841234
1.0071507 1.0042493 1.0039556 1.0070573 1.0028734 1.00183 0.99698615 1.0121028
0.9980742 1.0024499 1.003057 0.994521 0.9862959 1.0087442 1.0080177 0.9935083
0.9996777 0.9928976 0.99825066 0.9942365 0.99218285 0.99802256 0.9910565 1.0042154
0.999547 1.0116799 1.005064 0.9978664 1.0143064 0.9984701 0.99702674 0.9914363

node_encoder.layers.4.bias f4 [64]
00000000: 16fa 5c3c 6e8d 2c3a b81d c5ba 7a4c 64bb
00000010: 3dcc 31bc 79d8 19bc c529 11bb cff8 b9bb
00000020: b447 e23b f1a8 4ebb e1f3 76bc 1bdf 843b
00000030: 08a1 443b e2c5 abbb fb57 e8bb 7cac d7bb
00000040: 894d f5b9 84bd 623a 922e 613b 4a69 af3b
00000050: 3845 61bb 6a65 ce3a f0e8 ff39 691f bdb9
00000060: acec c23b 4d7d 3d3b 7588 e3ba 30f2 dc3b
00000070: c57b 203a 88e3 37bc 6e9c 153b de4a 6fbc
00000080: 510f 91ba 7632 043b b8d0 00bc 67f0 443c
00000090: 32a2 d7ba 41b1 80bc 2f92 7c3c 3ddc 5b3c
000000a0: ddd0 53bc 9cbf 0cbc 17ec 50ba 8a95 83bb
000000b0: 16f5 23bc d854 3e3c d7bb ef3b c96a afb9
000000c0: daa5 583b 0f2f e9bb 8ae9 393b 40c0 d8bb
000000d0: e362 fabb 3b3e 4c3b e2cb 0bbc ac0e aaba
000000e0: 9387 243c 4cb4 673c 5912 54bb 8e6a eabb
000000f0: 49b8 1b3c 47c8 80bb 8485 c83b 8feb 3f3b
0.0134873595 0.0006582354 -0.0015038764 -0.0034835623 -0.010851917 -0.00938999 -0.002215014 -0.0056754122
0.0069055203 -0.0031533802 -0.015072794 0.0040549166 0.0030003209 -0.0052420953 -0.007090566 -0.006581841
-0.0004678781 0.0008649456 0.0034360033 0.0053531276 -0.0034373533 0.0015746776 0.00048810942 -0.00036072292
0.0059486236 0.0028913796 -0.0017359393 0.006742738 0.0006121959 -0.011223681 0.0022828835 -0.014605252
-0.0011067187 0.0020171679 -0.007862262 0.012020207 -0.0016451536 -0.015709521 0.015415712 0.013419208
-0.012928215 -0.008590605 -0.00079697504 -0.004015629 -0.0100071635 0.011616908 0.0073160934 -0.00033458162
0.003305784 -0.0071162055 0.002836796 -0.006614715 -0.0076411827 0.0031165022 -0.008532496 -0.0012974343
0.010042089 0.014142107 -0.003235957 -0.0071538156 0.009504386 -0.003930125 0.006119432 0.002928469

node_encoder.layers.4.running_mean f4 [64]
00000000: c5c4 16be eddc 89be 97a7 29be 6a57 823c
00000010: e3ef 683d 683c 9ebe 48dc 003e 8f2f 58bc
00000020: 5587 d8bc 789a 443e fbc6 23be bdc1 97bd
00000030: e43c 6d3d 759b 9abd e4d4 ba3e f46d 2a3e
00000040: 2b23 033e 65cb 44be 6c4f 47be e3f0 833e
00000050: ec28 84bd 365b 34be ffa0 bc3d 62ba 5e3e
00000060: 5418 e63d 6034 04be cd1b 14bd 6466 06bf
00000070: 67f5 2e3e 1402 003f 3617 7dbe b95a d2be
00000080: c8cb a53a 6a79 11bf 5366 633e ba77 613e
00000090: 1f86 af3e e84c 88be 8e64 023f 5801 2bbe
000000a0: fc05 943e 8916 14be 785e 82bd 85a0 123e
000000b0: 4a1d a2bc 015f c53d 8b03 2f3e 1882 cebe
000000c0: 0cb8 36be 0605 10be 790c 49be a442 aabe
000000d0: a444 bbbd 4218 77be cc60 9d3c a81f 813e
000000e0: 36a3 85be 445d a63e 456f bb3c 0493 543e
000000f0: c3c1 55bd 5ab4 2f3e 16e0 2f3e 5ad3 28bd
-0.14723499 -0.26926365 -0.16567837 0.015910823 0.0568694 -0.3090546 0.1258403 -0.013194933
-0.026431719 0.1919955 -0.15993874 -0.074099995 0.057919398 -0.07549182 0.36490548 0.16643506
0.12806384 -0.19218214 -0.19463891 0.2576972 -0.06453118 -0.17612919 0.09210395 0.21750787
0.11235109 -0.12910604 -0.036159325 -0.52499986 0.17085801 0.5000317 -0.24715886 -0.4108484
0.0012649233 -0.5682589 0.22207002 0.22018328 0.34282014 -0.26621175 0.50934684 -0.16699731
0.28910816 -0.14461721 -0.06365675 0.14319046 -0.019789357 0.09637261 0.17091195 -0.4033363
-0.17843646 -0.14064416 -0.19633664 -0.33253968 -0.091439515 -0.24130347 0.019211195 0.25219464
-0.26101083 0.3249303 0.022880206 0.20759207 -0.05218674 0.17158642 0.17175326 -0.041217186

node_encoder.layers.4.running_var f4 [64]
00000000: 3548 bf3d afde bf3d 8a54 c03d e36f b33d
00000010: dc5c c63d c5f2 323d 8d6f 873e f25c 4b3e
00000020: d702 623e ad4c ac3d 4998 3e3d 2dac c73d
00000030: e09c fa3d 5e3d 463e ca8c 343d d32e 793d
00000040: 3649 db3d da4a 923d 0691 723d bdc3 7e3d
00000050: 4fb1 923d 0065 823e 19ed 493e 1aa5 033d
00000060: 38da 063e 8c92 293e 4564 353e 283d 363d
00000070: ed5b 043d 1c08 f03d 6436 943d 81e6 6a3e
00000080: 8247 f23c b5e4 b13d fd4b 7e3d eb60 043e
00000090: 4f49 bc3d f27b 853e ea65 053e d5d2 383d
000000a0: 2c43 103e fc34 f13d 3089 003e 3d18 483e
000000b0: c010 c03d 8e00 eb3d dda5 be3d 5a33 2e3e
000000c0: bfce e13d b3c7 a33d ed8e a53d 49b5 1a3e
000000d0: fad4 4b3e d2d1 ab3d e471 3f3e cdb1 083e
000000e0: 8c21 703e a0c2 643d 65fd 0f3e 624e 013e
000000f0: e8d5 ae3d b156 443e 08ef 0e3e c278 333e
0.09339944 0.093686454 0.093911245 0.08761575 0.0968568 0.043688554 0.26452294 0.19859675
0.22071396 0.08413062 0.04653195 0.09749637 0.12236953 0.19359347 0.04407958 0.06083567
0.10707323 0.07143183 0.059220336 0.06219839 0.07162725 0.25467682 0.19719352 0.032139875
0.13169181 0.1655981 0.17714031 0.044491917 0.03231423 0.11720297 0.07236937 0.22939493
0.029575113 0.086862005 0.062084187 0.12927596 0.0919367 0.26071125 0.13027158 0.04512294
0.14088124 0.11777684 0.12552333 0.19540496 0.09378195 0.11474715 0.0930898 0.17011777
0.11025762 0.07997074 0.080839016 0.15108217 0.19905463 0.083896294 0.1869579 0.13349076
0.23450297 0.05584967 0.14061506 0.12627557 0.08536893 0.19173695 0.1395837 0.17526534

node_encoder.layers.6.weight f4 [32, 64]
00000000: f6b4 b53d de22 dfbd 3be3 9ebd ca4c 78bc
00000010: 6941 f1bd 520a ebbd ed29 dfbd f8b8 ce3d
00000020: ea6a c93c ad8b 2ebd 691c 3d3a 8394 ecbd
00000030: d2b3 f4bd f4a9 c6bd ac45 fdbd ba11 a43d
00000040: f462 2fbd b602 09bd 4f67 fbbd d841 cd3b
00000050: 168c 88bc 18d7 aebd 0420 a23d 12bc d43d
00000060: e15b c2bd 4e8a 933d 1cf7 7dbc 1cdb 523c
00000070: f3ae 673d 6c17 eabc b016 ec3d 99c6 983d
00000080: c86d 94bd 7d75 a1bd 1032 04be a659 073d
00000090: 51f9 c8bd d5a4 c8bd f5fd a9bd 7e42 01be
000000a0: b4af d5bd c770 cd3d f44c a53d d665 d83d
000000b0: a4e4 70bd bb9f 4dbd 76be 74bd d218 2cbc
000000c0: 1585 b1bd 32e2 4e3c 7c84 90bd 383b 083d
000000d0: d3d0 e03d a026 9f3c ea38 a73d 7cef bdbd
000000e0: c26f e5bc 97a3 abbd 9032 cfbc 0e9c 55bd
000000f0: 836b a2bd e6aa f2bd c1bc 32bd 5391 a43c
00000100: b98a bfbc 88c3 fabd f526 b33d 6823 ac3d
00000110: e74a 9ebd 5057 513c 8830 b53d 05b4 fbbd
00000120: 0b37 d9bd 08fe 823d 5084 b73a f1ae 4d3d
00000130: f22d 56bd 3638 8e3c 9f1a a13d 74c6 e6bc
00000140: cea9 14bd 5b44 00be 3da4 b7bc bbd6 9a3d
00000150: 77ab ffbd 89e4 f1bb 38c6 b13d de8a 04bd
00000160: e75b 55bd 0cb3 27bd 2ae8 63bd 868f b33c
00000170: 3fc7 07be 7854 133d 3773 d2bc 4c05 87bc
00000180: 5263 eebb e31f 9c3d 5ab1 a4bd a6a3 f7bd
00000190: 31ba c2bd 33c4 a9bd f783 87bd 2af8 d23d
000001a0: 9ae3 babd c16e 8dbd f717 d1bd e8d0 6fbd
000001b0: ae80 febb e847 a4bd 8619 05bc c0d2 3d3d
000001c0: ea4e babc f450 613d 9f96 053d 5547 fb3d
000001d0: a87a 52bc e1f7 d83d 1f48 bf3d bb06 513d
000001e0: e3b4 983d 1f45 b3bd e551 aabd 6ecf 673d
000001f0: a73c 273d 0984 d03d b100 bdbc 1255 f4bc
00000200: b91d a13d df27 c53b 9432 fa3d c393 82bd
00000210: 2095 0fbd 64e4 abbb f0f1 713d ef54 d5bd
00000220: 7633 2cbd e4ba c03d 8cb3 f53c e95d ac3d
00000230: 90e1 2ebd 7afe 97bd 6133 cdbd f07f 8cbd
00000240: e709 a9bd 8ba2 8d3d edeb 213d acbe 9bbd
00000250: 2049 f53d 24bc 063d 1109 2e3d 40e4 71bd
00000260: 9ff2 a03d 1772 b7bd 33e2 bd3d aa10 87bd
00000270: 9e2b 513d e64a 53bd df37 9f3d 4b23 dcbd
00000280: 8bbb 3ebc 0736 27bd a402 a9bd 8964 6dbd
00000290: 52bc 39bd 7bc5 bc3b b2f0 b73d b137 b5bc
000002a0: aa10 f03d 59d0 6bbd 159f 71bd ed91 03bc
000002b0: 8ca2 9bbc 1dea 453d a89c e43d 54c0 153d
000002c0: aac8 d8bd a01a 3bbd 51ff acbc 41ea ccbd
000002d0: 365d ed3c 921a d83d b58e 6e3d d4e5 8cbc
000002e0: 7462 7cbc 9671 83bd 5574 8bbc d9c6 e63d
000002f0: f9e4 96bd 4be0 793c 9da7 b2bd 5686 ecbc
00000300: a695 2e3c ebf2 dabd 3aba 233d 2760 f0bd
00000310: 21c2 3cbd d81f bf3d 600e 023e 78c3 99bb
00000320: 850c c1bd 87a9 c6bd 1d6e 17bd c4b9 8ebd
00000330: 514d c43d 7b89 aebd bc42 903d c465 9b3c
00000340: 8e72 2cbd 735c cf3d e2b0 673d b7fd f83a
00000350: 5bdc a3bd 22ff 38bd c74b 353d ec49 d43d
00000360: 2ec7 58bd b30f 2cbd a962 f8bd af6e 8f3d
00000370: 081b f83d f491 a23d 47e7 a1bd ad06 a23d
00000380: 259e 2dbd 154a 953d e78e 813d c770 cdbd
00000390: 032e b23c ab2f 6f3d 3782 92bd 72de df3d
000003a0: 9131 bd3d 89a5 e63d 6d05 3c3c 06c6 85bd
000003b0: cb9e 8dbd 3728 493d 2f6f abbc 3bfd bd3d
000003c0: 8434 d43d 9fea 593c e786 ddbd 09bb 443d
000003d0: 6476 ce3d 3680 14bd 3764 93bd 8452 27bd
000003e0: 8bbf f23b 0304 d6bd 93d6 753d b73e 783d
000003f0: 9a8f 4fbd 088f 5bbd 0541 8ebd 1109 d33d
0.08872406 -0.10895322 -0.077581845 -0.015155027 -0.11780054 -0.11476578 -0.108966686 0.10093874
0.024587113 -0.042613674 0.0007214011 -0.11551764 -0.119483605 -0.09700385 -0.123668045 0.080111936
-0.04281898 -0.03344985 -0.12275564 0.0062639527 -0.01666836 -0.085371196 0.07916263 0.10387434
-0.09490181 0.07204114 -0.01550081 0.012869623 0.05656333 -0.028575622 0.11527765 0.074597545
-0.072475016 -0.07883737 -0.12909722 0.03304448 -0.09813178 -0.09797064 -0.083003916 -0.12623021
-0.10433903 0.10031276 0.08071318 0.10566299 -0.0588118 -0.05020116 -0.05975195 -0.0105039645
-0.086679615 0.012627171 -0.070565194 0.0332596 0.1097733 0.019427598 0.08165152 -0.09274194
-0.028007392 -0.08380812 -0.025292665 -0.05215078 -0.079306625 -0.118490025 -0.04363704 0.020088827
-0.023381578 -0.12244326 0.08747665 0.08405191 -0.0772913 0.012777165 0.08847147 -0.122901954
-0.10606202 0.06396109 0.0014001224 0.050215665 -0.05228991 0.017360788 0.07866406 -0.028170802
-0.03629475 -0.12526076 -0.022417182 0.07560488 -0.12483876 -0.00738198 0.08680385 -0.032358997
-0.052089598 -0.040942237 -0.05564133 0.021919023 -0.132596 0.035969228 -0.025689704 -0.016482018
-0.0072750235 0.076232694 -0.080416396 -0.1209176 -0.095081694 -0.08289375 -0.06616967 0.1030124
-0.09125443 -0.0690589 -0.10209649 -0.058548838 -0.0077668047 -0.080215275 -0.008123761 0.046343565
-0.022742707 0.055008844 0.032614347 0.12269465 -0.012846626 0.10594154 0.09339928 0.05103181
0.074563764 -0.08753418 -0.083164014 0.056594305 0.040829327 0.10181434 -0.023071619 -0.029825721
0.07866997 0.006016716 0.12216678 -0.063758396 -0.035054326 -0.005245732 0.05906862 -0.104165904
-0.042041264 0.094106466 0.029992841 0.084163494 -0.042695582 -0.074215844 -0.100195654 -0.0686034
-0.08253842 0.06915768 0.039531637 -0.07604727 0.11976838 0.03289427 0.042489115 -0.059055567
0.07858776 -0.08957308 0.0927166 -0.06594975 0.051066987 -0.0515851 0.077743284 -0.10748919
-0.011641393 -0.04082301 -0.08252457 -0.057957206 -0.045345612 0.005760846 0.08981456 -0.022121282
0.117219284 -0.057571743 -0.058989603 -0.008030397 -0.018998407 0.04831897 0.11162692 0.03656037
-0.10585149 -0.04567969 -0.021117838 -0.10005618 0.02897511 0.10551943 0.058241565 -0.017199434
-0.015404332 -0.06418149 -0.017023245 0.11268396 -0.07367892 0.0152512295 -0.08723376 -0.02887265
0.010655796 -0.10690864 0.03997252 -0.117370896 -0.046083573 0.093322456 0.12700796 -0.004692491
-0.09426216 -0.097003035 -0.036970247 -0.06969026 0.095850594 -0.08522316 0.070439786 0.018969424
-0.042101435 0.10125055 0.056565173 0.0018996511 -0.08001014 -0.04516519 0.04426172 0.10365662
-0.052924328 -0.04200716 -0.12128193 0.07003533 0.12114531 0.079379946 -0.07905441 0.079114296
-0.042387147 0.07289521 0.063260846 -0.10031276 0.021750456 0.05839507 -0.07153743 0.109311
0.0923797 0.11262042 0.011475903 -0.065319106 -0.06915053 0.049110617 -0.02092704 0.092768155
0.10361579 0.013300567 -0.10816746 0.048029933 0.10081175 -0.036255084 -0.07196849 -0.040850177
0.0074080876 -0.10449984 0.060019087 0.060606685 -0.05067406 -0.053603202 -0.06945995 0.10304464

node_encoder.layers.6.bias f4 [32]
00000000: 0323 493d 5ed6 fb3c fa7b 2a3d e362 16bb
00000010: 458a 8fbd f398 43b9 7a22 ae3d 8932 a23d
00000020: d228 39bd cffb 6a3d 4555 e93c 7bed a238
00000030: 7c00 243d ff41 3aba d56d 20bb 5d8e 5abd
00000040: 1b13 213b eb14 bf3d 26b5 483d 77d5 93bd
00000050: 8b77 b2b9 ff6e 513d 3e40 d4bc 9ead 203b
00000060: c3b9 0c3d f4fa 9b3d 0ee9 ac3d 5756 7cbd
00000070: 35c8 b5bd fa74 743d 0fa5 833a 0ec9 ab3d
0.049105655 0.030741867 0.04162214 -0.0022947125 -0.07008795 -0.00018653627 0.0850267 0.07919795
-0.045204945 0.05736905 0.028483042 7.768996e-05 0.040039524 -0.0007105171 -0.0024479527 -0.053358424
0.0024578038 0.09330162 0.04900088 -0.072184496 -0.00034039872 0.051131245 -0.02590954 0.0024517546
0.034356844 0.07616225 0.08442889 -0.061605778 -0.08876077 0.05968187 0.0010043698 0.083879575

edge_encoder.layers.0.weight f4 [64, 4]
00000000: 6b63 b53e ddb9 57be d541 0f3e 1805 1e3e
00000010: f243 33be 504b e53e af4d 4d3d b30c 20be
00000020: f824 eebe 743f c93e 95a4 f9be f846 ce3e
00000030: 1bca 20be ed08 adbd cc0e ad3d 9515 fa3e
00000040: bb42 a0be 287c b3be 3cbd a03e 53f9 63be
00000050: b361 49be b4f8 8e3e 1482 57be 3fec 9d3e
00000060: b086 53be c0bb c73e 14c7 f93e 70ba 5e3d
00000070: e1d2 1abe 30e7 8b3e 2c29 1b3e 4994 973b
00000080: f64b de3e dd1c cdbc dfde 3e3e 5606 0dbe
00000090: 6ca1 a1bd 8f9d f9bc 4dd0 3a3d 99cd 5d3e
000000a0: 8430 c03e e8a2 973e c51d 5dbe ed75 da3e
000000b0: 0d02 aa3e a65b 413e 9ab0 6c3d c40f 8bbe
000000c0: ec9a a0be 2485 c43c f55f b5be 231b 383e
000000d0: 79f3 e0be b38f e0be 0860 70be d7c0 923e
000000e0: 7143 ce3e 6512 d2be be09 9ebe ccb3 ce3d
000000f0: 7fbc b3bd 90e7 cfbe 4705 123e 6787 cebe
00000100: ea6b ce3c 4efa 483e 61be ed3e f286 d5be
00000110: 0a3f be3e d911 883d dd3b de3e c2cf f83e
00000120: 5d21 ebbd b470 89bd 1f63 08be 5179 cb3e
00000130: 9ab3 52be decc ae3e 08dd 513e 5de9 e73e
00000140: b662 b53e 9b28 cf3e ddfc d0be 23f4 87be
00000150: f329 b1be 9e6a 833e 9e18 e23d 655a 403e
00000160: bede 493e c64b eb3c fac3 383e 8214 90be
00000170: 7d9c a43e a953 dcbe 63f4 eabe 1df9 313e
00000180: 8393 ee3e 5903 38be 4906 f23e cf9d 35be
00000190: 7f8f c1be ec90 a6bd 45bc 8d3e 7f2c 83be
000001a0: 92a7 ee3e a828 71be 4a3b 61be 7292 54be
000001b0: be07 c4be e2c2 e83e 9608 92be 23f7 71be
000001c0: 804d 0dbe 16a2 d53e b1cd 7a3e 90e0 483e
000001d0: 828f 10be 45ce 7e3e c7c6 ad3d 15ca ce3e
000001e0: cfc0 ef3d 99ee bd3e aeea ad3e c7c7 a23d
000001f0: 8720 f0be e8a6 e33d 7f01 c3be 3f6e 933d
00000200: 20cb 3bbd bf72 c13e a775 c1be 7ca9 ccbe
00000210: 011c 563e 4edf af3e ec66 e3bd 5c3f 0f3e
00000220: d4d3 c93e bf21 313d 2963 14be 9f50 993e
00000230: 8095 e83e 25c8 b3bd cb43 ab3e ee38 cf3c
00000240: e1cf b8bd 341b 3dbd b3ce fcbe 1116 6c3e
00000250: a1fc 87be d138 dfbe 5fd1 88bd 1e7f 3abe
00000260: c20e a1be d3e8 f0bd 9683 43bd 11cc 073e
00000270: 759d 8c3d 9930 8ebd 6a4a ef3d 8ba3 9dbe
00000280: c82e dc3e e64f 713e 849d 9f3e 8ae0 debe
00000290: 8252 ac3e 6211 c63d 6113 f8be 0c1e e73e
000002a0: de78 01bc 99dd ad3d ff82 cd3e ade4 ad3e
000002b0: 12a9 e43e a9e8 edbe a860 fb3e 1fc3 ea3d
000002c0: 7a4a 8c3c 96db cebe 57df 84be 43fa ee3e
000002d0: 2f78 c33e 58f0 c53e d551 0ebd 521f 8cbe
000002e0: 5e0f e73d 5b8a 6bbe 7800 aabe 0897 223e
000002f0: 50f2 c23e 3e88 c9be e33b e6be f29a a63d
00000300: 998c 44be b1bc 85be 22a9 c9bd af7e 18bd
00000310: 278d 17be a477 b93e 008d 903e b174 173e
00000320: 86cd 2ebe a290 3cbd 041c 9f3e 930d 123d
00000330: e0dd fabe 40b0 4a3d 3d68 813e 0ed4 f4bd
00000340: b8c8 c6bd 3379 9abd f317 9a3e a4be c93e
00000350: a415 c5be 3baa a93e be69 573e 16a9 2e3e
00000360: 941e 97be 41d6 8cbe 80ad f93e 5ec2 e13d
00000370: 59cb ddbd b53d ccbd a770 ac3e b527 f3bd
00000380: ee63 af3e c77d 05be a750 ed3d 7972 fd3d
00000390: 1dcf 89be 3100 5a3b 9e6f b23d 1630 f6be
000003a0: 61fb b8bd b434 3a3d 7dfd d53e fee1 e53d
000003b0: e1d2 dbbe e76f 23be 2c89 f93e daef 86bd
000003c0: b62e bd3e 6f2c 523d bc87 ab3e ed62 56be
000003d0: 9091 f73e 2d06 de3d 33f6 e0bd 1e54 c03e
000003e0: 3a83 6d3e e574 b4be a671 0dbd 890e b73e
000003f0: 76fe f83d b306 18be e64f acbe a152 abbe
0.35427412 -0.21066995 0.13989957 0.1543163 -0.17506388 0.4478402 0.050122913 -0.15629844
-0.4651258 0.39306223 -0.4875838 0.4028852 -0.15702097 -0.08448968 0.08450088 0.4884459
-0.3130091 -0.3505566 0.31394374 -0.22263078 -0.19666176 0.2792412 -0.21045715 0.30844304
-0.20656848 0.3901043 0.48784697 0.05437702 -0.15119506 0.2732482 0.15152425 0.0046258313
0.4341733 -0.025038177 0.18639706 -0.13771948 -0.07892117 -0.030470638 0.045608807 0.2166046
0.37537014 0.29616475 -0.21593387 0.42668095 0.3320469 0.18882617 0.057785608 -0.27160466
-0.31368196 0.023989268 -0.35424772 0.17979102 -0.43935755 -0.43859634 -0.23474133 0.2866275
0.4028583 -0.4102966 -0.30866808 0.10092887 -0.08776187 -0.40606356 0.14259826 -0.4033768
0.025197942 0.19626734 0.4643431 -0.41704518 0.3715747 0.06644029 0.43405047 0.48596007
-0.11480973 -0.067109495 -0.13319062 0.39740995 -0.20576325 0.34140676 0.20494473 0.4529523
0.35426873 0.40460667 -0.4081792 -0.2655345 -0.34602317 0.2566728 0.110398516 0.18784483
0.19713876 0.028722655 0.18043509 -0.28140646 0.3215064 -0.43032578 -0.45889577 0.17380185
0.46596918 -0.17970027 0.4727042 -0.1773598 -0.3780479 -0.081331104 0.276827 -0.25619885
0.4661222 -0.23550665 -0.21995273 -0.2075899 -0.38287157 0.45461184 -0.28522176 -0.23629431
-0.13799095 0.41725224 0.24492528 0.19616914 -0.14117244 0.24883373 0.084851794 0.4038855
0.11706697 0.37096098 0.3396811 0.07948261 -0.46899816 0.11115819 -0.3808708 0.07198762
-0.045848012 0.37782857 -0.37785074 -0.39973056 0.2090912 0.34350055 -0.11103615 0.13989013
0.39419425 0.043245073 -0.14490952 0.29944322 0.4542656 -0.08778409 0.3345016 0.0252957
-0.09024025 -0.04616852 -0.4937645 0.23055293 -0.26559928 -0.43598035 -0.06680559 -0.18212554
-0.31456572 -0.11763158 -0.047732912 0.13261439 0.0686597 -0.06942863 0.11684115 -0.30788836
0.4300444 0.23565635 0.31174862 -0.43530685 0.33656698 0.09671284 -0.48452285 0.4514011
-0.007902352 0.08489532 0.40139005 0.33963528 0.4466024 -0.46466568 0.4909718 0.11462998
0.017125357 -0.40401906 -0.25951645 0.4667531 0.3817763 0.3865993 -0.03474601 -0.27367646
0.11282228 -0.23001997 -0.33203483 0.15877926 0.38075495 -0.39361757 -0.44967565 0.08135022
-0.19194259 -0.26120523 -0.09846713 -0.03723019 -0.14799939 0.3622409 0.28232574 0.14790608
-0.17070588 -0.04603637 0.31076062 0.035657477 -0.48997402 0.04948449 0.2527484 -0.11954509
-0.09706253 -0.07542648 0.30096397 0.3940326 -0.38493073 0.33137688 0.21036431 0.17056689
-0.29515517 -0.27507213 0.48765182 0.11023401 -0.10829801 -0.09972707 0.33679697 -0.11872808
0.34255928 -0.13036261 0.11587649 0.123753496 -0.26915827 0.0033264274 0.087126955 -0.48083562
-0.09032322 0.045460418 0.4179496 0.11224745 -0.42934325 -0.15960656 0.48737466 -0.06588717
0.369497 0.051311906 0.33501995 -0.20936175 0.48353243 0.10841022 -0.10984459 0.37564176
0.2319459 -0.35245433 -0.03453221 0.35753277 0.121579096 -0.14846306 -0.33654708 -0.33461478

edge_encoder.layers.0.bias f4 [64]
00000000: a24a 7e3e c174 493e 099d d3be e823 97bd
00000010: 8092 c73d aa43 d3be 4563 cd3e 12da d2bc
00000020: 28d3 31be cd1a e53c 65e1 1a3e 3a3c a83d
00000030: 6f87 e33e c9f3 803e fc33 adbc 1a7b 673d
00000040: 35a1 bc3d ddeb 2cbe 8621 ccbe 70c6 d1bc
00000050: a6e5 24be eb94 e2be 4683 183e 7ea4 38be
00000060: 13da e53e 6e07 193e 1fda 3b3e b09a ee3d
00000070: 8a8a 293e d5b9 943e bbda ac3e e4c8 44bb
00000080: a17b e6bd 24b6 d93d bacb 48be df19 dbba
00000090: 5421 ef3d c68f 463e 0860 e8be be1e 283e
000000a0: 021a 28be dd1c a5be 3adb 3bbe 51a1 c53a
000000b0: 43e1 5d3e a9c3 d4be 926a da3d 006a d73e
000000c0: 5878 81be 9237 b93d 13ad 2fbe f037 c03d
000000d0: 3081 3f3e e384 8ebe 1f8f b93d aec7 ed3e
000000e0: 7d1e 163c 0983 a6be 0667 1f3a d086 a63d
000000f0: 025c ff3d f490 23bc 5a3b a0bd a14d 60be
0.24833158 0.19673444 -0.41330746 -0.073798954 0.097447395 -0.4126256 0.401148 -0.02573875
-0.17365706 0.027966881 0.15125044 0.08214612 0.44439265 0.25185993 -0.021142952 0.056513883
0.09210435 -0.1688685 -0.39869326 -0.025607318 -0.16103229 -0.4425424 0.14893827 -0.18031499
0.4489294 0.1494424 0.18344925 0.11650598 0.16556755 0.2904803 0.33760628 -0.0030026967
-0.11254049 0.10630444 -0.19608966 -0.0016716084 0.11676279 0.19390783 -0.45385766 0.16417977
-0.16416171 -0.32248583 -0.18345347 0.0015077983 0.21667962 -0.41555527 0.10664858 0.4207306
-0.25287127 0.09043802 -0.17155866 0.09385669 0.18701625 -0.2783576 0.09060501 0.46441406
0.009162542 -0.32521847 0.00060807203 0.08131182 0.12468721 -0.00998329 -0.078238204 -0.21904613

edge_encoder.layers.1.weight f4 [64]
00000000: 5c83 7c3f 0678 7f3f bb04 7e3f 0030 803f
00000010: cc0e 7f3f 5bcf 803f 593c 7d3f 6267 803f
00000020: a208 803f f67b 7e3f 58ea 803f 7979 7e3f
00000030: 2090 7c3f 5b93 7b3f 29b1 7d3f 73c8 7e3f
00000040: 8f00 7c3f 6d7a 7e3f e405 7d3f b14b 7e3f
00000050: dfaa 7d3f dc27 7d3f 7dbe 7e3f 91f9 7c3f
00000060: c8e0 7d3f 2fba 7e3f 5a01 7e3f b861 803f
00000070: e227 803f 9269 7d3f 5dc4 7b3f 4acd 7d3f
00000080: 4c13 803f 4032 7e3f b70e 7e3f 265d 7e3f
00000090: 1e39 7e3f 3bbb 7b3f ee72 7f3f 9392 7c3f
000000a0: 926a 7e3f e7ee 7e3f 5395 7f3f fa38 803f
000000b0: 0d9b 7e3f 76ad 7a3f 5d4d 803f 754b 7c3f
000000c0: 030a 7e3f cb3e 7d3f 664b 803f 6265 7d3f
000000d0: d0df 7c3f 0022 7d3f 17b7 803f 15c9 7e3f
000000e0: 926e 7e3f fd00 813f 31b7 7f3f 0c62 7e3f
000000f0: cdbd 7e3f 8233 803f 77ff 7c3f fc19 803f
0.9863794 0.99792516 0.9922597 1.0014648 0.99631953 1.006328 0.9892021 1.003155
1.0002635 0.994079 1.0071516 0.994041 0.9865742 0.9827172 0.9909845 0.9952461
0.9843835 0.99405557 0.98837113 0.99334246 0.99088854 0.98888946 0.9950941 0.9881831
0.99171114 0.99502844 0.9922081 1.0029821 1.0012171 0.9898921 0.983465 0.9914137
1.0005889 0.99295425 0.99241203 0.99360883 0.99305904 0.98332566 0.99784744 0.98661155
0.99381363 0.99583286 0.99837226 1.0017388 0.9945534 0.9792093 1.0023609 0.9855264
0.99234027 0.9892394 1.002301 0.9898282 0.9877901 0.98880005 1.0055875 0.99525577
0.99387467 1.0078427 0.998889 0.9936836 0.99508363 1.0015719 0.9882731 1.000793

edge_encoder.layers.1.bias f4 [64]
00000000: 46de 01bb df42 123b 9922 19bc 9cdc 003c
00000010: 5166 cb3b 25f3 f53b 1422 0cbc a214 f33b
00000020: e72c 793b f1ed 0f3b 55c3 173c 1428 5cbb
00000030: 3229 4cbc 5128 8cbc af74 09bc c2cc 1dbb
00000040: 567a 60bc 3b7a b4bb f64a 3cbc 49d5 43bb
00000050: 9e52 b9bb c26d fdbb b8e0 feba 9fe2 afbb
00000060: 6175 b8bb c9da f0b9 fcc7 9fba 4934 db3b
00000070: 464b f73a d29f f7bb 162b 8abc e2b9 d4bb
00000080: a653 dc3a 4ad7 d3bb 6062 9abb cce9 b3bb
00000090: 8092 ecbb c2cb 51bc 0607 7a3a 9a44 37bc
000000a0: c173 aabb 49de 49ba 6b09 76ba ea8d 833b
000000b0: 1a50 a33a 3c96 5dbc af66 4f3b de99 4fbc
000000c0: 1be3 24bb 8fd8 0bbc a172 923b d9a7 22bc
000000d0: 7feb 17bc 590e 15bc f6ae 0d3c e5ef 86bb
000000e0: 3818 10bc 2cee e13b b967 04bb ef74 9fba
000000f0: a862 06bb aeb2 cc3b d4b4 59bc 9e4c c5bb
-0.0019816323 0.002231769 -0.009346628 0.007865097 0.0062072654 0.0075057917 -0.008553047 0.007418231
0.0038021149 0.0021961892 0.009262879 -0.0033593224 -0.012460994 -0.017109068 -0.008389636 -0.0024078344
-0.013701042 -0.005507735 -0.011492481 -0.0029881767 -0.0056556007 -0.0077340314 -0.0019445634 -0.0053675915
-0.005629227 -0.00045939375 -0.0012190337 0.0066895825 0.0018867038 -0.007556894 -0.016866248 -0.0064918855
0.0016809597 -0.0064648734 -0.0047114342 -0.0054905172 -0.0072196126 -0.012804927 0.000953779 -0.0111857895
-0.005201787 -0.00077006646 -0.00093855587 0.00401472 0.0012459785 -0.013524588 0.0031646898 -0.012670962
-0.002515978 -0.008535518 0.0044692312 -0.009927713 -0.009272455 -0.009097659 0.008647671 -0.004117953
-0.008794837 0.0068948474 -0.0020203425 -0.0012165586 -0.002050558 0.006246886 -0.013287742 -0.0060210964

edge_encoder.layers.1.running_mean f4 [64]
00000000: 5427 853e 3227 423e e6be cbbe 0ae1 69bd
00000010: e8cb b83d 6563 cebe 9bfa cb3e 8da7 09bd
00000020: c771 3dbe 28fb 273d 31a3 333e 4d55 953d
00000030: 5934 eb3e ae2f 8c3e 9dec 52bc a8f9 343d
00000040: db91 913d 5cff 1fbe 5b3b c4be 6036 74bc
00000050: f2e1 32be 8450 e2be c43d 0e3e f795 2bbe
00000060: 053e e23e 2046 0e3e 5230 3c3e e8e0 df3d
00000070: d42b 303e f042 9e3e fc59 ad3e 3ad1 eab8
00000080: 0370 08be 9138 ed3d bc56 3dbe 7e80 b0bb
00000090: 8b5f 0c3e fc31 463e 7de7 e6be 44c8 1d3e
000000a0: 4fc9 44be 470f 9abe 3555 36be e40a bf3b
000000b0: ae98 7d3e d2dc ddbe a17e fd3d 7dd1 df3e
000000c0: 8cfe 82be 8057 c23d a109 36be 511c b53d
000000d0: 318c 523e 8ab7 8fbe c1ef c33d 4e50 eb3e
000000e0: db69 973c 8a40 b4be eb37 0fba ac48 9e3d
000000f0: 0803 ee3d c642 983b 1d15 81bd 4750 6ebe
0.26006567 0.18960264 -0.3979408 -0.05709938 0.09023267 -0.40310207 0.39839634 -0.033607055
-0.18500434 0.041011006 0.17542721 0.072916605 0.45938376 0.27380127 -0.012873796 0.044183403
0.07107898 -0.15624756 -0.38326535 -0.014905542 -0.17469004 -0.44202054 0.13890749 -0.16756426
0.44187942 0.13893938 0.18377808 0.10931569 0.17204219 0.30910444 0.33857715 -0.00011196961
-0.13323979 0.11583055 -0.18490118 -0.005386411 0.13708322 0.19355005 -0.45098487 0.15408427
-0.19217418 -0.3008978 -0.17805941 0.0058301557 0.24765274 -0.43332535 0.12377668 0.43714514
-0.2558483 0.094893456 -0.1777711 0.088432916 0.20561291 -0.28069717 0.09567214 0.45959705
0.018483093 -0.3520549 -0.00054633495 0.07728705 0.11621672 0.004646632 -0.06302855 -0.23272811

edge_encoder.layers.1.running_var f4 [64]
00000000: 12a0 2b3d 0b8e ef3c 7521 6a3e 2be8 443c
00000010: fac9 d03d 3d21 483d db00 4c3e e7cd f53c
00000020: c5d0 703d 224d 923b 7443 8b3d f3cc d43c
00000030: 5cfe e23d 59c1 bd3d cd8b ee3d 483f 0d3d
00000040: 4cbc 273e 4246 273e d2ba 8e3c 989e 553d
00000050: b34e 243e a9dc 1a3d 884c 043d 3df1 443e
00000060: 0ad2 513e b58e a73d aa86 a33d 777b db3d
00000070: 410f 883d d473 8b3c c2b8 d03d fb38 163e
00000080: e8ad f53d 6e21 f33c 2e1b 323d 44d8 f33d
00000090: 4d70 393e f4ae 103d 7677 ae3c f856 543c
000000a0: 49d1 de3d 0ba7 453e 1e2e f93d 01b5 6f3e
000000b0: 0d73 8a3d b832 293d fa2a b83d e4c4 423e
000000c0: ed9f b03c eb93 9d3d a9e2 9f3d f22b b73d
000000d0: b4bf 8f3d aae1 903d 686e 4a3e 89ef b33d
000000e0: cdc7 073d 8a1f a23c d16b 063e 5ad0 553e
000000f0: 9937 da3d b989 503d ee7b c93c 070c b73d
0.0419007 0.029242536 0.22864325 0.012018244 0.10194774 0.048859823 0.19922201 0.030005408
0.05879285 0.0044647614 0.06799975 0.025976634 0.110836715 0.09265394 0.11647759 0.034484178
0.16380423 0.16335395 0.017423067 0.0521532 0.16045646 0.037808094 0.03229955 0.1923265
0.2049028 0.08181516 0.079846695 0.107169084 0.066435345 0.017023005 0.1019149 0.14670174
0.119960606 0.029679026 0.04348295 0.11906484 0.18109246 0.0353231 0.021297198 0.012960188
0.10879762 0.19302003 0.12166999 0.23408891 0.067602254 0.041308135 0.08992572 0.1902042
0.021560634 0.07694229 0.07806904 0.08943929 0.07018986 0.07074292 0.19768679 0.08785922
0.03314953 0.01979043 0.13127066 0.20880261 0.10655136 0.050912593 0.024595227 0.08937841
