gnn/gnn_outputs/checkpoint_epoch_40.pt (torch, 971484 bytes, 208 tensors)

node_encoder.layers.0.weight f4 [64, 3]
0.44689697 0.4733288 -0.14040233 0.5368334 -0.12309095 0.10704566 -0.26848087 0.3482228
0.51689374 -0.411861 0.5148069 0.093600795 0.4298562 0.07251693 0.27558994 -0.09074263
0.43691546 0.092478864 -0.2800228 0.15137069 -0.24992296 -0.065854885 -0.22602516 0.39057356
-0.46053228 -0.2555166 -0.16496535 -0.3381905 0.05859157 -0.5785531 0.51737326 -0.491595
0.44952273 0.09907758 -0.17740597 0.36307177 0.09009256 0.47000158 0.05775685 -0.18231186
0.15306313 -0.1624917 0.24171272 0.49720955 0.34698495 -0.23539625 0.34562027 0.1014147
0.2948847 -0.34495392 -0.57960486 -0.22072046 -0.4573266 0.463413 0.16199417 0.23980048
0.19058461 -0.01317916 0.46015388 -0.4017315 0.03091512 -0.40064126 0.17156155 -0.19807716
0.17375772 -0.122955486 0.4801364 -0.34831843 -0.33940634 -0.35538077 0.5071294 0.19004717
0.5505562 -0.47668967 -0.57557696 -0.4542936 -0.39028743 0.2262955 0.20227395 0.48685578
-0.2914921 -0.37749028 0.31733635 -0.23222479 0.34962994 -0.14269435 0.32600456 -0.4690319
-0.28069064 0.17809461 0.1246927 -0.13922271 0.3513431 0.38779515 -0.4232842 -0.30539635
0.5294184 -0.2044925 -0.19990931 -0.55242205 -0.33638403 0.14203463 -0.08582261 -0.40935102
0.003981388 -0.40005046 -0.50787216 -0.30243614 -0.5097718 -0.36630934 0.57204825 0.10979628
0.18852444 -0.5263882 -0.37903413 -0.19076987 0.09269832 -0.5042451 -0.24694993 -0.351023
0.01006439 -0.22207646 -0.033216182 -0.4060891 -0.39775318 -0.32707337 -0.20178099 -0.45865455
0.4805229 -0.111786924 0.4837968 0.19408534 -0.4870831 0.4099046 -0.15676711 -0.2267431
-0.47972262 -0.57135206 0.17371655 -0.12133984 0.21247295 -0.47399968 0.42618605 -0.42516577
-0.10223064 0.11447805 0.30679297 0.4821237 0.5234748 -0.44546592 0.14316748 -0.2598373
-0.05562725 -0.436688 0.5194038 -0.42990917 0.31452048 0.1911905 0.19125807 -0.30695757
0.52973646 0.123656064 0.07512545 -0.51575804 0.23417649 -0.0797461 -0.26185548 0.49908215
0.13157552 -0.31768212 -0.29213065 -0.03592131 0.3201263 -0.14902635 -0.31886107 -0.20321554
-0.44437426 0.19373754 0.4359901 -0.5561169 0.14880002 0.2835575 0.11423904 -0.21224847
0.29487446 0.3093419 0.21489401 -0.100300446 -0.15249342 0.06753405 -0.09374031 -0.18054
00000000: aecf e43e 2758 f23e a1c5 0fbe ea6d 093f
00000010: 1c17 fcbd c13a db3d 5376 89be 424a b23e
00000020: 2653 043f 72df d2be 63ca 033f c6b1 bf3d
00000030: 1d16 dc3e c283 943d 201a 8d3e 46d7 b9bd
00000040: 62b3 df3e 8f65 bd3d 265f 8fbe eb00 1b3e
00000050: ceeb 7fbe edde 86bd 2473 67be 42f9 c73e
00000060: e3ca ebbe 12d3 82be adec 28be 4e27 adbe
00000070: b7fd 6f3d 0e1c 14bf 9372 043f 57b2 fbbe
00000080: d827 e63e 30e9 ca3d e9a9 35be 8be4 b93e
00000090: 7382 b83d 0ca4 f03e 7292 6c3d f6af 3abe
000000a0: 95bc 1c3e 3964 26be 8a83 773e 4092 fe3e
000000b0: 03a8 b13e b70b 71be 24f5 b03e 83b2 cf3d
000000c0: 21fb 963e cd9d b0be fc60 14bf 8b04 62be
000000d0: b626 eabe 7844 ed3e cde1 253e 428e 753e
000000e0: 9d28 433e 67ed 57bc 4a99 eb3e c0af cdbe
000000f0: b541 fd3c da20 cdbe d5ad 2f3e bdd4 4abe
00000100: 8bed 313e 16d0 fbbd 70d4 f53e cb56 b2be
00000110: abc6 adbe 78f4 b5be 3bd3 013f ba9b 423e
00000120: 40f1 0c3f ab10 f4be 0359 13bf 2c99 e8be
00000130: c1d3 c7be 02ba 673e e720 4f3e 2945 f93e
00000140: 743e 95be 6846 c1be e979 a23e 56cc 6dbe
00000150: b202 b33e 781e 12be 12ea a63e f324 f0be
00000160: afb6 8fbe 6f5e 363e e35e ff3d 6690 0ebe
00000170: 3ee3 b33e 168d c63e b5b8 d8be e95c 9cbe
00000180: f787 073f 7b66 51be 07b5 4cbe 886b 0dbf
00000190: 873a acbe 8771 113e c4c3 afbd 7596 d1be
000001a0: 4e76 823b 6ad3 ccbe e903 02bf e9d8 9abe
000001b0: 6880 02bf e68c bbbe c171 123f dfdc e03d
000001c0: 8d0c 413e 61c1 06bf c310 c2be 2d59 43be
000001d0: 9ed8 bd3d 3516 01bf 71e0 7cbe 49b9 b3be
000001e0: 1ce5 243c 0368 63be b10d 08bd e9ea cfbe
000001f0: 4ea6 cbbe 2976 a7be ad9f 4ebe c5d4 eabe
00000200: 1907 f63e 8bf0 e4bd 37b4 f73e 4fbe 463e
00000210: f562 f9be 04df d13e 8f87 20be 582f 68be
00000220: 349e f5be 2144 12bf c0e2 313e 0681 f8bd
00000230: 8292 593e 16b0 f2be 0f35 da3e 54af d9be
00000240: 4c5e d1bd 7873 ea3d f813 9d3e ebd8 f63e
00000250: 7202 063f 1c14 e4be 7f9a 123e 6509 85be
00000260: 66d9 63bd 9295 dfbe a6f7 043f 0e1d dcbe
00000270: d408 a13e 71c7 433e 28d9 433e 8b29 9dbe
00000280: cf9c 073f 643f fd3d 5fdb 993d b808 04bf
00000290: f6cb 6f3e ec51 a3bd ec11 86be b287 ff3e
000002a0: bcbb 063e 3ba7 a2be 2692 95be 3922 13bd
000002b0: 98e7 a33e 5d9a 18be c241 a3be bc17 50be
000002c0: 0685 e3be 2263 463e 183a df3e ad5d 0ebf
000002d0: 085f 183e 732e 913e 28f6 e93d aa57 59be
000002e0: c9f9 963e 1062 9e3e 2d0d 5c3e 526a cdbd
000002f0: 3c27 1cbe 4b4f 8a3d ebfa bfbd 7adf 38be

node_encoder.layers.0.bias f4 [64]
0.3296243 0.4566183 -0.02174681 -0.09103972 0.0007268931 -0.0034696274 0.10043402 0.1231807
-0.4847819 -0.17411952 0.44663733 0.18584687 -6.3375396e-06 -0.30869484 -0.31382817 -0.47757077
-0.14937295 0.15610544 0.32876286 0.22737442 -0.47074807 -0.3078233 -0.05372772 0.5188897
0.046438366 -0.11100858 0.1997627 -0.1808854 -0.33426508 0.38190258 -0.22334711 -0.07771103
-0.5347196 0.34695578 0.39790457 0.17146142 -0.36309493 -0.53017 -0.42936867 0.3910182
0.2379549 0.4462776 0.2631661 0.107647315 -7.577237e-05 -0.39956656 -0.45505902 -0.5004131
0.19727261 -0.24421957 -0.078111015 -0.2929057 -0.067434646 -0.36688128 -0.33783135 0.15266317
-0.13290119 0.31702465 -0.14643337 -0.38401756 -0.06413662 -0.2406403 -0.13794497 -0.5100724
00000000: 84c4 a83e e0c9 e93e 5e26 b2bc 0873 babd
00000010: f88c 3e3a b062 63bb 5ab0 cd3d 2a46 fc3d
00000020: 5535 f8be 634c 32be a6ad e43e a44e 3e3e
00000030: 0da7 d4b6 400d 9ebe 16ae a0be 2884 f4be
00000040: 39f5 18be 1bda 1f3e 9b53 a83e d7d4 683e
00000050: e405 f1be 049b 9dbe 9911 5cbd f5d5 043f
00000060: 2836 3e3d 7758 e3bd 988e 4c3e 063a 39be
00000070: cb24 abbe bc88 c33e 1bb5 64be f626 9fbd
00000080: 62e3 08bf 30a4 b13e 26ba cb3e 9593 2f3e
00000090: 94e7 b9be 39b9 07bf 36d6 dbbe 8a33 c83e
000000a0: 73aa 733e 7f7e e43e b5bd 863e 3276 dc3d
000000b0: fbe7 9eb8 fd93 ccbe 7ffd e8be 131b 00bf
000000c0: d501 4a3e b214 7abe abf8 9fbd bcf7 95be
000000d0: 2d1b 8abd ddd7 bbbe 3bf8 acbe bc53 1c3e
000000e0: 4017 08be 0e51 a23e a1f2 15be f39d c4be
000000f0: 0f5a 83bd 696a 76be 7241 0dbe 1b94 02bf

node_encoder.layers.1.weight f4 [64]
1.0055817 0.9963895 0.9914531 1.0004116 0.99336815 1.0055935 0.9823868 1.004532
0.9956208 0.99289674 0.99892384 1.0051167 1.0011363 1.0153489 0.99191946 1.00092
0.98500097 0.99409556 0.98776436 1.0028328 1.0051975 0.9908559 1.0035318 0.994831
1.0070014 1.0076519 1.001229 1.0156955 0.99350196 1.0048971 1.0021044 1.0066439
0.9983085 1.0055109 1.0106832 1.0030546 1.0095245 1.0078664 0.99606794 0.9912774
1.0034232 0.9988007 1.0055592 1.0001156 0.9996567 0.9914554 1.0064796 1.0055009
0.99747074 0.99295044 1.013237 1.0138896 0.9913752 1.0024128 0.9937271 0.9948123
0.9881609 0.99829155 0.9919475 1.0054996 0.98983663 0.9873902 0.9901438 0.9873875
00000000: e7b6 803f 6213 7f3f dfcf 7d3f 7d0d 803f
00000010: 604d 7e3f 4ab7 803f b47d 7b3f 8194 803f
00000020: 01e1 7e3f 7b2e 7e3f 79b9 7f3f aaa7 803f
00000030: 3c25 803f f4f6 813f 6fee 7d3f 261e 803f
00000040: 0629 7c3f 0c7d 7e3f 20de 7c3f d35c 803f
00000050: 50aa 803f bba8 7d3f bb73 803f 3fad 7e3f
00000060: 6ce5 803f bdfa 803f 4628 803f 4f02 823f
00000070: 2556 7e3f 78a0 803f f544 803f b5d9 803f
00000080: 2591 7f3f 95b4 803f 115e 813f 1864 803f
00000090: 1938 813f c401 813f 4ffe 7e3f 5bc4 7d3f
000000a0: 2c70 803f 67b1 7f3f 2ab6 803f ca03 803f
000000b0: 80e9 7f3f 05d0 7d3f 53d4 803f 41b4 803f
000000c0: 3e5a 7f3f 0032 7e3f c0b1 813f 22c7 813f
000000d0: c4ca 7d3f 104f 803f e664 7e3f 05ac 7e3f
000000e0: 1df8 7c3f 0990 7f3f 45f0 7d3f 36b4 803f
000000f0: ef65 7d3f 9bc5 7c3f 107a 7d3f 6dc5 7c3f

node_encoder.layers.1.bias f4 [64]
-9.6454154e-05 -0.0044336948 -0.00924895 0.013041472 -0.014713508 0.0082995435 -0.023321329 0.0051060515
-0.017399577 -0.005725414 0.0069933273 -0.0024636518 0.0015136508 0.00044796933 -0.0031341512 0.006762275
-0.004723352 0.0006951985 -0.008799069 -0.002682917 -0.006324933 -0.0060328594 0.00034699054 0.0015863384
0.0009846024 -0.008424532 0.016788358 0.01326487 -0.011327345 -0.003262961 0.0055867904 0.0026777822
-0.0023307633 -0.008904907 0.00026300384 -0.0013374765 0.008186414 0.009438963 -0.0052990434 -0.004493325
0.006837628 -0.012779018 -0.0052863765 0.0072262646 0.005615023 0.0023646452 0.00078456785 -0.00903172
0.0031273465 -0.0061574206 0.007958568 0.019914059 0.0033771605 0.004101806 -0.0075614015 -0.0219172
-0.008961355 -0.0043170275 -0.010074439 0.008482531 -0.007974984 0.008832684 -0.00020888362 -0.012960289
00000000: 6e47 cab8 8748 91bb e888 17bc e6ab 553c
00000010: ed10 71bc cffa 073c 5f0c bfbc aa50 a73b
00000020: 8f89 8ebc 419c bbbb 4828 e53b 3875 21bb
00000030: b165 c63a 6ddd ea39 5566 4dbb 1396 dd3b
00000040: 59c6 9abb fb3d 363a f829 10bc e1d3 2fbb
00000050: 6241 cfbb 4baf c5bb 48ec b539 afec cf3a
00000060: c60d 813a 0c07 0abc bd87 893c e654 593c
00000070: 5496 39bc 67d7 55bb 6511 b73b bb7d 2f3b
00000080: b8bf 18bb e3e5 11bc c7e3 8939 444e afba
00000090: 4f20 063c e1a5 1a3c 99a3 adbb be3c 93bb
000000a0: 2e0e e03b 165f 51bc 5739 adbb 4dca ec3b
000000b0: 3afe b73b 2af8 1a3b 75ab 4d3a c8f9 13bc
000000c0: 2bf4 4c3b 30c4 c9bb a764 023c cf22 a33c
000000d0: 5a53 5d3b 7168 863b a2c5 f7bb b38b b3bc
000000e0: a6d2 12bc da75 8dbb 430f 25bc 50fa 0a3c
000000f0: 82a9 02bc f6b6 103c c507 5bb9 6457 54bc

node_encoder.layers.1.running_mean f4 [64]
0.78787744 0.72209096 0.31525937 0.054562367 0.4129653 0.26363668 -0.078402095 0.15610912
-0.9734752 -0.61844695 0.65150476 0.3195363 0.36509478 -0.39822438 0.29456946 -0.34063777
-0.5111187 0.002452381 0.6641026 0.3010454 -0.61744034 -0.37296253 -0.1960198 0.7487701
-0.25287238 -0.47593102 0.45993793 -0.3085369 -0.07442802 0.059919976 -0.06723306 -0.29716355
-0.49049634 -0.07214389 0.10722716 -0.5027167 -0.5647156 -0.633102 -0.70216095 -0.20235096
0.09404557 -0.17616846 0.12741885 0.45176226 -0.0842948 -1.1138984 -0.33348602 -0.71015877
0.37716088 0.09576479 -0.1962644 -0.42764124 0.30988356 -0.14201394 -0.49998048 0.21164958
-0.41584972 0.4234676 -0.67280746 -0.3046295 0.24360074 -0.01476392 -0.17148641 -0.6303448
00000000: 56b2 493f f4da 383f ad69 a13e ca7c 5f3d
00000010: 3070 d33e 63fb 863e 4791 a0bd 12db 1f3e
00000020: ac35 79bf 8a52 1ebf 04c9 263f 439a a33e
00000030: b4ed ba3e 11e4 cbbe cfd1 963e 1368 aebe
00000040: add8 02bf 20b8 203b a102 2a3f 9f22 9a3e
00000050: 9210 1ebf f2f4 bebe 6ab9 48be 66af 3f3f
00000060: 7d78 81be 3bad f3be fc7c eb3e 8cf8 9dbe
00000070: b86d 98bd a66e 753d 7db1 89bd d225 98be
00000080: 5622 fbbe 2dc0 93bd ea99 db3d 0bb2 00bf
00000090: 3491 10bf f912 22bf d2c0 33bf 1735 4fbe
000000a0: f79a c03d 8165 34be 167a 023e 624d e73e
000000b0: c1a2 acbd 3994 8ebf aebe aabe f7cc 35bf
000000c0: 3b1b c13e 5520 c43d 89f9 48be cbf3 dabe
000000d0: 0fa9 9e3e 1a6c 11be 71fd ffbe abba 583e
000000e0: 41ea d4be bfd0 d83e 1c3d 2cbf 66f8 9bbe
000000f0: 7972 793e 5ee4 71bc 229a 2fbe 475e 21bf

node_encoder.layers.1.running_var f4 [64]
0.0428904 0.022961704 0.04497421 0.034091406 0.023622738 0.018907953 0.0137920575 0.02173238
0.028136145 0.044591784 0.0574185 0.017317997 0.02291846 0.0069526318 0.044513244 0.014991327
0.05330461 0.047886178 0.012601778 0.03624961 0.017749587 0.006686248 0.038410548 0.034146328
0.07607592 0.0392458 0.036129713 0.02292645 0.021338884 0.030398352 0.015833339 0.03547775
0.027466102 0.040092018 0.017204221 0.05166359 0.07122119 0.03448294 0.016989892 0.041657273
0.0049171713 0.04338127 0.048901793 0.026414884 0.031357862 0.064985275 0.008108579 0.047774296
0.012405119 0.069524035 0.0076187146 0.053041793 0.016603405 0.031801376 0.02976342 0.03388089
0.01983942 0.011732095 0.03502103 0.05496362 0.01195249 0.021273348 0.00677581 0.0048864167
00000000: d8ad 2f3d 2f1a bc3c e136 383d 6ea3 0b3d
00000010: 7984 c13c dae4 9a3c 15f8 613c 1b08 b23c
00000020: c67d e63c e0a5 363d a92f 6b3d 79de 8d3c
00000030: 7fbf bb3c e7d2 e33b 8553 363d 2f9e 753c
00000040: ef55 5a3d 4c24 443d b077 4e3c 797a 143d
00000050: 9567 913c 5018 db3b 6154 1d3d 05dd 0b3d
00000060: b1cd 9b3d 34c0 203d c0fc 133d 40d0 bb3c
00000070: e2ce ae3c f705 f93c ebb4 813c 1e51 113d
00000080: 9700 e13c 8737 243d deef 8c3c 339d 533d
00000090: 6adc 913d fc3d 0d3d 632e 8b3c d1a0 2a3d
000000a0: 3920 a13b 8fb0 313d 3f4d 483d 0764 d83c
000000b0: 1a71 003d 0017 853d d8d9 043c fbae 433d
000000c0: d73e 4b3c 9e62 8e3d 69a6 f93b 5a42 593d
000000d0: dd03 883c 2942 023d 6ad2 f33c b0c6 0a3d
000000e0: 4886 a23c f937 403c 3672 0f3d 8821 613d
000000f0: 60d4 433c 7245 ae3c 9d07 de3b 3c1e a03b

node_encoder.layers.3.weight f4 [64, 64]
0.06004241 -0.077145144 0.05169125 0.048797995 0.08202713 -0.10236545 0.08020156 -0.07019834
0.04308164 0.11440652 -0.0073930207 -0.007476207 -0.03576024 -0.11244866 0.051274143 -0.13215074
0.08658448 0.08129821 0.10920283 -0.03454311 -0.09195794 0.019998979 0.07932643 -0.13267615
-0.018564548 -0.08330843 -0.01794573 -0.0699899 -0.053979766 -0.04899786 -0.12591372 0.11277432
0.11589102 -0.028209984 -0.005862631 -0.047786042 -0.13468413 -0.116689816 0.037287954 -0.07102381
-0.0705632 -0.007552939 -0.052634053 -0.04762165 -0.0037815238 -0.020611992 -0.043354783 -0.0677619
-0.11332342 0.09777022 -0.0390283 0.026421744 -0.052584298 0.0027295202 0.12763403 0.045610737
-0.09906469 0.044140257 0.1197845 0.029228885 0.07520809 0.11286411 -0.008830251 0.03455216
-0.097959355 -0.01947174 0.10138627 0.061966766 -0.07070377 -0.09752589 -0.09578437 -0.10871637
-0.09665513 -0.037754253 0.09199534 0.032436293 -0.098156154 -0.112424284 0.070058756 -0.090752475
-0.008717615 0.07313301 -0.048952445 -0.023595724 -0.001350424 -0.042899165 -0.055129174 -0.10738947
-0.09301915 -0.061987214 0.11073587 -0.07368795 -0.07608197 0.0331085 0.04576327 0.076885834
0.10196687 0.070556246 -0.11535218 0.015777634 0.09161896 -0.019806897 -0.073203705 0.11894846
-0.038151734 -0.067646176 -0.09963598 0.0117035955 0.041108217 0.031852122 0.033393055 -0.107085705
-0.102180846 -0.0079495385 0.1227728 0.059577025 -0.06911006 -0.014378668 -0.08266482 -0.045454238
0.02989918 0.056981273 0.10314902 -0.12365462 0.083013594 -0.080847144 0.05485271 0.11180345
-0.00062099035 0.12421318 -0.11813459 -0.03646009 0.08169678 -0.021576433 -0.019220537 -0.058214705
0.08295783 0.06713084 0.038299974 -0.07618418 -0.10063873 0.01987302 0.035959285 -0.04709811
-0.033841748 0.07826349 0.011678953 0.011370908 -0.03502301 -0.10609923 -0.11492572 -0.04946658
-0.06519076 0.031813726 -0.033915844 -0.041779887 0.12397931 0.036521703 0.08355661 -0.057359237
-0.043014005 0.03900812 -0.08935393 -0.08572585 -0.012984533 -0.042552777 -0.100456774 0.07849241
0.09557307 0.018755719 -0.027790727 -0.110729426 -0.037020728 0.03484157 0.056415923 -0.009525034
-0.058531664 0.070162274 -0.09970369 0.08529122 -0.0433575 0.011576094 -0.028726013 0.008812216
-0.03882696 0.09765467 0.0021056014 0.10155613 0.116906784 -0.07621704 -0.09110067 0.10257407
0.08932363 -0.0864694 -0.0053351065 -0.13007514 -0.09434591 0.015992045 0.021559354 0.031331114
-0.03136924 0.10367734 0.025594508 -0.06730298 -0.013108444 0.018711783 0.049544863 -0.093945146
0.04179633 -0.057833016 -0.09720177 -0.077984706 0.12810768 0.09548528 0.11920791 0.06940447
0.100801595 -0.012086722 -0.07787123 0.051182248 -0.057256043 -0.08047549 -0.033338755 0.03734192
0.0684972 -0.044852797 -0.06635004 0.021051673 -0.069793835 -0.09167747 0.068571374 -0.022224085
0.1219587 0.12435139 0.0435044 0.04210598 0.018150806 0.001600972 -0.0018541422 -0.009552503
0.04977107 0.1071247 -0.022591336 -0.063825935 -0.02418768 -0.067223705 0.028868075 0.097784005
0.1088761 0.048028514 -0.097496465 -0.076576844 -0.029514732 -0.015651526 0.010894146 -0.12079062
00000000: 08ef 753d 46fe 9dbd 34ba 533d 68e0 473d
00000010: d7fd a73d faa4 d1bd b740 a43d 26c4 8fbd
00000020: 6076 303d f74d ea3d 2741 f2bb f8fa f4bb
00000030: 5479 12bd 7c4b e6bd d604 523d 8652 07be
00000040: 3453 b13d ad7f a63d bca5 df3d 137d 0dbd
00000050: 7254 bcbd e6d4 a33c e575 a23d 42dc 07be
00000060: ae14 98bc 9c9d aabd ec02 93bc dd56 8fbd
00000070: e319 5dbd fbb1 48bd 87ef 00be 39f6 e63d
00000080: 4558 ed3d a018 e7bc 501b c0bb 4cbb 43bd
00000090: a3ea 09be 12fb eebd 41bb 183d ee74 91bd
000000a0: 7083 90bd a57e f7bb ce96 57bd eb0e 43bd
000000b0: 71d3 77bb 7bda a8bc c994 31bd c0c6 8abd
000000c0: 1c16 e8bd c13b c83d 24dc 1fbd 6a72 d83c
000000d0: a262 57bd c0e1 323b 7fb2 023e 53d2 3a3d
000000e0: 6ee2 cabd 6acc 343d 9351 f53d 6a71 ef3c
000000f0: b306 9a3d 4c25 e73d c2ac 10bc 9186 0d3d
00000100: ea9e c8bd 3383 9fbc 9ba3 cf3d ddd0 7d3d
00000110: 23cd 90bd a7bb c7bd 992a c4bd b0a6 debd
00000120: 20f3 c5bd 34a4 1abd 0e68 bc3d ebdb 043d
00000130: 1806 c9bd b43e e6bd f77a 8f3d 6fdc b9bd
00000140: 54d4 0ebc c2c6 953d 5c82 48bd d24b c1bc
00000150: b600 b1ba 09b7 2fbd 21cf 61bd 03ef dbbd
00000160: d380 bebd 4ee6 7dbd 7dc9 e23d b5e9 96bd
00000170: ddd0 9bbd c79c 073d 4472 3b3d 5276 9d3d
00000180: 02d4 d03d cb7f 903d c43d ecbd 1940 813c
00000190: b9a2 bb3d 1342 a2bc d3eb 95bd 409b f33d
000001a0: fe44 1cbd 148a 8abd f30d ccbd 70c0 3f3c
000001b0: 1761 283d 5f77 023d 28c7 083d c04f dbbd
000001c0: 3144 d1bd c83e 02bc 4e70 fb3d 0a07 743d
000001d0: 9389 8dbd 8194 6bbc 2c4c a9bd 392e 3abd
000001e0: 20ef f43c 3265 693d cb3f d33d a23e fdbd
000001f0: 0803 aa3d 3093 a5bd 3cad 603d 35f9 e43d
00000200: f5c9 22ba 7b63 fe3d 8cf0 f1bd 2d57 15bd
00000210: a450 a73d 0fc1 b0bc 6374 9dbc 8b72 6ebd
00000220: cbe5 a93d e57b 893d 6fe0 1c3d 7406 9cbd
00000230: ae1b cebd becc a23c 0b4a 133d f3e9 40bd
00000240: a59d 0abd 9c48 a03d 1459 3f3c 0b4d 3a3c
00000250: 4a74 0fbd 8e4a d9bd 2d5e ebbd 789d 4abd
00000260: bc82 85bd 1c4f 023d 57eb 0abd 6321 2bbd
00000270: dde8 fd3d c897 153d ba1f ab3d 85f1 6abd
00000280: 742f 30bd fac6 1f3d 31ff b6bd 0991 afbd
00000290: 14bd 54bc d24b 2ebd 48bc cdbd a1c0 a03d
000002a0: d0bb c33d 98a5 993c 61a9 e3bc 1cc6 e2bd
000002b0: 0ca3 17bd 09b6 0e3d 6214 673d e30e 1cbc
000002c0: e6be 6fbd 3db1 8f3d 7331 ccbd 2aad ae3d
000002d0: a297 31bd a8a9 3d3c d152 ebbc 1d61 103c
000002e0: 0509 1fbd 2cff c73d 21fe 093b a9fc cf3d
000002f0: d36c ef3d ae17 9cbd fd92 babd 5b12 d23d
00000300: 4fef b63d de16 b1bd 1ed2 aebb 6b32 05be
00000310: 6e38 c1bd c001 833c 3e9d b03c 0e55 003d
00000320: 087d 00bd c954 d43d 93ab d13c 25d6 89bd
00000330: cdc4 56bc 7449 993c 8eef 4a3d 5066 c0bd
00000340: a132 2b3d 50e2 6cbd b911 c7bd 72b6 9fbd
00000350: a92e 033e c98d c33d 4723 f43d ee23 8e3d
00000360: 1171 ce3d 6307 46bc f47a 9fbd 7aa4 513d
00000370: 5085 6abd 55d0 a4bd 388e 08bd d7f3 183d
00000380: 4348 8c3d 91b7 37bd 88e2 87bd 8f74 ac3c
00000390: 12f0 8ebd 66c1 bbbd 266f 8c3d 490f b6bc
000003a0: 7cc5 f93d f1ab fe3d ab31 323d 5277 2c3d
000003b0: 00b1 943c b5d7 d13a b006 f3ba 1a82 1cbc
000003c0: c0dc 4b3d 3264 db3d 7711 b9bc 2cb7 82bd
000003d0: 3e25 c6bc 95ac 89bd be7c ec3c fb42 c83d
000003e0: 6ffa de3d 8cb9 443d 3aac c7bd 52d4 9cbd
000003f0: e1c8 f1bc a137 80bc 5c7d 323c 1361 f7bd

node_encoder.layers.3.bias f4 [64]
-9.725479e-05 0.022523368 -0.0022074492 -0.053324778 0.016001096 0.03714918 -0.029020395 -0.044105142
-0.04796911 -0.025083471 0.0015269762 0.0007240164 -2.6699283e-05 -0.0024165032 0.040739518 0.00047947772
-0.036024675 -0.002414947 -0.036881223 -0.0105091715 -0.079866 -0.002148808 -0.059307925 0.01399177
0.048453122 -0.055560682 -0.029825825 -0.061164834 0.0026255106 -0.001708273 -0.02849764 0.03879086
0.01706505 -0.07499967 -0.0005184487 -0.018785445 0.0021742631 0.033218797 0.0006201485 -0.049592983
0.050675083 -0.07628836 -0.009565986 0.013876375 0.072597735 0.083214365 -0.00033828194 0.008587547
-0.07190086 0.0016685856 -0.0064282245 0.004002727 -0.04488389 -0.00078292954 0.028543409 0.05985384
0.0022087689 0.0762241 -0.0800601 -0.003952875 0.013230562 0.0018000327 0.023310874 -0.04588646
00000000: 45f5 cbb8 ed82 b83c daaa 10bb 156b 5abd
00000010: bb14 833c bd29 183d 2ebc edbc 98a7 34bd
00000020: 427b 44bd da7b cdbc d224 c83a ebcb 3d3a
00000030: 46f8 dfb7 325e 1ebb 7bde 263d 6962 fb39
00000040: 9c8e 13bd 1644 1ebb c410 17bd a92e 2cbc
00000050: c990 a3bd 04d3 0cbb deec 72bd bd3d 653c
00000060: c876 463d 9993 63bd 4a55 f4bc fa87 7abd
00000070: c210 2c3b 21e8 dfba e273 e9bc 2ae3 1e3d
00000080: 01cc 8b3c 6d99 99bd 81e8 07ba efe3 99bc
00000090: 157e 0e3b 6f10 083d 7691 223a 0322 4bbd
000000a0: ad90 4f3d 123d 9cbd a7ba 1cbc bc59 633c
000000b0: 1fae 943d 4b6c aa3d 6f5b b1b9 c8b2 0c3c
000000c0: c240 93bd 71b4 da3a dba3 d2bb 4f29 833b
000000d0: 2bd8 37bd 833d 4dba ded3 e93c 4d29 753d
000000e0: fec0 103b 621b 9c3d 8df6 a3bd 1e87 81bb
000000f0: 00c5 583c 13ef eb3a 72f6 be3c 71f3 3bbd

node_encoder.layers.4.weight f4 [64]
0.989379 1.0084422 0.99772274 0.99862796 0.99773693 1.0041592 1.0038614 1.0006608
1.0008776 0.99644935 0.9835656 1.0081042 0.99739105 0.9965881 1.0049012 0.9892634
1.0037434 1.0066178 0.9905928 0.998461 1.0060406 1.007559 0.99693316 1.0090574
1.0130486 1.0219177 1.004405 1.0056779 0.9826271 0.9947807 0.9905016 0.98383737
1.000093 1.0119504 1.007739 1.0075201 0.9981211 0.9943924 0.99739975 1.0192589
0.9997288 0.9977106 0.9910973 0.9966592 1.0038828 1.012728 1.0028105 0.99674946
1.0096495 0.9962765 1.0020838 0.9931875 0.9945046 0.99901766 0.9936291 1.0070008
0.99425834 1.0048435 0.9944836 0.9983415 1.0064281 0.99758714 0.9974838 0.9962058
00000000: f147 7d3f a214 813f c26a 7f3f 15a6 7f3f
00000010: b06b 7f3f 4a88 803f 887e 803f a715 803f
00000020: c21c 803f 4e17 7f3f f5ca 7b3f 8f09 813f
00000030: 0555 7f3f 6620 7f3f 9aa0 803f 5e40 7d3f
00000040: aa7a 803f dad8 803f 7d97 7d3f 249b 7f3f
00000050: f0c5 803f b1f7 803f 0337 7f3f cb28 813f
00000060: 94ab 813f 33ce 823f 5890 803f 0eba 803f
00000070: 738d 7b3f f3a9 7e3f 8391 7d3f c4dc 7b3f
00000080: 0c03 803f 9787 813f 97fd 803f 6bf6 803f
00000090: dd84 7f3f 8090 7e3f 9755 7f3f 1377 823f
000000a0: 3aee 7f3f f669 7f3f 8db8 7d3f 0f25 7f3f
000000b0: 3b7f 803f 12a1 813f 185c 803f f92a 7f3f
000000c0: 323c 813f fa0b 7f3f 4844 803f 8941 7e3f
000000d0: da97 7e3f 9fbf 7f3f 7a5e 7e3f 67e5 803f
000000e0: b787 7e3f b69e 803f 7a96 7e3f 4f93 7f3f
000000f0: a3d2 803f df61 7f3f 195b 7f3f 5807 7f3f

node_encoder.layers.4.bias f4 [64]
-0.0024687455 0.0013979175 -0.0038948858 -0.003441219 -0.0076880483 0.0048510507 0.0015318794 -0.008388527
0.005900766 0.0006554772 -0.018973831 0.006005833 0.010165187 -0.00041237756 -0.0052358834 -0.007466963
0.008469915 0.00071728474 0.00428316 0.0066303667 0.0040053166 0.016745564 -0.0009821196 -0.000102703954
0.010942696 0.014471288 0.006601775 -0.0038147145 -0.007478421 -0.005172819 -0.0031601475 -0.014779382
-0.0057503534 0.009182794 0.000982204 0.00480971 -0.0067034587 -0.0067698928 0.0059485603 0.014963239
-0.0051760743 0.0025437954 0.0035870455 -0.0008813125 -0.008058508 0.007902753 0.006299052 0.0003319927
0.0076824515 0.006726739 0.013249471 -0.008011498 -0.0072738775 0.0062936842 -0.0026220544 0.011741628
-0.0044043763 -0.013483586 -0.005668186 -0.009629093 0.0054033147 -0.0032012772 0.010492953 -0.0058060014
00000000: adca 21bb 543a b73a 5741 7fbb 1386 61bb
00000010: 06ec fbbb 90f5 9e3b 58c9 c83a 0870 09bc
00000020: 365b c13b 55d4 2b3a 026f 9bbc 94cc c43b
00000030: e28b 263c 6134 d8b9 c691 abbb 6dad f4bb
00000040: 66c5 0a3c 2a08 3c3a c059 8c3b 8c43 d93b
00000050: 083f 833b fe2d 893c 77ba 80ba c462 d7b8
00000060: fe48 333c fb18 6d3c b453 d83b 4a00 7abb
00000070: 8b0d f5bb c080 a9bb 7a1a 4fbb 3925 72bc
00000080: 766d bcbb 6e73 163c 4cbd 803a c69a 9d3b
00000090: b0a8 dbbb fad5 ddbb 24ec c23b 6028 753c
000000a0: 0f9c a9bb ceb5 263b a314 6b3b e107 67ba
000000b0: d507 04bc 8c7a 013c 4768 ce3b 4e0f ae39
000000c0: 13bd fb3b fa6b dc3b 4f14 593c a842 03bc
000000d0: b559 eebb 403b ce3b c6d6 2bbb f55f 403c
000000e0: 9652 90bb 42ea 5cbc 31bc b9bb 58c3 1dbc
000000f0: 4a0e b13b 85cc 51bb a2ea 2b3c 4540 bebb

node_encoder.layers.4.running_mean f4 [64]
-0.16638692 -0.26676014 -0.119099654 -0.012971972 0.005557892 -0.36002567 0.111342505 -0.003964269
0.018715236 0.16416822 -0.24072538 -0.16301855 0.032088857 -0.09176234 0.31652138 0.10539248
0.061274562 -0.15072425 -0.20648815 0.23844454 -0.03710123 -0.14953771 0.053556226 0.2097288
0.066443816 -0.19439824 -0.049312674 -0.50318617 0.11500538 0.49344504 -0.26032242 -0.4526533
-0.0842359 -0.55338836 0.18927594 0.21600933 0.28193933 -0.2956751 0.45832038 -0.15149637
0.3035867 -0.1837417 -0.1198523 0.12489714 0.0019464613 0.12891157 0.19217546 -0.37828377
-0.15184098 -0.10999281 -0.22067177 -0.28654367 -0.16124085 -0.24302378 -0.0030292394 0.16109475
-0.18330999 0.3261752 0.08570867 0.2630936 -0.03401492 0.12016979 0.13993376 0.09898459
00000000: 5561 2abe c994 88be 85ea f3bd 6588 54bc
00000010: fa1e b63b 4955 b8be 8a07 e43d b3e6 81bb
00000020: b250 993c b71b 283e b780 76be 56ee 26be
00000030: 9b6f 033d e5ed bbbd 170f a23e 03d8 d73d
00000040: 09fb 7a3d 7557 1abe a171 53be ce2a 743e
00000050: 76f7 17bd 6a20 19be c65d 5b3d 26c3 563e
00000060: b213 883d 5510 47be 16fc 49bd cfd0 00bf
00000070: f187 eb3d d4a4 fc3e fb48 85be 2cc2 e7be
00000080: df83 acbd dcaa 0dbf 8dd1 413e 8d31 5d3e
00000090: 5a5a 903e ba62 97be f8a8 ea3e dd21 1bbe
000000a0: b76f 9b3e c926 3cbe 1f75 f5bd 12ca ff3d
000000b0: 6720 ff3a 6501 043e a5c9 443e 69ae c1be
000000c0: 347c 1bbe e943 e1bd c8f7 61be dab5 92be
000000d0: 521c 25be 3adb 78be 3486 46bb 06f6 243e
000000e0: 9db5 3bbe 7000 a73e 0788 af3d 34b4 863e
000000f0: 3b53 0bbd 941b f63d cc4a 0f3e 6fb8 ca3d

node_encoder.layers.4.running_var f4 [64]
0.1258686 0.09495368 0.08677698 0.11177916 0.08683112 0.030096395 0.26144713 0.18788673
0.19611347 0.08373401 0.033047963 0.08699805 0.1687345 0.18686901 0.039037213 0.05536736
0.10800527 0.1273171 0.050011363 0.05973488 0.07542093 0.24044979 0.20580986 0.024393097
0.14313848 0.14915405 0.19943371 0.049356554 0.033888828 0.11545814 0.07544996 0.20441878
0.051699318 0.05960055 0.06920698 0.10857122 0.112078555 0.37093368 0.18002462 0.057009056
0.12410861 0.1539528 0.13342838 0.22471549 0.08935895 0.142439 0.11546579 0.16945139
0.12744497 0.08790897 0.09713524 0.132274 0.21633011 0.09563484 0.20040931 0.1364938
0.22031091 0.044546288 0.13211115 0.10567127 0.102761924 0.20035747 0.18610121 0.15312651
00000000: b3e3 003e 1377 c23d 21b8 b13d 79ec e43d
00000010: 84d4 b13d b78c f63c 66dc 853e 6165 403e
00000020: f8d1 483e bd7c ab3d 4d5d 073d 092c b23d
00000030: bdc8 2c3e 975a 3f3e 7ce5 1f3d e3c8 623d
00000040: de31 dd3d 6a5f 023e b7d8 4c3d 90ac 743d
00000050: 4a76 9a3d 7838 763e d2bf 523e 08d4 c73c
00000060: e592 123e d7bb 183e 5a38 4c3e 192a 4a3d
00000070: 03cf 0a3d 5175 ec3d 8285 9a3d 2853 513e
00000080: aac2 533d b51f 743d 64bc 8d3d 965a de3d
00000090: 7189 e53d 05eb bd3e 6058 383e 5482 693d
000000a0: a82c fe3d cea5 1d3e 73a1 083e d11b 663e
000000b0: d301 b73d 87db 113e 5479 ec3d aa84 2d3e
000000c0: ef80 023e 9e09 b43d d7ee c63d d672 073e
000000d0: a485 5d3e 33dc c33d 1938 4d3e 08c5 0b3e
000000e0: 2f99 613e 2b76 363d 2548 073e 2e6a d83d
000000f0: d874 d23d 822a 4d3e 5191 3e3e 32cd 1c3e

node_encoder.layers.6.weight f4 [32, 64]
0.091894574 -0.10872527 -0.07875823 -0.0113550825 -0.119988434 -0.11586928 -0.10929481 0.10047277
0.018179668 -0.04240512 -0.0027916862 -0.114494845 -0.11905198 -0.091897115 -0.12951823 0.07831612
-0.046062596 -0.038001474 -0.10982512 0.011775914 -0.016734036 -0.08941604 0.074076444 0.10029899
-0.096791446 0.07555113 -0.016225724 0.013279768 0.058242667 -0.02890914 0.102973126 0.07252279
-0.07878194 -0.072719045 -0.13093057 0.033594526 -0.105143934 -0.09837805 -0.08362945 -0.12642458
-0.10615628 0.11247187 0.07372981 0.10530369 -0.06092247 -0.04987983 -0.049516674 -0.008688889
-0.09577861 0.014001588 -0.080670334 0.03420044 0.109853975 0.01272653 0.08580083 -0.09644953
-0.024477195 -0.088438526 -0.019617781 -0.053526387 -0.07636972 -0.1160982 -0.045827627 0.01859187
-0.01659307 -0.107297614 0.0784011 0.08573795 -0.07191721 0.014361017 0.07668383 -0.1234786
-0.10375324 0.06670934 0.008040288 0.050438277 -0.057812892 0.01883807 0.07702215 -0.027524516
-0.045297407 -0.12806726 -0.016153235 0.07644616 -0.12334549 -0.003377428 0.08479523 -0.020968681
-0.050105985 -0.047409914 -0.048071004 0.03639466 -0.10985239 0.040770635 -0.014912305 -0.00027177716
-0.0043424205 0.07436447 -0.07806403 -0.124531105 -0.09837959 -0.09130605 -0.065704055 0.112600125
-0.08947348 -0.07101117 -0.09820962 -0.06382295 0.004420341 -0.08195883 -0.00083833595 0.054215398
-0.023977557 0.053346876 0.03699456 0.12339803 0.0014221119 0.10539035 0.09600361 0.06485979
0.0828015 -0.0908441 -0.075105 0.046258193 0.043082967 0.10079241 -0.015983567 -0.027950486
0.08637167 0.018000567 0.12547086 -0.058647715 -0.035594277 -0.0069968146 0.061443668 -0.11059864
-0.044377565 0.09492756 0.030663049 0.08127521 -0.043439433 -0.07772969 -0.08870573 -0.070881516
-0.090228565 0.06441563 0.044071965 -0.0734826 0.11904204 0.036965024 0.039961487 -0.0572751
0.078404106 -0.089659944 0.09720628 -0.065189354 0.056819186 -0.052712962 0.079176225 -0.104843326
-0.023059787 -0.042916246 -0.08320144 -0.0574733 -0.043879982 0.0059860614 0.08415385 -0.015932977
0.11602733 -0.05344952 -0.06043673 -0.006774383 -0.0189985 0.041553523 0.107274525 0.034457825
-0.10916162 -0.046479262 -0.024902336 -0.10357864 0.04590605 0.10194692 0.060753923 -0.00016987749
-0.015972022 -0.07144166 -0.017172357 0.110783115 -0.071796864 0.02285089 -0.08506565 -0.029500356
0.02009171 -0.09326181 0.040427737 -0.10188558 -0.04624623 0.09059831 0.12385904 -0.002360873
-0.09348422 -0.09418896 -0.028274035 -0.07103015 0.09546922 -0.08769638 0.08639325 0.017470535
-0.040537152 0.106676124 0.065469086 0.0015089307 -0.07684317 -0.045994937 0.045991067 0.10935075
-0.0466135 -0.03900382 -0.11448066 0.08109621 0.121388376 0.079420224 -0.07907709 0.07658221
-0.04392934 0.065931596 0.068117954 -0.09599467 0.03336602 0.052750282 -0.06608026 0.102405116
0.09207404 0.11214621 0.0067674457 -0.06844811 -0.0632897 0.050669923 -0.02780291 0.091183916
0.10884911 0.010340606 -0.11114975 0.04763089 0.11058423 -0.029564654 -0.07303002 -0.028944891
0.011244735 -0.0976153 0.059309732 0.055484466 -0.039872397 -0.036724847 -0.055617526 0.10582072
00000000: 3933 bc3d 5bab debd ff4b a1bd ab0a 3abc
00000010: 7fbc f5bd e04c edbd f5d5 dfbd abc4 cd3d
00000020: 87ed 943c feb0 2dbd b9f4 36bb 467c eabd
00000030: 86d1 f3bd 8e34 bcbd 6da0 04be 3464 a03d
00000040: 22ac 3cbd 6fa7 1bbd feeb e0bd c3ef 403c
00000050: d115 89bc c21f b7bd 64b5 973d 8f69 cd3d
00000060: 983a c6bd 8dba 9a3d cfeb 84bc 6293 593c
00000070: dd8f 6e3d dcd2 ecbc 93e3 d23d d486 943d
00000080: 6d58 a1bd b9ed 94bd aa12 06be 6a9a 093d
00000090: b455 d7bd 6e7a c9bd eb45 abbd 7275 01be
000000a0: 7768 d9bd a757 e63d a8ff 963d 76a9 d73d
000000b0: d789 79bd cb4e 4cbd ffd1 4abd d85b 0ebc
000000c0: 9327 c4bd eb66 653c 7d36 a5bd c315 0c3d
000000d0: 1ffb e03d f082 503c 58b8 af3d 5587 c5bd
000000e0: 6684 c8bc 421f b5bd 78b5 a0bc 7c3e 5bbd
000000f0: ba67 9cbd e5c4 edbd c0b5 3bbd fa4d 983c
00000100: 31ee 87bc dabe dbbd c290 a03d 6197 af3d
00000110: 5549 93bd 794a 6b3c 690c 9d3d 59e2 fcbd
00000120: 947c d4bd e89e 883d 6abb 033c 5e98 4e3d
00000130: 36cd 6cbd 4c52 9a3c cabd 9d3d 187b e1bc
00000140: c689 39bd 1024 03be ca53 84bc ce8f 9c3d
00000150: 8f9c fcbd d757 5dbb 1fa9 ad3d 83c6 abbc
00000160: ef3b 4dbd e630 42bd 1ae6 44bd 9112 153d
00000170: 4afa e0bd 1cff 263d be52 74bc 507d 8eb9
00000180: dd4a 8ebb 664c 983d 09e0 9fbd 2a0a ffbd
00000190: 3d7b c9bd abfe babd d98f 86bd e59a e63d
000001a0: df3d b7bd 4e6e 91bd 2022 c9bd 9bb5 82bd
000001b0: 82d8 903b 08da a7bd c6c3 5bba f710 5e3d
000001c0: 956c c4bc 4182 5a3d 9c87 173d 1bb8 fc3d
000001d0: 2866 ba3a e5d6 d73d 8a9d c43d 36d5 843d
000001e0: d593 a93d 790c babd a6d0 99bd 3b79 3d3d
000001f0: c477 303d 406c ce3d f8ef 82bc 6bf8 e4bc
00000200: a1e3 b03d ed75 933c 6f7b 003e 9638 70bd
00000210: 4ecb 11bd 8945 e5bb 5bac 7b3d 8a81 e2bd
00000220: 40c5 35bd 6169 c23d 1331 fb3c 9e73 a63d
00000230: 8ced 31bd be30 9fbd 5aab b5bd 542a 91bd
00000240: c1c9 b8bd 58ec 833d ce84 343d 0c7e 96bd
00000250: 50cc f33d a368 173d a8ae 233d 4c99 6abd
00000260: 5592 a03d a29f b7bd 1614 c73d ff81 85bd
00000270: 3cbb 683d 8ce9 57bd 2527 a23d 19b8 d6bd
00000280: e1e7 bcbc f2c8 2fbd 8465 aabd 1f69 6bbd
00000290: 7fbb 33bd b926 c43b db58 ac3d e085 82bc
000002a0: bd9f ed3d e2ed 5abd 818c 77bd a5fb ddbb
000002b0: bea2 9bbc 0734 2a3d bfb2 db3d a623 0d3d
000002c0: 2190 dfbd 0a61 3ebd fcff cbbc 0a21 d4bd
000002d0: fb07 3c3d 8cc9 d03d 1bd9 783d 2421 32b9
000002e0: c2d7 82bc 0150 92bd 0bad 8cbc 42e2 e23d
000002f0: 3c0a 93bd ca31 bb3c e636 aebd bbaa f1bc
00000300: 5f97 a43c 0c00 bfbd 8e97 253d 63a9 d0bd
00000310: b06c 3dbd 9b8b b93d cfa9 fd3d e0b8 1abb
00000320: a874 bfbd 24e6 c0bd f39e e7bc 4178 91bd
00000330: 5e85 c33d 299a b3bd f2ee b03d 5e1e 8f3c
00000340: 490a 26bd 0379 da3d a814 863d 50c7 c53a
00000350: f45f 9dbd 3065 3cbd 2161 3c3d 49f3 df3d
00000360: cced 3ebd 78c2 1fbd d674 eabd c515 a63d
00000370: 789a f83d 12a7 a23d 2bf3 a1bd 22d7 9c3d
00000380: 40ef 33bd 2507 873d 6d81 8b3d db98 c4bd
00000390: cfaa 083d ae10 583d 1655 87bd c6b9 d13d
000003a0: 5091 bc3d eaac e53d 73c1 dd3b 862e 8cbd
000003b0: 089e 81bd 448b 4f3d eec2 e3bc a2be ba3d
000003c0: 48ec de3d a56b 293c 7ba2 e3bd 9c18 433d
000003d0: fc79 e23d 9331 f2bc c390 95bd d61d edbc
000003e0: d63b 383c 88ea c7bd c3ee 723d ae43 633d
000003f0: 3d51 23bd cb6c 16bd 34cf 63bd 89b8 d83d

node_encoder.layers.6.bias f4 [32]
0.040739276 0.023055304 0.033482566 0.0010079714 -0.061292883 8.553916e-05 0.07605843 0.07028867
-0.03693119 0.048816826 0.020919962 0.0020458784 0.03193409 6.1622486e-05 -0.0013050562 -0.044870667
0.001359695 0.08424076 0.04062662 -0.06336127 -0.0005866207 0.0426993 -0.018517759 0.0014489616
0.026479239 0.06730576 0.075454235 -0.052959304 -0.07975141 0.051072717 -0.0006388016 0.07491761
00000000: 3ade 263d 7ade bc3c 0425 093d e81d 843a
00000010: 3f0e 7bbd 7d63 b338 86c4 9b3d 82f3 8f3d
00000020: 2945 17bd 27f4 473d 5760 ab3c 2514 063b
00000030: 52cd 023d 523b 8138 6b0e abba 4eca 37bd
00000040: cb37 b23a 6b86 ac3d 1968 263d 8ec3 81bd
00000050: 73c7 19ba 76e5 2e3d 8eb2 97bc 15eb bd3a
00000060: fdea d83c 9ad7 893d c087 9a3d dbeb 58bd
00000070: b554 a3bd a031 513d 4075 27ba 676e 993d

edge_encoder.layers.0.weight f4 [64, 4]
0.34962755 -0.2024558 0.14127782 0.15642396 -0.16874361 0.45931152 0.048893202 -0.15866378
-0.4583531 0.40371367 -0.4901841 0.38067612 -0.16110918 -0.09246005 0.08230818 0.47560817
-0.3097617 -0.34907746 0.31613517 -0.22027786 -0.18312696 0.281303 -0.21305594 0.2989453
-0.20533098 0.3871463 0.48884332 0.055614125 -0.15603618 0.2701105 0.15056364 0.0057475967
0.4284042 -0.016880758 0.19041361 -0.13156652 -0.083247475 -0.028889626 0.042055808 0.2186195
0.3741303 0.29711133 -0.21367575 0.42628533 0.32143733 0.1919547 0.05689755 -0.2656527
-0.30972645 0.013172981 -0.35826004 0.17105007 -0.45745698 -0.4447078 -0.2184671 0.27081832
0.40433264 -0.42087823 -0.3061376 0.095608994 -0.08668609 -0.40610835 0.14252944 -0.39670283
0.018679524 0.20557134 0.45516244 -0.41554233 0.36329192 0.0656167 0.44005796 0.48152223
-0.109929994 -0.08060323 -0.12912667 0.38277942 -0.21741275 0.33298337 0.20494248 0.45634398
0.35611963 0.3936755 -0.41136333 -0.2512047 -0.35706007 0.23651463 0.10392137 0.18269078
0.19399917 0.029501531 0.18375136 -0.27582017 0.32203528 -0.4386211 -0.45369714 0.16290575
0.46650338 -0.17386313 0.47110155 -0.17819014 -0.3812465 -0.08130381 0.27369222 -0.2455933
0.46743357 -0.23239075 -0.21890862 -0.20643617 -0.3884886 0.45792767 -0.2819742 -0.23327538
-0.14094071 0.41121498 0.250554 0.19586024 -0.14308698 0.24410816 0.08378191 0.40321165
0.117536426 0.37167856 0.3366293 0.081779696 -0.4729087 0.11313309 -0.3775456 0.07430802
-0.046773974 0.38130587 -0.37195903 -0.39843506 0.21120413 0.34242937 -0.11175634 0.14003408
0.4011615 0.06340238 -0.13821085 0.29010162 0.45962563 -0.09268375 0.3282075 0.02124398
-0.08668163 -0.045540564 -0.49649495 0.22608463 -0.266084 -0.43510282 -0.064111225 -0.18526995
-0.30699986 -0.110425666 -0.05486426 0.1551207 0.07022855 -0.058045045 0.11070091 -0.3214717
0.4311819 0.23007016 0.30883887 -0.43147588 0.33270997 0.08654271 -0.48766553 0.4639967
-0.0074974108 0.10714298 0.39476493 0.33472288 0.43956903 -0.4660085 0.49228 0.10296186
0.017040912 -0.4031409 -0.2583644 0.46421704 0.38489136 0.37987748 -0.035105016 -0.27123955
0.109871596 -0.23091434 -0.33204606 0.16506492 0.38101813 -0.3928467 -0.43770355 0.070521414
-0.183977 -0.26036328 -0.09936032 -0.030740753 -0.14584841 0.3537621 0.27952942 0.14815457
-0.161963 -0.03270674 0.3210165 0.040794834 -0.48286343 0.06046835 0.26005077 -0.12309103
-0.10489711 -0.07494493 0.29422787 0.39130336 -0.39233142 0.32915953 0.20350207 0.16677676
-0.29995644 -0.28298447 0.48238978 0.10705246 -0.106103 -0.095546976 0.3395609 -0.10771482
0.3422663 -0.13272533 0.114827715 0.114219934 -0.26086906 0.014784578 0.09649601 -0.4753913
-0.09310956 0.032545656 0.41504177 0.105298154 -0.42917 -0.15619579 0.48512307 -0.07549322
0.37377197 0.046437126 0.33091956 -0.20502158 0.484822 0.10716826 -0.10866399 0.3709085
0.23846559 -0.34837797 -0.024474181 0.3438156 0.1274304 -0.14962307 -0.33455127 -0.3364588
00000000: 6202 b33e 9350 4fbe 22ab 103e 9a2d 203e
00000010: 20cb 2cbe e12a eb3e 3d44 483d c278 22be
00000020: 42ad eabe 8fb3 ce3e 69f9 fabe fbe7 c23e
00000030: cef9 24be b25b bdbd 3191 a83d ea82 f33e
00000040: 1699 9ebe 48ba b2be 78dc a13e 8590 61be
00000050: a285 3bbe f206 903e 562b 5abe 5c0f 993e
00000060: 4942 52be 0a38 c63e ac49 fa3e a3cb 633d
00000070: f3c7 1fbe ec4b 8a3e 5b2d 1a3e 5656 bc3b
00000080: cc57 db3e 8449 8abc c9fb 423e 60b9 06be
00000090: a77d aabd f0a9 ecbc b642 2c3d cadd 5f3e
000000a0: 028e bf3e fa1e 983e d1cd 5abe 1242 da3e
000000b0: 6f93 a43e c68f 443e 680d 693d a103 88be
000000c0: 7794 9ebe 7dd3 573c dc6d b7be c027 2f3e
000000d0: cd37 eabe beb0 e3be d7b5 5fbe b3a8 8a3e
000000e0: b004 cf3e 5a7d d7be 11be 9cbe a6ce c33d
000000f0: 7a88 b1bd 6fed cfbe 3df3 113e a21c cbbe
00000100: cd05 993c 4b81 523e 0d0b e93e f7c1 d4be
00000110: 6601 ba3e 0c62 863d 474f e13e 158a f63e
00000120: fa22 e1bd 4e13 a5bd c839 04be aafb c33e
00000130: 73a1 5ebe cc7c aa3e 71dc 513e eba5 e93e
00000140: 5055 b63e d68f c93e 379e d2be e79d 80be
00000150: 94d0 b6be e430 723e bad4 d43d 4b13 3b3e
00000160: b8a7 463e 32ad f13c 5129 3c3e 4d38 8dbe
00000170: cfe1 a43e f292 e0be fe4a e8be c4d0 263e
00000180: 88d9 ee3e 2d09 32be 3934 f13e 7a77 36be
00000190: be32 c3be 9d82 a6bd 6321 8c3e cf7c 7bbe
000001a0: 7453 ef3e d7f7 6dbe 9529 60be 0164 53be
000001b0: fae7 c6be 7f75 ea3e ec5e 90be bedf 6ebe
000001c0: c352 10be c58a d23e 9d48 803e 968f 483e
000001d0: 6585 12be 7df7 793e da95 ab3d c271 ce3e
000001e0: f0b6 f03d a74c be3e ad5a ac3e 1d7c a73d
000001f0: 1721 f2be 52b2 e73d a84d c1be ce2e 983d
00000200: 1196 3fbd 863a c33e 6a71 bebe aeff cbbe
00000210: e545 583e e752 af3e 82e0 e4bd 1865 0f3e
00000220: 0a65 cd3e 1bd9 813d 2587 0dbe 3388 943e
00000230: 0d54 eb3e fad0 bdbd d00a a83e db07 ae3c
00000240: 2386 b1bd be88 3abd 9634 febe bb82 673e
00000250: 293c 88be ccc5 debe bf4c 83bd 68b7 3dbe
00000260: 162f 9dbe da26 e2bd 59b9 60bd f6d7 1e3e
00000270: fcd3 8f3d a4c0 6dbd 29b7 e23d f097 a4be
00000280: e0c3 dc3e 8397 6b3e 2120 9e3e 68ea dcbe
00000290: f658 aa3e 4e3d b13d 4caf f9be fa90 ed3e
000002a0: d7ac f5bb c76d db3d a11e ca3e cc60 ab3e
000002b0: 310f e13e ab98 eebe 200c fc3e abdd d23d
000002c0: 6299 8b3c 7c68 cebe 5748 84be dbad ed3e
000002d0: 7b10 c53e 4d7f c23e 47ca 0fbd e9df 8abe
000002e0: 5c04 e13d cf74 6cbe f101 aabe c706 293e
000002f0: cf14 c33e 3423 c9be ae1a e0be 886d 903d
00000300: 7764 3cbe 564e 85be 6c7d cbbd 08d4 fbbc
00000310: 4959 15be 4e20 b53e 7b1e 8f3e d5b5 173e
00000320: a1d9 25be 81f7 05bd 465c a43e 7c18 273d
00000330: e039 f7be a9ad 773d 6025 853e 2617 fcbd
00000340: 4cd4 d6bd ba7c 99bd 09a5 963e ea58 c83e
00000350: aadf c8be 9987 a83e d962 503e 87c7 2a3e
00000360: e493 99be 57e3 90be cbfb f63e 523e db3d
00000370: 884c d9bd 22ae c3bd edda ad3e 9699 dcbd
00000380: 873d af3e 26e9 07be cb2a eb3d 24ec e93d
00000390: a190 85be 043b 723c b39f c53d 7d66 f3be
000003a0: 3ab0 bebd 984e 053d 5b80 d43e 8fa6 d73d
000003b0: 2cbc dbbe caf1 1fbe 0d62 f83e 309c 9abd
000003c0: 0a5f bf3e db34 3e3d 4a6e a93e 2df1 51be
000003d0: 973a f83e 087b db3d 3a8b debd b8e7 bd3e
000003e0: 5330 743e 995e b2be 147e c8bc 9908 b03e
000003f0: 1d7d 023e ca36 19be 4e4a abbe 5444 acbe

edge_encoder.layers.0.bias f4 [64]
0.23871619 0.18721427 -0.4035429 -0.064961895 0.088360146 -0.40286174 0.39139038 -0.018349484
-0.16419555 0.020438652 0.14186293 0.073205374 0.43461213 0.24223898 -0.014103748 0.0479666
0.08306288 -0.15942153 -0.38893688 -0.01822521 -0.15161048 -0.43276325 0.13955963 -0.17083526
0.43914676 0.14006184 0.17396085 0.1072834 0.156131 0.28081158 0.3278929 0.0006316325
-0.1033431 0.0971482 -0.18657032 0.0013501424 0.10753861 0.18439296 -0.44407278 0.1547476
-0.15472952 -0.31278548 -0.17396526 -0.00039488217 0.20711753 -0.40578935 0.09749119 0.41096213
-0.24324861 0.08141233 -0.16210346 0.08480014 0.17751944 -0.2687023 0.08157735 0.45462444
0.0037322168 -0.31551605 0.00033459903 0.072380714 0.11541892 -0.0043885005 -0.06934295 -0.20947936
00000000: 0472 743e 19b5 3f3e 2d9d cebe be0a 85bd
00000010: 2af6 b43d e543 cebe 5264 c83e a851 96bc
00000020: e122 28be f66e a73c 8444 113e b3ec 953d
00000030: 7b85 de3e 7f0d 783e 6813 67bc a078 443d
00000040: df1c aa3d 663f 23be bc22 c7be 094d 95bc
00000050: c73f 1bbe 2593 ddbe b8e8 0e3e 70ef 2ebe
00000060: d8d7 e03e 5f6c 0f3e cb22 323e 66b7 db3d
00000070: cee0 1f3e 89c6 8f3e 94e1 a73e 2494 253a
00000080: 8ca5 d3bd a3f5 c63d 4a0c 3fbe 43f7 b03a
00000090: 343d dc3d 82d1 3c3e 825d e3be 2876 1e3e
000000a0: 6a71 1ebe 6b25 a0be f323 32be 3008 cfb9
000000b0: 9e16 543e 9fc3 cfbe 76a9 c73d a169 d23e
000000c0: 2a16 79be 82bb a63d 73fe 25be b2ab ad3d
000000d0: a8c7 353e 5993 89be 0712 a73d 89c4 e83e
000000e0: 3598 743b 528b a1be 1f6d af39 573c 943d
000000f0: c160 ec3d 69cd 8fbb ad03 8ebd c281 56be

edge_encoder.layers.1.weight f4 [64]
0.9872803 0.9851787 0.9935791 1.0027163 0.9931181 1.0048857 0.98776525 1.0045187
1.0013901 0.9896534 1.0053731 0.993072 0.9840358 0.98570156 0.98991054 0.99072564
0.98260844 0.9928608 0.98245245 0.99431807 0.9883835 0.98680145 0.9901579 0.9889367
0.99057674 0.99561006 0.9860744 1.0057795 0.99351674 0.98905325 0.99213 0.98965526
1.0033321 0.9921768 0.99033797 0.9908629 0.9920412 0.986567 0.9926248 0.99005485
0.98919356 0.99497646 0.99340135 0.9995607 0.99954265 0.9895396 1.0035348 0.98816943
0.9853089 0.9878324 0.9966828 0.98510826 0.98117226 0.99302244 1.0035443 0.9954809
0.98719066 1.0045578 0.9952755 0.99601513 0.9992118 1.0037729 0.98773336 1.0022254
00000000: 67be 7c3f ac34 7c3f 335b 7e3f 0259 803f
00000010: fd3c 7e3f 18a0 803f 2fde 7c3f 1294 803f
00000020: 8d2d 803f ed59 7d3f 11b0 803f f739 7e3f
00000030: c5e9 7b3f f056 7c3f c76a 7d3f 32a0 7d3f
00000040: 3a8c 7b3f 202c 7e3f 0182 7b3f a18b 7e3f
00000050: b306 7d3f 059f 7c3f fd7a 7d3f f52a 7d3f
00000060: 7096 7d3f 4de0 7e3f 5f6f 7c3f 62bd 803f
00000070: 1d57 7e3f 9832 7d3f 3bfc 7d3f 0c5a 7d3f
00000080: 306d 803f 4cff 7d3f ca86 7d3f 31a9 7d3f
00000090: 69f6 7d3f a88f 7c3f a91c 7e3f 3c74 7d3f
000000a0: ca3b 7d3f c7b6 7e3f 8d4f 7e3f 36e3 7f3f
000000b0: 07e2 7f3f 7852 7d3f d473 803f acf8 7c3f
000000c0: 343d 7c3f 96e2 7c3f 9b26 7f3f 0e30 7c3f
000000d0: 1b2e 7b3f b836 7e3f 2474 803f d6d7 7e3f
000000e0: 87b8 7c3f 5a95 803f 60ca 7e3f d9fa 7e3f
000000f0: 58cc 7f3f a17b 803f 18dc 7c3f ec48 803f

edge_encoder.layers.1.bias f4 [64]
-0.005247937 -0.005437325 -0.0055227047 0.0063678445 0.00041611877 0.007959847 -0.008933568 0.007954575
0.004060529 0.0043017 0.007841913 -0.0013149811 -0.008539817 -0.0109260185 -0.009259779 -0.005813048
-0.014777724 -0.005807335 -0.016384853 -0.0033201864 -0.006012327 -0.0090408735 -0.005731058 -0.006149433
-0.0051510246 -0.0014302431 -0.0023289185 0.008615543 -0.0010592475 -0.00641604 -0.0053549097 -0.007539486
0.0046502613 -0.0030864032 -0.007024086 -0.008124911 -0.0079876445 -0.016778907 0.0023477713 -0.008335278
-0.0066106413 -0.0019086853 -0.005354745 0.005110103 0.0036162126 -0.008347338 0.0060423 -0.007894102
-0.010703263 -0.00999281 -0.0010390981 -0.011416069 -0.01542604 -0.005556372 0.008763279 -0.0038762304
-0.007246596 0.009489179 -0.0032386077 0.001015216 0.0013037169 0.006090595 -0.010935065 0.004353258
00000000: e3f6 abbb 972b b2bb cef7 b4bb 5aa9 d03b
00000010: 842a da39 056a 023c 1a5e 12bc e853 023c
00000020: 300e 853b 46f5 8c3b 5e7b 003c 725b acba
00000030: 97ea 0bbc 0b03 33bc 54b6 17bc 627b bebb
00000040: 441e 72bc 754b bebb 8739 86bc 7c97 59bb
00000050: 0e03 c5bb 2c20 14bc 99cb bbbb 2f81 c9bb
00000060: edc9 a8bb ff76 bbba c5a0 18bb 3528 0d3c
00000070: 73d6 8aba a53d d2bb 3d78 afbb cb0d f7bb
00000080: 3861 983b 4145 4abb 4e2a e6bb 591e 05bc
00000090: 9cde 02bc eb73 89bc 11dd 193b b190 08bc
000000a0: 149e d8bb da2c faba db76 afbb a772 a73b
000000b0: fbfd 6c3b 46c3 08bc 7cfe c53b 4356 01bc
000000c0: bd5c 2fbc e2b8 23bc 5932 88ba 770a 3bbc
000000d0: 80bd 7cbc 3a12 b6bb db93 0f3c 5b08 7ebb
000000e0: da74 edbb 8078 1b3c d23e 54bb ff10 853a
000000f0: 7be1 aa3a 9d93 c73b fd28 33bc c6a5 8e3b

edge_encoder.layers.1.running_mean f4 [64]
0.25082842 0.18013017 -0.389639 -0.048646472 0.08124605 -0.39423805 0.38932413 -0.025720326
-0.17563987 0.03317104 0.16610985 0.064183034 0.45012566 0.26371458 -0.0054877284 0.03569841
0.06208917 -0.14723808 -0.37470168 -0.0069076233 -0.16471335 -0.43303573 0.12984775 -0.1586542
0.43269846 0.13016139 0.17459598 0.10013623 0.16287145 0.29994774 0.3295041 0.004728735
-0.12409026 0.10674233 -0.17619811 -0.0010710536 0.12782195 0.18417802 -0.44100973 0.14433162
-0.18275318 -0.29107964 -0.16904733 0.0038119226 0.23826346 -0.4240596 0.11494966 0.4275277
-0.24634998 0.08594791 -0.16849299 0.07908856 0.19629098 -0.27155954 0.086576015 0.45095778
0.011789776 -0.3427972 -7.961946e-05 0.067971654 0.107301064 0.010955496 -0.05476404 -0.22352464
00000000: 956c 803e 0b74 383e c37e c7be 8641 47bd
00000010: 5464 a63d 92d9 c9be 7e55 c73e 6fb3 d2bc
00000020: f0da 33be 5bde 073d b318 2a3e 6572 833d
00000030: df76 e63e 9905 873e 67d2 b3bb 7f38 123d
00000040: 3751 7e3d 94c5 16be e6d8 bfbe 5859 e2bb
00000050: 9eaa 28be dcb6 ddbe cff6 043e 3f76 22be
00000060: a78a dd3e 0749 053e 4ac9 323e 3914 cd3d
00000070: c6c7 263e c092 993e c3b4 a83e 81f3 9a3b
00000080: 0923 febd b99b da3d 476d 34be 9862 8cba
00000090: c2e3 023e 2a99 3c3e 07cc e1be abcb 133e
000000a0: a623 3bbe 6408 95be be1a 2dbe 73d1 793b
000000b0: 56fb 733e 571e d9be ba6a eb3d e9e4 da3e
000000c0: 2b43 7cbe 7505 b03d 6d89 2cbe 2ff9 a13d
000000d0: 8100 493e da09 8bbe c44e b13d f0e3 e63e
000000e0: e829 413c 1d83 afbe 5ff9 a6b8 b934 8b3d
000000f0: a9c0 db3d ae7e 333c 4250 60bd a5e3 64be

edge_encoder.layers.1.running_var f4 [64]
0.039800994 0.028244514 0.22874694 0.010565402 0.10116499 0.04739021 0.19797346 0.028407225
0.05750245 0.0028022197 0.06582503 0.023433985 0.11053342 0.088952094 0.11504695 0.032891195
0.15693846 0.16424543 0.015084733 0.050680332 0.16081363 0.03567303 0.03133014 0.18852663
0.20263326 0.07996842 0.07814656 0.10554043 0.06659844 0.0152121 0.09903346 0.14394943
0.1164793 0.02825715 0.041645154 0.11565668 0.182654 0.033527203 0.019386133 0.010424896
0.106006086 0.19446054 0.11648742 0.23316823 0.06584156 0.039755147 0.08840822 0.18122667
0.019650657 0.073774494 0.08046766 0.089537136 0.066359505 0.06806916 0.19366178 0.08743239
0.031470113 0.018779483 0.12816939 0.20589271 0.103927985 0.049416535 0.02283674 0.087379955
00000000: 5e06 233d 0a61 e73c a33c 6a3e 821a 2d3c
00000010: 972f cf3d 3d1c 423d 8eb9 4a3e 45b6 e83c
00000020: b087 6b3d 72a5 373b 46cf 863d a1f8 bf3c
00000030: 595f e23d 842c b63d bc9d eb3d ebb8 063d
00000040: 7ab4 203e f42f 283e f525 773c 2e96 4f3d
00000050: 54ac 243e e21d 123d 0854 003d 200d 413e
00000060: 187f 4f3e 7cc6 a33d 4e0b a03d 9525 d83d
00000070: c364 883d 2c3c 793c 0ed2 ca3d 7b67 133e
00000080: b38c ee3d 8a7b e73c 1c94 2a3d 69dd ec3d
00000090: a609 3b3e d253 093d abcf 9e3c 2fcd 2a3c
000000a0: b819 d93d aa20 473e f590 ee3d a7c3 6e3e
000000b0: f1d7 863d 4bd6 223d 5e0f b53d 7c93 393e
000000c0: 6afa a03c 1517 973d 3bcc a43d 3f5f b73d
000000d0: 7ee7 873d d867 8b3d 464f 463e c10f b33d
000000e0: cee6 003d 6ed7 993c d63e 033e 8ad5 523e
000000f0: 32d8 d43d fe68 4a3d 1d14 bb3c 43f4 b23d
