gnn/gnn_outputs/checkpoint_epoch_400.pt (torch, 147641 bytes, 208 tensors)

node_encoder.layers.0.weight f4 [16, 3]
0	0x3ed0343d	0.40664855
1	0x3eecefdb	0.46276745
2	0xbe3c2b7f	-0.18375967
3	0x3f065740	0.5247688
4	0xbe34b2e0	-0.1764636
5	0x3d0d5f1f	0.034514543
6	0xbea869f8	-0.32893348
7	0x3ed3a810	0.4133916
8	0x3edc619e	0.43043226
9	0xbec93864	-0.39300835
10	0x3f0363b4	0.5132401
11	0x3df1c498	0.118050754
12	0x3ee2675b	0.4421948
13	0x3d867453	0.06565156
14	0x3e8b56a5	0.27214542
15	0xbe278d23	-0.16362433
16	0x3ebb1a80	0.36543655
17	0x3d93e804	0.07221988
18	0xbe9936ae	-0.2992453
19	0x3da2de34	0.07952538
20	0xbe926342	-0.28591353
21	0xbda97793	-0.0827476
22	0xbe8827b6	-0.26592797
23	0x3eb1562b	0.34636053
24	0xbee2959f	-0.44254777
25	0xbeb54dc6	-0.354109
26	0xbddd7137	-0.1081261
27	0xbed95666	-0.4244873
28	0x3cc1c014	0.02365116
29	0xbef2ad3d	-0.47397795
30	0x3f0168b5	0.50550395
31	0xbf1805bb	-0.59383744
32	0x3ea703ac	0.3261999
33	0x3dee3171	0.11630524
34	0xbde871c4	-0.11349824
35	0x3ecd9153	0.40149936
36	0x3daf3080	0.085541725
37	0x3ecb863c	0.3975085
38	0x3dfe6d4c	0.124231905
39	0xbe572028	-0.2100836
40	0x3e0ca4b5	0.13734706
41	0xbe1cf7ab	-0.15328853
42	0x3e8369b4	0.25666583
43	0x3f043839	0.5164829
44	0x3e995e20	0.29954624
45	0xbe894fcd	-0.26818696
46	0x3e87168e	0.26384395
47	0x3e1c7d42	0.15282157

node_encoder.layers.0.bias f4 [16]
0	0x3d1a08b3	0.037605952
1	0xbd91d889	-0.07121379
2	0xbe777f96	-0.24169764
3	0xbc2a8e59	-0.010409915
4	0xbe0b0d80	-0.13579369
5	0x3e23cf21	0.15996982
6	0x3aa35c03	0.0012463335
7	0x3c77676a	0.015100339
8	0x3b35979d	0.0027708777
9	0xb7112529	-8.6513255e-06
10	0x3e122f4e	0.14275858
11	0xbde3e0ab	-0.111268364
12	0xb6ca3e32	-6.0273096e-06
13	0xbdcc812a	-0.099855736
14	0x3b128e46	0.0022362634
15	0xbba7215c	-0.0051004123

node_encoder.layers.1.weight f4 [16]
0	0x3f792903	0.97328204
1	0x3f85078b	1.0392927
2	0x3f78e403	0.9722292
3	0x3f8248c7	1.017846
4	0x3f6e2e51	0.93039423
5	0x3f829df7	1.0204457
6	0x3f849d39	1.036048
7	0x3f814166	1.0098083
8	0x3f87c3ff	1.0606688
9	0x3f7a3e7d	0.977516
10	0x3f7fa72f	0.99864477
11	0x3f82a9fd	1.0208126
12	0x3f77ea4b	0.9684188
13	0x3f76681f	0.96252626
14	0x3f7c53f5	0.9856561
15	0x3f8589e8	1.0432711

node_encoder.layers.1.bias f4 [16]
0	0xbceb39f6	-0.028714161
1	0x3d2b1126	0.0417644
2	0x3d19d256	0.037554108
3	0x3d455b31	0.04818267
4	0xbce53848	-0.027980939
5	0xbcb320bb	-0.021866193
6	0x3ca0ce6e	0.019629683
7	0xbc620666	-0.013795471
8	0xbdeba149	-0.11505372
9	0xbccb9b99	-0.024854468
10	0xbd6a5e80	-0.05721903
11	0xbc4ec355	-0.012619813
12	0xbcbb3450	-0.022852093
13	0x3d6db324	0.05803217
14	0x3c30ae8a	0.010783801
15	0x3d36d6dd	0.044638503

node_encoder.layers.1.running_mean f4 [16]
0	0x3ee2bc9f	0.4428453
1	0x3de49d1a	0.11162777
2	0x3d753690	0.059866488
3	0x3e2454e6	0.16048011
4	0x3e8caeb1	0.2747703
5	0x3eae0807	0.339905
6	0xbe821962	-0.2540999
7	0xbc4e21e0	-0.012581319
8	0xbf00d62f	-0.5032682
9	0xbee7ccd8	-0.4527347
10	0x3e5a0961	0.2129264
11	0x3dacfe18	0.08446902
12	0x3eb56784	0.3543054
13	0xbe53b12c	-0.20673054
14	0x3f1c4893	0.6104824
15	0x3dc2fa6e	0.09520422

node_encoder.layers.1.running_var f4 [16]
0	0x3d24175d	0.040061343
1	0x3cb139ff	0.0216341
2	0x3d2d125d	0.04225384
3	0x3d091930	0.033471286
4	0x3cc35ce3	0.023848003
5	0x3c62ba62	0.013838382
6	0x3c7cfa54	0.015440542
7	0x3ca4da7b	0.02012371
8	0x3d013a0f	0.03154951
9	0x3d19cc3e	0.037548296
10	0x3d632d44	0.05546309
11	0x3c9c7282	0.01909757
12	0x3c93ddc7	0.018050088
13	0x3bdf59cb	0.006816124
14	0x3d323897	0.043511
15	0x3c56b644	0.013104979

node_encoder.layers.3.weight f4 [16, 16]
0	0x3dade198	0.08490294
1	0xbdb39b04	-0.08769801
2	0x3e5f0477	0.21779047
3	0xbde12df2	-0.109950915
4	0xbe187efe	-0.14892194
5	0xbe08765f	-0.13326405
6	0x3e6a7eb9	0.22899903
7	0x3dd26a23	0.1027415
8	0x3e6cedac	0.2313754
9	0xbe4ea20a	-0.20179
10	0xbe778605	-0.24172218
11	0xbe323b06	-0.17405328
12	0xbe2bd649	-0.16780962
13	0x3dd4b0a8	0.10385257
14	0x3d9e97ff	0.07743835
15	0x3e7221d1	0.23645712
16	0xbe213c44	-0.15745646
17	0xbe57b3ba	-0.21064654
18	0x3e16d82e	0.14730904
19	0xbdf60770	-0.12013137
20	0x3df41743	0.11918499
21	0xbd8afa5b	-0.06786033
22	0x3dd06e99	0.10177345
23	0xbe3eeb3d	-0.18644424
24	0xbde4f573	-0.11179628
25	0x3d16880f	0.03675085
26	0x3b3856bc	0.002812787
27	0xbdc5c35f	-0.09656405
28	0x3e163d15	0.14671738
29	0x3e11a946	0.14224729
30	0xbe32a568	-0.1744591
31	0xbe110229	-0.1416098
32	0x3e5fe5e1	0.21865036
33	0xbc85a584	-0.016314276
34	0xbdfef092	-0.12448229
35	0xbe91b58d	-0.28458825
36	0xbe2a0de6	-0.16606864
37	0x3cf9df0d	0.030501867
38	0xbd4daa81	-0.050211433
39	0xbe823943	-0.25434312
40	0xbd17f706	-0.037100814
41	0xbe187b10	-0.14890695
42	0xbe130486	-0.14357194
43	0xbe116435	-0.14198382
44	0xbe70ecde	-0.23527858
45	0xbe320f7b	-0.17388718
46	0x3e689285	0.22712143
47	0xbb5f198b	-0.0034042324
48	0x3d85b402	0.065284744
49	0xbe664600	-0.2248764
50	0xbe06b247	-0.13153945
51	0xbdf215cd	-0.118205644
52	0x3cc29e8c	0.023757242
53	0xbe5b8d3c	-0.21440595
54	0xbdfdf69e	-0.12400554
55	0xbe16149d	-0.14656301
56	0x3cb6c72a	0.022311766
57	0xbdac394c	-0.08409366
58	0xbccef51e	-0.025263365
59	0xbe3986a3	-0.18117766
60	0xbe1374ca	-0.1440002
61	0xbe3c63dd	-0.1839747
62	0xbd0550d6	-0.032547794
63	0xbe702826	-0.23452815
64	0x3e5e9b94	0.21739036
65	0xbd75e118	-0.06002912
66	0x3e412a3f	0.18863772
67	0x3da2b6a8	0.07944995
68	0xbe633737	-0.22189032
69	0x3e2f4850	0.17117429
70	0xbdb2b645	-0.087261714
71	0xbdd73428	-0.10507995
72	0xbe4121e5	-0.18860586
73	0xbe949069	-0.29016426
74	0x3d6c8a00	0.057748795
75	0xbd9f0cdf	-0.07766127
76	0x3dad4470	0.08460319
77	0xbe61af94	-0.22039634
78	0x3e28b751	0.1647618
79	0xbe33c792	-0.17556599
80	0xbde25fac	-0.11053404
81	0x3d895ab7	0.067067556
82	0x3de75f80	0.11297512
83	0x3e3a7fc0	0.18212795
84	0x3dd57209	0.10422141
85	0xbe6d67d2	-0.23184136
86	0x3da0374f	0.07823049
87	0xbe1e74d4	-0.15474254
88	0xbd0cbb5d	-0.03435837
89	0xbda7ca24	-0.08192852
90	0x3e6e617b	0.23279373
91	0xbe845dbd	-0.25852767
92	0x3dc4a69a	0.09602089
93	0x3dbee4ea	0.09321006
94	0x3cda9015	0.026680032
95	0xbe1f8801	-0.15579225
96	0x3e4144b4	0.18873864
97	0x3d4ae655	0.049536068
98	0xbc4df395	-0.0125702815
99	0xbe80aa65	-0.2513
100	0x3d329b6d	0.043605257
101	0xbd9cbcb5	-0.076531805
102	0xbe0cfd2e	-0.13768455
103	0x3e554c5e	0.20829913
104	0x3de48e1f	0.1115992
105	0xbe01a01a	-0.1265873
106	0xbdbafcb8	-0.091302335
107	0xbd48e084	-0.04904224
108	0x3dd0ea34	0.10200921
109	0xbdbc00ac	-0.09179816
110	0xbe36ddaa	-0.17857996
111	0xbdf94e18	-0.12173098
112	0xbe1bdad9	-0.15220203
113	0x3d9de2a0	0.07709241
114	0x3e2b4a8c	0.16727656
115	0xbe4be92b	-0.19913165
116	0x3cdfa74d	0.027301455
117	0x3e309512	0.17244366
118	0xbc814fbb	-0.015785089
119	0xbd622385	-0.055209655
120	0x3e3460ff	0.17615126
121	0x3dc3de91	0.095639355
122	0x3dd505e1	0.10401512
123	0xbd611191	-0.054948393
124	0xbd08bc33	-0.033382606
125	0xbd3b7ba5	-0.045772213
126	0xbcccc2a7	-0.024995161
127	0xbd85c7f6	-0.0653228
128	0x3da86369	0.08222086
129	0x3e5877d5	0.21139462
130	0xbdeaeb59	-0.1147067
131	0xbd06f339	-0.0329468
132	0xbd3fc52e	-0.046818905
133	0xbd459186	-0.048234485
134	0x3db5bf5f	0.08874392
135	0x3d8f137c	0.06986138
136	0xbe0f5e7f	-0.14000891
137	0xbd0b6ed3	-0.034041237
138	0x3e83cb04	0.25740826
139	0x3db23b0a	0.08702667
140	0xbda096f4	-0.07841292
141	0xbe038838	-0.12844932
142	0xbe4bebb9	-0.1991414
143	0xbe80c301	-0.25148776
144	0xbccb1ddd	-0.024794513
145	0x3e0d5f2e	0.1380584
146	0x3de4c191	0.11169732
147	0x3d714a89	0.058908973
148	0xbe4ac572	-0.19801882
149	0xbe11bd34	-0.14232332
150	0xbd671fef	-0.05642694
151	0x3e845cd0	0.2585206
152	0x3dc27e25	0.094967164
153	0xbd93571e	-0.07194351
154	0x3e154b50	0.1457951
155	0xbdb5d08f	-0.0887767
156	0xbd88f24c	-0.066868395
157	0x3e29acfe	0.16569898
158	0xbda6447d	-0.08118532
159	0xbdde6c6f	-0.10860526
160	0xbe264092	-0.16235569
161	0x3e5d3036	0.21600422
162	0x3e628eb3	0.22124748
163	0x3d2464ac	0.04013507
164	0xbe08af3e	-0.133481
165	0xbe689551	-0.2271321
166	0xbe6f6e1b	-0.23381846
167	0x3e5323d2	0.20619133
168	0x3d9c744a	0.07639368
169	0x3e3291d6	0.17438444
170	0x3e1fbd8c	0.1559965
171	0x3db78588	0.08961016
172	0x3d82f8ba	0.06395097
173	0xbe4e35fe	-0.20137784
174	0xbe2825b6	-0.16420636
175	0xbe8836d3	-0.26604328
176	0x3db8166b	0.08988651
177	0xbdaede4c	-0.085384935
178	0xbddceef3	-0.107877634
179	0xbe2a0bf0	-0.16606116
180	0xbd648c36	-0.055797778
181	0xbe378161	-0.17920448
182	0xbe3b667f	-0.18300818
183	0x3dd89218	0.1057474
184	0xbd970993	-0.07374873
185	0x3e10fc9e	0.14158866
186	0xbc616b64	-0.013758514
187	0xbe28f5d3	-0.16500024
188	0xbd28c65e	-0.041204803
189	0xbe191bf3	-0.14952068
190	0xbdab3fd8	-0.083617866
191	0xbe8a88ac	-0.27057397
192	0x3e0c890b	0.13724153
193	0xbe304dfc	-0.17217249
194	0x3daea9b5	0.08528463
195	0x3de7e561	0.113230474
196	0x3e31eff3	0.1737669
197	0xbe39c959	-0.18143214
198	0x3e471b2f	0.19443963
199	0xbd8c9f72	-0.06866349
200	0x3e093b08	0.13401425
201	0x3e7df79b	0.24801485
202	0xba52c898	-0.0008040755
203	0x3c68c66f	0.0142074665
204	0xbd15d289	-0.036577735
205	0xbe4878bf	-0.19577311
206	0x3dc996da	0.09843226
207	0xbe85b280	-0.26112747
208	0x3e4357a5	0.19076402
209	0x3e41d77f	0.18929861
210	0x3e608686	0.21926317
211	0xbdadb060	-0.084809065
212	0xbe210009	-0.1572267
213	0x3cb7eee0	0.022452772
214	0x3e05ca5d	0.13065477
215	0xbe895799	-0.26824644
216	0xbdd057ab	-0.10172971
217	0xbe2748ae	-0.16336319
218	0xbd42869a	-0.047491647
219	0xbe056613	-0.1302722
220	0xbe08a6f8	-0.13344944
221	0xbdb1cdeb	-0.08681854
222	0xbe6c8621	-0.23098041
223	0x3e3a7d95	0.18211968
224	0x3e6453bb	0.22297566
225	0x3c80ccc0	0.015722632
226	0x3d67f0bc	0.056626067
227	0xbe096dcb	-0.13420789
228	0xbe05f7d0	-0.13082814
229	0xbe8fbf69	-0.28075722
230	0x3d827c55	0.06371371
231	0xbd11fcd0	-0.03564149
232	0xbe3d4207	-0.18482219
233	0xbd45d8cd	-0.04830246
234	0xbdb7f960	-0.089831114
235	0x3c3a7457	0.011380277
236	0xbada3da7	-0.0016650454
237	0xbdc7b491	-0.09751237
238	0xbcfa2d05	-0.030539045
239	0xbdd06ece	-0.10177384
240	0xbe87e36b	-0.26540694
241	0x3e896377	0.26833698
242	0xbdc9f113	-0.098604344
243	0x39c2b41f	0.00037136764
244	0xbe0a7e4d	-0.13524742
245	0xbd05e8b5	-0.03269263
246	0x3e44d562	0.19222024
247	0x3da77d3d	0.08178184
248	0xbe4d3a41	-0.20041753
249	0x3dfeed32	0.12447585
250	0x3e83d84c	0.2575096
251	0x3d0dd88a	0.034630336
252	0x3e1134aa	0.14180246
253	0x3e2e29d7	0.17008148
254	0xbd61492c	-0.055001423
255	0xbbb996fb	-0.00566375

node_encoder.layers.3.bias f4 [16]
0	0xbaf0c94c	-0.0018370538
1	0x362c9ecc	2.572243e-06
2	0x3b48a50c	0.0030615954
3	0x385019d4	4.961512e-05
4	0xba4970cd	-0.000768435
5	0xbbb11456	-0.0054040356
6	0xbad09463	-0.0015913363
7	0xbc90dcf1	-0.017683478
8	0xbb87d06f	-0.0041447203
9	0x349b71e9	2.895388e-07
10	0x3aba575f	0.0014216712
11	0xb58f5dff	-1.0681687e-06
12	0xbb751b07	-0.0037400143
13	0xbbb1ce83	-0.0054262294
14	0x37fe9811	3.0349971e-05
15	0xbb4f7a3a	-0.0031658546

node_encoder.layers.4.weight f4 [16]
0	0x3f8095b3	1.0045685
1	0x3f6fb0c3	0.9362909
2	0x3f7a1c45	0.97699386
3	0x3f7c68bd	0.9859732
4	0x3f7dc5a5	0.99129707
5	0x3f79629a	0.9741608
6	0x3f74ef52	0.95677674
7	0x3f8223a7	1.016713
8	0x3f7ab330	0.9792967
9	0x3f842289	1.0323039
10	0x3f711bf3	0.9418327
11	0x3f821503	1.0162662
12	0x3f7db341	0.99101645
13	0x3f718aae	0.94352233
14	0x3f7fe41b	0.99957436
15	0x3f7ed648	0.9954572

node_encoder.layers.4.bias f4 [16]
0	0x3cb6711e	0.022270735
1	0xbc963593	-0.018336093
2	0xbc2ad58e	-0.010426892
3	0x3cc8856b	0.024477681
4	0xbc6511e2	-0.013981314
5	0xbd0995f4	-0.033590272
6	0xbcd5802a	-0.02606209
7	0xbce71647	-0.028208865
8	0xbd5d8f82	-0.054091938
9	0xbdb22740	-0.086988926
10	0xbd4922bf	-0.049105402
11	0x3c77503a	0.015094811
12	0x3c203d4a	0.009780237
13	0xbd035fdf	-0.03207385
14	0xbd2c7983	-0.04210807
15	0x3c065766	0.008199548

node_encoder.layers.4.running_mean f4 [16]
0	0x3c92b6f9	0.017909514
1	0xbe8032a5	-0.2503864
2	0xbf087d38	-0.5331607
3	0xbf3e0c01	-0.74237067
4	0xbe3d928a	-0.18512931
5	0xbcda33f5	-0.026636103
6	0xbe51d773	-0.20492344
7	0x3d29b055	0.04142793
8	0xbdeeea3e	-0.11665772
9	0x3d8401db	0.064456664
10	0xbd689802	-0.05678559
11	0xbf0988fa	-0.53724635
12	0x3d8efb55	0.069815315
13	0xbe2c1926	-0.16806468
14	0xbea044f7	-0.31302616
15	0x3e64bc2e	0.2233741

node_encoder.layers.4.running_var f4 [16]
0	0x3e40ffaa	0.18847528
1	0x3d87b2f6	0.06625931
2	0x3e07e7d1	0.13272025
3	0x3e1e7444	0.1547404
4	0x3e79627d	0.24353977
5	0x3d206fae	0.039169006
6	0x3e062661	0.13100578
7	0x3d0fe4e1	0.035130385
8	0x3e918d5b	0.28428158
9	0x3dba204b	0.09088191
10	0x3e8c18df	0.27362725
11	0x3e2839ae	0.16428253
12	0x3da67c80	0.08129215
13	0x3dbf344d	0.093361475
14	0x3d8e9632	0.06962241
15	0x3de3ffda	0.11132784

node_encoder.layers.6.weight f4 [4, 16]
0	0xbd9c9389	-0.076453276
1	0x3dc03666	0.09385376
2	0xbdac642f	-0.08417546
3	0xbd1615da	-0.036641933
4	0x3d000c5e	0.031261794
5	0xbc807c1a	-0.015684176
6	0xbe0a2d2a	-0.13493791
7	0xbe898fcf	-0.2686753
8	0xbe4099d9	-0.18808688
9	0xbe39a344	-0.18128687
10	0x3e39534f	0.18098186
11	0xbe04bd60	-0.12962866
12	0xbe10227c	-0.14075655
13	0x3c9cb2ef	0.019128291
14	0x3dfaf5bd	0.12253902
15	0x3ddd1267	0.107945256
16	0x3e53dbf0	0.20689368
17	0x3dc8f3b7	0.0981211
18	0xbe64480a	-0.22293106
19	0x3cc4c410	0.024019271
20	0x3e1e1655	0.15438206
21	0xbd87f462	-0.06638409
22	0xbdd927c6	-0.10603289
23	0x3e5a89c1	0.21341611
24	0xbdef9208	-0.11697775
25	0xbe232161	-0.15930702
26	0xbe6f27d8	-0.23355043
27	0x3b5b9376	0.0033504642
28	0x3dd3ff83	0.10351469
29	0x3d5bd80a	0.053672828
30	0x3c4c9427	0.012486494
31	0xbe59b6f1	-0.21261193
32	0xbe6b2f5f	-0.2296729
33	0xbb2523de	-0.002519838
34	0x3e72642d	0.23671027
35	0x3e0e37a6	0.13888416
36	0xbe110743	-0.14162926
37	0xbca90838	-0.020633802
38	0xbe1baafb	-0.15201943
39	0xbdc547fc	-0.096328706
40	0x3d71c149	0.05902222
41	0x3e202640	0.15639591
42	0x3e6cb73f	0.23116778
43	0xbe6c898d	-0.23099346
44	0x3e1fd0d0	0.15607
45	0xbe013b59	-0.12620296
46	0x3daaa97b	0.08333107
47	0x3e6c14e6	0.23054847
48	0x3d5c046d	0.05371516
49	0x3e67d414	0.22639495
50	0xbe3cfc7d	-0.18455692
51	0xbdaf469a	-0.08558388
52	0x3e06fb28	0.13181746
53	0xbd92e35d	-0.07172272
54	0xbd2cf08f	-0.042221602
55	0xbe15e6c0	-0.14638805
56	0x3e136133	0.14392547
57	0x3ddeec19	0.10884876
58	0x3d924901	0.07142831
59	0xbe35443c	-0.1770181
60	0xbe654b57	-0.22392021
61	0x3b9b9441	0.004747898
62	0x3cfc6479	0.030809628
63	0xbdda9666	-0.106732175

node_encoder.layers.6.bias f4 [4]
0	0x33a6657b	7.7484366e-08
1	0x3abc3d8e	0.0014361606
2	0x36c98e8d	6.006862e-06
3	0xb53918a0	-6.8953705e-07

edge_encoder.layers.0.weight f4 [16, 4]
0	0xbe047d84	-0.12938505
1	0xbecf0911	-0.40436605
2	0xbf01eaec	-0.5074909
3	0xbdfc09aa	-0.12306531
4	0xbe6cbf5a	-0.2311987
5	0x3df33f70	0.11877334
6	0xbe30ac45	-0.17253216
7	0xbe48fd48	-0.19627869
8	0x3ecc100b	0.3985599
9	0x3e2c660e	0.16835806
10	0x3edb3be5	0.42819133
11	0xbe220216	-0.15821108
12	0xbe7452e6	-0.23859748
13	0x3e732859	0.2374586
14	0xbe88c8e3	-0.26715764
15	0xbe9eaa52	-0.3098932
16	0xbc7f865b	-0.015595998
17	0xbe366652	-0.1781247
18	0xbec27807	-0.379822
19	0x3e594efe	0.2122154
20	0x3ec92440	0.3928547
21	0x3cec9d79	0.028883683
22	0xbddd31fa	-0.10800548
23	0xbed27acd	-0.41109315
24	0xbe42dc88	-0.19029438
25	0x3d992f1d	0.07479689
26	0x3e872ffe	0.26403803
27	0xbd3668f6	-0.044533692
28	0xbe2d1be4	-0.1690517
29	0x3e7a55d0	0.24446797
30	0xbed8fd47	-0.42380735
31	0x3eb9b0f1	0.36267808
32	0xbe39c85e	-0.1814284
33	0x3d868dde	0.06570028
34	0xbdd2aed9	-0.10287256
35	0x3dcc3a33	0.09972038
36	0xbe3e7f7e	-0.18603322
37	0x3ebfa900	0.37433624
38	0xbc70e8bc	-0.014703926
39	0x3e9b2e72	0.30308872
40	0x3ee6b0ce	0.45056766
41	0xbe60a22a	-0.2193686
42	0xbeba73ec	-0.36416566
43	0x3eab7628	0.33488584
44	0x3ec1d729	0.37859467
45	0xbec5c401	-0.38626102
46	0xbd466f2d	-0.04844587
47	0xbed456a5	-0.41472355
48	0xbecb5469	-0.39712837
49	0x3d7e5249	0.062090192
50	0x3e152675	0.14565451
51	0x3e0fd689	0.14046682
52	0xbe3d123e	-0.1846399
53	0x3ecf5b73	0.40499458
54	0x3da22108	0.079164565
55	0xbe4864f8	-0.19569767
56	0x3c7fcd8c	0.015612971
57	0x3de7947f	0.1130762
58	0x3e482378	0.1954478
59	0xbe863758	-0.262141
60	0x3e4e57c6	0.2015067
61	0xbe6a861b	-0.2290272
62	0xbed3def3	-0.41381034
63	0xbe7c812a	-0.24658647

edge_encoder.layers.0.bias f4 [16]
0	0x3e2ad8f4	0.16684324
1	0x3dfe14ce	0.12406312
2	0x3e0eed2c	0.13957661
3	0x3d1a8be4	0.037731066
4	0x3db4cf8f	0.08828651
5	0xb4a98f0f	-3.1582792e-07
6	0xbcedc25e	-0.029023346
7	0x3c99fcbd	0.018797273
8	0xbcb6a5c5	-0.022295842
9	0xbd7eb94a	-0.062188424
10	0xba5d05ac	-0.0008431326
11	0x33e01e11	1.0436282e-07
12	0x3cb14659	0.02163999
13	0xbb8e7bc5	-0.0043482506
14	0xbd1c24e1	-0.038121108
15	0x350ece76	5.319956e-07

edge_encoder.layers.1.weight f4 [16]
0	0x3f6addb6	0.91744554
1	0x3f6f6108	0.9350743
2	0x3f76aeea	0.9636065
3	0x3f7cbaed	0.98722726
4	0x3f7dea52	0.9918567
5	0x3f5f208e	0.8715905
6	0x3f6cc559	0.9248863
7	0x3f7eb224	0.9949057
8	0x3f822a5c	1.0169177
9	0x3f6d8385	0.9277881
10	0x3f6e0645	0.92978317
11	0x3f6c5f65	0.9233306
12	0x3f76f9bd	0.9647482
13	0x3f6e54f6	0.9309839
14	0x3f745d7c	0.95455146
15	0x3f7fa9da	0.9986855

edge_encoder.layers.1.bias f4 [16]
0	0xbce18bd6	-0.0275325
1	0xbbdc1066	-0.006715822
2	0xbc95b238	-0.018273458
3	0x3bbfe09e	0.005855634
4	0xb8f54cec	-0.00011696838
5	0xbd819bd9	-0.06328554
6	0xbd0f1c6d	-0.03493922
7	0xba8f4503	-0.0010930601
8	0x3b0f5337	0.0021869668
9	0xbd68f371	-0.05687279
10	0xbd19acc7	-0.03751829
11	0x39805c71	0.00024482937
12	0x3c89edfd	0.016837114
13	0xbd57c070	-0.052673757
14	0xbca7c051	-0.020477446
15	0x3cc37cf8	0.0238633

edge_encoder.layers.1.running_mean f4 [16]
0	0x3e30ddaa	0.17272058
1	0x3df255c2	0.11832763
2	0x3e04c28c	0.12964839
3	0x3cd54ae8	0.026036695
4	0x3dd7de47	0.10540443
5	0xbc8589c8	-0.01630105
6	0xbd140e9b	-0.03614674
7	0x3d1cde91	0.038298193
8	0xbc9855a3	-0.018595522
9	0xbd5ba683	-0.053625595
10	0x3caa4a29	0.020787315
11	0xbc64e135	-0.013969709
12	0x3cd2eb4f	0.02574697
13	0xbc919bfd	-0.017774576
14	0xbd5db54c	-0.054127976
15	0xbb7ea525	-0.0038855758

edge_encoder.layers.1.running_var f4 [16]
0	0x3e54b76b	0.20773093
1	0x3d0452ff	0.032305714
2	0x3e270074	0.16308767
3	0x3d8ae5af	0.0678209
4	0x3ddf2709	0.10896117
5	0x3d0e4fe8	0.034744173
6	0x3d6cc60c	0.05780606
7	0x3e1201f1	0.14258553
8	0x3c617453	0.013760644
9	0x3ca80c2c	0.020513617
10	0x3e0c4fe0	0.13702345
11	0x3d2b3cc3	0.041805994
12	0x3d2e9065	0.042618174
13	0x3cde5e00	0.027144432
14	0x3cf06b4c	0.029348038
15	0x3e0d1fd9	0.1378168

edge_encoder.layers.3.weight f4 [4, 16]
0	0xbdd5e51c	-0.1044409
1	0xbe196e33	-0.14983444
2	0x3dd3e040	0.10345507
3	0xbd0e9ad7	-0.034815636
4	0x3e833408	0.25625634
5	0x3e19ba5c	0.15012497
6	0x3d42115e	0.047379844
7	0x3dc116c3	0.094281696
8	0x3da8033b	0.08203741
9	0xbd6598ce	-0.05605393
10	0xbcff777a	-0.0311849
11	0x3caec8ba	0.021335948
12	0x3d549925	0.051903863
13	0x3e29381c	0.1652531
14	0xbdc310aa	-0.09524663
15	0xbdabb615	-0.08384339
16	0xbd8c6453	-0.06855073
17	0xbdcb422c	-0.09924731
18	0x3d9326a5	0.07185105
19	0x3e444976	0.19168648
20	0x3e41960e	0.18904898
21	0x3deee467	0.11664658
22	0xbe0c7f2c	-0.13720387
23	0xbe07aa90	-0.13248658
24	0xbd53a4ab	-0.05167071
25	0x3ba7d836	0.00512221
26	0x3d047a45	0.032343168
27	0xbe19d87f	-0.15023993
28	0x3e01e5b1	0.12685277
29	0xbe0b4641	-0.13601018
30	0xbdeda784	-0.11604217
31	0xbe4bb685	-0.19893844
32	0x3e6476da	0.22310963
33	0xbe55e3f5	-0.2088774
34	0x3e157055	0.14593633
35	0x3c668a80	0.014071107
36	0xbcae0774	-0.021243788
37	0x3db3da0a	0.08781822
38	0x3c483b03	0.012221101
39	0x3e38f554	0.18062335
40	0x3e53d847	0.20687972
41	0xbe12133c	-0.1426515
42	0x3d8c95bf	0.06864499
43	0x3c482805	0.012216573
44	0x3de11456	0.10990207
45	0x3d9bcca4	0.076073915
46	0x3da09479	0.07840819
47	0xbe089efb	-0.13341896
48	0x3a99abdb	0.001172419
49	0x3e5b95b1	0.21443821
50	0x3e146552	0.14491776
51	0xbce9edfe	-0.028555866
52	0xbe57a7bc	-0.2106008
53	0xbc4cf02b	-0.012508432
54	0xbe490f34	-0.19634706
55	0x3e440526	0.19142589
56	0xbe259c27	-0.16172849
57	0xbd113632	-0.035452075
58	0xbd017a76	-0.03161093
59	0x3d625c2f	0.055263694
60	0x3e4750fc	0.19464487
61	0xbbc3b567	-0.0059725526
62	0x3df29ebe	0.11846684
63	0x3e5dfbfa	0.21678153

edge_encoder.layers.3.bias f4 [4]
0	0x3e51d31e	0.20490691
1	0xbd55e836	-0.052223407
2	0x3c071ce6	0.008246636
3	0x3e1a8c27	0.15092526

message_passing_layers.0.message_mlp.layers.0.weight f4 [16, 12]
0	0xbd91a183	-0.07110884
1	0x3e2251d3	0.15851526
2	0xbd85ad95	-0.06527249
3	0xbe40558f	-0.18782638
4	0x3de75012	0.11294569
5	0x3cb4372a	0.02199896
6	0x3de8733d	0.11350105
7	0x3e867bea	0.26266414
8	0x3e509261	0.20368339
9	0x3e94455b	0.28959164
10	0x3c988ca2	0.018621746
11	0xbe77c20e	-0.2419512
12	0xbe60a618	-0.2193836
13	0xbe494b7e	-0.19657704
14	0xbe7639a7	-0.2404543
15	0xbe50f7ed	-0.20407076
16	0xbe5a4d49	-0.21318544
17	0xbe579bb5	-0.21055491
18	0xbe038aa3	-0.12845854
19	0xbe79d639	-0.24398126
20	0xbe450691	-0.19240786
21	0x3db709a4	0.08937386
22	0x3e7f12c6	0.24909505
23	0xbe14d44f	-0.14534114
24	0xbd90253f	-0.07038354
25	0x3de1e341	0.11029673
26	0xbe26a8a4	-0.16275269
27	0xbe0f5666	-0.13997802
28	0x3e627a0d	0.22116871
29	0xbe6c003d	-0.23046966
30	0x3d4dc8cc	0.050240323
31	0x3e83c2e5	0.2573463
32	0x3d7fb8c8	0.06243208
33	0x3cdc0bd1	0.026861103
34	0xbe3e79e5	-0.18601187
35	0xbc26b3b5	-0.010174681
36	0x3cf50ca3	0.029913252
37	0x3dcfb237	0.10141414
38	0x3e035b63	0.1282783
39	0x3e87e62b	0.26542792
40	0xbe5d083e	-0.21585175
41	0x3c0db7ff	0.008649825
42	0xbe0c8ab1	-0.13724782
43	0xbe599d30	-0.21251369
44	0xbc0e1a3d	-0.008673248
45	0xbe62f2eb	-0.22162978
46	0x3e5e8d4c	0.21733588
47	0x3d41afb9	0.047286723
48	0xbe0d62ac	-0.13807172
49	0x3e04ce2f	0.12969278
50	0xbea16bf1	-0.31527665
51	0xbddded95	-0.10836331
52	0xbd92ff0e	-0.07177554
53	0xbe7f35bb	-0.2492284
54	0xbe3a9d18	-0.18223989
55	0xbd993262	-0.07480313
56	0x3e7096a8	0.23494971
57	0x3e841f1e	0.2580499
58	0x3e087076	0.1332415
59	0xbe2cea66	-0.16886291
60	0xbe51c3d3	-0.20484857
61	0x3e8b6320	0.27224064
62	0x3dfa37b1	0.122176535
63	0x3cf4c7e3	0.02988047
64	0x3d3a3552	0.045461006
65	0xbe3e1894	-0.18564063
66	0xbd466679	-0.04843757
67	0x3e9b1e09	0.30296353
68	0xbdb8908d	-0.09011946
69	0x3c711119	0.014713549
70	0xbe5e0cd9	-0.21684588
71	0xbe076c45	-0.13224895
72	0xbb44756d	-0.0029977218
73	0xbe3e144f	-0.18562435
74	0xbd9577e0	-0.07298255
75	0x3dc482b1	0.0959524
76	0xbe893688	-0.26799417
77	0x3df6eb1c	0.12056562
78	0xbe1d5a43	-0.15366463
79	0xbdefac17	-0.117027454
80	0x3de9ec96	0.11422078
81	0x3e5c9998	0.21542966
82	0xbde8c6c3	-0.11366036
83	0xbe0c5282	-0.13703349
84	0xbe6f4596	-0.23366389
85	0xbe2ebb0b	-0.17063539
86	0xbe85549f	-0.26041123
87	0xbd4d3f12	-0.050108977
88	0x3d53f782	0.051749714
89	0xbe83f4fa	-0.2577284
90	0x3e81d4dc	0.2535771
91	0x3e379772	0.17928866
92	0xbe828ca3	-0.25497922
93	0xbe223239	-0.15839471
94	0x3da96313	0.0827085
95	0xbd2d24a2	-0.042271264
96	0xbd0a82d6	-0.03381618
97	0xbe15c082	-0.14624217
98	0x3e55b042	0.20868018
99	0xbdc8dbee	-0.09807573
100	0x3e5804db	0.21095602
101	0xbb0c6c23	-0.002142676
102	0x3d16a8de	0.036782138
103	0x3e45a7ba	0.19302264
104	0xbd4e8e1b	-0.05042849
105	0xbe381f42	-0.17980674
106	0xbd8b2c75	-0.06795589
107	0x3e9768ed	0.2957224
108	0xbe8062a0	-0.25075245
109	0x3d615d5d	0.05502068
110	0xbe8bd7ee	-0.2731318
111	0x3e34c31e	0.17652556
112	0x3d1adf6e	0.037810735
113	0xbd2bbd16	-0.041928373
114	0x3d9a2da7	0.07528239
115	0xbd3a50a2	-0.045487054
116	0x3dfa1966	0.122118756
117	0xbe741a93	-0.23838262
118	0xbd007779	-0.031363938
119	0x3e1a4142	0.15063956
120	0x3e71a995	0.23599847
121	0x3e1b2df0	0.15154243
122	0xbe6f92d0	-0.23395848
123	0x3e76a2c4	0.24085528
124	0xbdad2624	-0.0845454
125	0xbd9e51e4	-0.07730463
126	0xbe8a95bc	-0.27067363
127	0xbd7c0a2f	-0.06153315
128	0x3e1dc492	0.15407017
129	0x3d390d37	0.04517862
130	0xbe452554	-0.19252521
131	0x3ded56f0	0.11588848
132	0xbd545f86	-0.05184891
133	0x3e764a53	0.2405179
134	0xbe80aac1	-0.25130275
135	0xbd86a64c	-0.06574687
136	0xbe7f7f0f	-0.24950813
137	0xbdd43fc7	-0.10363727
138	0x3db2deaf	0.0873388
139	0x3e959dfc	0.29222095
140	0x3daeb7d0	0.08531153
141	0x3e87114d	0.26380387
142	0x3d4f2f5b	0.05058227
143	0x3e41f3fc	0.18940729
144	0x3e7f44cd	0.24928589
145	0x3e8b48c6	0.2720396
146	0xbe3310bd	-0.17486854
147	0x3e8af294	0.27138197
148	0x3e5a1393	0.2129653
149	0xbd580d19	-0.052746866
150	0xbd98bf8b	-0.07458409
151	0xbe3c8c12	-0.18412808
152	0x3dbacbe3	0.091209196
153	0xbe4de644	-0.2010737
154	0x3ddb59ec	0.107105106
155	0x3dc059ed	0.09392152
156	0xbe8976ad	-0.26848355
157	0x3d666f13	0.056258272
158	0xbca9decb	-0.020736119
159	0x3e24772c	0.16061085
160	0x3de27087	0.11056619
161	0xbe9be455	-0.3044764
162	0x3e7d9f87	0.24767886
163	0x3e3465d9	0.17616977
164	0x3dc12339	0.09430546
165	0xbe90ff25	-0.2831966
166	0xbdcf1d2e	-0.101129875
167	0xbd61a042	-0.055084474
168	0xbd9649f5	-0.07338325
169	0x3e2a42bb	0.16627018
170	0x3ddd2540	0.107981205
171	0x3e40e14c	0.18835944
172	0xbd961cc4	-0.07329705
173	0x3df9f594	0.122050434
174	0x3de15832	0.1100315
175	0xbe58a3e2	-0.21156266
176	0xbe8d75b9	-0.27628878
177	0xbe170268	-0.14747012
178	0x3e4cd8c4	0.20004565
179	0xbe9ef6c1	-0.31047633
180	0xbe6d7b07	-0.23191462
181	0x3e0f7458	0.14009225
182	0x3e46aa02	0.1940079
183	0x3e80ef0c	0.25182378
184	0xbe64751c	-0.22310299
185	0xbe6637b8	-0.22482193
186	0x3e00372d	0.12521048
187	0x3e6d4c94	0.23173743
188	0x3e43b34b	0.19111364
189	0x3cc2bd18	0.023771808
190	0x3e0925a9	0.13393272
191	0x3e93265a	0.28740197

message_passing_layers.0.message_mlp.layers.0.bias f4 [16]
0	0xbb522cb1	-0.0032070095
1	0xb8967602	-7.174538e-05
2	0x3bb9ef54	0.005674282
3	0xbba01a01	-0.0048859124
4	0xba56508d	-0.0008175455
5	0x3bf3d539	0.0074411896
6	0xb539e932	-6.9257214e-07
7	0xb3dff787	-1.0429272e-07
8	0xb7b33ac5	-2.136583e-05
9	0x340e950a	1.3279e-07
10	0x3cc781cd	0.024353886
11	0xbaeb41aa	-0.0017948647
12	0x34af8e2f	3.2699742e-07
13	0x39184d02	0.00014524537
14	0xbbaa2c70	-0.0051932856
15	0x3d009c72	0.031399198

message_passing_layers.0.message_mlp.layers.1.weight f4 [16]
0	0x3f7df5ac	0.9920299
1	0x3f767874	0.96277547
2	0x3f81491d	1.0100437
3	0x3f7908c5	0.97279006
4	0x3f7a3af8	0.9774623
5	0x3f7eb3e4	0.9949324
6	0x3f7e33f5	0.9929803
7	0x3f773c46	0.96576345
8	0x3f7bb521	0.98323256
9	0x3f86afa4	1.0522351
10	0x3f7b77f6	0.9822992
11	0x3f75f940	0.9608345
12	0x3f812fe0	1.0092735
13	0x3f8006c0	1.000206
14	0x3f821c77	1.0164937
15	0x3f7b27fc	0.98107886

message_passing_layers.0.message_mlp.layers.1.bias f4 [16]
0	0x3d89f2c5	0.06735758
1	0xbd35999d	-0.04433595
2	0x3d599cd9	0.053128097
3	0xbd333d24	-0.04375948
4	0x3d46a522	0.048497327
5	0xbd0f5b6e	-0.034999304
6	0x3ce82864	0.028339572
7	0x3ae0e071	0.0017156733
8	0x3d0c7b1f	0.034297105
9	0x3d0daa58	0.03458628
10	0x3cb9ac11	0.022665055
11	0xbcaa6cd9	-0.020803856
12	0xbcbda8d1	-0.023151787
13	0x3cc06906	0.02348758
14	0xbc334fd3	-0.010944325
15	0xbd13d9ef	-0.03609651

message_passing_layers.0.message_mlp.layers.1.running_mean f4 [16]
0	0x3e4100f9	0.18848027
1	0xbdba8112	-0.091066495
2	0x3e69d991	0.22836901
3	0xbe85062a	-0.25981265
4	0xbe350155	-0.1767629
5	0x3e56db43	0.20982079
6	0xbe93b3f7	-0.2884824
7	0x3ebe9b08	0.37227654
8	0x3e72fd45	0.23729427
9	0x3c50383c	0.01270872
10	0xbeb62ab2	-0.3557945
11	0xbcf121d0	-0.029435068
12	0xbe26791a	-0.16257134
13	0x3e911b69	0.28341225
14	0x3d360fe5	0.044448752
15	0x3d60f533	0.05492134

message_passing_layers.0.message_mlp.layers.1.running_var f4 [16]
0	0x3db41887	0.08793741
1	0x3ddf88fc	0.109147996
2	0x3d02f4e2	0.03197182
3	0x3d41d399	0.047320936
4	0x3dd18316	0.10230081
5	0x3d373c10	0.044735014
6	0x3c661b10	0.014044538
7	0x3d6a635e	0.05722367
8	0x3d684b14	0.056712225
9	0x3c50b7d7	0.012739143
10	0x3e143834	0.14474565
11	0x3ddb9142	0.10721065
12	0x3d5bbfab	0.053649586
13	0x3c44f6c3	0.012021723
14	0x3d31b584	0.043385997
15	0x3ca57de5	0.020201633

message_passing_layers.0.message_mlp.layers.3.weight f4 [16, 16]
0	0xbdec61f7	-0.11542123
1	0xbd08fd16	-0.033444487
2	0xbd5795dc	-0.05263315
3	0xbe11148c	-0.14167994
4	0xbe6e0c77	-0.23246942
5	0x3e234e56	0.15947852
6	0x3cdea761	0.027179422
7	0xbe82fe91	-0.25584844
8	0xbe29aa92	-0.16568974
9	0x3e896dee	0.26841682
10	0x3d6a60a2	0.057221062
11	0x3ddf914d	0.10916386
12	0xbe2cf086	-0.16888627
13	0xbdd2047e	-0.10254763
14	0xbd0f8783	-0.035041343
15	0xbd4ada6d	-0.049524713
16	0xbe314d31	-0.17314602
17	0xbb1c9a81	-0.0023895802
18	0x3c164e7d	0.0091739865
19	0xbd00b3f4	-0.031421617
20	0x3c8fdc34	0.017561056
21	0xbdfa7c6b	-0.12230762
22	0x3d426586	0.0474601
23	0x3da93fd0	0.082641244
24	0xbe01da3a	-0.12680903
25	0xbe78f447	-0.24311934
26	0x3df8a37f	0.121405594
27	0x3d2ad8d2	0.041710682
28	0xbe144b30	-0.14481807
29	0x3e7293b4	0.23689157
30	0xbdf2fdaf	-0.118647926
31	0x3e01278d	0.12612744
32	0x3de1db57	0.11028164
33	0xbe37dbdd	-0.17954965
34	0x3e1f15db	0.15535681
35	0xbe4c710b	-0.19964997
36	0xbe0aafab	-0.13543575
37	0xbd07628f	-0.033052977
38	0xbe358cf0	-0.17729545
39	0x3e66cb59	0.22538508
40	0xbd5ccbad	-0.053905178
41	0x3e083aa7	0.13303624
42	0xbe73084f	-0.23733638
43	0x3e0f8229	0.14014496
44	0xbd952709	-0.07282836
45	0xbe429b92	-0.19004658
46	0x3cd7d519	0.02634673
47	0x3e0605c0	0.13088131
48	0x3e46d43b	0.19416897
49	0xbe20737f	-0.15669058
50	0xbe1e54ad	-0.15461989
51	0x3d7397be	0.059470885
52	0x3d1e8e1a	0.038709737
53	0x3db1f219	0.086887546
54	0x3dd22c61	0.10262371
55	0xbd877dfc	-0.066158265
56	0x3e0a80e8	0.13525736
57	0x3e69eaae	0.2284343
58	0xbdc0c641	-0.09412814
59	0x3e19d2bc	0.15021795
60	0x3de84f4f	0.11343252
61	0x3e798d52	0.24370316
62	0xbe33e58b	-0.17568032
63	0xbdd37588	-0.10325152
64	0xbd61f50f	-0.055165347
65	0x3cabe894	0.020984925
66	0x3e24e710	0.16103768
67	0xbe43e5bf	-0.1913061
68	0x3e0a0df9	0.13481893
69	0xbdb46ab9	-0.08809418
70	0x3e1b6443	0.15174966
71	0x3c00e5be	0.007867275
72	0xbe6e2131	-0.23254849
73	0xbe212092	-0.15735081
74	0xbe146bf1	-0.14494301
75	0x3e0e5086	0.13897905
76	0xbe1be2e3	-0.15223269
77	0xbd54ae89	-0.051924262
78	0x3d874a14	0.06605926
79	0xbe2f4aa6	-0.1711832
80	0x3d74f943	0.059808027
81	0xbe7a383b	-0.24435513
82	0xbe367622	-0.17818502
83	0xbe5285a0	-0.20558786
84	0xbd8e5b75	-0.06951038
85	0xbdb58b89	-0.08864505
86	0x3d15e834	0.0365984
87	0xbd9cb8cc	-0.07652435
88	0x3dda7f07	0.1066876
89	0x3e84d963	0.25947103
90	0x3d92a80a	0.07160957
91	0xbda5faa3	-0.08104446
92	0xbe6cd7fc	-0.23129267
93	0x3dc91c68	0.09819871
94	0xbe140d4b	-0.14458196
95	0x3e237466	0.15962371
96	0x3e4ae8f5	0.19815429
97	0x3dab2f4c	0.083586305
98	0x3e83041d	0.25589076
99	0x3e38a0bf	0.1803007
100	0x3d6da792	0.058021136
101	0xbe3536cd	-0.17696686
102	0x3e63e022	0.22253469
103	0xbdc1ff22	-0.09472491
104	0xbe0db470	-0.13838363
105	0x3e54c8e0	0.20779753
106	0x3e5eeffb	0.21771233
107	0x3dbb036e	0.091315135
108	0x3caf3be1	0.021390857
109	0xbe5eea45	-0.21769054
110	0xbb5975b0	-0.003318172
111	0x3e63bbd3	0.22239618
112	0x3d2b0303	0.04175092
113	0x3b9a98ea	0.004717936
114	0xbd923f22	-0.07140948
115	0xbda3a444	-0.079903156
116	0x3e00975c	0.12557739
117	0xbbda0b8f	-0.00665421
118	0x3e498299	0.19678725
119	0xbcbb9a50	-0.02290073
120	0x3df59722	0.11991717
121	0x3e05a5f6	0.1305159
122	0x3d37970c	0.044821784
123	0x3e106b51	0.14103438
124	0x3e42501d	0.18975873
125	0x3e79d3d0	0.24397206
126	0x3e35cbb2	0.17753485
127	0xbd81072d	-0.06300197
128	0xbe4eca4f	-0.20194362
129	0x3d83e35e	0.06439851
130	0xba91f25b	-0.001113485
131	0xbdc83f29	-0.09777672
132	0xbd1eac52	-0.038738556
133	0x3c5af3fa	0.013363833
134	0x3e20211c	0.1563763
135	0x3d9e115e	0.07718156
136	0xbdde2eba	-0.10848756
137	0xbde59143	-0.11209347
138	0xbd867e3d	-0.06567047
139	0xbdbd330d	-0.09238253
140	0x3e6b54f0	0.2298162
141	0x3dc63198	0.09677428
142	0x3e687141	0.22699453
143	0xbbd54b84	-0.0065092463
144	0x3ce2d103	0.027687555
145	0x3d9ee68b	0.07758816
146	0xbe8a3b83	-0.2699853
147	0x3c719272	0.014744388
148	0xbd4bc4b2	-0.04974813
149	0xbe2c96d3	-0.1685441
150	0xbe60f784	-0.2196942
151	0x3e593e2b	0.21215121
152	0x3e3e5637	0.18587576
153	0x3e193aca	0.14963832
154	0x3e5d1015	0.21588166
155	0xbe01804a	-0.12646595
156	0xbd431af1	-0.047633115
157	0x3de8b2be	0.11362217
158	0xbd8aa2b1	-0.06769312
159	0xbceb6966	-0.028736781
160	0xbe536d2d	-0.20647116
161	0x3d8ac8c4	0.06776574
162	0xbe1320ec	-0.14368027
163	0x3cf8207f	0.030288933
164	0x3e6f8213	0.23389463
165	0xbd85e509	-0.065378256
166	0xbddf0e46	-0.10891394
167	0x3e3e6315	0.18592484
168	0xbd4c19ba	-0.049829222
169	0xbd1665cc	-0.036718175
170	0x3e537404	0.20649725
171	0xbdee8e46	-0.1164823
172	0xbe4e3527	-0.20137464
173	0xbdc860a3	-0.09784057
174	0xbcfad0b1	-0.03061709
175	0xbe01d48c	-0.12678736
176	0xbe0e1017	-0.13873325
177	0x3ddd87f9	0.1081695
178	0x3d0787b1	0.03308839
179	0xbda260be	-0.07928608
180	0xbe58fd28	-0.21190321
181	0xbda7ec3d	-0.08199356
182	0xbdd079e8	-0.10179502
183	0xbd9a224b	-0.07526072
184	0xbe5c4181	-0.21509363
185	0x3da2083b	0.07911726
186	0xbe488ca7	-0.19584905
187	0xbe4b35d4	-0.19844753
188	0xbe3eac5d	-0.18620439
189	0x3e05defc	0.13073343
190	0xbe1e8c3b	-0.15483181
191	0xbdf0204d	-0.11724911
192	0x3e48e6bc	0.19619268
193	0x3e1a41a9	0.1506411
194	0x3e16923d	0.14704223
195	0xbe5b7adc	-0.21433586
196	0xbe392030	-0.18078685
197	0xbdaad870	-0.083420634
198	0x3e35c976	0.17752632
199	0x3d121e7f	0.035673615
200	0xbe44a14b	-0.19202153
201	0xbd8d6256	-0.06903522
202	0xbe5f8163	-0.21826701
203	0xbd8ee3bb	-0.0697703
204	0xbe0421c6	-0.12903509
205	0x3e3e7cc3	0.1860228
206	0x3dd0f5bc	0.1020312
207	0xbdaefaf7	-0.085439615
208	0x3ce5597d	0.027996773
209	0xbd9a83a4	-0.0754464
210	0x3db61412	0.08890547
211	0x3e13fd86	0.1445218
212	0x3d83d68b	0.06437405
213	0xbdc0d4ab	-0.09415563
214	0x3e6819d3	0.22666101
215	0xbd58146f	-0.052753862
216	0xbdb562fe	-0.08856772
217	0x3e0c7181	0.13715173
218	0x3e35fb60	0.17771673
219	0x3e69d3d1	0.22834708
220	0x3d7d97d9	0.06191239
221	0xbda664a8	-0.081246674
222	0x3de2e68a	0.11079128
223	0x3e82b5d0	0.25529337
224	0xbe860dea	-0.2618249
225	0xbc98896e	-0.01862022
226	0xbe3b43cd	-0.18287583
227	0x3dc8f986	0.09813218
228	0x3dafe912	0.085893765
229	0xbd595bcd	-0.053066064
230	0xbd4c8f57	-0.049941387
231	0x3db9c872	0.09071435
232	0xbd24b4e7	-0.040211584
233	0xbe3dcbfe	-0.18534848
234	0x3e25806f	0.16162275
235	0xbe10cb54	-0.14140064
236	0xbd505aa5	-0.050867695
237	0x3d18e9e4	0.03733243
238	0xbce26b1d	-0.027638966
239	0xbe4dff4b	-0.20116918
240	0x3e0cac87	0.13737689
241	0xbdcad0d7	-0.09903114
242	0xbdd24008	-0.10266119
243	0x3d6d6fdb	0.057968
244	0xbdd0acbb	-0.10189196
245	0xbdba334e	-0.09091817
246	0xbdae3f82	-0.08508207
247	0xbd96d572	-0.0736493
248	0xbdd1ac14	-0.102378994
249	0xbdbbe473	-0.091744326
250	0x3da96e8a	0.08273037
251	0xbe3cf016	-0.1845096
252	0xbe2a50c6	-0.16632375
253	0xbb0eb477	-0.0021775046
254	0x3d7d8f5a	0.06190429
255	0x3dfcc1c1	0.12341643

message_passing_layers.0.message_mlp.layers.3.bias f4 [16]
0	0xbb037ad0	-0.0020062216
1	0xb54af9d8	-7.5614435e-07
2	0x396e1469	0.00022705052
3	0x392e8a3e	0.00016645432
4	0xbc57d925	-0.01317433
5	0x340217fc	1.2115919e-07
6	0xbc0985db	-0.00839373
7	0xba49c734	-0.0007697225
8	0x39355e45	0.00017296623
9	0x3367c89b	5.396633e-08
10	0x352ab223	6.358916e-07
11	0xb9afc50f	-0.0003352542
12	0xb4bac89a	-3.4791157e-07
13	0xb9f863ce	-0.00047376606
14	0x38073397	3.2234555e-05
15	0xb602e2d3	-1.9503539e-06

message_passing_layers.0.update_mlp.layers.0.weight f4 [16, 20]
0	0xbde87309	-0.11350066
1	0xbe40f0ea	-0.18841901
2	0xbc1d2124	-0.009590421
3	0x3e636ba4	0.2220903
4	0x3df4f6c6	0.11961131
5	0xbe1301c0	-0.14356136
6	0xbc2b9b3e	-0.010474024
7	0xbb660fdd	-0.003510467
8	0xbe2ff64d	-0.171838
9	0x3e0f0331	0.13966061
10	0x3cd2baf7	0.025723917
11	0x3d5a055d	0.05322777
12	0xbde92c96	-0.11385457
13	0xbe04a919	-0.1295513
14	0x3d33a3e7	0.04385748
15	0x3daf4ade	0.08559202
16	0x3d379ef8	0.04482934
17	0xbda66667	-0.081250004
18	0x3e44fd2c	0.19237202
19	0xbd849837	-0.06474345
20	0xbe11c7d7	-0.14236389
21	0xbe0f5259	-0.13996257
22	0x3e616143	0.22009759
23	0x3cb7bae0	0.022427976
24	0xbced7ed5	-0.028991142
25	0xbd9dd78d	-0.07707129
26	0xbdb91ea4	-0.09039047
27	0xbe4c1846	-0.19931135
28	0xbe2e1822	-0.17001393
29	0x3dfe0d66	0.12404899
30	0x3e512770	0.204252
31	0x3e4ab988	0.19797337
32	0xbe1e2612	-0.1544421
33	0x3dc32da6	0.09530191
34	0xbe0724e6	-0.1319767
35	0x3e0a6f5b	0.13519041
36	0x3e1ae303	0.1512566
37	0x3e35e5a1	0.17763378
38	0x3e2963c2	0.16541961
39	0x3e176fc6	0.14788732
40	0xbc23fccd	-0.010009003
41	0x3dbb0500	0.09131813
42	0xbd85ebae	-0.06539093
43	0x3d67bf1d	0.056578744
44	0xbdac23e8	-0.08405286
45	0x3cc71904	0.02430392
46	0xbe48c85c	-0.19607681
47	0xbd29c5da	-0.04144845
48	0xbde29c7c	-0.11065003
49	0xbd8e413a	-0.06946035
50	0xbe2cd381	-0.16877557
51	0xbe32ae73	-0.1744936
52	0x3c9902ed	0.018678153
53	0x3e1c0968	0.15237963
54	0x3e4e1cd6	0.20128188
55	0x3e01acae	0.12663528
56	0xbdd2c3e9	-0.10291273
57	0xbe7501f3	-0.23926525
58	0x3dde351d	0.10849974
59	0x3df3a24c	0.1189619
60	0xbe2a7576	-0.1664637
61	0x3d481e5f	0.04885709
62	0x3e441bdb	0.19151251
63	0x3d2110c2	0.039322622
64	0xbde83a04	-0.113391906
65	0x3e4c9413	0.19978361
66	0x3d6a3427	0.057178643
67	0x3e22ede8	0.15911067
68	0xbe342e0b	-0.17595689
69	0x3e1b9522	0.15193608
70	0xbe202983	-0.15640835
71	0x3e36f1be	0.17865655
72	0xbdd9fae7	-0.10643559
73	0x3e20606a	0.15661779
74	0x3d9dc968	0.07704431
75	0x3db02834	0.08601418
76	0xbd85ef66	-0.06539802
77	0x3d9c2104	0.07623485
78	0xbd7cbc4d	-0.061703015
79	0xbe39e30c	-0.18153018
80	0xbde4e166	-0.11175804
81	0x3e1b3d20	0.15160036
82	0xbd2194e6	-0.03944864
83	0x3d17e4ee	0.03708356
84	0xbddaac94	-0.10677448
85	0x3e226ae8	0.15861094
86	0x3e10dce9	0.1414677
87	0x3d377545	0.04478957
88	0xbdd4b745	-0.103865184
89	0xbe4d2fa8	-0.2003771
90	0xbd69f6fe	-0.057120316
91	0xbdfb2e63	-0.12264707
92	0x3e64dc6e	0.22349712
93	0xbe272d8b	-0.16325967
94	0x3def2a14	0.11677948
95	0x3e68c25f	0.22730397
96	0x3e1660bc	0.14685339
97	0x3caccbc0	0.02109325
98	0xbe40bc2d	-0.18821783
99	0x3e608ddd	0.21929117
100	0xbcd6392f	-0.026150314
101	0xbe4902e4	-0.19630009
102	0x3e56dfdd	0.20983835
103	0xbe03ed48	-0.12883484
104	0xbcf02a19	-0.029316949
105	0x3e4c5e73	0.19957905
106	0xbe1e5295	-0.1546119
107	0xbe346d58	-0.17619836
108	0x3d8fbe8a	0.07018764
109	0xbd5575a7	-0.052114155
110	0x3d5c6456	0.053806625
111	0xbe2e4bae	-0.17021057
112	0x3c581282	0.013188006
113	0xbdd741f2	-0.10510625
114	0xbdb47071	-0.08810509
115	0xbe606e78	-0.2191714
116	0x3e0163aa	0.12635675
117	0x3d437337	0.0477173
118	0xbe357ce5	-0.17723425
119	0x3e2e91af	0.17047761
120	0x3d16397d	0.03667592
121	0x3c0d2620	0.008615047
122	0xbdf008f8	-0.11720461
123	0x3d6691b0	0.056291282
124	0x3e48440d	0.1955721
125	0x3dcc786c	0.09983906
126	0xbe128f8f	-0.14312576
127	0x3e70b82f	0.2350776
128	0xbc3c4269	-0.011490443
129	0x3dfe8705	0.12428097
130	0x3e18c120	0.14917421
131	0x3e3c56a3	0.18392424
132	0xbe5a112b	-0.21295612
133	0x3e61a861	0.22036888
134	0xbe49ab2c	-0.19694203
135	0x3d2b1b8b	0.041774314
136	0xbe049865	-0.12948759
137	0xbd9b1024	-0.07571438
138	0xbd2c6aaf	-0.04209393
139	0xbce03169	-0.02736731
140	0xbd66c7f2	-0.056343026
141	0x3c839f27	0.0160671
142	0x3e74924a	0.2388393
143	0x3e06cc0c	0.13163775
144	0x3df2ed2d	0.11861644
145	0x3db9acb9	0.09066147
146	0x3e060137	0.13086401
147	0x3b246c05	0.0025088799
148	0x3cb00b9d	0.021489913
149	0x3ccbd061	0.024879636
150	0xbe36dda8	-0.17857993
151	0xbe42337a	-0.18964949
152	0x3aa661d1	0.0012693946
153	0xbdeed9df	-0.11662649
154	0xbc77940c	-0.015110981
155	0xbd806aee	-0.06270395
156	0xbabe798b	-0.0014532072
157	0x3e19ee57	0.15032326
158	0xbdbbdf09	-0.091734
159	0x3e249ddd	0.16075845
160	0x3e3bbd4a	0.18333927
161	0xbe4801b1	-0.19531895
162	0xbe1ee7de	-0.15518138
163	0xbe2570e8	-0.16156352
164	0xbe1b4e68	-0.15166628
165	0xbd9da84a	-0.07698114
166	0xbd23ac5d	-0.0399593
167	0xbd882711	-0.06648076
168	0xbe021828	-0.12704527
169	0xbd92ed52	-0.071741715
170	0xbdc24b98	-0.094870746
171	0x3e44161d	0.1914906
172	0xbd90bebc	-0.0706763
173	0xbe17f360	-0.14838934
174	0x3dd0fd10	0.10204518
175	0xbbd10584	-0.0063788313
176	0x3e1b70a5	0.15179689
177	0x3dfba3b7	0.122870855
178	0x3e652031	0.22375561
179	0xbe09a24b	-0.13440816
180	0x3df3a204	0.118961364
181	0x3e6145d8	0.219993
182	0xbde25782	-0.11051847
183	0x3e304f75	0.1721781
184	0x3e4c563f	0.19954775
185	0xbd88761e	-0.06663154
186	0x3e06499b	0.13114016
187	0xbd37f53e	-0.044911616
188	0xbe1ed270	-0.15509963
189	0x3ccfaeb4	0.02535186
190	0x3db7ead5	0.089803375
191	0xbe18c446	-0.14918622
192	0x3d579cb0	0.052639663
193	0xbe7a431e	-0.24439666
194	0x3e0d3d4e	0.13792917
195	0x3e530884	0.20608717
196	0x3d66464f	0.056219395
197	0xbe047eed	-0.12939043
198	0x3d416fc3	0.047225725
199	0xbb2778f1	-0.0025554264
200	0x3d86d165	0.065829076
201	0x3d96e4c9	0.07367856
202	0x3e37fccf	0.17967533
203	0xbda76a78	-0.08174604
204	0xbc9b9d10	-0.018995792
205	0x3d925947	0.071459346
206	0x3ce4dbd8	0.02793686
207	0x3e3fa74e	0.18716165
208	0xbe0487c5	-0.12942417
209	0x3c20dbae	0.009818001
210	0x3d504eb8	0.050856322
211	0xbdc078a2	-0.09398009
212	0x3def5fb6	0.11688177
213	0x3c78f088	0.015194066
214	0xbe61d0d6	-0.22052321
215	0x3c90f382	0.017694239
216	0xbde07b62	-0.109610334
217	0x3ca65deb	0.020308455
218	0xbd454211	-0.04815871
219	0xbe50b367	-0.20380937
220	0xbcb20ff1	-0.021736117
221	0xbd340594	-0.043950632
222	0xbd930ee7	-0.07180577
223	0x3e75ba22	0.23996785
224	0xbd33725d	-0.043810237
225	0x3ded0406	0.11573033
226	0x3d1355a5	0.03597035
227	0xbe24bdd8	-0.16088045
228	0x3d04f029	0.032455597
229	0x3e49c21a	0.1970295
230	0xbe010039	-0.12597741
231	0xbe03c952	-0.12869766
232	0x3e4e8d3b	0.20171063
233	0x3e49e4ac	0.19716138
234	0xbe07cf4c	-0.13262671
235	0x3e0f9d5a	0.14024869
236	0xbd1f1cac	-0.038845703
237	0xbe4803fe	-0.19532773
238	0x3c4acbf8	0.0123777315
239	0x3d421911	0.047387186
240	0xbdae3f68	-0.085081875
241	0x3d3043d3	0.043033432
242	0xbe2ca29c	-0.16858906
243	0x3e2ef54f	0.17085765
244	0x3e41a023	0.18908744
245	0x3dd648f2	0.10463132
246	0x3d0fc1c4	0.0350969
247	0x3da6e822	0.081497446
248	0xbe4580c7	-0.19287406
249	0xbd096482	-0.033543117
250	0xbd220951	-0.039559666
251	0xbe2c9242	-0.16852668
252	0xbe511ef4	-0.20421964
253	0x3e327ae4	0.17429692
254	0x3e0ce44e	0.13758966
255	0xbe295c64	-0.1653915

message_passing_layers.0.update_mlp.layers.0.bias f4 [16]
0	0xb5917639	-1.0837749e-06
1	0x3442968e	1.812243e-07
2	0x3a3a2587	0.0007100929
3	0xb3d70d6b	-1.00141584e-07
4	0xb9588b82	-0.00020651336
5	0x3a443937	0.00074853323
6	0xb3fa89df	-1.1666611e-07
7	0xb6c09eb3	-5.740521e-06
8	0xb9bb1831	-0.00035685443
9	0xb5256343	-6.1611735e-07
10	0xbc031621	-0.008000881
11	0xb4a61645	-3.0936113e-07
12	0x35aeb68f	1.3017142e-06
13	0xbb98a786	-0.004658642
14	0xb9ab7fc6	-0.0003271086
15	0xba6cd09a	-0.00090337696

message_passing_layers.0.update_mlp.layers.1.weight f4 [16]
0	0x3f87192a	1.0554554
1	0x3f80392d	1.0017449
2	0x3f7907aa	0.9727732
3	0x3f73cadb	0.9523141
4	0x3f80d3d8	1.006465
5	0x3f8179fe	1.0115354
6	0x3f7c7ac9	0.98624855
7	0x3f833672	1.025099
8	0x3f764b09	0.96208245
9	0x3f7916ec	0.973006
10	0x3f773b09	0.96574455
11	0x3f823f9f	1.0175666
12	0x3f756b3f	0.9586677
13	0x3f80aed5	1.0053355
14	0x3f7f4be7	0.9972519
15	0x3f84e0c5	1.0381094

message_passing_layers.0.update_mlp.layers.1.bias f4 [16]
0	0x3cbb706c	0.022880755
1	0xbcbf93ba	-0.023385871
2	0x3ca2905e	0.01984423
3	0xbc92d747	-0.017924918
4	0x3cede215	0.029038468
5	0xbd90f2bd	-0.07077549
6	0x3c7042f6	0.014664402
7	0xba8097ce	-0.0009810866
8	0xbd11f9c8	-0.0356386
9	0xbcab7c03	-0.020933157
10	0xbcae7d97	-0.02130012
11	0x3cc82a9f	0.024434386
12	0xbb6680fb	-0.0035172093
13	0xbd14fe10	-0.036375105
14	0xbc7662b7	-0.015038184
15	0x3c84a43b	0.016191592

message_passing_layers.0.update_mlp.layers.1.running_mean f4 [16]
0	0xbdbd7590	-0.09250939
1	0x3e342a0d	0.17594166
2	0xbeb73d93	-0.35789165
3	0x3e39216b	0.18079154
4	0xbe1726e4	-0.1476093
5	0x3dd4e885	0.10395912
6	0x3debca32	0.11513175
7	0xbe02b52f	-0.12764429
8	0x3daf559e	0.08561252
9	0xbec49559	-0.38395193
10	0x3e245da7	0.1605135
11	0xbeb2cdc0	-0.349226
12	0xbe05c614	-0.13063842
13	0x3e244ab1	0.16044118
14	0x3e135d2a	0.14391008
15	0xbd934449	-0.07190759

message_passing_layers.0.update_mlp.layers.1.running_var f4 [16]
0	0x3cbff80c	0.023433708
1	0x3d414975	0.047189195
2	0x3dfa128a	0.12210567
3	0x3dc893ba	0.097938016
4	0x3d0ee757	0.03488859
5	0x3ce3cb42	0.027806882
6	0x3d9a7f19	0.07543773
7	0x3bcc738a	0.0062393593
8	0x3c8e98d3	0.017406857
9	0x3dc33a94	0.09532657
10	0x3c5e0090	0.013549939
11	0x3dc40bf9	0.09572596
12	0x3cadc02b	0.021209797
13	0x3d7ba291	0.061434332
14	0x3cf73ea5	0.030181238
15	0x3dca1458	0.098671615

message_passing_layers.0.update_mlp.layers.3.weight f4 [4, 16]
0	0x3e7548e5	0.23953588
1	0x3e5da11c	0.2164349
2	0x3d1aa951	0.03775913
3	0x3e4d2d6c	0.20036858
4	0xbdc33170	-0.09530914
5	0xbe872ea4	-0.2640277
6	0x3d9d5074	0.07681361
7	0x3debf204	0.1152077
8	0x3e65b1b4	0.2243107
9	0xbd0a9ea0	-0.033842683
10	0x3e2029de	0.15640971
11	0x3e2e9e47	0.17052566
12	0x3e1c42fe	0.1525993
13	0xbe874610	-0.2642064
14	0x3e3bc8a7	0.18338262
15	0xbe7886d8	-0.24270189
16	0x3e62d409	0.22151197
17	0x3aa3c78f	0.0012495386
18	0xbe5b6c4d	-0.21428032
19	0x3d86e8d0	0.06587374
20	0xbb3a36c1	-0.0028413984
21	0xbe528a55	-0.20560582
22	0xbde9f559	-0.114237495
23	0x3d21dcef	0.03951734
24	0x3e2652d2	0.16242531
25	0xbe006ad6	-0.12540755
26	0x3e29a7d0	0.16567922
27	0x3c862f09	0.01637985
28	0x3d383e20	0.044981122
29	0x3d83966f	0.06425177
30	0xbe0c426b	-0.13697211
31	0xbe55bbf6	-0.20872483
32	0xbd8529bd	-0.065021016
33	0xbe72897e	-0.23685262
34	0xbdb529ad	-0.0884584
35	0x3b10688e	0.0022034976
36	0xbe44294a	-0.19156376
37	0xbe02a4ea	-0.12758222
38	0xbcf4d0f8	-0.0298848
39	0xbceb85f2	-0.028750394
40	0xbe0e354e	-0.13887522
41	0xbceb2739	-0.028705226
42	0xbd63df0a	-0.05563263
43	0x3dd05044	0.101715595
44	0xbc959ac1	-0.018262269
45	0xbe040a8b	-0.12894647
46	0xbdcd660d	-0.1002923
47	0x3b6cca7f	0.003613144
48	0xbe474ca4	-0.1946283
49	0xbc09c1d5	-0.00840803
50	0xbd8a5361	-0.067541845
51	0x3d9cf76f	0.07664382
52	0x3d4ddcda	0.05025945
53	0x3e472ed9	0.19451465
54	0xbc9fe2f3	-0.019517398
55	0xbe5e553c	-0.21712202
56	0x3ddbfe91	0.10741914
57	0xbe118bc7	-0.14213477
58	0xbcafa3ff	-0.021440504
59	0xbde72eb6	-0.11288206
60	0xbd98f78d	-0.074690916
61	0xbd8536fe	-0.065046296
62	0x3e8782b7	0.26466915
63	0x3e213319	0.15742148

message_passing_layers.0.update_mlp.layers.3.bias f4 [4]
0	0xb4d5fa0d	-3.9856278e-07
1	0x3c614c91	0.013751165
2	0xbc3a1fbb	-0.011360104
3	0xb5b7c7d1	-1.3692717e-06

message_passing_layers.1.message_mlp.layers.0.weight f4 [16, 12]
0	0x3e222819	0.15835609
1	0x3e40518f	0.18781112
2	0xbe4dc793	-0.20095663
3	0x3dc445ab	0.095836006
4	0xbe3abf1f	-0.1823697
5	0xbd481bd3	-0.04885466
6	0xbdbaa596	-0.09113614
7	0xbe833716	-0.25627965
8	0xbe94e832	-0.290834
9	0xbe42d26b	-0.1902558
10	0x3e201c98	0.15635908
11	0x3e07e317	0.13270222
12	0xbe8d2976	-0.27570695
13	0xbe145963	-0.14487223
14	0xbc2938cd	-0.010328484
15	0xbe4e8c2e	-0.20170662
16	0x3e3eb9a9	0.18625511
17	0x3e942378	0.2893331
18	0x3daab798	0.08335799
19	0xbe233078	-0.15936458
20	0x3d88f3a3	0.06687095
21	0x3d9d8143	0.0769067
22	0x3e636529	0.22206558
23	0xbddaa004	-0.10675052
24	0xbe9be6a8	-0.30449414
25	0x3e15a79f	0.14614724
26	0x3c0ffdb5	0.008788516
27	0xbdc96f00	-0.09835625
28	0xbdbcdab6	-0.09221403
29	0xbe02dcef	-0.12779592
30	0x3e6d6443	0.23182778
31	0xbcb33c91	-0.021879466
32	0x3e18f990	0.1493895
33	0x3e83e2eb	0.25759062
34	0x3d040fce	0.032241635
35	0x3d61f94f	0.0551694
36	0xbc796500	-0.015221834
37	0x3e0d09a6	0.13773212
38	0xbe9a40db	-0.30127606
39	0x3e04d904	0.1297341
40	0x3c5780d4	0.013153274
41	0x3e07f4d1	0.13276984
42	0xbbc63f8a	-0.006050055
43	0xbd483319	-0.048876856
44	0xbc170cf3	-0.009219396
45	0x3dd11724	0.10209492
46	0xbe6c2cc0	-0.23063946
47	0xbe28a3a6	-0.16468677
48	0xbd4cd214	-0.050005034
49	0xbdfe30a2	-0.1241162
50	0x3e2132e8	0.15742075
51	0x3e31c7a0	0.17361307
52	0xbdb15a27	-0.08659773
53	0x3e7528a4	0.23941284
54	0xbe1aedf3	-0.15129833
55	0xbe4d8f35	-0.2007416
56	0xbde5ee9b	-0.11227151
57	0xbe5a3baf	-0.2131183
58	0xbe14b094	-0.14520484
59	0xbe919329	-0.28432587
60	0xbe56e90f	-0.20987342
61	0x3d37ada7	0.044843342
62	0x3e21503e	0.15753266
63	0x3e9f82c2	0.31154448
64	0x3e6baf6d	0.23016138
65	0xbd18b3cc	-0.037280843
66	0x3d66877a	0.056281544
67	0xbe16500c	-0.14678973
68	0x3e022139	0.12707986
69	0xbe933f8f	-0.2875943
70	0x3dd4459c	0.103648394
71	0x3dd3a57d	0.10334299
72	0x3dcb8dca	0.099391535
73	0x3dbf8293	0.09351077
74	0xbe31be13	-0.17357664
75	0x3e8c7253	0.27430972
76	0x3e0723c8	0.13197243
77	0x3e34ec13	0.1766818
78	0x3c9062cd	0.017625237
79	0x3e2fb970	0.17160583
80	0x3e5035fa	0.2033309
81	0x3defdb19	0.117117114
82	0x3e2fa110	0.17151284
83	0xbcbd2194	-0.0230873
84	0x3e44b48d	0.192095
85	0x3d525625	0.051351685
86	0x3e4a540d	0.19758625
87	0x3e8643c0	0.26223564
88	0x3d5a49fe	0.05329322
89	0xbdb745ed	-0.08948884
90	0xbc58541c	-0.013203647
91	0x3dbac5df	0.09119772
92	0x3d6351c5	0.055497903
93	0xbdbaa354	-0.091131836
94	0x3e7d71f8	0.24750507
95	0x3e1c9293	0.15290289
96	0xbe400c39	-0.18754663
97	0xbc031ba1	-0.008002193
98	0xbd05dc6a	-0.032680906
99	0xbe5a56b0	-0.21322131
100	0x3d765e8e	0.060148768
101	0xbd54498c	-0.051827952
102	0xbddbd13d	-0.107332684
103	0xbd8a6e4a	-0.06759317
104	0xbdf46845	-0.1193395
105	0x3e94fce9	0.29099205
106	0x3ddabfaa	0.10681088
107	0x3e70b865	0.23507841
108	0x3dcf5957	0.10124462
109	0x3dcd2498	0.10016745
110	0x3dda2ab6	0.10652678
111	0x3c88fb51	0.0167214
112	0xbe5cbe59	-0.21556987
113	0xbe532567	-0.20619737
114	0xbda2b972	-0.07945527
115	0xbc3f8825	-0.011690174
116	0x3dc7ce10	0.097561
117	0x3e066262	0.13123468
118	0x3e51c332	0.20484617
119	0x3d0fafcb	0.03507976
120	0xbe12c0cf	-0.14331363
121	0xbe7a0548	-0.24416077
122	0xbe7878e1	-0.24264862
123	0xbe0bf401	-0.13667299
124	0x3d271df7	0.04080006
125	0x3dc06002	0.09393312
126	0x3e48aae8	0.19596446
127	0xbe176a7e	-0.14786717
128	0xbcd41ad4	-0.025891699
129	0xbdca2fb2	-0.098723784
130	0xbca787de	-0.020450529
131	0x3e01c711	0.12673594
132	0xbd5113b7	-0.051044192
133	0xbcbbf58b	-0.022944232
134	0x3d07bb8a	0.033137836
135	0x3e1d1373	0.1533945
136	0xbd575215	-0.052568514
137	0xbe328353	-0.17432909
138	0x3d6ecf97	0.05830344
139	0x3c843f99	0.016143607
140	0xbe11d694	-0.14242011
141	0x3dc6ddae	0.09710251
142	0x3bf669ad	0.0075199218
143	0xb97b2278	-0.00023950066
144	0xbe12be64	-0.14330441
145	0xbd5168e2	-0.051125415
146	0xbe8aea42	-0.2713185
147	0x3db7a021	0.08966089
148	0xbc4a70b2	-0.01235597
149	0x3e078ce6	0.13237342
150	0xbcf34da3	-0.029700106
151	0xbc970d56	-0.018438976
152	0x3d93fde2	0.07226159
153	0x3e500145	0.20312984
154	0xbe0f906b	-0.14019935
155	0x3e49bb41	0.19700338
156	0x3d405ebf	0.046965357
157	0xbe4a6e67	-0.19768678
158	0x3d99947e	0.07499026
159	0xbe33ab16	-0.17545733
160	0xbdac924d	-0.08426342
161	0xbdd8ac2b	-0.105797134
162	0xbe2aab45	-0.16666897
163	0x3e81b8e4	0.25336373
164	0xbe8b86a2	-0.27251154
165	0x3e0cde4d	0.13756676
166	0xbe8e8341	-0.27834514
167	0xbd206818	-0.03916177
168	0x3bf39f69	0.0074347747
169	0x3e2c9689	0.168543
170	0xbd90dc92	-0.070733204
171	0x3d665611	0.056234423
172	0x3d1857e3	0.03719319
173	0x3e1f0f5c	0.15533203
174	0xbba1c967	-0.004937339
175	0x3db9a041	0.09063769
176	0xbe353901	-0.17697527
177	0xbe636938	-0.22208107
178	0x3e9746c5	0.2954618
179	0xbe629896	-0.2212852
180	0xbd2830dd	-0.041062225
181	0xbdb41cc5	-0.0879455
182	0x3e749246	0.23883924
183	0xbc017ec9	-0.007903763
184	0xbe57b37e	-0.21064565
185	0xbd916c03	-0.0710068
186	0x3e060d0d	0.13090916
187	0x3dec3984	0.11534408
188	0x3e8c5e21	0.27415565
189	0xbde15390	-0.110022664
190	0x3dec3617	0.11533754
191	0xbe51c3d2	-0.20484856

message_passing_layers.1.message_mlp.layers.0.bias f4 [16]
0	0x36160556	2.2354848e-06
1	0x38b536ac	8.640936e-05
2	0x3b51f1d5	0.0032035012
3	0xba9c88ad	-0.0011942588
4	0x3521c49c	6.026328e-07
5	0x349b7c7f	2.8961583e-07
6	0xbbcdd09a	-0.0062809708
7	0xbc4886ba	-0.012239153
8	0xbcf763f4	-0.030199029
9	0x34f2b1e0	4.5205434e-07
10	0x3b1c214c	0.0023823557
11	0x351e47f2	5.896428e-07
12	0xb59de865	-1.1765047e-06
13	0xb3b948f3	-8.628003e-08
14	0xbb2b7b8b	-0.0026166167
15	0x356803c3	8.643221e-07

message_passing_layers.1.message_mlp.layers.1.weight f4 [16]
0	0x3f748c78	0.9552684
1	0x3f79232b	0.9731929
2	0x3f81e866	1.0149047
3	0x3f83bad2	1.0291388
4	0x3f7c34fe	0.9851836
5	0x3f7eef36	0.99583757
6	0x3f7ac814	0.97961545
7	0x3f7deabe	0.99186313
8	0x3f80e5fc	1.0070186
9	0x3f6adbd8	0.91741705
10	0x3f7dff7b	0.9921796
11	0x3f7f2f83	0.9968187
12	0x3f85c8c4	1.0451894
13	0x3f78b9a2	0.97158253
14	0x3f761e29	0.9613977
15	0x3f812254	1.0088601

message_passing_layers.1.message_mlp.layers.1.bias f4 [16]
0	0xbd3b1aed	-0.045679975
1	0xbc9b24aa	-0.018938381
2	0x3d4edaa3	0.050501477
3	0xbc54b41a	-0.012982393
4	0xbc1a1d4a	-0.009406397
5	0xbd6dcdc7	-0.058057573
6	0x3ce9b196	0.028527062
7	0x3c94e1df	0.01817411
8	0xbc3b4f7f	-0.011432528
9	0xbc824434	-0.015901662
10	0xbcb3a47c	-0.021929018
11	0xbc853086	-0.01625849
12	0x3c1525a8	0.009103216
13	0xbc56075f	-0.013063281
14	0xbc5edabd	-0.013601956
15	0x3d0ad921	0.033898477
