gnn/gnn_outputs/checkpoint_epoch_70.pt (torch, 971996 bytes, 208 tensors)

node_encoder.layers.0.weight f4 [64, 3]
00000000: e0e0 e43e 8331 f23e e4f1 0fbe 7cad 093f
00000010: dd12 fbbd f145 d73d 80a1 89be 1a13 b33e
00000020: 06f2 033f 6e0c d3be 1fae 033f 8f42 bf3d
00000030: 56f4 dc3e 882d 903d 8f36 8c3e a6d4 b7bd
00000040: d171 df3e 4e4e bf3d ccaa 90be fcce 1b3e
00000050: 75e2 7bbe a686 84bd 3bd9 69be 4211 c73e
00000060: 1d57 edbe bf97 82be 8432 26be dafe abbe
00000070: 4f41 693d 07a8 14bf 329d 043f c82d fbbe
00000080: 9a62 e63e f4c6 cb3d 8bf8 33be 206b ba3e
00000090: 60e5 b23d 63b2 f03e 3765 723d f044 3bbe
000000a0: c891 1c3e d2b1 25be ae3b 773e 7d2d fc3e
000000b0: 5a47 b33e 5939 70be 0deb b03e a5b7 d23d
000000c0: d3da 963e 3349 b0be 7582 14bf 5c21 61be
000000d0: ff3d ebbe 0b76 ec3e a1a7 253e 6be5 733e
000000e0: 551d 473e 681d 78bc b90e ec3e ce1d cdbe
000000f0: 6add f93c b1f6 ccbe bf07 303e ff96 49be
00000100: a982 333e 1fb0 fabd 2657 f53e 9a40 b2be
00000110: 7573 aebe 62a1 b6be 7292 013f f5d5 403e
00000120: f208 0d3f 58c8 f2be 74b8 13bf edea e6be
00000130: 5dd7 cabe bc8c 623e ec8a 4e3e 8ce4 f93e
00000140: 2d88 94be 110f c1be bba5 a33e 7afa 6abe
00000150: cbf2 b23e f135 15be 1210 a63e ae15 f0be
00000160: 44bc 8fbe f53a 363e da69 fe3d f5df 0fbe
00000170: b749 b33e 4747 c53e 44e8 d9be 4bd7 9bbe
00000180: 336d 073f 3a73 52be 2c53 4cbe 333d 0dbf
00000190: 9071 acbe 6532 113e 0537 b1bd 9818 d1be
000001a0: db1d 673b 27c8 cbbe 0171 03bf 664c 9abe
000001b0: 5d2e 02bf 4010 bbbe 5dda 123f ec70 e13d
000001c0: c4d8 423e a431 06bf 2e03 c1be 9d48 44be
000001d0: 130e bd3d 2f19 00bf 7d78 7dbe cb1f b5be
000001e0: e7ad 063c 15cd 63be fab2 08bd 0b3c d0be
000001f0: 6442 ccbe 6199 a6be 50c5 4fbe 23d3 eabe
00000200: afab f53e 6025 e3bd 750b f83e b30f 463e
00000210: df50 f9be 5346 d23e 6b0a 20be 2de8 67be
00000220: e466 f5be 0e4c 12bf 437b 323e 5765 fabd
00000230: 7dd8 553e 6058 f1be 4d4a da3e a327 dabe
00000240: b087 cfbd 9f54 ea3d 8389 9d3e d218 f73e
00000250: 176c 063f 79fe e2be ee25 123e ccf1 85be
00000260: d089 5dbd 7fc6 dfbe 72d7 043f 6e37 dcbe
00000270: 8716 a13e 2c77 443e d4a4 423e 47de 9cbe
00000280: efa2 073f 869f 003e daea 9b3d f9d6 03bf
00000290: a861 703e 760f a6bd 83ee 85be fe67 ff3e
000002a0: 8ac1 093e 0ac3 a2be ca3b 94be aa9f 12bd
000002b0: f67f a33e 5552 19be 573f a3be 96e4 4fbe
000002c0: af7a e3be 7940 453e 4b76 de3e b8b8 0ebf
000002d0: 8214 193e 1920 913e ae4c e83d 4954 58be
000002e0: 616d 973e 3a01 9e3e 766a 5f3e be65 cbbd
000002f0: 5cc4 1abe b09d 893d 0e22 c2bd 31e5 37be
0.44702816 0.473034 -0.14057118 0.5378034 -0.12259457 0.10511387 -0.26881027 0.3497551
0.51541173 -0.4122042 0.5143756 0.09338867 0.43155164 0.070399344 0.27385375 -0.08976106
0.43641523 0.09341107 -0.28255308 0.15215677 -0.24598105 -0.06470995 -0.22836773 0.38880354
-0.46355525 -0.25506398 -0.16230208 -0.33592874 0.05694705 -0.5806889 0.5180236 -0.49058366
0.44997102 0.09950057 -0.1757528 0.36409855 0.08735156 0.47011098 0.059178557 -0.18288016
0.15289986 -0.16181114 0.2414386 0.49253455 0.35015374 -0.23459376 0.3455433 0.10288934
0.29463825 -0.34430847 -0.5801156 -0.21985382 -0.45945737 0.4618381 0.16177227 0.23817985
0.19444783 -0.01514373 0.46104982 -0.40061802 0.030501086 -0.4003196 0.17190455 -0.19686507
0.17530312 -0.12240624 0.4791805 -0.34814912 -0.34072462 -0.3567 0.5061408 0.18831618
0.55091774 -0.47418475 -0.5770333 -0.4510111 -0.39617434 0.22123998 0.20170182 0.4880718
-0.29010144 -0.37706807 0.3196238 -0.22947112 0.3495086 -0.14571358 0.32434136 -0.4689154
-0.28073323 0.17795928 0.12422533 -0.14050277 0.35017177 0.38530943 -0.42560017 -0.30437693
0.52901 -0.20551768 -0.19953603 -0.5517151 -0.3368039 0.1417938 -0.08653072 -0.40839076
0.0035265598 -0.39801142 -0.51344305 -0.30136412 -0.50851995 -0.36535835 0.57364446 0.11007866
0.19028002 -0.52419496 -0.37697738 -0.19168325 0.092312 -0.5003843 -0.24752994 -0.3537582
0.0082201725 -0.22246201 -0.03337381 -0.4067081 -0.39894402 -0.32538894 -0.20290112 -0.4586421
0.47982547 -0.11091113 0.4844624 0.19341926 -0.48694512 0.41069278 -0.15628974 -0.22647162
-0.47930062 -0.571473 0.17429833 -0.1222636 0.20883365 -0.47137737 0.42634812 -0.42608365
-0.10133302 0.114419214 0.30768976 0.48261124 0.5250868 -0.44334772 0.14272282 -0.2616104
-0.054086506 -0.43706128 0.51891243 -0.4301104 0.314625 0.19186085 0.1900819 -0.30638334
0.5298299 0.12560853 0.07613154 -0.514999 0.23474753 -0.08108418 -0.26158533 0.49884027
0.13452736 -0.31789428 -0.28951865 -0.0357968 0.31933564 -0.14972813 -0.31884262 -0.20302042
-0.44429538 0.19262876 0.43449625 -0.5575061 0.1494923 0.283448 0.113427505 -0.21125902
0.29575637 0.3086031 0.21817955 -0.09931515 -0.15113968 0.0671953 -0.09479152 -0.17958523

node_encoder.layers.0.bias f4 [64]
00000000: 0d43 9a3e 360f db3e 11b3 d1bb 040a 88bd
00000010: e816 13b8 9a33 8f3a 6460 9a3d 5f50 c73d
00000020: 0c71 e9be 05b3 16be 23f5 d53e 0380 223e
00000030: e77b 383a 0099 8fbe 4037 92be 31c1 e5be
00000040: efa2 fbbd 4991 043e 6fd6 993e 8b8a 4c3e
00000050: 8b44 e2be c829 8fbe 3cd3 02bd 8bdd fa3e
00000060: f187 d13c 3233 afbd 6c94 303e e37f 1dbe
00000070: aaa0 9cbe d6ea b43e 0574 48be f68c 5cbd
00000080: 237a 01bf 3418 a33e 4614 bd3e d702 143e
00000090: 8652 abbe 2050 00bf 8824 cdbe 1991 b93e
000000a0: 9b45 573e bfc5 d53e f6e0 703e 2d96 a83d
000000b0: aa4e 60b8 01ee bdbe ba40 dabe 2f6c f1be
000000c0: bc0b 2e3e 2da2 5dbe 34f7 5dbd b58f 87be
000000d0: 4c87 35bd 2241 adbe ea72 9ebe 5a1d 013e
000000e0: c7b3 dabd c0d7 933e 45c1 f5bd aefe b5be
000000f0: fb18 29bd 7fff 59be a8c6 e4bd 0960 f6be
0.3012928 0.42785043 -0.00639952 -0.06642535 -3.5068864e-05 0.0010925413 0.07537916 0.097321264
-0.4559406 -0.14716728 0.41788587 0.15869145 0.0007037506 -0.28046417 -0.28557777 -0.44873956
-0.122869365 0.12946047 0.30046412 0.19974725 -0.4419292 -0.27961564 -0.03193973 0.4899715
0.025577517 -0.085546866 0.17244118 -0.15380816 -0.30591327 0.35335416 -0.19575508 -0.05384537
-0.5057699 0.31854403 0.3692953 0.14454208 -0.33461398 -0.5012226 -0.40066934 0.36243513
0.21022646 0.4175243 0.23523316 0.08231769 -5.3479023e-05 -0.37095645 -0.42627507 -0.4715285
0.16996664 -0.21643896 -0.05419083 -0.26476827 -0.044318482 -0.33838755 -0.30947047 0.12608853
-0.10678821 0.28875542 -0.11999754 -0.35545868 -0.04128359 -0.2128887 -0.11170703 -0.48120144

node_encoder.layers.1.weight f4 [64]
00000000: f80e 813f 7e31 7f3f cbd0 7d3f 3416 803f
00000010: a120 7e3f eaae 803f 9c09 7b3f 7493 803f
00000020: 72a3 7e3f 2d1e 7e3f 4f76 7f3f 716f 803f
00000030: 582a 803f 8538 823f 558e 7d3f 42d8 7f3f
00000040: 069f 7b3f ba5f 7e3f 2bbc 7c3f d129 803f
00000050: f2ae 803f dc1f 7d3f bf7d 803f 9382 7e3f
00000060: 95c2 803f 4340 813f 9e21 803f de14 823f
00000070: 4774 7e3f 4f81 803f 6c30 803f 78d9 803f
00000080: 479d 7f3f 2cb5 803f 8fb6 813f ae7b 803f
00000090: 3d40 813f 2805 813f a3f9 7e3f 984a 7e3f
000000a0: 249e 803f 357a 7f3f bea4 803f f8c4 7f3f
000000b0: 7191 7f3f 47e3 7d3f 45a1 803f 3cb2 803f
000000c0: f704 7f3f 9a4d 7e3f 28e1 813f bccb 813f
000000d0: 2499 7c3f f742 803f 1d29 7e3f 6e42 7e3f
000000e0: 1f10 7c3f da0b 7f3f 8daa 7d3f 35a2 803f
000000f0: 7cc8 7d3f 29cb 7c3f 9e24 7d3f 9a49 7c3f
1.0082693 0.99684894 0.9914672 1.0006776 0.9926854 1.005338 0.9806154 1.0044999
0.9946815 0.99264795 0.997899 1.0034009 1.0012922 1.0173498 0.99045306 0.9993936
0.98289526 0.9936482 0.9872462 1.0012761 1.0053389 0.9887674 1.0038375 0.9941799
1.0059382 1.0097736 1.0010259 1.0162618 0.99396175 1.0039462 1.0014777 1.0066366
0.9984936 1.0055289 1.0133837 1.0037744 1.0097729 1.0079699 0.99599665 0.9933257
1.0048261 0.9979585 1.0050275 0.99909925 0.998313 0.9917492 1.0049216 1.0054393
0.9961695 0.9933716 1.0146837 1.01403 0.98671174 1.0020436 0.99281484 0.99320114
0.984621 0.9962746 0.99088365 1.0049502 0.9913404 0.987475 0.98884 0.9854981

node_encoder.layers.1.bias f4 [64]
00000000: 1d9b c43a bccf 92bb 5f1d 05bc a733 863c
00000010: a67b 8abc 9b04 133c 9979 d7bc 8b40 d23b
00000020: d943 bcbc f9a8 9ebb ed58 d03b 6d51 8ebb
00000030: d38c 393b 2581 283b e001 52bb bd42 e73b
00000040: 0cc0 a7bb ff4b 763a 0f89 14bc 997c 7fbb
00000050: ec82 06bc a77d f3bb 5bac 8d3a 93ad 193b
00000060: cf20 87b9 39af e9bb 240f 9a3c 0986 5d3c
00000070: a060 1bbc 6696 a0bb 3f06 b03b 96a9 4b3b
00000080: 0955 3dbb 9e21 32bc f6c6 18bb 5b94 13bb
00000090: bdfa 0d3c bb45 133c ab53 c5bb ae70 76ba
000000a0: 27ae f03b 3ace 57bc f6aa aebb 2151 063c
000000b0: 4fa1 c13b 46ab 333b bc9b 8aba d655 1ebc
000000c0: 08ab 3e3b 6114 a1bb ed3c 1e3c ef02 b43c
000000d0: 4a2f 4b3b ed8e cb3b cf28 26bc a1f5 e1bc
000000e0: dcc3 14bc eaae adbb b898 2dbc f799 173c
000000f0: dc85 cabb b84e 103c 7821 0b39 0748 61bc
0.0014999841 -0.0044803303 -0.008124678 0.016382052 -0.016904663 0.008973266 -0.0263031 0.0064163855
-0.022981571 -0.0048419205 0.006358257 -0.004343203 0.0028312698 0.0025711742 -0.0032044575 0.0070575164
-0.0051193293 0.00093954796 -0.00906588 -0.0038984178 -0.008209925 -0.0074307504 0.0010808812 0.0023449406
-0.0002577365 -0.007131484 0.018806048 0.013520726 -0.009483486 -0.0049007414 0.0053718383 0.0031076423
-0.0028889796 -0.010872273 -0.002331195 -0.0022518847 0.008665738 0.008988793 -0.006021937 -0.0009400946
0.0073449793 -0.013171727 -0.0053304387 0.008198054 0.005909122 0.002741532 -0.0010574977 -0.00966402
0.0029093642 -0.0049157594 0.0096580805 0.021974055 0.0031003528 0.0062121064 -0.010141565 -0.027582945
-0.0090799 -0.0053003924 -0.010595493 0.009253017 -0.006180508 0.0088078305 0.00013268541 -0.013750083

node_encoder.layers.1.running_mean f4 [64]
00000000: a85d 423f 306b 313f 1576 aa3e 2cb4 a23d
00000010: f083 d23e 83e0 8a3e a4a2 d1bd f39b 023e
00000020: 1cde 71bf 02a4 17bf 29ae 1f3f 9ed4 963e
00000030: 5f28 bc3e 8875 bdbe 3597 a43e 2dbb 9ebe
00000040: 8f14 f8be 12b8 d7bc 620e 233f ff06 8c3e
00000050: d4aa 16bf 7b60 afbe 9c95 32be b693 373f
00000060: 2ff0 8bbe 0c34 e9be 68e6 dd3e 0724 8ebe
00000070: 9720 49bd a4a3 fa3c fd9a 25bd b8a8 8cbe
00000080: e0fc ecbe 387e cebd f03d a03d 2041 08bf
00000090: 3ff9 08bf c714 1abf 6e6f 2cbf 5082 6cbe
000000a0: 1c19 843d cb52 52be 8146 c93d 6d67 da3e
000000b0: 2ac1 a9bd 05e4 8abf a0f8 9cbe 3830 2ebf
000000c0: 9e72 b33e 0cdf 013e 2e49 30be 0608 cdbe
000000d0: 4bf8 aa3e f858 e5bd 1de1 f0be b062 3c3e
000000e0: f0bf c5be 13c6 c93e f25f 25bf 23b3 8ebe
000000f0: e7d5 883e ee23 623c 2f16 10be 4e02 1abf
0.7592416 0.6930418 0.33293214 0.07944521 0.41116285 0.27124414 -0.10236099 0.12754802
-0.94479537 -0.5923463 0.6237512 0.2945909 0.3674955 -0.37003732 0.32146612 -0.3100218
-0.48453185 -0.026332889 0.6369382 0.27349088 -0.58854413 -0.34253296 -0.17439884 0.71709764
-0.27331683 -0.4554752 0.4333985 -0.27761862 -0.049103346 0.030595608 -0.04043101 -0.27472472
-0.46286678 -0.10082668 0.07824314 -0.5322437 -0.5350532 -0.60187954 -0.6735753 -0.23096585
0.06450102 -0.20539396 0.09827901 0.42657033 -0.08288796 -1.0850836 -0.30658436 -0.68042326
0.35048383 0.12682742 -0.17215416 -0.40045184 0.33392558 -0.1119861 -0.47046748 0.18397021
-0.38623 0.3940893 -0.64599526 -0.27871045 0.26725695 0.013802512 -0.14070962 -0.60159767

node_encoder.layers.1.running_var f4 [64]
00000000: 44c7 2e3d b087 ba3c 653c 373d ecb1 0a3d
00000010: de5d bf3c 3bd9 983c 06b5 5c3c 599e af3c
00000020: 20bf e53c ef8a 363d f775 6a3d 08e8 8c3c
00000030: a3be b93c 5759 dc3b d568 343d 6164 723c
00000040: 6aa3 593d 3048 433d 11b1 4c3c 1a78 133d
00000050: 0c98 8f3c 26e6 d33b 1c9b 1c3d fd71 0a3d
00000060: 5b78 9b3d 4dde 1f3d d324 133d b2b0 b93c
00000070: f26e ac3c ddb5 f73c 0e42 7f3c c459 103d
00000080: 21e9 de3c 9b3b 233d 28d1 8a3c 088c 543d
00000090: 9180 913d 12a9 0b3d a9e6 883c 1fa4 293d
000000a0: 1160 9b3b 09fc 303d b25b 473d a5a8 d63c
000000b0: 9a7a ff3c 4399 843d c337 fe3b 3788 423d
000000c0: 768b 483c db01 8e3d 8b70 f43b ac6d 583d
000000d0: ae38 863c cb99 013d b9cb f13c 39d0 093d
000000e0: 5bb3 9f3c bf3f 3c3c 63af 0e3d e349 603d
000000f0: 2f43 403c 2239 ac3c fea8 d83b b534 983b
0.042670503 0.022769779 0.04473533 0.033861086 0.023360189 0.018658271 0.013470894 0.02143781
0.028045237 0.04456609 0.057241406 0.017200485 0.02267391 0.0067245173 0.044045288 0.01479444
0.05313436 0.047676265 0.012493388 0.03600321 0.017528556 0.006466645 0.03823386 0.033800114
0.07591315 0.039030362 0.03592379 0.022667263 0.021048997 0.030238086 0.0155797135 0.035241857
0.027210774 0.039851766 0.016945437 0.051891357 0.071046 0.034096785 0.01671155 0.041416284
0.0047416766 0.04320911 0.04867143 0.026203463 0.03118639 0.06474545 0.007758112 0.047493186
0.012240281 0.06933948 0.007459705 0.052838966 0.016384449 0.03164081 0.029516088 0.033645842
0.019494703 0.011489808 0.03483523 0.054757964 0.011734768 0.021023337 0.0066119423 0.004644955

node_encoder.layers.3.weight f4 [64, 64]
00000000: 621f 763d 5ed1 9cbd 102f 563d 2820 4c3d
00000010: 7ca7 a63d eaef d0bd 6d61 a63d ab56 8cbd
00000020: 5796 2f3d 49c9 ed3d dc75 eebb f020 f6bb
00000030: 5fb3 13bd 8a98 e3bd 0292 4f3d 0f4d 06be
00000040: 37e6 b33d 0b5f a93d 0f31 de3d 183e 06bd
00000050: 027c bbbd 3154 ac3c f4d0 a43d acde 06be
00000060: 8707 8ebc c7f8 aabd e6a2 89bc ece3 8cbd
00000070: c3b0 5fbd cb94 47bd 4221 01be 1b13 e93d
00000080: 59bc ef3d e272 e7bc d82c c3bb acc2 44bd
00000090: f192 07be d2e0 e7bd e38a 193d a315 91bd
000000a0: 3901 90bd 59a7 fabb c162 50bd ad3d 41bd
000000b0: 0258 31bb 5e9b a3bc 34ce 33bd 6c24 88bd
000000c0: 9b36 e7bd ad1c ce3d 7fdf 1cbd be71 e33c
000000d0: d4cd 5abd 20f0 693b 3d15 033e eb91 403d
000000e0: c2d7 c8bd cb0d 393d 04fe f63d 60f7 053d
000000f0: 114c 983d 3d93 e83d f59b f6bb caa9 123d
00000100: bd31 ccbd f0cd 99bc 5def cf3d d8f0 803d
00000110: 35bd 8cbd 293d c4bd 6953 c3bd 34df dfbd
00000120: 80c8 c5bd 71fd 17bd 236e bd3d b581 073d
00000130: f4c5 c6bd 5dc0 e5bd 1b0f 943d b26d b7bd
00000140: a344 0bbc 82d8 933d c45e 3dbd cff0 c6bc
00000150: 72bb 9aba d8b6 2fbd 9df5 5fbd 458e d9bd
00000160: ab8f bdbd cdb0 82bd fe29 e03d 95d3 96bd
00000170: e55d 99bd c695 033d 2c35 3f3d 3e64 9e3d
00000180: 36c9 d13d 4f29 8f3d 3891 ebbd ac52 863c
00000190: b357 b53d 77c9 a7bc e62a 97bd 9cdd f43d
000001a0: 8758 1abd 923c 89bd 55a4 cdbd 356d 593c
000001b0: aad6 283d b373 043d d1e5 0c3d eef7 dabd
000001c0: a5f7 cfbd e575 1abc 9b4b fc3d e50d 743d
000001d0: 4847 88bd a439 57bc a0df a8bd 4884 3cbd
000001e0: dd07 f83c 872c 673d 127f d43d ce37 ffbd
000001f0: 4154 ad3d 730b a4bd d945 623d 648a e53d
00000200: 418c f8ba 7467 013e 7c6f f7bd 0428 14bd
00000210: bfba a93d 7f6d b8bc d5f4 93bc 3e36 72bd
00000220: 82c5 ab3d 86ef 8b3d 0598 1d3d e3b4 9dbd
00000230: d970 d1bd 2476 ab3c 7177 0a3d d8ed 3fbd
00000240: aebf 04bd 7e10 9e3d 99b1 253c 7f8e 413c
00000250: 1125 12bd 0e13 d7bd 32a1 debd 5d26 49bd
00000260: 5a6d 7cbd fd1f fd3c 5370 0dbd bd8c 26bd
00000270: 10f6 fe3d 4fd2 123d d52b a93d e8ef 53bd
00000280: 6f25 20bd f3dc 1d3d 2be8 b7bd 5539 aebd
00000290: 4f88 69bc ba4c 2bbd a1a3 cebd 32c7 a43d
000002a0: e4bb c33d f089 a33c bc87 ecbc 1614 e5bd
000002b0: caca 12bd 27dd 143d 0c59 663d c360 0bbc
000002c0: cade 7abd b202 8e3d 4055 c9bd 889a b03d
000002d0: 9a35 31bd 4ed0 3c3c 13ae f0bc 09bc 003c
000002e0: e022 15bd 58f2 c73d 4b38 7a3b a062 d03d
000002f0: 5336 eb3d d080 a1bd 4365 b0bd f9b2 d43d
00000300: 647c b93d 202e b2bd 6f1f c2bb 6ff0 05be
00000310: 7c21 c3bd 5295 7d3c a30c ac3c c459 f93c
00000320: 2ad5 02bd 2a5e d33d 713f cd3c 8b04 8bbd
00000330: 689e 4ebc 05cd 963c 8ef8 493d 247f c2bd
00000340: c2d8 313d 9387 6ebd 9222 c7bd 08f9 9ebd
00000350: 72d6 023e 256e c23d baa3 f53d 8cf8 8a3d
00000360: b5c2 d03d d5ed 4bbc ecec 9dbd 872e 4f3d
00000370: 2610 6dbd 15c5 a5bd 8e03 0bbd 532e 193d
00000380: 1fc5 8d3d 4e8d 39bd c78a 88bd f713 a93c
00000390: 9f3a 90bd 791e bbbd 334c 8b3d 75ab bcbc
000003a0: a3c3 f83d f287 fd3d 728b 303d ac81 273d
000003b0: 3ac8 8e3c 76c2 8d3a a675 1ebb d0f7 20bc
000003c0: 4799 4b3d 87cf dc3d 1818 bcbc 4cea 82bd
000003d0: c31f cbbc aa3d 8bbd 02c9 e93c 5e73 c63d
000003e0: c076 de3d 6cac 463d 174d c9bd 85de 9bbd
000003f0: 8b3a ebbc 767e 89bc f9fe 463c 1195 f3bd
0.060088523 -0.07657121 0.052290976 0.049835354 0.08137414 -0.1020201 0.08124051 -0.06852468
0.042867985 0.11610658 -0.0072772335 -0.0075112507 -0.036059733 -0.11113079 0.050676353 -0.13115333
0.08784144 0.08270081 0.10849201 -0.03277406 -0.09154512 0.02103624 0.08047667 -0.1317088
-0.017337574 -0.08348232 -0.016801309 -0.0687941 -0.054611932 -0.048725884 -0.12610343 0.11380597
0.11705846 -0.028253023 -0.0059562735 -0.048037216 -0.13239647 -0.11322178 0.03748597 -0.07084205
-0.07031483 -0.007649344 -0.05087543 -0.04717796 -0.0027060513 -0.019971546 -0.043897822 -0.06647572
-0.11289712 0.10064063 -0.03829908 0.027764197 -0.05341895 0.0035696104 0.1280107 0.04701416
-0.098067775 0.04517917 0.120601684 0.03270662 0.074363835 0.113562085 -0.0075259157 0.035806455
-0.09970424 -0.018774956 0.10153077 0.06295937 -0.06872026 -0.09581978 -0.095373936 -0.109312445
-0.09657383 -0.037106935 0.092495225 0.033082683 -0.09705725 -0.11218331 0.07229444 -0.089564696
-0.008500251 0.0721903 -0.046232954 -0.024284748 -0.0011805131 -0.042898983 -0.054677594 -0.10622839
-0.09255918 -0.06381378 0.109455094 -0.07364575 -0.07488612 0.032125257 0.046681568 0.077339634
0.10243456 0.06990301 -0.11502308 0.016396843 0.08854618 -0.020481808 -0.07381229 0.11956331
-0.037682083 -0.06701006 -0.100411095 0.013270666 0.041220345 0.032336902 0.034398858 -0.1069182
-0.10154656 -0.009427522 0.12319108 0.059583563 -0.06654221 -0.013136301 -0.08245778 -0.04602459
0.030277187 0.05643895 0.10375799 -0.12461816 0.08463336 -0.08009996 0.055242393 0.112080365
-0.0018962697 0.1263712 -0.12081811 -0.036170974 0.08287572 -0.02251315 -0.018061081 -0.05913376
0.08387281 0.06832795 0.038475055 -0.07700517 -0.10226602 0.020930357 0.033805314 -0.046857685
-0.032409362 0.077179894 0.010113143 0.011813759 -0.03567988 -0.10501681 -0.10870589 -0.04910885
-0.061627723 0.030899042 -0.03453095 -0.040661562 0.124492764 0.035845097 0.082603134 -0.051742464
-0.0390982 0.03854079 -0.089798294 -0.08507029 -0.01425369 -0.04182122 -0.100898035 0.08045806
0.09557322 0.019963235 -0.028873317 -0.11185472 -0.035837926 0.03634372 0.056237265 -0.0085069565
-0.061247624 0.06934108 -0.09830713 0.086232245 -0.04326401 0.011524273 -0.02937988 0.007857331
-0.036410213 0.0976302 0.0038180526 0.10175061 0.11484971 -0.07885897 -0.08613064 0.10385699
0.09056929 -0.08700204 -0.0059241573 -0.1308 -0.09527871 0.015477495 0.02100212 0.030438311
-0.03194157 0.10320695 0.025054665 -0.06787976 -0.012611009 0.018408308 0.049309306 -0.094969064
0.043419607 -0.058234762 -0.09723391 -0.07762343 0.12777117 0.09493665 0.11994119 0.06785688
0.101933874 -0.01244684 -0.07711205 0.05058148 -0.05787673 -0.08094231 -0.033938937 0.037397694
0.069223635 -0.045300774 -0.06667095 0.020639403 -0.07042431 -0.091366716 0.06801643 -0.023030976
0.1214669 0.12379445 0.043101735 0.04089515 0.01742946 0.00108154 -0.002417901 -0.009824708
0.049706724 0.1078177 -0.022960708 -0.06392345 -0.024795419 -0.06798871 0.02853823 0.09689973
0.108624935 0.048504278 -0.09829157 -0.076108016 -0.028714439 -0.016783934 0.012145751 -0.118936665

node_encoder.layers.3.bias f4 [64]
00000000: 88d1 5b37 dfbe e23b 6a49 f539 3d58 01bd
00000010: 91a3 433b d408 923c 4336 3cbc b42e c1bc
00000020: c34d dcbc 69cc 0dbc bfcd 7ab9 70ea d8b8
00000030: 4dc8 1d37 8caf 8f3a 3a07 aa3c eb8e 0b39
00000040: 517b 8abc a4ad 8f3a e42b 90bc 5b36 e7b9
00000050: 78d2 64bd 8bd3 a739 443d 17bd 7a7a fd3a
00000060: 85be df3c 1579 09bd 9f06 46bc bd1d 1ebd
00000070: 8c30 90ba 131a a736 a31b 36bc c4dc 9c3c
00000080: db53 693b 6632 52bd 332d 0cb9 e16c 95bb
00000090: 1ae4 b2b9 5fa7 703c c1b5 d338 2ccf e7bc
000000a0: a9a0 ef3c 6925 57bd 2ace cfb8 84e6 f83a
000000b0: 4d14 493d 87ba 713d 4881 4f3a aa0c 60b9
000000c0: 5769 46bd e647 4437 284e 473a 9379 8eba
000000d0: 7c9e c6bc d0d4 e8b9 3179 363c fc3e 193d
000000e0: acbf cab9 45e3 563d 4c98 65bd 28c2 8e3a
000000f0: fe58 d03a 1454 89ba 99bb f33b 72a0 cdbc
1.31022025e-05 0.0069197263 0.0004678474 -0.03157829 0.0029852132 0.017826475 -0.011487546 -0.02358184
-0.026892548 -0.008654692 -0.00023918504 -0.0001034335 9.404565e-06 0.0010962351 0.020755399 0.00013309314
-0.016904505 0.0010961783 -0.017599054 -0.0004410025 -0.05586478 0.00032010334 -0.03692366 0.0019338869
0.027312526 -0.03356274 -0.0120865395 -0.03860258 -0.0011000796 4.9800233e-06 -0.011114988 0.019148238
0.003560296 -0.051317595 -0.00013368278 -0.0045600985 -0.00034120755 0.014688342 0.00010095118 -0.02829703
0.029251413 -0.05252591 -9.90893e-05 0.0018989597 0.049091626 0.059015777 0.0007915688 -0.00021367022
-0.048440304 1.16992505e-05 0.0007602894 -0.0010869972 -0.024245493 -0.00044409046 0.011137293 0.037413582
-0.0003867125 0.052462835 -0.056053445 0.0010891603 0.0015895662 -0.0010477328 0.007438135 -0.02510092

node_encoder.layers.4.weight f4 [64]
00000000: 9cdf 7c3f 6740 813f 98f4 7e3f f19d 7f3f
00000010: 1b86 7f3f cc4a 803f 6684 803f a93f 803f
00000020: ad07 803f 14d3 7e3f d674 7b3f bb18 813f
00000030: 4498 7e3f efb6 7e3f c75f 803f 67a8 7c3f
00000040: 2d29 803f 47ee 803f 674e 7d3f 4655 7f3f
00000050: 10d1 803f 6016 813f e73c 7f3f da2e 813f
00000060: bde4 813f 05a9 823f 2b88 803f 6501 813f
00000070: 8795 7b3f 5945 7e3f 6840 7d3f b0bf 7a3f
00000080: 0a2a 803f 0a4d 813f e30e 813f 28ea 803f
00000090: a7ab 7f3f d1df 7d3f b8f7 7e3f ea98 823f
000000a0: 32c4 7f3f 7d76 7f3f 6af9 7c3f 54e6 7e3f
000000b0: edf9 803f 37a0 813f 5e26 803f cf0a 7f3f
000000c0: 8a59 813f eb8b 7e3f d466 803f 6e23 7e3f
000000d0: 6d52 7e3f 5cf9 7f3f b426 7e3f a806 813f
000000e0: 9d1b 7e3f 61cc 803f 3af2 7d3f 229a 7f3f
000000f0: 1e04 813f 827a 7f3f 9c4f 7f3f 2d54 7f3f
0.987787 1.0097779 0.9959197 0.99850374 0.99814004 1.0022826 1.0040405 1.0019428
1.0002342 0.9954083 0.9822515 1.0085672 0.9945109 0.99497885 1.0029229 0.9869446
1.0012566 1.0072716 0.9894776 0.9973949 1.0063801 1.0084953 0.99702305 1.0092423
1.014793 1.0207831 1.0041555 1.007855 0.98275036 0.99324566 0.989264 0.9794874
1.0012829 1.0101635 1.0082668 1.0071459 0.99871296 0.9916964 0.9959674 1.0202916
0.99908745 0.99790174 0.98818076 0.995702 1.0076271 1.0127019 1.0011709 0.9962587
1.010545 0.9943225 1.0031381 0.9927281 0.9934452 0.9998987 0.99277806 1.0080156
0.99260885 1.0062371 0.99197733 0.99844563 1.0079381 0.9979631 0.9973085 0.9973782

node_encoder.layers.4.bias f4 [64]
00000000: 37a0 d3bb 6dad 0d3b f19b 81bb b8b9 12bb
00000010: 897f 17bc 2460 653b 93a8 523a cdec 11bc
00000020: 75c2 d23b fcf9 2039 9f4e acbc 4091 e43b
00000030: 05db 1c3c 22a3 52bb 3814 b9bb 2ea9 1bbc
00000040: 6d85 e63b 0712 d639 6d6a bc3b d794 c53b
00000050: 27a4 963b 77be 943c 57d9 3a39 0250 993a
00000060: 2aea 453c 541a 7d3c ec5b ef3b d3b9 81bb
00000070: fd90 d9bb 6f91 8ebb 62be 6abb f514 8fbc
00000080: aa8a 74bb 5b42 0a3c fa00 3c3b 8ed4 973b
00000090: 1bde eabb 2838 2dbc f833 9c3b c605 573c
000000a0: a0b3 e8bb 566e 463b 66b2 653b 1474 65ba
000000b0: b53e bbbb 5851 e73b 9afc cb3b baae 203a
000000c0: 3f39 073c 0aee b53b 7ac7 823c e9dd 0ebc
000000d0: 59fa 3abc 90cc 103c d90a 3cbb 94d2 273c
000000e0: bf2b 08bc b6a6 78bc 2dbb 13bc f79c 18bc
000000f0: d7a0 083c 380b 0fbb 1eb5 3f3c 043a bbbb
-0.006458308 0.0021618262 -0.0039553572 -0.002238853 -0.009246715 0.0034999931 0.0008035984 -0.008906555
0.0064318725 0.00015351915 -0.021033583 0.006975323 0.009573703 -0.0032140692 -0.005648162 -0.009500785
0.0070349486 0.00040830692 0.0057499916 0.006029706 0.004597205 0.018157227 0.00017819308 0.0011696818
0.012079755 0.015448172 0.007304659 -0.0039589196 -0.0066395984 -0.004350833 -0.0035819043 -0.017466048
-0.0037314096 0.008438672 0.0028687106 0.004633493 -0.0071675903 -0.010572471 0.0047669373 0.013123935
-0.007101491 0.0030278168 0.003504896 -0.0008752954 -0.0057142624 0.0070592575 0.006225181 0.0006129552
0.008253395 0.005552058 0.015964258 -0.0087199 -0.011412227 0.008837834 -0.002869299 0.010243077
-0.008311211 -0.015176466 -0.009016794 -0.009314767 0.008339128 -0.0021826755 0.011700897 -0.005713703

node_encoder.layers.4.running_mean f4 [64]
00000000: 1d99 1cbe c632 8ebe 561d e1bd 5c27 0a3b
00000010: 2bb5 823c 7ea9 bfbe 13ee 053e 1187 123d
00000020: f64d 313d e06d 373e 52ca 81be 5997 32be
00000030: 7f50 bb3c 730d c7bd 6364 953e 01fc bb3d
00000040: 212a 753d c6e7 03be 8e06 30be caf5 803e
00000050: c52a e4bb 6df2 29be b2b3 8a3d f7d5 423e
00000060: c1fe f53c 5b2d 3dbe 884b 12bd 139f f0be
00000070: ab58 ec3d 994a ee3e 54a3 7abe ac6d e6be
00000080: 2da0 d2bd 9cf1 09bf 9f7e 303e 606a 683e
00000090: 36db 8f3e ac86 acbe 03fd e73e 5712 06be
000000a0: e843 8f3e 242f 24be bff5 f7bd b8e0 be3d
000000b0: 1d0f 85bc 9b7e fa3d 97b1 3f3e 1c38 c9be
000000c0: d1f3 08be 0c8c c8bd 3842 62be 1987 a3be
000000d0: f664 d1bd 2722 6fbe 8d43 f0bc 0a43 f73d
000000e0: c162 48be 9753 963e 1a7a e43d e8b9 893e
000000f0: 46da ebbc 2e72 c63d 73b3 fd3d 71fd 063e
-0.15292783 -0.27773112 -0.109919235 0.002108059 0.015955528 -0.37434 0.130791 0.03577334
0.04328724 0.17913008 -0.2534967 -0.17440547 0.022865532 -0.09719362 0.2917815 0.09178925
0.05985463 -0.12881383 -0.1719 0.25187522 -0.0069631063 -0.16596384 0.067725554 0.19026934
0.030028703 -0.18474333 -0.035716563 -0.46996364 0.115403496 0.46541288 -0.24476367 -0.45005548
-0.10284457 -0.5388429 0.17235802 0.22696829 0.28096932 -0.33696496 0.4531022 -0.13092934
0.27981496 -0.16033608 -0.12107419 0.093202055 -0.016242558 0.12231179 0.18720089 -0.3930062
-0.13374259 -0.09792337 -0.22095573 -0.3193901 -0.10224335 -0.23352872 -0.029329086 0.120733336
-0.19568922 0.2936065 0.111561015 0.26899648 -0.028790604 0.09689747 0.12387743 0.13182618

node_encoder.layers.4.running_var f4 [64]
00000000: f093 053e d8a0 c23d 0f6f b63d 54ab e73d
00000010: 1646 c03d b148 0d3d ac1f 833e e999 3e3e
00000020: 6d4b 4c3e 20a3 b23d 216a 013d 74ac bb3d
00000030: 6091 373e 44fd 403e ec15 283d 279e 7c3d
00000040: ed9f f43d b39a 083e 9885 503d 9fec 723d
00000050: 6356 a83d a792 763e 2d76 603e a635 c33c
00000060: c70d 0a3e 865e 223e 57be 563e 7d58 4f3d
00000070: 2bf2 1d3d cb16 fe3d cdaa 9f3d e599 5e3e
00000080: dded 653d bf69 833d ff89 943d f8d9 f03d
00000090: 6db6 f43d 1ce2 bf3e d235 423e 751b 713d
000000a0: 5d05 013e e989 1d3e b949 043e 8669 763e
000000b0: 0b49 bf3d 8f6f 183e 977b 013e e3b2 2c3e
000000c0: 5658 fe3d 24c5 ba3d b762 cc3d a017 053e
000000d0: ebc5 553e 76ae c53d 404a 4d3e 0010 103e
000000e0: 7834 683e 4af1 373d b75b 033e 0b85 da3d
000000f0: 7efe d63d 55bb 503e e85b 3e3e db67 1b3e
0.13044715 0.09503335 0.089079015 0.11311975 0.09388368 0.034493152 0.256101 0.186134
0.19950648 0.0872252 0.031595353 0.09163752 0.1792655 0.18846613 0.04103653 0.061674263
0.11944566 0.13340263 0.050908655 0.05930769 0.08219602 0.24079381 0.2192008 0.023829293
0.13481818 0.1585637 0.20971046 0.0506215 0.038561027 0.12406691 0.077962495 0.21738394
0.056135047 0.06416654 0.07252883 0.11760324 0.119488575 0.37477195 0.18965843 0.058864076
0.12599702 0.1538464 0.12918748 0.24063691 0.09340104 0.14886306 0.12644802 0.16865115
0.124191925 0.09119633 0.09979766 0.12997293 0.20876281 0.096524164 0.20047855 0.14068604
0.22676265 0.044907846 0.12827955 0.10669907 0.10497759 0.20383961 0.18589747 0.15176336

node_encoder.layers.6.weight f4 [32, 64]
00000000: 1934 bc3d 11c6 e3bd fd93 9fbd baac 69bc
00000010: e9dd f5bd a732 edbd ce09 dfbd 86ee ce3d
00000020: 044e 8b3c 22a5 2dbd 0b71 33bb c211 ebbd
00000030: ab3a f5bd 2a19 bbbd 2205 05be 2abe 9f3d
00000040: 31ff 40bd 9d5a 22bd ac45 e5bd 3e36 3a3c
00000050: 2228 87bc fa0f babd bfdf 973d 27cb cd3d
00000060: a24b c9bd ed90 9c3d 2c07 82bc 06d0 783c
00000070: 357c 713d f60f f1bc cabd cd3d 2881 903d
00000080: 09cd 9fbd f85f 89bd 6eed 06be 7cc9 053d
00000090: 67da d8bd f935 c6bd bb4f aabd d764 02be
000000a0: 95a1 d9bd 85c2 e83d a9b0 973d 43a1 d63d
000000b0: 02b5 7cbd 1ed9 4abd 45e6 48bd 38b6 0bbc
000000c0: 7f5e c6bd c9df 683c e9eb a6bd 2602 0e3d
000000d0: c8b4 da3d 0a52 3e3c ee64 ae3d 12be cbbd
000000e0: 67f5 c5bc 4579 b8bd 27a6 a5bc 98cf 5dbd
000000f0: b7b9 9cbd d03c f0bd baba 3fbd ddbb 973c
00000100: 54b7 7abc 615b ddbd 05cc a23d 8935 ab3d
00000110: c1bc 95bd 1b5b 663c 75b0 9c3d 1a85 fdbd
00000120: 8a68 d3bd 8e8f 863d 8aa8 e33b f3b3 4a3d
00000130: 1b9d 6cbd e7cd 9a3c bc36 9d3d a09a dbbc
00000140: f1fa 39bd 24cb 04be cf05 93bc ef86 993d
00000150: f70b ffbd ac3d 80bb 8a49 ad3d a075 8fbc
00000160: 77b9 52bd 8304 41bd cd7e 49bd 544d 163d
00000170: 73dc ddbd cb5b 2a3d 39ad 82bc 8b86 c1b9
00000180: 4e15 94bb bf62 9d3d 9cf8 a2bd 1360 00be
00000190: 83b7 ccbd b501 bbbd 1c5e 87bd d30c eb3d
000001a0: bc91 b1bd 4d48 92bd 83f1 c8bd 9836 83bd
000001b0: e610 3a3b 7d81 a8bd c42b 3238 0399 5f3d
000001c0: f85e c6bc 11c7 5a3d 2a78 163d 372f fe3d
000001d0: 4be1 d5b9 4a5d d63d 25b8 c53d ae0c 7e3d
000001e0: 186b ab3d ff2c bcbd 240d 97bd 0545 3c3d
000001f0: 0003 3c3d 8a3f cd3d 5be3 95bc e6d0 edbc
00000200: 4d44 a83d 804e 993c 2e5d ff3d b45b 6fbd
00000210: af44 11bd f255 96bb ff3d 7a3d ea2a e4bd
00000220: bb9c 3abd fde9 c23d 68c8 fc3c b352 a53d
00000230: 4765 34bd 8add 9fbd 8f3b b6bd 6f37 91bd
00000240: 356a babd 22c2 843d d6a4 393d e60e 96bd
00000250: 9dcd f33d a19e 1a3d 71f9 223d f1a8 67bd
00000260: 8e42 a03d 22d1 bbbd cbf6 c63d cbd3 87bd
00000270: cae3 5e3d 971b 57bd f350 a03d 41a7 d5bd
00000280: dd24 c6bc 8020 30bd 8fa2 aabd ce21 69bd
00000290: 4505 33bd 0af6 a53b 067f ab3d 8c16 87bc
000002a0: d1de ec3d e10a 59bd d9d9 78bd abc5 fdbb
000002b0: 6077 99bc e840 293d fe15 dc3d a93c 0d3d
000002c0: db4f e0bd 0206 3fbd 73a6 cdbc 23ce d8bd
000002d0: d216 3f3d f622 d13d 306a 7a3d c367 3a38
000002e0: 8d35 81bc 4215 92bd 0842 88bc 189e e33d
000002f0: a1a8 93bd 82dd b33c fa0d adbd 9273 f0bc
00000300: 0a7c 9d3c 6f4c c0bd cbbb 1c3d 33e1 cfbd
00000310: 23ad 3cbd 20ea ba3d fd2a 003e 1d6e eeba
00000320: 5c1d bfbd 39f7 bdbd 0818 e1bc 057f 90bd
00000330: 9081 c33d 6ef2 b2bd 6d38 b23d 4bb0 883c
00000340: 71f5 25bd 9abe db3d df6a 853d c4e1 143b
00000350: d4dc 9bbd fafc 3fbd 00c6 3c3d 0e52 df3d
00000360: 56b7 3ebd 2707 1bbd 55ed e9bd ff3b a63d
00000370: ba48 fa3d e90a a23d 2530 a2bd 56b5 9a3d
00000380: 061b 34bd 5172 873d 2f8b 8c3d 34eb c3bd
00000390: dcad 093d 7ab2 5d3d 25d6 85bd b845 cf3d
000003a0: 6dff b93d bbd7 e73d fb2f d13b ea43 8abd
000003b0: d393 80bd 6987 513d 781b e2bc 388c b93d
000003c0: b401 df3d 1ccf 2c3c b1b6 e4bd 7b35 3e3d
000003d0: 8733 e23d 5b79 eebc 0960 96bd 0cf6 eabc
000003e0: a5cb 3c3c 42e4 c7bd fe8d 703d a9cf 683d
000003f0: 5742 19bd 3dd8 14bd 70ae 64bd 4a2f da3d
0.09189624 -0.111217625 -0.077918984 -0.014262373 -0.12005217 -0.11581927 -0.10890542 0.101040885
0.017004974 -0.04239381 -0.0027380611 -0.114779964 -0.11974081 -0.09135659 -0.1299024 0.07799943
-0.04711837 -0.039637197 -0.111949295 0.011365471 -0.016498629 -0.090850785 0.07415723 0.10048514
-0.09828879 0.0764483 -0.01587256 0.015186315 0.058956344 -0.029426556 0.10045965 0.070558846
-0.07802779 -0.06707758 -0.1317651 0.032662854 -0.10588532 -0.09678263 -0.08315989 -0.1273378
-0.106265225 0.11365227 0.07406742 0.10479977 -0.06169606 -0.049523465 -0.049047727 -0.008527331
-0.096859924 0.014213511 -0.08150465 0.034670018 0.106790125 0.011616239 0.085153446 -0.099483624
-0.024164869 -0.09007505 -0.02022083 -0.054153055 -0.0765261 -0.11730349 -0.046808936 0.018522197
-0.015302498 -0.10808445 0.0794907 0.083598204 -0.073113926 0.014059807 0.07650844 -0.12378903
-0.103226736 0.0657035 0.0069475817 0.04948802 -0.057767015 0.01889701 0.076764554 -0.02680713
-0.045405332 -0.12968117 -0.017947106 0.0749644 -0.12453454 -0.003913602 0.08461292 -0.017512143
-0.051446404 -0.047123443 -0.049193192 0.03669484 -0.10833063 0.041591447 -0.01595174 -0.0003691207
-0.0045191413 0.0768485 -0.07957575 -0.1253665 -0.099959396 -0.09131185 -0.06609747 0.114770554
-0.08670375 -0.071426965 -0.0981169 -0.06406897 0.002839142 -0.08227823 4.2479267e-05 0.054589283
-0.024215207 0.0534125 0.03673569 0.12411349 -0.00040794382 0.10467012 0.096542634 0.06202381
0.08370036 -0.0918827 -0.07375553 0.04596426 0.0459013 0.10021885 -0.018296888 -0.029030275
0.08216152 0.01871419 0.124689445 -0.058437064 -0.035465892 -0.004587882 0.06109428 -0.11140998
-0.045559626 0.09517286 0.03085728 0.08072414 -0.044041898 -0.07805927 -0.08898079 -0.07090651
-0.09102289 0.064823404 0.045323215 -0.073270604 0.11904452 0.037748937 0.039788667 -0.0565576
0.07825194 -0.09170748 0.09715041 -0.06632193 0.054416455 -0.052516546 0.0782794 -0.10432292
-0.0241875 -0.042999744 -0.08331787 -0.056917004 -0.043706197 0.0050647305 0.08373837 -0.016490243
0.11565936 -0.05298889 -0.06075463 -0.007744511 -0.01873368 0.041321665 0.10746382 0.03448168
-0.10952731 -0.04663659 -0.025103783 -0.105861925 0.046652623 0.102117464 0.061136425 4.444249e-05
-0.015772605 -0.07132961 -0.016633049 0.11114138 -0.07209898 0.02195621 -0.084499314 -0.029351983
0.019224185 -0.093895786 0.03826503 -0.10150375 -0.046063554 0.09126687 0.12516399 -0.0018190775
-0.09331772 -0.092756696 -0.02747728 -0.07055477 0.095461965 -0.08737646 0.087021686 0.016685626
-0.040517274 0.10729714 0.06514525 0.0022717575 -0.07610479 -0.046872117 0.046087265 0.109043226
-0.04656156 -0.037848618 -0.114222206 0.08116912 0.12220903 0.07912237 -0.07919339 0.07554118
-0.043971084 0.06613601 0.06862485 -0.09566346 0.03361307 0.054125287 -0.065349855 0.1012072
0.09081922 0.11320444 0.0063838935 -0.06751235 -0.06278195 0.051154528 -0.027600989 0.09059948
0.10888997 0.010547426 -0.11167658 0.04643772 0.11044984 -0.029110601 -0.07342536 -0.028681777
0.011523162 -0.097603336 0.058729164 0.056838665 -0.037416782 -0.036339033 -0.05583042 0.10653551

node_encoder.layers.6.bias f4 [32]
00000000: ad0e aa3c 3ff8 ed3b a520 743c 9fc1 b639
00000010: b69e 1ebd 7746 0bb7 0048 563d b454 403d
00000020: fc70 90bc 7c5f e23c f87e c03b fc2a 76b9
00000030: c856 603c 610a 3737 b138 1d39 de7e c6bc
00000040: 3f1d 2eb9 44aa 753d 495b a93c c944 26bd
00000050: 4aea 09b9 b07f b73c d738 90bb f3b0 4eb9
00000060: 39c8 1d3c 390d 353d 85f0 533d 0f05 00bd
00000070: ad68 64bd 037b f23c 11a3 1f39 58e7 513d
0.020758951 0.0072622593 0.014900361 0.00034858004 -0.038725577 -8.301452e-06 0.05231476 0.04695578
-0.017632 0.027633421 0.005874511 -0.00023476401 0.013692565 1.09100665e-05 0.00014993806 -0.024230417
-0.00016604828 0.05997683 0.020673411 -0.040592942 -0.00013152618 0.022399753 -0.004401307 -0.0001971161
0.009630256 0.044202063 0.05174305 -0.031254824 -0.05576389 0.029599672 0.00015224169 0.051246017

edge_encoder.layers.0.weight f4 [64, 4]
00000000: 6409 b53e aa97 4dbe 73c8 0c3e 0e7f 203e
00000010: ce25 2cbe 47bc ea3e ae8a 493d 9584 17be
00000020: 0a8d e9be 766f ce3e 2f19 fabe 1b3d b93e
00000030: 5172 23be 93ea b8bd 8d09 aa3d b37e f33e
00000040: 9eda 9dbe e37a b0be 2834 a23e b9a7 59be
00000050: 4241 3cbe 030b 8f3e e531 5abe 5b6a 903e
00000060: 471d 51be 6195 c43e 2db0 f93e 8119 563d
00000070: eb6f 1ebe 5ba9 893e d4f6 1a3e 0f81 d53b
00000080: 3ed3 d63e b988 87bc 991f 473e 8d83 fdbd
00000090: 9f01 a9bd a0ed fdbc e6d7 2a3d 2cdb 633e
000000a0: d821 c03e c571 943e bb30 59be baf3 d33e
000000b0: bff6 a03e 866d 453e 0ee3 733d 4754 84be
000000c0: 86c7 9ebe 2cc8 813c ac6f b5be 1f89 223e
000000d0: 8cbb e8be 3eeb e2be 0b49 60be 8eb4 853e
000000e0: a158 cf3e 1fa9 d6be f616 9cbe 9dd0 c43d
000000f0: 845e a6bd a343 cebe 14af 143e 0338 c3be
00000100: 689a 233c 016d 533e c4df e43e a348 cebe
00000110: 1407 b53e 4fc6 883d e73a e33e 581c e93e
00000120: d21e d7bd 11f2 a5bd a970 05be bbf6 c23e
00000130: 2f9c 5dbe 2b30 a93e 1d53 533e 1443 e63e
00000140: df75 b63e 133c c63e b766 d0be 1982 6fbe
00000150: 32f2 b5be db1c 6d3e 4215 d83d d3c1 3e3e
00000160: 389e 483e 658e f43c e8f3 393e f6cd 8bbe
00000170: 7534 a43e e175 dfbe e29c e7be b117 173e
00000180: eede ee3e c5ac 2ebe 6d20 ef3e b1a4 2bbe
00000190: 6845 c0be afc3 a7bd abfd 8d3e 58fd 6dbe
000001a0: 1c9f ee3e 492f 6dbe 4b5c 60be c981 4cbe
000001b0: 22e2 c5be 5a29 e83e b01e 91be 7171 5dbe
000001c0: 710d 10be a380 cf3e b325 823e 6d35 3c3e
000001d0: c597 10be a0f8 763e 0891 b03d f941 cb3e
000001e0: e1f5 ef3d b627 be3e 1aa8 aa3e 9f90 a73d
000001f0: f0ac f3be ad2d e63d 0910 bdbe 936d 983d
00000200: 16af 40bd 0d35 c23e 4cd8 bdbe 24f8 c6be
00000210: 82cc 533e 6c85 b03e 849a e8bd 0e24 083e
00000220: 29cd cc3e 31b3 8b3d f9a6 0dbe d7e8 8f3e
00000230: e932 eb3e 99e0 babd 3be4 a63e 34b9 113c
00000240: ce03 afbd 9b22 55bd c051 f7be 2c21 5f3e
00000250: 507d 87be 1b93 debe 2623 83bd 9111 39be
00000260: 3da5 99be abc6 e2bd b0c4 68bd 3ef9 1e3e
00000270: eb7a 883d 055d 66bd ebf8 e43d 5c8c a7be
00000280: bda6 dc3e 8a2d 693e 41b5 9d3e 2b29 d3be
00000290: 9a84 ac3e 88b5 ac3d 8694 f4be ebc4 e63e
000002a0: 6f86 13bc a5cc df3d 6124 c63e 3b59 a73e
000002b0: d270 e13e ad0e edbe 2f58 f83e 25b0 d33d
000002c0: 86a5 953c e8af cebe 949e 80be 9eca ea3e
000002d0: 1462 c43e d195 c13e 414a 10bd 903c 85be
000002e0: a46b e03d 0eda 6bbe 1ae1 a9be aef1 213e
000002f0: 9217 c13e a61d c7be 357a e0be 2f42 883d
00000300: c938 3dbe afc4 83be a9b8 cbbd 730f d7bc
00000310: 8bdf 14be 0c7a b33e c0b2 8e3e b6a5 0f3e
00000320: 39fe 24be 228a f9bc 4527 a23e d1b1 063d
00000330: 26e1 f6be cf52 843d 31b7 843e 4526 f6bd
00000340: 9ed0 d6bd 58ae 9dbd 3dbb 943e 55c6 c13e
00000350: fe82 c9be d7d9 a63e cb01 4f3e 0c37 283e
00000360: e1c5 97be 08fe 8ebe e379 f63e e6dd d43d
00000370: 36ad d9bd 4821 c5bd f61d ad3e cf8a dcbd
00000380: b389 ae3e f593 07be e4ae ed3d 4836 de3d
00000390: 8df0 82be ab00 843c 42ce c83d 6b60 f4be
000003a0: 0823 c0bd fbff f43c 9362 d23e edd4 c63d
000003b0: 8d0f dabe 4727 20be 71ac f73e e9a2 a7bd
000003c0: b74b bf3e bf55 393d 8ddb a83e a516 4abe
000003d0: 973e f83e 597b d63d 3cbd ddbd 3196 b53e
000003e0: 7672 773e f2bf b0be 556b c3bc 913d aa3e
000003f0: ce35 f93d 67e2 18be 607f abbe 17b9 abbe
0.35358727 -0.20077386 0.1374834 0.15673468 -0.16811296 0.4584677 0.04920452 -0.1479667
-0.45615417 0.40319413 -0.4884734 0.36179432 -0.15961577 -0.090291165 0.08302603 0.475576
-0.30830854 -0.34468755 0.31680417 -0.21255387 -0.18384269 0.2793809 -0.21308096 0.28206143
-0.20421325 0.38395217 0.48767224 0.052270416 -0.15472381 0.2688702 0.1513322 0.006515629
0.4195804 -0.016544687 0.19445647 -0.12378607 -0.08252262 -0.030997097 0.041709803 0.22251576
0.3752582 0.2899305 -0.21209995 0.41396886 0.31438252 0.19280061 0.059542708 -0.2584555
-0.310116 0.01584252 -0.3543676 0.1587262 -0.45455587 -0.443201 -0.21902864 0.26114315
0.40497306 -0.41925904 -0.30486268 0.09610102 -0.08123496 -0.40285978 0.14519912 -0.3812867
0.009985544 0.2064705 0.4470197 -0.40289792 0.35356963 0.06678449 0.44380876 0.45529437
-0.105039254 -0.08102811 -0.13031258 0.38078865 -0.2164161 0.33044562 0.20637174 0.44973052
0.35636804 0.38717708 -0.40703365 -0.23389472 -0.35536343 0.23155539 0.105509296 0.18628626
0.19591606 0.029853055 0.18159449 -0.27305573 0.32071272 -0.43644622 -0.4523688 0.14755131
0.46654457 -0.17058094 0.46704426 -0.16762044 -0.37552953 -0.081916206 0.27732596 -0.23241174
0.46605766 -0.23162569 -0.21910207 -0.19971384 -0.38649088 0.4534405 -0.28343725 -0.21625306
-0.14067627 0.4052783 0.25419387 0.18379755 -0.14120395 0.2411828 0.086214125 0.3969877
0.117168196 0.37139672 0.33331376 0.08181881 -0.47592878 0.11239181 -0.36926296 0.074427746
-0.047041975 0.379311 -0.37079084 -0.3886119 0.20683482 0.34476793 -0.113575965 0.13295004
0.40000275 0.068212874 -0.13833226 0.2810733 0.4593728 -0.0912487 0.32596 0.0088942535
-0.085456476 -0.052034955 -0.48304558 0.21789998 -0.26462793 -0.43471608 -0.064031884 -0.18073107
-0.3000888 -0.11073049 -0.0568282 0.15524766 0.0666407 -0.056241054 0.1118029 -0.32724273
0.4309596 0.22771278 0.30802348 -0.41242346 0.33694917 0.08433062 -0.47769564 0.4507211
-0.009004219 0.10927705 0.3869963 0.32685265 0.44031388 -0.4630026 0.4850478 0.10336331
0.018267404 -0.4036858 -0.25120986 0.4585771 0.38356078 0.37809613 -0.035227064 -0.26022768
0.10958031 -0.230324 -0.3317955 0.1581485 0.37713295 -0.38889807 -0.43843237 0.066532485
-0.18478693 -0.25735995 -0.099473305 -0.026252484 -0.145384 0.35054052 0.2787075 0.14028057
-0.16112603 -0.030461375 0.31670585 0.032884423 -0.4821865 0.06461107 0.25921014 -0.12019018
-0.10489009 -0.07699269 0.290491 0.37846628 -0.39357752 0.32588074 0.20215528 0.16427249
-0.29643157 -0.27928185 0.48139867 0.10393886 -0.106287405 -0.096254885 0.3381192 -0.10768663
0.3408943 -0.13240035 0.11605623 0.10850197 -0.2557415 0.0161136 0.098049656 -0.4772981
-0.09381682 0.029907217 0.4109083 0.09708581 -0.4258999 -0.15639983 0.4837375 -0.081853695
0.37362453 0.04524779 0.32980004 -0.197352 0.48485252 0.104727454 -0.10827109 0.3546615
0.24164757 -0.34521443 -0.02385489 0.33250096 0.121684656 -0.14930116 -0.33495617 -0.3353965

edge_encoder.layers.0.bias f4 [64]
00000000: e20b 583e 58e5 233e 50f5 bfbe 2b3f 2cbd
00000010: 10d4 823d 489c bfbe d4c1 b93e fb06 8dbb
00000020: 7eb2 0cbe 0ec0 b63b 8b95 ec3d 9160 4b3d
00000030: 1fd1 cf3e 4b9f 5b3e 7467 03bb c349 dc3c
00000040: bf27 713d d5e5 07be 5781 b8be af8b 8abb
00000050: 750e 00be 62df cebe 62fa e73d 3c61 13be
00000060: d321 d23e 7efb e83d 1e87 163e 7edb a73d
00000070: d597 043e 3a69 813e 5661 993e 2277 023a
00000080: 551a a0bd 2ff4 933d 2f3f 23be 491b 4439
00000090: 715c a83d 930c 213e a4a5 d4be 1034 033e
000000a0: 772f 03be 50af 91be 4a88 16be 73d7 7139
000000b0: b904 383e bd1a c1be b79f 943d 95be c33e
000000c0: 77a5 5cbe 2ecb 6a3d d597 0abe 63dd 773d
000000d0: 781d 1a3e e781 76be d66d 6b3d 0509 da3e
000000e0: e045 90ba 4113 93be 9a20 e638 1e3d 483d
000000f0: b8ed b73d e5b2 8a3a 3ebb 3cbd af68 3abe
0.21098283 0.16005456 -0.37491846 -0.04205243 0.06388104 -0.3742392 0.36280692 -0.0043038107
-0.13739964 0.005577094 0.115519606 0.04965264 0.40589234 0.21447484 -0.0020050677 0.026890641
0.058875795 -0.13271268 -0.36036178 -0.0042280774 -0.12505515 -0.40404803 0.113270536 -0.1439256
0.4104143 0.11376093 0.1469998 0.08196162 0.12948544 0.25275594 0.29957074 0.00049768586
-0.078175224 0.07224309 -0.15942071 0.00018702181 0.08220757 0.15727453 -0.41532624 0.12812829
-0.12811075 -0.28454065 -0.14700428 0.00023063812 0.17970552 -0.37715712 0.07257026 0.3823134
-0.21547495 0.057322673 -0.13534482 0.060513865 0.15050304 -0.24072991 0.057477795 0.42585006
-0.0011007152 -0.28725627 0.00010973327 0.04888641 0.08980888 0.0010581879 -0.046077006 -0.18203996

edge_encoder.layers.1.weight f4 [64]
00000000: 2553 7c3f 0feb 7a3f 93a1 7d3f 640d 803f
00000010: 85f1 7c3f fc1e 803f 8506 7c3f 83ed 7f3f
00000020: f171 7f3f ba61 7b3f 865e 803f 8808 7d3f
00000030: b7a3 7a3f d4bd 793f 35fe 7c3f 27f3 7c3f
00000040: 76b0 7a3f 1736 7d3f 5137 7a3f 42d6 7d3f
00000050: 4f7b 7b3f 5b65 7b3f 0aef 7b3f b161 7c3f
00000060: 678b 7c3f 0ad9 7d3f 5a02 7b3f e180 7f3f
00000070: e124 7c3f 851a 7c3f ec78 7d3f 1fcc 7c3f
00000080: 6ae8 7f3f 5191 7c3f 3da3 7b3f ee44 7d3f
00000090: b724 7d3f 39cd 7b3f a6ea 7b3f 00ad 7c3f
000000a0: 69d9 7b3f ae6d 7d3f 48c5 7d3f b0e4 7e3f
000000b0: 0a0b 7f3f 669f 7c3f 3ade 7f3f 171a 7c3f
000000c0: 2f72 7a3f 78f7 7b3f 1f10 7e3f a233 7b3f
000000d0: 563a 793f 59c5 7d3f 9a11 803f 7168 7e3f
000000e0: 6cf5 793f 5b40 803f ec0c 7e3f 25fd 7d3f
000000f0: 4862 7f3f 2137 803f 7939 7b3f d164 7f3f
0.9856437 0.9801492 0.9907467 1.0004086 0.9880603 1.0009456 0.9844745 0.9997179
0.99783236 0.98195994 1.0028846 0.9884114 0.9790606 0.9755528 0.9882539 0.9880852
0.9792551 0.9891066 0.97740656 0.99155056 0.9823503 0.9820153 0.9841162 0.98586565
0.9865021 0.991593 0.98050463 0.9980603 0.9849377 0.98477966 0.9901264 0.98748964
0.9996401 0.98659235 0.98295957 0.98933303 0.9888415 0.9836002 0.9840492 0.9870148
0.98378617 0.9899548 0.9912915 0.995677 0.9962622 0.9868072 0.99948466 0.9847731
0.9783048 0.9842448 0.9924335 0.9812566 0.9735464 0.99129254 1.0005372 0.99378115
0.9764011 1.001964 0.9923847 0.9921439 0.9975934 1.0016824 0.9813457 0.9976321

edge_encoder.layers.1.bias f4 [64]
00000000: 5086 92bb 376e 9fbb c176 c0bb f8e0 b93b
00000010: 5398 8a39 9530 073c 512d 1fbc 6ae3 e53b
00000020: f7ba 5e3b c7d1 2a3b dae6 073c b702 19bb
00000030: 0c3f 02bc c43a 46bc bc1a 19bc 7867 c1bb
00000040: 8535 7cbc 5d41 e8bb a58e 94bc acfa 76bb
00000050: 9ba2 debb 9097 40bc 3769 cdbb 5930 bdbb
00000060: b337 99bb 6434 05bb 5f73 8dba 9a33 cc3b
00000070: 330a 4abb 7c4b e2bb 13db a1bb 0e65 e1bb
00000080: 5980 6a3b 28f5 90bb c25c 26bc 912b 00bc
00000090: 0d95 12bc 7723 91bc 9143 7bba c444 20bc
000000a0: be7d debb a28e d7ba 1ae3 9ebb 8154 b63b
000000b0: d906 5f3b 1e67 0fbc 18de 8d3b 9ef9 f6bb
000000c0: 9f8e 4dbc 4f52 2dbc aad4 efba 5bf7 3fbc
000000d0: b34a 91bc 5fc7 b2bb 13ad 063c 7ee8 6fbb
000000e0: 555b 05bc 6b54 3a3c bef6 55bb 3994 8539
000000f0: 1e8e cc3a ab09 d03b b1ca 45bc 24d2 9a3a
-0.0044715777 -0.0048654336 -0.0058735316 0.0056725703 0.00026434902 0.008251329 -0.009715394 0.0070156353
0.0033985951 0.0026064978 0.008294785 -0.0023347565 -0.007949602 -0.012098972 -0.009344753 -0.005902227
-0.015393619 -0.00708787 -0.018134424 -0.0037686033 -0.0067942864 -0.011754885 -0.006268646 -0.0057735858
-0.0046758293 -0.0020325417 -0.001079183 0.0062317373 -0.0030828833 -0.006905971 -0.0049394458 -0.0068785017
0.0035782068 -0.004423756 -0.010153951 -0.007822887 -0.008946669 -0.017717106 -0.00095849583 -0.00978202
-0.006789892 -0.0016445706 -0.00484885 0.005564273 0.003403118 -0.008752612 0.004329454 -0.007537081
-0.012546211 -0.010578706 -0.0018297632 -0.011716689 -0.017735815 -0.005455896 0.008219975 -0.0036607082
-0.008139451 0.011372666 -0.003264829 0.0002547817 0.0015606319 0.0063488088 -0.012072251 0.0011811894

edge_encoder.layers.1.running_mean f4 [64]
00000000: 423f 643e 79ce 1c3e d737 b9be 4ab7 ccbc
00000010: 4626 673d 0684 bbbe 4899 b83e 86dc 1fbc
00000020: 30c3 17be f484 883c 8f37 0e3e d067 243d
00000030: f16f d73e 81fe 703e 40af 0d3c 8246 683c
00000040: e8ee 1a3d a494 f8bd ef31 b1be 7070 0e3c
00000050: 7362 0cbe e4e7 cebe 2086 d33d 394d 07be
00000060: 8b07 cf3e ba17 d53d 1f22 173e 0a96 993d
00000070: 939f 0a3e 3003 8b3e 862a 9a3e 647b d53b
00000080: 748e c8bd 6fcd a53d b0c3 18be 5199 84ba
00000090: 04da cf3d 92b9 203e 64fb d2be cccb ef3d
000000a0: 219c 1ebe 6fd4 86be 5b62 11be cd72 703b
000000b0: 3753 573e 882f cabe 9e9b b63d f51a cc3e
000000c0: b972 5fbe 434d 793d 1f16 11be 3637 5e3d
000000d0: 207e 2c3e e45b 79be db56 7c3d 892b d83e
000000e0: 5b0a 8b3b c805 a1be 90e0 44ba 7dfd 313d
000000f0: 6704 a73d 796c 943c 66dc ffbc 9d7c 48be
0.22289756 0.15313138 -0.36175415 -0.024989743 0.056432985 -0.36624163 0.36054444 -0.009757167
-0.14820552 0.01666496 0.13888381 0.040138066 0.42077592 0.23534586 0.00864774 0.014176967
0.037825495 -0.12137726 -0.3460841 0.008693799 -0.1370943 -0.40411294 0.10328317 -0.13213052
0.40435442 0.10404916 0.1475911 0.07499321 0.13537435 0.2715087 0.30110568 0.0065149534
-0.09792796 0.08095824 -0.14918399 -0.0010116493 0.10149005 0.1569579 -0.4120742 0.11708793
-0.15489246 -0.2633395 -0.14197676 0.003668952 0.21027838 -0.39489388 0.089164004 0.39864317
-0.21821107 0.0608647 -0.14168595 0.054251872 0.16844988 -0.2435146 0.06160627 0.42220715
0.004243178 -0.31449723 -0.0007510269 0.043454636 0.081551366 0.01811813 -0.031233024 -0.19578786

edge_encoder.layers.1.running_var f4 [64]
00000000: c7b9 203d ba0e e53c 5264 683e 50b8 293c
00000010: 4ccd ce3d d898 403d 5443 493e 2f7d e73c
00000020: a16c 6a3d d37e 283b d3d3 843d 4ce8 b93c
00000030: 8dbd dd3d e3ff b43d 7900 ea3d ad86 063d
00000040: b729 1b3e b079 293e 3e74 763c eadc 4f3d
00000050: 627e 213e 6182 103d efec fb3c c9a5 3f3e
00000060: c998 4c3e a901 a53d 9a40 9f3d 369b d73d
00000070: 7e00 8a3d 2d3a 763c 559a c73d 2436 0f3e
00000080: 2024 ed3d d4ea e63c d05c 293d dbe2 e93d
00000090: 0525 323e 9fc6 073d cf82 983c 5b9f 293c
000000a0: bdc5 d73d 079b 403e 258e e43d 3e56 693e
000000b0: aa6c 813d bcd7 203d 376a b43d 820b 393e
000000c0: 938b 9e3c 21f7 953d be1c a03d 5440 b63d
000000d0: a276 843d 651d 8a3d a1c9 443e 1d69 b13d
000000e0: 4238 003d 9980 963c 64b3 003e 3442 513e
000000f0: 0125 d33d ee1c 493d 3e92 b93c 898a b23d
0.03923967 0.027961124 0.22694519 0.010358885 0.10097751 0.047020763 0.1965459 0.028257934
0.057232503 0.0025710359 0.06485715 0.022693776 0.108271696 0.08837869 0.114258714 0.03284328
0.15152632 0.16550326 0.015042363 0.05074779 0.15770867 0.03528059 0.030752627 0.18715586
0.19980158 0.08056957 0.07775994 0.10527651 0.06738375 0.015028519 0.097462334 0.13985497
0.11579156 0.028188147 0.04134828 0.11420222 0.17396934 0.033148404 0.018617062 0.010352935
0.105357625 0.18809138 0.111599244 0.22786805 0.06319554 0.03926824 0.088093214 0.18070796
0.019353664 0.07322527 0.07817982 0.08898988 0.0646794 0.06743888 0.1921754 0.08662627
0.03130365 0.018371867 0.12568432 0.2043541 0.10309792 0.049099855 0.022652742 0.0871783
