gnn/gnn_outputs/checkpoint_epoch_20.pt (torch, 971100 bytes, 208 tensors)

node_encoder.layers.0.weight f4 [64, 3]
0.44501907 0.47478676 -0.13970923 0.537233 -0.1224903 0.107375875 -0.27106637 0.34686363
0.5153614 -0.41324547 0.5131198 0.09641018 0.42731375 0.07510471 0.27814165 -0.08958559
0.43861616 0.09081185 -0.27828977 0.1488078 -0.25367227 -0.066191256 -0.22299412 0.39294377
-0.45708257 -0.25731733 -0.16684766 -0.34064522 0.057627995 -0.5764677 0.5215857 -0.49023566
0.446245 0.09960654 -0.18037845 0.35903332 0.08932849 0.4693545 0.059545178 -0.18144955
0.15371001 -0.16261488 0.24309234 0.50401664 0.34122455 -0.23959565 0.3426912 0.10147616
0.29479042 -0.34710068 -0.577215 -0.22190116 -0.45385897 0.465796 0.16467917 0.24060105
0.18279524 -0.0130332 0.4592243 -0.4027261 0.031208597 -0.40092984 0.17116117 -0.20008726
0.17159295 -0.12327232 0.48013562 -0.3470126 -0.34011462 -0.35256916 0.5100809 0.19099987
0.547544 -0.4811127 -0.574237 -0.45536107 -0.38489226 0.23403917 0.20317842 0.4860224
-0.2921135 -0.38384384 0.31274375 -0.23264377 0.3501797 -0.139718 0.32696936 -0.4617977
-0.28261387 0.17961936 0.12513511 -0.14254707 0.34678102 0.3906019 -0.42068693 -0.3062561
0.5311859 -0.20197259 -0.20004292 -0.55245274 -0.33625367 0.14237793 -0.08480877 -0.41035348
0.006011679 -0.4008514 -0.5002759 -0.3053448 -0.5086106 -0.36398852 0.57466966 0.10937212
0.18698713 -0.528183 -0.38138014 -0.1891936 0.0936532 -0.50288063 -0.249865 -0.3484384
0.012148018 -0.21935385 -0.035134126 -0.40419677 -0.3959177 -0.32998306 -0.20068242 -0.4594114
0.48056197 -0.11422035 0.4868864 0.19053885 -0.48903173 0.4066515 -0.15650527 -0.22642983
-0.47947514 -0.57176787 0.17157102 -0.121680535 0.21727245 -0.47593546 0.4276573 -0.4228895
-0.1022023 0.11464659 0.30648685 0.47800854 0.52348477 -0.44907695 0.14487752 -0.25615892
-0.057036348 -0.4346145 0.5213843 -0.42871526 0.31541994 0.19273612 0.18719468 -0.3072791
0.52988267 0.12068084 0.07302544 -0.51456845 0.23595697 -0.081523255 -0.26111153 0.4995856
0.12695682 -0.31864053 -0.29405528 -0.033146907 0.320476 -0.14893977 -0.3213541 -0.20417166
-0.44008258 0.1975921 0.4379998 -0.55341583 0.14736228 0.28461632 0.1138595 -0.2117611
0.29432493 0.3105209 0.2095824 -0.10150086 -0.15485498 0.067426085 -0.09447904 -0.1795437
00000000: 8ad9 e33e 4017 f33e f00f 0fbe 1a88 093f
00000010: 32dc fabd e2e7 db3d 36c9 8abe 1c98 b13e
00000020: baee 033f e994 d3be d25b 033f b372 c53d
00000030: dec8 da3e 80d0 993d 9568 8e3e a678 b7bd
00000040: 4c92 e03e 90fb b93d ff7b 8ebe 1261 183e
00000050: 55e1 81be 488f 87bd 9258 64be ed2f c93e
00000060: ba06 eabe 19bf 83be 1dda 2abe 0d69 aebe
00000070: 550b 6c3d 6393 13bf a486 053f 2b00 fbbe
00000080: 3a7a e43e 83fe cb3d 21b5 38be 37d3 b73e
00000090: dbf1 b63d 3c4f f03e a5e5 733d e9cd 39be
000000a0: 2866 1d3e 8484 26be 33ed 783e 3c07 013f
000000b0: fcb4 ae3e 9058 75be 3975 af3e bcd2 cf3d
000000c0: c5ee 963e 2eb7 b1be 5dc4 13bf 0f3a 63be
000000d0: 3460 e8be d07c ee3e a8a1 283e 1f60 763e
000000e0: ad2e 3b3e 3489 55bc 731f eb3e 1e32 cebe
000000f0: 2ca9 ff3c ad46 cdbe e044 2f3e ade3 4cbe
00000100: 10b6 2f3e 3376 fcbd 56d4 f53e a3ab b1be
00000110: 8123 aebe f283 b4be a994 023f 7895 433e
00000120: d82b 0c3f 6754 f6be 3201 13bf 1625 e9be
00000130: 9910 c5be f7a7 6f3e 010e 503e eed7 f83e
00000140: e78f 95be 2e87 c4be f31f a03e 2b3a 6ebe
00000150: c14a b33e 3c12 0fbe 8768 a73e c070 ecbe
00000160: c4b2 90be 23ee 373e 6b23 003e dcf7 11be
00000170: 488d b13e f9fc c73e 4764 d7be 99cd 9cbe
00000180: cdfb 073f e7d1 4ebe 0dd8 4cbe 8b6d 0dbf
00000190: 7129 acbe 85cb 113e 38b0 adbd da19 d2be
000001a0: 9efd c43b 653c cdbe 1512 00bf 2756 9cbe
000001b0: 4e34 02bf b45c babe 8d1d 133f 7dfe df3d
000001c0: 8e79 3f3e 0037 07bf 4244 c3be f8bb 41be
000001d0: 40cd bf3d c9bc 00bf 9cdc 7fbe 8566 b2be
000001e0: 7b08 473c 4c9e 60be cde8 0fbd e1f2 cebe
000001f0: bab5 cabe 8af3 a8be b17f 4dbe f937 ebbe
00000200: 380c f63e 5cec e9bd 2d49 f93e 9e1c 433e
00000210: 5e62 fabe a034 d03e eb42 20be 39dd 67be
00000220: c47d f5be 615f 12bf 50b0 2f3e a533 f9bd
00000230: ab7c 5e3e d0ad f3be e6f5 da3e f984 d8be
00000240: 714f d1bd d5cb ea3d d8eb 9c3e 89bd f43e
00000250: 1903 063f 6aed e5be c65a 143e 4327 83be
00000260: f29e 69bd cb85 debe 7179 053f 9180 dbbe
00000270: b97e a13e 9e5c 453e f6af 3f3e b053 9dbe
00000280: 64a6 073f 8427 f73d 5d8e 953d c2ba 03bf
00000290: b49e 713e aaf5 a6bd 69b0 85be afc9 ff3e
000002a0: f800 023e da24 a3be 6a8e 96be 0dc5 07bd
000002b0: 6e15 a43e ab83 18be 8688 a4be 6012 51be
000002c0: 8152 e1be 9555 4a3e 8341 e03e a9ac 0dbf
000002d0: 23e6 163e 3bb9 913e 2b2f e93d e7d7 58be
000002e0: c2b1 963e 98fc 9e3e c59c 563e afdf cfbd
000002f0: 4e92 1ebe b016 8a3d 3a7e c1bd 4eda 37be

node_encoder.layers.0.bias f4 [64]
0.3491667 0.4762774 -0.038014904 -0.109626465 -0.002157943 -0.016162856 0.11913058 0.14207725
-0.5044615 -0.19329336 0.4662947 0.20509486 -0.010634766 -0.32821873 -0.33335078 -0.4972524
-0.16843885 0.17520607 0.34827515 0.24673256 -0.49042678 -0.32733014 -0.07162359 0.5385859
0.06408864 -0.12981674 0.21904452 -0.20010373 -0.35381338 0.4015063 -0.24269399 -0.09612507
-0.55442995 0.3665198 0.41752225 0.19063076 -0.38268092 -0.5498836 -0.44901013 0.41063175
0.2573417 0.46593374 0.28260317 0.12642117 0.0010418405 -0.41918132 -0.4747344 -0.5201067
0.21653156 -0.2636181 -0.09656104 -0.31239986 -0.085648805 -0.38646808 -0.35737717 0.17174813
-0.15186234 0.33654994 -0.16547509 -0.40362564 -0.08231773 -0.2600291 -0.15690857 -0.5297307
00000000: fac5 b23e a2da f33e 84b5 1bbd d783 e0bd
00000010: 476c 0dbb f767 84bc bcfa f33d b37c 113e
00000020: 6424 01bf b2ee 45be 2ebe ee3e 6304 523e
00000030: 713d 2ebc 490c a8be f4ac aabe de97 febe
00000040: 3c7b 2cbe 3869 333e 1f51 b23e 76a7 7c3e
00000050: 3819 fbbe d197 a7be 64af 92bd c4e0 093f
00000060: e840 833d aeee 04be 354d 603e fee7 4cbe
00000070: 0727 b5be 3c92 cd3e c684 78be 38dd c4bd
00000080: 1fef 0dbf 7ca8 bb3e 7ac5 d53e b634 433e
00000090: c1ee c3be 2cc5 0cbf a8e4 e5be 533e d23e
000000a0: 4bc2 833e de8e ee3e 5db1 903e 8d74 013e
000000b0: 5e8e 883a ef9e d6be 6310 f3be b625 05bf
000000c0: 73ba 5d3e f4f8 86be cbc1 c5bd e0f2 9fbe
000000d0: a468 afbd 25df c5be 24fa b6be bede 2f3e
000000e0: cd81 1bbe 4650 ac3e 4d72 29be 05a8 cebe
000000f0: 3396 a8bd 8922 85be a4ac 20be 6e9c 07bf

node_encoder.layers.1.weight f4 [64]
1.0001392 0.997401 0.99300945 0.99883527 0.9943742 1.0050937 0.98947144 1.0013182
0.9979381 0.9937985 0.9997853 1.0049642 1.0012692 1.0101732 0.99304277 1.0048648
0.9906899 0.99479234 0.99011165 1.001178 1.0040517 0.9921178 1.0033602 0.99416244
1.0064855 1.0064614 1.002439 1.0124173 0.99422425 1.0009265 1.0035331 1.0079068
0.99874055 1.004598 1.0045651 1.0040861 1.0070623 1.0068512 0.9966009 0.99038714
1.0033742 0.99987763 1.004778 1.0014756 1.0023593 0.9913008 1.0066633 1.0044785
0.9985431 0.9934865 1.0099802 1.0099707 0.99508345 1.0026519 0.9945753 1.000536
0.99189025 0.9982764 0.9948051 1.0054609 0.99005127 0.98934996 0.9911108 0.98980165
00000000: 9004 803f ac55 7f3f de35 7e3f abb3 7f3f
00000010: 4f8f 7e3f e9a6 803f 004e 7d3f 322b 803f
00000020: df78 7f3f 9469 7e3f eef1 7f3f aba2 803f
00000030: 9729 803f 5b4d 813f 0d38 7e3f 699f 803f
00000040: da9d 7d3f b6aa 7e3f f577 7d3f 9a26 803f
00000050: c484 803f 6ffb 7d3f 1b6e 803f 6e81 7e3f
00000060: 84d4 803f bad3 803f ec4f 803f e496 813f
00000070: 7b85 7e3f 5c1e 803f c673 803f 1703 813f
00000080: 76ad 7f3f ab96 803f 9795 803f e585 803f
00000090: 6be7 803f 80e0 803f 3d21 7f3f 038a 7d3f
000000a0: 916e 803f fbf7 7f3f 919c 803f 5a30 803f
000000b0: 4f4d 803f e4c5 7d3f 58da 803f c092 803f
000000c0: 85a0 7f3f 2255 7e3f 0847 813f b846 813f
000000d0: cabd 7e3f e656 803f 7d9c 7e3f 9011 803f
000000e0: 85ec 7d3f 0b8f 7f3f 8cab 7e3f f1b2 803f
000000f0: 0074 7d3f 0a46 7d3f 70b9 7d3f a463 7d3f

node_encoder.layers.1.bias f4 [64]
-0.0039673867 -0.0033635544 -0.007874779 0.007827935 -0.011120998 0.006854856 -0.015300526 0.0033017723
-0.012973422 -0.004775614 0.0064737657 0.0009637077 -0.00076185534 0.00047263742 -0.005180505 0.006675977
-0.00014594868 1.6133412e-05 -0.0064936397 -0.0035630462 -0.005253237 -0.008363478 0.00078066136 -0.0026388287
0.0024125045 -0.0055633923 0.012963508 0.010711456 -0.01061781 -0.0033731938 0.0051373392 0.003513599
-0.0025837973 -0.0056285495 -0.0013683741 0.0045210365 0.005009399 0.008644767 -0.0060694274 -0.0044100136
0.0073981984 -0.00780744 -0.0036699083 0.0052276324 0.005662147 0.0026822698 0.0032301892 -0.0050548245
0.0032850273 -0.0063778562 0.006815281 0.014175462 0.002713684 0.00050499965 -0.0015693015 -0.015365999
-0.006157669 -0.0032237044 -0.0077457037 0.00732439 -0.0060000755 0.010029891 -0.0007612197 -0.010698835
00000000: da00 82bb 146f 5cbb 3805 01bc bd40 003c
00000010: d934 36bc b39e e03b 0faf 7abc 8c62 583b
00000020: 7a8e 54bc c17c 9cbb e221 d43b 54a1 7c3a
00000030: 3fb7 47ba 52cc f739 3ac1 a9bb 27c2 da3b
00000040: cd09 19b9 3d56 8737 99c8 d4bb ff81 69bb
00000050: 5923 acbb f806 09bc 4ca5 4c3a 33f0 2cbb
00000060: 1c1b 1e3b 1e4d b6bb e564 543c 1a7f 2f3c
00000070: 53f6 2dbc cd10 5dbb 2057 a83b 6944 663b
00000080: ed54 29bb b26f b8bb 045b b3ba 3425 943b
00000090: e225 a43b c8a2 0d3c 0ce2 c6bb e081 90bb
000000a0: 966c f23b 8ed5 ffbb d882 70bb 8f4c ab3b
000000b0: 8889 b93b 05c9 2f3b 95b1 533b f1a2 a5bb
000000c0: 9d49 573b 56fd d0bb b952 df3b 3240 683c
000000d0: 10d8 313b f461 043a 05b1 cdba acc1 7bbc
000000e0: 45c6 c9bb c944 53bb accf fdbb 7001 f03b
000000f0: 489c c4bb 6954 243c 978c 47ba 2b4a 2fbc

node_encoder.layers.1.running_mean f4 [64]
0.7956843 0.7315373 0.28918436 0.03462759 0.4070964 0.24769512 -0.061940707 0.17361476
-0.97900677 -0.6294118 0.66310734 0.33012736 0.34758788 -0.4098234 0.27339193 -0.36057
-0.52247447 0.025113361 0.6713374 0.31436452 -0.6272856 -0.388831 -0.21009845 0.76158726
-0.2341174 -0.4817612 0.47108954 -0.32956553 -0.09002949 0.0823343 -0.09039091 -0.30826426
-0.50005794 -0.051946867 0.12603961 -0.47347248 -0.5718773 -0.64618057 -0.71150655 -0.18002148
0.11267668 -0.15358075 0.14439414 0.4620093 -0.08404681 -1.1165425 -0.34607878 -0.71762997
0.39050993 0.07130629 -0.2075208 -0.43681788 0.28682473 -0.1606915 -0.5109371 0.22674884
-0.43264928 0.43819216 -0.68103343 -0.31308457 0.22110783 -0.03267772 -0.19159111 -0.640457
00000000: f7b1 4b3f 0746 3b3f f90f 943e a9d5 0d3d
00000010: f06e d03e caa3 7d3e 8ab5 7dbd 11c8 313e
00000020: 30a0 7abf 2221 21bf 67c1 293f 7406 a93e
00000030: 0af7 b13e 5fd4 d1be 07fa 8b3e a29c b8be
00000040: e3c0 05bf 89ba cd3c c5dc 2b3f 63f4 a03e
00000050: ca95 20bf db14 c7be 0c24 57be 62f7 423f
00000060: 79bc 6fbe 67a9 f6be a632 f13e d0bc a8be
00000070: 6261 b8bd e39e a83d df1e b9bd d0d4 9dbe
00000080: cc03 00bf 3dc6 54bd 8710 013e fc6a f2be
00000090: 8d66 12bf 176c 25bf 4b25 36bf 8d57 38be
000000a0: 08c3 e63d 4644 1dbe 0fdc 133e 7c8c ec3e
000000b0: bc20 acbd ddea 8ebf 3d31 b1be 99b6 37bf
000000c0: ebf0 c73e 0809 923d 5580 54be 98a6 dfbe
000000d0: b1da 923e 508c 24be c6cc 02bf d930 683e
000000e0: 3584 ddbe b95a e03e 3558 2ebf 9f4c a0be
000000f0: 176a 623e 13d9 05bd 7630 44be fdf4 23bf

node_encoder.layers.1.running_var f4 [64]
0.05679343 0.03719739 0.05859953 0.048137266 0.037893787 0.033326373 0.028248494 0.036005944
0.04223599 0.05831935 0.07101388 0.0314403 0.03707488 0.021402873 0.058793772 0.029262215
0.06684042 0.06172853 0.026776368 0.050301272 0.032046176 0.021155672 0.052378673 0.04843896
0.08950701 0.0532562 0.050156012 0.037293296 0.035632055 0.044008926 0.029840128 0.049537733
0.041696634 0.054096963 0.031626347 0.0648669 0.08489237 0.048737656 0.03144992 0.055483036
0.019312829 0.057211082 0.06278183 0.040749073 0.045392215 0.0786191 0.022788515 0.0616319
0.026736462 0.083087154 0.021891097 0.06676251 0.030872263 0.04583561 0.043861344 0.047996018
0.03421726 0.02614592 0.04878136 0.06873318 0.026381051 0.035532564 0.021192674 0.019317254
00000000: 3aa0 683d 4a5c 183d 1006 703d 952b 453d
00000010: 8436 1b3d 3c81 083d 6369 e73c f87a 133d
00000020: a5ff 2c3d 45e0 6e3d ba6f 913d 8bc7 003d
00000030: d4db 173d 1455 af3c bdd1 703d 50b7 ef3c
00000040: a1e3 883d 0ed7 7c3d 1d5a db3c b508 4e3d
00000050: da42 033d a94e ad3c 058b 563d ee67 463d
00000060: 744f b73d 2c23 5a3d 6470 4d3d dbc0 183d
00000070: ebf2 113d b442 343d 4973 f43c 14e8 4a3d
00000080: 17ca 2a3d c794 5d3d a18a 013d f0d8 843d
00000090: 0ddc ad3d 23a1 473d a2d1 003d 2e42 633d
000000a0: f035 9e3c 2b56 6a3d c393 803d 80e8 263d
000000b0: 30ed 393d 0d03 a13d fbae ba3c bb71 7c3d
000000c0: 6d06 db3c 9929 aa3d f554 b33c c8ba 883d
000000d0: d4e7 fc3c 1fbe 3b3d f4a7 333d 7997 443d
000000e0: 6627 0c3d f82f d63c f7ce 473d fbc3 8c3d
000000f0: 131d d83c 988a 113d 429c ad3c 383f 9e3c

node_encoder.layers.3.weight f4 [64, 64]
0.061626434 -0.07846836 0.053439956 0.04930218 0.08331213 -0.10247809 0.08126511 -0.06796073
0.04642437 0.11542771 -0.009558671 -0.0070209894 -0.03559824 -0.11243409 0.052198246 -0.13166197
0.08536218 0.08704838 0.11035252 -0.035573162 -0.09361189 0.020387873 0.07786687 -0.13209447
-0.019948127 -0.077608116 -0.01797176 -0.06954516 -0.054004148 -0.04315169 -0.12528227 0.111338876
0.114161395 -0.022649663 -0.006420943 -0.04667998 -0.126278 -0.11811948 0.04290344 -0.06843021
-0.07178916 -0.0062162434 -0.047419857 -0.047574908 -0.0032487744 -0.020878986 -0.043782182 -0.06781031
-0.11128346 0.09838502 -0.0406384 0.025865171 -0.05091138 0.0030032552 0.12584205 0.04805573
-0.100358 0.043341286 0.120781936 0.028130546 0.07625706 0.114258915 -0.010382107 0.033420667
-0.09332356 -0.018488493 0.09992495 0.065325476 -0.07202099 -0.09711292 -0.09437283 -0.11115345
-0.0971904 -0.037736394 0.09179615 0.030378768 -0.096474305 -0.1100964 0.06668252 -0.089065015
-0.008077791 0.07145585 -0.053210787 -0.020876344 -0.002431483 -0.039871726 -0.05428507 -0.10641438
-0.09222201 -0.061861884 0.11416226 -0.07070913 -0.076931655 0.0332603 0.043544672 0.07711219
0.10401026 0.07087041 -0.11658028 0.014239 0.08971964 -0.017606324 -0.07285539 0.11794487
-0.039254222 -0.06922074 -0.10133276 0.010957878 0.044660896 0.030625848 0.032320913 -0.10466817
-0.10581918 -0.004054123 0.122276396 0.062282164 -0.07038962 -0.01266681 -0.08371103 -0.047997575
0.02971285 0.06027876 0.10215446 -0.12081305 0.08329753 -0.081557505 0.05656906 0.11211443
0.0032743444 0.12460487 -0.1137234 -0.03941617 0.083187915 -0.021007719 -0.021918995 -0.057480212
0.079969816 0.064618476 0.03887118 -0.07492531 -0.0978395 0.017392436 0.04128638 -0.0491828
-0.033870358 0.078778535 0.01603177 0.010241082 -0.035081327 -0.1088604 -0.11300203 -0.051072367
-0.063522294 0.032049548 -0.03297313 -0.044617105 0.12468414 0.03652406 0.084986836 -0.056941155
-0.041407052 0.038729355 -0.08957503 -0.088020064 -0.012347669 -0.04319938 -0.10086242 0.073961504
0.09500493 0.015372822 -0.027272591 -0.10910635 -0.04036232 0.03198005 0.057397515 -0.011927486
-0.055372253 0.07223905 -0.10034604 0.08313475 -0.040531013 0.010006996 -0.02872081 0.00965196
-0.039126877 0.09652221 -0.001234259 0.10136275 0.12217352 -0.0691341 -0.087778345 0.10193893
0.089798264 -0.087275736 -0.0054705595 -0.12981457 -0.09533141 0.016385315 0.023784861 0.03162772
-0.030541694 0.105850965 0.024689524 -0.06789471 -0.013151213 0.020531949 0.04797355 -0.09397949
0.041739095 -0.05804815 -0.099372335 -0.07703153 0.12716483 0.09750854 0.11751578 0.06914043
0.09916916 -0.01165115 -0.07724466 0.05328665 -0.058109753 -0.0797465 -0.03401573 0.035326388
0.068080544 -0.044119008 -0.06698257 0.02142458 -0.068976924 -0.090230376 0.06947929 -0.021022545
0.12129292 0.12507598 0.043238435 0.04185676 0.02034695 0.0023937835 -0.0026733088 -0.007773333
0.049458712 0.1080763 -0.023974225 -0.06225403 -0.02491178 -0.06697453 0.027875768 0.09817946
0.10759754 0.048527434 -0.09568454 -0.07552436 -0.030199174 -0.016603889 0.010407761 -0.12060167
00000000: 006c 7c3d 05b4 a0bd dbe3 5a3d 15f1 493d
00000010: 8d9f aa3d 08e0 d1bd 526e a63d ff2e 8bbd
00000020: 7b27 3e3d 5d65 ec3d f99b 1cbc 5410 e6bb
00000030: 76cf 11bd d843 e6bd d4cd 553d 65d2 06be
00000040: 5ed2 ae3d 6c46 b23d 8100 e23d 2ab5 11bd
00000050: 97b7 bfbd 7804 a73c aa78 9f3d c643 07be
00000060: 416a a3bc 01f1 9ebd 8339 93bc b16d 8ebd
00000070: 7433 5dbd d4bf 30bd ff49 00be a305 e43d
00000080: 73cd e93d c98b b9bc c666 d2bb 8233 3fbd
00000090: 054f 01be a0e8 f1bd 84bb 2f3d 2325 8cbd
000000a0: 3206 93bd a1b1 cbbb 533b 42bd e8dd 42bd
000000b0: 64e9 54bb 680a abbc f254 33bd 22e0 8abd
000000c0: 95e8 e3bd 167e c93d 7374 26bd 32e3 d33c
000000d0: 7488 50bd 43d2 443b bddc 003e 16d6 443d
000000e0: 7f88 cdbd a286 313d 855c f73d 0872 e63c
000000f0: a92c 9c3d 9400 ea3d b719 2abc 1ce4 083d
00000100: 6c20 bfbd 2e75 97bc 74a5 cc3d 5dc9 853d
00000110: be7f 93bd 23e3 c6bd 8b46 c1bd 6ca4 e3bd
00000120: c30b c7bd 7a91 1abd 9fff bb3d e5dc f83c
00000130: 5294 c5bd 397a e1bd d890 883d b867 b6bd
00000140: b658 04bc 7257 923d 8ef3 59bd de04 abbc
00000150: 8459 1fbb 8950 23bd 065a 5ebd c8ef d9bd
00000160: e5de bcbd e362 7dbd e7cd e93d f3cf 90bd
00000170: 588e 9dbd f43b 083d e65b 323d ffec 9d3d
00000180: 5503 d53d 8124 913d a4c1 eebd b24a 693c
00000190: eebe b73d 233b 90bc 3535 95bd 148d f13d
000001a0: 09c9 20bd 9ac3 8dbd 8d87 cfbd ac88 333c
000001b0: 58ee 363d 0fe3 fa3c ef62 043d 445c d6bd
000001c0: bab7 d8bd 73d8 84bb 0c6c fa3d 951b 7f3d
000001d0: 6f28 90bd 7488 4fbc b070 abbd 1b99 44bd
000001e0: 5d68 f33c dce6 763d 5c36 d13d d56c f7bd
000001f0: e597 aa3d 9f07 a7bd f5b4 673d 409c e53d
00000200: 6296 563b d730 ff3d d0e7 e8bd da72 21bd
00000210: 6d5e aa3d 6118 acbc 778f b3bc 5f70 6bbd
00000220: 37c7 a33d b156 843d 6337 1f3d 7172 99bd
00000230: 1360 c8bd 957a 8e3c e81b 293d e773 49bd
00000240: a5bb 0abd a456 a13d 0f55 833c 36ca 273c
00000250: 70b1 0fbd 34f2 debd 9c6d e7bd 4231 51bd
00000260: fa17 82bd 6346 033d d50e 07bd 6dc0 36bd
00000270: 665a ff3d 419a 153d 940d ae3d 213b 69bd
00000280: 719a 29bd aca2 1e3d 1d73 b7bd dd43 b4bd
00000290: e14d 4abc d5f1 30bd f590 cebd 2179 973d
000002a0: f291 c23d 4ade 7b3c c56a dfbc 2673 dfbd
000002b0: f652 25bd 83fd 023d a819 6b3d 816b 43bc
000002c0: 04ce 62bd 11f2 933d 3a82 cdbd 8d42 aa3d
000002d0: d903 26bd 62f4 233c e747 ebbc 4123 1e3c
000002e0: 8143 20bd 70ad c53d dcc6 a1ba 4697 cf3d
000002f0: 1c36 fa3d 2e96 8dbd 22c5 b3bd 5cc5 d03d
00000300: 27e8 b73d 9fbd b2bd 6142 b3bb 1cee 04be
00000310: 1d3d c3bd 7f3a 863c 78d8 c23c 118c 013d
00000320: 9332 fabc 64c8 d83d af41 ca3c 620c 8bbd
00000330: 2f78 57bc 9e32 a83c ea7f 443d 5278 c0bd
00000340: 9df6 2a3d e6c3 6dbd b983 cbbd b5c2 9dbd
00000350: 7f37 023e 8fb2 c73d 1dac f03d 7f99 8d3d
00000360: 3319 cb3d 77e4 3ebc 7332 9ebd 1a43 5a3d
00000370: 7e04 6ebd 2252 a3bd 1454 0bbd 67b2 103d
00000380: d06d 8b3d 22b6 34bd 282e 89bd 9a82 af3c
00000390: c643 8dbd b4ca b8bd 284b 8e3d 7937 acbc
000003a0: 6c68 f83d eb13 003e c91a 313d fe71 2b3d
000003b0: a6ae a63c 06e1 1c3b ae32 2fbb 72b7 febb
000003c0: 3895 4a3d 1b57 dd3d 9865 c4bc 15fe 7ebd
000003d0: ca13 ccbc f129 89bd b95b e43c 5012 c93d
000003e0: 195c dc3d b4c4 463d 42f6 c3bd 84ac 9abd
000003f0: 4264 f7bc e104 88bc 5085 2a3c 02fe f6bd

node_encoder.layers.3.bias f4 [64]
-0.00017142399 0.03884526 0.0026402515 -0.071194865 0.03162767 0.05441151 -0.045844026 -0.061675653
-0.06567411 -0.041626368 -5.521829e-05 -0.0022856419 -2.4556553e-05 -0.014701048 0.058180373 -0.0015969512
-0.053245835 -0.014706623 -0.05414332 -0.025271632 -0.09829857 0.004600421 -0.077338465 0.02936456
0.06618112 -0.07349657 -0.04670107 -0.07924681 0.014976208 0.0066098073 -0.04527699 0.056144234
0.032833897 -0.09335071 0.0016425356 -0.034736913 -0.0044530137 0.05029511 0.001283321 -0.06735708
0.06847021 -0.09466215 -0.024129378 0.029214093 0.09090745 0.101697825 -0.01127609 0.022943076
-0.09020176 -0.006725388 -0.020228399 0.01698899 -0.062481724 0.0090874415 0.04533573 0.077899575
-0.004014359 0.09460788 -0.09849228 -0.016926706 0.028457636 0.013748791 0.03970478 -0.0635201
00000000: 47c0 33b9 351c 1f3d 1208 2d3b 9dce 91bd
00000010: 048c 013d 9ade 5e3d f2c6 3bbd 9c9f 7cbd
00000020: 2680 86bd 6980 2abd 309a 67b8 b5ca 15bb
00000030: ccfe cdb7 aadc 70bc 8b4e 6e3d ca50 d1ba
00000040: 4e18 5abd 0cf4 70bc 63c5 5dbd 7406 cfbc
00000050: c350 c9bd 21bf 963b a163 9ebd f28d f03c
00000060: f889 873d 5f85 96bd 9f49 3fbd 274c a2bd
00000070: c55e 753c 1597 d83b 5d74 39bd 7ff7 653d
00000080: d67c 063d a82e bfbd 594a d73a 4b48 0ebd
00000090: 96ea 91bb 3f02 4e3d 1b35 a83a 82f2 89bd
000000a0: 1c3a 8c3d 3bde c1bd f9aa c5bc 6552 ef3c
000000b0: af2d ba3d f346 d03d 59bf 38bc 1ef3 bb3c
000000c0: b3bb b8bd a560 dcbb 07b6 a5bc 7f2c 8b3c
000000d0: d6ec 7fbd 7ee3 143c f5b1 393d d089 9f3d
000000e0: e28a 83bb c7c1 c13d 52b6 c9bd e0a9 8abc
000000f0: fd1f e93c 9c42 613c 7ba1 223d d416 82bd

node_encoder.layers.4.weight f4 [64]
0.9975395 1.0057892 0.99769276 0.9997259 0.99777937 1.0051372 1.0037159 1.002905
1.0014712 0.99677044 0.9878678 1.0074637 0.9992138 1.0004194 1.0058596 0.99097115
1.0051891 1.0057436 0.99331915 1.0017655 1.0049809 1.0052176 0.9962309 1.006612
1.0108734 1.0153586 1.0042555 1.0042241 0.9869273 0.9967409 0.99277645 0.9887828
0.9980862 1.0111088 1.0071328 1.0066818 0.9968633 0.9975922 1.0016084 1.0120096
0.99932224 0.9995139 0.9950203 0.99855065 1.0027686 1.0104436 1.0039457 0.9968497
1.0085045 0.99798423 1.0026991 0.99816126 0.99577445 0.9976875 0.99465424 1.0054063
0.9960766 1.0032754 0.995486 0.99764806 1.0076795 0.9967754 0.9977669 0.9949885
00000000: c05e 7f3f b3bd 803f cb68 7f3f 09ee 7f3f
00000010: 786e 7f3f 56a8 803f c379 803f 315f 803f
00000020: 3530 803f 592c 7f3f e7e4 7c3f 92f4 803f
00000030: 7acc 7f3f be0d 803f 02c0 803f 49b0 7d3f
00000040: 09aa 803f 35bc 803f 2a4a 7e3f da39 803f
00000050: 37a3 803f f8aa 803f fd08 7f3f a9d8 803f
00000060: 4d64 813f 45f7 813f 728b 803f 6a8a 803f
00000070: 44a7 7c3f 692a 7f3f 9926 7e3f df20 7d3f
00000080: 9482 7f3f 036c 813f bae9 803f f3da 803f
00000090: 6f32 7f3f 3462 7f3f b434 803f 8889 813f
000000a0: 95d3 7f3f 25e0 7f3f a6b9 7e3f 04a1 7f3f
000000b0: b95a 803f 3756 813f 4b81 803f 8b31 7f3f
000000c0: ad16 813f e57b 7f3f 7258 803f 7f87 7f3f
000000d0: 13eb 7e3f 7368 7f3f a9a1 7e3f 27b1 803f
000000e0: e0fe 7e3f 546b 803f 2cd8 7e3f dd65 7f3f
000000f0: a4fb 803f ac2c 7f3f a76d 7f3f 91b7 7e3f

node_encoder.layers.4.bias f4 [64]
0.0034718728 -0.0028724454 -0.00520138 -0.0019552272 -0.0058784042 0.005903397 0.0021630104 -0.007040193
0.005177748 -0.0014713617 -0.014519232 0.006186112 0.0067464174 -0.0012366517 -0.0024331412 -0.003798026
0.008188452 0.001757618 0.0047050384 0.006081133 0.0024285596 0.011137487 -0.0004662467 0.00092773506
0.010060446 0.009504457 0.0024691971 -0.0023615572 -0.004921429 -0.0042757774 -0.0036995574 -0.010760724
-0.007070274 0.007545831 0.000553829 0.0051299413 -0.006135155 -0.0055091544 0.0056533855 0.007984765
-0.0055034338 0.0031005188 0.0061366856 -0.0012672757 -0.0060615176 0.008216207 0.0037743386 -0.0005660478
0.0061658896 0.0043338393 0.008871056 -0.006120076 -0.0031815665 0.0016400754 -0.0030432174 0.009802644
-0.001238203 -0.004718879 -0.0030659062 -0.0074223927 0.004328683 -0.004643726 0.009267064 -0.0048122006
00000000: 5c88 633b a33f 3cbb 5670 aabb 4523 00bb
00000010: a19f c0bb 4971 c13b 4bc1 0d3b 6bb1 e6bb
00000020: 19aa a93b b5da c0ba 13e2 6dbc deb4 ca3b
00000030: 0d11 dd3b 2517 a2ba 5675 1fbb 4de8 78bb
00000040: db28 063c e05f e63a b92c 9a3b 3e44 c73b
00000050: 7828 1f3b 027a 363c 9372 f4b9 3f33 733a
00000060: 92d4 243c 95b8 1b3c 41d2 213b 5bc4 1abb
00000070: f043 a1bb d21b 8cbb 4674 72bb bf4d 30bc
00000080: c2ad e7bb 0543 f73b d62e 113a 1119 a83b
00000090: 6909 c9bb 2386 b4bb 0940 b93b 88d2 023c
000000a0: 2656 b4bb 1332 4b3b 4016 c93b b71a a6ba
000000b0: b29f c6bb 459d 063c e55a 773b d362 14ba
000000c0: 3b0b ca3b e102 8e3b e857 113c eb8a c8bb
000000d0: d481 50bb ccf7 d63a b770 47bb 459b 203c
000000e0: 334b a2ba d3a0 9abb 5fed 48bb 8b37 f3bb
000000f0: a0d7 8d3b 662a 98bb e2d4 173c aaaf 9dbb

node_encoder.layers.4.running_mean f4 [64]
-0.13120134 -0.25092912 -0.111018665 -0.024245774 0.009295831 -0.32720432 0.111350626 -0.018985122
-0.0023240666 0.15496416 -0.22801006 -0.19314773 0.05743248 -0.070486955 0.32080215 0.12080242
0.06746036 -0.17398009 -0.19583595 0.21671791 -0.053551342 -0.10423144 0.0234971 0.22185645
0.11256305 -0.17971092 -0.07141635 -0.51063347 0.14432326 0.50181943 -0.26683155 -0.45252165
-0.02736114 -0.5459658 0.18143564 0.18343145 0.25983393 -0.2508125 0.4806789 -0.16866376
0.31415132 -0.1867645 -0.1311075 0.17919095 0.014387354 0.11412624 0.19686852 -0.34942815
-0.16507679 -0.12946326 -0.19739677 -0.20810552 -0.16381803 -0.21609493 0.042757 0.18925083
-0.15616949 0.34261224 0.06307211 0.21873146 -0.05685364 0.15743631 0.14346682 0.044222567
00000000: a559 06be c879 80be c15d e3bd 139f c6bc
00000010: 8b4d 183c 5387 a7be cc0b e43d b086 9bbc
00000020: 5e4f 18bb edae 1e3e 787b 69be 85c8 45be
00000030: 523e 6b3d 775b 90bd 2e40 a43e 4267 f73d
00000040: a828 8a3d d627 32be 3889 48be 4deb 5d3e
00000050: a758 5bbd 4b77 d5bd fe7c c03c 562e 633e
00000060: 7587 e63d 2406 38be bc42 92bd e0b8 02bf
00000070: 7ac9 133e 3d77 003f 259e 88be ebb0 e7be
00000080: 7824 e0bc 6ac4 0bbf 44ca 393e 74d5 3b3e
00000090: f408 853e 7f6a 80be 8b1b f63e 31b6 2cbe
000000a0: 71d8 a03e 313f 3fbe 0b41 06be d57d 373e
000000b0: f0b8 6b3c 05bb e93d e797 493e 3fe8 b2be
000000c0: e409 29be 0492 04be 6122 4abe 9d19 55be
000000d0: eabf 27be fd47 5dbe f721 2f3d f8ca 413e
000000e0: e5ea 1fbe df6a af3e f32b 813d 24fb 5f3e
000000f0: 5ddf 68bd fc36 213e f7e8 123e b922 353d

node_encoder.layers.4.running_var f4 [64]
0.11435163 0.10486939 0.09915169 0.12181257 0.08403094 0.04078902 0.26000682 0.1995153
0.20482276 0.094981655 0.047562324 0.10529523 0.15206562 0.18689491 0.05811444 0.06772284
0.1029205 0.1283843 0.06105052 0.07060281 0.07711989 0.23626287 0.19493122 0.037704114
0.1506591 0.16093048 0.19970451 0.056246184 0.04256703 0.12903947 0.08282921 0.21970183
0.05389447 0.07721961 0.08001804 0.11479701 0.112731524 0.31113535 0.17141831 0.06315432
0.13467541 0.14813676 0.13514683 0.21417904 0.0985613 0.13776225 0.10620121 0.16483526
0.13204002 0.088999696 0.090855785 0.13653898 0.22844495 0.09792022 0.20571154 0.1508482
0.22056508 0.058334447 0.14520247 0.12496543 0.111470364 0.20071672 0.20341991 0.16074201
00000000: 3031 ea3d c3c5 d63d 0b10 cb3d de78 f93d
00000010: 6a18 ac3d 6312 273d 9d1f 853e bd4d 4c3e
00000020: 0fbd 513e be85 c23d b6d0 423d 07a5 d73d
00000030: 17b7 1b3e 6161 3f3e 6809 6e3d 46b2 8a3d
00000040: fcc7 d23d 2d77 033e 1c10 7a3d 3598 903d
00000050: 08f1 9d3d e5ee 713e 0d9c 473e a16f 1a3d
00000060: 6146 1a3e f6ca 243e 577f 4c3e 6662 663d
00000070: c45a 2e3d ec22 043e 5ca2 a93d 84f9 603e
00000080: 73c0 5c3d 5125 9e3d 80e0 a33d b21a eb3d
00000090: c9df e63d 224d 9f3e 4888 2f3e 0d57 813d
000000a0: 5ae8 093e 2ab1 173e ee63 0a3e c051 5b3e
000000b0: 82da c93d 8c11 0d3e 0580 d93d 93ca 283e
000000c0: 8035 073e 7945 b63d 9912 ba3d e0d0 0b3e
000000d0: 79ed 693e 658a c83d 0ca6 523e f377 1a3e
000000e0: d0db 613e 1af0 6e3d f5af 143e e0ed ff3d
000000f0: 934a e43d af88 4d3e 4f4d 503e 8e99 243e

node_encoder.layers.6.weight f4 [32, 64]
0.091219194 -0.10819553 -0.080117345 -0.009965271 -0.119728655 -0.11605237 -0.11278193 0.1009037
0.019651152 -0.04231074 -0.0022216223 -0.11374983 -0.11995371 -0.09279557 -0.12857744 0.078475684
-0.04527716 -0.03542384 -0.10968075 0.014665608 -0.016652515 -0.088097624 0.074222535 0.10065615
-0.09588223 0.072700344 -0.016690217 0.011466849 0.058667812 -0.028300455 0.10800747 0.0751664
-0.078949526 -0.07673595 -0.12971723 0.033382565 -0.10425307 -0.1001957 -0.08334656 -0.12490394
-0.105309494 0.11039979 0.07334861 0.105152026 -0.05980055 -0.04982032 -0.052493803 -0.008154249
-0.09406998 0.013728252 -0.077873975 0.034613837 0.11212851 0.014970828 0.086050935 -0.09335946
-0.026316365 -0.0868244 -0.01937076 -0.05382459 -0.077612124 -0.115603425 -0.045531183 0.01878061
-0.019512946 -0.11075272 0.08034574 0.08973342 -0.07242463 0.014928655 0.07770443 -0.122888245
-0.1067867 0.065876655 0.0072021894 0.0495776 -0.056313895 0.018818783 0.08010437 -0.028064702
-0.044201557 -0.12522127 -0.015373323 0.07713099 -0.12170497 -0.004619938 0.08568475 -0.023676248
-0.04951635 -0.045682825 -0.0475926 0.03080772 -0.11507309 0.041666925 -0.019681446 -0.005171967
-0.0038546121 0.07262851 -0.07694193 -0.122156315 -0.096204594 -0.09125599 -0.065387286 0.10834999
-0.091874175 -0.070935525 -0.09891169 -0.06374189 0.005567112 -0.08128444 -0.0016094479 0.053281516
-0.024215745 0.05301333 0.036012568 0.12213806 0.0005300429 0.10662942 0.09557248 0.066294834
0.07978966 -0.08838371 -0.07683692 0.047322895 0.040028345 0.103105344 -0.014344791 -0.026912093
0.08925544 0.014451305 0.1254941 -0.05973433 -0.03658069 -0.008044464 0.06348806 -0.11032841
-0.04105498 0.094185375 0.029812774 0.08272505 -0.041146807 -0.07728392 -0.08861053 -0.06932544
-0.089523874 0.063835576 0.041642543 -0.074762605 0.11840458 0.035687495 0.040112182 -0.057170764
0.07922666 -0.08844947 0.09605667 -0.06561656 0.05729257 -0.05147658 0.07950012 -0.105783835
-0.022563785 -0.042362068 -0.082189575 -0.058608 -0.043067075 0.0076187663 0.084367156 -0.016682113
0.117303364 -0.054722648 -0.060155995 -0.0041583693 -0.019648448 0.040808056 0.10986675 0.035828486
-0.10886259 -0.04639782 -0.023968944 -0.103238486 0.044028327 0.10243977 0.061075263 -0.0006858762
-0.014611566 -0.069346584 -0.01676678 0.11065697 -0.07046205 0.02246524 -0.086421944 -0.030409213
0.017778559 -0.09173026 0.039714094 -0.10234421 -0.047290333 0.09201263 0.12217712 -0.0042159334
-0.09330986 -0.09583422 -0.028408408 -0.07058246 0.0950117 -0.088571236 0.085334785 0.017319059
-0.04135908 0.1061361 0.06645163 0.0010465978 -0.07924191 -0.04443726 0.044347342 0.108656175
-0.045416526 -0.04098478 -0.11520519 0.080470875 0.11882227 0.08014137 -0.07723318 0.08054124
-0.044929758 0.06717446 0.069612004 -0.09797046 0.032604378 0.05214264 -0.06949785 0.10439542
0.092805065 0.112088166 0.005517368 -0.068693355 -0.064944245 0.049189962 -0.028806161 0.092312254
0.1088459 0.009514411 -0.110550694 0.046489887 0.11164302 -0.029804597 -0.07226217 -0.02878293
0.011974567 -0.095675796 0.0601254 0.054437213 -0.039588757 -0.037891526 -0.056132045 0.1038016
00000000: 21d1 ba3d 9e95 ddbd 9014 a4bd 6045 23bc
00000010: 4c34 f5bd ddac edbd 36fa e6bd 99a6 ce3d
00000020: 74fb a03c 074e 2dbd a398 11bb acf5 e8bd
00000030: 4aaa f5bd 9b0b bebd cea9 03be dcb7 a03d
00000040: 8b74 39bd 9718 11bd 4da0 e0bd 0548 703c
00000050: db6a 88bc 876c b4bd fc01 983d d024 ce3d
00000060: e75d c4bd ebe3 943d ecb9 88bc 73df 3b3c
00000070: a94d 703d 5bd6 e7bc 0533 dd3d d7f0 993d
00000080: 4ab0 a1bd bd27 9dbd 98d4 04be 28bc 083d
00000090: a282 d5bd 6733 cdbd 9ab1 aabd a3cd ffbd
000000a0: 81ac d7bd 4919 e23d cc37 963d f259 d73d
000000b0: 6cf1 74bd 6410 4cbd be03 57bd 6699 05bc
000000c0: c3a7 c0bd 76ec 603c 647c 9fbd 3dc7 0d3d
000000d0: a2a3 e53d 3448 753c 793b b03d 3f33 bfbd
000000e0: 6b95 d7bc fed0 b1bd 6eaf 9ebc 2c77 5cbd
000000f0: 1bf3 9ebd 7dc1 ecbd e87e 3abd cbd9 993c
00000100: 9dd9 9fbc 52d2 e2bd 4f8c a43d 28c6 b73d
00000110: 5d53 94bd 5197 743c 8023 9f3d d5ac fbbd
00000120: fcb2 dabd 57ea 863d 5800 ec3b e211 4b3d
00000130: 66a9 66bd d929 9a3c c30d a43d f2e7 e5bc
00000140: b10c 35bd 013a 00be 64e0 7bbc daf6 9d3d
00000150: 7540 f9bd d962 97bb 7c7b af3d b1f4 c1bc
00000160: a8d1 4abd ea1d 3bbd 75f0 42bd 7960 fc3c
00000170: 71ab ebbd f0aa 2a3d fc3a a1bc 9b79 a9bb
00000180: a99d 7cbb 42be 943d bb93 9dbd 172d fabd
00000190: ea06 c5bd 6ce4 babd c5e9 85bd 99e6 dd3d
000001a0: 8728 bcbd a546 91bd 3692 cabd 1c8b 82bd
000001b0: 526c b63b 7578 a6bd 1cf4 d2ba b83d 5a3d
000001c0: 1960 c6bc 8124 593d ea81 133d 8523 fa3d
000001d0: 94f2 0a3a 8660 da3d 81bb c33d 96c5 873d
000001e0: c368 a33d 8502 b5bd ad5c 9dbd a7d5 413d
000001f0: c3f4 233d e528 d33d 6a06 6bbc c076 dcbc
00000200: 8ecb b63d 2bc5 6c3c 8681 003e fcab 74bd
00000210: a2d5 15bd edcc 03bc 0706 823d ddf3 e1bd
00000220: 4429 28bd 43e4 c03d eb39 f43c c06b a93d
00000230: 8e89 28bd 0847 9ebd 7079 b5bd 7ffa 8dbd
00000240: 4b58 b7bd 3abc 823d 5f91 2a3d 231d 99bd
00000250: 1a7e f23d 0d2d 123d ac4c 243d e42b 6abd
00000260: 9641 a23d ff24 b5bd 5cb9 c43d fa61 86bd
00000270: 9dab 6a3d 1bd9 52bd f5d0 a23d 32a5 d8bd
00000280: b0d7 b8bc d983 2dbd 0253 a8bd f10e 70bd
00000290: 1a67 30bd d8a6 f93b b0c8 ac3d eda8 88bc
000002a0: bf3c f03d db24 60bd 2266 76bd ee42 88bb
000002b0: c8f5 a0bc 5926 273d d201 e13d e4c0 123d
000002c0: 59f3 debd a40b 3ebd 855a c4bc b36e d3bd
000002d0: 0c57 343d f1cb d13d 0e2a 7a3d 5fcc 33ba
000002e0: 5a65 6fbc 9505 8ebd 7c5a 89bc 1fa0 e23d
000002f0: 684e 90bd 0609 b83c fdfd b0bd be1c f9bc
00000300: 57a4 913c 13dd bbbd 3fab 223d d799 d1bd
00000310: 82b3 41bd 1e71 bc3d ff37 fa3d d025 8abb
00000320: 3d19 bfbd bb44 c4bd c0b8 e8bc 898d 90bd
00000330: 7f95 c23d d664 b5bd 01c4 ae3d b3e0 8d3c
00000340: 2368 29bd e25d d93d cb17 883d ff2d 893a
00000350: 9549 a2bd d803 36bd 8fa5 353d 2187 de3d
00000360: ae06 3abd a8df 27bd b3f0 ebbd eacd a43d
00000370: 1759 f33d 2921 a43d 6e2c 9ebd cef2 a43d
00000380: 4408 38bd c392 893d bd90 8e3d bda4 c8bd
00000390: 2b8c 053d 8593 553d e454 8ebd 44cd d53d
000003a0: 9510 be3d 7b8e e53d 0acb b43b 1aaf 8cbd
000003b0: 7d01 85bd 6a7b 493d e6fa ebbc 350e bd3d
000003c0: 99ea de3d 55e2 1b3c 6768 e2bd 2e6c 3e3d
000003d0: 18a5 e43d c528 f4bc 30fe 93bd 2eca ebbc
000003e0: f930 443c acf1 c3bd 0d46 763d 8ef9 5e3d
000003f0: d227 22bd 2534 1bbd b7ea 65bd ef95 d43d

node_encoder.layers.6.bias f4 [32]
0.058167707 0.039428223 0.05055871 -0.008517504 -0.07937053 0.0002277157 0.09442443 0.08855848
-0.054198653 0.06654382 0.03710326 -0.0052499217 0.048936035 0.00066838355 -0.0003064402 -0.06247489
0.00024192099 0.1027405 0.0580576 -0.08148586 0.0017685366 0.060220536 -0.03444028 8.14317e-05
0.04312379 0.08551009 0.09381676 -0.07082587 -0.098178096 0.06887713 0.0022866873 0.09326635
00000000: 4341 6e3d 7d7f 213d a616 4f3d 008d 0bbc
00000010: 048d a2bd f8c6 6e39 9861 c13d 265e b53d
00000020: 68ff 5dbd 2048 883d 97f9 173d 8907 acbb
00000030: 2771 483d 7636 2f3a b5a9 a0b9 ace5 7fbd
00000040: 2cac 7d39 9c69 d23d cecd 6d3d 0fe2 a6bd
00000050: 3ece e73a cfa9 763d 4011 0dbd 50c6 aa38
00000060: 92a2 303d ea1f af3d 0023 c03d 270d 91bd
00000070: 9911 c9bd 740f 8d3d 3fdc 153b 6e02 bf3d

edge_encoder.layers.0.weight f4 [64, 4]
0.35186106 -0.20100273 0.14101602 0.16023517 -0.17024909 0.45815217 0.048294436 -0.16202535
-0.45915258 0.40402228 -0.4913865 0.38760778 -0.16389963 -0.09332156 0.079255745 0.48351866
-0.3136414 -0.352736 0.3125759 -0.22761306 -0.18202913 0.28230554 -0.21378648 0.3044812
-0.20466274 0.38695845 0.49096936 0.06017661 -0.15819827 0.27192312 0.14875413 0.006374165
0.43492913 -0.018530142 0.18603821 -0.1404443 -0.08456681 -0.02964608 0.040495403 0.21929735
0.37363043 0.3009361 -0.21420012 0.4350331 0.32881415 0.1870342 0.055410415 -0.27279603
-0.3076037 0.009923084 -0.36205718 0.17726602 -0.4589949 -0.4441272 -0.21919237 0.27718812
0.40235418 -0.42115265 -0.30805942 0.099977724 -0.090998106 -0.40782613 0.14047055 -0.4067019
0.026142487 0.2037036 0.4595391 -0.42319423 0.37012053 0.064644635 0.43690252 0.49289954
-0.11640985 -0.08148336 -0.124411084 0.3837954 -0.22033508 0.33225814 0.20368513 0.4622039
0.35522345 0.39758247 -0.41381586 -0.25730404 -0.35795563 0.24175894 0.10179828 0.18391299
0.19503668 0.027705908 0.1833757 -0.277221 0.32361352 -0.43755355 -0.45458463 0.1722152
0.46755916 -0.17516969 0.47234398 -0.17966549 -0.3850478 -0.07923432 0.27091593 -0.2573103
0.4690124 -0.23135076 -0.21860592 -0.20940676 -0.38815254 0.4599889 -0.28226864 -0.23183267
-0.14245893 0.41606477 0.24593522 0.19812322 -0.14224769 0.24896896 0.08317906 0.40338984
0.117612615 0.37617612 0.33555686 0.08174755 -0.4712323 0.11141158 -0.38217226 0.07710153
-0.047538955 0.3868072 -0.36874083 -0.40645683 0.21420139 0.33839285 -0.11176944 0.14160216
0.4013901 0.05740873 -0.13871987 0.2937932 0.4571812 -0.092545696 0.33155596 0.033195857
-0.09126777 -0.046135716 -0.4974755 0.23587117 -0.26863053 -0.43282345 -0.06433597 -0.18933986
-0.3125514 -0.11105008 -0.052494295 0.14848858 0.07272457 -0.06356566 0.107526556 -0.32269025
0.43021548 0.2381015 0.30895546 -0.4458989 0.3338267 0.08642012 -0.4897216 0.4706198
-0.00878188 0.105300345 0.4015593 0.3332591 0.43967575 -0.4676037 0.49498174 0.107989274
0.015318964 -0.40195587 -0.2613109 0.47046962 0.38243037 0.38435942 -0.03519829 -0.27799082
0.11070177 -0.23205592 -0.33142656 0.16559908 0.3828093 -0.3935506 -0.43847117 0.071472034
-0.18283214 -0.26510763 -0.098542154 -0.032944478 -0.14533752 0.3597325 0.2754031 0.15037858
-0.1626138 -0.037872206 0.32170868 0.043068103 -0.48322868 0.055934925 0.2604289 -0.12683426
-0.10333202 -0.07396271 0.29664958 0.4020958 -0.39068416 0.3312474 0.20460787 0.17063546
-0.2993821 -0.2842774 0.4848179 0.11380619 -0.106553674 -0.09563346 0.339647 -0.11306141
0.34305587 -0.13402168 0.1136729 0.11912271 -0.26352665 0.012909074 0.09452135 -0.47759268
-0.09318972 0.040394127 0.4162757 0.10742835 -0.43083766 -0.15488185 0.48596647 -0.072745614
0.3730425 0.048519183 0.3321436 -0.20892109 0.48548806 0.106329784 -0.108327724 0.38239706
0.23648301 -0.3479657 -0.026780112 0.35416323 0.12881435 -0.1506744 -0.3334126 -0.33962625
00000000: 2227 b43e a9d3 4dbe 8166 103e b014 243e
00000010: c755 2ebe ec92 ea3e 63d0 453d f9e9 25be
00000020: 0c16 ebbe 02dc ce3e 0397 fbbe 8774 c63e
00000030: 4ed5 27be 601f bfbd d650 a23d c28f f73e
00000040: 9b95 a0be d099 b4be f309 a03e 6613 69be
00000050: d865 3abe 5a8a 903e d8ea 5abe f6e4 9b3e
00000060: 1c93 51be 6b1f c63e 5660 fb3e c07b 763d
00000070: bafe 21be 8239 8b3e 0153 183e 5fde d03b
00000080: 08af de3e 86cc 97bc cd80 3e3e a1d0 0fbe
00000090: 5d31 adbd 56dc f2bc 82de 253d 7c8f 603e
000000a0: 7d4c bf3e 4c14 9a3e 4757 5bbe a9bc de3e
000000b0: 545a a83e e585 3f3e 08f6 623d ecab 8bbe
000000c0: 3b7e 9dbe 6e94 223c 8f5f b9be 3985 353e
000000d0: 6101 ebbe a464 e3be f773 60be 9aeb 8d3e
000000e0: 5e01 ce3e 52a1 d7be f7b9 9dbe 1fc1 cc3d
000000f0: 375d babd 96ce d0be 83d7 0f3e 3b3b d0be
00000100: c528 d63c ad97 503e b548 eb3e eaac d8be
00000110: 7080 bd3e 6864 843d b0b1 df3e 545d fc3e
00000120: 4a68 eebd bfe0 a6bd 3dcb febd d580 c43e
00000130: 859f 61be bd1d aa3e d692 503e fda5 ec3e
00000140: d9df b53e ee8f cb3e acdf d3be 5bbd 83be
00000150: f645 b7be a88f 773e 9e7b d03d b053 3c3e
00000160: b2b7 473e 80f7 e23c d7c6 3b3e e9ef 8dbe
00000170: acb0 a53e 0507 e0be 51bf e8be 2e59 303e
00000180: ea63 ef3e af5f 33be 12d7 f13e 3bfa 37be
00000190: fc24 c5be 9a45 a2bd 7eb5 8a3e 2dbe 83be
000001a0: 6522 f03e 37e7 6cbe 3bda 5fbe ba6e 56be
000001b0: eebb c6be aa83 eb3e 8485 90be 8b65 6dbe
000001c0: c1e0 11be 7106 d53e 71d6 7b3e d0e0 4a3e
000001d0: 61a9 11be b8f1 7e3e c859 aa3d 1d89 ce3e
000001e0: e2de f03d 289a c03e 1cce ab3e 426b a73d
000001f0: 5c45 f1be c12b e43d 15ac c3be 68e7 9d3d
00000200: 35b8 42bd 980b c63e 99cb bcbe 1c1b d0be
00000210: 9c57 5b3e d441 ad3e 60e7 e4bd 2800 113e
00000220: 0183 cd3e 6b25 6b3d 950c 0ebe 106c 963e
00000230: a713 ea3e 9988 bdbd b4c1 a93e 61f8 073d
00000240: 99ea babd cef8 3cbd 1cb5 febe 3688 713e
00000250: f189 89be 099b ddbe 94c2 83bd 4fe2 41be
00000260: bd06 a0be 396e e3bd 4204 57bd 640d 183e
00000270: 9ff0 943d b62e 82bd e236 dc3d a837 a5be
00000280: 3445 dc3e e1d0 733e 692f 9e3e dc4c e4be
00000290: 55eb aa3e 08fd b03d cabc fabe 14f5 f03e
000002a0: e0e1 0fbc b5a7 d73d 2e99 cd3e f0a0 aa3e
000002b0: 2e1d e13e c169 efbe 3f6e fd3e 7b29 dd3d
000002c0: 64fc 7a3c 29cd cdbe 8bca 85be 65e1 f03e
000002d0: eacd c33e c2ca c43e 152c 10bd d054 8ebe
000002e0: 9cb7 e23d 11a0 6dbe beb0 a9be ce92 293e
000002f0: 95ff c33e 777f c9be 4b7f e0be ee5f 923d
00000300: 5938 3bbe 30bc 87be 78d0 c9bd caf0 06bd
00000310: 5cd3 14be dc2e b83e a301 8d3e d8fc 193e
00000320: 3b84 26be e31f 1bbd 00b7 a43e 2e68 303d
00000330: c069 f7be 051c 653d f056 853e d7e0 01be
00000340: bd9f d3bd c379 97bd 74e2 973e 80df cd3e
00000350: c107 c8be 4299 a93e ba84 513e 10bb 2e3e
00000360: 9c48 99be cf8c 91be 0d3a f83e 3813 e93d
00000370: d038 dabd 7adb c3bd 36e6 ad3e be8c e7bd
00000380: 05a5 af3e fb3c 09be 56cd e83d 9bf6 f33d
00000390: f7ec 86be 9580 533c 6994 c13d 0787 f4be
000003a0: 40da bebd 5074 253d 1722 d53e 6503 dc3d
000003b0: c196 dcbe 5999 1ebe 99d0 f83e a7fb 94bd
000003c0: 6dff be3e 0dbc 463d ba0e aa3e 69ef 55be
000003d0: e491 f83e 6ec3 d93d edda ddbd 8cc9 c33e
000003e0: 9a28 723e 8f28 b2be f761 dbbc e254 b53e
000003f0: e9e7 033e 644a 1abe 0eb5 aabe 7ee3 adbe

edge_encoder.layers.0.bias f4 [64]
0.25810122 0.20644827 -0.42316544 -0.08311998 0.10691086 -0.42248353 0.41100195 -0.034259845
-0.18333557 0.0365635 0.16088648 0.09152547 0.4542603 0.26163253 -0.029470496 0.06567174
0.101540856 -0.17853929 -0.40854636 -0.03412264 -0.17068842 -0.45240968 0.15856925 -0.19000486
0.45879847 0.15907466 0.19314376 0.12604603 0.17523222 0.30028173 0.3474341 -0.00939071
-0.12206688 0.11580717 -0.20580252 -0.007674983 0.12630402 0.20361741 -0.46372804 0.17384183
-0.17382376 -0.3323059 -0.19314821 0.0021964198 0.22641811 -0.4254141 0.116152875 0.43059114
-0.26264426 0.09986608 -0.18123394 0.10330271 0.19671644 -0.2881506 0.10003382 0.47428724
0.01660622 -0.3350399 -0.0013748665 0.09068575 0.13425478 -0.017521724 -0.08759106 -0.22878689
00000000: d825 843e 2d67 533e 24a9 d8be cf3a aabd
00000010: 15f4 da3d c34f d8be d96e d23e 0d54 0cbd
00000020: 52bc 3bbe 9cc3 153d 6dbf 243e b571 bb3d
00000030: ce94 e83e b3f4 853e 1c6c f1bc e87e 863d
00000040: a7f4 cf3d 01d3 36be fd2c d1be 2ec4 0bbd
00000050: f2c8 2ebe 3ea2 e7be fa5f 223e a290 42be
00000060: a2e7 ea3e 78e4 223e 7ac7 453e 3612 013e
00000070: 1370 333e 87be 993e e2e2 b13e 7edb 19bc
00000080: 33fe f9bd 4f2c ed3d e5bd 52be 6c7e fbbb
00000090: d755 013e 1581 503e c36d edbe 9803 323e
000000a0: dbfe 31be 0024 aabe a5c8 45be cff1 0f3b
000000b0: 26da 673e e0cf d9be 8fe1 ed3d 7176 dc3e
000000c0: 4f79 86be 9686 cc3d 6495 39be 5f90 d33d
000000d0: 0970 493e 7a88 93be 88de cc3d c7d5 f23e
000000e0: c409 883c 5a8a abbe dd34 b4ba 73b9 b93d
000000f0: 167a 093e b889 8fbc f162 b3bd 1c47 6abe

edge_encoder.layers.1.weight f4 [64]
0.9909417 0.9895307 0.9956679 1.004175 0.9979493 1.007184 0.990494 1.0070909
1.0029231 0.996872 1.0056725 0.9970846 0.98842525 0.9938206 0.9924734 0.9933829
0.9870179 0.99503404 0.98778075 0.9964403 0.99435896 0.9911293 0.9942534 0.99271
0.99408215 0.9972733 0.9897165 1.0078708 0.99836046 0.99291056 0.993458 0.99128735
1.005098 0.99632597 0.9957499 0.9924037 0.9933772 0.99062836 1.0006307 0.9925466
0.99468625 0.99781936 0.9957298 1.0020523 1.000964 0.9927868 1.0053985 0.99001235
0.99164605 0.99002284 0.9988822 0.9900872 0.9875808 0.99462104 1.0047735 0.9965719
0.9929534 1.0057573 0.996601 0.99808365 0.99975294 1.0050269 0.9934828 1.0058583
00000000: 5bae 7d3f e251 7d3f 17e4 7e3f ce88 803f
00000010: 9b79 7f3f 68eb 803f 0491 7d3f 5be8 803f
00000020: c95f 803f 0133 7f3f e0b9 803f f040 7f3f
00000030: 7009 7d3f 076b 7e3f bd12 7e3f 574e 7e3f
00000040: 35ad 7c3f 8dba 7e3f 33df 7c3f b616 7f3f
00000050: 4f8e 7e3f a6ba 7d3f 6487 7e3f 3e22 7e3f
00000060: 2b7c 7e3f 4e4d 7f3f 0f5e 7d3f e901 813f
00000070: 8d94 7f3f 632f 7e3f 4353 7e3f 02c5 7d3f
00000080: 0da7 803f 380f 7f3f 77e9 7e3f 2b0e 7e3f
00000090: f84d 7e3f d299 7d3f ab14 803f 8917 7e3f
000000a0: c2a3 7e3f 1771 7f3f 26e8 7e3f 4043 803f
000000b0: 971f 803f 4727 7e3f e6b0 803f 7371 7d3f
000000c0: 84dc 7d3f 2372 7d3f beb6 7f3f 5b76 7d3f
000000d0: 18d2 7c3f 7c9f 7e3f 6b9c 803f 561f 7f3f
000000e0: 3232 7e3f a8bc 803f 3e21 7f3f 6982 7f3f
000000f0: cfef 7f3f b9a4 803f e454 7e3f f7bf 803f

edge_encoder.layers.1.bias f4 [64]
-0.0044570356 -0.003947649 -0.004507366 0.0062178755 0.0019245655 0.007903554 -0.007925566 0.00819806
0.0040569096 0.0057651447 0.0066468404 0.00024643107 -0.0074559534 -0.0072315615 -0.0075271637 -0.0048792334
-0.011912581 -0.0048597693 -0.01186011 -0.0026763575 -0.002293266 -0.006348659 -0.0045180097 -0.0047811093
-0.0041226572 -0.0014736323 -0.0031763306 0.008324403 0.00014305425 -0.005298239 -0.005287664 -0.00763882
0.005362158 -0.0008515754 -0.0023750828 -0.0073400135 -0.0070906333 -0.013070089 0.005638755 -0.0067012203
-0.004522816 -0.0011440818 -0.0042451574 0.004944888 0.0029982908 -0.0069437064 0.006676707 -0.008214592
-0.008531507 -0.009356231 -0.0005867635 -0.008175218 -0.011713318 -0.004874081 0.0077612116 -0.003533915
-0.006155033 0.007712134 -0.002969071 0.0012609833 0.0010989611 0.005679319 -0.008100623 0.006843038
00000000: 530c 92bb 485b 81bb 87b2 93bb 52bf cb3b
00000010: b441 fc3a e87d 013c 3cda 01bc 2851 063c
00000020: d3ef 843b 8ae9 bc3b bdcd d93b 6b33 8139
00000030: 1251 f4bb bcf6 ecbb 6da6 f6bb fae1 9fbb
00000040: fc2c 43bc b33e 9fbb e850 42bc d465 2fbb
00000050: 9e4a 16bb 6908 d0bb d00b 94bb daaa 9cbb
00000060: 5b17 87bb e526 c1ba fc29 50bb 1463 083c
00000070: d500 1639 da9c adbb 2444 adbb 114f fabb
00000080: 0bb5 af3b 423c 5fba 47a7 1bbb 7f84 f0bb
00000090: 8b58 e8bb ed23 56bc 4ec5 b83b e995 dbbb
000000a0: 2134 94bb 04f5 95ba f61a 8bbb ba08 a23b
000000b0: f97e 443b 0888 e3bb 47c8 da3b 7f96 06bc
000000c0: bcc7 0bbc e14a 19bc 08d1 19ba 59f1 05bc
000000d0: 37e9 3fbc c1b6 9fbb c351 fe3b 4199 67bb
000000e0: 29b0 c9bb 12b6 fc3b bf94 42bb 9447 a53a
000000f0: 040b 903a 9519 ba3b 7ab8 04bc 903b e03b

edge_encoder.layers.1.running_mean f4 [64]
0.26631084 0.19624409 -0.40287367 -0.06553311 0.09807338 -0.40745416 0.4029702 -0.04163464
-0.19211787 0.049229182 0.1827391 0.08113245 0.4630447 0.27912834 -0.021039968 0.052452333
0.07910283 -0.16342081 -0.3883593 -0.02282304 -0.18132971 -0.4457905 0.14658429 -0.17482351
0.445532 0.14648762 0.19070466 0.117307656 0.17919384 0.31454316 0.3437625 -0.0069944393
-0.14117728 0.12368121 -0.19232379 -0.011638903 0.14484118 0.20002873 -0.4539451 0.16093932
-0.19947007 -0.3055851 -0.18557005 0.0041675074 0.254024 -0.4373439 0.13166134 0.4404938
-0.26174653 0.10300897 -0.1846756 0.09605852 0.21262869 -0.2864558 0.10385333 0.46324795
0.025938468 -0.35698855 -0.0019210117 0.08517812 0.12406743 -0.0029770928 -0.07152718 -0.2393374
00000000: e559 883e 36f4 483e 7545 cebe 3936 86bd
00000010: b2da c83d d59d d0be 1c52 ce3e 1689 2abd
00000020: 8cba 44be 8aa4 493d f51f 3b3e c528 a63d
00000030: 3214 ed3e e9e9 8e3e 035c acbc 42d8 563d
00000040: aa00 a23d c957 27be 08d7 c6be 62f7 babc
00000050: 7fae 39be a73e e4be 311a 163e ef04 33be
00000060: c51c e43e da00 163e 1548 433e ff3e f03d
00000070: 977e 373e cd0b a13e a301 b03e 9c31 e5bb
00000080: c790 10be 934c fd3d 87f0 44be 19b1 3ebc
00000090: 3f51 143e 55d4 4c3e 7e6b e8be 47cd 243e
000000a0: e241 4cbe a675 9cbe 1306 3ebe 968f 883b
000000b0: 6f0f 823e 8aeb dfbe 3bd2 063e 6788 e13e
000000c0: a403 86be 5ef6 d23d 9a1b 3dbe 54ba c43d
000000d0: 56bb 593e 56aa 92be 0eb1 d43d d62e ed3e
000000e0: e97c d43c 34c7 b6be 75ca fbba de71 ae3d
000000f0: 1117 fe3d 541b 43bb d87c 92bd dd14 75be

edge_encoder.layers.1.running_var f4 [64]
0.05389556 0.042275924 0.2410757 0.024725724 0.11268878 0.061336745 0.21140297 0.042293273
0.070846036 0.017251609 0.07961551 0.03817929 0.12545152 0.10274102 0.12875548 0.046791628
0.17146605 0.17559306 0.028680742 0.06431932 0.17431667 0.049743216 0.04553594 0.20096678
0.2149569 0.092830405 0.091679044 0.11879022 0.07876609 0.02974988 0.112294115 0.15786855
0.12757659 0.04235701 0.05566514 0.12985665 0.19384904 0.04761288 0.034031726 0.02444604
0.119609535 0.20667058 0.13349868 0.24520577 0.08046077 0.053692333 0.10124901 0.19453007
0.034013465 0.08545424 0.0938996 0.10290105 0.08139118 0.08188739 0.20807604 0.100639805
0.04552153 0.032962088 0.14133786 0.21852724 0.11730773 0.063301675 0.036989525 0.09986452
00000000: 97c1 5c3d 8529 2d3d 8cdc 763e 9a8d ca3c
00000010: 60c9 e63d 3d3c 7b3d 057a 583e b63b 2d3d
00000020: ba17 913d 3f53 8d3c 750d a33d e361 1c3d
00000030: 5d76 003e e269 d23d 7ad8 033e 94a8 3f3d
00000040: cc94 2f3e abce 333e e0f3 ea3c d9b9 833d
00000050: 1280 323e 8bbf 4b3d e583 3a3d 3cca 4d3e
00000060: a91d 5c3e de1d be3d 39c2 bb3d 4948 f33d
00000070: 1e50 a13d 05b6 f33c 75fa e53d 4ba8 213e
00000080: 70a3 023e 8b7e 2d3d 2101 643d 24f9 043e
00000090: 5d80 463e b905 433d da64 0b3d 1043 c83c
000000a0: d8f5 f43d 74a1 533e e1b3 083e 3917 7b3e
000000b0: 9ec8 a43d 7eec 5b3d a45b cf3d e432 473e
000000c0: b451 0b3d a202 af3d 6f4e c03d c9bd d23d
000000d0: 6bb0 a63d 93b4 a73d e311 553e 3e1c ce3d
000000e0: c974 3a3d 4103 073d dfba 103e 9bc5 5f3e
000000f0: 093f f03d 4fa4 813d 5482 173d c585 cc3d
