gnn/gnn_outputs/checkpoint_epoch_10.pt (torch, 970140 bytes, 208 tensors)

node_encoder.layers.0.weight f4 [64, 3]
00000000: e587 dd3e 247f f43e 283a 0fbe e02d 093f
00000010: 5619 fbbd 7984 e23d 9d73 8cbe cbf2 ae3e
00000020: 3f7b 033f 8c0b d9be 4977 003f 60ca d63d
00000030: fecc db3e 39ed 973d c7ad 8d3e a159 a6bd
00000040: 0693 e13e ff17 b73d ad7f 8abe c286 163e
00000050: 7f52 87be 7590 8abd 1d3a 6bbe f3f6 c53e
00000060: bd37 eabe 19ea 84be ce4d 2ebe a950 b3be
00000070: a404 483d bf62 11bf 6aa5 053f 567e fbbe
00000080: 2748 e23e dab0 ca3d f137 3cbe fd7a b63e
00000090: a7b2 b63d aae8 f03e eb78 683d 644f 3bbe
000000a0: 9ffb 1a3e 0b7b 25be 880c 793e c5a8 023f
000000b0: 2e0b ae3e 808f 7fbe 93ad ac3e ee08 c53d
000000c0: 1450 973e 4639 b5be 1ab9 11bf 6b95 62be
000000d0: cee4 e4be c821 f03e bc4c 303e 34d9 6f3e
000000e0: 7f34 383e 34ad 97bc 8491 e83e 9abf d0be
000000f0: 1a71 203d 150a cdbe dbb9 2f3e de33 47be
00000100: 4d1e 393e 06cf fcbd 1edd f33e 08dd b3be
00000110: 2eba adbe 74ae b2be 44f0 033f 8f4c 443e
00000120: dee8 0d3f c54c f2be 8a4c 14bf ca66 e9be
00000130: 748b c6be 5974 693e 2965 4b3e c412 f83e
00000140: 52f2 97be d653 cdbe 460b 9d3e 3ec2 6abe
00000150: e646 b33e 61bc 0ebe f58e a83e b566 e8be
00000160: f552 92be d8ff 383e 36d9 fa3d f85b 1dbe
00000170: 675b ad3e d6e9 c63e d982 d9be 91e8 9bbe
00000180: aa86 083f b19c 49be 0af0 4dbe 9ec9 0cbf
00000190: 85bf acbe 09ab 0d3e bb29 adbd 154f d2be
000001a0: d4a2 e33b 0236 cabe 0f67 febe d436 9fbe
000001b0: 58a7 01bf f55f bbbe 27c0 133f 6059 d93d
000001c0: 6a2b 3e3e 41e1 07bf 3338 c4be c245 3fbe
000001d0: 35a3 c63d 597e 02bf fed2 80be 9280 aebe
000001e0: d82c 083c 8e58 61be 7dbb 0dbd e7ae cbbe
000001f0: 513d ccbe 079a aabe 2931 4dbe 626c eabe
00000200: ffbd f43e 084e e8bd 5d59 fa3e d9e7 3f3e
00000210: a7bb fcbe dd15 c93e efed 20be 8a0c 66be
00000220: 862f f5be 4783 12bf cc2f 2c3e a4d4 f9bd
00000230: 7617 653e 963d efbe fdcf de3e 3f1d d8be
00000240: 786b d0bd 7fcd f53d 5dbc 953e 37db f23e
00000250: 0eeb 063f c64a e6be 5617 133e dfc1 7ebe
00000260: b164 8ebd 6a9d dbbe 47d4 073f 5156 d6be
00000270: 3d9a a13e b1f1 463e 5b21 3b3e 32e0 9dbe
00000280: 795c 073f 18e2 fa3d 62dc 9f3d dfbf 03bf
00000290: 7b72 713e 9a4b adbd 45af 82be fe47 013f
000002a0: a87f fe3d 8ae6 a4be d534 95be 39d8 edbc
000002b0: e6a4 a33e 84bf 19be 6054 a6be 195d 52be
000002c0: c69b ddbe 4b87 4a3e 0ffc e23e a258 0cbf
000002d0: 78e5 103e fae4 973e 07e5 cc3d 418d 52be
000002e0: 4a88 983e 7c6d 9f3e 8d87 563e 047c cdbd
000002f0: 6f12 22be 6e5c 7e3d a971 c1bd 98f3 37be
0.43267742 0.4775325 -0.13987029 0.53585625 -0.12260692 0.110604234 -0.27431956 0.3416961
0.51359934 -0.42391622 0.50182015 0.10487819 0.42929834 0.074182935 0.27671644 -0.08122564
0.44057482 0.08940124 -0.27050534 0.14699844 -0.26430127 -0.06765834 -0.22971387 0.3866497
-0.4574565 -0.25959852 -0.17021868 -0.35022476 0.04883255 -0.567913 0.52205527 -0.49119824
0.44195673 0.09897013 -0.18380715 0.35640708 0.08920794 0.4705251 0.05675594 -0.18292004
0.15135048 -0.16160218 0.24321187 0.5103877 0.33992904 -0.24957085 0.33726177 0.09620844
0.29553282 -0.3539526 -0.5692307 -0.22127311 -0.44705814 0.46900773 0.17216772 0.234227
0.17988776 -0.018515207 0.4542352 -0.4077118 0.039170362 -0.40046754 0.17160742 -0.1945338
0.18077965 -0.12344174 0.47629637 -0.3512957 -0.33931106 -0.34898722 0.5153849 0.1916983
0.5543345 -0.47324196 -0.5792929 -0.45586234 -0.3877827 0.2279829 0.19862808 0.48451817
-0.29677063 -0.40103024 0.30672663 -0.2292566 0.3501503 -0.13939048 0.32921568 -0.4539086
-0.28578916 0.18066347 0.12248461 -0.15367115 0.33858797 0.38850278 -0.4248264 -0.30450872
0.5333048 -0.1968868 -0.20111099 -0.54995143 -0.33739868 0.13834776 -0.08455225 -0.4107596
0.006946901 -0.3949433 -0.49688002 -0.31096518 -0.5064597 -0.36596647 0.57715076 0.1061275
0.18571249 -0.53078085 -0.38324127 -0.18678954 0.09699098 -0.5097404 -0.25160974 -0.34082466
0.008311473 -0.22006437 -0.03460263 -0.39781877 -0.3989053 -0.3332064 -0.20038284 -0.45785815
0.47801206 -0.11343008 0.48896304 0.18740787 -0.49361917 0.39274493 -0.15715764 -0.22465721
-0.4788782 -0.57231563 0.16815108 -0.12198761 0.22372231 -0.46726674 0.43518057 -0.42209813
-0.10176748 0.12002086 0.29245272 0.47432873 0.52702415 -0.44978923 0.1436437 -0.24878643
-0.06952799 -0.42893535 0.53058285 -0.4186273 0.31562987 0.19428135 0.18274443 -0.3083511
0.5287548 0.12250155 0.078057066 -0.5146465 0.23578827 -0.084616855 -0.25524345 0.50500476
0.12426692 -0.32207137 -0.2914187 -0.029033767 0.31961745 -0.15014464 -0.32486248 -0.20543326
-0.43282908 0.19778173 0.4433293 -0.5482274 0.14150035 0.29666883 0.10004621 -0.20561697
0.2979148 0.31138217 0.20950146 -0.1003342 -0.15827344 0.062099867 -0.09445507 -0.17964017

node_encoder.layers.0.bias f4 [64]
00000000: bfd9 b73e 52f0 f83e 8b23 42bd 8178 f4bd
00000010: 2e3e 363a f337 ccbc d8fd 033e 2f86 1b3e
00000020: ecaf 03bf 7e01 50be 71d4 f33e 391f 5c3e
00000030: b146 9dbc 991e adbe 24c0 afbe bad7 01bf
00000040: c48a 36be b87b 3d3e c963 b73e 8b62 833e
00000050: e517 00bf 83aa acbe d46b a6bd 366c 0c3f
00000060: 7ee6 963d 75f2 0ebe 9a68 6a3e 0b01 57be
00000070: a43a babe 4ca7 d23e 3351 81be 28c6 d8bd
00000080: ca7a 10bf 95bc c03e f8da da3e 014a 4d3e
00000090: 6a03 c9be 3351 0fbf c4fa eabe cb53 d73e
000000a0: fcd2 883e 2ba5 f33e 95c2 953e d379 0b3e
000000b0: e4b0 9b3a d9b3 dbbe ba27 f8be 48b1 07bf
000000c0: 98d5 673e 2d09 8cbe 43b6 d9bd 8705 a5be
000000d0: 403b c3bd e4f3 cabe 990d bcbe 9af0 393e
000000e0: 8b8b 25be 3964 b13e ec7f 33be 7ebd d3be
000000f0: c469 bcbd 7432 8abe c5b7 2abe 0428 0abf
0.35908315 0.4862085 -0.047397178 -0.11937047 0.00069520145 -0.024929022 0.12889802 0.15187906
-0.5144031 -0.20313069 0.47623017 0.21496285 -0.019198747 -0.33812407 -0.3432628 -0.507198
-0.17826372 0.18504226 0.35818318 0.2566112 -0.5003646 -0.3372384 -0.08126035 0.54852617
0.07368182 -0.13959678 0.22891465 -0.20996492 -0.36372864 0.41143262 -0.25257263 -0.1058467
-0.5643736 0.37643877 0.42745185 0.20047761 -0.39260417 -0.55983275 -0.45894444 0.42056116
0.26723468 0.4758695 0.29250017 0.13620691 0.0011878279 -0.4291065 -0.4846781 -0.53004885
0.22640073 -0.2735075 -0.10630467 -0.3223078 -0.095327854 -0.396392 -0.36729124 0.18158188
-0.16166513 0.34646776 -0.17529267 -0.4135551 -0.09199861 -0.26991618 -0.16671665 -0.5396731

node_encoder.layers.1.weight f4 [64]
00000000: 689e 7e3f f74b 7f3f c0cd 7e3f 2535 7f3f
00000010: 8430 7f3f d373 803f 7564 7f3f 8ed1 7f3f
00000020: e64e 803f 212c 7e3f f302 803f bde8 803f
00000030: dd5b 7f3f 6321 813f 3d34 7f3f ffd5 7e3f
00000040: 707b 803f df8f 803f 80bf 7e3f b6b3 803f
00000050: fa35 803f f538 7e3f 5a38 803f 953f 7f3f
00000060: d68f 803f 317e 803f 0a19 803f dd27 7f3f
00000070: 93c7 7e3f d388 7f3f 8d75 7e3f 79b4 803f
00000080: 540b 803f e764 803f c68b 7f3f e4a2 7f3f
00000090: 6967 803f 9dfa 7f3f 41ad 7f3f 40d9 7f3f
000000a0: def5 7f3f d2b8 7e3f c275 7f3f 7f68 803f
000000b0: da06 803f 01ae 803f 0895 803f 1a79 7f3f
000000c0: 991b 803f 531d 7f3f d3cf 803f 6e8f 803f
000000d0: d172 7e3f 7869 7f3f c538 7f3f 3975 803f
000000e0: b4b1 7f3f 52ed 7e3f 7bf8 7f3f 888a 803f
000000f0: fa09 803f 5992 7f3f 891c 803f 4c78 7e3f
0.9946046 0.9972529 0.995327 0.9969047 0.99683404 1.0035347 0.9976266 0.9992913
1.0024078 0.99286085 1.00009 1.0071026 0.9974955 1.0088314 0.99689084 0.9954528
1.003767 1.0043906 0.99510956 1.0054843 1.0016472 0.9930566 1.0017197 0.99706393
1.0043895 1.003851 1.0007641 0.996702 0.99523276 0.9981815 0.9939812 1.0055076
1.0003457 1.0030793 0.9982265 0.99857926 1.0031558 0.9999178 0.9987374 0.9994087
0.9998454 0.99500763 0.9978906 1.003189 1.0002091 1.0053102 1.0045481 0.9979416
1.0008422 0.9965412 1.0063423 1.0043771 0.99393946 0.9977031 0.99696 1.0035774
0.9988053 0.9958087 0.99988526 1.0042276 1.0003045 0.99832684 1.0008708 0.9940231

node_encoder.layers.1.bias f4 [64]
00000000: 0918 94bb 84b9 5abb 2203 c8bb 540a b6ba
00000010: e4f7 e5bb 3e2d a03b 113d d4bb dc47 9bbb
00000020: 6e7b 0f3b 71ab f7bb c0b9 393b a70a be3b
00000030: e715 90bb dce8 c73b 3c1f 98ba 72e7 9e3b
00000040: 041f 92b8 3c21 e43b 57de 3bbb 6d15 f138
00000050: 6f62 ccbb d87c d0bb bade 0f39 97d5 35bb
00000060: ab48 41bb a1a5 3fb9 7d2f ac3b b0dd afbb
00000070: 8b24 c6bb 7901 84bb f2d6 b7ba a84e a23b
00000080: e8db e9ba 1886 a2bb c937 cebb 09f6 34bb
00000090: cd6f 91bb cfed b13a 932b c03b 8101 003b
000000a0: 914a 703b 984f 8cbb 672b e5bb d4c7 973b
000000b0: 44ca c83a 8ae3 583b 94c5 6a3b 724d c5bb
000000c0: 5872 473a f78a 96bb fb82 b83b ec4c 003c
000000d0: 1cca 41bb f2b9 8bbb 011a 76bb 7836 6d3a
000000e0: 0bff 81bb 77d8 64bb bf22 9fbb 4f7b e63b
000000f0: 2d27 fa3b 0080 263b 4e0b 4b3b b25f 88bb
-0.004519467 -0.0033374736 -0.006103889 -0.0013888576 -0.0070180763 0.004888206 -0.0064770062 -0.004738791
0.0021893638 -0.007558279 0.0028339475 0.0057996097 -0.004397142 0.006100757 -0.0011605988 0.004849368
-6.9675996e-05 0.0069619697 -0.002866646 0.000114957664 -0.00623732 -0.006362539 0.00013720515 -0.0027745718
-0.0029492776 -0.00018276881 0.0052546845 -0.0053670034 -0.0060468367 -0.004028496 -0.0014025851 0.004953224
-0.0017842026 -0.004959833 -0.006293271 -0.0027612469 -0.0044383765 0.0013574901 0.0058645695 0.0019532146
0.0036665539 -0.0042819493 -0.0069936994 0.0046319757 0.0015319069 0.0033094608 0.0035823332 -0.006021195
0.0007608286 -0.0045942026 0.0056308485 0.00783084 -0.002956993 -0.00426411 -0.003755212 0.0009048949
-0.003967171 -0.0034919062 -0.004856437 0.0070337425 0.0076340646 0.0025405884 0.003098208 -0.0041617984

node_encoder.layers.1.running_mean f4 [64]
00000000: 90da 363f 6410 293f ee08 7b3e d0c2 853c
00000010: 16b7 bb3e 0f24 5f3e 5843 49bd 7f58 1f3e
00000020: fd16 62bf 7fc3 12bf 4de7 183f 2535 993e
00000030: f8dc 9a3e 3f4e bfbe d364 743e 9547 acbe
00000040: 3d7f f2be 1e39 103d f105 1b3f b28b 903e
00000050: 1ce3 0fbf 9219 b2be f36f 4abe 11fe 303f
00000060: 8e75 48be bf8d e1be 510b d93e 90fe 9dbe
00000070: 0bf8 b1bd 16a2 a83d 7230 c5bd 6edb 91be
00000080: 8f34 e7be db99 20bd 962e f73d 3353 d3be
00000090: db55 04bf 7181 16bf 9322 24bf 6fb5 1cbe
000000a0: 879e d83d 1f03 04be a3f3 0c3e 90a2 d73e
000000b0: 5d37 aebd 2f53 80bf 3ac1 a1be a73c 24bf
000000c0: a0b4 b43e 3815 603d c380 48be 2c1a c6be
000000d0: a5e1 7d3e dcdd 1abe d77a ebbe 1765 583e
000000e0: 81a2 c9be 5f86 cc3e 0918 1dbf 457c 90be
000000f0: 3f5b 403e f88c 08bd 3061 35be d0e4 14bf
0.7142725 0.66040635 0.24515125 0.016328245 0.3666312 0.21791099 -0.04913649 0.15561102
-0.8831633 -0.57329553 0.59727937 0.2992336 0.3024671 -0.37364385 0.23866586 -0.33648363
-0.473627 0.03521072 0.6055594 0.2823158 -0.56205916 -0.34785134 -0.19769268 0.69137675
-0.19576094 -0.44053456 0.42391446 -0.30858278 -0.086898886 0.082340404 -0.09628381 -0.28487724
-0.45157287 -0.039209228 0.120694324 -0.41274413 -0.51693505 -0.5879126 -0.64115256 -0.15303586
0.10577112 -0.12891816 0.13764815 0.42116213 -0.085066535 -1.0025386 -0.31592733 -0.6415505
0.35294056 0.054707736 -0.19580369 -0.38691843 0.24793108 -0.15123695 -0.45992157 0.21132313
-0.39381793 0.39946267 -0.613648 -0.2821981 0.18784808 -0.033337563 -0.17712855 -0.5816164

node_encoder.layers.1.running_var f4 [64]
00000000: f761 223e 5ae7 103e 7c11 243e ddc6 1a3e
00000010: 1f9c 113e 1085 0d3e 2ef9 083e 94ae 0f3e
00000020: 92ce 153e 61c7 233e a99c 2f3e fda6 0b3e
00000030: 66d9 103e bb7d 023e 041d 253e 829f 093e
00000040: 42a3 2b3e a521 273e 8754 073e e4e8 1c3e
00000050: 912c 0c3e db68 023e 90d1 1e3e 8684 1b3e
00000060: b719 413e 638a 1f3e f4bd 1c3e aa5f 113e
00000070: 7aaf 0f3e c3ed 163e 1905 0a3e e753 1c3e
00000080: 4517 153e 8b48 203e ecfa 0b3e f7ed 293e
00000090: 88aa 3c3e 10c2 1b3e 54b7 0b3e ebb1 213e
000000a0: eda7 003e 4b3a 233e b1fc 273e e94d 143e
000000b0: 64fb 173e bebc 363e 1df3 033e 8739 273e
000000c0: a0c9 063e ce04 3b3e 67e7 023e d4a3 2b3e
000000d0: 4f27 0b3e 5ed6 183e 15fe 163e 5e00 1b3e
000000e0: 5535 0e3e b3e0 063e 1d35 1b3e 3fa5 2d3e
000000f0: a14a 073e 4e71 0f3e 4c71 023e e597 003e
0.15857683 0.14150754 0.16022295 0.15114923 0.14219712 0.1382029 0.13376305 0.1403144
0.14629582 0.15994026 0.17149605 0.1363792 0.14145431 0.12743275 0.1612435 0.13439754
0.16761497 0.16321428 0.13215838 0.15323216 0.13688876 0.12735312 0.15509629 0.15187272
0.18857466 0.15580134 0.15306836 0.14196649 0.14031783 0.14739136 0.13478507 0.15266381
0.14559658 0.15652673 0.13669938 0.16594683 0.18424428 0.15210748 0.13644153 0.15790527
0.12564059 0.15940206 0.16404988 0.14482845 0.14841992 0.17845437 0.12885709 0.16330539
0.13162851 0.18263552 0.12783585 0.16761714 0.13589214 0.14925525 0.14745362 0.15136859
0.13887532 0.13171653 0.1515698 0.16957568 0.13212062 0.14008066 0.12738532 0.12557943

node_encoder.layers.3.weight f4 [64, 64]
00000000: 2663 813d cbc2 adbd 43db 6f3d 4ae7 4c3d
00000010: e2b6 ae3d a0f9 d0bd 10bc a63d 4297 85bd
00000020: 1de9 533d 0b1a e93d 6484 9cbc fd54 cabb
00000030: 7efa 0ebd e013 e8bd a7b1 613d 2c36 05be
00000040: 34f9 aa3d ef7d c53d 1b4f e83d 85a9 1cbd
00000050: 7dbc c2bd 758d 9c3c 3c30 9b3d ebe6 04be
00000060: 0ba2 b3bc d8de 8cbd 5f50 9fbc 7a83 90bd
00000070: e0f2 61bd 0dd2 0abd 39cd fdbd 1359 e03d
00000080: 6930 e43d 6c97 60bc 9a41 e0bb 90f6 37bd
00000090: eb8b e3bd f635 fcbd fa52 543d 5bb1 85bd
000000a0: 77d8 95bd 296c 88bb f34a 21bd 3982 3abd
000000b0: 1c4b a0bb 267e acbc 4768 42bd a4e5 8cbd
000000c0: 3dd4 d9bd 0b55 cd3d d4e4 2ebd 3227 c63c
000000d0: 8fdd 43bd ef96 813b 2633 fe3d 4a7d 523d
000000e0: 7426 d0bd 6814 283d 0fe4 f73d 5eb1 e43c
000000f0: dc8e a03d e845 f43d 033a 53bc aa3e 013d
00000100: 8efb bdbd 735d abbc 0ea2 c83d 08a3 8e3d
00000110: 50b7 97bd 3c67 c3bd 5a69 bcbd c874 f0bd
00000120: 79c4 ccbd 90be 18bd 3cdb b63d 4e0c d53c
00000130: a43c cebd 0261 dbbd 0c20 843d 577b b2bd
00000140: cb29 39bc 5d56 873d 83f9 6dbd 6940 a0bc
00000150: 649f abbb 6ba0 15bd f523 6fbd c036 d8bd
00000160: f915 c5bd a42e 71bd 701f eb3d ae11 8abd
00000170: 2650 a2bd 1f68 043d 9d31 213d 27ce 963d
00000180: 27b8 cc3d ffa3 8d3d 78f1 f1bd 4464 933c
00000190: 66dc a93d ed48 92bc 70ef 98bd a7bf ea3d
000001a0: d12b 28bd d923 90bd 4271 dabd 65fd 383c
000001b0: 4c48 463d b389 fa3c 42c4 f13c cd15 d0bd
000001c0: e63c e4bd 4138 82bb 46aa f43d b723 863d
000001d0: 6a26 9abd e453 2bbc c543 b1bd 5bdf 5ebd
000001e0: baee e13c e40b 7e3d cec7 c73d cb75 f7bd
000001f0: e797 9f3d 4174 a9bd 025e 533d 5bf4 df3d
00000200: b0b3 4d3b f725 e63d 88c0 e6bd e910 39bd
00000210: 9c51 893d 5658 d6bc 01ef bdbc a564 5abd
00000220: 25ec aa3d 2351 813d 4801 1e3d 6618 95bd
00000230: 1a95 d0bd befa 843c b67a e63c 64d6 65bd
00000240: f41a 13bd 18d4 aa3d 117f b03a 88d8 133c
00000250: d196 01bd 0db3 e1bd 7c22 f5bd 147b 72bd
00000260: 632d 89bd d7a7 183d 2062 08bd 6763 3cbd
00000270: a626 ed3d 1bdb 2a3d b16e b03d 9c6e 81bd
00000280: 84e2 44bd f2bb 333d cf67 aebd 17e9 adbd
00000290: 7cb6 ebbb e4ce 30bd 3b1a c4bd bf76 923d
000002a0: f8b3 c93d db51 8b3c 5d6d babc c85a f1bd
000002b0: 30fa 2cbd e5d8 e43c e513 663d dcea 55bc
000002c0: a80c 61bd 3d42 953d f947 cfbd 9fe5 a73d
000002d0: 6113 65bd 9ba9 733b 07d6 d0bc c39c 5f3c
000002e0: f4a6 2bbd 1ed7 c03d 23a1 56bb 84b2 ce3d
000002f0: cc63 e23d f56e 8bbd bbe9 bcbd 06cf cb3d
00000300: f9da bb3d f010 b8bd 247f eaba 1061 01be
00000310: 8122 c7bd 0d41 b13c 63dc d43c d486 fd3c
00000320: 90c5 10bd 9676 dd3d 0ccd bb3c de96 8dbd
00000330: 481c 54bc d180 ba3c 8d6e 513d 15c2 b1bd
00000340: 443b 363d ff93 74bd efe3 c4bd 16c3 99bd
00000350: 4268 003e 6c7c cc3d 7a22 f03d 55bf a33d
00000360: a187 cb3d 3899 63bc 7779 9abd ed40 633d
00000370: ded5 75bd a194 acbd fe90 10bd 0b1e 043d
00000380: e2ce 8d3d beef 47bd 7e8e 8cbd b0e7 8e3c
00000390: 0c7e 8fbd 2cb7 b3bd 21f2 843d 0900 c1bc
000003a0: 4dfc f43d 2f73 f73d 784a 2a3d 83c4 4e3d
000003b0: dd2c b63c 4916 c238 68b3 8ebb a204 b3bb
000003c0: c442 5f3d 4426 e13d 070b dabc 2a67 75bd
000003d0: 4268 c8bc 16e6 79bd 64f6 d53c 9447 c83d
000003e0: 4815 d53d ed44 4e3d 0140 c6bd 54a6 96bd
000003f0: 3cff cfbc 9375 7bbc e989 5b3c 8ff1 f3bd
0.06317739 -0.084844194 0.058558714 0.050025262 0.08530976 -0.10203862 0.08141339 -0.06522991
0.051735986 0.113819204 -0.019106098 -0.006174682 -0.034906857 -0.11331916 0.055101063 -0.13008946
0.08348313 0.096431606 0.11343213 -0.038247604 -0.095086075 0.01911042 0.07577559 -0.12978713
-0.021927854 -0.068784416 -0.019447504 -0.07056327 -0.055163264 -0.033891726 -0.12392659 0.109544896
0.11142046 -0.013707977 -0.006843758 -0.044912875 -0.111106716 -0.1231498 0.051836945 -0.065279685
-0.07316678 -0.0041632843 -0.039378118 -0.045534346 -0.0048917662 -0.021056246 -0.047462728 -0.06879738
-0.10636184 0.10025986 -0.042698696 0.024188612 -0.047818717 0.0039547603 0.124120995 0.051389016
-0.10163584 0.041035086 0.121040456 0.027916607 0.07839748 0.11927396 -0.012892249 0.0315539
-0.09276496 -0.020918583 0.097965345 0.069646895 -0.07408011 -0.09541175 -0.09199782 -0.11741024
-0.09998412 -0.03729111 0.089285344 0.026006844 -0.1007016 -0.10711862 0.06451425 -0.087149315
-0.011301468 0.06608269 -0.05809928 -0.019561963 -0.0052375067 -0.03652994 -0.0583839 -0.10557318
-0.096233316 -0.05888237 0.114806056 -0.067416534 -0.07925443 0.03232586 0.039353956 0.07363539
0.09996062 0.069160454 -0.11813635 0.017992146 0.08293991 -0.01785704 -0.07467544 0.11462336
-0.04105741 -0.070380874 -0.106661335 0.011290883 0.04840879 0.030583238 0.029512528 -0.10160408
-0.11144428 -0.003973991 0.119465396 0.06549781 -0.07526858 -0.010457013 -0.08655504 -0.054412227
0.027579654 0.06202306 0.097549066 -0.12083014 0.07792645 -0.08274127 0.051603325 0.10935279
0.003138762 0.1123771 -0.11267191 -0.045182142 0.06705019 -0.026165169 -0.023185255 -0.05331864
0.08345822 0.06314304 0.03857544 -0.07280044 -0.10184689 0.016232844 0.028134685 -0.056112662
-0.035914376 0.08341235 0.0013465603 0.009023793 -0.03163797 -0.11020479 -0.11969468 -0.059199408
-0.0669811 0.03726944 -0.033296704 -0.045993235 0.11579637 0.04171286 0.08614863 -0.06319925
-0.048067585 0.04388041 -0.08515894 -0.08491724 -0.0071933847 -0.043166056 -0.095753156 0.07151555
0.098487794 0.017006805 -0.022757227 -0.11784893 -0.042230785 0.027935455 0.056171317 -0.013056483
-0.05494371 0.072880246 -0.101211496 0.081980936 -0.055926684 0.003717995 -0.025492681 0.013648215
-0.041907266 0.0941603 -0.0032749854 0.10092643 0.11054191 -0.06808273 -0.09224268 0.09951596
0.09172625 -0.089876056 -0.0017890674 -0.12634683 -0.09723378 0.021637464 0.025983995 0.03094808
-0.03534466 0.10813634 0.022924922 -0.06913541 -0.012946196 0.022766503 0.05113082 -0.08679596
0.044490114 -0.059711453 -0.096137874 -0.07507913 0.12539771 0.09984669 0.11725326 0.07995478
0.099379785 -0.013891511 -0.07542699 0.05548184 -0.060018413 -0.08426786 -0.035294525 0.032255214
0.069242254 -0.04881262 -0.06863116 0.017444462 -0.070064634 -0.08775172 0.06491495 -0.023559587
0.11962185 0.120825164 0.041574925 0.050480377 0.02223819 9.254792e-05 -0.004354883 -0.0054631988
0.054507032 0.10993627 -0.026616586 -0.059912838 -0.024463776 -0.061010443 0.026118465 0.097792774
0.1040445 0.0503587 -0.096801765 -0.07355943 -0.02539026 -0.015347856 0.01339958 -0.11911308

node_encoder.layers.3.bias f4 [64]
00000000: cbb0 7e39 8b8d 453d 8343 273c 3787 a5bd
00000010: f593 273d c5ec 823d c788 62bd ddee 91bd
00000020: 532a 9abd 4317 51bd 8475 dbbb d13f 993a
00000030: c4ad 1536 ca73 c0bc 1cbd 8a3d 33d9 30ba
00000040: d18d 80bd 3e96 c0bc e66a 82bd 6ff3 0cbd
00000050: 5f3d ddbd 2a16 4d3c 072a b2bd b92e 1e3d
00000060: bb36 9b3d cc43 aabd 1916 66bd 9c15 b6bd
00000070: fee1 c23c 6287 723c f62e 60bd db88 863d
00000080: 8e96 2c3d 1e12 d3bd 75cf 173a 2e82 34bd
00000090: 5cbb 4abc b0ed 743d c956 97bb c3a2 9dbd
000000a0: a8e9 9f3d 42c2 d5bd 0237 08bd a580 1d3d
000000b0: d90b ce3d be34 e43d f9a0 a2bc 1642 033d
000000c0: ab99 ccbd 5285 74bc 1387 efbc fc0a d43c
000000d0: 4598 93bd 28a5 8f3c 436e 603d da50 b33d
000000e0: 71fd 41bc c0a5 d53d ea9f ddbd 868d d3bc
000000f0: 3659 1a3d ce50 b83c ba1e 493d 3dbb 95bd
0.00024289188 0.04823069 0.010208967 -0.08082431 0.040912587 0.063928165 -0.055306222 -0.07125638
-0.07527604 -0.051047575 -0.0066973586 0.0011691992 2.2303875e-06 -0.023492713 0.06774351 -0.00067462324
-0.06277049 -0.023509141 -0.063680455 -0.034411844 -0.10802721 0.012517491 -0.08699422 0.038618777
0.075787984 -0.083137125 -0.056173418 -0.088908404 0.023789402 0.014802786 -0.054732285 0.06569072
0.042135768 -0.1030619 0.00057911064 -0.04406946 -0.0123737715 0.05979699 -0.0046185 -0.0769706
0.07808238 -0.10437442 -0.033255585 0.038452763 0.100608535 0.11142872 -0.019852148 0.032045446
-0.09990247 -0.014924364 -0.029239213 0.025884144 -0.072067775 0.017534807 0.054792654 0.087556556
-0.01184021 0.10432005 -0.10821517 -0.02582432 0.037682734 0.022499468 0.04910157 -0.073111035

node_encoder.layers.4.weight f4 [64]
00000000: 8dc4 803f e5d8 803f 1d7f 7f3f c08f 803f
00000010: fc2d 7f3f 12ac 803f 9104 803f e4fc 7f3f
00000020: a948 803f 30c8 7f3f c00f 803f ff75 803f
00000030: 0372 7f3f 445b 7f3f 5815 813f dcc8 7e3f
00000040: c394 7f3f 5778 803f 7da8 7e3f eba6 7f3f
00000050: ee70 803f 35be 7f3f 2f5d 7f3f 049d 803f
00000060: 09d4 803f cc44 7f3f 78b7 803f 119e 7f3f
00000070: 8064 803f e88e 7e3f eb02 803f 5ed9 7d3f
00000080: d183 803f dbac 7f3f 9577 803f fee6 803f
00000090: 105f 803f b439 803f 8407 803f 2825 803f
000000a0: 17db 7f3f 562b 803f f1bc 803f 00ef 7f3f
000000b0: 6301 7e3f 33d8 803f 6cc1 803f 9103 7f3f
000000c0: 35c2 7f3f 8b12 7f3f 9df7 7f3f c579 7f3f
000000d0: e0c2 7e3f 9b90 7f3f 6a63 7e3f 507d 803f
000000e0: f57c 7f3f f941 803f a3ac 803f 5118 803f
000000f0: 8e1b 813f 9799 7f3f 2a00 803f 1f35 7e3f
1.0059983 1.0066191 0.99803334 1.0043869 0.9967954 1.0052512 1.0001394 0.99995255
1.0022174 0.99914837 1.0004807 1.003601 0.99783343 0.99748635 1.0084639 0.9952524
0.9983637 1.0036725 0.9947584 0.9986407 1.0034463 0.9989961 0.9975156 1.0047917
1.0064708 0.9971435 1.005599 0.99850565 1.003067 0.9943681 1.000089 0.991598
1.0040227 0.9987313 1.0036494 1.0070493 1.0029011 1.001761 1.0002294 1.0011339
0.9994368 1.0013225 1.005766 0.9997406 0.99220866 1.0065979 1.0059028 0.99614817
0.9990571 0.9963767 0.999872 0.9979518 0.99516106 0.99830025 0.99370444 1.0038242
0.99800044 1.0020133 1.0052685 1.0007421 1.0086534 0.99843735 1.000005 0.99299806

node_encoder.layers.4.bias f4 [64]
00000000: 1be4 083c 3aa7 30bb c5ea 2dbb 8381 c5ba
00000010: 215b d0bb 7b60 633b ca20 7abb ad0f 12bb
00000020: d031 a13b 4db5 b9bb 5705 bdbb 619b b43b
00000030: aa1f 94ba 58d0 84bb 4a84 90b9 0b1d 6ebb
00000040: 26dc 513a 9a29 a63a a797 203a 73a8 b53b
00000050: a166 94bb 1f4e 4f3a 6843 ca39 a094 573a
00000060: deb2 ee3b 010e e9ba 3df8 6b3b b1eb 7a3a
00000070: a528 0f3b ee19 bdbb 6cd9 843a d4b1 0ebc
00000080: d849 93bb 8fd6 3abb b05f 4ebb 4d32 d53b
00000090: 7668 b239 6b98 ccbb 9946 0d3c ce1a ad3a
000000a0: a8f6 f1bb 713f a2bb c82f e539 d09c 4dbb
000000b0: 8924 04bc 9313 e13b 3bb4 553a 170f 13ba
000000c0: 3e68 ba38 7f90 92bb c6e1 dd3a f548 98bb
000000d0: 5bd5 92bb 962f 0eba 9df1 d0bb c508 8aba
000000e0: 63fa 01ba 7ff5 c83b 61d4 8539 77df 56bb
000000f0: ee71 bf3b a0ca 65bb 3405 a83b 2924 49bb
0.008355166 -0.0026955144 -0.0026537639 -0.0015068505 -0.0063585197 0.0034694958 -0.0038166516 -0.0022287176
0.004919268 -0.0056673647 -0.005768459 0.0055116867 -0.001130094 -0.004053157 -0.00027564383 -0.003633323
0.0008005522 0.0012677193 0.00061261136 0.0055437624 -0.004528836 0.0007908064 0.00038578664 0.0008223746
0.007284506 -0.0017780663 0.0036006116 0.0009571864 0.0021844294 -0.0057709133 0.0010135598 -0.00870939
-0.004494887 -0.0028509235 -0.003149014 0.0065062405 0.00034028635 -0.0062437556 0.008622789 0.0013206841
-0.00738414 -0.0049514105 0.00043713883 -0.0031373985 -0.008065351 0.0068687885 0.00081521616 -0.00056098535
8.888588e-05 -0.0044727917 0.0016928248 -0.004647369 -0.0044810004 -0.0005423961 -0.006376459 -0.0010531178
-0.000495827 0.006132781 0.0002552597 -0.0032787004 0.005842439 -0.00350634 0.0051275734 -0.003069172

node_encoder.layers.4.running_mean f4 [64]
00000000: f529 b7bd 1be7 7bbe a0be fdbd 5615 abbc
00000010: 4528 033d 0376 87be 34c3 c13d 49be 81bd
00000020: 2ef1 6abc 6b66 0d3e 6571 59be 986d 09be
00000030: 7dee 683d deb4 18bd 5726 963e 72d5 2e3e
00000040: 317f 893d 73b1 38be 6db6 18be 7809 4c3e
00000050: 0e41 c2bd 0d99 bcbd 2272 223d cd9a 403e
00000060: c98f fa3d 56dd 14be d63f e3bd c422 e8be
00000070: e787 1b3e 1333 e73e dd9a 6fbe b83a c0be
00000080: 1e23 193d 137e febe 570f 053e b1aa 2a3e
00000090: 7b94 7f3e 8b48 74be 9eb9 e03e ca1e 30be
000000a0: ed34 903e 46a2 0bbe 1bbb 6cbd a988 3c3e
000000b0: 2394 193c aea1 c33d 9848 373e d918 96be
000000c0: 3b8e 42be c8b9 13be 2384 3bbe ba73 35be
000000d0: abee afbd 2a31 2ebe c37e af3d 9416 4b3e
000000e0: 3fb1 09be f349 983e 7afe 983c 8c39 273e
000000f0: 0be1 d2bd b653 103e 9433 203e 4c37 7bbc
-0.089435495 -0.24599878 -0.123898745 -0.020884197 0.032020826 -0.26457223 0.0946106 -0.06335122
-0.014339728 0.138086 -0.21234663 -0.13420713 0.056868065 -0.037281863 0.29326126 0.1707361
0.06713713 -0.18036442 -0.1491334 0.19925487 -0.094850644 -0.092088796 0.039659627 0.18809052
0.12234456 -0.14537558 -0.1109616 -0.45339024 0.15188561 0.45156154 -0.2339892 -0.375448
0.037387006 -0.49705562 0.12994133 0.16666676 0.24958985 -0.23855798 0.43891615 -0.17199245
0.2816538 -0.13636121 -0.057795625 0.18411507 0.009373697 0.09552322 0.17898786 -0.29315832
-0.18999569 -0.14426339 -0.18312125 -0.17719927 -0.08590444 -0.17010942 0.085691 0.19832832
-0.1344652 0.2974392 0.018676031 0.16330546 -0.1029683 0.14094433 0.15644675 -0.015333008

node_encoder.layers.4.running_var f4 [64]
00000000: 44af 443e 8f60 473e e8ce 4d3e ef43 4e3e
00000010: 3e97 313e 474e 153e 76c5 aa3e 3a51 963e
00000020: 2da0 973e 061a 433e af01 1f3e c552 553e
00000030: 8b52 5e3e 925a 893e f28e 233e a2d2 283e
00000040: adda 463e 2435 443e 3504 223e eb6b 333e
00000050: 94a7 273e c022 9e3e 7d32 853e cda1 153e
00000060: 668c 733e 8794 833e ce9f 8c3e b98a 1c3e
00000070: b086 0f3e 4c61 633e 460a 333e 4c45 aa3e
00000080: 3ffe 163e cbf2 383e 25b5 353e eee7 563e
00000090: 22c0 433e 211f af3e 26ca 753e b1a5 193e
000000a0: 1bdb 6b3e e761 563e 5a3f 533e a148 8e3e
000000b0: 4b04 363e 49d4 553e 5499 3d3e 7696 7d3e
000000c0: 4a6d 5e3e fe5f 2f3e e340 2b3e b386 7d3e
000000d0: 46c2 923e d75c 393e d42c 883e 68e0 6c3e
000000e0: 2d48 9a3e 7203 2a3e 60b9 7d3e 9040 663e
000000f0: eb21 5a3e d350 913e 022b 863e e09d 7b3e
0.19207484 0.19470428 0.2009846 0.20143102 0.1734285 0.14580642 0.33353776 0.29358846
0.29614392 0.19052896 0.15527986 0.20832355 0.21711175 0.26826912 0.15972498 0.164866
0.19419356 0.19160897 0.15821917 0.17521636 0.1637252 0.30885887 0.26015082 0.14612503
0.23784027 0.25699255 0.2746567 0.15287293 0.14016223 0.22205085 0.17484388 0.33255994
0.14745425 0.18061368 0.17744882 0.20986912 0.19116262 0.34203437 0.24002895 0.15004613
0.23032801 0.20935784 0.20629635 0.27789786 0.17775075 0.20881762 0.18515521 0.24764428
0.21721378 0.17126462 0.16723971 0.24758415 0.28663844 0.18101822 0.265967 0.23132479
0.3013319 0.16602877 0.24777746 0.22485566 0.21302001 0.28381976 0.26204687 0.24571943

node_encoder.layers.6.weight f4 [32, 64]
00000000: db7a ae3d 1fd0 e1bd 62ee a4bd 03ab 47bc
00000010: d836 f4bd d54f edbd 811c e5bd 5c0d ce3d
00000020: 2a8f db3c e843 2bbd ea7b eaba cd1b e7bd
00000030: d30c f3bd 07d6 bbbd 43be fdbd 76c2 a53d
00000040: 33f9 32bd 5dd9 06bd f0c8 eabd 74f3 533c
00000050: c9ad 8dbc 860d afbd c0e9 a23d 99a3 d13d
00000060: 24fb bcbd ba49 8d3d 2002 90bc 58d6 d23b
00000070: ae12 603d f5fb d5bc e0d6 ea3d ed11 9c3d
00000080: 3f3f 97bd 9cd4 9ebd 3d04 02be 205f 113d
00000090: 9285 c8bd 4c00 d2bd 120b a7bd 2a11 01be
000000a0: efed d4bd 19bc d63d d696 993d 1405 de3d
000000b0: b003 6ebd 21de 4fbd c99f 57bd da98 5abb
000000c0: ca16 b6bd a2e4 573c a6db 93bd 49b5 ea3c
000000d0: b06e e33d 2ff8 973c 43af b13d 2de7 bbbd
000000e0: 8490 c1bc b5a5 a5bd 4374 9dbc f96a 55bd
000000f0: 27f4 9bbd 4dbd f2bd 9ee2 38bd b8fd 973c
00000100: 242b b2bc 5185 f0bd d1e9 b83d de9b b43d
00000110: f05d 9fbd db4c 473c 37dc b03d fb4a f8bd
00000120: 8bf7 dcbd b39e 853d 99c3 98ba 17c7 443d
00000130: cd88 55bd 0f1e 983c 60d5 a43d 9d56 f0bc
00000140: 7475 1dbd 9212 fbbd d14b bcbc 1003 9c3d
00000150: 7339 fabd 7b40 d9bb 0248 b53d 257b 09bd
00000160: fef4 49bd a0f1 20bd feaf 5dbd ded3 a03c
00000170: 6c25 00be b51d 2b3d 3a4e e8bc f5ea 79bc
00000180: 437e 03bc deeb 903d ae47 a0bd e73d f3bd
00000190: 80ac bebd cdcb b1bd 78a7 83bd 337d cf3d
000001a0: 8514 bdbd e177 94bd d79d d5bd 8417 77bd
000001b0: 1e6c c3bb bdb1 a2bd beb0 96bb 0742 353d
000001c0: 6df0 b3bc 8637 5d3d 9107 003d c200 f93d
000001d0: b82f 1ebc 4cea dc3d 22a8 c03d 1552 643d
000001e0: 0249 953d 01b4 afbd c21b aabd 13fd 633d
000001f0: 5866 383d 2c4b db3d 8d4c a6bc 92b0 dfbc
00000200: a0b4 ad3d be14 ea3b ebe9 ef3d 2a51 7bbd
00000210: c4d4 18bd 7ddb 60bb 2e01 783d 169e d9bd
00000220: 73d5 20bd 26af be3d 2b75 f53c 1672 ae3d
00000230: 599c 2ebd 6f7e 98bd 684a c1bd c198 8fbd
00000240: 07e3 b7bd a841 873d 08f5 1d3d 31bb 9ebd
00000250: 9b05 f23d aa70 073d 56aa 293d 64bb 6bbd
00000260: 0ac0 a63d 1fb1 b5bd 6d63 c03d ad6f 84bd
00000270: 6a95 5c3d 606a 4abd 094b a03d 3807 ddbd
00000280: f33f 91bc 0c68 19bd 7485 a3bd f525 77bd
00000290: 722e 2cbd 9b47 f53b 1bd2 b53d d45e b3bc
000002a0: ee20 f33d 5bc4 69bd b130 7abd 8130 d3bb
000002b0: f0ce a4bc 3348 343d 7af7 e73d 6cbc 203d
000002c0: f159 dbbd 3678 3abd 78d2 c6bc 9113 d7bd
000002d0: 03cc 0f3d 3f8a d73d 521f 753d 1bd2 1ebc
000002e0: 8463 51bc 34dd 80bd 2872 83bc 2120 dd3d
000002f0: 6fb5 8fbd 4d69 a33c 0829 b4bd 95a6 fcbc
00000300: 1213 fc3b 0f8c d1bd 35e7 153d c7dd e7bd
00000310: 221c 44bd 2ba0 b93d b7e1 003e b428 d1bb
00000320: 852c bdbd 0f7a c9bd eeb6 1cbd 1a74 8bbd
00000330: 95d2 c63d 45a2 b0bd 929d 953d d277 a03c
00000340: f9bc 22bd 0f71 d13d cba5 7b3d bceb ad3a
00000350: 0955 a7bd 3e42 2cbd 8262 303d 5c92 d73d
00000360: 7695 46bd 8098 37bd dbb0 fbbd 70d9 8e3d
00000370: 36d0 f23d 6a02 a73d 2dcf 9abd e6c3 aa3d
00000380: b118 2bbd fb2e 8f3d a351 8a3d a9f2 ccbd
00000390: 469d cf3c b5bc 6a3d a7a6 94bd 736b e43d
000003a0: 333e c03d eda1 e33d adab fb3b 3db1 84bd
000003b0: bbcf 95bd 9dc2 423d 75d1 b7bc 143c c33d
000003c0: 1c4f d63d ce39 433c e573 dabd 6e87 423d
000003d0: 9cf7 d63d 1e82 11bd f97f 8fbd 4998 14bd
000003e0: 38f7 383c dd1a ccbd d3c1 7d3d 04ec 7b3d
000003f0: f0cc 3dbd fc32 4cbd 7cb5 87bd 8eef ce3d
0.085195266 -0.11026024 -0.080532804 -0.012186768 -0.11924523 -0.115874924 -0.11187077 0.10061142
0.026801664 -0.041812807 -0.0017889712 -0.112845995 -0.118676804 -0.09171682 -0.12389805 0.08093731
-0.043694686 -0.032922138 -0.11464107 0.012936462 -0.017294781 -0.08547501 0.079547405 0.10236282
-0.09227589 0.06898828 -0.017579138 0.006434243 0.054705314 -0.026121119 0.114667654 0.076206066
-0.0738511 -0.07755396 -0.1269693 0.03549111 -0.097911015 -0.10253963 -0.08156408 -0.12604204
-0.10396945 0.104850955 0.07499473 0.10840812 -0.058108985 -0.050748948 -0.052642617 -0.0033355267
-0.088910654 0.013177069 -0.07219629 0.028650897 0.11105096 0.01855096 0.08676007 -0.09174953
-0.02362848 -0.08088247 -0.019220477 -0.05210397 -0.07614928 -0.118525125 -0.045137994 0.0185536
-0.021749087 -0.11744178 0.09028972 0.08818792 -0.07781589 0.01216432 0.08635753 -0.121236764
-0.107894026 0.0652441 -0.0011654972 0.04804143 -0.052132417 0.01856902 0.080485106 -0.029338175
-0.03844209 -0.122594014 -0.02298537 0.076177716 -0.12217989 -0.006630001 0.08851625 -0.033564705
-0.04930591 -0.03929293 -0.054122917 0.019632276 -0.12514275 0.041776378 -0.028357614 -0.015253772
-0.008025709 0.07076238 -0.07826172 -0.11877041 -0.093102455 -0.0868145 -0.064284265 0.10131302
-0.092324294 -0.072494276 -0.10430496 -0.06032516 -0.0059638163 -0.07944057 -0.004598706 0.04425242
-0.02196523 0.05400803 0.031257216 0.12158348 -0.009654932 0.10786876 0.09407069 0.055742342
0.07289316 -0.08579255 -0.08306076 0.055661272 0.045019478 0.10707697 -0.020300174 -0.027305875
0.08481717 0.007143586 0.11714538 -0.0613567 -0.037312284 -0.0034310513 0.060548 -0.106258556
-0.03926606 0.09310751 0.029963097 0.08517854 -0.042629573 -0.0744599 -0.0943802 -0.07011557
-0.08978849 0.0660432 0.038563758 -0.07750548 0.118174754 0.03306643 0.04142221 -0.057551757
0.08142097 -0.08871674 0.09393964 -0.06466613 0.05385343 -0.049417853 0.07826812 -0.107923925
-0.017730689 -0.037452742 -0.079844385 -0.060338933 -0.04203648 0.0074853427 0.08877965 -0.021895804
0.11871515 -0.057072025 -0.061081592 -0.006444991 -0.020118207 0.044014167 0.11326499 0.039242193
-0.10710514 -0.0455248 -0.024270281 -0.10501779 0.03510667 0.10524415 0.059844323 -0.009693648
-0.012780074 -0.06292191 -0.016045645 0.10797144 -0.070170276 0.019947672 -0.087968886 -0.030841151
0.007692703 -0.10231792 0.03659745 -0.113215975 -0.047878392 0.09063753 0.12586103 -0.006383026
-0.09237007 -0.09837734 -0.038260393 -0.06809254 0.09708134 -0.086247005 0.07305445 0.019588385
-0.039731 0.10226642 0.06143741 0.0013269107 -0.08170516 -0.04205536 0.043062694 0.10525963
-0.04848238 -0.04482317 -0.12289592 0.06975067 0.11856119 0.08154757 -0.07559047 0.08338146
-0.041771594 0.06991383 0.06753852 -0.10007221 0.025343549 0.05730887 -0.07258349 0.11153307
0.093868636 0.11114869 0.0076803775 -0.06479118 -0.07315012 0.04754888 -0.022438744 0.09532943
0.10464308 0.011915637 -0.106666364 0.047492437 0.104964465 -0.03552448 -0.07006831 -0.036278043
0.01128941 -0.09966061 0.061952423 0.06150438 -0.04633802 -0.04985331 -0.06626412 0.10104285

node_encoder.layers.6.bias f4 [32]
00000000: 78b3 8a3d a6f9 473d 58fe 753d 1c1d 8abc
00000010: 1257 b6bd c31e e2b9 6544 d53d a638 c93d
00000020: 0e88 82bd 74f2 9b3d 8a52 3e3d 124f 59bc
00000030: 0157 6f3d ed9c a33a 4857 cc3b bd99 93bd
00000040: 836d d1bb 7d59 e63d e478 8a3d 70b0 babd
00000050: 2c64 ba39 f9ef 8e3d 7438 33bd 4ba9 d9bb
00000060: 7353 573d adf0 c23d 7807 d43d 1cc4 a4bd
00000070: dcf9 dcbd 2cc0 a03d 08a3 bdba 52e5 d23d
0.06772512 0.048822068 0.060057014 -0.016859584 -0.08903326 -0.00043128998 0.10413436 0.09825258
-0.063736066 0.07614604 0.046465434 -0.013263481 0.058432583 0.0012482681 0.0062359907 -0.072070576
-0.0063912286 0.11247537 0.06761339 -0.09115684 0.00035551318 0.06979365 -0.04375501 -0.0066424957
0.052569818 0.095185615 0.10352987 -0.080452174 -0.107898444 0.07849154 -0.0014468143 0.10297646

edge_encoder.layers.0.weight f4 [64, 4]
00000000: b292 b63e 571e 4ebe e254 103e 31a2 243e
00000010: 3e05 32be 01f4 e63e 5766 473d 17ad 20be
00000020: a1c2 edbe 2529 ca3e 564b fbbe 6f9b c73e
00000030: b613 2abe f8dc b2bd 86c2 9c3d 59c5 fa3e
00000040: 0ada a3be 6ce0 b5be a619 9d3e a5ff 6ebe
00000050: 2a77 41be 96b3 903e a1eb 58be e9b1 9b3e
00000060: 35c6 4fbe cca0 c53e c3ec fc3e fc49 7c3d
00000070: 5be6 21be df5f 8d3e cb2c 163e 644f d33b
00000080: b74c e03e 96b0 cebc bbd4 3b3e 69a6 12be
00000090: 86e1 acbd 4b05 c9bc b906 253d 9f5d 603e
000000a0: 411c bf3e 1524 993e baec 5cbe 9a84 e33e
000000b0: 138f a93e ed4f 403e d4c3 733d fae2 8ebe
000000c0: e6ad 9cbe cf42 3a3c b556 babe 0d41 353e
000000d0: e5bb e5be c1e4 e0be 1b90 6dbe e55a 963e
000000e0: 096f cc3e 91f2 d4be f9e7 9ebe 6330 d83d
000000f0: b744 bbbd 8cda d0be 000a 103e e444 d1be
00000100: d60c 003d 95d1 493e 559b ed3e d1d1 d9be
00000110: 0b21 bf3e ea12 873d cfdd de3e 4e67 fd3e
00000120: 21c7 f3bd 83bf 90bd be09 03be 5110 cb3e
00000130: 649a 55be 262d ac3e 636e 543e 46ac ed3e
00000140: 1185 b63e 9b20 d03e 2f1e d1be 403e 8abe
00000150: e32a b3be 061f 833e db84 d43d 7e72 473e
00000160: 8228 473e 33ce d83c 4b19 3c3e e0a5 8ebe
00000170: 6ef8 a63e f161 dcbe 4f26 eabe e348 303e
00000180: 4610 f03e 5dfc 39be fc66 f13e 460b 36be
00000190: 6969 c6be efb1 a0bd 2c9b 893e a1fb 84be
000001a0: a6a6 f03e 75f0 6bbe ffc4 5fbe d588 5cbe
000001b0: 39d6 c3be 6f24 ed3e f0ac 90be be52 6bbe
000001c0: 8079 12be b9b5 d73e 5b8a 743e b05b 443e
000001d0: fd7b 0fbe 190f 833e 4d4c aa3d 7905 ce3e
000001e0: 3d7c f13d 7d16 be3e 72f9 ad3e e0c2 a63d
000001f0: 9a71 f0be 986b de3d 258d c4be 452e a33d
00000200: 5c5e 4fbd c1dd c73e 56a3 bbbe 5361 d3be
00000210: 096e 5c3e 2155 ab3e 55a4 e8bd b468 123e
00000220: 899a cb3e b47d 293d f752 12be 5d7d 973e
00000230: 2ce3 e73e 1154 b5bd df3e ac3e 03dc 0b3d
00000240: 9a55 cebd 07bc 2cbd e6df f9be 0d85 753e
00000250: c6d7 8abe 7a46 debe b313 82bd 357f 46be
00000260: 9779 a3be feb1 e6bd 6d71 41bd 1b3a 123e
00000270: caca 8f3d dea4 88bd 6f34 e53d 56da a2be
00000280: 8c83 db3e f456 7b3e 1355 9f3e ae58 e5be
00000290: 8b8a af3e 058b c13d 17fc f5be 6cc3 ef3e
000002a0: afe9 52bc 59e5 bc3d aed2 d03e dfa1 a93e
000002b0: a36d e53e baed ecbe 1887 fc3e 9ed7 f73d
000002c0: a600 583c f625 ccbe dd33 87be 5c74 f43e
000002d0: ef18 c03e 3542 c93e ebe7 12bd f53c 90be
000002e0: 0bfb e33d bb56 6dbe fbbc a9be 2071 273e
000002f0: fcd9 c43e 9f34 c8be 0d81 e5be 61cc 963d
00000300: c2bb 3cbe a3c7 88be cfdb c9bd 4ed3 0fbd
00000310: 1932 13be 62ef bb3e fbbc 8e3e 6ebb 1e3e
00000320: 17ee 29be 0224 40bd e749 a23e 773b 223d
00000330: 49d2 f9be 2af1 3e3d df05 833e 5821 02be
00000340: 1fe2 c6bd f0fc 98bd 8483 9a3e 387d cf3e
00000350: 49d5 c4be 3796 ab3e 605d 553e 11aa 313e
00000360: e37a 95be 21ac 8fbe 9ed5 fa3e 771a f93d
00000370: 7711 d9bd c1a8 c8bd 7acb ad3e 47de f7bd
00000380: 1128 af3e f9da 09be 63b0 eb3d 20a8 033e
00000390: c943 87be d1ea 9e3b c26f bd3d 80c7 f7be
000003a0: 4a97 bbbd 87a1 4f3d 2920 d63e f628 e33d
000003b0: e81c dcbe 1d4a 1ebe c66b fa3e d66c 8abd
000003c0: c815 bf3e cace 553d 9103 aa3e f878 59be
000003d0: 1a83 f83e 0eb1 e33d 0832 dcbd 99fc c33e
000003e0: b15c 733e 9ad3 b0be dd8b 0fbd 9833 b93e
000003f0: b576 fb3d 3afa 1abe 93b6 aabe 2fff aebe
0.35658795 -0.20128761 0.1409488 0.16077496 -0.17384812 0.45108035 0.048681583 -0.15691029
-0.46437553 0.39484516 -0.49080914 0.38985774 -0.16609082 -0.08733553 0.0765429 0.4897869
-0.32002288 -0.35522783 0.3068363 -0.23339708 -0.18893114 0.28262013 -0.21183635 0.30409172
-0.20290454 0.3859924 0.49399385 0.061593994 -0.1581053 0.27612206 0.14665525 0.006448673
0.4380853 -0.025230687 0.18342869 -0.14321293 -0.08441453 -0.024538657 0.040289614 0.21910714
0.37326244 0.2991034 -0.21574679 0.44437104 0.3311697 0.1878049 0.059512928 -0.27907544
-0.30601424 0.0113684675 -0.36394277 0.17700596 -0.44869915 -0.43924525 -0.23199503 0.29366222
0.39928463 -0.41591313 -0.31036356 0.10556104 -0.09143966 -0.40791738 0.14066315 -0.40872872
0.03126224 0.19708855 0.4640757 -0.4254289 0.37329897 0.065954044 0.43528602 0.49492878
-0.11903215 -0.07067778 -0.12796685 0.39660886 -0.20859677 0.33628196 0.20745234 0.46420497
0.35648397 0.40649876 -0.4084334 -0.27000618 -0.34993657 0.25609607 0.10376903 0.19477269
0.19449046 0.026465511 0.18369024 -0.27860928 0.32611412 -0.43043473 -0.45732352 0.17215304
0.46887416 -0.18162675 0.47148883 -0.17777738 -0.38752297 -0.07846438 0.268762 -0.25973228
0.47002143 -0.23040946 -0.21852492 -0.21536572 -0.38249376 0.4631686 -0.2825694 -0.22980782
-0.14304161 0.4213083 0.23880903 0.19175601 -0.14012142 0.25597456 0.083153345 0.4023855
0.11791275 0.37126532 0.33979374 0.08142638 -0.4696167 0.10860366 -0.38388935 0.079678096
-0.050627097 0.39036372 -0.36648053 -0.4128519 0.2152635 0.33463386 -0.11359469 0.14297754
0.39766338 0.041379645 -0.14289461 0.29587832 0.45290506 -0.08853925 0.33641717 0.034145366
-0.10074921 -0.042171504 -0.48803633 0.23976536 -0.27117747 -0.43413144 -0.063514136 -0.19384463
-0.31928703 -0.11264418 -0.047227312 0.14279978 0.07021101 -0.06672071 0.111916415 -0.31807202
0.428738 0.24544889 0.31119594 -0.4479422 0.34285387 0.09450344 -0.48043892 0.46828783
-0.012873097 0.09223432 0.40785736 0.3313131 0.4481021 -0.4627512 0.49321818 0.121016726
0.013183748 -0.39872712 -0.26406756 0.47745025 0.37519023 0.39308324 -0.035865705 -0.28171507
0.11131867 -0.23177616 -0.33151993 0.16351748 0.3844756 -0.39102647 -0.4482502 0.07363201
-0.18430999 -0.2671481 -0.09856378 -0.035113625 -0.1437458 0.36706072 0.27878556 0.15501186
-0.1659473 -0.04690934 0.31697008 0.03960749 -0.48793247 0.04661671 0.25590417 -0.12708032
-0.09711098 -0.07470119 0.30178463 0.40525222 -0.38443974 0.33513042 0.20836401 0.17350031
-0.29195318 -0.2806101 0.48991102 0.12163251 -0.10599034 -0.09797812 0.33944303 -0.12102943
0.34210256 -0.13462438 0.115082525 0.12857103 -0.26418903 0.0048497696 0.09249832 -0.48394394
-0.091597155 0.050691154 0.4182141 0.11091797 -0.42990804 -0.1545796 0.4891035 -0.0675904
0.37321305 0.052199163 0.33205846 -0.21237552 0.48537523 0.11117755 -0.1075173 0.38278654
0.23765828 -0.3453644 -0.035045493 0.36172175 0.12278501 -0.15134516 -0.33342418 -0.34179065

edge_encoder.layers.0.bias f4 [64]
00000000: bb35 893e df7f 5d3e acbe ddbe da0b bebd
00000010: 7fe7 ee3d 4465 ddbe 1c84 d73e 0e85 32bd
00000020: b5d0 45be 6b18 3c3d 6dce 2e3e ff50 cf3d
00000030: f4aa ed3e c604 8b3e 9693 1ebd a729 9a3d
00000040: a3e1 e33d 4fe6 40be 3142 d6be acf4 31bd
00000050: 74da 38be 58b8 ecbe 516e 2c3e 5aa6 4cbe
00000060: d8fd ef3e e8f2 2c3e d0dd 4f3e 7e15 0b3e
00000070: a582 3d3e 6bd0 9e3e 75f6 b63e b53b 92bc
00000080: 8400 07be 7594 003e 80d6 5cbe dfe3 82bc
00000090: 2559 0b3e 5e99 5a3e 1384 f2be db15 3c3e
000000a0: 1b11 3cbe 1837 afbe 00df 4fbe d6d3 16bb
000000b0: eff5 713e 72e5 debe 54ef 003e 1e8c e13e
000000c0: 7b89 8bbe 7171 e03d 4ba9 43be 6a7f e73d
000000d0: 0987 533e de99 98be 89c9 e03d 44ec f73e
000000e0: 1cc8 d03c 829d b0be 17f0 63ba 3e97 cd3d
000000f0: 8d80 133e d592 d8bc fa3b c7bd 4063 74be
0.26798806 0.2163081 -0.43309534 -0.09279604 0.11665248 -0.43241322 0.4209298 -0.043583922
-0.19317897 0.045921724 0.17070933 0.10122871 0.4641949 0.2715208 -0.038714968 0.07527476
0.11127021 -0.18837856 -0.41847375 -0.043446228 -0.18052083 -0.46234393 0.16838957 -0.19985333
0.46873355 0.16889536 0.20299459 0.13582417 0.18506868 0.31018385 0.35734907 -0.017850736
-0.1318379 0.12556632 -0.215662 -0.015977798 0.13608225 0.21347567 -0.4736639 0.18367712
-0.183659 -0.3422172 -0.20299911 -0.0023014448 0.23628972 -0.43534428 0.12591296 0.44052213
-0.27253327 0.10959137 -0.19107549 0.11303599 0.2065698 -0.2980489 0.1097594 0.48422444
0.025486045 -0.3449517 -0.0008695139 0.10038613 0.14404507 -0.026437202 -0.097282365 -0.23865986

edge_encoder.layers.1.weight f4 [64]
00000000: c73a 7f3f d984 803f f4fb 7e3f 028c 803f
00000010: 0037 803f 17dd 803f ec01 7e3f 3fa1 803f
00000020: 2942 803f 7e61 803f 04de 803f 641f 803f
00000030: 3902 7e3f 18ea 7d3f 3d58 7e3f c929 7f3f
00000040: bcfa 7d3f 46b5 7e3f e57c 7f3f a4f6 7e3f
00000050: e7d2 7e3f 848d 7e3f 5e04 803f 7653 7f3f
00000060: f32c 7f3f 6000 7f3f ad25 803f f2ce 803f
00000070: 7c5b 803f a189 7e3f e7e3 7d3f 4e3e 7e3f
00000080: b476 803f 6e74 7f3f ab1d 803f c264 7e3f
00000090: a448 7e3f 6ca2 7d3f 025f 803f ac60 7e3f
000000a0: 1560 803f b7b6 7f3f 59d6 7f3f 195c 803f
000000b0: b32c 803f 5ae7 7d3f 84b7 803f b3c8 7d3f
000000c0: e0f6 7f3f 3200 7e3f 5567 803f 7d2e 7e3f
000000d0: e0cf 7e3f 839b 7e3f 2ab2 803f 84a2 7f3f
000000e0: 2f2a 7f3f d177 803f 3fba 7f3f 130f 7f3f
000000f0: 1fdc 7f3f eeab 803f b7a8 7e3f b075 803f
0.9969906 1.0040542 0.996032 1.0042727 1.0016785 1.0067471 0.9922168 1.0049208
1.002019 1.0029752 1.0067754 1.000958 0.9922214 0.99185324 0.9935339 0.99673134
0.99210715 0.9949535 0.9979995 0.99595094 0.9954056 0.99434686 1.0001333 0.99736726
0.9967796 0.9960995 1.0011498 1.0063155 1.0027919 0.99428755 0.99175876 0.9931382
1.0036225 0.9978703 1.0009054 0.99372494 0.9932959 0.9907596 1.0028994 0.9936626
1.0029322 0.99888176 0.99936444 1.0028106 1.0013641 0.9918114 1.0056005 0.9913437
0.99986076 0.9921905 1.0031534 0.99289685 0.9953594 0.9945604 1.0054371 0.99857354
0.9967374 1.0036565 0.99893564 0.99632376 0.99945253 1.0052469 0.9947619 1.0035915

edge_encoder.layers.1.bias f4 [64]
00000000: 6473 a33a c441 4a3b 8d1f a6bb 9d0c ce3b
00000010: ed01 9d3b 93ac de3b 4ac7 f3bb 4a47 c23b
00000020: 7cd6 6a3b aaa5 ae3b c637 eb3b 3aea 253b
00000030: c825 febb e5a4 fcbb 946d d1bb d9c5 29bb
00000040: 99a3 f8bb 2c13 adbb 6513 a8ba 451f 1dbb
00000050: 1e95 79bb 80ea 86bb f791 a53a fcda 95ba
00000060: c189 2ebb c261 6ebb f467 a03a 8812 e63b
00000070: 36b8 133b 56b7 bebb e6df 08bc 3353 cfbb
00000080: ec65 7b3b 7e90 35ba cde0 373b 0e65 c4bb
00000090: 3c95 d6bb 5b52 0bbc b3bb 2b3b 533c bcbb
000000a0: 9182 863a b20f 8b39 3f99 79b9 1ef2 6c3b
000000b0: 2951 4e3b 592d d0bb 864f b83b 89db 0ebc
000000c0: 3e16 30ba e839 f0bb 2cb3 7a3b b5d2 e8bb
000000d0: 17f8 80bb 17d4 93bb cf22 d23b 049a f2ba
000000e0: fa27 c9bb 130c 063b a506 0fbb 442a 03bb
000000f0: 24e2 9139 304f d23b f5ed 05bc 0410 2abb
0.0012470302 0.0030861953 -0.005069679 0.0062881247 0.0047914893 0.006795475 -0.0074395286 0.0059289085
0.003583341 0.0053298073 0.0071782796 0.0025316612 -0.0077559687 -0.0077100866 -0.0063912366 -0.002590528
-0.0075878617 -0.0052818265 -0.0012823163 -0.0023974937 -0.0038083266 -0.00411731 0.0012632002 -0.001143306
-0.00266324 -0.0036374186 0.0012238012 0.007021252 0.0022540218 -0.005820195 -0.008354163 -0.006327057
0.003836031 -0.0006926133 0.0028057576 -0.005993492 -0.006548552 -0.008503522 0.0026204407 -0.005744496
0.00102623 0.0002652384 -0.00023803579 0.0036155055 0.003148148 -0.006353062 0.0056247143 -0.008719333
-0.00067171815 -0.0073311217 0.0038253767 -0.0071051964 -0.0039358246 -0.004511367 0.006412841 -0.0018509035
-0.006138799 0.0020453974 -0.0021824029 -0.0020014206 0.00027825043 0.0064181313 -0.008174409 -0.0025949487

edge_encoder.layers.1.running_mean f4 [64]
00000000: 6621 7b3e 3950 3b3e 85e2 bbbe 04f5 86bd
00000010: ea70 c23d cf0c bebe 1df9 bb3e 8492 36bd
00000020: a156 37be 5b30 523d e123 2f3e 803d a33d
00000030: d259 d73e ddb6 833e 41b1 d4bc 4650 5e3d
00000040: 1503 a03d ad17 1dbe cd10 b5be 5734 e3bc
00000050: 37e9 2dbe ed57 cfbe 97bf 0d3e e191 27be
00000060: b36e cf3e 95a1 0d3e 9be0 353e dc11 e63d
00000070: 6350 2b3e 9b84 933e 28ea a03e 74ec 55bc
00000080: ca1c 09be 5495 f13d 2663 37be 9ddf 8dbc
00000090: 8215 0c3e 8b57 3e3e 1050 d3be 3af7 1a3e
000000a0: f31f 3ebe c48e 8fbe bd7b 31be cb0a 29ba
000000b0: 3320 703e 80b3 cbbe 9df4 ff3d 981a cd3e
000000c0: 3bf0 76be e315 cc3d 008d 30be d43f bf3d
000000d0: 2625 4a3e deb7 86be 13e5 cd3d c757 d73e
000000e0: 73be fa3c ad0a a7be 78a1 0f3a b78d ab3d
000000f0: b80d f23d 46cf 22bc 7ad8 91bd 8097 62be
0.24524459 0.18292321 -0.36696258 -0.06589702 0.09494193 -0.37119147 0.36713496 -0.044573322
-0.1790414 0.051315647 0.1710353 0.079707146 0.42060715 0.2572545 -0.025963427 0.054275773
0.07813088 -0.15341063 -0.3536438 -0.027734919 -0.16983496 -0.4049677 0.13842617 -0.16364242
0.40514144 0.1383117 0.17761461 0.11233875 0.16729884 0.28812107 0.31428647 -0.013056863
-0.13389888 0.1179606 -0.17908916 -0.017318541 0.1368008 0.18588082 -0.4127202 0.15133372
-0.18566875 -0.2803861 -0.17332359 -0.00064484467 0.23449783 -0.39785385 0.12497828 0.40059352
-0.24115078 0.09965112 -0.17241287 0.09338346 0.19740734 -0.26312155 0.10053458 0.42059156
0.030608391 -0.32625332 0.0005479078 0.08376639 0.11819023 -0.009937113 -0.07121368 -0.22128105

edge_encoder.layers.1.running_var f4 [64]
00000000: c7c0 203e 1d37 153e c8b1 a53e 814e 053e
00000010: 3926 543e 3abe 263e 4611 993e 3e57 153e
00000020: d778 2f3e f95d fd3d 37df 373e 6955 123e
00000030: 1abd 623e bd8a 4e3e 72e6 643e 27c1 193e
00000040: 0b94 863e d653 873e 62b3 093e 96e4 293e
00000050: 282a 863e 8167 1c3e 9fd2 183e e1c8 933e
00000060: d068 993e 31cc 433e c8c8 423e 7b17 5b3e
00000070: e6e5 343e 1b6c 0a3e 0823 573e 8f05 7f3e
00000080: ff54 623e 5fb5 153e 08f1 213e b4d2 663e
00000090: c2e0 8c3e acbb 1a3e ad64 0e3e 41f2 053e
000000a0: e93d 5d3e e2d6 933e 64c1 6b3e ec8f a73e
000000b0: ac2b 393e edd0 1f3e 4243 4b3e 0671 923e
000000c0: 3831 0e3e 4a40 3f3e c7e3 433e 5240 4c3e
000000d0: fdfe 3a3e f1dd 393e 7f9a 973e 3f9c 4a3e
000000e0: 71b3 183e 0e0a 0d3e 4b6e 703e 7496 9c3e
000000f0: a5e5 593e 64c3 283e 9309 113e 5e7a 493e
0.15698539 0.14571805 0.323622 0.13018228 0.20717706 0.16283503 0.2989599 0.14584062
0.1713594 0.123714395 0.17956243 0.14290394 0.22142449 0.20170112 0.22353533 0.15015088
0.26284823 0.2643115 0.13447335 0.16591105 0.26204038 0.15273859 0.14924096 0.28864196
0.29962778 0.19120862 0.19021904 0.21395676 0.17665824 0.13517801 0.21009457 0.24904464
0.22102736 0.14619969 0.15814602 0.22541314 0.27515227 0.15110654 0.13905592 0.13080694
0.21605648 0.2887488 0.23022991 0.3272699 0.18083066 0.15607043 0.19849876 0.28601855
0.13885963 0.18676868 0.19129859 0.19946411 0.18261333 0.1815107 0.2961006 0.19786166
0.14912201 0.13773367 0.23479573 0.30583537 0.21279009 0.16480786 0.14163809 0.19675586
