gnn/gnn_outputs/checkpoint_epoch_50.pt (torch, 971676 bytes, 208 tensors)

node_encoder.layers.0.weight f4 [64, 3]
0	0x3ee4e17e	0.44703287
1	0x3ef24191	0.47315648
2	0xbe0fe1c0	-0.1405096
3	0x3f098887	0.5372395
4	0xbdfba86f	-0.122879855
5	0x3dd9c1b5	0.1063265
6	0xbe8978c9	-0.26849964
7	0x3eb2c335	0.34914556
8	0x3f042b11	0.51628214
9	0xbed2cfd6	-0.4117419
10	0x3f03cfe9	0.5148912
11	0x3dbf5863	0.0934303
12	0x3edc95b0	0.43082952
13	0x3d926a85	0.07149223
14	0x3e8c9737	0.27459118
15	0xbdb97001	-0.09054566
16	0x3edf88ff	0.43659207
17	0x3dbe5749	0.09293992
18	0xbe90051d	-0.281289
19	0x3e1b7793	0.15182333
20	0xbe7de921	-0.24795963
21	0xbd8566a6	-0.06513719
22	0xbe68a7b9	-0.22720231
23	0x3ec78eb8	0.38976073
24	0xbeec307e	-0.46130747
25	0xbe8321e2	-0.25611788
26	0xbe27bffa	-0.16381827
27	0xbeacb8b2	-0.3373466
28	0x3d6ba732	0.057532497
29	0xbf145969	-0.5794893
30	0x3f0479a8	0.5174813
31	0xbefb8f68	-0.49132848
32	0x3ee64166	0.4497177
33	0x3dcab52a	0.098978356
34	0xbe34c5d5	-0.17653592
35	0x3eba6e3d	0.3641223
36	0x3db73e1a	0.08947392
37	0x3ef092bb	0.46986946
38	0x3d6eaf40	0.0582726
39	0xbe3ae833	-0.1825264
40	0x3e1cac47	0.15300094
41	0xbe2623f1	-0.16224648
42	0x3e76f0de	0.24115321
43	0x3efdb328	0.49550748
44	0x3eb26b7d	0.34847632
45	0xbe7074f3	-0.23482113
46	0x3eb10a52	0.34578186
47	0x3dd0db4f	0.1019808
48	0x3e96beef	0.29442546
49	0xbeb093c1	-0.34487727
50	0xbf1473a3	-0.5798895
51	0xbe614547	-0.21999083
52	0xbeeaae96	-0.45836323
53	0x3eecf6b2	0.46281964
54	0x3e25ea51	0.16202666
55	0x3e74ec3e	0.23918244
56	0x3e4479d1	0.19187094
57	0xbc673e93	-0.01411404
58	0x3eebcfd8	0.4605701
59	0xbecd6ef7	-0.40123722
60	0x3cfdbb0d	0.030972982
61	0xbecd1e06	-0.4006197
62	0x3e2fab08	0.17155087
63	0xbe4a94e2	-0.19783357
64	0x3e328d26	0.17436656
65	0xbdfae6e4	-0.1225107
66	0x3ef5ade1	0.47984222
67	0xbeb26ee4	-0.34850228
68	0xbeadec2f	-0.33969256
69	0xbeb6541f	-0.35611054
70	0x3f01ae4b	0.50656575
71	0x3e41c878	0.18924129
72	0x3f0d0650	0.5508776
73	0xbef35526	-0.475259
74	0xbf1394bd	-0.5764883
75	0xbee80223	-0.4531413
76	0xbec91939	-0.39277056
77	0x3e65349a	0.22383347
78	0x3e4e56d4	0.2015031
79	0x3ef9a1ab	0.48756155
80	0xbe94f818	-0.2909553
81	0xbec1726b	-0.37782606
82	0x3ea2d314	0.31801665
83	0xbe6c95b4	-0.23103982
84	0x3eb2fd2b	0.34958777
85	0xbe138e1b	-0.14409678
86	0x3ea685e0	0.32524014
87	0xbef06fbe	-0.46960253
88	0xbe8fa432	-0.2805496
89	0x3e363110	0.17792153
90	0x3dff0e38	0.12453884
91	0xbe0ee102	-0.13953021
92	0x3eb3c4bd	0.35111037
93	0x3ec61d8d	0.3869442
94	0xbed927c0	-0.4241314
95	0xbe9c291d	-0.30500117
96	0x3f0754d7	0.5286383
97	0xbe5244bb	-0.20534031
98	0xbe4cc099	-0.19995345
99	0xbf0d6f63	-0.5524809
100	0xbeac33ff	-0.3363342
101	0x3e114fbd	0.14190574
102	0xbdafa8db	-0.085771285
103	0xbed19e48	-0.40941072
104	0x3b69a0e1	0.003564887
105	0xbecc6e9b	-0.39928135
106	0xbf02a7fd	-0.5103758
107	0xbe9a8f86	-0.30187625
108	0xbf02650a	-0.50935423
109	0xbebb9c0a	-0.36642486
110	0x3f12889d	0.57239705
111	0x3de10e71	0.109890826
112	0x3e418886	0.18899736
113	0xbf069a38	-0.5257907
114	0xbec203b7	-0.3789346
115	0xbe43af17	-0.1910976
116	0x3dbce657	0.09223621
117	0xbf00ccd3	-0.50312537
118	0xbe7cd06b	-0.2468888
119	0xbeb44bf7	-0.35214207
120	0x3c17944b	0.009251664
121	0xbe63c2eb	-0.22242324
122	0xbd07b0ca	-0.033127584
123	0xbed01215	-0.40638795
124	0xbecbeeca	-0.3983062
125	0xbea7146d	-0.3263277
126	0xbe4f0259	-0.2021574
127	0xbeeadd0f	-0.4587178
128	0x3ef5e30c	0.48024786
129	0xbde3fdeb	-0.111324154
130	0x3ef7c2c4	0.48390782
131	0x3e46ae2f	0.19402383
132	0xbef95348	-0.4869635
133	0x3ed23029	0.41052368
134	0xbe204795	-0.15652306
135	0xbe6811be	-0.22663018
136	0xbef594ee	-0.47965187
137	0xbf1244f9	-0.57136494
138	0x3e320f05	0.17388542
139	0xbdf903db	-0.121589385
140	0x3e588e35	0.21147998
141	0xbef1da69	-0.47236946
142	0x3eda3359	0.426173
143	0xbeda1240	-0.4259205
144	0xbdd0b9c6	-0.101916835
145	0x3dea3583	0.11435988
146	0x3e9d534c	0.30727613
147	0x3ef718dc	0.48261154
148	0x3f062974	0.52407
149	0xbee38fcc	-0.44445646
150	0x3e12a7c3	0.14321809
151	0xbe8543ad	-0.26028195
152	0xbd614352	-0.054995842
153	0xbedfd063	-0.43713674
154	0x3f04e660	0.51914024
155	0xbedc1937	-0.42987987
156	0x3ea0de9c	0.31419837
157	0x3e446811	0.19180323
158	0x3e43ac41	0.19108678
159	0xbe9d1525	-0.30680194
160	0x3f079fc0	0.52978134
161	0x3dfdf952	0.1240107
162	0x3d9b15c8	0.07572514
163	0xbf03fbfe	-0.51556385
164	0x3e6fe1b9	0.2342595
165	0xbda43bd3	-0.08019223
166	0xbe8634ec	-0.2621225
167	0x3eff55ac	0.4987005
168	0x3e07fef7	0.13280855
169	0xbea2b8cc	-0.31781614
170	0xbe94ff36	-0.2910096
171	0xbd12d20b	-0.035844844
172	0x3ea3c442	0.3198567
173	0xbe18dbaf	-0.14927553
174	0xbea325d6	-0.31864804
175	0xbe4fdfc3	-0.20300202
176	0xbee3b802	-0.44476324
177	0x3e45ff85	0.19335754
178	0x3ededfb6	0.43530053
179	0xbf0e87b4	-0.55675817
180	0x3e1849e0	0.14871931
181	0x3e9162f2	0.28395802
182	0x3de8db8c	0.1137
183	0xbe5914cb	-0.21199338
184	0x3e9722db	0.2951878
185	0x3e9e37eb	0.30902037
186	0x3e5e46b0	0.21706653
187	0xbdcc20f8	-0.09967226
188	0xbe1b3c90	-0.15159822
189	0x3d8a72fb	0.06760212
190	0xbdc0ccd4	-0.09414068
191	0xbe3860ef	-0.18005727

node_encoder.layers.0.bias f4 [64]
0	0x3ea3dc40	0.32003975
1	0x3ee4d36c	0.44692552
2	0xbc7b7497	-0.015347621
3	0xbda8abca	-0.08235891
4	0x3969cc77	0.0002229678
5	0xb9b204c7	-0.00033954365
6	0x3dbbb101	0.0916462
7	0x3de9e1f3	0.114200495
8	0xbef33c85	-0.4750711
9	0xbe28d4b2	-0.16487387
10	0x3edfb7b1	0.43694833
11	0x3e34c910	0.17654824
12	0x3ac9dd3b	0.0015401015
13	0xbe9927ed	-0.29913273
14	0xbe9bc85c	-0.304263
15	0xbeef8b93	-0.46786174
16	0xbe0f99a8	-0.14023459
17	0x3e1675a3	0.14693312
18	0x3ea36d22	0.319192
19	0x3e5f3149	0.21796145
20	0xbeec0da4	-0.46104157
21	0xbe98b695	-0.298268
22	0xbd3b49bc	-0.045724615
23	0x3f025859	0.5091606
24	0x3d1e5f8b	0.038665336
25	0xbdd124d6	-0.10212104
26	0x3e42fe9d	0.1904244
27	0xbe2fb998	-0.17160642
28	0xbea63bd4	-0.3246752
29	0x3ebe994b	0.37226328
30	0xbe5b145f	-0.2139449
31	0xbd8dbd2f	-0.069208495
32	0xbf066531	-0.52498156
33	0x3eacb958	0.33735156
34	0x3ec6c8cd	0.38825074
35	0x3e261d89	0.16222204
36	0xbeb4fa56	-0.3534724
37	0xbf053b04	-0.52043176
38	0xbed6e1ea	-0.41969234
39	0x3ec342f8	0.3813703
40	0x3e6a00aa	0.22851816
41	0x3edf888f	0.43658873
42	0x3e81e23f	0.25367925
43	0x3dca530e	0.09879123
44	0x3997e0a3	0.00028968332
45	0xbec7a2c2	-0.38991362
46	0xbee4064a	-0.44536048
47	0xbefb3beb	-0.4906915
48	0x3e40748f	0.18794464
49	0xbe706773	-0.23476963
50	0xbd8e84eb	-0.06958946
51	0xbe911598	-0.28336787
52	0xbd72248e	-0.059116893
53	0xbeb6ea51	-0.35725644
54	0xbea80f0c	-0.3282398
55	0x3e12f39f	0.14350747
56	0xbdfda982	-0.12385847
57	0x3e9d6ac0	0.30745506
58	0xbe0c9c16	-0.13731417
59	0xbebfae25	-0.3743755
60	0xbd64dbe9	-0.055873785
61	0xbe6cbf44	-0.23119837
62	0xbe03f96e	-0.12888119
63	0xbf00179d	-0.5003603

node_encoder.layers.1.weight f4 [64]
0	0x3f80fd41	1.0077287
1	0x3f7f167d	0.9964369
2	0x3f7de1c4	0.99172616
3	0x3f8014ac	1.0006309
4	0x3f7e4310	0.9932108
5	0x3f80b200	1.0054321
6	0x3f7b407e	0.9814528
7	0x3f809a43	1.0047077
8	0x3f7eccd7	0.9953131
9	0x3f7e20df	0.9926891
10	0x3f7fadb5	0.9987443
11	0x3f809533	1.0045532
12	0x3f803881	1.0017244
13	0x3f82236d	1.0167061
14	0x3f7dc7b6	0.9913286
15	0x3f7fe4e2	0.9995862
16	0x3f7ba7fe	0.9830321
17	0x3f7e6f47	0.99388546
18	0x3f7cd037	0.9875521
19	0x3f80517e	1.002487
20	0x3f80aff9	1.0053703
21	0x3f7d78ed	0.99012643
22	0x3f806f0c	1.0033889
23	0x3f7ea73b	0.99473923
24	0x3f80d80c	1.0065932
25	0x3f8117fe	1.0085447
26	0x3f802d09	1.0013744
27	0x3f81fca7	1.0155228
28	0x3f7e5e63	0.9936277
29	0x3f80a4ec	1.005033
30	0x3f8034ee	1.0016153
31	0x3f80d24e	1.006418
32	0x3f7f99f6	0.998443
33	0x3f80b797	1.0056027
34	0x3f8189f7	1.0120229
35	0x3f806edd	1.0033833
36	0x3f81400f	1.0097674
37	0x3f810776	1.0080402
38	0x3f7ee693	0.9957058
39	0x3f7e25b6	0.9927629
40	0x3f8088c4	1.0041738
41	0x3f7f9ba8	0.9984689
42	0x3f80b20f	1.0054339
43	0x3f7fe39e	0.9995669
44	0x3f7fb4ea	0.9988543
45	0x3f7dd80c	0.99157786
46	0x3f80c3b6	1.0059726
47	0x3f80bf4f	1.0058383
48	0x3f7f3c26	0.99701154
49	0x3f7e4112	0.9931804
50	0x3f81cfd7	1.0141553
51	0x3f81c882	1.0139315
52	0x3f7d3497	0.9890837
53	0x3f804a05	1.0022589
54	0x3f7e4e43	0.9933817
55	0x3f7e752e	0.9939755
56	0x3f7c9f33	0.9868042
57	0x3f7f686f	0.9976873
58	0x3f7dc8ed	0.99134713
59	0x3f80ac44	1.0052571
60	0x3f7d8a15	0.9903882
61	0x3f7cca31	0.9874602
62	0x3f7d58d8	0.9896369
63	0x3f7ca6a4	0.98691773

node_encoder.layers.1.bias f4 [64]
0	0x3a58c762	0.00082694564
1	0xbb8f9e37	-0.0043828744
2	0xbc0bb484	-0.008526925
3	0x3c7025ca	0.014657447
4	0xbc78ab1d	-0.015177515
5	0x3c0b694a	0.00850899
6	0xbccb1b93	-0.024793422
7	0x3bbe4895	0.0058069923
8	0xbc9eb281	-0.019372227
9	0xbbb4dc21	-0.0055194055
10	0x3be9edf7	0.0071389633
11	0xbb6a5506	-0.0035756244
12	0x3b2ba833	0.0026192784
13	0x3ac8f34c	0.0015331297
14	0xbb53f928	-0.0032344554
15	0x3bd9000e	0.006622321
16	0xbbc49e49	-0.0060003144
17	0x3a6e7e45	0.0009097795
18	0xbc1152cd	-0.008869839
19	0xbb56ba42	-0.0032764827
20	0xbbda741f	-0.0066666747
21	0xbbccf7aa	-0.00625511
22	0x3a2374fa	0.00062353874
23	0x3b159de7	0.0022829713
24	0x39c23b88	0.00037046918
25	0xbc072dd4	-0.008250672
26	0x3c913c3a	0.017728914
27	0x3c4b4d5e	0.0124085825
28	0xbc301385	-0.010746841
29	0xbb6da153	-0.0036259487
30	0x3bb8d1ed	0.0056402595
31	0x3b26c055	0.0025444229
32	0xbb155191	-0.0022784213
33	0xbc237bbd	-0.009978232
34	0x395ea782	0.00021233971
35	0xbb0dba96	-0.0021626106
36	0x3c0daf82	0.008647801
37	0x3c1bb784	0.009504203
38	0xbbcedcf4	-0.0063129608
39	0xbb2398fb	-0.002496301
40	0x3bf05acb	0.007335042
41	0xbc56caf5	-0.013109912
42	0xbbb73ab6	-0.0055917157
43	0x3bfb8510	0.0076757744
44	0x3bbb0575	0.0057074376
45	0x3b206541	0.0024474415
46	0x3898d933	7.288381e-05
47	0xbc1cb3ea	-0.009564379
48	0x3b550152	0.0032502008
49	0xbbbb7582	-0.005720795
50	0x3c0fc0b8	0.008773975
51	0x3ca73307	0.020410074
52	0x3b47a94d	0.0030465901
53	0x3baf81bc	0.0053560417
54	0xbc0c35d7	-0.008557758
55	0xbcc08fb1	-0.023506017
56	0xbc11980e	-0.00888635
57	0xbb98fd42	-0.0046688626
58	0xbc2fd214	-0.010731239
59	0x3c0de3d5	0.008660276
60	0xbbfcaae0	-0.0077107996
61	0x3c0b35e1	0.008496732
62	0xb95b9b61	-0.0002094335
63	0xbc573f9c	-0.013137724

node_encoder.layers.1.running_mean f4 [64]
0	0x3f473a1f	0.7782306
1	0x3f365cc6	0.7123531
2	0x3ea54624	0.32280076
3	0x3d820e8f	0.06350433
4	0x3ed340aa	0.41260272
5	0x3e893096	0.2679488
6	0xbdb0fd61	-0.08642078
7	0x3e1560c6	0.14587697
8	0xbf76cbfd	-0.9640501
9	0xbf1c1748	-0.60973024
10	0x3f24594b	0.6419875
11	0x3e9f9014	0.3116461
12	0x3ebc41e8	0.36769032
13	0xbec70e1a	-0.38877946
14	0x3e9b6d4a	0.30356818
15	0xbea8ee88	-0.32994485
16	0xbf009991	-0.50234324
17	0xbbf19f8e	-0.0073737567
18	0x3f27b792	0.6551448
19	0x3e956153	0.29175815
20	0xbf1b9c68	-0.6078553
21	0xbeb9a878	-0.36261344
22	0xbe40aa56	-0.18814978
23	0x3f3cdec7	0.7377743
24	0xbe8529ff	-0.26008603
25	0xbef05e4d	-0.46946946
26	0x3ee6c45a	0.4507168
27	0xbe9874c4	-0.29776585
28	0xbd87748d	-0.06614027
29	0x3d4b4d8c	0.0496345
30	0xbd6bdd32	-0.057583995
31	0xbe94065f	-0.2891111
32	0xbef6c133	-0.48194274
33	0xbda7b761	-0.081892736
34	0x3dc73c80	0.09728336
35	0xbf035935	-0.51307994
36	0xbf0e372b	-0.5555293
37	0xbf1f70b3	-0.6228134
38	0xbf31684d	-0.69299775
39	0xbe592de3	-0.2120891
40	0x3daba024	0.08380154
41	0xbe3e92f9	-0.18610753
42	0x3df0bd28	0.11754829
43	0x3ee2e97c	0.4431876
44	0xbdaa3041	-0.08309985
45	0xbf8d5b75	-1.1043535
46	0xbea5ff0c	-0.32421148
47	0xbf3348bd	-0.70032865
48	0x3ebc6eb9	0.36803225
49	0x3ddae123	0.10687473
50	0xbe3fe6c0	-0.18740368
51	0xbed66a98	-0.418782
52	0x3ea32812	0.3186651
53	0xbe0730b3	-0.13202171
54	0xbefb057f	-0.4902763
55	0x3e4ee44e	0.20204279
56	0xbecf8ee2	-0.40538698
57	0x3ed3b3d1	0.41348127
58	0xbf29e7e0	-0.6636944
59	0xbe97abd9	-0.29623297
60	0x3e811295	0.2520949
61	0xbbaa39e9	-0.0051948917
62	0xbe23e826	-0.16006526
63	0xbf1edf7d	-0.62059766

node_encoder.layers.1.running_var f4 [64]
0	0x3d2eeaf3	0.042704534
1	0x3cba9532	0.02277622
2	0x3d378172	0.044801183
3	0x3d0ae00c	0.033905074
4	0x3cbfcfe3	0.023414558
5	0x3c992d0e	0.018698242
6	0x3c5e2229	0.013557949
7	0x3cb02d9c	0.021506123
8	0x3ce565f1	0.028002711
9	0x3d36372c	0.04448621
10	0x3d6a86d7	0.0572575
11	0x3c8d097e	0.01721644
12	0x3cba2f73	0.022727704
13	0x3bdd73c3	0.0067581846
14	0x3d352eb3	0.04423399
15	0x3c72b90e	0.014814628
16	0x3d59b22b	0.05314843
17	0x3d436607	0.047704723
18	0x3c4c29b9	0.012461119
19	0x3d13abe1	0.03605259
20	0x3c8fdc64	0.017561145
21	0x3bd4d0fb	0.006494639
22	0x3d1ca118	0.03823957
23	0x3d0ad5b4	0.03389521
24	0x3d9b807c	0.07592866
25	0x3d1ffbf2	0.039058633
26	0x3d1339b8	0.035943717
27	0x3cba21ed	0.022721255
28	0x3cad0695	0.021121303
29	0x3cf80685	0.030276546
30	0x3c804912	0.015659843
31	0x3d1085e0	0.035283923
32	0x3cdf27dc	0.027240686
33	0x3d23751d	0.03990661
34	0x3c8b6e42	0.017020348
35	0x3d539f78	0.051665753
36	0x3d918b07	0.071065955
37	0x3d0c48c4	0.034249082
38	0x3c89aa4c	0.016804837
39	0x3d29f0b6	0.041489325
40	0x3b9bcce4	0.0047546495
41	0x3d310735	0.043219764
42	0x3d478759	0.048713062
43	0x3cd6ba98	0.026212022
44	0x3cff8f82	0.03119636
45	0x3d84b405	0.064796485
46	0x3c011a25	0.0078797685
47	0x3d42d07d	0.04756211
48	0x3c4875d7	0.012235126
49	0x3d8e0b01	0.069356926
50	0x3bf3d15f	0.0074407305
51	0x3d5889d7	0.05286583
52	0x3c8686b3	0.016421651
53	0x3d018c38	0.031627864
54	0x3cf242b1	0.029572817
55	0x3d09ecf8	0.033673257
56	0x3ca08cfc	0.019598477
57	0x3c3cf551	0.011533097
58	0x3d0eded6	0.03488048
59	0x3d606724	0.054785863
60	0x3c40cf12	0.011768119
61	0x3cac9989	0.021069305
62	0x3bd8af56	0.0066126985
63	0x3b9993aa	0.0046867924

node_encoder.layers.3.weight f4 [64, 64]
0	0x3d771508	0.06032279
1	0xbd9d31cc	-0.076755136
2	0x3d5499d1	0.051904503
3	0x3d49317c	0.049119458
4	0x3da7c9c0	0.08192778
5	0xbdd12768	-0.10212594
6	0x3da46079	0.08026213
7	0xbd8e645c	-0.06952736
8	0x3d2df8a7	0.04247346
9	0x3deaaae1	0.11458374
10	0xbbeaaa01	-0.0071613793
11	0xbbf10e32	-0.0073564285
12	0xbd1220ce	-0.035675816
13	0xbde5aee3	-0.112149976
14	0x3d51d4b1	0.05122823
15	0xbe06f96b	-0.13181083
16	0x3db211b3	0.08694782
17	0x3da71503	0.081583045
18	0x3ddf76f6	0.10911362
19	0xbd0a9e18	-0.033842176
20	0xbdbc1e94	-0.0918552
21	0x3ca59090	0.020210534
22	0x3da34533	0.07972183
23	0xbe0785bc	-0.1323461
24	0xbc94e019	-0.018173264
25	0xbdab91c2	-0.083774105
26	0xbc8e4c16	-0.017370265
27	0xbd8ed952	-0.06975044
28	0xbd5d4a8d	-0.054026175
29	0xbd4a01d4	-0.04931815
30	0xbe00e122	-0.12585881
31	0x3de7a13e	0.113100514
32	0x3dee5d58	0.11638898
33	0xbceaf4b1	-0.028681131
34	0xbbc55008	-0.0060215034
35	0xbd454a2e	-0.048166446
36	0xbe096727	-0.13418256
37	0xbdec91dc	-0.11551258
38	0x3d172ff6	0.036910973
39	0xbd92622f	-0.07147633
40	0xbd907a71	-0.07054604
41	0xbc01a22b	-0.007912199
42	0xbd55bd3f	-0.052182432
43	0xbd41f70b	-0.04735474
44	0xbb697a42	-0.003562585
45	0xbca8be9d	-0.020598704
46	0xbd319dbe	-0.043363325
47	0xbd8a248e	-0.067452535
48	0xbde7c3f4	-0.11316672
49	0x3dcb1008	0.09915167
50	0xbd1ef393	-0.03880651
51	0x3cdbd3ef	0.026834456
52	0xbd580318	-0.052737325
53	0x3b4737b4	0.0030398192
54	0x3e02d096	0.12774882
55	0x3d3d1003	0.046157848
56	0xbdca58fa	-0.09880252
57	0x3d36a33e	0.044589274
58	0x3df52a85	0.119710006
59	0x3cfaa00b	0.030593893
60	0x3d99c812	0.075088635
61	0x3de7a96d	0.11311612
62	0xbc08b624	-0.008344207
63	0x3d0ef258	0.034899086
64	0xbdcb0f65	-0.09915046
65	0xbc9efdb1	-0.019408079
66	0x3dd03bcb	0.101676546
67	0x3d7ef1c2	0.062242277
68	0xbd8f9481	-0.07010747
69	0xbdc6c19f	-0.09704899
70	0xbdc3d423	-0.09561946
71	0xbdde4c98	-0.10854453
72	0xbdc5cba5	-0.09657983
73	0xbd18f573	-0.037343454
74	0x3dbce639	0.09223599
75	0x3d073f01	0.03301907
76	0xbdc966c3	-0.09834053
77	0xbde61a89	-0.1123553
78	0x3d905af0	0.07048595
79	0xbdb91207	-0.090366416
80	0xbc0b6bdb	-0.0085096015
81	0x3d95ae38	0.0730862
82	0xbd45f855	-0.04833253
83	0xbcc42236	-0.023942094
84	0xba96b497	-0.0011497912
85	0xbd301585	-0.042989273
86	0xbd61153c	-0.05495189
87	0xbddb1508	-0.10697371
88	0xbdbe0a28	-0.09279281
89	0xbd804e89	-0.062649794
90	0x3de15704	0.11002925
91	0xbd9710aa	-0.07376225
92	0xbd9acca0	-0.0755856
93	0x3d05d076	0.032669507
94	0x3d3e4963	0.046456706
95	0x3d9ded45	0.07711271
96	0x3dd0cb2e	0.101950034
97	0x3d8fcbc1	0.07021285
98	0xbdebc04b	-0.11511286
99	0x3c83c97a	0.016087282
100	0x3dba0ed5	0.0908486
101	0xbca40f17	-0.020026727
102	0xbd969145	-0.07351927
103	0x3df44c0d	0.11928568
104	0xbd1b02fb	-0.03784464
105	0xbd89d6e6	-0.06730442
106	0xbdcc0ba3	-0.09963157
107	0x3c480032	0.012207078
108	0x3d27f1c5	0.041002054
109	0x3d03d41a	0.032184698
110	0x3d0ae64a	0.033911027
111	0xbddb3d46	-0.10705046
112	0xbdd0254d	-0.101633646
113	0xbc102d2a	-0.00879983
114	0x3dfbf1e5	0.12301997
115	0x3d73cd70	0.059522092
116	0xbd8cc45f	-0.06873392
117	0xbc6522d9	-0.013985359
118	0xbda8de3a	-0.08245511
119	0xbd39611d	-0.04525863
120	0x3cf70595	0.030154029
121	0x3d67d593	0.056600165
122	0x3dd40a87	0.103535704
123	0xbdfe31bd	-0.124118306
124	0x3da97bb8	0.082755506
125	0xbda4c47b	-0.08045288
126	0x3d60f4c2	0.05492092
127	0x3de57829	0.11204559
128	0xba8338f7	-0.0010011484
129	0x3dff5e05	0.12469105
130	0xbdf4f9bd	-0.11961696
131	0xbd14ff28	-0.03637615
132	0x3da75475	0.08170406
133	0xbcb3b131	-0.021935077
134	0xbc9856ef	-0.01859614
135	0xbd700ff6	-0.05860897
136	0x3dab3ddf	0.0836141
137	0x3d8ab6f4	0.06773177
138	0x3d1c9ddd	0.038236488
139	0xbd9cf673	-0.07664194
140	0xbdcf34d9	-0.10117502
141	0x3ca790a7	0.020454718
142	0x3d0db5d2	0.034597225
143	0xbd412272	-0.04715199
144	0xbd08905a	-0.03334079
145	0x3d9f7b16	0.07787149
146	0x3c2d7f09	0.01058937
147	0x3c3e88e7	0.01162932
148	0xbd106c6d	-0.035259653
149	0xbdd80df2	-0.10549535
150	0xbde72341	-0.11286021
151	0xbd4afcc9	-0.04955748
152	0xbd831bac	-0.06401762
153	0x3d01816b	0.031617563
154	0xbd0b7426	-0.034046315
155	0xbd2897b7	-0.04116031
156	0x3dfdcb72	0.1239232
157	0x3d154728	0.036444813
158	0x3daa087f	0.08302402
159	0xbd63da2a	-0.05562798
160	0xbd2aca75	-0.041696984
161	0x3d1fe02f	0.039032158
162	0xbdb7092d	-0.08937297
163	0xbdaea235	-0.08527032
164	0xbc5bad81	-0.013408066
165	0xbd2ce45a	-0.04220996
166	0xbdcda342	-0.100409046
167	0x3da2cce2	0.079492345
168	0x3dc3fd04	0.09569743
169	0x3c9f613e	0.019455548
170	0xbce6f436	-0.02819262
171	0xbde42350	-0.11139548
172	0xbd14f577	-0.036366906
173	0x3d11642d	0.035495926
174	0x3d660f63	0.056167018
175	0xbc12d494	-0.008961815
176	0xbd756297	-0.059908476
177	0x3d8f4287	0.06995111
178	0xbdcb75bc	-0.099345654
179	0x3dafb641	0.08579684
180	0xbd32f5dd	-0.043691505
181	0x3c3bd974	0.011465419
182	0xbced6baa	-0.028982002
183	0x3c098594	0.008393664
184	0xbd1c1a64	-0.038111106
185	0x3dc83195	0.09775082
186	0x3b3e550e	0.0029042396
187	0x3dd046b9	0.10169739
188	0x3ded473a	0.11585851
189	0xbda013a4	-0.07816246
190	0xbdb6f131	-0.08932722
191	0x3dd3054a	0.10303743
192	0x3db73a47	0.089466624
193	0xbdb1c0c5	-0.08679346
194	0xbbb8ee1f	-0.0056436206
195	0xbe0598b9	-0.1304654
196	0xbdc1cd81	-0.09463025
197	0x3c7fc7bd	0.015611586
198	0x3cada0b3	0.021194791
199	0x3cfecf7c	0.031104796
200	0xbd00df09	-0.031462703
201	0x3dd3ac30	0.103355765
202	0x3cd07f03	0.025451189
203	0xbd8a1487	-0.067421965
204	0xbc57483d	-0.013139782
205	0x3c96b90c	0.018398784
206	0x3d49f347	0.049304273
207	0xbdc17eb3	-0.09447994
208	0x3d2b11b9	0.04176495
209	0xbd6cdac5	-0.057825822
210	0xbdc793e1	-0.097450025
211	0xbd9fdb2b	-0.07805475
212	0x3e03342c	0.1281287
213	0x3dc2b9d7	0.095081024
214	0x3df423aa	0.11920865
215	0x3d8caa93	0.06868472
216	0x3dce703e	0.10080002
217	0xbc463e45	-0.012099807
218	0xbd9f5e23	-0.07781627
219	0x3d4fe4b8	0.050755233
220	0xbd6b2a5b	-0.05741344
221	0xbda4f9c4	-0.080554515
222	0xbd09108d	-0.03346305
223	0x3d1893f9	0.037250493
224	0x3d8c09fd	0.068378426
225	0xbd37fcef	-0.04491895
226	0xbd87d13b	-0.066317044
227	0x3cac5584	0.02103687
228	0xbd8f37f3	-0.06993093
229	0xbdbc162c	-0.091839164
230	0x3d8c2e8f	0.06844818
231	0xbcb79cc0	-0.022413611
232	0x3df9ad71	0.121912844
233	0x3dfe7f34	0.12426606
234	0x3d323721	0.043509606
235	0x3d29c351	0.041446034
236	0x3c90c730	0.017673105
237	0x3ab88a96	0.0014079388
238	0xbb02510b	-0.001988473
239	0xbc2188fb	-0.009859319
240	0x3d4ba780	0.049720287
241	0x3ddb55a5	0.10709695
242	0xbcb99ff0	-0.022659272
243	0xbd834185	-0.06408981
244	0xbcc9b13b	-0.024620643
245	0xbd8a9d63	-0.067683004
246	0x3ceca4af	0.028887121
247	0x3dc7c3d1	0.09754146
248	0x3dde8730	0.10865629
249	0x3d44af2c	0.04801862
250	0xbdc85178	-0.09781164
251	0xbd9cf908	-0.076646864
252	0xbcf187f7	-0.029483778
253	0xbc8414c3	-0.016123181
254	0x3c339d5c	0.01096281
255	0xbdf747e0	-0.12074256

node_encoder.layers.3.bias f4 [64]
0	0x38685394	5.539095e-05
1	0x3c83912d	0.016060436
2	0xba81ab37	-0.0009892945
3	0xbd39b38c	-0.045337245
4	0x3c27784e	0.010221554
5	0x3cf3b7d7	0.029750748
6	0xbcb4c6cb	-0.022067448
7	0xbd1526dc	-0.036414012
8	0xbd246dd1	-0.04014379
9	0xbc96ccbf	-0.018408177
10	0xb866a943	-5.499391e-05
11	0x39b1e8be	0.00033933477
12	0x37b4d57e	2.1557087e-05
13	0x39b260fd	0.00034023068
14	0x3d07e4ca	0.033177175
15	0xb998de13	-0.00029157157
16	0xbceaed9a	-0.02867775
17	0x39b37d6e	0.00034234993
18	0xbcf19b09	-0.029492872
19	0xbbb636c7	-0.005560729
20	0xbd921728	-0.07133323
21	0xbaca3b22	-0.0015429
22	0xbd519215	-0.051164705
23	0x3c0acbe3	0.008471462
24	0x3d265720	0.040610433
25	0xbd429ab0	-0.047510803
26	0xbcbaf44d	-0.02282157
27	0xbd58feaf	-0.05297726
28	0xb958e22c	-0.00020683621
29	0xbaef7fb5	-0.0018272313
30	0xbcb0cb73	-0.021581387
31	0x3d004376	0.031314336
32	0x3c36c3b3	0.011155057
33	0xbd88480c	-0.06654367
34	0x3993d83b	0.0002819913
35	0xbc4fd355	-0.012684663
36	0x3ac63881	0.0015123041
37	0x3cd52033	0.02601633
38	0xba1efbf4	-0.00060647656
39	0xbd2adb33	-0.04171295
40	0x3d2f2974	0.042764142
41	0xbd8ae113	-0.06781211
42	0xbb9d4456	-0.004799406
43	0x3c09579c	0.008382704
44	0x3d83729a	0.06418343
45	0x3d98d977	0.07463353
46	0x3ab7d6e4	0.0014025834
47	0x3b83c021	0.0040207063
48	0xbd820b51	-0.06349815
49	0x3aef8def	0.0018276552
50	0xbb1b5687	-0.0023702697
51	0x3a2c7364	0.0006578474
52	0xbd1839c3	-0.03716446
53	0xbae9cf6d	-0.0017838307
54	0x3cb12090	0.021621972
55	0x3d53c0a0	0.051697373
56	0x3ab8a210	0.0014086384
57	0x3d8abed5	0.067746796
58	0xbd927c29	-0.07152588
59	0xba23e86a	-0.0006252589
60	0x3c00552e	0.007832808
61	0xba35650e	-0.00069196604
62	0x3c8975ee	0.016779866
63	0xbd1c2fe8	-0.038131624

node_encoder.layers.4.weight f4 [64]
0	0x3f7d0dc8	0.98849154
1	0x3f813c04	1.009644
2	0x3f7f4164	0.99709153
3	0x3f7faab2	0.99869835
4	0x3f7f7c8e	0.9979943
5	0x3f808da2	1.0043223
6	0x3f807c0d	1.0037857
7	0x3f8026c4	1.001183
8	0x3f801831	1.0007383
9	0x3f7ef70a	0.995957
10	0x3f7ba201	0.98294073
11	0x3f810c42	1.0081866
12	0x3f7ef4e6	0.99592435
13	0x3f7ecbb7	0.99529594
14	0x3f8088ae	1.0041711
15	0x3f7cf965	0.98818046
16	0x3f8056ca	1.0026486
17	0x3f80e9c4	1.007134
18	0x3f7d5ae2	0.989668
19	0x3f7f79ba	0.99795115
20	0x3f80cd97	1.0062741
21	0x3f811458	1.0084333
22	0x3f7f51fb	0.9973447
23	0x3f81366a	1.0094731
24	0x3f81cfc0	1.0141525
25	0x3f82b782	1.0212252
26	0x3f808f62	1.0043757
27	0x3f80dc43	1.0067219
28	0x3f7b95db	0.98275536
29	0x3f7e768d	0.99399644
30	0x3f7d8927	0.990374
31	0x3f7b5f64	0.9819243
32	0x3f800ade	1.0003316
33	0x3f8176d4	1.0114388
34	0x3f810e56	1.00825
35	0x3f80f778	1.0075521
36	0x3f7fb0ea	0.99879324
37	0x3f7e26f8	0.9927821
38	0x3f7f3ef7	0.9970545
39	0x3f829150	1.0200596
40	0x3f7fe6f3	0.99961776
41	0x3f7f6162	0.9975797
42	0x3f7d5791	0.9896174
43	0x3f7f1983	0.996483
44	0x3f80bf2e	1.0058343
45	0x3f81a395	1.0128046
46	0x3f804444	1.0020833
47	0x3f7f0fe8	0.99633646
48	0x3f8154bf	1.0103987
49	0x3f7f0185	0.99611694
50	0x3f804c36	1.0023258
51	0x3f7e0704	0.99229455
52	0x3f7e7640	0.99399185
53	0x3f7fe848	0.9996381
54	0x3f7e3f08	0.9931493
55	0x3f80f83e	1.0075758
56	0x3f7e51b2	0.9934341
57	0x3f80b999	1.005664
58	0x3f7e5456	0.99347436
59	0x3f7f8a53	0.9982044
60	0x3f80dc46	1.0067222
61	0x3f7f6e1b	0.9977738
62	0x3f7f6053	0.99756354
63	0x3f7f2e7d	0.9968031

node_encoder.layers.4.bias f4 [64]
0	0xbb8d7109	-0.0043164534
1	0x3b196bf5	0.0023410295
2	0xbb6ac2ab	-0.0035821598
3	0xbb3ad1d3	-0.0028506413
4	0xbc068f98	-0.008212946
5	0x3ba38063	0.00498967
6	0x3a60bef6	0.0008573377
7	0xbc0bcf80	-0.008533359
8	0x3bcd9067	0.0062733176
9	0x39f706b5	0.00047116508
10	0xbca4271f	-0.020038186
11	0x3bc86e2e	0.00611665
12	0x3c24be20	0.010055095
13	0xbaf0d066	-0.0018372654
14	0xbba9a323	-0.005176918
15	0xbc183224	-0.009289298
16	0x3bfbdcf4	0.007686252
17	0x3a5a15f5	0.0008319312
18	0x3b9260b1	0.004467093
19	0x3bd89ee0	0.0066107363
20	0x3b90ba02	0.004416705
21	0x3c917d1e	0.017759856
22	0xb9926f4d	-0.00027930216
23	0x3a009caa	0.0004906157
24	0x3c42c608	0.011888035
25	0x3c76125f	0.015019028
26	0x3beaa8ba	0.007161227
27	0xbb742899	-0.0037255643
28	0xbbf19812	-0.0073728645
29	0xbb9ed3ba	-0.004847017
30	0xbb498d8d	-0.0030754537
31	0xbc813518	-0.015772387
32	0xbbb2e94b	-0.0054599396
33	0x3c115fa1	0.008872897
34	0x3b0bd643	0.0021337427
35	0x3ba551db	0.0050451583
36	0xbbcb0248	-0.0061953403
37	0xbc135fae	-0.00899498
38	0x3bbbfaa9	0.005736668
39	0x3c73beb9	0.014877015
40	0xbbacc24e	-0.0052721864
41	0x3b1e1df2	0.0024126736
42	0x3b56540e	0.003270391
43	0xb9c25163	-0.000370632
44	0xbbdb2f6a	-0.006689002
45	0x3bf8fda9	0.007598598
46	0x3bd91597	0.006624888
47	0x395da500	0.0002113767
48	0x3c0a40b9	0.008438283
49	0x3be28f62	0.006914065
50	0x3c6b97f3	0.014379489
51	0xbc0db5fd	-0.008649346
52	0xbc162b9c	-0.009165671
53	0x3bf617e1	0.007510171
54	0xbb2fa62d	-0.002680193
55	0x3c423d07	0.01185537
56	0xbbc76f2c	-0.0060862508
57	0xbc6376d8	-0.013883315
58	0xbbf3c6bb	-0.007439462
59	0xbc2011bf	-0.009769856
60	0x3bcd7f64	0.0062712897
61	0xbb26c407	-0.0025446431
62	0x3c337178	0.010952346
63	0xbbbbd9e9	-0.005732764

node_encoder.layers.4.running_mean f4 [64]
0	0xbe2a53c6	-0.1663352
1	0xbe8c23b6	-0.27370995
2	0xbdf412e4	-0.119176656
3	0xbc149ba6	-0.009070313
4	0x3c027a2c	0.007963698
5	0xbebc0caa	-0.36728412
6	0x3df0f701	0.11765862
7	0x3c1b6d0d	0.009486449
8	0x3ce0f24b	0.027459284
9	0x3e2ced79	0.16887464
10	0xbe7c2921	-0.24625064
11	0xbe25ee02	-0.16204074
12	0x3cdaeaae	0.026723232
13	0xbdc2e26f	-0.09515845
14	0x3e9c2f22	0.3050471
15	0x3dd5903c	0.10427901
16	0x3d76a16e	0.060212545
17	0xbe102cc0	-0.14079571
18	0xbe45fcce	-0.19334719
19	0x3e78370b	0.24239747
20	0xbcdf1b50	-0.027234703
21	0xbe26097d	-0.16214557
22	0x3d7afbf3	0.061275434
23	0x3e4e3cde	0.20140406
24	0x3d45b19a	0.048265077
25	0xbe48be03	-0.19603734
26	0xbd3ee57f	-0.046605583
27	0xbef9d69d	-0.4879655
28	0x3de88c5f	0.11354899
29	0x3ef699ad	0.4816412
30	0xbe826c0b	-0.25473055
31	0xbee6bd6f	-0.450664
32	0xbdc3428f	-0.095341794
33	0xbf0d2979	-0.5514141
34	0x3e351855	0.17685063
35	0x3e6419ad	0.2227542
36	0x3e908347	0.28225157
37	0xbe9fd6a7	-0.31218454
38	0x3ee7cfde	0.45275778
39	0xbe150133	-0.14551239
40	0x3e95f07f	0.29285046
41	0xbe35a61e	-0.1773915
42	0xbdf78359	-0.120855995
43	0x3dde2dfb	0.10848614
44	0xbbdff80e	-0.0068349903
45	0x3e056e4d	0.13030358
46	0x3e417365	0.18891676
47	0xbec5c945	-0.3863012
48	0xbe16cd13	-0.14726667
49	0xbdd84100	-0.10559273
50	0xbe64267b	-0.22280304
51	0xbe9dda87	-0.30830786
52	0xbe10bb5b	-0.1413397
53	0xbe76f1b3	-0.24115638
54	0xbc8bdf23	-0.017074173
55	0x3e12afa5	0.14324816
56	0xbe41725e	-0.18891284
57	0x3ea02810	0.31280565
58	0x3dce3a41	0.10069705
59	0x3e8b8d73	0.27256355
60	0xbd0ca6de	-0.034338824
61	0x3dd9bd3a	0.10631795
62	0x3e0cb148	0.13739502
63	0x3de9055f	0.113779776

node_encoder.layers.4.running_var f4 [64]
0	0x3e04a671	0.12954117
1	0x3dc30d79	0.09524054
2	0x3db3d81c	0.08781454
3	0x3de4c2e7	0.11169987
4	0x3db8861f	0.090099566
5	0x3d00f3b6	0.03148242
6	0x3e8561c8	0.26051164
7	0x3e401f91	0.18762042
8	0x3e4c313b	0.19940655
9	0x3dae041e	0.08496879
10	0x3d041a7d	0.032251824
11	0x3db4c0d7	0.08825844
12	0x3e32c7d2	0.17459038
13	0x3e41822b	0.18897311
14	0x3d230993	0.039804053
15	0x3d696ba6	0.056987427
16	0x3de7327e	0.112889275
17	0x3e062ac7	0.13102256
18	0x3d4c8d93	0.049939703
19	0x3d729cba	0.059231497
20	0x3da15d29	0.07879097
21	0x3e779e26	0.24181423
22	0x3e59a4fd	0.21254344
23	0x3cc44962	0.023960773
24	0x3e1028a9	0.1407801
25	0x3e1c51d1	0.15265585
26	0x3e5119a0	0.20419931
27	0x3d5868ce	0.052834325
28	0x3d1360c0	0.03598094
29	0x3df2e44c	0.118599504
30	0x3d9c820b	0.07641991
31	0x3e561d04	0.20909506
32	0x3d5c1df4	0.053739503
33	0x3d76d499	0.060261343
34	0x3d8eb1ea	0.06967528
35	0x3de691d0	0.1125828
36	0x3deecc2e	0.11660038
37	0x3ec1feb7	0.37889645
38	0x3e3d8d41	0.18510915
39	0x3d6f7a50	0.058466256
40	0x3dfe28ce	0.124101266
41	0x3e1e5c75	0.15464957
42	0x3e092745	0.13393886
43	0x3e6e5a46	0.23276624
44	0x3db945e9	0.090465374
45	0x3e1614b7	0.1465634
46	0x3df8f579	0.12156195
47	0x3e2df108	0.16986477
48	0x3e01b659	0.12667216
49	0x3db6ca73	0.08925333
50	0x3dcebe02	0.10094835
51	0x3e09153b	0.13387005
52	0x3e592340	0.21204853
53	0x3dc54ae5	0.096334256
54	0x3e4fa55f	0.20277928
55	0x3e0c1842	0.13681129
56	0x3e646a12	0.22306088
57	0x3d38f188	0.045152217
58	0x3e03a0a0	0.12854242
59	0x3dd47182	0.103732124
60	0x3dd6a1ec	0.10480103
61	0x3e4fc7dc	0.20291084
62	0x3e3de756	0.18545279
63	0x3e1d7a96	0.15378794

node_encoder.layers.6.weight f4 [32, 64]
0	0x3dbb5fcc	0.09149131
1	0xbde19f05	-0.11016659
2	0xbda05a93	-0.07829776
3	0xbc5234e3	-0.012829992
4	0xbdf60428	-0.120125115
5	0xbdedafa3	-0.11605766
6	0xbdde0e2c	-0.10842547
7	0x3dcdc8ff	0.100481026
8	0x3c95dbf0	0.018293351
9	0xbd2d012a	-0.04223744
10	0xbb37a325	-0.0028020826
11	0xbdeac773	-0.11463823
12	0xbdf3af56	-0.11898677
13	0xbdbb21c4	-0.091373
14	0xbe052638	-0.1300286
15	0x3da07fcb	0.078368746
16	0xbd3da7cd	-0.046302605
17	0xbd207a54	-0.03917916
18	0xbde2fde6	-0.110835835
19	0x3c3f821f	0.011688738
20	0xbc88eb6c	-0.01671382
21	0xbdb904bd	-0.09034107
22	0x3d975891	0.073899396
23	0x3dcd55b3	0.100261115
24	0xbdc7e400	-0.097602844
25	0x3d9c2033	0.07623329
26	0xbc8419f6	-0.01612566
27	0x3c63d850	0.013906553
28	0x3d6e64c9	0.058201585
29	0xbcee9b99	-0.02912693
30	0x3dd08798	0.101821125
31	0x3d91a607	0.07111745
32	0xbda06979	-0.07832617
33	0xbd8e7d87	-0.06957536
34	0xbe06953b	-0.13142864
35	0x3d084b0b	0.03327469
36	0xbdd873e5	-0.1056898
37	0xbdc68c3c	-0.09694716
38	0xbdaafe04	-0.08349231
39	0xbe02432f	-0.12720941
40	0xbdd9ffd2	-0.10644497
41	0x3de8750a	0.113504484
42	0x3d983db1	0.07433642
43	0x3dd86d92	0.10567774
44	0xbd7b4efd	-0.061354626
45	0xbd4c99db	-0.049951416
46	0xbd47bc6f	-0.04876369
47	0xbc03b09d	-0.008037713
48	0xbdc68106	-0.09692578
49	0x3c632f15	0.013866206
50	0xbda589b1	-0.08082903
51	0x3d0b1fe7	0.03396597
52	0x3ddda741	0.10822917
53	0x3c41dd5d	0.011832562
54	0x3daf916d	0.0857266
55	0xbdc8eaed	-0.098104335
56	0xbcc1cad6	-0.02365629
57	0xbdb6c3de	-0.089240775
58	0xbca1f7c4	-0.019771464
59	0xbd5b2f29	-0.053511772
60	0xbd9c02f1	-0.076177485
61	0xbdefe061	-0.11712719
62	0xbd3db21f	-0.046312448
63	0x3c977875	0.018490056
64	0xbc861052	-0.016365204
65	0xbddf3745	-0.10899214
66	0x3da3257f	0.07966136
67	0x3dac71b9	0.084201284
68	0xbd938e60	-0.0720489
69	0x3c5aa4f0	0.013344988
70	0x3d9d3b7e	0.07677363
71	0xbdfd0753	-0.123549126
72	0xbdd37618	-0.10325259
73	0x3d8833b1	0.06650484
74	0x3bf8ee47	0.0075967642
75	0x3d4f00f7	0.05053803
76	0xbd6bcfd9	-0.057571266
77	0x3c9bf37e	0.019037005
78	0x3d9d2e60	0.07674861
79	0xbcdc08b3	-0.026859617
80	0xbd391a82	-0.045191295
81	0xbe03fba8	-0.12888968
82	0xbc8e6d13	-0.017385995
83	0x3d9b9e99	0.075986095
84	0xbdfd53fa	-0.12369533
85	0xbb847391	-0.004042097
86	0x3dadb438	0.084816396
87	0xbca1bb6a	-0.019742686
88	0xbd5330af	-0.0515601
89	0xbd41cd85	-0.04731514
90	0xbd48330b	-0.048876803
91	0x3d150f7b	0.036391716
92	0xbddf4d71	-0.10903443
93	0x3d2989f4	0.041391328
94	0xbc7fccc1	-0.015612782
95	0xba66946b	-0.000879592
96	0xbb816c7e	-0.003949701
97	0x3d9b06be	0.07569645
98	0xbda18bfa	-0.078880265
99	0xbdffe992	-0.12495722
100	0xbdca631a	-0.098821834
101	0xbdbad48d	-0.09122572
102	0xbd86a98b	-0.065753065
103	0x3de85e0b	0.11346062
104	0xbdb32c90	-0.08748734
105	0xbd91caf5	-0.07118789
106	0xbdc867fc	-0.097854584
107	0xbd82bc0f	-0.063835256
108	0x3b79e55c	0.0038131094
109	0xbda804a6	-0.082040116
110	0xb9b8245e	-0.0003512231
111	0x3d5fd8b7	0.054650035
112	0xbcc4ab8a	-0.024007577
113	0x3d5b6c2a	0.05356995
114	0x3d183d4b	0.03716783
115	0x3dfd0eae	0.123563156
116	0xb9179420	-0.00014455663
117	0x3dd762b1	0.10516871
118	0x3dc591b3	0.096469305
119	0x3d811f8a	0.06304844
120	0x3dab5359	0.08365507
121	0xbdbb0cb4	-0.09133282
122	0xbd9864ae	-0.07441078
123	0x3d3cfb36	0.04613801
124	0x3d349b9f	0.044093724
125	0x3dccf131	0.10006941
126	0xbc8c68f7	-0.017139895
127	0xbce7c51b	-0.02829223
128	0x3dae6984	0.08516219
129	0x3c96ac41	0.018392684
130	0x3e00c803	0.12576298
131	0xbd6ff98d	-0.0585876
132	0xbd11529d	-0.035479177
133	0xbbc6f769	-0.006071974
134	0x3d799ff8	0.060943574
135	0xbde387df	-0.111099
136	0xbd385a46	-0.045007966
137	0x3dc2aed1	0.09506
138	0x3cfbf7c5	0.030757794
139	0x3da5a5ab	0.08088239
140	0xbd32f331	-0.043688957
141	0xbd9fb99b	-0.07799073
142	0xbdb618c5	-0.08891443
143	0xbd90e799	-0.07075424
144	0xbdb9888c	-0.090592474
145	0x3d83f08c	0.06442365
146	0x3d36fede	0.044676654
147	0xbd963234	-0.07333794
148	0x3df3d68c	0.11906156
149	0x3d197612	0.037466116
150	0x3d236821	0.039894227
151	0xbd692a46	-0.05692508
152	0x3da0650e	0.07831775
153	0xbdb9a9f9	-0.09065623
154	0x3dc72955	0.0972468
155	0xbd85f74a	-0.06541307
156	0x3d6588a1	0.056038503
157	0xbd576fe5	-0.052596945
158	0x3da12f74	0.07870379
159	0xbdd60dfb	-0.10451885
160	0xbcbfd837	-0.023418529
161	0xbd306358	-0.04306349
162	0xbdaaca4e	-0.08339368
163	0xbd6a1ea5	-0.05715813
164	0xbd33a9c8	-0.043863088
165	0x3bb00acd	0.0053723813
166	0x3dabb903	0.083848976
167	0xbc802cca	-0.015646357
168	0x3ded66b0	0.11591852
169	0xbd5a6876	-0.053322278
170	0xbd7822c9	-0.06058005
171	0xbc007dd3	-0.007842499
172	0xbc9a22b3	-0.018815374
173	0x3d29824f	0.041384038
174	0x3ddb3a1a	0.10704441
175	0x3d0d0947	0.034432676
176	0xbde056fb	-0.1095409
177	0xbd3ed761	-0.04659212
178	0xbcc9f9cd	-0.024655247
179	0xbdd4570a	-0.10368164
180	0x3d3ce7c9	0.046119485
181	0x3dd0c9b6	0.10194723
182	0x3d7a3250	0.061083138
183	0xb96d368e	-0.00022622405
184	0xbc841234	-0.016121961
185	0xbd92df7c	-0.071715325
186	0xbc8a4273	-0.016877389
187	0x3de29e16	0.11065309
188	0xbd937c30	-0.07201421
189	0x3cb981c6	0.022644889
190	0xbdad9158	-0.08474988
191	0xbcf0b144	-0.029381402
192	0x3ca11a83	0.019665962
193	0xbdbfa6d2	-0.0935799
194	0x3d22e291	0.03976685
195	0xbdd04b3b	-0.10170599
196	0xbd3d0d9b	-0.046155553
197	0x3db9a1b1	0.09064043
198	0x3dfe33d2	0.12412228
199	0xbb02a993	-0.00199375
200	0xbdbf751c	-0.09348509
201	0xbdbfbd2e	-0.09362255
202	0xbce5193a	-0.02796613
203	0xbd90d8ad	-0.070725776
204	0x3dc38aee	0.09547983
205	0xbdb2cc7d	-0.08730409
206	0x3db170bc	0.086640805
207	0x3c8d35eb	0.017237624
208	0xbd263f76	-0.040587865
209	0x3ddb1e80	0.10699177
210	0x3d85f872	0.06541528
211	0x3af8022c	0.0018921546
212	0xbd9c5a15	-0.07634369
213	0xbd3d61a6	-0.046235703
214	0x3d3dd2de	0.046343677
215	0x3de060e5	0.10955981
216	0xbd3f56e6	-0.046713732
217	0xbd1e6cc9	-0.038677964
218	0xbdea2e11	-0.11434568
219	0x3da5e638	0.08100551
220	0x3df90daf	0.12160813
221	0x3da2a765	0.07942084
222	0xbda26117	-0.07928675
223	0x3d9b81b4	0.07593098
224	0xbd3325ad	-0.043737102
225	0x3d864fa0	0.06558156
226	0x3d8be321	0.06830431
227	0xbdc4372e	-0.09580837
228	0x3d09e976	0.03366991
229	0x3d59903f	0.05311608
230	0xbd862706	-0.06550412
231	0x3dd10bdb	0.102073394
232	0x3dbba190	0.09161675
233	0x3de6362d	0.11240802
234	0x3bd6af62	0.006551669
235	0xbd8b75d7	-0.068095855
236	0xbd810bbe	-0.06301068
237	0x3d50a037	0.050934043
238	0xbce0fc45	-0.027464041
239	0x3dba5f3c	0.09100196
240	0x3ddf3616	0.10898988
241	0x3c30a2f4	0.010781039
242	0xbde3ee91	-0.11129487
243	0x3d415c89	0.04720739
244	0x3de24826	0.110489175
245	0xbceff804	-0.029293068
246	0xbd95b657	-0.07310169
247	0xbcec84dc	-0.028871946
248	0x3c39066a	0.011293033
249	0xbdc7fe2f	-0.097652785
250	0x3d7283ee	0.05920785
251	0x3d65813b	0.056031447
252	0xbd20d94a	-0.039269723
253	0xbd15f515	-0.03661068
254	0xbd63c641	-0.05560899
255	0x3dd97e5d	0.10619805

node_encoder.layers.6.bias f4 [32]
0	0x3d07eae6	0.033183
1	0x3c878b57	0.016545935
2	0x3cd73494	0.026270188
3	0x3aedd01e	0.0018143689
4	0xbd5984d4	-0.05310519
5	0xb84aedea	-4.8382128e-05
6	0x3d8a6bb2	0.067588225
7	0x3d7d9a00	0.061914444
8	0xbcf1fa29	-0.029538231
9	0x3d27cbd7	0.04096588
10	0x3c6f3a41	0.014601291
11	0x3ada4b9b	0.0016654612
12	0x3ccb303c	0.024803273
13	0x39658d2d	0.00021891734
14	0x3977eaac	0.00023643178
15	0xbd182a5b	-0.03714977
16	0xb958511f	-0.00020629585
17	0x3d9aeb4f	0.07564413
18	0x3d077803	0.033073436
19	0xbd61cb73	-0.055125665
20	0x397aab75	0.0002390573
21	0x3d0f9c39	0.035061095
22	0xbc4bed57	-0.012446723
23	0xb90a6314	-0.00013197615
24	0x3ca16407	0.019701017
25	0x3d71a0a1	0.05899108
26	0x3d8931d9	0.06698961
27	0xbd383d64	-0.04498042
28	0xbd91dd3c	-0.07122275
29	0x3d30bf9c	0.043151483
30	0xb9eaaa6e	-0.00044758938
31	0x3d881e15	0.06646363

edge_encoder.layers.0.weight f4 [64, 4]
0	0x3eb381a5	0.35059848
1	0xbe4ef60a	-0.20211044
2	0x3e0f9ee8	0.14025462
3	0x3e1fbf80	0.15600395
4	0xbe2c806a	-0.16845861
5	0x3eeb1b80	0.45919418
6	0x3d48ca0d	0.049020816
7	0xbe1ef8d3	-0.15524606
8	0xbeea5cd4	-0.45773947
9	0x3ecec1e6	0.40382308
10	0xbefaa551	-0.4895425
11	0x3ebfe22a	0.37477237
12	0xbe2458cb	-0.16049497
13	0xbdbc9a4b	-0.092091165
14	0x3da9778a	0.082747534
15	0x3ef2e139	0.47437456
16	0xbe9e5107	-0.30921194
17	0xbeb1eba1	-0.34750083
18	0x3ea20e63	0.316516
19	0xbe5eb9f5	-0.21750624
20	0xbe3c3061	-0.1837783
21	0x3e8fcec2	0.2808743
22	0xbe59bde7	-0.21263848
23	0x3e966a5e	0.29378027
24	0xbe51e82c	-0.20498723
25	0x3ec5ced2	0.38634354
26	0x3efa10f8	0.4884107
27	0x3d5ef2d2	0.05443079
28	0xbe1f3063	-0.15545802
29	0x3e8a0877	0.26959583
30	0x3e1a94de	0.15095851
31	0x3bbfcd9c	0.005853368
32	0x3ed9f38f	0.42568633
33	0xbc89e0bb	-0.016830793
34	0x3e444f91	0.19170977
35	0xbe03e579	-0.12880506
36	0xbda9b994	-0.08287349
37	0xbcf3de64	-0.02976913
38	0x3d2c7bc0	0.042110205
39	0x3e60fcac	0.21971387
40	0x3ebfcf22	0.37462717
41	0x3e96de33	0.294664
42	0xbe5a33da	-0.21308842
43	0x3ed853a9	0.42251328
44	0x3ea331a1	0.318738
45	0x3e454c16	0.19267306
46	0x3d6d2811	0.05789954
47	0xbe86a0d3	-0.26294574
48	0xbe9ec1c8	-0.31007218
49	0x3c6a7a55	0.014311393
50	0xbeb6b3be	-0.35684007
51	0x3e2b844f	0.1674969
52	0xbee9ce34	-0.45665133
53	0xbee369b3	-0.4441658
54	0xbe5fdffb	-0.21862786
55	0x3e893fbd	0.2680644
56	0x3ecf0ca8	0.40439343
57	0xbed731ea	-0.4203027
58	0xbe9c9ed1	-0.30589917
59	0x3dc35853	0.09538331
60	0xbdad5073	-0.0846261
61	0xbecf707b	-0.40515503
62	0x3e12eb2e	0.14347526
63	0xbec86c11	-0.39144948
64	0x3c7ef621	0.015561611
65	0x3e532654	0.2062009
66	0x3ee7b693	0.4525648
67	0xbed2a254	-0.41139472
68	0x3eb84cf8	0.35996222
69	0x3d87a44d	0.06623135
70	0x3ee21c21	0.44162086
71	0x3ef226b9	0.47295168
72	0xbddc7595	-0.107646145
73	0xbda52023	-0.0806277
74	0xbe052aa8	-0.13004553
75	0x3ec3dab2	0.3825279
76	0xbe5dce4a	-0.21660724
77	0x3eaa0efa	0.3321455
78	0x3e52daba	0.2059125
79	0x3ee886fe	0.4541549
80	0x3eb64c37	0.35605022
81	0x3ec868a7	0.39142343
82	0xbed218a0	-0.41034412
83	0xbe7c2c92	-0.24626377
84	0xbeb67ed6	-0.35643643
85	0x3e703702	0.23458484
86	0x3dd655fb	0.10465618
87	0x3e3c4cca	0.18388668
88	0x3e46e738	0.1942414
89	0x3cf275f4	0.02959726
90	0x3e3bc619	0.18337287
91	0xbe8ccb5a	-0.27498895
92	0x3ea4ab96	0.3216216
93	0xbee043a1	-0.43801597
94	0xbee8155a	-0.4532879
95	0x3e21a0f9	0.15784062
96	0x3eeeba37	0.46626446
97	0xbe3133e7	-0.17304955
98	0x3ef0aa7c	0.4700507
99	0xbe338890	-0.17532563
100	0xbec231c6	-0.379286
101	0xbda6c739	-0.081434675
102	0x3e8cd69d	0.27507487
103	0xbe763205	-0.24042518
104	0x3eef0c0c	0.4668888
105	0xbe6dcbda	-0.23222294
106	0xbe604b9d	-0.21903844
107	0xbe516696	-0.2044929
108	0xbec69554	-0.38785803
109	0x3ee99e08	0.4562838
110	0xbe90b340	-0.28261757
111	0xbe69b106	-0.22821435
112	0xbe102939	-0.14078225
113	0x3ed16978	0.4090078
114	0x3e811249	0.25209263
115	0x3e44e540	0.19228077
116	0xbe11f9ad	-0.142554
117	0x3e78d81b	0.24301188
118	0x3dad1551	0.084513314
119	0x3ecdaf34	0.40172732
120	0x3df06c80	0.11739445
121	0x3ebe110b	0.37122378
122	0x3eabf8cd	0.33588257
123	0x3da76e8c	0.08175382
124	0xbef28cd6	-0.47373074
125	0x3de7241b	0.112861834
126	0xbec0157a	-0.37516385
127	0x3d977dec	0.073970646
128	0xbd3f7f8f	-0.04675251
129	0x3ec2c85e	0.38043493
130	0xbebe5d80	-0.3718071
131	0xbeca829a	-0.39552766
132	0x3e56edff	0.20989226
133	0x3eafce84	0.34337246
134	0xbde5b5e1	-0.11216331
135	0x3e0d6c04	0.13810736
136	0x3ecd426e	0.40089744
137	0x3d85c3e9	0.065315075
138	0xbe0d753c	-0.13814253
139	0x3e9312b8	0.2872522
140	0x3eeb7b51	0.4599252
141	0xbdbce43a	-0.09223218
142	0x3ea78af9	0.32723215
143	0x3c892b20	0.016744196
144	0xbdaf8419	-0.085701175
145	0xbd4436ff	-0.04790401
146	0xbefc60da	-0.49292642
147	0x3e64b650	0.22335172
148	0xbe87d6e9	-0.2653115
149	0xbedef910	-0.43549395
150	0xbd82bdd2	-0.063838616
151	0xbe3c768c	-0.18404597
152	0xbe9bfe13	-0.3046728
153	0xbde20843	-0.11036732
154	0xbd63ae75	-0.055586297
155	0x3e20b93f	0.15695666
156	0x3d8d65df	0.06904196
157	0xbd696744	-0.056983247
158	0x3de40065	0.11132888
159	0xbea54d44	-0.32285511
160	0x3edcbbe0	0.43112087
161	0x3e6a761a	0.22896615
162	0x3e9e0b22	0.3086787
163	0xbed9aefd	-0.42516318
164	0x3eab07dc	0.33404434
165	0x3dafbf7f	0.08581447
166	0xbef816fc	-0.48455036
167	0x3eeb969d	0.46013346
168	0xbc02a3de	-0.007973639
169	0x3dde18fd	0.1084461
170	0x3ec895c8	0.39176774
171	0x3eaa78f9	0.3329542
172	0x3ee124c0	0.4397335
173	0xbeee31fe	-0.46522516
174	0x3efadd5e	0.48997015
175	0x3dd28f77	0.1028127
176	0x3c8fb3e3	0.017541831
177	0xbece6eb0	-0.40318823
178	0xbe834815	-0.25640932
179	0x3eecbbba	0.46236974
180	0x3ec4d096	0.38440388
181	0x3ec2421d	0.37941065
182	0xbd101149	-0.035172734
183	0xbe8946a7	-0.26811716
184	0x3de0daf9	0.10979266
185	0xbe6c3692	-0.23067692
186	0xbea9fcdd	-0.33200732
187	0x3e26f163	0.16303019
188	0x3ec26c9c	0.37973487
189	0xbec8812c	-0.3916105
190	0xbee04441	-0.43802074
191	0x3d8e8200	0.06958389
192	0xbe3c8f45	-0.18414028
193	0xbe84c5d0	-0.2593217
194	0xbdcbcf2f	-0.099516265
195	0xbcf13874	-0.029445864
196	0xbe1541dd	-0.14575906
197	0x3eb48491	0.3525739
198	0x3e8f1779	0.27947596
199	0x3e153597	0.14571224
200	0xbe25dbd4	-0.16197139
201	0xbd01eda0	-0.031720757
202	0x3ea394d0	0.31949472
203	0x3d1da839	0.038490508
204	0xbef723b4	-0.48269427
205	0x3d7eb4af	0.062184032
206	0x3e84fee7	0.25975725
207	0xbdf9a4bc	-0.12189624
208	0xbdd6ac8d	-0.1048213
209	0xbd9ad1b6	-0.075595304
210	0x3e961ff6	0.2932126
211	0x3ec639ce	0.38715976
212	0xbec90b8b	-0.3926662
213	0x3ea7fe98	0.32811427
214	0x3e501058	0.20318735
215	0x3e297cfc	0.16551584
216	0xbe99115e	-0.29896063
217	0xbe9046e8	-0.28179097
218	0x3ef6d3e9	0.4820855
219	0x3dd8dbdc	0.1058881
220	0xbdd94da9	-0.106105156
221	0xbdc45839	-0.0958714
222	0x3eada64e	0.33915943
223	0xbddbf8b2	-0.10740794
224	0x3eaf008e	0.3418011
225	0xbe07de1e	-0.13268325
226	0x3dec0e84	0.11526206
227	0x3de569cd	0.112018205
228	0xbe84d6d6	-0.25945157
229	0x3c78bbbd	0.015181479
230	0x3dc654dc	0.096841544
231	0xbef3b06a	-0.4759553
232	0xbdbef63b	-0.093243085
233	0x3cfd93ab	0.030954203
234	0x3ed3ed34	0.4139191
235	0x3dd25c3d	0.10271499
236	0xbedb24ee	-0.42801613
237	0xbe2020ad	-0.15637465
238	0x3ef83a49	0.48481968
239	0xbd9edbe8	-0.077567875
240	0x3ebf7841	0.37396434
241	0x3d3d0d40	0.046155214
242	0x3ea92629	0.33036926
243	0xbe4f420d	-0.2024004
244	0x3ef835e0	0.48478603
245	0x3dda3198	0.106539905
246	0xbdde6483	-0.10859015
247	0x3ebb23ff	0.365509
248	0x3e752f1d	0.23943754
249	0xbeb1fbe7	-0.347625
250	0xbcc5c786	-0.024142992
251	0x3eadf8b1	0.339788
252	0x3e00d35f	0.12580632
253	0xbe191a88	-0.14951527
254	0xbeab5915	-0.33466402
255	0xbeac126f	-0.33607814

edge_encoder.layers.0.bias f4 [64]
0	0x3e6ac7e5	0.22927816
1	0x3e362fdb	0.17791693
2	0xbec9ab5d	-0.39388552
3	0xbd683720	-0.056693196
4	0x3da3401b	0.079712115
5	0xbec95228	-0.39320493
6	0x3ec373d4	0.38174307
7	0xbc496f20	-0.012294561
8	0xbe1eb4cf	-0.1549866
9	0x3c681fb3	0.014167714
10	0x3e07f347	0.13276397
11	0x3d84abb1	0.0647806
12	0x3ed99096	0.42493123
13	0x3e6e615d	0.23279329
14	0xbc0c8916	-0.008577606
15	0x3d246b2c	0.04014127
16	0x3d988bc3	0.074485324
17	0xbe19d6df	-0.15023373
18	0xbec23285	-0.37929168
19	0xbc479cb2	-0.012183355
20	0xbe11e109	-0.14246
21	0xbed89e6f	-0.42308375
22	0x3e059aed	0.13047381
23	0xbe257a16	-0.16159853
24	0x3edbe289	0.4294627
25	0x3e061dd4	0.13097316
26	0x3e28aa32	0.16471174
27	0x3dc996bb	0.09843203
28	0x3e167c4e	0.14695856
29	0x3e8ae71f	0.27129456
30	0x3ea2f990	0.31831026
31	0x3ae4286a	0.0017407064
32	0xbdc19863	-0.094528936
33	0x3db509b0	0.08839738
34	0xbe358799	-0.17727508
35	0x3af2bd27	0.0018519507
36	0x3dca1b50	0.09868491
37	0x3e334ec7	0.1751052
38	0xbede67c0	-0.4343853
39	0x3e151360	0.14558172
40	0xbe150ea7	-0.1455637
41	0xbe9b3fe8	-0.30322194
42	0xbe28ab57	-0.16471611
43	0xba25357b	-0.00063022197
44	0x3e4a811f	0.19775818
45	0xbecad191	-0.3961301
46	0x3db5bba3	0.088736795
47	0x3ecd770a	0.40129882
48	0xbe6f697a	-0.2338008
49	0x3d9536af	0.07285821
50	0xbe1c92c3	-0.1529036
51	0x3d9c0e17	0.07619875
52	0x3e2c4b82	0.16825679
53	0xbe84b69b	-0.25920567
54	0x3d958bf1	0.07302082
55	0x3ee3cde2	0.44493014
56	0x39fbd6b3	0.00048034414
57	0xbe9ca55a	-0.30594903
58	0xb9a87ab8	-0.0003213489
59	0x3d8302e8	0.06397039
60	0x3dda1b8b	0.10649785
61	0xba708e04	-0.00091764354
62	0xbd79ce3c	-0.060987696
63	0xbe4cea89	-0.20011343

edge_encoder.layers.1.weight f4 [64]
0	0x3f7c8d46	0.98653066
1	0x3f7bdcaa	0.9838358
2	0x3f7e2097	0.9926848
3	0x3f803eb0	1.0019131
4	0x3f7de53e	0.9917792
5	0x3f807251	1.0034887
6	0x3f7c909b	0.9865815
7	0x3f805bed	1.0028054
8	0x3f8006e7	1.0002106
9	0x3f7ca50d	0.9868935
10	0x3f809c4e	1.00477
11	0x3f7dcec0	0.991436
12	0x3f7b7f78	0.98241377
13	0x3f7b5c4d	0.98187715
14	0x3f7d4397	0.9893126
15	0x3f7d677a	0.9898602
16	0x3f7b4126	0.98146284
17	0x3f7ddcbc	0.9916494
18	0x3f7b0a7d	0.9806288
19	0x3f7e5327	0.9934563
20	0x3f7c845c	0.98639464
21	0x3f7c2884	0.9849932
22	0x3f7d0782	0.9883958
23	0x3f7ce08c	0.9878013
24	0x3f7d43d8	0.98931646
25	0x3f7e855e	0.9942225
26	0x3f7c0bb9	0.9845539
27	0x3f806d66	1.0033386
28	0x3f7da2f2	0.9907676
29	0x3f7cc5c9	0.98739296
30	0x3f7dd35e	0.99150646
31	0x3f7d379e	0.9891299
32	0x3f804611	1.0021383
33	0x3f7d88e9	0.99037033
34	0x3f7ce78a	0.987908
35	0x3f7d8b48	0.9904065
36	0x3f7dc4c2	0.99128354
37	0x3f7c4c6c	0.9855411
38	0x3f7d4767	0.98937076
39	0x3f7d3397	0.98906845
40	0x3f7cbd5d	0.98726445
41	0x3f7e5c2f	0.9935941
42	0x3f7e296a	0.9928194
43	0x3f7f98ee	0.9984273
44	0x3f7fabd1	0.99871546
45	0x3f7d0ba5	0.98845893
46	0x3f80469f	1.0021552
47	0x3f7cb68a	0.9871603
48	0x3f7bb65c	0.98325133
49	0x3f7c91a2	0.9865972
50	0x3f7ec740	0.9952278
51	0x3f7be36c	0.98393893
52	0x3f7a9968	0.9789033
53	0x3f7e0ff1	0.99243075
54	0x3f805312	1.0025351
55	0x3f7eb98f	0.9950189
56	0x3f7bce65	0.9836181
57	0x3f807839	1.0036689
58	0x3f7e96a1	0.9944859
59	0x3f7e991b	0.9945237
60	0x3f7faaed	0.9987019
61	0x3f8066b8	1.0031347
62	0x3f7c51b4	0.9856217
63	0x3f80103b	1.0004953

edge_encoder.layers.1.bias f4 [64]
0	0xbba93bb4	-0.005164588
1	0xbbab07ed	-0.0052194507
2	0xbbbac8ff	-0.00570023
3	0x3bc83acf	0.006110526
4	0x3a1e9ebe	0.0006050876
5	0x3c0144d5	0.007889946
6	0xbc1873ee	-0.009304984
7	0x3bf66825	0.007519739
8	0x3b77626a	0.0037747868
9	0x3b67af60	0.0035352334
10	0x3c04c84c	0.008104395
11	0xbae381ae	-0.0017357373
12	0xbc09a954	-0.008402187
13	0xbc436f63	-0.011928412
14	0xbc190991	-0.00934066
15	0xbbc0466a	-0.005867769
16	0xbc76f67f	-0.015073418
17	0xbbcd4693	-0.0062645166
18	0xbc8e2ee1	-0.017356338
19	0xbb5e6aa5	-0.0033938077
20	0xbbd342ad	-0.0064471574
21	0xbc26e7b1	-0.0101870755
22	0xbbbc9cb5	-0.0057559856
23	0xbbca5dff	-0.006175756
24	0xbba4881b	-0.005021108
25	0xbae86cfc	-0.0017732675
26	0xbaecb59c	-0.0018059495
27	0x3c0214d4	0.007939536
28	0xbad85883	-0.0016505871
29	0xbbdfe28a	-0.0068324255
30	0xbbac473a	-0.0052575143
31	0xbbe9a7b8	-0.0071305893
32	0x3b89b0ca	0.004201983
33	0xbb74d492	-0.0037358147
34	0xbc0ba566	-0.008523321
35	0xbc03f442	-0.008053841
36	0xbc05ee5e	-0.008174507
37	0xbc8dc41b	-0.017305424
38	0x3a3fa76e	0.0007311021
39	0xbc10fc0b	-0.008849154
40	0xbbdfff0b	-0.0068358234
41	0xbaee39d1	-0.001817519
42	0xbba814dd	-0.00512944
43	0x3bacace1	0.005269632
44	0x3b775b12	0.003774349
45	0xbc0cbecf	-0.008590414
46	0x3bafec91	0.005368777
47	0xbbfd826a	-0.007736494
48	0xbc34d369	-0.011036732
49	0xbc29516c	-0.010334354
50	0xbab8b6bb	-0.0014092544
51	0xbc3d2a7b	-0.011545773
52	0xbc8429ab	-0.01613315
53	0xbbb63cd9	-0.005561453
54	0x3c0cbece	0.008590413
55	0xbb79f43e	-0.0038139964
56	0xbbfaade7	-0.0076501253
57	0x3c2409ac	0.010012072
58	0xbb558b3e	-0.0032584216
59	0x39ed980f	0.00045317455
60	0x3aaa6753	0.0013000764
61	0x3bcb3f7f	0.0062026377
62	0xbc390efd	-0.011295077
63	0x3b49fb64	0.0030820007

edge_encoder.layers.1.running_mean f4 [64]
0	0x3e771f98	0.24133146
1	0x3e2f016a	0.17090383
2	0xbec2b113	-0.38025722
3	0xbd24c21f	-0.04022419
4	0x3d9488b6	0.07252638
5	0xbec506a5	-0.38481632
6	0x3ec261d2	0.37965256
7	0xbc9c1134	-0.019051172
8	0xbe2a38eb	-0.16623275
9	0x3cd7e3bf	0.026353715
10	0x3e2086b4	0.15676385
11	0x3d63e5da	0.055639125
12	0x3ee17104	0.44031537
13	0x3e821c5a	0.25412256
14	0x3a386a84	0.0007034915
15	0x3ce36c38	0.027761564
16	0x3d5b29df	0.05350673
17	0xbe0daa6f	-0.13834547
18	0xbebaeb70	-0.3650775
19	0xb9b8c036	-0.00035238423
20	0xbe1f0494	-0.1552909
21	0xbed8c2d2	-0.42336136
22	0x3df72c82	0.12069036
23	0xbe1929c6	-0.14957342
24	0x3ed8a90b	0.4231647
25	0x3df836f5	0.12119857
26	0x3e29521d	0.1653523
27	0x3dbb05aa	0.0913194
28	0x3e1d27ad	0.15347166
29	0x3e94acf7	0.29038212
30	0x3ea3cf99	0.31994322
31	0x3be30a05	0.0069286847
32	0xbdeb77d4	-0.11497465
33	0x3dc83363	0.09775426
34	0xbe2afb8e	-0.16697523
35	0x39bfbf39	0.0003657283
36	0x3df305a0	0.11866307
37	0x3e33151d	0.17488523
38	0xbedccb12	-0.4312368
39	0x3e0a4054	0.13501102
40	0xbe315ab2	-0.17319754
41	0xbe903af3	-0.28169975
42	0xbe239462	-0.15974572
43	0x3b3c8a74	0.0028769048
44	0x3e6a3e5b	0.22875349
45	0xbed41e9a	-0.41429597
46	0x3dd90312	0.10596289
47	0x3ed5f1e9	0.41786125
48	0xbe728358	-0.23682916
49	0x3d9de917	0.07710474
50	0xbe231f21	-0.15929843
51	0x3d9010e7	0.07034474
52	0x3e3f4256	0.18677649
53	0xbe863241	-0.26210216
54	0x3d9f37d5	0.07774321
55	0x3ee1fa24	0.44136155
56	0x3bf37223	0.0074293776
57	0xbeaaa029	-0.33325318
58	0xba42f40c	-0.00074368785
59	0x3d72b5f3	0.05925555
60	0x3dc97354	0.0983645
61	0x3c7898bd	0.015173134
62	0xbd3de723	-0.046363007
63	0xbe5b3a02	-0.21408847
