gnn/gnn_outputs/checkpoint_epoch_70.pt (torch, 971228 bytes, 208 tensors)

node_encoder.layers.0.weight f4 [64, 3]
0	0x3ed6b101	0.41931918
1	0x3ef6f993	0.48237285
2	0xbe10114d	-0.140691
3	0x3f09a94a	0.5377394
4	0xbdf5fa34	-0.12010613
5	0x3de280af	0.11059701
6	0xbe850400	-0.25979614
7	0x3eb1faf0	0.34761763
8	0x3f067dfe	0.52536
9	0xbed8f147	-0.4237158
10	0x3f0047e9	0.50109726
11	0x3ddca3f2	0.107734576
12	0x3edfd39a	0.43716127
13	0x3d8f7da3	0.07006385
14	0x3e898496	0.26858968
15	0xbdac9845	-0.084274806
16	0x3edf645a	0.4363125
17	0x3dbd59be	0.092456326
18	0xbe8ceec4	-0.27525914
19	0x3e1b60e3	0.15173678
20	0xbe824e1b	-0.25450215
21	0xbd89cc03	-0.06728365
22	0xbe6891f9	-0.22711934
23	0x3ec70a2d	0.3887495
24	0xbee9d17b	-0.45667633
25	0xbe83cacc	-0.2574066
26	0xbe31e894	-0.17373878
27	0xbeb693b4	-0.35659564
28	0x3d3cd2e5	0.046099562
29	0xbf0f6082	-0.56006634
30	0x3f05c0ab	0.52247113
31	0xbefb9a65	-0.4914123
32	0x3ee118fd	0.43964377
33	0x3dd2c415	0.10291306
34	0xbe37db2f	-0.17954706
35	0x3eb665ca	0.35624534
36	0x3db20239	0.0869183
37	0x3ef4306d	0.47693196
38	0x3d3dba2f	0.046320137
39	0xbe3d834c	-0.18507117
40	0x3e16d732	0.14730528
41	0xbe2859cf	-0.1644051
42	0x3e78f707	0.24312983
43	0x3f005d82	0.5014268
44	0x3eb2bde5	0.34910503
45	0xbe8174d9	-0.2528446
46	0x3eabe6f2	0.33574635
47	0x3dbb1f90	0.091368794
48	0x3e996466	0.2995941
49	0xbeb4311d	-0.3519372
50	0xbf118671	-0.56845766
51	0xbe64a3aa	-0.22328058
52	0xbee79c15	-0.4523627
53	0x3eec4f22	0.46154124
54	0x3e2b8fcc	0.16754073
55	0x3e73c0aa	0.23803964
56	0x3e38d30a	0.18049255
57	0xbcc93e47	-0.024565829
58	0x3ee79784	0.45232785
59	0xbed18889	-0.4092448
60	0x3d14fb20	0.036372304
61	0xbed130ae	-0.40857452
62	0x3e271f1c	0.16320461
63	0xbe45b093	-0.19305639
64	0x3e3ca80a	0.18423477
65	0xbdf772c1	-0.120824344
66	0x3eeee037	0.46655437
67	0xbeb9c7c7	-0.3628523
68	0xbeacdd16	-0.33762425
69	0xbeb56ed8	-0.3543613
70	0x3f0294a2	0.51008046
71	0x3e458ff4	0.19293195
72	0x3f0f971e	0.5608996
73	0xbeed7eae	-0.4638571
74	0xbf13f287	-0.5779194
75	0xbeea39ca	-0.45747215
76	0xbeca0723	-0.3945857
77	0x3e62571a	0.22103539
78	0x3e42d8ff	0.1902809
79	0x3ef824fc	0.48465717
80	0xbe99fac0	-0.3007412
81	0xbecc8d83	-0.39951715
82	0x3e9ef376	0.3104512
83	0xbe666184	-0.22498137
84	0x3eb2e662	0.34941393
85	0xbe118b1a	-0.1421322
86	0x3ea8263e	0.32841676
87	0xbeeff47b	-0.4686621
88	0xbe915dbd	-0.2839183
89	0x3e35df6c	0.1776101
90	0x3de37893	0.11106982
91	0xbe20c5a9	-0.15700401
92	0x3eae4373	0.34035835
93	0x3ec68695	0.38774553
94	0xbedc0443	-0.42972
95	0xbe975aad	-0.29561368
96	0x3f09131d	0.5354479
97	0xbe483c22	-0.19554189
98	0xbe4d0312	-0.20020702
99	0xbf0ba101	-0.5454255
100	0xbeaf257e	-0.34208292
101	0x3e0885b2	0.1333225
102	0xbdb8cbd0	-0.09023249
103	0xbecf7e88	-0.40526223
104	0xb91d7b64	-0.00015018653
105	0xbec9b09b	-0.39392552
106	0xbf011a28	-0.50430536
107	0xbe9c95bc	-0.30582988
108	0xbf028cec	-0.5099628
109	0xbebba982	-0.36652762
110	0x3f1301ba	0.5742451
111	0x3dd2b116	0.10287683
112	0x3e3ff42b	0.18745486
113	0xbf07a0ae	-0.5297955
114	0xbec309c9	-0.38093403
115	0xbe4351f1	-0.19074227
116	0x3dbcadc4	0.09212831
117	0xbf05e8c3	-0.5230829
118	0xbe7e6f3d	-0.24847122
119	0xbeabb29d	-0.3353471
120	0x3c1b807b	0.009491081
121	0xbe624243	-0.2209559
122	0xbd0bcb3d	-0.03412937
123	0xbed28588	-0.411175
124	0xbecc6293	-0.39918956
125	0xbea75410	-0.32681322
126	0xbe4cdec6	-0.20006856
127	0xbeec2e49	-0.46129063
128	0x3ef2c25c	0.4741391
129	0xbdef2f92	-0.11678995
130	0x3ef6e448	0.4822104
131	0x3e462ed7	0.19353805
132	0xbefb86b0	-0.49126196
133	0x3ecbf765	0.39837185
134	0xbe1ddb1d	-0.15415616
135	0xbe67e285	-0.22645004
136	0xbef63cf6	-0.48093385
137	0xbf11e8da	-0.5699593
138	0x3e2b288b	0.16714685
139	0xbdf025ef	-0.11725985
140	0x3e6a49a1	0.2287965
141	0xbeef4a8e	-0.46736568
142	0x3edfd30b	0.437157
143	0xbed66fdd	-0.4188222
144	0xbdcb10a1	-0.09915281
145	0x3df64761	0.12025333
146	0x3e98dbe3	0.2985526
147	0x3ef58c51	0.47958615
148	0x3f0415ba	0.5159565
149	0xbee52f89	-0.4476283
150	0x3e10eeb9	0.14153565
151	0xbe813782	-0.25237662
152	0xbd8583c6	-0.065192744
153	0xbeda6edd	-0.42662707
154	0x3f07b38e	0.53008354
155	0xbed738b8	-0.4203546
156	0x3ea47908	0.3212359
157	0x3e3a654f	0.18202709
158	0x3e3b17e8	0.18270838
159	0xbe9e6048	-0.30932832
160	0x3f0749f0	0.52847195
161	0x3df5b1ba	0.11996789
162	0x3da95ba6	0.08269434
163	0xbf024f05	-0.50901824
164	0x3e7592ac	0.23981732
165	0xbd9dbd01	-0.07702065
166	0xbe7d2202	-0.24720004
167	0x3f037a17	0.5135817
168	0x3e017a9e	0.12644431
169	0xbea73bee	-0.3266291
170	0xbe91b61c	-0.2845925
171	0xbd084aad	-0.03327434
172	0x3ea637c4	0.3246442
173	0xbe1471b6	-0.14496502
174	0xbea582dc	-0.323264
175	0xbe53b9ed	-0.20676394
176	0xbede1a7a	-0.43379575
177	0x3e415e77	0.18883692
178	0x3ee054cc	0.43814695
179	0xbf0df8fd	-0.5545805
180	0x3e1e26ad	0.15444441
181	0x3e92b6a1	0.2865496
182	0x3dc275a1	0.09495092
183	0xbe4d032e	-0.20020744
184	0x3e97399e	0.29536146
185	0x3ea5b9f0	0.32368422
186	0x3e51c559	0.20485438
187	0xbdd2c031	-0.10290564
188	0xbe24f21d	-0.16107984
189	0x3d85c5ac	0.065318435
190	0xbdb42e55	-0.087979
191	0xbe3d6c07	-0.1849824

node_encoder.layers.0.bias f4 [64]
0	0x3e9a43a2	0.30129725
1	0x3edb0ec7	0.42784712
2	0xbbd1c676	-0.006401832
3	0xbd880647	-0.06641822
4	0xb86b1247	-5.604539e-05
5	0x3a9066bb	0.0011016944
6	0x3d9a631d	0.075384356
7	0x3dc74eb3	0.097318076
8	0xbee96ef0	-0.4559245
9	0xbe16b30f	-0.14716743
10	0x3ed5f56d	0.41788808
11	0x3e227df6	0.15868363
12	0x3a33c307	0.00068573694
13	0xbe8f94ac	-0.28043115
14	0xbe9236f5	-0.28557554
15	0xbee5c256	-0.4487483
16	0xbdfb9a27	-0.122852616
17	0x3e049111	0.12945963
18	0x3e99d831	0.30047753
19	0x3e4c87ff	0.19973753
20	0xbee24402	-0.4419251
21	0xbe8f2ead	-0.27965298
22	0xbd02ce5d	-0.031935085
23	0x3efadcdb	0.48996624
24	0x3cd174c3	0.025568372
25	0xbdaf20e0	-0.08551192
26	0x3e30918b	0.1724302
27	0xbe1d866c	-0.15383309
28	0xbe9ca02c	-0.3059095
29	0x3eb4eb41	0.35335734
30	0xbe48751c	-0.19575924
31	0xbd5c78f5	-0.05382629
32	0xbf0179b0	-0.50576305
33	0x3ea31877	0.31854603
34	0x3ebd14b8	0.3692987
35	0x3e140054	0.1445325
36	0xbeab533c	-0.3346194
37	0xbf0050e0	-0.50123405
38	0xbecd22fa	-0.40065747
39	0x3eb991ba	0.36243993
40	0x3e574980	0.21024132
41	0x3ed5c55f	0.41752145
42	0x3e70e153	0.23523454
43	0x3da89405	0.082313575
44	0xb887bf33	-6.472915e-05
45	0xbebdeb17	-0.37093422
46	0xbeda418a	-0.42628127
47	0xbef16c33	-0.47152862
48	0x3e2e1261	0.16999198
49	0xbe5da1fb	-0.21643822
50	0xbd5e17c9	-0.054221902
51	0xbe8790a1	-0.2647753
52	0xbd356501	-0.044285778
53	0xbead41a9	-0.33839157
54	0xbe9e7297	-0.309468
55	0x3e011b8f	0.12608169
56	0xbddaaf53	-0.10677972
57	0x3e93dc91	0.28879216
58	0xbdf5afb4	-0.11996403
59	0xbeb5fed1	-0.35545972
60	0xbd2963c2	-0.041354902
61	0xbe59febd	-0.21288581
62	0xbde49db6	-0.111628935
63	0xbef66106	-0.48120898

node_encoder.layers.1.weight f4 [64]
0	0x3f7c8fc7	0.98656887
1	0x3f7f0705	0.99620086
2	0x3f7d43f9	0.98931843
3	0x3f7fa272	0.99857247
4	0x3f7ec4e7	0.995192
5	0x3f8084a3	1.0040478
6	0x3f7c8d94	0.9865353
7	0x3f806bef	1.0032939
8	0x3f7fdb59	0.9994407
9	0x3f7d8be1	0.99041563
10	0x3f7f7005	0.99780303
11	0x3f813437	1.009406
12	0x3f7fa2d2	0.9985782
13	0x3f817697	1.0114316
14	0x3f7daee1	0.9909497
15	0x3f80098f	1.0002917
16	0x3f7fbbe3	0.9989607
17	0x3f80c8c6	1.0061271
18	0x3f7ccce1	0.9875012
19	0x3f814141	1.0098039
20	0x3f804b2d	1.0022942
21	0x3f7cfa83	0.9881975
22	0x3f801e34	1.0009217
23	0x3f7e80fd	0.9941557
24	0x3f7e3c74	0.99310994
25	0x3f811f54	1.0087686
26	0x3f8054d2	1.0025885
27	0x3f7fdf25	0.99949867
28	0x3f7ebc7d	0.9950636
29	0x3f7ef252	0.995885
30	0x3f7d0675	0.9883798
31	0x3f814200	1.0098267
32	0x3f806618	1.0031157
33	0x3f807451	1.0035497
34	0x3f80fa54	1.0076394
35	0x3f801984	1.0007787
36	0x3f803ea5	1.0019118
37	0x3f807821	1.003666
38	0x3f7f67ea	0.99767935
39	0x3f7e33c4	0.9929774
40	0x3f800940	1.0002823
41	0x3f7efe89	0.9960714
42	0x3f7eec13	0.9957897
43	0x3f7fc961	0.99916655
44	0x3f7ed962	0.9955045
45	0x3f80de91	1.0067922
46	0x3f808bf8	1.0042715
47	0x3f7fcdad	0.9992321
48	0x3f7f6050	0.99756336
49	0x3f7f29b1	0.9967299
50	0x3f81b408	1.0133066
51	0x3f819d1b	1.012607
52	0x3f7c8a2f	0.9864835
53	0x3f7dcf8e	0.9914483
54	0x3f7e87ce	0.9942597
55	0x3f7fe5f7	0.99960274
56	0x3f7d9635	0.9905732
57	0x3f7e77f6	0.99401796
58	0x3f7e875f	0.9942531
59	0x3f813446	1.0094078
60	0x3f801190	1.000536
61	0x3f7e44a5	0.99323493
62	0x3f807a84	1.0037389
63	0x3f7e0e4d	0.9924057

node_encoder.layers.1.bias f4 [64]
0	0xbb890372	-0.004181319
1	0xbbd7ac9e	-0.006581857
2	0xbb8205aa	-0.0039679604
3	0x3b82dbaf	0.0039934735
4	0xbc80e059	-0.015731977
5	0x3c09ec3e	0.008418141
6	0xbca1e4fe	-0.019762512
7	0xbb67bbdc	-0.0035359776
8	0xbb8ed57b	-0.004358945
9	0xbc0c9c81	-0.008582235
10	0x3bf858d9	0.007578951
11	0x3c2e67f9	0.010644906
12	0xbbb2324f	-0.005438126
13	0x3b4bf10c	0.0031119017
14	0x3aaea23a	0.0013323494
15	0x3caa3651	0.020777853
16	0xbbd27a18	-0.006423246
17	0x3c21dbf9	0.009879106
18	0xbc2e10d6	-0.010624131
19	0x3adfb38e	0.0017067061
20	0xbc5acacd	-0.013354016
21	0xbc47531b	-0.01216581
22	0xbb905393	-0.004404494
23	0xbb8c5268	-0.0042822845
24	0xbc289a3a	-0.010290677
25	0xbb8aad04	-0.004232051
26	0x3c9b7e5b	0.01898115
27	0xbc2f0e79	-0.010684603
28	0xbb2a62c4	-0.002599881
29	0xbc18e60b	-0.00933219
30	0x3b212410	0.0024588145
31	0x3c6c1b05	0.014410739
32	0xbbd3cd68	-0.0064636953
33	0xbc534a91	-0.012896196
34	0xbc283321	-0.010266096
35	0xbc3637c4	-0.011121694
36	0xbc20c34c	-0.009812187
37	0x3af823f2	0.0018931611
38	0x3b91449d	0.004433228
39	0xbba8e477	-0.0051541883
40	0x3be6a5ea	0.0070388215
41	0xbb620195	-0.0034485806
42	0xbc5bc68a	-0.013414035
43	0x3c205678	0.009786241
44	0x39369d7d	0.00017415542
45	0x3b94359b	0.004522992
46	0x3afb3f93	0.0019168727
47	0xbc1f194c	-0.009710621
48	0x3ade87e9	0.001697776
49	0xbbeb9dee	-0.0071904575
50	0x3b7ec985	0.003887744
51	0x3c9de248	0.019272938
52	0x3af273f9	0.0018497697
53	0xbb72bb11	-0.003703777
54	0xbc18a291	-0.009316103
55	0xbc09b6d5	-0.008405407
56	0xbba0f757	-0.0049122977
57	0xbb7ea660	-0.0038856491
58	0xbc299435	-0.010350277
59	0x3c9fd169	0.019509034
60	0x3c232666	0.009957885
61	0x3c28e53a	0.010308558
62	0x3c0f2b30	0.008738324
63	0xbbc496f8	-0.005999442

node_encoder.layers.1.running_mean f4 [64]
0	0x3f403911	0.75087076
1	0x3f327c97	0.6972136
2	0x3eaebedd	0.34129992
3	0x3d94e69b	0.07270547
4	0x3ed28106	0.41114062
5	0x3e8c2a29	0.27375916
6	0xbdd32666	-0.10310058
7	0x3e019dcc	0.12657851
8	0xbf72cc7a	-0.94843256
9	0xbf196bd2	-0.59930146
10	0x3f1ec96f	0.62026113
11	0x3e949814	0.29022276
12	0x3ebad14d	0.3648781
13	0xbec072a6	-0.3758747
14	0x3ea77628	0.32707334
15	0xbea9a9a6	-0.33137244
16	0xbef61fbc	-0.48071086
17	0xbcc5ac5d	-0.02413004
18	0x3f21fda7	0.6327767
19	0x3e8469e0	0.25862026
20	0xbf184ff0	-0.59496975
21	0xbeab0cfe	-0.3340835
22	0xbe4105cb	-0.18849866
23	0x3f391609	0.7229925
24	0xbe864b6b	-0.26229414
25	0xbeea9520	-0.45816898
26	0x3ed71dc6	0.42014903
27	0xbe95d150	-0.29261255
28	0xbd384534	-0.044987872
29	0x3cec0423	0.028810566
30	0xbd80625b	-0.0626876
31	0xbe8b1933	-0.27167663
32	0xbee84c1e	-0.45370573
33	0xbdd69205	-0.1047707
34	0x3d9c8a67	0.07643586
35	0xbf06e6e5	-0.5269607
36	0xbf092ce7	-0.5358414
37	0xbf1c34b4	-0.6101792
38	0xbf2cc417	-0.6748671
39	0xbe6f847a	-0.2339038
40	0x3d869356	0.06571071
41	0xbe558c46	-0.20854291
42	0x3dc2a9e5	0.09505061
43	0x3ed818fb	0.4220656
44	0xbdbbf861	-0.09178234
45	0xbf8ae737	-1.0851811
46	0xbe984788	-0.29742074
47	0xbf2afc8d	-0.6679161
48	0x3eb374a7	0.35049936
49	0x3df03877	0.1172952
50	0xbe311560	-0.1729331
51	0xbec429e2	-0.38313204
52	0x3ea7b9fe	0.32759088
53	0xbdefbfbd	-0.11706493
54	0xbeebda31	-0.46064904
55	0x3e4f856a	0.20265737
56	0xbec93613	-0.39299068
57	0x3ecd79e3	0.40132055
58	0xbf2525e6	-0.64510953
59	0xbe8db67b	-0.27678284
60	0x3e863db8	0.26218963
61	0x3cdf357d	0.027247185
62	0xbe1eaf73	-0.15496616
63	0xbf19ee4c	-0.6012924

node_encoder.layers.1.running_var f4 [64]
0	0x3d2a0ca1	0.04151595
1	0x3cbb2cad	0.022848452
2	0x3d3a2915	0.045449335
3	0x3d09f4b8	0.033680648
4	0x3cbfd4cb	0.023416897
5	0x3c9895e8	0.018626168
6	0x3c5f60b1	0.013633893
7	0x3caf695a	0.02141254
8	0x3ce644f7	0.028109057
9	0x3d30a8a1	0.043129567
10	0x3d6800dd	0.05664145
11	0x3c892995	0.01674346
12	0x3cbd307d	0.02309441
13	0x3bdcad10	0.006734498
14	0x3d37f9bb	0.044915896
15	0x3c6d55f0	0.014485821
16	0x3d564732	0.05231399
17	0x3d414575	0.04718538
18	0x3c45e95d	0.012079564
19	0x3d1337fe	0.03594207
20	0x3c91ebc5	0.017812619
21	0x3bd7b9a2	0.0065834085
22	0x3d1bd495	0.03804453
23	0x3d0c45ac	0.03424613
24	0x3d9b9d19	0.075983234
25	0x3d214e4d	0.039381314
26	0x3d129f2f	0.03579634
27	0x3cbdb976	0.023159724
28	0x3cae3641	0.021266105
29	0x3cf8e1bb	0.030381074
30	0x3c76713c	0.015041646
31	0x3d0f98be	0.035057776
32	0x3ce104fe	0.0274682
33	0x3d214d2f	0.03938025
34	0x3c8974d1	0.016779335
35	0x3d50ca00	0.050973892
36	0x3d921b0e	0.071340665
37	0x3d0d3d73	0.03448243
38	0x3c8a50a2	0.016884152
39	0x3d2bcc5f	0.04194295
40	0x3b9959a6	0.0046798764
41	0x3d32be25	0.043638367
42	0x3d45761e	0.04820835
43	0x3cd55dd5	0.02604572
44	0x3cfad322	0.030618254
45	0x3d848581	0.06470776
46	0x3c09ec9f	0.008418231
47	0x3d41de80	0.047331333
48	0x3c401c87	0.011725551
49	0x3d8c4897	0.06849783
50	0x3bebb709	0.0071934504
51	0x3d568f9a	0.052383043
52	0x3c831618	0.016001746
53	0x3d00d880	0.03145647
54	0x3cef46ac	0.029208504
55	0x3d0d5b16	0.034510694
56	0x3ca06822	0.019580904
57	0x3c3f1d77	0.01166474
58	0x3d0c2e0f	0.034223612
59	0x3d5f7e71	0.054563943
60	0x3c3e2ba7	0.011607087
61	0x3cb29690	0.02180031
62	0x3bd8c177	0.0066148597
63	0x3b9b1c9a	0.004733634

node_encoder.layers.3.weight f4 [64, 64]
0	0x3d87d2c9	0.06632001
1	0xbda2cc0f	-0.07949077
2	0x3d6b38d5	0.057427246
3	0x3d4bcf28	0.049758106
4	0x3db18dea	0.08669646
5	0xbdcd8230	-0.10034597
6	0x3d97a556	0.07404582
7	0xbd99c927	-0.0750907
8	0x3d33285b	0.043739658
9	0x3dd0e491	0.101998456
10	0xbc66089c	-0.014040139
11	0xbc2626ef	-0.010141118
12	0xbd097e43	-0.03356768
13	0xbdf36348	-0.11884171
14	0x3d61cc02	0.055126198
15	0xbe03ebf3	-0.12882976
16	0x3dab72fa	0.083715394
17	0x3da3a355	0.079901375
18	0x3de812d9	0.1133172
19	0xbd2b4294	-0.04181154
20	0xbdbb3dfc	-0.09142682
21	0x3c60f0c1	0.013729275
22	0x3da097e7	0.07841473
23	0xbe038375	-0.12843116
24	0xbca3cba0	-0.019994557
25	0xbd9a127e	-0.07523058
26	0xbca30439	-0.019899474
27	0xbd9dc218	-0.07703036
28	0xbd5d67aa	-0.05405394
29	0xbd29ecd9	-0.04148564
30	0xbe025385	-0.12727173
31	0x3de5796b	0.11204799
32	0x3dec127d	0.11526964
33	0xbcac567e	-0.021037336
34	0xbbd19b95	-0.0063967207
35	0xbd50ceca	-0.05097846
36	0xbe015275	-0.12629111
37	0xbe03cb3a	-0.12870494
38	0x3d31e46a	0.043430723
39	0xbd9de0a3	-0.07708862
40	0xbd934209	-0.071903296
41	0xbc3ecb5d	-0.011645165
42	0xbd67ae35	-0.05656262
43	0xbd31462e	-0.04327982
44	0xbc365139	-0.011127763
45	0xbcd96f60	-0.026542366
46	0xbd461dad	-0.048368145
47	0xbd975753	-0.07389703
48	0xbdde5ae9	-0.108571835
49	0x3dc9d7fa	0.098556474
50	0xbd21a2cc	-0.039461896
51	0x3ca4f367	0.020135595
52	0xbd40ebde	-0.04709994
53	0x3bb0673b	0.0053834
54	0x3e033bfb	0.1281585
55	0x3d2bfdf3	0.04199023
56	0xbdce4f48	-0.100737154
57	0x3d247728	0.0401527
58	0x3ddf14b7	0.10892623
59	0x3cc14200	0.023591042
60	0x3da1a311	0.078924306
61	0x3df44fe8	0.119293034
62	0xbc29b2c1	-0.01035756
63	0x3cfe4423	0.03103835
64	0xbdbdc790	-0.09266579
65	0xbc8be5b5	-0.017077306
66	0x3dc1a1de	0.09454702
67	0x3d841b06	0.06450467
68	0xbd8cee90	-0.0688144
69	0xbdca0db5	-0.09865896
70	0xbdc74be0	-0.09731269
71	0xbde3fb40	-0.111319065
72	0xbdd2cb04	-0.102926284
73	0xbd30cba3	-0.043162953
74	0x3dbe2095	0.09283558
75	0x3cf6a548	0.03010811
76	0xbdd19df3	-0.102352045
77	0xbde75219	-0.11294956
78	0x3d7e2a9f	0.062052365
79	0xbdb967de	-0.09053014
80	0xbc220df9	-0.009891027
81	0x3d9528b2	0.07283153
82	0xbd641948	-0.055688173
83	0xbca8cf08	-0.020606533
84	0xba62805a	-0.00086403417
85	0xbd34ad49	-0.04411057
86	0xbd5fb66b	-0.054617327
87	0xbddda62d	-0.10822711
88	0xbdbde693	-0.09272494
89	0xbd5070fe	-0.050889008
90	0x3dead2b1	0.114659674
91	0xbd9aba94	-0.07555118
92	0xbd9a9219	-0.07547397
93	0x3d11d5b2	0.035604186
94	0x3d30bbfe	0.043148033
95	0x3d9df98d	0.07713614
96	0x3dd608d3	0.10450902
97	0x3d8f6808	0.07002264
98	0xbdea3797	-0.11436384
99	0x3c99a192	0.0187538
100	0x3db8fe6e	0.090329036
101	0xbca810d7	-0.020515842
102	0xbd99f58a	-0.07517536
103	0x3de1a6f4	0.11018172
104	0xbd1aec51	-0.037823025
105	0xbd976f50	-0.07394278
106	0xbdccee84	-0.10006431
107	0x3c24bd71	0.010054932
108	0x3d1c61da	0.038179256
109	0x3cb4a167	0.022049619
110	0x3d08da48	0.033411294
111	0xbddbd686	-0.107342765
112	0xbdebcf00	-0.115140915
113	0xbb865bd5	-0.0041003027
114	0x3dfbe76e	0.12300001
115	0x3d776c3d	0.06040596
116	0xbd80d658	-0.06290883
117	0xbc60988b	-0.013708244
118	0xbda85c43	-0.082207225
119	0xbd48229f	-0.048861142
120	0x3cf476ce	0.029841807
121	0x3d7689db	0.060190063
122	0x3db8c39c	0.090216845
123	0xbdf8207b	-0.1211557
124	0x3da0e517	0.078561954
125	0xbdae84fb	-0.08521458
126	0x3d64a405	0.055820484
127	0x3ddf1d36	0.108942434
128	0x3c0eae3f	0.008708536
129	0x3de3e8f3	0.11128416
130	0xbdf45887	-0.11930948
131	0xbd29bd5c	-0.041440353
132	0x3d747420	0.059681058
133	0xbcc0f609	-0.023554819
134	0xbca372d7	-0.01995222
135	0xbd61d1a3	-0.055131566
136	0x3da45384	0.08023742
137	0x3d8618a0	0.065476656
138	0x3d10e850	0.0353778
139	0xbd9e2539	-0.077219434
140	0xbdcab26a	-0.09897311
141	0x3ca49d87	0.020094646
142	0x3caa601a	0.020797778
143	0xbd5aba5e	-0.05340039
144	0xbd13df65	-0.036101718
145	0x3da7123a	0.08157773
146	0xbbc1d029	-0.005914707
147	0x3c70ecd8	0.014704905
148	0xbd083a47	-0.033258703
149	0xbdd8f8c1	-0.10594321
150	0xbdf16754	-0.117872864
151	0xbd6bc691	-0.057562415
152	0xbd88f95d	-0.06688187
153	0x3d0e79cf	0.034784134
154	0xbcde95af	-0.027170984
155	0xbd2bf53d	-0.041981924
156	0x3de0efd6	0.10983245
157	0x3d20d66a	0.03926698
158	0x3da64453	0.081185006
159	0xbd83850e	-0.064218625
160	0xbd219ac5	-0.03945424
161	0x3d28cb34	0.041209415
162	0xbdb3f920	-0.08787751
163	0xbdb665ce	-0.089061365
164	0xbc10e085	-0.008842592
165	0xbd1d21e9	-0.038362417
166	0xbdc92035	-0.09820596
167	0x3d8c9c42	0.06865741
168	0x3dc377d5	0.095443405
169	0x3c53d50b	0.012929211
170	0xbcc8d0b8	-0.024513587
171	0xbdf4bce0	-0.119500875
172	0xbd1a2db9	-0.03764126
173	0x3cc9e0c9	0.024643319
174	0x3d524d2a	0.05134312
175	0xbc1553c0	-0.009114206
176	0xbd7ce19c	-0.061738595
177	0x3da29938	0.079393804
178	0xbdd51c11	-0.10405744
179	0x3db0e46d	0.08637319
180	0xbd7ed503	-0.062214863
181	0x3bd03f77	0.006355222
182	0xbcde59c5	-0.027142415
183	0x3c39956c	0.011327129
184	0xbd399d38	-0.04531595
185	0x3dcc1efa	0.09966846
186	0xbb88f5de	-0.0041797003
187	0x3ddae79f	0.106887095
188	0x3dda2001	0.106506355
189	0xbd987f9f	-0.07446217
190	0xbdabab85	-0.08382324
191	0x3dcd3c0e	0.1002122
192	0x3dbbe598	0.09174651
193	0xbdad5464	-0.08463362
194	0x3b68c541	0.0035517963
195	0xbe03a6cb	-0.12856595
196	0xbdbe76d2	-0.09300007
197	0x3ccef684	0.025264032
198	0x3cace885	0.021106968
199	0x3d01c478	0.031681508
200	0xbd115256	-0.035478912
201	0x3dd37268	0.10324556
202	0x3cd2e8ae	0.025745716
203	0xbd898c09	-0.06716163
204	0xbc53812e	-0.012909217
205	0x3c94f2a9	0.018182116
206	0x3d712823	0.058876168
207	0xbdab0f3b	-0.08352514
208	0x3d4e8e57	0.050428715
209	0xbd6e3b4f	-0.05816203
210	0xbdb1e16c	-0.08685574
211	0xbda19457	-0.07889622
212	0x3e02500b	0.12725846
213	0x3dc35e14	0.09539428
214	0x3df95f29	0.121763535
215	0x3db0394e	0.0860468
216	0x3dd61ae6	0.10454349
217	0xbc46cd76	-0.012133947
218	0xbd9f94a7	-0.07792025
219	0x3d521347	0.051287916
220	0xbd6bb083	-0.05754138
221	0xbda91b5f	-0.08257174
222	0xbd089a5d	-0.033350337
223	0x3d18fdf0	0.03735155
224	0x3d986465	0.07441024
225	0xbd4145f7	-0.047185864
226	0xbd876950	-0.06611884
227	0x3c97faac	0.018552147
228	0xbd8e0df5	-0.06936256
229	0xbdbaa3cc	-0.09113273
230	0x3d88329b	0.06650277
231	0xbccb3cdd	-0.024809295
232	0x3dfb0bd6	0.12258117
233	0x3df7b723	0.120954774
234	0x3d3068fe	0.04306888
235	0x3d6ed391	0.058307234
236	0x3c95039c	0.018190198
237	0x390f7dbd	0.00013684384
238	0xbb0d101a	-0.002152449
239	0xbc2513d2	-0.010075526
240	0x3d73d6cb	0.059531014
241	0x3ddd783d	0.10813949
242	0xbcb7810f	-0.022400407
243	0xbd8432aa	-0.06454976
244	0xbc8585a2	-0.016299073
245	0xbd65515c	-0.055985793
246	0x3ce4bd87	0.027922405
247	0x3dc981bd	0.09839199
248	0x3de145d3	0.10999646
249	0x3d3c71de	0.04600703
250	0xbdcbe65b	-0.09956046
251	0xbd9ce947	-0.076616816
252	0xbc9464b5	-0.018114427
253	0xbc24c589	-0.010056862
254	0x3c86fa9a	0.016476918
255	0xbded31d0	-0.115817666

node_encoder.layers.3.bias f4 [64]
0	0x378c59da	1.6731141e-05
1	0x3be2b6dc	0.006918771
2	0x39f503f8	0.00046732998
3	0xbd0157f3	-0.031578016
4	0x3b436295	0.0029813398
5	0x3c91db88	0.017804876
6	0xbc3c3548	-0.011487313
7	0xbcc13650	-0.023585469
8	0xbcdc478c	-0.026889585
9	0xbc0dd30c	-0.0086562745
10	0xb9660097	-0.00021934729
11	0xb8da41a0	-0.00010407274
12	0x371a7612	9.206606e-06
13	0x3a8fc1b4	0.0010967762
14	0x3ca9dcbe	0.02073514
15	0x390bf6ea	0.00013348056
16	0xbc8a7afb	-0.016904345
17	0x3a8fbea3	0.0010966848
18	0xbc9032c5	-0.017602334
19	0xb9e3141a	-0.0004331179
20	0xbd64dcc0	-0.055874586
21	0x39a82f0d	0.00032078513
22	0xbd173a73	-0.036920976
23	0x3afbbf63	0.0019206818
24	0x3cdfbe5b	0.027312448
25	0xbd0979f9	-0.033563588
26	0xbc460b93	-0.01208772
27	0xbd1e1919	-0.038598154
28	0xba9088ff	-0.0011027156
29	0xb65969dc	-3.2397138e-06
30	0xbc35aba9	-0.01108829
31	0x3c9cd917	0.019146485
32	0x3b6a0d00	0.0035713315
33	0xbd5236b2	-0.051321693
34	0xb908e9ee	-0.00013057116
35	0xbb95841a	-0.004562867
36	0xb9aeab3a	-0.0003331544
37	0x3c70a1c9	0.01468701
38	0x38d54d49	0.00010171027
39	0xbce7d1be	-0.028298255
40	0x3cef999e	0.029248055
41	0xbd57224c	-0.052522942
42	0xb8d1389f	-9.976443e-05
43	0x3af8f686	0.0018994368
44	0x3d491050	0.049087822
45	0x3d71bf31	0.059020225
46	0x3a4fd619	0.00079283264
47	0xb95ff5ee	-0.00021358553
48	0xbd466af3	-0.04844184
49	0x37823566	1.5522073e-05
50	0x3a45dfd0	0.0007548304
51	0xba8e318f	-0.001084851
52	0xbcc6a46c	-0.024248324
53	0xb9e7434f	-0.00044109902
54	0x3c36844b	0.01113994
55	0x3d193cdd	0.03741156
56	0xb9ca29fb	-0.0003855972
57	0x3d56e876	0.052467786
58	0xbd659869	-0.056053553
59	0x3a8ed2a8	0.0010896521
60	0x3ad05961	0.0015895778
61	0xba895720	-0.0010478236
62	0x3bf3cda1	0.0074402844
63	0xbccd9c3f	-0.025098918

node_encoder.layers.4.weight f4 [64]
0	0x3f806ed0	1.0033817
1	0x3f826929	1.0188342
2	0x3f7fdbcb	0.9994475
3	0x3f8109f0	1.0081158
4	0x3f7f2814	0.9967053
5	0x3f7dc036	0.99121416
6	0x3f7fb233	0.99881285
7	0x3f8063fc	1.0030513
8	0x3f7e8e8e	0.9943627
9	0x3f7f160c	0.99643016
10	0x3f7e1f40	0.99266434
11	0x3f80061b	1.0001863
12	0x3f7fcb4f	0.999196
13	0x3f7eb3a9	0.9949289
14	0x3f8190d4	1.0122323
15	0x3f7d4d72	0.989463
16	0x3f7b95ff	0.9827575
17	0x3f80d254	1.0064187
18	0x3f7d1265	0.9885619
19	0x3f7f17d5	0.9964574
20	0x3f819694	1.0124078
21	0x3f7fa26e	0.99857223
22	0x3f7f5b22	0.9974843
23	0x3f810daf	1.0082301
24	0x3f818e5c	1.012157
25	0x3f8045b3	1.002127
26	0x3f80ba2a	1.0056813
27	0x3f809da5	1.0048109
28	0x3f8074ee	1.0035684
29	0x3f7d8809	0.990357
30	0x3f800010	1.0000019
31	0x3f7a98b5	0.9788926
32	0x3f810b83	1.0081638
33	0x3f7f5230	0.99734783
34	0x3f8084cb	1.0040525
35	0x3f80d3b3	1.0064605
36	0x3f806613	1.003115
37	0x3f801a5e	1.0008047
38	0x3f7f3bb0	0.9970045
39	0x3f814167	1.0098084
40	0x3f7f6af9	0.997726
41	0x3f804d6d	1.0023628
42	0x3f7f8828	0.9981713
43	0x3f7e0346	0.99223745
44	0x3f7cedfc	0.98800635
45	0x3f8125d3	1.0089668
46	0x3f80ecbd	1.0072247
47	0x3f7e2901	0.99281317
48	0x3f7fdbcc	0.9994476
49	0x3f7d634a	0.9897963
50	0x3f7f5ebc	0.9975393
51	0x3f7d3205	0.9890445
52	0x3f7d8643	0.9903299
53	0x3f7f67df	0.9976787
54	0x3f7d71d5	0.9900182
55	0x3f809e57	1.0048321
56	0x3f7fa82b	0.9986598
57	0x3f821517	1.0162686
58	0x3f806bcd	1.0032898
59	0x3f7f4702	0.99717724
60	0x3f81ce82	1.0141146
61	0x3f7fb49f	0.9988498
62	0x3f7fd959	0.9994102
63	0x3f7df3da	0.9920021

node_encoder.layers.4.bias f4 [64]
0	0x3c75ee0e	0.01501037
1	0x3bd7aa7b	0.006581602
2	0xbac065e9	-0.0014678809
3	0xbb426cd4	-0.0029666917
4	0xbc493554	-0.012280781
5	0xbc7bf63c	-0.015378531
6	0xbaccef93	-0.0015635364
7	0xbc11c961	-0.00889811
8	0x3bff480a	0.00779057
9	0xba503c19	-0.00079435256
10	0xbc8d36a3	-0.017237967
11	0x3b6e737a	0.0036384747
12	0x3bc4464e	0.0059898263
13	0xbbf5ae2e	-0.0074975705
14	0xbc0e083e	-0.008668957
15	0xbc4c8b34	-0.0124843605
16	0xbb9aba5b	-0.0047219223
17	0x3af9b7c3	0.0019051958
18	0x3acfc7d6	0.0015852402
19	0x3b900539	0.004395154
20	0xbc00393b	-0.007826145
21	0x3bb462c1	0.0055049364
22	0x3a9952fc	0.0011697705
23	0xba55ff3b	-0.00081633375
24	0x3b953aaf	0.004554115
25	0x3b611310	0.0034343638
26	0xbab99b14	-0.0014160597
27	0x3c0a09d7	0.008425198
28	0xbb366c17	-0.0027835423
29	0xbc7d2289	-0.015450128
30	0x3b664b69	0.0035140163
31	0xbc896d9b	-0.016775897
32	0x3ae3e2c1	0.0017386304
33	0x39bb18fd	0.00035686037
34	0xbc0200bd	-0.007934746
35	0x3c49d479	0.012318724
36	0xbaf42df6	-0.001862942
37	0xbc95a1af	-0.018265573
38	0x3c76c6ff	0.015062093
39	0x3c87ad97	0.016562266
40	0xbc4b2a61	-0.012400241
41	0xbc1898bb	-0.0093137575
42	0xbab8ec1c	-0.0014108452
43	0xbb955921	-0.004557744
44	0xbbebd67b	-0.007197199
45	0x3c293ac5	0.010328953
46	0x3c2a2912	0.0103857685
47	0xba00d131	-0.00049139844
48	0x3b6c8919	0.0036092459
49	0xbc093050	-0.008373335
50	0x3b79c952	0.003811438
51	0xbc40694d	-0.011743856
52	0xbc3363ea	-0.010949114
53	0x3b7f51be	0.0038958634
54	0xbc0ef0a9	-0.00872437
55	0x3aa554ef	0.0012613813
56	0x3c4bdc1e	0.012442617
57	0x3c865cb1	0.01640162
58	0xbb56ebe0	-0.00327944
59	0xbc0288c1	-0.007967175
60	0x3c485f90	0.012229815
61	0xbb8d42e5	-0.004310953
62	0x3bc1123f	0.0058920677
63	0x3b935ef7	0.0044974047

node_encoder.layers.4.running_mean f4 [64]
0	0xbe3d0e21	-0.18462421
1	0xbe9cd34f	-0.30629966
2	0xbe2d0e2b	-0.16899936
3	0x3d80ffd1	0.06298793
4	0x3d6d8fc1	0.057998423
5	0xbea164f9	-0.3152235
6	0x3e241324	0.16022927
7	0x3d3d24fd	0.046177853
8	0x3ac2a9e5	0.0014851658
9	0x3e748b06	0.23881158
10	0xbe106cf8	-0.14104068
11	0xbd3c0a01	-0.045907978
12	0x3d4766a7	0.04868188
13	0xbd9d0c00	-0.076683044
14	0x3eaca4c5	0.3371946
15	0x3e251bc8	0.16123879
16	0x3e03f78b	0.12887399
17	0xbe2a2eb9	-0.16619386
18	0xbe35ef58	-0.17767084
19	0x3e9886f8	0.29790473
20	0x3a981305	0.0011602348
21	0xbe581c4e	-0.21104547
22	0x3e078b05	0.13236625
23	0x3e503425	0.20332392
24	0x3dc21db4	0.09478322
25	0xbdaf8ee8	-0.08572179
26	0x3c223b97	0.009901903
27	0xbf0057ea	-0.50134146
28	0x3e28623b	0.16443722
29	0x3efb430a	0.49074584
30	0xbe6bbec0	-0.23021984
31	0xbed017fd	-0.40643302
32	0xbc08c09c	-0.008346703
33	0xbf0c3876	-0.5477365
34	0x3e767ad3	0.24070291
35	0x3e8137c6	0.25237864
36	0x3eb1f887	0.34759924
37	0xbea89023	-0.32922468
38	0x3f08a48b	0.5337607
39	0xbe34a39e	-0.1764054
40	0x3e7abf7b	0.24487107
41	0xbdfdbf72	-0.12390031
42	0xbd6b0d8f	-0.057385977
43	0x3dac127e	0.084019646
44	0xbcc7fed0	-0.024413496
45	0x3db81228	0.08987838
46	0x3e0af265	0.13569029
47	0xbee10880	-0.43951797
48	0xbe13d608	-0.14437115
49	0xbe1601c5	-0.14649113
50	0xbe43186d	-0.19052286
51	0xbeb7dd23	-0.359109
52	0xbd3bbc4a	-0.045833863
53	0xbe6f907f	-0.23394965
54	0xbc21b942	-0.009870829
55	0x3e595ff6	0.21228012
56	0xbe9bbb7e	-0.30416483
57	0x3e9abd1b	0.302224
58	0x3cb78e2d	0.022406662
59	0x3e57b5df	0.21065472
60	0xbb0d893f	-0.0021596698
61	0x3e29287b	0.16519348
62	0x3e3185ce	0.17336199
63	0xbc34045e	-0.010987369

node_encoder.layers.4.running_var f4 [64]
0	0x3de83097	0.11337393
1	0x3dd2ea0d	0.10298548
2	0x3dbdcfb7	0.09268134
3	0x3dbc174d	0.09184132
4	0x3dcbb78e	0.0994712
5	0x3d65f023	0.056137215
6	0x3e893fcc	0.26806486
7	0x3e4093d5	0.18806393
8	0x3e78a84e	0.24282953
9	0x3daa14ce	0.083047494
10	0x3d4b6ad1	0.049662415
11	0x3dbeaeac	0.0931066
12	0x3e0982be	0.1342878
13	0x3e4b6b86	0.19865236
14	0x3d2bb094	0.041916445
15	0x3d858c3f	0.065208904
16	0x3e0b7723	0.13619666
17	0x3d8efb22	0.069814935
18	0x3d82f9b0	0.0639528
19	0x3d6651a4	0.056230202
20	0x3d9cadde	0.0765035
21	0x3e8f905a	0.2803982
22	0x3e53e0f1	0.20691277
23	0x3d00c9ea	0.03144256
24	0x3e0f2c04	0.13981634
25	0x3e24a49c	0.16078418
26	0x3e35145d	0.17683549
27	0x3d2eb139	0.04264948
28	0x3d18659b	0.037206274
29	0x3df6f88c	0.12059125
30	0x3d8f900c	0.07009897
31	0x3e6ce818	0.23135412
32	0x3cecf5ec	0.028925858
33	0x3db96d7f	0.09054088
34	0x3d794b2b	0.0608627
35	0x3e153821	0.14572193
36	0x3ddc2c74	0.10750666
37	0x3e89d935	0.26923528
38	0x3dff1238	0.12454647
39	0x3d840e06	0.06447987
40	0x3e1471c3	0.14496522
41	0x3dfe21b9	0.12408776
42	0x3e08c3bc	0.13355917
43	0x3e59136e	0.21198818
44	0x3de7230e	0.11285983
45	0x3df22c18	0.118248165
46	0x3dde8593	0.10865321
47	0x3e3bc5e1	0.18337204
48	0x3ddb7a8b	0.107167326
49	0x3db7a071	0.08966149
50	0x3db94337	0.09046023
51	0x3e095d35	0.13414462
52	0x3e41f035	0.18939288
53	0x3db31b33	0.08745422
54	0x3e3d7b8f	0.18504165
55	0x3e1249e5	0.14286001
56	0x3e83c328	0.2573483
57	0x3d6572ec	0.0560178
58	0x3e199a8b	0.1500036
59	0x3e099f21	0.13439609
60	0x3da80ac4	0.082051784
61	0x3e49d2cc	0.19709319
62	0x3dee23f5	0.11627952
63	0x3e41a6a1	0.1891122

node_encoder.layers.6.weight f4 [32, 64]
0	0x3dada589	0.08478839
1	0xbddfef99	-0.109343715
2	0xbda601a0	-0.08105779
3	0xbc820b17	-0.015874429
4	0xbdf2de0d	-0.11858759
5	0xbde81a3d	-0.113331296
6	0xbddbb256	-0.10727374
7	0x3dcfd0de	0.1014726
8	0x3cc1ee2b	0.023673138
9	0xbd337cae	-0.043820076
10	0x3adc5275	0.0016809242
11	0xbde9ed45	-0.11422209
12	0xbdf545c9	-0.11976201
13	0xbdc5d8ae	-0.09660469
14	0xbdfdb371	-0.12387741
15	0x3da1daf0	0.07903087
16	0xbd2e6d26	-0.04258456
17	0xbd0c46e1	-0.034247283
18	0xbdff6496	-0.12470357
19	0x3ae05268	0.0017114403
20	0xbc865ace	-0.01640072
21	0xbdb231ab	-0.0870088
22	0x3da0f44e	0.078590974
23	0x3dd4f68b	0.10398587
24	0xbdc2a598	-0.09504241
25	0x3d9698f5	0.07353393
26	0xbc842f1b	-0.016135743
27	0x3c5e393e	0.013563452
28	0x3d62ecb1	0.055401508
29	0xbcf9b031	-0.030479522
30	0x3de8817e	0.11352824
31	0x3d954596	0.07288663
32	0xbd95481b	-0.07289144
33	0xbd9baac4	-0.0760093
34	0xbe049641	-0.12947942
35	0x3d02efe3	0.031967055
36	0xbdcacbd9	-0.09902162
37	0xbdc507bd	-0.096206166
38	0xbda9e65c	-0.08295891
39	0xbe052b30	-0.13004756
40	0xbdd96d83	-0.10616591
41	0x3dd10c69	0.10207445
42	0x3da91ba2	0.08257224
43	0x3dd80198	0.10547179
44	0xbd743820	-0.059623837
45	0xbd4bc781	-0.04975081
46	0xbd729463	-0.059223544
47	0xbc0df52c	-0.008664411
48	0xbdb0dcaf	-0.08635842
49	0x3c573145	0.013134305
50	0xbd92a0b5	-0.07159559
51	0x3cf967f0	0.03044507
52	0x3de1ba55	0.11021868
53	0x3ca83dae	0.020537224
54	0x3da27d4a	0.07934053
55	0xbdbd40df	-0.09240889
56	0xbcd23996	-0.025662225
57	0xbdac18cb	-0.084031664
58	0xbcdac7c8	-0.026706591
59	0xbd51f023	-0.051254403
60	0xbda18923	-0.07887485
61	0xbdf84ecf	-0.121244065
62	0xbd382f55	-0.044967014
63	0x3ca3e196	0.020005029
64	0xbcadf269	-0.021233754
65	0xbdfc0ae8	-0.12306768
66	0x3db55de0	0.08855796
67	0x3dabefd6	0.083953544
68	0xbd9c73a7	-0.076392464
69	0x3c994ad2	0.018712435
70	0x3db5e45f	0.08881449
71	0xbdfb58ed	-0.122728206
72	0xbddb0e73	-0.10696115
73	0x3d837011	0.06417859
74	0x3b41ed2f	0.0029590835
75	0x3d4f9209	0.05067638
76	0xbd5a6100	-0.053315163
77	0x3c8d4f50	0.017249733
78	0x3da1c937	0.07899707
79	0xbcee2581	-0.029070618
80	0xbd15c7b8	-0.03656742
81	0xbe006b97	-0.12541042
82	0xbcbaf291	-0.022820743
83	0x3d9efe01	0.07763291
84	0xbe00008d	-0.1250021
85	0xbc136533	-0.008996296
86	0x3db20b52	0.086935654
87	0xbd010a6c	-0.03150408
88	0xbd527b6f	-0.051387247
89	0xbd2d8c50	-0.04237014
90	0xbd5b08db	-0.053475242
91	0x3cb3a8e6	0.021931123
92	0xbe068e88	-0.13140309
93	0x3d105ccf	0.03524476
94	0xbcde8bb0	-0.027166218
95	0xbc97dde3	-0.018538421
96	0xbbf9e2da	-0.0076259198
97	0x3da034ac	0.07822546
98	0xbda55070	-0.08071983
99	0xbdf72326	-0.12067251
100	0xbdc2884d	-0.094986536
101	0xbdaa082e	-0.083023414
102	0xbd88a94c	-0.06672916
103	0x3dd3c226	0.10339765
104	0xbdbb6488	-0.09150034
105	0xbd8c2d9c	-0.06844637
106	0xbdcb7382	-0.09934141
107	0xbd75c62d	-0.06000345
108	0xbbab66db	-0.005230767
109	0xbda3afee	-0.0799254
110	0xbc356641	-0.0110717425
111	0x3d381170	0.044938505
112	0xbcb8ac3f	-0.02254307
113	0x3d620d2d	0.055188347
114	0x3d017e2b	0.031614464
115	0x3df95eb5	0.12176267
116	0xbc54f04e	-0.012996746
117	0x3dd7c6d3	0.105359696
118	0x3dbd08b3	0.09230175
119	0x3d4d99c7	0.05019548
120	0x3d95eae0	0.073201895
121	0xbdb43795	-0.08799664
122	0xbdac4a54	-0.084126145
123	0x3d65e6a0	0.056128144
124	0x3d277246	0.040880464
125	0x3dd1200f	0.10211193
126	0xbcbc083d	-0.022953147
127	0xbcf4f59b	-0.02990227
128	0x3da0cc0e	0.0785142
129	0x3be73cb5	0.0070567974
130	0x3df876b6	0.12132017
131	0xbd807165	-0.06271628
132	0xbd0d7ca5	-0.0345427
133	0xbbb07dc3	-0.0053860857
134	0x3d71e99b	0.059060674
135	0xbdd86d74	-0.105677515
136	0xbd2dc37c	-0.042422757
137	0x3dc0a296	0.09406011
138	0x3cf73ebb	0.03018128
139	0x3daa5306	0.08316617
140	0xbd2654b5	-0.040608127
141	0xbd996fab	-0.07492002
142	0xbdcd0f3b	-0.100126706
143	0xbd88c570	-0.06678283
144	0xbda3da44	-0.08000615
145	0x3d8f36c0	0.069928646
146	0x3d339ae4	0.043848887
147	0xbd9b846b	-0.07593616
148	0x3df4be8c	0.119504064
149	0x3d0932b9	0.03349564
150	0x3d255ff4	0.04037471
151	0xbd769390	-0.06019932
152	0x3da1af02	0.07894708
153	0xbdb67c31	-0.089104064
154	0x3dbe14a8	0.092812836
155	0xbd856cd6	-0.065148994
156	0x3d48d9d9	0.04903588
157	0xbd557d94	-0.052121714
158	0x3da29152	0.07937874
159	0xbdd910f3	-0.10598936
160	0xbc2fb11a	-0.010723377
161	0xbd2ea45c	-0.042637214
162	0xbda9c355	-0.0828921
163	0xbd6515cf	-0.055929
164	0xbd3906fb	-0.045172673
165	0x3b869276	0.004106815
166	0x3db5e588	0.0888167
167	0xbcc0fdf4	-0.023558594
168	0x3deece34	0.11660424
169	0xbd6d9563	-0.058003794
170	0xbd6f1387	-0.058368232
171	0xbbcfc68f	-0.0063408087
172	0xbc9bbfed	-0.019012416
173	0x3d47b20b	0.04875378
174	0x3de53e5d	0.111935355
175	0x3d145c03	0.03622056
176	0xbdde2c18	-0.10848254
177	0xbd3e96d5	-0.046530563
178	0xbca5f086	-0.020256292
179	0xbdc40254	-0.095707566
180	0x3d031a09	0.03200725
181	0x3dd759cf	0.105151765
182	0x3d6cfcc4	0.057858244
183	0xbc82f909	-0.01598789
184	0xbc83601d	-0.016037041
185	0xbd81e3de	-0.0634229
186	0xbc8ae27a	-0.016953696
187	0x3de886b4	0.113538176
188	0xbd9808ff	-0.07423591
189	0x3c6b87a4	0.014375601
190	0xbdb00c56	-0.08596103
191	0xbceb5269	-0.02872582
192	0x3c21a834	0.009866763
193	0xbddddcc8	-0.10833126
194	0x3d1e070f	0.03858095
195	0xbdf0a45b	-0.11750098
196	0xbd3b25aa	-0.045690216
197	0x3dc1ed5b	0.094691
198	0x3e018150	0.12646985
199	0xbb8db75e	-0.0043248376
200	0xbdbe9a93	-0.093068264
201	0xbdc57e49	-0.096432276
202	0xbd0ec63a	-0.034857012
203	0xbd8f3315	-0.06992165
204	0x3dc538a2	0.096299425
205	0xbdac6c36	-0.08419077
206	0x3d8ada64	0.06779936
207	0x3c9ecd5f	0.019385038
208	0xbd2f4081	-0.042786125
209	0x3dcfa410	0.10138714
210	0x3d6793af	0.056537326
211	0x3a02a11a	0.00049831124
212	0xbda2d311	-0.07950414
213	0xbd3e82fa	-0.046511628
214	0x3d33c84b	0.043892186
215	0x3dcf6417	0.101265125
216	0xbd5de1a8	-0.05417028
217	0xbd2a19bf	-0.04152846
218	0xbdfaac20	-0.122398615
219	0x3d8d1627	0.06888991
220	0x3df7f7aa	0.12107785
221	0x3da03a9b	0.07823678
222	0xbda2d98b	-0.07951649
223	0x3d9db13c	0.076998204
224	0xbd2f144f	-0.042743977
225	0x3d993acd	0.074819185
226	0x3d7dd5d4	0.0619715
227	0xbdccb731	-0.099958785
228	0x3ca2f13a	0.019890416
229	0x3d7030af	0.05864018
230	0xbd924fa3	-0.07144096
231	0x3ddcb5df	0.10776877
232	0x3dba2a4e	0.090901
233	0x3dec150d	0.115274526
234	0x3c2b4fdc	0.010456052
235	0xbd7c0476	-0.06152769
236	0xbd87426d	-0.066044666
237	0x3d4aa5ba	0.049474455
238	0xbc997055	-0.018730322
239	0x3dc77c54	0.097405106
240	0x3dd0159b	0.10160371
241	0x3c4748d2	0.012163358
242	0xbdddfa0d	-0.10838709
243	0x3d41e41a	0.047336675
244	0x3dccecbf	0.10006093
245	0xbd18758c	-0.037221476
246	0xbd931a25	-0.07182721
247	0xbd2a2585	-0.041539688
248	0x3c50ecdb	0.012751783
249	0xbdd71834	-0.10502663
250	0x3d759d90	0.059964716
251	0x3d775f27	0.06039348
252	0xbd485e05	-0.04891779
253	0xbd6c6f26	-0.057723187
254	0xbd91e634	-0.07123986
255	0x3dd42598	0.10358733

node_encoder.layers.6.bias f4 [32]
0	0x3caa0799	0.020755576
1	0x3bee4821	0.007271782
2	0x3c73f772	0.0148905385
3	0x39b18adf	0.00033863538
4	0xbd1ea87b	-0.038734894
5	0xb6d0d59f	-6.223752e-06
6	0x3d563ce9	0.052304182
7	0x3d404bf9	0.046947453
8	0xbc9088ec	-0.017643414
9	0x3ce2489d	0.027622515
10	0x3bc06d33	0.0058723926
11	0xb97dd394	-0.00024206779
12	0x3c6090a6	0.013706362
13	0x367e8c16	3.793049e-06
14	0x3911a722	0.0001389054
15	0xbcc68bc9	-0.024236577
16	0xb937960c	-0.00017508137
17	0x3d75b9c1	0.0599916
18	0x3ca9554c	0.020670556
19	0xbd2653c9	-0.040607248
20	0xb90cf6a6	-0.00013443324
21	0x3cb78275	0.022401074
22	0xbb901913	-0.0043975203
23	0xb960d8a6	-0.00021443013
24	0x3c1e201a	0.009651208
25	0x3d34fdab	0.04418723
26	0x3d53f872	0.051750608
27	0xbd000150	-0.03125125
28	0xbd646bfe	-0.055767052
29	0x3cf27130	0.029594988
30	0x391a99a0	0.00014743814
31	0x3d51e8eb	0.05124752

edge_encoder.layers.0.weight f4 [64, 4]
0	0x3eb31f2a	0.34984714
1	0xbe5d2658	-0.21596658
2	0x3e0fed38	0.14055336
3	0x3e19e5dd	0.15029092
4	0xbe32ec3a	-0.17472926
5	0x3ee4797b	0.44623932
6	0x3d4b61c3	0.04965378
7	0xbe101792	-0.14071491
8	0xbeed1312	-0.46303612
9	0x3ec7bd2b	0.3901151
10	0xbef7d225	-0.48402515
11	0x3ec885d3	0.391646
12	0xbe1eaa5b	-0.15494673
13	0xbda78501	-0.08179665
14	0x3db1cd36	0.08681719
15	0x3ef43573	0.4769703
16	0xbea008f1	-0.31256822
17	0xbeb10f6b	-0.34582075
18	0x3ea076f0	0.31340742
19	0xbe5ab378	-0.21357524
20	0xbe4851ed	-0.19562502
21	0x3e8d2b12	0.27571923
22	0xbe58adb9	-0.2116002
23	0x3e9c11ee	0.3048243
24	0xbe50e513	-0.20399885
25	0x3ec5aa10	0.3860631
26	0x3ef90b59	0.4864147
27	0x3d52fb7a	0.051509358
28	0xbe18aba6	-0.14909229
29	0x3e8b7549	0.2723792
30	0x3e1c1b80	0.15244865
31	0x3b635543	0.003468827
32	0x3edd5e14	0.43235838
33	0xbcbc41d5	-0.02298061
34	0x3e3e2944	0.18570429
35	0xbe037552	-0.12837723
36	0xbd9febed	-0.07808671
37	0xbd03f881	-0.032219414
38	0x3d3dba7e	0.04632043
39	0x3e5c709e	0.21527335
40	0x3ebf4e7d	0.3736457
41	0x3e984606	0.29740924
42	0xbe5c380d	-0.21505757
43	0x3ed18a46	0.40925807
44	0x3eaaa7a0	0.33331013
45	0x3e3fb057	0.18719612
46	0x3d62d4f7	0.05537888
47	0xbe86d4b1	-0.26334146
48	0xbea2c0a3	-0.31787595
49	0x3cce8941	0.025211932
50	0xbeb0c6aa	-0.3452657
51	0x3e301668	0.17196047
52	0xbeda9bb4	-0.42696917
53	0xbedf9335	-0.43666998
54	0xbe726248	-0.23670304
55	0x3e8d70a3	0.27624997
56	0x3ece71ae	0.40321106
57	0xbed090d8	-0.40735507
58	0xbe9d3cf7	-0.30710575
59	0x3dc4a343	0.09601452
60	0xbdb0a293	-0.086247586
61	0xbecda005	-0.40161148
62	0x3e139b96	0.1441482
63	0xbec86beb	-0.39144835
64	0x3cb51d91	0.022108825
65	0x3e49cb1f	0.19706391
66	0x3ee700ac	0.451177
67	0xbecd4b0d	-0.40096322
68	0x3ebd07b6	0.36919945
69	0x3d84d583	0.06486037
70	0x3edc34cf	0.4300904
71	0x3ee39b1e	0.44454283
72	0xbdea321e	-0.1143534
73	0xbd904680	-0.07044697
74	0xbe08f7e0	-0.13375807
75	0x3ec919e6	0.3927757
76	0xbe529992	-0.20566395
77	0x3eaedf1b	0.3415459
78	0x3e5064e6	0.2035099
79	0x3edfec42	0.43734938
80	0x3eb275a2	0.34855372
81	0x3ecd13aa	0.40054065
82	0xbecfc11f	-0.40577027
83	0xbe7f1e61	-0.24913932
84	0xbeafbe90	-0.34325075
85	0x3e82f176	0.25574845
86	0x3de9357d	0.11387155
87	0x3e3b675f	0.18301152
88	0x3e4ae2e8	0.1981312
89	0x3cffd2a7	0.031228377
90	0x3e36c294	0.17847663
91	0xbe8d59f4	-0.2760769
92	0x3ea330d2	0.31873184
93	0xbedaba5e	-0.42720312
94	0xbee99c75	-0.4562718
95	0x3e2c4c56	0.16825995
96	0x3eec7e63	0.46190175
97	0xbe3733ba	-0.17890826
98	0x3ef1461b	0.471238
99	0xbe305d53	-0.172231
100	0xbebb4168	-0.36573339
101	0xbdb16534	-0.08661881
102	0x3e926291	0.28590825
103	0xbe714234	-0.2356041
104	0x3eecb54e	0.46232074
105	0xbe72add8	-0.23699129
106	0xbe623127	-0.22089063
107	0xbe49dcf6	-0.19713196
108	0xbec29edb	-0.38011822
109	0x3ee74581	0.45170215
110	0xbe9212e8	-0.2853005
111	0xbe700d79	-0.2344264
112	0xbe0cf367	-0.13764726
113	0x3ed2733a	0.41103536
114	0x3e7c8709	0.24660887
115	0x3e486384	0.19569212
116	0xbe0c4e39	-0.13701715
117	0x3e76e510	0.24110818
118	0x3db7b34a	0.089697435
119	0x3ece71ec	0.4032129
120	0x3dee6bf8	0.11641687
121	0x3ebcb37c	0.36855686
122	0x3eadb643	0.33928117
123	0x3d9d427d	0.07678697
124	0xbef19841	-0.47186473
125	0x3de8b6cb	0.1136299
126	0xbebc617e	-0.3679313
127	0x3d7f6fbb	0.062362414
128	0xbd319b8b	-0.043361228
129	0x3ebce418	0.36892772
130	0xbec42129	-0.3830655
131	0xbec271df	-0.37977502
132	0x3e55da5c	0.20884079
133	0x3eaf29e4	0.34211648
134	0xbde3e49b	-0.111275874
135	0x3e093962	0.13400796
136	0x3eca352c	0.39493692
137	0x3d2d3da3	0.04229511
138	0xbe120d80	-0.14262962
139	0x3e974b3d	0.2954959
140	0x3ee786e2	0.45220095
141	0xbdb3656f	-0.08759581
142	0x3eaa78cb	0.33295283
143	0x3c93f2f0	0.018060178
144	0xbdafcd3c	-0.08584067
145	0xbd4b7682	-0.049673565
146	0xbef510f4	-0.47864497
147	0x3e6076d3	0.21920328
148	0xbe85e32f	-0.2614989
149	0xbeddc030	-0.4331069
150	0xbd8e3d78	-0.06945318
151	0xbe31c7f7	-0.17361437
152	0xbe9c9034	-0.30578768
153	0xbdf5ec9b	-0.120080195
154	0xbd51752d	-0.05113714
155	0x3e075034	0.13214189
156	0x3d917991	0.07103265
157	0xbd8d33a1	-0.06894613
158	0x3df1848f	0.11792862
159	0xbe96db4f	-0.29464194
160	0x3edbfcbe	0.42966264
161	0x3e6c1db5	0.23058207
162	0x3e9f3cae	0.31100982
163	0xbed4a7f7	-0.41534397
164	0x3ea9b77e	0.33147806
165	0x3dd26a76	0.10274212
166	0xbef60397	-0.48049614
167	0x3ed809ff	0.42195126
168	0xbc144111	-0.009048716
169	0x3da67001	0.08126832
170	0x3ec4fba7	0.38473246
171	0x3ea76d35	0.32700506
172	0x3ee246cf	0.44194648
173	0xbeec234b	-0.46120676
174	0x3efa1879	0.48846796
175	0x3dd44ef6	0.10366623
176	0x3c772e90	0.015086785
177	0xbecf997a	-0.4054678
178	0xbe835e46	-0.25657862
179	0x3ee74a1e	0.45173734
180	0x3ec3cee3	0.3824378
181	0x3ec2ec4b	0.38070902
182	0xbd10bbd4	-0.035335377
183	0xbe881899	-0.26581267
184	0x3dead759	0.114668556
185	0xbe6af1cd	-0.22943802
186	0xbea944f1	-0.3306041
187	0x3e1c4266	0.15259704
188	0x3ec25b88	0.37960458
189	0xbec6a7ec	-0.3879999
190	0xbee4e16e	-0.4470324
191	0x3daa2644	0.0830808
192	0xbe46a940	-0.19400501
193	0xbe84e6ba	-0.2595728
194	0xbdc87cb4	-0.0978941
195	0xbd1d7083	-0.038437378
196	0xbe159b50	-0.14610028
197	0x3eb930cf	0.3617005
198	0x3e8fa151	0.28052762
199	0x3e0c6028	0.13708556
200	0xbe2f4a33	-0.17118149
201	0xbd3b4eb3	-0.04572935
202	0x3e9be661	0.30449203
203	0x3d09f305	0.033679027
204	0xbefa53b4	-0.48891985
205	0x3d514123	0.05108751
206	0x3e8058b8	0.25067687
207	0xbde9af8c	-0.11410436
208	0xbdc0dfb0	-0.09417665
209	0xbd950ac5	-0.07277445
210	0x3e99cb4d	0.3003792
211	0x3ebe2c7f	0.37143323
212	0xbec55373	-0.3854023
213	0x3ea7a9e7	0.32746813
214	0x3e56c74c	0.20974463
215	0x3e28febc	0.16503423
216	0xbe95e15d	-0.292735
217	0xbe8a1f24	-0.26976883
218	0x3ef924be	0.48660845
219	0x3dd3a5e8	0.103343785
220	0xbddf8c64	-0.10915449
221	0xbdc6d872	-0.097092524
222	0x3eab907c	0.3350867
223	0xbde05a67	-0.10954743
224	0x3eaf71e1	0.3426657
225	0xbe0553d5	-0.1302026
226	0x3dea9866	0.11454849
227	0x3de3ef88	0.11129671
228	0xbe8924b3	-0.26785812
229	0x3b5a222d	0.003328453
230	0x3db4d3c9	0.08829457
231	0xbef05316	-0.4693839
232	0xbdbaccaf	-0.091210715
233	0x3d2ee28d	0.042696524
234	0x3ed1d770	0.40984678
235	0x3ddd4008	0.108032286
236	0xbeda2c99	-0.4261215
237	0xbe246791	-0.16055132
238	0x3ef8ec0c	0.4861759
239	0xbd76e0a2	-0.06027282
240	0x3ebbccba	0.3667963
241	0x3d4250a2	0.04744018
242	0x3eabeca4	0.3357898
243	0xbe4e30b1	-0.20135762
244	0x3ef693aa	0.48159534
245	0x3dde80c4	0.10864404
246	0xbde0e20f	-0.10980617
247	0x3eba3f07	0.3637621
248	0x3e6ec252	0.23316315
249	0xbeb20b9c	-0.34774482
250	0xbd139f78	-0.036040753
251	0x3eb26b4b	0.34847483
252	0x3dfae159	0.12250013
253	0xbe1750ff	-0.14776991
254	0xbeac0faa	-0.336057
255	0xbea49f8e	-0.3215298

edge_encoder.layers.0.bias f4 [64]
0	0x3e580bc6	0.21098241
1	0x3e23e57e	0.16005513
2	0xbebff545	-0.37491813
3	0xbd2c3fa8	-0.042052895
4	0x3d82d34b	0.06387957
5	0xbebf9c40	-0.37423897
6	0x3eb9c1d1	0.36280683
7	0xbb8cf494	-0.004301617
8	0xbe0cb2a5	-0.13740022
9	0x3bb68435	0.0055699595
10	0x3dec9578	0.115519464
11	0x3d4b5f72	0.04965157
12	0x3ecfd122	0.40589243
13	0x3e5b9f50	0.21447492
14	0xbb037ba9	-0.002006272
15	0x3cdc4904	0.026890285
16	0x3d712796	0.058875643
17	0xbe07e5ca	-0.13271251
18	0xbeb8815f	-0.36036202
19	0xbb8a9944	-0.0042296965
20	0xbe000e48	-0.12505448
21	0xbecedf67	-0.40404817
22	0x3de7fa32	0.11327018
23	0xbe13612b	-0.14392535
24	0x3ed221d0	0.41041422
25	0x3de8fb38	0.11376041
26	0x3e16875a	0.1470007
27	0x3da7db9c	0.08196184
28	0x3e0497a6	0.12948474
29	0x3e81693b	0.25275597
30	0x3e99615c	0.29957092
31	0x3a025d76	0.0004973033
32	0xbda01a04	-0.07817462
33	0x3d93f466	0.0722435
34	0xbe233f33	-0.15942077
35	0x39431b54	0.0001860683
36	0x3da85c71	0.08220757
37	0x3e210cb6	0.15727505
38	0xbed4a5b1	-0.41532663
39	0x3e033413	0.12812833
40	0xbe032f80	-0.12811089
41	0xbe91af4e	-0.2845406
42	0xbe16885b	-0.14700453
43	0x3971dade	0.00023065085
44	0x3e380483	0.17970471
45	0xbec11ac6	-0.3771574
46	0x3d949f4a	0.072569445
47	0x3ec3be95	0.3823134
48	0xbe5ca5ca	-0.21547619
49	0x3d6aca26	0.05732169
50	0xbe0a97f4	-0.13534528
51	0x3d77dc4b	0.060512822
52	0x3e1a1d4a	0.15050235
53	0xbe7681e8	-0.24072993
54	0x3d6b6daa	0.05747763
55	0x3eda090b	0.42585024
56	0xba90445c	-0.0011006701
57	0xbe931354	-0.28725684
58	0x38e533a7	0.00010929192
59	0x3d483d71	0.04888672
60	0x3db7ed47	0.08980804
61	0x3a8ab1ee	0.0010581592
62	0xbd3cbba0	-0.04607737
63	0xbe3a68b5	-0.18204005

edge_encoder.layers.1.weight f4 [64]
0	0x3f79e5b7	0.9761614
1	0x3f7d0719	0.98838955
2	0x3f7cc8fa	0.98744166
3	0x3f7f177c	0.9964521
4	0x3f7c39cf	0.9852571
5	0x3f801980	1.0007782
6	0x3f7d01e0	0.98830986
7	0x3f7f9f64	0.99852586
8	0x3f7ed8c9	0.9954954
9	0x3f7bf261	0.98416716
10	0x3f80290a	1.0012524
11	0x3f7d0754	0.98839307
12	0x3f7b7ec8	0.9824033
13	0x3f7992ed	0.97489816
14	0x3f7cfcaa	0.98823035
15	0x3f7dace6	0.9909195
16	0x3f7a7839	0.97839695
17	0x3f7d879d	0.99035054
18	0x3f79fb9b	0.97649544
19	0x3f7cf4fa	0.98811305
20	0x3f7bc7c9	0.9835172
21	0x3f7bd895	0.9837735
22	0x3f7d4d38	0.9894595
23	0x3f7b0ad8	0.9806342
24	0x3f7c44e1	0.985426
25	0x3f7d1fd6	0.988767
26	0x3f7b9a02	0.9828187
27	0x3f7ebace	0.9950379
28	0x3f7f4f72	0.997306
29	0x3f7c2631	0.98495775
30	0x3f797a66	0.9745239
31	0x3f7d11e3	0.9885542
32	0x3f7f27db	0.9967019
33	0x3f7bf51c	0.9842088
34	0x3f7c7bc6	0.98626363
35	0x3f7e308e	0.9929284
36	0x3f7da3e8	0.99078226
37	0x3f7aa11f	0.979021
38	0x3f7dec51	0.99188715
39	0x3f7bb76d	0.9832676
40	0x3f7c0a80	0.9845352
41	0x3f7ceb64	0.9879668
42	0x3f7e20ad	0.9926861
43	0x3f7ece24	0.99533296
44	0x3f7b878a	0.9825369
45	0x3f781709	0.9691015
46	0x3f7f8b38	0.99821806
47	0x3f7ad622	0.9798299
48	0x3f7b8bfa	0.9826046
49	0x3f7c5f5a	0.98582995
50	0x3f7f5548	0.99739504
51	0x3f7c1beb	0.984801
52	0x3f7aba5a	0.979406
53	0x3f7bf515	0.9842084
54	0x3f805e9b	1.0028871
55	0x3f7d9e81	0.9906998
56	0x3f7d11d8	0.9885535
57	0x3f806149	1.0029689
58	0x3f7da93c	0.99086356
59	0x3f7dca74	0.99137044
60	0x3f7de999	0.99184567
61	0x3f7e8bf9	0.9943233
62	0x3f7b1108	0.9807286
63	0x3f7f312a	0.99684393

edge_encoder.layers.1.bias f4 [64]
0	0xba7a9589	-0.00095590256
1	0x3a7ffe02	0.0009765328
2	0xbc3495db	-0.011022056
3	0x3bf2c4a8	0.007408697
4	0x3baad13d	0.0052129314
5	0x3bda9b28	0.006671328
6	0xbbb4cd8b	-0.0055176667
7	0x3bef0451	0.0072942157
8	0x3b1d5058	0.0024004187
9	0x3a141f52	0.0005650419
10	0x3c109c88	0.008826382
11	0xbbe7809f	-0.0070648934
12	0xbc57d2a6	-0.013172781
13	0xbca9553b	-0.020670524
14	0xbc18d08f	-0.009327068
15	0xbb4b2d00	-0.0031002164
16	0xbc810ce2	-0.015753213
17	0xbbb6d2f7	-0.005579348
18	0xbc9a2d4f	-0.018820433
19	0xbb7a77d3	-0.0038218393
20	0xbbdcf7bc	-0.0067433994
21	0xbc195c70	-0.009360418
22	0xbb72cf76	-0.0037049926
23	0xbbc14860	-0.0058985204
24	0xbbc54dba	-0.0060212286
25	0xba2b40cd	-0.00065327884
26	0xba898151	-0.001049081
27	0x3b988bdb	0.004655344
28	0x3ae08ab4	0.001713118
29	0xbc022124	-0.007942472
30	0xbcb63699	-0.022242831
31	0xbbc68971	-0.0060588648
32	0x3ae91bb7	0.0017784749
33	0xbc114555	-0.008866628
34	0xbc0178ce	-0.007902337
35	0xbb8601e5	-0.0040895813
36	0xbbe03101	-0.006841779
37	0xbc5df286	-0.013546592
38	0x3922320b	0.00015468166
39	0xbc381b51	-0.0112369815
40	0xbc26eeba	-0.010188753
41	0xbacea81e	-0.0015766656
42	0xbb6035fe	-0.003421187
43	0x3b131063	0.0022440187
44	0xbb41bdfc	-0.0029562702
45	0xbc7d2519	-0.015450739
46	0x3af411d9	0.0018621042
47	0xbc511324	-0.012760911
48	0xbb9c9c51	-0.0047793766
49	0xbc08c64a	-0.008348057
50	0x3b8212d4	0.0039695296
51	0xbc1141c8	-0.008865781
52	0xbc3719f6	-0.011175623
53	0xbc29b8a9	-0.010358968
54	0x3c178054	0.009246904
55	0xbbb39a3e	-0.0054810336
56	0xbc2b93c8	-0.0104722455
57	0x3c0a5f6e	0.008445604
58	0xbbaf14e3	-0.005343066
59	0x3a7d300f	0.00096583454
60	0xbaf4abbe	-0.0018666906
61	0x3bb5ec04	0.005551817
62	0xbc5b9795	-0.013402839
63	0xbb4214f0	-0.002961453

edge_encoder.layers.1.running_mean f4 [64]
0	0x3e641074	0.22271901
1	0x3e1d347c	0.15352052
2	0xbeb88a57	-0.36043045
3	0xbccc5a29	-0.024945335
4	0x3d671e60	0.056425452
5	0xbebb0a77	-0.36531422
6	0x3eb892fc	0.3604964
7	0xbc2259b5	-0.009909083
8	0xbe17ca8c	-0.14823359
9	0x3c85e5a7	0.016344858
10	0x3e0dfa10	0.13864923
11	0x3d2414b5	0.04005881
12	0x3ed79cfc	0.42111957
13	0x3e71e0ac	0.23620862
14	0x3c0cfa30	0.008604571
15	0x3c612df6	0.013743868
16	0x3d1b7622	0.037954457
17	0xbdf915b4	-0.12162343
18	0xbeb0f517	-0.3456199
19	0x3c056f97	0.008144281
20	0xbe0d2f5c	-0.13787597
21	0xbecf14a2	-0.4044543
22	0x3dd34d89	0.10317523
23	0xbe0675ac	-0.13130826
24	0x3ecef46a	0.40420848
25	0x3dd4a893	0.103837155
26	0x3e174721	0.14773227
27	0x3d984052	0.07434143
28	0x3e0b2121	0.13586856
29	0x3e8b1ebe	0.27171892
30	0x3e9a09bf	0.3008556
31	0x3bc46714	0.005993733
32	0xbdc7552c	-0.09733042
33	0x3da5d91d	0.08098052
34	0xbe17e938	-0.1483506
35	0xba4ed105	-0.00078894227
36	0x3dcfd48e	0.101479635
37	0x3e211bb0	0.15733218
38	0xbed38529	-0.4131253
39	0x3df29af2	0.1184596
40	0xbe1ec52f	-0.15504907
41	0xbe8784d5	-0.2646853
42	0xbe112043	-0.14172463
43	0x3b72a5fa	0.00370252
44	0x3e571964	0.2100578
45	0xbeca4d7b	-0.39512238
46	0x3db60b0e	0.08888827
47	0x3ecc8464	0.39944756
48	0xbe5ffdc7	-0.21874152
49	0x3d783c41	0.060604338
50	0xbe10dc75	-0.14146598
51	0x3d6004d8	0.05469212
52	0x3e2c14c9	0.16804804
53	0xbe79642e	-0.24354622
54	0x3d7bbf53	0.061461758
55	0x3ed81e74	0.42210734
56	0x3b8fb2bb	0.00438532
57	0xbea0c9b4	-0.31403887
58	0xb9c9e572	-0.00038508658
59	0x3d35a4df	0.044346686
60	0x3da675ef	0.08127963
61	0x3c972b0e	0.018453147
62	0xbcf93166	-0.030419063
63	0xbe47e834	-0.19522172
