gnn/gnn_outputs/checkpoint_epoch_500.pt (torch, 149433 bytes, 208 tensors)

node_encoder.layers.0.weight f4 [16, 3]
0	0x3ed19f32	0.4094177
1	0x3ee9ebb1	0.4568763
2	0xbe405f10	-0.18786263
3	0x3f049ffb	0.5180661
4	0xbe3c495e	-0.18387362
5	0x3cf4558e	0.029825952
6	0xbea58183	-0.32325372
7	0x3ed8bde5	0.42332378
8	0x3eda2104	0.42603314
9	0xbec96eac	-0.39342248
10	0x3f02fe63	0.51169413
11	0x3df30a30	0.118671775
12	0x3ee672ad	0.45009366
13	0x3d80310a	0.062593535
14	0x3e87f7d1	0.26556256
15	0xbe2c55ec	-0.16829652
16	0x3eb844c0	0.35989952
17	0x3d8d4779	0.06898398
18	0xbe993edd	-0.29930773
19	0x3d9e6469	0.077339955
20	0xbe92befc	-0.28661335
21	0xbdb1d00a	-0.086822584
22	0xbe86f5bc	-0.26359355
23	0x3eb245f6	0.34819
24	0xbede33e9	-0.4339898
25	0xbeb9ff72	-0.36327702
26	0xbddb83b8	-0.10718483
27	0xbedba676	-0.42900437
28	0x3c993fbf	0.018707154
29	0xbeeeb236	-0.4662034
30	0x3f0209c0	0.5079613
31	0xbf18790f	-0.5955972
32	0x3ea2b0c7	0.31775495
33	0x3e008339	0.12550057
34	0xbdd8ec49	-0.10591943
35	0x3ecd2855	0.40069833
36	0x3db1da78	0.08684248
37	0x3ec90dc6	0.3926832
38	0x3e005ce1	0.1253543
39	0xbe588c7f	-0.21147345
40	0x3e0c98a2	0.137301
41	0xbe1b5f49	-0.15173067
42	0x3e84d037	0.25940105
43	0x3f04f217	0.519319
44	0x3e92b759	0.28655508
45	0xbe84699d	-0.25861827
46	0x3e87cd23	0.26523694
47	0x3e1fe56c	0.15614861

node_encoder.layers.0.bias f4 [16]
0	0x3c8fc0a1	0.017547907
1	0xbd25853b	-0.04041026
2	0xbe3c8a36	-0.18412098
3	0xbb4a52ed	-0.0030872182
4	0xbdbb28fb	-0.09138676
5	0x3de50b2e	0.11183773
6	0x39227db4	0.00015496352
7	0x3ba873af	0.0051407437
8	0x39fda2e8	0.00048377295
9	0xb543d49d	-7.2952554e-07
10	0x3dc71c4e	0.097221956
11	0xbd91fa51	-0.07127822
12	0xb69b9d37	-4.637662e-06
13	0xbd7ece38	-0.062208384
14	0x39b8e04b	0.00035262326
15	0xba961e96	-0.0011453207

node_encoder.layers.1.weight f4 [16]
0	0x3f798299	0.974649
1	0x3f84bef8	1.0370779
2	0x3f781fe4	0.9692366
3	0x3f817c03	1.011597
4	0x3f6d5423	0.9270651
5	0x3f82dec0	1.0224228
6	0x3f83f24d	1.0308319
7	0x3f810a5b	1.0081285
8	0x3f87ac57	1.0599469
9	0x3f7a2b85	0.97722656
10	0x3f8007a6	1.0002334
11	0x3f82c4c1	1.0216295
12	0x3f775159	0.966085
13	0x3f769da5	0.96334296
14	0x3f7b7dc1	0.9823876
15	0x3f8559a4	1.0417981

node_encoder.layers.1.bias f4 [16]
0	0xbcdd3ced	-0.02700659
1	0x3d52b345	0.051440496
2	0x3d11fe1a	0.03564272
3	0x3d30fc0c	0.04320912
4	0xbcbf86f3	-0.023379778
5	0xbcadc263	-0.021210855
6	0x3cb71974	0.022351004
7	0xbc88b65d	-0.01668852
8	0xbe059a80	-0.13047218
9	0xbc9fbd92	-0.019499574
10	0xbd652f60	-0.055953383
11	0xbc974946	-0.018467557
12	0xbcc86a17	-0.02446465
13	0x3d736c54	0.05942948
14	0x3c042ae9	0.008066871
15	0x3d34080b	0.043952983

node_encoder.layers.1.running_mean f4 [16]
0	0x3ed5f07b	0.41785035
1	0x3e079720	0.13241243
2	0x3dff8c19	0.124778934
3	0x3e2b5153	0.16730241
4	0x3ea32451	0.31863645
5	0x3e912d5b	0.28354916
6	0xbe839dbc	-0.2570628
7	0xbcba9470	-0.022775859
8	0xbf01a609	-0.50643975
9	0xbee88b1a	-0.45418626
10	0x3e2642a5	0.1623636
11	0x3e0967de	0.13418528
12	0x3eb48232	0.3525558
13	0xbe2c50c3	-0.16827683
14	0x3f1adbfa	0.6049191
15	0x3ddb7a3d	0.107166745

node_encoder.layers.1.running_var f4 [16]
0	0x3d234ad8	0.0398663
1	0x3cae36d6	0.021266382
2	0x3d2d617d	0.0423293
3	0x3d08b0d2	0.033371754
4	0x3cc4158c	0.023936056
5	0x3c5d4644	0.013505522
6	0x3c7da281	0.0154806385
7	0x3ca59e87	0.020217193
8	0x3d017626	0.031606816
9	0x3d17e6ef	0.03708547
10	0x3d6237e5	0.055229086
11	0x3c9c0c91	0.01904896
12	0x3c914b9d	0.01773625
13	0x3bdeefd6	0.006803493
14	0x3d307f12	0.043089934
15	0x3c544a73	0.012957203

node_encoder.layers.3.weight f4 [16, 16]
0	0x3dadeac7	0.08492046
1	0xbdbba882	-0.09163
2	0x3e5ee737	0.21767889
3	0xbdd6a95d	-0.10481522
4	0xbe1715d5	-0.14754422
5	0xbe010d0d	-0.12602635
6	0x3e6c236e	0.2306039
7	0x3dd2fac6	0.103017375
8	0x3e6d33f9	0.23164357
9	0xbe4d30bd	-0.20038123
10	0xbe77b862	-0.2419143
11	0xbe3116a5	-0.17293794
12	0xbe292b13	-0.16520338
13	0x3dd8ae09	0.105800696
14	0x3da2883a	0.079361394
15	0x3e7325ec	0.23744935
16	0xbe21c6c5	-0.15798481
17	0xbe4ed0cf	-0.20196842
18	0x3e14ed4b	0.14543645
19	0xbdfb5f1a	-0.122739986
20	0x3df57df4	0.11986914
21	0xbd8b20fe	-0.06793402
22	0x3dc202a9	0.09473164
23	0xbe405a46	-0.18784437
24	0xbde41080	-0.111359596
25	0x3cf965a3	0.030443972
26	0x3af94794	0.0019018524
27	0xbdd0c702	-0.10194208
28	0x3e159b9a	0.14610139
29	0x3e1000dd	0.1406283
30	0xbe357756	-0.17721304
31	0xbe14db3e	-0.1453676
32	0x3e5ef729	0.21773972
33	0xbc851d16	-0.01624922
34	0xbdfb8560	-0.12281299
35	0xbe91f4b8	-0.28507018
36	0xbe2d756d	-0.16939326
37	0x3cf8c650	0.030368
38	0xbd47aa29	-0.04874626
39	0xbe824c3f	-0.25448796
40	0xbd209032	-0.039200015
41	0xbe1477d4	-0.14498836
42	0xbe147c1e	-0.14500472
43	0xbe0af7ca	-0.13571087
44	0xbe6d648e	-0.2318289
45	0xbe3677b1	-0.17819096
46	0x3e6a1827	0.22860776
47	0xbb809275	-0.003923709
48	0x3d7b86ea	0.06140796
49	0xbe637e4d	-0.22216149
50	0xbe00a2a7	-0.12562047
51	0xbdf6eb57	-0.12056606
52	0x3cb62028	0.02223213
53	0xbe5d86ce	-0.21633455
54	0xbdff68a0	-0.124711275
55	0xbe19f641	-0.15035345
56	0x3cb9495f	0.022617994
57	0xbda9c775	-0.082899965
58	0xbcaf0070	-0.021362513
59	0xbe3c12f7	-0.1836661
60	0xbe109bd1	-0.14121939
61	0xbe41275f	-0.18862675
62	0xbce89e3f	-0.02839577
63	0xbe6d1ebb	-0.23156254
64	0x3e5afe1b	0.21385996
65	0xbd556cd2	-0.052105732
66	0x3e3e79b6	0.18601117
67	0x3d9def8d	0.07711706
68	0xbe607e4e	-0.21923181
69	0x3e2b8111	0.16748454
70	0xbdc59ae7	-0.09648686
71	0xbddb8b37	-0.107199125
72	0xbe41082c	-0.18850774
73	0xbe9a8b52	-0.30184418
74	0x3d8100f1	0.06299008
75	0xbda310e4	-0.07962206
76	0x3d968d5f	0.07351183
77	0xbe683138	-0.22675025
78	0x3e234c03	0.15946965
79	0xbe352b21	-0.17692234
80	0xbde11fe5	-0.109924115
81	0x3d823938	0.0635857
82	0x3de7319b	0.11288758
83	0x3e3867f0	0.18008399
84	0x3dc1d612	0.09464659
85	0xbe6f8674	-0.23391134
86	0x3d9cba8b	0.07652768
87	0xbe1ec3b0	-0.15504336
88	0xbd390866	-0.045174025
89	0xbd9820e4	-0.074281484
90	0x3e6b797a	0.22995558
91	0xbe877b16	-0.26461095
92	0x3dc5e126	0.09662084
93	0x3daca698	0.08430213
94	0x3ce839e0	0.02834791
95	0xbe211026	-0.15728816
96	0x3e41fa3c	0.18943113
97	0x3d4a1a26	0.049341343
98	0xbc5ac14f	-0.013351752
99	0xbe7fe83a	-0.24990931
100	0x3d239382	0.039935596
101	0xbd9c33ec	-0.07627091
102	0xbe102bda	-0.14079228
103	0x3e54d35b	0.2078375
104	0x3de80c51	0.11330474
105	0xbe045c15	-0.12925752
106	0xbdb4c724	-0.088270456
107	0xbd52d7a4	-0.051475182
108	0x3dcfcb05	0.10146145
109	0xbdbdd5ee	-0.092693195
110	0xbe372772	-0.17886141
111	0xbdf89cbd	-0.121392705
112	0xbe212181	-0.15735437
113	0x3d970a9f	0.07375073
114	0x3e2a61ff	0.16638945
115	0xbe45c045	-0.19311626
116	0x3c9c8dde	0.019110616
117	0x3e372fd3	0.17889337
118	0xbc923b7d	-0.017850632
119	0xbd5e9119	-0.054337595
120	0x3e342e05	0.1759568
121	0x3dc0b395	0.094092526
122	0x3ddb54f5	0.10709564
123	0xbd63f801	-0.055656437
124	0xbcf4f14b	-0.029900214
125	0xbd3f78ed	-0.046746183
126	0xbcb8c23a	-0.022553552
127	0xbd80c410	-0.06287396
128	0x3d9e86ed	0.07740579
129	0x3e5befda	0.21478215
130	0xbdeb871c	-0.115003794
131	0xbd03eb11	-0.0322066
132	0xbd3493bb	-0.0440862
133	0xbd431cb2	-0.047634788
134	0x3db0a1cc	0.0862461
135	0x3d8f030c	0.06983003
136	0xbe0c0ed6	-0.13677534
137	0xbd108a1d	-0.035287965
138	0x3e85238c	0.26003683
139	0x3db4bd90	0.08825219
140	0xbda49db2	-0.080378905
141	0xbe0510f0	-0.12994742
142	0xbe47c62b	-0.19509189
143	0xbe7f5e53	-0.24938326
144	0xbd002d78	-0.031293362
145	0x3e110579	0.14162244
146	0x3de2f6e5	0.11082248
147	0x3d59a191	0.053132597
148	0xbe487ee5	-0.19579656
149	0xbe1590e2	-0.1460605
150	0xbd665dcc	-0.056241795
151	0x3e836cad	0.2566885
152	0x3dc1f009	0.09469611
153	0xbd91e481	-0.07123662
154	0x3e179e8b	0.14806573
155	0xbdb1b04a	-0.086762026
156	0xbd88e3f2	-0.06684102
157	0x3e2a8074	0.16650563
158	0xbd969aae	-0.073537216
159	0xbde4cfb5	-0.111724295
160	0xbe29a228	-0.16565764
161	0x3e5ebd6b	0.21751945
162	0x3e627939	0.22116555
163	0x3d0a14a4	0.03371109
164	0xbe0675a7	-0.13130818
165	0xbe6de7fa	-0.23233023
166	0xbe6d794e	-0.23190805
167	0x3e4f6033	0.20251541
168	0x3d9bf83c	0.07615706
169	0x3e347548	0.17622864
170	0x3e1e3933	0.15451507
171	0x3db3c464	0.08777693
172	0x3d836e98	0.064175785
173	0xbe4d6987	-0.20059787
174	0xbe25bc76	-0.16185173
175	0xbe88e878	-0.2673986
176	0x3dbb0b32	0.09132995
177	0xbdab506e	-0.0836495
178	0xbde01286	-0.10941033
179	0xbe21f270	-0.15815139
180	0xbd7e155f	-0.0620321
181	0xbe31d8a7	-0.17367803
182	0xbe3ba3f7	-0.18324266
183	0x3dd85bf0	0.10564411
184	0xbd96c770	-0.073622584
185	0x3e112b3b	0.14176647
186	0xbc089e28	-0.008338489
187	0xbe29fdcb	-0.1660072
188	0xbd20ccba	-0.039257742
189	0xbe1acca0	-0.1511712
190	0xbda54c6b	-0.08071216
191	0xbe87bd73	-0.26511726
192	0x3e095c9c	0.13414234
193	0xbe2f58bd	-0.17123695
194	0x3dac5374	0.08414355
195	0x3de97730	0.11399686
196	0x3e331a72	0.17490557
197	0xbe3949f9	-0.18094625
198	0x3e474cf9	0.19462956
199	0xbd89ac30	-0.06722295
200	0x3e0c11be	0.13678643
201	0x3e7e7b18	0.24851644
202	0x3bbede20	0.005824819
203	0x3c8347ea	0.016025502
204	0xbd0e60f9	-0.03476045
205	0xbe48207f	-0.19543646
206	0x3dcafdb0	0.09911668
207	0xbe8506c2	-0.25981718
208	0x3e486552	0.195699
209	0x3e437d83	0.19090848
210	0x3e5f4b2e	0.21806023
211	0xbdafdca4	-0.08587006
212	0xbe190b54	-0.14945728
213	0x3cad8794	0.021182813
214	0x3e054b16	0.13016924
215	0xbe8a5f1c	-0.27025688
216	0xbdd73460	-0.105080366
217	0xbe286fa3	-0.16448836
218	0xbd4662d8	-0.04843411
219	0xbe03dadf	-0.12876461
220	0xbe0806f9	-0.1328391
221	0xbdb129d0	-0.08650553
222	0xbe69b846	-0.22824201
223	0x3e38e6bc	0.18056768
224	0x3e64cb9e	0.22343299
225	0x3c9d2fa0	0.019187748
226	0x3d70190a	0.05861763
227	0xbe0a8bdf	-0.13529919
228	0xbe07d9ad	-0.1326663
229	0xbe8ffa11	-0.28120473
230	0x3d801e0c	0.06255731
231	0xbd202a04	-0.03910257
232	0xbe3b5240	-0.18293095
233	0xbd4782ad	-0.048708607
234	0xbdaf77ad	-0.08567748
235	0xba432e7e	-0.00074455875
236	0x3b79d6ea	0.0038122484
237	0xbdccd806	-0.10002141
238	0xbcfb6713	-0.030688798
239	0xbdca7784	-0.09886077
240	0xbe8a5786	-0.270199
241	0x3e8accf9	0.27109507
242	0xbdca872c	-0.09889063
243	0xbb5a1f56	-0.0033282838
244	0xbe0d04d1	-0.13771369
245	0xbd13c197	-0.036073294
246	0x3e3f5fcf	0.18688892
247	0x3da3e6db	0.080030166
248	0xbe4d288a	-0.20034996
249	0x3dfe947b	0.12430664
250	0x3e835ac5	0.2565519
251	0x3d04e7ac	0.032447502
252	0x3e13ea48	0.1444484
253	0x3e23485a	0.15945569
254	0xbd488b58	-0.048961014
255	0xbc10620a	-0.008812437

node_encoder.layers.3.bias f4 [16]
0	0xb98c72de	-0.00026788464
1	0x36410486	2.8761874e-06
2	0x3a122dd6	0.0005576288
3	0x355b3dc8	8.167376e-07
4	0xb89eb73a	-7.568156e-05
5	0xbaa2bf39	-0.0012416608
6	0xb963bd7d	-0.00021718997
7	0xbbd0dd69	-0.0063740504
8	0xba602705	-0.0008550736
9	0x34be57b8	3.5454082e-07
10	0x39422f77	0.00018518964
11	0xb689b5fa	-4.104103e-06
12	0xba41f18f	-0.0007398361
13	0xbaa3ac37	-0.0012487237
14	0x346979d2	2.1744134e-07
15	0xba193137	-0.00058438204

node_encoder.layers.4.weight f4 [16]
0	0x3f806f2f	1.003393
1	0x3f6d1379	0.9260784
2	0x3f79b2ed	0.97538644
3	0x3f7bc811	0.9835215
4	0x3f7e27f0	0.9927969
5	0x3f79827c	0.9746473
6	0x3f740a53	0.95328254
7	0x3f825749	1.0182887
8	0x3f79fe1f	0.97653383
9	0x3f8400d3	1.0312752
10	0x3f6fddc1	0.93697745
11	0x3f826ed2	1.019007
12	0x3f7d1b63	0.98869914
13	0x3f70e683	0.9410173
14	0x3f7ea1a4	0.99465394
15	0x3f7e9243	0.9944193

node_encoder.layers.4.bias f4 [16]
0	0x3cb8d4fb	0.022562495
1	0xbc89c010	-0.016815215
2	0xbc2c096b	-0.010500292
3	0x3d15dd31	0.036587898
4	0xbc134f8e	-0.008991135
5	0xbd141de8	-0.036161333
6	0xbceb8145	-0.028748164
7	0xbcf0a3f8	-0.029375061
8	0xbd5f1d57	-0.05447134
9	0xbdaeecc1	-0.08541251
10	0xbd489f43	-0.04898001
11	0x3c4ddeb7	0.012565306
12	0x3b888433	0.00416615
13	0xbd0bccdc	-0.034130916
14	0xbd244c42	-0.040111788
15	0x3bd872ad	0.0066054673

node_encoder.layers.4.running_mean f4 [16]
0	0x3cd5e20a	0.02610876
1	0xbe848853	-0.25885257
2	0xbf08014a	-0.53126967
3	0xbf3d67e9	-0.7398668
4	0xbe50d8b2	-0.20395163
5	0xbd19b0f6	-0.03752228
6	0xbe52436d	-0.20533533
7	0x3d60ac1f	0.054851647
8	0xbdda97a7	-0.10673457
9	0x3d806aa8	0.06270343
10	0xbd841dbc	-0.06450984
11	0xbf068f5d	-0.52562505
12	0x3d9f89ba	0.07789941
13	0xbe230590	-0.1592009
14	0xbea07344	-0.3133794
15	0x3e5dc205	0.21656044

node_encoder.layers.4.running_var f4 [16]
0	0x3e43ec45	0.19133098
1	0x3d814851	0.063126214
2	0x3e066b9d	0.13126989
3	0x3e1cb80b	0.15304582
4	0x3e79cd0f	0.2439463
5	0x3d23998e	0.039941363
6	0x3e0768c4	0.13223559
7	0x3d0a8aa3	0.03382362
8	0x3e940945	0.28913322
9	0x3dbec2f7	0.0931453
10	0x3e8cd789	0.2750819
11	0x3e215a0c	0.15757006
12	0x3da91296	0.08255498
13	0x3dc0fd35	0.094232954
14	0x3d90d9df	0.070728056
15	0x3de2d865	0.1107643

node_encoder.layers.6.weight f4 [4, 16]
0	0xbd9934f5	-0.07480804
1	0x3dbdc276	0.09265606
2	0xbda56d4f	-0.080774896
3	0xbd14e33e	-0.036349528
4	0x3d09795d	0.033563007
5	0xbc75a0cb	-0.014991949
6	0xbe096759	-0.1341833
7	0xbe8bd151	-0.27308133
8	0xbe3f206d	-0.18664713
9	0xbe3e2350	-0.18568158
10	0x3e351497	0.17683636
11	0xbe05a5f4	-0.13051587
12	0xbe0f2bcf	-0.13981555
13	0x3c84250f	0.016130952
14	0x3df99aee	0.121877536
15	0x3dda9012	0.106720105
16	0x3e528b41	0.20560934
17	0x3dc3ba30	0.09556997
18	0xbe65eeec	-0.22454423
19	0x3cca56aa	0.024699528
20	0x3e1b7467	0.15181123
21	0xbd90d07b	-0.070710145
22	0xbdcf5bd7	-0.10124939
23	0x3e57f9d1	0.21091391
24	0xbde96d0c	-0.11397752
25	0xbe247438	-0.16059959
26	0xbe689308	-0.22712338
27	0x3b1ebe83	0.002422244
28	0x3dcd2582	0.1001692
29	0x3d5f0b1e	0.05445396
30	0x3bf46d32	0.007459306
31	0xbe599530	-0.21248317
32	0xbe6b51d3	-0.22980432
33	0xbbb6e156	-0.0055810614
34	0x3e704e80	0.23467445
35	0x3e0e16c5	0.13875873
36	0xbe1506a0	-0.14553308
37	0xbcba7181	-0.022759201
38	0xbe1bd903	-0.15219502
39	0xbdc1161d	-0.09428046
40	0x3d722c4c	0.059124276
41	0x3e1b175c	0.1514563
42	0x3e71ccc8	0.23613274
43	0xbe6db35c	-0.23212951
44	0x3e1d0716	0.15334734
45	0xbdff752f	-0.12473523
46	0x3dad2574	0.08454409
47	0x3e6c867a	0.23098174
48	0x3d67322a	0.056444325
49	0x3e636fbd	0.22210594
50	0xbe3b8751	-0.18313338
51	0xbdae779d	-0.08518908
52	0x3e0b5900	0.1360817
53	0xbd99425c	-0.0748336
54	0xbd12b89f	-0.0358206
55	0xbe18d4e8	-0.14924967
56	0x3e12b042	0.1432505
57	0x3ddb0b45	0.10695509
58	0x3d9242de	0.0714166
59	0xbe3b57a1	-0.18295147
60	0xbe684d5e	-0.22685763
61	0x3bdfea76	0.00683337
62	0x3cebefe5	0.028800914
63	0xbddc1f3f	-0.10748147

node_encoder.layers.6.bias f4 [4]
0	0x35ec51a1	1.7607127e-06
1	0x3944892f	0.00018743121
2	0xb4949016	-2.7671985e-07
3	0xb6ac4f5c	-5.135238e-06

edge_encoder.layers.0.weight f4 [16, 4]
0	0xbe02d19f	-0.12775277
1	0xbed0ef80	-0.40807724
2	0xbefd75e4	-0.49504006
3	0xbddf2af0	-0.108968616
4	0xbe6ffdb2	-0.23436621
5	0x3de855e5	0.11344508
6	0xbe2f96b3	-0.17147331
7	0xbe4f2d26	-0.20232067
8	0x3ec99ce8	0.39377522
9	0x3e2d19ca	0.16904369
10	0x3edb232c	0.42800272
11	0xbe16e336	-0.14735112
12	0xbe6a6315	-0.2288936
13	0x3e760c1f	0.24028061
14	0xbe878526	-0.26468772
15	0xbe9610df	-0.29309747
16	0xbc9a29e0	-0.018818796
17	0xbe33c993	-0.17557363
18	0xbebf234d	-0.3733162
19	0x3e5629ae	0.20914337
20	0x3ec74f63	0.38927755
21	0x3cd1590d	0.025555158
22	0xbde0f742	-0.10984661
23	0xbecc262b	-0.3987287
24	0xbe421a55	-0.18955357
25	0x3d938dc5	0.07204775
26	0x3e873e65	0.2641479
27	0xbd24ab5b	-0.04020248
28	0xbe2c55c4	-0.16829592
29	0x3e7c0e6d	0.24614878
30	0xbed7190d	-0.420113
31	0x3eb5dbe1	0.35519317
32	0xbe35f244	-0.17768198
33	0x3d94624b	0.072453104
34	0xbdd2edb0	-0.102992415
35	0x3df087fc	0.11744687
36	0xbe41f4b0	-0.18940997
37	0x3ebd8109	0.3701251
38	0xbc39fb6a	-0.011351446
39	0x3e966749	0.29375675
40	0x3ee5bcbf	0.44870564
41	0xbe63463e	-0.22194764
42	0xbeb4bbee	-0.3529963
43	0x3e98a7ba	0.29815465
44	0x3ebef562	0.37296587
45	0xbec7485b	-0.3892239
46	0xbd392750	-0.045203507
47	0xbec93232	-0.39296108
48	0xbec9f83a	-0.39447194
49	0x3d681b0f	0.05666643
50	0x3e167bd7	0.14695679
51	0x3e10b37d	0.1413097
52	0xbe425d64	-0.18980938
53	0x3ecd8b4d	0.4014534
54	0x3d977e96	0.07397191
55	0xbe3b0448	-0.18263352
56	0x3ca03db6	0.019560676
57	0x3deeb4ba	0.116555646
58	0x3e460148	0.19336426
59	0xbe79456b	-0.24342887
60	0x3e4cf6aa	0.2001597
61	0xbe5edd03	-0.21763997
62	0xbed43fd8	-0.4145496
63	0xbe7dbaba	-0.24778262

edge_encoder.layers.0.bias f4 [16]
0	0x3df1276c	0.11775097
1	0x3da746c8	0.08167797
2	0x3dc1a340	0.094549656
3	0x3c905c77	0.017622216
4	0x3d59ed85	0.053205032
5	0xb35fc90e	-5.210409e-08
6	0xbc4ba1ff	-0.01242876
7	0x3be2ea5e	0.0069249114
8	0xbc0ee919	-0.008722567
9	0xbd0af058	-0.033920616
10	0xb8b525e0	-8.637807e-05
11	0xb44db280	-1.915705e-07
12	0x3c094537	0.0083783185
13	0xba6fd381	-0.0009148643
14	0xbc92572f	-0.017863838
15	0x3493cda7	2.7530515e-07

edge_encoder.layers.1.weight f4 [16]
0	0x3f6723ff	0.902893
1	0x3f6dc9f0	0.9288626
2	0x3f757cf6	0.958938
3	0x3f7b100a	0.9807135
4	0x3f7d3d82	0.9892198
5	0x3f5bcbf2	0.8585807
6	0x3f690ce2	0.9103528
7	0x3f7ddb15	0.9916242
8	0x3f81b54a	1.013345
9	0x3f6ba710	0.9205179
10	0x3f6a96ae	0.9163617
11	0x3f6aae73	0.9167244
12	0x3f752ac1	0.9576836
13	0x3f6cc4ec	0.9248798
14	0x3f71b128	0.94410944
15	0x3f7e96ef	0.99449056

edge_encoder.layers.1.bias f4 [16]
0	0xbcbb0e3d	-0.022833938
1	0xbbb1a28d	-0.005420989
2	0xbc8ecb3c	-0.017430894
3	0x3bf4f409	0.0074753803
4	0x3b1e2782	0.0024132435
5	0xbd87da0c	-0.06633386
6	0xbd134ec1	-0.035963777
7	0xbb1783f5	-0.0023119424
8	0xb9cd4798	-0.00039153988
9	0xbd6a2124	-0.05716051
10	0xbd1d91fd	-0.038469303
11	0xba68ed8d	-0.00088854955
12	0x3ccdc73c	0.025119416
13	0xbd5f5e1e	-0.054533117
14	0xbca5fc01	-0.020261766
15	0x3ce0a588	0.027422681

edge_encoder.layers.1.running_mean f4 [16]
0	0x3dfd203e	0.12359665
1	0x3d99cac0	0.075093746
2	0x3dad0f8c	0.08450231
3	0x3bc6b0f5	0.0060635754
4	0x3d8e3f5c	0.069456786
5	0xbc80b759	-0.015712427
6	0xbc99dcd0	-0.01878205
7	0x3cd1612d	0.025559032
8	0xbb76d32e	-0.0037662494
9	0xbcce0c09	-0.025152223
10	0x3ca31537	0.019907577
11	0xbc55bc1b	-0.013045336
12	0x3c456cfa	0.012049908
13	0xbc5c7e73	-0.013457882
14	0xbd04e76e	-0.03244727
15	0xbb843ce7	-0.0040355804

edge_encoder.layers.1.running_var f4 [16]
0	0x3e4bae51	0.19890715
1	0x3d03c019	0.03216562
2	0x3e2669bb	0.1625127
3	0x3d87a94a	0.06624086
4	0x3dd7c939	0.10536427
5	0x3d0d825a	0.03454814
6	0x3d6c8095	0.057739813
7	0x3e0fc8b0	0.140414
8	0x3c5fc0dd	0.013656822
9	0x3ca6ab4c	0.020345353
10	0x3e061474	0.1309374
11	0x3d2833bf	0.041064974
12	0x3d2dfcda	0.042477466
13	0x3cd9fac9	0.026608841
14	0x3cec2f50	0.028831154
15	0x3e0cfcc1	0.13768293

edge_encoder.layers.3.weight f4 [4, 16]
0	0xbdce5db8	-0.10076469
1	0xbe174e0c	-0.14775866
2	0x3dd47cb9	0.103753515
3	0xbd08510b	-0.033280414
4	0x3e8404fc	0.25785053
5	0x3e0f638d	0.1400282
6	0x3d44fbb6	0.048091613
7	0x3dc3262b	0.09528764
8	0x3dac0ae9	0.084005184
9	0xbd72f3cf	-0.059314545
10	0xbd161113	-0.036637377
11	0x3ccea3b3	0.025224542
12	0x3d52f103	0.051499378
13	0x3e244956	0.160436
14	0xbdc319c9	-0.095264025
15	0xbdaaf240	-0.08346987
16	0xbd8be36b	-0.06830486
17	0xbdcca737	-0.09992831
18	0x3d936ad1	0.07198108
19	0x3e44632b	0.19178455
20	0x3e429c1a	0.1900486
21	0x3deb6622	0.1149409
22	0xbe086d32	-0.13322905
23	0xbe06b3ce	-0.13154528
24	0xbd5b6df3	-0.053571653
25	0x3c03a0ec	0.008033972
26	0x3d0eeb72	0.034892507
27	0xbe19efe0	-0.15032911
28	0x3e045644	0.12923533
29	0xbe06e0d2	-0.131717
30	0xbde4490a	-0.111467436
31	0xbe495a54	-0.19663364
32	0x3e64928c	0.22321528
33	0xbe5534a0	-0.20820856
34	0x3e115a86	0.14194688
35	0x3c6b3473	0.014355767
36	0xbcb62ae2	-0.022237245
37	0x3dad2718	0.08454722
38	0x3c21900c	0.009861004
39	0x3e3834b7	0.17988859
40	0x3e54bdcb	0.20775525
41	0xbe0dadcb	-0.13835828
42	0x3d8961fb	0.067081414
43	0x3c8de511	0.017321141
44	0x3de0a7d5	0.109695114
45	0x3d98e2e4	0.07465151
46	0x3d9616a7	0.07328539
47	0xbe0a18b7	-0.1348599
48	0x3b8b2f54	0.0042475853
49	0x3e5ab3e2	0.21357682
50	0x3e1335d5	0.14376004
51	0xbcf2cbf3	-0.029638266
52	0xbe555305	-0.2083245
53	0xbc61d354	-0.013783295
54	0xbe494085	-0.19653518
55	0x3e42e8bc	0.19034094
56	0xbe2620b0	-0.16223407
57	0xbd108df7	-0.03529164
58	0xbd080cde	-0.033215396
59	0x3d5d609a	0.054047205
60	0x3e45164d	0.19246788
61	0xbbbb9d63	-0.005725549
62	0x3df23126	0.118257806
63	0x3e5f82fc	0.2182731

edge_encoder.layers.3.bias f4 [4]
0	0x3e582cfd	0.21110912
1	0xbd53809e	-0.05163633
2	0x3c520393	0.012818235
3	0x3e20dea9	0.15709938

message_passing_layers.0.message_mlp.layers.0.weight f4 [16, 12]
0	0xbd93fc65	-0.07225875
1	0x3e2282db	0.1587023
2	0xbd62da8f	-0.055384215
3	0xbe42ba04	-0.19016272
4	0x3de2c394	0.1107246
5	0x3ca02c0a	0.01955225
6	0x3de11847	0.10990959
7	0x3e842d42	0.2581578
8	0x3e4efa27	0.20212613
9	0x3e9394e1	0.28824523
10	0x3ceaffc5	0.028686414
11	0xbe79e2dd	-0.24402948
12	0xbe5905d0	-0.21193624
13	0xbe4a3c89	-0.19749655
14	0xbe72abf6	-0.2369841
15	0xbe534147	-0.2063037
16	0xbe5753f9	-0.21028127
17	0xbe59e6d1	-0.21279456
18	0xbe0482dc	-0.12940544
19	0xbe79c545	-0.24391659
20	0xbe3d9ac9	-0.18516077
21	0x3db370af	0.08761727
22	0x3e80e0b3	0.25171432
23	0xbe16b17f	-0.14716147
24	0xbd8ec030	-0.069702506
25	0x3de4166a	0.11137088
26	0xbe27e6fd	-0.16396709
27	0xbe0f62ea	-0.14002576
28	0x3e5d0b3d	0.21586318
29	0xbe6f74af	-0.23384355
30	0x3d3855e3	0.045003783
31	0x3e7e3bbb	0.24827473
32	0x3d80ff1f	0.062986605
33	0x3cdb9a04	0.026806839
34	0xbe3ecb86	-0.18632326
35	0xbc2a63cf	-0.010399773
36	0x3d04891c	0.03235732
37	0x3dcc4428	0.09973937
38	0x3e06742b	0.13130252
39	0x3e89c8db	0.26911053
40	0xbe583e0f	-0.21117423
41	0x3c5e6ff0	0.013576493
42	0xbe069321	-0.13142063
43	0xbe514124	-0.20435005
44	0xbbcdcef8	-0.006280776
45	0xbe64320e	-0.2228472
46	0x3e619700	0.22030258
47	0x3d541e74	0.051786855
48	0xbe0b8584	-0.13625151
49	0x3e055f75	0.13024695
50	0xbea583d8	-0.3232715
51	0xbdd939d7	-0.10606735
52	0xbd9281a3	-0.071536325
53	0xbe7d8732	-0.24758604
54	0xbe3890d8	-0.18024004
55	0xbd9565e3	-0.07294824
56	0x3e71912d	0.23590536
57	0x3e8428e9	0.25812462
58	0x3dfb2419	0.122627445
59	0xbe2a93c8	-0.16657937
60	0xbe5bf4b6	-0.21480069
61	0x3e87ee61	0.26549056
62	0x3e01ac25	0.12663324
63	0x3ce98d11	0.028509649
64	0x3d2e3e86	0.042540096
65	0xbe3dfb8b	-0.18552987
66	0xbd46103e	-0.048355334
67	0x3e99648a	0.29959518
68	0xbdcd08c7	-0.1001144
69	0x3c25d526	0.010121619
70	0xbe5857dd	-0.21127267
71	0xbe072058	-0.13195932
72	0xbb0b1d55	-0.00212272
73	0xbe3cb5e1	-0.18428756
74	0xbd99d960	-0.07512164
75	0x3dc7a06a	0.097473934
76	0xbe85f9e9	-0.2616723
77	0x3e083a32	0.1330345
78	0xbe10308e	-0.14081022
79	0xbddca76e	-0.10774122
80	0x3deb3ad0	0.11485827
81	0x3e5db2a6	0.2165018
82	0xbded53f3	-0.11588278
83	0xbe0ac763	-0.13552622
84	0xbe6b6a52	-0.22989777
85	0xbe3018c8	-0.17196953
86	0xbe858740	-0.2607975
87	0xbd4e22a3	-0.050326
88	0x3d44f5a3	0.04808582
89	0xbe84db2d	-0.25948468
90	0x3e7fe1a6	0.24988422
91	0x3e32d039	0.17462243
92	0xbe80a3ec	-0.25125062
93	0xbe23d0a1	-0.15997554
94	0x3da7cf15	0.08193795
95	0xbd2e575c	-0.04256378
96	0xbd038340	-0.03210759
97	0xbe17d59c	-0.1482758
98	0x3e52bab5	0.20579036
99	0xbdbe3ad0	-0.09288561
100	0x3e5503d2	0.20802239
101	0xbb8c939a	-0.0042900564
102	0x3d08f5c0	0.03343749
103	0x3e4257a5	0.18978746
104	0xbd4ae06f	-0.049530443
105	0xbe383f94	-0.17993003
106	0xbd918e6a	-0.071072415
107	0x3e993285	0.29921356
108	0xbe80c414	-0.25149596
109	0x3d628eaa	0.055311836
110	0xbe8bf122	-0.27332407
111	0x3e3a3708	0.18185055
112	0x3d1bf5fc	0.038076386
113	0xbd1de907	-0.03855231
114	0x3da22a3c	0.07918212
115	0xbd29c559	-0.04144797
116	0x3df67b53	0.12035241
117	0xbe72ac0a	-0.2369844
118	0xbd0610a1	-0.032730702
119	0x3e1b0146	0.15137205
120	0x3e705318	0.23469198
121	0x3e1a8f14	0.15093642
122	0xbe6fa506	-0.23402795
123	0x3e6f9593	0.23396902
124	0xbdad22d0	-0.084539056
125	0xbd9faefc	-0.077970475
126	0xbe8a4ac6	-0.27010173
127	0xbd7d2d86	-0.061810993
128	0x3e1cc436	0.15309224
129	0x3d380218	0.04492387
130	0xbe4542c1	-0.19263746
131	0x3de214bd	0.11039112
132	0xbd66b7f7	-0.056327786
133	0x3e74908f	0.2388327
134	0xbe7fd6fe	-0.24984357
135	0xbd882286	-0.0664721
136	0xbe7b389b	-0.24533312
137	0xbdc8a438	-0.09796947
138	0x3db8f950	0.090319276
139	0x3e95ac8e	0.2923321
140	0x3da4844f	0.08033048
141	0x3e85a273	0.261005
142	0x3d492225	0.04910483
143	0x3e4091b3	0.1880558
144	0x3e7ebe1d	0.2487721
145	0x3e8bfde3	0.27342138
146	0xbe335ab0	-0.17515063
147	0x3e8a94ce	0.27066654
148	0x3e5a6c25	0.21330316
149	0xbd4da880	-0.050209522
150	0xbd9583dd	-0.073005415
151	0xbe3a1579	-0.18172254
152	0x3dba4d9d	0.09096835
153	0xbe4c1682	-0.19930461
154	0x3dda4adb	0.10658809
155	0x3dc0081b	0.09376546
156	0xbe88bf86	-0.2670862
157	0x3d5a9a67	0.053369906
158	0xbca28131	-0.019836994
159	0x3e25861c	0.1616444
160	0x3de1870b	0.110120855
161	0xbe9ab8d4	-0.30219138
162	0x3e7d7f1c	0.2475552
163	0x3e357e53	0.1772397
164	0x3dc05983	0.09392073
165	0xbe91afcb	-0.28454432
166	0xbdce8434	-0.100838095
167	0xbd6236fb	-0.055228215
168	0xbd91e33d	-0.071234204
169	0x3e29b269	0.16571964
170	0x3ddc86f0	0.10767925
171	0x3e3f58bc	0.18686193
172	0xbd8bdc68	-0.068291485
173	0x3e01464c	0.12624472
174	0x3debd440	0.11515093
175	0xbe54f5c3	-0.20796876
176	0xbe8c1394	-0.27358687
177	0xbe18c05b	-0.14917128
178	0x3e4de204	0.2010575
179	0xbe9f2125	-0.31079975
180	0xbe6db4ca	-0.23213497
181	0x3e0f4813	0.13992338
182	0x3e4627fb	0.19351189
183	0x3e80de4e	0.25169605
184	0xbe62ab24	-0.22135597
185	0xbe66e9bc	-0.225501
186	0x3dfe2c38	0.12410778
187	0x3e6bdde0	0.23033857
188	0x3e434f40	0.190732
189	0x3cbf720f	0.023369817
190	0x3e09b51c	0.13447994
191	0x3e935e61	0.28782943

message_passing_layers.0.message_mlp.layers.0.bias f4 [16]
0	0xba1bf1b4	-0.00059487973
1	0xb5ee3acd	-1.7749495e-06
2	0x3aae2cf1	0.001328854
3	0xba8d4b41	-0.0010779874
4	0xb8ad8b4f	-8.275231e-05
5	0x3afe4340	0.0019398704
6	0xb377910a	-5.764108e-08
7	0xb2161004	-8.734791e-09
8	0xb4b9d33b	-3.4612626e-07
9	0x3503a3c2	4.90396e-07
10	0x3c20f474	0.009823907
11	0xb98816fa	-0.0002595706
12	0x35ea06d5	1.7436347e-06
13	0x36bc00e4	5.6029403e-06
14	0xba99e7f0	-0.0011742096
15	0x3c6230a2	0.01380554

message_passing_layers.0.message_mlp.layers.1.weight f4 [16]
0	0x3f7d7224	0.9900229
1	0x3f73ca77	0.9523081
2	0x3f8114c4	1.0084462
3	0x3f784fd2	0.96996796
4	0x3f797a62	0.97452366
5	0x3f7dce04	0.9914248
6	0x3f7c42ee	0.98539627
7	0x3f76d9d4	0.9642613
8	0x3f7a7dc8	0.97848177
9	0x3f866159	1.0498458
10	0x3f7aa198	0.9790282
11	0x3f755578	0.9583354
12	0x3f80b6f1	1.0055829
13	0x3f7f26ef	0.9966878
14	0x3f81cb1a	1.0140107
15	0x3f7a3087	0.97730297

message_passing_layers.0.message_mlp.layers.1.bias f4 [16]
0	0x3d8669b9	0.06563134
1	0xbd2d1382	-0.042254932
2	0x3d573e19	0.052549455
3	0xbd3768a6	-0.044777535
4	0x3d3a4e59	0.045484874
5	0xbd0f4aac	-0.034983322
6	0x3caf500e	0.021400478
7	0x3a807d57	0.0009802979
8	0x3ce319e0	0.0277223
9	0x3d056640	0.032568216
10	0x3cb153a1	0.021646323
11	0xbccb8d72	-0.02484772
12	0xbcf9443c	-0.030428044
13	0x3cc1ff77	0.023681385
14	0xbbd1223b	-0.0063822544
15	0xbd1c012c	-0.038087055

message_passing_layers.0.message_mlp.layers.1.running_mean f4 [16]
0	0x3e427821	0.18991138
1	0xbdc18c7f	-0.09450626
2	0x3e5c1836	0.2149361
3	0xbe80cf9e	-0.251584
4	0xbe394511	-0.18092753
5	0x3e553e51	0.20824553
6	0xbe8dc9b9	-0.27692965
7	0x3ebb7f92	0.36620766
8	0x3e6f072a	0.23342577
9	0x3c897614	0.016779937
10	0xbebd6505	-0.36991134
11	0xbcc406e7	-0.023929073
12	0xbe267870	-0.16256881
13	0x3e90c236	0.2827317
14	0x3d5ae4fe	0.05344104
15	0x3d015b85	0.03158142

message_passing_layers.0.message_mlp.layers.1.running_var f4 [16]
0	0x3daaff0a	0.08349426
1	0x3ddee957	0.1088435
2	0x3d04af67	0.03239384
3	0x3d42c601	0.047552112
4	0x3dd428fb	0.10359379
5	0x3d337783	0.043815147
6	0x3c576096	0.0131455865
7	0x3d697467	0.056995776
8	0x3d630df3	0.055433225
9	0x3c523365	0.012829636
10	0x3e14ba5d	0.14524217
11	0x3dd52dc3	0.10409119
12	0x3d613772	0.054984517
13	0x3c465bb0	0.012106821
14	0x3d3715d8	0.044698566
15	0x3ca7cf3b	0.020484557

message_passing_layers.0.message_mlp.layers.3.weight f4 [16, 16]
0	0xbde8dcf9	-0.11370272
1	0xbd019a75	-0.031641442
2	0xbd5208bf	-0.051277872
3	0xbe1144ce	-0.14186403
4	0xbe6caa42	-0.23111823
5	0x3e24d163	0.160955
6	0x3cd9bb22	0.02657849
7	0xbe828a0b	-0.25495943
8	0xbe2be9c8	-0.16788399
9	0x3e899acd	0.26875916
10	0x3d66bd19	0.05633268
11	0x3ddfa2f3	0.10919752
12	0xbe2db286	-0.16962633
13	0xbdd59a28	-0.104297936
14	0xbd0cef65	-0.034407992
15	0xbd531a8b	-0.051538985
16	0xbe2ead2e	-0.1705825
17	0xbb88b354	-0.004171768
18	0x3c07b85c	0.008283701
19	0xbd063615	-0.03276642
20	0x3c883742	0.016627911
21	0xbdfbf18b	-0.1230193
22	0x3d30b1d4	0.04313834
23	0x3d9ab5ca	0.07554205
24	0xbe003eb2	-0.12523916
25	0xbe7844bf	-0.24244975
26	0x3df586bb	0.119885884
27	0x3d2accae	0.041699104
28	0xbe19b783	-0.1501141
29	0x3e6da20e	0.2320635
30	0xbdf13277	-0.117772035
31	0x3dff23b8	0.12457985
32	0x3dde2f28	0.10848838
33	0xbe3220fb	-0.17395394
34	0x3e1dcbcb	0.15409772
35	0xbe49d2cf	-0.19709323
36	0xbe0aa968	-0.13541186
37	0xbd0ad3fc	-0.03389357
38	0xbe351805	-0.17684944
39	0x3e6b983c	0.23007292
40	0xbd66d7a9	-0.056358013
41	0x3e0e530b	0.13898866
42	0xbe726aac	-0.23673505
43	0x3e0e9b30	0.13926387
44	0xbd912a64	-0.070881635
45	0xbe3ec791	-0.18630816
46	0x3ce0ce62	0.027442161
47	0x3e06a48d	0.13148709
48	0x3e445fa6	0.19177112
49	0xbe1c05de	-0.15236613
50	0xbe1f65d1	-0.15566184
51	0x3d74a90b	0.059731524
52	0x3d25220d	0.040315676
53	0x3db4552a	0.08805306
54	0x3dd13b44	0.10216382
55	0xbd825747	-0.06364303
56	0x3e08969b	0.13338701
57	0x3e6c050a	0.23048797
58	0xbdc0098e	-0.093768224
59	0x3e1966b5	0.14980586
60	0x3de761e8	0.11297971
61	0x3e7a6abe	0.24454781
62	0xbe31f234	-0.1737755
63	0xbdd2d7f8	-0.10295099
64	0xbd58677f	-0.052833077
65	0x3cb15c67	0.021650506
66	0x3e237d51	0.15965773
67	0xbe48ad65	-0.19597395
68	0x3e085213	0.13312559
69	0xbdb74515	-0.08948723
70	0x3e18efc5	0.14935215
71	0x3bd9306d	0.0066280873
72	0xbe6c5859	-0.23080577
73	0xbe1edb3e	-0.15513322
74	0xbe140390	-0.14454484
75	0x3e0f34c0	0.13984966
76	0xbe1a8543	-0.15089898
77	0xbd657b37	-0.05602571
78	0x3d87c610	0.06629574
79	0xbe35fdef	-0.17772649
80	0x3d7625c3	0.060094606
81	0xbe7a09db	-0.24417822
82	0xbe364929	-0.17801346
83	0xbe50d888	-0.203951
84	0xbd888e2d	-0.06667743
85	0xbdb4906b	-0.08816608
86	0x3d19ab65	0.03751697
87	0xbda08b9d	-0.07839129
88	0x3dd580fe	0.10424994
89	0x3e83b40f	0.2572331
90	0x3d922cf4	0.071374804
91	0xbda4e88a	-0.08052166
92	0xbe6b6ab9	-0.2298993
93	0x3dbe43f2	0.09290303
94	0xbe15b27d	-0.14618869
95	0x3e23ea6f	0.16007398
96	0x3e4d39f4	0.20041639
97	0x3da16573	0.07880678
98	0x3e8584b4	0.26077807
99	0x3e36a429	0.1783606
100	0x3d761f37	0.060088363
101	0xbe302ef5	-0.17205413
102	0x3e644ae2	0.2229419
103	0xbdbfdc98	-0.09368247
104	0xbe0afaea	-0.13572279
105	0x3e5368fc	0.20645517
106	0x3e5e2ce4	0.21696812
107	0x3dc2db1b	0.09514447
108	0x3ca7040c	0.020387672
109	0xbe5ade69	-0.21373905
110	0xbb60686b	-0.0034241925
111	0x3e625e7f	0.2210636
112	0x3d2875ee	0.04112809
113	0x3b89f0a1	0.0042095934
114	0xbd8f4636	-0.069958135
115	0xbd9e741b	-0.07736989
116	0x3e0005de	0.12502238
117	0xbbcd21f4	-0.006260151
118	0x3e4cdeb7	0.20006834
119	0xbc96ce4e	-0.01840892
120	0x3df8b0e9	0.12143118
121	0x3e025d39	0.12730874
122	0x3d3b8b35	0.045787055
123	0x3e10ee0d	0.14153309
124	0x3e4440a6	0.19165286
125	0x3e7ca1f7	0.2467116
126	0x3e344b3c	0.17606825
127	0xbd78aeb7	-0.060713496
128	0xbe4e45b2	-0.20143774
129	0x3d8a0440	0.06739092
130	0xbb794642	-0.0038036262
131	0xbdc898e2	-0.09794785
132	0xbd1f7dc1	-0.038938288
133	0x3c331b4d	0.010931802
134	0x3e1fc0b2	0.15600851
135	0x3d9c4097	0.07629507
136	0xbddc51d4	-0.10757795
137	0xbde496d4	-0.11161581
138	0xbd826bff	-0.06368255
139	0xbdbcb17e	-0.092135414
140	0x3e6d4574	0.23171026
141	0x3dc308bb	0.095231496
142	0x3e698bbe	0.22807214
143	0xbbcdd1bc	-0.006281106
144	0x3ce9f370	0.028558463
145	0x3d9eb9c8	0.07750279
146	0xbe8a4063	-0.27002248
147	0x3c4c51a6	0.012470638
148	0xbd43d28d	-0.04780822
149	0xbe2cd8bb	-0.16879551
150	0xbe5ea154	-0.2174123
151	0x3e58b6f7	0.21163546
152	0x3e3f0a63	0.18656306
153	0x3e188123	0.14893012
154	0x3e5d9fbf	0.2164297
155	0xbdfb08b9	-0.12257523
156	0xbd3eac4c	-0.046551034
157	0x3de35880	0.111008644
158	0xbd8a1d04	-0.067438155
159	0xbcf214cc	-0.029550932
160	0xbe58994a	-0.21152225
161	0x3d84bb22	0.06481005
162	0xbe139c1b	-0.14415018
163	0x3d000fa4	0.031264916
164	0x3e6b59d0	0.2298348
165	0xbd8c4e87	-0.068509154
166	0xbdd19e19	-0.10235233
167	0x3e475f22	0.19469884
168	0xbd48ed86	-0.049054645
169	0xbd10a2f5	-0.035311658
170	0x3e551c8c	0.20811671
171	0xbdf51575	-0.11966983
172	0xbe4ba120	-0.19885683
173	0xbdb2e8ca	-0.08735807
174	0xbceea585	-0.02913166
175	0xbe01d22b	-0.12677829
176	0xbe0e77ff	-0.13912962
177	0x3de2c174	0.110720545
178	0x3d0bd570	0.034139097
179	0xbd9e633d	-0.07733772
180	0xbe57a808	-0.21060193
181	0xbda6b3ff	-0.081398
182	0xbdc9b944	-0.0984979
183	0xbd95011e	-0.07275604
184	0xbe58f76d	-0.21188135
185	0x3d9baba6	0.07601099
186	0xbe47527d	-0.1946506
187	0xbe4a7138	-0.19769752
188	0xbe3d9e02	-0.18517306
189	0x3e0a2a18	0.1349262
190	0xbe1d7236	-0.153756
191	0xbdea354c	-0.11435947
192	0x3e46e877	0.19424616
193	0x3e150091	0.14550997
194	0x3e153ae2	0.14573243
195	0xbe596056	-0.21228155
196	0xbe387232	-0.18012312
197	0xbdac4d1d	-0.08413146
198	0x3e3510cb	0.17682187
199	0x3d124ed1	0.035719696
200	0xbe46a4d3	-0.19398813
201	0xbd93fc54	-0.07225862
202	0xbe5eb6da	-0.2174944
203	0xbd93869a	-0.072034076
204	0xbe0129dc	-0.12613624
205	0x3e403b07	0.18772517
206	0x3dcebd32	0.1009468
207	0xbda02bf1	-0.07820881
208	0x3ce161a5	0.02751238
209	0xbd95936e	-0.073035106
210	0x3db51e56	0.08843677
211	0x3e155dd6	0.14586577
212	0x3d816fc0	0.06320143
213	0xbdbe1f3c	-0.09283301
214	0x3e60bad6	0.21946272
215	0xbd55c3bd	-0.052188624
216	0xbdb71c13	-0.089409016
217	0x3e0ef420	0.13960314
218	0x3e31fe25	0.17382105
219	0x3e673ef3	0.22582607
220	0x3d6e7aee	0.058222704
221	0xbda48ab1	-0.08034266
222	0x3de41160	0.111361265
223	0x3e8404d5	0.25784937
224	0xbe86df22	-0.26342112
225	0xbca49b9a	-0.020093728
226	0xbe39d0df	-0.18146084
227	0x3dcff007	0.101532035
228	0x3db22297	0.08698004
229	0xbd56e9e2	-0.05246914
230	0xbd37832c	-0.04480283
231	0x3dc4aa4e	0.096027955
232	0xbd2e496c	-0.04255049
233	0xbe43421d	-0.19068189
234	0x3e262e5b	0.1622862
235	0xbe11a7c1	-0.1422415
236	0xbd4654c9	-0.0484207
237	0x3d2302bc	0.03979753
238	0xbcf1a8d3	-0.029499447
239	0xbe4938d7	-0.19650589
240	0x3e0c77c6	0.13717565
241	0xbdcbf3f4	-0.0995864
242	0xbdd39846	-0.10331778
243	0x3d69e7c3	0.05710579
244	0xbdd0853d	-0.10181663
245	0xbdbb3303	-0.09140589
246	0xbdb3eb01	-0.08785058
247	0xbd9838f5	-0.07432739
248	0xbdd16383	-0.102240585
249	0xbdb5c8e2	-0.08876206
250	0x3da8ab27	0.0823577
251	0xbe3d97b4	-0.18514901
252	0xbe2a05d6	-0.16603789
253	0xbacaf10d	-0.0015483216
254	0x3d8219df	0.06352591
255	0x3df7bf8f	0.12097084

message_passing_layers.0.message_mlp.layers.3.bias f4 [16]
0	0xb99fc286	-0.00030471775
1	0xb55150a4	-7.7975915e-07
2	0x373e21e6	1.1332775e-05
3	0x36ed78c1	7.077208e-06
4	0xbb8bcdcf	-0.0042664777
5	0x3499d679	2.865452e-07
6	0xbb163d26	-0.002292463
7	0xb89c2afd	-7.446667e-05
8	0x36faae41	7.4708664e-06
9	0x34a27fa4	3.0267722e-07
10	0xb42c007a	-1.6018922e-07
11	0xb7b32a0a	-2.1358039e-05
12	0xb340144b	-4.472194e-08
13	0xb81c023c	-3.719538e-05
14	0x35775cfc	9.214998e-07
15	0xb4b46314	-3.3599702e-07

message_passing_layers.0.update_mlp.layers.0.weight f4 [16, 20]
0	0xbde68bb4	-0.11257115
1	0xbe3e0fee	-0.18560764
2	0xbc4f830b	-0.01266552
3	0x3e715f55	0.23571523
4	0x3df045a9	0.117320366
5	0xbdff4167	-0.124636464
6	0xbcb71d39	-0.022352802
7	0xbbce4f12	-0.006296047
8	0xbe2e2cfc	-0.17009348
9	0x3e08b7f9	0.1335143
10	0x3ce6b45c	0.028162174
11	0x3d4ab9d9	0.049493644
12	0xbdd8bbc0	-0.105826855
13	0xbe0a6ffb	-0.1351928
14	0x3d450f18	0.048110098
15	0x3db01592	0.08597864
16	0x3d2c292f	0.042031463
17	0xbd9e5d22	-0.077326074
18	0x3e4ede70	0.2020204
19	0xbd7cb22b	-0.06169335
20	0xbe135ce9	-0.14390911
21	0xbe082a1b	-0.13297312
22	0x3e61d724	0.22054726
23	0x3cec43c2	0.028840903
24	0xbcfe25f3	-0.031023955
25	0xbd9e004e	-0.07714902
26	0xbdba5796	-0.09098737
27	0xbe48734a	-0.1957523
28	0xbe312702	-0.17300037
29	0x3dfb5a5f	0.12273096
30	0x3e51a809	0.20474257
31	0x3e4b6499	0.19862594
32	0xbe1fb206	-0.15595254
33	0x3dbabe8f	0.091183774
34	0xbe08f588	-0.13374913
35	0x3e088a67	0.13334046
36	0x3e18fbac	0.14939755
37	0x3e3787d0	0.17922902
38	0x3e2769d5	0.16348965
39	0x3e1703ee	0.14747593
40	0xbbee82b8	-0.0072787665
41	0x3db5df0e	0.08880435
42	0xbd7789f0	-0.06043428
43	0x3d5c99d7	0.05385765
44	0xbdaf6143	-0.08563473
45	0x3ca7f10b	0.02050068
46	0xbe4ad928	-0.19809401
47	0xbd2bde84	-0.041960254
48	0xbde3ade0	-0.111171484
49	0xbd8a005e	-0.06738351
50	0xbe2d02e5	-0.16895635
51	0xbe2e4a12	-0.17020443
52	0x3ca0092a	0.01953562
53	0x3e1d7622	0.15377095
54	0x3e4d7fe4	0.20068318
55	0x3dfcc302	0.12341882
56	0xbdd5ff9b	-0.104491435
57	0xbe7318e2	-0.23739961
58	0x3dee3ffd	0.116332985
59	0x3df93b3c	0.12169501
60	0xbe27ce2b	-0.1638724
61	0x3d43c961	0.04779947
62	0x3e446606	0.19179544
63	0x3d269693	0.040670943
64	0xbde81210	-0.1133157
65	0x3e4e008e	0.20117399
66	0x3d61abe8	0.055095583
67	0x3e232df2	0.15935495
68	0xbe354b93	-0.1770461
69	0x3e1c05b2	0.15236548
70	0xbe1dc074	-0.15405446
71	0x3e33d77e	0.17562672
72	0xbde3fc0e	-0.1113206
73	0x3e202d1c	0.15642208
74	0x3d9be9b3	0.07612934
75	0x3db01625	0.08597974
76	0xbd8cee0e	-0.06881343
77	0x3d9f2a68	0.0777176
78	0xbd7acaad	-0.061228443
79	0xbe382fa9	-0.17986931
80	0xbde983cd	-0.11402092
81	0x3e18d7e1	0.14926101
82	0xbd145dc6	-0.03622224
83	0x3d19f400	0.037586212
84	0xbddfe9fa	-0.10933299
85	0x3e2476b3	0.16060905
86	0x3e0ce045	0.13757427
87	0x3d32b6f1	0.043631498
88	0xbde094d8	-0.1096589
89	0xbe4d3f6d	-0.20043726
90	0xbd71ef94	-0.05906637
91	0xbded0ca4	-0.11574677
92	0x3e6ce03b	0.23132412
93	0xbe1fc0b5	-0.15600856
94	0x3df2bd27	0.11852484
95	0x3e67c204	0.22632605
96	0x3e152613	0.14565305
97	0x3cbb0ee1	0.022834243
98	0xbe3dbe6e	-0.18529674
99	0x3e5fb303	0.21845631
100	0xbcc193cc	-0.023630045
101	0xbe47c24e	-0.19507715
102	0x3e586db2	0.21135595
103	0xbe050224	-0.12989098
104	0xbccf2216	-0.025284808
105	0x3e4a48a1	0.19754268
106	0xbe1bf642	-0.15230659
107	0xbe320ec5	-0.17388447
108	0x3d9149ad	0.07094131
109	0xbd4a4c0a	-0.049388923
110	0x3d5cdaf5	0.05391975
111	0xbe305d24	-0.1722303
112	0x3c036121	0.008018763
113	0xbdda324a	-0.10654123
114	0xbdba1e4d	-0.09087811
115	0xbe5ff8a8	-0.21872199
116	0x3e00c65a	0.12575665
117	0x3d428a90	0.047495425
118	0xbe36b56d	-0.17842646
119	0x3e30773d	0.17232986
120	0x3d039903	0.032128345
121	0x3c139a32	0.009008931
122	0xbdf40510	-0.11915028
123	0x3d5fbf16	0.054625593
124	0x3e49461a	0.19655648
125	0x3dbf7a7c	0.09349534
126	0xbe09af81	-0.13445856
127	0x3e6fc4c3	0.23414902
128	0xbc19fdf0	-0.009398922
129	0x3dfb9e8b	0.12286099
130	0x3e18498d	0.14871807
131	0x3e40eae0	0.18839598
132	0xbe542cb5	-0.2072018
133	0x3e602fae	0.21893188
134	0xbe480dea	-0.19536558
135	0x3d29d085	0.041458625
136	0xbdfed4a7	-0.12442904
137	0xbd9abc6a	-0.075554684
138	0xbd3eb0fa	-0.046555497
139	0xbd08ef96	-0.033431612
140	0xbd7340e9	-0.059388075
141	0x3c869c4f	0.016431956
142	0x3e752e42	0.23943427
143	0x3e059d9c	0.13048404
144	0x3df674a9	0.1203397
145	0x3db562b3	0.08856716
146	0x3e04f8c0	0.12985516
147	0xbaaabad2	-0.0013025647
148	0x3ca3cbda	0.019994665
149	0x3cccb4a3	0.024988478
150	0xbe364146	-0.17798337
151	0xbe44382b	-0.19162051
152	0x3b4dadbc	0.0031384071
153	0xbdeb80bc	-0.114991635
154	0xbc52e8c6	-0.01287288
155	0xbd761766	-0.06008091
156	0xba9794db	-0.0011564748
157	0x3e1958d0	0.14975286
158	0xbdba15d1	-0.090861924
159	0x3e2707a3	0.16311507
160	0x3e3b41b6	0.18286785
161	0xbe48aff9	-0.19598378
162	0xbe20bb63	-0.15696482
163	0xbe21de65	-0.15807493
164	0xbe1d2496	-0.15345988
165	0xbd910ae5	-0.07082156
166	0xbd262c16	-0.040569387
167	0xbd8c5218	-0.06851596
168	0xbe02f49b	-0.12788622
169	0xbd92d883	-0.071702026
170	0xbdc2adc9	-0.09505803
171	0x3e40a67f	0.18813513
172	0xbd8b508d	-0.06802473
173	0xbe17b40a	-0.14814773
174	0x3dd30eb3	0.10305538
175	0xbba59ee7	-0.005054343
176	0x3e1ac4e0	0.15114164
177	0x3dfb5a61	0.12273098
178	0x3e66a1c8	0.22522652
179	0xbe06cbed	-0.13163729
180	0x3decfaa5	0.11571244
181	0x3e60e5de	0.21962687
182	0xbde0ba99	-0.10973091
183	0x3e30d6f0	0.17269492
184	0x3e4b0687	0.19826709
185	0xbd884c29	-0.066551514
186	0x3e0a0c8f	0.13481353
187	0xbd2ca2c9	-0.04214743
188	0xbe1f17c9	-0.15536417
189	0x3cd9cd36	0.02658711
190	0x3db782ad	0.08960471
191	0xbe18b3ab	-0.14912288
192	0x3d4bf7eb	0.04979698
193	0xbe7a4fac	-0.24444455
194	0x3e0a5bc6	0.13511571
195	0x3e524a74	0.20536214
196	0x3d6739d7	0.056451645
197	0xbe043606	-0.12911233
198	0x3d39278f	0.04520374
199	0xbb555107	-0.0032549517
200	0x3d8556d6	0.06510703
201	0x3d9b0bac	0.075705856
202	0x3e39b0b6	0.18133816
203	0xbda778d0	-0.0817734
204	0xbc996777	-0.018726094
205	0x3d930b1a	0.07179852
206	0x3cdb1579	0.026743637
207	0x3e3db9b0	0.18527865
208	0xbe0440de	-0.1291537
209	0x3c142bd2	0.009043651
210	0x3d5368e5	0.051613707
211	0xbdc4272f	-0.09577786
212	0x3deddc20	0.11614251
213	0x3c451341	0.012028516
214	0xbe5f131c	-0.21784633
215	0x3c89a7d4	0.01680366
216	0xbde2de6d	-0.110775806
217	0x3caf55ca	0.021403212
218	0xbd44346b	-0.047901552
219	0xbe4fcd3f	-0.20293139
220	0xbc65865f	-0.014009087
221	0xbd37be69	-0.044859324
222	0xbd94dae3	-0.07268312
223	0x3e76f51c	0.2411694
224	0xbd32bf38	-0.04363939
225	0x3def2dec	0.11678681
226	0x3d09327f	0.033495422
227	0xbe257191	-0.16156603
228	0x3d08b7c5	0.03337838
229	0x3e4928f2	0.19644526
230	0xbdf657d6	-0.12028472
231	0xbe079867	-0.1324173
232	0x3e4a4412	0.1975253
233	0x3e47d8d9	0.19516315
234	0xbe072692	-0.13198307
235	0x3e0f2a86	0.13981065
236	0xbd2414d8	-0.04005894
237	0xbe44b77c	-0.19210619
238	0x3c71c605	0.014756684
239	0x3d4ed75f	0.050498363
240	0xbdb60609	-0.0888787
241	0x3d325b09	0.04354385
242	0xbe2e4457	-0.17018257
243	0x3e2eabdf	0.17057751
244	0x3e43317d	0.19061847
245	0x3dd6139f	0.10452961
246	0x3d197724	0.037467137
247	0x3da2684d	0.0793005
248	0xbe430225	-0.19043787
249	0xbd0fd63b	-0.035116415
250	0xbd24e086	-0.040253185
251	0xbe2e3b71	-0.17014863
252	0xbe4f722a	-0.20258394
253	0x3e300436	0.17189106
254	0x3e0e8f01	0.13921739
255	0xbe287a2f	-0.1645286

message_passing_layers.0.update_mlp.layers.0.bias f4 [16]
0	0x31fa48b4	7.284223e-09
1	0x35d00956	1.5499925e-06
2	0x388cd970	6.716221e-05
3	0xb4785c1d	-2.313031e-07
4	0xb73ae5aa	-1.1139937e-05
5	0x3897adc7	7.23261e-05
6	0x34764dad	2.2938794e-07
7	0xb655e766	-3.1874165e-06
8	0xb7cfaf64	-2.4757996e-05
9	0xb43bfc17	-1.7507442e-07
10	0xbb0ca75b	-0.0021462056
11	0x34b3f1d2	3.3517296e-07
12	0xb53934c0	-6.899463e-07
13	0xba8426a8	-0.0010082321
14	0xb7abb5e4	-2.0469488e-05
15	0xb8c804e4	-9.537654e-05

message_passing_layers.0.update_mlp.layers.1.weight f4 [16]
0	0x3f86c94a	1.0530179
1	0x3f8038ec	1.0017371
2	0x3f75aac0	0.9596367
3	0x3f72886e	0.94739425
4	0x3f80b64c	1.0055633
5	0x3f814196	1.009814
6	0x3f7ae67f	0.9800796
7	0x3f833d79	1.0253135
8	0x3f75dccd	0.9604004
9	0x3f78c247	0.97171444
10	0x3f764920	0.9620533
11	0x3f81d667	1.0143555
12	0x3f74ea70	0.95670223
13	0x3f809e62	1.0048335
14	0x3f7f0bcc	0.99627376
15	0x3f857a48	1.0427942

message_passing_layers.0.update_mlp.layers.1.bias f4 [16]
0	0x3cc6b7e2	0.024257604
1	0xbcfd69a6	-0.030934166
2	0x3cb2cd0a	0.021826286
3	0xbcaaf13b	-0.02086698
4	0x3ceb0952	0.028690968
5	0xbd940854	-0.07228151
6	0x3c251287	0.010075218
7	0x39812d60	0.00024638604
8	0xbd11491f	-0.035470124
9	0xbc98893d	-0.018620128
10	0xbcce11c6	-0.02515496
11	0x3cd57536	0.026056867
12	0xbb04daac	-0.002027194
13	0xbccba879	-0.024860607
14	0xbc8e06eb	-0.017337283
15	0x3c7e3e52	0.015517788

message_passing_layers.0.update_mlp.layers.1.running_mean f4 [16]
0	0xbdbfbfe7	-0.09362774
1	0x3e3b194a	0.18271366
2	0xbeb561c8	-0.35426164
3	0x3e35697e	0.17716023
4	0xbe0f52bb	-0.13996403
5	0x3dbb9407	0.09159093
6	0x3df6d590	0.120524526
7	0xbe09f400	-0.13471985
8	0x3da7e09b	0.08197137
9	0xbebf8b37	-0.374109
10	0x3e251e73	0.16124897
11	0xbeb3d281	-0.3512154
12	0xbe08d4a1	-0.13362361
13	0x3e26e509	0.16298307
14	0x3e118e39	0.1421441
15	0xbd8689d5	-0.06569258

message_passing_layers.0.update_mlp.layers.1.running_var f4 [16]
0	0x3cc1e0c9	0.023666756
1	0x3d3cf668	0.04613343
2	0x3e013f78	0.12621868
3	0x3dc79250	0.09744704
4	0x3d03052c	0.031987354
5	0x3ce6cb90	0.028173238
6	0x3d92d2bf	0.07169103
7	0x3bd1b3d0	0.006399609
8	0x3c9eb9e2	0.019375745
9	0x3dc1ffdd	0.0947263
10	0x3c5592b3	0.013035464
11	0x3dbb9604	0.091594726
12	0x3ca318a1	0.019909205
13	0x3d843c61	0.06456829
14	0x3cf2e462	0.029649917
15	0x3dc9c711	0.09852422

message_passing_layers.0.update_mlp.layers.3.weight f4 [4, 16]
0	0x3e773094	0.24139625
1	0x3e5e6ce6	0.21721229
2	0x3d34c2c1	0.044131044
3	0x3e4c0434	0.19923478
4	0xbdc1593c	-0.09440848
5	0xbe862b7f	-0.2620506
6	0x3d995357	0.07486599
7	0x3de6465e	0.1124389
8	0x3e674efa	0.22588721
9	0xbd16a199	-0.036775205
10	0x3e1f3089	0.15545858
11	0x3e32bb50	0.17454267
12	0x3e1d37d3	0.15353326
13	0xbe871d55	-0.26389566
14	0x3e3ad696	0.1824592
15	0xbe7af362	-0.24506906
16	0x3e630cde	0.22172877
17	0x3acede08	0.0015782723
18	0xbe5351c7	-0.20636664
19	0x3d85a8ac	0.06526312
20	0x3b0395c5	0.0020078283
21	0xbe55345b	-0.20820753
22	0xbdefc876	-0.11708157
23	0x3d23a0b3	0.039948177
24	0x3e228b66	0.15873489
25	0xbe063368	-0.13105547
26	0x3e288392	0.1645644
27	0x3cab8084	0.020935304
28	0x3d48c420	0.049015164
29	0x3d85da19	0.065357395
30	0xbe08c7a2	-0.13357404
31	0xbe58345b	-0.21113722
32	0xbd850fdc	-0.064971656
33	0xbe73956a	-0.23787466
34	0xbdbf84ce	-0.09351502
35	0x39d54126	0.00040675065
36	0xbe470770	-0.19436431
37	0xbe01c691	-0.12673403
38	0xbce4e8e5	-0.027943084
39	0xbcf750ec	-0.030189954
40	0xbe0dec0d	-0.13859577
41	0xbcfb6a56	-0.030690353
42	0xbd62cdb7	-0.055371966
43	0x3dcd4b17	0.10024088
44	0xbc97bd63	-0.018522924
45	0xbe04db47	-0.12974273
46	0xbdcdf540	-0.10056543
47	0x3ba7fada	0.0051263394
48	0xbe44b63d	-0.19210143
49	0xbc2a79ee	-0.010405047
50	0xbd8974a8	-0.067117035
51	0x3d9759aa	0.07390149
52	0x3d4de4c5	0.050267
53	0x3e46d63c	0.19417661
54	0xbc8f3cdb	-0.017485073
55	0xbe6205b4	-0.22072488
56	0x3dd73b59	0.105093665
57	0xbe12db5f	-0.14341496
58	0xbca9d7d9	-0.020732807
59	0xbde5158b	-0.111857496
60	0xbd998902	-0.07496835
61	0xbd874589	-0.0660506
62	0x3e89c867	0.26910707
63	0x3e23f574	0.16011602

message_passing_layers.0.update_mlp.layers.3.bias f4 [4]
0	0xb3f25be6	-1.12857194e-07
1	0x3b944065	0.004524278
2	0xbb64274a	-0.0034813457
3	0x356ee278	8.8991465e-07

message_passing_layers.1.message_mlp.layers.0.weight f4 [16, 12]
0	0x3e2050da	0.15655842
1	0x3e40f88b	0.18844812
2	0xbe4c8865	-0.19973905
3	0x3dc3d596	0.09562223
4	0xbe39349e	-0.18086478
5	0xbd45eced	-0.048321653
6	0xbdb96020	-0.090515375
7	0xbe81fb1b	-0.2538689
8	0xbe95c214	-0.29249632
9	0xbe41d472	-0.18928698
10	0x3e20982d	0.1568305
11	0x3e07ea8e	0.1327307
12	0xbe8e20bf	-0.27759358
13	0xbe14ca1d	-0.14530225
14	0xbbeec7bb	-0.0072869933
15	0xbe4eee09	-0.2020799
16	0x3e37561b	0.1790394
17	0x3e90cd72	0.28281742
18	0x3d9f168d	0.07767973
19	0xbe258cdf	-0.1616702
20	0x3d873747	0.0660234
21	0x3d9c9e02	0.07647325
22	0x3e657d3f	0.22411059
23	0xbdded887	-0.10881143
24	0xbe9c4a2d	-0.30525342
25	0x3e15f189	0.1464292
26	0x3c07441b	0.008255984
27	0xbdc95ecc	-0.09832534
28	0xbdc3338a	-0.09531315
29	0xbe039da2	-0.12853101
30	0x3e6af2e6	0.22944221
31	0xbcbf17f1	-0.023326846
32	0x3e172011	0.14758326
33	0x3e82a961	0.2551985
34	0x3d0c9b73	0.034327935
35	0x3d5c0e3e	0.05372452
36	0xbc5b213b	-0.013374622
37	0x3e0bb614	0.13643676
38	0xbe9a6bb3	-0.30160293
39	0x3dfd0831	0.12355078
40	0x3c5e4ccb	0.013568114
41	0x3e0753c2	0.13215545
42	0xbbb7f3d6	-0.0056137843
43	0xbd4bdb05	-0.04976942
44	0xbbad732c	-0.0052932706
45	0x3dcf11c0	0.101108074
46	0xbe69f222	-0.22846273
47	0xbe2e33c6	-0.17011937
48	0xbd39a755	-0.045325596
49	0xbe00f750	-0.12594342
50	0x3e24d27c	0.16095918
51	0x3e2ef338	0.17084968
52	0xbdae6a51	-0.08516372
53	0x3e74573e	0.23861405
54	0xbe1adb15	-0.15122636
55	0xbe4b2ee1	-0.19842102
56	0xbddaeba4	-0.10689476
57	0xbe5ad42e	-0.21370003
58	0xbe0eae58	-0.13933694
59	0xbe93cdde	-0.28868002
60	0xbe558bb5	-0.20854075
61	0x3d42893b	0.047494154
62	0x3e26ba75	0.16282065
63	0x3e9e2cd0	0.30893564
64	0x3e689cfe	0.22716138
65	0xbd1c9949	-0.03823212
66	0x3d6ec942	0.058297403
67	0xbe16c23c	-0.14722532
68	0x3e0431db	0.12909643
69	0xbe91df9b	-0.2849091
70	0x3dda6953	0.1066462
71	0x3dd33c08	0.103141844
72	0x3dcffaf7	0.101552896
73	0x3dbd9bc6	0.09258227
74	0xbe2f4d9e	-0.17119452
75	0x3e8c0a30	0.27351522
76	0x3e060089	0.13086142
77	0x3e3429a4	0.1759401
78	0x3c87d0f4	0.016579129
79	0x3e2df6ee	0.16988727
80	0x3e51f28c	0.2050268
81	0x3ded108e	0.11575423
82	0x3e3072a1	0.17231227
83	0xbcbf4e08	-0.023352638
84	0x3e43b4b9	0.19111909
85	0x3d418325	0.04724421
86	0x3e49effc	0.19720453
87	0x3e8677f7	0.262634
88	0x3d56bc70	0.0524258
89	0xbdb5e77e	-0.08882044
90	0xbc425b11	-0.011862532
91	0x3dbd76ef	0.092512004
92	0x3d614128	0.05499378
93	0xbdc032be	-0.09384678
94	0x3e7d9187	0.24762546
95	0x3e1ced17	0.15324818
96	0xbe3fcfed	-0.18731661
97	0xbbed3a05	-0.0072395825
98	0xbd0a6293	-0.033785414
99	0xbe595cd0	-0.21226811
100	0x3d6cb21b	0.057787042
101	0xbd5c57a0	-0.053794503
102	0xbddec8ab	-0.10878118
103	0xbd8f1ff5	-0.06988517
104	0xbdef23e3	-0.11676767
105	0x3e951ae0	0.29122066
106	0x3dda6f8a	0.10665806
107	0x3e6dde59	0.2322935
108	0x3dcb44e3	0.099252485
109	0x3dcc607c	0.099793404
110	0x3dde9abb	0.10869356
111	0x3c4d1c01	0.012518884
112	0xbe5b863e	-0.21437928
113	0xbe5578f3	-0.2084692
114	0xbda46bb0	-0.08028352
115	0xbc56d777	-0.013112894
116	0x3dc4a489	0.09601695
117	0x3e05353b	0.13008587
118	0x3e5161e0	0.20447493
119	0x3d011a7a	0.03151939
120	0xbe1ab26c	-0.15107125
121	0xbe7a0961	-0.2441764
122	0xbe70a9f7	-0.23502336
123	0xbe0c10b7	-0.13678251
124	0x3d09d87d	0.033653725
125	0x3db2dc6e	0.0873345
126	0x3e44135d	0.19148012
127	0xbe1d7d1f	-0.15379761
128	0xbcf3d274	-0.029763438
129	0xbdcc7b5b	-0.09984466
130	0xbc72afe8	-0.014812447
131	0x3e03e822	0.1288152
132	0xbd54a995	-0.05191954
133	0xbcb66d3e	-0.022268888
134	0x3d176528	0.036961704
135	0x3e1e4284	0.15455061
136	0xbd55ec53	-0.05222733
137	0xbe33df2d	-0.17565604
138	0x3d6a2eea	0.057173647
139	0x3c8f66be	0.017505046
140	0xbe0d417b	-0.1379451
141	0x3dc8a82d	0.09797702
142	0x3c246533	0.010033893
143	0x3abd28ab	0.0014431676
144	0xbe1325b2	-0.14369848
145	0xbd54ec55	-0.051983196
146	0xbe8bd173	-0.27308235
147	0x3db80781	0.08985806
148	0xbc0ff4cc	-0.0087863915
149	0x3e09e590	0.13466477
150	0xbce65d1f	-0.028120575
151	0xbc895ec3	-0.016768819
152	0x3d91816c	0.071047634
153	0x3e4ed40e	0.2019808
154	0xbe0df182	-0.13861659
155	0x3e49a766	0.19692764
156	0x3d3a0de2	0.045423396
157	0xbe4a7283	-0.19770245
158	0x3da0b8b5	0.0784773
159	0xbe3c21bb	-0.18372242
160	0xbdaad76b	-0.08341869
161	0xbdd243fc	-0.10266873
162	0xbe28017e	-0.16406819
163	0x3e81c255	0.25343576
164	0xbe8a94b8	-0.27066588
165	0x3e0c27e7	0.13687097
166	0xbe8b8725	-0.27251545
167	0xbd4417d0	-0.047874272
168	0x3bfc7e0e	0.0077054566
169	0x3e2909fb	0.16507713
170	0xbd8a9186	-0.06766038
171	0x3d5ff8b8	0.054680556
172	0x3d0cbbf9	0.034358952
173	0x3e1b72ea	0.15180555
174	0xbc210a44	-0.009829108
175	0x3db0cf48	0.08633286
176	0xbe35a1b8	-0.17737472
177	0xbe661587	-0.2246915
178	0x3e98b50d	0.2982563
179	0xbe609363	-0.21931224
180	0xbd32d7dd	-0.043662895
181	0xbdb739cc	-0.08946571
182	0x3e77d273	0.24201374
183	0xbc0d0042	-0.0086060185
184	0xbe51b657	-0.20479713
185	0xbd887b75	-0.066641726
186	0x3e09d340	0.13459492
187	0x3df45d46	0.11931853
188	0x3e8a5e45	0.27025047
189	0xbde5da45	-0.11223272
190	0x3deeb746	0.116560504
191	0xbe5174b5	-0.20454676

message_passing_layers.1.message_mlp.layers.0.bias f4 [16]
0	0xb36888ea	-5.4141232e-08
1	0x360a253e	2.058528e-06
2	0x3a1bc6b8	0.0005942392
3	0xb9171a22	-0.00014410217
4	0x353e3d2b	7.0869527e-07
5	0x348e19c2	2.6468302e-07
6	0xbac8cc61	-0.0015319699
7	0xbb7cc4a7	-0.0038569362
8	0xbc56bb70	-0.013106212
9	0xb41a44b4	-1.4367362e-07
10	0x39cc4393	0.0003896026
11	0x35961c8c	1.1184179e-06
12	0x347509d0	2.2820973e-07
13	0x33912702	6.759184e-08
14	0xb9e98f03	-0.00044547775
15	0x352a7fc7	6.3515876e-07

message_passing_layers.1.message_mlp.layers.1.weight f4 [16]
0	0x3f73bfa0	0.9521427
1	0x3f78c59b	0.9717652
2	0x3f81973e	1.012428
3	0x3f839b69	1.0281802
4	0x3f7c0101	0.9843903
5	0x3f7ebf80	0.99510956
6	0x3f799dee	0.97506607
7	0x3f7daeaf	0.9909467
8	0x3f809a65	1.0047117
9	0x3f67a211	0.9048167
10	0x3f7ca518	0.98689413
11	0x3f7eee00	0.9958191
12	0x3f859317	1.0435513
13	0x3f774f54	0.9660542
14	0x3f74bcdc	0.95600677
15	0x3f803c83	1.0018467

message_passing_layers.1.message_mlp.layers.1.bias f4 [16]
0	0xbd41e29e	-0.04733526
1	0xbc9b5a42	-0.018963937
2	0x3d4ea9fa	0.05045507
3	0xbc1ba7fc	-0.0095005
4	0xbbf86d2b	-0.007581373
5	0xbd654239	-0.055971358
6	0x3cfdbf70	0.030975074
7	0x3ca8b530	0.02059421
8	0xbbe8e51f	-0.0071073915
9	0xbc176a85	-0.009241705
10	0xbcae4847	-0.021274699
11	0xbc4f22f8	-0.012642615
12	0x3c292c03	0.010325435
13	0xbc0d7d58	-0.008635841
14	0xbc42b5df	-0.011884182
15	0x3d0d5144	0.03450133
