gnn/gnn_outputs/checkpoint_epoch_50.pt (torch, 971676 bytes, 208 tensors)

node_encoder.layers.0.weight f4 [64, 3]
0.4470314 0.47315833 -0.14050783 0.53723794 -0.122882515 0.10632478 -0.2684979 0.34910968
0.5163014 -0.4117333 0.51490027 0.093416795 0.43083262 0.071478724 0.27459073 -0.09054865
0.4365955 0.09293474 -0.28127146 0.15185197 -0.24795283 -0.06513659 -0.2272092 0.38975602
-0.461318 -0.2561013 -0.16382341 -0.33733723 0.057527374 -0.57950115 0.5174762 -0.49131706
0.44974896 0.09897815 -0.17652878 0.3641315 0.08948719 0.46985993 0.058275443 -0.18253247
0.15300177 -0.16223502 0.24115257 0.4955096 0.34847742 -0.2348214 0.34578386 0.10197912
0.2944355 -0.3448655 -0.5798965 -0.21998937 -0.45836347 0.46281865 0.16203241 0.23917383
0.19187447 -0.014116165 0.46057174 -0.40123528 0.030968644 -0.4006121 0.17156051 -0.1978171
0.17437775 -0.12251496 0.47984424 -0.3484955 -0.3396945 -0.35611317 0.5065619 0.18923728
0.5508627 -0.47526142 -0.57649976 -0.4531368 -0.39279 0.22380991 0.20151141 0.48756137
-0.2909504 -0.37780762 0.31802335 -0.2310442 0.34958994 -0.14409505 0.32523736 -0.46960077
-0.2805503 0.17792004 0.12455279 -0.13951926 0.35111466 0.38695228 -0.4241173 -0.3050145
0.5286347 -0.2053458 -0.19995327 -0.5524736 -0.33633497 0.14191116 -0.085769 -0.40941387
0.003554167 -0.39928743 -0.5103928 -0.3018698 -0.50935024 -0.366405 0.57241285 0.10989925
0.18899007 -0.5257949 -0.3789292 -0.1910969 0.09224004 -0.5031248 -0.2468873 -0.35214004
0.009244224 -0.22242726 -0.03312501 -0.40639204 -0.3983024 -0.32632673 -0.20215732 -0.45872205
0.48024493 -0.11130381 0.48391902 0.19402012 -0.48693725 0.41056657 -0.15652587 -0.22662862
-0.47965547 -0.57136333 0.17388368 -0.12158349 0.21150462 -0.47238854 0.4261787 -0.4259055
-0.10191333 0.11436382 0.3072722 0.482616 0.5240742 -0.4444554 0.14321631 -0.26028243
-0.054994855 -0.43712804 0.51913774 -0.42989084 0.31420043 0.19180089 0.19108558 -0.3068031
0.5297786 0.12402732 0.0757138 -0.5155676 0.23425719 -0.08018839 -0.2621141 0.49870834
0.13280696 -0.31781796 -0.2910081 -0.03584987 0.31984937 -0.14928164 -0.31864816 -0.20300373
-0.4447631 0.19334063 0.43530086 -0.55675983 0.14870594 0.28396392 0.11370218 -0.21198834
0.29518542 0.30902767 0.21708836 -0.099663734 -0.15159042 0.06760334 -0.094142154 -0.18005517
00000000: 4de1 e43e cf41 f23e 49e1 0fbe 6d88 093f
00000010: d4a9 fbbd cec0 d93d 8f78 89be 81be b23e
00000020: 542c 043f b5ce d2be 81d0 033f 4e51 bf3d
00000030: 1896 dc3e 7063 923d 2897 8c3e 9271 b9bd
00000040: 7289 df3e 9254 be3d d002 90be 157f 1b3e
00000050: 59e7 7dbe 5566 85bd 87a9 68be 1a8e c73e
00000060: df31 ecbe b61f 83be 53c1 27be 77b7 acbe
00000070: d3a1 6b3d 305a 14bf 5279 043f e98d fbbe
00000080: 7f45 e63e 0eb5 ca3d f6c3 34be 726f ba3e
00000090: 0f45 b73d 7b91 f03e 3bb2 6e3d cbe9 3abe
000000a0: 7fac 1c3e f020 26be b3f0 763e 6fb3 fd3e
000000b0: a26b b23e 0575 70be 950a b13e 6eda d03d
000000c0: 40c0 963e 3692 b0be 1974 14bf e544 61be
000000d0: 9eae eabe 91f6 ec3e d3eb 253e fce9 743e
000000e0: be7a 443e 7d47 67bc 0fd0 eb3e b66e cdbe
000000f0: f4b1 fd3c 071d cdbe 8fad 2f3e 9190 4abe
00000100: 1590 323e 20e9 fabd 25ae f53e 016e b2be
00000110: 70ec adbe 7754 b6be 0aae 013f 6bc7 413e
00000120: 5705 0d3f 7755 f3be 7d95 13bf 8c01 e8be
00000130: c51b c9be 6d2e 653e 0259 4e3e a5a1 f93e
00000140: 73f7 94be 0070 c1be f5d3 a23e da96 6cbe
00000150: 74fd b23e a78d 13be 8385 a63e 836f f0be
00000160: 4aa4 8fbe ac30 363e 8815 ff3d 23de 0ebe
00000170: 4dc5 b33e 9c1e c63e e725 d9be dc2a 9cbe
00000180: 9b54 073f 2b46 52be 8dc0 4cbe e96e 0dbf
00000190: 1934 acbe 2951 113e a8a7 afbd b29e d1be
000001a0: 07ed 683b 676f ccbe 1aa9 02bf ae8e 9abe
000001b0: c764 02bf 7099 bbbe a689 123f dc12 e13d
000001c0: 9d86 413e 7f9a 06bf 0203 c2be e8ae 43be
000001d0: 59e8 bc3d c9cc 00bf 06d0 7cbe b34b b4be
000001e0: 1675 173c f9c3 63be 17ae 07bd 9e12 d0be
000001f0: 4bee cbbe 4c14 a7be 5402 4fbe 9edd eabe
00000200: aae2 f53e 40f3 e3bd 3cc4 f73e 36ad 463e
00000210: d74f f9be c835 d23e 5148 20be 5511 68be
00000220: 6795 f5be de44 12bf 900e 323e c400 f9bd
00000230: ab94 583e e9dc f1be 1834 da3e 4910 dabe
00000240: f0b7 d0bd 9437 ea3d c852 9d3e 7219 f73e
00000250: ba29 063f a88f e3be 4ca7 123e bd43 85be
00000260: 4942 61bd 3fcf dfbe 36e6 043f a71a dcbe
00000270: e1de a03e 7467 443e f0ab 433e 4c15 9dbe
00000280: 929f 073f 0902 fe3d d60f 9b3d 3dfc 03bf
00000290: 1ee1 6f3e d039 a4bd d233 86be b356 ff3e
000002a0: 8cfe 073e 09b9 a2be 04ff 94be 50d7 12bd
000002b0: 4cc3 a33e 49dd 18be da25 a3be 36e0 4fbe
000002c0: fdb7 e3be 16fb 453e c1df de3e d087 0ebf
000002d0: 5f46 183e b863 913e b0dc e83d 7913 59be
000002e0: 8b22 973e e038 9e3e 694c 5e3e 801c ccbd
000002f0: 853a 1bbe 9f73 8a3d 9acd c0bd 6260 38be

node_encoder.layers.0.bias f4 [64]
0.3200393 0.44692868 -0.015346309 -0.082360245 0.00018924498 -0.00034534014 0.09164614 0.11419655
-0.4750726 -0.16487454 0.43694958 0.17654735 0.0015432579 -0.2991354 -0.30426353 -0.46786177
-0.14023629 0.14693347 0.3191878 0.21796389 -0.46104297 -0.29827222 -0.04573444 0.50916004
0.03866563 -0.102124564 0.19042796 -0.1716058 -0.32467508 0.37226525 -0.21394123 -0.06921052
-0.524983 0.3373499 0.38825062 0.16222262 -0.3534727 -0.52043265 -0.41969365 0.38137132
0.22851893 0.43658772 0.2536789 0.09879673 0.0003009666 -0.38991264 -0.4453614 -0.49069118
0.18792902 -0.23477083 -0.0695976 -0.28336722 -0.05911769 -0.35725585 -0.32824093 0.1435094
-0.123860374 0.30745423 -0.13731179 -0.37437695 -0.05587897 -0.23119715 -0.12886901 -0.5003581
00000000: 31dc a33e d6d3 e43e 166f 7bbc 7dac a8bd
00000010: 1070 4639 c50e b5b9 f9b0 bb3d e1df e93d
00000020: b73c f3be dfd4 28be dbb7 df3e d4c8 343e
00000030: 2447 ca3a 4628 99be 6ec8 9bbe 948b efbe
00000040: 1a9a 0fbe ba75 163e 956c a33e ed31 5f3e
00000050: d30d ecbe 23b7 98be 0954 3bbd 5058 023f
00000060: da5f 1e3d af26 d1bd 8cff 423e 6eb9 2fbe
00000070: d03b a6be 8d99 be3e 6913 5bbe 3fbe 8dbd
00000080: 4965 06bf 20b9 ac3e c9c8 c63e b01d 263e
00000090: 60fa b4be 133b 05bf 16e2 d6be 1a43 c33e
000000a0: de00 6a3e 6d88 df3e 33e2 813e f155 ca3d
000000b0: 0ecb 9d39 a1a2 c7be 6906 e4be e03b fbbe
000000c0: 7770 403e c467 70be 3089 8ebd 8215 91be
000000d0: 6425 72bd 3dea b6be 320f a8be 21f4 123e
000000e0: 82aa fdbd a46a 9d3e 769b 0cbe 56ae bfbe
000000f0: 59e1 64bd f2be 6cbe 3df6 03be 7817 00bf

node_encoder.layers.1.weight f4 [64]
1.0077147 0.9964336 0.9917456 1.0006444 0.99320734 1.0054315 0.98145217 1.0047092
0.99531555 0.9926906 0.99874806 1.0045607 1.0017109 1.016725 0.991325 0.99959445
0.98304176 0.9938733 0.9875496 1.0024899 1.0053704 0.99012536 1.0033863 0.994736
1.006592 1.008545 1.0013802 1.0155314 0.99362594 1.0050379 1.0016015 1.0064143
0.99845 1.0055981 1.0120201 1.0033687 1.0097626 1.0080422 0.9957189 0.99276674
1.0041718 0.9984695 1.0054358 0.9995617 0.9988581 0.9915887 1.0059748 1.0058333
0.99701154 0.99317795 1.0141578 1.0139328 0.9890921 1.0022675 0.99338585 0.99395233
0.9867988 0.99768716 0.9913534 1.0052547 0.9903935 0.98746294 0.989637 0.9869191
00000000: ccfc 803f 4616 7f3f 0ae3 7d3f 1e15 803f
00000010: d642 7e3f fbb1 803f 7340 7b3f 509a 803f
00000020: 00cd 7e3f f920 7e3f f4ad 7f3f 7295 803f
00000030: 1038 803f 0b24 823f 7ac7 7d3f 6ce5 7f3f
00000040: a0a8 7b3f 7b6e 7e3f 0dd0 7c3f 9751 803f
00000050: faaf 803f db78 7d3f f66e 803f 05a7 7e3f
00000060: 02d8 803f 0118 813f 3a2d 803f effc 813f
00000070: 455e 7e3f 15a5 803f 7a34 803f 2fd2 803f
00000080: 6b9a 7f3f 70b7 803f e089 813f 636e 803f
00000090: e73f 813f 8707 813f 6fe7 7e3f f625 7e3f
000000a0: b488 803f b29b 7f3f 1fb2 803f 47e3 7f3f
000000b0: 2ab5 7f3f c2d8 7d3f c8c3 803f 25bf 803f
000000c0: 263c 7f3f e940 7e3f eccf 813f 8dc8 813f
000000d0: 2435 7d3f 4d4a 803f 894e 7e3f a973 7e3f
000000e0: d99e 7c3f 6d68 7f3f 56c9 7d3f 30ac 803f
000000f0: 6e8a 7d3f 5fca 7c3f da58 7d3f bba6 7c3f

node_encoder.layers.1.bias f4 [64]
0.0008201384 -0.0043764017 -0.008519345 0.014656072 -0.015184767 0.008509596 -0.024799375 0.005814128
-0.01936355 -0.00551464 0.007133899 -0.0035651377 0.0026137442 0.0015425511 -0.0032379448 0.006618679
-0.0059866426 0.00088163186 -0.008862064 -0.0032765844 -0.0066610156 -0.006260796 0.0006213778 0.0022768066
0.00037456874 -0.008237188 0.017739052 0.0123889055 -0.010750374 -0.003634935 0.0056333076 0.0025408056
-0.0022824318 -0.009982257 0.00021483943 -0.0021874912 0.008641848 0.009508219 -0.0062924586 -0.002500316
0.0073386044 -0.013109023 -0.0055815727 0.0076764915 0.005703123 0.002451717 7.657172e-05 -0.009568292
0.0032373918 -0.005723299 0.008770887 0.020401973 0.0030570405 0.0053695664 -0.008562616 -0.023520483
-0.008908004 -0.004670892 -0.010729922 0.008661274 -0.0077147223 0.008485205 -0.00020349352 -0.013135128
00000000: 8efe 563a eb67 8fbb b994 0bbc 0520 703c
00000010: 87c9 78bc d56b 0b3c 0f28 cbbc 7184 be3b
00000020: 4fa0 9ebc 27b4 b4bb 7bc3 e93b 16a5 69bb
00000030: 5a4b 2b3b 6d2f ca3a b333 54bb 81e1 d83b
00000040: 992b c4bb 501d 673a 3132 11bc f7bb 56bb
00000050: a644 dabb 5d27 cdbb f5e3 223a 7a36 153b
00000060: c461 c439 45f5 06bc 7d51 913c d6fa 4a3c
00000070: 5622 30bc 1738 6ebb 9c97 b83b a583 263b
00000080: da94 15bb 9f8c 23bc 8546 6139 035c 0fbb
00000090: 8a96 0d3c 5cc8 1b3c f830 cebb 57dc 23bb
000000a0: ad78 f03b 3ac7 56bc a0e5 b6bb 148b fb3b
000000b0: 43e1 ba3b fcac 203b 2195 a038 53c4 1cbc
000000c0: 6c2a 543b 838a bbbb c4b3 0f3c 0a22 a73c
000000d0: a158 483b 30f3 af3b 374a 0cbc 07ae c0bc
000000e0: e0f2 11bc 480e 99bb 8ecc 2fbc 04e8 0d3c
000000f0: c8cb fcbb 8705 0b3c e060 55b9 b834 57bc

node_encoder.layers.1.running_mean f4 [64]
0.7782319 0.71235317 0.32279354 0.06350465 0.41257742 0.26793817 -0.086392604 0.14587088
-0.9640493 -0.60973406 0.6420089 0.31165364 0.3676979 -0.3887785 0.3035687 -0.32994556
-0.502336 -0.007373199 0.65514034 0.29176182 -0.60784966 -0.36260533 -0.18815544 0.73776865
-0.2600984 -0.46949387 0.4507256 -0.29775593 -0.06613936 0.04963573 -0.05756667 -0.28910792
-0.48194987 -0.08188912 0.09727712 -0.5130882 -0.55550975 -0.6228163 -0.69299364 -0.2120862
0.08379776 -0.18610781 0.11754548 0.4432056 -0.08308159 -1.1043524 -0.32419896 -0.70032644
0.3680201 0.10687838 -0.18741277 -0.41878366 0.31866273 -0.13201596 -0.49028495 0.20205623
-0.40538862 0.41347274 -0.663693 -0.29624248 0.25208822 -0.005189369 -0.16003485 -0.6205953
00000000: 353a 473f c75c 363f 3245 a53e ba0e 823d
00000010: 593d d33e 312f 893e 9bee b0bd 2d5f 153e
00000020: efcb 76bf 8817 1cbf b25a 243f 1191 9f3e
00000030: e642 bc3e fa0d c7be 5b6d 9b3e a0ee a8be
00000040: 1899 00bf e09a f1bb 47b7 273f ce61 953e
00000050: 099c 1bbf 68a7 b9be d2ab 40be 68de 3c3f
00000060: 9e2b 85be 8061 f0be 81c5 e63e 7773 98be
00000070: 1374 87bd d64e 4b3d 07cb 6bbd f405 94be
00000080: 22c2 f6be 7cb5 a7bd 3a39 c73d c059 03bf
00000090: e335 0ebf e470 1fbf 0868 31bf 202d 59be
000000a0: 299e ab3d 0c93 3ebe afbb f03d d8eb e23e
000000b0: ae26 aabd 6b5b 8dbf 68fd a5be 9848 33bf
000000c0: 216d bc3e 0de3 da3d 22e9 3fbe d06a d6be
000000d0: c327 a33e 312f 07be a106 fbbe d4e7 4e3e
000000e0: 198f cfbe b3b2 d33e c9e7 29bf 18ad 97be
000000f0: b511 813e 950b aabb 2de0 23be 55df 1ebf

node_encoder.layers.1.running_var f4 [64]
0.04270457 0.022776105 0.04480117 0.033905085 0.023414401 0.01869841 0.013557529 0.021506114
0.0280026 0.044487193 0.057259265 0.0172169 0.022727124 0.006757967 0.044234134 0.0148147
0.05314894 0.047704577 0.01246102 0.036052555 0.01756096 0.006494633 0.038239487 0.033894844
0.07592912 0.039058737 0.03594375 0.022720935 0.021121217 0.030276403 0.01566008 0.035284195
0.027240518 0.03990626 0.01702056 0.051667266 0.07106606 0.034249462 0.016804501 0.041489113
0.0047548213 0.043219663 0.048713114 0.026212698 0.0311974 0.06479654 0.007880658 0.047562286
0.012234924 0.06935761 0.0074407314 0.052866094 0.016421583 0.031628102 0.029573008 0.033673603
0.019598443 0.011532908 0.034880564 0.054785427 0.011768127 0.02106951 0.006612949 0.0046867747
00000000: fdea 2e3d f494 ba3c 6e81 373d 0fe0 0a3d
00000010: 8fcf bf3c 682d 993c 6620 5e3c 972d b03c
00000020: b565 e53c 3438 363d b188 6a3d 750a 8d3c
00000030: 3c2e ba3c f071 dd3b da2e 353d 5bb9 723c
00000040: b4b2 593d e065 433d 4e29 4c3c d8ab 133d
00000050: 01dc 8f3c eed0 d43b 02a1 1c3d 52d5 0a3d
00000060: ba80 9b3d 0efc 1f3d c139 133d 4121 ba3c
00000070: 6706 ad3c 3806 f83c 9149 803c 2986 103d
00000080: 8227 df3c bf74 233d b46e 8b3c 0ea1 533d
00000090: 158b 913d 2a49 0c3d 98a9 893c 7df0 293d
000000a0: 55ce 9b3b 1a07 313d 6787 473d 03bc d63c
000000b0: b191 ff3c 0cb4 843d e01d 013c acd0 423d
000000c0: fe74 483c 5d0b 8e3d 61d1 f33b 1e8a 583d
000000d0: 8e86 863c 788c 013d 1843 f23c 55ed 093d
000000e0: ea8c a03c 86f4 3c3c ecde 0e3d af66 603d
000000f0: 1acf 403c f799 ac3c 70b1 d83b 8493 993b

node_encoder.layers.3.weight f4 [64, 64]
0.06032496 -0.07675047 0.051913187 0.049123853 0.08192633 -0.10212392 0.08026194 -0.06950215
0.042466693 0.11458879 -0.0071566566 -0.00734348 -0.035676133 -0.11214826 0.051226955 -0.1318066
0.0869531 0.081604466 0.109111555 -0.03383532 -0.09185269 0.020212287 0.07972701 -0.13234198
-0.018167986 -0.08377609 -0.017365962 -0.06974889 -0.05402485 -0.049320128 -0.12584892 0.11310458
0.11639472 -0.028684316 -0.0060231877 -0.048171632 -0.1341702 -0.11549811 0.03690853 -0.071482606
-0.07054561 -0.007917739 -0.052156564 -0.04735241 -0.0035605791 -0.020598808 -0.043358944 -0.06745065
-0.11315767 0.099161156 -0.038804144 0.026837315 -0.052740797 0.0030434032 0.12775208 0.046179973
-0.09879957 0.04459248 0.119708635 0.030608235 0.07508679 0.1131235 -0.008338136 0.034904324
-0.09914751 -0.019408338 0.101676755 0.062255163 -0.070113875 -0.09704303 -0.095618606 -0.10855055
-0.09658491 -0.0373438 0.09223133 0.033011254 -0.09833754 -0.11235268 0.07049183 -0.090357505
-0.008510835 0.07307671 -0.04832665 -0.023932772 -0.0011562128 -0.042986773 -0.054952186 -0.10696732
-0.092793725 -0.062661484 0.11003606 -0.07376012 -0.075591885 0.032663167 0.046448354 0.07711033
0.10195365 0.070207 -0.115120165 0.016082017 0.09084236 -0.02001544 -0.07352389 0.119282536
-0.03785028 -0.067308456 -0.09964034 0.012213139 0.041006118 0.032183107 0.033905003 -0.10704744
-0.10163262 -0.008790586 0.12301613 0.05952669 -0.06873374 -0.0139766745 -0.0824611 -0.045264576
0.030150719 0.056609936 0.10353496 -0.124106795 0.08275772 -0.08045093 0.054923907 0.11204451
-0.001012414 0.12468553 -0.11961257 -0.03636752 0.08170541 -0.021929624 -0.018591015 -0.058611494
0.08361607 0.06773756 0.038239025 -0.07664228 -0.1011745 0.020459635 0.034604758 -0.047142316
-0.03333926 0.077868074 0.010593612 0.011628994 -0.035259612 -0.10549043 -0.11287208 -0.049547087
-0.06401908 0.03161426 -0.034051754 -0.041155003 0.12392741 0.03644182 0.0830243 -0.0556294
-0.041717786 0.039030008 -0.08937267 -0.085266195 -0.013412735 -0.0422099 -0.100411475 0.07950092
0.09570066 0.01946118 -0.028195906 -0.11138529 -0.03636165 0.035505235 0.0561697 -0.00895716
-0.05991001 0.06994211 -0.099341825 0.08580142 -0.043693606 0.0114729395 -0.028981782 0.008391155
-0.038101654 0.09775157 0.0029135675 0.10169363 0.11585998 -0.07813114 -0.08934356 0.10304019
0.08946888 -0.08679695 -0.005663143 -0.13047741 -0.094635434 0.015603176 0.0212018 0.031103801
-0.031460788 0.10336376 0.025448045 -0.06742371 -0.01314617 0.018404122 0.04929214 -0.09449554
0.041770883 -0.05782648 -0.09746572 -0.07805212 0.12812576 0.09508448 0.119206145 0.06866493
0.10080135 -0.012097512 -0.07781404 0.050758764 -0.05741699 -0.08055103 -0.033465266 0.037246186
0.06837714 -0.04491574 -0.0663181 0.02103989 -0.069928326 -0.09183394 0.068451576 -0.022410639
0.12191166 0.12426953 0.043508667 0.04142971 0.017673178 0.0014138175 -0.0019915418 -0.009854242
0.04970969 0.10710099 -0.022662725 -0.06408597 -0.02462973 -0.067694984 0.028883979 0.09754073
0.10865665 0.048018713 -0.097805485 -0.076643236 -0.029491184 -0.016146438 0.010963268 -0.120734826
00000000: 4e17 773d 5a2f 9dbd eca2 543d 1836 493d
00000010: fec8 a73d 5926 d1bd 5f60 a43d 2557 8ebd
00000020: 8ef1 2d3d 87ad ea3d 6382 eabb 93a1 f0bb
00000030: 2321 12bd fdad e5bd 5bd3 513d 4ff8 06be
00000040: 7814 b23d 3e20 a73d e175 df3d e896 0abd
00000050: 431d bcbd 3d94 a53c ea47 a33d a884 07be
00000060: 07d5 94bc cc92 abbd 1043 8ebc 82d8 8ebd
00000070: 2949 5dbd e703 4abd 8ade 00be 60a3 e73d
00000080: 5b60 ee3d 5ffb eabc 295e c5bb 9e4f 45bd
00000090: ea63 09be 468a ecbd 662d 173d 7965 92bd
000000a0: 377a 90bd 68b9 01bc 1fa2 55bd 9af4 41bd
000000b0: 9b58 69bb d5be a8bc 2699 31bd 9123 8abd
000000c0: 35bf e7bd 0115 cb3d 18f1 1ebd eed9 db3c
000000d0: bc06 58bd d573 473b 71d1 023e 3627 3d3d
000000e0: 6e57 cabd 9ba6 363d cd29 f53d 1fbe fa3c
000000f0: 1ac7 993d 4bad e73d ad9c 08bc d6f7 0e3d
00000100: da0d cbbd 3cfe 9ebc e73b d03d 45ff 7e3d
00000110: dd97 8fbd 7fbe c6bd b0d3 c3bd c04f debd
00000120: 4fce c5bd d0f5 18bd c8e3 bc3d cf36 073d
00000130: 3165 c9bd 2919 e6bd 055e 903d 5b0d b9bd
00000140: 0771 0bbc 3ea9 953d 2af2 45bd a90e c4bc
00000150: 108c 97ba e612 30bd 8b15 61bd af11 dbbd
00000160: a30a bebd aa54 80bd 965a e13d 8c0f 97bd
00000170: ebcf 9abd d0c9 053d a140 3e3d 05ec 9d3d
00000180: 13cd d03d b0c8 8f3d 1fc4 ebbd 6fbe 833c
00000190: 8f0b ba3d 6cf7 a3bc b193 96bd 674a f43d
000001a0: e508 1bbd 04d9 89bd 3c10 ccbd 9e19 483c
000001b0: 08f6 273d 6fd2 033d f9df 0a3d b03b dbbd
000001c0: c324 d0bd 6406 10bc e1ef fb3d 42d2 733d
000001d0: 46c4 8cbd 6cfe 64bc 5de1 a8bd 5967 39bd
000001e0: a4fe f63c d2df 673d 230a d43d b42b febd
000001f0: e17c a93d 75c3 a4bd e4f7 603d 9877 e53d
00000200: fab2 84ba 215b ff3d 6ff7 f4bd 1cf6 14bd
00000210: 2a55 a73d c1a5 b3bc 2f4c 98bc 9b12 70bd
00000220: e73e ab3d fdb9 8a3d 86a0 1c3d a1f6 9cbd
00000230: 9434 cfbd f79a a73c b8bd 0d3d 4d18 41bd
00000240: bf8e 08bd 4c79 9f3d d490 2d3c 8987 3e3c
00000250: 626c 10bd 5e0b d8bd 7a29 e7bd e3f1 4abd
00000260: 6f1c 83bd f47d 013d da79 0bbd 2692 28bd
00000270: a7cd fd3d 0544 153d a508 aa3d a7db 63bd
00000280: 45e0 2abd eedd 1f3d 0509 b7bd 0ba0 aebd
00000290: 17c1 5bbc 4ae4 2cbd 88a4 cdbd 61d1 a23d
000002a0: b5fe c33d 0d6d 9f3c 1afb e6bc f91d e4bd
000002b0: f4ef 14bd f06d 113d 3312 663d 0dc1 12bc
000002c0: 3364 75bd cf3d 8f3d ba73 cbbd a8b8 af3d
000002d0: 11f8 32bd fff8 3b3c 346b edbc 0e7b 093c
000002e0: 7b10 1cbd fa31 c83d 8df1 3e3b c044 d03d
000002f0: ff47 ed3d 3803 a0bd c2f9 b6bd bc06 d33d
00000300: 763b b73d 99c2 b1bd e391 b9bb df9b 05be
00000310: 39d0 c1bd 77a4 7f3c 66af ad3c 66cd fe3c
00000320: 07dd 00bd 61b0 d33d 6b78 d03c 7115 8abd
00000330: 0963 57bc 3ec4 963c 8ee6 493d e186 c1bd
00000340: f217 2b3d 76db 6cbd 1b9c c7bd cad9 9fbd
00000350: 6633 033e a7bb c23d 5a22 f43d 33a0 8c3d
00000360: f070 ce3d a534 46bc f85c 9fbd 6ce8 4f3d
00000370: 142e 6bbd f0f7 a4bd e012 09bd 758f 183d
00000380: 5009 8c3d 91f9 37bd c9d1 87bd d95b ac3c
00000390: 9536 8fbd 6f13 bcbd 5730 8c3d 8496 b7bc
000003a0: d2ac f93d 0681 fe3d 2536 323d 33b2 293d
000003b0: 57c7 903c d84f b93a 8784 02bb b073 21bc
000003c0: 639c 4b3d c457 db3d 2ea7 b9bc 813f 83bd
000003d0: 4ac4 c9bc aba3 8abd 189e ec3c 6fc3 c73d
000003e0: 6187 de3d 45af 443d 3e4e c8bd 21f7 9cbd
000003f0: 7f97 f1bc 8945 84bc 479f 333c d243 f7bd

node_encoder.layers.3.bias f4 [64]
5.614939e-05 0.01606121 -0.0009905135 -0.045334913 0.01022782 0.029755099 -0.022066051 -0.036412656
-0.040141903 -0.018410653 -5.5872268e-05 0.00034437253 2.0056159e-05 0.0003367578 0.033180606 -0.00029230118
-0.028675305 0.0003369073 -0.029495329 -0.00556485 -0.07133127 -0.001544049 -0.05116646 0.008471291
0.04061284 -0.047511466 -0.02281886 -0.052982822 -0.00020781039 -0.0018258381 -0.021590073 0.031314645
0.011151461 -0.06654253 0.00027805156 -0.012680907 0.0015142182 0.026018074 -0.0006071813 -0.04171258
0.042766966 -0.06781514 -0.0047930926 0.008388363 0.064186536 0.074633606 0.0014053951 0.0040211314
-0.06349847 0.001828423 -0.002367485 0.0006622901 -0.03716423 -0.0017858292 0.021622688 0.05169773
0.0014074671 0.06775332 -0.07152663 -0.00063096895 0.007832122 -0.00069109653 0.016776307 -0.038130455
00000000: f381 6b38 cc92 833c 1ed4 81ba 1ab1 39bd
00000010: 9692 273c f7c0 f33c ddc3 b4bc 7025 15bd
00000020: d66b 24bd f0d1 96bc 6458 6ab8 e68c b439
00000030: 463e a837 de8e b039 63e8 073d 0040 99b9
00000040: 79e8 eabc efa2 b039 30a0 f1bc 5859 b6bb
00000050: 2116 92bd b061 caba ec93 51bd 2bcb 0a3c
00000060: a659 263d 629b 42bd 9eee babc 8404 59bd
00000070: ade7 59b9 f650 efba aadd b0bc c943 003d
00000080: 9eb4 363c 7347 88bd 73c7 9139 94c3 4fbc
00000090: bb78 c63a db23 d53c 3f2b 1fba cfda 2abd
000000a0: 6a2c 2f3d aae2 8abd 600f 9dbb 586f 093c
000000b0: 3b74 833d 81d9 983d 3c35 b83a b2c3 833b
000000c0: 7c0b 82bd b2a7 ef3a cf27 1bbb 899d 2d3a
000000d0: 8539 18bd 7c12 eaba 1022 b13c 00c1 533d
000000e0: c27a b83a 41c2 8a3d 8e7c 92bd 9c67 25ba
000000f0: 4d52 003c b42a 35ba 776e 893c ae2e 1cbd

node_encoder.layers.4.weight f4 [64]
0.98849493 1.0096449 0.9970928 0.9986897 0.9979948 1.0043243 1.0037851 1.0011836
1.0007386 0.9959553 0.9829408 1.0081848 0.99591756 0.9953074 1.0041682 0.9881899
1.0026461 1.0071393 0.989657 0.9979438 1.0062786 1.008421 0.99734163 1.0094788
1.014152 1.0212207 1.0043733 1.0067338 0.98276913 0.99399745 0.9903793 0.98191375
1.0003638 1.0114292 1.00825 1.0075536 0.9987911 0.9927873 0.99705297 1.0200291
0.99961925 0.9975884 0.989605 0.9964807 1.0058357 1.0128113 1.0020857 0.99632925
1.0104113 0.99612033 1.0023321 0.99229157 0.9939874 0.9996369 0.9931581 1.0075667
0.9934373 1.0056697 0.9934651 0.99820685 1.006721 0.99777406 0.99756384 0.99679583
00000000: 010e 7d3f 0b3c 813f 7941 7f3f 21aa 7f3f
00000010: 967c 7f3f b38d 803f 087c 803f c926 803f
00000020: 3418 803f edf6 7e3f 02a2 7b3f 330c 813f
00000030: 74f4 7e3f 77cc 7e3f 9588 803f 03fa 7c3f
00000040: b556 803f f1e9 803f 295a 7d3f 3f79 7f3f
00000050: bdcd 803f f013 813f c851 7f3f 9a36 813f
00000060: bccf 813f 5cb7 823f 4e8f 803f a7dc 803f
00000070: c296 7b3f 9e76 7e3f 7f89 7d3f b35e 7b3f
00000080: ec0b 803f 8376 813f 560e 813f 84f7 803f
00000090: c6b0 7f3f 4f27 7e3f dd3e 7f3f 5090 823f
000000a0: 0ce7 7f3f f461 7f3f c156 7d3f 5c19 7f3f
000000b0: 39bf 803f cda3 813f 5844 803f 6f0f 7f3f
000000c0: 2855 813f be01 7f3f 6b4c 803f d206 7e3f
000000d0: f575 7e3f 34e8 7f3f 9c3f 7e3f f2f7 803f
000000e0: e851 7e3f c9b9 803f bb53 7e3f 7c8a 7f3f
000000f0: 3cdc 803f 1f6e 7f3f 5860 7f3f 032e 7f3f

node_encoder.layers.4.bias f4 [64]
-0.004330038 0.0023399435 -0.0035847812 -0.0028484848 -0.008199998 0.0049877237 0.0008577254 -0.008525238
0.0062703304 0.00046701633 -0.020038724 0.0061133816 0.010045724 -0.0018217115 -0.0051841256 -0.009288631
0.0076831435 0.0008441805 0.004452534 0.0066120913 0.004422531 0.01775577 -0.00028382218 0.00048621913
0.011890136 0.015018488 0.0071665533 -0.0037136385 -0.0073626745 -0.00483817 -0.0030783238 -0.015783247
-0.005454322 0.008871772 0.0021284013 0.0050612604 -0.006193062 -0.009020995 0.005746956 0.014859661
-0.0052772146 0.0024133238 0.0032491647 -0.00037604859 -0.0066889613 0.0076002367 0.006616778 0.00020156054
0.008446359 0.0069132894 0.014380168 -0.008660118 -0.009177731 0.0075076907 -0.0026756735 0.011841765
-0.006087088 -0.013886009 -0.007464647 -0.009779445 0.006268857 -0.0025458466 0.010961566 -0.0057433103
00000000: fee2 8dbb bd59 193b a6ee 6abb a5ad 3abb
00000010: 4959 06bc 0f70 a33b fad8 603a 71ad 0bbc
00000020: 5877 cd3b dfd9 f439 4028 a4bc c352 c83b
00000030: d296 243c 7fc6 eeba 99df a9bb 582f 18bc
00000040: e1c2 fb3b ff4b 5d3a 90e6 913b 3eaa d83b
00000050: e1ea 903b 8c74 913c f8cd 94b9 3aeb fe39
00000060: d8ce 423c 1b10 763c 68d5 ea3b 8460 73bb
00000070: 9742 f1bb 8389 9ebb b4bd 49bb de4b 81bc
00000080: 2bba b2bb e95a 113c a67c 0b3b eed8 a53b
00000090: 2bef cabb cccc 13bc f650 bc3b f075 733c
000000a0: 7cec acbb db28 1e3b f0ef 543b 6328 c5b9
000000b0: 132f dbbb 680b f93b 8fd1 d83b ff59 5339
000000c0: 9962 0a3c e088 e23b cc9a 6b3c 2be3 0dbc
000000d0: 325e 16bc 1303 f63b 5a5a 2fbb f603 423c
000000e0: 3276 c7bb 2582 63bc ff99 f4bb f739 20bc
000000f0: fc6a cd3b 38d8 26bb 2498 333c 6132 bcbb

node_encoder.layers.4.running_mean f4 [64]
-0.16622435 -0.27370661 -0.119148314 -0.009115731 0.007910388 -0.36723924 0.11754398 0.009412649
0.027438778 0.16887122 -0.24628611 -0.1620456 0.026707891 -0.09510735 0.30506283 0.10432739
0.060226295 -0.14091721 -0.1933291 0.24240647 -0.02725688 -0.16214283 0.061340936 0.20136678
0.04832412 -0.19610734 -0.046668503 -0.48796272 0.11359885 0.481629 -0.2548045 -0.45064068
-0.09535831 -0.5514192 0.17684315 0.22280258 0.28222752 -0.31221637 0.45264652 -0.14551413
0.29273477 -0.17749725 -0.12085543 0.1084959 -0.00686702 0.13031106 0.18891118 -0.38632897
-0.14729725 -0.10548452 -0.22280557 -0.30837792 -0.14121285 -0.24121986 -0.017037831 0.14327064
-0.18889214 0.31277752 0.10066886 0.27258444 -0.03426713 0.106359646 0.13731833 0.113790594
00000000: b736 2abe 4623 8cbe 0804 f4bd 265a 15bc
00000010: 929a 013c c806 bcbe e6ba f03d 8337 1a3c
00000020: 4ac7 e03c 94ec 2c3e 6d32 7cbe 48ef 25be
00000030: 82ca da3c a4c7 c2bd 3231 9c3e 99a9 d53d
00000040: d9af 763d 9a4c 10be 10f8 45be 6739 783e
00000050: d249 dfbc c508 26be a240 7b3d 1833 4e3e
00000060: 83ef 453d 5dd0 48be 7927 3fbd 40d6 f9be
00000070: 84a6 e83d 1498 f63e bc75 82be 60ba e6be
00000080: 384b c3bd cf29 0dbf 5f16 353e 5c26 643e
00000090: 2080 903e d3da 9fbe 49c1 e73e a801 15be
000000a0: 55e1 953e d7c1 35be 0d83 f7bd 1933 de3d
000000b0: bd04 e1bb 4370 053e ef71 413e e9cc c5be
000000c0: 17d5 16be 4508 d8bd 2527 64be b6e3 9dbe
000000d0: 1a9a 10be 5702 77be ec92 8bbc 8ab5 123e
000000e0: f16c 41be 6024 a03e 7a2b ce3d 3090 8b3e
000000f0: b15b 0cbd 16d3 d93d 2d9d 0c3e 0b0b e93d

node_encoder.layers.4.running_var f4 [64]
0.12951744 0.095216066 0.0878017 0.11173858 0.090089135 0.031502075 0.26056185 0.18761341
0.19943066 0.08495268 0.032246515 0.08823917 0.17461509 0.18898846 0.039812703 0.056980833
0.11288532 0.13101262 0.04996059 0.05923971 0.07877192 0.2417986 0.2125332 0.023955846
0.1406955 0.15264758 0.20424661 0.052826755 0.035981707 0.11860691 0.07644468 0.20908216
0.05374978 0.060283225 0.06966526 0.11253195 0.11661003 0.3788373 0.18522504 0.058481093
0.124142244 0.1546524 0.13393092 0.23277064 0.090495825 0.14656906 0.12158217 0.169857
0.12669846 0.0892283 0.10091559 0.13382608 0.21204473 0.09634269 0.20279217 0.13684519
0.22306956 0.04516605 0.12853248 0.10371239 0.10475183 0.2029361 0.18545513 0.1537644
00000000: 38a0 043e a400 c33d 61d1 b33d 32d7 e43d
00000010: a780 b83d 5208 013d 5d68 853e bb1d 403e
00000020: 8d37 4c3e acfb ad3d ec14 043d bdb6 b43d
00000030: 4cce 323e 3186 413e a512 233d bc64 693d
00000040: 6b30 e73d 2c28 063e 7aa3 4c3d 57a5 723d
00000050: 2c53 a13d 0d9a 773e 4ea2 593e 0d3f c43c
00000060: 7b12 103e a64f 1c3e 0626 513e de60 583d
00000070: 8e61 133d 2ee8 f23d 078f 9c3d a219 563e
00000080: bb28 5c3d 8beb 763d a9ac 8e3d 2777 e63d
00000090: 3dd1 ee3d f6f6 c13e a2ab 3d3e df89 6f3d
000000a0: 4a3e fe3d 335d 1e3e 3025 093e 6d5b 6e3e
000000b0: e055 b93d 3316 163e 1300 f93d feee 2d3e
000000c0: 3ebd 013e 54bd b63d d5ac ce3d b409 093e
000000d0: 4122 593e 514f c53d c0a8 4f3e 2521 0c3e
000000e0: 596c 643e 0900 393d 059e 033e 2967 d43d
000000f0: 2188 d63d 7bce 4f3e f3e7 3d3e 6a74 1d3e

node_encoder.layers.6.weight f4 [32, 64]
0.09149321 -0.11016638 -0.07829002 -0.01282633 -0.12012556 -0.11605252 -0.10842303 0.10047556
0.018285489 -0.042233557 -0.002794948 -0.11463852 -0.11898443 -0.09137768 -0.13003469 0.078368396
-0.046300404 -0.039182883 -0.11083105 0.01168983 -0.016714158 -0.09033438 0.073897645 0.10026611
-0.097602196 0.07623434 -0.01612088 0.013910666 0.058202047 -0.029125322 0.10183458 0.07111605
-0.07833667 -0.06958216 -0.13142918 0.033270884 -0.10569075 -0.09694552 -0.08350322 -0.12720063
-0.10644247 0.113509685 0.07433526 0.10567465 -0.06135088 -0.04995971 -0.04876534 -0.008038937
-0.096934415 0.013864795 -0.08083062 0.03396888 0.10823936 0.011831164 0.085732505 -0.09809687
-0.0236572 -0.08924325 -0.019769061 -0.053512704 -0.07617695 -0.117122315 -0.046307635 0.01849195
-0.016381996 -0.10901167 0.079659395 0.08419334 -0.072049536 0.013353705 0.076779224 -0.123551406
-0.10324497 0.06650658 0.007602958 0.050548077 -0.057562567 0.019039843 0.076737985 -0.026853316
-0.045184374 -0.12889227 -0.01739525 0.07597809 -0.12369818 -0.004055356 0.084814064 -0.019764556
-0.05156522 -0.047311556 -0.048882976 0.036393896 -0.10903817 0.041382328 -0.015611347 -0.0008873375
-0.003953627 0.075699575 -0.07889174 -0.1249614 -0.09882078 -0.09121478 -0.065752886 0.11345373
-0.08749681 -0.07118389 -0.09784678 -0.0638293 0.003810337 -0.08204263 -0.0003484751 0.05466542
-0.024014756 0.053565677 0.037174746 0.123561464 -0.00015579231 0.10516398 0.09646983 0.06303323
0.083674125 -0.091337144 -0.07440922 0.046141595 0.04409995 0.100047715 -0.01714693 -0.028295068
0.08517183 0.018408256 0.12576665 -0.058583494 -0.03548136 -0.006074562 0.060946725 -0.111105114
-0.045012023 0.09505814 0.030763144 0.080884516 -0.043695405 -0.07799997 -0.08890256 -0.07076781
-0.090595484 0.064420834 0.04467746 -0.07333643 0.119060084 0.037468024 0.03989136 -0.056920417
0.0783212 -0.0906458 0.097250804 -0.06540773 0.056036133 -0.05259552 0.078704104 -0.10451709
-0.023436625 -0.043069962 -0.08338912 -0.057166655 -0.04385795 0.0053791027 0.0838443 -0.015646005
0.11592225 -0.05331858 -0.060576774 -0.007849436 -0.018814348 0.04137606 0.10703328 0.034430083
-0.10954203 -0.04659419 -0.024655847 -0.10366923 0.046128683 0.1019488 0.06107948 -0.00021931846
-0.016126772 -0.071710475 -0.016880577 0.110652454 -0.07201287 0.022648677 -0.084749214 -0.029383147
0.019677557 -0.09357626 0.039766632 -0.10170205 -0.046157252 0.09064365 0.12412656 -0.002000363
-0.093483485 -0.093619816 -0.02796244 -0.070725955 0.0954772 -0.08730984 0.08665267 0.017235506
-0.040585164 0.10698976 0.06542056 0.0018955241 -0.076350585 -0.046230197 0.046336256 0.10957856
-0.046705488 -0.038676057 -0.11434114 0.0810082 0.12160783 0.079423405 -0.07928207 0.07593393
-0.04374199 0.06558256 0.0683105 -0.09580999 0.033667285 0.05312225 -0.065513805 0.102074705
0.09162026 0.1124175 0.00655003 -0.068093844 -0.063008994 0.050928436 -0.027468571 0.09099945
0.10898644 0.010778927 -0.11129654 0.047206998 0.11049558 -0.02929546 -0.07310194 -0.02886622
0.011291961 -0.097645484 0.05920672 0.056036085 -0.03926132 -0.036606144 -0.055606227 0.10619469
00000000: cb60 bb3d e99e e1bd 8556 a0bd 8725 52bc
00000010: 6404 f6bd f2ac edbd e50c debd 21c6 cd3d
00000020: 73cb 953c 18fd 2cbd 722b 37bb 9ac7 eabd
00000030: 1cae f3bd 3924 bbbd d027 05be 9c7f a03d
00000040: 7ea5 3dbd 3b7e 20bd 64fb e2bd b386 3f3c
00000050: 21ec 88bc 3b01 b9bd a657 973d 5158 cd3d
00000060: a9e3 c7bd c020 9c3d f00f 84bc 90e9 633c
00000070: 4565 6e3d 3a98 eebc a68e d03d 4ba5 913d
00000080: fa6e a0bd 1781 8ebd 5f95 06be 0d47 083d
00000090: 6474 d8bd 5f8b c6bd bc03 abbd e240 02be
000000a0: 82fe d9bd c477 e83d 163d 983d f36b d83d
000000b0: 0f4b 7bbd 8ea2 4cbd 2abe 47bd bfb5 03bc
000000c0: 8d85 c6bd 2a29 633c 868a a5bd f422 0b3d
000000d0: 99ac dd3d 80d7 413c 8694 af3d 03e7 c8bd
000000e0: bfcc c1bc 2ac5 b6bd baf2 a1bc 2330 5bbd
000000f0: a902 9cbd d3dd efbd 13ad 3dbd 6e7c 973c
00000100: 8933 86bc 8341 dfbd 7724 a33d 8f6d ac3d
00000110: b58e 93bd 80c9 5a3c 6d3e 9d3d 8508 fdbd
00000120: 1972 d3bd 9a34 883d 3c22 f93b 800b 4f3d
00000130: bac6 6bbd 72f9 9b3c ce28 9d3d 7cfb dbbc
00000140: 4013 39bd 56fc 03be 7c80 8ebc 679a 9b3d
00000150: 7955 fdbd cbe2 84bb ffb2 ad3d 47e9 a1bc
00000160: 0d36 53bd c3c9 41bd 8439 48bd c411 153d
00000170: 674f dfbd 8480 293d bcc6 7fbc 369c 68ba
00000180: 6d8d 81bb 6108 9b3d fe91 a1bd c3eb ffbd
00000190: 8d62 cabd d1ce babd 73a9 86bd 6e5a e83d
000001a0: 8731 b3bd dcc8 91bd e563 c8bd f0b8 82bd
000001b0: d9b6 793b f705 a8bd 89b3 b6b9 d9e8 5f3d
000001c0: 98ba c4bc af67 5b3d 8c44 183d cb0d fd3d
000001d0: 2e5c 23b9 3660 d73d f991 c53d 9117 813d
000001e0: 575d ab3d f80e bbbd dc63 98bd f8fe 3c3d
000001f0: 26a2 343d d1e5 cc3d b877 8cbc 0fcb e7bc
00000200: 926e ae3d e9cc 963c f9c8 003e 3ff5 6fbd
00000210: e754 11bd 1f0d c7bb 46a3 793d 148b e3bd
00000220: 875e 38bd d8ad c23d fd02 fc3c c8a6 a53d
00000230: f4f9 32bd 73be 9fbd 8c12 b6bd b7ee 90bd
00000240: 208a b9bd 12ef 833d b6ff 363d 6931 96bd
00000250: c6d5 f33d 1278 193d 1f65 233d 6225 69bd
00000260: de66 a03d 81a4 b9bd 6e2b c73d 7df4 85bd
00000270: 2586 653d 666e 57bd 9e2f a13d 0e0d d6bd
00000280: 2afe bfbc 216a 30bd eac7 aabd 9527 6abd
00000290: 65a4 33bd 2f43 b03b 8fb6 ab3d 0d2c 80bc
000002a0: a568 ed3d 9564 5abd 5a1f 78bd ec9a 00bc
000002b0: 8c20 9abc f279 293d 4434 db3d 8f06 0d3d
000002c0: 9257 e0bd 8dd9 3ebd 0ffb c9bc 8950 d4bd
000002d0: 6ef1 3c3d 88ca d03d 7a2e 7a3d daf8 65b9
000002e0: 4b1c 84bc f1dc 92bd 2349 8abc c19d e23d
000002f0: 7c7b 93bd b889 b93c ff90 adbd edb4 f0bc
00000300: d432 a13c e9a4 bfbd 56e2 223d 2a49 d0bd
00000310: 630f 3dbd 61a3 b93d 1136 fe3d 8618 03bb
00000320: 4574 bfbd bfbb bfbd 7d11 e5bc c5d8 90bd
00000330: 8d89 c33d 80cf b2bd f476 b13d 7a31 8d3c
00000340: a13c 26bd 731d db3d 37fb 853d 3c73 f83a
00000350: b25d 9cbd e05b 3dbd 16cb 3d3d b96a e03d
00000360: 414e 3fbd c96a 1ebd b02b eabd a1e7 a53d
00000370: 870d f93d bda8 a23d a35e a2bd 4083 9b3d
00000380: cd2a 33bd 2650 863d 60e6 8b3d 0738 c4bd
00000390: b5e6 093d b796 593d 1a2c 86bd 8b0c d13d
000003a0: 67a3 bb3d 253b e63d a2a1 d63b c974 8bbd
000003b0: dc0a 81bd 569a 503d c505 e1bc eb5d ba3d
000003c0: 4834 df3d 199a 303c 71ef e3bd 205c 413d
000003d0: 824b e23d 08fd efbc 78b6 95bd da78 ecbc
000003e0: eb01 393c 5bfa c7bd bf82 723d 1886 653d
000003f0: 7ad0 20bd 53f0 15bd 5bc3 63bd 9a7c d93d

node_encoder.layers.6.bias f4 [32]
0.033178348 0.016537393 0.026268343 0.0018112996 -0.053110927 -4.9305483e-05 0.067589685 0.061922204
-0.029538872 0.040966514 0.014601546 0.0016651313 0.024804264 0.00022134125 0.00023175862 -0.037149724
-0.00020175913 0.07564177 0.033079322 -0.05512576 0.000236324 0.03506532 -0.012441656 -0.00014056041
0.019691084 0.058987953 0.06699234 -0.044981215 -0.07122153 0.04315064 -0.0004451973 0.06646553
00000000: 05e6 073d 6d79 873c b530 d73c 2169 ed3a
00000010: d88a 59bd 5ccd 4eb8 766c 8a3d 23a2 7d3d
00000020: 81fb f1bc 81cc 273d 533b 6f3c 8940 da3a
00000030: 5032 cb3c d717 6839 3b04 7339 4f2a 18bd
00000040: 4e8f 53b9 13ea 9a3d 2f7e 073d 8dcb 61bd
00000050: becd 7739 a7a0 0f3d 16d8 4bbc 6663 13b9
00000060: 324f a13c 5a9d 713d 4833 893d 393e 38bd
00000070: 98dc 91bd babe 303d 5f69 e9b9 141f 883d

edge_encoder.layers.0.weight f4 [64, 4]
0.35063127 -0.20207512 0.14025183 0.1560205 -0.16844754 0.4592026 0.049031995 -0.15522142
-0.4577412 0.40386355 -0.48953053 0.37474614 -0.16048932 -0.0920345 0.082757466 0.47442824
-0.30920404 -0.34747514 0.31651956 -0.21750954 -0.18380961 0.28088105 -0.21261169 0.29374605
-0.20497906 0.386291 0.48844382 0.054427277 -0.1554403 0.26962486 0.15095535 0.0058528585
0.42569196 -0.016819987 0.19170634 -0.12878549 -0.08287454 -0.029680638 0.042113557 0.21972227
0.3746227 0.2947003 -0.21309231 0.42252427 0.31869557 0.1927046 0.05789149 -0.26295426
-0.31009138 0.0143100405 -0.35682586 0.16747817 -0.4566544 -0.4441723 -0.2186206 0.26805162
0.40439066 -0.420319 -0.30589104 0.09538265 -0.08462533 -0.4051446 0.1434855 -0.3914216
0.015541045 0.20622769 0.45254532 -0.41141224 0.35996467 0.0662374 0.44162783 0.47293574
-0.10767023 -0.08063219 -0.1300214 0.38253292 -0.21659723 0.332119 0.20595081 0.45416296
0.3560226 0.39145944 -0.41034424 -0.24627642 -0.3564135 0.23457317 0.104679674 0.18392943
0.19422767 0.029599449 0.18338421 -0.2749791 0.32162303 -0.43803707 -0.45326602 0.15783827
0.46628383 -0.17303194 0.47003317 -0.17532746 -0.3792703 -0.081435 0.27509174 -0.24038059
0.46689284 -0.232225 -0.2190348 -0.20448762 -0.38787967 0.45626834 -0.2826174 -0.22819932
-0.14077982 0.40900183 0.25210714 0.19225956 -0.14255166 0.24301077 0.08451856 0.40173525
0.117398605 0.3711994 0.3358937 0.0817572 -0.47372115 0.112863906 -0.37517416 0.07397622
-0.046747334 0.38042337 -0.37181863 -0.39550516 0.20988715 0.3433791 -0.112164 0.13809802
0.40091145 0.065278605 -0.1381312 0.28723347 0.4599324 -0.09221514 0.32722694 0.016691288
-0.085680075 -0.047830984 -0.49294776 0.22334582 -0.26531106 -0.43549234 -0.0638468 -0.18403892
-0.304704 -0.110339604 -0.055573583 0.15695551 0.069030054 -0.056957882 0.11133949 -0.32287228
0.43112057 0.2289577 0.3086815 -0.42514628 0.33405086 0.08582202 -0.48454696 0.4601357
-0.007962329 0.108439624 0.3917721 0.3329481 0.43976912 -0.4652089 0.48995236 0.10283279
0.017555444 -0.40318468 -0.25641763 0.4623719 0.3844068 0.37941077 -0.035177723 -0.26811716
0.109791785 -0.23067696 -0.33200777 0.16302082 0.37972847 -0.3916083 -0.4380566 0.069583625
-0.18412235 -0.25932395 -0.09952858 -0.029433254 -0.14574653 0.35257852 0.2795314 0.14573796
-0.16194066 -0.031733874 0.3195331 0.038466316 -0.48268816 0.062157616 0.25976402 -0.12190615
-0.10481071 -0.0755899 0.29321772 0.38719034 -0.39267302 0.32812676 0.20317465 0.16551551
-0.2989446 -0.281807 0.48208603 0.105892375 -0.10609757 -0.095885545 0.33916336 -0.10736512
0.34180418 -0.13268791 0.115257844 0.112015374 -0.25945437 0.015205318 0.09682707 -0.4759881
-0.09324789 0.031000879 0.4139133 0.10272223 -0.4280162 -0.15637454 0.4848199 -0.07760162
0.37396052 0.046079453 0.33037472 -0.2024044 0.4847863 0.10654321 -0.10858814 0.36553213
0.23948349 -0.3475913 -0.02415204 0.33981445 0.1258189 -0.14951572 -0.33465928 -0.3360761
00000000: f185 b33e c8ec 4ebe 2d9e 0f3e d7c3 1f3e
00000010: 837d 2cbe 9a1c eb3e c6d5 483d 5df2 1ebe
00000020: 0e5d eabe 34c7 ce3e bfa3 fabe bade bf3e
00000030: 5057 24be 957c bcbd bf7c a93d 42e8 f23e
00000040: fe4f 9ebe 43e8 b1be da0e a23e d2ba 5ebe
00000050: 9638 3cbe a4cf 8f3e e1b6 59be e265 963e
00000060: 08e6 51be efc7 c53e 4f15 fa3e 23ef 5e3d
00000070: be2b 1fbe 450c 8a3e 0a94 1a3e 56c9 bf3b
00000080: 4cf4 d93e 12ca 89bc ab4e 443e 58e0 03be
00000090: 20ba a9bd cf24 f3bc 447f 2c3d e0fe 603e
000000a0: 8cce bf3e f5e2 963e df34 5abe 1a55 d83e
000000b0: 112c a33e 5b54 453e a11f 6d3d f1a1 86be
000000c0: 4cc4 9ebe a974 6a3c e1b1 b6be 667f 2b3e
000000d0: 9bce e9be 8d6a e3be 14de 5fbe 103e 893e
000000e0: 4b0c cf3e 0d34 d7be c09d 9cbe fb57 c33d
000000f0: 0c50 adbd 1d6f cfbe dded 123e 6968 c8be
00000100: de9f 7e3c 5a2d 533e 05b4 e73e a0a4 d2be
00000110: 4a4d b83e 79a7 873d 0b1d e23e a224 f23e
00000120: 3682 dcbd 7d22 a5bd 5424 05be 5bdb c33e
00000130: aacb 5dbe 800b aa3e c5e4 523e 0c88 e83e
00000140: 9848 b63e 5f6d c83e a418 d2be e32f 7cbe
00000150: d57b b6be f333 703e 4c62 d63d ff57 3c3e
00000160: 9ee3 463e 8b7a f23c 12c9 3b3e 10ca 8cbe
00000170: c6ab a43e 6546 e0be 7c12 e8be 5ba0 213e
00000180: c1bc ee3e 492f 31be 30a8 f03e 0b89 33be
00000190: b72f c2be 65c7 a6bd d3d8 8c3e 5426 76be
000001a0: 940c ef3e 64cc 6dbe a94a 60be 3465 51be
000001b0: 2a98 c6be 019c e93e 3ab3 90be 15ad 69be
000001c0: 9628 10be b068 d13e 3014 813e b1df 443e
000001d0: 10f9 11be d1d7 783e 1118 ad3d 3eb0 cd3e
000001e0: ae6e f03d d90d be3e 42fa ab3e 5270 a73d
000001f0: 948b f2be 3125 e73d d416 c0be d880 973d
00000200: 227a 3fbd dac6 c23e 035f bebe a77f cabe
00000210: a8ec 563e 63cf af3e 3db6 e5bd 9169 0d3e
00000220: 4444 cd3e cab0 853d 4472 0dbe 4410 933e
00000230: 427c eb3e 4bdb bcbd 4a8a a73e 2bbc 883c
00000240: 0979 afbd 6cea 43bd a663 fcbe c4b4 643e
00000250: dad6 87be daf8 debe 1cc2 82bd b374 3cbe
00000260: 2a02 9cbe bbf9 e1bd 20a1 63bd f2b8 203e
00000270: a15f 8d3d ab4c 69bd f505 e43d 844f a5be
00000280: d6bb dc3e e373 6a3e 800b 9e3e c6ac d9be
00000290: b708 ab3e 75c3 af3d 8a16 f8be e896 eb3e
000002a0: 6e74 02bc 9815 de3d 5a96 c83e 2c78 aa3e
000002b0: 6b29 e13e dc2f eebe 09db fa3e ff99 d23d
000002c0: 6fd0 8f3c 396e cebe 2c49 83be 02bc ec3e
000002d0: f8d0 c43e 2142 c23e 8416 10bd a746 89be
000002e0: 84da e03d 9536 6cbe ecfc a9be eeee 263e
000002f0: c56b c23e e280 c8be f448 e0be dc81 8e3d
00000300: 928a 3cbe 1cc6 84be a4d5 cbbd 021e f1bc
00000310: 943e 15be 2c85 b43e bd1e 8f3e 553c 153e
00000320: c6d3 25be 61fb 01bd d899 a33e db8e 1d3d
00000330: e722 f7be fc98 7e3d caff 843e eea9 f9bd
00000340: ffa6 d6bd e1ce 9abd a220 963e d03d c63e
00000350: 700c c9be 3b00 a83e 040d 503e e67c 293e
00000360: 440f 99be 0249 90be fbd3 f63e 1ade d83d
00000370: af49 d9bd a45f c4bd d2a6 ad3e 3ee2 dbbd
00000380: f500 af3e 57df 07be 4e0c ec3d 5168 e53d
00000390: 34d7 84be ba1f 793c 454d c63d b6b4 f3be
000003a0: c0f8 bebd 8ef5 fd3c 72ec d33e 0860 d23d
000003b0: f024 dbbe a620 20be 503a f83e 99ed 9ebd
000003c0: c177 bf3e cfbd 3c3d e026 a93e 1943 4fbe
000003d0: e935 f83e 5433 da3d 7563 debd 0727 bb3e
000003e0: 293b 753e 7df7 b1be 80da c5bc 29fc ad3e
000003f0: abd6 003e a61a 19be 7658 abbe 2b12 acbe

edge_encoder.layers.0.bias f4 [64]
0.22927843 0.1779161 -0.39388588 -0.056690816 0.079712376 -0.39320496 0.38174334 -0.012295422
-0.15498668 0.014172235 0.1327641 0.064781144 0.42493123 0.2327938 -0.008576418 0.04013972
0.07448547 -0.15023385 -0.37929195 -0.012181715 -0.14246029 -0.423083 0.13047405 -0.16159873
0.4294628 0.13097344 0.16471148 0.09843184 0.1469589 0.27129433 0.31831005 0.0017398837
-0.09452879 0.088397525 -0.17727533 0.0018515103 0.098685004 0.17510578 -0.43438512 0.1455815
-0.1455636 -0.30322182 -0.16471606 -0.0006297866 0.19775845 -0.39613014 0.08873621 0.40129882
-0.23380068 0.07285842 -0.15290347 0.07619872 0.1682568 -0.2592058 0.07302109 0.44492996
0.00047900414 -0.3059483 -0.00032128365 0.06396989 0.10649763 -0.00091755553 -0.060987324 -0.20011342
00000000: f7c7 6a3e a32f 363e 69ab c9be a134 68bd
00000010: 3e40 a33d 2952 c9be dd73 c33e bd72 49bc
00000020: d4b4 1ebe a932 683c 50f3 073e faab 843d
00000030: 9690 d93e 7f61 6e3e 1b84 0cbc 8c69 243d
00000040: d78b 983d e7d6 19be 8e32 c2be d195 47bc
00000050: 1ce1 11be 569e d8be fd9a 053e 237a 25be
00000060: 8ce2 db3e e71d 063e 20aa 283e a296 c93d
00000070: 657c 163e 17e7 8a3e 89f9 a23e cf0c e43a
00000080: 4f98 c1bd c309 b53d aa87 35be 60ae f23a
00000090: 5d1b ca3d ee4e 333e ba67 debe 5113 153e
000000a0: a00e 15be e43f 9bbe 54ab 28be 4318 25ba
000000b0: 3181 4a3e 92d1 cabe 54bb b53d 0a77 cd3e
000000c0: 7269 6fbe cc36 953d ba92 1cbe 130e 9c3d
000000d0: 834b 2c3e 9fb6 84be 158c 953d dccd e33e
000000e0: d922 fb39 41a5 9cbe f671 a8b9 a502 833d
000000f0: 6e1b da3d 1c88 70ba d8cd 79bd 88ea 4cbe

edge_encoder.layers.1.weight f4 [64]
0.98652655 0.9838494 0.99268275 1.0019087 0.9917714 1.0034858 0.98657656 1.0028152
1.000217 0.98688126 1.0047727 0.9914377 0.9824112 0.9818802 0.989316 0.98986006
0.9814609 0.99163795 0.98061633 0.99344856 0.9863761 0.98499525 0.9883895 0.9877877
0.98930186 0.99423146 0.98451877 1.0033315 0.9907848 0.9873822 0.99150246 0.9891298
1.0021333 0.99037814 0.9878862 0.99040514 0.9912918 0.98554015 0.98937505 0.98906875
0.9872707 0.9935875 0.9928133 0.99842924 0.9987224 0.98845154 1.002158 0.98716587
0.9832405 0.9865948 0.99523944 0.98392814 0.97889775 0.9924279 1.0025407 0.9950183
0.98363125 1.0036585 0.99448276 0.99453306 0.99870914 1.003135 0.9856464 1.0004861
00000000: 018d 7c3f 8edd 7b3f 7520 7e3f 8b3e 803f
00000010: bbe4 7d3f 3972 803f 4890 7c3f 405c 803f
00000020: 1c07 803f 40a4 7c3f 649c 803f dcce 7d3f
00000030: 4d7f 7b3f 805c 7b3f d043 7d3f 7867 7d3f
00000040: 0641 7b3f fcdb 7d3f ac09 7b3f a552 7e3f
00000050: 2583 7c3f a628 7c3f 1807 7d3f a8df 7c3f
00000060: e342 7d3f f485 7e3f 6c09 7c3f 2b6d 803f
00000070: 13a4 7d3f 14c5 7c3f 1bd3 7d3f 9c37 7d3f
00000080: e745 803f 6c89 7d3f 1ce6 7c3f 318b 7d3f
00000090: 4dc5 7d3f 5c4c 7c3f af47 7d3f 9c33 7d3f
000000a0: c6bd 7c3f c05b 7e3f 0329 7e3f 0f99 7f3f
000000b0: 45ac 7f3f 290b 7d3f b746 803f e7b6 7c3f
000000c0: a6b5 7b3f 7a91 7c3f 03c8 7e3f b7e2 7b3f
000000d0: 0b99 7a3f c10f 7e3f 4153 803f 85b9 7e3f
000000e0: 42cf 7b3f e277 803f 6c96 7e3f b899 7e3f
000000f0: 67ab 7f3f ba66 803f 5353 7c3f ee0f 803f

edge_encoder.layers.1.bias f4 [64]
-0.005158949 -0.0051953103 -0.0057018525 0.0061108996 0.00060108263 0.007897046 -0.009305331 0.0075243344
0.003780343 0.0035583419 0.008101009 -0.0017309804 -0.00840394 -0.011925043 -0.009338081 -0.0058611105
-0.015075562 -0.0062813484 -0.017376045 -0.0033990492 -0.0064771934 -0.01016863 -0.005768876 -0.006193254
-0.005027766 -0.0017664124 -0.001827377 0.007933249 -0.0016464866 -0.0068233917 -0.0052590724 -0.00712818
0.0041949335 -0.0037254377 -0.008565869 -0.00805736 -0.008168608 -0.017308556 0.00073573715 -0.0088528
-0.0068236156 -0.0018299469 -0.005133357 0.0052730967 0.0037811862 -0.008595835 0.0053693387 -0.007737053
-0.011031913 -0.0103366375 -0.0013920218 -0.011549916 -0.016136631 -0.005568002 0.0085963495 -0.003815748
-0.0076570017 0.010000114 -0.0032606325 0.00045874825 0.0013058237 0.006198379 -0.01127083 0.0030670639
00000000: 670c a9bb 6c3d aabb 9bd6 babb f13d c83b
00000010: f991 1d3a 9d62 013c 6375 18bc b18e f63b
00000020: a2bf 773b 1233 693b 18ba 043c 10e2 e2ba
00000030: aeb0 09bc 4161 43bc c0fe 18bc 8f0e c0bb
00000040: 7dff 76bc c5d3 cdbb 3558 8ebc 95c2 5ebb
00000050: a33e d4bb 539a 26bc d708 bdbb c8f0 cabb
00000060: f5bf a4bb f786 e7ba 9984 efba 75fa 013c
00000070: ecce d7ba c296 dfbb 4c54 acbb 8293 e9bb
00000080: a775 893b 7926 74bb dc57 0cbc 0403 04bc
00000090: a0d5 05bc acca 8dbc 7cde 403a 560b 11bc
000000a0: a398 dfbb d4da efba b835 a8bb f1c9 ac3b
000000b0: c7cd 773b 8cd5 0cbc 47f1 af3b 1b87 fdbb
000000c0: 32bf 34bc 005b 29bc 8074 b6ba dc3b 3dbc
000000d0: f830 84bc c973 b6bb b4d7 0c3c a111 7abb
000000e0: 96e7 fabb 85d7 233c 56b0 55bb 2684 f039
000000f0: 2c28 ab3a c61b cb3b 4aa9 38bc cb00 493b

edge_encoder.layers.1.running_mean f4 [64]
0.24133225 0.17090383 -0.38025904 -0.040220223 0.072526224 -0.38481808 0.37965268 -0.019052086
-0.16623196 0.026357502 0.15676425 0.055638965 0.44031447 0.25412247 0.00070463296 0.027761012
0.053506117 -0.1383462 -0.36507785 -0.000350703 -0.15529191 -0.42335913 0.12069081 -0.14957377
0.42316473 0.12120067 0.16535218 0.091319755 0.15347105 0.29038236 0.3199432 0.006927505
-0.11497328 0.097754 -0.16697612 0.00036294683 0.11866269 0.17488618 -0.43123704 0.1350098
-0.17319664 -0.28169948 -0.15974586 0.002877327 0.22875385 -0.41429612 0.10596195 0.41786167
-0.23682843 0.07710554 -0.15929958 0.07034439 0.18677774 -0.26210225 0.07774368 0.44136316
0.007427956 -0.33325392 -0.00074330263 0.059253816 0.09836448 0.015174186 -0.046361566 -0.21408832
00000000: cd1f 773e 6a01 2f3e 50b1 c2be f6bd 24bd
00000010: a188 943d e006 c5be d661 c23e 1f13 9cbc
00000020: b638 2abe b0eb d73c cf86 203e afe5 633d
00000030: e670 e13e 571c 823e 1eb7 383a 106b e33c
00000040: 3b29 5b3d a0aa 0dbe 7ceb babe 8fde b7b9
00000050: d804 1fbe 87c2 d8be be2c f73d de29 19be
00000060: 0ca9 d83e 0f38 f83d 1552 293e da05 bb3d
00000070: 8427 1d3e ffac 943e 98cf a33e 2000 e33b
00000080: 1c77 ebbd 4033 c83d cafb 2abe e649 be39
00000090: 6d05 f33d 5d15 333e 1acb dcbe 0240 0a3e
000000a0: 765a 31be ea3a 90be 6b94 23be 8991 3c3b
000000b0: 733e 6a3e 9f1e d4be 9402 d93d f7f1 d53e
000000c0: 2783 72be 82e9 9d3d 6e1f 23be b810 903d
000000d0: aa42 3f3e 4432 86be 1438 9f3d 5afa e13e
000000e0: 3666 f33b 42a0 aabe 32da 42ba 21b4 723d
000000f0: 5173 c93d 269d 783c a0e5 3dbd f839 5bbe

edge_encoder.layers.1.running_var f4 [64]
0.039513398 0.028051933 0.2280515 0.010408338 0.101114534 0.047074962 0.19735137 0.028261587
0.057326917 0.0026160718 0.06539738 0.02304822 0.109616466 0.08865005 0.1147023 0.032774128
0.15510611 0.16469675 0.015039072 0.050673254 0.15979737 0.035439935 0.031106234 0.18799064
0.20177415 0.08009971 0.07791382 0.10536361 0.066859886 0.015012768 0.098640546 0.14260806
0.11636047 0.028106652 0.041427586 0.11498852 0.18050744 0.033286847 0.019001208 0.010328395
0.10574022 0.19255018 0.11454187 0.23143414 0.06498503 0.03949575 0.08823284 0.18099427
0.019440325 0.07362653 0.07964141 0.089262724 0.06577589 0.06777318 0.19303763 0.087121725
0.031302754 0.01853528 0.12739015 0.20535481 0.10349708 0.049202204 0.022667764 0.087230474
00000000: cdd8 213d 2bcd e53c 5586 693e bc87 2a3c
00000010: 2315 cf3d add1 403d 7a16 4a3e d884 e73c
00000020: a1cf 6a3d 6772 2b3b 10ef 853d 9fcf bc3c
00000030: 997e e03d 288e b53d 0ae9 ea3d 2a3e 063d
00000040: 23d4 1e3e 44a6 283e 7166 763c c28e 4f3d
00000050: eca1 233e 7729 113d 80d2 fe3c 9e80 403e
00000060: e29d 4e3e 510b a43d 4891 9f3d e0c8 d73d
00000070: d6ed 883d 1df8 753c 0e04 ca3d d907 123e
00000080: 664e ee3d ec3f e63c f9af 293d 1a7f eb3d
00000090: f1d6 383e ca57 083d 6ca8 9b3c 6e38 293c
000000a0: 548e d83d e02b 453e ee94 ea3d 12fd 6c3e
000000b0: df16 853d 4cc6 213d 6bb3 b43d 9056 393e
000000c0: 5141 9f3c 82c9 963d 091b a33d 60cf b63d
000000d0: 83b5 863d aacc 8a3d a8ab 453e e06c b23d
000000e0: 5137 003d 4dd7 973c 9072 023e 8848 523e
000000f0: 47f6 d33d 4088 493d bfb1 b93c e4a5 b23d
