gnn/gnn_outputs/checkpoint_epoch_30.pt (torch, 971292 bytes, 208 tensors)

node_encoder.layers.0.weight f4 [64, 3]
000000 ca 84 e4 3e d1 9e f2 3e ac 6a 0f be 1b 84 09 3f
       0.4463256 0.47386792 -0.14005536 0.537172
000010 18 7b fb bd 40 ff da 3d 58 cf 89 be c8 00 b2 3e
       -0.12279338 0.10693216 -0.26916003 0.3476622
000020 3b 43 04 3f 19 17 d3 be be a6 03 3f a5 0d c2 3d
       0.51665086 -0.4122856 0.51426303 0.09475259
000030 8d 6a db 3e 09 9d 96 3d ed cf 8d 3e 42 2e ba bd
       0.4285473 0.07354171 0.27697697 -0.09090854
000040 86 f5 df 3e a2 f3 bb 3d 92 e9 8e be 33 dc 19 3e
       0.43742007 0.09177329 -0.27912575 0.15025406
000050 f5 e8 80 be 07 29 88 bd 9b 60 65 be 6e be c8 3e
       -0.25177732 -0.0664845 -0.22400133 0.39207786
000060 bb 03 eb be 8e ee 82 be a7 2e 2a be 5b b0 ad be
       -0.45901284 -0.25572628 -0.16619359 -0.3392361
000070 64 e0 70 3d 59 db 13 bf d1 bb 04 3f cb 92 fb be
       0.058807746 -0.5775657 0.51849085 -0.49135432
000080 55 a1 e5 3e 8b a3 cb 3d dc 2f 37 be 2b ce b8 3e
       0.4484965 0.09943303 -0.1788935 0.36094794
000090 b0 6e b9 3d 46 85 f0 3e 34 07 6d 3d 68 80 3a be
       0.09054315 0.4697668 0.057868198 -0.18213046
0000a0 c8 ca 1c 3e 77 93 26 be a6 45 78 3e c3 e5 ff 3e
       0.1531173 -0.16267191 0.24245319 0.49979982
0000b0 85 7b b0 3e a9 52 72 be ab 96 b0 3e 4a fc ce 3d
       0.34469238 -0.23664345 0.3448995 0.10106714
0000c0 53 38 97 3e 25 d4 b0 be 23 31 14 bf a4 be 62 be
       0.2953516 -0.34536853 -0.57887477 -0.22143036
0000d0 9a a3 e9 be 5e 8c ed 3e e6 a9 26 3e 6f 5a 76 3e
       -0.4563263 0.46396154 0.16275749 0.24057935
0000e0 d9 ab 3f 3e 6e 11 53 bc 5a 60 eb 3e 11 ef cd be
       0.18717898 -0.0128825735 0.45971948 -0.40221456
0000f0 fc 8e fe 3c 10 17 cd be fb c0 2f 3e 3e 7b 4b be
       0.03107404 -0.40056658 0.1716346 -0.19871232
000100 85 1f 31 3e aa 44 fc bd 64 e8 f5 3e 8b 1f b2 be
       0.1729718 -0.12317784 0.48028862 -0.3478969
000110 46 ca ad be de 5e b5 be 20 15 02 3f d6 7f 43 3e
       -0.33943385 -0.3542394 0.50813484 0.19091734
000120 c8 a7 0c 3f 96 2a f5 be d5 1b 13 bf 91 eb e8 be
       0.54943514 -0.47884053 -0.57464343 -0.45492223
000130 59 88 c6 be d6 39 6b 3e 18 ec 4f 3e e9 12 f9 3e
       -0.387759 0.22971281 0.20304906 0.4864724
000140 bc 4d 95 be 03 04 c2 be 5f 88 a1 3e e1 f2 6e be
       -0.2916087 -0.37893686 0.31549355 -0.23334838
000150 7e 23 b3 3e d5 69 10 be c2 3b a7 3e a7 2c ef be
       0.34988016 -0.14102872 0.3266278 -0.46713755
000160 df f1 8f be b2 da 36 3e 7b 82 ff 3d ca 38 0f be
       -0.2811422 0.17856863 0.12476059 -0.13986507
000170 18 73 b3 3e a1 e3 c6 3e 3e 5e d8 be 68 8a 9c be
       0.35048747 0.38845542 -0.422594 -0.30574346
000180 47 c6 07 3f 4f 53 50 be 5c a3 4c be 8a 65 0d bf
       0.5303692 -0.2034428 -0.19984192 -0.5523306
000190 20 3d ac be 4b a3 11 3e f7 91 af bd 24 9f d1 be
       -0.33640385 0.14222448 -0.085727625 -0.40941727
0001a0 e0 a1 94 3b ee 1a cd be 51 58 01 bf 02 40 9b be
       0.0045358986 -0.40059608 -0.50525385 -0.30322272
0001b0 33 8a 02 bf f5 b4 ba be 03 9d 12 3f ea b7 e0 3d
       -0.50992125 -0.36466184 0.5727083 0.10972579
0001c0 ec 59 40 3e 06 f4 06 bf 81 f4 c1 be a8 1f 43 be
       0.18784302 -0.527161 -0.37881854 -0.19055045
0001d0 a7 c8 be 3d a2 04 01 bf 2a fb 7d be 9a 21 b3 be
       0.09315615 -0.50397694 -0.24802843 -0.34986573
0001e0 19 7d 38 3c ed 4e 62 be d2 e7 0a bd 53 98 cf be
       0.011260294 -0.2210042 -0.033912487 -0.40545902
0001f0 16 2c cb be 5a 1d a8 be 8b 52 4e be 85 ca ea be
       -0.39682072 -0.32834893 -0.20148675 -0.45857635
000200 22 26 f6 3e 75 93 e6 bd 81 3f f8 3e 48 89 45 3e
       0.48075968 -0.11258594 0.4848595 0.1929065
000210 e5 aa f9 be ed 45 d1 3e 1b 9b 20 be d9 2c 68 be
       -0.48763195 0.40873662 -0.15684168 -0.22673358
000220 50 ab f5 be 9d 44 12 bf 93 52 31 3e c4 dd f8 bd
       -0.47982264 -0.57135946 0.17316656 -0.121516734
000230 31 a3 5a 3e 85 93 f3 be 26 87 da 3e 03 f7 d8 be
       0.21351315 -0.47573486 0.42681235 -0.42375955
000240 8d 91 d1 bd 21 75 ea 3d 24 06 9d 3e 18 f4 f5 3e
       -0.1023284 0.11448122 0.30668747 0.4803779
000250 d6 e5 05 3f 41 0f e5 be 70 a6 12 3e 33 ac 84 be
       0.52303827 -0.447382 0.14321303 -0.25912628
000260 b9 d8 66 bd 59 2d df be 05 21 05 3f 26 fc db be
       -0.056359027 -0.43589285 0.5200351 -0.42965811
000270 4b 31 a1 3e 01 b9 43 3e 81 3e 43 3e 92 45 9d be
       0.3148292 0.19113542 0.19066812 -0.3071714
000280 52 95 07 3f 90 97 fc 3d 26 71 98 3d f7 f0 03 bf
       0.5296222 0.12333596 0.07443456 -0.5153956
000290 66 61 70 3e d3 4b a4 bd 8d eb 85 be fb a8 ff 3e
       0.23474655 -0.08022275 -0.26156273 0.4993361
0002a0 ed fd 04 3e af ba a2 be 5c 18 96 be d9 ee 0e bd
       0.1298749 -0.31783053 -0.2931546 -0.03489575
0002b0 ec 0c a4 3e 85 6e 18 be 5a a8 a3 be b6 93 50 be
       0.3204111 -0.1488591 -0.3196438 -0.20368847
0002c0 ee c9 e2 be 8c 78 47 3e b1 a7 df 3e a5 1e 0e bf
       -0.44294685 0.19479579 0.43682626 -0.5551551
0002d0 2f e3 17 3e 29 05 91 3e 33 1d ec 3d 84 61 59 be
       0.14832757 0.2832425 0.11529007 -0.21228606
0002e0 28 c5 96 3e 4c b0 9e 3e 2e 32 59 3e 48 3d ce bd
       0.29447293 0.3099388 0.21210548 -0.10070282
0002f0 87 af 1d be 1a bd 89 3d a1 a0 bf bd 5f 34 39 be
       -0.1539899 0.067255214 -0.093568094 -0.18086384

node_encoder.layers.0.bias f4 [64]
000000 cd bd ad 3e c1 cc ee 3e d5 91 f0 bc 04 1b cd bd
       0.3393387 0.4664059 -0.029366413 -0.100149184
000010 70 34 0e ba 8c eb 0f bc c4 7d e0 3d 23 ab 07 3e
       -0.0005424684 -0.008784186 0.10961488 0.13248877
000020 de 39 fd be 86 02 3c be 4e b0 e9 3e 5e 0f 48 3e
       -0.49458212 -0.18360338 0.45642322 0.19537112
000030 02 0e 84 bb a3 04 a3 be b7 a5 a5 be b7 88 f9 be
       -0.00402999 -0.31839475 -0.32352993 -0.48737118
000040 fe 98 22 be dc 83 29 3e eb 4a ad 3e ec a8 72 3e
       -0.15878674 0.16554207 0.3384622 0.23697251
000050 36 0a f6 be 8b 91 a2 be ed 91 7f bd fb 58 07 3f
       -0.48054665 -0.31751665 -0.062395025 0.5287015
000060 af 15 61 3d 9b 49 f6 bd ba 55 56 3e f6 f6 42 be
       0.05495232 -0.12025758 0.2093114 -0.1903952
000070 96 1e b0 be fa 86 c8 3e 73 87 6e be b1 93 b1 bd
       -0.34398335 0.3916548 -0.23293857 -0.08670748
000080 e7 66 0b bf 46 9f b6 3e ac b9 d0 3e f2 48 39 3e
       -0.5445389 0.3566839 0.40766656 0.18094233
000090 5f e4 be be d8 3c 0a bf aa d7 e0 be 99 32 cd 3e
       -0.37283608 -0.5399909 -0.4391454 0.40077665
0000a0 fe 82 7d 3e 23 81 e9 3e 5b ae 8b 3e d8 5b ef 3d
       0.24757001 0.45606336 0.2728146 0.1168744
0000b0 1e d0 3f ba 56 93 d1 be 59 01 ee be e1 9d 02 bf
       -0.00073170837 -0.4093272 -0.46485403 -0.51022154
0000c0 b3 c6 53 3e ba f7 81 be 9b 6e b2 bd 00 ed 9a be
       0.20681266 -0.25384313 -0.087125026 -0.30258942
0000d0 e9 44 9c bd cd d4 c0 be fe f1 b1 be a5 fa 25 3e
       -0.07630331 -0.37662354 -0.34754938 0.16208895
0000e0 eb a9 11 be 0e 49 a7 3e b8 92 1f be 85 9c c9 be
       -0.14224975 0.32672924 -0.15583313 -0.39377227
0000f0 65 75 95 bd d8 21 80 be 53 d6 16 be f7 15 05 bf
       -0.07297782 -0.2502582 -0.14730196 -0.5198664

node_encoder.layers.1.weight f4 [64]
000000 27 56 80 3f 7f 24 7f 3f 63 e6 7d 3f 02 fc 7f 3f
       1.0026292 0.99665064 0.9917967 0.9999391
000010 07 69 7e 3f 97 b5 80 3f e4 22 7c 3f 5e 79 80 3f
       0.9937901 1.0055417 0.9849074 1.0037038
000020 0f 0a 7f 3f 4a 48 7e 3f f7 be 7f 3f da ad 80 3f
       0.99624723 0.99329054 0.99900764 1.0053055
000030 62 25 80 3f c6 a3 81 3f 8a 1d 7e 3f db 53 80 3f
       1.0011408 1.0128105 0.99263823 1.0025591
000040 94 ea 7c 3f 92 7d 7e 3f c1 04 7d 3f 3d 46 80 3f
       0.9879544 0.99410355 0.9883538 1.0021435
000050 1f 99 80 3f d4 cf 7d 3f 37 7c 80 3f 2a 8e 7e 3f
       1.0046729 0.99145246 1.0037907 0.99435675
000060 98 e1 80 3f f6 e4 80 3f dc 2a 80 3f c6 ef 81 3f
       1.0068846 1.0069873 1.001308 1.0151298
000070 56 5b 7e 3f ad 74 80 3f 5f 65 80 3f 6a f2 80 3f
       0.9935812 1.0035607 1.0030936 1.0073979
000080 28 92 7f 3f 72 a9 80 3f 30 10 81 3f 3d 68 80 3f
       0.9983239 1.0051711 1.0083065 1.0031811
000090 87 22 81 3f c5 fb 80 3f b0 12 7f 3f 9a 6c 7d 3f
       1.0088662 1.0076834 0.9963789 0.9899384
0000a0 76 61 80 3f 4a d1 7f 3f 9e b4 80 3f 96 17 80 3f
       1.0029743 0.99928725 1.005512 1.0007198
0000b0 43 27 80 3f 89 c2 7d 3f 03 e4 80 3f 57 a8 80 3f
       1.0011982 0.9912496 1.0069584 1.0051373
0000c0 47 7b 7f 3f de 41 7e 3f c9 8b 81 3f c8 a9 81 3f
       0.9979748 0.99319255 1.0120784 1.0129938
0000d0 bb 7c 7e 3f af 5a 80 3f 81 7b 7e 3f 98 35 7f 3f
       0.99409074 1.0027674 0.994072 0.9969115
0000e0 2e 61 7d 3f a4 a8 7f 3f 30 38 7e 3f 53 b6 80 3f
       0.9897641 0.998667 0.99304485 1.0055641
0000f0 e3 4e 7d 3f 67 ca 7c 3f 68 9c 7d 3f 8f f4 7c 3f
       0.98948497 0.9874634 0.9906678 0.98810667

node_encoder.layers.1.bias f4 [64]
000000 38 6b cd ba f8 25 8d bb 6e 59 17 bc df c2 36 3c
       -0.0015672212 -0.0043075047 -0.00923763 0.011154859
000010 c2 ef 60 bc 9c 62 fe 3b ec 01 a5 bc 46 00 95 3b
       -0.013729038 0.00776322 -0.020142518 0.0045471517
000020 97 43 80 bc 45 78 b8 bb 2b 03 e9 3b 4d 3a 4b ba
       -0.01565723 -0.0056295716 0.0071109734 -0.0007752523
000030 ed 0c 13 3a 3d 32 0c b8 1b 9a 6f bb fc e0 da 3b
       0.0005609531 -3.342539e-05 -0.003656036 0.0066796523
000040 4d 49 2b bb fc 2a 16 ba 37 c9 03 bc bb 44 41 bb
       -0.002613622 -0.0005728451 -0.008043579 -0.002949043
000050 77 e7 c5 bb aa a1 df bb 40 09 01 3a b0 df 74 b9
       -0.0060395557 -0.006824692 0.0004922338 -0.00023352983
000060 d0 6d b0 3a 75 1c f9 bb 53 1d 7c 3c ce f6 52 3c
       0.0013460461 -0.0076022693 0.015387851 0.012876226
000070 65 e6 3c bc 46 f3 41 bb db 00 bb 3b a7 26 60 3b
       -0.01152954 -0.0029594465 0.005706889 0.0034202726
000080 d2 84 29 bb e3 12 fb bb 36 92 92 b9 32 0a 9a 3a
       -0.002586652 -0.0076621636 -0.00027956226 0.0011752306
000090 ba 96 ec 3b 85 b1 17 3c c1 de af bb 81 0b b7 bb
       0.0072201164 0.009258633 -0.0053671305 -0.005586088
0000a0 49 93 d8 3b 9a e4 37 bc 3f 93 91 bb 8e 47 d3 3b
       0.0066093546 -0.011223936 -0.004442602 0.006447739
0000b0 e3 d5 cb 3b 86 07 1a 3b 3a dd fd 3a ed 58 f1 bb
       0.0062205656 0.002350302 0.0019368299 -0.007365337
0000c0 8f d0 4b 3b ed c7 d1 bb 9a f8 f0 3b ee 42 98 3c
       0.0031099652 -0.006402007 0.0073538544 0.018586602
0000d0 70 2b 75 3b ba fd 22 3b bc fb b7 bb 01 cc 9b bc
       0.0037409924 0.002487047 -0.005614726 -0.019018175
0000e0 30 a4 02 bc 55 6b 74 bb 00 a4 12 bc 88 61 04 3c
       -0.007973716 -0.003729542 -0.008950233 0.008079894
0000f0 f2 14 f0 bb b4 2a 1c 3c 2d 4f ad b9 f8 84 4c bc
       -0.0073267156 0.009531666 -0.00033056122 -0.012482874

node_encoder.layers.1.running_mean f4 [64]
000000 4e e5 4b 3f 7a 29 3b 3f 40 46 9c 3e 1c 0b 39 3d
       0.79646766 0.73110163 0.30522346 0.04517661
000010 92 c0 d2 3e ee be 83 3e 25 e9 8f bd 1f ac 2a 3e
       0.41162544 0.25731605 -0.07026891 0.16667221
000020 95 5a 7b bf b9 9a 20 bf b4 30 29 3f e0 54 a7 3e
       -0.9818509 -0.6273609 0.6608994 0.32681942
000030 4b 05 b8 3e f4 63 d0 be 9f 18 92 3e d8 11 b4 be
       0.35941538 -0.40701258 0.2853441 -0.35169864
000040 e7 0b 05 bf 83 fa 57 3c 55 f8 2b 3f 10 8c 9e 3e
       -0.51971287 0.013182285 0.671758 0.30966234
000050 c2 51 20 bf fa 3d c4 be 42 43 51 be 25 5f 42 3f
       -0.6262475 -0.38328534 -0.20435813 0.7592643
000060 80 37 7b be 35 5a f6 be 95 f5 ef 3e f7 3d a4 be
       -0.2453289 -0.48115698 0.46867052 -0.32078525
000070 2c 31 a9 bd 7b a1 91 3d e4 f7 a0 bd 8c f6 9b be
       -0.08261332 0.07110878 -0.078597814 -0.30461538
000080 de 22 ff be c0 9b 7e bd 35 1f f0 3d 43 7e fb be
       -0.4983129 -0.062160254 0.11724702 -0.49119768
000090 84 6b 12 bf cf a1 24 bf 7d eb 35 bf f4 c8 44 be
       -0.57195306 -0.643094 -0.7106245 -0.19217283
0000a0 56 bb d5 3d f3 ca 29 be 89 32 0c 3e 59 6b eb 3e
       0.10436122 -0.16581325 0.13691153 0.45980337
0000b0 a7 12 af bd 9d 99 8f bf 0b 41 af be c1 e3 37 bf
       -0.085484795 -1.1218754 -0.3422931 -0.718319
0000c0 67 a8 c5 3e df 7f ab 3d 28 e2 50 be 07 dc de be
       0.38605043 0.08373999 -0.20398772 -0.43527243
0000d0 7a a1 99 3e 64 bf 1b be 34 37 02 bf c8 f1 61 3e
       0.3000601 -0.15209728 -0.50865483 0.22064888
0000e0 d8 55 da be 68 f1 dd 3e 6f 59 2e bf 5e 8e 9f be
       -0.4264362 0.4334824 -0.68105215 -0.31163305
0000f0 05 b8 6f 3e 51 01 c6 bc 75 5a 3b be d1 a1 23 bf
       0.23410042 -0.02417055 -0.18296225 -0.6391879

node_encoder.layers.1.running_var f4 [64]
000000 41 d1 35 3d 8c e9 c8 3c 3c 0b 3e 3d f8 df 11 3d
       0.044389013 0.024525426 0.046397433 0.035613984
000010 91 5a ce 3c 51 ee a7 3c 56 2c 7c 3c 70 04 bf 3c
       0.02518967 0.02049938 0.01539143 0.023317546
000020 0b b4 f2 3c 66 89 3c 3d 0f 0b 71 3d 84 b0 99 3c
       0.029626867 0.04602947 0.058848437 0.018760927
000030 ef 37 c8 3c 6c 9a 0b 3c b1 1c 3d 3d 6b 58 87 3c
       0.024440734 0.008520704 0.04616994 0.016521653
000040 09 12 60 3d f6 44 4a 3d 97 75 66 3c e5 bb 1a 3d
       0.0547047 0.049382173 0.014066122 0.037776846
000050 4e 1c 9e 3c 35 42 07 3c a0 82 23 3d 92 7b 12 3d
       0.019300606 0.008255531 0.039919496 0.035762377
000060 25 c1 9e 3d e2 fe 26 3d 72 38 1a 3d 9b e8 c8 3c
       0.07751683 0.04077042 0.037651487 0.024524977
000070 21 ac bb 3c 56 10 02 3d c3 73 8d 3c c2 92 17 3d
       0.022909226 0.03175386 0.017267114 0.037005194
000080 21 e2 ed 3c 06 6e 2a 3d 12 df 99 3c b7 c6 58 3d
       0.02903849 0.041608833 0.018783126 0.052923884
000090 ae e5 94 3d 78 d0 13 3d ff 28 98 3c ab 90 30 3d
       0.072703704 0.036087483 0.018574236 0.043106716
0000a0 34 f9 d2 3b 2e b8 37 3d a3 7f 4e 3d b8 84 e5 3c
       0.0064383987 0.04485338 0.050414693 0.028017387
0000b0 03 7e 06 3d 24 22 88 3d 58 b8 1f 3c e0 df 49 3d
       0.032835018 0.06647137 0.009748541 0.04928577
0000c0 63 a8 64 3c 88 60 91 3d 80 93 15 3c ac 49 5f 3d
       0.013956162 0.0709849 0.009129405 0.05451362
0000d0 6e 88 94 3c 3a 6d 08 3d 80 24 00 3d 76 1d 11 3d
       0.018131461 0.03330729 0.03128481 0.035428487
0000e0 15 ad af 3c 1d 07 5a 3c c9 3b 15 3d d5 3e 67 3d
       0.021444837 0.01330736 0.03643397 0.056456406
0000f0 a1 75 5d 3c e6 12 bb 3c f1 3f 08 3c dc 57 d3 3b
       0.013516814 0.02283616 0.008316026 0.0064496826

node_encoder.layers.3.weight f4 [64, 64]
000000 55 9b 76 3d be e8 9e bd 2f 06 55 3d 9c cb 47 3d
       0.06020673 -0.07759236 0.05200785 0.04877816
000010 8d 7e a8 3d ea 10 d2 bd d0 26 a5 3d 7d 2e 8f bd
       0.08227263 -0.10257132 0.080640435 -0.06991289
000020 bf 87 36 3d eb 55 eb 3d a3 e2 02 bc 11 4d f5 bb
       0.04456305 0.11490997 -0.007988605 -0.0074859937
000030 23 e1 12 bd 35 5b e6 bd a7 67 52 3d 95 60 07 be
       -0.03585924 -0.11247865 0.05136838 -0.13220437
000040 9c d4 b0 3d e0 e0 a9 3d 03 fd df 3d fd c5 0f bd
       0.08634302 0.082948446 0.1093693 -0.035100926
000050 4e b3 bc bd 48 98 a4 3c 46 bd a1 3d 9d e3 07 be
       -0.09213887 0.020092145 0.07897429 -0.13270421
000060 c8 a5 9a bc e1 8f a6 bd 68 64 95 bc 09 1c 8f bd
       -0.018877879 -0.081329115 -0.018236354 -0.06987769
000070 80 42 5d bd 97 a8 40 bd 66 e2 00 be 51 53 e6 3d
       -0.054018497 -0.04703578 -0.12586364 0.1124636
000080 f8 49 ec 3d 5d f7 d6 bc e5 52 b9 bb 9d b0 40 bd
       0.11537546 -0.026240999 -0.0056556338 -0.04704343
000090 2d a8 07 be 36 4b f0 bd 91 ac 20 3d e5 02 8f bd
       -0.13247748 -0.11733095 0.039227072 -0.06982974
0000a0 9a b2 90 bd a8 ab dd bb cc c0 51 bd 23 e1 43 bd
       -0.070653155 -0.006764848 -0.051209256 -0.04782213
0000b0 e4 44 70 bb 62 6c a7 bc 37 3b 32 bd cf e8 8a bd
       -0.0036662156 -0.020437423 -0.043513503 -0.06782686
0000c0 5a 3b e7 bd a9 3d c7 3d 6c 24 21 bd f3 1e d6 3c
       -0.11290617 0.097285576 -0.039341375 0.026137805
0000d0 50 fe 55 bd c3 63 2c 3b c2 73 02 3e ea 6d 3c 3d
       -0.052244484 0.002630458 0.1273947 0.04600326
0000e0 34 5b cb bd b1 24 33 3d aa 83 f6 3d 95 99 e8 3c
       -0.09929505 0.043736164 0.12036832 0.028393546
0000f0 f1 68 9a 3d c9 8e e7 3d 99 a1 17 bc 89 ae 0c 3d
       0.07539547 0.11306531 -0.0092548365 0.034346137
000100 18 a9 c4 bd 7b e9 9b bc 43 d0 ce 3d dd 3c 81 3d
       -0.096025646 -0.01903223 0.100983165 0.06310437
000110 5d 24 92 bd 14 f5 c7 bd 7b a5 c3 bd ed 5b df bd
       -0.07135842 -0.09763542 -0.09553047 -0.10906205
000120 09 2f c6 bd e0 a0 1b bd c0 6b bc 3d 42 0f 02 3d
       -0.0967694 -0.03799522 0.09200239 0.031752832
000130 26 39 c8 bd 0b 12 e5 bd ec 86 8c 3d 5e b5 b8 bd
       -0.09776525 -0.11185082 0.06861672 -0.09018968
000140 e8 ea 08 bc e7 db 95 3d ca a6 4f bd e0 13 b9 bc
       -0.008356787 0.07317334 -0.05069617 -0.022592485
000150 27 2e c6 ba 6d 18 2c bd 73 f5 5f bd 43 3d db bd
       -0.0015119956 -0.04201548 -0.054677438 -0.10705044
000160 06 a6 bd bd 8f c7 7a bd 67 aa e5 3d 3a 29 95 bd
       -0.09260182 -0.06122547 0.11214142 -0.07283254
000170 a1 9c 9c bd cd 0a 0a 3d e1 0b 38 3d b5 eb 9d 3d
       -0.07647062 0.033701707 0.044933204 0.07710973
000180 7a bd d2 3d 65 8d 91 3d d1 cc ec bd 89 9b 7a 3c
       0.10290046 0.07107047 -0.11562503 0.0152958715
000190 ba fc bc 3d 9f 32 9b bc 0c f1 94 bd 01 c0 f2 3d
       0.09227891 -0.018945036 -0.072725385 0.11853028
0001a0 4c 6e 1d bd 08 a0 8b bd 32 17 cc bd 4b d1 38 3c
       -0.038435265 -0.06817633 -0.09965362 0.011280368
0001b0 c7 da 2c 3d ec d0 00 3d 5d 06 07 3d 5e 0a da bd
       0.04220083 0.031449243 0.032965053 -0.10646509
0001c0 e7 8e d3 bd 3a b4 ce bb 3e 5d fb 3d a8 27 77 3d
       -0.10329991 -0.006308106 0.12273644 0.060340554
0001d0 41 b4 8e bd e0 f0 62 bc db a2 a9 bd 6b c6 3b bd
       -0.069679745 -0.013851374 -0.08283015 -0.045843523
0001e0 d2 4c f5 3c 75 38 6e 3d 8f 57 d2 3d 9a e0 fa bd
       0.029943857 0.05815931 0.10270607 -0.122498706
0001f0 cd df a9 3d 95 0e a6 bd 1a f7 63 3d a1 6d e5 3d
       0.0829464 -0.0810825 0.055655576 0.11202551
000200 57 a3 c4 39 54 dd fe 3d 46 89 ed bd d3 75 17 bd
       0.0003750573 0.12444559 -0.115984485 -0.0369776
000210 67 f4 a8 3d c3 09 ad bc 46 a5 a4 bc 92 24 6d bd
       0.08249741 -0.021122819 -0.02009834 -0.057896204
000220 27 d6 a7 3d 05 e1 87 3d 7a eb 1d 3d e4 dd 9a bd
       0.08195143 0.06634716 0.038554646 -0.075618535
000230 51 42 cc bd 3d 14 9c 3c 39 9c 1c 3d f4 7b 41 bd
       -0.09973586 0.01905262 0.038234923 -0.04723735
000240 3f 7d 0a bd 78 c6 a0 3d 2e ba 5e 3c ff bb 33 3c
       -0.03381085 0.07850355 0.013594193 0.010970115
000250 83 2d 0f bd 4f 25 db bd 6c 91 eb bd 46 5e 4a bd
       -0.034955513 -0.107004754 -0.115023464 -0.049406312
000260 ce 11 85 bd 28 86 02 3d ca e0 09 bd 77 ef 2e bd
       -0.064975366 0.031866223 -0.03366164 -0.04270884
000270 c1 d7 fe 3d 74 4a 15 3d 2d 84 ac 3d 6c 94 6b bd
       0.124434955 0.036447957 0.08423648 -0.057514593
000280 40 92 30 bd d5 fb 1e 3d 4c 30 b7 bd 44 01 b1 bd
       -0.043108225 0.038814384 -0.08944759 -0.086428195
000290 c0 6e 50 bc c2 6e 2f bd 0f 38 ce bd ca f3 9d 3d
       -0.012721717 -0.042830236 -0.10069286 0.07712515
0002a0 a0 58 c3 3d 09 5e 91 3c 22 a6 e1 bc b2 b6 e0 bd
       0.09538388 0.017745035 -0.027545039 -0.10972346
0002b0 b5 fc 1b bd ee dd 0b 3d 02 14 69 3d 72 1b 29 bc
       -0.038082797 0.034147196 0.056903847 -0.010321485
0002c0 42 eb 68 bd 1f c4 90 3d 00 50 cc bd 6d 37 ad 3d
       -0.056864984 0.07068657 -0.09976196 0.08457837
0002d0 cf fe 2c bd 2b ce 3c 3c cd 86 ea bc a7 58 16 3c
       -0.042235192 0.011523764 -0.028628731 0.00917641
0002e0 ca ed 1e bd 5a 5c c7 3d 62 f3 96 3a e9 b5 cf 3d
       -0.038800992 0.097344115 0.0011516626 0.101421185
0002f0 7e 39 f3 3d 3f 38 95 bd a6 70 ba bd 1b d7 d1 3d
       0.118762 -0.07286119 -0.09103517 0.10246106
000300 fc 80 b7 3d d4 24 b1 bd 2b c1 af bb 13 2d 05 be
       0.08960149 -0.086496025 -0.0053636036 -0.13005476
000310 51 e2 c1 bd 50 b4 83 3c eb d2 b4 3c dd 93 01 3d
       -0.094669946 0.01607719 0.02207323 0.031635154
000320 53 18 00 bd 4b 50 d5 3d a9 31 d0 3c 96 08 8a bd
       -0.031273197 0.10415705 0.025414305 -0.06739919
000330 c7 ae 57 bc ee 45 9d 3c e4 18 48 3d 93 7c c0 bd
       -0.013164229 0.019198384 0.048851863 -0.09398761
000340 64 cd 2b 3d f6 c5 6c bd 29 29 c9 bd 1a ee 9e bd
       0.041943923 -0.057805978 -0.09822304 -0.07760258
000350 ff e9 02 3e 34 c2 c4 3d 14 9f f3 3d c2 fb 8d 3d
       0.12784575 0.09607354 0.11895576 0.069327846
000360 29 fb cd 3d 52 74 43 bc 02 e7 9e bd a2 19 54 3d
       0.100576706 -0.011929588 -0.07758905 0.051782258
000370 68 79 6b bd 75 45 a4 bd cd 21 09 bd 99 33 17 3d
       -0.05748883 -0.080210604 -0.0334795 0.03691444
000380 59 df 8c 3d d6 c7 36 bd 86 60 88 bd 26 df ab 3c
       0.06878538 -0.044624172 -0.066590354 0.020980429
000390 9c 01 8e bd 1f 8f ba bd 78 0f 8d 3d f5 f5 b4 bc
       -0.06933901 -0.091093294 0.06887716 -0.022089938
0003a0 7a 4f f9 3d 18 b4 fe 3d 0d 44 32 3d c3 03 2c 3d
       0.12173362 0.12436694 0.04352193 0.041995775
0003b0 9e 2b 9a 3c 43 5f d4 3a c2 57 06 bb 5f 7c 14 bc
       0.018819626 0.0016202707 -0.0020499085 -0.0090628555
0003c0 80 57 4b 3d 5c 5d dc 3d 40 fb bb bc 2c bc 81 bd
       0.049643993 0.107599944 -0.022946954 -0.06334719
0003d0 54 d8 c7 bc 76 9a 89 bd a7 44 ea 3c 69 f5 c8 3d
       -0.024395145 -0.06718914 0.02859719 0.09812433
0003e0 18 5e de 3d 78 7a 45 3d 28 19 c7 bd a6 da 9b bd
       0.10857791 0.0482125 -0.09721595 -0.07610063
0003f0 d9 b5 f4 bc a8 69 82 bc 30 de 34 3c a1 1c f7 bd
       -0.029871868 -0.015919521 0.011039302 -0.120660074

node_encoder.layers.3.bias f4 [64]
000000 e3 f4 18 39 5f 40 f7 3c 3a 57 cd ba 8c dd 7d bd
       0.00014587077 0.030182062 -0.0015666254 -0.06197886
000010 54 21 be 3c 80 06 3a 3d be 8d 17 bd 99 4f 57 bd
       0.023209251 0.045416355 -0.03700041 -0.052566145
000020 c4 7e 67 bd c0 b0 06 bd 4c 1c 20 3b d4 82 54 ba
       -0.056517377 -0.032883406 0.0024430929 -0.0008106653
000030 27 36 d9 37 f4 ab f4 bb c8 30 49 3d 77 4f f8 39
       2.5893632e-05 -0.0074667875 0.049118787 0.00047361452
000040 4d 4b 35 bd 53 c0 f4 bb d8 e9 38 bd b3 8c 8c bc
       -0.044261266 -0.007469216 -0.045144886 -0.017156934
000050 0c 06 b6 bd 89 8f f4 b9 3d 65 8b bd f8 4f ac 3c
       -0.08887872 -0.0004664625 -0.06806419 0.021034226
000060 69 87 69 3d c3 98 83 bd 6b fd 1a bd a1 42 8f bd
       0.057013903 -0.06425621 -0.037839334 -0.0699513
000070 1d 28 fd 3b 08 03 6b 3a 42 4f 15 bd 02 f9 40 3d
       0.007725729 0.000896499 -0.03645254 0.047112472
000080 41 90 c7 3c 00 f4 ab bd 12 fa e0 b9 c4 ac d6 bc
       0.024360778 -0.08396149 -0.00042910926 -0.026205428
000090 27 9c 14 3a c5 6a 29 3d 59 20 18 3b 31 4c 6e bd
       0.00056690205 0.04136159 0.002321264 -0.05817813
0000a0 d4 ce 72 3d 87 9e ae bd fe c8 83 bc 50 29 ab 3c
       0.059279278 -0.085263304 -0.016087051 0.020893723
0000b0 1b fa a6 3d 13 f2 bc 3d fd d3 94 bb fc 4e 75 3c
       0.081531726 0.092258595 -0.0045418725 0.014972445
0000c0 0e 89 a5 bd 20 3a 80 ba c4 04 4c bc dc b8 1b 3c
       -0.08082782 -0.0009782948 -0.012452308 0.009504523
0000d0 53 93 5a bd b2 4b 34 3b de 83 15 3d 12 88 8c 3d
       -0.053363156 0.0027510938 0.03650271 0.06861891
0000e0 69 b1 56 3a ac 7d ae 3d ea 6b b6 bd 45 b3 1a bc
       0.00081898883 0.08520064 -0.08907302 -0.009442155
0000f0 cf 54 a5 3c d1 92 d9 3b 84 12 fe 3c dc c6 5e bd
       0.020182041 0.0066398163 0.031014688 -0.054388866

node_encoder.layers.4.weight f4 [64]
000000 82 f8 7d 3f e7 e4 80 3f 2d 83 7f 3f b8 b6 7f 3f
       0.9920732 1.0069855 0.99809533 0.9988818
000010 2d 62 7f 3f 2d 8a 80 3f a9 7f 80 3f 0f 22 80 3f
       0.9975918 1.0042168 1.0038959 1.0010394
000020 70 24 80 3f cc 1a 7f 3f f6 19 7c 3f c9 02 81 3f
       1.001112 0.99650264 0.98477113 1.0078975
000030 97 8c 7f 3f f3 80 7f 3f a0 b9 80 3f 11 74 7d 3f
       0.998239 0.99806136 1.0056648 0.9900523
000040 8e 97 80 3f 00 cc 80 3f 14 d2 7d 3f 62 d8 7f 3f
       1.0046251 1.0062256 0.9914868 0.9993955
000050 68 b8 80 3f c4 cf 80 3f 5d 26 7f 3f 1a 12 81 3f
       1.0056276 1.0063405 0.9966791 1.0083649
000060 ce 90 81 3f f9 a9 82 3f 4c 8e 80 3f b3 a4 80 3f
       1.0122316 1.0208122 1.0043426 1.0050262
000070 03 be 7b 3f e9 fa 7e 3f 59 c4 7d 3f 42 5e 7c 3f
       0.9833681 0.9960161 0.9912773 0.98581326
000080 3c dc 7f 3f d2 87 81 3f 2a f5 80 3f 4b f1 80 3f
       0.99945426 1.0119574 1.0074818 1.0073637
000090 cc 4e 7f 3f 25 f6 7e 3f 92 99 7f 3f 75 38 82 3f
       0.9972961 0.99594337 0.99843705 1.0173479
0000a0 e0 eb 7f 3f 18 92 7f 3f 64 2d 7e 3f 2f 52 7f 3f
       0.9996929 0.99832296 0.9928801 0.9973478
0000b0 f8 57 80 3f c2 8e 81 3f 98 7a 80 3f 1f 33 7f 3f
       1.0026846 1.0121691 1.0037413 0.9968738
0000c0 00 2c 81 3f 87 32 7f 3f c9 49 80 3f a0 ba 7e 3f
       1.0091553 0.99686474 1.0022517 0.9950352
0000d0 fa b6 7e 3f 57 97 7f 3f 12 79 7e 3f c0 cd 80 3f
       0.9949795 0.998403 0.9940349 1.006279
0000e0 75 bc 7e 3f 82 7f 80 3f 52 c8 7e 3f 60 97 7f 3f
       0.9950631 1.0038912 0.99524415 0.99840355
0000f0 cb ed 80 3f ce 4c 7f 3f d5 61 7f 3f e3 db 7e 3f
       1.0072569 0.9972657 0.99758655 0.9955427

node_encoder.layers.4.bias f4 [64]
000000 3e 5a e1 b8 72 27 84 ba c0 fb 95 bb 0b a6 4c bb
       -0.00010745645 -0.0010082556 -0.00457713 -0.00312269
000010 b2 c6 e5 bb 69 09 a9 3b 8e 67 09 3b 0f 63 08 bc
       -0.0070122117 0.0051585925 0.0020966264 -0.008324399
000020 21 a1 b6 3b dc be 15 b9 55 1a 8f bc ba e1 c7 3b
       0.0055734073 -0.00014280848 -0.01746861 0.0060999068
000030 e2 5b 14 3c f7 8e 04 ba a0 cd 98 bb 6e 3a a8 bb
       0.00905511 -0.0005056704 -0.0046631843 -0.0051339185
000040 7f 3a 10 3c 18 fc 82 3a 62 1f 85 3b 5c da cc 3b
       0.008803009 0.0009993343 0.004062579 0.0062516164
000050 8c 1b 54 3b 8f 45 6f 3c 6f 87 5e ba 77 87 4c 39
       0.0032365052 0.014603986 -0.0008488809 0.0001950542
000060 80 79 2d 3c 3a 11 54 3c a6 74 a1 3b ee 9f 69 bb
       0.01058805 0.01294356 0.0049272357 -0.0035648304
000070 f0 c9 dd bb 98 ab 94 bb 32 55 58 bb 0b 2f 5a bc
       -0.0067684576 -0.004537057 -0.0033009765 -0.01331688
000080 01 21 d0 bb 23 cf 12 3c 5e a8 27 3a 4b 5a 9c 3b
       -0.0063515906 0.008960518 0.0006395633 0.004771506
000090 9d 9e e7 bb 9e db b7 bb 73 57 b1 3b 54 31 58 3c
       -0.0070684687 -0.005610897 0.005412036 0.0131953545
0000a0 74 78 b3 bb ad 29 2e 3b bd b3 91 3b 26 aa a1 ba
       -0.0054770056 0.0026575134 0.0044464753 -0.0012334033
0000b0 d3 4d 01 bc 1d 35 07 3c 94 e0 b2 3b dc 5c 87 38
       -0.00789209 0.008252409 0.0054589007 6.454598e-05
0000c0 2a b9 e2 3b a7 b5 c2 3b a2 81 3b 3c 05 d0 f5 bb
       0.006919046 0.005942065 0.011444481 -0.0075016045
0000d0 d5 9c aa bb c1 83 8e 3b 35 cc 3b bb 5e e8 39 3c
       -0.005206684 0.0043492024 -0.0028655652 0.011346905
0000e0 1e b7 35 bb 3a d5 33 bc 57 66 69 bb 3e f3 10 bc
       -0.0027727555 -0.01097613 -0.0035613978 -0.008847056
0000f0 5a 1d 9f 3b 90 59 81 bb fa 12 2c 3c 23 fd af bb
       0.004855794 -0.0039474443 0.010502571 -0.0053707524

node_encoder.layers.4.running_mean f4 [64]
000000 21 dd 1e be d9 e5 82 be 1d 94 ea bd 6d 9d a6 bc
       -0.15514041 -0.25565985 -0.114540316 -0.020338738
000010 f4 5a cc 3b a0 c4 b2 be c1 c0 e0 3d 54 5b 3b bc
       0.0062364284 -0.34915638 0.10974265 -0.011435349
000020 63 b3 d9 3b e9 ce 22 3e b8 90 6e be d9 05 32 be
       0.006643699 0.15899242 -0.23297393 -0.17385043
000030 f8 55 30 3d 39 4a ad bd de 40 a6 3e 48 ca d6 3d
       0.043050736 -0.084614225 0.32471365 0.10487801
000040 d3 ff 84 3d 1c 65 28 be 7e 3b 57 be b7 a5 6e 3e
       0.06494107 -0.1644482 -0.21018788 0.23305403
000050 c6 4a 38 bd fb 97 02 be 3a 49 1d 3d 38 e6 60 3e
       -0.044993185 -0.12753288 0.038399912 0.21962821
000060 a6 8a b1 3d 4f 80 40 be 60 b4 57 bd bf 01 04 bf
       0.08669023 -0.18798946 -0.052662253 -0.51565164
000070 c7 7c 01 3e 98 bf 00 3f f2 60 88 be 5d 80 e8 be
       0.12645255 0.5029235 -0.26636463 -0.45410433
000080 6b 9e 81 bd 37 3b 0d bf 25 95 46 3e e5 56 4f 3e
       -0.06329044 -0.5516848 0.19392832 0.20247991
000090 bb 40 8c 3e 7f c7 8c be 18 46 f1 3e 49 cd 21 be
       0.27393135 -0.27495953 0.4712379 -0.15800966
0000a0 90 ee 9f 3e f7 11 40 be 24 01 01 be a3 e8 19 3e
       0.31236696 -0.18756853 -0.12598091 0.1503015
0000b0 8b d8 16 3c 53 fd fc 3d de b6 48 3e 5a 37 bd be
       0.009206901 0.12353005 0.19601008 -0.36956292
0000c0 02 d2 22 be 4e ca ef bd 80 f8 57 be 48 0a 82 be
       -0.15900424 -0.117085084 -0.21090889 -0.2539847
0000d0 ae b3 2d be 6d 8b 70 be 83 7f 6b 3c e8 d8 33 3e
       -0.16963074 -0.23490687 0.014373663 0.17563212
0000e0 3e e1 32 be 26 1a ae 3e f3 fc 92 3d 40 2a 7c 3e
       -0.17468736 0.34004325 0.071771525 0.24625492
0000f0 ac 83 1a bd c9 5a 0e 3e fe f4 0e 3e 11 a5 9a 3d
       -0.03772323 0.1390182 0.13960645 0.07551015

node_encoder.layers.4.running_var f4 [64]
000000 75 d7 f0 3d fc 0b c4 3d 25 82 b2 3d b7 46 e8 3d
       0.11759845 0.09572598 0.08716229 0.11341613
000010 74 3f a9 3d 22 27 f3 3c e8 6e 84 3e 66 ab 40 3e
       0.08264056 0.029681746 0.25865865 0.18815383
000020 b2 e7 48 3e fb 72 ad 3d 10 26 0f 3d 77 75 b5 3d
       0.19619635 0.084691964 0.03494841 0.08860295
000030 2f 1c 23 3e 1b 81 3b 3e 74 73 2d 3d 76 21 68 3d
       0.1592872 0.18310969 0.042346433 0.056672536
000040 27 1c d0 3d e0 e2 fc 3d bd 67 4f 3d d2 49 7a 3d
       0.1016162 0.123479605 0.050636042 0.061105557
000050 dd 3e 93 3d a2 2b 72 3e fd 7c 4a 3e 3f 77 d2 3c
       0.071897246 0.23649457 0.19774242 0.025691627
000060 e3 9a 13 3e 5c d3 18 3e 8c 27 47 3e cd 58 3c 3d
       0.14414553 0.14924377 0.1944868 0.045983125
000070 ed ff 06 3d d4 c7 eb 3d 1a 90 98 3d 55 7f 50 3e
       0.032958914 0.115127236 0.0744936 0.20361073
000080 96 c8 48 3d 3b 14 81 3d 73 b3 8f 3d e4 61 d9 3d
       0.04901942 0.06302687 0.07016649 0.10614374
000090 97 9d dd 3d 51 b6 b1 3e 1f d6 30 3e ce 62 62 3d
       0.108210735 0.3470941 0.1726918 0.05527001
0000a0 38 cf ff 3d 1c c8 19 3e 07 ed 06 3e 8e 45 5d 3e
       0.12490696 0.15017742 0.13176356 0.21608564
0000b0 c1 75 b8 3d 81 cd 0c 3e 90 66 db 3d 51 8e 28 3e
       0.09006835 0.13750269 0.107129216 0.1646054
0000c0 42 11 01 3e b0 6a ae 3d f9 f3 bb 3d 19 a4 05 3e
       0.1260424 0.08516443 0.091773935 0.1305088
0000d0 d1 0f 64 3e d6 39 bf 3d a4 d7 4c 3e c7 79 0f 3e
       0.22271658 0.09337203 0.20004135 0.14011298
0000e0 76 7a 5d 3e ff 43 38 3d 86 4c 0a 3e 61 e0 e0 3d
       0.21628746 0.04498672 0.13505754 0.10980297
0000f0 2b fa cf 3d 5b f6 49 3e 7d 9e 41 3e ce c5 1c 3e
       0.10155138 0.19722883 0.18908115 0.15309832

node_encoder.layers.6.weight f4 [32, 64]
000000 fa ce bc 3d e9 f8 dc bd ea d3 a3 bd 6e 47 2a bc
       0.09219165 -0.10789663 -0.07999404 -0.010393007
000010 bb 58 f5 bd 17 2a ed bd 47 41 e3 bd 8e 89 ce 3d
       -0.119798146 -0.115802936 -0.11096435 0.1008483
000020 ae 20 95 3c b6 90 2e bd a9 6b 2e bb 33 f4 e9 bd
       0.01820406 -0.042618476 -0.0026614463 -0.114235304
000030 1a 74 f4 bd 41 db bc bd c4 3e 04 be bc c6 a0 3d
       -0.11936207 -0.09221507 -0.12914568 0.078504056
000040 f1 fb 3b bd 6e cc 15 bd 01 5c e0 bd 68 55 46 3c
       -0.045894567 -0.036571912 -0.10955048 0.012105323
000050 c3 22 88 bc f2 c0 b5 bd b9 4b 98 3d b5 69 cd 3d
       -0.016618138 -0.08874692 0.07436318 0.10029928
000060 d6 45 c5 bd 01 8d 98 3d 9e 58 87 bc 89 ec 52 3c
       -0.09632461 0.07448769 -0.016521748 0.012873777
000070 1d 70 70 3d 78 cf ea bc 39 5e d6 3d fa 7b 97 3d
       0.05870067 -0.028663382 0.1046719 0.073966935
000080 d6 fb a0 bd 9e 19 9a bd 21 8b 05 be 83 b4 09 3d
       -0.07860534 -0.07524417 -0.13041355 0.033619415
000090 6e 63 d6 bd 50 ab cc bd 5c 8a aa bd 1d bd 00 be
       -0.104681835 -0.09993613 -0.08327171 -0.12572141
0000a0 e9 a1 d8 bd dd 7b e3 3d 95 e3 95 3d 63 ad d6 3d
       -0.10577757 0.111076094 0.073187985 0.1048229
0000b0 20 ac 77 bd a1 18 4b bd ed 21 4f bd 5b 38 13 bc
       -0.060466886 -0.049584035 -0.050569464 -0.008985604
0000c0 2d 83 c1 bd 91 3b 67 3c 1d d7 a3 bd 5c 1a 0e 3d
       -0.09448848 0.014113323 -0.08000014 0.034693107
0000d0 41 69 e3 3d 16 71 62 3c 1c 9a af 3d e8 81 c2 bd
       0.1110406 0.013820907 0.08574316 -0.09497434
0000e0 ab b5 d0 bc 40 96 b3 bd e9 95 9f bc 76 4e 5c bd
       -0.025477251 -0.08768892 -0.019480662 -0.053785764
0000f0 87 a1 9d bd 0b 19 ec bd 71 f2 3a bd 83 9e 99 3c
       -0.076968245 -0.11528214 -0.045641366 0.018752342
000100 1d f2 8a bc 62 3e da bd ac 9c 9e 3d 32 1e b4 3d
       -0.016961152 -0.1065643 0.077447265 0.08794822
000110 b3 98 93 bd bb 4e 80 3c 6a d4 9c 3d 1b 35 fc bd
       -0.072068594 0.015662542 0.07657702 -0.123148166
000120 f9 cc d7 bd b4 8e 87 3d 58 a8 02 3c 42 ea 4c 3d
       -0.10537142 0.06619015 0.007974707 0.050028093
000130 76 96 6d bd 9f 3f 9a 3c 3a d5 9f 3d 42 16 e7 bc
       -0.05800482 0.018829165 0.078043416 -0.028208856
000140 f3 66 3a bd 75 c0 01 be ad df 77 bc e8 4a 9c 3d
       -0.045508336 -0.12671073 -0.015129012 0.07631475
000150 73 f7 fa bd 50 53 6d bb fb 4d ae 3d e6 28 b6 bc
       -0.122542284 -0.0036212988 0.08510967 -0.022236299
000160 47 16 48 bd 83 03 41 bd 98 0f 42 bd 9f 18 11 3d
       -0.04884937 -0.04712249 -0.047378153 0.03542387
000170 8b c4 e3 bd 53 a7 26 3d d8 d2 81 bc a9 eb 88 ba
       -0.11121472 0.040686917 -0.015847608 -0.0010446209
000180 0a a1 8a bb f5 57 96 3d d6 a1 9d bd 10 26 fd bd
       -0.004230623 0.07340995 -0.076968834 -0.123607755
000190 2c 94 c7 bd 11 be bb bd 39 1c 86 bd f7 0c e2 3d
       -0.097450584 -0.09167112 -0.06548352 0.11037629
0001a0 dc 89 bb bd b6 78 91 bd 7e 6a ca bd 65 70 83 bd
       -0.09157154 -0.07103102 -0.09883593 -0.06417922
0001b0 23 9d a3 3b 9d 2c a7 bd f6 35 9c ba 2d 6e 5b 3d
       0.0049930974 -0.08162806 -0.0011917937 0.05357187
0001c0 ca bf c3 bc e2 ea 59 3d 44 7a 14 3d 37 af fb 3d
       -0.023895163 0.053202517 0.036249414 0.12289279
0001d0 72 4b 1f 3b 61 b8 d8 3d 6c e5 c2 3d 3f 40 88 3d
       0.0024306444 0.105820425 0.09516415 0.06652879
0001e0 4a 9b a6 3d 8d eb b7 bd a3 db 9b bd 56 89 3d 3d
       0.08135088 -0.089804746 -0.07610252 0.046273552
0001f0 64 d7 29 3d 88 57 d1 3d 50 da 74 bc 15 53 e1 bc
       0.041465178 0.102217734 -0.014944628 -0.027505437
000200 46 e4 b2 3d db 38 8a 3c 5f 36 00 3e 33 b5 71 bd
       0.08734946 0.016872814 0.12520741 -0.059010696
000210 ba 21 13 bd d7 3a 02 bc e5 fd 7e 3d f5 b7 e1 bd
       -0.035920836 -0.007948599 0.06225385 -0.11021415
000220 5b 8b 30 bd a4 e8 c1 3d 4b 11 f9 3c 01 e0 a7 3d
       -0.04310165 0.09468201 0.030403754 0.08197022
000230 a9 14 2f bd 56 48 9e bd 85 4d b5 bd 4e 8a 90 bd
       -0.042744312 -0.07728641 -0.08852676 -0.070576295
000240 60 1d b8 bd fc 95 83 3d db d5 30 3d c7 40 97 bd
       -0.08989978 0.064250916 0.0431727 -0.07385402
000250 db 71 f3 3d 70 45 15 3d d2 31 24 3d 4c 53 6a bd
       0.118869506 0.036443174 0.040086575 -0.057208344
000260 6e 16 a1 3d ed 6e b6 bd b3 68 c6 3d 42 8d 86 bd
       0.07865606 -0.08907876 0.096879385 -0.065699115
000270 ba ce 6a 3d c6 94 56 bd 41 c4 a2 3d e5 85 d7 bd
       0.057326056 -0.052387975 0.07947589 -0.10523585
000280 54 d3 ba bc da 7b 2f bd 02 b2 a9 bd 28 a6 6d bd
       -0.022805847 -0.042842723 -0.082859054 -0.058019787
000290 33 c2 32 bd e0 ab d9 3b 14 b3 ac 3d 09 7f 83 bc
       -0.043642234 0.0066428035 0.08432594 -0.016051786
0002a0 2a 8b ee 3d 9f 61 5c bd 52 01 77 bd 1b 58 a7 bb
       0.11647637 -0.053804036 -0.060303994 -0.0051069385
0002b0 1a 45 9e bc 6c a8 29 3d 8b 09 de 3d f9 ac 0e 3d
       -0.01932006 0.041420385 0.10841664 0.03483293
0002c0 20 9d de bd bb 5f 3d bd 72 c2 cb bc e1 0b d5 bd
       -0.10869813 -0.046233874 -0.024872992 -0.10402656
0002d0 31 cd 39 3d 8c 1f d1 3d 31 f9 78 3d 6e 7b b0 b9
       0.0453617 0.10211095 0.060784522 -0.00033661298
0002e0 44 07 7c bc fa 03 91 bd 29 ba 8b bc 7c 5b e3 3d
       -0.015382592 -0.070808366 -0.017056542 0.11101434
0002f0 fa ee 91 bd bb 71 ba 3c fa 43 af bd 2e 61 f4 bc
       -0.07125659 0.022759309 -0.085578874 -0.029831495
000300 44 90 9e 3c 19 ec bd bd 93 4d 27 3d 2d f3 d0 bd
       0.0193559 -0.09273548 0.040845465 -0.10202632
000310 76 5a 3e bd 69 68 ba 3d c3 69 fc 3d 6f b8 45 bb
       -0.04647299 0.09101946 0.1232486 -0.0030169745
000320 18 22 bf bd 97 1e c2 bd ba 7d e7 bc f9 56 91 bd
       -0.09332675 -0.09478491 -0.028258193 -0.07096667
000330 27 3e c3 3d 73 e8 b4 bd 2f 6e b0 3d e8 1d 8f 3c
       0.09533339 -0.08833399 0.08614766 0.017470315
000340 e6 8a 26 bd fb 56 da 3d 42 7b 86 3d 21 dd a2 3a
       -0.040659808 0.106611215 0.06566478 0.0012425521
000350 b4 34 9f bd 5a 69 39 bd 9f 06 3a 3d dc b4 df 3d
       -0.07773724 -0.045266487 0.04541647 0.10923168
000360 68 9f 3d bd cd 29 23 bd ab fe ea bd 1c 5e a5 3d
       -0.0462946 -0.039834786 -0.11474355 0.080745906
000370 dd 7b f6 3d 07 13 a3 3d d1 c3 a0 bd 90 fb 9f 3d
       0.12035344 0.079626136 -0.07849849 0.078116536
000380 18 db 35 bd bf a9 87 3d a9 89 8c 3d 34 f7 c5 bd
       -0.044398397 0.066241734 0.06862194 -0.09666291
000390 ac 1b 08 3d 48 42 56 3d 86 f7 89 bd 3b 75 d3 3d
       0.033229515 0.052309304 -0.067366645 0.10325094
0003a0 11 d0 bd 3d a1 85 e5 3d 40 b6 d6 3b e3 91 8c bd
       0.09268201 0.11207128 0.0065524876 -0.06863763
0003b0 4a 7d 82 bd d1 88 4d 3d 75 ff e8 bc af 74 bb 3d
       -0.06371553 0.050179306 -0.028442124 0.09153115
0003c0 52 62 df 3d 35 fd 23 3c 1a 1f e3 bd 34 64 42 3d
       0.10907425 0.0100091 -0.110899165 0.047458842
0003d0 b9 22 e3 3d e4 5c ed bc 01 0c 95 bd da 69 ec bc
       0.11090607 -0.028974958 -0.0727768 -0.028859068
0003e0 2d f9 39 3c 94 08 c6 bd 0a 0d 74 3d ad dd 60 3d
       0.011350912 -0.09669605 0.059582748 0.054898906
0003f0 85 81 24 bd 07 f9 17 bd f9 ce 63 bd 4c 71 d7 3d
       -0.040162582 -0.037102725 -0.055617306 0.105196565

node_encoder.layers.6.bias f4 [32]
000000 73 28 49 3d e7 dc fb 3c d2 82 2a 3d ed 03 18 bb
       0.04911084 0.030744983 0.041628666 -0.00231957
000010 b8 84 8f bd b3 93 14 b9 49 23 ae 3d f4 31 a2 3d
       -0.07007736 -0.00014169402 0.08502824 0.07919684
000020 cc 21 39 bd 79 07 6b 3d 85 5a e9 3c 02 4e 5f 38
       -0.045198247 0.057380173 0.028485546 5.3239994e-05
000030 3e f7 23 3d 14 9b 3c ba f9 1b 21 bb 3e 88 5a bd
       0.04003071 -0.00071947393 -0.0024583323 -0.053352587
000040 27 1e 22 3b ee 11 bf 3d 10 b1 48 3d 1e d2 93 bd
       0.002473721 0.09329592 0.048996985 -0.07217811
000050 b6 f6 ae b9 2f 6a 51 3d d7 4f d4 bc 08 d1 20 3b
       -0.0003337168 0.051126655 -0.025916977 0.0024538655
000060 d0 ad 0c 3d 99 00 9c 3d 8b e5 ac 3d f8 58 7c bd
       0.034345448 0.076173015 0.08442219 -0.061608285
000070 eb c7 b5 bd a6 76 74 3d 63 1c 87 3a 10 c8 ab 3d
       -0.08876022 0.059683464 0.0010308143 0.08387768

edge_encoder.layers.0.weight f4 [64, 4]
000000 7e 1b b3 3e d5 ee 4e be a9 1b 11 3e 52 be 21 3e
       0.34981912 -0.20208295 0.14170708 0.15795258
000010 02 52 2d be 38 18 eb 3e 86 e6 46 3d bc 1d 25 be
       -0.16925815 0.45916915 0.048559688 -0.16124624
000020 eb e7 ea be a0 ca ce 3e c4 46 fb be b0 53 c5 3e
       -0.45880064 0.40388966 -0.49077427 0.3854041
000030 96 f1 25 be 0b 23 be bd 96 94 a6 3d 44 12 f5 3e
       -0.16205439 -0.09284028 0.08133809 0.47865498
000040 a4 35 9f be 45 a8 b3 be 8f 4f a1 3e 28 eb 64 be
       -0.31095612 -0.35089317 0.3150601 -0.2235533
000050 e2 cc 3a be 15 48 90 3e ba a2 5a be 75 ef 9a 3e
       -0.18242219 0.28179994 -0.21351138 0.30260816
000060 a4 57 52 be 65 4c c6 3e 63 b0 fa 3e 2d 73 6b 3d
       -0.20541245 0.3873016 0.48962697 0.057482887
000070 f3 96 20 be f0 99 8a 3e 1f 95 19 3e cf d0 c7 3b
       -0.15682583 0.2707057 0.14998291 0.00609789
000080 6a d2 dc 3e 5b 8d 8d bc f3 3b 41 3e 15 e5 0a be
       0.43129283 -0.017279318 0.18870525 -0.1356395
000090 86 a2 ab bd ca f6 ec bc f4 41 2a 3d 81 93 5f 3e
       -0.08380608 -0.028926272 0.041566804 0.21833612
0000a0 d8 56 bf 3e 1a 81 99 3e c6 38 5b be a0 2a dc 3e
       0.37370944 0.2998131 -0.21408376 0.4300127
0000b0 b4 38 a6 3e 90 be 42 3e d1 dc 65 3d 3e b0 89 be
       0.32465136 0.19018006 0.05611879 -0.26892275
0000c0 13 3c 9e be 86 39 42 3c 9e 40 b8 be 1b 5e 32 3e
       -0.30905208 0.011854535 -0.359868 0.17418711
0000d0 25 ae ea be cf c2 e3 be 96 a5 5f be f8 1a 8c 3e
       -0.45835987 -0.44484565 -0.2184051 0.27364326
0000e0 02 ce ce 3e e6 a9 d7 be 13 02 9d be 28 ab c6 3d
       0.40391546 -0.4212181 -0.30665645 0.09700614
0000f0 ec 9f b5 bd 49 6b d0 be 48 e6 10 3e 71 c6 cd be
       -0.08868393 -0.40706852 0.14150345 -0.4019046
000100 e9 97 b6 3c 48 7a 51 3e ce 4b ea 3e 39 cb d6 be
       0.022289233 0.20456803 0.4576096 -0.41951922
000110 f2 ac bb 3e 67 05 85 3d d0 93 e0 3e 23 42 fa 3e
       0.36655384 0.06495171 0.43862772 0.48878583
000120 89 d9 e6 bd 57 85 a5 bd 28 7e 02 be af 2f c4 3e
       -0.1127196 -0.08082073 -0.12743437 0.3831763
000130 38 18 60 be b5 7c aa 3e 7e 06 51 3e 26 05 eb 3e
       -0.21884239 0.3329827 0.20412633 0.45902365
000140 53 47 b6 3e f4 68 ca 3e f6 55 d3 be ad 12 82 be
       0.3560129 0.39533198 -0.4127652 -0.25404873
000150 f8 1e b7 be e8 73 74 3e fb e2 d2 3d 39 17 3b 3e
       -0.35765815 0.2387234 0.10297199 0.18270577
000160 bb 21 47 3e 12 4d ed 3c 41 00 3c 3e d8 98 8d be
       0.19446461 0.028967414 0.18359472 -0.27655673
000170 b3 2c a5 3e 64 8d e0 be 55 89 e8 be e5 47 2c 3e
       0.32260665 -0.43857872 -0.45417276 0.168243
000180 50 1e ef 3e 31 8c 32 be 1d 93 f1 3e 18 1f 38 be
       0.46702814 -0.17436291 0.4718255 -0.17980611
000190 1c 2c c4 be 3e d5 a4 bd 72 6e 8b 3e 05 c5 80 be
       -0.38314903 -0.08048485 0.272327 -0.25150314
0001a0 57 a1 ef 3e d9 c8 6d be 93 11 60 be 6c fb 54 be
       0.4680278 -0.23221149 -0.21881704 -0.20799035
0001b0 41 1c c7 be a6 0f eb 3e e1 3e 90 be b7 e2 70 be
       -0.38888744 0.45910376 -0.28172973 -0.23523985
0001c0 06 d5 10 be 58 b6 d3 3e de 8f 7e 3e 7d 6b 4b 3e
       -0.14143762 0.41350055 0.24859568 0.19865222
0001d0 e2 93 12 be c2 c7 7b 3e e3 a2 aa 3d f4 a6 ce 3e
       -0.14314225 0.2458792 0.083318494 0.4036175
0001e0 88 2e f1 3d 9c 4f bf 3e 40 27 ac 3e 72 37 a7 3d
       0.11776453 0.37365425 0.33623695 0.08164872
0001f0 e6 9d f1 be c6 8d e6 3d 1b 9a c2 be f4 8b 9a 3d
       -0.4719078 0.1125751 -0.38008198 0.07546225
000200 ef ea 3f bd f3 32 c4 3e 81 08 be be a8 ca cd be
       -0.04685491 0.3832012 -0.37115863 -0.40193677
000210 a6 98 59 3e 7f b8 ae 3e eb 59 e4 bd ea 56 10 3e
       0.21249637 0.34125134 -0.11149963 0.14095655
000220 48 72 cd 3e e1 74 79 3d 15 c4 0d be 41 d5 95 3e
       0.40126252 0.06090248 -0.1384433 0.29264262
000230 cc cb ea 3e 11 3a be bd 6d d3 a8 3e 60 59 db 3c
       0.4585861 -0.09288419 0.32973805 0.026776016
000240 01 10 b5 bd e8 2f 38 bd 36 18 ff be 5c cb 6b 3e
       -0.08840943 -0.044967562 -0.4982316 0.23026794
000250 f8 bc 88 be c2 60 de be 11 ee 83 bd 33 0a 3f be
       -0.26706672 -0.43433195 -0.06441892 -0.18656234
000260 fc dd 9e be 9b a0 e2 bd a2 34 5b bd d7 05 1b 3e
       -0.31028736 -0.11065789 -0.05351699 0.15138946
000270 23 57 92 3d 43 b4 75 bd 09 5d e0 3d d3 6f a4 be
       0.07145526 -0.059986364 0.10955245 -0.32116565
000280 ec c3 dc 3e 8c 9b 6e 3e 89 01 9e 3e 0d 8a e0 be
       0.43118227 0.23301524 0.30860546 -0.43855324
000290 e2 45 aa 3e 9a db b1 3d bc 9d fa be 52 51 ef 3e
       0.3325644 0.08684464 -0.48948467 0.4674173
0002a0 f8 73 f4 bb 21 6b d9 3d 58 c8 cb 3e 92 79 ab 3e
       -0.0074601136 0.10616136 0.39801288 0.33491188
0002b0 71 04 e1 3e fa f4 ee be 8c 07 fd 3e 4b 84 d5 3d
       0.439487 -0.46671277 0.4941982 0.104256235
0002c0 b4 0c 86 3c 5d 49 ce be 23 25 85 be eb cf ee 3e
       0.01636348 -0.40290347 -0.26004896 0.46643004
0002d0 c4 e8 c4 3e af 19 c3 3e c6 0a 10 bd 85 78 8c be
       0.38458836 0.38105533 -0.035166524 -0.274357
0002e0 37 80 e1 3d bc da 6c be 20 f2 a9 be f6 e7 29 3e
       0.11010783 -0.23130316 -0.3319254 0.16592392
0002f0 e2 b4 c3 3e 7b 97 c9 be df 03 e0 be c4 7e 91 3d
       0.3822394 -0.39373383 -0.43752953 0.07104257
000300 30 f9 3b be 7a 32 86 be fe f1 ca bd cb ce 02 bd
       -0.18356776 -0.26210386 -0.099094376 -0.031935494
000310 df 25 15 be fb 22 b6 3e f4 c0 8e 3e 09 aa 19 3e
       -0.14565228 0.35573563 0.27881587 0.1500627
000320 03 90 25 be fc 8a 0d bd c8 10 a5 3e 89 60 2e 3d
       -0.16168217 -0.034556374 0.32239366 0.04257253
000330 bd 50 f7 be 37 f9 6f 3d 06 43 85 3e 12 64 ff bd
       -0.48303786 0.05858728 0.26027697 -0.12470259
000340 bb 41 d6 bd d2 c8 98 bd 21 10 97 3e e5 05 cb 3e
       -0.10461756 -0.074601784 0.29504493 0.39652935
000350 f7 a1 c8 be d0 00 a9 3e fc c7 50 3e d9 98 2c 3e
       -0.3918607 0.33008432 0.20388788 0.16855182
000360 88 cd 99 be 43 4f 91 be ef 55 f7 3e 0b 6b e0 3d
       -0.3003962 -0.28380784 0.4830775 0.10957917
000370 da ae d9 bd 18 67 c3 bd 37 ee ad 3e c1 30 e0 bd
       -0.106290534 -0.09541148 0.33970806 -0.10946799
000380 c4 71 af 3e 72 1a 08 be 67 4c ea 3d ba 32 ee 3d
       0.34266484 -0.13291338 0.11440354 0.11630769
000390 8d 32 86 be fb fd 69 3c d7 72 c4 3d 4f 93 f3 be
       -0.26210442 0.014281745 0.095922165 -0.47573325
0003a0 83 84 be bd c2 5a 12 3d 79 ef d4 3e f3 34 db 3d
       -0.09302618 0.035731085 0.41588953 0.10703459
0003b0 5c 3d dc be 11 51 1f be 13 94 f8 3e c1 fa 96 bd
       -0.43015563 -0.15558268 0.48550472 -0.07372046
0003c0 33 2d bf 3e 43 d5 40 3d 52 c5 a9 3e ae 50 54 be
       0.37339172 0.047078382 0.33158356 -0.20733902
0003d0 b1 52 f8 3e 99 32 db 3d 04 7f de bd 80 d9 c0 3e
       0.4850059 0.1070301 -0.1086407 0.3766594
0003e0 22 2f 73 3e bb 8a b2 be c6 4b ce bc c2 38 b2 3e
       0.23748448 -0.34871468 -0.025182616 0.34808928
0003f0 4d 80 03 3e 94 83 19 be 75 26 ab be b4 c5 ac be
       0.12841912 -0.149916 -0.33427778 -0.33744586

edge_encoder.layers.0.bias f4 [64]
000000 a5 4a 7e 3e d6 74 49 3e 07 9d d3 be 77 24 97 bd
       0.24833162 0.19673476 -0.4133074 -0.07380002
000010 db 92 c7 3d b0 43 d3 be 41 63 cd 3e d4 dc d2 bc
       0.09744807 -0.4126258 0.40114787 -0.025740065
000020 0d d3 31 be 83 24 e5 3c 62 e1 1a 3e 51 3c a8 3d
       -0.17365666 0.027971512 0.15125039 0.082146294
000030 6c 87 e3 3e be f3 80 3e 05 33 ad bc 35 7c 67 3d
       0.44439256 0.2518596 -0.021142492 0.056514937
000040 31 a1 bc 3d dd eb 2c be 7d 21 cc be fa c6 d1 bc
       0.09210432 -0.1688685 -0.398693 -0.025607575
000050 af e5 24 be f7 94 e2 be 49 83 18 3e 7f a4 38 be
       -0.16103242 -0.44254276 0.14893831 -0.180315
000060 12 da e5 3e 70 07 19 3e 0a da 3b 3e ae 9a ee 3d
       0.44892937 0.14944243 0.18344894 0.116505966
000070 91 8a 29 3e db b9 94 3e bd da ac 3e 96 b6 44 bb
       0.16556765 0.29048046 0.33760634 -0.0030016056
000080 dd 7b e6 bd 03 b6 d9 3d aa cb 48 be 78 76 db ba
       -0.11254094 0.10630419 -0.19608942 -0.001674368
000090 4b 21 ef 3d 95 8f 46 3e 0a 60 e8 be c2 1e 28 3e
       0.11676272 0.1939071 -0.45385772 0.16417983
0000a0 04 1a 28 be e3 1c a5 be 35 db 3b be 08 ce c5 3a
       -0.16416174 -0.322486 -0.1834534 0.0015091309
0000b0 4f e1 5d 3e a2 c3 d4 be 07 6b da 3d ff 69 d7 3e
       0.2166798 -0.41555506 0.10664945 0.42073056
0000c0 45 78 81 be bd 37 b9 3d 07 ad 2f be 3d 38 c0 3d
       -0.2528707 0.09043834 -0.17155848 0.093857266
0000d0 47 81 3f 3e df 84 8e be 1b 8f b9 3d ae c7 ed 3e
       0.18701659 -0.27835748 0.09060498 0.46441406
0000e0 04 22 16 3c 15 83 a6 be 72 3d 1f 3a f0 86 a6 3d
       0.009163383 -0.32521883 0.0006074525 0.08131206
0000f0 4e 5c ff 3d 03 95 23 bc 48 3b a0 bd 9d 4d 60 be
       0.124687776 -0.009984258 -0.07823807 -0.21904607

edge_encoder.layers.1.weight f4 [64]
000000 b9 10 7d 3f dd 8a 7c 3f 9f a1 7e 3f a1 71 80 3f
       0.9885364 0.9864939 0.99465364 1.0034677
000010 29 b1 7e 3f 95 ce 80 3f 2d 35 7d 3f 91 c4 80 3f
       0.99489075 1.0063044 0.98909265 1.0059987
000020 fd 4e 80 3f b0 2f 7e 3f 5c b8 80 3f b0 ae 7e 3f
       1.0024105 0.99291515 1.0056262 0.994853
000030 f8 57 7c 3f 7a 52 7d 3f aa a8 7d 3f c0 e6 7d 3f
       0.9857173 0.98953974 0.99085486 0.9918022
000040 19 f5 7b 3f a6 76 7e 3f 28 0c 7c 3f 2e ce 7e 3f
       0.98420864 0.99399793 0.9845605 0.99533355
000050 27 b5 7d 3f e1 24 7d 3f 7e f5 7d 3f 9a 91 7d 3f
       0.9910454 0.988844 0.99202716 0.99050295
000060 b3 ed 7d 3f 85 37 7f 3f 48 dc 7c 3f d2 f5 80 3f
       0.99190825 0.9969409 0.9877362 1.0075018
000070 99 f0 7e 3f 1c b2 7d 3f 50 22 7e 3f 0e 84 7d 3f
       0.9958587 0.990999 0.99271107 0.99029624
000080 1a 93 80 3f 88 73 7e 3f bd 34 7e 3f b1 d3 7d 3f
       1.0044892 0.99395037 0.9929922 0.9915114
000090 a3 22 7e 3f 7d ee 7c 3f 06 0a 7f 3f 09 bd 7d 3f
       0.992716 0.98801404 0.9962467 0.9911657
0000a0 2f d3 7d 3f be 03 7f 3f 22 7f 7e 3f 3c 1a 80 3f
       0.99150366 0.99615085 0.9941274 1.0008006
0000b0 6a 03 80 3f 12 ae 7d 3f ef 98 80 3f 37 34 7d 3f
       1.0001042 0.99093735 1.0046672 0.989078
0000c0 30 df 7c 3f 59 34 7d 3f 55 7e 7f 3f f4 9c 7c 3f
       0.9877806 0.98908 0.9980214 0.9867699
0000d0 1d da 7b 3f 03 5d 7e 3f 8d 90 80 3f 1b f4 7e 3f
       0.9837969 0.99360675 1.0044113 0.99591225
0000e0 10 84 7d 3f 48 b3 80 3f 29 f4 7e 3f 3c 59 7f 3f
       0.99029636 1.0054712 0.9959131 0.99745536
0000f0 80 e1 7f 3f 3a 8e 80 3f 86 7c 7d 3f 97 84 80 3f
       0.9995346 1.0043404 0.9901813 1.0040463

edge_encoder.layers.1.bias f4 [64]
000000 89 f0 a5 bb bc fa b7 bb 96 77 a6 bb ed 14 d3 3b
       -0.0050640744 -0.0056146067 -0.0050801737 0.0064417035
000010 92 cd 29 3a 9f bc 04 3c 6b c7 0a bc 6d 50 07 3c
       0.0006477471 0.008101611 -0.0084703965 0.008258921
000020 98 4e 8c 3b 56 7a a5 3b 14 91 ef 3b 06 0c 44 ba
       0.00428183 0.005049984 0.007310996 -0.0007478598
000030 ab 5e 0c bc 57 ee 1b bc 2e e8 0f bc 73 32 b6 bb
       -0.0085674925 -0.009517274 -0.008783383 -0.0055602132
000040 30 b6 64 bc 63 eb ae bb 3a 5c 73 bc 7c 85 49 bb
       -0.0139594525 -0.005338119 -0.0148535315 -0.003074973
000050 4d d5 96 bb 72 aa fd bb 27 6e b4 bb c5 32 bc bb
       -0.004603064 -0.007741266 -0.0055062952 -0.005743357
000060 ec 58 a7 bb 77 73 88 ba 25 9e 30 bb 70 52 11 3c
       -0.005107036 -0.0010410388 -0.002694973 0.008869752
000070 6d ae 3b ba b5 7c bc bb f0 61 b2 bb 37 18 00 bc
       -0.00071594754 -0.005752171 -0.005443804 -0.007818273
000080 b0 ba aa 3b f4 a9 15 bb 6e 75 98 bb 42 64 01 bc
       0.005210243 -0.0022836896 -0.0046526706 -0.0078974385
000090 a7 a0 fb bb 45 05 80 bc d2 b3 7e 3b d9 db fb bb
       -0.0076790634 -0.015627513 0.0038864505 -0.00768612
0000a0 44 8b c6 bb c2 67 fd ba a7 31 ad bb 47 06 a6 3b
       -0.006059082 -0.001933329 -0.00528546 0.0050666663
0000b0 7a cd 51 3b ce b2 ff bb 33 33 d6 3b ac 8c 04 bc
       0.0032013343 -0.0078032976 0.006536865 -0.008090179
0000c0 9b 06 26 bc 8a 7f 1c bc 6d 44 34 ba fc 52 2e bc
       -0.010133411 -0.009551892 -0.00068766513 -0.010639902
0000d0 fd 4d 6a bc ac b3 b3 bb 18 7e 0d 3c 47 95 7b bb
       -0.01430082 -0.005484065 0.00863602 -0.0038388537
0000e0 9a d3 dc bb bd 28 14 3c 53 7a 50 bb f0 36 d0 3a
       -0.006739092 0.009042916 -0.0031811192 0.0015885513
0000f0 eb 77 a5 3a 91 8d c0 3b ee d5 24 bc a8 eb b7 3b
       0.0012624239 0.005876251 -0.01006077 0.005612809
