gnn/gnn_outputs/checkpoint_epoch_100.pt (torch, 972089 bytes, 208 tensors)

node_encoder.layers.0.weight f4 [64, 3]
0	0x3ed37d3c	0.41306484
1	0x3ef7eb80	0.4842186
2	0xbe10aa3d	-0.14127441
3	0x3f09f265	0.5388549
4	0xbdf3d603	-0.11906054
5	0x3ddfda08	0.10930258
6	0xbe852261	-0.26002792
7	0x3eb21967	0.34785005
8	0x3f06236c	0.523978
9	0xbed95fae	-0.4245581
10	0x3f00002f	0.5000028
11	0x3ddd247f	0.10797977
12	0x3ee03b03	0.43795022
13	0x3d8fa577	0.07013982
14	0x3e88da85	0.26729217
15	0xbdaabbd7	-0.08336609
16	0x3edf01b0	0.43555975
17	0x3dbe8b30	0.09303892
18	0xbe8d2ea1	-0.27574638
19	0x3e1bd670	0.1521852
20	0xbe81b58e	-0.25333828
21	0xbd879d03	-0.066217445
22	0xbe686e88	-0.22698414
23	0x3ec73203	0.38905343
24	0xbee9e704	-0.45684063
25	0xbe8334c1	-0.25626186
26	0xbe32abc3	-0.17448334
27	0xbeb6b714	-0.35686553
28	0x3d4004b7	0.046879496
29	0xbf0f0d10	-0.55879307
30	0x3f05c602	0.5225526
31	0xbefb4038	-0.49072433
32	0x3ee1857c	0.44047153
33	0x3dd2be4a	0.10290201
34	0xbe37d831	-0.17953564
35	0x3eb653d3	0.35610828
36	0x3daff49d	0.08591578
37	0x3ef4787d	0.47748175
38	0x3d376af4	0.044779733
39	0xbe3d8e23	-0.18511252
40	0x3e16e93b	0.14737408
41	0xbe280fef	-0.16412328
42	0x3e7a15b4	0.24422342
43	0x3effc83b	0.4995745
44	0x3eb351a6	0.3502323
45	0xbe81d006	-0.25354022
46	0x3eab8122	0.33496958
47	0x3dbb4261	0.0914352
48	0x3e997a3e	0.29976076
49	0xbeb3e91c	-0.35138786
50	0xbf1185e9	-0.56844956
51	0xbe634233	-0.22193222
52	0xbee7fa6d	-0.45308247
53	0x3eebf3f9	0.46084574
54	0x3e2aac5d	0.16667314
55	0x3e744a1c	0.23856395
56	0x3e38eec5	0.18059833
57	0xbcce4f6c	-0.025184356
58	0x3ee77895	0.45209184
59	0xbed1871b	-0.4092339
60	0x3d1a357c	0.037648663
61	0xbed1060f	-0.40824935
62	0x3e274130	0.16333461
63	0xbe45895c	-0.1929068
64	0x3e3cb16a	0.18427053
65	0xbdf7b954	-0.120958954
66	0x3eeec1f4	0.4663235
67	0xbeb9e237	-0.363054
68	0xbeacbbe6	-0.33737105
69	0xbeb563bf	-0.35427663
70	0x3f029149	0.5100294
71	0x3e4582ed	0.19288225
72	0x3f0fb610	0.5613718
73	0xbeedb203	-0.46424875
74	0xbf136c73	-0.57587355
75	0xbee98101	-0.45606235
76	0xbecb77f6	-0.3973996
77	0x3e61de7c	0.22057527
78	0x3e425262	0.18976739
79	0x3ef81440	0.4845295
80	0xbe9a04e0	-0.30081844
81	0xbecb87a7	-0.39751932
82	0x3e9fdabc	0.3122157
83	0xbe654f5a	-0.22393551
84	0x3eb2ec59	0.34945944
85	0xbe11ef0b	-0.14251344
86	0x3ea7ebcf	0.32797095
87	0xbef00d60	-0.46885204
88	0xbe915feb	-0.28393492
89	0x3e3596d2	0.17733315
90	0x3de24afc	0.110494584
91	0xbe2091ab	-0.15680568
92	0x3eae69a1	0.34064963
93	0x3ec610e4	0.38684762
94	0xbedc31f7	-0.4300687
95	0xbe97ab37	-0.29622814
96	0x3f09064b	0.5352523
97	0xbe488d50	-0.19585156
98	0xbe4ccc6f	-0.1999986
99	0xbf0c2995	-0.5475095
100	0xbeaedc13	-0.34152278
101	0x3e07d295	0.13263924
102	0xbdb7ee12	-0.08980955
103	0xbecfa67a	-0.405567
104	0xb7a00022	-1.9073548e-05
105	0xbec9b85f	-0.39398476
106	0xbf010e44	-0.5041239
107	0xbe9c59af	-0.30537173
108	0xbf02892f	-0.50990576
109	0xbebb4fe0	-0.36584377
110	0x3f1304d1	0.57429224
111	0x3dd17209	0.102268286
112	0x3e40857f	0.18800925
113	0xbf075f7d	-0.5288008
114	0xbec2f2bb	-0.38075814
115	0xbe437574	-0.19087774
116	0x3dbbc519	0.09168453
117	0xbf05ad2a	-0.5221735
118	0xbe7e39be	-0.24826714
119	0xbeabf836	-0.33587807
120	0x3c11ff92	0.00891103
121	0xbe61f401	-0.22065736
122	0xbd0d3ad9	-0.03447995
123	0xbed2cc1d	-0.4117135
124	0xbeccabcb	-0.39974818
125	0xbea6cb67	-0.3257706
126	0xbe4cd952	-0.20004776
127	0xbeec17ef	-0.4611201
128	0x3ef2ba39	0.47407702
129	0xbdecf6f0	-0.11570537
130	0x3ef72659	0.48271444
131	0x3e4598a6	0.19296512
132	0xbefb4251	-0.49074033
133	0x3ecc3315	0.39882722
134	0xbe1de4fb	-0.1541938
135	0xbe680c87	-0.22661029
136	0xbef673af	-0.48135135
137	0xbf11c6f2	-0.5694419
138	0x3e2b1f3d	0.16711135
139	0xbdef3a0d	-0.11680994
140	0x3e6aa14d	0.22913094
141	0xbeef4224	-0.4673015
142	0x3edfeb8a	0.4373439
143	0xbed60b2b	-0.41805395
144	0xbdca4fa1	-0.09878469
145	0x3df6bc6c	0.12047657
146	0x3e98f911	0.29877523
147	0x3ef5b6c3	0.47991
148	0x3f046807	0.51721233
149	0xbee494a8	-0.44644666
150	0x3e110ba2	0.14164594
151	0xbe8140f1	-0.2524486
152	0xbd839ac5	-0.06426004
153	0xbeda07c7	-0.4258406
154	0x3f07bb7f	0.5302047
155	0xbed72a21	-0.4202433
156	0x3ea47f3e	0.32128328
157	0x3e390663	0.18068843
158	0x3e3bb787	0.18331729
159	0xbe9e69d1	-0.30940107
160	0x3f073bd6	0.5282568
161	0x3df5cbd1	0.120017655
162	0x3da98d6b	0.082789265
163	0xbf0215ce	-0.5081452
164	0x3e762707	0.24038325
165	0xbd9ebc32	-0.07750739
166	0xbe7dae4d	-0.24773522
167	0x3f034022	0.51269734
168	0x3e01a325	0.12659891
169	0xbea7a131	-0.32740167
170	0xbe911da4	-0.28342927
171	0xbd0fecb6	-0.035137855
172	0x3ea5e4b4	0.3240105
173	0xbe14dfd3	-0.14538507
174	0xbea5205b	-0.32251248
175	0xbe53f889	-0.20700277
176	0xbede6223	-0.43434247
177	0x3e41b33e	0.18916032
178	0x3edfe5f0	0.43730116
179	0xbf0e12c7	-0.554974
180	0x3e1e68f3	0.15469722
181	0x3e92cc39	0.28671435
182	0x3dbfa5ff	0.09357833
183	0xbe4cc64b	-0.19997518
184	0x3e97838f	0.2959256
185	0x3ea5466e	0.32280296
186	0x3e523d67	0.20531236
187	0xbdd26ebc	-0.10275027
188	0xbe249b09	-0.16074766
189	0x3d8570a3	0.065156244
190	0xbdb49597	-0.088175945
191	0xbe3d497a	-0.1848506

node_encoder.layers.0.bias f4 [64]
0	0x3e8c7007	0.2742922
1	0x3eccd081	0.40002826
2	0xba5104a9	-0.00079734117
3	0xbd3da242	-0.04629732
4	0xb8088e8e	-3.255769e-05
5	0xb78a8b95	-1.651588e-05
6	0x3d5f14a9	0.054463062
7	0x3d9963a1	0.07489706
8	0xbedb1fbf	-0.42797658
9	0xbdfb4493	-0.12268939
10	0x3ec7bcf8	0.3901136
11	0x3e091328	0.13386214
12	0xb9444041	-0.00018715953
13	0xbe81d969	-0.25361183
14	0xbe84762b	-0.25871405
15	0xbed776f9	-0.42082956
16	0xbdcb3099	-0.09921379
17	0x3dd832be	0.10556553
18	0x3e8c08be	0.2735042
19	0x3e323232	0.1740196
20	0xbed3fc4d	-0.41403428
21	0xbe81776e	-0.2528643
22	0xbc8a4a28	-0.016881064
23	0x3eec7c94	0.46188796
24	0x3c460e58	0.012088381
25	0xbd82b485	-0.063820876
26	0x3e16ce5f	0.14727162
27	0xbe0440a6	-0.12915286
28	0xbe8ec6fb	-0.27886185
29	0x3ea6e30f	0.32595107
30	0xbe2e3337	-0.17011724
31	0xbd0fb94c	-0.035088822
32	0xbef48b4e	-0.4776253
33	0x3e953193	0.29139385
34	0x3eaefed6	0.341788
35	0x3df605a8	0.120127976
36	0xbe9d5c0f	-0.30734298
37	0xbef23bd2	-0.47311264
38	0xbebef5c3	-0.37296876
39	0x3eab81a3	0.33497342
40	0x3e3cc444	0.18434244
41	0x3ec78cec	0.38974702
42	0x3e55f8f7	0.20895754
43	0x3d794985	0.06086113
44	0xb746d828	-1.18520475e-05
45	0xbeafd3c3	-0.3434125
46	0xbecc0332	-0.39846188
47	0xbee314ac	-0.4435171
48	0x3e1460c9	0.14490046
49	0xbe430235	-0.1904381
50	0xbd111d49	-0.03542832
51	0xbe73d874	-0.23813039
52	0xbcdc6272	-0.026902411
53	0xbe9f470e	-0.31108898
54	0xbe90960d	-0.2823948
55	0x3dd18a9c	0.10231516
56	0xbdabbf8f	-0.08386146
57	0x3e8618b8	0.26190734
58	0xbdc5851a	-0.09644528
59	0xbea7f467	-0.32803652
60	0xbcc864a9	-0.024462061
61	0xbe3f6dd7	-0.18694244
62	0xbdb52de4	-0.088466436
63	0xbee8063c	-0.45317256

node_encoder.layers.1.weight f4 [64]
0	0x3f7c4c21	0.98553663
1	0x3f7f001f	0.9960956
2	0x3f7d0eee	0.98850906
3	0x3f7f53fc	0.99737525
4	0x3f7ebf56	0.99510705
5	0x3f808621	1.0040933
6	0x3f7c417f	0.9853744
7	0x3f80697c	1.0032191
8	0x3f7fab65	0.998709
9	0x3f7d79e3	0.9901411
10	0x3f7f98c6	0.9984249
11	0x3f812665	1.0089842
12	0x3f7f378f	0.9969415
13	0x3f816aff	1.0110778
14	0x3f7d5bea	0.98968375
15	0x3f7f8b5d	0.99822026
16	0x3f7f9385	0.9983447
17	0x3f80d0f8	1.0063772
18	0x3f7cb5e2	0.9871503
19	0x3f812e9f	1.0092353
20	0x3f8046a9	1.0021564
21	0x3f7ce428	0.9878564
22	0x3f8012ff	1.0005797
23	0x3f7e773c	0.9940069
24	0x3f7e38ba	0.9930531
25	0x3f812542	1.0089495
26	0x3f801b69	1.0008365
27	0x3f7f7931	0.997943
28	0x3f7e92c9	0.99442726
29	0x3f7ed790	0.9954767
30	0x3f7ca548	0.986897
31	0x3f813a35	1.0095888
32	0x3f806759	1.0031539
33	0x3f807a1a	1.0037262
34	0x3f811010	1.0083027
35	0x3f801421	1.0006143
36	0x3f7ffe41	0.99997336
37	0x3f806b97	1.0032834
38	0x3f7f4323	0.9971182
39	0x3f7dd652	0.9915515
40	0x3f800b98	1.0003538
41	0x3f7edd9b	0.99556893
42	0x3f7ebd5e	0.995077
43	0x3f7faff7	0.99877876
44	0x3f7ec48c	0.99518657
45	0x3f80d1e8	1.0064058
46	0x3f808f64	1.0043759
47	0x3f7f7aeb	0.9979693
48	0x3f7f46ef	0.9971761
49	0x3f7f2288	0.99662066
50	0x3f81a971	1.0129834
51	0x3f819856	1.0124614
52	0x3f7c30c0	0.98511887
53	0x3f7da14a	0.9907423
54	0x3f7e5e06	0.9936222
55	0x3f7feb12	0.99968064
56	0x3f7cd14b	0.98756856
57	0x3f7e5344	0.99345803
58	0x3f7e6147	0.99367183
59	0x3f81306b	1.0092901
60	0x3f801056	1.0004985
61	0x3f7e331e	0.9929675
62	0x3f8071bf	1.0034713
63	0x3f7dd0ef	0.9914693

node_encoder.layers.1.bias f4 [64]
0	0xbbb27f04	-0.0054472703
1	0xbbd8effd	-0.0066204057
2	0xbb747c83	-0.003730566
3	0x3b85c2f0	0.0040820763
4	0xbc83d972	-0.016094897
5	0x3c0ea7c2	0.008706989
6	0xbca9f83c	-0.02074825
7	0xbb4c9d04	-0.0031221518
8	0xbba07461	-0.004896686
9	0xbc089880	-0.00833714
10	0x3bfbb8b4	0.0076819304
11	0x3c26036f	0.010132655
12	0xbbac3a3e	-0.0052559664
13	0x3b4b3a7c	0.0031010201
14	0x3a9f5620	0.0012156405
15	0x3cabdeb1	0.020980211
16	0xbbd1641b	-0.0063901073
17	0x3c2c3736	0.01051121
18	0xbc280a43	-0.010256353
19	0x38b66228	8.696719e-05
20	0xbc4fdd4c	-0.012687039
21	0xbc4c2c9d	-0.0124618085
22	0xbb85486e	-0.004067472
23	0xbb862c39	-0.004094627
24	0xbc1ea744	-0.009683434
25	0xbaa69354	-0.0012708702
26	0x3c93c9b5	0.018040517
27	0xbc519f96	-0.012794396
28	0xbb08613c	-0.002080991
29	0xbc2ee092	-0.010673659
30	0x3b4ee93f	0.003157213
31	0x3c6eb553	0.014569598
32	0xbbde2e43	-0.006780417
33	0xbc50c1a6	-0.012741482
34	0xbc27e4da	-0.010247434
35	0xbc46db27	-0.012137211
36	0xbc193e5a	-0.009353245
37	0x3ad49e04	0.0016221409
38	0x3b983244	0.004644664
39	0xbbb81142	-0.0056172917
40	0x3bd6da71	0.006556802
41	0xbb97fb21	-0.004638091
42	0xbc603260	-0.013683885
43	0x3c2c7c77	0.010527722
44	0x3a643c57	0.0008706501
45	0x3b91c3d8	0.004448395
46	0x3ad90a7b	0.001655891
47	0xbc16fdb6	-0.009215763
48	0x3ae51846	0.0017478548
49	0xbbd3551b	-0.0064493543
50	0x3b818814	0.0039529894
51	0x3ca88508	0.020571247
52	0x3ab72f1f	0.0013975835
53	0xbb810f5e	-0.0039385995
54	0xbc1b5ff5	-0.009483327
55	0xbc085f77	-0.008323542
56	0xbba95c7f	-0.005168497
57	0xbb8b98a4	-0.0042601395
58	0xbc1ec1f6	-0.009689799
59	0x3ca9bcbd	0.02071988
60	0x3c24d919	0.010061526
61	0x3c2d2bfb	0.010569568
62	0x3c1214d0	0.008916095
63	0xbbcf84c0	-0.0063329637

node_encoder.layers.1.running_mean f4 [64]
0	0x3f389960	0.7210903
1	0x3f2b7c8e	0.6698693
2	0x3eb2057f	0.34769818
3	0x3dbd7873	0.092514895
4	0x3ed26f41	0.41100505
5	0x3e8bcd54	0.2730509
6	0xbdfe533f	-0.12418222
7	0x3dd5e677	0.10444348
8	0xbf6b8ce0	-0.92011833
9	0xbf12ce01	-0.57345587
10	0x3f17db33	0.59318846
11	0x3e87a021	0.26489356
12	0x3eb9a95d	0.36262026
13	0xbeb28f87	-0.34875128
14	0x3eb562c9	0.3542693
15	0xbe9bbde1	-0.30418304
16	0xbee983ce	-0.45608371
17	0xbd46c13f	-0.048524138
18	0x3f1b054f	0.60554975
19	0x3e6dd7ea	0.23226896
20	0xbf10f2b0	-0.5662031
21	0xbe9d2df8	-0.30699134
22	0xbe30bc96	-0.1725944
23	0x3f31d93e	0.6947211
24	0xbe8d37d8	-0.27581668
25	0xbedfd07e	-0.43713754
26	0x3ec9c594	0.39408553
27	0xbe87a1f6	-0.26490754
28	0xbc957749	-0.018245356
29	0x3a67bd6a	0.00088401756
30	0xbd16eb4a	-0.036845483
31	0xbe8191b9	-0.2530649
32	0xbed9d115	-0.4254233
33	0xbe08abf4	-0.13346845
34	0x3d47dbbb	0.048793536
35	0xbf0d2e64	-0.5514891
36	0xbf020a87	-0.50797313
37	0xbf14c8db	-0.5811898
38	0xbf25b51c	-0.64729476
39	0xbe85c179	-0.2612417
40	0x3d203e44	0.03912188
41	0xbe72530a	-0.2366449
42	0x3d8c8a1e	0.06862281
43	0x3ecd2b56	0.40072125
44	0xbdba95ae	-0.091105804
45	0xbf875ef5	-1.0575854
46	0xbe89ad6d	-0.26890126
47	0xbf23a6d7	-0.6392645
48	0x3ea6ae5f	0.3255491
49	0x3e14e0ec	0.14538926
50	0xbe1c7d7c	-0.15282243
51	0xbeb61cea	-0.35568935
52	0x3eb0cece	0.3453278
53	0xbdb7bf22	-0.089720026
54	0xbedd7778	-0.4325521
55	0x3e35b902	0.17746356
56	0xbebd1587	-0.36930487
57	0x3ebebfc1	0.37255672
58	0xbf1f050d	-0.6211708
59	0xbe800701	-0.25005344
60	0x3e8f23bf	0.2795696
61	0x3d5affbd	0.053466547
62	0xbe05eb1e	-0.13077971
63	0xbf12c000	-0.5732422

node_encoder.layers.1.running_var f4 [64]
0	0x3d28eb3b	0.04123996
1	0x3cbba435	0.022905448
2	0x3d39a69e	0.045324914
3	0x3d09c889	0.03363851
4	0x3cbfa8ea	0.023395974
5	0x3c981aa8	0.018567398
6	0x3c5ec7fc	0.013597485
7	0x3caf6fcc	0.021415614
8	0x3ce60b37	0.02808152
9	0x3d3003ef	0.0429725
10	0x3d681556	0.056660973
11	0x3c8907b5	0.016727308
12	0x3cbd558f	0.023112087
13	0x3bdc8e5c	0.0067308377
14	0x3d37c96f	0.044869836
15	0x3c6cf546	0.014462775
16	0x3d56270b	0.052283328
17	0x3d410239	0.04712126
18	0x3c461784	0.0120905675
19	0x3d1320a3	0.035919797
20	0x3c91c184	0.01779247
21	0x3bd7bd32	0.006583833
22	0x3d1bbebc	0.038023695
23	0x3d0c3995	0.034234602
24	0x3d9b3136	0.075777456
25	0x3d21b106	0.039475463
26	0x3d127d0c	0.035763785
27	0x3cbd27fe	0.023090359
28	0x3cadfe39	0.021239387
29	0x3cf907be	0.0303992
30	0x3c769cc9	0.015052029
31	0x3d0faf5e	0.035079353
32	0x3ce0f378	0.027459845
33	0x3d21f906	0.039544128
34	0x3c898e54	0.0167915
35	0x3d50a08e	0.050934367
36	0x3d920110	0.07129109
37	0x3d0cbe5f	0.03436124
38	0x3c8a376b	0.016872128
39	0x3d2b9b0c	0.04189591
40	0x3b993fdf	0.0046768035
41	0x3d32d405	0.04365923
42	0x3d456086	0.048187755
43	0x3cd57aaa	0.026059467
44	0x3cfaccb5	0.03061519
45	0x3d847d50	0.06469214
46	0x3c0a0f55	0.008426507
47	0x3d41a77b	0.047278862
48	0x3c406816	0.011743566
49	0x3d8c6f08	0.06857115
50	0x3beb663a	0.007183817
51	0x3d566452	0.052341767
52	0x3c82cdb6	0.015967231
53	0x3d00c702	0.03143979
54	0x3ceedf47	0.029159201
55	0x3d0d16e2	0.03444565
56	0x3ca02d4c	0.01955285
57	0x3c3e98aa	0.011633078
58	0x3d0c4f47	0.034255292
59	0x3d5f726e	0.054552488
60	0x3c3e03d7	0.011597595
61	0x3cb23b6e	0.021756854
62	0x3bd8b54c	0.006613409
63	0x3b9afa93	0.004729578

node_encoder.layers.3.weight f4 [64, 64]
0	0x3d8787e5	0.06617717
1	0xbda28cd3	-0.07937016
2	0x3d6a1530	0.057149112
3	0x3d4bc3da	0.049747325
4	0x3db16ea5	0.08663682
5	0xbdcd9923	-0.10038974
6	0x3d97f0be	0.07418965
7	0xbd9a2239	-0.07526059
8	0x3d301c29	0.042995606
9	0x3dd0989a	0.101853564
10	0xbc684bdd	-0.0141782435
11	0xbc2b8bfa	-0.010470385
12	0xbd0a8105	-0.03381445
13	0xbdf2d9ab	-0.11857923
14	0x3d6066a2	0.05478538
15	0xbe03ec73	-0.12883167
16	0x3dab4af9	0.08363909
17	0x3d9fb175	0.07797519
18	0x3de7387c	0.112900704
19	0xbd2b234f	-0.04178172
20	0xbdbd685b	-0.0924842
21	0x3c662824	0.014047656
22	0x3da06e9b	0.07833596
23	0xbe039d6c	-0.1285302
24	0xbca3eb34	-0.020009615
25	0xbd9bbdae	-0.07604538
26	0xbca22f14	-0.01979784
27	0xbd9d20c9	-0.07672269
28	0xbd5e0e6b	-0.05421297
29	0xbd2d027c	-0.042238697
30	0xbe028f8f	-0.12750076
31	0x3de52798	0.111891925
32	0x3dec2a62	0.115315214
33	0xbcb22742	-0.021747235
34	0xbbecbac4	-0.0072244126
35	0xbd54fd43	-0.05199934
36	0xbe01d546	-0.12679014
37	0xbe033a00	-0.12815094
38	0x3d2ed7b9	0.042686198
39	0xbd9f885b	-0.077896796
40	0xbd9411a8	-0.0722993
41	0xbc4fa4fb	-0.012673612
42	0xbd6f8a75	-0.058481652
43	0xbd31c1e8	-0.043397814
44	0xbc321254	-0.010868628
45	0xbcde5d4c	-0.027144097
46	0xbd47ef7a	-0.048812367
47	0xbd96c5af	-0.07361924
48	0xbddebb09	-0.10875518
49	0x3dca571c	0.09879896
50	0xbd22806d	-0.039673258
51	0x3ca70a4f	0.020390658
52	0xbd422f0d	-0.047408152
53	0x3bae9971	0.0053283502
54	0x3e020f8e	0.12701246
55	0x3d2b8977	0.041879144
56	0xbdcebc06	-0.100944564
57	0x3d24766d	0.040152002
58	0x3ddd594c	0.10808048
59	0x3cc45431	0.023965927
60	0x3da0b579	0.07847113
61	0x3df3a545	0.11896757
62	0xbc28d964	-0.010305736
63	0x3cfde035	0.0309907
64	0xbdbdd1fe	-0.092685685
65	0xbc8a7546	-0.016901623
66	0x3dc04cfc	0.093896836
67	0x3d80c1dc	0.06286976
68	0xbd8c5455	-0.068520226
69	0xbdcc4c7d	-0.099755265
70	0xbdc77ffe	-0.097412094
71	0xbde3c589	-0.11121661
72	0xbdd2f9ba	-0.10301538
73	0xbd32140b	-0.043476146
74	0x3dbe947c	0.09305665
75	0x3cf7f2d1	0.030267151
76	0xbdd278da	-0.10276957
77	0xbde75560	-0.11295581
78	0x3d7c72ce	0.061632924
79	0xbdbbedcb	-0.09176215
80	0xbc2a634d	-0.010399652
81	0x3d953619	0.07285709
82	0xbd63c439	-0.055607054
83	0xbcaac89c	-0.020847611
84	0xba41d4d5	-0.000739408
85	0xbd355d0a	-0.044278182
86	0xbd608524	-0.054814473
87	0xbddfed2f	-0.10933911
88	0xbdbe685b	-0.09297248
89	0xbd4d9e7b	-0.050199967
90	0x3dea45ad	0.11439071
91	0xbd9ae375	-0.07562915
92	0xbd9a1353	-0.07523217
93	0x3d142d5a	0.036176063
94	0x3d3172dc	0.04332243
95	0x3d9d93ad	0.076941825
96	0x3dd5b429	0.104347534
97	0x3d8fd989	0.070239134
98	0xbdea2316	-0.11432473
99	0x3c9485ab	0.018130144
100	0x3db993d1	0.09061397
101	0xbcab7e77	-0.020934327
102	0xbd99a90f	-0.075029485
103	0x3de0f648	0.109844744
104	0xbd1b2a5f	-0.037882205
105	0xbd98e08d	-0.07464705
106	0xbdcccbd4	-0.09999815
107	0x3c1573f8	0.009121887
108	0x3d1a7675	0.037710626
109	0x3caada39	0.02085601
110	0x3d09c90c	0.033639
111	0xbddbf123	-0.107393526
112	0xbdec4847	-0.11537223
113	0xbb89d8ac	-0.0042067375
114	0x3dfbb671	0.12290657
115	0x3d76c361	0.06024492
116	0xbd7c9406	-0.061664604
117	0xbc757195	-0.014980693
118	0xbda81069	-0.08206255
119	0xbd47c84f	-0.048775014
120	0x3cf1f47d	0.029535526
121	0x3d75ccd1	0.06000978
122	0x3db7bf9f	0.08972096
123	0xbdf8bee0	-0.121457815
124	0x3da00696	0.07813756
125	0xbdb00ea0	-0.085965395
126	0x3d6396b7	0.055563655
127	0x3dddbe3b	0.10827299
128	0x3c0724ae	0.008248491
129	0x3de4a27a	0.111638024
130	0xbdf447de	-0.1192777
131	0xbd2adcdb	-0.04171453
132	0x3d75b68d	0.059988547
133	0xbcc550b6	-0.024086338
134	0xbca45b72	-0.020063136
135	0xbd60c8bb	-0.05487893
136	0x3da3ee64	0.08004454
137	0x3d85cd44	0.06533292
138	0x3d122d11	0.03568751
139	0xbd9d96b3	-0.07694759
140	0xbdcc1f87	-0.09966951
141	0x3ca3cf3d	0.01999628
142	0x3ca57980	0.020199537
143	0xbd5c6979	-0.053811524
144	0xbd135b52	-0.03597576
145	0x3da74e2e	0.081692085
146	0xbbd29d1d	-0.006427421
147	0x3c6fd00a	0.014637003
148	0xbd07804a	-0.03308133
149	0xbdd92ebf	-0.10604619
150	0xbdf05dae	-0.11736618
151	0xbd6db50d	-0.05803399
152	0xbd883ea8	-0.06652576
153	0x3d0e896c	0.034799024
154	0xbcdfc7dc	-0.02731698
155	0xbd2c6b5a	-0.042094566
156	0x3de1554f	0.110025994
157	0x3d20ff62	0.039306052
158	0x3da6d2c5	0.0814567
159	0xbd82c854	-0.06385866
160	0xbd1fa2e2	-0.038973697
161	0x3d28ea5b	0.041239124
162	0xbdb3ef25	-0.087858476
163	0xbdb6a876	-0.0891885
164	0xbc0f6644	-0.008752409
165	0xbd1d51fc	-0.038408265
166	0xbdc90bbd	-0.09816692
167	0x3d8c5588	0.06852251
168	0x3dc37e32	0.09545554
169	0x3c513801	0.0127697
170	0xbcc7c1f7	-0.024384482
171	0xbdf64b4b	-0.1202608
172	0xbd1aaf7f	-0.037765022
173	0x3cc93687	0.024562133
174	0x3d536c28	0.051616818
175	0xbc16ddff	-0.009208201
176	0xbd7c86fb	-0.061652165
177	0x3da23a1d	0.079212405
178	0xbdd4f3b2	-0.10398044
179	0x3db0a237	0.0862469
180	0xbd7fc7a1	-0.06244624
181	0x3bc0b3b4	0.0058807973
182	0xbcdcd5d2	-0.026957426
183	0x3c3d4fcc	0.01155467
184	0xbd395b20	-0.04525292
185	0x3dcbd4d9	0.09952707
186	0xbb8a4170	-0.0042192265
187	0x3ddaa9c1	0.10676909
188	0x3dd880c1	0.10571433
189	0xbd98a4e3	-0.07453325
190	0xbdaab9ee	-0.083362445
191	0x3dcd3ceb	0.10021385
192	0x3dbbb32e	0.09165035
193	0xbdacbde3	-0.084346555
194	0x3b759736	0.0037474162
195	0xbe031525	-0.12801035
196	0xbdbe20b4	-0.092835814
197	0x3cd84f5c	0.026405029
198	0x3caa17df	0.020763336
199	0x3d01c028	0.031677395
200	0xbd11fc28	-0.035640866
201	0x3dd22f5a	0.10262938
202	0x3cd56d91	0.026053222
203	0xbd895c48	-0.067070544
204	0xbc4fa000	-0.012672424
205	0x3c92ab75	0.017904023
206	0x3d7419e1	0.059594993
207	0xbda8e351	-0.08246482
208	0x3d483fdb	0.048889022
209	0xbd6d4bc3	-0.05793358
210	0xbdb02dd0	-0.08602488
211	0xbda2566d	-0.07926641
212	0x3e0294ad	0.12752028
213	0x3dc2dba3	0.09514549
214	0x3df8974b	0.12138232
215	0x3db22035	0.08697549
216	0x3dd4b0c6	0.10385279
217	0xbc431341	-0.011906446
218	0xbda021f7	-0.07818978
219	0x3d514a15	0.05109604
220	0xbd6aa2c8	-0.057284147
221	0xbda8bf7d	-0.082396485
222	0xbd085189	-0.033280883
223	0x3d1892d9	0.03724942
224	0x3d97e561	0.074167974
225	0xbd40f1ca	-0.047105588
226	0xbd86e964	-0.065874845
227	0x3c97f5ed	0.018549884
228	0xbd8d94a7	-0.06913119
229	0xbdbbacc0	-0.09163809
230	0x3d8829ea	0.066486195
231	0xbccda51f	-0.02510315
232	0x3dfb75a4	0.122782975
233	0x3df773bb	0.12082621
234	0x3d3135a7	0.043264057
235	0x3d735f41	0.059417013
236	0x3c93babb	0.018033376
237	0xb9825194	-0.00024856313
238	0xbb025c93	-0.0019891604
239	0xbc29ba3e	-0.010359345
240	0x3d749113	0.059708666
241	0x3ddcd6d9	0.107831664
242	0xbcb58f40	-0.022163033
243	0xbd84cdf0	-0.06484592
244	0xbc827898	-0.015926644
245	0xbd5ea4d4	-0.05435641
246	0x3ce6f974	0.02819512
247	0x3dc97d9b	0.098384105
248	0x3de0ada2	0.10970618
249	0x3d3b761c	0.045766935
250	0xbdccc355	-0.09998194
251	0xbd9dbac1	-0.07701636
252	0xbc8c4a07	-0.017125143
253	0xbc216cac	-0.00985257
254	0x3c81d745	0.015849719
255	0xbdf09faa	-0.117492035

node_encoder.layers.3.bias f4 [64]
0	0xb50f4218	-5.336783e-07
1	0x3a829c99	0.0009964883
2	0xb8d9ddb9	-0.000103886654
3	0xbc880993	-0.016606128
4	0xb954eab5	-0.0002030533
5	0x3bddf654	0.0067737494
6	0xbb4acc5c	-0.0030944562
7	0xbc2ecd13	-0.010669011
8	0xbc55ee10	-0.013057247
9	0xbae1c4ee	-0.0017224827
10	0xb7642098	-1.3597448e-05
11	0xb82f7814	-4.1835083e-05
12	0xb61df3fb	-2.3536838e-06
13	0xb8d719be	-0.00010256794
14	0x3c0e7564	0.00869498
15	0x37dea05e	2.6539139e-05
16	0xbbcb6f08	-0.0062083043
17	0xb8d57eff	-0.00010180286
18	0xbbd9d348	-0.006647501
19	0x39e9f16e	0.00044621102
20	0xbd171d9e	-0.03689348
21	0xb88e2252	-6.77748e-05
22	0xbcaaabac	-0.020833813
23	0xb9c696d0	-0.00037877867
24	0x3c5b0a85	0.013369207
25	0xbc94bc08	-0.018156067
26	0xbb5f8acb	-0.0034109827
27	0xbcb5c7b1	-0.022189947
28	0x38bb8f07	8.943496e-05
29	0x38175142	3.6076883e-05
30	0xbb3d3d31	-0.0028875584
31	0x3bfa5dcb	0.0076405755
32	0xb89abddc	-7.378656e-05
33	0xbd06d6e9	-0.032919798
34	0xb7d224be	-2.505106e-05
35	0xb94594ca	-0.00018842812
36	0x38977947	7.222831e-05
37	0x3b9f85b9	0.004868236
38	0xb8872b54	-6.445372e-05
39	0xbc67100f	-0.01410295
40	0x3c72d7f5	0.014821996
41	0xbd0b1ce7	-0.03396311
42	0x39ddba01	0.00042290988
43	0xb9c69616	-0.00037877326
44	0x3cfde606	0.030993473
45	0x3d228012	0.03967292
46	0xb943ad70	-0.0001866126
47	0xb9c776fc	-0.00038044888
48	0xbcf959b9	-0.03043829
49	0xb8263918	-3.9630657e-05
50	0x3978f696	0.00023742983
51	0xb7dbbb76	-2.6194128e-05
52	0xbc3684bf	-0.011140048
53	0x391b1f5b	0.00014793633
54	0x3b3f14d4	0.0029156702
55	0x3cadea1f	0.021229802
56	0x38b87c0a	8.796908e-05
57	0x3d0ae71a	0.033911802
58	0xbd17c3f9	-0.03705213
59	0x37b0f8e0	2.1096726e-05
60	0xb9d7cd33	-0.0004116088
61	0x3914d360	0.00014193123
62	0x3a9da0dc	0.0012026089
63	0xbc4081dc	-0.011749711

node_encoder.layers.4.weight f4 [64]
0	0x3f804f37	1.0024174
1	0x3f8245cb	1.0177549
2	0x3f7f93f7	0.9983515
3	0x3f81026d	1.0078865
4	0x3f7f1ce8	0.9965348
5	0x3f7d5182	0.98952496
6	0x3f7f6277	0.9975962
7	0x3f8066de	1.0031393
8	0x3f7e4852	0.993291
9	0x3f7ec214	0.9951489
10	0x3f7dfaea	0.9921099
11	0x3f801265	1.0005614
12	0x3f7fbd8d	0.99898607
13	0x3f7e8a87	0.99430126
14	0x3f819229	1.012273
15	0x3f7d1320	0.9885731
16	0x3f7b0bbb	0.98064774
17	0x3f80c2de	1.0059469
18	0x3f7cb97e	0.9872054
19	0x3f7edce2	0.9955579
20	0x3f81914e	1.0122468
21	0x3f7f8fac	0.998286
22	0x3f7f3d59	0.99702984
23	0x3f81005d	1.0078236
24	0x3f817ca8	1.0116167
25	0x3f80399f	1.0017585
26	0x3f80b516	1.0055263
27	0x3f8087d0	1.0041447
28	0x3f807a7a	1.0037377
29	0x3f7d6343	0.98979586
30	0x3f7fb4ad	0.99885064
31	0x3f7a6151	0.97804743
32	0x3f80f578	1.0074911
33	0x3f7e4f11	0.99339396
34	0x3f808990	1.0041981
35	0x3f80caa2	1.0061839
36	0x3f806310	1.0030231
37	0x3f7faab0	0.99869823
38	0x3f7f0ee4	0.99632096
39	0x3f8107b8	1.008048
40	0x3f7f603d	0.9975622
41	0x3f804985	1.0022436
42	0x3f7f2641	0.99667746
43	0x3f7de54b	0.99178
44	0x3f7ca174	0.9868386
45	0x3f8120e8	1.0088167
46	0x3f80d8e0	1.0066185
47	0x3f7dfb91	0.99211985
48	0x3f7fcdec	0.99923587
49	0x3f7d0498	0.98835135
50	0x3f7f4147	0.9970898
51	0x3f7d3625	0.98910743
52	0x3f7d628c	0.98978496
53	0x3f7f5c9b	0.9975068
54	0x3f7d6ac3	0.9899103
55	0x3f80a069	1.0048953
56	0x3f7f7187	0.99782604
57	0x3f81fcf5	1.0155321
58	0x3f805c98	1.0028257
59	0x3f7f249d	0.9966524
60	0x3f8198ea	1.0124791
61	0x3f7f9da8	0.9984994
62	0x3f7faaef	0.998702
63	0x3f7db99a	0.9911133

node_encoder.layers.4.bias f4 [64]
0	0x3c7e25d7	0.015511951
1	0x3bed0d6b	0.0072342656
2	0xbae43cf5	-0.0017413186
3	0xbb53995f	-0.0032287461
4	0xbc50b78c	-0.0127390735
5	0xbc7fc142	-0.015610041
6	0xbb00264b	-0.0019554074
7	0xbc0e2096	-0.008674761
8	0x3c032443	0.008004251
9	0xb9b19204	-0.0003386886
10	0xbc8deb14	-0.017324008
11	0x3b80992c	0.0039245095
12	0x3bcf0ecc	0.0063189026
13	0xbc070770	-0.008241519
14	0xbc137413	-0.008999842
15	0xbc567183	-0.013088587
16	0xbba78219	-0.0051119444
17	0x3b26f0f0	0.00254732
18	0x3ab6e490	0.0013953615
19	0x3b7aa4e7	0.0038245262
20	0xbba944e6	-0.005165684
21	0x3bd06da5	0.006360727
22	0x3aef9204	0.0018277769
23	0xba392ab9	-0.0007063556
24	0x3b69ed8f	0.0035694574
25	0x3b5ee1bc	0.003400906
26	0xba404da0	-0.0007335786
27	0x3c10f2dd	0.008846966
28	0xbb3e287a	-0.0029015825
29	0xbc865ea4	-0.01640255
30	0x3b576585	0.0032866907
31	0xbc8bf374	-0.017083861
32	0x3b52b8ee	0.0032153684
33	0xbad5c815	-0.001631024
34	0xbbeac5ce	-0.0071646934
35	0x3c50035d	0.012696114
36	0xbae656c5	-0.0017573467
37	0xbca7fc8d	-0.020506168
38	0x3c74f15a	0.014950121
39	0x3c889e40	0.016677022
40	0xbc546b5f	-0.012965052
41	0xbc182be4	-0.009287808
42	0xbaa96b77	-0.0012925704
43	0xbba68ea5	-0.0050829225
44	0xbbfcf363	-0.0077194436
45	0x3c2250e8	0.009906985
46	0x3c2d9527	0.010594643
47	0xbabc7197	-0.0014377114
48	0x3b5a1633	0.0033277392
49	0xbc0b939b	-0.008519079
50	0x3b806bd3	0.0039191036
51	0xbc547ff8	-0.012969963
52	0xbc3bd37b	-0.011463995
53	0x3b966e1f	0.004590764
54	0xbc083cf6	-0.0083153155
55	0x3aeecf02	0.0018219652
56	0x3c4fb572	0.012677537
57	0x3c84588c	0.016155504
58	0xbb950d0a	-0.0045486735
59	0xbc0197a4	-0.007909689
60	0x3c4b6990	0.012415305
61	0xbb94ed40	-0.004544884
62	0x3bb8003b	0.005615262
63	0x3b5ec056	0.0033989153

node_encoder.layers.4.running_mean f4 [64]
0	0xbe447c09	-0.1918794
1	0xbea3fff2	-0.32031208
2	0xbe2e6cc8	-0.17033684
3	0x3da3b6b5	0.07993833
4	0x3d6aa515	0.05728634
5	0xbea49631	-0.32145837
6	0x3e300dbd	0.1719274
7	0x3d72ccc8	0.059277326
8	0x3c5a8041	0.013336242
9	0x3e7c1757	0.24618278
10	0xbe10f545	-0.14156063
11	0xbd1a8f82	-0.037734516
12	0x3d3dba7a	0.046320416
13	0xbda500f4	-0.080568224
14	0x3ea79cb9	0.32736757
15	0x3e209bdf	0.1568446
16	0x3e0931a6	0.13397846
17	0xbe1d91f3	-0.15387706
18	0xbe27d86e	-0.16391155
19	0x3e991414	0.2989813
20	0x3ca0f603	0.019648558
21	0xbe5c0887	-0.21487628
22	0x3e123fb5	0.14282115
23	0x3e490e03	0.19634251
24	0x3db0b5fb	0.0862846
25	0xbd8d2e93	-0.06893649
26	0x3cb4e9d0	0.022084147
27	0xbef4968c	-0.47771108
28	0x3e29abf2	0.16569498
29	0x3f00b16c	0.50270724
30	0xbe65dbe1	-0.22447158
31	0xbed347d4	-0.41265738
32	0xbc8617c4	-0.016368754
33	0xbf07868c	-0.5293968
34	0x3e76c6c7	0.24099265
35	0x3e82868f	0.25493285
36	0x3eb2174b	0.34783396
37	0xbeaf6ec7	-0.34264204
38	0x3f07c9b3	0.53042144
39	0xbe286e3f	-0.16448306
40	0x3e6bb5ec	0.23018616
41	0xbddef3e1	-0.1088636
42	0xbd8a60d3	-0.06756749
43	0x3db80fae	0.08987366
44	0xbd15b416	-0.036548696
45	0x3da6a4e8	0.08136922
46	0x3e06ac59	0.13151683
47	0xbee129a0	-0.4397707
48	0xbdefbe04	-0.117061645
49	0xbe1d5a5d	-0.15366502
50	0xbe416c91	-0.18889071
51	0xbeb0f66b	-0.34563002
52	0xbcb2a4dd	-0.021807129
53	0xbe741929	-0.23837723
54	0xbc9e5e0f	-0.01933196
55	0x3e421747	0.18954192
56	0xbe9adecc	-0.30248106
57	0x3e92506e	0.28576988
58	0x3d5644dc	0.052311763
59	0x3e4c36d4	0.1994279
60	0xbba46c2a	-0.005017777
61	0x3e2e121a	0.16999093
62	0x3e23d158	0.15997827
63	0x3beab17a	0.00716227

node_encoder.layers.4.running_var f4 [64]
0	0x3df09af3	0.11748304
1	0x3dd63b93	0.10460582
2	0x3dbe6cb9	0.09298081
3	0x3db4fe80	0.088376045
4	0x3dc9fe83	0.098629974
5	0x3d6d9f0a	0.058013
6	0x3e890257	0.26759598
7	0x3e403eeb	0.18774001
8	0x3e7eda5e	0.24887988
9	0x3dac73f3	0.08420553
10	0x3d5185f1	0.051153127
11	0x3dbf49af	0.09340226
12	0x3e0dd9d8	0.13852632
13	0x3e4bcaeb	0.19901626
14	0x3d278012	0.04089362
15	0x3d8c2f0c	0.06844911
16	0x3e0e025f	0.13868092
17	0x3d91ef05	0.071256675
18	0x3d833e88	0.06408411
19	0x3d6179d5	0.05504783
20	0x3da0e7e2	0.07856728
21	0x3e927d5d	0.2861127
22	0x3e5544eb	0.20827071
23	0x3d05b2eb	0.032641333
24	0x3e16f7bc	0.1474294
25	0x3e23dcc5	0.16002186
26	0x3e330d3e	0.1748552
27	0x3d2d73f0	0.042346895
28	0x3d1b75be	0.037954085
29	0x3deee954	0.116655976
30	0x3d91ae7b	0.07113358
31	0x3e65fa0c	0.22458667
32	0x3ceea2f0	0.029130429
33	0x3dbb66e6	0.09150486
34	0x3d7eafb5	0.062179286
35	0x3e1673a5	0.14692552
36	0x3de27006	0.11056523
37	0x3e88e075	0.26733747
38	0x3e024823	0.1272283
39	0x3d8427e4	0.06452921
40	0x3e13852f	0.14406274
41	0x3e01217d	0.12610431
42	0x3e0cbcb1	0.13743855
43	0x3e52350c	0.20528048
44	0x3df0ed3d	0.117639996
45	0x3df86752	0.12129082
46	0x3de2ed29	0.11080391
47	0x3e40f3e2	0.18843034
48	0x3dd453d6	0.10367553
49	0x3dbc2448	0.091866076
50	0x3db76c87	0.08956247
51	0x3dfe8d78	0.12429327
52	0x3e3fd317	0.18732868
53	0x3db151f5	0.0865821
54	0x3e35f892	0.17770603
55	0x3e0ef215	0.13959534
56	0x3e82adc4	0.25523198
57	0x3d65e3ea	0.05612556
58	0x3e0f89f0	0.14017463
59	0x3e0be3e7	0.13661157
60	0x3db34018	0.08752459
61	0x3e48d3af	0.19612001
62	0x3df8ab3c	0.12142035
63	0x3e426411	0.18983485

node_encoder.layers.6.weight f4 [32, 64]
0	0x3dac8e9b	0.08425637
1	0xbde0fff3	-0.109863184
2	0xbda6e35a	-0.081488326
3	0xbc87420e	-0.01651099
4	0xbdf33289	-0.11874873
5	0xbde6f84b	-0.11277827
6	0xbddafebf	-0.1069312
7	0x3dcfac42	0.101402774
8	0x3cc18edd	0.023627693
9	0xbd3361f4	-0.043794587
10	0x3ada362c	0.0016648225
11	0xbde943bb	-0.11389872
12	0xbdf50a77	-0.11964887
13	0xbdc51a3a	-0.09624143
14	0xbdfe623e	-0.12421082
15	0x3da16c11	0.0788194
16	0xbd2ddeb5	-0.042448718
17	0xbd0e5c7e	-0.034756176
18	0xbdff7ecd	-0.12475357
19	0x3b132b4f	0.0022456234
20	0xbc85fb0a	-0.016355056
21	0xbdb34d47	-0.08754974
22	0x3da02f9d	0.078215815
23	0x3dd43430	0.103615165
24	0xbdc2a8f4	-0.095048815
25	0x3d9730d6	0.073823616
26	0xbc836bb8	-0.016042575
27	0x3c6181e3	0.013763878
28	0x3d626250	0.05526954
29	0xbcfd8261	-0.030945959
30	0x3de745a7	0.11292582
31	0x3d946451	0.07245696
32	0xbd95ff95	-0.07324139
33	0xbd9a170e	-0.075239286
34	0xbe04ed55	-0.1298116
35	0x3d021556	0.03175863
36	0xbdcb7e1a	-0.09936161
37	0xbdc51daa	-0.096247986
38	0xbdaa882b	-0.08326753
39	0xbe05deb2	-0.13073233
40	0xbddac6a5	-0.1068242
41	0x3dd1a58a	0.10236652
42	0x3daa5a9a	0.08318062
43	0x3dd7f69b	0.10545083
44	0xbd7489f3	-0.05970187
45	0xbd4c6708	-0.049902946
46	0xbd725890	-0.05916649
47	0xbc094fdd	-0.008380857
48	0xbdb1167a	-0.08646865
49	0x3c565c24	0.0130834915
50	0xbd93d492	-0.07218279
51	0x3cf79e2a	0.030226786
52	0x3de19f63	0.11016729
53	0x3ca91d79	0.020643936
54	0x3da15474	0.07877436
55	0xbdbe8158	-0.09302014
56	0xbcce656a	-0.025194842
57	0xbdac62aa	-0.08417256
58	0xbcdf6a67	-0.027272416
59	0xbd5162dc	-0.05111967
60	0xbda0e494	-0.07856098
61	0xbdf968cf	-0.12178194
62	0xbd3b2b35	-0.045695502
63	0x3ca3a6e7	0.019977046
64	0xbc9bc977	-0.019016964
65	0xbdfae857	-0.122513466
66	0x3db6238c	0.08893499
67	0x3dab86a8	0.08375293
68	0xbd9c3e63	-0.07629087
69	0x3ca58878	0.020206675
70	0x3db3a34b	0.0877138
71	0xbdfbc32c	-0.122930855
72	0xbddaa324	-0.10675648
73	0x3d826bc5	0.06368212
74	0x3b25079e	0.0025181542
75	0x3d4dc277	0.050234284
76	0xbd5b6f10	-0.053572714
77	0x3c8de061	0.017318906
78	0x3da17d35	0.078852095
79	0xbcee7011	-0.029106172
80	0xbd16f26e	-0.036852293
81	0xbe0073e3	-0.12544207
82	0xbcb7fb9c	-0.022458844
83	0x3d9d4f6e	0.07681166
84	0xbe005930	-0.12534022
85	0xbc041aaf	-0.0080630025
86	0x3db16ea3	0.086636804
87	0xbd04d3e6	-0.032428645
88	0xbd520ba5	-0.051280636
89	0xbd368aa9	-0.04456583
90	0xbd5b538a	-0.053546466
91	0x3cbe0319	0.023194836
92	0xbe06a228	-0.13147795
93	0x3d109c70	0.03530544
94	0xbcd82d10	-0.026388675
95	0xbc84c4f1	-0.01620719
96	0xbc02e495	-0.0079890685
97	0x3da3bcc4	0.079949886
98	0xbda5e329	-0.08099968
99	0xbdf704de	-0.12061475
100	0xbdc2f142	-0.095186725
101	0xbdaad1d0	-0.083408
102	0xbd890c4c	-0.066917986
103	0x3dd4e0fa	0.103944734
104	0xbdbae62c	-0.09125933
105	0xbd8eb04e	-0.06967221
106	0xbdcfe6ba	-0.101514295
107	0xbd772645	-0.06033923
108	0xbba976f8	-0.005171653
109	0xbda43940	-0.08018732
110	0xbc39faa0	-0.011351258
111	0x3d39f01d	0.045395005
112	0xbcb91217	-0.022591634
113	0x3d6332ab	0.055468243
114	0x3d03177c	0.03200482
115	0x3dfa2aed	0.12215219
116	0xbc588845	-0.013216083
117	0x3dd77db3	0.10522022
118	0x3dbd4599	0.0924179
119	0x3d4c1d64	0.049832717
120	0x3d966447	0.07343345
121	0xbdb48dc1	-0.088161
122	0xbdac2954	-0.0840632
123	0x3d60bd93	0.054868292
124	0x3d250aa5	0.040293355
125	0x3dd0d685	0.10197166
126	0xbcbd0ace	-0.023076441
127	0xbcf759ed	-0.030194247
128	0x3d9f8fca	0.077910975
129	0x3bdeb7ba	0.0067968043
130	0x3df7ab5c	0.12093231
131	0xbd7fca6e	-0.06244891
132	0xbd0d2c94	-0.03446634
133	0xbb9f1a47	-0.0048554274
134	0x3d723cd5	0.059140045
135	0xbdd88895	-0.10572926
136	0xbd2fc6c9	-0.042914186
137	0x3dc0b6c2	0.09409858
138	0x3cf9f210	0.030510932
139	0x3daa6ef4	0.08321944
140	0xbd2491e9	-0.040178213
141	0xbd984e08	-0.07436758
142	0xbdcc81d6	-0.09985702
143	0xbd886e56	-0.0666167
144	0xbda3a840	-0.079910755
145	0x3d8f0c50	0.0698477
146	0x3d385da8	0.045011193
147	0xbd9af311	-0.075658925
148	0x3df4ce03	0.11953356
149	0x3d09be10	0.033628523
150	0x3d256ae7	0.040385153
151	0xbd7612f6	-0.060076676
152	0x3da1b73c	0.07896277
153	0xbdb6cd4b	-0.08925875
154	0x3dbe699b	0.092974864
155	0xbd85fd75	-0.06542484
156	0x3d48cc43	0.049022924
157	0xbd56289f	-0.052284833
158	0x3da24d54	0.079249054
159	0xbdd943b7	-0.10608619
160	0xbc30821a	-0.010773206
161	0xbd2fa7a8	-0.0428845
162	0xbda9c90a	-0.08290298
163	0xbd644a3b	-0.055734854
164	0xbd3846dd	-0.044989455
165	0x3b616ad0	0.003439594
166	0x3db53cab	0.08849462
167	0xbcbd8af7	-0.023137553
168	0x3dee7c26	0.11644773
169	0xbd6e5140	-0.058182955
170	0xbd6ef6e6	-0.05834093
171	0xbbb8d801	-0.005640984
172	0xbc9ac498	-0.018892571
173	0x3d475321	0.048663262
174	0x3de52926	0.11189489
175	0x3d14289f	0.03617155
176	0xbdddd8e3	-0.108323835
177	0xbd3db9bd	-0.046319712
178	0xbca4d822	-0.020122591
179	0xbdc4ea16	-0.09614961
180	0x3d086c3b	0.03330634
181	0x3dd715fa	0.105022386
182	0x3d6d259c	0.057897195
183	0xbc8029f8	-0.015645012
184	0xbc8435c6	-0.016138922
185	0xbd81957e	-0.063273415
186	0xbc88ff73	-0.01672337
187	0x3de9ad35	0.1140999
188	0xbd981ca2	-0.07427336
189	0x3c680db2	0.0141634215
190	0xbdaf6847	-0.08564811
191	0xbceabd59	-0.028654741
192	0x3c2adb62	0.0104282815
193	0xbdde3582	-0.108500496
194	0x3d1d4bd4	0.038402393
195	0xbdf03fc2	-0.11730911
196	0xbd3b4b08	-0.045725852
197	0x3dc1b155	0.094576515
198	0x3e01c3e7	0.12672387
199	0xbb8c0a72	-0.004273706
200	0xbdbdac89	-0.09261424
201	0xbdc518a3	-0.0962384
202	0xbd0d230a	-0.034457244
203	0xbd8f83f3	-0.07007589
204	0x3dc5749e	0.096413836
205	0xbdac45b2	-0.08411731
206	0x3d89d6ce	0.06730424
207	0x3c9f86d7	0.019473476
208	0xbd2ecb74	-0.042674497
209	0x3dcf7733	0.10130157
210	0x3d675092	0.056473322
211	0x3a441b1f	0.0007480848
212	0xbda2a04a	-0.07940729
213	0xbd3fd044	-0.046829477
214	0x3d32de42	0.043668993
215	0x3dce7c33	0.10082283
216	0xbd5e5fed	-0.0542907
217	0xbd297033	-0.041366767
218	0xbdf96f2f	-0.1217941
219	0x3d8ce8e4	0.06880358
220	0x3df8fe65	0.12157897
221	0x3d9fa115	0.07794396
222	0xbda3b4a7	-0.07993441
223	0x3d9ce18c	0.07660207
224	0xbd2e9b38	-0.042628497
225	0x3d9993e6	0.074989125
226	0x3d7d4ac8	0.061838895
227	0xbdcc98db	-0.09990092
228	0x3ca03a8d	0.01955917
229	0x3d70b8f6	0.058770142
230	0xbd924505	-0.07142071
231	0x3ddc00b4	0.107423216
232	0x3db97452	0.090553895
233	0x3decf264	0.1156967
234	0x3c30285e	0.010751812
235	0xbd7ae582	-0.061254032
236	0xbd864a49	-0.065571375
237	0x3d4a88b5	0.04944678
238	0xbc998656	-0.018740814
239	0x3dc78fad	0.09744201
240	0x3dcf356f	0.101176135
241	0x3c39dea9	0.01134459
242	0xbdde8658	-0.10865468
243	0x3d42454f	0.04742938
244	0x3dccfc5e	0.10009073
245	0xbd1914e1	-0.037373427
246	0xbd935019	-0.07193012
247	0xbd2a2505	-0.04153921
248	0x3c553327	0.013012684
249	0xbdd73601	-0.10508347
250	0x3d740fa2	0.05958522
251	0x3d779fee	0.060455255
252	0xbd46884d	-0.04846983
253	0xbd6a0895	-0.05713709
254	0xbd928fcd	-0.07156334
255	0x3dd446d3	0.10365071

node_encoder.layers.6.bias f4 [32]
0	0x3c0ec0ff	0.008713006
1	0x3a94c121	0.0011349061
2	0x3ba3799c	0.004988862
3	0xb904bbdb	-0.00012658483
4	0xbcb6c2d6	-0.022309702
5	0xb64c7120	-3.0464216e-06
6	0x3d0a5515	0.033772547
7	0x3ceee30b	0.029160997
8	0xbbdaacb3	-0.0066734194
9	0x3c5edb68	0.013602115
10	0x3a1f50ae	0.0006077391
11	0x38302e76	4.200494e-05
12	0x3b8d0a94	0.0043042395
13	0x36defdb0	6.6456487e-06
14	0x3812cf79	3.5002337e-05
15	0xbc365b78	-0.011130206
16	0xb7e066a9	-2.6750686e-05
17	0x3d260842	0.04053522
18	0x3c0dd1ba	0.00865596
19	0xbcc35763	-0.02384538
20	0xb7cc6ad2	-2.4368437e-05
21	0x3c213464	0.009839151
22	0xb913c055	-0.00014090662
23	0xb77983b0	-1.4872217e-05
24	0x3b0eee8c	0.0021809665
25	0x3cdbc217	0.026825948
26	0x3d085cb9	0.033291552
27	0xbc85f5e2	-0.016352598
28	0xbd16bdb0	-0.036801994
29	0x3c7726ba	0.015084917
30	0x3823fbd2	3.9096754e-05
31	0x3d0694ba	0.03285668

edge_encoder.layers.0.weight f4 [64, 4]
0	0x3eb1f14b	0.34754404
1	0xbe5dc1c1	-0.21655942
2	0x3e1034cf	0.14082645
3	0x3e17f534	0.14839631
4	0xbe3267c3	-0.17422394
5	0x3ee32f50	0.44372034
6	0x3d4e2827	0.05033126
7	0xbe055a5b	-0.13022749
8	0xbeec3ee9	-0.46141747
9	0x3ec67f65	0.3876907
10	0xbef604b5	-0.48050466
11	0x3ebf3f1b	0.37352833
12	0xbe1e5d36	-0.15465245
13	0xbda3d008	-0.07998663
14	0x3db2afc4	0.08724931
15	0x3eefa24b	0.46803507
16	0xbe9f9491	-0.31168035
17	0xbeaec129	-0.34131745
18	0x3ea048ff	0.31305692
19	0xbe52eec4	-0.20598894
20	0xbe47b407	-0.19502269
21	0x3e8c2b4e	0.2737679
22	0xbe5904e6	-0.21193275
23	0x3e960336	0.29299325
24	0xbe4f22fb	-0.20228188
25	0x3ec3ee12	0.3826757
26	0x3ef7e1a2	0.48414332
27	0x3d4a8197	0.049439993
28	0xbe182939	-0.14859475
29	0x3e8b0fca	0.27160484
30	0x3e1c2b18	0.15250814
31	0x3b61319b	0.0034361843
32	0x3edc320c	0.43006933
33	0xbcb4cf15	-0.0220714
34	0x3e3dab6f	0.18522428
35	0xbdf90040	-0.12158251
36	0xbd9ff994	-0.07811275
37	0xbcf89cc4	-0.03034819
38	0x3d3e7b51	0.046504322
39	0x3e5bbe39	0.21459283
40	0x3ebeadb5	0.37241903
41	0x3e973789	0.29534557
42	0xbe5bdd3a	-0.2147111
43	0x3ecac669	0.396045
44	0x3eaa29fb	0.33235154
45	0x3e3eb92a	0.18625322
46	0x3d6348af	0.05548924
47	0xbe83e98d	-0.25764123
48	0xbea2b3b8	-0.3177774
49	0x3cc2635f	0.023729024
50	0xbeae790f	-0.34076735
51	0x3e27b240	0.1637659
52	0xbed6df4f	-0.41967246
53	0xbede8a69	-0.43464974
54	0xbe72dcb0	-0.23716998
55	0x3e882dc7	0.26597425
56	0x3ece8527	0.40335962
57	0xbecf5604	-0.40495312
58	0xbe9c65ac	-0.3054632
59	0x3dbeaf69	0.093108006
60	0xbdac052d	-0.08399425
61	0xbecc5615	-0.39909425
62	0x3e1424ad	0.14467116
63	0xbec211d3	-0.37904224
64	0x3ca97f0b	0.020690462
65	0x3e4b1b86	0.19834718
66	0x3ee008ad	0.4375662
67	0xbec6281c	-0.38702476
68	0x3ebb73b4	0.36611712
69	0x3d838560	0.06421924
70	0x3edab618	0.42717052
71	0x3ed4290e	0.41437572
72	0xbde73994	-0.11290279
73	0xbd8c2f6d	-0.06844983
74	0xbe0b3a4a	-0.13596454
75	0x3ec71ee5	0.38890758
76	0xbe51e8ed	-0.2049901
77	0x3eadc8c9	0.3394225
78	0x3e5244ef	0.20534109
79	0x3eda6ff6	0.42663544
80	0x3eaf8da1	0.34287742
81	0x3ecb30fc	0.3968581
82	0xbece91a6	-0.40345496
83	0xbe6ddd96	-0.2322906
84	0xbeaf2791	-0.34209874
85	0x3e82987b	0.25506958
86	0x3de9b06c	0.11410603
87	0x3e3488ce	0.17630312
88	0x3e4b66ff	0.19863509
89	0x3d04c67c	0.032415852
90	0x3e35419d	0.1770081
91	0xbe8aeed7	-0.27135345
92	0x3ea27038	0.3172624
93	0xbed88151	-0.4228616
94	0xbee81ff9	-0.45336893
95	0x3e24d98e	0.16098616
96	0x3eeae65b	0.45878872
97	0xbe358d79	-0.17729749
98	0x3ef04dad	0.46934262
99	0xbe297d3d	-0.16551681
100	0xbeb9fcaf	-0.36325595
101	0xbdc0d13f	-0.094149105
102	0x3e91d48a	0.28482467
103	0xbe640af0	-0.22269797
104	0x3eeb5673	0.45964393
105	0xbe7225e6	-0.2364727
106	0xbe62d095	-0.2214988
107	0xbe3d372d	-0.18478079
108	0xbec1c6b0	-0.378469
109	0x3ee5c214	0.44874632
110	0xbe91ef64	-0.28502953
111	0xbe68eecc	-0.22747344
112	0xbe0c7e6b	-0.137201
113	0x3ed0b6fe	0.40764612
114	0x3e7c492e	0.24637291
115	0x3e44cd24	0.1921888
116	0xbe0b84cf	-0.13624881
117	0x3e746a7d	0.23868747
118	0x3db8eeb1	0.09029902
119	0x3ecbdaae	0.39815277
120	0x3dedbe4e	0.11608563
121	0x3ebb4960	0.36579418
122	0x3ead965b	0.33903775
123	0x3d99048f	0.074715726
124	0xbeefed7a	-0.46860868
125	0x3dea1dd9	0.11431474
126	0xbeba1370	-0.36342955
127	0x3d77b508	0.06047538
128	0xbd32a140	-0.04361081
129	0x3ebb3b62	0.36568743
130	0xbec3d415	-0.38247743
131	0xbebbb4b4	-0.36661303
132	0x3e563b62	0.2092109
133	0x3eade39a	0.3396271
134	0xbde51a91	-0.11186708
135	0x3e03f000	0.12884521
136	0x3ec9b708	0.39397454
137	0x3d292a0b	0.04129986
138	0xbe1176a7	-0.14205419
139	0x3e94e453	0.29080448
140	0x3ee5adc5	0.44859138
141	0xbdb37f9f	-0.08764576
142	0x3eaa5260	0.33265972
143	0x3c73d4f0	0.014882311
144	0xbdada151	-0.08478034
145	0xbd47e6b3	-0.048803996
146	0xbeece204	-0.46266186
147	0x3e571383	0.21003537
148	0xbe84627d	-0.2585639
149	0xbedce568	-0.43143773
150	0xbd8e29dd	-0.069415785
151	0xbe2d11f4	-0.1690138
152	0xbe9aa655	-0.30205026
153	0xbdf7b969	-0.12095911
154	0xbd5374d0	-0.051625073
155	0x3e05fa3c	0.13083738
156	0x3d94120c	0.07230005
157	0xbd8f06d3	-0.069837235
158	0x3dea3673	0.114361666
159	0xbe940baa	-0.2891515
160	0x3edb5714	0.42839873
161	0x3e6928ec	0.22769517
162	0x3e9ef074	0.31042826
163	0xbeccb1a6	-0.39979285
164	0x3ea7f8b5	0.32806936
165	0x3dd73c99	0.10509605
166	0xbef34978	-0.4751699
167	0x3eccf4e7	0.40030596
168	0xbc1b5cdc	-0.009482589
169	0x3da2a605	0.07941822
170	0x3ebd520d	0.36976662
171	0x3ea04fe4	0.31310952
172	0x3ee03170	0.43787718
173	0xbee7d128	-0.4527676
174	0x3ef9dd85	0.48801818
175	0x3dc80806	0.09767155
176	0x3c679ecb	0.01413698
177	0xbecd8dc5	-0.40147224
178	0xbe83cb2e	-0.2574095
179	0x3ee2d5fd	0.44303885
180	0x3ec34ee7	0.38146135
181	0x3ec0f387	0.37685797
182	0xbd11f255	-0.035631496
183	0xbe8433aa	-0.25820667
184	0x3dea568e	0.1144229
185	0xbe6a42cf	-0.22877048
186	0xbea8e180	-0.32984543
187	0x3e1790ca	0.14801326
188	0x3ec164f4	0.37772334
189	0xbec4cee8	-0.38439107
190	0xbee392fe	-0.44448084
191	0x3da4ec01	0.08052827
192	0xbe468b9a	-0.19389191
193	0xbe845208	-0.25843835
194	0xbdc93dd0	-0.09826243
195	0xbd1a8b3a	-0.037730433
196	0xbe138600	-0.14406586
197	0x3eb91022	0.3614512
198	0x3e8e7139	0.27820757
199	0x3e055084	0.13018996
200	0xbe2e4152	-0.17017105
201	0xbd3b7f58	-0.04577574
202	0x3e997b02	0.2997666
203	0x3cff8b19	0.031194257
204	0xbef8faf5	-0.48628965
205	0x3d536530	0.05161017
206	0x3e803235	0.25038305
207	0xbde078c7	-0.109605365
208	0xbdc10c0b	-0.09426125
209	0xbd93d871	-0.07219017
210	0x3e97ec9e	0.29672712
211	0x3eb4302d	0.35193005
212	0xbec531ed	-0.38514653
213	0x3ea5dcde	0.3239507
214	0x3e56b234	0.20966417
215	0x3e2535ce	0.16133806
216	0xbe94de38	-0.2907579
217	0xbe88329a	-0.26601106
218	0x3ef7fbe7	0.48434374
219	0x3dca0622	0.09864451
220	0xbdde7c57	-0.1086356
221	0xbdc5fc82	-0.09667303
222	0x3eaadd48	0.3337195
223	0xbdcdc3c9	-0.10047109
224	0x3eaef71f	0.34172913
225	0xbe03c9b1	-0.12869908
226	0x3deb87fd	0.11500547
227	0x3dd6d743	0.10490277
228	0xbe887b74	-0.26656687
229	0x3b2bc572	0.0026210216
230	0x3db65066	0.089020535
231	0xbeeb57ea	-0.4596551
232	0xbdbc6280	-0.09198475
233	0x3d2c925a	0.04213176
234	0x3ecda3d9	0.40164068
235	0x3dd6249a	0.104562
236	0xbed8f904	-0.42377484
237	0xbe246a89	-0.16056265
238	0x3ef80aa4	0.48445618
239	0xbd6bc76a	-0.057563223
240	0x3ebb0a05	0.36531082
241	0x3d34c177	0.044129815
242	0x3eabb430	0.3353591
243	0xbe47a118	-0.19495046
244	0x3ef58c51	0.47958615
245	0x3dde49a5	0.1085389
246	0xbde08e61	-0.109646566
247	0x3eb58a7b	0.35457215
248	0x3e6edc86	0.2332631
249	0xbeb02063	-0.3439971
250	0xbd12aef5	-0.035811383
251	0x3eaf59c1	0.34248164
252	0x3dfd2478	0.123604715
253	0xbe17c711	-0.14822032
254	0xbeaaf50f	-0.3339009
255	0xbea06f36	-0.31334847

edge_encoder.layers.0.bias f4 [64]
0	0x3e3d8334	0.18507081
1	0x3e0a73af	0.13520692
2	0xbeb1db20	-0.34737492
3	0xbccd23da	-0.02504151
4	0x3d344545	0.044011373
5	0xbeb182a2	-0.34669977
6	0x3eabb172	0.33533818
7	0xb8efab1f	-0.00011428282
8	0xbde7e32b	-0.11322626
9	0x3a0445cf	0.00050458027
10	0x3dbccd47	0.09218841
11	0x3d00ef30	0.031478107
12	0x3ec1a06b	0.37817702
13	0x3e4107d2	0.1885064
14	0x39bfa66e	0.0003655436
15	0x3c55f0d7	0.013057909
16	0x3d21fa06	0.03954508
17	0xbdde9e65	-0.10870055
18	0xbeaa730e	-0.33290905
19	0xb8c62585	-9.448364e-05
20	0xbdcf84ee	-0.10132776
21	0xbec0afec	-0.37634218
22	0x3db866d1	0.09003986
23	0xbdf4d12f	-0.11953961
24	0x3ec3ee0b	0.3826755
25	0x3db95c2e	0.09050785
26	0x3dfaec13	0.12252059
27	0x3d77f2c3	0.06053425
28	0x3dd83f7a	0.10558982
29	0x3e67aeb7	0.22625242
30	0x3e8b8f8b	0.27257952
31	0xb925d197	-0.00015813705
32	0xbd699ae2	-0.057032473
33	0x3d534ed6	0.051588856
34	0xbe09d1c8	-0.13458931
35	0xb8b9e51c	-8.8641624e-05
36	0x3d78e1b1	0.06076211
37	0x3e07ae5b	0.13250105
38	0xbec66eb3	-0.38756332
39	0x3dd592c5	0.10428385
40	0xbdd58a09	-0.10426719
41	0xbe83effb	-0.25769028
42	0xbdfaedef	-0.122524135
43	0x3785aa29	1.5934073e-05
44	0x3e1e1782	0.15438655
45	0xbeb2fee2	-0.34960085
46	0x3d5486e5	0.051886458
47	0x3eb59ebf	0.35472676
48	0xbe420a13	-0.18949156
49	0x3d1c57d6	0.038169704
50	0xbde3d270	-0.11124122
51	0x3d27efba	0.041000105
52	0x3e00f0be	0.12591836
53	0xbe5b860d	-0.21437855
54	0x3d1ce86a	0.038307585
55	0x3ecbcb5f	0.39803597
56	0xb5cafe7c	-1.5124238e-06
57	0xbe85508f	-0.26038024
58	0x37c89a63	2.391375e-05
59	0x3cfc7c10	0.030820876
60	0x3d8af1b9	0.06784386
61	0x3878959d	5.9267146e-05
62	0xbce8d847	-0.028423442
63	0xbe206e96	-0.15667185

edge_encoder.layers.1.weight f4 [64]
0	0x3f77c266	0.96781003
1	0x3f7b3e2e	0.98141754
2	0x3f7bcfc1	0.9836388
3	0x3f7e1c34	0.99261785
4	0x3f798da8	0.97481775
5	0x3f7ecc78	0.99530745
6	0x3f7c262b	0.9849574
7	0x3f7eb27b	0.9949109
8	0x3f7de980	0.9918442
9	0x3f7a47f9	0.9776607
10	0x3f7f1de1	0.99654967
11	0x3f7c4e28	0.98556757
12	0x3f7a8d81	0.9787217
13	0x3f784915	0.96986514
14	0x3f7c8917	0.9864668
15	0x3f7cc7ee	0.9874257
16	0x3f7967d7	0.9742407
17	0x3f7c7be2	0.9862653
18	0x3f78368d	0.9695824
19	0x3f7ba622	0.98300374
20	0x3f7a2b01	0.9772187
21	0x3f7b0ebf	0.98069376
22	0x3f7c574b	0.985707
23	0x3f790bbc	0.9728353
24	0x3f7af150	0.98024464
25	0x3f7bb5ca	0.98324263
26	0x3f792037	0.9731478
27	0x3f7d3142	0.98903286
28	0x3f7e548e	0.9934777
29	0x3f7b5012	0.9816905
30	0x3f780180	0.9687729
31	0x3f7c49eb	0.9855029
32	0x3f7e2f5d	0.9929102
33	0x3f7a1d4e	0.97700965
34	0x3f7b2f8d	0.9811943
35	0x3f7d9692	0.9905788
36	0x3f7cbfc1	0.98730093
37	0x3f79d983	0.9759752
38	0x3f7cbb3b	0.9872319
39	0x3f7aff50	0.98045826
40	0x3f7aad0e	0.9792031
41	0x3f7b2f70	0.9811926
42	0x3f7d2b18	0.9889388
43	0x3f7d9d1e	0.99067867
44	0x3f79af33	0.9753296
45	0x3f760769	0.96105057
46	0x3f7ee823	0.9957296
47	0x3f79575b	0.9739892
48	0x3f79a9e7	0.97524875
49	0x3f7b6bc9	0.9821134
50	0x3f7e1e09	0.9926458
51	0x3f7a137d	0.97685987
52	0x3f7903fc	0.97271705
53	0x3f7b3216	0.981233
54	0x3f7ff166	0.9997772
55	0x3f7cba8c	0.9872215
56	0x3f7bd427	0.98370594
57	0x3f7eb83f	0.9949989
58	0x3f7c25f0	0.9849539
59	0x3f7ce096	0.9878019
60	0x3f7cfae6	0.9882034
61	0x3f7d56c4	0.9896052
62	0x3f79a5d4	0.9751866
63	0x3f7d8fc3	0.9904749

edge_encoder.layers.1.bias f4 [64]
0	0x372151ee	9.615424e-06
1	0x3a79b916	0.0009526176
2	0xbc3777ab	-0.011197965
3	0x3be63273	0.007025057
4	0x3b58645c	0.0033018803
5	0x3bc37b31	0.0059656133
6	0xbbb78680	-0.0056007504
7	0x3bea3c86	0.0071483282
8	0x3b02a2c4	0.0019933442
9	0x3ab58d24	0.0013851267
10	0x3c1a5805	0.0094204
11	0xbbea7e94	-0.0071562026
12	0xbc5c9989	-0.01346434
13	0xbca9891e	-0.020695265
14	0xbc1c6efc	-0.009547945
15	0xbb621bcb	-0.003450143
16	0xbc81f4a2	-0.01586372
17	0xbbc5d18b	-0.0060369424
18	0xbca58b7c	-0.020208113
19	0xbb821fce	-0.0039710766
20	0xbbe98538	-0.0071264766
21	0xbc227ee4	-0.009917948
22	0xbb747aa8	-0.0037304554
23	0xbbe1f774	-0.006895954
24	0xbbb19d95	-0.0054203966
25	0xbabfd59d	-0.0014635805
26	0xbae7e601	-0.0017692448
27	0x3b816943	0.0039493158
28	0x3ab9ed44	0.001418509
29	0xbc07dd8c	-0.008292567
30	0xbcbbc2c1	-0.022920014
31	0xbbc5fafb	-0.006041882
32	0x3ada7305	0.0016666359
33	0xbc1d60aa	-0.009605566
34	0xbc11aaa6	-0.008890783
35	0xbb873b4d	-0.0041269423
36	0xbbec8253	-0.0072176843
37	0xbc621d0a	-0.013800869
38	0xba72e8ec	-0.00092662754
39	0xbc34e395	-0.011040588
40	0xbc34b5ee	-0.011029704
41	0xbad89577	-0.0016524036
42	0xbb8077dc	-0.0039205384
43	0x3b0e4496	0.002170836
44	0xbb6807b9	-0.0035404994
45	0xbc8d2ec0	-0.017234206
46	0x3b1930a8	0.0023374949
47	0xbc538cd8	-0.012911998
48	0xbba281ab	-0.0049593053
49	0xbc0fca31	-0.0087762335
50	0x3b616e87	0.0034398155
51	0xbc263ae8	-0.01014588
52	0xbc3b0d88	-0.0114168
53	0xbc286af7	-0.010279409
54	0x3c15f17f	0.009151815
55	0xbbb9c3d8	-0.0056690983
56	0xbc2f2b0e	-0.010691417
57	0x3bee8be2	0.007279859
58	0xbbc465d4	-0.005993584
59	0x3aac8f02	0.0013165178
60	0xbb0c083a	-0.0021367208
61	0x3bbace93	0.005700895
62	0xbc5b9854	-0.013403017
63	0xbb26b918	-0.0025439914

edge_encoder.layers.1.running_mean f4 [64]
0	0x3e49248b	0.19642846
1	0x3e03e0df	0.1287875
2	0xbeaac188	-0.33350778
3	0xbbf2f686	-0.007414642
4	0x3d13f253	0.03611977
5	0xbead17b9	-0.3380716
6	0x3eaa66e9	0.3328164
7	0xbb928242	-0.0044710943
8	0xbdfc9c95	-0.12334553
9	0x3c230fc0	0.009952486
10	0x3dea0330	0.11426389
11	0x3cae52ea	0.02127977
12	0x3ec92371	0.39284852
13	0x3e568b6c	0.20951623
14	0x3c4372fe	0.011929272
15	0xba369a09	-0.0006965702
16	0x3c984947	0.018589629
17	0xbdc9b509	-0.09848983
18	0xbea2e301	-0.31813815
19	0x3c55d385	0.0130509185
20	0xbde75c0a	-0.11296852
21	0xbec0f3a8	-0.37685895
22	0x3da32651	0.07966293
23	0xbddae956	-0.106890365
24	0x3ec0d17c	0.37659824
25	0x3da55d8c	0.08074483
26	0x3dfcb051	0.12338317
27	0x3d5771d1	0.05259878
28	0x3de43022	0.11141993
29	0x3e7aa594	0.24477226
30	0x3e8c12a6	0.27357978
31	0x3b9cd7cf	0.0047864686
32	0xbd997982	-0.07493879
33	0x3d737850	0.05944091
34	0xbdfc9c90	-0.123345494
35	0xbadaefb7	-0.0016703521
36	0x3da17254	0.078831345
37	0x3e078e9e	0.13237998
38	0xbec53cb7	-0.38522884
39	0x3dc17946	0.09446959
40	0xbe052d17	-0.13005482
41	0xbe746052	-0.23864868
42	0xbdf02896	-0.11726491
43	0x3b4f8ee4	0.0031670863
44	0x3e3c688e	0.1839926
45	0xbebbebc9	-0.36703327
46	0x3d89d7cf	0.06730615
47	0x3ebe38b5	0.3715264
48	0xbe45115f	-0.19244908
49	0x3d2572cf	0.040392693
50	0xbdef94b3	-0.11698284
51	0x3d0dc4fe	0.034611695
52	0x3e11ad47	0.14226256
53	0xbe5e470c	-0.2170679
54	0x3d292a8e	0.04130035
55	0x3eca0187	0.3945429
56	0x3ba23c02	0.004951001
57	0xbe92b32a	-0.28652316
58	0xba075f4e	-0.0005164043
59	0x3cd1615e	0.025559124
60	0x3d71cf93	0.05903585
61	0x3c8e4f2b	0.017371735
62	0xbc474c84	-0.012164239
63	0xbe2d3d62	-0.16917947
