gnn/gnn_outputs/checkpoint_epoch_30.pt (torch, 971292 bytes, 208 tensors)

node_encoder.layers.0.weight f4 [64, 3]
0.44632643 0.47386882 -0.14005266 0.5371725 -0.122788966 0.10693995 -0.2691576 0.34765655
0.51665443 -0.41228718 0.5142614 0.094748616 0.42854774 0.07353639 0.2769777 -0.090905935
0.43742386 0.09177008 -0.27911022 0.15027237 -0.25177726 -0.06648353 -0.2240032 0.39207774
-0.45901716 -0.25571457 -0.16619869 -0.33923143 0.05880599 -0.5775713 0.5184909 -0.4913457
0.44851568 0.09943381 -0.17888579 0.36095595 0.09054684 0.46975857 0.057874866 -0.18213674
0.1531177 -0.1626612 0.24245058 0.49979556 0.3446985 -0.23665263 0.34489214 0.10107159
0.2953624 -0.34535888 -0.57887846 -0.2214336 -0.45632404 0.4639614 0.16276462 0.24058197
0.18715854 -0.0128814345 0.45972088 -0.40221298 0.031071449 -0.4005635 0.17163865 -0.1987029
0.17297682 -0.1231823 0.48028696 -0.34789664 -0.33943713 -0.35423934 0.5081366 0.19090942
0.5494215 -0.4788477 -0.57464874 -0.45492458 -0.38776636 0.22969423 0.20305356 0.4864722
-0.29160613 -0.37894246 0.31549394 -0.23334134 0.34987622 -0.14103165 0.32663018 -0.4671418
-0.28114235 0.17856583 0.12476728 -0.13986157 0.35048983 0.38845882 -0.42258868 -0.30575
0.5303671 -0.20344898 -0.19984065 -0.55233264 -0.3364017 0.14222346 -0.08572433 -0.4094212
0.0045304117 -0.40060276 -0.50524914 -0.303221 -0.50991887 -0.36465886 0.572714 0.10973542
0.18784603 -0.5271541 -0.3788133 -0.19055054 0.09315939 -0.5039828 -0.2480237 -0.34986216
0.011258081 -0.22100915 -0.033907376 -0.40546066 -0.39682066 -0.32834634 -0.20148328 -0.45856962
0.4807661 -0.112587005 0.48486406 0.19290294 -0.48761842 0.4087538 -0.15684369 -0.22673559
-0.47981957 -0.57136095 0.17316206 -0.121513985 0.21353482 -0.47574472 0.42681843 -0.4237494
-0.10232521 0.11448347 0.3066863 0.48037988 0.5230413 -0.44738114 0.14321612 -0.25912318
-0.05635667 -0.4358914 0.52003384 -0.42966214 0.31482702 0.19113982 0.19066575 -0.30717674
0.5296152 0.123355955 0.07443312 -0.51539785 0.23474437 -0.08022094 -0.26155546 0.4993427
0.1298761 -0.31782958 -0.29315525 -0.03489503 0.32040563 -0.1488642 -0.3196455 -0.20369028
-0.44294432 0.19478756 0.4368278 -0.5551538 0.1483235 0.28324822 0.11528107 -0.21228665
0.29447383 0.309937 0.21210627 -0.100701265 -0.15398654 0.06725967 -0.09357162 -0.18085672
00000000: e684 e43e ef9e f23e f769 0fbe 2384 093f
00000010: c878 fbbd 5503 db3d 06cf 89be 0a00 b23e
00000020: 7743 043f 4e17 d3be a3a6 033f 900b c23d
00000030: 9c6a db3e 3f9a 963d 05d0 8d3e e42c babd
00000040: 05f6 df3e f4f1 bb3d 89e7 8ebe 00e1 193e
00000050: f3e8 80be 8428 88bd 1861 65be 6abe c83e
00000060: 4c04 ebbe 05ed 82be fd2f 2abe beaf adbe
00000070: 8dde 703d b6db 13bf d2bb 043f aa91 fbbe
00000080: d9a3 e53e f4a3 cb3d d62d 37be 38cf b83e
00000090: 9f70 b93d 3284 f03e 320e 6d3d 0e82 3abe
000000a0: e3ca 1c3e a890 26be f744 783e 34e5 ff3e
000000b0: 527c b03e 1155 72be b495 b03e 9ffe ce3d
000000c0: be39 973e e1d2 b0be 6131 14bf 7dbf 62be
000000d0: 4ea3 e9be 598c ed3e c5ab 263e 1f5b 763e
000000e0: 7da6 3f3e a70c 53bc 8960 eb3e dcee cdbe
000000f0: 8d89 fe3c a916 cdbe 0bc2 2f3e c678 4bbe
00000100: d620 313e 0047 fcbd 2ce8 f53e 821f b2be
00000110: b4ca adbe dc5e b5be 3d15 023f c27d 433e
00000120: e3a6 0c3f 872b f5be 2e1c 13bf e0eb e8be
00000130: 5089 c6be f734 6b3e 46ed 4f3e e212 f93e
00000140: 664d 95be bf04 c2be 6c88 a13e 08f1 6ebe
00000150: fa22 b33e 9a6a 10be 123c a73e 362d efbe
00000160: e4f1 8fbe f6d9 363e fd85 ff3d df37 0fbe
00000170: 6773 b33e 13e4 c63e 8b5d d8be 448b 9cbe
00000180: 23c6 073f ee54 50be 07a3 4cbe ac65 0dbf
00000190: d83c acbe 07a3 113e 3d90 afbd a89f d1be
000001a0: d973 943b ce1b cdbe 0258 01bf c83f 9bbe
000001b0: 0b8a 02bf 91b4 babe 629d 123f f7bc e03d
000001c0: b65a 403e 92f3 06bf d1f3 c1be ae1f 43be
000001d0: 5aca be3d 0405 01bf edf9 7dbe 2221 b3be
000001e0: d073 383c 3950 62be 76e2 0abd 8a98 cfbe
000001f0: 142c cbbe 031d a8be a251 4ebe a3c9 eabe
00000200: f926 f63e 0494 e6bd 1a40 f83e 5988 453e
00000210: 1fa9 f9be 2e48 d13e a29b 20be 602d 68be
00000220: e9aa f5be b644 12bf 6551 313e 53dc f8bd
00000230: dfa8 5a3e d094 f3be f287 da3e aef5 d8be
00000240: e18f d1bd 4f76 ea3d fd05 9d3e 5af4 f53e
00000250: 09e6 053f 240f e5be 3fa7 123e cbab 84be
00000260: 40d6 66bd 282d dfbe f020 053f adfc dbbe
00000270: 0231 a13e 28ba 433e e23d 433e 4546 9dbe
00000280: dd94 073f 0ca2 fc3d 6470 983d 1df1 03bf
00000290: d460 703e e04a a4bd 99ea 85be d9a9 ff3e
000002a0: 3efe 043e 8fba a2be 7218 96be 17ee 0ebd
000002b0: 350c a43e db6f 18be 93a8 a3be 2f94 50be
000002c0: 99c9 e2be 6476 473e e5a7 df3e 8f1e 0ebf
000002d0: 1ee2 173e e905 913e 7b18 ec3d ac61 59be
000002e0: 46c5 963e 10b0 9e3e 6332 593e 773c cebd
000002f0: a6ae 1dbe 70bf 893d 7aa2 bfbd 8132 39be

node_encoder.layers.0.bias f4 [64]
0.33933842 0.4664063 -0.02936856 -0.10015268 -0.00048572136 -0.008823727 0.10961331 0.13248764
-0.49458206 -0.18360479 0.45642382 0.19537748 -0.004018554 -0.3183977 -0.32352954 -0.48737082
-0.15878844 0.1655418 0.33846065 0.23697479 -0.48054802 -0.31751844 -0.062397946 0.5287021
0.054949563 -0.12025667 0.20931251 -0.19039509 -0.34398305 0.39165577 -0.23293817 -0.08670915
-0.5445394 0.35668376 0.4076658 0.18094148 -0.37283692 -0.53999037 -0.43914664 0.40077686
0.24756882 0.4560629 0.27281365 0.116876565 -0.0007429106 -0.40932602 -0.4648558 -0.51022214
0.20680588 -0.2538436 -0.087132886 -0.3025895 -0.07631133 -0.3766231 -0.34754863 0.16208929
-0.14225039 0.326729 -0.15583137 -0.39377236 -0.07299301 -0.25025782 -0.14729854 -0.5198632
00000000: c4bd ad3e cecc ee3e 5696 f0bc d91c cdbd
00000010: 6ba8 feb9 6591 10bc f17c e03d d7aa 073e
00000020: dc39 fdbe e502 3cbe 62b0 e93e 0911 483e
00000030: 13ae 83bb 0605 a3be aaa5 a5be ab88 f9be
00000040: 7099 22be ca83 293e b74a ad3e 85a9 723e
00000050: 640a f6be c791 a2be fd94 7fbd 0559 073f
00000060: cb12 613d 2149 f6bd 0556 563e eef6 42be
00000070: 8c1e b0be 1b87 c83e 5887 6ebe 9194 b1bd
00000080: ef66 0bbf 419f b63e 92b9 d03e b948 393e
00000090: 7be4 bebe cf3c 0abf d4d7 e0be a032 cd3e
000000a0: ae82 7d3e 1481 e93e 3bae 8b3e fb5c ef3d
000000b0: e3bf 42ba 2e93 d1be 9401 eebe eb9d 02bf
000000c0: ecc4 533e caf7 81be ba72 b2bd 03ed 9abe
000000d0: 1d49 9cbd bed4 c0be e5f1 b1be bcfa 253e
000000e0: 16aa 11be 0649 a73e 4292 1fbe 889c c9be
000000f0: 5c7d 95bd cb21 80be 6ed5 16be c115 05bf

node_encoder.layers.1.weight f4 [64]
1.0026234 0.9966504 0.9918058 0.9999456 0.9937891 1.0055419 0.98490846 1.0037074
0.9962424 0.993293 0.9990092 1.0053031 1.0011292 1.0128281 0.99264026 1.0025634
0.9879762 0.99409914 0.98835146 1.0021454 1.0046736 0.99144894 1.0037887 0.9943532
1.0068839 1.0069963 1.0013058 1.0151377 0.9935814 1.0035679 1.0030872 1.0074033
0.9983263 1.005168 1.008307 1.0031658 1.0088615 1.0076822 0.9963886 0.9899413
1.0029645 0.99928886 1.0055078 1.000719 1.001213 0.99125445 1.0069586 1.0051286
0.9979752 0.9931922 1.0120777 1.012997 0.9940971 1.002768 0.99407333 0.9969034
0.9897707 0.99866265 0.99304765 1.0055614 0.98948956 0.9874595 0.9906703 0.98810655
00000000: f755 803f 7b24 7f3f fce6 7d3f 6ffc 7f3f
00000010: f668 7e3f 99b5 803f f622 7c3f 7c79 803f
00000020: be09 7f3f 7348 7e3f 11bf 7f3f c6ad 803f
00000030: 0025 803f 5aa4 813f ac1d 7e3f ff53 803f
00000040: 02ec 7c3f 487d 7e3f 9a04 7d3f 4d46 803f
00000050: 2599 803f 99cf 7d3f 267c 803f ee8d 7e3f
00000060: 92e1 803f 41e5 803f ca2a 803f 08f0 813f
00000070: 5a5b 7e3f ea74 803f 2965 803f 97f2 803f
00000080: 5092 7f3f 58a9 803f 3410 813f bd67 803f
00000090: 6022 813f bbfb 803f 5313 7f3f cb6c 7d3f
000000a0: 2461 803f 65d1 7f3f 7bb4 803f 8f17 803f
000000b0: bf27 803f dac2 7d3f 05e4 803f 0ea8 803f
000000c0: 4d7b 7f3f d841 7e3f c38b 813f e3a9 813f
000000d0: 267d 7e3f b45a 803f 977b 7e3f 1035 7f3f
000000e0: 9d61 7d3f 5ba8 7f3f 5f38 7e3f 3cb6 803f
000000f0: 304f 7d3f 25ca 7c3f 929c 7d3f 8df4 7c3f

node_encoder.layers.1.bias f4 [64]
-0.0015671931 -0.0043031476 -0.00924625 0.011154325 -0.013736346 0.007763844 -0.020139704 0.0045565506
-0.015657846 -0.005621747 0.007098272 -0.0007741043 0.0005537182 -3.185598e-05 -0.0036550695 0.006674052
-0.0026012023 -0.00059195113 -0.008040219 -0.0029512555 -0.0060434123 -0.006825853 0.00049332285 -0.00023927948
0.0013448547 -0.0075929645 0.015389586 0.012857857 -0.011527155 -0.0029705486 0.005706581 0.0034218447
-0.0025888549 -0.0076610325 -0.0002713869 0.0011440299 0.007216081 0.009259803 -0.0053429035 -0.005584549
0.0066069704 -0.0112134395 -0.0044368277 0.006449035 0.0062280274 0.0023518167 0.0019355465 -0.00737793
0.0031046239 -0.006400715 0.0073474306 0.01858472 0.0037523126 0.0024887458 -0.0056212014 -0.01901642
-0.007981933 -0.0037308587 -0.008953077 0.0080808 -0.007327404 0.009517462 -0.00032243427 -0.012479966
00000000: 466a cdba 6b01 8dbb 957d 17bc a1c0 363c
00000010: 690e 61bc d867 fe3b 05fc a4bc 1e4f 953b
00000020: e244 80bc a236 b8bb 9f98 e83b 43ed 4aba
00000030: 6627 113a 199d 05b8 e489 6fbb 02b2 da3b
00000040: ef78 2abb 2b2d 1bba 1fbb 03bc da69 41bb
00000050: d107 c6bb 68ab dfbb 5652 013a 19e7 7ab9
00000060: d645 b03a 67ce f8bb 9a24 7c3c c3a9 523c
00000070: 64dc 3cbc 89ad 42bb 45fe ba3b 0741 603b
00000080: c7a9 29bb 6609 fbbb ef48 8eb9 46f3 953a
00000090: e074 ec3b 6eb6 173c 8613 afbb 98fe b6bb
000000a0: 497f d83b 93b8 37bc cf62 91bb 6d52 d33b
000000b0: 7b14 cc3b f020 1a3b 2ab2 fd3a 90c2 f1bb
000000c0: f276 4b3b 17bd d1bb b7c2 f03b fc3e 983c
000000d0: 5ce9 753b 3a1a 233b 0e32 b8bb 53c8 9bbc
000000e0: a7c6 02bc 6c81 74bb edaf 12bc 5565 043c
000000f0: b81a f0bb 21ef 1b3c 650c a9b9 c578 4cbc

node_encoder.layers.1.running_mean f4 [64]
0.7964698 0.73110765 0.3052235 0.04517053 0.4116776 0.2572823 -0.07025246 0.16667105
-0.9818496 -0.6273641 0.6609115 0.32683417 0.35942507 -0.4070133 0.28534308 -0.3517046
-0.5197051 0.013181851 0.6717516 0.30966547 -0.626247 -0.383281 -0.2043627 0.75926274
-0.2453433 -0.48117015 0.46867368 -0.32078522 -0.082615286 0.071105525 -0.07859397 -0.30461496
-0.4983177 -0.062161177 0.11724339 -0.49119666 -0.57195044 -0.6430841 -0.7106215 -0.19217116
0.10435868 -0.16581298 0.13691811 0.45980445 -0.08546066 -1.1218743 -0.34228685 -0.71831566
0.38604686 0.083741434 -0.20399119 -0.43527457 0.30005425 -0.15209392 -0.50865674 0.2206582
-0.42643502 0.43347758 -0.6810513 -0.31163532 0.23408495 -0.024171581 -0.1829592 -0.63918114
00000000: 72e5 4b3f df29 3b3f 4146 9c3e bc04 393d
00000010: 68c7 d23e 81ba 833e 86e0 8fbd d1ab 2a3e
00000020: 7f5a 7bbf ef9a 20bf 7f31 293f cf56 a73e
00000030: 9006 b83e 0c64 d0be 7d18 923e a012 b4be
00000040: 650b 05bf b1f8 573c eaf7 2b3f 798c 9e3e
00000050: b951 20bf 683d c4be 7544 51be 0b5f 423f
00000060: 463b 7bbe ef5b f6be fff5 ef3e f63d a4be
00000070: 3432 a9bd c69f 913d e0f5 a0bd 7ef6 9bbe
00000080: 7f23 ffbe b89c 7ebd 4d1d f03d 217e fbbe
00000090: 586b 12bf 29a1 24bf 4aeb 35bf 84c8 44be
000000a0: 01ba d53d e1ca 29be 4334 0c3e 7d6b eb3e
000000b0: 0006 afbd 9499 8fbf 3940 afbe 89e3 37bf
000000c0: efa7 c53e a180 ab3d 11e3 50be 4fdc debe
000000d0: b6a0 993e 82be 1bbe 5437 02bf 39f4 613e
000000e0: b155 dabe c6f0 dd3e 6159 2ebf aa8e 9fbe
000000f0: f7b3 6f3e 7b03 c6bc a859 3bbe 60a1 23bf

node_encoder.layers.1.running_var f4 [64]
0.044389106 0.024525566 0.046397485 0.035613857 0.025189616 0.020499587 0.015391253 0.023317602
0.029626716 0.04602983 0.05884935 0.018761318 0.024440298 0.008520517 0.04616976 0.016521588
0.054704923 0.049382113 0.014065615 0.03777684 0.01930057 0.008255541 0.03991963 0.035762228
0.07751702 0.040770296 0.037651483 0.02452497 0.022909274 0.031754136 0.01726711 0.03700538
0.029038409 0.041608844 0.018783329 0.0529235 0.07270399 0.036087062 0.018574005 0.043106657
0.0064385612 0.044853292 0.05041463 0.02801759 0.0328352 0.06647134 0.009749238 0.04928584
0.013956122 0.07098522 0.009129332 0.05451378 0.018131452 0.03330741 0.03128489 0.03542877
0.021444818 0.013307244 0.036433946 0.0564561 0.013516779 0.022836074 0.008315906 0.0064495304
00000000: 5ad1 353d d7e9 c83c 4a0b 3e3d d6df 113d
00000010: 745a ce3c c0ee a73c 982b 7c3c 8e04 bf3c
00000020: bab3 f23c c689 3c3d 040c 713d 56b1 993c
00000030: 0537 c83c a399 0b3c 811c 3d3d 4858 873c
00000040: 4512 603d e644 4a3d 7773 663c e3bb 1a3d
00000050: 3b1c 9e3c 4042 073c c482 233d 6a7b 123d
00000060: 3ec1 9e3d c1fe 263d 7138 1a3d 97e8 c83c
00000070: 3bac bb3c a010 023d c173 8d3c f492 173d
00000080: f5e1 ed3c 096e 2a3d 7fdf 993c 50c6 583d
00000090: d4e5 943d 07d0 133d 8328 983c 9b90 303d
000000a0: 91fa d23b 16b8 373d 927f 4e3d 2585 e53c
000000b0: 347e 063d 2022 883d 45bb 1f3c f3df 493d
000000c0: 38a8 643c b360 913d 3293 153c d749 5f3d
000000d0: 6988 943c 5a6d 083d 9624 003d c21d 113d
000000e0: 0bad af3c a006 5a3c c33b 153d 833e 673d
000000f0: 7b75 5d3c b812 bb3c 703f 083c 9556 d33b

node_encoder.layers.3.weight f4 [64, 64]
0.060203828 -0.07758839 0.052013654 0.04878192 0.08227269 -0.10257127 0.0806409 -0.06989974
0.044565912 0.11491481 -0.007985587 -0.0074795564 -0.035861358 -0.112478346 0.05136656 -0.1322011
0.08634671 0.08295882 0.10936718 -0.03510088 -0.09213689 0.020093225 0.07897762 -0.13270107
-0.018874321 -0.081327304 -0.018238513 -0.069876716 -0.05401737 -0.04703384 -0.12585871 0.1124665
0.11537844 -0.026238723 -0.0056551034 -0.047042705 -0.13247156 -0.1173238 0.039229617 -0.06982724
-0.070652075 -0.006763921 -0.051197186 -0.047821645 -0.0036636859 -0.020435568 -0.04351115 -0.067826524
-0.11290028 0.0972809 -0.039339304 0.026137862 -0.052246105 0.0026328585 0.12739702 0.04601526
-0.09929265 0.04373566 0.120371066 0.028394552 0.07539321 0.11307022 -0.009251414 0.034349877
-0.09602113 -0.019029181 0.10097916 0.063099414 -0.071354076 -0.097634204 -0.095527835 -0.10906457
-0.09676934 -0.03799302 0.09200348 0.031751946 -0.09775909 -0.11184853 0.06862454 -0.090192236
-0.008353012 0.073171526 -0.05068822 -0.022586372 -0.0015117163 -0.04201499 -0.054673612 -0.107052505
-0.092597805 -0.06122815 0.11214778 -0.0728322 -0.07646874 0.03369953 0.04493217 0.077112496
0.102906115 0.07106917 -0.115624726 0.015296998 0.09227214 -0.01893848 -0.07272664 0.11853197
-0.03843451 -0.068175085 -0.09965522 0.011281287 0.042199545 0.031452015 0.032966632 -0.10646275
-0.10330297 -0.006301021 0.12273777 0.060343478 -0.06967246 -0.013853297 -0.082829796 -0.045846403
0.029946107 0.058165956 0.102708824 -0.12249179 0.08295277 -0.08108619 0.055661082 0.11202911
0.0003673229 0.124448225 -0.11597595 -0.036969125 0.08250653 -0.021118814 -0.020096552 -0.05789709
0.0819537 0.066349246 0.038557593 -0.07561704 -0.09973511 0.019054262 0.038246375 -0.047226395
-0.03381103 0.078501776 0.013603519 0.010967765 -0.03495487 -0.10700311 -0.11502899 -0.04939434
-0.06497566 0.031863697 -0.033667292 -0.04270692 0.12444071 0.03644561 0.084239 -0.057513695
-0.043116856 0.038812697 -0.0894478 -0.08642531 -0.01272451 -0.04283245 -0.10069448 0.07713261
0.09538539 0.017749941 -0.027546695 -0.1097139 -0.03808064 0.034153603 0.05690806 -0.010320016
-0.056861553 0.070678495 -0.099757984 0.08457961 -0.04222919 0.011531619 -0.028627798 0.009175667
-0.038795583 0.09734277 0.0011578 0.10141606 0.11876612 -0.07283528 -0.091044605 0.10246108
0.08960445 -0.08649768 -0.00536523 -0.13005799 -0.09467198 0.0160753 0.02207823 0.03163221
-0.031273957 0.10416271 0.025411895 -0.06740105 -0.013165129 0.01920231 0.048857696 -0.09399134
0.041956343 -0.05780925 -0.09821852 -0.07760002 0.1278421 0.09607662 0.11895819 0.0693236
0.10058388 -0.01193146 -0.07758669 0.051785365 -0.057490863 -0.08021181 -0.03348167 0.03691451
0.06878771 -0.0446251 -0.06659276 0.020980662 -0.06934176 -0.09108934 0.068876535 -0.022090131
0.12173175 0.12436715 0.04351859 0.041996054 0.018821118 0.001623237 -0.0020520468 -0.009059
0.049642563 0.10760298 -0.022948869 -0.06334379 -0.024395555 -0.067191035 0.028593501 0.09812156
0.108581334 0.048213344 -0.09721421 -0.07609774 -0.029869633 -0.01592313 0.011043879 -0.12064672
00000000: 4a98 763d a9e6 9ebd 450c 553d 8dcf 473d
00000010: 967e a83d e310 d2bd 0e27 a53d 9827 8fbd
00000020: bf8a 363d 7558 eb3d fbd5 02bc 1117 f5bb
00000030: 5ce3 12bd 0c5b e6bd be65 523d ba5f 07be
00000040: 8bd6 b03d 50e6 a93d e6fb df3d f1c5 0fbd
00000050: 44b2 bcbd 8c9a a43c 05bf a13d cae2 07be
00000060: 529e 9abc ee8e a6bd ef68 95bc 861b 8fbd
00000070: 5141 5dbd 8ea6 40bd 1be1 00be d654 e63d
00000080: 884b ec3d 97f2 d6bc 724e b9bb daaf 40bd
00000090: a0a6 07be 7647 f0bd 3caf 203d 9601 8fbd
000000a0: 09b2 90bd e2a3 ddbb 24b4 51bd a1e0 43bd
000000b0: 731a 70bb 7e68 a7bc bf38 32bd a2e8 8abd
000000c0: 4338 e7bd 353b c73d 4022 21bd 121f d63c
000000d0: 0300 56bd 098c 2c3b 5d74 023e 7f7a 3c3d
000000e0: f259 cbbd 2a24 333d 1b85 f63d b19b e83c
000000f0: c167 9a3d 5c91 e73d 3e93 17bc 75b2 0c3d
00000100: baa6 c4bd 16e3 9bbc 29ce ce3d 443a 813d
00000110: 1622 92bd 71f4 c7bd 19a4 c3bd 3f5d dfbd
00000120: 012f c6bd 929e 1bbd 526c bc3d 540e 023d
00000130: eb35 c8bd d810 e5bd 068b 8c3d b5b6 b8bd
00000140: 12db 08bc f4da 953d 739e 4fbd 0e07 b9bc
00000150: c824 c6ba e917 2cbd 70f1 5fbd 583e dbbd
00000160: eba3 bdbd 5eca 7abd bcad e53d 0c29 95bd
00000170: a59b 9cbd 8508 0a3d cc0a 383d 28ed 9d3d
00000180: 71c0 d23d b78c 913d a8cc ecbd 43a0 7a3c
00000190: 2df9 bc3d df24 9bbc b4f1 94bd e4c0 f23d
000001a0: 816d 1dbd 619f 8bbd 0918 ccbd 26d5 383c
000001b0: 6ed9 2c3d d4d3 003d 0508 073d 2409 dabd
000001c0: 8290 d3bd cc78 cebb f15d fb3d b92a 773d
000001d0: 6fb0 8ebd f0f8 62bc aba2 a9bd 70c9 3bbd
000001e0: 8a51 f53c 6d3f 6e3d 0159 d23d fadc fabd
000001f0: 24e3 a93d 8410 a6bd e0fc 633d 856f e53d
00000200: 3f95 c039 b6de fe3d cd84 edbd f06c 17bd
00000210: 2ff9 a83d 5d01 adbc 86a1 a4bc 8025 6dbd
00000220: 57d7 a73d 1de2 873d 91ee 1d3d 1bdd 9abd
00000230: ec41 ccbd af17 9c3c 3ba8 1c3d 7770 41bd
00000240: 6f7d 0abd 8ac5 a03d 4be1 5e3c 24b2 333c
00000250: d62c 0fbd 7224 dbbd 5294 ebbd b851 4abd
00000260: f511 85bd 8283 023d b7e6 09bd 74ed 2ebd
00000270: c5da fe3d fe47 153d 7f85 ac3d 7b93 6bbd
00000280: 4d9b 30bd 10fa 1e3d 6830 b7bd c1ff b0bd
00000290: 777a 50bc 1471 2fbd e838 cebd b4f7 9d3d
000002a0: 6a59 c33d 5368 913c 9ba9 e1bc aeb1 e0bd
000002b0: 72fa 1bbd a6e4 0b3d 6d18 693d 4915 29bc
000002c0: a9e7 68bd e3bf 903d ea4d ccbd 1338 ad3d
000002d0: 84f8 2cbd 1eef 3c3c d884 eabc 8955 163c
000002e0: 1ee8 1ebd a55b c73d 52c1 973a 39b3 cf3d
000002f0: a73b f33d aa2a 95bd 9875 babd 1dd7 d13d
00000300: 8a82 b73d b225 b1bd d0ce afbb ec2d 05be
00000310: 62e3 c1bd 59b0 833c 67dd b43c c790 013d
00000320: 1f19 00bd 4253 d53d 9b2c d03c 9009 8abd
00000330: 8eb2 57bc 2a4e 9d3c 021f 483d 887e c0bd
00000340: 6ada 2b3d 64c9 6cbd cb26 c9bd c2ec 9ebd
00000350: 0ae9 023e d2c3 c43d 5aa0 f33d 88f9 8d3d
00000360: ecfe cd3d 2c7c 43bc c5e5 9ebd e41c 543d
00000370: 8a7b 6bbd 1746 a4bd 1324 09bd ab33 173d
00000380: 92e0 8c3d cfc8 36bd c961 88bd a3df ab3c
00000390: 0d03 8ebd 0c8d babd 240f 8d3d 5df6 b4bc
000003a0: 7f4e f93d 34b4 fe3d 8d40 323d 0e04 2c3d
000003b0: bf2e 9a3c ccc2 d43a a27b 06bb 336c 14bc
000003c0: 0056 4b3d f45e dc3d 44ff bbbc 64ba 81bd
000003d0: 30d9 c7bc 749b 89bd eb3c ea3c f5f3 c83d
000003e0: e45f de3d 5b7b 453d 3e18 c7bd 22d9 9bbd
000003f0: 29b1 f4bc 3971 82bc 63f1 343c a115 f7bd

node_encoder.layers.3.bias f4 [64]
0.0001404376 0.030180424 -0.0015697832 -0.06197764 0.023205478 0.045417048 -0.037001774 -0.052566517
-0.056516122 -0.032880213 0.0024373694 -0.00082696707 3.1319152e-05 -0.0074750194 0.049112584 0.00047216204
-0.044261456 -0.007472807 -0.045142706 -0.0171616 -0.088876136 -0.0004609777 -0.06806324 0.021028312
0.057015337 -0.06425598 -0.03783922 -0.0699554 0.0077250646 0.00089141284 -0.03644829 0.047112208
0.024368262 -0.08395699 -0.0004439408 -0.026199678 0.0005585222 0.04136247 0.0023203823 -0.058178496
0.059282318 -0.08526338 -0.016083911 0.02089735 0.0815324 0.092259414 -0.004545389 0.0149686495
-0.0808304 -0.0009772104 -0.012455438 0.0095075 -0.05336221 0.0027511565 0.036505274 0.06862
0.00081929495 0.08520818 -0.08907164 -0.009449506 0.02017554 0.006640005 0.031014072 -0.05438777
00000000: 6e42 1339 f03c f73c 2fc1 cdba 44dc 7dbd
00000010: 6a19 be3c 3a07 3a3d 2c8f 17bd fd4f 57bd
00000020: 737d 67bd 67ad 06bd 46bc 1f3b d2c8 58ba
00000030: af5c 0338 02f1 f4bb 472a 493d 848c f739
00000040: 804b 35bd 73de f4bb 8fe7 38bd 7c96 8cbc
00000050: b104 b6bd 61af f1b9 bd64 8bbd 9143 ac3c
00000060: ea88 693d a498 83bd 4cfd 1abd c744 8fbd
00000070: 8a22 fd3b b4ad 693a cd4a 15bd bbf8 403d
00000080: f39f c73c a4f1 abbd bac0 e8b9 b5a0 d6bc
00000090: ca69 123a b16b 293d 8e11 183b 934c 6ebd
000000a0: 04d2 723d 919e aebd 68c2 83bc eb30 ab3c
000000b0: 75fa a63d 81f2 bc3d 7df1 94bb 113f 753c
000000c0: 698a a5bd bd15 80ba e511 4cbc 58c5 1b3c
000000d0: 5592 5abd bf4c 343b 8e86 153d a488 8c3d
000000e0: f4c5 563a a081 ae3d 316b b6bd 1ad2 1abc
000000f0: 2d47 a53c 6694 d93b 3911 fe3c b6c5 5ebd

node_encoder.layers.4.weight f4 [64]
0.9920725 1.0069902 0.9980955 0.9988821 0.9975927 1.0042149 1.0038953 1.0010365
1.0011092 0.99650186 0.9847702 1.0078939 0.99822766 0.99807477 1.0056573 0.99006516
1.0046276 1.0062287 0.99148345 0.9993866 1.0056292 1.0063329 0.9966775 1.0083637
1.0122346 1.0208116 1.0043452 1.0050334 0.983367 0.9960145 0.9912785 0.9858151
0.9994746 1.0119469 1.007486 1.0073597 0.9972973 0.99594724 0.99843866 1.0173225
0.99969053 0.9983298 0.99287224 0.99734575 1.002686 1.0121707 1.0037479 0.9968704
1.0091649 0.99686646 1.0022602 0.9950363 0.9949785 0.99840254 0.9940432 1.0062782
0.995066 1.0038941 0.995236 0.9984022 1.0072603 0.99727 0.99758613 0.9955393
00000000: 77f8 7d3f 0ee5 803f 3083 7f3f bdb6 7f3f
00000010: 3c62 7f3f 1d8a 803f a47f 803f f721 803f
00000020: 5924 803f bf1a 7f3f e619 7c3f ab02 813f
00000030: d98b 7f3f d481 7f3f 61b9 803f e974 7d3f
00000040: a397 803f 1acc 803f dcd1 7d3f cdd7 7f3f
00000050: 75b8 803f 84cf 803f 4226 7f3f 1012 813f
00000060: e790 813f f4a9 823f 628e 803f efa4 803f
00000070: f1bd 7b3f cefa 7e3f 6ec4 7d3f 615e 7c3f
00000080: 91dd 7f3f 7a87 813f 4df5 803f 2af1 803f
00000090: e04e 7f3f 66f6 7e3f ad99 7f3f a037 823f
000000a0: b8eb 7f3f 8b92 7f3f e02c 7e3f 0d52 7f3f
000000b0: 0458 803f cf8e 813f d07a 803f e632 7f3f
000000c0: 512c 813f a432 7f3f 104a 803f b3ba 7e3f
000000d0: e9b6 7e3f 4f97 7f3f 9d79 7e3f b9cd 803f
000000e0: a5bc 7e3f 9a7f 803f c9c7 7e3f 4997 7f3f
000000f0: e8ed 803f 164d 7f3f ce61 7f3f aadb 7e3f

node_encoder.layers.4.bias f4 [64]
-0.00012090623 -0.0009963255 -0.004581842 -0.0031231395 -0.0070085297 0.005151771 0.0020983752 -0.008319992
0.0055715987 -0.00014564977 -0.017466389 0.006098846 0.009043812 -0.00050194224 -0.0046696886 -0.005127055
0.008804475 0.0010050635 0.004047613 0.006247626 0.0032386165 0.014600687 -0.0008523287 0.00018850331
0.010591628 0.012943147 0.004937456 -0.0035560864 -0.006768486 -0.0045296517 -0.0033032033 -0.013318266
-0.00634339 0.008957985 0.0006437283 0.0047751972 -0.0070685456 -0.005625482 0.0054144794 0.013175149
-0.0054785945 0.0026629877 0.004435812 -0.001239641 -0.007887708 0.00825309 0.0054568057 6.201908e-05
0.0069256406 0.0059418916 0.011448219 -0.007504629 -0.005217605 0.0043500694 -0.0028574395 0.011341826
-0.0027788938 -0.010983634 -0.0035798582 -0.008858075 0.0048611257 -0.0039466806 0.010506719 -0.0053777476
00000000: 0a8f fdb8 2397 82ba 4723 96bb 96ad 4cbb
00000010: cfa7 e5bb 30d0 a83b e584 093b 9350 08bc
00000020: f591 b63b 90b9 18b9 ac15 8fbc d4d8 c73b
00000030: 7f2c 143c c694 03ba 3004 99bb db00 a8bb
00000040: a540 103c 56bc 833a d7a1 843b e3b8 cc3b
00000050: f83e 543b b837 6f3c d06e 5fba f9a8 4539
00000060: 8288 2d3c 7e0f 543c 62ca a13b 3b0d 69bb
00000070: 2dca ddbb 796d 94bb 8e7a 58bb db34 5abc
00000080: 36dc cfbb 83c4 123c e0bf 283a 4279 9c3b
00000090: 429f e7bb f755 b8bb f26b b13b 95dc 573c
000000a0: c885 b3bb 8585 2e3b 4a5a 913b 737b a2ba
000000b0: 723b 01bc f837 073c 01cf b23b 3d10 8238
000000c0: 7cf0 e23b 33b4 c23b 5091 3b3c 64e9 f5bb
000000d0: 71f8 aabb 078b 8e3b e143 3bbb 11d3 393c
000000e0: 1a1e 36bb b3f4 33bc 0e9c 6abb 7621 11bc
000000f0: 144a 9f3b 2853 81bb 6024 2c3c d137 b0bb

node_encoder.layers.4.running_mean f4 [64]
-0.15509208 -0.25562307 -0.11449942 -0.020310665 0.006203017 -0.34911224 0.109696254 -0.011494357
0.0066152415 0.15897045 -0.23299395 -0.1738457 0.043047804 -0.084579125 0.3246754 0.10495111
0.06497869 -0.16450825 -0.21016073 0.2330079 -0.04500085 -0.12752105 0.038432423 0.21960191
0.08677201 -0.18798533 -0.052646685 -0.51564896 0.12644534 0.50289166 -0.26639503 -0.454017
-0.063299574 -0.55168617 0.1939378 0.20252869 0.27393797 -0.27496842 0.4712297 -0.15803078
0.31233376 -0.18765381 -0.1259887 0.15032798 0.0091844555 0.12353045 0.19601277 -0.36957338
-0.1590534 -0.11700809 -0.21089642 -0.25406587 -0.16952938 -0.23492214 0.014401743 0.17567317
-0.17470363 0.3400264 0.07172298 0.24623704 -0.037714455 0.13906097 0.13957314 0.07550177
00000000: 75d0 1ebe 07e1 82be ac7e eabd 8d62 a6bc
00000010: ae42 cb3b d7be b2be 6ea8 e03d d452 3cbc
00000020: abc4 d83b 26c9 223e f795 6ebe 9b04 32be
00000030: e552 303d d237 adbd db3b a63e 9cf0 d63d
00000040: 8c13 853d da74 28be 6034 57be 9f99 6e3e
00000050: d052 38bd e194 02be 516b 1d3d 53df 603e
00000060: 86b5 b13d 3a7f 40be 0da4 57bd 9201 04bf
00000070: e37a 013e 82bd 003f ee64 88be eb74 e8be
00000080: 35a3 81bd 4e3b 0dbf a197 463e ae63 4f3e
00000090: 9941 8c3e a9c8 8cbe 0545 f13e d2d2 21be
000000a0: 36ea 9f3e 5228 40be 2f03 01be 94ef 193e
000000b0: 667a 163c 88fd fc3d 92b7 483e b938 bdbe
000000c0: e5de 22be f0a1 efbd 3bf5 57be ec14 82be
000000d0: 1c99 2dbe 6e8f 70be 4af5 6b3c abe3 333e
000000e0: 82e5 32be f117 ae3e 7fe3 923d 9025 7c3e
000000f0: 797a 1abd 0066 0e3e 43ec 0e3e aca0 9a3d

node_encoder.layers.4.running_var f4 [64]
0.11758792 0.095739566 0.08715617 0.11342404 0.08263121 0.02968649 0.25868648 0.18815124
0.19622809 0.084695995 0.034947537 0.088590354 0.15930058 0.18310557 0.042350706 0.056652896
0.10158984 0.12346385 0.050652076 0.061087526 0.07188575 0.23647708 0.19774193 0.02568884
0.14412655 0.14919938 0.19450298 0.04596136 0.032954752 0.11512791 0.07452421 0.20360424
0.04900654 0.06304035 0.070173696 0.10611745 0.10820696 0.34708515 0.17271914 0.05527254
0.12492526 0.15016839 0.13175267 0.216079 0.09008618 0.13750233 0.10713667 0.16459827
0.12606594 0.08515297 0.09173882 0.13048026 0.22272739 0.09338034 0.20005508 0.14011665
0.2163126 0.044987883 0.13508156 0.109802425 0.10153758 0.19725169 0.18906951 0.15307832
00000000: efd1 f03d 1b13 c43d ef7e b23d dd4a e83d
00000010: 8d3a a93d 1531 f33c 8e72 843e b8aa 403e
00000020: 04f0 483e 1875 ad3d 2625 0f3d dc6e b53d
00000030: b11f 233e 0780 3b3e ef77 2d3d de0c 683d
00000040: 560e d03d 9dda fc3d 8d78 4f3d ea36 7a3d
00000050: d638 933d 0c27 723e dc7c 4a3e 6771 d23c
00000060: e995 133e b9c7 183e ca2b 473e fb41 3c3d
00000070: 90fb 063d 2fc8 eb3d 26a0 983d a17d 503e
00000080: 15bb 483d 4d1b 813d 3ab7 8f3d 1b54 d93d
00000090: 9c9b dd3d 25b5 b13e 49dd 303e 7565 623d
000000a0: d1d8 ff3d bec5 193e 2cea 063e d043 5d3e
000000b0: 1a7f b83d 69cd 0c3e 786a db3d 738c 283e
000000c0: 6e17 013e ae64 ae3d 90e1 bb3d 9e9c 053e
000000d0: a612 643e 313e bf3d 3ddb 4c3e bd7a 0f3e
000000e0: 0d81 5d3e 3745 383d d252 0a3e 18e0 e03d
000000f0: eff2 cf3d 59fc 493e 709b 413e 90c0 1c3e

node_encoder.layers.6.weight f4 [32, 64]
0.092192836 -0.10789507 -0.07999449 -0.010392493 -0.11979695 -0.115795076 -0.11097004 0.100848764
0.018195909 -0.04261845 -0.0026570514 -0.114234336 -0.11936244 -0.092214055 -0.12915272 0.078505605
-0.045895703 -0.036572594 -0.109545656 0.012101851 -0.016616711 -0.088741906 0.0743671 0.10030091
-0.09632361 0.07448549 -0.016520215 0.0128797265 0.058705024 -0.028661514 0.10468161 0.073967524
-0.07860794 -0.07523762 -0.13041453 0.03361871 -0.10468231 -0.09993824 -0.08327193 -0.12571423
-0.10577583 0.11107297 0.07318225 0.104816936 -0.060465824 -0.049584985 -0.050570298 -0.008987682
-0.09448998 0.014116972 -0.079998344 0.03469419 0.11104446 0.013820055 0.08574687 -0.09497137
-0.025477545 -0.08769048 -0.01947893 -0.05378883 -0.07697004 -0.11528053 -0.04563935 0.018754136
-0.016976932 -0.10656917 0.07744925 0.08794273 -0.072074264 0.015664568 0.07658178 -0.12314984
-0.10536498 0.06618802 0.007976206 0.0500375 -0.05800039 0.018828359 0.078032576 -0.028205866
-0.045502394 -0.12671262 -0.015133876 0.07630974 -0.12254572 -0.003625203 0.08510802 -0.02224127
-0.048849225 -0.047120523 -0.04738322 0.035425022 -0.11122259 0.040679365 -0.015845146 -0.0010469373
-0.0042326697 0.07341098 -0.07697402 -0.12361238 -0.097453654 -0.09166224 -0.06548469 0.11037317
-0.09157595 -0.07102973 -0.09883141 -0.064173564 0.0049906103 -0.081630856 -0.0011914503 0.0535792
-0.023898738 0.053199016 0.036256053 0.12289256 0.002428026 0.105816655 0.09516678 0.06652423
0.08136341 -0.08980713 -0.07610261 0.046277795 0.041470222 0.10220219 -0.014950161 -0.027508164
0.08736705 0.016889723 0.12520945 -0.059006635 -0.035922196 -0.00795187 0.062254336 -0.11021841
-0.043104693 0.094680905 0.03040801 0.08196905 -0.042749133 -0.07729412 -0.08851408 -0.0705858
-0.08990194 0.0642476 0.043174654 -0.07385392 0.118868604 0.03644517 0.040081955 -0.05720552
0.07865864 -0.089069605 0.09688365 -0.06569324 0.05732808 -0.05238819 0.07947951 -0.105234735
-0.022819199 -0.042843588 -0.08285639 -0.058021963 -0.043640018 0.006648616 0.084325485 -0.016050788
0.11647775 -0.053801686 -0.06030224 -0.0051175696 -0.019318782 0.04141539 0.10841061 0.034830894
-0.10870151 -0.046236146 -0.024871992 -0.10401407 0.045372587 0.10210949 0.06078119 -0.00032611453
-0.015387005 -0.07080658 -0.017060302 0.11101201 -0.07125663 0.022764862 -0.08557733 -0.029832136
0.019359536 -0.09273248 0.040840123 -0.10202378 -0.046473052 0.09102513 0.123248905 -0.0030166644
-0.09332769 -0.094785236 -0.028255325 -0.07096407 0.095330305 -0.08833299 0.08615386 0.01746874
-0.040661342 0.10661391 0.065666415 0.001243613 -0.077739105 -0.045264516 0.04541877 0.10924065
-0.046290316 -0.039834965 -0.11474246 0.08074844 0.1203529 0.07962847 -0.07849563 0.07811779
-0.04439926 0.06624377 0.06862878 -0.09666579 0.033234462 0.05231026 -0.06736839 0.103252806
0.092683844 0.1120721 0.0065490752 -0.06863831 -0.06371577 0.05017927 -0.028445866 0.09152946
0.109078966 0.010013277 -0.11090161 0.047454078 0.11090764 -0.028969148 -0.07277704 -0.028857678
0.011349951 -0.09668812 0.059582364 0.054899488 -0.040159103 -0.03709989 -0.05561686 0.10519553
00000000: 99cf bc3d 17f8 dcbd 27d4 a3bd 4645 2abc
00000010: 1a58 f5bd f825 edbd 4344 e3bd cc89 ce3d
00000020: 960f 953c af90 2ebd ed21 2ebb b1f3 e9bd
00000030: 4c74 f4bd b9da bcbd 9c40 04be 8cc7 a03d
00000040: 22fd 3bbd 25cd 15bd 7959 e0bd d846 463c
00000050: c51f 88bc 51be b5bd c74d 983d 906a cd3d
00000060: 5045 c5bd d98b 983d 6755 87bc 7d05 533c
00000070: ae74 703d 8dcb eabc 5063 d63d 497c 973d
00000080: 33fd a0bd 2e16 9abd 638b 05be c6b3 093d
00000090: ae63 d6bd 6cac ccbd 798a aabd 3bbb 00be
000000a0: 00a1 d8bd 3a7a e33d 93e0 953d 43aa d63d
000000b0: 03ab 77bd a019 4bbd cd22 4fbd 1241 13bc
000000c0: f683 c1bd df4a 673c 2cd6 a3bd 7f1b 0e3d
000000d0: 476b e33d 836d 623c 0e9c af3d 5a80 c2bd
000000e0: 49b6 d0bc 1197 b3bd 4792 9fbc ad51 5cbd
000000f0: 78a2 9dbd 3318 ecbd 54f0 3abd 46a2 993c
00000100: 3513 8bbc f040 dabd b69d 9e3d 511b b43d
00000110: ac9b 93bd fb52 803c e9d6 9c3d fc35 fcbd
00000120: 98c9 d7bd 968d 873d a2ae 023c 1ff4 4c3d
00000130: d191 6dbd ee3d 9a3c 8bcf 9f3d fd0f e7bc
00000140: b860 3abd f4c0 01be 14f4 77bc 4848 9c3d
00000150: 40f9 fabd d094 6dbb 1d4d ae3d 5333 b6bc
00000160: 2016 48bd 7301 41bd e814 42bd d419 113d
00000170: abc8 e3bd 689f 263d aecd 81bc 6339 89ba
00000180: 35b2 8abb 7f58 963d 8ea4 9dbd 7d28 fdbd
00000190: c895 c7bd 6ab9 bbbd d61c 86bd 540b e23d
000001a0: 2c8c bbbd 0978 91bd 1f68 cabd 6e6d 83bd
000001b0: 4688 a33b 142e a7bd 702a 9cba dd75 5b3d
000001c0: 49c7 c3bc 36e7 593d 3a81 143d 18af fb3d
000001d0: 841f 1f3b 67b6 d83d cde6 c23d db3d 883d
000001e0: dca1 a63d cdec b7bd afdb 9bbd c98d 3d3d
000001f0: aedc 293d 624f d13d 85f1 74bc cd58 e1bc
00000200: 7fed b23d 515c 8a3c e836 003e f1b0 71bd
00000210: 2723 13bd 8f48 02bc 67fe 7e3d 31ba e1bd
00000220: 8c8e 30bd 10e8 c13d 381a f93c 64df a73d
00000230: b719 2fbd 614c 9ebd df46 b5bd 4a8f 90bd
00000240: 821e b8bd 3f94 833d e8d7 303d b940 97bd
00000250: 6271 f33d 8847 153d fa2c 243d 5650 6abd
00000260: c817 a13d 206a b6bd ef6a c63d 2d8a 86bd
00000270: d9d0 6a3d 0095 56bd 27c6 a23d 4f85 d7bd
00000280: 54ef babc c27c 2fbd 9cb0 a9bd 70a8 6dbd
00000290: e0bf 32bd a2dc d93b d7b2 ac3d f17c 83bc
000002a0: e38b ee3d 285f 5cbd 7bff 76bd 49b1 a7bb
000002b0: 6c42 9ebc 2fa3 293d 6206 de3d d7aa 0e3d
000002c0: e69e debd 1d62 3dbd 59c0 cbbc 5405 d5bd
000002d0: 9bd8 393d c81e d13d b2f5 783d 5afa aab9
000002e0: c719 7cbc 0a03 91bd 0cc2 8bbc 445a e33d
000002f0: ffee 91bd 607d ba3c 2b43 afbd 8662 f4bc
00000300: e497 9e3c 87ea bdbd f947 273d d8f1 d0bd
00000310: 875a 3ebd 626b ba3d ec69 fc3d 3bb3 45bb
00000320: 9722 bfbd c31e c2bd b677 e7bc 9c55 91bd
00000330: 893c c33d ede7 b4bd 6f71 b03d 9a1a 8f3c
00000340: 828c 26bd 6558 da3d 1d7c 863d ba00 a33a
00000350: ae35 9fbd 4967 39bd 0809 3a3d 90b9 df3d
00000360: ea9a 3dbd fd29 23bd 18fe eabd 705f a53d
00000370: 957b f63d 4014 a33d 51c2 a0bd 38fc 9f3d
00000380: 00dc 35bd d0aa 873d 3f8d 8c3d b7f8 c5bd
00000390: dc20 083d 4843 563d 70f8 89bd 3576 d33d
000003a0: 07d1 bd3d 0f86 e53d a099 d63b 3e92 8cbd
000003b0: 6a7d 82bd c788 4d3d 4e07 e9bc cc73 bb3d
000003c0: cb64 df3d ba0e 243c 6220 e3bd 355f 423d
000003d0: 8b23 e33d b550 edbc 210c 95bd f066 ecbc
000003e0: 25f5 393c 6c04 c6bd a30c 743d 49de 603d
000003f0: df7d 24bd 0ef6 17bd 81ce 63bd c170 d73d

node_encoder.layers.6.bias f4 [32]
0.049109332 0.03074474 0.04162741 -0.002337167 -0.0700814 -0.00015114516 0.08503021 0.07919837
-0.045197066 0.057379626 0.02848651 4.338526e-05 0.040027272 -0.00071400835 -0.002453501 -0.053350545
0.0024747183 0.09329556 0.04900069 -0.07217731 -0.00032944503 0.051128983 -0.025920523 0.0024652071
0.034340218 0.0761752 0.08442169 -0.061613224 -0.08876064 0.05968479 0.0010257777 0.08387638
00000000: de26 493d 65dc fb3c 8181 2a3d 282b 19bb
00000010: d686 8fbd b87c 1eb9 5224 ae3d c132 a23d
00000020: 8f20 39bd e606 6b3d 8b5c e93c 91f8 3538
00000030: a3f3 233d 4a2c 3bba ebca 20bb 1a86 5abd
00000040: e22e 223b be11 bf3d f3b4 483d b3d1 93bd
00000050: 5db9 acb9 a06c 513d 4757 d4bc 508f 213b
00000060: 54a8 0c3d be01 9c3d 47e5 ac3d 265e 7cbd
00000070: 23c8 b5bd 0a78 743d 6373 863a 61c7 ab3d

edge_encoder.layers.0.weight f4 [64, 4]
0.3498453 -0.20206413 0.14169855 0.1579598 -0.1692551 0.4591636 0.048573937 -0.1612377
-0.45880228 0.4039345 -0.49076158 0.38538772 -0.16205306 -0.09279865 0.08134309 0.47869352
-0.3109603 -0.35084742 0.3150611 -0.22355731 -0.18244576 0.2818148 -0.21348298 0.3025912
-0.2054001 0.38727754 0.48964694 0.057477426 -0.15681754 0.2707171 0.14998323 0.006105326
0.43128487 -0.017266726 0.18871501 -0.13560699 -0.083807856 -0.02887582 0.041566722 0.21834473
0.37370297 0.2998262 -0.21408927 0.4300271 0.32465932 0.19017503 0.05611239 -0.26892638
-0.30905986 0.011854293 -0.35986212 0.1741811 -0.45836025 -0.44484755 -0.21840735 0.2736409
0.4039189 -0.42123017 -0.30664653 0.09700162 -0.08867985 -0.40704864 0.14152129 -0.40188622
0.022281785 0.20459133 0.457593 -0.41952792 0.36655572 0.06496495 0.43862492 0.48877844
-0.11274444 -0.080817975 -0.1274112 0.38318545 -0.2188277 0.33296734 0.20416057 0.45902094
0.35598826 0.3953415 -0.41277558 -0.25404775 -0.35764465 0.23871522 0.10298724 0.18273051
0.19446045 0.028972564 0.18359722 -0.27655494 0.32260206 -0.43859026 -0.45416638 0.16824536
0.46704656 -0.17436732 0.47180626 -0.17980857 -0.38314742 -0.080479294 0.27233052 -0.2514525
0.46802288 -0.23221627 -0.21881944 -0.2079848 -0.38889658 0.4590949 -0.2817311 -0.23522776
-0.141438 0.4134981 0.24860464 0.19863905 -0.14313881 0.24589403 0.08331519 0.40363628
0.117777176 0.37363788 0.3362418 0.08164522 -0.47192127 0.11257996 -0.38006738 0.07546148
-0.046849035 0.3831953 -0.3711656 -0.40191874 0.21250053 0.341257 -0.11149293 0.14095154
0.40127516 0.060920764 -0.13842992 0.2926317 0.45859006 -0.09287452 0.3297345 0.026724292
-0.0883966 -0.044917982 -0.4982441 0.23026717 -0.2670688 -0.43432653 -0.06442412 -0.18656613
-0.31030682 -0.11063449 -0.053510427 0.15139474 0.07144683 -0.05994719 0.10956439 -0.32118315
0.4311801 0.23301117 0.30860895 -0.43854418 0.33256763 0.08685106 -0.48948133 0.46742028
-0.007451532 0.10614824 0.39802194 0.33490404 0.43949944 -0.46670118 0.4942026 0.10426834
0.016377654 -0.4029091 -0.26003578 0.466433 0.38458717 0.38106105 -0.035170853 -0.27435833
0.110108785 -0.2313062 -0.331923 0.16592227 0.38224646 -0.3937272 -0.43756518 0.07104356
-0.18355407 -0.26211697 -0.09909773 -0.031939328 -0.14564297 0.3557368 0.27886745 0.15009168
-0.16166957 -0.034563825 0.32240802 0.042567108 -0.48302728 0.05859126 0.26028726 -0.12471289
-0.104615144 -0.074601024 0.29504487 0.39653978 -0.39186525 0.33008787 0.20388292 0.16855027
-0.30038786 -0.28382277 0.48307434 0.109581366 -0.10628773 -0.09542727 0.3397076 -0.10943617
0.3426682 -0.13291174 0.114399984 0.11630808 -0.26211163 0.014294847 0.0959085 -0.47575334
-0.09302981 0.03578301 0.41588393 0.10704327 -0.43015823 -0.1555756 0.48550355 -0.07372974
0.37338668 0.047036972 0.33158857 -0.20735207 0.4850099 0.10702366 -0.10863705 0.37666318
0.2375172 -0.34869596 -0.025179554 0.3481048 0.12843077 -0.14991733 -0.3342713 -0.33744675
00000000: ec1e b33e e6e9 4ebe 6d19 113e 37c0 213e
00000010: 3551 2dbe 7e17 eb3e 77f5 463d 7f1b 25be
00000020: 22e8 eabe 81d0 ce3e 1a45 fbbe 8a51 c53e
00000030: 3df1 25be 380d bebd 3597 a63d 5117 f53e
00000040: 3036 9fbe 46a2 b3be b04f a13e 35ec 64be
00000050: 10d3 3abe 084a 903e 489b 5abe 3ced 9a3e
00000060: 6754 52be 3e49 c63e 01b3 fa3e 736d 6b3d
00000070: c794 20be 6f9b 8a3e 3495 193e 300f c83b
00000080: 5fd1 dc3e f372 8dbc 823e 413e 8fdc 0abe
00000090: 74a3 abbd fc8c ecbc de41 2a3d c395 5f3e
000000a0: ff55 bf3e d282 993e 383a 5bbe 832c dc3e
000000b0: bf39 a63e 3ebd 423e 1bd6 653d b8b0 89be
000000c0: 183d 9ebe 8238 423c d93f b8be 885c 323e
000000d0: 32ae eabe 0fc3 e3be 2da6 5fbe a91a 8c3e
000000e0: 75ce ce3e 7bab d7be c600 9dbe c9a8 c63d
000000f0: c89d b5bd ae68 d0be f5ea 103e 08c4 cdbe
00000100: 4a88 b63c 6480 513e a149 ea3e 5dcc d6be
00000110: 31ad bb3e 580c 853d 7293 e03e 2b41 fa3e
00000120: 8fe6 e6bd e583 a5bd 1578 02be e230 c43e
00000130: 5e14 60be b27a aa3e 780f 513e cb04 eb3e
00000140: 1844 b63e 336a ca3e 5257 d3be 8c12 82be
00000150: 331d b7be c371 743e f9ea d23d b51d 3b3e
00000160: a420 473e df57 ed3c e900 3c3e 9c98 8dbe
00000170: 192c a53e e78e e0be 7f88 e8be 8348 2c3e
00000180: ba20 ef3e 598d 32be 9790 f13e bd1f 38be
00000190: e62b c4be 54d2 a4bd e86e 8b3e 62be 80be
000001a0: b2a0 ef3e 1aca 6dbe 3412 60be f8f9 54be
000001b0: 741d c7be 7d0e eb3e 0f3f 90be 8cdf 70be
000001c0: 20d5 10be 06b6 d33e 3792 7e3e 0968 4b3e
000001d0: fb92 12be a5cb 7b3e 28a1 aa3d 6aa9 ce3e
000001e0: 2935 f13d 774d bf3e e327 ac3e 9c35 a73d
000001f0: aa9f f1be 5290 e63d 3198 c2be 8c8b 9a3d
00000200: c6e4 3fbd 2d32 c43e 6b09 bebe 4bc8 cdbe
00000210: bd99 593e 3db9 ae3e 6856 e4bd 9a55 103e
00000220: f073 cd3e 0d88 793d 93c0 0dbe d2d3 953e
00000230: 51cc ea3e ff34 bebd f6d2 a83e e7ec da3c
00000240: 4709 b5bd ebfb 37bd da19 ffbe 28cb 6b3e
00000250: 3ebd 88be 0c60 debe cbf0 83bd 310b 3fbe
00000260: 89e0 9ebe 5694 e2bd c02d 5bbd 3907 1b3e
00000270: b752 923d 2f8b 75bd 4b63 e03d 1e72 a4be
00000280: a3c3 dc3e 7b9a 6e3e fe01 9e3e dd88 e0be
00000290: 4e46 aa3e f8de b13d 4c9d fabe b651 ef3e
000002a0: fb2b f4bb 4064 d93d 88c9 cb3e 8b78 ab3e
000002b0: 1206 e13e 75f3 eebe 2008 fd3e a48a d53d
000002c0: 6e2a 863c 1a4a cebe 6923 85be 4ed0 ee3e
000002d0: 9ce8 c43e 6f1a c33e 500f 10bd b278 8cbe
000002e0: b780 e13d 88db 6cbe d0f1 a9be 87e7 293e
000002f0: cfb5 c33e 9d96 c9be 8b08 e0be 497f 913d
00000300: 99f5 3bbe 3234 86be c0f3 cabd d0d2 02bd
00000310: 6e23 15be 2223 b63e b7c7 8e3e a2b1 193e
00000320: b58c 25be cc92 0dbd aa12 a53e d95a 2e3d
00000330: 5a4f f7be 64fd 6f3d 5f44 853e 7969 ffbd
00000340: 7740 d6bd 6cc8 98bd 1f10 973e 4307 cb3e
00000350: 90a2 c8be 4701 a93e afc6 503e 7198 2c3e
00000360: 70cc 99be 3851 91be 8555 f73e 326c e03d
00000370: 62ad d9bd 5f6f c3bd 28ee ad3e 1220 e0bd
00000380: 3572 af3e 041a 08be 8a4a ea3d ee32 ee3d
00000390: 7f33 86be ef34 6a3c ad6b c43d f195 f3be
000003a0: 6a86 bebd 3591 123d bdee d43e 8039 db3d
000003b0: b33d dcbe 364f 1fbe ec93 f83e 9eff 96bd
000003c0: 8a2c bf3e d7a9 403d fac5 a93e 1a54 54be
000003d0: 3853 f83e 382f db3d 1a7d debd ffd9 c03e
000003e0: b537 733e 4788 b2be 5a45 cebc cb3a b23e
000003f0: 5b83 033e ee83 19be 9c25 abbe d2c5 acbe

edge_encoder.layers.0.bias f4 [64]
0.24833159 0.19673453 -0.4133073 -0.07379912 0.09744779 -0.4126256 0.40114796 -0.025739843
-0.17365664 0.027965443 0.15125053 0.08214609 0.4443926 0.25185993 -0.021141946 0.056513466
0.09210441 -0.1688687 -0.39869317 -0.025606476 -0.16103233 -0.44254252 0.1489384 -0.18031499
0.44892952 0.14944275 0.18344902 0.11650546 0.16556753 0.2904804 0.33760634 -0.0030018
-0.11254066 0.106305405 -0.19608966 -0.001673935 0.11676267 0.19390744 -0.45385766 0.16417956
-0.16416173 -0.32248586 -0.18345343 0.0015073816 0.21667981 -0.4155552 0.10664955 0.42073065
-0.25287053 0.09043836 -0.17155859 0.09385733 0.18701632 -0.27835745 0.09060534 0.46441406
0.009163203 -0.3252186 0.0006059658 0.08131201 0.124687575 -0.009987067 -0.07823768 -0.21904597
00000000: a34a 7e3e c774 493e 049d d3be fe23 97bd
00000010: b592 c73d aa43 d3be 4463 cd3e 5ddc d2bc
00000020: 0cd3 31be c917 e53c 6be1 1a3e 363c a83d
00000030: 6d87 e33e c9f3 803e e031 adbc aa7a 673d
00000040: 3da1 bc3d ebeb 2cbe 8321 ccbe acc4 d1bc
00000050: a9e5 24be ef94 e2be 4f83 183e 7ea4 38be
00000060: 17da e53e 8507 193e 0fda 3b3e 6a9a ee3d
00000070: 898a 293e d9b9 943e bdda ac3e d9b9 44bb
00000080: b87b e6bd a6b6 d93d bacb 48be f067 dbba
00000090: 4421 ef3d ac8f 463e 0860 e8be b01e 283e
000000a0: 031a 28be de1c a5be 37db 3bbe 5593 c53a
000000b0: 50e1 5d3e a7c3 d4be 146b da3d 026a d73e
000000c0: 3f78 81be bf37 b93d 0ead 2fbe 4638 c03d
000000d0: 3581 3f3e de84 8ebe 4b8f b93d aec7 ed3e
000000e0: 4221 163c 0d83 a6be add9 1e3a e986 a63d
000000f0: 335c ff3d cca0 23bc 143b a0bd 964d 60be

edge_encoder.layers.1.weight f4 [64]
0.9885338 0.98650426 0.99465704 1.0034671 0.99488693 1.0063077 0.98909277 1.0060085
1.0024103 0.99293625 1.0056311 0.99485505 0.9857189 0.9895381 0.99086106 0.9918042
0.9842067 0.9939857 0.9845527 0.9953282 0.9910367 0.9888451 0.992025 0.9904943
0.99189806 0.99694544 0.9877036 1.0074996 0.99587077 0.99099165 0.99270815 0.9902955
1.0044818 0.9939605 0.9929826 0.991511 0.9927197 0.9880135 0.9962489 0.99116594
0.9915108 0.9961552 0.9941254 1.0008049 1.0001091 0.99093205 1.0046694 0.989072
0.9877825 0.989079 0.9980407 0.98676443 0.98379517 0.993601 1.0044205 0.9959148
0.9903133 1.0054685 0.99590886 0.99746233 0.99954087 1.0043465 0.99019784 1.0040412
00000000: 8d10 7d3f 8b8b 7c3f d8a1 7e3f 9c71 803f
00000010: e9b0 7e3f b1ce 803f 2f35 7d3f e3c4 803f
00000020: fb4e 803f 1231 7e3f 85b8 803f d2ae 7e3f
00000030: 1358 7c3f 5e52 7d3f 12a9 7d3f e1e6 7d3f
00000040: f8f4 7b3f d975 7e3f a50b 7c3f d4cd 7e3f
00000050: 95b4 7d3f f424 7d3f 5af5 7d3f 0991 7d3f
00000060: 08ed 7d3f d137 7f3f 25da 7c3f bff5 803f
00000070: 63f1 7e3f a1b1 7d3f 1f22 7e3f 0284 7d3f
00000080: dc92 803f 3274 7e3f 1c34 7e3f aad3 7d3f
00000090: e122 7e3f 74ee 7c3f 2b0a 7f3f 0dbd 7d3f
000000a0: a7d3 7d3f 0704 7f3f 017f 7e3f 601a 803f
000000b0: 9303 803f b9ad 7d3f 0299 803f d333 7d3f
000000c0: 50df 7c3f 4834 7d3f 987f 7f3f 989c 7c3f
000000d0: 00da 7b3f a35c 7e3f da90 803f 46f4 7e3f
000000e0: 2c85 7d3f 31b3 803f e2f3 7e3f b159 7f3f
000000f0: e9e1 7f3f 6d8e 803f 9b7d 7d3f 6c84 803f

edge_encoder.layers.1.bias f4 [64]
-0.0050614006 -0.005583657 -0.0050766175 0.006441914 0.0006457112 0.008110012 -0.008465145 0.008264161
0.004282277 0.005075996 0.007313525 -0.0007460378 -0.008571783 -0.009515287 -0.008780865 -0.005553625
-0.013961198 -0.0053544757 -0.014869518 -0.0030762702 -0.004622501 -0.007728264 -0.0055170963 -0.005753214
-0.0051097544 -0.0010364369 -0.002708147 0.008869256 -0.00071341 -0.005749373 -0.0054474757 -0.007818974
0.0051999087 -0.002275646 -0.0046756174 -0.007899795 -0.0076747495 -0.015626736 0.0038942164 -0.0076894914
-0.0060543013 -0.0019303986 -0.0052872864 0.005072126 0.0032057904 -0.007803094 0.00653693 -0.008100827
-0.010128217 -0.009550833 -0.0006663552 -0.010639599 -0.014303481 -0.005491479 0.00864448 -0.0038387752
-0.0067413887 0.009039919 -0.0031837511 0.0015928873 0.0012674578 0.005876123 -0.010052759 0.005603759
00000000: 1bda a5bb 1cf7 b6bb c159 a6bb b116 d33b
00000010: f244 293a dbdf 043c 64b1 0abc 6766 073c
00000020: 5852 8c3b 8a54 a63b 4ba6 ef3b c091 43ba
00000030: aa70 0cbc 02e6 1bbc 9edd 0fbc 2ffb b5bb
00000040: 82bd 64bc 9974 afbb 479f 73bc 409b 49bb
00000050: 5978 97bb 613d fdbb c2c8 b4bb 7585 bcbb
00000060: ba6f a7bb 0dd9 87ba 2b7b 31bb 5b50 113c
00000070: 2204 3bba 3d65 bcbb bd80 b2bb 271b 00bc
00000080: ff63 aa3b 0123 15bb ec35 99bb 246e 01bc
00000090: 777c fbbb a403 80bc 1c36 7f3b 21f8 fbbb
000000a0: 2963 c6bb 6e05 fdba f940 adbb 1434 a63b
000000b0: 3d18 523b 19b1 ffbb be33 d63b 55b9 04bc
000000c0: d2f0 25bc 197b 1cbc 57ae 2eba b651 2ebc
000000d0: 2659 6abc ddf1 b3bb 94a1 0d3c f693 7bbb
000000e0: dee6 dcbb 2b1c 143c 7ba6 50bb 6ec8 d03a
000000f0: d420 a63a 7e8c c03b 54b4 24bc bd9f b73b

edge_encoder.layers.1.running_mean f4 [64]
0.2601403 0.18932314 -0.39861074 -0.05738855 0.09019122 -0.40323845 0.3985365 -0.033531692
-0.18502207 0.04111438 0.17546535 0.073048525 0.45934182 0.27306744 -0.012967558 0.044211905
0.07097987 -0.15621099 -0.3838557 -0.014623165 -0.17404854 -0.44209233 0.13906077 -0.16770746
0.4417385 0.13913968 0.18377534 0.109298 0.17216374 0.3091297 0.33867723 -4.8454393e-05
-0.13339823 0.115880586 -0.18536061 -0.005190961 0.13715048 0.19333772 -0.45024788 0.1535991
-0.19228782 -0.30015534 -0.1783668 0.005351865 0.24761188 -0.4332984 0.12404142 0.43662754
-0.25562638 0.09502354 -0.17765968 0.088077195 0.20573741 -0.28071544 0.095733024 0.45990074
0.01821412 -0.35198706 -0.0006769106 0.076992966 0.116374575 0.004733313 -0.06350174 -0.23282708
00000000: 1c31 853e eddd 413e b516 ccbe 4210 6bbd
00000010: 2db6 b83d 4575 cebe fa0c cc3e 8758 09bd
00000020: 6d76 3dbe 8d67 283d 30ad 333e 779a 953d
00000030: da2e eb3e 7fcf 8b3e e175 54bc 8b17 353d
00000040: e55d 913d c6f5 1fbe bc88 c4be 0096 6fbc
00000050: c839 32be ed59 e2be f265 0e3e 81bb 2bbe
00000060: 8c2b e23e a27a 0e3e 9a2f 3c3e a1d7 df3d
00000070: b14b 303e 3f46 9e3e 1a67 ad3e 823b 4bb8
00000080: 8c99 08be cd52 ed3d 2ccf 3dbe f018 aabb
00000090: 2d71 0c3e 53fa 453e e486 e6be 1549 1d3e
000000a0: 19e7 44be f6ad 99be c9a5 36be b35e af3b
000000b0: f88d 7d3e 4ad9 ddbe 6e09 fe3d a58d df3e
000000c0: 76e1 82be b49b c23d 6bec 35be d161 b43d
000000d0: d4ac 523e efb9 8fbe ad0f c43d 1c78 eb3e
000000e0: c735 953c a637 b4be b472 31ba 7dae 9d3d
000000f0: cb55 ee3d e819 9b3b 330d 82bd 396a 6ebe

edge_encoder.layers.1.running_var f4 [64]
0.041394092 0.029749723 0.23046038 0.012038403 0.10210884 0.048997846 0.19995134 0.029856762
0.058877405 0.004350755 0.06747781 0.025220845 0.11279429 0.090589106 0.11673851 0.034340434
0.15970713 0.16507247 0.016339604 0.0520846 0.16300637 0.037221674 0.032847326 0.1901654
0.20440851 0.08110386 0.079656065 0.10707473 0.06748226 0.016830904 0.10036042 0.14641978
0.11727181 0.029762302 0.04319479 0.11766689 0.18443435 0.035080142 0.021156687 0.011810082
0.1075354 0.19651042 0.11983178 0.23544578 0.06782474 0.04128977 0.08974449 0.18286167
0.021229867 0.07474202 0.08224488 0.09104656 0.06828796 0.069666296 0.19580327 0.08890887
0.032971732 0.020310488 0.12997408 0.20755136 0.10559372 0.050941754 0.02433762 0.08860063
00000000: da8c 293d b1b5 f33c cefd 6b3e b93c 453c
00000010: 711e d13d f7b1 483d 0bc0 4c3e 2b96 f43c
00000020: 6f29 713d c790 8e3b ce31 8a3d f29b ce3c
00000030: b100 e73d c886 b93d 9a14 ef3d 8ea8 0c3d
00000040: 448a 233e c208 293e a2da 853c a956 553d
00000050: 24eb 263e c175 183d eb8a 063d b8ba 423e
00000060: 7750 513e c819 a63d b822 a33d ff49 db3d
00000070: 2434 8a3d f7e0 893c c489 cd3d 11ef 153e
00000080: 342c f03d 12d0 f33c 05ed 303d 57fb f03d
00000090: 5cdc 3c3e 32b0 0f3d ca50 ad3c 137f 413c
000000a0: 853b dc3d 073a 493e 5d6a f53d b318 713e
000000b0: b3e7 8a3d 761f 293d f6cb b73d 1740 3b3e
000000c0: 42ea ad3c 5812 993d 0170 a83d 9e76 ba3d
000000d0: 8fda 8b3d 34ad 8e3d a780 483e db15 b63d
000000e0: 5e0d 073d 2e62 a63c ed17 053e 5888 543e
000000f0: 8541 d83d 4da8 503d b05f c73c 3f74 b53d
