gnn/gnn_outputs/checkpoint_epoch_40.pt (torch, 971484 bytes, 208 tensors)

node_encoder.layers.0.weight f4 [64, 3]
0.44689643 0.47333056 -0.14039975 0.5368325 -0.123092614 0.10704419 -0.26847768 0.34819958
0.51690793 -0.41185644 0.5148123 0.09358934 0.4298599 0.072504975 0.27558842 -0.09074673
0.4369192 0.09247284 -0.28000727 0.15139352 -0.24991839 -0.0658548 -0.22602355 0.39057586
-0.46053663 -0.25550222 -0.16497375 -0.33818072 0.05858924 -0.57856464 0.51736647 -0.4915843
0.44955522 0.099077664 -0.1774001 0.3630791 0.09010622 0.4699896 0.057761606 -0.18231717
0.15306422 -0.16248122 0.24171388 0.49720725 0.3469878 -0.23539893 0.3456201 0.10141437
0.29489458 -0.34494403 -0.57961 -0.22072 -0.4573257 0.46341258 0.16199835 0.23979503
0.19058488 -0.013179547 0.46015546 -0.40172973 0.030910987 -0.4006351 0.17156953 -0.19806412
0.17376597 -0.12295979 0.48013762 -0.34831434 -0.33940792 -0.3553821 0.50712717 0.19004366
0.5505455 -0.47669265 -0.57558405 -0.45429206 -0.39030325 0.22627147 0.20227858 0.4868554
-0.29148948 -0.3774793 0.31733972 -0.23222719 0.34963033 -0.14269264 0.32600418 -0.46902987
-0.2806922 0.17809254 0.12470482 -0.13921572 0.35134456 0.3878016 -0.42327407 -0.30540577
0.5294134 -0.20449808 -0.19991004 -0.5524205 -0.33638194 0.14203759 -0.08582041 -0.40935406
0.00397153 -0.40005675 -0.50788224 -0.30243146 -0.5097693 -0.36629596 0.5720594 0.10980387
0.18851903 -0.5263909 -0.3790272 -0.19077058 0.09270123 -0.504248 -0.24694604 -0.3510216
0.0100584375 -0.22208077 -0.033212934 -0.40609348 -0.39774978 -0.3270718 -0.20177971 -0.45865482
0.48052335 -0.11177634 0.48380744 0.19407998 -0.4870638 0.40993714 -0.15676813 -0.22674069
-0.47972217 -0.57135344 0.17371428 -0.12133666 0.21249261 -0.47401524 0.4261927 -0.4251517
-0.10222735 0.114481755 0.30678937 0.48212767 0.52347815 -0.4454655 0.1431652 -0.25983873
-0.05562605 -0.43668213 0.5194021 -0.42991686 0.31452462 0.19118828 0.19125266 -0.3069603
0.52973247 0.12367058 0.07511872 -0.51575994 0.2341756 -0.07974128 -0.26184762 0.49908966
0.13157617 -0.31768212 -0.29213017 -0.035922825 0.32012305 -0.14902906 -0.318861 -0.20321703
-0.44437465 0.19372284 0.43599215 -0.55611664 0.14878784 0.2835637 0.11423881 -0.21224451
0.2948739 0.30934575 0.21491341 -0.10029353 -0.15248503 0.067533486 -0.09374069 -0.18054044
00000000: 9ccf e43e 6258 f23e f4c4 0fbe db6d 093f
00000010: fb17 fcbd fc39 db3d e875 89be 3747 b23e
00000020: 1454 043f d9de d2be bdca 033f c5ab bf3d
00000030: 9916 dc3e 7d7d 943d ed19 8d3e 6cd9 b9bd
00000040: e0b3 df3e 6662 bd3d 1d5d 8fbe e706 1b3e
00000050: 9bea 7fbe e2de 86bd b872 67be 8ff9 c73e
00000060: 75cb ebbe 30d1 82be e1ee 28be 0626 adbe
00000070: 45fb 6f3d d01c 14bf 2172 043f f0b0 fbbe
00000080: 1a2c e63e 3be9 ca3d 5fa8 35be 81e5 b93e
00000090: 9c89 b83d 7aa2 f03e 6f97 6c3d 5ab1 3abe
000000a0: debc 1c3e 7a61 26be d883 773e f391 fe3e
000000b0: 63a8 b13e 6b0c 71be 1ef5 b03e 56b2 cf3d
000000c0: 6cfc 963e 819c b0be 5261 14bf 6c04 62be
000000d0: 9826 eabe 6a44 ed3e e5e2 253e d48c 753e
000000e0: af28 433e 07ef 57bc 7f99 eb3e 85af cdbe
000000f0: 0a39 fd3c 0b20 cdbe ecaf 2f3e 52d1 4abe
00000100: b5ef 313e 58d2 fbbd 99d4 f53e 4256 b2be
00000110: e0c6 adbe a5f4 b5be 16d3 013f ce9a 423e
00000120: 8df0 0c3f 0f11 f4be 7a59 13bf f898 e8be
00000130: d4d5 c7be b5b3 673e 1e22 4f3e 1c45 f93e
00000140: 1c3e 95be f844 c1be 5a7a a23e f7cc 6dbe
00000150: bf02 b33e 051e 12be 05ea a63e af24 f0be
00000160: e3b6 8fbe e45d 363e 3e65 ff3d 918e 0ebe
00000170: 6fe3 b33e ee8d c63e 61b7 d8be 255e 9cbe
00000180: a387 073f f267 51be 38b5 4cbe 6e6b 0dbf
00000190: 413a acbe 4d72 113e 9cc2 afbd db96 d1be
000001a0: 9c23 823b 3dd4 ccbe 9204 02bf 4cd8 9abe
000001b0: 3e80 02bf 258b bbbe 7c72 123f dae0 e03d
000001c0: 220b 413e 8ec1 06bf da0f c2be 5d59 43be
000001d0: 24da bd3d 6616 01bf 6cdf 7cbe 1ab9 b3be
000001e0: 25cc 243c 2469 63be 490a 08bd 7ceb cfbe
000001f0: dca5 cbbe f475 a7be 579f 4ebe ced4 eabe
00000200: 2807 f63e feea e4bd 9cb5 f73e e7bc 463e
00000210: 6d60 f9be 48e3 d13e d387 20be b62e 68be
00000220: 259e f5be 3844 12bf 28e2 313e 5b7f f8bd
00000230: aa97 593e 20b2 f2be ee35 da3e 7cad d9be
00000240: 935c d1bd 6975 ea3d 7f13 9d3e 70d9 f63e
00000250: aa02 063f 0e14 e4be e699 123e 9509 85be
00000260: 24d8 63bd cd94 dfbe 89f7 043f 101e dcbe
00000270: 5f09 a13e dcc6 433e bdd7 433e e729 9dbe
00000280: 8c9c 073f 0047 fd3d d8d7 993d d808 04bf
00000290: bacb 6f3e 654f a3bd e410 86be ae88 ff3e
000002a0: e7bb 063e 3ba7 a2be 1692 95be d023 13bd
000002b0: 2be7 a33e 139b 18be c041 a3be 2018 50be
000002c0: 1385 e3be 485f 463e 5d3a df3e a95d 0ebf
000002d0: d75b 183e 432f 913e 0af6 e93d a056 59be
000002e0: b6f9 963e 9162 9e3e 4312 5c3e b266 cdbd
000002f0: 0925 1cbe ff4e 8a3d 1efb bfbd 98df 38be

node_encoder.layers.0.bias f4 [64]
0.32962403 0.45662093 -0.02174522 -0.09104105 0.0007343994 -0.0034804589 0.10043412 0.1231778
-0.48478305 -0.1741203 0.44663838 0.18584622 1.6915676e-06 -0.3086965 -0.31382874 -0.4775708
-0.14937426 0.1561057 0.32875922 0.22737637 -0.47074926 -0.30782643 -0.053736366 0.5188892
0.046438754 -0.11101147 0.19976583 -0.18088506 -0.33426487 0.3819042 -0.22334412 -0.0777132
-0.53472084 0.34695432 0.39790446 0.17146169 -0.36309496 -0.53017074 -0.4293696 0.39101902
0.23795582 0.44627672 0.26316574 0.107651636 -0.00012957833 -0.3995658 -0.45505998 -0.50041294
0.19725917 -0.24422064 -0.07811857 -0.2929051 -0.06743594 -0.36688077 -0.3378324 0.15266478
-0.13290237 0.31702393 -0.14643122 -0.38401872 -0.064140074 -0.24063937 -0.13793708 -0.5100697
00000000: 7bc4 a83e 38ca e93e 0823 b2bc bb73 babd
00000010: b684 403a 6918 64bb 67b0 cd3d a444 fc3d
00000020: 7c35 f8be 984c 32be c9ad e43e 794e 3e3e
00000030: d209 e335 780d 9ebe 29ae a0be 2984 f4be
00000040: 91f5 18be 2cda 1f3e 2153 a83e 5ad5 683e
00000050: 0c06 f1be 6d9b 9dbe aa1a 5cbd ecd5 043f
00000060: 9036 3e3d fb59 e3bd 6a8f 4c3e ef39 39be
00000070: c424 abbe f388 c33e 52b4 64be 1928 9fbd
00000080: 77e3 08bf ffa3 b13e 22ba cb3e a793 2f3e
00000090: 95e7 b9be 45b9 07bf 55d6 dbbe a533 c83e
000000a0: b1aa 733e 627e e43e a9bd 863e 7678 dc3d
000000b0: 6bdf 07b9 e393 ccbe 9ffd e8be 101b 00bf
000000c0: 4ffe 493e fa14 7abe a1fc 9fbd a8f7 95be
000000d0: db1b 8abd ccd7 bbbe 5ef8 acbe 2854 1c3e
000000e0: 8f17 08be f650 a23e 11f2 15be 1a9e c4be
000000f0: df5b 83bd 2b6a 76be 613f 0dbe ee93 02bf

node_encoder.layers.1.weight f4 [64]
1.0055741 0.9963863 0.99147254 1.0004237 0.99336654 1.0055928 0.9823869 1.004535
0.99562114 0.9928989 0.9989253 1.0051214 1.0011252 1.0153662 0.99191654 1.0009272
0.9850119 0.99408597 0.98776263 1.0028356 1.0051998 0.9908542 1.0035319 0.99482805
1.0070003 1.0076525 1.0012345 1.0157037 0.9935015 1.0049032 1.002092 1.0066447
0.99831206 1.0055063 1.0106832 1.00304 1.0095218 1.0078675 0.99607956 0.9912792
1.00342 0.99880207 1.0055598 1.0001106 0.99966556 0.9914614 1.0064778 1.0054967
0.99747074 0.99294823 1.0132408 1.0138923 0.99138147 1.0024176 0.9937309 0.99479616
0.98815703 0.9982891 0.9919528 1.0054964 0.98984003 0.9873904 0.99014467 0.9873865
00000000: a7b6 803f 2c13 7f3f 25d1 7d3f e20d 803f
00000010: 454d 7e3f 44b7 803f b57d 7b3f 9a94 803f
00000020: 07e1 7e3f 9f2e 7e3f 92b9 7f3f d1a7 803f
00000030: df24 803f 85f7 813f 3eee 7d3f 621e 803f
00000040: bd29 7c3f 6b7c 7e3f 03de 7c3f eb5c 803f
00000050: 63aa 803f 9fa8 7d3f bc73 803f 0dad 7e3f
00000060: 63e5 803f c2fa 803f 7428 803f 9402 823f
00000070: 1d56 7e3f aba0 803f 8d44 803f bcd9 803f
00000080: 6191 7f3f 6eb4 803f 115e 813f 9d63 803f
00000090: 0338 813f cd01 813f 12ff 7e3f 79c4 7d3f
000000a0: 1170 803f 7eb1 7f3f 2fb6 803f a003 803f
000000b0: 15ea 7f3f 6ad0 7d3f 44d4 803f 1eb4 803f
000000c0: 3e5a 7f3f db31 7e3f e0b1 813f 39c7 813f
000000d0: 2dcb 7d3f 384f 803f 2665 7e3f f6aa 7e3f
000000e0: dcf7 7c3f e08f 7f3f 9ef0 7d3f 1bb4 803f
000000f0: 2866 7d3f 9ec5 7c3f 1f7a 7d3f 5dc5 7c3f

node_encoder.layers.1.bias f4 [64]
-9.998014e-05 -0.004430196 -0.009245831 0.013039132 -0.01471821 0.00829933 -0.023325043 0.0051149954
-0.017391758 -0.005718596 0.0069898497 -0.0024552164 0.0015069589 0.00045745837 -0.0031368858 0.0067586987
-0.0047144657 0.00067152275 -0.008794136 -0.0026827196 -0.0063209604 -0.0060382267 0.000347179 0.0015796678
0.0009874979 -0.008416585 0.016796973 0.013243698 -0.01132816 -0.0032744682 0.0055826837 0.0026787107
-0.0023358369 -0.008907655 0.00026961364 -0.0013642176 0.008182726 0.009442776 -0.005281155 -0.0044978075
0.0068387124 -0.012774574 -0.0052771135 0.0072250864 0.005619427 0.0023675915 0.00078553904 -0.009034547
0.0031185437 -0.0061598835 0.007955974 0.019910054 0.003389327 0.004113109 -0.007565057 -0.02191782
-0.008978809 -0.0043179053 -0.010074765 0.008482231 -0.007978327 0.008822108 -0.00020180784 -0.0129600335
00000000: 6eac d1b8 2d2b 91bb d37b 17bc 15a2 553c
00000010: a624 71bc eaf9 073c 2914 bfbc b19b a73b
00000020: 2979 8ebc 0f63 bbbb 1c0b e53b b2e7 20bb
00000030: 2685 c53a 06d7 ef39 3694 4dbb 1378 dd3b
00000040: ce7b 9abb 2109 303a 4815 10bc 91d0 2fbb
00000050: 0f20 cfbb 51dc c5bb 9405 b639 db0c cf3a
00000060: ee6e 813a b7e5 09bc ce99 893c 18fc 583c
00000070: bf99 39bc 7698 56bb f2ee b63b 4f8d 2f3b
00000080: d714 19bb 6af1 11bc ee5a 8d39 8ccf b2ba
00000090: d710 063c e0b5 1a3c 8a0d adbb 5862 93bb
000000a0: 4717 e03b 724c 51bc a3eb acbb 6bc0 ec3b
000000b0: 2c23 b83b 9829 1b3b a2ec 4d3a a305 14bc
000000c0: 7b60 4c3b d9d8 c9bb c659 023c 691a a33c
000000d0: 791f 5e3b 42c7 863b 4ce4 f7bb 008d b3bc
000000e0: db1b 13bc 377d 8dbb a110 25bc 0ef9 0a3c
000000f0: 87b7 02bc 9a8a 103c 619c 53b9 5256 54bc

node_encoder.layers.1.running_mean f4 [64]
0.7878798 0.72209144 0.3152566 0.054559436 0.4129864 0.26362097 -0.07837956 0.15611166
-0.973474 -0.61844945 0.65152305 0.31954238 0.3651066 -0.39822307 0.29456928 -0.34064075
-0.5111113 0.0024534175 0.66409826 0.30104864 -0.61743575 -0.3729562 -0.196026 0.74876684
-0.25288203 -0.47595376 0.45994353 -0.30853218 -0.07442664 0.059919488 -0.06722166 -0.29716092
-0.49050346 -0.07214318 0.10722186 -0.502722 -0.56470525 -0.6331005 -0.7021571 -0.20234883
0.09404361 -0.17616864 0.12742056 0.45177212 -0.08430502 -1.1138966 -0.33347768 -0.71015507
0.3771507 0.09576785 -0.19627385 -0.42764193 0.30988064 -0.14201021 -0.49998507 0.21166244
-0.41584867 0.42346415 -0.6728063 -0.3046363 0.24359533 -0.014760166 -0.1714655 -0.6303433
00000000: 7eb2 493f fcda 383f 5069 a13e b779 5f3d
00000010: f472 d33e 54f9 863e 7685 a0bd bcdb 1f3e
00000020: 9835 79bf b452 1ebf 37ca 263f 0f9b a33e
00000030: 41ef ba3e e5e3 cbbe c9d1 963e 7768 aebe
00000040: 31d8 02bf 84c9 203b 5802 2a3f 0c23 9a3e
00000050: 4510 1ebf 1df4 bebe 0abb 48be 2faf 3f3f
00000060: c179 81be 36b0 f3be b87d eb3e eef7 9dbe
00000070: ff6c 98bd 236e 753d 82ab 89bd 7a25 98be
00000080: 4523 fbbe cebf 93bd 2297 db3d 64b2 00bf
00000090: 8690 10bf e012 22bf 91c0 33bf 8834 4fbe
000000a0: f099 c03d 8d65 34be 897a 023e ad4e e73e
000000b0: 1ca8 acbd 2a94 8ebf 96bd aabe b9cc 35bf
000000c0: e619 c13e ef21 c43d 03fc 48be e2f3 dabe
000000d0: ada8 9e3e 206b 11be 0bfe ffbe 0abe 583e
000000e0: 1eea d4be 4bd0 d83e 093d 2cbf 4af9 9bbe
000000f0: 0e71 793e a0d4 71bc a794 2fbe 2e5e 21bf

node_encoder.layers.1.running_var f4 [64]
0.042890485 0.022961646 0.04497426 0.034091335 0.023622591 0.018908119 0.013791723 0.021732569
0.028135888 0.044592697 0.057420112 0.01731836 0.02291779 0.006952455 0.044513214 0.014991364
0.053304967 0.047886044 0.012601635 0.036249604 0.017749432 0.006686249 0.038410537 0.03414609
0.07607627 0.03924579 0.036129713 0.022926243 0.021338882 0.030398266 0.015833395 0.035477966
0.027465917 0.040091917 0.01720441 0.05166447 0.07122141 0.034483004 0.016989583 0.041657202
0.0049173418 0.043381162 0.048901804 0.026415458 0.031358615 0.06498529 0.008109315 0.04777441
0.012404953 0.06952463 0.0076187532 0.053041972 0.016603306 0.03180152 0.029763523 0.03388123
0.01983937 0.011732028 0.035021156 0.054963194 0.0119524775 0.021273429 0.006775949 0.004886449
00000000: efad 2f3d 101a bc3c ee36 383d 5ba3 0b3d
00000010: 2a84 c13c 33e5 9a3c aef6 613c 8008 b23c
00000020: 3c7d e63c d5a6 363d 5a31 6b3d 3cdf 8d3c
00000030: 17be bb3c 6bd1 e33b 7d53 363d 579e 753c
00000040: 4f56 5a3d 2824 443d 1777 4e3c 777a 143d
00000050: 4267 913c 5218 db3b 5e54 1d3d c5dc 0b3d
00000060: e0cd 9b3d 32c0 203d c0fc 133d d1cf bb3c
00000070: e1ce ae3c c905 f93c 09b5 813c 5851 113d
00000080: 3400 e13c 6c37 243d 43f0 8c3c 209e 533d
00000090: 88dc 913d 0d3e 0d3d bd2d 8b3c bea0 2a3d
000000a0: a721 a13b 72b0 313d 424d 483d 3b65 d83c
000000b0: e471 003d 0217 853d efdc 043c 1aaf 433d
000000c0: 253e 4b3c ee62 8e3d bca6 f93b 8a42 593d
000000d0: a803 883c 5042 023d a2d2 f33c 0bc7 0a3d
000000e0: 2d86 a23c b137 403c 5872 0f3d 1621 613d
000000f0: 53d4 433c 9d45 ae3c c808 de3b 811e a03b

node_encoder.layers.3.weight f4 [64, 64]
0.060042854 -0.07713632 0.051699303 0.048801143 0.082029365 -0.10236438 0.08019716 -0.07017082
0.043076094 0.11440732 -0.0073833605 -0.007460177 -0.03576107 -0.112451546 0.051273864 -0.13214749
0.08659007 0.0813227 0.10920206 -0.03454196 -0.09195169 0.01999709 0.0793331 -0.1326729
-0.018558282 -0.08330857 -0.017946273 -0.0699923 -0.053973608 -0.048998594 -0.12590101 0.11278005
0.11589866 -0.028211696 -0.00586144 -0.047789294 -0.1346736 -0.116681255 0.03728663 -0.07102943
-0.07056025 -0.0075569926 -0.052605063 -0.04761976 -0.0037823669 -0.020611448 -0.043345615 -0.067764536
-0.11331472 0.097771384 -0.03902341 0.026420102 -0.05258556 0.002732038 0.12764119 0.045634728
-0.09906063 0.04413994 0.11978236 0.02923506 0.07520701 0.112870835 -0.008823033 0.03455744
-0.097956814 -0.019472824 0.10138761 0.06197779 -0.0707085 -0.09751991 -0.095783666 -0.10872221
-0.096658796 -0.03775447 0.09199138 0.032429513 -0.09815157 -0.11242214 0.070069075 -0.09074443
-0.008718809 0.07312451 -0.048942417 -0.023588244 -0.0013558993 -0.04289705 -0.05513004 -0.1073836
-0.093020424 -0.061996937 0.110741585 -0.07368621 -0.07608733 0.033103142 0.04575614 0.07688343
0.10196876 0.07055164 -0.1153581 0.015774252 0.09161221 -0.01979771 -0.0732073 0.118946746
-0.038156442 -0.06764863 -0.099643916 0.011709848 0.041111566 0.031851474 0.03338797 -0.10708321
-0.10217831 -0.007941975 0.1227694 0.059580896 -0.06910703 -0.014370716 -0.08266996 -0.045459893
0.02989631 0.05698955 0.10314928 -0.123645455 0.08301993 -0.08084456 0.05485411 0.11180266
-0.0006310898 0.12420612 -0.11813203 -0.03645106 0.081697024 -0.021570863 -0.019216584 -0.05821744
0.082959905 0.06713495 0.038300466 -0.076185636 -0.10063767 0.019876972 0.03596762 -0.047088258
-0.033842728 0.07826009 0.011684273 0.011370251 -0.035023488 -0.1060951 -0.11493942 -0.04945658
-0.06519564 0.031810623 -0.03392106 -0.041775458 0.12397983 0.03651905 0.08355555 -0.057364937
-0.043034762 0.03900635 -0.0893542 -0.08572197 -0.012988964 -0.0425536 -0.100458704 0.07850015
0.09557501 0.01876086 -0.027794024 -0.11072002 -0.037016045 0.034848973 0.056416214 -0.009521259
-0.05853385 0.070153445 -0.09970209 0.08529502 -0.04335834 0.0115840575 -0.028726364 0.008809449
-0.038821578 0.09765521 0.0021130794 0.10155211 0.1169096 -0.076191485 -0.09111791 0.1025745
0.089326166 -0.08647286 -0.0053486433 -0.13008581 -0.09435113 0.01598515 0.02156559 0.031330496
-0.031368196 0.103684306 0.025592083 -0.06730421 -0.013113216 0.018716946 0.049536753 -0.09395877
0.041803095 -0.05783391 -0.097212344 -0.07798215 0.1281049 0.09548901 0.11920614 0.06938744
0.10080375 -0.012085168 -0.077868976 0.051186036 -0.057259075 -0.08047297 -0.033340443 0.037338033
0.068496756 -0.044850506 -0.06635124 0.021053785 -0.069791526 -0.09167232 0.06857384 -0.022222498
0.12195725 0.12435379 0.043503266 0.04209274 0.018151581 0.0016050378 -0.0018566395 -0.009547522
0.049765714 0.107128486 -0.02259475 -0.06382191 -0.024194347 -0.067234024 0.028865118 0.09778373
0.10887582 0.048028868 -0.09749188 -0.07657345 -0.029519478 -0.015669493 0.010895368 -0.12078207
00000000: 7fef 753d a6f9 9dbd a6c2 533d b5e3 473d
00000010: 03ff a73d 6ba4 d1bd 693e a43d b8b5 8fbd
00000020: 8f70 303d 634e ea3d 1ef0 f1bb 8074 f4bb
00000030: 337a 12bd ff4c e6bd 8b04 523d ac51 07be
00000040: 2256 b13d 848c a63d 54a5 df3d df7b 0dbd
00000050: 2b51 bcbd f0d0 a33c 6479 a23d 68db 07be
00000060: 8a07 98bc af9d aabd 1004 93bc 1f58 8fbd
00000070: 6e13 5dbd c0b2 48bd 32ec 00be 3af9 e63d
00000080: 475c ed3d 371c e7bc 5311 c0bb b5be 43bd
00000090: e0e7 09be 95f6 eebd deb9 183d e177 91bd
000000a0: e481 90bd a6a0 f7bb 6878 57bd f00c 43bd
000000b0: 96e1 77bb 57d9 a8bc 2c8b 31bd 22c8 8abd
000000c0: 8c11 e8bd 5d3c c83d 03d7 1fbd f86e d83c
000000d0: f563 57bd fe0b 333b 5fb4 023e 7beb 3a3d
000000e0: 4de0 cabd 15cc 343d 7450 f53d 5d7e ef3c
000000f0: 2206 9a3d d328 e73d 7c8e 10bc 1a8c 0d3d
00000100: 959d c8bd 7985 9fbc 4fa4 cf3d 6cdc 7d3d
00000110: 9ecf 90bd 85b8 c7bd 3a2a c4bd c0a9 debd
00000120: 0cf5 c5bd 6ea4 1abd fa65 bc3d cfd4 043d
00000130: b103 c9bd 943d e6bd 6080 8f3d 37d8 b9bd
00000140: 56d9 0ebc 4ec2 953d d877 48bd 223c c1bc
00000150: 6eb8 b1ba d1b4 2fbd 09d0 61bd efeb dbbd
00000160: 7e81 bebd 80f0 7dbd 7ccc e23d cce8 96bd
00000170: add3 9bbd 2997 073d ca6a 3b3d 0f75 9d3d
00000180: ffd4 d03d 617d 903d de40 ecbd 0139 813c
00000190: 2f9f bb3d cf2e a2bc b5ed 95bd 5a9a f33d
000001a0: ee49 1cbd 5d8b 8abd 1c12 ccbd aada 3f3c
000001b0: 9a64 283d b176 023d d3c1 083d 714e dbbd
000001c0: dd42 d1bd 0f1f 02bc 866e fb3d 190b 743d
000001d0: fd87 8dbd 2773 6bbc de4e a9bd 2734 3abd
000001e0: 1be9 f43c e06d 693d ee3f d33d d439 fdbd
000001f0: 5a06 aa3d d591 a5bd b4ae 603d cbf8 e43d
00000200: b86f 25ba c75f fe3d 35ef f1bd b54d 15bd
00000210: c550 a73d 61b5 b0bc 196c 9dbc 6975 6ebd
00000220: e2e6 a93d 0c7e 893d f3e0 1c3d 3707 9cbd
00000230: 1f1b cebd 08d5 a23c c852 133d 9edf 40bd
00000240: ac9e 0abd d346 a03d 656f 3f3c 4a4a 3a3c
00000250: ca74 0fbd 6348 d9bd 5c65 ebbd fc92 4abd
00000260: 4b85 85bd db4b 023d cff0 0abd be1c 2bbd
00000270: 23e9 fd3d 0095 153d 2c1f ab3d 7ff7 6abd
00000280: 3845 30bd 1fc5 1f3d 56ff b6bd 008f afbd
00000290: aacf 54bc af4c 2ebd 4bbd cdbd b0c4 a03d
000002a0: d5bc c33d 60b0 993c 4bb0 e3bc 2ec1 e2bd
000002b0: 239e 17bd ccbd 0e3d b014 673d 0eff 1bbc
000002c0: 31c1 6fbd 9cac 8f3d 9c30 ccbd 28af ae3d
000002d0: 8498 31bd 0fcb 3d3c 8d53 ebbc 8255 103c
000002e0: 6003 1fbd 74ff c73d 977b 0a3b 8dfa cf3d
000002f0: 4d6e ef3d 480a 9cbd 079c babd 9412 d23d
00000300: a3f0 b63d af18 b1bd ac43 afbb 3735 05be
00000310: 2a3b c1bd 4af3 823c 52aa b03c 6854 003d
00000320: f07b 00bd 7058 d43d 7da6 d13c cad6 89bd
00000330: d0d8 56bc 4854 993c 0de7 4a3d 756d c0bd
00000340: b939 2b3d 40e3 6cbd 4417 c7bd 1bb5 9fbd
00000350: ee2d 033e be8f c33d 5922 f43d 011b 8e3d
00000360: 3272 ce3d de00 46bc c579 9fbd 73a8 513d
00000370: 7e88 6abd 03cf a4bd fd8f 08bd c4ef 183d
00000380: 0748 8c3d 2ab5 37bd 29e3 87bd fd78 ac3c
00000390: dcee 8ebd b3be bbbd 7170 8c3d f50b b6bc
000003a0: b9c4 f93d 33ad fe3d 7b30 323d 7069 2c3d
000003b0: a0b2 943c 2260 d23a 7c5a f3ba 366d 1cbc
000003c0: 22d7 4b3d 2e66 db3d a018 b9bc 10b5 82bd
000003d0: 3933 c6bc feb1 89bd 8a76 ec3c d642 c83d
000003e0: 49fa de3d ebb9 443d d3a9 c7bd 8ad2 9cbd
000003f0: d5d2 f1bc 4f5d 80bc 7c82 323c 975c f7bd

node_encoder.layers.3.bias f4 [64]
-9.804266e-05 0.02252358 -0.0022075544 -0.053322747 0.016006915 0.037153326 -0.029019058 -0.04410389
-0.047967475 -0.025085539 0.0015282001 0.0007146869 -2.4520647e-05 -0.0024220033 0.04074198 0.00047843403
-0.03602268 -0.0024225004 -0.036883652 -0.010513323 -0.079864316 -0.0021465314 -0.059309408 0.01399064
0.048455566 -0.055561278 -0.029823687 -0.061169714 0.0026229979 -0.001707573 -0.028505394 0.03879105
0.017061591 -0.07499853 -0.00052292855 -0.018782182 0.0021734121 0.03322037 0.000619243 -0.04959288
0.05067758 -0.076290704 -0.009559648 0.013882604 0.07260038 0.08321434 -0.00033377056 0.008587684
-0.071901165 0.0016744047 -0.0064251786 0.004008316 -0.044883598 -0.0007833409 0.028544268 0.059854094
0.002209846 0.07622969 -0.08006078 -0.0039601396 0.013230004 0.0018014737 0.023307344 -0.04588545
00000000: 419c cdb8 5f83 b83c 9eac 10bb f468 5abd
00000010: ef20 833c 162e 183d 60b9 edbc 48a6 34bd
00000020: 8b79 44bd 3080 cdbc e34d c83a d359 3b3a
00000030: b0b1 cdb7 79ba 1ebb 10e1 263d 54d6 fa39
00000040: 858c 13bd d0c2 1ebb 5013 17bd 1340 2cbc
00000050: e78f a3bd d2ac 0cbb 6cee 72bd ff38 653c
00000060: 5879 463d 3994 63bd ce50 f4bc 188d 7abd
00000070: 9ae6 2b3b a4d0 dfba 2584 e9bc 5de3 1e3d
00000080: c0c4 8b3c d498 99bd 2415 09ba 17dd 99bc
00000090: ce6f 0e3b 1512 083d b254 223a e721 4bbd
000000a0: 4b93 4f3d 4d3e 9cbd 12a0 1cbc dd73 633c
000000b0: 82af 943d 486c aa3d edfd aeb9 5bb3 0c3c
000000c0: eb40 93bd b377 db3a 4e8a d2bb 3158 833b
000000d0: ddd7 37bd 1e59 4dba abd5 e93c 9129 753d
000000e0: 10d3 103b 501e 9c3d e8f6 a3bd 0fc4 81bb
000000f0: a9c2 583c 6d1f ec3a 0bef be3c 62f2 3bbd

node_encoder.layers.4.weight f4 [64]
0.9893834 1.0084435 0.9977239 0.9986213 0.9977373 1.0041629 1.003861 1.00066
1.0008763 0.9964485 0.98356575 1.0081031 0.9973813 0.996597 1.0048962 0.98927444
1.0037423 1.006623 0.9905863 0.99845266 1.0060449 1.007547 0.9969317 1.0090625
1.013047 1.0219134 1.0044036 1.0056831 0.98263466 0.9947807 0.9905051 0.9838296
1.0001191 1.0119416 1.0077403 1.0075191 0.99812233 0.9943996 0.99739975 1.0192308
0.9997295 0.997718 0.9910869 0.9966568 1.0038841 1.0127342 1.0028138 0.9967428
1.0096599 0.99627995 1.002092 0.9931833 0.9945023 0.99901813 0.9936381 1.0069923
0.9942625 1.0048469 0.99447155 0.9983434 1.006428 0.9975884 0.99748313 0.9961987
00000000: 3b48 7d3f ad14 813f d56a 7f3f a5a5 7f3f
00000010: b66b 7f3f 6988 803f 847e 803f a015 803f
00000020: b71c 803f 4017 7f3f f7ca 7b3f 8609 813f
00000030: 6254 7f3f fb20 7f3f 70a0 803f 1741 7d3f
00000040: a17a 803f 06d9 803f 1097 7d3f 989a 7f3f
00000050: 14c6 803f 4df7 803f ea36 7f3f f628 813f
00000060: 86ab 813f 0fce 823f 4c90 803f 39ba 803f
00000070: f28d 7b3f f3a9 7e3f be91 7d3f 42dc 7b3f
00000080: e703 803f 4d87 813f a2fd 803f 63f6 803f
00000090: f284 7f3f f990 7e3f 9755 7f3f 2876 823f
000000a0: 46ee 7f3f 726a 7f3f dfb7 7d3f e624 7f3f
000000b0: 467f 803f 46a1 813f 345c 803f 892a 7f3f
000000c0: 893c 813f 340c 7f3f 8d44 803f 4341 7e3f
000000d0: b497 7e3f a7bf 7f3f 115f 7e3f 20e5 803f
000000e0: fd87 7e3f d39e 803f b095 7e3f 6f93 7f3f
000000f0: a2d2 803f f461 7f3f 0e5b 7f3f e106 7f3f

node_encoder.layers.4.bias f4 [64]
-0.0024803514 0.0013988622 -0.0038973687 -0.003439367 -0.0076793632 0.00485047 0.0015333713 -0.008381556
0.0058985837 0.00065204967 -0.018973319 0.0060036685 0.010154976 -0.0004035668 -0.005246231 -0.007466385
0.0084668575 0.0007264288 0.0042674597 0.006628295 0.0040113158 0.016741714 -0.0009865414 -0.00010503783
0.010943477 0.0144699495 0.006605138 -0.0038038315 -0.0074706743 -0.005164184 -0.0031624734 -0.01478868
-0.0057481634 0.009183498 0.0009801537 0.0048192805 -0.0066999434 -0.006789231 0.005956237 0.014947214
-0.0051813913 0.002546225 0.0035727152 -0.00088767917 -0.008055372 0.007903333 0.0062910384 0.00032446138
0.007690886 0.006726609 0.013250096 -0.008020567 -0.007289229 0.006294582 -0.0026165894 0.011731828
-0.004404867 -0.013486814 -0.00569633 -0.009638335 0.0054019704 -0.00320143 0.01050095 -0.0058157756
00000000: 648d 22bb 075a b73a ff6a 7fbb 0167 61bb
00000010: 2ba3 fbbb b1f0 9e3b 67fb c83a cb52 09bc
00000020: e848 c13b 50ee 2a3a ef6d 9bbc 6cba c43b
00000030: 0e61 263c d295 d3b9 93e8 abbb 94a8 f4bb
00000040: 93b8 0a3c d06d 3e3a 0cd6 8b3b 2b32 d93b
00000050: 5b71 833b eb25 893c d64e 81ba c147 dcb8
00000060: 454c 333c 5e13 6d3c ea6f d83b b449 79bb
00000070: 8fcc f4bb 5138 a9bb 8041 4fbb 384c 72bc
00000080: 175b bcbb 6276 163c 8078 803a 0eeb 9d3b
00000090: 338b dbbb 3378 debb 8a2c c33b 29e5 743c
000000a0: a9c8 a9bb 91de 263b 3724 6a3b 24b3 68ba
000000b0: aefa 03bc fb7c 013c 0e25 ce3b 781c aa39
000000c0: d403 fc3b e36a dc3b ee16 593c b268 03bc
000000d0: 7cda eebb c842 ce3b 167b 2bbb da36 403c
000000e0: b456 90bb ccf7 5cbc 48a8 babb 1bea 1dbc
000000f0: 0303 b13b 15cf 51bb 2d0c 2c3c 4392 bebb

node_encoder.layers.4.running_mean f4 [64]
-0.16628575 -0.26675484 -0.119084574 -0.012994805 0.0055143633 -0.35999066 0.111252375 -0.004028296
0.01868764 0.16414519 -0.24074462 -0.16301867 0.03206176 -0.09171978 0.31651676 0.10544975
0.061283853 -0.15082265 -0.20646793 0.23843905 -0.037127696 -0.14953813 0.053616486 0.20970073
0.06649504 -0.19444317 -0.04933395 -0.50317943 0.11502767 0.4934043 -0.26037994 -0.45260808
-0.084256425 -0.5533951 0.18928601 0.21605459 0.2819293 -0.2957226 0.458242 -0.15149933
0.30349967 -0.1838447 -0.11986712 0.12492582 0.0019178918 0.1289299 0.19217297 -0.37832007
-0.15189843 -0.109890975 -0.22064741 -0.28661448 -0.16109702 -0.24306479 -0.002989524 0.16113584
-0.18328455 0.3261297 0.085639626 0.26310122 -0.033971034 0.12020791 0.13985632 0.09897393
00000000: d046 2abe 1794 88be 9de2 f3bd 2ae8 54bc
00000010: d5b1 b43b b250 b8be 49d8 e33d ccff 83bb
00000020: d216 993c ad15 283e c285 76be 5eee 26be
00000030: 3153 033d 94d7 bbbd 7c0e a23e 0af6 d73d
00000040: c704 7b3d 4171 1abe 546c 53be 5e29 743e
00000050: 3613 18bd 8620 19be f69c 5b3d cabb 563e
00000060: 8d2e 883d 1c1c 47be 6512 4abd 5ed0 00bf
00000070: a193 eb3d 7d9f fc3e 8550 85be 3fbc e7be
00000080: a28e acbd 4dab 0dbf 31d4 413e 6a3d 5d3e
00000090: 0a59 903e f468 97be b29e ea3e a422 1bbe
000000a0: 4f64 9b3e c941 3cbe e57c f5bd 1cd9 ff3d
000000b0: c561 fb3a 3306 043e fec8 443e 2bb3 c1be
000000c0: 438b 1bbe 850e e1bd 65f1 61be 22bf 92be
000000d0: 9ef6 24be fae5 78be e4eb 43bb cb00 253e
000000e0: f2ae 3bbe 79fa a63e d463 af3d 34b5 863e
000000f0: 3625 0bbd 912f f63d 7f36 0f3e d8b2 ca3d

node_encoder.layers.4.running_var f4 [64]
0.12583537 0.094932936 0.08676719 0.1118052 0.0868218 0.03010832 0.26148614 0.18788686
0.19613713 0.08372994 0.033043597 0.08697937 0.16875981 0.18687716 0.03903907 0.055365212
0.107999325 0.12729599 0.05003138 0.05974013 0.07540212 0.24043202 0.20580399 0.024390161
0.14307207 0.14913262 0.19946833 0.049351566 0.03388734 0.1154764 0.075480334 0.20441651
0.051703256 0.059627634 0.06920213 0.10852726 0.112080425 0.3709062 0.1801019 0.057019886
0.124138534 0.15395536 0.1334124 0.22471103 0.08938629 0.14244875 0.11548072 0.16944478
0.12747493 0.087887876 0.097090155 0.1322406 0.21631798 0.09564295 0.20042045 0.13651395
0.22031575 0.04455808 0.13212924 0.105656974 0.10272739 0.20038126 0.18610606 0.15310697
00000000: fdda 003e 336c c23d ffb2 b13d 20fa e43d
00000010: a1cf b13d b9a5 f63c 83e1 853e 6a65 403e
00000020: 2cd8 483e 9a7a ab3d b958 073d 3d22 b23d
00000030: 5fcf 2c3e ba5c 3f3e 6fe7 1f3d a2c6 623d
00000040: c02e dd3d e159 023e b4ed 4c3d 11b2 743d
00000050: 6d6c 9a3d d033 763e 48be 523e e0cd c73c
00000060: 7c81 123e 39b6 183e 6d41 4c3e de24 4a3d
00000070: 74cd 0a3d e47e ec3d 6f95 9a3d 9052 513e
00000080: cbc6 533d 1b3c 743d d9b9 8d3d 8a43 de3d
00000090: 6c8a e53d 6be7 bd3e a26c 383e af8d 693d
000000a0: 583c fe3d 79a6 1d3e 439d 083e a61a 663e
000000b0: 2910 b73d 16de 113e 2881 ec3d ef82 2d3e
000000c0: ca88 023e 8ffe b33d 34d7 c63d 146a 073e
000000d0: 7682 5d3e 73e0 c33d 053b 4d3e 50ca 0b3e
000000e0: 749a 613e 8982 363d e34c 073e af62 d83d
000000f0: bd62 d23d bf30 4d3e 9692 3e3e 13c8 1c3e

node_encoder.layers.6.weight f4 [32, 64]
0.09189767 -0.10872443 -0.07875316 -0.011350807 -0.119988814 -0.115866385 -0.10929341 0.100470394
0.018172244 -0.042402882 -0.002786961 -0.11449423 -0.11904976 -0.09189994 -0.12952206 0.078317426
-0.04606024 -0.038003102 -0.109820664 0.01177444 -0.016733615 -0.08940912 0.07407803 0.10030456
-0.09679016 0.07555206 -0.016222028 0.013281263 0.058247425 -0.02890657 0.10298227 0.072522
-0.07878877 -0.07272674 -0.1309303 0.033591904 -0.10514283 -0.09837825 -0.08363549 -0.1264153
-0.10615297 0.11247366 0.07372734 0.105299965 -0.060920335 -0.04988506 -0.049517103 -0.008690939
-0.09578204 0.01400307 -0.08067056 0.034203142 0.10986363 0.012725993 0.08580675 -0.09644135
-0.024477394 -0.08843896 -0.019614581 -0.053527433 -0.07636967 -0.11609207 -0.045822997 0.018593669
-0.016609384 -0.107311375 0.078400515 0.085731365 -0.0719192 0.014368298 0.07668939 -0.12348064
-0.103746325 0.066712394 0.008045497 0.050447624 -0.057805672 0.018840188 0.07701411 -0.027520819
-0.045291286 -0.12806943 -0.016161492 0.076438986 -0.123348735 -0.003387113 0.08479304 -0.020981912
-0.05010971 -0.047406532 -0.04807599 0.03639563 -0.10985639 0.040762946 -0.014911165 -0.0002761768
-0.00434856 0.07436691 -0.078074194 -0.12453547 -0.09837897 -0.091295734 -0.06570432 0.11259708
-0.08947924 -0.07100661 -0.0982035 -0.06381665 0.004416509 -0.08196143 -0.0008346408 0.054228883
-0.023982981 0.053343467 0.037000213 0.12339509 0.001413755 0.10538643 0.096004784 0.06484747
0.08281917 -0.090846896 -0.07510278 0.046262406 0.043091055 0.10077381 -0.0159888 -0.027953578
0.08638501 0.018017258 0.1254746 -0.05864419 -0.03559596 -0.0069998163 0.061443627 -0.11060337
-0.044381972 0.09492566 0.030667566 0.081276566 -0.043446172 -0.07773741 -0.08869528 -0.07089352
-0.090232745 0.064412184 0.04407299 -0.073481895 0.119041 0.036967345 0.03995958 -0.057270736
0.0784068 -0.08965159 0.09721015 -0.065182626 0.056819398 -0.052711472 0.07917721 -0.10484134
-0.023075383 -0.04292077 -0.083197966 -0.05748005 -0.043874845 0.0059908903 0.084151864 -0.01593091
0.11603094 -0.053446744 -0.060434446 -0.006785323 -0.018997747 0.041547433 0.107265435 0.034455314
-0.1091622 -0.046480328 -0.024901796 -0.103564076 0.045915045 0.10194751 0.060751177 -0.00016395604
-0.015976442 -0.07143816 -0.01717502 0.11078131 -0.07179665 0.02285509 -0.08506453 -0.029501721
0.020101743 -0.093259335 0.040427238 -0.10188116 -0.046247296 0.090600446 0.12386182 -0.002364676
-0.09348327 -0.094187416 -0.028270526 -0.071028896 0.0954666 -0.087701924 0.086404 0.017468913
-0.040534627 0.10667692 0.0654723 0.0015113915 -0.07684791 -0.045989983 0.04598701 0.10936734
-0.046606567 -0.039003037 -0.11447791 0.08109771 0.121389605 0.07942275 -0.07907369 0.076583505
-0.043932095 0.065930486 0.068127036 -0.09599615 0.0333676 0.05275496 -0.066087216 0.102406375
0.09207764 0.11215165 0.006766182 -0.06844755 -0.06328736 0.050666675 -0.027809016 0.09118136
0.108849145 0.010340233 -0.11115105 0.04763074 0.11058927 -0.02956116 -0.073030315 -0.028939243
0.011242975 -0.09760585 0.059308585 0.055486742 -0.039867572 -0.036720574 -0.055615004 0.105818644
00000000: d834 bc3d eaaa debd 5649 a1bd bcf8 39bc
00000010: b2bc f5bd 5b4b edbd 39d5 dfbd 6cc3 cd3d
00000020: f5dd 943c a5ae 2dbd 72a5 36bb f37b eabd
00000030: 5cd0 f3bd 0936 bcbd 6ea1 04be e364 a03d
00000040: aaa9 3cbd 24a9 1bbd a8e9 e0bd 95e9 403c
00000050: ef14 89bc 211c b7bd 39b6 973d 7a6c cd3d
00000060: eb39 c6bd 0abb 9a3d 0fe4 84bc a899 593c
00000070: da94 6e3d 79cd ecbc 5ee8 d23d 6a86 943d
00000080: 025c a1bd c2f1 94bd 9812 06be aa97 093d
00000090: 2055 d7bd 897a c9bd 1549 abbd 0373 01be
000000a0: ba66 d9bd 9758 e63d 5cfe 963d 82a7 d73d
000000b0: 9a87 79bd 4754 4cbd 72d2 4abd 7164 0ebc
000000c0: 6029 c4bd 226d 653c 9b36 a5bd 9818 0c3d
000000d0: 2f00 e13d af80 503c 73bb af3d 0b83 c5bd
000000e0: d184 c8bc 7c1f b5bd c2ae a0bc 953f 5bbd
000000f0: b467 9cbd aec1 edbd e5b0 3bbd c051 983c
00000100: 6710 88bc 11c6 dbbd 7390 a03d ed93 af3d
00000110: 604a 93bd 0369 6b3c 540f 9d3d 6be3 fcbd
00000120: f478 d4bd 82a0 883d 43d1 033c 2ba2 4e3d
00000130: a4c5 6cbd bd56 9a3c 93b9 9d3d 5773 e1bc
00000140: 5b83 39bd a224 03be 1b65 84bc 0b8c 9c3d
00000150: 439e fcbd 54fa 5dbb f9a7 ad3d 42e2 abbc
00000160: d73f 4dbd 5a2d 42bd 54eb 44bd 9613 153d
00000170: 63fc e0bd 0cf7 263d f64d 74bc d3cb 90b9
00000180: 5d7e 8ebb ae4d 983d 5de5 9fbd 740c ffbd
00000190: ea7a c9bd 42f9 babd fd8f 86bd 4c99 e63d
000001a0: e440 b7bd ea6b 91bd eb1e c9bd 4eb2 82bd
000001b0: 5db8 903b 65db a7bd cccb 5aba 1b1f 5e3d
000001c0: f577 c4bc ae7e 5a3d 898d 173d 91b6 fc3d
000001d0: bf4d b93a d7d4 d73d 289e c43d c0ce 843d
000001e0: 199d a93d f00d babd 7ccf 99bd a67d 3d3d
000001f0: 3f80 303d 8062 ce3d f2fa 82bc e7fe e4bc
00000200: a0ea b03d ee98 933c 6a7c 003e e434 70bd
00000210: 12cd 11bd b75e e5bb 50ac 7b3d 0584 e2bd
00000220: dfc9 35bd 6268 c23d 8c3a fb3c 5474 a63d
00000230: 9df4 31bd cb34 9fbd dfa5 b5bd 9f30 91bd
00000240: f2cb b8bd 89ea 833d e185 343d ad7d 96bd
00000250: c5cb f33d 126b 173d a8ac 233d b894 6abd
00000260: bf93 a03d 419b b7bd 1d16 c73d 787e 85bd
00000270: 75bb 683d fce7 57bd a927 a23d 0eb7 d6bd
00000280: 9608 bdbc b0cd 2fbd b263 aabd 3370 6bbd
00000290: 1cb6 33bd 3b4f c43b d057 ac3d 8a81 82bc
000002a0: a1a1 ed3d f9ea 5abd 1c8a 77bd 6a57 debb
000002b0: 2aa1 9bbc a42d 2a3d fbad db3d 0421 0d3d
000002c0: 6e90 dfbd 2862 3ebd dafe cbbc 6719 d4bd
000002d0: 6a11 3c3d dbc9 d03d 3ad6 783d 9deb 2bb9
000002e0: 07e1 82bc 2c4e 92bd a1b2 8cbc 50e1 e23d
000002f0: 1f0a 93bd 993a bb3c 5036 aebd 98ad f1bc
00000300: 69ac a43c c0fe bebd 0897 253d 12a7 d0bd
00000310: ce6d 3dbd ba8c b93d 44ab fd3d aef8 1abb
00000320: 2874 bfbd 55e5 c0bd 9797 e7bc 9977 91bd
00000330: fe83 c33d 119d b3bd 95f4 b03d f71a 8f3c
00000340: a307 26bd 6e79 da3d 5716 863d e219 c63a
00000350: 7062 9dbd fe5f 3cbd e05c 3c3d fcfb df3d
00000360: 87e6 3ebd a6c1 1fbd 6573 eabd 8e16 a63d
00000370: 1d9b f83d 65a8 a23d 63f1 a1bd d0d7 9c3d
00000380: 24f2 33bd 9006 873d 3086 8b3d a199 c4bd
00000390: 77ac 083d 9615 583d bc58 87bd 6fba d13d
000003a0: 3493 bc3d c4af e53d d9b6 dd3b 3b2e 8cbd
000003b0: ce9c 81bd dc87 4f3d bccf e3bc 4bbd ba3d
000003c0: 4dec de3d 156a 293c 29a3 e3bd 7318 433d
000003d0: a17c e23d 3f2a f2bc eb90 95bd fe11 edbc
000003e0: 7434 383c 93e5 c7bd 8fed 723d 1146 633d
000003f0: 2e4c 23bd 5068 16bd 8fcc 63bd 72b7 d83d

node_encoder.layers.6.bias f4 [32]
0.04073499 0.023047246 0.0334808 0.0009995062 -0.061297707 9.190216e-05 0.0760596 0.07029545
-0.036931474 0.048817538 0.020919777 0.00204665 0.031934723 6.270532e-05 -0.0013095102 -0.04487047
0.0013646538 0.084238715 0.040631466 -0.06336137 -0.0005863819 0.042703036 -0.0185134 0.0014427013
0.026470188 0.06730321 0.0754565 -0.052960042 -0.079750255 0.051072124 -0.0006389995 0.074919045
00000000: bcd9 263d 94cd bc3c 2a23 093d dd01 833a
00000010: 4e13 7bbd 99bb c038 23c5 9b3d 10f7 8f3d
00000020: 7545 17bd e6f4 473d f45f ab3c 1721 063b
00000030: fccd 023d aa80 8338 dfa3 abba 19ca 37bd
00000040: 2fde b23a 5985 ac3d 2e6d 263d 9bc3 81bd
00000050: 6cb7 19ba 61e9 2e3d 6aa9 97bc 0619 bd3a
00000060: 02d8 d83c 44d6 893d f088 9a3d a1ec 58bd
00000070: 1a54 a3bd 0131 513d 8882 27ba 286f 993d

edge_encoder.layers.0.weight f4 [64, 4]
0.34965453 -0.20242284 0.14127813 0.15643951 -0.1687335 0.45931795 0.048904907 -0.15864398
-0.45835358 0.4037522 -0.49017352 0.38065884 -0.16110466 -0.09240532 0.082317516 0.4756542
-0.30975616 -0.349042 0.3161385 -0.22028062 -0.18315375 0.2813165 -0.21302612 0.2989247
-0.20532162 0.38710314 0.4888722 0.05560972 -0.15602118 0.27012998 0.15056323 0.005750264
0.42840475 -0.016867807 0.19041474 -0.13154233 -0.08324801 -0.028810738 0.042058945 0.2186268
0.37412485 0.29713312 -0.21368104 0.42629677 0.3214004 0.19198471 0.056887366 -0.26566428
-0.30973977 0.013167545 -0.3582504 0.17103516 -0.4574584 -0.44471505 -0.2184609 0.2708073
0.40432897 -0.4208893 -0.30613282 0.09560707 -0.08668487 -0.40609813 0.14253901 -0.39668214
0.018657623 0.20559916 0.45514277 -0.41555753 0.36329892 0.06562234 0.44005507 0.4815102
-0.10995047 -0.08060895 -0.12910298 0.38278535 -0.21740428 0.33295706 0.20498131 0.45634758
0.3560997 0.39370304 -0.41136295 -0.25121206 -0.35704088 0.2365044 0.10394141 0.18272652
0.19398633 0.029502383 0.18376192 -0.275812 0.3220358 -0.4386411 -0.45367673 0.16290268
0.46652123 -0.17384525 0.47108632 -0.17819333 -0.38123554 -0.08129366 0.27370614 -0.24554528
0.4674363 -0.2323944 -0.21890546 -0.2064324 -0.3885076 0.45791292 -0.28197467 -0.23326999
-0.1409381 0.4112067 0.2505707 0.19584233 -0.143085 0.24410568 0.08378617 0.4032276
0.117539555 0.37165925 0.33663848 0.08178042 -0.47290748 0.11313399 -0.37754717 0.07430957
-0.04677119 0.38129207 -0.37197173 -0.3984128 0.21119845 0.34243736 -0.11175663 0.14002705
0.40117484 0.06337133 -0.13819982 0.29008302 0.459632 -0.092669845 0.32820228 0.021197544
-0.08666401 -0.0454751 -0.4965118 0.22608094 -0.2660862 -0.43509847 -0.06411884 -0.18526407
-0.30703452 -0.11039814 -0.054850727 0.15512551 0.07021694 -0.058018487 0.11071274 -0.32148433
0.4311809 0.23006032 0.30884248 -0.4314598 0.33271688 0.0865434 -0.48766106 0.46400002
-0.007484228 0.10712488 0.39477396 0.3347181 0.43960205 -0.4659949 0.4922628 0.10297986
0.017053118 -0.40313366 -0.25837493 0.46421576 0.38488796 0.37988603 -0.0351099 -0.27124316
0.10987062 -0.23091424 -0.3320466 0.1650569 0.38101286 -0.3928434 -0.43773997 0.07052189
-0.18396024 -0.26036865 -0.09937057 -0.03073296 -0.14583717 0.3537685 0.2795773 0.1481843
-0.16193429 -0.032715198 0.32105127 0.04077328 -0.48285687 0.060445342 0.26005787 -0.12310148
-0.10489017 -0.07494473 0.29422882 0.39133132 -0.3923385 0.32916763 0.20349185 0.16677716
-0.29994166 -0.2829993 0.48239094 0.10705175 -0.10609594 -0.09555858 0.33956462 -0.1076794
0.34226987 -0.13272609 0.114823624 0.11422367 -0.260871 0.014807296 0.09648518 -0.4754215
-0.09311523 0.032593906 0.415035 0.10530192 -0.42916888 -0.1561949 0.48512414 -0.07551569
0.3737681 0.04636788 0.3309247 -0.20503162 0.48482284 0.10716892 -0.10866203 0.3709299
0.23850375 -0.3483503 -0.02448193 0.3438416 0.12743858 -0.14962256 -0.3345494 -0.33645338
00000000: eb05 b33e ef47 4fbe 37ab 103e ae31 203e
00000010: 7ac8 2cbe b92b eb3e 8350 483d 9173 22be
00000020: 52ad eabe 9cb8 ce3e 06f8 fabe b7e5 c23e
00000030: 9ff8 24be 003f bdbd 1696 a83d f388 f33e
00000040: 5c98 9ebe a2b5 b2be e8dc a13e 3e91 61be
00000050: a88c 3bbe b708 903e 8523 5abe a90c 993e
00000060: d53f 52be 6232 c63e 754d fa3e 05c7 633d
00000070: 04c4 1fbe 7a4e 8a3e 3f2d 1a3e b66c bc3b
00000080: de57 db3e 5b2e 8abc 15fc 423e 08b3 06be
00000090: ef7d aabd 7f04 ecbc 0046 2c3d b4df 5f3e
000000a0: 4b8d bf3e d521 983e 34cf 5abe 9243 da3e
000000b0: 988e a43e a497 443e ba02 693d 2605 88be
000000c0: 3696 9ebe b0bc 573c 996c b7be d723 2f3e
000000d0: fd37 eabe b1b1 e3be 37b4 5fbe 41a7 8a3e
000000e0: 3504 cf3e cd7e d7be 71bd 9cbe a4cd c33d
000000f0: d687 b1bd 18ec cfbe bff5 113e ec19 cbbe
00000100: dfd7 983c 9688 523e 7908 e93e f5c3 d4be
00000110: 5102 ba3e 0165 863d e64e e13e 8188 f63e
00000120: b62d e1bd 4e16 a5bd 9233 04be 71fc c33e
00000130: 3a9f 5ebe 5979 aa3e 9fe6 513e 64a6 e93e
00000140: b352 b63e 7293 c93e 2a9e d2be de9e 80be
00000150: 10ce b6be 362e 723e 3cdf d43d a91c 3b3e
00000160: 5aa4 463e fbae f13c 162c 3c3e 3b37 8dbe
00000170: e0e1 a43e 9195 e0be 5148 e8be f6cf 263e
00000180: dfdb ee3e 7d04 32be 3a32 f13e 5078 36be
00000190: 4e31 c3be 4a7d a6bd 3623 8c3e 3970 7bbe
000001a0: d053 ef3e ccf8 6dbe c128 60be 0463 53be
000001b0: 78ea c6be 9073 ea3e fc5e 90be 54de 6ebe
000001c0: 1452 10be af89 d23e ce4a 803e e48a 483e
000001d0: e084 12be d7f6 793e 1598 ab3d d973 ce3e
000001e0: 94b8 f03d 1f4a be3e e15b ac3e 7e7c a73d
000001f0: ee20 f2be cbb2 e73d dd4d c1be 9e2f 983d
00000200: 2693 3fbd b738 c33e 1473 bebe c3fc cbbe
00000210: 6844 583e f353 af3e a9e0 e4bd 4063 0f3e
00000220: ca66 cd3e d4c8 813d 4184 0dbe c385 943e
00000230: e354 eb3e b0c9 bdbd 210a a83e 79a6 ad3c
00000240: e77c b1bd 1944 3abd cb36 febe c381 673e
00000250: 733c 88be 3ac5 debe bd50 83bd ddb5 3dbe
00000260: a133 9dbe 6c18 e2bd 28ab 60bd 39d9 1e3e
00000270: e6cd 8f3d cba4 6dbd 5cbd e23d 9899 a4be
00000280: bec3 dc3e ef94 6b3e 9a20 9e3e 4de8 dcbe
00000290: de59 aa3e ab3d b13d b6ae f9be 6991 ed3e
000002a0: 413e f5bb 4a64 db3d d01f ca3e 2c60 ab3e
000002b0: 8513 e13e e296 eebe df09 fc3e 1be7 d23d
000002c0: fbb2 8b3c 8967 cebe b849 84be b0ad ed3e
000002d0: 0910 c53e 6c80 c23e 66cf 0fbd 62e0 8abe
000002e0: d903 e13d c874 6cbe 0302 aabe ad04 293e
000002f0: 1e14 c33e c522 c9be 741f e0be c86d 903d
00000300: 1360 3cbe 0a4f 85be cc82 cbbd b0c3 fbbc
00000310: 5756 15be 2521 b53e c224 8f3e a0bd 173e
00000320: 1ad2 25be 5f00 06bd d560 a43e e201 273d
00000330: 0439 f7be 8995 773d 4e26 853e a11c fcbd
00000340: a8d0 d6bd 9f7c 99bd 29a5 963e 945c c83e
00000350: 98e0 c8be a988 a83e 2b60 503e a2c7 2a3e
00000360: f491 99be 49e5 90be f2fb f63e f33d db3d
00000370: d448 d9bd 37b4 c3bd 6adb ad3e 0487 dcbd
00000380: ff3d af3e 59e9 07be a628 eb3d 19ee e93d
00000390: e290 85be 4d9a 723c 069a c53d 726a f3be
000003a0: 33b3 bebd 3081 053d 787f d43e 88a8 d73d
000003b0: 06bc dbbe 8ef1 1fbe 3162 f83e f8a7 9abd
000003c0: 885e bf3e 3fec 3d3d f66e a93e cff3 51be
000003d0: b33a f83e 617b db3d 338a debd 86ea bd3e
000003e0: 543a 743e f85a b2be 548e c8bc 020c b03e
000003f0: 427f 023e a836 19be 0f4a abbe 9e43 acbe

edge_encoder.layers.0.bias f4 [64]
0.23871644 0.18721355 -0.40354323 -0.06495964 0.08836034 -0.40286177 0.39139053 -0.01835026
-0.16419563 0.020442324 0.14186303 0.07320583 0.43461213 0.24223937 -0.01410263 0.047965262
0.08306302 -0.15942161 -0.3889371 -0.01822357 -0.15161075 -0.43276265 0.13955979 -0.17083539
0.43914682 0.14006206 0.17396063 0.10728326 0.1561313 0.2808114 0.3278927 0.0006294969
-0.103342965 0.09714837 -0.18657054 0.0013494943 0.1075387 0.18439345 -0.44407263 0.15474747
-0.15472943 -0.31278536 -0.17396523 -0.00039684883 0.20711775 -0.40578938 0.09749069 0.41096216
-0.24324855 0.081412494 -0.16210334 0.084800124 0.17751946 -0.26870242 0.08157757 0.45462435
0.003730522 -0.3155154 0.00033534953 0.07238029 0.11541875 -0.004388413 -0.06934266 -0.20947936
00000000: 1572 743e e9b4 3f3e 389d cebe 8f09 85bd
00000010: 44f6 b43d e643 cebe 5764 c83e 4953 96bc
00000020: e622 28be a976 a73c 8b44 113e f0ec 953d
00000030: 7b85 de3e 990d 783e b80e 67bc 3977 443d
00000040: f21c aa3d 6b3f 23be c322 c7be 9949 95bc
00000050: d93f 1bbe 1193 ddbe c3e8 0e3e 79ef 2ebe
00000060: dad7 e03e 6e6c 0f3e bc22 323e 53b7 db3d
00000070: e2e0 1f3e 83c6 8f3e 8de1 a73e d204 253a
00000080: 7aa5 d3bd baf5 c63d 590c 3fbe 84e1 b03a
00000090: 403d dc3d a3d1 3c3e 7d5d e3be 1f76 1e3e
000000a0: 6471 1ebe 6725 a0be f123 32be 2610 d0b9
000000b0: ad16 543e a0c3 cfbe 33a9 c73d a269 d23e
000000c0: 2616 79be 98bb a63d 6bfe 25be b0ab ad3d
000000d0: a9c7 353e 5d93 89be 2412 a73d 86c4 e83e
000000e0: c67b 743b 3c8b a1be dad1 af39 1e3c 943d
000000f0: aa60 ec3d adcc 8fbb 8603 8ebd c281 56be

edge_encoder.layers.1.weight f4 [64]
0.9872761 0.985194 0.99358016 1.0027118 0.9931082 1.0048844 0.9877621 1.0045255
1.0013958 0.9896534 1.0053748 0.99307424 0.98403496 0.98570526 0.9899128 0.9907261
0.98260593 0.9928508 0.9824424 0.9943109 0.988368 0.9868033 0.9901531 0.9889264
0.99056214 0.9956184 0.986041 1.005773 0.9935259 0.9890435 0.9921265 0.98965544
1.0033294 0.99218476 0.99032396 0.99086237 0.9920477 0.9865655 0.99262744 0.9900549
0.9891961 0.9949705 0.99339694 0.99956506 0.9995504 0.98953474 1.003539 0.98817104
0.9853012 0.98783094 0.9966961 0.98509777 0.981171 0.99301857 1.0035505 0.9954805
0.98720026 1.0045488 0.9952708 0.99602485 0.9992185 1.003773 0.98775417 1.0022154
00000000: 20be 7c3f ad35 7c3f 455b 7e3f dc58 803f
00000010: 573c 7e3f 0da0 803f fadd 7c3f 4b94 803f
00000020: bd2d 803f ed59 7d3f 1fb0 803f 1d3a 7e3f
00000030: b7e9 7b3f 2e57 7c3f ed6a 7d3f 3aa0 7d3f
00000040: 108c 7b3f 782b 7e3f 5881 7b3f 298b 7e3f
00000050: af05 7d3f 249f 7c3f ac7a 7d3f 482a 7d3f
00000060: 7b95 7d3f d9e0 7e3f 2f6d 7c3f 2bbd 803f
00000070: b757 7e3f f431 7d3f 01fc 7d3f 0f5a 7d3f
00000080: 196d 803f d2ff 7d3f df85 7d3f 28a9 7d3f
00000090: d7f6 7d3f 8e8f 7c3f d51c 7e3f 3d74 7d3f
000000a0: f53b 7d3f 63b6 7e3f 434f 7e3f 7fe3 7f3f
000000b0: 89e2 7f3f 2652 7d3f f773 803f c7f8 7c3f
000000c0: b33c 7c3f 7de2 7c3f 7a27 7f3f 5e2f 7c3f
000000d0: 062e 7b3f 7736 7e3f 5874 803f cfd7 7e3f
000000e0: 28b9 7c3f 0e95 803f 11ca 7e3f 7cfb 7e3f
000000f0: c9cc 7f3f a27b 803f 75dd 7c3f 9848 803f

edge_encoder.layers.1.bias f4 [64]
-0.005241922 -0.0054089744 -0.00552137 0.006367244 0.00040968115 0.007966073 -0.008932569 0.00795798
0.004065944 0.0043251566 0.007838482 -0.0013115513 -0.008541254 -0.010920967 -0.0092579555 -0.0058064116
-0.014780519 -0.005821803 -0.016401647 -0.0033239436 -0.0060381056 -0.00902405 -0.0057439334 -0.0061633526
-0.0051578516 -0.0014238957 -0.0023482107 0.008610508 -0.0010598004 -0.006408057 -0.005356625 -0.007537744
0.0046453825 -0.003076988 -0.007048985 -0.008127763 -0.007982888 -0.01678161 0.0023503378 -0.0083385315
-0.0066028787 -0.0019219641 -0.0053576627 0.0051156627 0.003624155 -0.008351743 0.0060437326 -0.007898801
-0.01069973 -0.009994254 -0.0010210397 -0.011418621 -0.015423548 -0.0055629127 0.008768817 -0.0038779096
-0.0072532496 0.009481724 -0.0032423057 0.001021828 0.001309414 0.0060861073 -0.010912638 0.004336421
00000000: 6ec4 abbb c43d b1bb 9cec b4bb 50a4 d03b
00000010: 79ca d639 2284 023c e959 12bc 3062 023c
00000020: 9c3b 853b 0bba 8d3b fa6c 003c 5ce8 abba
00000030: 9ef0 0bbc dbed 32bc aeae 17bc b643 bebb
00000040: fd29 72bc d3c4 bebb bf5c 86bc 85d6 59bb
00000050: 4ddb c5bb 9cd9 13bc 9b37 bcbb f3f5 c9bb
00000060: 3203 a9bb 03a2 baba 70e4 19bb 1713 0d3c
00000070: 00e9 8aba aefa d1bb a186 afbb 2eff f6bb
00000080: 4b38 983b 4ba7 49bb 2cfb e6bb 4f2a 05bc
00000090: a9ca 02bc 9679 89bc 2008 1a3b 569e 08bc
000000a0: f65c d8bb 6aea fbba 558f afbb 4aa1 a73b
000000b0: 3b83 6d3b c0d5 08bc 810a c63b f969 01bc
000000c0: ec4d 2fbc f1be 23bc 68d4 85ba 2b15 3bbc
000000d0: 0db3 7cbc 1849 b6bb 16ab 0f3c 8724 7ebb
000000e0: abac edbb 3c59 1b3c dd7c 54bb dcee 853a
000000f0: a5a0 ab3a f86d c73b ecca 32bc 8918 8e3b

edge_encoder.layers.1.running_mean f4 [64]
0.2508291 0.18013006 -0.3896404 -0.048642848 0.08124575 -0.39423943 0.389324 -0.025720967
-0.17563894 0.03317378 0.16611034 0.06418279 0.45012495 0.26371458 -0.005486736 0.035697754
0.062088706 -0.1472385 -0.37470198 -0.0069062486 -0.16471408 -0.43303394 0.12984811 -0.15865459
0.43269852 0.13016333 0.17459594 0.100136206 0.16287088 0.29994822 0.329504 0.0047262562
-0.124088995 0.10674214 -0.176199 -0.0010736636 0.12782171 0.18417871 -0.44100973 0.14433065
-0.18275231 -0.2910794 -0.16904745 0.0038109198 0.23826362 -0.42405984 0.114948876 0.42752802
-0.24634942 0.08594883 -0.168494 0.079088226 0.1962922 -0.27155948 0.086576216 0.4509593
0.011788301 -0.34279796 -7.9545454e-05 0.06797036 0.10730079 0.010956371 -0.054762766 -0.22352436
00000000: ac6c 803e 0474 383e f27e c7be b93d 47bd
00000010: 2c64 a63d c0d9 c9be 7a55 c73e c7b4 d2bc
00000020: b2da 33be 3be1 073d d418 2a3e 4472 833d
00000030: c776 e63e 9905 873e 14ca b3bb cf37 123d
00000040: ba50 7e3d b0c5 16be f0d8 bfbe d04d e2bb
00000050: cfaa 28be a0b6 ddbe e7f6 043e 5976 22be
00000060: a98a dd3e 8949 053e 47c9 323e 3614 cd3d
00000070: a0c7 263e d092 993e c0b4 a83e b6de 9a3b
00000080: 5f22 febd a09b da3d 836d 34be 2cba 8cba
00000090: b2e3 023e 5899 3c3e 07cc e1be 6acb 133e
000000a0: 6c23 3bbe 5c08 95be c61a 2dbe a0c0 793b
000000b0: 61fb 733e 5f1e d9be 516a eb3d f4e4 da3e
000000c0: 0643 7cbe f105 b03d b189 2cbe 02f9 a13d
000000d0: d300 493e d809 8bbe df4e b13d 23e4 e63e
000000e0: b823 413c 3783 afbe a4d1 a6b8 0b34 8b3d
000000f0: 84c0 db3d 5a82 333c ec4e 60bd 92e3 64be

edge_encoder.layers.1.running_var f4 [64]
0.03980276 0.028245252 0.22874305 0.010565361 0.10116327 0.04738355 0.19798824 0.028407382
0.05750276 0.0028020274 0.06582707 0.023430698 0.110530294 0.08895102 0.11504548 0.03289222
0.1569269 0.164241 0.015081209 0.05068937 0.16081351 0.03567324 0.031332146 0.18851559
0.2026259 0.07997195 0.07814621 0.10554162 0.06660354 0.015212407 0.09903712 0.14394878
0.11648456 0.028257249 0.041644398 0.11565523 0.18266335 0.033527695 0.01938789 0.010426195
0.10600734 0.19445848 0.11649328 0.23316087 0.06584477 0.039755575 0.08840841 0.18124889
0.019651363 0.07379266 0.08048109 0.08953842 0.06635905 0.0680678 0.19366123 0.087434046
0.031469833 0.018778378 0.12816593 0.20589307 0.10392949 0.049416415 0.022838106 0.08737965
00000000: 3808 233d 9662 e73c 9e3b 6a3e 561a 2d3c
00000010: b02e cf3d 4115 423d 6ebd 4a3e 99b6 e83c
00000020: 0488 6b3d 38a2 373b 58d0 863d bcf1 bf3c
00000030: b55d e23d f42b b63d f79c eb3d feb9 063d
00000040: 72b1 203e cb2e 283e 2d17 773c a89f 4f3d
00000050: 4cac 243e 1a1e 123d 2356 003d 3b0a 413e
00000060: 2a7d 4f3e 55c8 a33d 1f0b a03d 3426 d83d
00000070: 7067 883d 763d 793c f9d3 ca3d 4f67 133e
00000080: 758f ee3d bf7b e73c 5193 2a3d a6dc ec3d
00000090: 1a0c 3b3e 5654 093d 5ad3 9e3c a2d2 2a3c
000000a0: 601a d93d 2020 473e 0794 ee3d b9c1 6e3e
000000b0: 9fd9 863d bed6 223d 780f b53d 4f99 393e
000000c0: e5fb a03c 9b20 973d 45d3 a43d eb5f b73d
000000d0: 41e7 873d 2167 8b3d 214f 463e 9f10 b33d
000000e0: 83e6 003d 1dd5 993c ee3d 033e a2d5 523e
000000f0: fcd8 d43d de68 4a3d fb16 bb3c 1af4 b23d
