gnn/gnn_outputs/checkpoint_epoch_80.pt (torch, 972188 bytes, 208 tensors)

node_encoder.layers.0.weight f4 [64, 3]
0.4470997 0.47295642 -0.14055064 0.53765213 -0.12263888 0.10513761 -0.26907945 0.34990516
0.51493603 -0.41238087 0.51422065 0.09298249 0.43182212 0.07002525 0.2735483 -0.089337885
0.43642294 0.09352872 -0.28292894 0.15204263 -0.24549696 -0.06449455 -0.22871165 0.38851133
-0.46556175 -0.25319383 -0.16160706 -0.335813 0.057209816 -0.5805489 0.51781434 -0.49061993
0.44997793 0.09961587 -0.17564666 0.3639804 0.08620043 0.47054183 0.05920384 -0.18309703
0.1528575 -0.16150258 0.24124368 0.4921569 0.35041046 -0.23451461 0.34550542 0.103035204
0.2943993 -0.34410027 -0.5803562 -0.21989818 -0.45955884 0.46166238 0.16171741 0.23795967
0.19496277 -0.015560792 0.46101272 -0.40059337 0.03050718 -0.400358 0.17181423 -0.19657297
0.17542875 -0.122542255 0.47906995 -0.3480816 -0.3408686 -0.35679853 0.50603735 0.18811886
0.5507822 -0.47428748 -0.57679373 -0.4505484 -0.39681867 0.22069545 0.20187014 0.4880397
-0.28999192 -0.37677675 0.3201958 -0.22888836 0.34962672 -0.14592865 0.32401356 -0.46831328
-0.28072026 0.17820293 0.12415819 -0.14038992 0.3503068 0.38432688 -0.42597327 -0.30461526
0.5291282 -0.20553721 -0.19939667 -0.55140924 -0.33688352 0.14186221 -0.086853124 -0.40793374
0.0035733324 -0.39769417 -0.514411 -0.30102992 -0.5081231 -0.36538976 0.573963 0.1104761
0.19062291 -0.5235579 -0.37543646 -0.19210753 0.092456244 -0.4993824 -0.24797872 -0.35399148
0.007977176 -0.22250538 -0.03335857 -0.4068007 -0.39913765 -0.32506207 -0.20316917 -0.45848075
0.47974288 -0.110132694 0.48460263 0.19335166 -0.48687592 0.41080895 -0.1562027 -0.22639692
-0.47931042 -0.57139176 0.17433625 -0.12248396 0.20820424 -0.4714151 0.42629343 -0.426026
-0.10141744 0.1143928 0.30762157 0.48237225 0.5258388 -0.4427726 0.14276104 -0.26163372
-0.053956043 -0.4367752 0.51889354 -0.4302692 0.31498197 0.19166215 0.18957631 -0.3061959
0.5299287 0.12562504 0.07637943 -0.5147766 0.2349044 -0.080951236 -0.26160702 0.4987305
0.13522287 -0.31780493 -0.28905794 -0.035880655 0.31927058 -0.14975837 -0.31876633 -0.20284307
-0.44442156 0.1924904 0.43428993 -0.55764747 0.1500721 0.28330436 0.11280352 -0.21117894
0.2957848 0.30857217 0.21840116 -0.09924726 -0.15102004 0.066891424 -0.094870664 -0.17969245
00000000: 40ea e43e 5827 f23e 82ec 0fbe 92a3 093f
00000010: 182a fbbd 6352 d73d c8c4 89be c526 b33e
00000020: d9d2 033f 9623 d3be f7a3 033f 9b6d be3d
00000030: ca17 dd3e 6669 8f3d 860e 8c3e c8f6 b6bd
00000040: d472 df3e fc8b bf3d 10dc 90be 10b1 1b3e
00000050: 8e63 7bbe b815 84bd 6333 6abe f5ea c63e
00000060: 1c5e eebe 9fa2 81be 527c 25be aeef abbe
00000070: d754 6a3d da9e 14bf 7b8f 043f 8932 fbbe
00000080: 8263 e63e 6803 cc3d b8dc 33be a45b ba3e
00000090: da89 b03d dcea f03e ba7f 723d ca7d 3bbe
000000a0: ad86 1c3e ef60 25be 9508 773e fdfb fb3e
000000b0: 0069 b33e 9924 70be 16e6 b03e 1f04 d33d
000000c0: 81bb 963e e92d b0be 3992 14bf fd2c 61be
000000d0: 4c4b ebbe 035f ec3e 4099 253e b3ab 733e
000000e0: 52a4 473e b1f2 7ebc dc09 ec3e 931a cdbe
000000f0: 32ea f93c b9fb ccbe 12f0 2f3e 6d4a 49be
00000100: 98a3 333e 6ff7 fabd a848 f53e c037 b2be
00000110: 5486 aebe 4cae b6be aa8b 013f 3ba2 403e
00000120: 1000 0d3f cfd5 f2be c1a8 13bf 48ae e6be
00000130: d12b cbbe fdfd 613e 0cb7 4e3e 57e0 f93e
00000140: d279 94be e2e8 c0be b4f0 a33e b661 6abe
00000150: 4602 b33e 526e 15be 1be5 a53e c2c6 efbe
00000160: 91ba 8fbe d47a 363e a646 fe3d 60c2 0fbe
00000170: 6a5b b33e 7ec6 c43e 2b19 dabe 88f6 9bbe
00000180: f274 073f 5978 52be a42e 4cbe 2829 0dbf
00000190: ff7b acbe 5444 113e 0de0 b1bd b1dc d0be
000001a0: 922e 6a3b 929e cbbe 70b0 03bf 9820 9abe
000001b0: 5b14 02bf 5e14 bbbe 3def 123f 4b41 e23d
000001c0: a732 433e e407 06bf 3539 c0be d6b7 44be
000001d0: b359 bd3d 0daf ffbe 22ee 7dbe 5f3e b5be
000001e0: b4b2 023c 73d8 63be ffa2 08bd 2e48 d0be
000001f0: c55b ccbe 896e a6be 940b 50be fdbd eabe
00000200: dca0 f53e 408d e1bd d61d f83e fafd 453e
00000210: cd47 f9be 8d55 d23e 9af3 1fbe 98d4 67be
00000220: 2d68 f5be bb46 12bf 3485 323e dfd8 fabd
00000230: 7e33 553e 525d f1be 2243 da3e 1420 dabe
00000240: f2b3 cfbd c646 ea3d 9380 9d3e 7ff9 f63e
00000250: 5f9d 063f 17b3 e2be f32f 123e dbf4 85be
00000260: 0301 5dbd 00a1 dfbe 35d6 043f 3f4c dcbe
00000270: 5145 a13e 1543 443e 4b20 423e b6c5 9cbe
00000280: 68a9 073f daa3 003e d26c 9c3d 66c8 03bf
00000290: c78a 703e c3c9 a5bd 5bf1 85be 9b59 ff3e
000002a0: dd77 0a3e 54b7 a2be 67ff 93be 98f7 12bd
000002b0: 6f77 a33e 425a 19be 5735 a3be 18b6 4fbe
000002c0: 398b e3be 341c 453e 405b de3e fcc1 0ebf
000002d0: 80ac 193e 450d 913e 8805 e73d 4b3f 58be
000002e0: 1b71 973e 2cfd 9d3e 8ea4 5f3e 2642 cbbd
000002f0: ffa4 1abe 5ffe 883d 8d4b c2bd 4c01 38be

node_encoder.layers.0.bias f4 [64]
0.2921394 0.41846633 -0.0036812422 -0.05921343 0.0001157946 0.0007083215 0.06792967 0.08945675
-0.44652224 -0.1387259 0.40851638 0.15016529 7.415612e-05 -0.27136466 -0.2764643 -0.43932906
-0.114663534 0.12118153 0.29131934 0.19096042 -0.43253058 -0.27052358 -0.026179127 0.48052028
0.02028525 -0.07787914 0.16380516 -0.1453082 -0.2967499 0.3440883 -0.18698947 -0.047022622
-0.49629843 0.30935293 0.3599987 0.13611801 -0.32538596 -0.49175233 -0.391327 0.35315192
0.20137791 0.40815622 0.2262842 0.07472194 6.6321656e-05 -0.36165822 -0.41689384 -0.46209455
0.16135888 -0.20756833 -0.047351174 -0.2557179 -0.03789742 -0.3291512 -0.3002972 0.117842935
-0.09878461 0.2796386 -0.11182031 -0.34618723 -0.035010442 -0.20403583 -0.1036468 -0.4717695
00000000: 4c93 953e 3841 d63e ff40 71bb c889 72bd
00000010: c1d6 f238 a7ae 393a b61e 8b3d 1a35 b73d
00000020: 909e e4be 2a0e 0ebe 0f29 d13e eec4 193e
00000030: 4484 9b38 4ff0 8abe bb8c 8dbe bdef e0be
00000040: b7d4 eabd 062e f83d cf27 953e 218b 433e
00000050: a674 ddbe 1182 8abe 9c75 d6bc c106 f63e
00000060: 412d a63c 197f 9fbd 8abc 273e accb 14be
00000070: 9aef 97be 572c b03e 2b7a 3fbe cb9a 40bd
00000080: d41a febe 8263 9e3e c051 b83e 8562 0b3e
00000090: fd98 a6be f6c6 fbbe 035c c8be 54d0 b43e
000000a0: 0336 4e3e daf9 d03e 0cb7 673e d107 993d
000000b0: 2b16 8b38 442b b9be 1c73 d5be a897 ecbe
000000c0: 433b 253e cb8c 54be 4ef3 41bd 75ed 82be
000000d0: 533a 1bbd 8286 a8be 8ec0 99be a357 f13d
000000e0: 964f cabd ca2c 8f3e 0c02 e5bd 743f b1be
000000f0: 1c67 0fbd c5ee 50be c644 d4bd c68b f1be

node_encoder.layers.1.weight f4 [64]
1.0080373 0.99698603 0.99104595 1.0003345 0.9927079 1.0053316 0.98061997 1.0041411
0.9945358 0.9925363 0.9972509 1.0028213 1.0009763 1.0174767 0.99021846 0.99939716
0.9828979 0.9934508 0.9871804 1.0009935 1.0052463 0.9883865 1.0040197 0.9939919
1.0056756 1.0098379 1.0008636 1.0164273 0.9939303 1.00373 1.0011599 1.0065285
0.99849445 1.0055523 1.0138519 1.0037112 1.0096704 1.008066 0.9960428 0.99343896
1.004866 0.99783236 1.0049171 0.9989811 0.9979159 0.9911929 1.0044763 1.0053191
0.99618846 0.99321735 1.0145411 1.0136845 0.9858355 1.0018125 0.99267465 0.99258494
0.9841421 0.9959132 0.9907686 1.0048493 0.9913094 0.987418 0.98852366 0.98523635
00000000: 5e07 813f 7a3a 7f3f 30b5 7d3f f60a 803f
00000010: 1b22 7e3f b5ae 803f e909 7b3f b287 803f
00000020: e699 7e3f dc16 7e3f d64b 7f3f 735c 803f
00000030: fe1f 803f ad3c 823f f57e 7d3f 7ed8 7f3f
00000040: 329f 7b3f cb52 7e3f dbb7 7c3f 8e20 803f
00000050: e9ab 803f e606 7d3f b883 803f 4176 7e3f
00000060: fab9 803f 5e42 813f 4c1c 803f 4a1a 823f
00000070: 3772 7e3f 3a7a 803f 0226 803f edd5 803f
00000080: 559d 7f3f f0b5 803f e6c5 813f 9c79 803f
00000090: e13c 813f 4f08 813f a9fc 7e3f 0452 7e3f
000000a0: 739f 803f f171 7f3f 20a1 803f 3abd 7f3f
000000b0: 6b77 7f3f d1be 7d3f ae92 803f 4cae 803f
000000c0: 3506 7f3f 7e43 7e3f 7cdc 813f 6ac0 813f
000000d0: b75f 7c3f 643b 803f ed1f 7e3f 0c1a 7e3f
000000e0: bdf0 7b3f 2bf4 7e3f 03a3 7d3f e79e 803f
000000f0: 74c6 7d3f 6dc7 7c3f e30f 7d3f 7338 7c3f

node_encoder.layers.1.bias f4 [64]
0.001502175 -0.0042709783 -0.008261012 0.016999114 -0.016943784 0.009140418 -0.026305355 0.0066598034
-0.024646478 -0.004844761 0.0060246363 -0.0044367025 0.0024600017 0.0025538197 -0.0031336343 0.0073313694
-0.004864179 0.0009610574 -0.009261478 -0.0039885133 -0.008734626 -0.00766731 0.0013687676 0.0023023512
-0.00034483423 -0.0067204093 0.01915682 0.013811645 -0.009146191 -0.0053288382 0.005137544 0.0033539375
-0.003074261 -0.0109856725 -0.0034331202 -0.0028330102 0.008686769 0.008713006 -0.0054620933 -0.00030169534
0.007173843 -0.013001186 -0.005065015 0.008396362 0.0056433897 0.0026250014 -0.0013005818 -0.009845679
0.0030515948 -0.004701127 0.009691798 0.022271266 0.003096912 0.0064825085 -0.010347624 -0.029641453
-0.008950546 -0.005373293 -0.010335596 0.009669359 -0.005499335 0.0091080405 0.00026676647 -0.013772205
00000000: a1e4 c43a 90f3 8bbb 3259 07bc ba41 8b3c
00000010: b1cd 8abc b1c1 153c 547e d7bc 7b3a da3b
00000020: 69e7 c9bc cdc0 9ebb 506a c53b c261 91bb
00000030: fb37 213b fc5d 273b a95d 4dbb fc3b f03b
00000040: b163 9fbb 78ef 7b3a 74bd 17bc 13b2 82bb
00000050: ad1b 0fbc 0f3e fbbb 3868 b33a 0be3 163b
00000060: deca b4b9 e136 dcbb c3ee 9c3c 3d4a 623c
00000070: e8d9 15bc 899d aebb d858 a83b bccd 5b3b
00000080: 8a79 49bb 40fd 33bc 33fe 60bb 06aa 39bb
00000090: f352 0e3c ffc0 0e3c 5cfb b2bb dd2c 9eb9
000000a0: 8f12 eb3b ed02 55bc 6df8 a5bb e590 093c
000000b0: 2fec b83b 3708 2c3b 4978 aaba c54f 21bc
000000c0: 44fd 473b e90b 9abb 59ca 1e3c 3b72 b63c
000000d0: 90f5 4a3b 396b d43b 1589 29bc a2d2 f2bc
000000e0: 50a5 12bc 7312 b0bb a256 29bc 3b6c 1e3c
000000f0: c433 b4bb e439 153c cadc 8b39 d1a4 61bc

node_encoder.layers.1.running_mean f4 [64]
0.74999833 0.6835485 0.33593464 0.08652502 0.41111493 0.27139115 -0.10995419 0.119125925
-0.93495935 -0.5835739 0.6144043 0.2861119 0.366506 -0.36085188 0.3303988 -0.30047426
-0.4761999 -0.035053775 0.62788117 0.26443624 -0.57912934 -0.33308372 -0.16845743 0.7073173
-0.27891773 -0.4482663 0.42487073 -0.2680292 -0.040264327 0.021637628 -0.031694114 -0.2684469
-0.45317668 -0.10997076 0.06904373 -0.5410969 -0.5251678 -0.59158003 -0.66362476 -0.2401871
0.055349465 -0.21482486 0.089094 0.41913566 -0.082613826 -1.0756311 -0.2976926 -0.6709173
0.34177917 0.13644294 -0.16498648 -0.3912857 0.3404588 -0.10241572 -0.46087617 0.17559513
-0.37732896 0.38473734 -0.6375769 -0.269757 0.27376622 0.022871286 -0.13231102 -0.5923893
00000000: e4ff 3f3f 09fd 2e3f a0ff ab3e 0834 b13d
00000010: a87d d23e c8f3 8a3e aa2f e1bd 4bf8 f33d
00000020: 7f59 6fbf 1965 15bf 9a49 1d3f 427d 923e
00000030: ada6 bb3e 94c1 b8be 082a a93e c3d7 99be
00000040: 79d0 f3be 8c94 0fbd d2bc 203f 3064 873e
00000050: d241 14bf f389 aabe 1b80 2cbe bf12 353f
00000060: 4ece 8ebe 2983 e5be a888 d93e 203b 89be
00000070: 35ec 24bd 6541 b13c b0d1 01bd df71 89be
00000080: c606 e8be 5a38 e1bd cd66 8d3d 5485 0abf
00000090: 6671 06bf ca71 17bf 50e3 29bf 9bf3 75be
000000a0: 1fb6 623d 0cfb 5bbe ea76 b63d f398 d63e
000000b0: 7031 a9bd 48ae 89bf 2a6b 98be 3cc1 2bbf
000000c0: aefd ae3e b3b7 0b3e 37f2 28be 9956 c8be
000000d0: 9e50 ae3e 55bf d1bd f6f7 ebbe 36cf 333e
000000e0: 4331 c1be 4bfc c43e 3d38 23bf 971d 8abe
000000f0: 162b 8c3e 905c bb3c 8a7c 07be d3a6 17bf

node_encoder.layers.1.running_var f4 [64]
0.042666394 0.022764007 0.044701435 0.03384733 0.023350414 0.018659122 0.01345606 0.021421418
0.02806148 0.04456214 0.057233337 0.017187957 0.02268369 0.0067183785 0.04400427 0.014793264
0.053141125 0.047670633 0.012508183 0.03599368 0.01752694 0.0064656385 0.038236637 0.03378349
0.07588376 0.039024234 0.035922486 0.02265089 0.021034168 0.030204631 0.01557709 0.035235923
0.027216665 0.03983043 0.016916066 0.05195597 0.07105102 0.034040082 0.016645506 0.041381683
0.0047441055 0.043209735 0.048660256 0.026208797 0.03118705 0.06473215 0.0077263117 0.047485102
0.012239281 0.06934474 0.0074627306 0.05283631 0.01637258 0.031648275 0.02950236 0.03363737
0.019465903 0.01148484 0.034827836 0.054752763 0.011726099 0.02101841 0.006613032 0.0046459413
00000000: f5c2 2e3d 957b ba3c da18 373d 7fa3 0a3d
00000010: 5e49 bf3c 04db 983c ce76 5c3c f87b af3c
00000020: 30e1 e53c ca86 363d 816d 6a3d c2cd 8c3c
00000030: 25d3 b93c d825 dc3b d23d 343d 725f 723c
00000040: 82aa 593d 4842 433d 1fef 4c3c 1c6e 133d
00000050: a894 8f3c b5dd d33b 059e 1c3d 8f60 0a3d
00000060: f268 9b3d e0d7 1f3d 7523 133d 5c8e b93c
00000070: d94f ac3c b46f f73c 0d37 7f3c 8b53 103d
00000080: 7cf5 de3c 3c25 233d 9093 8a3c c8cf 543d
00000090: 3283 913d 9d6d 0b3d 285c 883c d77f 293d
000000a0: 7174 9b3b b1fc 303d fa4f 473d d5b3 d63c
000000b0: fc7b ff3c 4a92 843d 002d fd3b bd7f 423d
000000c0: 4487 483c 9d04 8e3d ec89 f43b e36a 583d
000000d0: ca1f 863c 9fa1 013d efae f13c 57c7 093d
000000e0: f576 9f3c e92a 3c3c a2a7 0e3d 6f44 603d
000000f0: d31e 403c cd2e ac3c 22b2 d83b fb3c 983b

node_encoder.layers.3.weight f4 [64, 64]
0.05981297 -0.07661256 0.052334838 0.05002829 0.08114703 -0.10205241 0.081468426 -0.06843579
0.042912267 0.11643797 -0.0074327104 -0.007641414 -0.03628625 -0.11087061 0.050428487 -0.13098589
0.0880159 0.08263704 0.108218856 -0.032526992 -0.091563776 0.021251645 0.08060346 -0.13155219
-0.017185744 -0.08366556 -0.016782971 -0.068536155 -0.054888416 -0.048804395 -0.12624551 0.113927364
0.11714841 -0.028348975 -0.0060567693 -0.048113532 -0.13226643 -0.11271514 0.037429582 -0.07072496
-0.07034729 -0.007677129 -0.050850745 -0.04717048 -0.0024398174 -0.019871736 -0.044156116 -0.06622876
-0.11288543 0.10063792 -0.038218867 0.027992357 -0.053708065 0.0036908248 0.12796962 0.047068495
-0.097919 0.045296427 0.120737724 0.033148564 0.07402331 0.1136273 -0.0073908707 0.035985958
-0.09977355 -0.018897349 0.101413295 0.06282517 -0.06868509 -0.09552436 -0.09528418 -0.109573774
-0.09645332 -0.03688834 0.09229088 0.03292263 -0.096474774 -0.11215383 0.07314152 -0.08956757
-0.008505417 0.07192406 -0.04536774 -0.02428919 -0.001322857 -0.042958166 -0.054759 -0.106209904
-0.092597485 -0.06387815 0.10934442 -0.07369744 -0.07496746 0.032329097 0.04653407 0.07728419
0.10234765 0.07015891 -0.114996 0.016683633 0.08805515 -0.020430412 -0.07356717 0.119788766
-0.03767232 -0.06674364 -0.10064142 0.013608713 0.041154396 0.03256289 0.034255333 -0.10690361
-0.10144923 -0.009512419 0.123111494 0.059588414 -0.06610292 -0.013144216 -0.082600534 -0.04629079
0.030324502 0.0563718 0.103998765 -0.124608934 0.08562013 -0.08001094 0.055159096 0.11214275
-0.0024515353 0.12630256 -0.12088785 -0.035754517 0.082859956 -0.022444544 -0.017868046 -0.059169676
0.08405116 0.06846886 0.038327307 -0.07707721 -0.10260092 0.02111356 0.033629652 -0.04638946
-0.032669142 0.077085555 0.009935883 0.011861654 -0.03579497 -0.10479318 -0.10919487 -0.048547223
-0.062024 0.030785844 -0.03475738 -0.04042947 0.12437464 0.03577403 0.082467 -0.051933028
-0.039706476 0.0385061 -0.08993511 -0.084949985 -0.014347961 -0.041816797 -0.10093094 0.08080234
0.095431045 0.020150915 -0.028961623 -0.111679755 -0.035522636 0.036421016 0.056081053 -0.008331301
-0.06139103 0.068954535 -0.09850064 0.08641569 -0.043360844 0.011864461 -0.029501807 0.007817331
-0.036477532 0.09762266 0.0040232777 0.10167499 0.11456741 -0.07841773 -0.086858176 0.103667445
0.09067669 -0.08706079 -0.0063320617 -0.13100623 -0.095452584 0.015260486 0.020937135 0.030375656
-0.031972166 0.10302931 0.025056837 -0.06790247 -0.0126852235 0.01835381 0.048999228 -0.09523837
0.0433084 -0.058174007 -0.097506866 -0.0776427 0.12781982 0.09484213 0.11971948 0.06742624
0.10169563 -0.012351987 -0.07707856 0.050477616 -0.057901144 -0.080882646 -0.03398116 0.037263326
0.06903441 -0.04524429 -0.06662598 0.020658325 -0.07040176 -0.0914192 0.06804211 -0.023125265
0.12146228 0.12377291 0.043154966 0.04048268 0.01731505 0.0010067812 -0.0024243004 -0.009877906
0.049560566 0.10786741 -0.022959534 -0.06395858 -0.025014047 -0.06820767 0.028585743 0.096835084
0.10846528 0.048523188 -0.09841424 -0.07611671 -0.028815122 -0.017374916 0.011985214 -0.11896812
00000000: 72fe 743d 0ce7 9cbd 0e5d 563d 77ea 4c3d
00000010: 6a30 a63d db00 d1bd ebd8 a63d 1028 8cbd
00000020: c6c4 2f3d 0877 ee3d 188e f3bb d464 fabb
00000030: e4a0 14bd 2110 e3bd 1a8e 4e3d 2a21 06be
00000040: ae41 b43d 9c3d a93d d9a1 dd3d 063b 05bd
00000050: ca85 bbbd ee17 ae3c 6d13 a53d 9eb5 06be
00000060: 1ec9 8cbc d958 abbd 717c 89bc af5c 8cbd
00000070: add2 60bd 1ee7 47bd 8146 01be c052 e93d
00000080: 81eb ef3d 1c3c e8bc dd77 c6bb b212 45bd
00000090: da70 07be 32d7 e6bd c34f 193d 3fd8 90bd
000000a0: 3d12 90bd 6d90 fbbb df48 50bd d535 41bd
000000b0: 58e5 1fbb 0dca a2bc 0bdd 34bd f2a2 87bd
000000c0: 7a30 e7bd 411b ce3d 638b 1cbd 3a50 e53c
000000d0: fdfc 5bbd c4e1 713b 780a 033e e5ca 403d
000000e0: c289 c8bd bf88 393d 5745 f73d cac6 073d
000000f0: 8899 973d 6eb5 e83d 1e2f f2bb 0366 133d
00000100: 1356 ccbd 9dce 9abc c6b1 cf3d 7caa 803d
00000110: c5aa 8cbd 47a2 c3bd 5a24 c3bd 3768 e0bd
00000120: 5189 c5bd 3a18 17bd 0003 bd3d e1d9 063d
00000130: 9194 c5bd e8b0 e5bd 39cb 953d 346f b7bd
00000140: 4e5a 0bbc ec4c 933d 86d3 39bd 20fa c6bc
00000150: b763 adba e7f4 2fbd f94a 60bd 9484 d9bd
00000160: c0a3 bdbd 8cd2 82bd f8ef df3d afee 96bd
00000170: 8a88 99bd 846b 043d 829a 3e3d 2c47 9e3d
00000180: a59b d13d 79af 8f3d 0683 ebbd 1dac 883c
00000190: 4256 b43d ae5d a7bc 62aa 96bd d053 f53d
000001a0: 4a4e 1abd e4b0 88bd 171d cebd 14f7 5e3c
000001b0: 8391 283d aa60 053d 524f 0c3d 48f0 dabd
000001c0: 9dc4 cfbd fad9 1bbc e121 fc3d fb12 743d
000001d0: f860 87bd d65a 57bc 782a a9bd 699b 3dbd
000001e0: 176b f83c 1ee6 663d 4efd d43d f832 ffbd
000001f0: 9b59 af3d c7dc a3bd 81ee 613d 19ab e53d
00000200: f0a9 20bb 7555 013e 0d94 f7bd 5473 12bd
00000210: 7bb2 a93d 9fdd b7bc 0260 92bc e75b 72bd
00000220: 0423 ac3d 6739 8c3d 18fd 1c3d a8da 9dbd
00000230: 6e20 d2bd 58f6 ac3c 3fbf 093d e002 3ebd
00000240: 14d0 05bd 08df 9d3d 1dca 223c 6257 423c
00000250: bf9d 12bd cf9d d6bd 8fa1 dfbd 74d9 46bd
00000260: e10c 7ebd 9832 fc3c c15d 0ebd 5f99 25bd
00000270: 22b8 fe3d ca87 123d 75e4 a83d bab7 54bd
00000280: 42a3 22bd 93b8 1d3d e62f b8bd 42fa adbd
00000290: b613 6bbc 1748 2bbd e1b4 cebd b27b a53d
000002a0: 5a71 c33d 8813 a53c ed40 edbc 5bb8 e4bd
000002b0: 2f80 11bd 342e 153d 3fb5 653d 0280 08bc
000002c0: 2975 7bbd 0938 8d3d b4ba c9bd b6fa b03d
000002d0: 249b 31bd 2863 423c c6ad f1bc 4314 003c
000002e0: 7769 15bd 64ee c73d b3d5 833b fa3a d03d
000002f0: 51a2 ea3d 7a99 a0bd b3e2 b1bd 994f d43d
00000300: b3b4 b93d ed4c b2bd 2f7d cfbb 7f26 06be
00000310: a57c c3bd 1e07 7a3c 5b84 ab3c 5ed6 f83c
00000320: 3ff5 02bd 0801 d33d ff43 cd3c 7310 8bbd
00000330: afd5 4fbc bb5a 963c 6ab3 483d 560c c3bd
00000340: 2664 313d de47 6ebd aeb1 c7bd 2303 9fbd
00000350: 33e3 023e 973c c23d 7d2f f53d c516 8a3d
00000360: cc45 d03d fd5f 4abc 5ddb 9dbd 9ec1 4e3d
00000370: c029 6dbd cda5 a5bd d42f 0bbd 6ea1 183d
00000380: ea61 8d3d 1452 39bd 3473 88bd a63b a93c
00000390: cc2e 90bd fd39 bbbd a959 8b3d 3271 bdbc
000003a0: 37c1 f83d a77c fd3d 43c3 303d 2bd1 253d
000003b0: 4bd8 8d3c f9f5 833a 03e1 1ebb f1d6 21bc
000003c0: 0500 4b3d 97e9 dc3d a215 bcbc b7fc 82bd
000003d0: 42ea ccbc 76b0 8bbd a62c ea3c 7951 c63d
000003e0: 0b23 de3d 40c0 463d 688d c9bd 14e3 9bbd
000003f0: b10d ecbc d755 8ebc a25d 443c 8fa5 f3bd

node_encoder.layers.3.bias f4 [64]
-4.7510543e-06 0.0040814844 0.00020130155 -0.025847252 0.0011702926 0.013288006 -0.0078062573 -0.018467434
-0.021499174 -0.0054586325 0.00011375857 0.000105109175 -7.0722153e-06 0.0005694495 0.015894763 -2.7328539e-05
-0.012477238 0.00056812615 -0.013082955 0.00037456263 -0.048967324 0.000342298 -0.030860057 0.00047795847
0.021885272 -0.027701741 -0.008310137 -0.032451425 -0.00059808436 0.0003211071 -0.0074807126 0.0144639285
0.0015823856 -0.044580672 2.4087984e-05 -0.0022887164 -0.00033862193 0.010537534 0.00017815041 -0.022796681
0.023681996 -0.045748875 0.00053843827 0.00046271115 0.042448975 0.052018426 0.00015606168 -0.0006724403
-0.0418299 -0.00031454847 0.00082555163 -0.00075866474 -0.019069899 0.00011676673 0.0075114826 0.031327646
-0.0003170739 0.045696042 -0.04915099 0.00075465644 0.00026819936 -0.0004637071 0.0044925255 -0.019853486
00000000: 3f6b 9fb6 f9bd 853b 7914 5339 9ebd d3bc
00000010: 8164 993a f0b5 593c a2cb ffbb 0449 97bc
00000020: 091f b0bc 54de b2bb ab91 ee38 0f6e dc38
00000030: de4d edb6 1c47 153a bc35 823c 973f e5b7
00000040: 546d 4cbc 4dee 143a e459 56bc f260 c439
00000050: f691 48bd 7676 b339 3bce fcbc 8096 fa39
00000060: be48 b33c c3ee e2bc 3e27 08bc c9eb 04bd
00000070: c3c8 1cba 445a a839 c420 f5bb 1dfa 6c3c
00000080: 0d68 cf3a 399a 36bd 8d10 ca37 4afe 15bb
00000090: 1189 b1b9 9fa5 2c3c e3cd 3a39 1bc0 babc
000000a0: bf00 c23c 2c63 3bbd fb25 0d3a 0a98 f239
000000b0: fade 2d3d 4611 553d 7da4 2339 b446 30ba
000000c0: d455 2bbd fbe9 a4b9 d569 583a 21e1 46ba
000000d0: 7a38 9cbc a9e0 f438 e222 f63b 6b51 003d
000000e0: f03c a6b9 c62b 3b3d 8c52 49bd 23d4 453a
000000f0: 1c9d 8c39 b71d f3b9 0936 933b c7a3 a2bc

node_encoder.layers.4.weight f4 [64]
0.98714036 1.0094622 0.9956133 0.9981271 0.99809784 1.0014759 1.0039681 1.0020232
0.9999329 0.9952086 0.9823491 1.0086466 0.99388355 0.99475425 1.0025778 0.9867755
1.0008831 1.007179 0.98931 0.9969402 1.0064123 1.0083734 0.99673367 1.00894
1.0145131 1.0206667 1.0040848 1.008182 0.98283094 0.99291116 0.9887985 0.9786412
1.0017929 1.0098393 1.008254 1.006706 0.9987535 0.9912286 0.9955178 1.0197678
0.99863935 0.9976684 0.98747253 0.99564296 1.0075585 1.0127487 1.0008641 0.9962096
1.0105551 0.99348605 1.0028831 0.9926757 0.99319094 0.9998352 0.9925357 1.007831
0.9923831 1.0061783 0.99085855 0.9985109 1.0075989 0.99795765 0.99709845 0.9973945
00000000: 3bb5 7c3f 0f36 813f 83e0 7e3f 4285 7f3f
00000010: 5783 7f3f 5d30 803f 0782 803f 4c42 803f
00000020: 9afb 7f3f fec5 7e3f 3b7b 7b3f 551b 813f
00000030: 276f 7e3f 37a8 7e3f 7854 803f 529d 7c3f
00000040: f01c 803f 3eeb 803f 6c43 7d3f 7937 7f3f
00000050: 1ed2 803f 6112 813f f029 7f3f f224 813f
00000060: 91db 813f 35a5 823f da85 803f 1c0c 813f
00000070: cf9a 7b3f 6d2f 7e3f e621 7d3f 3b88 7a3f
00000080: c03a 803f 6a42 813f 780e 813f bedb 803f
00000090: 4fae 7f3f 28c1 7d3f 41da 7e3f c087 823f
000000a0: d4a6 7f3f 3267 7f3f 00cb 7c3f 75e2 7e3f
000000b0: adf7 803f c0a1 813f 511c 803f 9807 7f3f
000000c0: df59 813f 1a55 7e3f 795e 803f ff1f 7e3f
000000d0: c341 7e3f 33f5 7f3f d216 7e3f 9b00 813f
000000e0: d20c 7e3f 73ca 803f e8a8 7d3f 699e 7f3f
000000f0: 00f9 803f 277a 7f3f d841 7f3f 3f55 7f3f

node_encoder.layers.4.bias f4 [64]
-0.007117565 0.002115683 -0.003893465 -0.0021115246 -0.009645368 0.0028382617 0.00066761964 -0.008866088
0.0065568066 0.00013774454 -0.021131616 0.0072027575 0.009097758 -0.003694518 -0.005616002 -0.009201836
0.0070522265 0.000121627054 0.006524758 0.0057814755 0.004853349 0.018555645 0.00036733897 0.0012321755
0.011742895 0.015503339 0.007267032 -0.0038354914 -0.006319805 -0.004362978 -0.003664972 -0.017828004
-0.002586586 0.008843409 0.003033926 0.004454425 -0.0071631204 -0.010915908 0.0045017204 0.012012182
-0.007934419 0.002883906 0.0032752801 -0.0010176753 -0.0058723865 0.0068535195 0.0061612446 0.0008447076
0.008145994 0.0050039613 0.01605403 -0.008934551 -0.011981484 0.009357082 -0.002945854 0.009843908
-0.0087255025 -0.015504079 -0.009823417 -0.0091247745 0.008625758 -0.0022344582 0.011752899 -0.005905424
00000000: 763a e9bb 45a7 0a3b 8129 7fbb 8161 0abb
00000010: 9b07 1ebc 2102 3a3b 3203 2f3a 1243 11bc
00000020: 7bda d63b 856f 1039 361c adbc 1c05 ec3b
00000030: c30e 153c ba1f 72bb 7006 b8bb 4cc3 16bc
00000040: 5d16 e73b 0712 ff38 a3cd d53b 8872 bd3b
00000050: d808 9f3b 0202 983c 6797 c039 f380 a13a
00000060: 4565 403c b701 7e3c 4820 ee3b de5c 7bbb
00000070: 5e16 cfbb 50f7 8ebb 0730 70bb 090c 92bc
00000080: b683 29bb f2e3 103c d5d4 463b 6df6 913b
00000090: 9cb8 eabb a3d8 32bc 2b83 933b bece 443c
000000a0: 5eff 01bc eaff 3c3b 15a6 563b 8463 85ba
000000b0: 266d c0bb 7d93 e03b 44e4 c93b 5e6f 5d3a
000000c0: c676 053c 45f8 a33b be83 833c 3962 12bc
000000d0: fc4d 44bc 724e 193c 3b0f 41bb 5848 213c
000000e0: 69f5 0ebc d204 7ebc 66f2 20bc 1480 15bc
000000f0: 0d53 0d3c fd6f 12bb 3b8f 403c 4982 c1bb

node_encoder.layers.4.running_mean f4 [64]
-0.15018043 -0.27973932 -0.10966157 0.0065584597 0.018634224 -0.37681136 0.13428555 0.04443392
0.0482444 0.18395294 -0.25224537 -0.17955217 0.022589423 -0.09887989 0.28618073 0.08650686
0.059670947 -0.12375674 -0.1703311 0.25516582 0.0017279935 -0.16585442 0.069022566 0.18708491
0.024661716 -0.17212969 -0.032161627 -0.46435636 0.116756685 0.46141994 -0.24049345 -0.44942766
-0.10523542 -0.5340072 0.17399247 0.22844933 0.27948794 -0.34313223 0.4541175 -0.12639256
0.2752612 -0.15131173 -0.11967002 0.09070323 -0.019498589 0.116104275 0.18687306 -0.39343902
-0.1258923 -0.095181644 -0.22294332 -0.32174832 -0.09091688 -0.23304087 -0.03472227 0.1122275
-0.19697553 0.28544173 0.115321025 0.26653737 -0.028833741 0.09775522 0.11952166 0.13980296
00000000: e6c8 19be fe39 8fbe 3f96 e0bd 59e8 d63b
00000010: cda6 983c 6bed c0be 2782 093e 5800 363d
00000020: ec9b 453d 295e 3c3e 4e26 81be 86dc 37be
00000030: 740d b93c 8a81 cabd 4886 923e 822a b13d
00000040: 8669 743d 2c74 fdbd 476b 2ebe 18a5 823e
00000050: d77d e23a bed5 29be b45b 8d3d 3093 3f3e
00000060: 5e07 ca3c c442 30be e9bb 03bd 1ec0 edbe
00000070: 211e ef3d 3c3f ec3e ea43 76be 621b e6be
00000080: ab85 d7bd b2b4 08bf 152b 323e 9fee 693e
00000090: 0b19 8f3e 07af afbe 1782 e83e 0d6d 01be
000000a0: 09ef 8c3e 76f1 1abe 8e15 f5bd 9dc2 b93d
000000b0: 81bb 9fbc 14c8 ed3d a75b 3f3e d770 c9be
000000c0: e9e9 00be 98ee c2bd 414b 64be 32bc a4be
000000d0: a132 babd 44a2 6ebe f038 0ebd 88d7 e53d
000000e0: f4b3 49be 6b25 923e 6e2d ec3d 9677 883e
000000f0: bd34 ecbc e433 c83d c6c7 f43d 8228 0f3e

node_encoder.layers.4.running_var f4 [64]
0.13097185 0.09466644 0.08906032 0.11351716 0.09484154 0.035537016 0.25531873 0.18603875
0.19827431 0.087628596 0.03167094 0.09295444 0.17988658 0.18766393 0.041510172 0.062871374
0.1221018 0.13345592 0.05065459 0.05862287 0.08318535 0.2399212 0.22132096 0.023875711
0.13300045 0.15914083 0.20985408 0.05035094 0.038854904 0.12533762 0.078876175 0.2208762
0.056592714 0.06466289 0.07311977 0.11901106 0.120277986 0.3746733 0.19146673 0.05871351
0.12684776 0.1545081 0.12810569 0.2408734 0.09369892 0.14800332 0.12705158 0.16871293
0.12318308 0.0921862 0.09901925 0.12867665 0.20840232 0.09633393 0.19834623 0.14261949
0.22721961 0.044973228 0.12920251 0.10736012 0.104592435 0.20304447 0.18710856 0.1503872
00000000: 7c1d 063e 7ae0 c13d 4265 b63d af7b e83d
00000010: 483c c23d 438f 113d 23b9 823e f180 3e3e
00000020: 6c08 4b3e 9f76 b33d 63b9 013d e65e be3d
00000030: 3034 383e f92a 403e 9206 2a3d b5c2 803d
00000040: 8210 fa3d aba8 083e 307b 4f3d 891e 703d
00000050: 155d aa3d e7ad 753e f6a1 623e ff96 c33c
00000060: 4531 083e d0f5 223e fde3 563e ca3c 4e3d
00000070: 5226 1f3d 8158 003e d589 a13d 5f2d 623e
00000080: c3cd 673d fa6d 843d d1bf 953d 12bc f33d
00000090: 4e54 f63d 2ed5 bf3e db0f 443e 947d 703d
000000a0: 61e4 013e 5f37 1e3e 232e 033e 84a7 763e
000000b0: 38e5 bf3d 2f8e 173e cf19 023e 15c3 2c3e
000000c0: 6947 fc3d 1ecc bc3d 9bca ca3d d0c3 033e
000000d0: 6b67 553e b94a c53d 461b 4b3e d80a 123e
000000e0: 42ac 683e d935 383d aa4d 043e 9fdf db3d
000000f0: 8f34 d63d e4ea 4f3e 6399 3f3e 1aff 193e

node_encoder.layers.6.weight f4 [32, 64]
0.09219289 -0.11152158 -0.077828705 -0.014636819 -0.120071165 -0.1160038 -0.10903219 0.101068504
0.016912943 -0.042494863 -0.0028108074 -0.11483608 -0.11966572 -0.09139613 -0.12970461 0.07818595
-0.047154643 -0.039793547 -0.11231168 0.011060818 -0.016498938 -0.09091198 0.07416373 0.10060438
-0.09847272 0.076504685 -0.015797395 0.015473753 0.059030447 -0.029450541 0.10001432 0.07040515
-0.07799469 -0.0669982 -0.13190566 0.032458346 -0.10595914 -0.09686517 -0.08312199 -0.12729886
-0.106131166 0.11364961 0.07400539 0.10461848 -0.06186213 -0.049490053 -0.049047012 -0.008522205
-0.096867144 0.014318976 -0.08139925 0.03516597 0.106373 0.011554184 0.08511831 -0.09996074
-0.024287775 -0.090289645 -0.020218981 -0.054301772 -0.0766647 -0.11723321 -0.04691313 0.018485488
-0.015418176 -0.10764275 0.07931603 0.08332045 -0.07318795 0.014982564 0.07638764 -0.123875506
-0.103332065 0.06574644 0.00688012 0.048862215 -0.057951182 0.01884155 0.07646039 -0.0269426
-0.045528043 -0.12992293 -0.017885905 0.07503829 -0.12473212 -0.003942726 0.084522724 -0.01707841
-0.05144751 -0.047066733 -0.04931402 0.037141137 -0.108502194 0.041517623 -0.01596365 -6.847766e-05
-0.0048442935 0.077370495 -0.08004257 -0.12537493 -0.10041713 -0.09129996 -0.066180445 0.11508215
-0.08710579 -0.07139832 -0.09819847 -0.06410123 0.002731373 -0.082369 0.00015939098 0.05451497
-0.0243679 0.05329127 0.03657012 0.124127045 -0.0004657476 0.10440407 0.09638667 0.06172113
0.08367961 -0.09235118 -0.073667005 0.0460102 0.046411637 0.10000564 -0.018579556 -0.029109547
0.08128119 0.019060152 0.124261245 -0.05835406 -0.03544694 -0.004099763 0.060822334 -0.11137806
-0.045963414 0.095176235 0.030911427 0.080692105 -0.044406883 -0.07799957 -0.08938554 -0.07096957
-0.09144825 0.064983 0.04556409 -0.07334241 0.11906875 0.03788039 0.039848354 -0.056698017
0.07820207 -0.092300735 0.09711949 -0.066383295 0.053965773 -0.052610133 0.078357436 -0.10433608
-0.024255821 -0.04272641 -0.08327493 -0.05676326 -0.04364051 0.00483685 0.08389903 -0.016853971
0.115526006 -0.052941725 -0.060904793 -0.00837335 -0.018665923 0.041416362 0.10753137 0.034525692
-0.109480105 -0.0465791 -0.025244212 -0.106326535 0.0469416 0.1021734 0.061127722 0.00026584492
-0.015685873 -0.07116502 -0.016669333 0.11092095 -0.07227893 0.021699367 -0.08438392 -0.029327754
0.019313885 -0.09403001 0.037778486 -0.10141028 -0.046064656 0.09130227 0.12550974 -0.0018208947
-0.09340138 -0.092659354 -0.027519638 -0.07053125 0.095454976 -0.0874943 0.08742114 0.01653072
-0.040468115 0.10732046 0.065015845 0.0023391477 -0.07610947 -0.047058653 0.045934826 0.10898549
-0.046384435 -0.03747552 -0.114160605 0.08125953 0.12239998 0.079072766 -0.07926068 0.07541984
-0.044081125 0.06643288 0.06869611 -0.09560067 0.033573605 0.05438025 -0.065388896 0.10107261
0.09065103 0.113319546 0.006214303 -0.067453116 -0.06290838 0.051197454 -0.027781976 0.09038873
0.10886141 0.010478546 -0.111825936 0.046351902 0.110429145 -0.029235207 -0.07354117 -0.028669784
0.011555659 -0.09754103 0.05855271 0.05700428 -0.036806636 -0.036170095 -0.055954807 0.10654048
00000000: a0cf bc3d 6d65 e4bd a864 9fbd 45cf 6fbc
00000010: dfe7 f5bd 6693 edbd 454c dfbd 01fd ce3d
00000020: 038d 8a3c 180f 2ebd 8635 38bb 2e2f ebbd
00000030: 4d13 f5bd e52d bbbd 49d1 04be f51f a03d
00000040: 3a25 41bd 8ffe 22bd ab03 e6bd 6f38 353c
00000050: c828 87bc 0f30 babd 27e3 973d ab09 ce3d
00000060: 11ac c9bd 7dae 9c3d 8a69 81bc a085 7d3c
00000070: e9c9 713d 4342 f1bc 4fd4 cc3d 9330 903d
00000080: aebb 9fbd 5a36 89bd 4712 07be 0bf3 043d
00000090: 1b01 d9bd 3f61 c6bd dd3b aabd a25a 02be
000000a0: 4c5b d9bd 20c1 e83d 2390 973d 3742 d63d
000000b0: 2563 7dbd 15b6 4abd 85e5 48bd b8a0 0bbc
000000c0: 4862 c6bd 239a 6a3c a6b4 a6bd 310a 103d
000000d0: 16da d93d c34d 3d3c 8252 ae3d 37b8 ccbd
000000e0: 28f7 c6bc c7e9 b8bd 47a2 a5bc 896b 5ebd
000000f0: 6202 9dbd f717 f0bd fb27 40bd e16e 973c
00000100: 849c 7cbc cd73 dcbd 7170 a23d e9a3 aa3d
00000110: 90e3 95bd 6e79 753c 1f71 9c3d 71b2 fdbd
00000120: c39f d3bd 12a6 863d a172 e13b bf23 483d
00000130: 385e 6dbd 9859 9a3c 4497 9c3d bab6 dcbc
00000140: 9d7b 3abd 840a 05be 7685 92bc adad 993d
00000150: 8e73 ffbd fc31 81bb 401a ad3d 06e8 8bbc
00000160: a0ba 52bd 0cc9 40bd 7ffd 49bd 4e21 183d
00000170: 6636 debd 620e 2a3d 33c6 82bc aa9b 8fb8
00000180: e1bc 9ebb 6c74 9e3d 5ced a3bd 4962 00be
00000190: 7fa7 cdbd 79fb babd 9d89 87bd 31b0 eb3d
000001a0: 8564 b2bd 4839 92bd 481c c9bd 8147 83bd
000001b0: d600 333b 14b1 a8bd 3122 2739 174b 5f3d
000001c0: 319f c7bc f247 5a3d 8dca 153d 5236 fe3d
000001d0: 962f f4b9 cdd1 d53d 6066 c53d 4ccf 7c3d
000001e0: 3760 ab3d 9e22 bdbd bade 96bd 3175 3c3d
000001f0: 211a 3e3d c2cf cc3d 2734 98bc 2577 eebc
00000200: c176 a63d 0924 9c3c ae7c fe3d ab04 6fbd
00000210: d030 11bd 4e57 86bb d720 793d 2e1a e4bd
00000220: 2244 3cbd c2eb c23d f639 fd3c e741 a53d
00000230: fee3 35bd 3dbe 9fbd c40f b7bd 7e58 91bd
00000240: 3849 bbbd cf15 853d 69a1 3a3d 8c34 96bd
00000250: 51da f33d 7828 1b3d 0738 233d 2e3c 68bd
00000260: 6828 a03d 2b08 bdbd 95e6 c63d f7f3 87bd
00000270: 370b 5d3d b97d 57bd dd79 a03d 28ae d5bd
00000280: 25b4 c6bc e301 2fbd 0c8c aabd 9880 68bd
00000290: 64c0 32bd 707e 9e3b 41d3 ab3d 5711 8abc
000002a0: e698 ec3d 6cd9 58bd 4e77 79bd 6030 09bc
000002b0: 47e9 98bc 34a4 293d 6839 dc3d d06a 0d3d
000002c0: 1b37 e0bd bac9 3ebd f3cc cebc bac1 d9bd
000002d0: d645 403d 4a40 d13d 1061 7a3d 1a61 8b39
000002e0: a97f 80bc f7be 91bd 208e 88bc 862a e33d
000002f0: fa06 94bd dfc2 b13c 7ad1 acbd c240 f0bc
00000300: 2738 9e3c ce92 c0bd 9dbd 1a3d 31b0 cfbd
00000310: 4bae 3cbd affc ba3d a085 003e 16ab eeba
00000320: 3949 bfbd 30c4 bdbd dd70 e1bc b072 90bd
00000330: e67d c33d 3630 b3bd db09 b33d 6f6b 873c
00000340: e5c1 25bd d4ca db3d 0727 853d 634c 193b
00000350: 48df 9bbd 93c0 40bd 2826 3c3d c933 df3d
00000360: 9bfd 3dbd ee7f 19bd 09cd e9bd 656b a63d
00000370: d7ac fa3d e7f0 a13d 6c53 a2bd b875 9a3d
00000380: 698e 34bd f60d 883d 8cb0 8c3d 49ca c3bd
00000390: 7a84 093d d3bd 5e3d 9dea 85bd 28ff ce3d
000003a0: 3fa7 b93d 1414 e83d 5aa1 cb3b dc24 8abd
000003b0: 1cd6 80bd 6cb4 513d 0797 e3bc ba1d b93d
000003c0: bbf2 de3d 35ae 2b3c ff04 e5bd 7edb 3d3d
000003d0: ad28 e23d ac7e efbc c19c 96bd e5dc eabc
000003e0: f253 3d3c 97c3 c7bd f7d4 6f3d 527d 693d
000003f0: 8ec2 16bd 1827 14bd de30 65bd e531 da3d

node_encoder.layers.6.bias f4 [32]
0.015912285 0.004356559 0.010722325 -0.00016792666 -0.03256799 3.899545e-06 0.04555339 0.040396925
-0.013114247 0.022182295 0.003273943 -0.00035278872 0.009674171 3.8845163e-05 -0.00016101116 -0.019053439
0.00016094012 0.052949917 0.015833259 -0.034336533 -3.7216446e-07 0.01738931 -0.0021805505 0.00014767541
0.006260336 0.03777917 0.044995766 -0.025550963 -0.048877556 0.024008878 -9.031645e-05 0.044517897
00000000: 7b5a 823c 77c1 8e3b b1ac 2f3c 7815 30b9
00000010: 0366 05bd d6d8 8236 3196 3a3d 3f77 253d
00000020: 23dd 56bc a5b7 b53c a68f 563b 80f6 b8b9
00000030: 6a80 1e3c aded 2238 1bd5 28b9 f515 9cbc
00000040: 09c2 2839 03e2 583d c0b4 813c 77a4 0cbd
00000050: e5cd c7b4 0774 8e3c 91e7 0ebb 51d9 1a39
00000060: 8123 cd3b 55be 1a3d 7b4d 383d 4150 d1bc
00000070: d533 48bd 44ae c43c 4668 bdb8 6658 363d

edge_encoder.layers.0.weight f4 [64, 4]
0.35493475 -0.20007144 0.13608427 0.15769432 -0.16793984 0.45791858 0.049411174 -0.1444585
-0.45515653 0.40245658 -0.48808286 0.35490593 -0.15914507 -0.0891087 0.08310978 0.47695622
-0.30764198 -0.34268335 0.31718317 -0.2099572 -0.18350849 0.27838182 -0.21367168 0.27611482
-0.20389383 0.3826505 0.487173 0.051029593 -0.1546357 0.2686537 0.15129207 0.0068120314
0.417112 -0.016542537 0.1952081 -0.12142925 -0.082404554 -0.031098107 0.04142022 0.22417578
0.3754458 0.28724796 -0.21171296 0.40914705 0.31268838 0.19252093 0.060152628 -0.25584993
-0.30979997 0.016405586 -0.35332343 0.15408781 -0.453376 -0.44307488 -0.21889576 0.25694293
0.4054083 -0.41875505 -0.3041569 0.09684072 -0.08010509 -0.4017112 0.14577232 -0.376764
0.0079672905 0.20656122 0.44384378 -0.39852914 0.35078984 0.0668401 0.44393775 0.44646457
-0.104493454 -0.081277974 -0.13005684 0.37903044 -0.2170707 0.3297339 0.20581451 0.44722518
0.35608774 0.3856003 -0.40500447 -0.2267366 -0.3548721 0.2304121 0.10570442 0.18720154
0.19650319 0.03012925 0.18087935 -0.27181804 0.3201195 -0.43565845 -0.4518815 0.14278671
0.46671665 -0.16921137 0.4653589 -0.1631348 -0.37393332 -0.08240359 0.2780485 -0.22837396
0.4657184 -0.23141538 -0.21900797 -0.1970399 -0.3859128 0.45214152 -0.28361863 -0.20914502
-0.14063886 0.40384817 0.25475612 0.17920974 -0.14077738 0.24014395 0.08687897 0.3942536
0.117102265 0.37095213 0.33216935 0.08185538 -0.4768424 0.11239463 -0.3662147 0.07494063
-0.04705362 0.37868756 -0.37026227 -0.38460973 0.20545708 0.34498408 -0.11436679 0.13033375
0.39942092 0.06914208 -0.13854307 0.27791557 0.45861632 -0.09075879 0.32560098 0.0053933607
-0.08559241 -0.053184498 -0.47762614 0.21492405 -0.26450124 -0.43387786 -0.06438777 -0.17855927
-0.2979808 -0.11104843 -0.057241604 0.1535624 0.06561963 -0.055792667 0.11186019 -0.3292498
0.4307971 0.22688685 0.3077205 -0.4061313 0.33797184 0.083901584 -0.4744002 0.4456099
-0.009570659 0.10896431 0.38507208 0.32284522 0.440354 -0.4618297 0.48252815 0.10362907
0.018272126 -0.404055 -0.24820268 0.45652047 0.38348624 0.37701425 -0.035112206 -0.25544277
0.10942923 -0.23000966 -0.3317616 0.15546209 0.37584293 -0.38732228 -0.43859285 0.06452537
-0.1851438 -0.25618932 -0.09947 -0.02472414 -0.14529666 0.34968853 0.27766293 0.137417
-0.1600565 -0.029622031 0.31585523 0.029738978 -0.48182645 0.06523819 0.2589867 -0.11979888
-0.10514645 -0.07753731 0.2889123 0.37339476 -0.39399955 0.32465765 0.20162666 0.16369067
-0.29525876 -0.27801114 0.4807369 0.10289952 -0.10635479 -0.09630065 0.33759084 -0.10780315
0.34054416 -0.13201545 0.11633546 0.107685514 -0.2538311 0.016437653 0.098602906 -0.47782755
-0.09399056 0.02973478 0.40930927 0.09445526 -0.4248914 -0.15629463 0.48300916 -0.083806016
0.3732328 0.04447346 0.32966715 -0.19485062 0.48478705 0.10415461 -0.10808728 0.34997576
0.24224229 -0.34402153 -0.023732511 0.32947978 0.119954154 -0.14908203 -0.33502364 -0.3348782
00000000: 02ba b53e 87df 4cbe ad59 0b3e 9f7a 213e
00000010: 6cf8 2bbe 4e74 ea3e 5f63 4a3d eeec 13be
00000020: 470a e9be ca0e ce3e ffe5 f9be 3bb6 b53e
00000030: edf6 22be 9f7e b6bd 7635 aa3d 9b33 f43e
00000040: 4083 9dbe 3174 afbe d565 a23e 05ff 56be
00000050: a6e9 3bbe 1088 8e3e c0cc 5abe ec5e 8d3e
00000060: 8bc9 50be c4ea c33e bd6e f93e 6804 513d
00000070: d258 1ebe fa8c 893e 4fec 1a3e 7637 df3b
00000080: b48f d53e 3784 87bc a2e4 473e e6af f8bd
00000090: b8c3 a8bd 75c1 febc 40a8 293d 568e 653e
000000a0: 6f3a c03e 2a12 933e 48cb 58be b97b d13e
000000b0: b118 a03e 3524 453e 9a62 763d c3fe 82be
000000c0: 1a9e 9ebe 0265 863c cfe6 b4be 32c9 1d3e
000000d0: e620 e8be b6da e2be 3626 60be 068e 833e
000000e0: ad91 cf3e 1067 d6be 74ba 9bbe 6d54 c63d
000000f0: 230e a4bd 17ad cdbe 5745 153e 36e7 c0be
00000100: 3d89 023c c984 533e 7e3f e33e 030c ccbe
00000110: ba9a b33e 76e3 883d cf4b e33e 0197 e43e
00000120: aa00 d6bd 1175 a6bd 9f2d 05be 4710 c23e
00000130: c847 5ebe e2d2 a83e 0ac1 523e b3fa e43e
00000140: 2251 b63e 676d c53e bf5c cfbe a42d 68be
00000150: ccb1 b5be 26f1 6b3e 8f7b d83d c3b1 3f3e
00000160: 2238 493e 9ed1 f63c 7038 393e bc2b 8bbe
00000170: b4e6 a33e a00e dfbe 035d e7be ae36 123e
00000180: 7cf5 ee3e bf45 2dbe 8643 ee3e cf0c 27be
00000190: 3074 bfbe 37c3 a8bd 5f5c 8e3e ddda 69be
000001a0: a472 ee3e 27f8 6cbe a043 60be d4c4 49be
000001b0: 5d96 c5be 187f e73e 7636 91be 1d2a 56be
000001c0: a203 10be 30c5 ce3e 656f 823e c282 373e
000001d0: f227 10be 4ce8 753e 9aed b13d 9cdb c93e
000001e0: 50d3 ef3d 70ed bd3e 1a12 aa3e cba3 a73d
000001f0: b024 f4be 282f e63d 7e80 bbbe 797a 993d
00000200: 4cbb 40bd 56e3 c13e 0493 bdbe 91eb c4be
00000210: 5763 523e c1a1 b03e 2339 eabd 3676 053e
00000220: e680 cc3e 5d9a 8d3d 3cde 0dbe f34a 8e3e
00000230: c2cf ea3e bfdf b9bd 2cb5 a63e caba b03b
00000240: 134b afbd fdd7 59bd 6a8b f4be 0d15 5c3e
00000250: b56c 87be 3d25 debe bcdd 83bd 3ed8 36be
00000260: f090 98be 5c6d e3bd 2c76 6abd 763f 1d3e
00000270: 9663 863d da86 64bd f516 e53d 6e93 a8be
00000280: 7091 dc3e 0755 683e 8b8d 9d3e 71f0 cfbe
00000290: a50a ad3e 98d4 ab3d 95e4 f2be fb26 e43e
000002a0: 41ce 1cbc ae28 df3d 2b28 c53e f84b a53e
000002b0: 1476 e13e f174 ecbe ee0d f73e 7a3b d43d
000002c0: 6daf 953c 4ce0 cebe d828 7ebe 0dbd e93e
000002d0: 4f58 c43e 0308 c13e d1d1 0fbd 65c9 82be
000002e0: 6f1c e03d a787 6bbe a8dc a9be 7431 1f3e
000002f0: 7c6e c03e 1b4f c6be 3e8f e0be e125 843d
00000300: 5696 3dbe 3f2b 83be edb6 cbbd 488a cabc
00000310: a6c8 14be 600a b33e d629 8e3e 0bb7 0c3e
00000320: dae5 23be e7a9 f2bc c7b7 a13e 289f f33c
00000330: f5b1 f6be 9a9b 853d e899 843e 1d59 f5bd
00000340: 0657 d7bd e2cb 9ebd 50ec 933e 992d bf3e
00000350: 4fba c9be 8739 a63e 3877 4e3e 879e 273e
00000360: 282c 97be 7a57 8ebe 2623 f63e fcbc d23d
00000370: 8ad0 d9bd 4639 c5bd b5d8 ac3e e6c7 dcbd
00000380: ce5b ae3e 0f2f 07be 4941 ee3d 398a dc3d
00000390: 26f6 81be 42a8 863c 52f0 c93d d0a5 f4be
000003a0: 1f7e c0bd 5a96 f33c fc90 d13e c271 c13d
000003b0: 5e8b d9be b30b 20be fa4c f73e 7da2 abbd
000003c0: 5f18 bf3e ce29 363d 22ca a83e ec86 47be
000003d0: 0236 f83e 034f d53d dd5c ddbd 0630 b33e
000003e0: 5d0e 783e 9723 b0be af6a c2bc 93b1 a83e
000003f0: 86aa f53d f6a8 18be 3888 abbe 2875 abbe

edge_encoder.layers.0.bias f4 [64]
0.2021376 0.15150844 -0.36561427 -0.035725385 0.056734122 -0.36493635 0.3535241 -0.0021037292
-0.12904157 0.0030415456 0.10739818 0.042988542 0.39654016 0.20561397 -0.0005303263 0.021497173
0.051882304 -0.12440055 -0.35108334 -0.0020499956 -0.116822064 -0.39469895 0.1051771 -0.13550815
0.40105563 0.1056616 0.13855657 0.07437433 0.121204995 0.24374504 0.2904227 -8.0095684e-05
-0.070668526 0.064876325 -0.15087876 -0.0002514886 0.07461549 0.14874849 -0.40596065 0.11986251
-0.1198456 -0.2754321 -0.1385608 -2.3055347e-05 0.17102665 -0.3678498 0.06519436 0.37299758
-0.20660923 0.05037969 -0.12700687 0.053468764 0.14202976 -0.23176119 0.0505304 0.41647005
-0.0007334336 -0.27814093 -5.6537803e-05 0.0422547 0.082070984 0.0007865626 -0.039562706 -0.17334715
00000000: 29fd 4e3e 0725 1b3e cb31 bbbe c854 12bd
00000010: 0a62 683d f0d8 babe 1c01 b53e b8de 09bb
00000020: 7923 04be ab54 473b 94f3 db3d c114 303d
00000030: 5007 cb3e 788c 523e 9805 0bba d71a b03c
00000040: 8a82 543d b7c5 febd 32c1 b3be 3859 06bb
00000050: 6840 efbd fb15 cabe 1767 d73d a6c2 0abe
00000060: 2a57 cd3e 1c65 d83d c6e1 0d3e 9251 983d
00000070: 533a f83d 4d98 793e 49b2 943e 0bf9 a7b8
00000080: a9ba 90bd e1dd 843d f67f 1abe 3ada 83b9
00000090: 02d0 983d 8651 183e 13da cfbe 7a7a f53d
000000a0: 9c71 f5bd 7005 8dbe e2e2 0dbe fb66 c1b7
000000b0: 9c21 2f3e cf56 bcbe 9f84 853d 8af9 be3e
000000c0: 5f91 53be ef5a 4e3d 170e 02be 1002 5b3d
000000d0: 4070 113e ce52 6dbe f7f8 4e3d 903b d53e
000000e0: e543 40ba 7d68 8ebe 0123 6db8 4413 2d3d
000000f0: d514 a83d 5331 4e3a 810c 22bd ea81 31be

edge_encoder.layers.1.weight f4 [64]
0.9850257 0.97808254 0.9896379 0.99972177 0.9857027 0.9995165 0.983443 0.9983168
0.9966787 0.9796851 1.0016102 0.987154 0.97732073 0.9723777 0.9876375 0.9872193
0.9781557 0.9877777 0.9759943 0.9904908 0.9801631 0.9806419 0.9816904 0.98479205
0.9851195 0.99021614 0.9780437 0.99532413 0.98224676 0.9834822 0.9892812 0.9865598
0.99838585 0.98464817 0.9802327 0.98859745 0.9874484 0.98241365 0.9814186 0.986
0.9817851 0.9877112 0.9903241 0.9940119 0.9950685 0.9859502 0.9982358 0.9835318
0.97561246 0.9829978 0.9909578 0.9797156 0.97071403 0.99066424 0.99964327 0.9929739
0.9733277 1.000973 0.99117637 0.99089104 0.9968741 1.0008442 0.9793896 0.99646354
00000000: a52a 7c3f 9e63 7a3f e958 7d3f c4ed 7f3f
00000010: 0357 7c3f 50e0 7f3f ecc2 7b3f b191 7f3f
00000020: 5626 7f3f a5cc 7a3f c334 803f 20b6 7c3f
00000030: b131 7a3f bfed 783f d0d5 7c3f 67ba 7c3f
00000040: 6968 7a3f 00df 7c3f c3da 793f ce90 7d3f
00000050: f8eb 7a3f 590b 7b3f 1050 7b3f 551b 7c3f
00000060: cb30 7c3f ce7e 7d3f 1261 7a3f 90cd 7e3f
00000070: 8674 7b3f 7dc5 7b3f 8841 7d3f 2f8f 7c3f
00000080: 3796 7f3f e711 7c3f 88f0 7a3f b914 7d3f
00000090: 6bc9 7c3f 767f 7b3f 403e 7b3f 7f6a 7c3f
000000a0: 4556 7b3f a4da 7c3f e185 7d3f 9077 7e3f
000000b0: cfbc 7e3f 3b67 7c3f 628c 7f3f bdc8 7b3f
000000c0: bdc1 793f bea5 7b3f 69af 7d3f a4ce 7a3f
000000d0: b780 783f 2c9c 7d3f 9fe8 7f3f 8a33 7e3f
000000e0: 012c 793f e21f 803f bcbd 7d3f 09ab 7d3f
000000f0: 2433 7f3f aa1b 803f 47b9 7a3f 3c18 7f3f

edge_encoder.layers.1.bias f4 [64]
-0.0040241843 -0.0045061274 -0.0059582405 0.0055740676 -4.8482165e-05 0.008461309 -0.009798169 0.0068992125
0.0033130154 0.0024944155 0.008236671 -0.0024167618 -0.0076142694 -0.012089429 -0.009387224 -0.0058973297
-0.015476908 -0.007491934 -0.018024024 -0.004033793 -0.0069009154 -0.012355265 -0.006691709 -0.0055911927
-0.0042984495 -0.002139173 -0.0009296182 0.00535061 -0.003576362 -0.0069118063 -0.004820382 -0.0067159864
0.003383028 -0.004606233 -0.010848705 -0.007814026 -0.009346319 -0.017893782 -0.0017232586 -0.0101389
-0.006861863 -0.001747581 -0.00482743 0.0056896247 0.0033217126 -0.008835799 0.003988504 -0.00732928
-0.013312141 -0.010641515 -0.0020287938 -0.011813289 -0.018300554 -0.005389008 0.008230786 -0.0036548092
-0.008093782 0.011913067 -0.003294801 0.00021064424 0.0016924267 0.0064014965 -0.012046495 0.00067789346
00000000: 4edd 83bb 23a8 93bb 583d c3bb aba6 b63b
00000010: 5459 4bb8 4da1 0a3c 8088 20bc ca12 e23b
00000020: 2d1f 593b 5979 233b 1af3 063c 8962 1ebb
00000030: 1f81 f9bb be12 46bc dfcc 19bc 633e c1bb
00000040: db92 7dbc e67e f5bb 1ea7 93bc e92d 84bb
00000050: 1321 e2bb bd6d 4abc 2046 dbbb 5336 b7bb
00000060: 02da 8cbb 5e31 0cbb 9fb1 73ba 2b54 af3b
00000070: 6661 6abb 6f7c e2bb 4cf4 9dbb c711 dcbb
00000080: cbb5 5d3b e2ef 96bb c4be 31bc 6706 00bc
00000090: 4e21 19bc fb95 92bc f7de e1ba a11d 26bc
000000a0: 7bd9 e0bb 160f e5ba 6b2f 9ebb 0870 ba3b
000000b0: 17b1 593b 07c4 10bc ffb1 823b 752a f0bb
000000c0: 2b1b 5abc c059 2ebc 83f5 04bb 868c 41bc
000000d0: 0beb 95bc 4796 b0bb 6bda 063c 8685 6fbb
000000e0: c89b 04bc 062f 433c 97ed 57bb 62e0 5c39
000000f0: 6bd4 dd3a a5c3 d13b aa5e 45bc a9b4 313a

edge_encoder.layers.1.running_mean f4 [64]
0.21400431 0.14462297 -0.35268992 -0.018304385 0.049137205 -0.35712993 0.3511664 -0.007008394
-0.13962072 0.013674243 0.13041328 0.03328662 0.41115138 0.2262149 0.010661129 0.0085890945
0.030794535 -0.11332563 -0.33681008 0.011306575 -0.12841678 -0.3946591 0.0950871 -0.123806745
0.39514333 0.09595874 0.13912794 0.06751307 0.12675375 0.26229858 0.291905 0.0058121523
-0.090040684 0.07325344 -0.14066637 -0.0018080162 0.09351254 0.1483941 -0.4027121 0.10857407
-0.14619187 -0.25441045 -0.1335442 0.0035993368 0.20137064 -0.38532206 0.08144521 0.38917425
-0.20919183 0.053551197 -0.13333555 0.046973754 0.15965381 -0.23447034 0.054351673 0.41277865
0.0042975806 -0.30534026 -0.0009381626 0.036453377 0.073737055 0.017924204 -0.024572177 -0.18697035
00000000: f223 5b3e 0b18 143e c693 b4be 14f3 95bc
00000010: 1844 493d bcd9 b6be 15cc b33e aca6 e5bb
00000020: bcf8 0ebe ef09 603c 0f8b 053e 8d57 083d
00000030: 6f82 d23e e1a4 673e 04ac 2e3c 46b9 0c3c
00000040: d244 fc3c 4517 e8bd 5f72 acbe 363f 393c
00000050: b07f 03be c210 cabe 07bd c23d 648e fdbd
00000060: 3a50 ca3e 0486 c43d 8e77 0e3e 4b44 8a3d
00000070: bccb 013e 004c 863e 9274 953e de73 be3b
00000080: 4067 b8bd e605 963d d80a 10be f5fa ecba
00000090: 8183 bf3d 9ff4 173e 4830 cebe 155c de3d
000000a0: 52b3 15be 1642 82be d0bf 08be dae2 6b3b
000000b0: 1b34 4e3e ef48 c5be bfcc a63d d941 c73e
000000c0: 6236 56be 8058 5b3d 1d89 08be 8d67 403d
000000d0: 4a7c 233e fe18 70be dc9f 5e3d b957 d33e
000000e0: b8d2 8c3b 8f55 9cbe 07ef 75ba 2350 153d
000000f0: 7403 973d c8d5 923c 974b c9bc 2875 3fbe

edge_encoder.layers.1.running_var f4 [64]
0.039093517 0.027916903 0.22643724 0.010328117 0.100934826 0.04710854 0.19609667 0.028239632
0.057132993 0.0025530425 0.064607106 0.022555849 0.10769395 0.08817914 0.11397298 0.03285479
0.14952815 0.16545716 0.0149891395 0.05062522 0.15639642 0.035200138 0.030587476 0.18672167
0.19864649 0.080702156 0.077670634 0.105171815 0.067511834 0.015045117 0.09685203 0.13835393
0.11545052 0.028245268 0.041322716 0.11389052 0.170222 0.033096276 0.018442275 0.010340767
0.10515912 0.18587518 0.11043703 0.22599658 0.062143717 0.03917004 0.08804571 0.18052845
0.01931488 0.07280063 0.077666186 0.08885952 0.06404443 0.06725892 0.19160917 0.08636575
0.03130443 0.018294688 0.12473014 0.20373504 0.1029695 0.049049404 0.022623712 0.08714133
00000000: 8620 203d fdb1 e43c 2adf 673e 4337 293c
00000010: ebb6 ce3d e2f4 403d 91cd 483e cd56 e73c
00000020: 4904 6a3d f250 273b bb50 843d 0bc7 b83c
00000030: a58e dc3d 4497 b43d aa6a e93d bf92 063d
00000040: e81d 193e 9a6d 293e 0295 753c 645c 4f3d
00000050: 6226 203e 052e 103d 9692 fa3c f733 3f3e
00000060: fc69 4b3e 2c47 a53d c811 9f3d 5264 d73d
00000070: a543 8a3d cb7f 763c 5b5a c63d a7ac 0d3e
00000080: 5271 ec3d 9f62 e73c 0242 293d 6f3f e93d
00000090: ad4e 2e3e f68f 073d 4114 973c 526c 293c
000000a0: aa5d d73d 1056 3e3e cf2c e23d a66b 673e
000000b0: 698a 7e3d c470 203d 4f51 b43d 73dc 383e
000000c0: 3d3a 9e3c 7f18 953d 730f 9f3d fbfb b53d
000000d0: ba29 833d 0bbf 893d 3235 443e 87e0 b03d
000000e0: 1339 003d bede 953c 8472 ff3d eb9f 503e
000000f0: ace1 d23d 07e8 483d 5d55 b93c 2777 b23d
