gnn/gnn_outputs/checkpoint_epoch_50.pt (torch, 971676 bytes, 208 tensors)

node_encoder.layers.0.weight f4 [64, 3]
0.44702396 0.47316048 -0.14051108 0.5372376 -0.12288019 0.1063328 -0.2685099 0.34912357
0.5162836 -0.4117318 0.514902 0.09341879 0.43083107 0.071490854 0.27458963 -0.09054606
0.43659317 0.09293862 -0.2812855 0.15184364 -0.24794987 -0.065142 -0.22720836 0.38975444
-0.46130684 -0.2561246 -0.16381511 -0.337348 0.057539504 -0.5794862 0.517466 -0.4913339
0.44972852 0.09897876 -0.1765347 0.3641253 0.089482605 0.4698582 0.05828178 -0.18253069
0.15299979 -0.16224195 0.24114692 0.49551052 0.34848332 -0.23481597 0.3457857 0.10197713
0.29443038 -0.3448679 -0.579896 -0.21999569 -0.45836303 0.46281686 0.16202657 0.2391712
0.19189103 -0.014114796 0.46057132 -0.401236 0.030972049 -0.40061656 0.1715549 -0.19783382
0.17436677 -0.1225104 0.4798425 -0.3484969 -0.33969498 -0.356111 0.5065645 0.18924302
0.5508699 -0.47525918 -0.5764968 -0.45313835 -0.39277747 0.22382769 0.20150934 0.48756143
-0.29095203 -0.37781903 0.31801915 -0.23104261 0.34959513 -0.14409943 0.32522786 -0.46959773
-0.28054425 0.17792653 0.1245455 -0.13952848 0.35110918 0.38695484 -0.42411688 -0.30500787
0.5286399 -0.20533581 -0.19995444 -0.55248505 -0.33632994 0.1419072 -0.08577605 -0.40940502
0.0035615815 -0.3992788 -0.5103911 -0.30187383 -0.5093594 -0.36641166 0.5723996 0.10989126
0.18899642 -0.52579206 -0.3788951 -0.19110852 0.0922434 -0.5031286 -0.24688415 -0.35214287
0.0092513515 -0.2224275 -0.033122297 -0.40638718 -0.39830568 -0.32632765 -0.20215538 -0.45871854
0.4802481 -0.111305535 0.48391128 0.19402575 -0.48694295 0.41053468 -0.15653399 -0.22662932
-0.47964287 -0.5713713 0.17388557 -0.12158571 0.21148485 -0.47238305 0.4261757 -0.4259115
-0.10192067 0.11436381 0.3072655 0.4826092 0.5240789 -0.44445485 0.14323133 -0.26026067
-0.055001337 -0.43713453 0.5191382 -0.42988443 0.31419554 0.1917978 0.19109732 -0.30680826
0.5297762 0.12400821 0.07571884 -0.5155696 0.23425393 -0.080198586 -0.26212072 0.49870116
0.13281187 -0.31781068 -0.29101226 -0.035837755 0.3198448 -0.14928739 -0.31864545 -0.20300768
-0.4447635 0.1933528 0.43529776 -0.5567608 0.14870796 0.28396887 0.11368959 -0.21199314
0.2951856 0.3090239 0.21705902 -0.099674076 -0.1516007 0.067595765 -0.09414652 -0.18005532
00000000: 53e0 e43e 1742 f23e 23e2 0fbe 6788 093f
00000010: 9ca8 fbbd 03c5 d93d 217a 89be 53c0 b23e
00000020: 292b 043f 83ce d2be 9ed0 033f 5a52 bf3d
00000030: e495 dc3e cc69 923d 0397 8c3e 3670 b9bd
00000040: 2489 df3e 9a56 be3d a704 90be e67c 1b3e
00000050: 92e6 7dbe 2b69 85bd 4fa9 68be e58d c73e
00000060: 6930 ecbe c322 83be 26bf 27be e1b8 acbe
00000070: 8bae 6b3d 3559 14bf a778 043f 1e90 fbbe
00000080: d142 e63e 60b5 ca3d 83c5 34be a26e ba3e
00000090: a842 b73d 4191 f03e e0b8 6e3d 53e9 3abe
000000a0: faab 1c3e c122 26be 38ef 763e 8eb3 fd3e
000000b0: 686c b23e 9973 70be d30a b13e 63d9 d03d
000000c0: 94bf 963e 8692 b0be 1074 14bf 8d46 61be
000000d0: 8fae eabe 55f6 ec3e 4bea 253e 4ce9 743e
000000e0: 157f 443e bf41 67bc 01d0 eb3e ce6e cdbe
000000f0: 18b9 fd3c 9d1d cdbe 16ac 2f3e f394 4abe
00000100: 348d 323e bce6 fabd ebad f53e 306e b2be
00000110: 80ec adbe 2e54 b6be 36ae 013f ecc8 413e
00000120: cf05 0d3f 2c55 f3be 4b95 13bf c001 e8be
00000130: 211a c9be 1633 653e 7758 4e3e a7a1 f93e
00000140: aaf7 94be 7f71 c1be 68d3 a23e 6f96 6cbe
00000150: 22fe b23e cd8e 13be 4484 a63e 1d6f f0be
00000160: 7fa3 8fbe 5f32 363e b611 ff3d 8ee0 0ebe
00000170: 95c4 b33e f21e c63e d925 d9be fe29 9cbe
00000180: f254 073f 8d43 52be dbc0 4cbe a96f 0dbf
00000190: 7033 acbe 1f50 113e 5bab afbd 899d d1be
000001a0: 6c69 693b 456e ccbe fea8 02bf 358f 9abe
000001b0: 6165 02bf 4f9a bbbe c888 123f ab0e e13d
000001c0: 4788 413e 4f9a 06bf 8afe c1be f4b1 43be
000001d0: 1cea bc3d 09cd 00bf 33cf 7cbe 124c b4be
000001e0: fb92 173c 09c4 63be 3fab 07bd fb11 d0be
000001f0: b9ee cbbe 6b14 a7be d201 4fbe 28dd eabe
00000200: 14e3 f53e 28f4 e3bd 38c3 f73e b0ae 463e
00000210: 9650 f9be 9a31 d23e 724a 20be 8411 68be
00000220: c093 f5be 6445 12bf 0f0f 323e ee01 f9bd
00000230: 7c8f 583e 31dc f1be b433 da3e 1211 dabe
00000240: c9bb d0bd 9337 ea3d e751 9d3e 8e18 f73e
00000250: 092a 063f 968f e3be 3cab 123e e340 85be
00000260: 1549 61bd 19d0 dfbe 3ee6 043f d019 dcbe
00000270: 3dde a03e a466 443e 04af 433e f915 9dbe
00000280: 6a9f 073f 04f8 fd3d 7b12 9b3d 5ffc 03bf
00000290: 43e0 6f3e 283f a4bd b034 86be c255 ff3e
000002a0: d6ff 073e 15b8 a2be 8fff 94be 9cca 12bd
000002b0: b3c2 a33e cbde 18be 7f25 a3be 3fe1 4fbe
000002c0: 0bb8 e3be 47fe 453e 59df de3e e087 0ebf
000002d0: e646 183e 5e64 913e 16d6 e83d bb14 59be
000002e0: 9122 973e 6138 9e3e b844 5e3e ec21 ccbd
000002f0: 373d 1bbe a66f 8a3d e4cf c0bd 6c60 38be

node_encoder.layers.0.bias f4 [64]
0.32003963 0.44692543 -0.015356056 -0.08236017 0.00017915983 -0.0003132797 0.09164774 0.114190936
-0.4750694 -0.16488025 0.43694937 0.17655906 0.0015510322 -0.29913467 -0.3042626 -0.46785915
-0.14023557 0.14693457 0.31919125 0.21796238 -0.4610451 -0.2982716 -0.045720987 0.50916
0.038667805 -0.10212163 0.19042705 -0.17160831 -0.32467583 0.37226486 -0.21394143 -0.0692137
-0.52498263 0.3373522 0.38825002 0.1622217 -0.35347185 -0.5204303 -0.4196932 0.38137063
0.22851378 0.43658862 0.25367868 0.09879573 0.00029154282 -0.3899125 -0.44536135 -0.49069074
0.18793854 -0.23476928 -0.06958885 -0.28336704 -0.05911987 -0.35725638 -0.3282381 0.14351073
-0.12385528 0.30745605 -0.13730678 -0.37437645 -0.055902142 -0.2311972 -0.12887889 -0.500359
00000000: 3cdc a33e 69d3 e43e f897 7bbc 73ac a8bd
00000010: dadc 3b39 b13f a4b9 cfb1 bb3d f0dc e93d
00000020: 4c3c f3be 5ed6 28be d4b7 df3e e6cb 343e
00000030: 014c cb3a 2e28 99be 4fc8 9bbe 3c8b efbe
00000040: ea99 0fbe 0476 163e 096d a33e 8831 5f3e
00000050: 1a0e ecbe 0eb7 98be ee45 3bbd 4f58 023f
00000060: 2262 1e3d 2525 d1bd 4fff 423e 17ba 2fbe
00000070: e93b a6be 8099 be3e 7613 5bbe eabf 8dbd
00000080: 4365 06bf 6db9 ac3e b5c8 c63e 721d 263e
00000090: 43fa b4be ec3a 05bf 07e2 d6be 0343 c33e
000000a0: 84ff 693e 8b88 df3e 2ce2 813e 6a55 ca3d
000000b0: 37da 9839 9ca2 c7be 6706 e4be d13b fbbe
000000c0: f672 403e 5c67 70be 9984 8ebd 7c15 91be
000000d0: ad27 72bd 4fea b6be d30e a8be 7af4 123e
000000e0: d6a7 fdbd e16a 9d3e 269a 0cbe 45ae bfbe
000000f0: a5f9 64bd f5be 6cbe d4f8 03be 8717 00bf

node_encoder.layers.1.weight f4 [64]
1.0077177 0.99643826 0.9917212 1.0006263 0.99321014 1.0054305 0.9814469 1.0047157
0.9953159 0.99268913 0.99874896 1.0045574 1.0017167 1.0167011 0.9913314 0.99958247
0.9830287 0.99387884 0.9875505 1.0024867 1.0053747 0.9901302 1.0033851 0.99473566
1.0066065 1.0085459 1.0013812 1.0155288 0.993619 1.0050385 1.0016079 1.0064054
0.9984454 1.0056003 1.0120174 1.003377 1.0097675 1.0080358 0.99570787 0.99277353
1.0041832 0.99846697 1.0054388 0.9995612 0.9988605 0.9915821 1.0059729 1.0058355
0.9970204 0.99317575 1.0141553 1.0139347 0.9890849 1.0022604 0.9933854 0.9939628
0.9868038 0.99769515 0.99135256 1.005256 0.99039114 0.9874722 0.989634 0.986926
00000000: e5fc 803f 9416 7f3f 71e1 7d3f 8614 803f
00000010: 0543 7e3f f2b1 803f 1b40 7b3f 869a 803f
00000020: 06cd 7e3f e020 7e3f 03ae 7f3f 5695 803f
00000030: 4138 803f 4323 823f e5c7 7d3f a3e4 7f3f
00000040: c5a7 7b3f d86e 7e3f 1cd0 7c3f 7c51 803f
00000050: 1eb0 803f 2c79 7d3f ec6e 803f ffa6 7e3f
00000060: 7bd8 803f 0818 813f 422d 803f d9fc 813f
00000070: d15d 7e3f 1aa5 803f b034 803f e4d1 803f
00000080: 1e9a 7f3f 83b7 803f c989 813f a86e 803f
00000090: 1040 813f 5107 813f b6e6 7e3f 6826 7e3f
000000a0: 1389 803f 889b 7f3f 38b2 803f 3ee3 7f3f
000000b0: 52b5 7f3f 53d8 7d3f b8c3 803f 38bf 803f
000000c0: bb3c 7f3f c440 7e3f d7cf 813f 9dc8 813f
000000d0: ab34 7d3f 124a 803f 814e 7e3f 5974 7e3f
000000e0: 2d9f 7c3f f368 7f3f 48c9 7d3f 3bac 803f
000000f0: 468a 7d3f faca 7c3f a758 7d3f 2fa7 7c3f

node_encoder.layers.1.bias f4 [64]
0.00082235807 -0.004375927 -0.00853223 0.014652944 -0.015178947 0.0085065495 -0.02480839 0.0058023618
-0.019360458 -0.005521736 0.0071279537 -0.0035721583 0.002621159 0.00153438 -0.0032505626 0.006616569
-0.0059914216 0.0008985888 -0.008867191 -0.0032781383 -0.00666217 -0.0062567433 0.000619199 0.0022753724
0.0003825708 -0.008231904 0.017736036 0.012412195 -0.010758401 -0.0036182057 0.005643509 0.0025401968
-0.0022796546 -0.009974945 0.00019635078 -0.0021764669 0.008642431 0.009499472 -0.0063119135 -0.0024831423
0.0073493263 -0.013118797 -0.0055884053 0.0076775327 0.005703117 0.0024478151 7.679897e-05 -0.009578182
0.003248939 -0.005725103 0.008775873 0.020416478 0.0030411514 0.0053540207 -0.008551197 -0.023522759
-0.008884304 -0.0046679596 -0.010728395 0.008659334 -0.007716005 0.008501697 -0.00021301788 -0.013144981
00000000: 8493 573a f063 8fbb c4ca 0bbc e712 703c
00000010: 1eb1 78bc 0e5f 0b3c f73a cbbc bd21 be3b
00000020: d399 9ebc aeef b4bb 9c91 e93b df1a 6abb
00000030: c0c7 2b3b 401d c93a 6407 55bb cecf d83b
00000040: b053 c4bb 468f 6b3a b247 11bc 09d6 56bb
00000050: 554e dabb 5e05 cdbb be51 223a 6a1e 153b
00000060: c993 c839 1cdf 06bc 2a4b 913c 855c 4b3c
00000070: 0144 30bc 6b1f 6dbb 2fed b83b 6e79 263b
00000080: 4266 15bb f46d 23bc 83e3 4d39 0ea3 0ebb
00000090: fc98 0d3c aca3 1b3c 2bd4 cebb 37bc 22bb
000000a0: 9ed2 f03b 39f0 56bc f11e b7bb d093 fb3b
000000b0: 37e1 ba3b 866b 203b 220f a138 cfed 1cbc
000000c0: 27ec 543b a599 bbbb aec8 0f3c 7540 a73c
000000d0: 0e4e 473b c870 af3b 521a 0cbc cdb2 c0bc
000000e0: 798f 11bc aff5 98bb 26c6 2fbc e1df 0d3c
000000f0: 8bd6 fcbb b44a 0b3c 8d5d 5fb9 0c5e 57bc

node_encoder.layers.1.running_mean f4 [64]
0.77822816 0.7123555 0.32277563 0.06350945 0.41258135 0.2679765 -0.08640154 0.14586024
-0.96405005 -0.60973126 0.64198375 0.3116582 0.3677049 -0.38878196 0.30357063 -0.32994014
-0.5023404 -0.0073765437 0.6551471 0.29176003 -0.6078545 -0.36261666 -0.1881444 0.7377742
-0.2600902 -0.46947607 0.45072284 -0.2977639 -0.06614422 0.049643714 -0.057577614 -0.28910667
-0.48194128 -0.08189092 0.097281925 -0.51308554 -0.5555232 -0.6228124 -0.69298244 -0.21208796
0.083797954 -0.18610698 0.11754904 0.44320226 -0.08309996 -1.1043494 -0.3242073 -0.70032924
0.36802217 0.10687935 -0.18738508 -0.41878352 0.3186624 -0.13202997 -0.49028242 0.2020423
-0.40537894 0.41347474 -0.6636896 -0.29623774 0.2520644 -0.0051934086 -0.16007076 -0.62060165
00000000: f639 473f ee5c 363f d942 a53e 3e11 823d
00000010: dd3d d33e 3734 893e 4af3 b0bd 635c 153e
00000020: fccb 76bf 5917 1cbf 0c59 243f aa91 9f3e
00000030: d143 bc3e 6e0e c7be 9c6d 9b3e eaed a8be
00000040: 6199 00bf efb6 f1bb b8b7 273f 9261 953e
00000050: 5a9c 1bbf e4a8 b9be eda8 40be c5de 3c3f
00000060: 8b2a 85be 2b5f f0be 25c5 e63e 8374 98be
00000070: 9f76 87bd 3557 4b3d 81d6 6bbd ca05 94be
00000080: 02c1 f6be 6db6 a7bd bf3b c73d 9359 03bf
00000090: c536 0ebf a270 1fbf 4c67 31bf 962d 59be
000000a0: 439e ab3d d492 3ebe 8dbd f03d 68eb e23e
000000b0: 5030 aabd 525b 8dbf 80fe a5be c748 33bf
000000c0: 676d bc3e 90e3 da3d e0e1 3fbe cb6a d6be
000000d0: b827 a33e dd32 07be 4c06 fbbe 2de4 4e3e
000000e0: d48d cfbe f6b2 d33e 90e7 29bf 79ac 97be
000000f0: 960e 813e 782d aabb 97e9 23be c0df 1ebf

node_encoder.layers.1.running_var f4 [64]
0.042704307 0.022776216 0.044800386 0.03390524 0.023414545 0.018698294 0.013557735 0.021505974
0.028002866 0.044485986 0.057257947 0.017216602 0.022727055 0.0067581134 0.044234496 0.014814617
0.053148903 0.047704652 0.012461381 0.036052585 0.017561043 0.006494644 0.038239475 0.033895224
0.07592909 0.03905867 0.035943758 0.022721162 0.021120904 0.03027606 0.015659817 0.035283867
0.02724071 0.039906714 0.017020106 0.051666748 0.071065776 0.034249168 0.016803164 0.041489363
0.0047547515 0.043219663 0.048713047 0.026212292 0.031196008 0.06479637 0.007879967 0.04756231
0.012234598 0.069357485 0.007440028 0.052865934 0.016421685 0.03162751 0.029573027 0.033673335
0.019598331 0.011532845 0.034880657 0.05478575 0.011768113 0.02106941 0.0066125547 0.004686785
00000000: b6ea 2e3d 3095 ba3c 9c80 373d 39e0 0a3d
00000010: dccf bf3c 2a2d 993c 4321 5e3c 4c2d b03c
00000020: 4466 e53c f036 363d 4f87 6a3d d509 8d3c
00000030: 172e ba3c 2a73 dd3b 3b2f 353d 02b9 723c
00000040: aab2 593d f465 433d d22a 4c3c e0ab 133d
00000050: 2ddc 8f3c 06d1 d43b ffa0 1c3d b8d5 0a3d
00000060: b680 9b3d fcfb 1f3d c339 133d bb21 ba3c
00000070: bf05 ad3c 8005 f83c 0449 803c d185 103d
00000080: e927 df3c 3975 233d c06d 8b3c 83a0 533d
00000090: ef8a 913d db48 0c3d caa6 893c c0f0 293d
000000a0: bfcd 9b3b 1a07 313d 5587 473d 29bb d63c
000000b0: c58e ff3c f6b3 843d fa1a 013c b2d0 423d
000000c0: a073 483c 4c0b 8e3d 7acb f33b f389 583d
000000d0: c586 863c d98b 013d 2243 f23c 0ded 093d
000000e0: ae8c a03c 42f4 3c3c 05df 0e3d 0667 603d
000000f0: 0bcf 403c c199 ac3c 21ae d83b 9a93 993b

node_encoder.layers.3.weight f4 [64, 64]
0.060330506 -0.07676169 0.051903415 0.049121816 0.08192079 -0.10212401 0.080268614 -0.06952548
0.042467173 0.11458623 -0.007171649 -0.007362026 -0.035674457 -0.112142324 0.05122339 -0.13180925
0.0869468 0.08158546 0.10910804 -0.033829216 -0.0918604 0.02021751 0.07972035 -0.132345
-0.018174611 -0.08377576 -0.017356979 -0.06974297 -0.054036986 -0.049318723 -0.12586461 0.113097936
0.11638781 -0.028682731 -0.0060264543 -0.048174135 -0.13417883 -0.11550011 0.036910236 -0.07148368
-0.07055071 -0.007920078 -0.05217874 -0.04735472 -0.0035558343 -0.020603908 -0.043374494 -0.06744472
-0.11316811 0.09917672 -0.038810536 0.026842814 -0.052742656 0.0030418707 0.12774351 0.04615987
-0.09880564 0.044597607 0.11970513 0.030614562 0.0750859 0.11311529 -0.008344492 0.034898177
-0.09914059 -0.019410895 0.10167284 0.06225086 -0.07011712 -0.09704691 -0.09561574 -0.108554855
-0.096576735 -0.037338305 0.092227876 0.033008736 -0.09833505 -0.11235094 0.07048313 -0.09036196
-0.00850486 0.073077105 -0.04833801 -0.023932952 -0.0011555539 -0.042986095 -0.054950345 -0.10697085
-0.092789955 -0.06265026 0.11003892 -0.07375912 -0.07559535 0.032674696 0.046445746 0.0771127
0.10195204 0.07021864 -0.115115985 0.016088318 0.09084085 -0.020014046 -0.07351239 0.11928854
-0.037847828 -0.067302465 -0.099640444 0.012209143 0.041006673 0.032188505 0.03390154 -0.10704616
-0.10163809 -0.008788628 0.1230175 0.05952746 -0.068738274 -0.013980122 -0.082461014 -0.04526925
0.030155743 0.056608684 0.10354012 -0.12410732 0.08276009 -0.08045442 0.05492574 0.11205089
-0.001004913 0.124697156 -0.119610466 -0.03636939 0.08171152 -0.021932106 -0.018595094 -0.05861024
0.08361726 0.06773284 0.03823369 -0.076644145 -0.10117416 0.020455278 0.034606803 -0.047144823
-0.03334342 0.077869914 0.01059675 0.0116289295 -0.035260808 -0.105494656 -0.11286533 -0.049549635
-0.06402014 0.031615958 -0.03404845 -0.041159317 0.12392382 0.03644352 0.08302156 -0.0556303
-0.041697443 0.039031375 -0.08937352 -0.08526752 -0.013409776 -0.042211063 -0.100409605 0.07949821
0.09569754 0.019459479 -0.028194258 -0.11138907 -0.036365423 0.035498902 0.056165017 -0.0089614205
-0.05990834 0.069947675 -0.09934662 0.08579718 -0.04368691 0.011470406 -0.02898328 0.008392387
-0.038107745 0.097750746 0.0029082221 0.10169563 0.11586361 -0.07812693 -0.08933091 0.103035755
0.08947184 -0.086791635 -0.005674183 -0.13047381 -0.09463013 0.015602679 0.02119736 0.031104626
-0.03145886 0.1033598 0.025450164 -0.067422874 -0.013145501 0.018399592 0.049288113 -0.094491415
0.04176509 -0.057824556 -0.09746758 -0.07805298 0.12812889 0.09508113 0.11920564 0.06866846
0.100797676 -0.012096172 -0.0778134 0.050755557 -0.057414245 -0.080550365 -0.033464078 0.037249412
0.06837709 -0.0449149 -0.06631598 0.021039998 -0.069928505 -0.091836445 0.06845178 -0.022409761
0.121913426 0.12426999 0.043510668 0.04143135 0.017672328 0.0014139145 -0.001989619 -0.009858714
0.049700674 0.107100755 -0.022657888 -0.064089745 -0.024619836 -0.06769121 0.02888705 0.09754114
0.108658694 0.04801903 -0.097806275 -0.076644406 -0.0294919 -0.016153388 0.010960488 -0.12074086
00000000: 1f1d 773d 3c35 9dbd ad98 543d f533 493d
00000010: 16c6 a73d 6526 d1bd df63 a43d 6063 8ebd
00000020: 0ff2 2d3d 2fac ea3d 2700 ebbb 263d f1bb
00000030: 611f 12bd e0aa e5bd 9ecf 513d 01f9 06be
00000040: 2a11 b23d 4716 a73d 0974 df3d 8190 0abd
00000050: 4e21 bcbd 319f a53c 6c44 a33d 7385 07be
00000060: ece2 94bc a092 abbd 3930 8ebc 67d5 8ebd
00000070: e355 5dbd 6e02 4abd a7e2 00be e49f e73d
00000080: bb5c ee3d 0cf8 eabc 9079 c5bb 3e52 45bd
00000090: 2d66 09be 528b ecbd 302f 173d 0966 92bd
000000a0: e47c 90bd 37c3 01bc 60b9 55bd 06f7 41bd
000000b0: 0009 69bb 87c9 a8bc 74a9 31bd 7520 8abd
000000c0: afc4 e7bd 2a1d cb3d ccf7 1ebd 76e5 db3c
000000d0: af08 58bd 1f5a 473b 32cf 023e 2212 3d3d
000000e0: 9d5a cabd fbab 363d f727 f53d 64cb fa3c
000000f0: a3c6 993d fda8 e73d 56b7 08bc 64f1 0e3d
00000100: 390a cbbd 9903 9fbc da39 d03d c2fa 7e3d
00000110: 9199 8fbd 88c0 c6bd 2fd2 c3bd 0252 debd
00000120: 06ca c5bd 0df0 18bd f8e1 bc3d 2b34 073d
00000130: e363 c9bd 4018 e6bd 7659 903d b10f b9bd
00000140: f857 0bbc 73a9 953d 14fe 45bd 0a0f c4bc
00000150: f475 97ba 3012 30bd 9d13 61bd 8813 dbbd
00000160: a908 bebd c84e 80bd 165c e13d 060f 97bd
00000170: bcd1 9abd e7d5 053d e53d 3e3d 43ed 9d3d
00000180: 3bcc d03d cace 8f3d eec1 ebbd a6cb 833c
00000190: c40a ba3d 7ff4 a3bc aa8d 96bd 8d4d f43d
000001a0: 5306 1bbd e0d5 89bd 4a10 ccbd db08 483c
000001b0: 9df6 273d 18d8 033d 57dc 0a3d 043b dbbd
000001c0: a227 d0bd 2dfe 0fbc 99f0 fb3d 11d3 733d
000001d0: a7c6 8cbd e20c 65bc 52e1 a8bd 406c 39bd
000001e0: 2d09 f73c 82de 673d d80c d43d fb2b febd
000001f0: 1f7e a93d 49c5 a4bd d0f9 603d f07a e53d
00000200: 49b7 83ba 3961 ff3d 55f6 f4bd 12f8 14bd
00000210: 5f58 a73d f6aa b3bc bd54 98bc 4b11 70bd
00000220: 873f ab3d 84b7 8a3d ee9a 1c3d 9bf7 9cbd
00000230: 6634 cfbd d491 a73c ddbf 0d3d ee1a 41bd
00000240: 1c93 08bd 437a 9f3d fe9d 2d3c 4487 3e3c
00000250: a36d 10bd 950d d8bd f025 e7bd 8ff4 4abd
00000260: fe1c 83bd bc7f 013d 6376 0bbd ac96 28bd
00000270: c6cb fd3d cd45 153d 3507 aa3d 99dc 63bd
00000280: f0ca 2abd 5ddf 1f3d 7709 b7bd bda0 aebd
00000290: adb4 5bbc 82e5 2cbd 8da3 cdbd f5cf a23d
000002a0: 12fd c33d 7c69 9f3c a5f7 e6bc f41f e4bd
000002b0: e9f3 14bd 4c67 113d 4a0d 663d ecd2 12bc
000002c0: 7362 75bd ba40 8f3d 3e76 cbbd 6fb6 af3d
000002d0: 0cf1 32bd 5fee 3b3c 586e edbc 3980 093c
000002e0: de16 1cbd 8b31 c83d df97 3e3b cc45 d03d
000002f0: e649 ed3d 0301 a0bd 20f3 b6bd 6904 d33d
00000300: 033d b73d d0bf b1bd 7fee b9bb ed9a 05be
00000310: 71cd c1bd 61a2 7f3c 16a6 ad3c 21cf fe3c
00000320: 01db 00bd 4eae d33d dd7c d03c 0115 8abd
00000330: 3a60 57bc beba 963c 55e2 493d b784 c1bd
00000340: df11 2b3d 71d9 6cbd 159d c7bd 3eda 9fbd
00000350: 3834 033e e5b9 c23d 1622 f43d 0da2 8c3d
00000360: 036f ce3d 062f 46bc a25c 9fbd 0fe5 4f3d
00000370: 332b 6bbd 97f7 a4bd a111 09bd d792 183d
00000380: 4a09 8c3d b0f8 37bd acd0 87bd 135c ac3c
00000390: ad36 8fbd bf14 bcbd 7230 8c3d ad94 b7bc
000003a0: bfad f93d 4481 fe3d 3e38 323d ebb3 293d
000003b0: 8fc5 903c 1953 b93a 4564 02bb 7286 21bc
000003c0: ef92 4b3d a457 db3d 099d b9bc 7c41 83bd
000003d0: 8aaf c9bc b0a1 8abd 89a4 ec3c a6c3 c73d
000003e0: 7388 de3d 9aaf 443d a84e c8bd bef7 9cbd
000003f0: ff98 f1bc 1c54 84bc 9e93 333c fc46 f7bd

node_encoder.layers.3.bias f4 [64]
5.4175023e-05 0.016059056 -0.0009880875 -0.04533478 0.0102256965 0.029754125 -0.022067647 -0.03641438
-0.040143482 -0.018406572 -5.2151045e-05 0.00034525938 2.6254005e-05 0.00034272065 0.033182275 -0.00029316358
-0.028675381 0.00033538297 -0.029493485 -0.0055618933 -0.071329504 -0.001542929 -0.051163472 0.008478188
0.040611766 -0.047512162 -0.022821965 -0.052980248 -0.00019829872 -0.001826131 -0.021575458 0.031315062
0.011156974 -0.06653478 0.0002781201 -0.012678626 0.0015146023 0.026018215 -0.0006075562 -0.04171346
0.042765185 -0.06781184 -0.0047899773 0.008387602 0.064180195 0.074633665 0.0014000916 0.004024183
-0.06349988 0.0018279542 -0.002367891 0.0006604782 -0.037163462 -0.0017863852 0.021624167 0.05169711
0.0014084954 0.067754276 -0.0715252 -0.00062737067 0.007831241 -0.00068796024 0.016774353 -0.03812963
00000000: fd39 6338 488e 833c b782 81ba f6b0 39bd
00000010: ae89 273c ecbe f33c 36c7 b4bc 3f27 15bd
00000020: 7e6d 24bd 61c9 96bc c2bc 5ab8 ee03 b539
00000030: 0c3c dc37 30af b339 23ea 073d c0b3 99b9
00000040: a2e8 eabc 57d6 af39 529c f1bc 8b40 b6bb
00000050: 3415 92bd 1b3c caba ca90 51bd 19e8 0a3c
00000060: 8658 263d 1d9c 42bd 21f5 babc d101 59bd
00000070: 68ee 4fb9 ca5a efba 04bf b0bc 3944 003d
00000080: becb 363c 6343 88bd a6d0 9139 03ba 4fbc
00000090: 9f85 c63a 2724 d53c 6844 1fba bcdb 2abd
000000a0: 8c2a 2f3d efe0 8abd 3ef5 9cbb 276c 093c
000000b0: e870 833d 89d9 983d 4783 b73a 4bdd 833b
000000c0: 3a0c 82bd f797 ef3a 9e2e 1bbb f123 2d3a
000000d0: b738 18bd 2425 eaba 2a25 b13c 59c0 533d
000000e0: 439d b83a c1c2 8a3d ce7b 92bd 2276 24ba
000000f0: 9b4e 003c 3b58 34ba 5e6a 893c d12d 1cbd

node_encoder.layers.4.weight f4 [64]
0.98849684 1.0096455 0.99709195 0.9986903 0.9979964 1.004331 1.0037848 1.0011809
1.0007408 0.9959562 0.9829419 1.0081912 0.99590987 0.99530375 1.0041631 0.9881792
1.0026498 1.0071383 0.9896613 0.9979481 1.0062749 1.0084258 0.99734193 1.0094754
1.0141491 1.021228 1.0043769 1.0067288 0.9827666 0.994003 0.9903782 0.98191595
1.0003325 1.0114341 1.0082445 1.0075535 0.9987916 0.9927763 0.9970529 1.0200324
0.99962133 0.99757683 0.989622 0.9964838 1.0058427 1.0128101 1.0020808 0.99633193
1.0104085 0.99612594 1.0023324 0.9922832 0.9939911 0.9996415 0.99315727 1.0075698
0.9934353 1.0056716 0.9934723 0.9982073 1.0067251 0.9977735 0.9975749 0.9968032
00000000: 210e 7d3f 103c 813f 6b41 7f3f 2baa 7f3f
00000010: b17c 7f3f eb8d 803f 057c 803f b226 803f
00000020: 4618 803f fcf6 7e3f 15a2 7b3f 690c 813f
00000030: f3f3 7e3f 3acc 7e3f 6b88 803f 50f9 7c3f
00000040: d456 803f e8e9 803f 715a 7d3f 8779 7f3f
00000050: 9ecd 803f 1914 813f cd51 7f3f 7d36 813f
00000060: a3cf 813f 99b7 823f 6c8f 803f 7ddc 803f
00000070: 9896 7b3f fb76 7e3f 6d89 7d3f d85e 7b3f
00000080: e50a 803f ac76 813f 280e 813f 83f7 803f
00000090: ceb0 7f3f 9626 7e3f dc3e 7f3f 6c90 823f
000000a0: 2fe7 7f3f 3261 7f3f de57 7d3f 9019 7f3f
000000b0: 74bf 803f c3a3 813f 2f44 803f 9c0f 7f3f
000000c0: 1155 813f 1c02 7f3f 6e4c 803f 4606 7e3f
000000d0: 3376 7e3f 81e8 7f3f 8e3f 7e3f 0cf8 803f
000000e0: c751 7e3f d9b9 803f 3354 7e3f 838a 7f3f
000000f0: 5edc 803f 166e 7f3f 1261 7f3f 7f2e 7f3f

node_encoder.layers.4.bias f4 [64]
-0.0043162727 0.00234203 -0.0035802352 -0.0028486147 -0.008208638 0.005000333 0.00086048245 -0.008534243
0.0062719584 0.00047066534 -0.020040952 0.006118355 0.0100474395 -0.0018119422 -0.0051838155 -0.00928027
0.0076961727 0.00083413767 0.0044787056 0.0066082287 0.004412338 0.017758155 -0.0002847631 0.0004925881
0.011892524 0.015024186 0.007155798 -0.0037296284 -0.00736247 -0.00484096 -0.0030725487 -0.015772913
-0.0054716947 0.008879556 0.002124863 0.005053566 -0.0061883694 -0.009024449 0.005730609 0.01486632
-0.0052720415 0.0024033987 0.0032665236 -0.00037033652 -0.006692549 0.0076000635 0.0066213533 0.0002044077
0.008446889 0.0069251265 0.0143868495 -0.008663846 -0.0091590285 0.007520422 -0.00267239 0.011852734
-0.0060843546 -0.01386696 -0.007454274 -0.009774764 0.0062676105 -0.0025456343 0.010952302 -0.005732668
00000000: 856f 8dbb be7c 193b 61a2 6abb d3af 3abb
00000010: 867d 06bc d5d9 a33b 0092 613a 36d3 0bbc
00000020: 0085 cd3b a2c3 f639 ec2c a4bc 7b7c c83b
00000030: 049e 243c b17e edba ffdc a9bb 460c 18bc
00000040: 2d30 fc3b 08aa 5a3a 1bc2 923b d789 d83b
00000050: 6095 903b 8d79 913c 424c 95b9 0721 013a
00000060: dcd8 423c 0128 763c 2f7b ea3b c86c 74bb
00000070: e040 f1bb eaa0 9ebb d05c 49bb 3236 81bc
00000080: e74b b3bb 8f7b 113c 4941 0b3b 6298 a53b
00000090: cec7 cabb 48db 13bc d5c7 bb3b de91 733c
000000a0: 17c1 acbb 5782 1d3b 2c13 563b ba29 c2b9
000000b0: 2c4d dbbb f409 f93b f0f7 d83b 4656 5639
000000c0: d264 0a3c 2cec e23b d2b6 6b3c cef2 0dbc
000000d0: c00f 16bc df6d f63b 4423 2fbb f831 423c
000000e0: 445f c7bb 3f32 63bc fc42 f4bb 5526 20bc
000000f0: 8760 cd3b a8d4 26bb 4971 333c 1bd9 bbbb

node_encoder.layers.4.running_mean f4 [64]
-0.16632652 -0.27368468 -0.11914056 -0.009112626 0.008016592 -0.36729756 0.117582485 0.009480286
0.027471023 0.16879915 -0.2463406 -0.16202734 0.026656931 -0.09512546 0.30507386 0.10425371
0.060137067 -0.14077476 -0.19334114 0.24241123 -0.027247949 -0.16216883 0.061309215 0.20135641
0.048270352 -0.19616331 -0.0465686 -0.4879778 0.11355587 0.48165327 -0.25479454 -0.45075008
-0.09526882 -0.5513921 0.17679042 0.22282635 0.2822443 -0.31211892 0.452799 -0.14556396
0.29283735 -0.17741056 -0.12087266 0.10850665 -0.006844412 0.13031599 0.18889605 -0.3863122
-0.14725788 -0.10553592 -0.2227341 -0.30827 -0.14144118 -0.2412174 -0.017068136 0.14328031
-0.18889396 0.3128054 0.10087352 0.2725461 -0.034300324 0.10633739 0.13752724 0.11377743
00000000: 8051 2abe 6620 8cbe f7ff f3bd 204d 15bc
00000010: 0658 033c 6d0e bcbe 16cf f03d 3453 1b3c
00000020: e90a e13c afd9 2c3e b640 7cbe 7fea 25be
00000030: a35f da3c 23d1 c2bd a432 9c3e f882 d53d
00000040: 4952 763d 4227 10be 38fb 45be a63a 783e
00000050: 1737 dfbc 960f 26be 5f1f 7b3d 6030 4e3e
00000060: 22b7 453d 09df 48be b7be 3ebd 3ad8 f9be
00000070: fb8f e83d 429b f63e 6e74 82be b7c8 e6be
00000080: 4d1c c3bd 0828 0dbf 8c08 353e 972c 643e
00000090: 5382 903e 0dce 9fbe 45d5 e73e b80e 15be
000000a0: c7ee 953e 1dab 35be 168c f7bd bc38 de3d
000000b0: 1747 e0bb 8e71 053e f76d 413e b6ca c5be
000000c0: c5ca 16be 3723 d8bd 6814 64be 91d5 9dbe
000000d0: f5d5 10be b201 77be 7ad2 8bbc 13b8 123e
000000e0: 6b6d 41be 0828 a03e c796 ce3d 2a8b 8b3e
000000f0: 7f7e 0cbd 6bc7 d93d f1d3 0c3e 2404 e93d

node_encoder.layers.4.running_var f4 [64]
0.12956087 0.09523089 0.087803535 0.111743025 0.090072945 0.031484842 0.26057813 0.18762341
0.19940646 0.084965274 0.03224887 0.088249736 0.17462948 0.18897593 0.039823968 0.056983102
0.112922534 0.13101742 0.049935855 0.05922406 0.07878656 0.24181902 0.21252887 0.023960063
0.14076921 0.15267728 0.20422024 0.05282916 0.035970714 0.11858233 0.0764194 0.20909469
0.053769108 0.060254373 0.069671236 0.11254657 0.11660046 0.3787811 0.18512902 0.05848443
0.12410989 0.15462515 0.13394132 0.23277238 0.09048964 0.14656118 0.12156622 0.16985002
0.12668265 0.08923687 0.100932226 0.13387191 0.21207868 0.096345246 0.20279318 0.13679554
0.22306305 0.045156993 0.12846659 0.10373187 0.10480522 0.2029355 0.18542874 0.1537709
00000000: 9bab 043e 6a08 c33d 57d2 b33d 87d9 e43d
00000010: 2a78 b83d 40f6 003d 7f6a 853e 5a20 403e
00000020: 3531 4c3e 4602 ae3d 6417 043d 47bc b43d
00000030: 12d2 323e e882 413e 751e 233d 1d67 693d
00000040: ee43 e73d 6e29 063e 8a89 4c3d ee94 723d
00000050: d95a a13d 689f 773e 2ba1 593e e547 c43c
00000060: ce25 103e 6f57 1c3e 1c1f 513e 6463 583d
00000070: 0756 133d 4bdb f23d c681 9c3d eb1c 563e
00000080: ff3c 5c3d 4acd 763d cbaf 8e3d d17e e63d
00000090: 39cc ee3d 99ef c13e 7692 3d3e 5f8d 6f3d
000000a0: 532d fe3d 0e56 1e3e ea27 093e e25b 6e3e
000000b0: a252 b93d 2214 163e b6f7 f83d 2aed 2d3e
000000c0: 19b9 013e d2c1 b63d 8eb5 ce3d b815 093e
000000d0: 272b 593e a850 c53d 04a9 4f3e 2114 0c3e
000000e0: a46a 643e 8af6 383d bf8c 033e 6071 d43d
000000f0: 1fa4 d63d 53ce 4f3e 08e1 3d3e 1e76 1d3e

node_encoder.layers.6.weight f4 [32, 64]
0.09148601 -0.11016554 -0.078275025 -0.012841167 -0.12012709 -0.116057254 -0.10842682 0.10047677
0.018287307 -0.04223978 -0.002805234 -0.11464002 -0.118985526 -0.091380425 -0.13003534 0.078371085
-0.04629858 -0.039182875 -0.11083763 0.0116912825 -0.016716652 -0.09033397 0.07389746 0.10026709
-0.09760331 0.07623304 -0.01613211 0.013908684 0.058192316 -0.029125448 0.10182714 0.071127266
-0.07833275 -0.06958307 -0.1314323 0.033268664 -0.105694115 -0.09694014 -0.08350214 -0.12719828
-0.106441855 0.11349996 0.0743352 0.10567759 -0.061358415 -0.049953416 -0.048766818 -0.008043636
-0.096925594 0.01386685 -0.080824465 0.033966534 0.1082248 0.0118334275 0.0857296 -0.098107725
-0.023662288 -0.08924382 -0.019768016 -0.0535092 -0.076176204 -0.11713837 -0.046315234 0.018488152
-0.016367204 -0.10899607 0.07966397 0.08419705 -0.07205316 0.013353395 0.0767759 -0.12355173
-0.10324113 0.06650739 0.0076023457 0.050548136 -0.057565704 0.0190326 0.07674407 -0.026863173
-0.045188196 -0.12889227 -0.017393643 0.07598531 -0.12369823 -0.004044801 0.084814064 -0.019766534
-0.051561132 -0.04731622 -0.04888141 0.036389105 -0.109029695 0.041387428 -0.015610127 -0.00087979104
-0.0039537814 0.075700566 -0.078881055 -0.12496078 -0.09881993 -0.0912172 -0.065754406 0.113460235
-0.08748923 -0.07118764 -0.097846515 -0.06383067 0.0038184067 -0.082043506 -0.0003546555 0.054664254
-0.024011169 0.05356294 0.037176833 0.123562716 -0.00014824055 0.10517039 0.096469045 0.06305299
0.08366431 -0.09133218 -0.074413076 0.046137556 0.044097733 0.10006117 -0.017142558 -0.028290564
0.08516623 0.018398495 0.12576771 -0.058586214 -0.03548198 -0.0060777105 0.060945544 -0.11110874
-0.045006465 0.09505593 0.03075804 0.08088456 -0.043687537 -0.07799844 -0.08890392 -0.07075365
-0.09058744 0.06442146 0.04467983 -0.07333955 0.11905879 0.03747155 0.03988898 -0.056921765
0.07832289 -0.09065426 0.09724647 -0.065408245 0.05602987 -0.052594114 0.07870747 -0.10451328
-0.02342829 -0.043068163 -0.083390936 -0.057162475 -0.043860238 0.0053743464 0.08384074 -0.015642587
0.11592319 -0.05332268 -0.060578622 -0.007841665 -0.018816432 0.041373983 0.10704269 0.034434233
-0.1095436 -0.046592996 -0.02464348 -0.10366775 0.0461235 0.101948686 0.061084352 -0.00022105157
-0.01612353 -0.071708374 -0.01687477 0.11064982 -0.07201468 0.022643946 -0.08474989 -0.02938437
0.019674968 -0.09357668 0.039767757 -0.10170851 -0.046157952 0.09063794 0.124126375 -0.0019923297
-0.09348819 -0.09362476 -0.027974268 -0.070728734 0.09547803 -0.08730451 0.08664731 0.017236205
-0.04059002 0.10698974 0.06541253 0.0018918974 -0.07634594 -0.046236463 0.0463461 0.109574325
-0.04671263 -0.038674083 -0.11434621 0.08100821 0.121612385 0.07942216 -0.07928898 0.07593204
-0.043740414 0.065582916 0.06830381 -0.09581272 0.03366961 0.053118408 -0.065504886 0.10207231
0.0916203 0.11240798 0.006547618 -0.06809832 -0.063016325 0.05093627 -0.027465072 0.09099715
0.10899524 0.010784952 -0.11129931 0.04720724 0.11048761 -0.029294955 -0.073103614 -0.028875133
0.01129138 -0.09765391 0.05920635 0.056033906 -0.039261546 -0.036607884 -0.055611268 0.10619498
00000000: 045d bb3d 789e e1bd a84e a0bd c263 52bc
00000010: 3105 f6bd 6daf edbd e10e debd c4c6 cd3d
00000020: 43cf 953c 9f03 2dbd 04d8 37bb 63c8 eabd
00000030: afae f3bd a925 bbbd fc27 05be 0581 a03d
00000040: 94a3 3dbd 397e 20bd d7fe e2bd cb8c 3f3c
00000050: 5cf1 88bc 0401 b9bd 8d57 973d d558 cd3d
00000060: 3fe4 c7bd 1120 9c3d 7d27 84bc 40e1 633c
00000070: 115b 6e3d 7e98 eebc bf8a d03d 2cab 913d
00000080: ec6c a0bd 9281 8ebd 3096 06be b944 083d
00000090: 2876 d8bd 8d88 c6bd 2c03 abbd 4440 02be
000000a0: 30fe d9bd ab72 e83d 0e3d 983d 7e6d d83d
000000b0: f652 7bbd f49b 4cbd b7bf 47bd 74c9 03bc
000000c0: ed80 c6bd c931 633c 4c87 a5bd 7e20 0b3d
000000d0: f7a4 dd3d fee0 413c 0093 af3d b4ec c8bd
000000e0: 6ad7 c1bc 77c5 b6bd 89f0 a1bc 772c 5bbd
000000f0: 4502 9cbd 3ee6 efbd 0bb5 3dbd 7774 973c
00000100: 8414 86bc 5539 dfbd dd26 a33d 816f ac3d
00000110: 9b90 93bd 33c8 5a3c af3c 9d3d b008 fdbd
00000120: 1670 d3bd 0735 883d 191d f93b 900b 4f3d
00000130: 04ca 6bbd 41ea 9b3c ff2b 9d3d 2810 dcbc
00000140: 4217 39bd 56fc 03be 1d7d 8ebc 309e 9b3d
00000150: 7f55 fdbd 408a 84bb ffb2 ad3d 6ded a1bc
00000160: c431 53bd a7ce 41bd e037 48bd be0c 153d
00000170: f64a dfbd dd85 293d 9ec1 7fbc c7a1 66ba
00000180: b98e 81bb e608 9b3d 648c a1bd 70eb ffbd
00000190: 1a62 cabd 15d0 babd 3faa 86bd d75d e83d
000001a0: 8e2d b3bd d3ca 91bd c163 c8bd a8b9 82bd
000001b0: 3c3e 7a3b 6d06 a8bd 0ef1 b9b9 a0e7 5f3d
000001c0: 12b3 c4bc d064 5b3d bc46 183d 730e fd3d
000001d0: 0571 1bb9 9363 d73d 9091 c53d ed21 813d
000001e0: 3258 ab3d 5e0c bbbd e265 98bd bcfa 3c3d
000001f0: d39f 343d dfec cc3d 8d6e 8cbc 9dc1 e7bc
00000200: a26b ae3d 71b8 963c 40c9 003e 19f8 6fbd
00000210: 8d55 11bd 8827 c7bb 09a2 793d fb8c e3bd
00000220: b358 38bd afac c23d 49f8 fb3c cea6 a53d
00000230: b4f1 32bd a5bd 9fbd 4213 b6bd 4ae7 90bd
00000240: e885 b9bd 66ef 833d 3302 373d 0c33 96bd
00000250: 18d5 f33d c57b 193d a162 233d cc26 69bd
00000260: c067 a03d f1a8 b9bd 2829 c73d c2f4 85bd
00000270: 947f 653d ed6c 57bd 6231 a13d 0f0b d6bd
00000280: afec bfbc 3e68 30bd dec8 aabd 3323 6abd
00000290: cba6 33bd 491b b03b b2b4 ab3d e224 80bc
000002a0: 2369 ed3d e268 5abd 4a21 78bd 547a 00bc
000002b0: eb24 9abc c477 293d 3339 db3d e90a 0d3d
000002c0: 6558 e0bd 4cd8 3ebd 20e1 c9bc c24f d4bd
000002d0: ffeb 3c3d 79ca d03d 9633 7a3d 14ca 67b9
000002e0: 7e15 84bc d7db 92bd f53c 8abc 5f9c e23d
000002f0: 6f7c 93bd cc7f b93c 5a91 adbd 7eb7 f0bc
00000300: 662d a13c 21a5 bfbd 84e3 223d 8d4c d0bd
00000310: 1f10 3dbd 62a0 b93d f835 fe3d bf91 02bb
00000320: bc76 bfbd 57be bfbd 4b2a e5bc 3ada 90bd
00000330: fc89 c33d b5cc b2bd 2574 b13d f132 8d3c
00000340: b941 26bd 701d db3d 01f7 853d 8bf9 f73a
00000350: 435b 9cbd 7262 3dbd 68d5 3d3d 8168 e03d
00000360: be55 3fbd b768 1ebd 592e eabd a2e7 a53d
00000370: ea0f f93d 16a8 a23d 4362 a2bd 4282 9b3d
00000380: 2629 33bd 5650 863d dee2 8b3d 7639 c4bd
00000390: 25e9 093d b092 593d 6d27 86bd 4a0b d13d
000003a0: 6da3 bb3d 2836 e63d 678d d63b 2277 8bbd
000003b0: b40e 81bd 8da2 503d 6efe e0bc b75c ba3d
000003c0: e538 df3d 5eb3 303c e5f0 e3bd 615c 413d
000003d0: 5447 e23d f9fb efbc 59b7 95bd 8b8b ecbc
000003e0: 7bff 383c c6fe c7bd 5c82 723d cf83 653d
000003f0: b7d0 20bd 26f2 15bd a4c8 63bd c17c d93d

node_encoder.layers.6.bias f4 [32]
0.03317787 0.016544491 0.026266877 0.0018124178 -0.053109176 -5.0188137e-05 0.06759095 0.061920155
-0.029533453 0.040959835 0.014601748 0.001665751 0.02480379 0.00021417676 0.0002359184 -0.03714513
-0.00020628911 0.07564311 0.0330879 -0.0551254 0.00023932714 0.035065003 -0.012438728 -0.00014425101
0.019696943 0.05898938 0.066996224 -0.044980265 -0.07122281 0.04314743 -0.00043499118 0.06646677
00000000: 85e5 073d 5088 873c a22d d73c a68e ed3a
00000010: 0289 59bd 1a81 52b8 206d 8a3d fd9f 7d3d
00000020: 24f0 f1bc 80c5 273d 2c3c 6f3c 5455 da3a
00000030: 5131 cb3c a394 6039 dd60 7739 7e25 18bd
00000040: 504f 58b9 c6ea 9a3d 2e87 073d 2ccb 61bd
00000050: e4f3 7a39 52a0 0f3d cecb 4bbc 1642 17b9
00000060: 7c5b a13c d99e 713d 5135 893d 3a3d 38bd
00000070: 44dd 91bd 5cbb 303d 870f e4b9 bb1f 883d

edge_encoder.layers.0.weight f4 [64, 4]
0.35063148 -0.20209855 0.14023498 0.1560061 -0.16845433 0.4591889 0.049038183 -0.15523317
-0.45774502 0.40385094 -0.4895305 0.3747746 -0.16049202 -0.092075534 0.082753606 0.474357
-0.3091998 -0.34750617 0.31652537 -0.2174923 -0.1837943 0.28089342 -0.21261522 0.2937591
-0.20499222 0.38632625 0.4884169 0.054429896 -0.1554448 0.26959008 0.15096804 0.0058476734
0.425664 -0.016830482 0.19172888 -0.12881568 -0.08287787 -0.029699942 0.042110387 0.21971376
0.3746313 0.2946254 -0.21308953 0.42250803 0.3186716 0.1926984 0.057924513 -0.2629311
-0.3100752 0.014305684 -0.3568377 0.16749983 -0.45662856 -0.4441694 -0.21864799 0.2680578
0.40439114 -0.42030174 -0.3059023 0.09539133 -0.08462748 -0.40515265 0.14347582 -0.39145508
0.015551405 0.20621178 0.45255765 -0.41139057 0.3599814 0.0662335 0.4416013 0.47293594
-0.107643805 -0.08062314 -0.13004653 0.38252518 -0.21660675 0.332123 0.20593937 0.4541602
0.35603902 0.39142272 -0.41035154 -0.24625078 -0.35643345 0.23457746 0.10466518 0.18389441
0.1942335 0.02960105 0.18337955 -0.2749822 0.3216229 -0.43802553 -0.4532746 0.15785967
0.46626246 -0.1730357 0.47005576 -0.17532471 -0.379286 -0.081431374 0.27507874 -0.24041447
0.46688655 -0.2322282 -0.21903843 -0.20448446 -0.38787514 0.4562851 -0.28260863 -0.22819604
-0.14077036 0.409004 0.2521056 0.19228567 -0.14256822 0.24300486 0.08450638 0.40171435
0.11740005 0.37119856 0.3358931 0.08175197 -0.473723 0.11287781 -0.37517905 0.07397718
-0.046746347 0.380427 -0.3718151 -0.39551532 0.20989364 0.3433617 -0.11216696 0.1381017
0.4009101 0.06531675 -0.13812876 0.2872526 0.45994097 -0.09222193 0.3272213 0.016680932
-0.08570248 -0.047885377 -0.49292287 0.22333641 -0.26530433 -0.4354997 -0.06384627 -0.18404253
-0.30465937 -0.11037032 -0.055586476 0.15697144 0.06903215 -0.05697113 0.111343205 -0.32284015
0.43111488 0.22895713 0.30868766 -0.4251591 0.3340625 0.08579337 -0.48453456 0.4601428
-0.007974051 0.10841965 0.39177856 0.3329517 0.43973586 -0.46521792 0.4899834 0.10281292
0.017549789 -0.4031895 -0.25641155 0.4623642 0.38440636 0.3794078 -0.035173465 -0.2681107
0.10979467 -0.23067196 -0.33201006 0.16302456 0.3797533 -0.39160386 -0.43801934 0.069578305
-0.1841365 -0.25932384 -0.099516526 -0.029446041 -0.1457563 0.35257232 0.27948308 0.14571618
-0.16194548 -0.031746 0.31952 0.03848969 -0.48268402 0.06216151 0.2597681 -0.12189787
-0.10483114 -0.075569734 0.2932096 0.38715774 -0.39267218 0.32810745 0.20318696 0.16551037
-0.29895508 -0.28179058 0.48208573 0.10590016 -0.10610169 -0.0958988 0.3391587 -0.107382454
0.34179622 -0.1326928 0.115265585 0.11203885 -0.2594696 0.015192445 0.09681272 -0.47598264
-0.093237184 0.030948289 0.41392416 0.10271885 -0.42802718 -0.15636799 0.48481157 -0.077587865
0.37396982 0.046094015 0.33036613 -0.20239745 0.48478433 0.10652531 -0.10859329 0.36552843
0.23945878 -0.34760436 -0.024150802 0.3397948 0.12580489 -0.1495162 -0.33466455 -0.33607224
00000000: f885 b33e ecf2 4ebe c299 0f3e 10c0 1f3e
00000010: 4b7f 2cbe cf1a eb3e 43dc 483d 72f5 1ebe
00000020: 8e5d eabe 8dc5 ce3e bea3 fabe 75e2 bf3e
00000030: 0558 24be 1992 bcbd b97a a93d ecde f23e
00000040: 704f 9ebe 54ec b1be 9d0f a23e 4db6 5ebe
00000050: 9334 3cbe 43d1 8f3e ceb7 59be 9867 963e
00000060: 7be9 51be 8ecc c53e c811 fa3e e2f1 5e3d
00000070: ec2c 1fbe b607 8a3e 5e97 1a3e d79d bf3b
00000080: a2f0 d93e 14e0 89bc 9354 443e 42e8 03be
00000090: dfbb a9bd 4b4d f3bc f17b 2c3d a5fc 603e
000000a0: accf bf3e 24d9 963e 2434 5abe f952 d83e
000000b0: ed28 a33e bb52 453e 4142 6d3d e89e 86be
000000c0: 2dc2 9ebe 6362 6a3c 6eb3 b6be 1385 2b3e
000000d0: 38cb e9be 2c6a e3be 42e5 5fbe df3e 893e
000000e0: 5b0c cf3e ca31 d7be 3a9f 9cbe 885c c33d
000000f0: 2c51 adbd 2b70 cfbe 53eb 123e cd6c c8be
00000100: 52cb 7e3c 2e29 533e a3b5 e73e c9a1 d2be
00000110: 7b4f b83e 6ea5 873d 9119 e23e a924 f23e
00000120: 5b74 dcbd bf1d a5bd eb2a 05be 57da c33e
00000130: 29ce 5dbe 070c aa3e c5e1 523e b087 e83e
00000140: bf4a b63e 8f68 c83e 9919 d2be 2a29 7cbe
00000150: 727e b6be 1335 703e b35a d63d d14e 3c3e
00000160: 26e5 463e e77d f23c d9c7 3b3e 78ca 8cbe
00000170: c2ab a43e e244 e0be 9c13 e8be f7a5 213e
00000180: f4b9 ee3e 4530 31be 26ab f03e 5288 33be
00000190: c631 c2be 7ec5 a6bd 1fd7 8c3e 362f 76be
000001a0: c10b ef3e 3bcd 6dbe 9c4b 60be 6064 51be
000001b0: 9297 c6be 339e e93e 14b2 90be 39ac 69be
000001c0: 1b26 10be f968 d13e fc13 813e 89e6 443e
000001d0: 67fd 11be 44d6 783e ae11 ad3d 81ad cd3e
000001e0: 706f f03d bd0d be3e 2efa ab3e 946d a73d
000001f0: d28b f2be 7b2c e73d 7817 c0be 5981 973d
00000200: 1979 3fbd 54c7 c23e 8c5e bebe fc80 cabe
00000210: 5cee 563e 1bcd af3e cbb7 e5bd 886a 0d3e
00000220: 1744 cd3e cac4 853d a071 0dbe c612 933e
00000230: 627d eb3e dade bcbd 8d89 a73e 73a6 883c
00000240: c884 afbd 7523 44bd 6360 fcbe 4db2 643e
00000250: f8d5 87be d1f9 debe d5c1 82bd a575 3cbe
00000260: 50fc 9bbe d609 e2bd a5ae 63bd 1fbd 203e
00000270: ba60 8d3d 8f5a 69bd e807 e43d 4e4b a5be
00000280: 17bb dc3e bd73 6a3e 4f0c 9e3e 74ae d9be
00000290: 3d0a ab3e 6fb4 af3d ea14 f8be d697 eb3e
000002a0: 98a5 02bc 1f0b de3d 3397 c83e a578 aa3e
000002b0: 0f25 e13e 0b31 eebe 1bdf fa3e 958f d23d
000002c0: 93c4 8f3c db6e cebe 6048 83be 00bb ec3e
000002d0: e9d0 c43e bd41 c23e 0d12 10bd ce45 89be
000002e0: 07dc e03d 4535 6cbe 39fd a9be e9ef 263e
000002f0: 066f c23e 4d80 c8be 1244 e0be 127f 8e3d
00000300: 478e 3cbe 18c6 84be 52cf cbbd d338 f1bc
00000310: 2441 15be 5c84 b43e 6818 8f3e 9f36 153e
00000320: 09d5 25be 1808 02bd 2098 a33e 5da7 1d3d
00000330: 5c22 f7be 119d 7e3d 5300 853e 97a5 f9bd
00000340: b5b1 d6bd 4ec4 9abd 921f 963e 8a39 c63e
00000350: 540c c9be b3fd a73e 3e10 503e 8d7b 293e
00000360: a410 99be db46 90be f1d3 f63e 2fe2 d83d
00000370: d84b d9bd 9766 c4bd 36a6 ad3e 55eb dbbd
00000380: eaff ae3e 9fe0 07be 5d10 ec3d a074 e53d
00000390: 33d9 84be bce9 783c bf45 c63d ffb3 f3be
000003a0: 23f3 bebd 4487 fd3c deed d33e 435e d23d
000003b0: 6126 dbbe ee1e 20be 3939 f83e 63e6 9ebd
000003c0: f978 bf3e 14cd 3c3d c025 a93e 4741 4fbe
000003d0: a735 f83e f129 da3d 2966 debd 8b26 bb3e
000003e0: af34 753e 33f9 b1be e7d7 c5bc 96f9 ad3e
000003f0: ffd2 003e c61a 19be 2759 abbe a911 acbe

edge_encoder.layers.0.bias f4 [64]
0.2292781 0.17791636 -0.39388552 -0.05669151 0.079711236 -0.3932045 0.38174334 -0.012291599
-0.15498656 0.014166106 0.13276416 0.064780794 0.42493126 0.23279345 -0.0085790595 0.04013935
0.07448523 -0.15023391 -0.37929198 -0.012184814 -0.14246006 -0.42308357 0.13047408 -0.16159841
0.4294629 0.130973 0.16471167 0.09843142 0.14695832 0.27129424 0.31831017 0.0017406176
-0.094528496 0.08839685 -0.17727529 0.001851678 0.09868472 0.17510588 -0.4343857 0.14558254
-0.14556354 -0.30322176 -0.16471614 -0.0006301092 0.19775754 -0.39613017 0.08873589 0.4012989
-0.2338016 0.07285848 -0.1529037 0.07619845 0.16825628 -0.25920558 0.07302126 0.44493002
0.00047904352 -0.30594867 -0.00032128821 0.063970394 0.10649779 -0.0009192349 -0.060986437 -0.2001131
00000000: e1c7 6a3e b52f 363e 5dab c9be 5b35 68bd
00000010: a53f a33d 1a52 c9be dd73 c33e b462 49bc
00000020: ccb4 1ebe f418 683c 54f3 073e cbab 843d
00000030: 9790 d93e 6861 6e3e 2f8f 0cbc 2969 243d
00000040: b68b 983d ebd6 19be 8f32 c2be d0a2 47bc
00000050: 0de1 11be 699e d8be ff9a 053e 0e7a 25be
00000060: 90e2 db3e c91d 063e 2daa 283e 6a96 c93d
00000070: 3e7c 163e 14e7 8a3e 8df9 a23e 6f25 e43a
00000080: 2898 c1bd 6809 b53d a787 35be 01b4 f23a
00000090: 371b ca3d f54e 333e cd67 debe 9713 153e
000000a0: 9c0e 15be e23f 9bbe 59ab 28be ea2d 25ba
000000b0: f480 4a3e 93d1 cabe 2abb b53d 0d77 cd3e
000000c0: b069 6fbe d436 953d ca92 1cbe ef0d 9c3d
000000d0: 604b 2c3e 98b6 84be 2c8c 953d decd e33e
000000e0: 2228 fb39 4ea5 9cbe 9372 a8b9 e902 833d
000000f0: 831b da3d cff8 70ba eacc 79bd 73ea 4cbe

edge_encoder.layers.1.weight f4 [64]
0.98652714 0.9838389 0.9926888 1.0019107 0.9917711 1.0034953 0.98657334 1.0028067
1.0002133 0.98691726 1.0047662 0.991434 0.9824102 0.98187894 0.9893154 0.989865
0.98146003 0.9916449 0.9806234 0.9934417 0.98639137 0.9849974 0.98839676 0.98779595
0.9893064 0.99422604 0.9845566 1.0033445 0.9907593 0.98739564 0.9915008 0.98913366
1.0021362 0.9903727 0.98789364 0.9904048 0.9912769 0.9855397 0.9893601 0.989066
0.98726624 0.9936111 0.99281585 0.998425 0.9987168 0.9884635 1.0021555 0.9871585
0.9832516 0.98659915 0.99523616 0.9839382 0.97889847 0.9924258 1.0025365 0.99502444
0.98361194 1.0036678 0.9944831 0.9945222 0.99870443 1.0031402 0.98563236 1.0004828
00000000: 0b8d 7c3f dedc 7b3f da20 7e3f 9c3e 803f
00000010: b6e4 7d3f 8972 803f 1290 7c3f f85b 803f
00000020: fd06 803f 9ca6 7c3f 2e9c 803f 9ece 7d3f
00000030: 3c7f 7b3f 6b5c 7b3f c643 7d3f cb67 7d3f
00000040: f740 7b3f 71dc 7d3f 230a 7b3f 3252 7e3f
00000050: 2584 7c3f ca28 7c3f 9207 7d3f 32e0 7c3f
00000060: 2f43 7d3f 9985 7e3f e70b 7c3f 986d 803f
00000070: 67a2 7d3f f6c5 7c3f ffd2 7d3f dd37 7d3f
00000080: 0046 803f 1189 7d3f 99e6 7c3f 2b8b 7d3f
00000090: 53c4 7d3f 544c 7c3f b446 7d3f 6e33 7d3f
000000a0: 7bbd 7c3f 4c5d 7e3f 2e29 7e3f c898 7f3f
000000b0: e7ab 7f3f f20b 7d3f a246 803f 6bb6 7c3f
000000c0: 60b6 7b3f c391 7c3f ccc7 7e3f 60e3 7b3f
000000d0: 1799 7a3f 9e0f 7e3f 1e53 803f ecb9 7e3f
000000e0: fecd 7b3f 3078 803f 7296 7e3f 0299 7e3f
000000f0: 18ab 7f3f e666 803f 6752 7c3f d20f 803f

edge_encoder.layers.1.bias f4 [64]
-0.0051763374 -0.005189497 -0.0056999032 0.0061089215 0.0006005589 0.007901385 -0.009311536 0.007523078
0.0037791505 0.003561385 0.0081000235 -0.0017370317 -0.008403744 -0.011924475 -0.009339655 -0.0058620973
-0.01507515 -0.0062672338 -0.017368501 -0.003411657 -0.00645556 -0.010174483 -0.00574995 -0.0061815097
-0.005028998 -0.0017717996 -0.0018050789 0.007944648 -0.001651991 -0.006823225 -0.0052621067 -0.0071247485
0.004199705 -0.0037291676 -0.00856072 -0.008056052 -0.008180512 -0.017309856 0.00071330246 -0.008853599
-0.006829487 -0.0018043072 -0.005131976 0.005268283 0.003777333 -0.008585158 0.0053688968 -0.0077427044
-0.011051989 -0.01032966 -0.0013994158 -0.011544942 -0.016140783 -0.0055673844 0.0085907355 -0.0038119396
-0.0076551917 0.010007755 -0.0032628104 0.0004503639 0.0012997099 0.0062060975 -0.0112910615 0.0030655519
00000000: 449e a9bb a80c aabb 41c6 babb 592d c83b
00000010: d36e 1d3a d074 013c 6a8f 18bc 2784 f63b
00000020: a0ab 773b 2066 693b f6b5 043c 1dad e3ba
00000030: dbaf 09bc e05e 43bc 5a05 19bc d616 c0bb
00000040: c3fd 76bc 5e5d cdbb 6348 8ebc 1b96 5fbb
00000050: 2a89 d3bb e0b2 26bc 146a bcbb 438e cabb
00000060: 4bca a4bb bb3b e8ba 6698 ecba 452a 023c
00000070: 9f87 d8ba 5c95 dfbb c06d acbb b976 e9bb
00000080: ae9d 893b 0d65 74bb 4342 0cbc 88fd 03bc
00000090: 8e07 06bc 66cd 8dbc ebfc 3a3a b00e 11bc
000000a0: e4c9 dfbb 817e ecba 232a a8bb 90a1 ac3b
000000b0: 228d 773b c3a8 0cbc 92ed af3b 83b6 fdbb
000000c0: 6713 35bc bc3d 29bc 9a6c b7ba ff26 3dbc
000000d0: ad39 84bc 9b6e b6bb 28c0 0c3c bcd1 79bb
000000e0: 67d8 fabb 91f7 233c e0d4 55bb d21e ec39
000000f0: 075b aa3a 855c cb3b 25fe 38bc 6de7 483b

edge_encoder.layers.1.running_mean f4 [64]
0.24133165 0.17090382 -0.3802575 -0.040223416 0.07252609 -0.38481724 0.37965274 -0.019048618
-0.1662334 0.02635118 0.15676415 0.05563923 0.44031563 0.25412276 0.00070237566 0.027759448
0.053506743 -0.13834608 -0.36507785 -0.00035373608 -0.1552905 -0.42336097 0.1206908 -0.14957261
0.42316476 0.121198714 0.1653526 0.09131936 0.1534715 0.2903815 0.3199432 0.0069287056
-0.11497349 0.097753614 -0.16697559 0.0003630264 0.118662186 0.17488624 -0.43123645 0.1350121
-0.17319712 -0.28169915 -0.15974571 0.0028761434 0.22875261 -0.41429558 0.10596171 0.4178612
-0.23682995 0.0771051 -0.15929858 0.07034448 0.18677582 -0.26210216 0.07774405 0.44136277
0.0074288296 -0.33325377 -0.00074261485 0.059254706 0.09836498 0.015172361 -0.04636144 -0.21408789
00000000: a51f 773e 6901 2f3e 1cb1 c2be 4fc1 24bd
00000010: 8f88 943d c406 c5be d861 c23e d90b 9cbc
00000020: 1739 2abe 6ede d73c c886 203e f6e5 633d
00000030: 0d71 e13e 611c 823e a21f 383a c867 e33c
00000040: e329 5b3d 98aa 0dbe 7ceb babe a775 b9b9
00000050: 7904 1fbe c5c2 d8be bd2c f73d 9029 19be
00000060: 0da9 d83e 0837 f83d 3152 293e a505 bb3d
00000070: a227 1d3e e2ac 943e 98cf a33e 320a e33b
00000080: 3977 ebbd 0c33 c83d a6fb 2abe 9454 be39
00000090: 2905 f33d 6115 333e 06cb dcbe 9d40 0a3e
000000a0: 965a 31be df3a 90be 6194 23be ae7d 3c3b
000000b0: 203e 6a3e 8d1e d4be 7402 d93d e7f1 d53e
000000c0: 8d83 72be 47e9 9d3d 2b1f 23be c410 903d
000000d0: 2942 3f3e 4132 86be 4638 9f3d 4dfa e13e
000000e0: 8a6d f33b 3da0 aabe 0aac 42ba 10b5 723d
000000f0: 9473 c93d 7f95 783c 7ee5 3dbd db39 5bbe

edge_encoder.layers.1.running_var f4 [64]
0.03951099 0.028051578 0.22805075 0.010408598 0.10111888 0.04707601 0.1973364 0.028262615
0.057329122 0.0026160667 0.06539358 0.023048192 0.1096204 0.0886543 0.1147058 0.032772843
0.15511286 0.16468357 0.015042674 0.050670426 0.1597995 0.035440307 0.031105341 0.18799464
0.20178603 0.080096796 0.07791405 0.105361044 0.0668583 0.015011817 0.09864112 0.14261118
0.11635861 0.028106458 0.041427337 0.11498729 0.18049239 0.033286896 0.018998114 0.010328965
0.10574227 0.19254325 0.114543244 0.2314497 0.064984195 0.039495323 0.08823384 0.18097377
0.019439487 0.073607855 0.0796355 0.08926354 0.06577349 0.06777531 0.19303843 0.08712005
0.031303324 0.01853439 0.12739581 0.20535001 0.103494 0.049202345 0.022666788 0.08723192
00000000: 47d6 213d 6ccc e53c 2386 693e d388 2a3c
00000010: 6a17 cf3d c6d2 403d 8e12 4a3e 0087 e73c
00000020: f1d1 6a3d 5172 2b3b 12ed 853d 90cf bc3c
00000030: a980 e03d 6390 b53d e0ea ea3d d13c 063d
00000040: e8d5 1e3e cfa2 283e 8c75 763c cb8b 4f3d
00000050: 7ba2 233e db29 113d a1d0 fe3c ab81 403e
00000060: ffa0 4e3e ca09 a43d 6791 9f3d 88c7 d73d
00000070: 01ed 883d 20f4 753c 5b04 ca3d aa08 123e
00000080: 6c4d ee3d 843f e63c b6af 293d 757e eb3d
00000090: ffd2 383e d757 083d efa1 9b3c d23a 293c
000000a0: 678f d83d 0f2a 453e a695 ea3d 2601 6d3e
000000b0: 6f16 853d d9c5 213d f2b3 b43d 3051 393e
000000c0: 8f3f 9f3c b7bf 963d f017 a33d cecf b63d
000000d0: 40b4 863d c8cd 8a3d deab 453e ff6b b23d
000000e0: ea37 003d 6fd5 973c 0c74 023e 4647 523e
000000f0: aaf4 d33d 6688 493d b3af b93c a6a6 b23d
