gnn/gnn_outputs/checkpoint_epoch_90.pt (torch, 971612 bytes, 208 tensors)

node_encoder.layers.0.weight f4 [64, 3]
000000 b2 74 d4 3e 95 a5 f7 3e 41 7b 10 be cc dd 09 3f
       0.4149528 0.48368517 -0.14109518 0.5385406
000010 a9 7d f4 bd ad a0 e0 3d 09 1a 85 be 3b 11 b2 3e
       -0.1193803 0.109681465 -0.25996426 0.3477877
000020 7b 3f 06 3f 71 30 d9 be 37 1e 00 3f 19 d7 dc 3d
       0.52440614 -0.4241977 0.50046104 0.10783214
000030 85 16 e0 3e da af 8f 3d de 14 89 3e 32 61 ab bd
       0.4376718 0.07015963 0.26773733 -0.08368148
000040 17 19 df 3e 42 46 be 3d 38 1e 8d be e5 9f 1b 3e
       0.4357383 0.09290744 -0.27562118 0.15197714
000050 05 e7 81 be af 2b 88 bd 1d 73 68 be 50 2b c7 3e
       -0.25371566 -0.06648957 -0.22700162 0.38900232
000060 21 e1 e9 be 00 62 83 be 38 77 32 be 41 c4 b6 be
       -0.45679572 -0.25660706 -0.17428291 -0.35696605
000070 87 0b 3f 3d 66 1a 0f bf a4 c5 05 3f eb 5d fb be
       0.046641853 -0.55899656 0.522547 -0.4909509
000080 af 5a e1 3e 48 be d2 3d 05 ca 37 be d1 62 b6 3e
       0.440145 0.102901995 -0.17948158 0.35622266
000090 9c c6 b0 3d 14 6f f4 3e 14 4c 38 3d 69 7a 3d be
       0.08631632 0.47740996 0.04499443 -0.18503727
0000a0 20 e8 16 3e db 41 28 be 70 f0 79 3e 66 00 00 3f
       0.14736986 -0.16431372 0.24408126 0.5000061
0000b0 f2 2f b3 3e b3 b6 81 be ad 9f ab 3e b6 30 bb 3d
       0.34997517 -0.253347 0.3352026 0.0914015
0000c0 c6 77 99 3e 76 0d b4 be 52 81 11 bf f8 a3 63 be
       0.29974192 -0.3516652 -0.5683795 -0.22230518
0000d0 04 e0 e7 be d8 10 ec 3e a4 bb 2a 3e ea 2f 74 3e
       -0.45288098 0.461066 0.16673142 0.23846403
0000e0 21 18 39 3e 5f b9 cb bc 90 7d e7 3e 1b 8e d1 be
       0.1807561 -0.024868665 0.45212984 -0.4092873
0000f0 9e ed 18 3d d0 17 d1 be f8 2c 27 3e 09 8d 45 be
       0.037335984 -0.4083848 0.16325748 -0.19292082
000100 e7 b7 3c 3e 1a a6 f7 bd 21 cd ee 3e 15 d7 b9 be
       0.18429528 -0.12092228 0.46640876 -0.36296907
000110 5b c9 ac be 11 6b b5 be 2f 91 02 3f fa 81 45 3e
       -0.33747372 -0.35433248 0.5100278 0.19287863
000120 22 b0 0f 3f 22 af ed be 74 8f 13 bf fa ce e9 be
       0.5612813 -0.46422678 -0.5764077 -0.45665723
000130 38 ee ca be 2b f3 61 3e 7d 88 42 3e bb 0c f8 3e
       -0.3963487 0.22065417 0.18997379 0.48447213
000140 56 0c 9a be a5 cc cb be d1 8b 9f 3e d7 d8 65 be
       -0.30087537 -0.3980457 0.3116136 -0.22445999
000150 42 ee b2 3e c9 de 11 be 9d f3 a7 3e b5 13 f0 be
       0.349474 -0.14245142 0.3280305 -0.46890035
000160 ce 5c 91 be c4 aa 35 3e 76 6b e2 3d 6c 9e 20 be
       -0.28391117 0.17740923 0.11055653 -0.15685433
000170 e2 65 ae 3e 66 3a c6 3e 4c 1e dc be 81 96 97 be
       0.34062105 0.3871643 -0.42991865 -0.29607013
000180 b3 10 09 3f fd 6a 48 be 8f d3 4c be 64 11 0c bf
       0.53541106 -0.19572063 -0.20002578 -0.54714036
000190 98 e8 ae be 46 0a 08 3e 3c 25 b8 bd 34 a0 cf be
       -0.3416183 0.13285169 -0.08991477 -0.40551913
0001a0 e9 1b f8 b8 26 c3 c9 be fb 12 01 bf a0 5e 9c be
       -0.0001183076 -0.394067 -0.50419587 -0.30540943
0001b0 ec 8c 02 bf 76 6c bb be 1b 03 13 3f ac a9 d1 3d
       -0.5099628 -0.36606187 0.57426614 0.102374405
0001c0 42 6e 40 3e 14 72 07 bf ee fb c2 be 6a 73 43 be
       0.1879206 -0.52908444 -0.38082832 -0.19086996
0001d0 ba d9 bb 3d da b9 05 bf 60 4f 7e be 8d e9 ab be
       0.091723874 -0.5223671 -0.24834967 -0.33576623
0001e0 03 e9 13 3c d2 12 62 be 82 b7 0c bd 15 ae d2 be
       0.009027722 -0.22077492 -0.034354694 -0.4114844
0001f0 90 9d cc be 1a f4 a6 be 58 da 4c be 64 22 ec be
       -0.3996396 -0.3260811 -0.20005167 -0.46119988
000200 9b ba f2 3e c6 85 ed bd b0 16 f7 3e 32 c3 45 3e
       0.47407994 -0.11597781 0.48259497 0.19312742
000210 24 62 fb be 87 1a cc 3e 5b ce 1d be 6a 03 68 be
       -0.49098313 0.3986399 -0.1541075 -0.22657552
000220 49 60 f6 be 22 d2 11 bf 62 2f 2b 3e 20 73 ef bd
       -0.48120335 -0.5696126 0.16717294 -0.1169188
000230 67 7e 6a 3e 5d 4b ef be 9a dc df 3e a8 2f d6 be
       0.22899781 -0.46737185 0.43722993 -0.41833234
000240 f4 88 ca bd 68 96 f6 3d b6 f3 98 3e b1 a8 f5 3e
       -0.09889403 0.120404065 0.29873437 0.47980264
000250 33 5d 04 3f 8a be e4 be c7 ff 10 3e 35 41 81 be
       0.5170471 -0.4467662 0.14160071 -0.25245062
000260 33 20 84 bd 11 2d da be c0 bc 07 3f b7 22 d7 be
       -0.06451454 -0.42612508 0.53022385 -0.42018673
000270 5f 80 a4 3e 46 52 39 3e 88 93 3b 3e 75 67 9e be
       0.3212919 0.18097791 0.18317997 -0.30938306
000280 44 40 07 3f 6a c8 f5 3d 2a 77 a9 3d d1 28 02 bf
       0.52832437 0.120011166 0.08274682 -0.5084353
000290 b0 f8 75 3e 58 42 9e bd 55 a8 7d be b8 4b 03 3f
       0.24020648 -0.07727498 -0.24771245 0.5128741
0002a0 dd 9f 01 3e b6 78 a7 be 40 56 91 be f6 04 0e bd
       0.12658639 -0.32709283 -0.28386116 -0.0346727
0002b0 fa f6 a5 3e 21 cc 14 be 5c 32 a5 be cc e2 53 be
       0.3241499 -0.14530994 -0.32264984 -0.20691985
0002c0 33 5d de be e7 90 41 3e 90 07 e0 3e 6a 0c 0e bf
       -0.4343048 0.18902932 0.4375577 -0.5548769
0002d0 ce 40 1e 3e 76 ce 92 3e 9e a0 c0 3d c9 e5 4c be
       0.15454409 0.28673142 0.09405635 -0.20009531
0002e0 6b 6e 97 3e 23 60 a5 3e 1b 25 52 3e ea 9d d2 bd
       0.2957643 0.3229991 0.20521967 -0.10284026
0002f0 75 a7 24 be c6 a0 85 3d ed 7d b4 bd 97 4c 3d be
       -0.16079505 0.06524806 -0.08813081 -0.18486248

node_encoder.layers.0.bias f4 [64]
000000 20 f8 90 3e bb 81 d1 3e 9c de f6 ba 15 03 57 bd
       0.28314304 0.4091929 -0.0018834653 -0.052493174
000010 a4 ac ac b6 c5 56 88 39 db b6 79 3d 55 e3 a7 3d
       -5.1460975e-06 0.0002600459 0.0609654 0.08197657
000020 6c d7 df be bf b2 05 be ec 6b cc 3e ef 45 11 3e
       -0.4371904 -0.13056467 0.39926088 0.14186834
000030 2b c7 57 b9 fa 57 86 be f9 f6 88 be 29 2d dc be
       -0.00020578194 -0.26238996 -0.26750925 -0.43003204
000040 0a a7 da bd db dc e7 3d 8a 8f 90 3e 09 c0 3a 3e
       -0.106763914 0.11321422 0.28234512 0.18237318
000050 0b b1 d8 be bb f4 85 be e6 6d ad bc dc 3a f1 3e
       -0.42322573 -0.26163277 -0.021170568 0.4711522
000060 ee 77 81 3c 28 a0 90 bd 73 23 1f 3e 52 65 0c be
       0.015804257 -0.070617974 0.15540867 -0.13710526
000070 35 51 93 be 69 7f ab 3e 6e b9 36 be ad ef 26 bd
       -0.28772894 0.33495644 -0.17844173 -0.040755916
000080 87 4c f9 be 17 c1 99 3e 70 a0 b3 3e 98 0b 03 3e
       -0.48691198 0.30030128 0.35083342 0.12797391
000090 d8 f1 a1 be 3e fc f6 be 5a a0 c3 be 04 21 b0 3e
       -0.31629825 -0.4823932 -0.38208276 0.3440019
0000a0 7d 64 45 3e d8 3b cc 3e 79 bf 5e 3e 14 61 8a 3d
       0.19276614 0.39889407 0.21752729 0.067567974
0000b0 62 3a 94 b7 e5 75 b4 be 59 b4 d0 be 8d cf e7 be
       -1.7670161e-05 -0.35246196 -0.40762594 -0.45275536
0000c0 69 af 1c 3e ab ac 4b be 5f 69 28 bd 25 c4 7c be
       0.15301289 -0.19890086 -0.041116115 -0.24684198
0000d0 56 4f 03 bd 2e de a3 be 9e 21 95 be db 1a e1 3d
       -0.032058083 -0.32005447 -0.2912721 0.109914504
0000e0 3d a4 ba bd cd 9a 8a 3e 3f e3 d4 bd 94 91 ac be
       -0.09113357 0.2707123 -0.10394906 -0.33704817
0000f0 2d 20 f1 bc 8c 12 48 be 56 43 c4 bd 7d c2 ec be
       -0.029434288 -0.19538325 -0.09583156 -0.46242133

node_encoder.layers.1.weight f4 [64]
000000 5c 63 7c 3f 34 03 7f 3f 97 1a 7d 3f 7f 67 7f 3f
       0.9858911 0.9961426 0.988687 0.997673
000010 81 c1 7e 3f 9a 85 80 3f bb 5e 7c 3f 03 6c 80 3f
       0.99514014 1.0040772 0.9858205 1.0032963
000020 e2 bb 7f 3f 71 82 7d 3f 1a 91 7f 3f d7 2a 81 3f
       0.9989606 0.9902716 0.9983078 1.0091199
000030 fe 5a 7f 3f aa 70 81 3f 3c 77 7d 3f 60 ac 7f 3f
       0.9974822 1.0112507 0.9901006 0.998724
000040 bf a2 7f 3f 05 d0 80 3f 8a bc 7c 3f 40 35 81 3f
       0.99857706 1.0063483 0.9872519 1.0094376
000050 3c 46 80 3f eb ea 7c 3f af 16 80 3f ed 7d 7e 3f
       1.0021434 0.98795956 1.0006922 0.994109
000060 7b 43 7e 3f 82 23 81 3f c6 2c 80 3f df 92 7f 3f
       0.9932172 1.0088961 1.0013664 0.9983348
000070 09 a6 7e 3f 23 e3 7e 3f 12 bf 7c 3f 15 3e 81 3f
       0.994721 0.99565333 0.9872905 1.0097071
000080 33 66 80 3f 6c 78 80 3f da 08 81 3f 4c 19 80 3f
       1.0031189 1.003675 1.0080826 1.000772
000090 c4 13 80 3f 4f 74 80 3f cd 4f 7f 3f d9 f7 7d 3f
       1.0006032 1.0035495 0.9973114 0.9920631
0000a0 9d 09 80 3f 65 e9 7e 3f 15 ce 7e 3f 5c b8 7f 3f
       1.0002934 0.9957488 0.99533206 0.99890685
0000b0 83 d0 7e 3f f4 d4 80 3f 55 8e 80 3f fe 98 7f 3f
       0.99536914 1.0064988 1.0043436 0.9984282
0000c0 9d 57 7f 3f 93 23 7f 3f 96 af 81 3f b1 9a 81 3f
       0.9974306 0.99663657 1.013171 1.0125333
0000d0 0f 4d 7c 3f ef ad 7d 3f 10 68 7e 3f 01 eb 7f 3f
       0.9855508 0.99093527 0.99377537 0.9996796
0000e0 2c 12 7d 3f 4c 5f 7e 3f 99 69 7e 3f f7 32 81 3f
       0.98855853 0.9936416 0.9937988 1.0093678
0000f0 2c 1c 80 3f 22 3e 7e 3f d3 74 80 3f a3 e3 7d 3f
       1.0008597 0.9931356 1.0035652 0.9917547

node_encoder.layers.1.bias f4 [64]
000000 23 9f a4 bb 02 93 d8 bb e6 bd 7e bb 46 fa 80 3b
       -0.0050238534 -0.0066093216 -0.0038870513 0.003936085
000010 4a 10 83 bc 7c 18 0d 3c d5 ae a6 bc c7 0e 55 bb
       -0.015998978 0.008611795 -0.020347038 -0.0032510029
000020 c8 e4 9a bb d9 73 0a bc 62 2e fd 3b 38 85 26 3c
       -0.00472698 -0.008450472 0.0077264765 0.010163598
000030 3c 8e af bb 40 90 4f 3b 4d 85 aa 3a 67 67 aa 3c
       -0.005357532 0.0031671673 0.0013009697 0.02080126
000040 fa 6e d3 bb e2 8c 29 3c 98 cb 2a bc 3f 45 ff 39
       -0.0064524384 0.0103485305 -0.010424517 0.00048688982
000050 d7 cc 54 bc ed 53 4b bc 4e 46 89 bb 9e cf 85 bb
       -0.012988291 -0.012410146 -0.004189289 -0.004083588
000060 68 c0 20 bc d9 de 1c bb 53 75 96 3c 68 7b 48 bc
       -0.009811498 -0.0023936538 0.018366491 -0.012236454
000070 6c e1 14 bb c0 b5 2a bc f1 21 3d 3b bb 1e 6f 3c
       -0.002271737 -0.010419309 0.0028859342 0.014594729
000080 fd f3 dc bb 17 5f 51 bc a0 89 28 bc dd 3d 40 bc
       -0.006742953 -0.012779019 -0.010286719 -0.011733499
000090 64 eb 1a bc 53 30 de 3a c5 35 97 3b be 5f af bb
       -0.009455536 0.0016951658 0.004614564 -0.0053519895
0000a0 f8 cf da 3b 88 b8 8c bb 87 7d 5f bc 00 fa 28 3c
       0.006677624 -0.004294459 -0.013640768 0.010313511
0000b0 a4 50 36 3a 12 82 90 3b 7f 89 e1 3a 76 a2 18 bc
       0.00069547654 0.004410037 0.0017207115 -0.009316077
0000c0 7a 1c ec 3a a5 7c dc bb de 25 81 3b 54 34 a4 3c
       0.0018013858 -0.006728726 0.0039412817 0.020044483
0000d0 d7 7c c0 3a 3e 92 80 bb a7 4a 1b bc ee 8a 09 bc
       0.0014685643 -0.0039236834 -0.009478248 -0.00839494
0000e0 e9 14 a6 bb a0 12 89 bb 61 36 22 bc 2c e7 a6 3c
       -0.0050684107 -0.0041831285 -0.00990066 0.020373903
0000f0 fd 4c 24 3c d4 b2 2d 3c ea 65 11 3c 09 af cc bb
       0.010028121 0.010601718 0.008874396 -0.0062464518

node_encoder.layers.1.running_mean f4 [64]
000000 7b 15 3b 3f 99 ca 2d 3f 52 69 b1 3e ae 09 b1 3d
       0.7307965 0.67887264 0.34650666 0.086444244
000010 fe 81 d2 3e b5 eb 8b 3e fb 0c f1 bd 8b 56 e4 3d
       0.411148 0.27328268 -0.11770054 0.11149319
000020 33 f1 6d bf 82 f0 14 bf a4 21 1a 3f 78 cf 8b 3e
       -0.92946166 -0.58179486 0.6020758 0.27306724
000030 c6 dd b9 3e 6e 20 b7 be 2a dc b0 3e a5 5b a0 be
       0.36302012 -0.3576693 0.34542972 -0.3131992
000040 41 8a ed be 21 a3 26 bd 15 50 1d 3f a3 a9 76 3e
       -0.46394542 -0.040682916 0.6145032 0.24088149
000050 39 64 13 bf cb b3 a1 be cb 6b 35 be b7 39 34 3f
       -0.575748 -0.31582484 -0.17716901 0.70400566
000060 5c 4b 8b be 55 2f e3 be fd 06 ce 3e 6a 3c 8c be
       -0.27205932 -0.4437205 0.40239707 -0.27389842
000070 dc d6 dd bc aa ec 23 3c 43 6d 39 bd f7 6f 84 be
       -0.027079992 0.010005156 -0.045270216 -0.25866672
000080 db 87 de be d0 5f fe bd e8 e5 6c 3d 69 29 0b bf
       -0.43463024 -0.124206185 0.057836443 -0.5436006
000090 89 65 04 bf ed 34 17 bf 16 0c 28 bf f1 27 81 be
       -0.5171743 -0.59065133 -0.6564344 -0.25225785
0000a0 be 67 43 3d 31 e2 68 be 04 2b 9e 3d 4a 9f d0 3e
       0.047706358 -0.22742535 0.07723048 0.40746528
0000b0 fe e1 ba bd 92 88 88 bf 6e 73 8e be dd 16 26 bf
       -0.09125136 -1.0666678 -0.2782244 -0.64878637
0000c0 f0 d2 aa 3e 53 b7 0b 3e 42 c1 22 be 11 ad ba be
       0.33364058 0.13644151 -0.15894035 -0.36460164
0000d0 c9 15 ae 3e a7 22 ca bd 7a 31 e2 be 7d f7 3d 3e
       0.34000996 -0.09869891 -0.44178373 0.1855144
0000e0 7e ea c0 be e7 85 c3 3e f9 fa 20 bf 9d 98 84 be
       -0.37678903 0.38188097 -0.62882954 -0.25897685
0000f0 64 85 8c 3e 41 dd 37 3d 0e c9 0d be 14 1d 15 bf
       0.2744552 0.04488874 -0.13846228 -0.58247495

node_encoder.layers.1.running_var f4 [64]
000000 2f 44 29 3d d1 83 bb 3c 88 d5 39 3d 15 d8 09 3d
       0.04132479 0.022890003 0.045369655 0.033653338
000010 c8 b7 bf 3c 93 36 98 3c 70 fa 5e 3c c3 6f af 3c
       0.023403063 0.01858071 0.013609514 0.021415597
000020 2a 1f e6 3c 3e 29 30 3d a2 08 68 3d 06 11 89 3c
       0.028091032 0.04300808 0.056648858 0.01673175
000030 48 5b bd 3c bc b2 dc 3b 01 da 37 3d 85 11 6d 3c
       0.023114815 0.006735174 0.04488564 0.014469509
000040 c7 2f 56 3d b6 18 41 3d 07 1f 46 3c 5d 2a 13 3d
       0.052291658 0.047142707 0.012092358 0.035929073
000050 5d d3 91 3c 0d bd d7 3b 8c c6 1b 3d c7 3b 0c 3d
       0.017800981 0.006583816 0.038031146 0.034236696
000060 81 51 9b 3d 00 89 21 3d a2 84 12 3d 70 59 bd 3c
       0.07583905 0.039437294 0.03577102 0.023113936
000070 b0 08 ae 3c 28 0c f9 3c 2c 99 76 3c a8 a8 0f 3d
       0.021244377 0.030401304 0.015051167 0.035072953
000080 0a 05 e1 3c 4b d9 21 3d f4 88 89 3c 59 ae 50 3d
       0.027468223 0.039513867 0.016788937 0.05094752
000090 7e 0a 92 3d e1 df 0c 3d b6 42 8a 3c 7a ab 2b 3d
       0.071309075 0.034393195 0.016877513 0.04191158
0000a0 d4 5e 99 3b c3 d1 32 3d 15 68 45 3d 1f 75 d5 3c
       0.004680494 0.043657076 0.048194963 0.026056824
0000b0 20 d0 fa 3c 05 80 84 3d 5c 03 0a 3c f4 bd 41 3d
       0.03061682 0.0646973 0.0084236525 0.047300294
0000c0 11 56 40 3c 42 6e 8c 3d cf 81 eb 3b 59 70 56 3d
       0.01173927 0.068569675 0.0071871052 0.052353237
0000d0 61 df 82 3c a7 cc 00 3d 50 03 ef 3c 0d 2a 0d 3d
       0.015975656 0.03144517 0.029176384 0.03446393
0000e0 62 3f a0 3c 5c bc 3e 3c 71 4b 0c 3d af 76 5f 3d
       0.019561473 0.011641588 0.034251634 0.054556545
0000f0 b7 1c 3e 3c 71 51 b2 3c 98 b8 d8 3b 45 01 9b 3b
       0.011603526 0.02176735 0.006613802 0.004730376

node_encoder.layers.3.weight f4 [64, 64]
000000 7e 79 87 3d 02 41 a2 bd e5 5d 6a 3d e6 b6 4b 3d
       0.0661497 -0.079225555 0.05721845 0.049734972
000010 a3 9b b1 3d 85 97 cd bd 62 ad 97 3d 9c 2f 9a bd
       0.086722635 -0.10038666 0.07406117 -0.07528612
000020 11 8f 30 3d 9e 53 d0 3d 74 8b 64 bc 17 04 2a bc
       0.04310519 0.10172199 -0.013949264 -0.010376952
000030 6f 4a 0a bd 0d 2c f3 bd 96 de 60 3d 2d f0 03 be
       -0.03376239 -0.118736364 0.054899774 -0.12884589
000040 a2 3d ab 3d e1 b1 a0 3d 88 81 e7 3d f4 a6 2b bd
       0.08361365 0.07846428 0.11304003 -0.041907266
000050 fe b5 bc bd 56 d3 63 3c 7f 76 a0 3d 8e 98 03 be
       -0.092144 0.013905367 0.07835101 -0.12851164
000060 e0 18 a4 bc fc 63 9b bd c8 7b a3 bc af 6b 9d bd
       -0.020031393 -0.0758743 -0.019956484 -0.07686555
000070 f2 7b 5d bd 5b 6c 2c bd 22 7f 02 be 1f 3f e5 3d
       -0.05407328 -0.042095523 -0.1274381 0.1119368
000080 22 2c ec 3d bb 11 b1 bc 00 39 e5 bb f6 11 54 bd
       0.11531855 -0.0216149 -0.0069953203 -0.05177494
000090 7f d5 01 be 4c 92 03 be 08 69 2f 3d b0 55 9f bd
       -0.12679099 -0.12848777 0.042824775 -0.077800155
0000a0 e6 d0 93 bd 98 3d 4c bc dd 98 6d bd c7 9a 31 bd
       -0.072175786 -0.012465857 -0.05800711 -0.043360498
0000b0 f6 dc 33 bc 79 9e dd bc e0 2b 47 bd a0 17 97 bd
       -0.010977974 -0.027053105 -0.048625827 -0.07377553
0000c0 60 a9 de bd 0d e7 c9 3d 47 24 22 bd c5 d6 a5 3c
       -0.108721495 0.098585226 -0.039585378 0.020244012
0000d0 4f b6 41 bd 89 d6 ae 3b 24 76 02 3e 2b 68 2b 3d
       -0.047293004 0.005335633 0.1274038 0.04184739
0000e0 b6 a9 ce bd 5e 1d 24 3d 33 8a dd 3d d4 2f c2 3c
       -0.100909635 0.04006707 0.10817375 0.023704447
0000f0 73 f9 a0 3d bb d2 f3 3d 97 80 29 bc dd 71 fd 3c
       0.07860079 0.11905428 -0.0103456 0.030938083
000100 73 d1 bd bd 94 dc 8a bc 4d a9 c0 3d 98 a3 81 3d
       -0.09268465 -0.016950883 0.094072916 0.06330031
000110 93 7d 8c bd aa ab cb bd 8a 8d c7 bd 12 c6 e3 bd
       -0.06859889 -0.09944852 -0.09743793 -0.11121763
000120 cd 22 d3 bd e8 10 32 bd 78 79 be 3d e4 af f7 3c
       -0.10309372 -0.043473154 0.09300512 0.030235238
000130 9f 4d d2 bd 91 6e e7 bd 76 d9 7c 3d cf 46 bb bd
       -0.10268711 -0.11300386 0.061730824 -0.09144365
000140 b0 7d 29 bc a1 46 95 3d 3b e0 63 bd 51 59 aa bc
       -0.010344908 0.07288862 -0.055633765 -0.020794543
000150 09 aa 4a ba 15 44 35 bd 5f 6a 60 bd ac 53 df bd
       -0.00077310257 -0.04425438 -0.054788943 -0.10904631
000160 e8 59 be bd 88 a7 4e bd c6 6e ea 3d 3d e6 9a bd
       -0.09294492 -0.05045274 0.114469096 -0.07563446
000170 ea 34 9a bd d3 06 13 3d 0b 4a 31 3d 12 a3 9d 3d
       -0.07529624 0.03589518 0.043283504 0.07697119
000180 20 c6 d5 3d 62 7f 8f 3d 39 34 ea bd f4 2d 94 3c
       0.1043818 0.07006718 -0.11435742 0.018088318
000190 4e 87 b9 3d c8 ed aa bc 87 ff 99 bd 33 f0 e0 3d
       0.090590104 -0.020865336 -0.07519441 0.10983314
0001a0 c6 2b 1b bd 11 13 99 bd 99 c3 cc bd 76 e4 19 3c
       -0.037883542 -0.0747434 -0.09998245 0.009392848
0001b0 f9 eb 1a 3d 25 5b ab 3c 92 8b 09 3d 0b ff db bd
       0.037822697 0.020917485 0.03358037 -0.10742005
0001c0 b0 2f ec bd af 2a 89 bb 66 bd fb 3d 99 cf 76 3d
       -0.11532533 -0.0041859965 0.12291984 0.060256574
0001d0 40 e4 7d bd 42 e7 6f bc 0a 24 a8 bd d9 c5 47 bd
       -0.061985254 -0.0146425385 -0.08209999 -0.048772667
0001e0 d5 3b f2 3c f8 ed 75 3d b4 c8 b7 3d bd 9a f8 bd
       0.029569546 0.060041398 0.08973828 -0.12138889
0001f0 8f 36 a0 3d 89 a4 af bd a7 bc 63 3d cd e4 dd 3d
       0.07822906 -0.085763045 0.055599835 0.10834656
000200 d6 b6 08 3c db 8b e4 3d 12 2c f4 bd 0f 7b 2a bd
       0.008344373 0.11159488 -0.11922468 -0.041621264
000210 26 b9 75 3d 9b c1 c3 bc f4 0b a4 bc 02 dd 60 bd
       0.059991024 -0.02389603 -0.020025231 -0.05489827
000220 f9 13 a4 3d 55 df 85 3d 9a 33 12 3d 0f 98 9d bd
       0.08011622 0.06536738 0.035693742 -0.076950185
000230 b0 a5 cb bd af 20 a4 3c 70 3f a7 3c f2 db 5b bd
       -0.09943712 0.020035116 0.020415992 -0.053676553
000240 f1 c8 13 bd bc 52 a7 3d 96 19 cc bb 0b fa 6f 3c
       -0.036080305 0.08170077 -0.006228636 0.014647017
000250 e2 8d 07 bd 5c 17 d9 bd 03 cb f0 bd 91 0c 6d bd
       -0.033094294 -0.106001586 -0.117574714 -0.057873312
000260 2a 98 88 bd c9 98 0e 3d 27 9a df bc 12 37 2c bd
       -0.06669648 0.034813676 -0.027295185 -0.042044707
000270 c2 73 e1 3d 22 03 21 3d f0 d5 a6 3d 37 13 83 bd
       0.11008407 0.03930963 0.08146274 -0.06400149
000280 89 64 20 bd 5c ef 28 3d e5 e6 b3 bd 81 93 b6 bd
       -0.039158378 0.041243896 -0.08784274 -0.08914853
000290 69 41 0f bc 7c 5f 1d bd f8 09 c9 bd 62 6a 8c 3d
       -0.008743622 -0.03842114 -0.098163545 0.068562284
0002a0 d3 86 c3 3d 8d fb 51 3c 73 ba c7 bc 3e c0 f5 bd
       0.095472 0.012816322 -0.024380898 -0.11999558
0002b0 ad 72 1a bd 48 25 c9 3c 17 84 53 3d 87 40 16 bc
       -0.03770702 0.02455391 0.051639643 -0.009170658
0002c0 0c 53 7c bd e3 45 a2 3d 01 00 d5 bd 45 b9 b0 3d
       -0.061602637 0.07923486 -0.10400391 0.08629087
0002d0 4a 3c 7f bd 0e da c5 3b f0 ee dc bc 87 24 3d 3c
       -0.062313356 0.006037957 -0.026969403 0.011544353
0002e0 d7 90 39 bd 67 e9 cb 3d 8d 6a 8a bb 5b b1 da 3d
       -0.045304146 0.09956627 -0.0042241276 0.10678359
0002f0 3e 0c d9 3d 74 79 98 bd ea 38 ab bd 43 1d cd 3d
       0.10598038 -0.0744504 -0.08360465 0.10015347
000300 f2 af bb 3d ea ed ac bd b3 9a 75 3b 33 3a 03 be
       0.09164418 -0.08443816 0.003747624 -0.1281517
000310 13 38 be bd 86 1d d5 3c 32 db aa 3c 1b de 01 3d
       -0.09288039 0.026015054 0.020856474 0.031705957
000320 c2 98 11 bd 11 94 d2 3d b0 ae d4 3c be 60 89 bd
       -0.03554607 0.10282148 0.025962204 -0.06707905
000330 5a ea 51 bc c1 25 93 3c fe 4a 73 3d 7f 75 a9 bd
       -0.012812221 0.017962338 0.05939769 -0.08274364
000340 b5 00 4a 3d 4c 76 6d bd 33 a7 b0 bd 03 32 a2 bd
       0.04931708 -0.057974145 -0.08625641 -0.07919695
000350 58 84 02 3e 18 f0 c2 3d 81 cd f8 3d f0 a8 b1 3d
       0.12745798 0.095184505 0.12148572 0.086748004
000360 74 12 d5 3d 92 66 43 bc 5c 0b a0 bd f8 6a 51 3d
       0.1040391 -0.01192631 -0.07814667 0.051127404
000370 29 e9 6a bd 3f c1 a8 bd 3d 54 08 bd 34 b8 18 3d
       -0.057351265 -0.08239984 -0.03328346 0.037285045
000380 39 f7 97 3d c1 d5 40 bd aa 01 87 bd 5b 56 98 3c
       0.07420201 -0.04707885 -0.06592114 0.018595865
000390 f0 9a 8d bd 3c 6a bb bd 17 46 88 3d 39 9a cc bc
       -0.069143176 -0.09151122 0.066539936 -0.024975883
0003a0 b4 62 fb 3d 59 a0 f7 3d a3 13 31 3d 22 19 72 3d
       0.122746855 0.12091131 0.043231618 0.059106
0003b0 b0 e0 93 3c 4f 2d d2 b8 ba de 04 bb fa d3 28 bc
       0.018051475 -0.0001002202 -0.0020274357 -0.010304445
0003c0 d2 ac 74 3d 8c f3 dc 3d e1 0b b6 bc 34 b3 84 bd
       0.059735127 0.107886404 -0.022222461 -0.06479493
0003d0 ad 51 83 bc a2 a2 60 bd 2d 6a e6 3c 17 90 c9 3d
       -0.016030157 -0.0548426 0.0281268 0.09841936
0003e0 4d e4 e0 3d 07 98 3b 3d 23 74 cc bd c9 8f 9d bd
       0.10981045 0.04579928 -0.09983089 -0.076934405
0003f0 36 2b 8f bc 87 9d 21 bc 33 1b 83 3c 18 ab ef bd
       -0.01747666 -0.009864218 0.01600418 -0.117025554

node_encoder.layers.3.bias f4 [64]
000000 de a4 33 36 9c c4 0e 3b ad bc 86 b8 9e ee aa bc
       2.6769044e-06 0.0021784669 -6.4247615e-05 -0.020865735
000010 56 51 59 39 bb a7 1d 3c 62 97 a5 bb d8 5e 68 bc
       0.00020725033 0.00962251 -0.0050534466 -0.014182769
000020 9c 73 8a bc 4e ad 52 bb 7d 8c 02 39 5e 8c 8f 37
       -0.01690083 -0.0032146755 0.00012450102 1.7112292e-05
000030 05 50 88 36 bc 3e f8 38 fc e9 42 3c f7 c7 01 b8
       4.0624313e-06 0.00011837247 0.011896607 -3.094223e-05
000040 22 7f 12 bc 8d 2d fb 38 5d 29 1b bc 01 3b 13 3a
       -0.008941444 0.00011977097 -0.009470311 0.0005616397
000050 64 b6 2e bd f0 d6 c9 38 70 f1 d0 bc 63 d9 46 b9
       -0.04265441 9.624462e-05 -0.025505751 -0.00018963734
000060 e3 55 8d 3c 6b f1 b8 bc 3b 04 b3 bb be 06 dd bc
       0.017252868 -0.022576055 -0.005463151 -0.026980754
000070 3d 40 17 b9 e9 30 6c 39 b1 c0 9c bb 67 91 2e 3c
       -0.00014424413 0.00022524934 -0.004783713 0.010654784
000080 c5 00 f0 39 3e 89 1d bd e3 32 15 38 b8 08 71 ba
       0.0004577694 -0.038460962 3.557176e-05 -0.00091947196
000090 60 19 b8 b8 a9 43 ef 3b 95 69 d1 b6 6d 18 94 bc
       -8.77853e-05 0.007301767 -6.2409767e-06 -0.018078053
0000a0 df ad 9a 3c 13 0e 22 bd f8 ed 1d 3a 53 83 4a b9
       0.018881736 -0.039564203 0.0006024535 -0.00019313143
0000b0 5e 2b 15 3d 2a ab 3a 3d 35 d9 26 b9 b0 a2 21 ba
       0.03641831 0.04557339 -0.0001591191 -0.0006165905
0000c0 15 c1 12 bd ef ca 6e b9 7e 02 10 3a c4 a1 aa b9
       -0.03582867 -0.00022773047 0.00054935354 -0.00032545452
0000d0 19 37 71 bc 1b 9a 84 39 24 f0 9d 3b 89 79 d4 3c
       -0.014722609 0.0002529182 0.0048198868 0.025936859
0000e0 a4 cf 49 b8 47 d6 21 3d 08 65 2f bd 2c 35 a7 39
       -4.8115515e-05 0.03951099 -0.04282096 0.00031892338
0000f0 bc 6d 98 b9 5e f7 04 b8 16 82 22 3b e6 9e 7c bc
       -0.00029073458 -3.170163e-05 0.0024796776 -0.015418744

node_encoder.layers.4.weight f4 [64]
000000 93 55 80 3f f9 50 82 3f 32 af 7f 3f dd 06 81 3f
       1.0026115 1.0180961 0.998767 1.008022
000010 65 23 7f 3f 9f 73 7d 3f 68 83 7f 3f 3b 67 80 3f
       0.9966338 0.9900455 0.99809885 1.0031503
000020 8e 60 7e 3f 2b dc 7e 3f f9 0d 7e 3f db 0e 80 3f
       0.9936608 0.995547 0.9924007 1.0004534
000030 6b c7 7f 3f 87 97 7e 3f 1c 94 81 3f 9a 29 7d 3f
       0.9991366 0.9944996 1.0123324 0.98891604
000040 c2 2f 7b 3f c2 c8 80 3f 0c d6 7c 3f 76 ec 7e 3f
       0.9811975 1.0061266 0.9876411 0.9957956
000050 12 93 81 3f f5 98 7f 3f 88 46 7f 3f 92 04 81 3f
       1.0123007 0.9984277 0.99717 1.007952
000060 b1 83 81 3f 26 3f 80 3f 47 b7 80 3f 25 90 80 3f
       1.0118314 1.0019271 1.0055932 1.004399
000070 ff 79 80 3f 64 6f 7d 3f b4 cb 7f 3f dd 77 7a 3f
       1.003723 0.98998094 0.999202 0.97839147
000080 60 03 81 3f 0d a4 7e 3f 34 88 80 3f 6a cf 80 3f
       1.0079155 0.9946907 1.0041566 1.0063298
000090 d8 64 80 3f d9 db 7f 3f 76 20 7f 3f a5 1d 81 3f
       1.0030775 0.99944836 0.99658906 1.0087172
0000a0 50 65 7f 3f 89 4c 80 3f 3f 48 7f 3f cd f1 7d 3f
       0.99763966 1.0023357 0.99719614 0.99197084
0000b0 e6 b9 7c 3f 4f 23 81 3f 21 de 80 3f f3 0b 7e 3f
       0.9872116 1.00889 1.0067788 0.99236983
0000c0 e7 d2 7f 3f d5 1e 7d 3f ca 49 7f 3f 34 43 7d 3f
       0.99931186 0.9887517 0.9972197 0.9893067
0000d0 9c 6c 7d 3f bf 5d 7f 3f 49 6d 7d 3f c0 a0 80 3f
       0.9899385 0.9975242 0.9899488 1.0049057
0000e0 3b 82 7f 3f a7 06 82 3f 68 60 80 3f a0 2f 7f 3f
       0.9980809 1.015828 1.0029421 0.99682045
0000f0 68 a9 81 3f 24 a8 7f 3f 74 bc 7f 3f 17 cd 7d 3f
       1.0129824 0.9986594 0.9989693 0.9914107

node_encoder.layers.4.bias f4 [64]
000000 2d 81 7a 3c aa 1a e7 3b 11 0d db ba 3a 2f 4e bb
       0.015289587 0.007052739 -0.0016712268 -0.0031461255
000010 d1 ae 4d bc 60 34 7f bc 44 e5 ef ba 09 8b 10 bc
       -0.0125538865 -0.015576452 -0.0018302579 -0.008822211
000020 a0 01 03 3c f1 88 dc b9 0c 83 8d bc e2 22 7b 3b
       0.007995993 -0.000420637 -0.017274402 0.0038320352
000030 53 ff ce 3b 4d af 04 bc 53 13 13 bc a9 39 54 bc
       0.006317058 -0.008098436 -0.008976775 -0.0129532
000040 78 ff a8 bb 16 37 16 3b 17 42 be 3a b8 f1 81 3b
       -0.0051574074 0.0022921017 0.0014515546 0.0039655827
000050 4b 6f c5 bb e4 22 cb 3b 6b d6 da 3a e7 f1 48 ba
       -0.00602523 0.0061992276 0.0016695982 -0.0007665441
000060 18 24 76 3b a4 f6 5f 3b 2c 89 7c ba ac f6 0e 3c
       0.0037558135 0.003417411 -0.00096334773 0.008725803
000070 bb 97 40 bb b4 96 84 bc 65 02 59 3b f0 13 8b bc
       -0.0029387313 -0.016185142 0.0033113 -0.01697728
000080 4f cb 43 3b 1e f8 93 ba 29 37 f4 bb ea cb 4e 3c
       0.002987582 -0.0011289155 -0.0074528647 0.012621859
000090 74 93 e9 ba 6a c8 a1 bc 50 c5 76 3c 60 be 89 3c
       -0.0017820434 -0.019748885 0.015061691 0.01681441
0000a0 68 9e 52 bc 69 be 18 bc 0b 13 a7 ba e3 b4 a0 bb
       -0.01285515 -0.009322741 -0.0012746764 -0.004904376
0000b0 12 32 f8 bb b3 fe 23 3c 42 c9 2c 3c aa 2c 90 ba
       -0.007574328 0.0100094555 0.0105460305 -0.0010999639
0000c0 c9 8b 5e 3b 83 8a 0b bc 3e bd 7e 3b 66 56 4b bc
       0.003395783 -0.0085169105 0.0038870121 -0.012410736
0000d0 de 79 3a bc a3 e8 8d 3b c6 03 0a bc cc e3 df 3a
       -0.011381594 0.004330711 -0.008423751 0.0017081439
0000e0 98 fc 4d 3c d1 26 86 3c 71 df 87 bb e2 e8 01 bc
       0.01257243 0.016375931 -0.0041465093 -0.007929059
0000f0 e8 55 4b 3c d9 56 92 bb ac 12 ba 3b bc 5e 76 3b
       0.012410618 -0.0044659195 0.0056784954 0.0037593087

node_encoder.layers.4.running_mean f4 [64]
000000 83 ed 42 be bd a5 a2 be 9e ec 2d be 8a d6 99 3d
       -0.19035916 -0.31767073 -0.16984794 0.07511623
000010 1f a7 68 3d 83 f2 a3 be 10 c2 2d 3e a0 f7 66 3d
       0.056800004 -0.3202096 0.1696856 0.056388497
000020 18 de 1a 3c 53 1e 7a 3e a5 af 10 be 6a 7f 25 bd
       0.009452365 0.2442563 -0.14129503 -0.040404715
000030 a0 88 41 3d 0e b7 a3 bd 32 1e a9 3e 67 01 22 3e
       0.047249436 -0.07993899 0.3303085 0.15820847
000040 42 70 07 3e 01 c6 20 be 3c 0b 2c be bd 28 99 3e
       0.13226417 -0.15700532 -0.1680116 0.29913893
000050 77 20 65 3c b5 c6 5a be 3b 52 0f 3e 6d 92 4a 3e
       0.013984791 -0.21364863 0.13996212 0.1978242
000060 a5 10 b4 3d 99 8b 96 bd 3e 01 a0 3c 3e 3a f8 be
       0.08792237 -0.07350845 0.019531842 -0.48481935
000070 45 27 29 3e fd d2 ff 3e be f6 66 be eb 69 d2 be
       0.16518886 0.4996566 -0.22555062 -0.41096434
000080 ef 01 7b bc f0 fd 08 bf 2b b1 77 3e 0c 92 82 3e
       -0.015320285 -0.5351248 0.24188678 0.2550205
000090 d1 d5 b1 3e c7 dc ad be 14 20 08 3f 71 14 2c be
       0.3473344 -0.33957502 0.5317395 -0.16804673
0000a0 51 56 70 3e 7a a8 e7 bd ca 4f 83 bd 46 5d b2 3d
       0.23470427 -0.11311431 -0.06411703 0.08709197
0000b0 92 b0 03 bd c1 6c ac 3d 0d 5e 07 3e a3 a1 e1 be
       -0.032150812 0.08419181 0.13219471 -0.44068632
0000c0 ad 19 00 be 90 de 1b be ae f4 40 be 28 ce b2 be
       -0.12509795 -0.1522162 -0.18843338 -0.3492291
0000d0 ec d5 dd bc 6c dd 72 be 7e 00 99 bc 33 3a 49 3e
       -0.027079545 -0.23717278 -0.018676993 0.19651107
0000e0 03 73 9b be d8 0d 95 3e be 95 30 3d e1 d8 4f 3e
       -0.30361184 0.29112124 0.043111555 0.20297576
0000f0 19 dd b7 bb 0f 57 2c 3e 6d 06 28 3e ed da 2e 3b
       -0.0056110737 0.16830085 0.16408701 0.0026680783

node_encoder.layers.4.running_var f4 [64]
000000 f1 39 ee 3d 2f 36 d5 3d 2f 24 be 3d 59 53 b7 3d
       0.11632145 0.10410725 0.09284245 0.08951444
000010 7e 60 ca 3d cf ce 6a 3d 8b 10 89 3e 78 68 40 3e
       0.09881686 0.057326134 0.26770434 0.18789852
000020 ae 27 7d 3e 6a ad ab 3d 04 e7 4f 3d ac 46 bf 3d
       0.24722168 0.083826855 0.050757423 0.093396515
000030 71 c5 0c 3e bc 99 4b 3e 5e 97 28 3d 3d 1b 8a 3d
       0.13747193 0.19882864 0.04115998 0.067434765
000040 37 8a 0d 3e 71 8d 91 3d 8d 28 83 3d f7 e3 62 3d
       0.13822256 0.07107056 0.06404219 0.055393185
000050 04 8b 9f 3d c7 fc 91 3e 72 c7 54 3e a3 72 04 3d
       0.07790187 0.28513166 0.20779207 0.03233589
000060 48 2e 15 3e 69 df 23 3e b8 82 33 3e 04 0a 2d 3d
       0.14568436 0.16003193 0.17530334 0.04224588
000070 26 6c 1a 3d 51 fc f0 3d 44 b6 90 3d 8a fb 67 3e
       0.037700795 0.117668755 0.070660144 0.22654548
000080 4e bc ee 3c ba 05 bb 3d 2e ad 7c 3d b9 00 16 3e
       0.029142525 0.09131952 0.061688595 0.14648713
000090 49 dc e0 3d 9c 71 89 3e 72 57 01 3e c8 22 84 3d
       0.10979516 0.2684449 0.12631014 0.064519465
0000a0 34 8c 13 3e 71 ea 00 3e ff 87 0b 3e d2 ec 53 3e
       0.14408952 0.12589432 0.13626097 0.20695809
0000b0 b0 06 ef 3d 0d 83 f6 3d 02 09 e2 3d 3f 94 3f 3e
       0.116711974 0.12036715 0.11036874 0.18708895
0000c0 e6 3e d6 3d 06 1a bb 3d cd c8 b7 3d dd c5 01 3e
       0.10461216 0.09135823 0.089738466 0.12673135
0000d0 9c ea 3f 3e e3 37 b2 3d cb 9c 38 3e 82 24 10 3e
       0.1874184 0.08702066 0.18028562 0.14076427
0000e0 1e 26 83 3e f1 d9 64 3d 07 93 12 3e 53 f1 0a 3e
       0.2561502 0.055871908 0.14313899 0.1356862
0000f0 d0 f2 af 3d 84 42 49 3e 30 1e f4 3d 7c f5 41 3e
       0.08591235 0.1965428 0.1191982 0.18941301

node_encoder.layers.6.weight f4 [32, 64]
000000 4e c4 ac 3d 8c 9a e0 bd 5d 84 a6 bd 0b f9 84 bc
       0.0843588 -0.109669775 -0.08130715 -0.016232034
000010 a4 19 f3 bd a1 47 e7 bd 3c 1c db bd 05 bb cf 3d
       -0.11870125 -0.11292959 -0.10698745 0.10143093
000020 d6 d5 c1 3c ef 3f 33 bd 4d 38 e1 3a 9e 6e e9 bd
       0.023661535 -0.043762144 0.0017182917 -0.11398052
000030 34 19 f5 bd 39 7c c5 bd b9 23 fe bd 4d 74 a1 3d
       -0.11967698 -0.09642834 -0.12409157 0.07883511
000040 a0 eb 2d bd a4 9a 0d bd 53 8d ff bd 89 9a 0b 3b
       -0.042461038 -0.034571305 -0.12478127 0.0021301827
000050 21 0d 86 bc ce 03 b3 bd 2b 6a a0 3d 31 84 d4 3d
       -0.016363682 -0.0874096 0.0783275 0.10376776
000060 c6 a9 c2 bd b8 1b 97 3d cc 97 83 bc 29 1b 60 3c
       -0.09505038 0.07378334 -0.016063593 0.0136783505
000070 b6 d6 62 3d e9 89 fc bc ad 8c e7 3d ef 89 94 3d
       0.055380546 -0.03082748 0.11306129 0.07252871
000080 cf b7 95 bd 9b bb 9a bd b1 cb 04 be c1 6a 02 3d
       -0.07310449 -0.07555314 -0.12968327 0.03184009
000090 7b 32 cb bd 63 01 c5 bd ba 66 aa bd 9a c8 05 be
       -0.09921738 -0.09619405 -0.08320375 -0.13064805
0000a0 df 64 da bd b1 8a d1 3d 86 40 aa 3d 39 ff d7 3d
       -0.10663771 0.102315314 0.08313088 0.10546727
0000b0 da 2a 74 bd 56 3c 4c bd c4 99 72 bd 8f 5f 0b bc
       -0.05961118 -0.04986223 -0.059228674 -0.00850667
0000c0 ca 02 b1 bd a6 b3 55 3c fd 93 93 bd b1 dc f7 3c
       -0.0864311 0.01304332 -0.07205961 0.030256601
0000d0 f0 c7 e1 3d d8 4c a9 3c ab a6 a1 3d 3e f5 bd bd
       0.11024463 0.020666525 0.078931175 -0.09275292
0000e0 02 7a cf bc a2 46 ac bd a5 2a de bc 71 74 51 bd
       -0.025326733 -0.0841191 -0.027119944 -0.051136438
0000f0 6a 0f a1 bd b1 02 f9 bd 9c 08 3a bd b3 e0 a3 3c
       -0.07864268 -0.121587165 -0.045418367 0.020004606
000100 e1 09 a0 bc 84 26 fb bd b5 b0 b5 3d a4 b6 ab 3d
       -0.01953596 -0.12263206 0.08871595 0.08384445
000110 4f 55 9c bd a5 58 a2 3c ae 2a b4 3d f3 a4 fb bd
       -0.07633459 0.01981766 0.08797203 -0.12287321
000120 da d0 da bd 06 a5 82 3d cd 30 2e 3b 86 5a 4e 3d
       -0.106843665 0.06379132 0.002657938 0.0503793
000130 6e 4c 5b bd 05 33 8e 3c 16 93 a1 3d 1b 61 ee bc
       -0.053539686 0.017358312 0.078893825 -0.029099038
000140 e0 dc 16 bd 31 71 00 be f4 fb b8 bc f4 a7 9d 3d
       -0.036831737 -0.12543179 -0.022581078 0.0769805
000150 53 40 00 be bf db 09 bc d6 96 b1 3d d0 dc 03 bd
       -0.12524538 -0.008414208 0.08671348 -0.032193005
000160 1b 1b 52 bd ea 95 34 bd 2a ef 5a bd b1 e0 bc 3c
       -0.05129538 -0.04408828 -0.05345074 0.02305636
000170 c5 8f 06 be 2d 5e 10 3d 9a 2b da bc 68 1d 8b bc
       -0.13140781 0.035246063 -0.026632119 -0.016981795
000180 be 6c ff bb 32 1c a3 3d 81 c0 a5 bd 4b 11 f7 bd
       -0.0077949455 0.07964362 -0.08093358 -0.12063845
000190 b2 d6 c2 bd 80 b6 aa bd d4 f1 88 bd 1d 9a d4 3d
       -0.09513606 -0.0833559 -0.0668675 0.10380957
0001a0 59 22 bb bd 28 3b 8e bd 56 e6 ce bd cd f0 76 bd
       -0.09137411 -0.06944877 -0.10102527 -0.06028824
0001b0 18 4f ab bb 0f 16 a4 bd f3 ff 37 bc b0 87 39 3d
       -0.0052279346 -0.0801202 -0.011230457 0.045295417
0001c0 be e6 b8 bc 14 f4 62 3d 96 99 02 3d 09 fd f9 3d
       -0.022570964 0.055408552 0.031884752 0.12206466
0001d0 84 31 57 bc 51 81 d7 3d 19 34 bd 3d 27 84 4c 3d
       -0.013134364 0.10522712 0.092384525 0.049930718
0001e0 50 53 96 3d 7b 7b b4 bd 02 37 ac bd 18 bb 61 3d
       0.07340109 -0.088126145 -0.084089294 0.055110067
0001f0 b2 fa 24 3d 15 fd d0 3d bb cd bc bc 05 c9 f6 bc
       0.040278144 0.102045216 -0.023047319 -0.03012515
000200 0f ca 9f 3d e9 88 de 3b cb fb f7 3d d6 06 80 bd
       0.078022115 0.0067912233 0.121085726 -0.06251304
000210 3c 46 0d bd 5a 3b a3 bb f1 5c 72 3d 9e 8c d8 bd
       -0.03449081 -0.0049814405 0.059170667 -0.105736956
000220 97 54 2f bd 3f bf c0 3d 98 54 f9 3c 3f 5f aa 3d
       -0.04280528 0.09411477 0.030435845 0.08318948
000230 d7 ac 24 bd 95 a7 98 bd 5a e3 cc bd 96 8b 88 bd
       -0.040203895 -0.07453839 -0.10004301 -0.06667249
000240 6e 9f a3 bd fc 25 8f 3d 2c 2c 37 3d 23 0d 9b bd
       -0.07989393 0.06989667 0.04471986 -0.07570865
000250 2b c8 f4 3d 36 89 09 3d a3 3f 25 3d 8a 41 76 bd
       0.119522415 0.03357812 0.04034389 -0.060121097
000260 ff a2 a1 3d bd 95 b6 bd 1f 4f be 3d 06 dc 85 bd
       0.07892417 -0.08915279 0.09292435 -0.06536107
000270 7e b5 48 3d ee 11 56 bd 8c 43 a2 3d 2d 48 d9 bd
       0.04900121 -0.052263193 0.0792304 -0.106094696
000280 ee 7a 31 bc fa 54 2f bd 28 d2 a9 bd 9a 79 64 bd
       -0.010832531 -0.04280565 -0.08292037 -0.05578003
000290 6b a1 38 bd 82 be 70 3b a3 24 b5 3d 6a 68 be bc
       -0.045075815 0.0036734645 0.088448785 -0.023243148
0002a0 5d 86 ee 3d 00 e0 6d bd af fa 6e bd 41 b6 bb bb
       0.116467215 -0.05807495 -0.05834454 -0.0057285135
0002b0 03 d5 9a bc f0 63 47 3d ab 48 e5 3d c3 3e 14 3d
       -0.0189004 0.048679292 0.11195501 0.036192667
0002c0 c1 23 de bd cb 16 3e bd 5b 18 a5 bc 7f af c4 bd
       -0.10846663 -0.046408456 -0.020153215 -0.09603786
0002d0 32 a5 06 3d 95 20 d7 3d 43 39 6d 3d 9b 26 81 bc
       0.032872386 0.105042614 0.057915937 -0.015765479
0002e0 ff da 83 bc 1c bc 81 bd 19 75 89 bc a3 8e e9 3d
       -0.016095636 -0.06334707 -0.01677947 0.11404159
0002f0 dc 16 98 bd 96 e5 68 3c 56 8a af bd d6 dd ea bc
       -0.07426235 0.014214894 -0.08571307 -0.028670233
000300 d5 47 28 3c 5a 29 de bd e3 01 1e 3d a7 7c f0 bd
       0.010271032 -0.10847731 0.038576018 -0.117425255
000310 76 43 3b bd 6d ae c1 3d 6e d4 01 3e 13 fe 8c bb
       -0.045718633 0.09457097 0.12678692 -0.004302749
000320 1a ed bd bd 7b 36 c5 bd 54 fc 0d bd c9 76 8f bd
       -0.09273739 -0.09629532 -0.034664467 -0.07005078
000330 a8 6f c5 3d 28 59 ac bd 00 29 8a 3d c5 66 9f 3c
       0.09640437 -0.08415443 0.067461014 0.019458184
000340 20 7f 2e bd bf 64 cf 3d 79 4b 67 3d 00 1d 40 3a
       -0.042601705 0.10126638 0.05646846 0.000732854
000350 42 b5 a2 bd bf 69 3f bd 31 24 33 3d 34 d1 ce 3d
       -0.079447284 -0.046731707 0.043735687 0.10098496
000360 1d 3e 5e bd 8b 53 29 bd ef de f9 bd a5 d3 8c 3d
       -0.054258455 -0.04133944 -0.12200724 0.068763055
000370 2b 9a f8 3d 90 d4 9f 3d fe 85 a3 bd f0 1a 9d 3d
       0.1213878 0.07804215 -0.07984541 0.076711535
000380 5a ba 2e bd 7d 67 99 3d 50 68 7d 3d 31 a5 cc bd
       -0.042658187 0.07490442 0.06186706 -0.09992445
000390 2b f4 a0 3c 7f de 70 3d 3f 4b 92 bd ef 37 dc 3d
       0.019647678 0.05880594 -0.07143258 0.10752856
0003a0 2b ae b9 3d c7 b6 ec 3d 00 82 30 3c e3 51 7b bd
       0.09066423 0.115582995 0.010773182 -0.06135739
0003b0 2f c1 86 bd 0f 90 4a 3d 22 98 99 bc dd 52 c7 3d
       -0.065798156 0.04945379 -0.0187493 0.09732602
0003c0 4b 61 cf 3d c0 6a 3d 3c 4b 5c de bd 5d 3a 42 3d
       0.10125979 0.011561096 -0.10857447 0.04741894
0003d0 0d ea cc 3d 85 33 19 bd 70 40 93 bd 42 41 2a bd
       0.10005579 -0.03740265 -0.07190025 -0.04156614
0003e0 9f fd 51 3c d5 3c d7 bd e7 8c 74 3d a7 14 78 3d
       0.012816816 -0.1050965 0.059704687 0.06056657
0003f0 97 60 46 bd eb 21 6b bd 0c 61 92 bd 56 3a d4 3d
       -0.04843196 -0.057405394 -0.071474165 0.10362689

node_encoder.layers.6.bias f4 [32]
000000 f6 3c 43 3c 06 12 1c 3b d1 25 f4 3b 02 65 87 b9
       0.01191639 0.0023814454 0.007450797 -0.00025824463
000010 bc 11 de bc 2b 37 0f 36 08 3b 21 3d b1 2f 0d 3d
       -0.027108066 2.1340772e-06 0.039362937 0.03446931
000020 8a ab 1b bc 3d 7a 8f 3c a8 df d0 3a d6 6d 15 b9
       -0.009501347 0.017514342 0.0015935795 -0.00014250664
000030 96 32 d8 3b 61 21 0a b8 89 e5 ce b8 e1 09 71 bc
       0.006597827 -3.293285e-05 -9.8656e-05 -0.014711828
000040 19 b0 e6 38 cc 5e 3e 3d 0a 24 42 3c 89 ad eb bc
       0.000110000554 0.046477124 0.011849413 -0.028769271
000050 10 0e 2f 38 8b b3 58 3c 3c ef 5b ba b8 f6 fd 38
       4.1736348e-05 0.0132264 -0.0008389836 0.00012109935
000060 67 d2 7b 3b 73 f7 02 3d bc 25 1f 3d 59 a2 a8 bc
       0.003842497 0.031974267 0.038854346 -0.020585226
000070 7d 50 2e bd 67 15 9d 3c c3 4e 27 b8 d6 42 1d 3d
       -0.04255723 0.019175244 -3.9889255e-05 0.038393818

edge_encoder.layers.0.weight f4 [64, 4]
000000 4c 5b b2 3e ae ae 5d be 38 11 10 3e 1d 9e 18 3e
       0.3483528 -0.21648666 0.14069068 0.14904065
000010 d4 91 32 be 08 a5 e3 3e 7e 4e 4d 3d ed c4 08 be
       -0.17438442 0.44461846 0.050123684 -0.13356371
000020 67 92 ec be cb e6 c6 3e 09 a4 f6 be 0d 71 c2 3e
       -0.46205446 0.38847956 -0.48172024 0.37976876
000030 ae 86 1e be 52 12 a5 bd b4 5d b2 3d a0 1f f1 3e
       -0.15481064 -0.08060135 0.08709279 0.4709444
000040 b9 c2 9f be e4 9b af be f6 52 a0 3e ba 8f 55 be
       -0.3120325 -0.34298623 0.31313294 -0.20855609
000050 92 e6 47 be f9 71 8c 3e d6 0a 59 be f2 30 98 3e
       -0.1952155 0.27430704 -0.2119554 0.29724842
000060 da b2 4f be ee 7d c4 3e 46 57 f8 3e 34 8e 4d 3d
       -0.2028307 0.38377327 0.48504084 0.050184444
000070 88 50 18 be 85 3b 8b 3e 02 21 1c 3e b6 df 64 3b
       -0.1487447 0.27193847 0.15246966 0.0034923381
000080 e0 a6 dc 3e 05 79 b6 bc 79 c8 3d 3e 2c ad fd bd
       0.43096066 -0.022274503 0.18533505 -0.123865455
000090 fb f3 9f bd 07 e9 fd bc 3f 44 3e 3d b0 f6 5b 3e
       -0.078102075 -0.030994905 0.046451803 0.21480823
0000a0 ab d6 be 3e 9f 9e 97 3e 1b 10 5c be a2 17 cd 3e
       0.37273154 0.29613206 -0.21490519 0.40057093
0000b0 7f 5d aa 3e be fb 3e 3e e9 38 63 3d c1 e5 84 be
       0.33274457 0.1865072 0.055474196 -0.25956538
0000c0 e5 c0 a2 be 23 14 c6 3c cb 41 af be 31 88 2a 3e
       -0.31787792 0.024179524 -0.34229884 0.16653515
0000d0 be 0f d8 be ab e2 de be c5 cf 72 be 2e 04 8a 3e
       -0.4219951 -0.4353231 -0.2371207 0.26956314
0000e0 30 84 ce 3e fe c6 cf be 78 aa 9c be b7 cf c0 3d
       0.40335226 -0.40581506 -0.30598807 0.094146185
0000f0 98 b2 ad bd c6 c2 cc be 6c fe 13 3e 6c 43 c4 be
       -0.0848133 -0.3999235 0.14452523 -0.3833269
000100 b3 24 ad 3c 6a df 4a 3e 52 61 e2 3e d0 a3 c8 be
       0.021135664 0.19811788 0.44214875 -0.3918748
000110 21 0e bc 3e ef d4 83 3d 6c 32 db 3e ff 2c d9 3e
       0.3672953 0.06437098 0.42811906 0.42417142
000120 13 1e e8 bd 9b c6 8d bd bc 7e 0a be b4 d5 c7 3e
       -0.11333861 -0.069226466 -0.13524908 0.3903023
000130 7f 1c 52 be e8 1f ae 3e 5f cc 51 3e 47 57 dc 3e
       -0.20518683 0.34008718 0.20488118 0.43035337
000140 cd 91 b0 3e 27 e6 cb 3e 30 f7 ce be 6d b7 73 be
       0.34486237 0.3982403 -0.40422964 -0.2380044
000150 fd 5b af be 59 bb 82 3e 14 76 e9 3d 4b 30 37 3e
       -0.3424987 0.2553356 0.11399475 0.17889516
000160 c6 3d 4b 3e 36 65 03 3d 84 c0 35 3e de ca 8b be
       0.19847783 0.032078944 0.1774922 -0.27303213
000170 33 af a2 3e 7f 50 d9 be df a6 e8 be b7 79 27 3e
       0.3177429 -0.42444226 -0.45439813 0.16355024
000180 c9 6b eb 3e 77 33 36 be 98 ab f0 3e 95 f2 2b be
       0.4598067 -0.1779307 0.47005916 -0.16791756
000190 b1 64 ba be 69 92 bc bd b3 0c 92 3e 59 5f 68 be
       -0.36404946 -0.09207613 0.28525314 -0.22692622
0001a0 f4 cd eb 3e e8 4c 72 be 38 a2 62 be b4 9c 41 be
       0.46055567 -0.2366215 -0.22132194 -0.18907434
0001b0 d8 18 c2 be df 53 e6 3e b4 f3 91 be 1a 82 6b be
       -0.3790958 0.44985864 -0.28506243 -0.22998849
0001c0 87 9d 0c be be 44 d1 3e d3 77 7c 3e 3b 58 46 3e
       -0.13731967 0.4087276 0.24655084 0.19369595
0001d0 fb bb 0b be 4e 4b 75 3e 39 8f b8 3d a5 d2 cc 3e
       -0.13645928 0.23954508 0.090116926 0.4000446
0001e0 9d fb ed 3d 20 c5 bb 3e 07 a5 ad 3e 53 4f 9a 3d
       0.11620257 0.36673832 0.33914968 0.07534661
0001f0 0c 97 f0 be 58 d8 e9 3d bd c2 ba be 9a ff 79 3d
       -0.4699024 0.114182174 -0.364767 0.061034776
000200 f1 57 32 bd e3 c0 bb 3e b7 fd c3 be dc ff bd be
       -0.0435409 0.36670598 -0.38279507 -0.37109268
000210 ec 48 56 3e 9a 3b ae 3e 45 c2 e4 bd 57 a0 05 3e
       0.20926255 0.34029847 -0.111698665 0.13049446
000220 eb ee c9 3e 8f 1e 2a 3d a8 98 11 be f7 bf 95 3e
       0.39440092 0.04153305 -0.1421839 0.2924802
000230 0b 48 e6 3e 36 7e b3 bd 29 6a aa 3e 18 e4 81 3c
       0.4497684 -0.08764307 0.3328412 0.015855834
000240 ce 43 ae bd 25 60 49 bd f4 b3 ef be 1f 76 5a 3e
       -0.085090265 -0.049163956 -0.4681698 0.21334122
000250 b2 da 84 be c5 3e dd be a9 35 8e bd 78 a4 2e be
       -0.259481 -0.43211952 -0.069438286 -0.17054927
000260 1d 32 9b be 0d 57 f7 bd 15 19 53 bd a2 8f 06 3e
       -0.3031167 -0.120771505 -0.051537592 0.13140729
000270 4c a8 93 3d 87 7f 8e bd c0 f3 eb 3d 5d f8 94 be
       0.072098345 -0.06957918 0.11521101 -0.29095736
000280 40 96 db 3e 22 3e 6a 3e 8b 06 9f 3e 30 6e cf be
       0.4288807 0.22875264 0.3105968 -0.40513754
000290 7d 79 a8 3e b6 ff d5 3d e5 54 f4 be e8 b3 d0 3e
       0.32905188 0.104491636 -0.4772102 0.40762258
0002a0 f0 17 17 bc 23 f6 a3 3d 2c f9 bf 3e 4a c3 a2 3e
       -0.009222016 0.08005931 0.3749479 0.3178962
0002b0 d4 d9 e0 3e 2f 47 e9 be a9 10 fa 3e ea 21 cc 3d
       0.4391619 -0.4556212 0.48840836 0.09967406
0002c0 59 4d 6b 3c f2 54 ce be 80 9e 83 be c0 52 e4 3e
       0.014361703 -0.40299183 -0.25706863 0.44594383
0002d0 49 7d c3 3e ec a3 c1 3e 8d 8e 11 bd 3a 8d 85 be
       0.38181522 0.37820375 -0.035536338 -0.2608431
0002e0 ee 80 ea 3d 50 8d 6a be 44 01 a9 be 36 14 19 3e
       0.11450373 -0.22905469 -0.33008778 0.14949116
0002f0 f5 c0 c1 3e e6 6c c5 be bc 06 e4 be fc d8 a6 3d
       0.37842527 -0.38559645 -0.44536388 0.08146855
000300 ab a9 46 be bf 85 84 be b9 e2 c8 bd ca 01 1c bd
       -0.1940066 -0.2588329 -0.09808869 -0.038087644
000310 6f 3b 14 be a8 25 b9 3e 14 d0 8e 3e 09 c3 07 3e
       -0.14475797 0.36161542 0.27893126 0.13257994
000320 e0 86 2e be a2 70 3b bd 9b 61 9a 3e c5 74 03 3d
       -0.17043638 -0.045761712 0.30152592 0.032093782
000330 70 75 f9 be 7a 2c 53 3d 4e 3d 80 3e 6e b4 e3 bd
       -0.4872241 0.051556088 0.25046772 -0.111183986
000340 9c f6 c0 bd c6 13 94 bd b9 98 98 3e 0f a3 b7 3e
       -0.09422037 -0.07230334 0.29804018 0.3586659
000350 4a 40 c5 be 39 81 a6 3e e8 b0 56 3e c5 7c 26 3e
       -0.3852561 0.32520464 0.20965922 0.16258533
000360 11 35 95 be 06 d4 88 be 48 6f f8 3e 2e 66 cd 3d
       -0.2914205 -0.2672426 0.485224 0.10029255
000370 c8 d4 de bd e7 56 c6 bd 4c 1d ab 3e 32 f1 d3 bd
       -0.108804286 -0.09684544 0.3342079 -0.10348739
000380 09 21 af 3e 19 57 04 be 47 3c eb 3d ca 08 db 3d
       0.3420489 -0.1292385 0.11486106 0.10695036
000390 69 a8 88 be cc a3 33 3b 51 17 b6 3d a1 12 ed be
       -0.26690987 0.0027410863 0.08891166 -0.46303275
0003a0 3c f9 bb bd 87 15 2d 3d bb 15 cf 3e 5d 84 d8 3d
       -0.09178397 0.04225686 0.40446267 0.10572121
0003b0 07 5c d9 be ec 7a 24 be 3a 60 f8 3e a2 9c 6f bd
       -0.42453024 -0.16062516 0.48510915 -0.058498986
0003c0 69 49 bb 3e b1 c6 38 3d 93 ce ab 3e 3b df 49 be
       0.36579445 0.045111362 0.3355604 -0.19714062
0003d0 92 e5 f5 3e ff 70 de 3d c1 b4 e0 bd 2e 33 b7 3e
       0.4802671 0.10861396 -0.10971976 0.35781235
0003e0 39 d4 6e 3e d2 cb b0 be fd 34 13 bd cb 68 b0 3e
       0.23323144 -0.34530503 -0.035939205 0.3445495
0003f0 80 88 fc 3d b3 b1 17 be 3d 4d ab be 5f e1 a1 be
       0.12330723 -0.1481388 -0.33457366 -0.31617257

edge_encoder.layers.0.bias f4 [64]
000000 b5 24 46 3e 71 a9 12 3e 63 7e b6 be 6a 3d f6 bc
       0.1934994 0.1432245 -0.356433 -0.030058581
000010 d0 40 4d 3d b1 25 b6 be ef 50 b0 3e b4 f4 4f ba
       0.05011064 -0.3557563 0.34436747 -0.0007932887
000020 02 c6 f7 bd d8 c7 bb 3a 51 05 cc 3d e8 46 17 3d
       -0.12098314 0.0014326526 0.099619515 0.036932856
000030 5f 4c c6 3e 16 af 49 3e 79 6d 25 39 14 75 8a 3c
       0.38730142 0.19695696 0.00015776408 0.01690153
000040 76 1e 3a 3d 65 60 ee bd c2 11 af be ff fb 46 ba
       0.045439206 -0.116394795 -0.34193236 -0.0007590651
000050 1e 0d df bd 66 5b c5 be 76 8a c7 3d 79 6f 02 be
       -0.10891174 -0.38546294 0.09743206 -0.12737836
000060 2c 9b c8 3e 53 84 c8 3d 7c 86 05 3e a5 b0 89 3d
       0.39180887 0.09790864 0.13039583 0.067231454
000070 c2 e9 e7 3d 25 8c 70 3e ee 16 90 3e 6e b1 80 b9
       0.11323883 0.23490961 0.28142494 -0.00024546258
000080 2e 4b 82 bd 18 86 6d 3d d7 05 12 be 86 6a 85 b9
       -0.06361996 0.05798921 -0.1426004 -0.00025447103
000090 b8 2b 8a 3d 95 dc 0f 3e 10 1d cb be d3 32 e5 3d
       0.0674662 0.14048989 -0.3967061 0.111913346
0000a0 ee 29 e5 bd 3c 70 88 be 71 87 05 be c4 a0 a9 b8
       -0.11189638 -0.26648128 -0.13039948 -8.088493e-05
0000b0 e3 7c 26 3e d1 a2 b7 be 88 c9 6e 3d 33 44 ba 3e
       0.16258578 -0.35866407 0.058297664 0.36380157
0000c0 fa b2 4a be f0 34 34 3d 1a a7 f3 bd f7 5c 40 3d
       -0.19794837 0.043995798 -0.118971065 0.04696366
0000d0 b6 0b 09 3e 14 54 64 be bf cc 34 3d 4e 7c d0 3e
       0.13383374 -0.22297698 0.044140574 0.40719837
0000e0 21 c6 98 b9 24 d2 89 be 29 29 ee b6 1b 6b 14 3d
       -0.00029139317 -0.26918137 -7.0977444e-06 0.036234956
0000f0 44 15 99 3d 35 4a c1 39 32 f6 09 bd 0a d9 28 be
       0.07474759 0.00036867117 -0.033682056 -0.16489044

edge_encoder.layers.1.weight f4 [64]
000000 18 90 78 3f fd e3 7b 3f 8b 26 7c 3f 52 75 7e 3f
       0.9709487 0.9839476 0.9849631 0.99397767
000010 12 76 7a 3f c2 48 7f 3f d7 76 7c 3f 87 06 7f 3f
       0.9783641 0.99720395 0.98618835 0.99619335
000020 08 3c 7e 3f 34 e0 7a 3f 03 88 7f 3f f6 8f 7c 3f
       0.9931035 0.97998357 0.9981691 0.98657167
000030 f6 de 7a 3f c5 bb 78 3f 11 b1 7c 3f 33 17 7d 3f
       0.9799646 0.97161514 0.9870768 0.98863524
000040 6d c6 79 3f 9a d7 7c 3f 9a cf 78 3f 3f 1d 7c 3f
       0.975684 0.9876648 0.97191775 0.98482126
000050 9b b9 7a 3f c0 54 7b 3f 31 ad 7c 3f 73 b8 79 3f
       0.9793946 0.98176193 0.9870177 0.9754707
000060 95 68 7b 3f 30 2e 7c 3f 2a f4 79 3f 6b bc 7d 3f
       0.98206455 0.98507977 0.9763819 0.9911563
000070 2c ad 7e 3f b3 96 7b 3f 96 85 78 3f 86 90 7c 3f
       0.9948299 0.98276824 0.97078836 0.98658025
000080 54 83 7e 3f ca bc 7a 3f f7 a4 7b 3f c1 cb 7d 3f
       0.9941914 0.9794432 0.9829859 0.9913903
000090 00 0e 7d 3f 1f 1f 7a 3f 36 26 7d 3f c2 43 7b 3f
       0.9884949 0.9770374 0.9888643 0.98150265
0000a0 9a 24 7b 3f a7 cc 7b 3f 93 7d 7d 3f 50 02 7e 3f
       0.98102725 0.9835915 0.99019736 0.9922228
0000b0 e0 4c 7a 3f fc b8 76 3f 88 22 7f 3f 5b df 79 3f
       0.9777355 0.96376014 0.99662066 0.9760644
0000c0 27 4d 7a 3f 97 bf 7b 3f f2 89 7e 3f dc ca 7a 3f
       0.97773975 0.9833922 0.9942924 0.9796579
0000d0 2e 9c 79 3f 2c 79 7b 3f 23 1e 80 3f c5 0b 7d 3f
       0.97503936 0.9823177 1.0009197 0.98846084
0000e0 67 42 7c 3f 76 67 7f 3f 0d aa 7c 3f d1 33 7d 3f
       0.9853882 0.99767244 0.98696977 0.9890719
0000f0 52 51 7d 3f 62 be 7d 3f c2 1f 7a 3f ed 23 7e 3f
       0.9895221 0.99118626 0.9770471 0.9927357

edge_encoder.layers.1.bias f4 [64]
000000 d7 2e 55 b9 73 6d 80 3a c7 04 37 bc b8 dd ea 3b
       -0.00020330712 0.0009798243 -0.011170573 0.007167544
000010 f8 a1 7d 3b a0 41 cb 3b fa cd b4 bb a2 98 eb 3b
       0.0038701277 0.0062028915 -0.0055177184 0.007189826
000020 96 e8 08 3b c0 c1 94 3a c2 9b 16 3c c8 1b ea bb
       0.0020890585 0.0011349246 0.009192409 -0.007144425
000030 c7 0e 5c bc 48 dc a8 bc 8e 7f 1b bc cb f5 5a bb
       -0.013431258 -0.02061285 -0.009490861 -0.0033410664
000040 4d c2 81 bc 7b 0b c2 bb 0e e5 a2 bc 01 d4 7e bb
       -0.01583972 -0.0059217787 -0.019884612 -0.0038883688
000050 4c a1 e4 bb ce bf 1f bc 8e fd 72 bb 45 c2 d9 bb
       -0.006977236 -0.00975032 -0.00370774 -0.006645473
000060 ae 13 b8 bb cc d5 a6 ba eb b7 d2 ba 96 5d 89 3b
       -0.0056175804 -0.0012728511 -0.001607654 0.0041920645
000070 a3 2d c9 3a 3c c5 06 bc 3e da b9 bc 47 04 c6 bb
       0.0015348684 -0.008225735 -0.022687074 -0.0060429904
000080 28 30 da 3a 94 d8 19 bc c5 93 0c bc d9 27 87 bb
       0.0016646432 -0.009390015 -0.008580153 -0.0041246233
000090 a4 38 e9 bb 57 47 61 bc 12 56 0f ba f0 f8 34 bc
       -0.007117348 -0.013749919 -0.00054678426 -0.011045679
0000a0 97 3e 31 bc d3 90 d1 ba 93 31 7a bb d9 98 0a 3b
       -0.010818145 -0.0015988596 -0.0038176521 0.0021148233
0000b0 f4 70 62 bb f0 9a 88 bc 2e a4 0f 3b 01 42 52 bc
       -0.0034552189 -0.016675442 0.0021917927 -0.012833119
0000c0 7d 4a a3 bb e6 e1 0d bc 43 56 6b 3b 16 31 1f bc
       -0.004983245 -0.008659815 0.003590957 -0.009716293
0000d0 0f ad 3a bc e9 5a 28 bc be f0 16 3c 34 f7 b6 bb
       -0.011393799 -0.010275581 0.009212671 -0.005583668
0000e0 3c 67 2e bc 11 32 f8 3b ca 4b bf bb b6 4e 9e 3a
       -0.01064473 0.0075743278 -0.005837892 0.0012077901
0000f0 50 6c 05 bb 7e b2 b8 3b e6 c5 5b bc be 08 2a bb
       -0.0020358749 0.0056365123 -0.013413882 -0.0025945152
