gnn/gnn_outputs/checkpoint_epoch_60.pt (torch, 971804 bytes, 208 tensors)

node_encoder.layers.0.weight f4 [64, 3]
0	0x3ee4e5dd	0.44706622
1	0x3ef2355a	0.4730633
2	0xbe0ff061	-0.14056541
3	0x3f09a2c7	0.53764004
4	0xbdfb55f8	-0.122722566
5	0x3dd80954	0.10548654
6	0xbe89830f	-0.26857802
7	0x3eb2eefa	0.3494795
8	0x3f041277	0.51590675
9	0xbed2f04e	-0.41198963
10	0x3f03bd2e	0.5146054
11	0x3dbf81f8	0.093509614
12	0x3edcd62a	0.43132144
13	0x3d90eba1	0.07076193
14	0x3e8c5784	0.2741052
15	0xbdb8b1ab	-0.090182625
16	0x3edf743a	0.4364336
17	0x3dbefc0d	0.093254186
18	0xbe907bf9	-0.28219584
19	0x3e1ba7d4	0.1520074
20	0xbe7c8438	-0.24659812
21	0xbd84cb83	-0.06484129
22	0xbe6956af	-0.22786973
23	0x3ec74a7e	0.3892402
24	0xbeecb377	-0.4623067
25	0xbe83147e	-0.25601572
26	0xbe26d104	-0.1629067
27	0xbeac51ae	-0.33656067
28	0x3d698f6b	0.05702154
29	0xbf14897f	-0.580223
30	0x3f0490d6	0.517835
31	0xbefb5055	-0.49084726
32	0x3ee65f71	0.4499469
33	0x3dcb3316	0.09921853
34	0xbe34576a	-0.17611471
35	0x3eba75b2	0.3641792
36	0x3db57ca0	0.08861661
37	0x3ef07df8	0.46971107
38	0x3d7198c4	0.05898358
39	0xbe3b0d17	-0.18266712
40	0x3e1c9c7b	0.15294068
41	0xbe2600b6	-0.16211209
42	0x3e771740	0.24129963
43	0x3efcc2e6	0.49367446
44	0x3eb2fa76	0.34956712
45	0xbe7041d6	-0.23462614
46	0x3eb0f87f	0.34564587
47	0x3dd230a5	0.102631845
48	0x3e96cea7	0.29454538
49	0xbeb06b97	-0.34457085
50	0xbf147ca8	-0.5800271
51	0xbe611477	-0.21980463
52	0xbeeb0e1f	-0.4590921
53	0x3eeca9b6	0.4622323
54	0x3e25c8ad	0.16189833
55	0x3e745305	0.23859794
56	0x3e45ffb9	0.19335832
57	0xbc7174f5	-0.014737357
58	0x3eebfe65	0.46092525
59	0xbecd3694	-0.40080702
60	0x3cfb91b9	0.030709134
61	0xbecd082a	-0.4004529
62	0x3e2fe071	0.17175461
63	0xbe4a13f2	-0.19734171
64	0x3e3325bc	0.17494863
65	0xbdfa8d0f	-0.12233936
66	0x3ef57b07	0.47945425
67	0xbeb2556e	-0.34830803
68	0xbeae3be9	-0.34030083
69	0xbeb68abb	-0.35652718
70	0x3f019ba7	0.5062813
71	0x3e4124fd	0.18861766
72	0x3f0d0b2b	0.55095166
73	0xbef2e588	-0.47440743
74	0xbf13b82c	-0.577029
75	0xbee768f9	-0.45197275
76	0xbeca1d1d	-0.39475337
77	0x3e639358	0.22224176
78	0x3e4e470f	0.20144294
79	0x3ef9d926	0.48798484
80	0xbe94af7d	-0.29040137
81	0xbec16616	-0.37773198
82	0x3ea3376a	0.31878215
83	0xbe6b9833	-0.23007278
84	0x3eb2f641	0.34953502
85	0xbe1499e0	-0.14511824
86	0x3ea63dc5	0.32469
87	0xbef04eec	-0.46935213
88	0xbe8fb7b2	-0.28069836
89	0x3e361c01	0.1778412
90	0x3dfece41	0.124416836
91	0xbe0f8bc6	-0.14018163
92	0x3eb36a3d	0.3504199
93	0x3ec5a6d9	0.38603857
94	0xbed998a6	-0.42499274
95	0xbe9bf75d	-0.3046216
96	0x3f0759c7	0.52871364
97	0xbe5275e7	-0.20552789
98	0xbe4c9066	-0.19976959
99	0xbf0d5b3c	-0.5521734
100	0xbeac4d8b	-0.3365291
101	0x3e113aea	0.1418263
102	0xbdb07909	-0.086168356
103	0xbed159df	-0.4088888
104	0x3b603eb0	0.0034217052
105	0xbecc0f8c	-0.3985561
106	0xbf0323a0	-0.51226234
107	0xbe9a64a5	-0.3015491
108	0xbf024a92	-0.50895035
109	0xbebb575d	-0.3659009
110	0x3f12b09a	0.5730072
111	0x3de12e66	0.10995178
112	0x3e423dd0	0.18968892
113	0xbf0663e9	-0.524962
114	0xbec1a051	-0.37817624
115	0xbe43f794	-0.19137412
116	0x3dbccae3	0.09218385
117	0xbf007137	-0.5017275
118	0xbe7d19be	-0.24716851
119	0xbeb4c1c6	-0.35304087
120	0x3c0dfb9b	0.008665944
121	0xbe63c4a3	-0.2224298
122	0xbd08698f	-0.033303794
123	0xbed028e0	-0.40656185
124	0xbecc2197	-0.39869377
125	0xbea6ce77	-0.32579395
126	0xbe4f69c0	-0.20255184
127	0xbeeae4e8	-0.45877767
128	0x3ef5bd30	0.479959
129	0xbde3f52f	-0.111307494
130	0x3ef7ec7e	0.48422617
131	0x3e464bad	0.19364806
132	0xbef94b49	-0.4869025
133	0x3ed2493d	0.410715
134	0xbe20296c	-0.15640801
135	0xbe680694	-0.2265876
136	0xbef578dc	-0.4794377
137	0xbf124977	-0.5714335
138	0x3e3243f3	0.17408733
139	0xbdf9d376	-0.12198536
140	0x3e57171c	0.2100491
141	0xbef1644c	-0.47146833
142	0x3eda4393	0.4262968
143	0xbeda3337	-0.426172
144	0xbdcff85b	-0.10154792
145	0x3dea3605	0.11436085
146	0x3e9d7e99	0.3076065
147	0x3ef72592	0.4827085
148	0x3f064243	0.5244486
149	0xbee34b60	-0.44393444
150	0x3e12245d	0.14271684
151	0xbe85c7d4	-0.2612902
152	0xbd5f67b7	-0.05454227
153	0xbedfe3da	-0.43728524
154	0x3f04dc32	0.5189849
155	0xbedc1df9	-0.42991617
156	0x3ea0ecf9	0.31430796
157	0x3e449ba5	0.19199999
158	0x3e43263d	0.19057555
159	0xbe9cf8d8	-0.30658603
160	0x3f07a071	0.5297919
161	0x3dfffa69	0.12498934
162	0x3d9bd9e9	0.076099224
163	0xbf03e4af	-0.5152082
164	0x3e70313a	0.23456278
165	0xbda5b36e	-0.08090864
166	0xbe860f56	-0.26183575
167	0x3eff5c3f	0.49875066
168	0x3e08e2d8	0.13367784
169	0xbea2cf58	-0.31798816
170	0xbe94852a	-0.29007846
171	0xbd122ef7	-0.03568932
172	0x3ea398e4	0.31952584
173	0xbe192c03	-0.14958195
174	0xbea3317c	-0.3187369
175	0xbe4ff58d	-0.20308514
176	0xbee39586	-0.44450015
177	0x3e458a5b	0.1929106
178	0x3edea169	0.4348252
179	0xbf0ea5d9	-0.55721813
180	0x3e187ffa	0.14892569
181	0x3e914a20	0.28376865
182	0x3de8e355	0.11371485
183	0xbe58a892	-0.21158054
184	0x3e974fdc	0.29553115
185	0x3e9e1567	0.30875704
186	0x3e5f3fd6	0.21801695
187	0xbdcb80f4	-0.09936705
188	0xbe1ad86f	-0.15121625
189	0x3d8a4d35	0.06753007
190	0xbdc1a506	-0.09455304
191	0xbe37f250	-0.17963529

node_encoder.layers.0.bias f4 [64]
0	0x3e9f061c	0.3105935
1	0x3edfea56	0.43733472
2	0xbc27ef7a	-0.010249967
3	0xbd97dd12	-0.07415213
4	0xb9915357	-0.00027718648
5	0x3a79171b	0.0009502039
6	0x3daa90d0	0.08328402
7	0x3dd836de	0.1055734
8	0xbeee5037	-0.46545574
9	0xbe1fa102	-0.15588763
10	0x3edacf74	0.427364
11	0x3e2b8637	0.16750418
12	0x3abc5751	0.0014369284
13	0xbe945698	-0.28972316
14	0xbe96f5b0	-0.2948432
15	0xbeea9fa8	-0.45824933
16	0xbe068d29	-0.13139786
17	0x3e0d5c4f	0.13804744
18	0x3e9e9806	0.3097536
19	0x3e55c39a	0.20875397
20	0xbee722d3	-0.45143756
21	0xbe93e651	-0.28886655
22	0xbd1d82dd	-0.03845488
23	0x3effc160	0.4995222
24	0x3d01d43a	0.031696536
25	0xbdbfbdd3	-0.09362378
26	0x3e39aa4d	0.18131371
27	0xbe267ab9	-0.16257752
28	0xbea164f1	-0.31522325
29	0x3eb9b9f2	0.36274678
30	0xbe51a8d5	-0.2047456
31	0xbd7ade0d	-0.06124692
32	0xbf03ecbc	-0.51533103
33	0x3ea7dff0	0.32788038
34	0x3ec1e678	0.37871146
35	0x3e1cebe6	0.15324363
36	0xbeb01dfa	-0.3439787
37	0xbf02c27f	-0.5107803
38	0xbed1fc26	-0.41012686
39	0x3ebe61fb	0.37184128
40	0x3e6087c8	0.21926796
41	0x3edaa021	0.42700294
42	0x3e7a3ab5	0.24436457
43	0x3db905fb	0.09034344
44	0xb8eb7de5	-0.00011229123
45	0xbec2c054	-0.3803736
46	0xbedf1cce	-0.43576664
47	0xbef64df7	-0.48106357
48	0x3e372084	0.17883497
49	0xbe66eb4a	-0.22550693
50	0xbd7c62f6	-0.061617814
51	0xbe8c4816	-0.27398747
52	0xbd5299e7	-0.051416304
53	0xbeb20d25	-0.34775653
54	0xbea33785	-0.31878296
55	0x3e09e035	0.13464434
56	0xbdebd3ce	-0.11515008
57	0x3e98979e	0.29803175
58	0xbe03937a	-0.12849227
59	0xbebace28	-0.3648541
60	0xbd45b62d	-0.04826944
61	0xbe63458c	-0.22194499
62	0xbdf6049e	-0.120125994
63	0xbefb41d0	-0.49073648

node_encoder.layers.1.weight f4 [64]
0	0x3f811698	1.008502
1	0x3f7f2851	0.9967089
2	0x3f7ddcc3	0.9916498
3	0x3f801a58	1.000804
4	0x3f7e31ee	0.99294937
5	0x3f80af0f	1.0053424
6	0x3f7b1d58	0.9809165
7	0x3f809a6d	1.0047127
8	0x3f7eb47a	0.99494135
9	0x3f7e2066	0.99268186
10	0x3f7f9b40	0.9984627
11	0x3f80835f	1.0040091
12	0x3f8036eb	1.001676
13	0x3f822e64	1.0170407
14	0x3f7da4c8	0.9907956
15	0x3f7fcc89	0.9992147
16	0x3f7b8c1d	0.9826067
17	0x3f7e6850	0.9937792
18	0x3f7cc5b4	0.9873917
19	0x3f803a4a	1.0017788
20	0x3f80ad76	1.0052936
21	0x3f7d430d	0.98930436
22	0x3f80780e	1.0036638
23	0x3f7e95c7	0.9944729
24	0x3f80ca94	1.0061822
25	0x3f8132a4	1.0093579
26	0x3f8026c3	1.0011829
27	0x3f8202c0	1.0157089
28	0x3f7e6d02	0.9938508
29	0x3f809266	1.0044677
30	0x3f803437	1.0015935
31	0x3f80d63a	1.0065377
32	0x3f7f966c	0.998389
33	0x3f80b56b	1.0055364
34	0x3f81a250	1.0127659
35	0x3f807b30	1.0037594
36	0x3f814282	1.0098422
37	0x3f8104a2	1.0079539
38	0x3f7eeab7	0.99576896
39	0x3f7e46fd	0.9932707
40	0x3f809773	1.0046219
41	0x3f7f89a8	0.9981942
42	0x3f80abf8	1.0052481
43	0x3f7fce8a	0.9992453
44	0x3f7fa68c	0.99863505
45	0x3f7df572	0.99202645
46	0x3f80b12f	1.0054072
47	0x3f80b95b	1.0056566
48	0x3f7f1b41	0.9965096
49	0x3f7e4e6b	0.99338406
50	0x3f81de30	1.0145931
51	0x3f81cdaf	1.0140895
52	0x3f7cd592	0.9876338
53	0x3f804700	1.0021667
54	0x3f7e393d	0.9930609
55	0x3f7e5043	0.9934122
56	0x3f7c4e49	0.98556954
57	0x3f7f3085	0.9968341
58	0x3f7db433	0.9910309
59	0x3f80a5b2	1.0050566
60	0x3f7db640	0.99106216
61	0x3f7cd536	0.98762834
62	0x3f7d3f95	0.98925143
63	0x3f7c75c1	0.9861718

node_encoder.layers.1.bias f4 [64]
0	0x3ab43753	0.0013749398
1	0xbb915fd7	-0.004436474
2	0xbc07dc27	-0.0082922345
3	0x3c82075f	0.015872655
4	0xbc83dd26	-0.016096663
5	0x3c0ef736	0.008725932
6	0xbcd2a74a	-0.025714535
7	0x3bca4e9f	0.006173923
8	0xbcae5505	-0.021280775
9	0xbba68d0d	-0.0050827325
10	0x3be0d81b	0.0068616993
11	0xbb84d7af	-0.004054032
12	0x3b49911e	0.0030756663
13	0x3b106007	0.0022029893
14	0xbb594ec1	-0.0033158513
15	0x3bdbe48d	0.006710595
16	0xbbbae657	-0.005703728
17	0x3a8326f0	0.0010006111
18	0xbc11c77c	-0.008897658
19	0xbb75efb6	-0.0037526912
20	0xbbf4dc74	-0.007472569
21	0xbbe52c12	-0.006993779
22	0x3a6e0e66	0.0009081125
23	0x3b1d4a63	0.0024000637
24	0xb88c374f	-6.686022e-05
25	0xbbfa2072	-0.0076332623
26	0x3c95fd72	0.018309329
27	0x3c501b67	0.012701846
28	0xbc23c8e6	-0.009996628
29	0xbb8d8561	-0.0043188785
30	0x3bb70278	0.005585011
31	0x3b363fe8	0.0027809087
32	0xbb2b9ac5	-0.002618478
33	0xbc2dae53	-0.010600644
34	0xba8a36fd	-0.0010544952
35	0xbaff6bc7	-0.0019487076
36	0x3c0edf00	0.0087201595
37	0x3c176dd2	0.009242492
38	0xbbd4895a	-0.0064861
39	0xbab4a5da	-0.0013782338
40	0x3bf432b3	0.007452333
41	0xbc57f1b5	-0.013180186
42	0xbbb5e7d0	-0.005551316
43	0x3c0266b1	0.007959054
44	0x3bc47a03	0.0059959902
45	0x3b32a64a	0.002725976
46	0xba1c8243	-0.0005970338
47	0xbc1e20d7	-0.009651384
48	0x3b44363f	0.002993956
49	0xbbac6fda	-0.005262357
50	0x3c18eddb	0.009334053
51	0x3cae2f35	0.021262744
52	0x3b46ee70	0.0030354522
53	0x3bc270b1	0.005933844
54	0xbc1b92a1	-0.009495408
55	0xbcd299e4	-0.025708146
56	0xbc133063	-0.008983704
57	0xbba5ff73	-0.0050658523
58	0xbc319cea	-0.010840634
59	0x3c116c9c	0.008875992
60	0xbbe2d7b7	-0.006922688
61	0x3c0e0cdc	0.008670058
62	0xb7033f20	-7.822906e-06
63	0xbc5d1dab	-0.013495843

node_encoder.layers.1.running_mean f4 [64]
0	0x3f44c6e5	0.7686599
1	0x3f33dfed	0.7026356
2	0x3ea84060	0.32861614
3	0x3d92f8dd	0.07176373
4	0x3ed2aecf	0.41148993
5	0x3e8a61bb	0.27027687
6	0xbdc199e8	-0.094531834
7	0x3e0bb87b	0.13644592
8	0xbf745952	-0.9544879
9	0xbf19e007	-0.60107464
10	0x3f2205c3	0.6329004
11	0x3e9b3044	0.3031026
12	0x3ebc855f	0.36820504
13	0xbec23e5c	-0.379382
14	0x3ea00441	0.31253245
15	0xbea3b968	-0.3197739
16	0xbefc9edb	-0.49339947
17	0xbc8bac17	-0.017049832
18	0x3f2560a0	0.64600563
19	0x3e90aa8a	0.2825511
20	0xbf19226b	-0.5981814
21	0xbeb46e7c	-0.35240543
22	0xbe394c66	-0.1809555
23	0x3f3a2831	0.7271758
24	0xbe88af9b	-0.26696476
25	0xbeecddcd	-0.4626297
26	0x3ee24a5e	0.44197363
27	0xbe934af3	-0.2876812
28	0xbd6c8917	-0.057747927
29	0x3d2379a4	0.039910927
30	0xbd4863ae	-0.048923187
31	0xbe903ff1	-0.28173783
32	0xbef200dc	-0.4726628
33	0xbdbb4512	-0.091440335
34	0x3db364d6	0.08759467
35	0xbf05e00c	-0.52294993
36	0xbf0b9bea	-0.5453478
37	0xbf1cc279	-0.6123424
38	0xbf2ef693	-0.6834499
39	0xbe62eb96	-0.22160181
40	0x3d9784b2	0.073983565
41	0xbe488649	-0.19582476
42	0x3ddc9ece	0.10772477
43	0x3ede8c78	0.43466544
44	0xbda99802	-0.08280946
45	0xbf8c1e60	-1.094677
46	0xbea173eb	-0.3153375
47	0xbf30b4d6	-0.69025934
48	0x3eb7e611	0.35917714
49	0x3defada7	0.117030434
50	0xbe37f7e7	-0.17965661
51	0xbed1bb60	-0.40963268
52	0x3ea73ee2	0.32665163
53	0xbdf9c3b2	-0.12195529
54	0xbef5d7cc	-0.48016202
55	0x3e454621	0.19265033
56	0xbeca87fc	-0.39556873
57	0x3eceb3fc	0.40371692
58	0xbf279af9	-0.65470845
59	0xbe93385f	-0.28753945
60	0x3e851d3e	0.25998873
61	0x3b9026af	0.0043991427
62	0xbe19596d	-0.1497552
63	0xbf1c67c1	-0.61095816

node_encoder.layers.1.running_var f4 [64]
0	0x3d2ecfb5	0.042678554
1	0x3cba7c6d	0.022764409
2	0x3d375b6b	0.044764917
3	0x3d0ac046	0.033874772
4	0x3cbf79c6	0.023373496
5	0x3c98e3f1	0.018663378
6	0x3c5d1d4f	0.013495757
7	0x3cafca55	0.021458784
8	0x3ce5951c	0.028025202
9	0x3d365fb7	0.044524875
10	0x3d6a7a8a	0.05724577
11	0x3c8cff60	0.017211616
12	0x3cb9ca8f	0.022679595
13	0x3bdc9dee	0.006732694
14	0x3d34bab6	0.044123374
15	0x3c726d4e	0.014796568
16	0x3d59a7b0	0.053138435
17	0x3d434e22	0.047681935
18	0x3c4c4bfa	0.012469286
19	0x3d1385a2	0.036016114
20	0x3c8fa6c5	0.017535577
21	0x3bd40569	0.0064703715
22	0x3d1c9601	0.038228992
23	0x3d0a8f14	0.033827856
24	0x3d9b7cc1	0.07592154
25	0x3d1fe31f	0.03903496
26	0x3d132585	0.035924453
27	0x3cb9dc81	0.022688152
28	0x3cac9b1c	0.021070056
29	0x3cf7e532	0.030260656
30	0x3c7fb893	0.015607971
31	0x3d106667	0.03525391
32	0x3cdedc42	0.027204636
33	0x3d235280	0.0398736
34	0x3c8b182c	0.0169793
35	0x3d5429ba	0.051797606
36	0x3d918288	0.07104975
37	0x3d0bf1df	0.034166213
38	0x3c8950ba	0.016762126
39	0x3d29c4b8	0.04144737
40	0x3b9b510d	0.0047398866
41	0x3d30fa09	0.043207202
42	0x3d4768f2	0.048684068
43	0x3cd69982	0.026196245
44	0x3cff8200	0.031189919
45	0x3d84a1ef	0.06476199
46	0x3bfff486	0.007811132
47	0x3d429c21	0.047512177
48	0x3c486cbb	0.012232955
49	0x3d8e01e0	0.069339514
50	0x3bf3f0d1	0.007444479
51	0x3d587122	0.052842267
52	0x3c865013	0.016395604
53	0x3d018829	0.031623993
54	0x3cf1eb75	0.02953122
55	0x3d09cf9e	0.033645265
56	0x3ca000ed	0.019531691
57	0x3c3c6de8	0.011500813
58	0x3d0ec4ef	0.03485578
59	0x3d604ff1	0.054763738
60	0x3c406c88	0.011744626
61	0x3cac5244	0.021035321
62	0x3bd88dea	0.0066087143
63	0x3b987236	0.004652287

node_encoder.layers.3.weight f4 [64, 64]
0	0x3d773add	0.06035887
1	0xbd9cdc41	-0.076591976
2	0x3d557ed5	0.05212291
3	0x3d4aca3d	0.049509276
4	0x3da74507	0.08167463
5	0xbdd0f8b4	-0.10203686
6	0x3da5714f	0.080782525
7	0xbd8cfc70	-0.06884086
8	0x3d2e9d7c	0.042630658
9	0x3dec50a9	0.11538822
10	0xbbeab121	-0.0071622287
11	0xbbf1e61d	-0.007382168
12	0xbd12b5c1	-0.035817865
13	0xbde485ea	-0.111583546
14	0x3d50befb	0.050963383
15	0xbe069b6e	-0.13145229
16	0x3db311fa	0.08743663
17	0x3da8b30f	0.08237278
18	0x3dded9d3	0.108813904
19	0xbd07df88	-0.03317216
20	0xbdbbb9c3	-0.091662906
21	0x3ca95133	0.020668602
22	0x3da42868	0.080155194
23	0xbe072ae9	-0.13199963
24	0xbc9107a8	-0.017703846
25	0xbdab26a5	-0.0835698
26	0xbc8aa2ac	-0.016923271
27	0xbd8dc5b3	-0.06922474
28	0xbd5e5ffd	-0.05429076
29	0xbd4881f2	-0.04895205
30	0xbe00f7f0	-0.1259458
31	0x3de86dac	0.11349043
32	0x3def37bb	0.116805516
33	0xbce8e351	-0.028428705
34	0xbbc44d2b	-0.0059906445
35	0xbd452481	-0.048130516
36	0xbe083af0	-0.13303733
37	0xbde9cd33	-0.11416092
38	0x3d18939e	0.037250154
39	0xbd91d0db	-0.07119914
40	0xbd903c93	-0.070428036
41	0xbbffdeff	-0.0078085656
42	0xbd5211ff	-0.051286694
43	0xbd4182f6	-0.047244035
44	0xbb4b764d	-0.0031045855
45	0xbca64975	-0.020298699
46	0xbd3295ce	-0.043599896
47	0xbd890549	-0.06690461
48	0xbde771c9	-0.11301
49	0x3dcd5cb3	0.100274466
50	0xbd1dd5e0	-0.038534045
51	0x3ce041b5	0.027375082
52	0xbd5948bf	-0.05304789
53	0x3b5ab183	0.0033369965
54	0x3e02fd80	0.12792015
55	0x3d3f7a8c	0.04674773
56	0xbdc99026	-0.09841947
57	0x3d38397f	0.044976708
58	0x3df61315	0.12015358
59	0x3d02b72a	0.03191296
60	0x3d991ae0	0.07475829
61	0x3de82bb8	0.11336464
62	0xbc00bbdc	-0.007857289
63	0x3d10f5e8	0.035390764
64	0xbdcc1a36	-0.09965937
65	0xbc9b99a9	-0.01899417
66	0x3dd0494b	0.101702295
67	0x3d80a91f	0.06282257
68	0xbd8dd03d	-0.06924484
69	0xbdc5468a	-0.09632595
70	0xbdc38451	-0.09546722
71	0xbdded728	-0.108808815
72	0xbdc5bd25	-0.09655217
73	0xbd185a8c	-0.037195727
74	0x3dbd7d8c	0.09252462
75	0x3d082253	0.03323586
76	0xbdc85994	-0.09782711
77	0xbde5dc42	-0.112236515
78	0x3d91fa12	0.07127775
79	0xbdb7da16	-0.089771435
80	0xbc09f9aa	-0.008421341
81	0x3d94f4b7	0.07273238
82	0xbd41eab1	-0.04734296
83	0xbcc62249	-0.02418627
84	0xba87866e	-0.0010339746
85	0xbd2fc096	-0.042908274
86	0xbd600a30	-0.054697216
87	0xbdd9f2b9	-0.10641999
88	0xbdbd8fa2	-0.092559114
89	0xbd81a6d0	-0.06330645
90	0x3de0802d	0.109619476
91	0xbd96df10	-0.073667645
92	0xbd99baa7	-0.07506304
93	0x3d044a28	0.032297283
94	0x3d3f9351	0.04677135
95	0x3d9e673f	0.077345364
96	0x3dd17a4a	0.10228403
97	0x3d8f4d31	0.06997145
98	0xbdeb76f3	-0.11497297
99	0x3c8555b2	0.016276214
100	0x3db7a4f0	0.08967006
101	0xbca691e6	-0.020333242
102	0xbd9709a9	-0.073748894
103	0x3df4acb2	0.119470015
104	0xbd1a3a5d	-0.037653316
105	0xbd8973cf	-0.06711542
106	0xbdcca731	-0.09992827
107	0x3c520d74	0.01282059
108	0x3d289beb	0.04116432
109	0x3d044da1	0.032300595
110	0x3d0cae4d	0.034345914
111	0xbddb0a94	-0.10695377
112	0xbdcfe764	-0.10151556
113	0xbc181687	-0.009282715
114	0x3dfc5f77	0.12322896
115	0x3d73fe88	0.05956891
116	0xbd8a618d	-0.067568876
117	0xbc5af6dd	-0.013364521
118	0xbda899d8	-0.08232468
119	0xbd3a7392	-0.045520373
120	0x3cf83fdf	0.030303894
121	0x3d675ad9	0.056483123
122	0x3dd45a78	0.10368818
123	0xbdfef3e4	-0.12448862
124	0x3daae22f	0.08343922
125	0xbda42df8	-0.0801658
126	0x3d62053d	0.055180777
127	0x3de5a322	0.11212756
128	0xbab1909e	-0.0013547128
129	0x3e00d32e	0.12580559
130	0xbdf6a555	-0.12043253
131	0xbd14ab3a	-0.036296107
132	0x3da8e8af	0.08247506
133	0xbcb63bb3	-0.022245264
134	0xbc95a55d	-0.018267328
135	0xbd717994	-0.058953837
136	0x3dab67d4	0.08369413
137	0x3d8b787f	0.06810092
138	0x3d1d9648	0.038473397
139	0xbd9d671a	-0.07685681
140	0xbdd047f1	-0.10169972
141	0x3caa0e93	0.020758903
142	0x3d0b9783	0.03408004
143	0xbd40a7ad	-0.047034908
144	0xbd05cd7f	-0.03266668
145	0x3d9e95a8	0.077433884
146	0x3c28a3c7	0.010292954
147	0x3c414534	0.0117962845
148	0xbd116b82	-0.035502918
149	0xbdd77186	-0.105197
150	0xbde142ae	-0.10999046
151	0xbd4a4094	-0.049377993
152	0xbd7f58d1	-0.06234056
153	0x3cff42b9	0.031159746
154	0xbd0c21d8	-0.034211963
155	0xbd27555d	-0.040852893
156	0x3dfeb71f	0.12437271
157	0x3d13ac46	0.036052965
158	0x3da99245	0.08279852
159	0xbd595d7d	-0.053067673
160	0xbd23020e	-0.03979688
161	0x3d1e8333	0.03869934
162	0xbdb78e0b	-0.089626394
163	0xbdae906c	-0.0852364
164	0xbc64a136	-0.013954451
165	0xbd2bb55c	-0.041921005
166	0xbdce4fb2	-0.100737944
167	0x3da3cce5	0.07998065
168	0x3dc3df48	0.09564072
169	0x3ca12cb8	0.019674644
170	0xbcea7e01	-0.028624536
171	0xbde4c294	-0.11169925
172	0xbd13b81c	-0.036064252
173	0x3d1352ab	0.03596751
174	0x3d6693dc	0.056293353
175	0xbc0e0218	-0.008667491
176	0xbd78f9cb	-0.060785096
177	0x3d8ed32b	0.06973871
178	0xbdc9fc2d	-0.09862552
179	0x3db04a1a	0.08607884
180	0xbd31b619	-0.043386552
181	0x3c3bfc19	0.011473679
182	0xbcef41c0	-0.029206157
183	0x3c03c241	0.008041919
184	0xbd17c9d0	-0.037057698
185	0x3dc8346b	0.09775623
186	0x3b60415d	0.0034218647
187	0x3dd0820a	0.10181053
188	0x3dec17c4	0.115279704
189	0xbda173a7	-0.07883387
190	0xbdb2220a	-0.08697899
191	0x3dd43430	0.103615165
192	0x3db89911	0.0901357
193	0xbdb20e50	-0.08694136
194	0xbbbe47ae	-0.0058068847
195	0xbe05d705	-0.13070305
196	0xbdc299a6	-0.09501962
197	0x3c7dc75d	0.015489426
198	0x3cac3e3f	0.021025775
199	0x3cfb5252	0.030678902
200	0xbd0210c1	-0.03175426
201	0x3dd37f0b	0.10326966
202	0x3cce1fdc	0.025161676
203	0xbd8aba95	-0.06773869
204	0xbc528686	-0.012849456
205	0x3c9655f6	0.018351536
206	0x3d49f3f6	0.049304925
207	0xbdc23190	-0.094821095
208	0x3d2f6b6f	0.042827066
209	0xbd6e03e9	-0.058109198
210	0xbdc76155	-0.097353615
211	0xbd9f56b7	-0.077802114
212	0x3e02f0bf	0.1278715
213	0x3dc27269	0.09494478
214	0x3df53b62	0.11974217
215	0x3d8b958b	0.068156324
216	0x3dd00c56	0.10158603
217	0xbc4a2b50	-0.012339428
218	0xbd9e80ac	-0.07739386
219	0x3d4f3f8c	0.050597712
220	0xbd6c7d7d	-0.057736862
221	0xbda58014	-0.080810696
222	0xbd0a64e5	-0.033787627
223	0x3d191771	0.03737587
224	0x3d8d3f3d	0.06896827
225	0xbd390332	-0.045169063
226	0xbd885060	-0.06655955
227	0x3caa4277	0.020783646
228	0xbd8fdfba	-0.07025094
229	0xbdbb786b	-0.09153827
230	0x3d8b9d9e	0.068171725
231	0xbcba9f6e	-0.0227811
232	0x3df9157d	0.12162302
233	0x3dfde6da	0.12397547
234	0x3d311000	0.04322815
235	0x3d284279	0.04107902
236	0x3c8f2b2e	0.017476644
237	0x3a9e855d	0.0012094189
238	0xbb169a77	-0.0022980252
239	0xbc2207ff	-0.009889602
240	0x3d4b7295	0.04966982
241	0x3ddc3ad7	0.1075341
242	0xbcbb4a90	-0.022862703
243	0xbd8325d7	-0.06403702
244	0xbcca7d13	-0.024717843
245	0xbd8b17b1	-0.06791628
246	0x3cea92de	0.028634485
247	0x3dc6ec1c	0.09713003
248	0x3dde8d7e	0.10866831
249	0x3d45c373	0.048282098
250	0xbdc8e8c3	-0.09810021
251	0xbd9c4b4e	-0.07631551
252	0xbcedcf5b	-0.029029539
253	0xbc870921	-0.016483845
254	0x3c40ef14	0.011775751
255	0xbdf4f4ca	-0.11960752

node_encoder.layers.3.bias f4 [64]
0	0xb7e4195d	-2.7191529e-05
1	0x3c3212a8	0.010868706
2	0x39331121	0.00017077151
3	0xbd1bf6f3	-0.038077306
4	0x3bc1ce2f	0.0059144716
5	0x3cbee1dc	0.023301058
6	0xbc84e9f0	-0.016224831
7	0xbcf230b4	-0.02956424
8	0xbd079aa8	-0.033106476
9	0xbc53e372	-0.012932645
10	0xba19f3ef	-0.0005872836
11	0xb988c397	-0.00026085667
12	0xb78765ce	-1.614066e-05
13	0x3aa4582b	0.0012538483
14	0x3cd9120a	0.02649786
15	0xb8ab9bad	-8.182912e-05
16	0xbcb6a9cf	-0.022297768
17	0x3aa4c1a1	0.0012569913
18	0xbcbcdb3e	-0.023053762
19	0xbb16436f	-0.0022928377
20	0xbd81adea	-0.063319996
21	0xb9bb9455	-0.00035777935
22	0xbd32f50f	-0.043690737
23	0x3b9368fa	0.004498598
24	0x3d097015	0.033554155
25	0xbd2486f3	-0.04016776
26	0xbc8a7fc8	-0.016906634
27	0xbd3a2b6e	-0.045451574
28	0xba9dd3f2	-0.0012041314
29	0xba61a0a4	-0.0008607006
30	0xbc8143c3	-0.015779382
31	0x3ccad09b	0.024757674
32	0x3bdb7626	0.006697434
33	0xbd70287e	-0.058632366
34	0x38c029f0	9.163085e-05
35	0xbc026826	-0.007959401
36	0x39a485e2	0.00031380268
37	0x3ca27c75	0.019834736
38	0xb9e2ae8e	-0.00043236132
39	0xbd0dbdeb	-0.034604948
40	0x3d11e1d9	0.035615776
41	0xbd75467b	-0.05988167
42	0xbae3f163	-0.0017390664
43	0x3b91a531	0.004444741
44	0x3d66c3a0	0.056338906
45	0x3d8850b2	0.066560164
46	0x3abe22cc	0.001450622
47	0x3a9c9606	0.0011946566
48	0xbd640905	-0.055672664
49	0x3a68060e	0.0008851
50	0xb901afbe	-0.00012367868
51	0xba59e5e0	-0.0008312147
52	0xbcf80138	-0.030274019
53	0xbaaa21b1	-0.0012980012
54	0x3c819e48	0.015822545
55	0x3d351461	0.044208888
56	0x394edb54	0.00019727397
57	0x3d750d9a	0.059827425
58	0xbd821302	-0.06351282
59	0x3a5d8236	0.0008449884
60	0x3b8327e0	0.004002556
61	0xbab318cd	-0.0013664007
62	0x3c3c6443	0.011498514
63	0xbcff86ea	-0.031192262

node_encoder.layers.4.weight f4 [64]
0	0x3f7d0480	0.9883499
1	0x3f8146a5	1.0099684
2	0x3f7f1543	0.9964182
3	0x3f7fb0e1	0.9987927
4	0x3f7f87ed	0.9981678
5	0x3f8074c2	1.0035632
6	0x3f807f4e	1.003885
7	0x3f80356d	1.0016304
8	0x3f8010c9	1.0005122
9	0x3f7ee20d	0.99563676
10	0x3f7b81b8	0.9824481
11	0x3f81162c	1.0084891
12	0x3f7ebb9a	0.9950501
13	0x3f7eb61d	0.9949663
14	0x3f8070a0	1.003437
15	0x3f7cc00e	0.9873055
16	0x3f803aa9	1.0017902
17	0x3f80f075	1.0073382
18	0x3f7d4913	0.9893963
19	0x3f7f6752	0.9976703
20	0x3f80d0a6	1.0063674
21	0x3f811c41	1.0086747
22	0x3f7f4ed2	0.99729645
23	0x3f81375e	1.0095022
24	0x3f81e58c	1.0148177
25	0x3f82a20c	1.0205703
26	0x3f808c77	1.0042866
27	0x3f80ec88	1.0072184
28	0x3f7b941e	0.98272884
29	0x3f7e5cbd	0.9936026
30	0x3f7d6811	0.9898692
31	0x3f7b0d45	0.9806712
32	0x3f80123e	1.0005567
33	0x3f815dc2	1.0106738
34	0x3f810f9f	1.0082892
35	0x3f80f6f9	1.007537
36	0x3f7fb332	0.99882805
37	0x3f7e0048	0.9921918
38	0x3f7f2130	0.99660015
39	0x3f829d53	1.0204262
40	0x3f7fdbba	0.9994465
41	0x3f7f6e4d	0.9977768
42	0x3f7d2148	0.9887891
43	0x3f7efc2b	0.9960353
44	0x3f80f0f5	1.0073534
45	0x3f81a0b9	1.0127174
46	0x3f80319d	1.0015141
47	0x3f7f0b5f	0.99626726
48	0x3f81594d	1.0105377
49	0x3f7ecb05	0.99528533
50	0x3f806272	1.0030043
51	0x3f7e146f	0.9924993
52	0x3f7e6261	0.99368864
53	0x3f7ff833	0.99988097
54	0x3f7e34b4	0.9929917
55	0x3f810527	1.0079697
56	0x3f7e2bff	0.9928588
57	0x3f80caaf	1.0061854
58	0x3f7e2399	0.9927307
59	0x3f7f8e5d	0.99826604
60	0x3f80f6f6	1.0075366
61	0x3f7f7393	0.9978573
62	0x3f7f5a81	0.99747473
63	0x3f7f4e8d	0.99729234

node_encoder.layers.4.bias f4 [64]
0	0xbbb03538	-0.005377438
1	0x3b170b22	0.0023047407
2	0xbb76398e	-0.0037570926
3	0xbb187a3d	-0.002326622
4	0xbc0ea44f	-0.008706166
5	0x3b94b10a	0.0045377063
6	0x3a43ce14	0.00074693677
7	0xbc1091ca	-0.008823821
8	0x3bd17dba	0.0063931616
9	0x39a75872	0.0003191862
10	0xbca9b05d	-0.02071398
11	0x3bd934f0	0.006628625
12	0x3c221969	0.009893754
13	0xbb3efd19	-0.0029142557
14	0xbbb373a9	-0.0054764342
15	0xbc21b319	-0.00986936
16	0x3bebdae0	0.007197723
17	0x3a3061be	0.0006728432
18	0x3b9ff370	0.004881315
19	0x3bcdbbe3	0.0062785014
20	0x3b9441c4	0.0045244414
21	0x3c9331b8	0.017968044
22	0x37a910c4	2.0154177e-05
23	0x3a809c83	0.0009812269
24	0x3c492e15	0.012279053
25	0x3c77b661	0.015119166
26	0x3bef2526	0.0072981296
27	0xbb852825	-0.0040636235
28	0xbbe6b3d2	-0.007040479
29	0xbb90200f	-0.004398353
30	0xbb56dc5f	-0.003278516
31	0xbc885a70	-0.016644686
32	0xbba28340	-0.004959494
33	0x3c09d5cd	0.0084127905
34	0x3b29fbc5	0.002593742
35	0x3ba20319	0.004944217
36	0xbbda88b7	-0.0066691297
37	0xbc24cf3d	-0.010059175
38	0x3ba99cbd	0.0051761554
39	0x3c66a6c5	0.014077847
40	0xbbc7a68e	-0.006092853
41	0x3b3278e1	0.0027232694
42	0x3b6c3e4c	0.0036047874
43	0xba1a1f3c	-0.0005879288
44	0xbbb89439	-0.005632904
45	0x3beff07f	0.0073223705
46	0x3bd62a00	0.0065357685
47	0x39c7c67a	0.00038104114
48	0x3c0a4080	0.00843823
49	0x3bcb501a	0.006204617
50	0x3c7c82ec	0.015412074
51	0xbc0ed7fb	-0.008718486
52	0xbc2c9694	-0.0105339475
53	0x3c069dab	0.008216302
54	0xbb3494fc	-0.0027554622
55	0x3c36c2d3	0.011154848
56	0xbbf8c9f8	-0.007592436
57	0xbc6ad28b	-0.014332424
58	0xbc078565	-0.00827155
59	0xbc1cd287	-0.009571678
60	0x3bf69fdc	0.007526381
61	0xbb172295	-0.0023061384
62	0x3c3ae045	0.011406009
63	0xbbb81b44	-0.0056184847

node_encoder.layers.4.running_mean f4 [64]
0	0xbe23440b	-0.15943925
1	0xbe8d163f	-0.27556035
2	0xbde8e3ae	-0.113715515
3	0xbb8bd7be	-0.004267662
4	0x3c470e43	0.012149396
5	0xbebe3ef5	-0.37157407
6	0x3e00159a	0.1250824
7	0x3cc27275	0.023736218
8	0x3d164fbc	0.036697134
9	0x3e312277	0.17298304
10	0xbe80cc1e	-0.2515573
11	0xbe2c0d70	-0.16802001
12	0x3cc2fc90	0.023802072
13	0xbdc49a0e	-0.09599696
14	0x3e9805b3	0.29691848
15	0x3dcb9c7e	0.09941958
16	0x3d74d4ab	0.05977313
17	0xbe08edbd	-0.1337194
18	0xbe36f6ec	-0.1786763
19	0x3e7d0ce5	0.2471195
20	0xbc8a6a64	-0.016896434
21	0xbe29e6d8	-0.16591966
22	0x3d84b217	0.064792804
23	0x3e47d7c0	0.19515896
24	0x3d17ee8c	0.03709273
25	0xbe46c94b	-0.19412725
26	0xbd279265	-0.040911097
27	0xbef432ab	-0.47694907
28	0x3deaccab	0.114648186
29	0x3ef19696	0.471852
30	0xbe7fecab	-0.24992625
31	0xbee64963	-0.44977865
32	0xbdcc9d13	-0.09990897
33	0xbf0b8afb	-0.5450894
34	0x3e2f3783	0.1711102
35	0x3e677e49	0.22606768
36	0x3e8fe494	0.2810408
37	0xbea6daf5	-0.32588926
38	0x3ee7db24	0.4528438
39	0xbe0ccb7a	-0.13749495
40	0x3e91f5c0	0.28507805
41	0xbe2d6339	-0.16932382
42	0xbdfb4aad	-0.12270103
43	0x3dcb019a	0.09912415
44	0xbc54e717	-0.012994549
45	0x3e02baf6	0.12766632
46	0x3e3feb8c	0.18742198
47	0xbec8787f	-0.3915443
48	0xbe117adf	-0.14207028
49	0xbdcf711b	-0.10128995
50	0xbe621c72	-0.22081164
51	0xbea1de9f	-0.3161516
52	0xbdf24def	-0.11831271
53	0xbe72015b	-0.2363333
54	0xbcc6589a	-0.02421217
55	0x3e045b71	0.12925507
56	0xbe4602e5	-0.19337042
57	0x3e9aad26	0.30210227
58	0x3dda2269	0.106510945
59	0x3e8bb162	0.2728377
60	0xbd003450	-0.03129989
61	0x3dcb78f1	0.09935177
62	0x3e05f041	0.13079931
63	0x3dfcf1ae	0.12350784

node_encoder.layers.4.running_var f4 [64]
0	0x3e057453	0.13032655
1	0x3dc2ea30	0.09517324
2	0x3db554b4	0.088540465
3	0x3de6788a	0.1125346
4	0x3dbd28f3	0.09236326
5	0x3d077226	0.033067845
6	0x3e841343	0.25795946
7	0x3e3f159a	0.18660584
8	0x3e4d578c	0.20052928
9	0x3db100c1	0.08642722
10	0x3d023caa	0.031796135
11	0x3db8237e	0.089911446
12	0x3e361c79	0.17784299
13	0x3e41c039	0.18920983
14	0x3d26adb7	0.04069301
15	0x3d737a56	0.05944284
16	0x3deeb99c	0.11656496
17	0x3e082e7c	0.13298982
18	0x3d4e97eb	0.05043785
19	0x3d73cee9	0.059523497
20	0x3da59068	0.08084184
21	0x3e770a27	0.24124967
22	0x3e5deb12	0.21671703
23	0x3cc2acf0	0.023764104
24	0x3e0d09ac	0.13773221
25	0x3e2047c0	0.1565237
26	0x3e54c9a1	0.2078004
27	0x3d568e21	0.05238164
28	0x3d19f058	0.037582725
29	0x3df94438	0.12171215
30	0x3d9def1c	0.07711622
31	0x3e5a80d4	0.21338207
32	0x3d61e835	0.05515309
33	0x3d80ab08	0.062826216
34	0x3d915afa	0.070974305
35	0x3decb737	0.11558383
36	0x3df3bc96	0.11901204
37	0x3ec094f4	0.37613642
38	0x3e3fd4c4	0.18733507
39	0x3d710e90	0.05885178
40	0x3dffcfe9	0.124908276
41	0x3e1da90b	0.15396516
42	0x3e06c151	0.13159682
43	0x3e740698	0.2383064
44	0x3dbcd3b9	0.092200704
45	0x3e185038	0.14874351
46	0x3dffeed9	0.124967285
47	0x3e2cdbd7	0.16880737
48	0x3e0062b7	0.12537657
49	0x3db89779	0.09013266
50	0x3dceeae8	0.101033986
51	0x3e078f87	0.13238345
52	0x3e56e171	0.20984437
53	0x3dc5e8de	0.096635565
54	0x3e4edce5	0.20201452
55	0x3e0e11dd	0.13874002
56	0x3e66a056	0.22522101
57	0x3d389d5c	0.045071945
58	0x3e033717	0.12813984
59	0x3dd677af	0.104720466
60	0x3dd7a1cf	0.105289094
61	0x3e50f507	0.2040597
62	0x3e3df439	0.18550195
63	0x3e1cfbd7	0.15330444

node_encoder.layers.6.weight f4 [32, 64]
0	0x3dbb9dbc	0.09160945
1	0xbde2efb9	-0.1108088
2	0xbd9fdb77	-0.078055315
3	0xbc602a5b	-0.013681973
4	0xbdf5d3e1	-0.12003303
5	0xbded4e57	-0.11587208
6	0xbdde8e57	-0.10866993
7	0x3dce942c	0.10086855
8	0x3c8f49a2	0.017491166
9	0xbd2d0579	-0.042241547
10	0xbb33b861	-0.002742313
11	0xbdeafaf5	-0.114736475
12	0xbdf4cd96	-0.11953275
13	0xbdbae773	-0.09126177
14	0xbe0536a7	-0.1300913
15	0x3d9fea70	0.07808387
16	0xbd400d77	-0.04688784
17	0xbd21ba50	-0.039484322
18	0xbde45f36	-0.111509725
19	0x3c3df3f5	0.011593808
20	0xbc878b7a	-0.016546
21	0xbdb9cd1f	-0.09072327
22	0x3d97bf38	0.07409519
23	0x3dcd85f1	0.10035313
24	0xbdc8d00a	-0.09805305
25	0x3d9c690b	0.07637223
26	0xbc829cb3	-0.01594386
27	0x3c6ff680	0.0146461725
28	0x3d7072d0	0.058703244
29	0xbcf024e8	-0.029314473
30	0x3dcee3d6	0.1010205
31	0x3d90c820	0.07069421
32	0xbd9fea35	-0.07808343
33	0xbd8ae3b8	-0.06781715
34	0xbe06ce18	-0.13164556
35	0x3d071d68	0.03298703
36	0xbdd8a06c	-0.10577473
37	0xbdc63955	-0.09678904
38	0xbdaa6f94	-0.08322063
39	0xbe026d3f	-0.12736987
40	0xbdd9ed5f	-0.10640978
41	0x3de8e606	0.113719985
42	0x3d97f5a0	0.07419896
43	0x3dd766a4	0.10517624
44	0xbd7bef39	-0.061507437
45	0xbd4b6b71	-0.04966301
46	0xbd48091b	-0.04883681
47	0xbc0906ed	-0.008363468
48	0xbdc67d95	-0.096919216
49	0x3c66283c	0.014047679
50	0xbda69d13	-0.08135428
51	0x3d0bfc78	0.03417632
52	0x3ddbf563	0.10740163
53	0x3c3eb380	0.011639476
54	0x3daed6f5	0.085370935
55	0xbdca8f64	-0.09890631
56	0xbcc3878b	-0.023868343
57	0xbdb7d58c	-0.08976278
58	0xbca44ee3	-0.020057147
59	0xbd5cb18e	-0.053880267
60	0xbd9c6565	-0.07636527
61	0xbdf03635	-0.11729089
62	0xbd3eb16b	-0.046555918
63	0x3c97f569	0.018549638
64	0xbc7f6f68	-0.015590526
65	0xbddeaedb	-0.10873195
66	0x3da351d1	0.079745896
67	0x3dab93e3	0.083778165
68	0xbd94fc73	-0.07274713
69	0x3c596f71	0.013271199
70	0x3d9cf64a	0.076641634
71	0xbdfd3d95	-0.123652615
72	0xbdd332fe	-0.1031246
73	0x3d86d735	0.06584016
74	0x3be843e9	0.0070881736
75	0x3d4d9c6a	0.050197996
76	0xbd6bde76	-0.057585202
77	0x3c9c051f	0.01904541
78	0x3d9d63f1	0.07685078
79	0xbcda6823	-0.026660984
80	0xbd397afe	-0.04528331
81	0xbe047271	-0.12934281
82	0xbc923ac6	-0.017850291
83	0x3d99da8f	0.0751239
84	0xbdfe4d11	-0.12417043
85	0xbb83189e	-0.0040007373
86	0x3dad9b46	0.08476882
87	0xbc961b19	-0.018323468
88	0xbd534334	-0.05157776
89	0xbd416c09	-0.04722217
90	0xbd495be7	-0.04915991
91	0x3d151e76	0.036406003
92	0xbdde1947	-0.10844665
93	0x3d2b55fa	0.04183004
94	0xbc82255f	-0.01588696
95	0xba38c6be	-0.0007048658
96	0xbb86111d	-0.0040913955
97	0x3d9c5141	0.076326855
98	0xbda226cd	-0.07917557
99	0xbe0041f0	-0.12525153
100	0xbdcb712b	-0.099336945
101	0xbdbb0c28	-0.09133178
102	0xbd86faba	-0.06590791
103	0x3de9f960	0.11424518
104	0xbdb11660	-0.08646846
105	0xbd924054	-0.07141176
106	0xbdc8a36f	-0.097967975
107	0xbd82ffa4	-0.06396416
108	0x3b4a6b9b	0.0030886892
109	0xbda838e6	-0.082139775
110	0xb704460c	-7.884122e-06
111	0x3d601759	0.054709766
112	0xbcc4d6d6	-0.024028223
113	0x3d5b8d1b	0.053601366
114	0x3d177e71	0.03698582
115	0x3dfdb59c	0.12388155
116	0xb9fa14b5	-0.00047699144
117	0x3dd6f026	0.104950234
118	0x3dc5faa0	0.096669436
119	0x3d7f4900	0.062325478
120	0x3dabbe04	0.08385852
121	0xbdbb4e65	-0.09145812
122	0xbd972ab0	-0.07381189
123	0x3d3c6b2f	0.046000656
124	0x3d38d4c9	0.045124803
125	0x3dcd2bce	0.10018121
126	0xbc9287cb	-0.017887017
127	0xbcebe8e1	-0.028797569
128	0x3daab08d	0.08334456
129	0x3c95eec9	0.018302338
130	0x3e004cd1	0.12529303
131	0xbd6feb36	-0.058573924
132	0xbd114b7f	-0.03547239
133	0xbbae604b	-0.0053215376
134	0x3d7a8dd4	0.061170414
135	0xbde40aa3	-0.11134841
136	0xbd394b27	-0.045237686
137	0x3dc2da64	0.09514311
138	0x3cfc6935	0.030811885
139	0x3da56b69	0.080771275
140	0xbd3313f2	-0.043720193
141	0xbd9fcafc	-0.07802388
142	0xbdb5ff94	-0.08886638
143	0xbd90dfeb	-0.07073959
144	0xbdb9b922	-0.090685144
145	0x3d844069	0.06457598
146	0x3d38631d	0.045016397
147	0xbd96094a	-0.073259905
148	0x3df3ccd8	0.11904305
149	0x3d1a19bd	0.037622202
150	0x3d23135f	0.039813396
151	0xbd67ddb8	-0.05660793
152	0x3da0394f	0.07823431
153	0xbdbaa284	-0.09113029
154	0x3dc70421	0.097175844
155	0xbd874ba1	-0.06606222
156	0x3d618beb	0.055065077
157	0xbd570cc8	-0.052502424
158	0x3da05024	0.078277856
159	0xbdd5eb69	-0.104452915
160	0xbcc35cd8	-0.023847982
161	0xbd305dd7	-0.043058243
162	0xbdaad0f9	-0.083406396
163	0xbd69afe1	-0.057052497
164	0xbd336710	-0.04379946
165	0x3bad351c	0.005285872
166	0x3dab6ed0	0.08370745
167	0xbc8332be	-0.016015407
168	0x3ded2798	0.115798175
169	0xbd598747	-0.053107526
170	0xbd7857e2	-0.060630687
171	0xbbf58517	-0.007492672
172	0xbc99dae5	-0.018781135
173	0x3d291b71	0.041285936
174	0x3ddbc74e	0.10731374
175	0x3d0d4841	0.034492735
176	0xbde079e6	-0.1096075
177	0xbd3f00ce	-0.046631627
178	0xbccb1f44	-0.024795182
179	0xbdd709ea	-0.10499938
180	0x3d3d84b9	0.046269152
181	0x3dd0ec26	0.10201292
182	0x3d7aa618	0.061193556
183	0xb9688d07	-0.00022177781
184	0xbc824502	-0.015902046
185	0xbd929bc4	-0.07158616
186	0xbc88804a	-0.016662735
187	0x3de385c2	0.11109497
188	0xbd937e3f	-0.07201814
189	0x3cb60eaa	0.02222379
190	0xbdad4d61	-0.084620245
191	0xbcf0975d	-0.02936905
192	0x3c9d853b	0.019228568
193	0xbdc01918	-0.09379786
194	0x3d1f28a6	0.038857125
195	0xbdd01842	-0.10160877
196	0xbd3ca891	-0.046059195
197	0x3dba7be0	0.091056585
198	0x3dff2f79	0.124602266
199	0xbaf00aa2	-0.0018313716
200	0xbdbf3bbe	-0.09337567
201	0xbdbe9a16	-0.09306733
202	0xbce1e465	-0.027574727
203	0xbd908e79	-0.070584245
204	0x3dc37e8f	0.095456235
205	0xbdb29907	-0.08720594
206	0x3db18c2a	0.08669312
207	0x3c8abad1	0.016934784
208	0xbd264ce7	-0.040600684
209	0x3ddb9787	0.10722261
210	0x3d85bb69	0.06529886
211	0x3b0cc41c	0.0021479195
212	0xbd9be489	-0.07611949
213	0xbd3ef61a	-0.04662142
214	0x3d3d8905	0.04627325
215	0x3ddf6c94	0.109093815
216	0xbd3f7c7e	-0.046749584
217	0xbd1cff8a	-0.03832964
218	0xbdea12ed	-0.11429391
219	0x3da60978	0.08107275
220	0x3df98da8	0.12185222
221	0x3da23fa5	0.079222955
222	0xbda248e3	-0.07924058
223	0x3d9aee0f	0.07564937
224	0xbd335214	-0.043779448
225	0x3d86f17f	0.065890305
226	0x3d8c30fc	0.068452805
227	0xbdc40487	-0.09571176
228	0x3d09dcb8	0.03365776
229	0x3d5bc04d	0.05365019
230	0xbd85ca43	-0.06532719
231	0x3dcfe248	0.101505816
232	0x3dba8882	0.09108068
233	0x3de72598	0.11286467
234	0x3bd4597f	0.0064803953
235	0xbd8abf67	-0.06774788
236	0xbd809340	-0.06278086
237	0x3d514825	0.051094193
238	0xbce0e405	-0.027452478
239	0x3dba0c98	0.09084433
240	0x3ddf20d2	0.10894932
241	0x3c2f8a4e	0.010714127
242	0xbde44ef2	-0.1114787
243	0x3d3f5b01	0.046717647
244	0x3de22c2c	0.11043581
245	0xbcee8214	-0.02911476
246	0xbd96100c	-0.073272794
247	0xbcebdc82	-0.02879167
248	0x3c3b72e8	0.01144097
249	0xbdc805f6	-0.09766762
250	0x3d717c15	0.058956224
251	0x3d674c1c	0.056469068
252	0xbd1d37f0	-0.038383424
253	0xbd15a779	-0.036536667
254	0xbd6444d3	-0.0557297
255	0x3dda05ad	0.10645614

node_encoder.layers.6.bias f4 [32]
0	0x3cd93229	0.026513176
1	0x3c3907ee	0.0112933945
2	0x3ca465eb	0.02006813
3	0x3a9f9488	0.0012175003
4	0xbd3aaec8	-0.04557684
5	0x37bbff2d	2.2410963e-05
6	0x3d7466cd	0.05966835
7	0x3d5db3cc	0.054126546
8	0xbcbd3391	-0.023095878
9	0x3d0ad3a6	0.03389325
10	0x3c1d5467	0.009602643
11	0x3a0aed3d	0.00052996335
12	0x3c994f13	0.018714463
13	0xb912b78d	-0.00013992023
14	0x3a1a4b9f	0.0005885902
15	0xbcf7dd04	-0.030256756
16	0xba1cfe7d	-0.00059888494
17	0x3d8a5712	0.067548886
18	0x3cd86969	0.026417451
19	0xbd42aa8b	-0.047525924
20	0x39179aa5	0.00014458092
21	0x3ce7b84d	0.028286124
22	0xbbfe9f23	-0.0077704354
23	0xba1d85ce	-0.0006009013
24	0x3c66bba6	0.014082825
25	0x3d520f53	0.051284146
26	0x3d71fa56	0.05907663
27	0xbd1a9808	-0.037742645
28	0xbd81798f	-0.063220136
29	0x3d1366f5	0.03598686
30	0x39609362	0.00021417209
31	0x3d6fdf81	0.05856276

edge_encoder.layers.0.weight f4 [64, 4]
0	0x3eb44424	0.35208237
1	0xbe4e4742	-0.2014437
2	0x3e0e421a	0.13892403
3	0x3e1feea2	0.15618375
4	0xbe2c5046	-0.16827497
5	0x3eeaf766	0.45891875
6	0x3d48f25d	0.04905926
7	0xbe1b5958	-0.151708
8	0xbeea019c	-0.45704353
9	0x3eceac30	0.40365744
10	0xbefa5635	-0.48893896
11	0x3ebca330	0.36843252
12	0xbe23e34b	-0.16004674
13	0xbdbaef54	-0.091276795
14	0x3da9da85	0.082936324
15	0x3ef2fb38	0.4745729
16	0xbe9e1e19	-0.30882338
17	0xbeb14985	-0.34626403
18	0x3ea2198a	0.3166011
19	0xbe5c3421	-0.2150426
20	0xbe3c781f	-0.18405198
21	0x3e8f78ea	0.28021938
22	0xbe59bede	-0.21264216
23	0x3e937528	0.2880032
24	0xbe51819c	-0.20459598
25	0x3ec5390e	0.38520092
26	0x3ef9e3fe	0.48806757
27	0x3d5aaa58	0.05338511
28	0xbe1eba39	-0.15500726
29	0x3e89ced1	0.269156
30	0x3e1adc5a	0.1512312
31	0x3bcaa60c	0.006184345
32	0x3ed85ed6	0.42259854
33	0xbc88793f	-0.016659377
34	0x3e45cf50	0.19317365
35	0xbe013e24	-0.12621361
36	0xbda95090	-0.08267319
37	0xbcfa82f4	-0.030580021
38	0x3d2bd16d	0.04194777
39	0x3e6250e0	0.22101164
40	0x3ec0019e	0.37501234
41	0x3e95b15c	0.29236877
42	0xbe59a457	-0.21254097
43	0x3ed63c04	0.41842663
44	0x3ea1f8be	0.31635088
45	0x3e4582c8	0.1928817
46	0x3d7102f9	0.058840726
47	0xbe857b15	-0.26070467
48	0xbe9ed58f	-0.31022307
49	0x3c791090	0.015201703
50	0xbeb606bd	-0.35552016
51	0x3e273d49	0.16331972
52	0xbee952cc	-0.45570982
53	0xbee314cf	-0.44351813
54	0xbe602c5c	-0.21891922
55	0x3e87a0c8	0.26489854
56	0x3ecf2a67	0.40462038
57	0xbed6e9cc	-0.41975248
58	0xbe9c6614	-0.3054663
59	0x3dc3a7c2	0.09553482
60	0xbda962cb	-0.082707964
61	0xbecede92	-0.40404183
62	0x3e13e23f	0.14441775
63	0xbec5be62	-0.38621813
64	0x3c4d906c	0.01254664
65	0x3e536288	0.20643055
66	0x3ee65696	0.44987935
67	0xbed07ddb	-0.4072102
68	0x3eb69c8f	0.3566632
69	0x3d886d48	0.06661469
70	0x3ee2cbe9	0.44296196
71	0x3eeda796	0.4641692
72	0xbdd935f0	-0.10605991
73	0xbda574d8	-0.08078927
74	0xbe057882	-0.13034251
75	0x3ec392dd	0.38197985
76	0xbe5d56a2	-0.21615079
77	0x3ea99e5b	0.33128628
78	0x3e53664d	0.20644493
79	0x3ee77177	0.45203754
80	0x3eb6654f	0.35624167
81	0x3ec739b5	0.38911214
82	0xbed15cdc	-0.4089116
83	0xbe7634c8	-0.24043572
84	0xbeb637f0	-0.35589552
85	0x3e6e75bf	0.23287104
86	0x3dd76b87	0.10518556
87	0x3e3d97ab	0.18514888
88	0x3e47c48a	0.19508567
89	0x3cf36a9a	0.029713918
90	0x3e3adbe1	0.1824794
91	0xbe8c5a7e	-0.2741279
92	0x3ea4757e	0.3212089
93	0xbedfe2e0	-0.4372778
94	0xbee7d70f	-0.45281264
95	0x3e1c405c	0.15258926
96	0x3eeec4f6	0.46634644
97	0xbe300329	-0.17188706
98	0x3eeff1ef	0.46864268
99	0xbe2fe4d2	-0.17177132
100	0xbec13254	-0.3773371
101	0xbda71c4b	-0.08159693
102	0x3e8d7a6a	0.27632457
103	0xbe71c81e	-0.23611495
104	0x3eeecc61	0.46640304
105	0xbe6d7965	-0.2319084
106	0xbe6066bc	-0.2191419
107	0xbe4f0cb2	-0.20219687
108	0xbec63acb	-0.3871673
109	0x3ee8daa8	0.4547932
110	0xbe90f3e3	-0.2831107
111	0xbe63ebd8	-0.22257936
112	0xbe101abd	-0.140727
113	0x3ed05f3e	0.40697664
114	0x3e81b404	0.25332654
115	0x3e40bcae	0.18821976
116	0xbe11454a	-0.14186588
117	0x3e77d23d	0.24201293
118	0x3daedf3c	0.08538672
119	0x3ecc9b95	0.3996245
120	0x3df033e5	0.11728648
121	0x3ebe2d68	0.37144017
122	0x3eab4d33	0.33457336
123	0x3da76e55	0.08175341
124	0xbef31370	-0.47475767
125	0x3de6baf4	0.11266127
126	0xbebea719	-0.3723686
127	0x3d97a025	0.07403592
128	0xbd402748	-0.04691246
129	0x3ec27b9f	0.3798494
130	0xbebe20ca	-0.3713439
131	0xbec8d60c	-0.39225805
132	0x3e556911	0.20840861
133	0x3eb03a3e	0.34419435
134	0xbde6f6af	-0.1127752
135	0x3e0ae117	0.13562427
136	0x3ecd1012	0.40051323
137	0x3d892959	0.066973396
138	0xbe0d7e00	-0.13817596
139	0x3e91854e	0.28422016
140	0x3eeb72a7	0.4598591
141	0xbdbbe393	-0.09174266
142	0x3ea72653	0.32646427
143	0x3c50a916	0.012735626
144	0xbdaedc2b	-0.085380875
145	0xbd4dc535	-0.0502369
146	0xbef9feb7	-0.48827145
147	0x3e62087f	0.22073554
148	0xbe879a8e	-0.26485103
149	0xbedee386	-0.43532962
150	0xbd82aea1	-0.06380964
151	0xbe3af51f	-0.18257569
152	0xbe9acfdf	-0.30236718
153	0xbde2495e	-0.1104915
154	0xbd665213	-0.056230616
155	0x3e20768c	0.15670222
156	0x3d8aca56	0.06776874
157	0xbd677d9d	-0.05651628
158	0x3de4c513	0.111704014
159	0xbea6578b	-0.32488665
160	0x3edcb4fc	0.4310683
161	0x3e69de7f	0.22838782
162	0x3e9ddecb	0.3083404
163	0xbed6739f	-0.41885087
164	0x3eabd5e7	0.33561632
165	0x3dae17a2	0.08500601
166	0xbef651fe	-0.4810943
167	0x3ee94772	0.4556232
168	0xbc0b5915	-0.0085051255
169	0x3ddf926b	0.10916599
170	0x3ec742a9	0.38918045
171	0x3ea91a84	0.33028042
172	0x3ee14cd9	0.44003943
173	0xbeeda6d5	-0.46416345
174	0x3ef9a367	0.4875748
175	0x3dd301cd	0.10303078
176	0x3c93f14d	0.018059397
177	0xbece8bd3	-0.40341052
178	0xbe82059a	-0.253949
179	0x3eebc3f3	0.46047935
180	0x3ec48697	0.38383934
181	0x3ec20421	0.37893775
182	0xbd10579f	-0.035239812
183	0xbe8772c7	-0.26454756
184	0x3de0b45d	0.109719016
185	0xbe6c0e02	-0.23052219
186	0xbea9ed42	-0.33188826
187	0x3e248b27	0.16068707
188	0x3ec1be88	0.37840676
189	0xbec7d5a3	-0.3903018
190	0xbee06878	-0.43829703
191	0x3d8be9a1	0.068316706
192	0xbe3cd2fa	-0.18439856
193	0xbe844bc9	-0.2583907
194	0xbdcbd795	-0.099532284
195	0xbce48574	-0.027895667
196	0xbe150b1f	-0.14555024
197	0x3eb3f169	0.3514512
198	0x3e8f0aea	0.27938014
199	0x3e128cef	0.14311574
200	0xbe25b40d	-0.16181965
201	0xbcff52d5	-0.031167427
202	0x3ea2be61	0.31785873
203	0x3d12e5ca	0.035863675
204	0xbef705e9	-0.48246697
205	0x3d824404	0.06360629
206	0x3e84da01	0.25947574
207	0xbdf7a68e	-0.12092315
208	0xbdd69b4b	-0.104788385
209	0xbd9c4328	-0.076299965
210	0x3e95793d	0.2919406
211	0x3ec41fc0	0.38305473
212	0xbec93fc9	-0.39306477
213	0x3ea77adf	0.3271093
214	0x3e4f8fc6	0.20269689
215	0x3e28b645	0.1647578
216	0xbe9870ce	-0.29773563
217	0xbe8faaeb	-0.28060088
218	0x3ef6a9c0	0.48176384
219	0x3dd6d0cb	0.10489043
220	0xbdd97509	-0.10618026
221	0xbdc4f117	-0.09616297
222	0x3ead6424	0.33865464
223	0xbddc5750	-0.10758841
224	0x3eaec3f9	0.3413389
225	0xbe07cab8	-0.13260925
226	0x3dece464	0.115669996
227	0x3de12109	0.10992629
228	0xbe83ee94	-0.25767958
229	0x3c804b2d	0.015660847
230	0x3dc788f2	0.09742917
231	0xbef400a4	-0.4765674
232	0xbdbf7f49	-0.093504496
233	0x3cf8f9f9	0.030392634
234	0x3ed33346	0.41250056
235	0x3dcc7db4	0.099849135
236	0xbeda9b1c	-0.42696464
237	0xbe202a17	-0.15641056
238	0x3ef7f9f2	0.4843288
239	0xbda2fe56	-0.07958667
240	0x3ebf6f04	0.37389386
241	0x3d3b642d	0.045749832
242	0x3ea8f793	0.33001384
243	0xbe4ca327	-0.19984113
244	0x3ef83d80	0.4848442
245	0x3dd833a0	0.10556722
246	0xbdde1552	-0.1084391
247	0x3eb842ab	0.35988364
248	0x3e767873	0.24069385
249	0xbeb15f86	-0.3464319
250	0xbcc45dd4	-0.023970522
251	0x3eac0676	0.3359868
252	0x3dfd545f	0.12369608
253	0xbe1907c8	-0.14944375
254	0xbeab6e3a	-0.33482534
255	0xbeabe89b	-0.335759

edge_encoder.layers.0.bias f4 [64]
0	0x3e614fce	0.220031
1	0x3e2ce9aa	0.16886011
2	0xbec4c889	-0.38434246
3	0xbd48e506	-0.04904654
4	0x3d92859f	0.071543925
5	0xbec46f68	-0.38366246
6	0x3ebe92d5	0.372214
7	0xbbfa437e	-0.00763744
8	0xbe158e37	-0.14605032
9	0x3c171f74	0.009223808
10	0x3dfde83d	0.123978116
11	0x3d6924e4	0.056919947
12	0x3ed4a9a4	0.41535676
13	0x3e64e6bd	0.22353645
14	0xbb968fe7	-0.004594791
15	0x3d07982f	0.033104118
16	0x3d880467	0.06641465
17	0xbe10b7fa	-0.14132681
18	0xbebd51e2	-0.36976534
19	0xbbf72d28	-0.007543225
20	0xbe08cf4d	-0.13360329
21	0xbed3b7ad	-0.4135107
22	0x3df940e2	0.121705785
23	0xbe1c499d	-0.15262456
24	0x3ed6fb11	0.41988423
25	0x3dfa44cb	0.122201525
26	0x3e1f7558	0.15572107
27	0x3db8499a	0.089984134
28	0x3e0d62b5	0.13807185
29	0x3e861d15	0.26194063
30	0x3e9e23ee	0.30886787
31	0x3aae400a	0.0013294232
32	0xbdb06621	-0.086132295
33	0x3da40657	0.08009022
34	0xbe2c4260	-0.16822195
35	0x3a8cf4d4	0.0010754117
36	0x3db8ccd2	0.090234414
37	0x3e2a0c48	0.16606247
38	0xbed97fa5	-0.42480198
39	0x3e0bfc0e	0.1367037
40	0xbe0bf783	-0.13668637
41	0xbe966d9e	-0.29380506
42	0xbe1f7678	-0.15572536
43	0x38894af9	6.546634e-05
44	0x3e4124f7	0.18861757
45	0xbec5ee75	-0.3865849
46	0x3da4b4bb	0.08042284
47	0x3ec89333	0.39174804
48	0xbe65edd6	-0.22454008
49	0x3d84c02c	0.064819664
50	0xbe136f80	-0.14398003
51	0x3d8b7576	0.06809513
52	0x3e2311a8	0.15924704
53	0xbe7fe052	-0.24987915
54	0x3d851411	0.06497968
55	0x3edee48e	0.43533748
56	0xba70871a	-0.0009175405
57	0xbe97d26c	-0.29652727
58	0x36c81deb	5.9639474e-06
59	0x3d65e864	0.056129828
60	0x3dc89c79	0.0979547
61	0x3a37c9d0	0.00070109684
62	0xbd59ff82	-0.053222187
63	0xbe438bf9	-0.19096364

edge_encoder.layers.1.weight f4 [64]
0	0x3f7c6d7f	0.9860458
1	0x3f7b6b17	0.9821028
2	0x3f7de49d	0.9917696
3	0x3f80254d	1.0011383
4	0x3f7d7ce0	0.9901867
5	0x3f8048f6	1.0022266
6	0x3f7c4a9c	0.98551345
7	0x3f8026d1	1.0011846
8	0x3f7fbe08	0.9989934
9	0x3f7bf9d4	0.9842808
10	0x3f8081a3	1.0039562
11	0x3f7d65e2	0.98983586
12	0x3f7b123f	0.98074716
13	0x3f7a7bd5	0.978452
14	0x3f7d2182	0.98879254
15	0x3f7d2d81	0.9889756
16	0x3f7afa04	0.98037744
17	0x3f7d8a28	0.99038935
18	0x3f7a9938	0.97890043
19	0x3f7e1877	0.9925608
20	0x3f7c04f9	0.9844509
21	0x3f7bc26c	0.9834354
22	0x3f7c852f	0.9864072
23	0x3f7ca15c	0.98683715
24	0x3f7ce618	0.98788595
25	0x3f7e3179	0.9929424
26	0x3f7b923d	0.98270017
27	0x3f801718	1.0007048
28	0x3f7ce2ad	0.9878338
29	0x3f7c6c8b	0.98603123
30	0x3f7da8b7	0.99085563
31	0x3f7d0679	0.98838
32	0x3f801d56	1.0008953
33	0x3f7d0f9e	0.98851955
34	0x3f7c4984	0.98549676
35	0x3f7d6cf5	0.9899438
36	0x3f7d7e06	0.9902042
37	0x3f7c107e	0.98462665
38	0x3f7c94f2	0.9866477
39	0x3f7cf0e0	0.98805046
40	0x3f7c4eb4	0.9855759
41	0x3f7deccc	0.9918945
42	0x3f7dfba4	0.992121
43	0x3f7f45b2	0.9971572
44	0x3f7f5d57	0.997518
45	0x3f7cd350	0.9875994
46	0x3f801902	1.0007632
47	0x3f7c6a7a	0.9859997
48	0x3f7b1f87	0.9809498
49	0x3f7c4539	0.98543125
50	0x3f7e6dae	0.9938611
51	0x3f7b9279	0.98270375
52	0x3f79f35d	0.9763697
53	0x3f7dea61	0.9918576
54	0x3f803117	1.0014981
55	0x3f7e95aa	0.9944712
56	0x3f7ad97f	0.9798812
57	0x3f805ccc	1.0028319
58	0x3f7e574f	0.9935197
59	0x3f7e4a72	0.99332345
60	0x3f7f89be	0.9981955
61	0x3f805072	1.002455
62	0x3f7bc546	0.9834789
63	0x3f7fbcc2	0.99897397

edge_encoder.layers.1.bias f4 [64]
0	0xbba08ace	-0.0048993593
1	0xbba70d2a	-0.005098005
2	0xbbbd8f81	-0.0057849293
3	0x3bbfb403	0.0058503165
4	0x3a1a5b81	0.0005888269
5	0x3c0380ff	0.0080263605
6	0xbc1c5e81	-0.009544016
7	0x3bebf61d	0.00720097
8	0x3b67101b	0.0035257402
9	0x3b3e9220	0.0029078797
10	0x3c0761b4	0.00826304
11	0xbb0a2410	-0.0021078624
12	0xbc06f47e	-0.008237002
13	0xbc492b4a	-0.012278387
14	0xbc1918e4	-0.009344313
15	0xbbc10f5b	-0.005891723
16	0xbc79b197	-0.015240095
17	0xbbdb4ac2	-0.0066922614
18	0xbc935f8f	-0.017989902
19	0xbb670152	-0.003524859
20	0xbbd95f2c	-0.00663366
21	0xbc35002c	-0.011047404
22	0xbbc12f0c	-0.005895501
23	0xbbc4b1af	-0.006002627
24	0xbba189b7	-0.004929747
25	0xbafa3e6e	-0.0019092092
26	0xbaafbd62	-0.0013407881
27	0x3be855da	0.0070903124
28	0xbb1c8636	-0.0023883707
29	0xbbe2b955	-0.006919066
30	0xbba76731	-0.005108737
31	0xbbe419f0	-0.0069611
32	0x3b7bcb79	0.003842084
33	0xbb87fa50	-0.0041497126
34	0xbc1ace68	-0.009448625
35	0xbc016886	-0.0078984555
36	0xbc0b3055	-0.00849541
37	0xbc8fc224	-0.017548628
38	0xb983a53b	-0.00025109373
39	0xbc19075d	-0.009340134
40	0xbbdfa9db	-0.0068256683
41	0xbae131bc	-0.001718096
42	0xbba23c7a	-0.004951057
43	0x3bb1d42b	0.0054269037
44	0x3b6c1a62	0.0036026468
45	0xbc0e3cfe	-0.008681534
46	0x3b9bf4dc	0.004759414
47	0xbbfabcf3	-0.007651919
48	0xbc3eb9ec	-0.011641007
49	0xbc2bd5fe	-0.010488031
50	0xbad3a8cc	-0.0016148328
51	0xbc3e0655	-0.011598189
52	0xbc8aa861	-0.016925992
53	0xbbb57560	-0.005537674
54	0x3c08c029	0.008346596
55	0xbb734f81	-0.0037126245
56	0xbc031351	-0.008000211
57	0x3c2f5526	0.010701453
58	0xbb54dae2	-0.0032479097
59	0x399c0830	0.0002976074
60	0x3ab9ffbf	0.0014190598
61	0x3bcdef7a	0.0062846513
62	0xbc3fada7	-0.011699117
63	0x3b031dda	0.0020006807

edge_encoder.layers.1.running_mean f4 [64]
0	0x3e6d93d6	0.23200926
1	0x3e25c6b0	0.16189075
2	0xbebdec97	-0.37094566
3	0xbd0458f8	-0.03231141
4	0x3d838e42	0.06423618
5	0xbec03dbf	-0.3754711
6	0x3ebd7619	0.37004164
7	0xbc60e507	-0.013726479
8	0xbe20d8d6	-0.15707716
9	0x3caac0ee	0.02084395
10	0x3e173776	0.1476725
11	0x3d42f945	0.047601003
12	0x3edc6b52	0.4305063
13	0x3e7a8620	0.24465227
14	0x3bb0e3bf	0.005398243
15	0x3ca8816a	0.020569522
16	0x3d39f7c5	0.045402307
17	0xbe04d518	-0.12971914
18	0xbeb60578	-0.35551047
19	0x3b9ef51c	0.0048509967
20	0xbe15902e	-0.14605781
21	0xbed3ceca	-0.41368705
22	0x3de5024e	0.1118208
23	0xbe1018a0	-0.14071894
24	0x3ed3cfe7	0.41369554
25	0x3de65c22	0.11248042
26	0x3e2016f6	0.15633759
27	0x3da9da8a	0.08293636
28	0x3e13bffe	0.14428708
29	0x3e8fcfa6	0.2808811
30	0x3e9ef3f1	0.31045488
31	0x3beb15bc	0.007174222
32	0xbdd99632	-0.106243506
33	0x3db68e99	0.08913917
34	0xbe21bf93	-0.15795736
35	0xb739095e	-1.102904e-05
36	0x3de10851	0.10987914
37	0x3e29c5b1	0.1657932
38	0xbed7d85c	-0.42157257
39	0x3e00eeff	0.1259117
40	0xbe27d5cd	-0.16390152
41	0xbe8b7cc0	-0.27243614
42	0xbe1a548d	-0.15071316
43	0x3b54dd38	0.003248049
44	0x3e60ac95	0.21940835
45	0xbecf220e	-0.4045567
46	0x3dc75cfa	0.09734531
47	0x3ed1010f	0.4082112
48	0xbe68e378	-0.22743022
49	0x3d8cbfef	0.06872546
50	0xbe19f3f1	-0.15034463
51	0x3d7e2546	0.062047265
52	0x3e35c002	0.17749026
53	0xbe816666	-0.25273436
54	0x3d8e26d9	0.06941003
55	0x3edd0d47	0.43174192
56	0x3ba6288d	0.005070752
57	0xbea5c93c	-0.32380092
58	0xba6373ae	-0.00086766004
59	0x3d512e37	0.051069465
60	0x3db7d81b	0.08976766
61	0x3c8e9c6f	0.017408578
62	0xbd1db3b4	-0.038501456
63	0xbe51bebd	-0.20482917
