gnn/gnn_outputs/checkpoint_epoch_90.pt (torch, 972380 bytes, 208 tensors)

node_encoder.layers.0.weight f4 [64, 3]
00000000: 11f3 e43e 5820 f23e 18dc 0fbe 6ca0 093f
00000010: 2716 fbbd 6726 d73d 32f0 89be a52f b33e
00000020: 56b2 033f ee37 d3be a698 033f 21f7 bd3d
00000030: 2f42 dd3e f6c8 8e3d 7adb 8b3e 164b b6bd
00000040: 0171 df3e 91be bf3d 0405 91be b685 1b3e
00000050: 5704 7bbe fce7 83bd a564 6abe 8bd0 c63e
00000060: c264 efbe f6c0 80be 80a5 24be 39eb abbe
00000070: 8421 6b3d 5990 14bf 9068 043f ac53 fbbe
00000080: f173 e63e 3728 cc3d b8c0 33be 4754 ba3e
00000090: 9610 af3d 5cff f03e c6ac 723d 9ab7 3bbe
000000a0: fb89 1c3e 21f2 24be a2c2 763e f5d2 fb3e
000000b0: d289 b33e 8ef7 6fbe f9e9 b03e 8542 d33d
000000c0: 3cb0 963e 3c1c b0be 4494 14bf a333 61be
000000d0: db4c ebbe 2152 ec3e a977 253e 2161 733e
000000e0: 5e6f 483e bc55 81bc 1b0c ec3e 2610 cdbe
000000f0: e353 fa3c 3ffc ccbe 53e0 2f3e c81f 49be
00000100: 6a95 333e 5264 fbbd e047 f53e 2725 b2be
00000110: 778a aebe 17b4 b6be 2c85 013f 4891 403e
00000120: 32e5 0c3f 96d8 f2be 1ead 13bf 927d e6be
00000130: a75c cbbe 78c1 613e c4c4 4e3e ffe1 f93e
00000140: 336b 94be 8ce6 c0be 851c a43e 4fdb 69be
00000150: 5f13 b33e ef80 15be 82c2 a53e e169 efbe
00000160: 2ebc 8fbe 85bf 363e 592a fe3d 1096 0fbe
00000170: fc72 b33e 157c c43e 802c dabe df08 9cbe
00000180: e270 073f 707f 52be fa25 4cbe a21a 0dbf
00000190: a681 acbe 7947 113e 5a9c b2bd c69a d0be
000001a0: a9ca 5d3b ef77 cbbe 6fe9 03bf 36f6 99be
000001b0: a702 02bf 325b bbbe 2dea 123f 8e1c e33d
000001c0: d768 433e 48e6 05bf 897f bfbe cd09 45be
000001d0: ccce bd3d a938 ffbe de3a 7ebe 706b b5be
000001e0: 490d fe3b 10f4 63be 7f36 08bd b73c d0be
000001f0: e16c ccbe 4e5a a6be 1f30 50be d7a6 eabe
00000200: b09e f53e 3de6 dfbd 432c f83e bbf3 453e
00000210: 1963 f9be ae16 d23e 71df 1fbe 10c6 67be
00000220: 3a63 f5be 6c42 12bf a28d 323e 2913 fbbd
00000230: 07cf 543e 9c56 f1be 703b da3e ef1d dabe
00000240: acd2 cfbd d93d ea3d 7678 9d3e 6ad7 f63e
00000250: dbc6 063f d974 e2be 160c 123e bc0b 86be
00000260: 49de 5cbd 6e86 dfbe 6fd0 043f a864 dcbe
00000270: a15c a13e 2421 443e 98e0 413e 17a7 9cbe
00000280: 38b3 073f 638a 003e a87d 9c3d 35c2 03bf
00000290: 7c95 703e baba a5bd 4de5 85be 2355 ff3e
000002a0: 9205 0b3e bba5 a2be 49d9 93be b31b 13bd
000002b0: cb76 a33e 8f54 19be 242d a3be 368e 4fbe
000002c0: e195 e3be eb00 453e 7f45 de3e 34c8 0ebf
000002d0: 7a1a 1a3e d501 913e 3bfc e53d 772a 58be
000002e0: c472 973e d8fb 9d3e d938 603e 7309 cbbd
000002f0: 4050 1abe e97d 883d a263 c2bd 8d1c 38be
0.44716695 0.472903 -0.14048803 0.5376041 -0.122600846 0.105053715 -0.26941067 0.34997287
0.51443994 -0.41253608 0.514048 0.09275652 0.43214557 0.06971924 0.27315885 -0.0890104
0.43640903 0.093625195 -0.2832414 0.15187725 -0.24513374 -0.06440732 -0.22889955 0.3883098
-0.4675656 -0.25147218 -0.16078758 -0.33577898 0.05740501 -0.5803276 0.5172205 -0.49087274
0.4501033 0.09968608 -0.17553985 0.36392424 0.085480854 0.47069824 0.0592468 -0.18331757
0.1528701 -0.1610799 0.24097684 0.49184385 0.35066086 -0.23434278 0.34553507 0.10315422
0.2943133 -0.3439654 -0.58038735 -0.21992354 -0.45957074 0.4615641 0.16158928 0.2376752
0.19573733 -0.015787952 0.46102986 -0.40051383 0.030557578 -0.40036198 0.17175417 -0.1964103
0.17537466 -0.12274994 0.479064 -0.3479397 -0.34090015 -0.35684273 0.5059383 0.1880542
0.55037224 -0.47430867 -0.5768603 -0.45017678 -0.39719126 0.22046459 0.20192248 0.48805234
-0.28988037 -0.37675893 0.3205301 -0.22837566 0.34975716 -0.14599966 0.3237496 -0.46760467
-0.28073257 0.17846496 0.12410421 -0.14022088 0.35048664 0.38375917 -0.42612076 -0.30475518
0.5290662 -0.20556426 -0.19936362 -0.55118763 -0.33692664 0.14187421 -0.08721228 -0.40743083
0.0033842719 -0.3973994 -0.51528066 -0.30070657 -0.507853 -0.36593014 0.57388574 0.11089431
0.19082962 -0.52304506 -0.3740199 -0.1924202 0.09267959 -0.49847916 -0.24827144 -0.3543353
0.0077530486 -0.22261071 -0.033255097 -0.40671322 -0.39926818 -0.32490772 -0.20330857 -0.45830414
0.4797263 -0.10932586 0.4847127 0.19331257 -0.48708418 0.41032928 -0.1561258 -0.22634149
-0.47927266 -0.571326 0.17436841 -0.12259514 0.207821 -0.4713639 0.42623472 -0.42600963
-0.10147604 0.11437578 0.30755967 0.48211223 0.5264718 -0.44229773 0.14262423 -0.26180828
-0.053922925 -0.4365725 0.51880544 -0.43045545 0.31515983 0.19153267 0.18933332 -0.3059623
0.5300784 0.1255279 0.076411545 -0.5146821 0.23494524 -0.08092256 -0.26151505 0.49869642
0.13576344 -0.31767067 -0.28876713 -0.035915088 0.3192657 -0.14973663 -0.31870377 -0.20269093
-0.44450286 0.19238631 0.43412396 -0.55774236 0.15049163 0.2832171 0.1122975 -0.21109949
0.29579747 0.30856204 0.21896686 -0.09913912 -0.15069675 0.066646405 -0.0949166 -0.17979641

node_encoder.layers.0.bias f4 [64]
00000000: 52f7 903e 9f81 d13e 707c f7ba 190b 57bd
00000010: 7060 12b7 441d 8739 d7b1 793d 94e1 a73d
00000020: 2fd9 dfbe 77b4 05be 7b6b cc3e 594c 113e
00000030: 166b 4eb9 4c5c 86be 2df7 88be b02b dcbe
00000040: c5af dabd 05de e73d b28d 903e 36c2 3a3e
00000050: 1bb2 d8be 22ef 85be ac59 adbc 8d3b f13e
00000060: f48f 813c 75b1 90bd 9726 1f3e 2b5f 0cbe
00000070: ea51 93be cb7e ab3e 26b8 36be f709 27bd
00000080: 914d f9be 35c1 993e c79f b33e d00d 033e
00000090: d2f0 a1be 0ffa f6be 21a2 c3be 3b20 b03e
000000a0: 735e 453e 683c cc3e f4be 5e3e 5d63 8a3d
000000b0: 7dc6 c5b7 1e79 b4be 58b3 d0be 6dcf e7be
000000c0: f8ab 1c3e 60ac 4bbe 8d39 28bd d9c1 7cbe
000000d0: 7372 03bd a9dd a3be 7321 95be 521f e13d
000000e0: f1a6 babd b995 8a3e 86f2 d4bd 6691 acbe
000000f0: 43cb f0bc 7213 48be 1a7b c4bd 4fc3 ecbe
0.2831369 0.40919206 -0.001888169 -0.052500818 -8.724732e-06 0.0002577101 0.060960617 0.081973225
-0.43720385 -0.13057123 0.3992575 0.1418928 -0.00019685584 -0.26242292 -0.2675108 -0.4300208
-0.10678057 0.11321644 0.28233105 0.18238148 -0.42323384 -0.26159006 -0.021160923 0.47115746
0.015815713 -0.07065097 0.15542065 -0.13708179 -0.28773433 0.33495173 -0.17843685 -0.040780988
-0.4869199 0.30030218 0.35082838 0.12798238 -0.31629044 -0.48237655 -0.38209632 0.3439959
0.19274311 0.39889836 0.2175253 0.06757233 -2.3576658e-05 -0.35248655 -0.40761828 -0.4527544
0.15299976 -0.19889975 -0.04107051 -0.24683322 -0.03209157 -0.3200505 -0.29127082 0.10992302
-0.09113873 0.27067354 -0.1039782 -0.3370468 -0.029393798 -0.19538668 -0.09593792 -0.4624276

node_encoder.layers.1.weight f4 [64]
00000000: 0bfe 803f e73f 7f3f 7997 7d3f f800 803f
00000010: fc25 7e3f cdad 803f dd06 7b3f 0576 803f
00000020: 3889 7e3f f20b 7e3f e429 7f3f 624d 803f
00000030: eb18 803f ae3a 823f 476e 7d3f cacc 7f3f
00000040: 8492 7b3f 9f47 7e3f 0ab4 7c3f 6d1b 803f
00000050: 7eab 803f 34f4 7c3f eb88 803f 816b 7e3f
00000060: 4cb1 803f 083b 813f 6019 803f 5b19 823f
00000070: d66e 7e3f 7575 803f 8e19 803f 45d1 803f
00000080: 6294 7f3f e1b3 803f 38d5 813f fd79 803f
00000090: b73b 813f 1d0b 813f 1bf8 7e3f 5e5d 7e3f
000000a0: 5c9f 803f 7469 7f3f 8b9d 803f d8b2 7f3f
000000b0: 1e65 7f3f 509d 7d3f 9583 803f dbb0 803f
000000c0: 4109 7f3f f630 7e3f a6d5 813f cbb6 813f
000000d0: 1030 7c3f be34 803f ff16 7e3f 61f6 7d3f
000000e0: d6d7 7b3f cfdd 7e3f 669a 7d3f d199 803f
000000f0: bbb9 7d3f 96ca 7c3f 38fc 7c3f cd31 7c3f
1.0077528 0.9970688 0.99059254 1.0000296 0.9927671 1.005304 0.9805735 1.0036017
0.9942813 0.9923698 0.99673295 1.0023615 1.0007604 1.0174158 0.98996395 0.9992186
0.9827044 0.99328035 0.9871222 1.000837 1.0052335 0.98810124 1.0041784 0.9938279
1.0054107 1.009614 1.0007744 1.0163988 0.9938787 1.0035845 1.0007799 1.0063864
0.9983579 1.0054895 1.0143194 1.0037228 1.0096349 1.0081517 0.9959733 0.9936122
1.0048633 0.99770284 1.0048078 0.9988227 0.9976367 0.99068165 1.0040156 1.0053972
0.99623495 0.9929346 1.0143325 1.0133909 0.9851084 1.0016096 0.9925384 0.9920407
0.98376215 0.99557203 0.9906372 1.0046941 0.9911153 0.9874662 0.98822355 0.9851349

node_encoder.layers.1.bias f4 [64]
00000000: 89fb d33a 3818 87bb 38e6 0bbc 3a67 923c
00000010: d653 89bc c466 173c 4f38 d7bc 5707 de3b
00000020: ce77 d7bc d129 a1bb eb08 bb3b 582d 91bb
00000030: a552 223b ddd2 243b a19c 4cbb e6db f83b
00000040: 2e82 a3bb 250e a33a 8662 1bbc e244 84bb
00000050: 10c3 12bc 5c53 febb aa8f e13a 4af1 103b
00000060: f292 d4b9 eea6 d6bb a94a 9f3c c84f 643c
00000070: 193a 10bc 7964 b2bb 96b6 a13b 6dc5 623b
00000080: 6522 59bb 28fb 36bc d334 93bb cc99 4bbb
00000090: 088d 103c 897e 0a3c 3201 a2bb 07d1 bb39
000000a0: bc62 e23b 6506 4fbc 5ad6 9ebb 914c 0b3c
000000b0: 2856 b73b 4510 223b 3682 c0ba 45fc 20bc
000000c0: 5992 583b 43dc 97bb fa75 1d3c b314 ba3c
000000d0: 69be 533b 3245 df3b 441e 2abc 7874 01bd
000000e0: cdc8 0fbc 2032 b3bb da89 25bc 1293 233c
000000f0: 05d6 9fbb 0a78 1b3c a974 eb39 1c34 60bc
0.0016172986 -0.00412276 -0.008538775 0.017871488 -0.016763609 0.00924081 -0.026271967 0.0067757773
-0.026302245 -0.004918315 0.00570785 -0.004430454 0.0024768498 0.0025150098 -0.0031221288 0.0075945733
-0.004989884 0.0012440128 -0.009483939 -0.004036532 -0.008957639 -0.007761402 0.0017208953 0.0022116476
-0.00040545274 -0.0065506613 0.01944478 0.013935037 -0.008802914 -0.005444106 0.004935096 0.0034602538
-0.0033132073 -0.011168279 -0.004492381 -0.0031067012 0.008822687 0.00845302 -0.00494399 0.00035823157
0.0069087427 -0.012635802 -0.00484733 0.008502142 0.0055949874 0.0024728936 -0.0014687243 -0.009825771
0.0033046214 -0.0046344115 0.009610647 0.022714948 0.0032309538 0.0068136686 -0.010383192 -0.031605214
-0.008775902 -0.005468622 -0.010103667 0.009983795 -0.004877808 0.009489069 0.00044909611 -0.013684299

node_encoder.layers.1.running_mean f4 [64]
00000000: 3eae 3d3f 8a94 2c3f a5f4 ac3e ccb9 be3d
00000010: 915c d23e 11dd 8a3e 2a02 f0bd 85de e33d
00000020: d6d6 6cbf 5634 13bf cfd3 1a3f 9338 8e3e
00000030: 1349 bb3e b91a b4be 56ae ad3e 96f9 94be
00000040: 35b9 efbe 1f48 31bd 3474 1e3f 4ee2 823e
00000050: 10df 11bf e3e7 a5be deff 26be 939f 323f
00000060: a35f 91be cdd9 e1be 523c d53e 57a3 84be
00000070: 2b69 00bd a3b0 533c 649a bbbc 086e 86be
00000080: 6330 e3be b6a7 f3bd d34a 753d 44b3 0cbf
00000090: 8b17 04bf 5bdc 14bf d357 27bf 6444 7fbe
000000a0: a760 3e3d 007d 65be 1755 a43d 0812 d33e
000000b0: 159a a9bd 107d 88bf 8ad3 93be 9f59 29bf
000000c0: 779b aa3e 5d40 153e 824f 22be 94c1 c3be
000000d0: f85d b13e f59e bebd 7d37 e7be da94 2b3e
000000e0: 90e3 bcbe 2c55 c03e dc26 21bf 3d85 85be
000000f0: d027 8f3e 69b0 013d 8701 febd 6c4f 15bf
0.74094 0.6741415 0.337804 0.09312782 0.41086248 0.27121785 -0.11719163 0.111264266
-0.92515314 -0.57501733 0.60479444 0.27777538 0.3657919 -0.35176638 0.3392207 -0.2909667
-0.4682099 -0.04328167 0.6189606 0.25563282 -0.5698099 -0.32403478 -0.16308543 0.6977474
-0.28393278 -0.4411148 0.41647583 -0.25905868 -0.031350296 0.012920531 -0.022900768 -0.26255822
-0.44372854 -0.11897223 0.05988581 -0.5496104 -0.51598424 -0.58148736 -0.65368384 -0.24928433
0.046478894 -0.22410965 0.08024042 0.41224694 -0.08281342 -1.0663166 -0.2887233 -0.66152376
0.33321735 0.14575334 -0.15850642 -0.38233626 0.34642005 -0.093076624 -0.45159522 0.16756001
-0.36892366 0.3756498 -0.6294992 -0.26078215 0.27960062 0.03166238 -0.12402635 -0.58324313

node_encoder.layers.1.running_var f4 [64]
00000000: 88c0 2e3d ef6a ba3c 23ef 363d 8395 0a3d
00000010: 3736 bf3c 03dc 983c f646 5c3c d064 af3c
00000020: a80a e63c cf6b 363d 5964 6a3d cbbb 8c3c
00000030: 17da b93c c0e5 db3b 2523 343d 825e 723c
00000040: d0aa 593d f93a 433d 0929 4d3c c265 133d
00000050: 7a91 8f3c acd9 d33b 7c9a 1c3d 9d54 0a3d
00000060: 525c 9b3d afcf 1f3d 4f20 133d 0978 b93c
00000070: 9a36 ac3c 6f18 f73c 9258 7f3c fd4c 103d
00000080: d0f0 de3c ae12 233d a053 8a3c a309 553d
00000090: ad86 913d 503d 0b3d e0c4 873c ee5e 293d
000000a0: 7693 9b3b cdf8 303d dd43 473d 77bd d63c
000000b0: 4962 ff3c 118b 843d 7486 fc3b 4177 423d
000000c0: 1976 483c 1c06 8e3d dda6 f43b 0869 583d
000000d0: 430d 863c 2da5 013d d09b f13c bbbc 093d
000000e0: d647 9f3c bb22 3c3c cba6 0e3d 053e 603d
000000f0: f302 403c e729 ac3c 84d3 d83b bd56 983b
0.04266408 0.022756068 0.044661652 0.03383399 0.023341281 0.018659597 0.013444653 0.021410376
0.028081253 0.044536408 0.057224605 0.01717939 0.022687001 0.006710738 0.04397883 0.01479304
0.053141415 0.047663663 0.012521991 0.035985716 0.017525423 0.0064651575 0.038233265 0.0337721
0.07585968 0.039016422 0.035919484 0.022640245 0.02102213 0.030163018 0.015585082 0.03522967
0.027214438 0.039812736 0.016885579 0.052011143 0.071057655 0.03399402 0.01657337 0.041350298
0.0047478033 0.043206025 0.048648704 0.02621339 0.031174796 0.06471837 0.0077064577 0.04747701
0.012235188 0.06934759 0.0074661807 0.05283454 0.016363746 0.031651665 0.029493243 0.033627253
0.019443434 0.01148289 0.034827035 0.054746646 0.011719453 0.021016074 0.0066170115 0.004649012

node_encoder.layers.3.weight f4 [64, 64]
00000000: babe 733d f828 9dbd 645b 563d f884 4d3d
00000010: 4da5 a53d b303 d1bd 0411 a73d 3368 8cbd
00000020: 94c8 2f3d 6bc5 ee3d 30a0 fabb c775 01bc
00000030: 3457 15bd 05c2 e2bd ff9f 4d3d 9cfd 05be
00000040: 057d b43d 68c4 a83d 991b dd3d bba2 04bd
00000050: a586 bbbd ea2f af3c 7c3c a53d d994 06be
00000060: 5bf6 8bbc 39cd abbd 59ae 89bc 5105 8cbd
00000070: cc34 62bd 8787 48bd 0288 01be 237d e93d
00000080: bdfa ef3d 548d e9bc 2b27 c8bb 265d 45bd
00000090: ab76 07be d23e e6bd 91bd 183d d3b5 90bd
000000a0: 6515 90bd d4d6 fcbb 98f4 50bd 9e20 41bd
000000b0: feac 13bb 5556 a2bc c63f 36bd 2e59 87bd
000000c0: 5048 e7bd 98bc cd3d 3a4a 1cbd 5264 e63c
000000d0: 592b 5dbd cd72 783b e601 033e 9941 403d
000000e0: b44f c8bd cfe3 393d 645f f73d 06ba 083d
000000f0: 3efb 963d 2fc4 e83d 4b95 efbb dedc 133d
00000100: 899e ccbd e149 9bbc 2685 cf3d 849a 803d
00000110: 2e7f 8cbd 5a2d c3bd 46f6 c2bd 5169 e0bd
00000120: 3336 c5bd 711b 16bd c3c9 bc3d d0ed 063d
00000130: deda c4bd cf9a e5bd 63dd 963d e152 b7bd
00000140: 1447 0abc db30 933d e278 37bd 00b6 c6bc
00000150: 04d0 b3ba 2213 30bd f543 60bd 6161 d9bd
00000160: 2a89 bdbd 3ac3 82bd 6ebc df3d 1ffc 96bd
00000170: f18c 99bd 5a77 053d 0fac 3e3d a155 9e3d
00000180: 199d d13d 9f4c 903d 5e58 ebbd 4ee6 8a3c
00000190: 54e7 b33d c75e a6bc b007 96bd 48d0 f53d
000001a0: 040a 1abd 3a2a 88bd 7c2b cebd db19 633c
000001b0: 3e7f 283d 4b57 063d 5a23 0c3d bfdf dabd
000001c0: 5079 cfbd 2302 1dbc 0220 fc3d ae31 743d
000001d0: c398 86bd 8ada 56bc be44 a9bd 34ab 3dbd
000001e0: 5442 f93c 3ba4 663d 0081 d53d c116 ffbd
000001f0: f19e b03d 43a1 a3bd 8afd 613d b0e8 e53d
00000200: 88e0 40bb 571f 013e eab9 f7bd 27ff 10bd
00000210: fd6e a93d 26c1 b6bc 790e 91bc 803e 72bd
00000220: 0672 ac3d 7178 8c3d f2bb 1c3d 7ad3 9dbd
00000230: d7a0 d2bd d345 ae3c 0abf 083d 7068 3cbd
00000240: 64b7 06bd 0ddd 9d3d 1dc5 1e3c 370d 443c
00000250: 9491 12bd bc3b d6bd a1a4 e0bd 9900 45bd
00000260: 4479 7fbd 88a8 fb3c 72c9 0ebd bccf 24bd
00000270: b88a fe3d 5760 123d 0ecf a83d 9c68 55bd
00000280: 1e6d 25bd 46b2 1d3d 3848 b8bd 49c0 adbd
00000290: 329f 6bbc 5930 2bbd 7eb7 cebd cc02 a63d
000002a0: cb60 c33d db4a a63c a137 edbc 1560 e4bd
000002b0: 2782 10bd 2e4e 153d 446a 653d 48f4 05bc
000002c0: ded5 7bbd 5ca9 8c3d 5ed8 c9bd 1454 b13d
000002d0: 7e39 32bd 0f70 473c 909d f1bc 4961 003c
000002e0: 02a3 15bd 581f c83d f177 883b af38 d03d
000002f0: 7200 ea3d 36df 9fbd f651 b3bd 61ff d33d
00000300: b897 b93d ba52 b2bd 95ea dabb dd4e 06be
00000310: 1eab c3bd 49b0 763c e9ef aa3c 4da2 f83c
00000320: 67fd 02bd 7493 d23d b4be cd3c 7404 8bbd
00000330: 683e 52bc 71c9 953c 2eab 473d 0d72 c3bd
00000340: 1d2c 303d b708 6ebd a806 c8bd e939 9fbd
00000350: 3af5 023e 1414 c23d 928c f43d 046f 893d
00000360: e382 cf3d b8b0 48bc e20b 9ebd 2066 4e3d
00000370: 340a 6dbd 097f a5bd 532a 0bbd 0a0b 183d
00000380: 3dd6 8c3d 7906 39bd bc4d 88bd d9aa a93c
00000390: 1225 90bd 817c bbbd 2770 8b3d 2cce bdbc
000003a0: b8d4 f83d b186 fd3d 26fa 303d 4f6f 243d
000003b0: cd47 8d3c 8fdf 793a 4439 1cbb fcef 22bc
000003c0: 1088 4a3d 62c8 dc3d e5c1 bbbc e518 83bd
000003d0: c747 cebc 400c 8cbd 9abd ea3c e843 c63d
000003e0: 19cd dd3d 4078 463d 0cbc c9bd 5319 9cbd
000003f0: 486d edbc 4161 92bc 6d85 3f3c f41e f4bd
0.059508063 -0.0767383 0.05233325 0.050175637 0.08088169 -0.10205784 0.08157542 -0.06855812
0.042915896 0.11658748 -0.0076484904 -0.007901615 -0.036460117 -0.110721625 0.050201412 -0.13085026
0.08812908 0.082405865 0.107962795 -0.032381754 -0.09156541 0.021385152 0.08068177 -0.13142718
-0.017085245 -0.083887525 -0.016806768 -0.068369515 -0.055226132 -0.048957374 -0.12649539 0.11400821
0.117177464 -0.028509773 -0.006108185 -0.048184536 -0.13228862 -0.11242451 0.03729016 -0.0706593
-0.07035331 -0.007716039 -0.051014513 -0.047150247 -0.0022533531 -0.019816557 -0.044494413 -0.066088066
-0.112930894 0.10045737 -0.038156725 0.028124008 -0.053996418 0.0037910223 0.12793693 0.04693756
-0.09780827 0.04538327 0.12078741 0.03338053 0.073721394 0.11365544 -0.0073114983 0.036099307
-0.09991176 -0.018956127 0.10132818 0.062794715 -0.06860195 -0.095301345 -0.09519629 -0.109575875
-0.09629478 -0.036647264 0.092181705 0.03294164 -0.09612058 -0.11211168 0.07366445 -0.08951355
-0.008439798 0.07187053 -0.044793017 -0.024256706 -0.001371861 -0.042986996 -0.05475231 -0.10614277
-0.092546776 -0.06384893 0.10924612 -0.07372307 -0.074975856 0.032584526 0.046550807 0.07731176
0.10235042 0.07045864 -0.11491464 0.016955521 0.08784357 -0.020308865 -0.07325685 0.12002617
-0.037607208 -0.06648679 -0.10066888 0.013861145 0.041136973 0.032798093 0.0342134 -0.106872074
-0.101305604 -0.009583029 0.123107925 0.05961769 -0.06572106 -0.013113627 -0.08265065 -0.04630585
0.030427136 0.056308966 0.104249954 -0.12455512 0.08624066 -0.079897426 0.055173434 0.11226022
-0.0029430706 0.12609611 -0.12096007 -0.035399582 0.082731225 -0.022308897 -0.017707096 -0.059141636
0.08420186 0.0685891 0.038265176 -0.077063516 -0.10284584 0.02127353 0.033385314 -0.045998037
-0.03288974 0.07708178 0.00969055 0.011966041 -0.035783365 -0.10460612 -0.109689005 -0.048096273
-0.062371507 0.03072001 -0.034860082 -0.040237173 0.12428802 0.035736408 0.082426175 -0.052101716
-0.040387265 0.038500093 -0.0899815 -0.08483941 -0.014381217 -0.041794155 -0.10093592 0.08106002
0.09539946 0.020299366 -0.02895719 -0.11151139 -0.035280373 0.03645151 0.056009546 -0.008175917
-0.061483257 0.0686824 -0.09855722 0.08658615 -0.04351186 0.012172713 -0.029494077 0.007835695
-0.03653241 0.09771603 0.0041646888 0.101670615 0.11425866 -0.07806246 -0.08755867 0.10351444
0.09062141 -0.08707185 -0.0066807964 -0.13116021 -0.095541224 0.015056678 0.020866351 0.030350829
-0.031979945 0.10282031 0.025115348 -0.06787959 -0.012832262 0.018284531 0.048747234 -0.09543238
0.04301082 -0.05811378 -0.097668946 -0.07774717 0.12788859 0.09476486 0.11940874 0.06710628
0.101323865 -0.012249164 -0.0771711 0.050390363 -0.05787106 -0.08080871 -0.03397591 0.037119903
0.068768 -0.04517219 -0.06655452 0.02071135 -0.070383206 -0.091546066 0.06808501 -0.0231696
0.12149948 0.12379206 0.04320731 0.040145215 0.017246151 0.0009531909 -0.0023837844 -0.009944912
0.049446166 0.107804075 -0.022919605 -0.06401233 -0.02518071 -0.06838274 0.028654862 0.09680921
0.10830135 0.048454523 -0.0985032 -0.07622018 -0.028982773 -0.01786864 0.011689526 -0.11919966

node_encoder.layers.3.bias f4 [64]
00000000: d3eb 8335 1ebb 0e3b b37d 88b8 d0ef aabc
00000010: 6752 5a39 aaff 1d3c 90a1 a5bb 3b59 68bc
00000020: f27d 8abc c05b 52bb b96d 0339 b514 9937
00000030: b537 9b36 8714 f538 933a 433c 954b 05b8
00000040: be81 12bc 67f1 f838 6119 1bbc 822c 133a
00000050: 19aa 2ebd 1a38 ca38 acef d0bc caa6 42b9
00000060: 5954 8d3c 7ff1 b8bc dd10 b3bb 0f0f ddbc
00000070: 7d46 1cb9 e241 6a39 ab15 9dbb 5898 2e3c
00000080: c840 ee39 cb7a 1dbd 3922 1b38 1992 70ba
00000090: eb51 aeb8 c34b ef3b 080a ccb6 c419 94bc
000000a0: 17af 9a3c 6f0c 22bd 1920 1e3a 1324 4bb9
000000b0: 9f27 153d 0ba6 3a3d 2fb2 26b9 52c4 21ba
000000c0: 8ec0 12bd e2cb 6eb9 61b4 0f3a 615b aab9
000000d0: 0a28 71bc 265e 8539 5ae9 9d3b 397c d43c
000000e0: 7f77 4ab8 5dd2 213d b163 2fbd 4b88 a739
000000f0: 3485 98b9 e9be 05b8 3d59 223b 9aa4 7cbc
9.828894e-07 0.002177901 -6.508399e-05 -0.020866305 0.00020820797 0.009643475 -0.00505466 -0.01418143
-0.016905759 -0.0032098144 0.00012534008 1.8248664e-05 4.625845e-06 0.00011686334 0.011915821 -3.1780062e-05
-0.008942066 0.00011870526 -0.0094665 0.0005614237 -0.042642687 9.64256e-05 -0.02550491 -0.00018563416
0.017252134 -0.022576092 -0.0054646567 -0.02698472 -0.00014903578 0.00022340522 -0.004793843 0.010656439
0.00045443163 -0.038447183 3.6986752e-05 -0.00091770437 -8.312225e-05 0.0073027327 -6.0808416e-06 -0.018078692
0.018882317 -0.03956264 0.00060320046 -0.00019373027 0.03641474 0.045568507 -0.00015897372 -0.00061709166
-0.035828166 -0.00022773401 0.00054818956 -0.0003249301 -0.014719019 0.00025437883 0.0048190774 0.02593814
-4.8271842e-05 0.03950726 -0.042819683 0.00031954268 -0.00029090943 -3.188747e-05 0.0024772428 -0.015420103

node_encoder.layers.4.weight f4 [64]
00000000: 6990 7c3f 062e 813f 12cc 7e3f c371 7f3f
00000010: cb7e 7f3f 151f 803f 8b7e 803f 8341 803f
00000020: e0e5 7f3f d2bd 7e3f da7e 7b3f 8c19 813f
00000030: 5043 7e3f ee88 7e3f 7847 803f f488 7c3f
00000040: c20f 803f afe6 803f 082f 7d3f 2328 7f3f
00000050: 96d1 803f fb0f 813f 671a 7f3f 1d1c 813f
00000060: 84d3 813f ca94 823f af82 803f 050f 813f
00000070: 819e 7b3f a418 7e3f 5c0d 7d3f ed60 7a3f
00000080: d93d 803f 1637 813f 230a 813f 8fd3 803f
00000090: 00ab 7f3f 36a9 7d3f 05b9 7e3f c27b 823f
000000a0: b88c 7f3f 1c4a 7f3f 58a3 7c3f 45e2 7e3f
000000b0: 56f2 803f 89a2 813f 7a11 803f d800 7f3f
000000c0: 2c58 813f 4f2d 7e3f 7556 803f a00c 7e3f
000000d0: 3731 7e3f eaee 7f3f 920a 7e3f 13fb 803f
000000e0: a4ff 7d3f ecc6 803f 9b63 7d3f 63a3 7f3f
000000f0: c5e5 803f 8674 7f3f fd30 7f3f 5352 7f3f
0.9865785 1.009217 0.99530137 0.9978296 0.99802846 1.0009485 1.0038618 1.0019993
0.99960136 0.9950839 0.98240435 1.0085921 0.9932146 0.9942769 1.002181 0.98646474
1.0004809 1.0070399 0.9889989 0.9967062 1.006396 1.0083002 0.9964966 1.0086704
1.0142674 1.0201657 1.0039881 1.0082709 0.9828873 0.9925635 0.9884851 0.97804147
1.0018874 1.0094936 1.0081218 1.0064563 0.998703 0.9908632 0.9950107 1.0194018
0.99824095 0.99722457 0.9868674 0.9956401 1.0073955 1.0127727 1.0005333 0.9961066
1.0105033 0.99287885 1.0026385 0.99238014 0.99293846 0.9997393 0.9923488 1.0076622
0.992182 1.0060706 0.9898011 0.99858683 1.007012 0.99787176 0.99684125 0.9973499

node_encoder.layers.4.bias f4 [64]
00000000: 400c f5bb 8c14 0b3b 20f6 75bb dae6 00bb
00000010: 521f 22bc 61eb 243b d49f 2a3a ecd2 13bc
00000020: 392c d93b a70f 7839 9081 adbc 32b4 ef3b
00000030: e2df 123c 95c3 90bb a56b b7bb b488 17bc
00000040: d918 e43b 1de0 9cb9 70cc ed3b 71e0 b83b
00000050: e4fa a63b 91a4 9a3c 3831 173a 8a0f a43a
00000060: 4d85 3c3c ab2f 7b3c c8d9 e83b 2cf5 76bb
00000070: 9a1f c4bb 736c 8cbb 94f3 6ebb 4186 93bc
00000080: 4905 e2ba 0337 163c 3f33 4c3b 34b5 943b
00000090: b879 ecbb 072a 34bc 035c 8b3b c537 363c
000000a0: dcaa 0cbc d8e4 253b 29f4 4e3b 3ad4 92ba
000000b0: 46bb bcbb 8a0e dc3b a9c9 c73b e20c 883a
000000c0: 56fd 003c 4e57 983b 0e49 833c 60a7 18bc
000000d0: 1afd 4cbc 8b05 203c fa9a 41bb 1f60 233c
000000e0: 312b 13bc d502 81bc 07a6 2dbc dad9 11bc
000000f0: b62b 0f3c 590e 1abb aadd 3d3c 7f1b cdbb
-0.007478267 0.0021221964 -0.0037530735 -0.0019668848 -0.009895163 0.002516471 0.00065088016 -0.009022456
0.006627586 0.00023656954 -0.021179944 0.007315182 0.008964511 -0.0044178464 -0.005597549 -0.009248901
0.00696097 -0.00029921616 0.007257037 0.00564199 0.0050958265 0.0188773 0.0005767527 0.0012516838
0.011506391 0.015331189 0.0071060397 -0.0037682755 -0.0059852125 -0.004285389 -0.0036461102 -0.018008353
-0.0017244007 0.009168389 0.0031158475 0.0045382027 -0.0072166584 -0.010996348 0.004252912 0.011121695
-0.008585658 0.0025313403 0.0031578636 -0.0011202164 -0.0057596294 0.0067156004 0.006097038 0.0010379816
0.0078729 0.0046490794 0.016026046 -0.009317249 -0.012511516 0.009766947 -0.0029541836 0.0099716475
-0.008982466 -0.01574842 -0.010598666 -0.0089020375 0.008738449 -0.0023507087 0.011588493 -0.0062593813

node_encoder.layers.4.running_mean f4 [64]
00000000: fca9 19be 436c 8fbe 7a4d e2bd e062 153c
00000010: 9f21 a93c 7f76 c2be 2284 0b3e e0b9 503d
00000020: 526f 563d 2bfc 3d3e 9172 80be 08c7 3abe
00000030: f7d6 b23c 39bf cdbd d7f9 8f3e 68f6 aa3d
00000040: 4987 6f3d f91e f1bd 71b1 2cbe 0b56 833e
00000050: 15e8 103c 19fe 29be 9a25 8e3d a6f8 3d3e
00000060: 3ad5 a43c 043e 25be 8bc0 efbc eaf3 eabe
00000070: 719c f13d ec7d ea3e c9b9 72be a6b0 e5be
00000080: 06fd d8bd 8e7e 07bf 7ed9 323e 13ea 6b3e
00000090: 8127 8e3e 557d b1be 7a8e e83e 0ab4 fcbd
000000a0: e224 8b3e e8d6 12be 42a0 f6bd 2ca4 ba3d
000000b0: 2ce3 c4bc bdde e03d 4ecd 3e3e 60fa c9be
000000c0: 78fb f3bd 228d bfbd 360c 65be 3fbe a5be
000000d0: 355e a7bd b5a0 6ebe 6277 21bd c58f d23d
000000e0: ae91 4abe 0010 8e3e 2aba f03d 2a6c 873e
000000f0: 613e f6bc 6ae1 cc3d b091 f13d 876c 173e
-0.1500625 -0.28012285 -0.11049934 0.009117812 0.020645915 -0.3798103 0.13624623 0.050958514
0.052352257 0.18553226 -0.25087407 -0.18239987 0.021831019 -0.100462385 0.281203 0.083477795
0.058478627 -0.11773486 -0.16864564 0.25651583 0.008844395 -0.16600837 0.06940766 0.18551883
0.020121206 -0.16136938 -0.029266616 -0.45889217 0.11797417 0.45799196 -0.23703684 -0.44861335
-0.105951354 -0.5292748 0.17465779 0.23038511 0.27764514 -0.34665933 0.454212 -0.12339027
0.27176577 -0.14339793 -0.120422855 0.091133446 -0.024034105 0.10979984 0.18633005 -0.39448833
-0.11913198 -0.09353091 -0.2236794 -0.3237171 -0.081722654 -0.23303492 -0.039420493 0.10281328
-0.19782135 0.27746582 0.11754258 0.2644971 -0.030059041 0.10003932 0.11795366 0.14787494

node_encoder.layers.4.running_var f4 [64]
00000000: 14e3 063e 7643 c13d 0a06 b63d cb10 e93d
00000010: 5e86 c33d 23be 133d 20b1 823e 39e7 3d3e
00000020: 0d6c 4a3e 9e9e b43d 65d9 013d 2b11 c03d
00000030: cb90 383e a471 3f3e cfca 2c3d cec5 823d
00000040: d3b7 ff3d 4e27 083e 2bf4 4d3d f229 6e3d
00000050: 5ef2 ab3d 0a4f 743e 9e92 643e e9ec c33c
00000060: 25da 073e 3765 233e 2701 563e 3def 513d
00000070: e2bb 1f3d eb3d 013e 966f a23d 7342 643e
00000080: 0c39 693d d722 843d 2771 963d c5d1 f53d
00000090: d12f f83d 65ca bf3e 7809 463e 35cd 6f3d
000000a0: 4a20 023e a5eb 1e3e 27e5 023e f2f0 753e
000000b0: 1f96 bf3d 8aca 163e 3980 023e 85b6 2c3e
000000c0: 6a0b fa3d 487f be3d fdf3 c93d a9e7 033e
000000d0: 8b53 553e ede0 c43d 7b42 483e b5f5 133e
000000e0: 88a8 683e 00ba 383d 4843 063e 3ca2 dc3d
000000f0: c42b d73d 62d2 4e3e 605f 403e 0e74 183e
0.13172561 0.09436695 0.088878706 0.11380156 0.09547113 0.03607 0.2552576 0.18545236
0.1976778 0.08819316 0.031701464 0.093782745 0.18023984 0.18695694 0.0421856 0.063853845
0.124862336 0.13296244 0.050281685 0.05814547 0.08395837 0.23858276 0.22321555 0.023916679
0.1326681 0.15956579 0.20898877 0.051253546 0.03899754 0.12621276 0.079314396 0.22290973
0.05693917 0.06451958 0.07345801 0.12002901 0.12118495 0.37459102 0.1933955 0.05854531
0.1270763 0.15519579 0.12782727 0.24017695 0.09354805 0.147257 0.12744226 0.168665
0.12209208 0.09301621 0.0986099 0.1288134 0.2083265 0.09613214 0.1955661 0.14449199
0.2272054 0.04509926 0.13111603 0.10773131 0.105063945 0.20197442 0.18786383 0.14888021

node_encoder.layers.6.weight f4 [32, 64]
00000000: 772c bd3d 07b0 e4bd 9d71 9fbd 8c89 74bc
00000010: cfea f5bd 8c01 eebd ff8d dfbd f328 cf3d
00000020: f7a2 8a3c 832a 2ebd 6162 42bb 0c33 ebbd
00000030: 1cf5 f4bd c2ec babd db9a 04be 525d a03d
00000040: cb84 41bd 6b32 23bd 2886 e6bd 0d0f 313c
00000050: 470a 87bc ad30 babd d512 983d e24a ce3d
00000060: 21cb c9bd 75b0 9c3d 2d5d 81bc 5fe4 7e3c
00000070: 4710 723d cbff f0bc ae52 cc3d 6915 903d
00000080: 0188 9fbd a5d2 88bd ce22 07be 3bd4 043d
00000090: bdf4 d8bd 8193 c6bd bdeb a9bd ae48 02be
000000a0: 1a2e d9bd 67ae e83d 8244 973d 9e09 d63d
000000b0: e4e8 7dbd d350 4abd ac33 48bd 4cdf 0abc
000000c0: fa2a c6bd 1d6a 6d3c 379c a6bd 56f6 103d
000000d0: 9331 d93d e02c 3d3c a650 ae3d c84e cdbd
000000e0: 84c8 c6bc 6aff b8bd 103e a5bc 21b4 5ebd
000000f0: 1506 9dbd d402 f0bd 3d7a 40bd 9b34 973c
00000100: f122 7ebc 49de dbbd 0c41 a23d 7d0e aa3d
00000110: 0eb4 95bd 8075 813c 963c 9c3d b6d0 fdbd
00000120: a7ea d3bd b3e2 863d fad8 df3b 92ca 453d
00000130: d92c 6ebd 8733 9a3c b0ed 9b3d 404f debc
00000140: 5bf7 3abd 7b3d 05be ffc2 91bc a612 9a3d
00000150: c5a5 ffbd b04a 85bb e6fc ac3d 711f 8abc
00000160: 3810 53bd 527e 40bd e24d 4abd a4ff 193d
00000170: 11b3 debd f2d8 293d d7c6 82bc 07ed 2539
00000180: ecf4 a8bb 0134 9f3d f1ec a4bd cb5f 00be
00000190: bf61 cebd 34fb babd 1c9e 87bd 4806 ec3d
000001a0: c84b b3bd 810d 92bd ff45 c9bd 5454 83bd
000001b0: e125 313b 9ad2 a8bd ab47 8739 a8b6 5e3d
000001c0: 5ab8 c8bc a3e4 593d d20e 153d 2a16 fe3d
000001d0: 27a3 18ba 634d d53d d1f2 c43d 4065 7b3d
000001e0: bf4a ab3d 8624 bebd 1dd8 96bd f2a7 3c3d
000001f0: c58d 3f3d b95a cc3d 70cb 99bc 517a eebc
00000200: 11d1 a43d e336 9d3c 76f8 fd3d a3f6 6ebd
00000210: 332c 11bd bea3 7bbb 4e39 783d 630d e4bd
00000220: 77ee 3dbd dfe5 c23d f99f fd3c 105c a53d
00000230: 4e27 37bd 4a9f 9fbd c18c b7bd 4573 91bd
00000240: 3d08 bcbd 8e37 853d e721 3b3d 654e 96bd
00000250: b6e1 f33d a8c2 1b3d 07a8 233d 5e20 68bd
00000260: cdf6 9f3d c9ea bdbd 07d4 c63d a957 88bd
00000270: cc92 5b3d aabc 57bd d769 a03d 3def d5bd
00000280: 9844 c7bc c80d 2ebd 897b aabd a554 68bd
00000290: 3a5c 32bd f10d 983b eaea ab3d 4caa 8bbc
000002a0: c488 ec3d 6ca5 58bd 39f8 79bd a30c 13bc
000002b0: 1268 98bc e6a1 293d 191e dc3d cbab 0d3d
000002c0: 830d e0bd cf55 3ebd 975e cfbc c594 dabd
000002d0: 390a 413d 975e d13d de8a 7a3d 8155 ce39
000002e0: 1909 80bc b585 91bd 4561 88bc 4db3 e23d
000002f0: 6d5c 94bd bcfd af3c fd98 acbd 812f f0bc
00000300: 1606 9f3c 4302 c1bd 0e5f 193d bcd3 cfbd
00000310: 44eb 3cbd 3dd2 ba3d 16db 003e abca f3ba
00000320: 525a bfbd 7dbd bdbd d20b e2bc 0a6e 90bd
00000330: c89d c33d 6656 b3bd ab7a b33d 48b7 863c
00000340: a651 25bd 43a2 db3d 35c4 843d 12e1 1a3b
00000350: 65f7 9bbd e989 41bd f56f 3b3d 9de2 de3d
00000360: b5c8 3dbd 640f 18bd 55e9 e9bd a7db a63d
00000370: f8f9 fa3d 6cd8 a13d c66d a2bd 8a2e 9a3d
00000380: 6ece 34bd 39f9 883d 3773 8c3d efdb c3bd
00000390: 1ad5 083d 81fc 5f3d 5902 86bd 0def ce3d
000003a0: e758 b93d 540e e83d 15f5 c93b e403 8abd
000003b0: e553 81bd abc9 513d 87cf e4bc 7bde b83d
000003c0: 66bd de3d 140f 2a3c 5a22 e5bd 2f32 3e3d
000003d0: e9cc e13d 363c f1bc cac0 96bd 67e2 ebbc
000003e0: 8066 3e3c c4f8 c7bd a248 6f3d b90c 6a3d
000003f0: 90a2 14bd 65f5 13bd 892d 66bd 4e17 da3d
0.092369966 -0.11166387 -0.07785342 -0.014925372 -0.12007677 -0.11621389 -0.109157555 0.10115232
0.01692341 -0.04252101 -0.002966069 -0.11484346 -0.119608134 -0.09127189 -0.12949698 0.078302994
-0.047245782 -0.039843004 -0.11256057 0.010806811 -0.016484393 -0.090913154 0.07425467 0.100728765
-0.09853197 0.07650844 -0.0157915 0.015557378 0.059097555 -0.029418847 0.099767074 0.07035334
-0.077896126 -0.06680802 -0.1319687 0.03242896 -0.10593555 -0.09696103 -0.08296917 -0.12723038
-0.10604496 0.113613896 0.07386114 0.10451053 -0.06198968 -0.049393486 -0.048877403 -0.00847609
-0.09676166 0.014490631 -0.08135264 0.035391174 0.10605159 0.011546344 0.08511476 -0.10024792
-0.024265535 -0.09033091 -0.020171195 -0.054371003 -0.07667176 -0.117192894 -0.046991576 0.018457701
-0.01551126 -0.10735757 0.07922563 0.08303545 -0.07309733 0.015803099 0.07628743 -0.12393324
-0.10347491 0.06586208 0.0068312855 0.04828889 -0.05814824 0.018823398 0.07613695 -0.027137399
-0.045646053 -0.13011734 -0.017793177 0.07523088 -0.1248279 -0.0040677413 0.08446674 -0.016860696
-0.05152914 -0.04699547 -0.04939068 0.037597314 -0.10873998 0.04146666 -0.015963955 0.00015823926
-0.00515615 0.07773591 -0.080530055 -0.12536542 -0.10077237 -0.091299444 -0.06621954 0.115246356
-0.087546885 -0.07131482 -0.09827804 -0.06412569 0.0027030634 -0.08243294 0.00025802603 0.054373413
-0.024501968 0.05319656 0.036391087 0.12406571 -0.00058226514 0.10415151 0.09616626 0.061375856
0.08363866 -0.0928431 -0.07365439 0.046058603 0.04676606 0.099782415 -0.018773764 -0.02911106
0.08047689 0.019191211 0.12400906 -0.05834068 -0.035442542 -0.0038397158 0.060601525 -0.11135366
-0.046369996 0.09516501 0.03096007 0.080742 -0.04471522 -0.07794054 -0.089623936 -0.07102064
-0.09181259 0.06504737 0.04568663 -0.07339171 0.11908285 0.038027436 0.039955165 -0.056671493
0.078107454 -0.09273297 0.0970841 -0.06657345 0.053606793 -0.05267016 0.07832687 -0.10446022
-0.0243247 -0.04249361 -0.08324344 -0.05672135 -0.043544985 0.004640334 0.08394416 -0.017048977
0.115495235 -0.052892134 -0.06102774 -0.008975181 -0.018604312 0.041414164 0.10747928 0.034587663
-0.10940077 -0.046468552 -0.025313659 -0.10672907 0.04712889 0.1022312 0.06116759 0.00039355087
-0.015629338 -0.07105581 -0.016647944 0.11069355 -0.07244191 0.021483295 -0.08427618 -0.029319527
0.019412082 -0.094242595 0.037444167 -0.10147807 -0.046122804 0.09122131 0.12583575 -0.0018599828
-0.09343399 -0.09264658 -0.027593527 -0.07052238 0.09551579 -0.087567136 0.087636314 0.016444817
-0.04036107 0.10724308 0.06482736 0.0023632688 -0.07615546 -0.047250662 0.045761067 0.10883067
-0.046333987 -0.037124053 -0.11421458 0.08147364 0.12254709 0.07902607 -0.07931094 0.07528408
-0.04414218 0.066881604 0.06857913 -0.095634334 0.033406354 0.054684166 -0.065434165 0.10104189
0.0905016 0.11330858 0.0061632493 -0.06739023 -0.0631483 0.051217716 -0.027930988 0.0902681
0.10875969 0.0103795715 -0.11188193 0.046434578 0.11025412 -0.029447656 -0.0736099 -0.02879448
0.011621118 -0.09764245 0.058418877 0.05714104 -0.036287844 -0.0361227 -0.05619577 0.10648976

node_encoder.layers.6.bias f4 [32]
00000000: 864a 433c 86eb 1b3b 8967 f43b 800c 87b9
00000010: 40fc ddbc 4178 4ab5 374a 213d bb35 0d3d
00000020: 3e69 1bbc d57e 8f3c 81fd d03a 21f5 17b9
00000030: 9dce d73b 55a9 01b8 980b d5b8 31df 70bc
00000040: b6e5 e138 2c50 3e3d 7f51 423c ca8d ebbc
00000050: a4da 3838 78ab 583c 8816 5cba 83a2 f638
00000060: 0928 7b3b 8e08 033d 9f22 1f3d b3a7 a8bc
00000070: 1c4e 2ebd 0619 9d3c 8fa3 23b8 ad42 1d3d
0.011919623 0.0023791506 0.0074586314 -0.0002575852 -0.027097821 -7.5425856e-07 0.039377417 0.03447507
-0.009485541 0.017516533 0.0015944691 -0.000144918 0.0065859095 -3.09137e-05 -0.00010158791 -0.0147016505
0.00010771623 0.046463177 0.0118602505 -0.028754134 4.4072644e-05 0.013224475 -0.00083956914 0.00011760464
0.0038323423 0.03199058 0.038851377 -0.020587778 -0.04255496 0.019176971 -3.9014554e-05 0.038393665

edge_encoder.layers.0.weight f4 [64, 4]
00000000: ca41 b63e faf2 4bbe 8b36 0a3e bcae 223e
00000010: 67cc 2bbe 9127 ea3e 6818 4b3d 496c 10be
00000020: 8e7a e8be 469f cd3e 95b5 f9be b623 b23e
00000030: ff7d 22be d4c9 b3bd 7a56 aa3d 15ed f43e
00000040: 2a22 9dbe 438b aebe a692 a23e 1b4d 54be
00000050: 98a2 3bbe f101 8e3e 7858 5bbe 3744 8a3e
00000060: 338a 50be 5b46 c33e a518 f93e 8264 4b3d
00000070: 1346 1ebe 266e 893e f6dd 1a3e 4501 e83b
00000080: 4e80 d43e 53f4 87bc c83f 483e 3bba f3bd
00000090: 2995 a8bd af0c fbbc 456c 283d 7150 673e
000000a0: 3056 c03e 2066 913e 9c68 58be 35e4 ce3e
000000b0: 0527 9f3e 10ef 443e b4cc 783d 8a8d 81be
000000c0: d479 9ebe ccee 893c df4c b4be 28f0 183e
000000d0: c796 e7be 30c9 e2be dac8 5fbe 4537 813e
000000e0: 7dc0 cf3e 3111 d6be 6869 9bbe 7937 c83d
000000f0: 8ce6 a1bd de27 cdbe 96a5 153e e4c1 bebe
00000100: 5680 cb3b 3087 533e 438c e13e 23b7 c9be
00000110: fe54 b23e 44f2 883d 1af6 e23e 662e e03e
00000120: 425a d5bd 82d4 a6bd e1e9 04be 81e9 c03e
00000130: 7706 5fbe a685 a83e a1e9 513e 8a9d e33e
00000140: 76e3 b53e 76bf c43e a65c cebe a876 60be
00000150: 0d72 b5be 2cdf 6a3e 5abd d83d d062 403e
00000160: 7397 493e f16d f93c 2aae 383e 2c69 8abe
00000170: 8898 a33e f7af debe 4f06 e7be dc4f 0d3e
00000180: 5fe9 ee3e 6e97 2bbe 727e ed3e 542d 22be
00000190: 64b3 bebe 23af a9bd 1aa7 8e3e dc7a 65be
000001a0: 5244 ee3e dbba 6cbe d927 60be 54ee 46be
000001b0: da6d c5be 41cf e63e d636 91be 62c5 4ebe
000001c0: e2e6 0fbe ad29 ce3e 9c9c 823e dbc1 323e
000001d0: 99ea 0fbe 219c 743e 491c b33d 965c c83e
000001e0: 0083 ef3d 247a bd3e 1e9a a93e 47a5 a73d
000001f0: a877 f4be 3583 e63d fcff b9be 546a 9a3d
00000200: 86a4 40bd e581 c13e 9352 bdbe 3cbd c2be
00000210: 8b34 513e ddb8 b03e 1b69 ebbd f9c0 023e
00000220: 4834 cc3e 5b7e 8e3d 9615 0ebe f4ae 8c3e
00000230: 4b5b ea3e 83d1 b8bd 7b8b a63e f741 1f3b
00000240: 8787 afbd 7159 5cbd a8b6 f1be 4cf2 583e
00000250: 2b5f 87be a2ac ddbe 59a8 84bd df59 34be
00000260: 799e 97be d72d e4bd 2266 6bbd d15d 1b3e
00000270: d37c 843d 5190 64bd 96d2 e43d 2585 a9be
00000280: d973 dc3e d023 673e 9e6f 9d3e 0fb7 ccbe
00000290: 1e61 ad3e 951f ab3d 7b4c f1be 3775 e13e
000002a0: cb74 27bc cb74 dd3d 943e c43e 371e a33e
000002b0: c955 e13e 90c8 ebbe 43e9 f53e c9dd d43d
000002c0: 9131 943c 48d6 cebe e98d 7bbe 429b e83e
000002d0: 3246 c43e 997e c03e a843 0fbd 3d1d 80be
000002e0: 16df df3d 0129 6bbe 72d8 a9be e144 1c3e
000002f0: 02be bf3e dd87 c5be bf8d e0be 15d7 7f3d
00000300: b1d9 3dbe 7484 82be dcec cbbd 0211 bebc
00000310: a2bf 14be 369d b23e 5b78 8d3e 559b 093e
00000320: 799d 22be ad26 edbc 9d48 a13e f9d6 d93c
00000330: f282 f6be f8be 853d 9879 843e d7c8 f4bd
00000340: 6708 d8bd bc68 9fbd ba13 933e 7780 bc3e
00000350: ffe5 c9be 8387 a53e a405 4e3e 1af2 263e
00000360: c099 96be 59b7 8dbe 05b0 f53e c269 d03d
00000370: 36cf d9bd 8d67 c5bd 3796 ac3e 3514 ddbd
00000380: 912f ae3e 60a8 06be 80ce ee3d 09df db3d
00000390: af0a 81be a040 883c 79ab ca3d 3ee4 f4be
000003a0: 0899 c0bd cf7e f43c 30be d03e 0513 bc3d
000003b0: 2e12 d9be 0f01 20be 06d5 f63e 2685 afbd
000003c0: bbe1 be3e a551 323d 54b7 a83e 9e06 45be
000003d0: e827 f83e fd6d d43d d6f0 dcbd ab00 b13e
000003e0: 8f9d 783e 6e73 afbe 7066 c1bc ae59 a73e
000003f0: da87 f23d 4379 18be 617e abbe d221 abbe
0.35597068 -0.19916907 0.13497369 0.15886968 -0.16777192 0.45733312 0.049583822 -0.14103808
-0.45406002 0.40160578 -0.4877135 0.3479287 -0.15868376 -0.0877873 0.08317275 0.4783713
-0.30690128 -0.34090623 0.3175251 -0.20732538 -0.18323743 0.27735856 -0.21420467 0.2700517
-0.20365219 0.38139614 0.48651615 0.0496564 -0.15456419 0.2684185 0.15123734 0.0070802295
0.4150414 -0.016595995 0.1955558 -0.11900755 -0.08231575 -0.030645696 0.04111888 0.2258928
0.37565756 0.28398228 -0.21133655 0.40408483 0.31084457 0.1923182 0.060742095 -0.25303298
-0.30952322 0.0168375 -0.35214898 0.14935362 -0.4523222 -0.4429412 -0.21853963 0.2523748
0.40576544 -0.4180999 -0.30353856 0.097762056 -0.079053015 -0.4006948 0.14613947 -0.37257302
0.006210367 0.20657039 0.44052324 -0.39397535 0.3483047 0.066868335 0.44328386 0.437854
-0.10417606 -0.081460014 -0.12979843 0.3767815 -0.2177981 0.32914466 0.20499279 0.4445613
0.355251 0.38427323 -0.4030506 -0.21920264 -0.35438576 0.22936696 0.10582991 0.18787694
0.1968668 0.030447932 0.18035188 -0.27033365 0.3195231 -0.43493626 -0.45122 0.13799995
0.46662423 -0.16756985 0.46385533 -0.15837604 -0.3724624 -0.08285358 0.27861863 -0.22410148
0.465365 -0.23118155 -0.218902 -0.19426852 -0.38560373 0.45079997 -0.2836215 -0.20192483
-0.14052919 0.4026617 0.25510108 0.17456762 -0.14054336 0.23887683 0.08745629 0.39133137
0.11694908 0.37007248 0.33125395 0.08185821 -0.4774754 0.112554945 -0.36328113 0.07539812
-0.0470319 0.37794414 -0.36977062 -0.38035 0.204302 0.3451604 -0.11494657 0.12768926
0.39883637 0.06957694 -0.13875422 0.2747723 0.45772776 -0.09024336 0.3252829 0.0024300793
-0.08570772 -0.053796235 -0.47209668 0.21186179 -0.26439795 -0.4329577 -0.06477422 -0.17612408
-0.29613093 -0.11141556 -0.05747045 0.15172507 0.06469121 -0.055801693 0.111729786 -0.33109394
0.43057135 0.22572255 0.3074922 -0.39983413 0.33863157 0.08355633 -0.47128662 0.4403474
-0.010220717 0.10813292 0.38328993 0.3185899 0.4401076 -0.46051455 0.48029527 0.10393865
0.018090041 -0.4039786 -0.24565853 0.45430952 0.38334805 0.37596586 -0.03497663 -0.25022307
0.10931222 -0.2296486 -0.33172947 0.1526065 0.37449652 -0.38580218 -0.43858144 0.062460978
-0.18540074 -0.2549168 -0.09957287 -0.02320147 -0.14526227 0.34885567 0.27630886 0.1343816
-0.15880384 -0.028949106 0.31500712 0.026591765 -0.48146778 0.06530565 0.2587402 -0.1195237
-0.105484776 -0.07783648 0.28725988 0.3681676 -0.39433286 0.3232995 0.20119339 0.16303292
-0.29414177 -0.27678946 0.47985855 0.10176422 -0.106352255 -0.09638891 0.33708355 -0.1079487
0.34020665 -0.13150167 0.116604805 0.107359 -0.25203463 0.016632378 0.09895987 -0.47830385
-0.094041884 0.029845623 0.40770102 0.09183315 -0.42396683 -0.15625404 0.482094 -0.08570318
0.37281594 0.043534894 0.32952368 -0.19240806 0.48467946 0.10372541 -0.10788123 0.34570822
0.24278854 -0.34267753 -0.023608416 0.32685608 0.11842318 -0.14890008 -0.33494857 -0.3342424

edge_encoder.layers.0.bias f4 [64]
00000000: ba24 463e 5ba9 123e 617e b6be 2f3e f6bc
00000010: fa40 4d3d a525 b6be f350 b03e 97d1 4fba
00000020: 96c5 f7bd 38fe bb3a 6f05 cc3d 8e47 173d
00000030: 5d4c c63e f2ae 493e 1e47 2539 3a75 8a3c
00000040: 651e 3a3d 8760 eebd bb11 afbe aa18 47ba
00000050: 560d dfbd 775b c5be a98a c73d 706f 02be
00000060: 339b c83e 5684 c83d 4b86 053e 47b0 893d
00000070: c5e9 e73d 1b8c 703e ed16 903e 93b7 80b9
00000080: 4e4b 82bd e384 6d3d ca05 12be 735f 85b9
00000090: 8a2b 8a3d 76dc 0f3e 1c1d cbbe 9a33 e53d
000000a0: ce29 e5bd 3e70 88be 6587 05be 28b2 a9b8
000000b0: c77c 263e c9a2 b7be f4c9 6e3d 3644 ba3e
000000c0: f7b2 4abe 1d36 343d fba6 f3bd cf5d 403d
000000d0: b70b 093e fa53 64be 27cd 343d 4a7c d03e
000000e0: 3db3 98b9 22d2 89be 9993 fdb6 646b 143d
000000f0: e115 993d de77 c139 b2f4 09bd e5d8 28be
0.19349948 0.14322416 -0.35643294 -0.030058948 0.050110795 -0.35575595 0.3443676 -0.00079276547
-0.120982334 0.0014342731 0.09961974 0.036933474 0.38730136 0.19695643 0.0001576212 0.016901601
0.045439143 -0.11639505 -0.34193215 -0.0007594923 -0.108912155 -0.38546345 0.09743244 -0.12737823
0.39180908 0.09790866 0.1303951 0.06723075 0.11323885 0.23490946 0.2814249 -0.00024550836
-0.063620195 0.05798806 -0.14260021 -0.00025438852 0.06746586 0.14048943 -0.39670646 0.11191483
-0.11189614 -0.26648134 -0.1303993 -8.091732e-05 0.16258536 -0.35866383 0.058298066 0.36380166
-0.19794832 0.04399692 -0.11897083 0.046964463 0.13383375 -0.2229766 0.04414096 0.40719825
-0.00029125242 -0.2691813 -7.55717e-06 0.03623523 0.07474876 0.00036901137 -0.033680625 -0.16488989

edge_encoder.layers.1.weight f4 [64]
00000000: 4be5 7b3f 5cc0 793f 130f 7d3f ccc0 7f3f
00000010: 34b0 7b3f a574 7f3f 4c7e 7b3f 5030 7f3f
00000020: cbda 7e3f 3a40 7a3f 8e05 803f 8968 7c3f
00000030: 26b6 793f a5fb 773f 57a6 7c3f 1c80 7c3f
00000040: a51e 7a3f 348a 7c3f 6a7d 793f 564d 7d3f
00000050: 8056 7a3f a4b5 7a3f 7da9 7a3f 65cb 7b3f
00000060: 62ce 7b3f 6b27 7d3f 4fbc 793f 501b 7e3f
00000070: 75cc 7a3f bd6d 7b3f fd03 7d3f 5b50 7c3f
00000080: 6642 7f3f 7c90 7b3f a03b 7a3f 65e2 7c3f
00000090: 7370 7c3f bd2c 7b3f 2792 7a3f 3823 7c3f
000000a0: 93c5 7a3f 8a35 7c3f a33f 7d3f 89fa 7d3f
000000b0: ab6c 7e3f a629 7c3f 1539 7f3f 7a74 7b3f
000000c0: 291a 793f 8f4c 7b3f 3d48 7d3f cf5d 7a3f
000000d0: 06c8 773f 8a70 7d3f 68ab 7f3f 24f9 7d3f
000000e0: 1e66 783f 13f3 7f3f 1e6d 7d3f a755 7d3f
000000f0: bcfc 7e3f 2efa 7f3f d933 7a3f 80c9 7e3f
0.9839675 0.9755914 0.98851126 0.9990356 0.9831574 0.9978736 0.9823959 0.99683094
0.995526 0.9775425 1.0001695 0.9859701 0.9754356 0.96868354 0.98691314 0.9863298
0.9770301 0.9864838 0.9745699 0.9894613 0.9778824 0.9793341 0.9791487 0.9835723
0.9836179 0.9888827 0.9755296 0.99260426 0.97968227 0.9821432 0.9883421 0.9856011
0.9971069 0.9826734 0.9774723 0.9878295 0.98609084 0.9811514 0.9787926 0.9849124
0.97957724 0.98519194 0.98925227 0.9921041 0.99384564 0.9850105 0.99696475 0.98224604
0.9730554 0.98163694 0.9893835 0.9779939 0.96789587 0.98999846 0.9987092 0.99208283
0.9703082 0.99980277 0.98994625 0.9895882 0.9960439 0.9999112 0.97735363 0.99526215

edge_encoder.layers.1.bias f4 [64]
00000000: 1115 73bb 9e8d 8fbb b5f9 c4bb f1dd b43b
00000010: 6a56 e8b9 5784 0c3c c3f6 20bc 2f31 de3b
00000020: 7fe0 563b 900c 283b b4ba 043c f87f 1fbb
00000030: 032b efbb 415f 4bbc 811f 1bbc 0f8b c1bb
00000040: 873d 7ebc 1b9d febb 4679 91bc 411c 8abb
00000050: a498 e3bb 46eb 51bc 16cf e8bb 6319 b4bb
00000060: 6cf6 81bb bbe3 0cbb 2e60 44ba 29a8 943b
00000070: fe2b 7ebb e5cf e2bb 3426 9bbb 5a8f d4bb
00000080: aed0 533b b60d 9ebb 990d 3bbc 6e49 ffbb
00000090: 5e9f 1ebc fae6 93bc 67fd 25bb 079f 2bbc
000000a0: f881 e5bb a014 0cbb 3023 9fbb bc22 bb3b
000000b0: 65b0 573b 0292 12bc e423 733b afe3 e7bb
000000c0: 41d8 61bc 3b31 30bc 579a 12bb b3b5 44bc
000000d0: cecb 98bc 1fd8 adbb c9ad 073c fb14 70bb
000000e0: 241b 02bc 8bc2 493c 3696 56bb e178 5239
000000f0: e06e eb3a ba42 d23b 8329 43bc 8d23 9039
-0.0037091414 -0.0043808958 -0.0060112127 0.0055196215 -0.00044314872 0.008576474 -0.009824458 0.0067807655
0.0032787619 0.0025642253 0.008101154 -0.002433775 -0.0072988286 -0.012412847 -0.00946796 -0.0059064697
-0.015517599 -0.0077701933 -0.017758023 -0.004214794 -0.0069456864 -0.012812441 -0.0071047647 -0.0054961904
-0.0039661434 -0.0021498043 -0.00074911385 0.004536648 -0.0038783546 -0.0069217556 -0.004734779 -0.0064868154
0.0032320428 -0.004823412 -0.011416816 -0.007790736 -0.009681551 -0.018054474 -0.0025328042 -0.010474927
-0.007004019 -0.0021374598 -0.0048564896 0.005710928 0.0032911536 -0.008945944 0.003710025 -0.0070767025
-0.013784469 -0.010753925 -0.0022369826 -0.012006211 -0.01865187 -0.0053053047 0.00828118 -0.00366336
-0.007941041 0.012314449 -0.0032743341 0.00020072192 0.001796212 0.006416646 -0.011911753 0.00027492308

edge_encoder.layers.1.running_mean f4 [64]
00000000: 0a41 523e c0a4 0b3e 4300 b0be d218 49bc
00000010: f686 2d3d 823f b2be c50e af3e 7f8b acbb
00000020: 6a7a 06be adeb 3f3c 476a fa3d 0da2 dd3c
00000030: 37a3 cd3e b87a 5e3e 376a 403c 16d7 783b
00000040: c33e c73c 9a30 d8bd d4c6 a7be dc85 533c
00000050: d4d8 f5bd a149 c5be 37ad b23d 7b16 edbd
00000060: eba8 c53e 36ae b43d 7017 063e 1fc1 773d
00000070: 1591 f23d c7aa 813e 2cd2 903e 20aa b23b
00000080: 9e26 a9bd 6237 873d 1d95 07be d773 0cbb
00000090: 320e b03d eb78 0f3e 3575 c9be 6999 cd3d
000000a0: a21c 0dbe 798a 7bbe 916a 00be b8a7 643b
000000b0: ae50 453e 806f c0be 88f3 973d 7877 c23e
000000c0: 7a2f 4dbe 2aab 3f3d 8f4b 00be e6c7 243d
000000d0: 96bf 1a3e 9606 67be f02d 433d bd91 ce3e
000000e0: affb 983b eeb8 97be 5ce1 8bba 4652 f63c
000000f0: 5ada 873d ef69 8e3c 0ec2 97bc 63a9 36be
0.20532623 0.13637066 -0.343752 -0.012273984 0.042365037 -0.34814078 0.34190956 -0.0052656527
-0.13132635 0.011713904 0.12227302 0.02705481 0.40163586 0.21726501 0.011744074 0.0037969998
0.02432192 -0.10556145 -0.3276888 0.0129103325 -0.12004247 -0.38532737 0.08724444 -0.115765534
0.38605437 0.088222906 0.13094878 0.06048691 0.118440785 0.25325605 0.28285348 0.0054524094
-0.08259319 0.0660236 -0.13240476 -0.002143135 0.085964575 0.1401097 -0.39347234 0.10039026
-0.13780454 -0.24564542 -0.12540652 0.0034890007 0.19269058 -0.37585068 0.07419497 0.37981772
-0.20037642 0.046794094 -0.12528823 0.0402297 0.15112147 -0.22561106 0.04765123 0.40345564
0.004668675 -0.29633278 -0.0010672021 0.030068528 0.06633444 0.017384497 -0.01852515 -0.17838053

edge_encoder.layers.1.running_var f4 [64]
00000000: c98e 1f3d 144b e43c 345b 673e 76a4 283c
00000010: 2fa7 ce3d fb55 413d 1640 483e 791f e73c
00000020: 5455 693d 9ef0 253b d7c3 833d fa92 b73c
00000030: a24d db3d 820e b43d 98d5 e83d 1d7d 063d
00000040: 51f6 163e 34e5 283e 2495 743c 5186 4e3d
00000050: 49c2 1e3e 79d3 0f3d 537f f93c 81ac 3e3e
00000060: df44 4a3e 686e a53d 29dd 9e3d 2118 d73d
00000070: 4c61 8a3d 6b8b 763c d53a c53d 3d2d 0c3e
00000080: 52c4 eb3d 3bb8 e73c 2523 293d 32a2 e83d
00000090: c666 2a3e 655a 073d 44c2 953c 7cf2 283c
000000a0: e1f7 d63d be22 3c3e 0403 e03d c391 653e
000000b0: 0979 7a3d 7f06 203d 2b3e b43d c796 383e
000000c0: 0bf0 9d3c 89ed 933d 0620 9e3d 06b0 b53d
000000d0: 15c9 813d 1762 893d a977 433e 0c5d b03d
000000e0: 7c33 003d 1e1a 953c 557f fd3d dbe0 4f3e
000000f0: c2a0 d23d f9aa 483d 0ef2 b83c 9f4f b23d
0.03895453 0.027867831 0.22593385 0.010293117 0.100904815 0.047201138 0.19555697 0.02821325
0.05696614 0.002532042 0.06433838 0.022408951 0.10708167 0.0879183 0.11368865 0.03283416
0.147424 0.16493684 0.014928136 0.050421063 0.15503801 0.035113785 0.03045622 0.18620493
0.19752835 0.08077699 0.07757027 0.10502649 0.06756839 0.015047888 0.09630362 0.13689132
0.115120545 0.02828609 0.041293282 0.11359061 0.16640767 0.03304519 0.01828111 0.010311719
0.10496498 0.18372628 0.10938075 0.22418885 0.061150584 0.039068695 0.0880092 0.18026267
0.0192795 0.072230406 0.07720952 0.088714644 0.063371815 0.06708162 0.19088615 0.08611497
0.0312991 0.01820093 0.12377802 0.2030062 0.10284568 0.048991177 0.022576358 0.08706593
