gnn/gnn_outputs/checkpoint_epoch_50.pt (torch, 971676 bytes, 208 tensors)

node_encoder.layers.0.weight f4 [64, 3]
0	0x3ee4e167	0.44703218
1	0x3ef241ae	0.47315735
2	0xbe0fe169	-0.14050831
3	0x3f09887e	0.53723896
4	0xbdfba65c	-0.1228759
5	0x3dd9c6b0	0.106336
6	0xbe89785a	-0.26849633
7	0x3eb2c006	0.34912127
8	0x3f042bf4	0.5162957
9	0xbed2cf7f	-0.41173932
10	0x3f03d01f	0.5148944
11	0x3dbf524b	0.09341868
12	0x3edc95c6	0.43083018
13	0x3d9267a7	0.07148676
14	0x3e8c974e	0.27459186
15	0xbdb96dc8	-0.09054142
16	0x3edf8990	0.4365964
17	0x3dbe559b	0.09293672
18	0xbe90036c	-0.2812761
19	0x3e1b7da0	0.15184641
20	0xbe7de6d5	-0.24795087
21	0xbd8567af	-0.06513917
22	0xbe68a944	-0.2272082
23	0x3ec78e23	0.3897563
24	0xbeec329b	-0.4613236
25	0xbe831eb3	-0.2560936
26	0xbe27c129	-0.16382279
27	0xbeacb8f9	-0.33734873
28	0x3d6ba57f	0.057530876
29	0xbf145956	-0.57948816
30	0x3f047a17	0.51748794
31	0xbefb8d9a	-0.4913147
32	0x3ee64408	0.4497378
33	0x3dcab635	0.098980345
34	0xbe34c2cd	-0.17652436
35	0x3eba6f9b	0.36413273
36	0x3db7419a	0.089480594
37	0x3ef09193	0.46986064
38	0x3d6eb6d8	0.058279842
39	0xbe3aea62	-0.18253472
40	0x3e1caca8	0.15300238
41	0xbe261fa1	-0.16223003
42	0x3e76efb8	0.24114883
43	0x3efdb360	0.49550915
44	0x3eb26bf9	0.34848002
45	0xbe7076ae	-0.23482773
46	0x3eb109a4	0.34577668
47	0x3dd0dce1	0.10198379
48	0x3e96c0ae	0.29443878
49	0xbeb09260	-0.34486675
50	0xbf1473cf	-0.5798921
51	0xbe6145c3	-0.21999268
52	0xbeeaaea2	-0.4583636
53	0x3eecf675	0.46281782
54	0x3e25ec98	0.16203535
55	0x3e74ebe0	0.23918104
56	0x3e44761b	0.19185679
57	0xbc67449d	-0.01411548
58	0x3eebcff5	0.46057096
59	0xbecd6ed6	-0.40123624
60	0x3cfdb1bd	0.030968541
61	0xbecd1d48	-0.40061402
62	0x3e2facfc	0.17155832
63	0xbe4a90bb	-0.19781773
64	0x3e328fbf	0.17437647
65	0xbdfae987	-0.12251573
66	0x3ef5add8	0.47984195
67	0xbeb26e1d	-0.34849635
68	0xbeadecc4	-0.339697
69	0xbeb6548b	-0.35611376
70	0x3f01ae18	0.5065627
71	0x3e41c68a	0.18923393
72	0x3f0d0557	0.5508627
73	0xbef35618	-0.47526622
74	0xbf139533	-0.57649535
75	0xbee8028d	-0.45314446
76	0xbec91a7d	-0.3927802
77	0x3e652ebb	0.22381108
78	0x3e4e5927	0.20151196
79	0x3ef9a1a6	0.4875614
80	0xbe94f76c	-0.29095018
81	0xbec17228	-0.37782407
82	0x3ea2d3e1	0.31802276
83	0xbe6c936e	-0.23103115
84	0x3eb2fce9	0.3495858
85	0xbe138e53	-0.14409761
86	0x3ea685ee	0.32524055
87	0xbef06f7d	-0.4696006
88	0xbe8fa456	-0.28055066
89	0x3e3630d0	0.17792058
90	0x3dff112b	0.124544464
91	0xbe0edeae	-0.13952133
92	0x3eb3c61d	0.35112086
93	0x3ec61d89	0.3869441
94	0xbed926ae	-0.42412323
95	0xbe9c2aee	-0.30501503
96	0x3f0754e4	0.5286391
97	0xbe5246c4	-0.20534807
98	0xbe4cbf8f	-0.19994949
99	0xbf0d6ec1	-0.5524712
100	0xbeac349d	-0.3363389
101	0x3e115071	0.14190842
102	0xbdafa6e3	-0.08576753
103	0xbed19ee1	-0.40941527
104	0x3b690c7f	0.0035560427
105	0xbecc6f3c	-0.39928615
106	0xbf02a896	-0.5103849
107	0xbe9a8efb	-0.3018721
108	0xbf0264a2	-0.50934803
109	0xbebb9b23	-0.36641797
110	0x3f128961	0.57240874
111	0x3de11556	0.10990398
112	0x3e41880b	0.18899553
113	0xbf069a01	-0.5257874
114	0xbec202b3	-0.37892684
115	0xbe43af62	-0.19109872
116	0x3dbce7e0	0.09223914
117	0xbf00ccef	-0.50312704
118	0xbe7ccf8c	-0.24688548
119	0xbeb44b94	-0.35213912
120	0x3c178685	0.009248381
121	0xbe63c3f6	-0.22242722
122	0xbd07ac7c	-0.03312348
123	0xbed01272	-0.40639073
124	0xbecbeee5	-0.398307
125	0xbea713eb	-0.32632384
126	0xbe4f01a5	-0.20215471
127	0xbeeadced	-0.45871678
128	0x3ef5e352	0.48024994
129	0xbde3f487	-0.11130624
130	0x3ef7c375	0.4839131
131	0x3e46ae2e	0.19402382
132	0xbef95074	-0.48694193
133	0x3ed233b8	0.41055083
134	0xbe2048ce	-0.15652773
135	0xbe681180	-0.22662926
136	0xbef59500	-0.4796524
137	0xbf1244fe	-0.57136524
138	0x3e320d82	0.17387965
139	0xbdf8ffe4	-0.12158182
140	0x3e58979e	0.21151587
141	0xbef1dcef	-0.4723887
142	0x3eda3420	0.42617893
143	0xbeda1047	-0.42590544
144	0xbdd0b802	-0.10191347
145	0x3dea36a4	0.11436203
146	0x3e9d532c	0.30727518
147	0x3ef71953	0.48261508
148	0x3f0629af	0.52407354
149	0xbee38fa0	-0.44445515
150	0x3e12a8d2	0.14322212
151	0xbe854311	-0.2602773
152	0xbd61412c	-0.054993793
153	0xbedfcf98	-0.4371307
154	0x3f04e650	0.5191393
155	0xbedc1a2d	-0.4298872
156	0x3ea0de34	0.31419528
157	0x3e44688f	0.19180511
158	0x3e43ace6	0.19108924
159	0xbe9d1590	-0.30680513
160	0x3f079f80	0.5297775
161	0x3dfdffdd	0.12402318
162	0x3d9b139e	0.07572101
163	0xbf03fc31	-0.5155669
164	0x3e6fe10e	0.23425695
165	0xbda439e7	-0.080188565
166	0xbe863435	-0.26211706
167	0x3eff565a	0.4987057
168	0x3e07fdc2	0.13280395
169	0xbea2b98f	-0.31782195
170	0xbe94fe98	-0.2910049
171	0xbd12d172	-0.035844274
172	0x3ea3c27a	0.3198431
173	0xbe18def8	-0.14928806
174	0xbea32661	-0.31865218
175	0xbe4fe051	-0.20300414
176	0xbee3b734	-0.4447571
177	0x3e45fc40	0.19334507
178	0x3ededfac	0.43530023
179	0xbf0e87c4	-0.5567591
180	0x3e184903	0.14871602
181	0x3e9163cf	0.2839646
182	0x3de8d539	0.11368794
183	0xbe591488	-0.21199238
184	0x3e97228f	0.29518554
185	0x3e9e3872	0.3090244
186	0x3e5e48f5	0.21707518
187	0xbdcc1f35	-0.0996689
188	0xbe1b3aa8	-0.15159094
189	0x3d8a76c0	0.06760931
190	0xbdc0cea0	-0.094144106
191	0xbe385e8b	-0.18004815

node_encoder.layers.0.bias f4 [64]
0	0x3ea3dc28	0.32003903
1	0x3ee4d381	0.44692615
2	0xbc7b8550	-0.015351608
3	0xbda8aeb5	-0.08236448
4	0x3943b3af	0.00018663587
5	0xb9c02555	-0.00036648908
6	0x3dbbaf7f	0.091643326
7	0x3de9e089	0.1141978
8	0xbef33c89	-0.47507122
9	0xbe28d524	-0.16487557
10	0x3edfb7d4	0.43694937
11	0x3e34cb95	0.17655785
12	0x3acabfb2	0.0015468507
13	0xbe99286f	-0.2991366
14	0xbe9bc841	-0.3042622
15	0xbeef8b78	-0.46786094
16	0xbe0f9a5e	-0.1402373
17	0x3e1675b5	0.14693339
18	0x3ea36c97	0.31918785
19	0x3e5f327f	0.21796606
20	0xbeec0e12	-0.46104485
21	0xbe98b71e	-0.29827207
22	0xbd3b4f78	-0.045730084
23	0x3f025872	0.50916207
24	0x3d1e5a9e	0.038660638
25	0xbdd123d3	-0.10211911
26	0x3e42feed	0.19042559
27	0xbe2fb99a	-0.17160645
28	0xbea63bd9	-0.32467535
29	0x3ebe9982	0.37226492
30	0xbe5b1437	-0.2139443
31	0xbd8dbe84	-0.069211036
32	0xbf06653e	-0.52498233
33	0x3eacb95f	0.33735177
34	0x3ec6c8a3	0.3882495
35	0x3e261d4a	0.1622211
36	0xbeb4fa88	-0.3534739
37	0xbf053af9	-0.5204311
38	0xbed6e236	-0.4196946
39	0x3ec34305	0.3813707
40	0x3e69ffb7	0.22851454
41	0x3edf887c	0.43658817
42	0x3e81e212	0.2536779
43	0x3dca5507	0.09879499
44	0x399dce69	0.0003009916
45	0xbec7a27a	-0.38991147
46	0xbee40693	-0.44536266
47	0xbefb3c0c	-0.4906925
48	0x3e407215	0.18793519
49	0xbe706797	-0.23477016
50	0xbd8e8b57	-0.06960171
51	0xbe9115a3	-0.2833682
52	0xbd7232bb	-0.05913041
53	0xbeb6ea3a	-0.35725576
54	0xbea80eea	-0.3282388
55	0x3e12f3ba	0.14350787
56	0xbdfdaa64	-0.12386015
57	0x3e9d6add	0.30745593
58	0xbe0c9ac9	-0.13730921
59	0xbebfae2c	-0.3743757
60	0xbd64f493	-0.055897307
61	0xbe6cbf0f	-0.23119758
62	0xbe03f72f	-0.12887262
63	0xbf001799	-0.5003601

node_encoder.layers.1.weight f4 [64]
0	0x3f80fcb9	1.0077125
1	0x3f7f168c	0.9964378
2	0x3f7de251	0.99173456
3	0x3f8014e7	1.0006379
4	0x3f7e42d8	0.99320745
5	0x3f80b208	1.0054331
6	0x3f7b40ad	0.9814556
7	0x3f809a40	1.0047073
8	0x3f7ecc82	0.99530804
9	0x3f7e2100	0.99269104
10	0x3f7fae13	0.9987499
11	0x3f809521	1.004551
12	0x3f8037fc	1.0017085
13	0x3f822463	1.0167354
14	0x3f7dc7db	0.9913308
15	0x3f7fe588	0.9995961
16	0x3f7ba87c	0.9830396
17	0x3f7e6ed2	0.9938785
18	0x3f7ccfe4	0.98754716
19	0x3f805194	1.0024896
20	0x3f80affe	1.0053709
21	0x3f7d78b9	0.99012333
22	0x3f806eea	1.0033848
23	0x3f7ea6f2	0.9947349
24	0x3f80d812	1.006594
25	0x3f811829	1.0085498
26	0x3f802d04	1.0013738
27	0x3f81fcef	1.0155314
28	0x3f7e5e4f	0.99362653
29	0x3f80a53f	1.0050429
30	0x3f80348e	1.0016038
31	0x3f80d250	1.0064182
32	0x3f7f9a59	0.9984489
33	0x3f80b769	1.0055972
34	0x3f8189f9	1.0120231
35	0x3f806e54	1.003367
36	0x3f813fd3	1.0097603
37	0x3f81077e	1.0080411
38	0x3f7ee76e	0.99571884
39	0x3f7e2627	0.99276966
40	0x3f808874	1.0041642
41	0x3f7f9be4	0.99847245
42	0x3f80b1e9	1.0054294
43	0x3f7fe374	0.9995644
44	0x3f7fb582	0.99886334
45	0x3f7dd8ce	0.9915894
46	0x3f80c3d4	1.0059762
47	0x3f80bf05	1.0058295
48	0x3f7f3c18	0.9970107
49	0x3f7e4105	0.9931796
50	0x3f81cfe4	1.0141568
51	0x3f81c87f	1.0139312
52	0x3f7d3560	0.9890957
53	0x3f804a35	1.0022646
54	0x3f7e4e6b	0.99338406
55	0x3f7e73b2	0.9939529
56	0x3f7c9f84	0.986809
57	0x3f7f6821	0.99768263
58	0x3f7dc924	0.9913504
59	0x3f80ac32	1.005255
60	0x3f7d8a80	0.9903946
61	0x3f7cca0a	0.9874579
62	0x3f7d58f5	0.9896386
63	0x3f7ca6f6	0.9869226

node_encoder.layers.1.bias f4 [64]
0	0x3a5846d1	0.00082502986
1	0xbb8f396d	-0.0043708594
2	0xbc0bde72	-0.008536922
3	0x3c7017ba	0.014654094
4	0xbc78d4d5	-0.015187462
5	0x3c0b6eeb	0.008510332
6	0xbccb0ee4	-0.024787374
7	0x3bbe4569	0.005806614
8	0xbc9eb38c	-0.019372724
9	0xbbb4aa0a	-0.0055134343
10	0x3be978b2	0.0071249837
11	0xbb6a22e1	-0.0035726356
12	0x3b2b636b	0.0026151787
13	0x3aca0f85	0.0015416002
14	0xbb53ea02	-0.0032335524
15	0x3bd8d93e	0.006617694
16	0xbbc3eb9f	-0.005979016
17	0x3a694187	0.0008898009
18	0xbc113b87	-0.00886429
19	0xbb56c893	-0.003277336
20	0xbbda52f7	-0.006662722
21	0xbbccdac1	-0.0062516634
22	0x3a233dfc	0.0006227193
23	0x3b1529a5	0.0022760418
24	0x39c255e5	0.0003706656
25	0xbc06e9c7	-0.008234448
26	0x3c914c94	0.01773671
27	0x3c4aee84	0.012385968
28	0xbc301cc1	-0.010749043
29	0xbb6e26c1	-0.0036339017
30	0x3bb8c256	0.005638401
31	0x3b26924d	0.0025416792
32	0xbb15701b	-0.0022802416
33	0xbc23824d	-0.009979797
34	0x396115d8	0.0002146581
35	0xbb0fd36e	-0.002194609
36	0x3c0d97b6	0.008642128
37	0x3c1bbcb9	0.009505444
38	0xbbcdcff2	-0.0062808925
39	0xbb235b3b	-0.0024926204
40	0x3bf05a64	0.007334994
41	0xbc56954b	-0.013097118
42	0xbbb70f26	-0.0055865226
43	0x3bfb9a9f	0.0076783444
44	0x3bbae582	0.005703629
45	0x3b20a334	0.002451134
46	0x38a11cee	7.682467e-05
47	0xbc1cf0a0	-0.009578854
48	0x3b5418b9	0.0032363369
49	0xbbbb7745	-0.005721005
50	0x3c0fa1c3	0.008766594
51	0x3ca71d73	0.020399785
52	0x3b4867af	0.0030579378
53	0x3baf903b	0.00535777
54	0xbc0c6650	-0.008569315
55	0xbcc0b309	-0.02352287
56	0xbc11e032	-0.00890355
57	0xbb99323e	-0.004675179
58	0xbc2fd00c	-0.010730755
59	0x3c0df512	0.008664386
60	0xbbfcb01d	-0.007711424
61	0x3c0aeb96	0.00847902
62	0xb954298e	-0.00020233376
63	0xbc572553	-0.013131457

node_encoder.layers.1.running_mean f4 [64]
0	0x3f473a24	0.7782309
1	0x3f365d49	0.7123609
2	0x3ea54504	0.32279217
3	0x3d820a57	0.063496284
4	0x3ed33d1b	0.41257557
5	0x3e892cbf	0.2679195
6	0xbdb0f22e	-0.08639942
7	0x3e155ed3	0.14586954
8	0xbf76cbbb	-0.9640462
9	0xbf1c1773	-0.6097328
10	0x3f245abe	0.6420096
11	0x3e9f92d6	0.31166714
12	0x3ebc4332	0.36770016
13	0xbec70dec	-0.3887781
14	0x3e9b6d68	0.30356908
15	0xbea8ef29	-0.32994965
16	0xbf0098f8	-0.5023341
17	0xbbf1b0ee	-0.007375828
18	0x3f27b719	0.6551376
19	0x3e956209	0.29176357
20	0xbf1b9c50	-0.6078539
21	0xbeb9a795	-0.36260667
22	0xbe40ab96	-0.18815455
23	0x3f3cde6e	0.737769
24	0xbe852c88	-0.26010537
25	0xbef06080	-0.46948624
26	0x3ee6c550	0.45072412
27	0xbe9873c9	-0.29775837
28	0xbd877559	-0.06614179
29	0x3d4b4e52	0.04963524
30	0xbd6bd003	-0.057571422
31	0xbe9406e4	-0.28911507
32	0xbef6c1a6	-0.48194617
33	0xbda7b57f	-0.081889145
34	0x3dc738ef	0.09727656
35	0xbf035995	-0.51308566
36	0xbf0e3668	-0.5555177
37	0xbf1f7031	-0.62280566
38	0xbf31681c	-0.69299483
39	0xbe592d2b	-0.21208636
40	0x3dab9d6c	0.08379635
41	0xbe3e9314	-0.18610793
42	0x3df0bec1	0.117551334
43	0x3ee2eb50	0.44320154
44	0xbdaa23fe	-0.08307646
45	0xbf8d5b61	-1.1043512
46	0xbea5fcff	-0.32419583
47	0xbf3348b3	-0.70032805
48	0x3ebc6def	0.36802623
49	0x3ddae31b	0.10687848
50	0xbe3fe819	-0.18740882
51	0xbed66ac3	-0.41878328
52	0x3ea3267d	0.31865302
53	0xbe072fec	-0.13201874
54	0xbefb05ff	-0.49028012
55	0x3e4ee679	0.20205106
56	0xbecf8f63	-0.40539083
57	0x3ed3b24d	0.4134697
58	0xbf29e79e	-0.66369045
59	0xbe97ac9d	-0.2962388
60	0x3e810f40	0.25206947
61	0xbbaa2c25	-0.0051932507
62	0xbe23e3a1	-0.16004802
63	0xbf1edf08	-0.6205907

node_encoder.layers.1.running_var f4 [64]
0	0x3d2eeaf4	0.042704538
1	0x3cba957f	0.022776363
2	0x3d378166	0.04480114
3	0x3d0adfeb	0.03390495
4	0x3cbfcfc8	0.023414508
5	0x3c992d96	0.018698495
6	0x3c5e205e	0.013557522
7	0x3cb02d8a	0.02150609
8	0x3ce565ab	0.02800258
9	0x3d363742	0.04448629
10	0x3d6a8837	0.05725881
11	0x3c8d0a7c	0.017216913
12	0x3cba2e3f	0.02272713
13	0x3bdd711e	0.0067578694
14	0x3d352ed8	0.044234127
15	0x3c72b8d3	0.014814573
16	0x3d59b262	0.053148635
17	0x3d4365f4	0.047704652
18	0x3c4c2800	0.012460709
19	0x3d13abde	0.036052577
20	0x3c8fdc28	0.017561033
21	0x3bd4d0ee	0.006494633
22	0x3d1ca122	0.038239606
23	0x3d0ad549	0.03389481
24	0x3d9b80ab	0.07592901
25	0x3d1ffbeb	0.039058607
26	0x3d1339c3	0.035943758
27	0x3cba218c	0.022721075
28	0x3cad067d	0.021121258
29	0x3cf8066d	0.030276502
30	0x3c804a4a	0.015660424
31	0x3d108639	0.035284255
32	0x3cdf27f6	0.027240735
33	0x3d2374b8	0.039906234
34	0x3c8b6edc	0.017020635
35	0x3d53a056	0.05166658
36	0x3d918b30	0.07106626
37	0x3d0c489a	0.034248926
38	0x3c89a973	0.016804432
39	0x3d29f07a	0.041489102
40	0x3b9bce24	0.0047547985
41	0x3d31072f	0.04321974
42	0x3d478756	0.04871305
43	0x3cd6bb51	0.026212366
44	0x3cff909b	0.031196883
45	0x3d84b408	0.06479651
46	0x3c011f67	0.007881022
47	0x3d42d0b9	0.047562335
48	0x3c48757b	0.012235041
49	0x3d8e0b49	0.06935746
50	0x3bf3cfd1	0.007440545
51	0x3d588a14	0.052866057
52	0x3c8686b3	0.016421651
53	0x3d018c5c	0.031627998
54	0x3cf242fb	0.029572954
55	0x3d09ed39	0.0336735
56	0x3ca08cf1	0.019598456
57	0x3c3cf3dc	0.01153275
58	0x3d0ede9a	0.03488026
59	0x3d6066ba	0.054785468
60	0x3c40ceec	0.011768084
61	0x3cac99bd	0.021069402
62	0x3bd8aef8	0.006612655
63	0x3b9991c7	0.0046865675

node_encoder.layers.3.weight f4 [64, 64]
0	0x3d7717a3	0.060325276
1	0xbd9d3209	-0.07675559
2	0x3d54a156	0.051911674
3	0x3d493772	0.049125142
4	0x3da7c74d	0.081923105
5	0xbdd1265c	-0.102123946
6	0x3da4632f	0.0802673
7	0xbd8e5d38	-0.06951374
8	0x3d2df4ef	0.042469915
9	0x3deaaf45	0.11459211
10	0xbbeabf9f	-0.0071639563
11	0xbbf0e6c0	-0.0073517263
12	0xbd12214d	-0.03567629
13	0xbde5ab4e	-0.112143144
14	0x3d51d12b	0.05122487
15	0xbe06f822	-0.13180593
16	0x3db2131e	0.086950526
17	0x3da7189f	0.08158993
18	0x3ddf74bc	0.10910937
19	0xbd0a9326	-0.033831738
20	0xbdbc20cc	-0.09185943
21	0x3ca59db3	0.020216798
22	0x3da345fc	0.07972333
23	0xbe07848b	-0.13234155
24	0xbc94dbc1	-0.018171193
25	0xbdab9362	-0.083777204
26	0xbc8e3cec	-0.017363034
27	0xbd8ed5f1	-0.069744
28	0xbd5d4f7a	-0.054030873
29	0xbd4a03c5	-0.04932
30	0xbe00e04f	-0.12585567
31	0x3de7a15a	0.11310072
32	0x3dee5e16	0.11639039
33	0xbceafa0d	-0.028683687
34	0xbbc57db5	-0.0060269483
35	0xbd45501a	-0.048172094
36	0xbe0964f3	-0.13417415
37	0xbdec88bb	-0.11549517
38	0x3d172e6e	0.036909513
39	0xbd9263f5	-0.071479715
40	0xbd907c82	-0.07054998
41	0xbc01b7c7	-0.007917351
42	0xbd55b3a2	-0.052173264
43	0xbd41f582	-0.047353275
44	0xbb690b2c	-0.0035559637
45	0xbca8c2b5	-0.020600656
46	0xbd31a0b8	-0.043366164
47	0xbd8a20ef	-0.06744563
48	0xbde7c05d	-0.11315987
49	0x3dcb166c	0.09916386
50	0xbd1ef5e9	-0.038808737
51	0x3cdbe323	0.026841706
52	0xbd5807e5	-0.052741904
53	0x3b477f10	0.0030440725
54	0x3e02cf93	0.12774496
55	0x3d3d1d05	0.046170253
56	0xbdca592d	-0.0988029
57	0x3d36a972	0.04459519
58	0x3df52a52	0.119709626
59	0x3cfac2a6	0.030610394
60	0x3d99c678	0.07508558
61	0x3de7acb2	0.11312236
62	0xbc08ab6d	-0.008341652
63	0x3d0ef56d	0.034902025
64	0xbdcb0f0f	-0.099149816
65	0xbc9ef683	-0.019404655
66	0x3dd03874	0.101670176
67	0x3d7ee6f5	0.062231977
68	0xbd8f9314	-0.07010475
69	0xbdc6c375	-0.09705249
70	0xbdc3d2b9	-0.095616765
71	0xbdde4b75	-0.10854236
72	0xbdc5cbd7	-0.0965802
73	0xbd18f36e	-0.037341528
74	0x3dbce774	0.09223834
75	0x3d0740f0	0.033020914
76	0xbdc96746	-0.09834151
77	0xbde6195e	-0.11235307
78	0x3d905cbf	0.0704894
79	0xbdb9159d	-0.090373255
80	0xbc0b628a	-0.00850738
81	0x3d95af7e	0.07308863
82	0xbd45f447	-0.048328664
83	0xbcc415c5	-0.023936162
84	0xba967c03	-0.001148105
85	0xbd3015e3	-0.042989623
86	0xbd611214	-0.05494888
87	0xbddb1802	-0.106979385
88	0xbdbe0896	-0.092789814
89	0xbd804e41	-0.06264926
90	0x3de15965	0.11003379
91	0xbd9710eb	-0.07376274
92	0xbd9acb15	-0.07558266
93	0x3d05d195	0.032670576
94	0x3d3e4a8b	0.04645781
95	0x3d9dee7a	0.077115014
96	0x3dd0cdbb	0.1019549
97	0x3d8fcc1a	0.07021351
98	0xbdebbfcb	-0.11511191
99	0x3c83cb7b	0.016088238
100	0x3dba1074	0.090851694
101	0xbca40147	-0.02002014
102	0xbd96912a	-0.073519066
103	0x3df44cba	0.11928697
104	0xbd1b0194	-0.037843302
105	0xbd89d641	-0.06730319
106	0xbdcc0a4b	-0.09962901
107	0x3c47f81f	0.012205153
108	0x3d27ef18	0.040999502
109	0x3d03d777	0.032187905
110	0x3d0ae9cd	0.033914376
111	0xbddb3c14	-0.10704818
112	0xbdd02688	-0.10163599
113	0xbc101464	-0.008793924
114	0x3dfbf2b1	0.12302149
115	0x3d73d01d	0.059524644
116	0xbd8cc33d	-0.06873176
117	0xbc653ee7	-0.013992048
118	0xbda8dd4b	-0.08245333
119	0xbd395f5a	-0.04525695
120	0x3cf7096a	0.030155856
121	0x3d67daf2	0.056605287
122	0x3dd40c26	0.1035388
123	0xbdfe2e24	-0.124111444
124	0x3da97acb	0.08275374
125	0xbda4c7ac	-0.08045897
126	0x3d60f95c	0.054925308
127	0x3de57956	0.112047836
128	0xba847293	-0.0010104947
129	0x3dff5f43	0.124693416
130	0xbdf4f0d4	-0.11959997
131	0xbd14f253	-0.03636391
132	0x3da75ab1	0.08171595
133	0xbcb3a13a	-0.021927465
134	0xbc984e4c	-0.018592022
135	0xbd701200	-0.058610916
136	0x3dab3cfc	0.08361241
137	0x3d8ab988	0.067736685
138	0x3d1ca048	0.038238794
139	0xbd9cf599	-0.076640315
140	0xbdcf3373	-0.10117235
141	0x3ca798f2	0.020458672
142	0x3d0dc541	0.034611944
143	0xbd41115d	-0.0471357
144	0xbd088e81	-0.033339027
145	0x3d9f78dd	0.07786725
146	0x3c2db012	0.01060106
147	0x3c3e8553	0.011628467
148	0xbd106ea1	-0.035261754
149	0xbdd80bf4	-0.10549155
150	0xbde728cb	-0.112870775
151	0xbd4ae8af	-0.04953831
152	0xbd831c1b	-0.06401845
153	0x3d017bb7	0.031612124
154	0xbd0b7931	-0.034051124
155	0xbd289349	-0.041156087
156	0x3dfdd06e	0.123932704
157	0x3d15415f	0.036439296
158	0x3daa0a2c	0.083027214
159	0xbd63da1f	-0.05562794
160	0xbd2adb03	-0.041712772
161	0x3d1fdab3	0.039026927
162	0xbdb70ae3	-0.08937623
163	0xbdaea2ae	-0.085271224
164	0xbc5bc33c	-0.013413247
165	0xbd2ce481	-0.042210106
166	0xbdcda610	-0.100414395
167	0x3da2d058	0.07949895
168	0x3dc3fc39	0.09569592
169	0x3c9f6556	0.0194575
170	0xbce6fcc9	-0.02819671
171	0xbde41a28	-0.111378014
172	0xbd14f103	-0.03636266
173	0x3d116be5	0.035503287
174	0x3d661526	0.056172512
175	0xbc12c545	-0.0089581655
176	0xbd7559c9	-0.05990008
177	0x3d8f3e54	0.0699431
178	0xbdcb764d	-0.099346735
179	0x3dafb80d	0.08580027
180	0xbd32f10f	-0.043686923
181	0x3c3c09fc	0.01147699
182	0xbced6f4b	-0.028983733
183	0x3c097f01	0.0083920965
184	0xbd1c132d	-0.038104225
185	0x3dc831c3	0.09775116
186	0x3b3ee12d	0.0029125914
187	0x3dd04489	0.10169322
188	0x3ded494d	0.11586247
189	0xbd9ffbca	-0.07811697
190	0xbdb6f99b	-0.08934327
191	0x3dd30699	0.10303993
192	0x3db73ab8	0.089467466
193	0xbdb1c444	-0.08680013
194	0xbbb93f93	-0.0056533306
195	0xbe059a1c	-0.1304707
196	0xbdc1d0c8	-0.0946365
197	0x3c7fb4be	0.015607057
198	0x3cadb36f	0.021203725
199	0x3cfec883	0.03110147
200	0xbd00da7c	-0.031458363
201	0x3dd3b16f	0.10336577
202	0x3cd07466	0.025446128
203	0xbd8a1656	-0.067425415
204	0xbc575a4b	-0.013144086
205	0x3c96c567	0.018404676
206	0x3d49f24b	0.049303334
207	0xbdc18251	-0.09448684
208	0x3d2b1b02	0.041773804
209	0xbd6cdc64	-0.05782737
210	0xbdc7977b	-0.097456895
211	0xbd9fda22	-0.078052774
212	0x3e03333b	0.12812512
213	0x3dc2bbe0	0.095084906
214	0x3df420de	0.119203314
215	0x3d8ca60d	0.06867609
216	0x3dce7001	0.10079957
217	0xbc463356	-0.0120972
218	0xbd9f5d6d	-0.077814914
219	0x3d4fe91f	0.05075943
220	0xbd6b2f2a	-0.057418026
221	0xbda4f7ca	-0.080550745
222	0xbd0914ae	-0.033466987
223	0x3d188eca	0.03724555
224	0x3d8c066c	0.068371624
225	0xbd37f8bb	-0.044914942
226	0xbd87d17a	-0.06631751
227	0x3cac61aa	0.021042664
228	0xbd8f377d	-0.069930054
229	0xbdbc145f	-0.09183573
230	0x3d8c30c6	0.0684524
231	0xbcb79013	-0.022407567
232	0x3df9ad38	0.12191242
233	0x3dfe8281	0.124272354
234	0x3d32352b	0.043507736
235	0x3d29bf18	0.041442007
236	0x3c90caad	0.017674768
237	0x3ab9ecec	0.0014184988
238	0xbb029915	-0.001992767
239	0xbc217217	-0.009853861
240	0x3d4b9fc3	0.049712908
241	0x3ddb56e3	0.10709932
242	0xbcb9a647	-0.022662295
243	0xbd833f92	-0.064086094
244	0xbcc9c62c	-0.024630629
245	0xbd8a9fb3	-0.067687415
246	0x3cec9c82	0.028883222
247	0x3dc7c216	0.09753816
248	0x3dde8990	0.10866082
249	0x3d44aef7	0.048018422
250	0xbdc84c98	-0.09780234
251	0xbd9cf7d0	-0.07664454
252	0xbcf18cc0	-0.02948606
253	0xbc842e03	-0.016135221
254	0x3c339123	0.010959896
255	0xbdf741b2	-0.12073077

node_encoder.layers.3.bias f4 [64]
0	0x385f342a	5.3215925e-05
1	0x3c838e0c	0.016058944
2	0xba816ec3	-0.0009874929
3	0xbd39b1df	-0.045335647
4	0x3c27637b	0.010216589
5	0x3cf3b860	0.029751003
6	0xbcb4cb7a	-0.022069681
7	0xbd152761	-0.036414508
8	0xbd246b89	-0.040141616
9	0xbc96c4f4	-0.018404461
10	0xb8418169	-4.613531e-05
11	0x39b59402	0.00034633285
12	0x37bf94b8	2.2838227e-05
13	0x39aec5b6	0.00033335172
14	0x3d07dccf	0.033169564
15	0xb9992793	-0.0002921192
16	0xbceaecee	-0.02867743
17	0x39b1b809	0.00033897188
18	0xbcf194a4	-0.029489823
19	0xbbb6664c	-0.005566394
20	0xbd9214e5	-0.071328916
21	0xbaca67c0	-0.0015442297
22	0xbd519067	-0.051163103
23	0x3c0ab45d	0.0084658535
24	0x3d2658b4	0.040611938
25	0xbd429ab4	-0.047510818
26	0xbcbaf2f7	-0.022820933
27	0xbd5905b6	-0.052983962
28	0xb95a25f6	-0.00020804242
29	0xbaef731a	-0.0018268556
30	0xbcb0c1ca	-0.02157678
31	0x3d0042ec	0.03131382
32	0x3c36f4ca	0.011166761
33	0xbd884419	-0.066536136
34	0x39951ea4	0.00028442324
35	0xbc4fafee	-0.012676222
36	0x3ac65d8f	0.0015134084
37	0x3cd52269	0.026017385
38	0xba1f6725	-0.00060807384
39	0xbd2adb8c	-0.041713282
40	0x3d2f2d7d	0.04276799
41	0xbd8ae155	-0.0678126
42	0xbb9d2900	-0.0047961473
43	0x3c0968be	0.008386789
44	0x3d837336	0.06418459
45	0x3d98da16	0.074634716
46	0x3ab7b86e	0.0014016756
47	0x3b83a4b9	0.004017439
48	0xbd820d55	-0.06350199
49	0x3aef9492	0.001827853
50	0xbb1b6764	-0.0023712749
51	0x3a2d3bc5	0.00066083326
52	0xbd18387f	-0.037163254
53	0xbae9fae7	-0.0017851264
54	0x3cb12785	0.02162529
55	0x3d53c25d	0.05169903
56	0x3ab84f95	0.0014061803
57	0x3d8ac4b3	0.06775799
58	0xbd927b30	-0.071524024
59	0xba257988	-0.000631236
60	0x3c0031f1	0.007824407
61	0xba357c2d	-0.00069231057
62	0x3c897539	0.016779529
63	0xbd1c2e7e	-0.038130276

node_encoder.layers.4.weight f4 [64]
0	0x3f7d0d98	0.9884887
1	0x3f813c1b	1.0096468
2	0x3f7f4176	0.9970926
3	0x3f7faa8c	0.9986961
4	0x3f7f7ca7	0.9979958
5	0x3f808d7d	1.0043179
6	0x3f807bfc	1.0037837
7	0x3f8026c3	1.0011829
8	0x3f801825	1.0007368
9	0x3f7ef6f0	0.99595547
10	0x3f7ba215	0.9829419
11	0x3f810c31	1.0081846
12	0x3f7ef41b	0.99591225
13	0x3f7eccae	0.99531066
14	0x3f808865	1.0041624
15	0x3f7cfa25	0.9881919
16	0x3f8056dd	1.0026509
17	0x3f80e9e2	1.0071375
18	0x3f7d5a45	0.98965865
19	0x3f7f78aa	0.99793494
20	0x3f80cdb1	1.0062772
21	0x3f8113fa	1.0084221
22	0x3f7f51ca	0.99734175
23	0x3f813673	1.0094742
24	0x3f81cfd2	1.0141547
25	0x3f82b753	1.0212196
26	0x3f808f48	1.0043726
27	0x3f80dcde	1.0067403
28	0x3f7b9624	0.9827597
29	0x3f7e7692	0.99399674
30	0x3f7d8974	0.9903786
31	0x3f7b5f2d	0.981921
32	0x3f800bc1	1.0003587
33	0x3f817668	1.011426
34	0x3f810e5f	1.0082511
35	0x3f80f779	1.0075523
36	0x3f7fb0b0	0.9987898
37	0x3f7e270e	0.9927834
38	0x3f7f3efd	0.9970549
39	0x3f82902a	1.0200245
40	0x3f7fe6bd	0.99961454
41	0x3f7f620b	0.99758977
42	0x3f7d56d7	0.9896063
43	0x3f7f1955	0.9964803
44	0x3f80bf5f	1.0058402
45	0x3f81a3b4	1.0128083
46	0x3f80446f	1.0020884
47	0x3f7f0f94	0.99633145
48	0x3f815533	1.0104126
49	0x3f7f0184	0.9961169
50	0x3f804c68	1.0023317
51	0x3f7e0736	0.99229753
52	0x3f7e75be	0.9939841
53	0x3f7fe82b	0.99963635
54	0x3f7e3f7d	0.99315625
55	0x3f80f81d	1.0075718
56	0x3f7e51cd	0.9934357
57	0x3f80b9c9	1.0056697
58	0x3f7e53f3	0.99346846
59	0x3f7f8a42	0.9982034
60	0x3f80dc6e	1.006727
61	0x3f7f6e80	0.99777985
62	0x3f7f6062	0.99756444
63	0x3f7f2e4b	0.9968001

node_encoder.layers.4.bias f4 [64]
0	0xbb8e1e2f	-0.0043370943
1	0x3b1a694f	0.0023561304
2	0xbb6b12c2	-0.0035869335
3	0xbb3ad020	-0.00285054
4	0xbc0666ee	-0.008203251
5	0x3ba340ec	0.0049821045
6	0x3a60881e	0.0008565205
7	0xbc0ba48d	-0.008523119
8	0x3bcd786b	0.0062704585
9	0x39f57530	0.00046817353
10	0xbca423f8	-0.020036682
11	0x3bc860d1	0.006115057
12	0x3c247d1b	0.010039593
13	0xbaf04b0a	-0.001833291
14	0xbba9e890	-0.0051851943
15	0xbc1811b9	-0.009281569
16	0x3bfbe6e5	0.007687437
17	0x3a5cb14e	0.00084187544
18	0x3b91c4f6	0.0044485284
19	0x3bd88088	0.006607119
20	0x3b90dc5e	0.004420801
21	0x3c916d56	0.01775233
22	0xb995d057	-0.0002857472
23	0x39fcd34b	0.0004822261
24	0x3c42da4f	0.011892869
25	0x3c76089a	0.015016699
26	0x3beb0426	0.0071721254
27	0xbb732e12	-0.0037106317
28	0xbbf17a9c	-0.0073693525
29	0xbb9eb64e	-0.0048435098
30	0xbb49b20a	-0.0030776286
31	0xbc813c52	-0.015775833
32	0xbbb2aa30	-0.005452417
33	0x3c115ba7	0.008871949
34	0x3b0b835c	0.0021288013
35	0x3ba5d073	0.0050602495
36	0xbbcaed4c	-0.006192839
37	0xbc13e348	-0.009026356
38	0x3bbc42c4	0.005745264
39	0x3c7351e4	0.014851067
40	0xbbacf531	-0.0052782525
41	0x3b1e5823	0.002416142
42	0x3b550d16	0.003250902
43	0xb9c6d09c	-0.0003792093
44	0xbbdb1f6f	-0.006687097
45	0x3bf91066	0.007600832
46	0x3bd91c12	0.0066256607
47	0x39582f26	0.0002061693
48	0x3c0a667b	0.008447285
49	0x3be27131	0.006910466
50	0x3c6bb1d1	0.014385656
51	0xbc0de141	-0.008659662
52	0xbc166806	-0.009180075
53	0x3bf5f80a	0.007506375
54	0xbb2f484d	-0.0026745975
55	0x3c4217ae	0.011846466
56	0xbbc7cee9	-0.0060976637
57	0xbc638b1c	-0.013888147
58	0xbbf493ce	-0.0074639088
59	0xbc20499d	-0.009783176
60	0x3bcda58d	0.0062758387
61	0xbb26c44b	-0.002544659
62	0x3c338924	0.01095799
63	0xbbbc2426	-0.005741614

node_encoder.layers.4.running_mean f4 [64]
0	0xbe2a416b	-0.16626517
1	0xbe8c1fc5	-0.27367988
2	0xbdf3edef	-0.119106166
3	0xbc14b693	-0.009076732
4	0x3c01ceb7	0.00792282
5	0xbebc04e6	-0.36722487
6	0x3df0bb3d	0.11754463
7	0x3c198975	0.009371151
8	0x3ce0e62a	0.0274535
9	0x3e2cf0ab	0.16888683
10	0xbe7c2e13	-0.24626951
11	0xbe25ee5d	-0.1620421
12	0x3cdb1d03	0.026747232
13	0xbdc2c114	-0.09509483
14	0x3e9c2e7a	0.3050421
15	0x3dd5ce1a	0.104397014
16	0x3d76cfd9	0.060256813
17	0xbe10448f	-0.14088653
18	0xbe45fb15	-0.19334061
19	0x3e78295d	0.24234529
20	0xbcdf0f48	-0.027228966
21	0xbe260b32	-0.16215208
22	0x3d7b3e3d	0.061338652
23	0x3e4e2e84	0.20134932
24	0x3d461970	0.048364103
25	0xbe48d121	-0.19611026
26	0xbd3f19b5	-0.046655376
27	0xbef9d659	-0.48796347
28	0x3de8a39a	0.113593295
29	0x3ef69714	0.48162138
30	0xbe82761b	-0.25480732
31	0xbee6af14	-0.4505545
32	0xbdc33b8f	-0.09532844
33	0xbf0d2991	-0.5514155
34	0x3e3520a3	0.17688231
35	0x3e64252a	0.22279802
36	0x3e90811d	0.28223506
37	0xbe9fd410	-0.31216478
38	0x3ee7ca19	0.45271376
39	0xbe15099d	-0.14554448
40	0x3e95e2de	0.29274648
41	0xbe35c267	-0.1774994
42	0xbdf78d9d	-0.120875575
43	0x3dde3b9f	0.108512156
44	0xbbe0fb0c	-0.0068658646
45	0x3e056b1d	0.13029142
46	0x3e417246	0.18891248
47	0xbec5c9bd	-0.38630477
48	0xbe16d789	-0.14730658
49	0xbdd80820	-0.10548425
50	0xbe642c0f	-0.22282432
51	0xbe9deaa5	-0.30843082
52	0xbe109f41	-0.1412325
53	0xbe76f9ff	-0.24118803
54	0xbc8bcd0f	-0.017065553
55	0x3e12b14a	0.14325443
56	0xbe41775c	-0.18893188
57	0x3ea028aa	0.31281024
58	0x3dce1f44	0.10064557
59	0x3e8b8e52	0.2725702
60	0xbd0c710c	-0.034287497
61	0x3dd9e228	0.10638839
62	0x3e0ca3e8	0.137344
63	0x3de91841	0.11381579

node_encoder.layers.4.running_var f4 [64]
0	0x3e04a716	0.12954363
1	0x3dc3165a	0.095257476
2	0x3db3cdc7	0.08779483
3	0x3de4cf66	0.111723706
4	0x3db88373	0.09009447
5	0x3d010a27	0.031503823
6	0x3e856902	0.26056677
7	0x3e401ba8	0.1876055
8	0x3e4c3cbc	0.19945043
9	0x3dadfd0a	0.08495529
10	0x3d0415cd	0.032247353
11	0x3db4b675	0.088238634
12	0x3e32ca33	0.17459945
13	0x3e418379	0.18897809
14	0x3d2318b0	0.039818466
15	0x3d693bdf	0.056941863
16	0x3de72298	0.11285895
17	0x3e062796	0.13101038
18	0x3d4c9919	0.049950693
19	0x3d727f47	0.059203412
20	0x3da15449	0.07877404
21	0x3e77995c	0.24179596
22	0x3e59a272	0.21253374
23	0x3cc436a3	0.023951834
24	0x3e10179e	0.14071509
25	0x3e1c4c10	0.1526339
26	0x3e512834	0.20425493
27	0x3d585360	0.052813888
28	0x3d135f66	0.03597965
29	0x3df2dd6c	0.11858639
30	0x3d9c908a	0.07644756
31	0x3e561e39	0.20909967
32	0x3d5c16f2	0.05373282
33	0x3d76d54a	0.060262002
34	0x3d8eb32f	0.0696777
35	0x3de68448	0.112556994
36	0x3deece0c	0.11660394
37	0x3ec1f2ff	0.37880704
38	0x3e3d9f27	0.18517743
39	0x3d6f8a4c	0.0584815
40	0x3dfe430e	0.124151334
41	0x3e1e587e	0.15463445
42	0x3e09261a	0.13393441
43	0x3e6e59e2	0.23276475
44	0x3db9506e	0.09048544
45	0x3e1612ff	0.14655684
46	0x3df8fa1e	0.12157081
47	0x3e2dede7	0.16985284
48	0x3e01bb8a	0.12669197
49	0x3db6c0db	0.08923503
50	0x3dceafcc	0.10092124
51	0x3e090b1a	0.13383141
52	0x3e592730	0.21206355
53	0x3dc54f72	0.096342936
54	0x3e4fafe3	0.20281939
55	0x3e0c1d15	0.13682969
56	0x3e646fbe	0.22308251
57	0x3d39007f	0.04516649
58	0x3e03a623	0.12856345
59	0x3dd46bad	0.103721
60	0x3dd691f9	0.10477061
61	0x3e4fcfa9	0.2029406
62	0x3e3de290	0.18543458
63	0x3e1d7222	0.1537557

node_encoder.layers.6.weight f4 [32, 64]
0	0x3dbb5f44	0.0914903
1	0xbde19e84	-0.110165626
2	0xbda059b3	-0.07829609
3	0xbc523593	-0.012830156
4	0xbdf60387	-0.120123915
5	0xbdedaae5	-0.11604861
6	0xbdde107d	-0.10842989
7	0x3dcdc8b7	0.10048049
8	0x3c95c144	0.018280633
9	0xbd2cff5b	-0.042235713
10	0xbb3726de	-0.002794675
11	0xbdeac6ae	-0.114636764
12	0xbdf3b0ed	-0.1189898
13	0xbdbb22e9	-0.09137518
14	0xbe052884	-0.13003737
15	0x3da07eb5	0.078366674
16	0xbd3dab2c	-0.04630582
17	0xbd207c30	-0.039180934
18	0xbde2fb6c	-0.11083111
19	0x3c3f7976	0.011686673
20	0xbc88e8c9	-0.016712563
21	0xbdb900df	-0.09033369
22	0x3d975ac3	0.07390358
23	0x3dcd58b4	0.100266844
24	0xbdc7e33a	-0.09760137
25	0x3d9c1ee8	0.076230824
26	0xbc841330	-0.01612243
27	0x3c6403a6	0.0139168855
28	0x3d6e6543	0.05820204
29	0xbcee975a	-0.029124904
30	0x3dd08f0c	0.10183534
31	0x3d91a685	0.07111839
32	0xbda06cb4	-0.078332335
33	0xbd8e7b86	-0.06957154
34	0xbe069567	-0.1314293
35	0x3d0846d9	0.03327069
36	0xbdd87327	-0.105688386
37	0xbdc68d6d	-0.096949436
38	0xbdab0074	-0.08349696
39	0xbe0240c2	-0.12720016
40	0xbdd9fe0c	-0.10644159
41	0x3de87576	0.11350529
42	0x3d983acb	0.07433089
43	0x3dd8697b	0.10566994
44	0xbd7b4d18	-0.06135282
45	0xbd4c9d5b	-0.049954753
46	0xbd47c034	-0.048767284
47	0xbc03c834	-0.008043338
48	0xbdc68126	-0.09692602
49	0x3c633e4e	0.013869835
50	0xbda58b4e	-0.08083211
51	0x3d0b1fa6	0.03396573
52	0x3dddab32	0.108236685
53	0x3c41e1fe	0.011833666
54	0x3daf9359	0.08573026
55	0xbdc8e900	-0.09810066
56	0xbcc1d09f	-0.023659049
57	0xbdb6c544	-0.08924344
58	0xbca1f4ee	-0.019770112
59	0xbd5b337e	-0.053515904
60	0xbd9c039f	-0.07617878
61	0xbdefdfe0	-0.11712623
62	0xbd3dae19	-0.04630861
63	0x3c977d6e	0.018492427
64	0xbc8632c4	-0.016381629
65	0xbddf3ddf	-0.10900473
66	0x3da323b4	0.07965794
67	0x3dac6db3	0.08419361
68	0xbd939161	-0.07205463
69	0x3c5ab133	0.013347912
70	0x3d9d3fe5	0.076782025
71	0xbdfd08bb	-0.12355181
72	0xbdd37057	-0.103241615
73	0x3d883401	0.06650544
74	0x3bf9072d	0.0075997324
75	0x3d4f0c28	0.050548702
76	0xbd6bc6e6	-0.05756273
77	0x3c9bf4e3	0.01903767
78	0x3d9d2645	0.07673315
79	0xbcdbfcd7	-0.026853962
80	0xbd39117b	-0.045182686
81	0xbe03fcac	-0.12889355
82	0xbc8e808c	-0.01739528
83	0x3d9b9d9d	0.07598422
84	0xbdfd55e6	-0.123698995
85	0xbb84ea7c	-0.004056273
86	0x3dadb284	0.08481315
87	0xbca1dc27	-0.019758297
88	0xbd5334d6	-0.05156406
89	0xbd41c7f2	-0.047309823
90	0xbd48384a	-0.048881806
91	0x3d151550	0.03639728
92	0xbddf50f7	-0.10904115
93	0x3d297cf5	0.041378934
94	0xbc7fba23	-0.015608343
95	0xba698986	-0.0008908737
96	0xbb8169cc	-0.0039493795
97	0x3d9b06ea	0.07569678
98	0xbda19111	-0.07888997
99	0xbdffeccb	-0.124963365
100	0xbdca65ab	-0.09882673
101	0xbdbacd40	-0.091211796
102	0xbd86a9ec	-0.06575379
103	0x3de85740	0.113447666
104	0xbdb3352e	-0.087503776
105	0xbd91c968	-0.07118493
106	0xbdc862b8	-0.09784454
107	0xbd82b75a	-0.06382628
108	0x3b79d502	0.0038121347
109	0xbda806b8	-0.082044065
110	0xb9b780d3	-0.00035000462
111	0x3d5fe635	0.054662902
112	0xbcc4bbd8	-0.024015352
113	0x3d5b63c6	0.05356195
114	0x3d18471a	0.037177183
115	0x3dfd0fad	0.123565055
116	0xb91e872c	-0.0001511841
117	0x3dd75ec7	0.10516124
118	0x3dc59290	0.09647095
119	0x3d8119cb	0.06303748
120	0x3dab5d9f	0.08367466
121	0xbdbb1036	-0.09133951
122	0xbd98643a	-0.07440992
123	0x3d3d025b	0.046144824
124	0x3d34a1da	0.044099666
125	0x3dcce6fc	0.10004994
126	0xbc8c7c21	-0.017149033
127	0xbce7cb13	-0.028295076
128	0x3dae6d90	0.08516991
129	0x3c96cb23	0.01840741
130	0x3e00c8e8	0.1257664
131	0xbd6ff4e7	-0.058583166
132	0xbd115422	-0.035480626
133	0xbbc6f9f1	-0.006072276
134	0x3d79a257	0.060945835
135	0xbde38a6b	-0.111103855
136	0xbd385d3b	-0.045010787
137	0x3dc2ae9e	0.09505962
138	0x3cfc066c	0.030764781
139	0x3da5a612	0.08088316
140	0xbd32faf9	-0.043696377
141	0xbd9fbe1b	-0.077999316
142	0xbdb61262	-0.08890225
143	0xbd90ef12	-0.07076849
144	0xbdb989da	-0.09059496
145	0x3d83efbf	0.06442212
146	0x3d370061	0.044678096
147	0xbd96316d	-0.07333646
148	0x3df3d632	0.11906089
149	0x3d1978b9	0.037468646
150	0x3d23645d	0.039890636
151	0xbd6926ca	-0.056921758
152	0x3da06685	0.07832054
153	0xbdb9a5a9	-0.090648
154	0x3dc72bbf	0.09725141
155	0xbd85f57d	-0.06540964
156	0x3d658715	0.056037027
157	0xbd576f4e	-0.052596383
158	0x3da130a9	0.07870609
159	0xbdd60d8d	-0.10451803
160	0xbcbff8e5	-0.023434112
161	0xbd3066b0	-0.04306668
162	0xbdaac823	-0.08338954
163	0xbd6a2388	-0.05716279
164	0xbd33a4f5	-0.043858487
165	0x3bb04cdd	0.0053802566
166	0x3dabb808	0.083847106
167	0xbc802cfc	-0.01564645
168	0x3ded67b4	0.115920454
169	0xbd5a6470	-0.05331844
170	0xbd781fa0	-0.060577035
171	0xbc009a44	-0.00784928
172	0xbc9a1d77	-0.018812878
173	0x3d297bd2	0.04137785
174	0x3ddb35a4	0.107035905
175	0x3d0d06de	0.034430377
176	0xbde0584e	-0.10954343
177	0xbd3eda0c	-0.046594664
178	0xbcc9f7e7	-0.024654342
179	0xbdd4541c	-0.10367605
180	0x3d3cf314	0.046130255
181	0x3dd0cab8	0.101949155
182	0x3d7a2e82	0.06107951
183	0xb9623119	-0.0002157133
184	0xbc841d36	-0.01612721
185	0xbd92dd8e	-0.071711645
186	0xbc8a4ae2	-0.01688141
187	0x3de29d03	0.11065104
188	0xbd937ba3	-0.07201316
189	0x3cb98a27	0.022648884
190	0xbdad909d	-0.084748484
191	0xbcf0b299	-0.029382037
192	0x3ca12a35	0.019673446
193	0xbdbfa41c	-0.09357473
194	0x3d22dd60	0.0397619
195	0xbdd0496c	-0.10170254
196	0xbd3d0eb1	-0.04615659
197	0x3db9a52b	0.090647064
198	0x3dfe3452	0.12412323
199	0xbb02d62b	-0.001996408
200	0xbdbf75a2	-0.093486086
201	0xbdbfbcce	-0.093621835
202	0xbce5131e	-0.027963217
203	0xbd90d821	-0.07072473
204	0x3dc388ce	0.09547578
205	0xbdb2cc9c	-0.087304324
206	0x3db1756f	0.08664977
207	0x3c8d313d	0.017235393
208	0xbd264232	-0.040590473
209	0x3ddb1e83	0.10699179
210	0x3d85faac	0.065419525
211	0x3af83dfb	0.001893937
212	0xbd9c5c6c	-0.076348156
213	0xbd3d5e4f	-0.046232518
214	0x3d3dd223	0.04634298
215	0x3de0682b	0.109573685
216	0xbd3f4f67	-0.046706583
217	0xbd1e6c8f	-0.03867775
218	0xbdea2bca	-0.11434133
219	0x3da5e975	0.08101169
220	0x3df90cfb	0.12160679
221	0x3da2a8ef	0.07942378
222	0xbda25e82	-0.07928182
223	0x3d9b83c5	0.075934924
224	0xbd332967	-0.043740656
225	0x3d86522e	0.06558643
226	0x3d8be626	0.06831007
227	0xbdc438da	-0.09581156
228	0x3d09eb94	0.03367193
229	0x3d5992c1	0.05311847
230	0xbd86298c	-0.06550893
231	0x3dd10cb6	0.102075025
232	0x3dbba2f4	0.0916194
233	0x3de6391d	0.11241362
234	0x3bd68418	0.0065465085
235	0xbd8b75e6	-0.06809597
236	0xbd810c7d	-0.0630121
237	0x3d509d98	0.050931543
238	0xbce1025f	-0.027466951
239	0x3dba5dfb	0.090999566
240	0x3ddf375e	0.10899232
241	0x3c30ae55	0.0107837515
242	0xbde3f07a	-0.11129852
243	0x3d4157a8	0.047202736
244	0x3de24a9a	0.11049385
245	0xbceff64b	-0.029292246
246	0xbd95b694	-0.07310215
247	0xbcec7eaa	-0.028868992
248	0x3c39041c	0.011292484
249	0xbdc7fa50	-0.0976454
250	0x3d72834c	0.059207246
251	0x3d658372	0.05603356
252	0xbd20d1c9	-0.039262567
253	0xbd15f09a	-0.03660641
254	0xbd63c41c	-0.055606946
255	0x3dd97d09	0.10619552

node_encoder.layers.6.bias f4 [32]
0	0x3d07e866	0.033180617
1	0x3c878ae9	0.01654573
2	0x3cd72e8e	0.026267316
3	0x3aed1e80	0.0018090755
4	0xbd598aed	-0.053111006
5	0xb856a715	-5.1177183e-05
6	0x3d8a6d95	0.06759182
7	0x3d7d9c13	0.061916422
8	0xbcf1f79b	-0.029537013
9	0x3d27cabb	0.040964823
10	0x3c6f3edf	0.014602392
11	0x3ada8b88	0.0016673664
12	0x3ccb2847	0.02479948
13	0x395e0016	0.00021171602
14	0x396e275a	0.00022712108
15	0xbd182740	-0.037146807
16	0xb95b4ee9	-0.00020914864
17	0x3d9aeb4d	0.07564411
18	0x3d077e02	0.033079155
19	0xbd61caff	-0.055125233
20	0x39750e3a	0.0002337032
21	0x3d0f9eb4	0.03506346
22	0xbc4bfb7e	-0.012450097
23	0xb91a677d	-0.00014725137
24	0x3ca154c6	0.019693743
25	0x3d71a35b	0.05899368
26	0x3d893210	0.06699002
27	0xbd3844dd	-0.04498755
28	0xbd91dddc	-0.071223944
29	0x3d30c248	0.04315403
30	0xb9ea9ad3	-0.0004474731
31	0x3d881db9	0.06646294

edge_encoder.layers.0.weight f4 [64, 4]
0	0x3eb386d3	0.350638
1	0xbe4ef08c	-0.20208949
2	0x3e0f9a4e	0.14023706
3	0x3e1fc174	0.1560114
4	0xbe2c7ed6	-0.16845259
5	0x3eeb1b75	0.45919386
6	0x3d48d7cd	0.04903393
7	0xbe1ef5f1	-0.15523507
8	0xbeea5d67	-0.45774385
9	0x3ecec882	0.4038735
10	0xbefaa328	-0.48952603
11	0x3ebfde32	0.3747421
12	0xbe245825	-0.1604925
13	0xbdbc8392	-0.092047825
14	0x3da97add	0.082753874
15	0x3ef2e670	0.47441435
16	0xbe9e5140	-0.30921364
17	0xbeb1e6e6	-0.34746474
18	0x3ea20ea0	0.31651783
19	0xbe5ebb40	-0.21751118
20	0xbe3c3856	-0.18380865
21	0x3e8fd042	0.28088576
22	0xbe59b63f	-0.21260928
23	0x3e9664cb	0.29373774
24	0xbe51e5b2	-0.20497778
25	0x3ec5c9de	0.38630575
26	0x3efa144c	0.4884361
27	0x3d5eed30	0.05442542
28	0xbe1f2d45	-0.15544613
29	0x3e8a0b0c	0.26961553
30	0x3e1a9489	0.15095724
31	0x3bbff803	0.0058584227
32	0x3ed9f1f7	0.42567417
33	0xbc89ccc8	-0.01682128
34	0x3e44533e	0.1917238
35	0xbe03ddba	-0.1287755
36	0xbda9bb7a	-0.082877114
37	0xbcf35d79	-0.029707657
38	0x3d2c7adf	0.042109367
39	0x3e60feed	0.21972246
40	0x3ebfce17	0.37461922
41	0x3e96e1dd	0.29469195
42	0xbe5a35a0	-0.21309519
43	0x3ed856ae	0.4225363
44	0x3ea3313f	0.3187351
45	0x3e454b5c	0.19267029
46	0x3d6d2606	0.05789759
47	0xbe86a155	-0.26294962
48	0xbe9ec284	-0.3100778
49	0x3c6a892c	0.014314931
50	0xbeb6b372	-0.3568378
51	0x3e2b843a	0.16749659
52	0xbee9ce40	-0.4566517
53	0xbee3698e	-0.4441647
54	0xbe5fe129	-0.21863236
55	0x3e893f06	0.26805896
56	0x3ecf0da3	0.40440091
57	0xbed734a3	-0.42032346
58	0xbe9c9c91	-0.305882
59	0x3dc3502d	0.09536777
60	0xbdad4c4f	-0.0846182
61	0xbecf6dca	-0.4051345
62	0x3e12f099	0.14349593
63	0xbec867c0	-0.39141655
64	0x3c7ed283	0.01555312
65	0x3e532ebd	0.20623298
66	0x3ee7b347	0.45253965
67	0xbed2a4ee	-0.41141456
68	0x3eb84b61	0.3599501
69	0x3d87ad81	0.0662489
70	0x3ee21ed7	0.44164154
71	0x3ef2254c	0.4729408
72	0xbddc80f1	-0.10766781
73	0xbda51ed1	-0.080625184
74	0xbe05246d	-0.13002177
75	0x3ec3dd1a	0.38254625
76	0xbe5dc8b6	-0.21658596
77	0x3eaa0cf0	0.33212996
78	0x3e52e40e	0.20594808
79	0x3ee8876c	0.4541582
80	0x3eb64967	0.35602877
81	0x3ec869fe	0.39143366
82	0xbed219c1	-0.41035274
83	0xbe7c2d64	-0.2462669
84	0xbeb67d29	-0.35642365
85	0x3e703176	0.23456368
86	0x3dd6609c	0.104676455
87	0x3e3c552e	0.18391868
88	0x3e46e588	0.19423497
89	0x3cf28709	0.029605405
90	0x3e3bc6f3	0.18337612
91	0xbe8ccb61	-0.27498916
92	0x3ea4ab0e	0.32161754
93	0xbee04538	-0.4380281
94	0xbee8146c	-0.4532808
95	0x3e21a322	0.15784886
96	0x3eeebd55	0.46628824
97	0xbe31361a	-0.17305794
98	0x3ef0a6f3	0.47002372
99	0xbe338a07	-0.17533122
100	0xbec230b6	-0.37927788
101	0xbda6cce1	-0.08144546
102	0x3e8cd793	0.2750822
103	0xbe762333	-0.24036865
104	0x3eef0b9d	0.46688548
105	0xbe6dcc3a	-0.23222438
106	0xbe604c43	-0.21904092
107	0xbe51646e	-0.20448467
108	0xbec69850	-0.3878808
109	0x3ee99c77	0.45627186
110	0xbe90b2d1	-0.28261426
111	0xbe69a96b	-0.22818534
112	0xbe102a38	-0.14078605
113	0x3ed16853	0.40899906
114	0x3e8113d8	0.25210452
115	0x3e44e1a3	0.19226699
116	0xbe11f8c6	-0.14255056
117	0x3e78da19	0.24301948
118	0x3dad149b	0.08451196
119	0x3ecdb1e3	0.4017478
120	0x3df0765e	0.11741327
121	0x3ebe0e26	0.3712017
122	0x3eabf911	0.3358846
123	0x3da76db7	0.08175223
124	0xbef28d73	-0.47373542
125	0x3de72c9f	0.11287808
126	0xbec014e7	-0.37515947
127	0x3d977d40	0.073969364
128	0xbd3f78d3	-0.046746086
129	0x3ec2c792	0.38042885
130	0xbebe5e6b	-0.3718141
131	0xbeca802e	-0.39550918
132	0x3e56ef6f	0.20989774
133	0x3eafcdf7	0.34336826
134	0xbde5b4b8	-0.1121611
135	0x3e0d6aed	0.1381032
136	0x3ecd441d	0.4009103
137	0x3d85d719	0.06535167
138	0xbe0d714b	-0.13812749
139	0x3e9310f0	0.2872386
140	0x3eeb7cff	0.45993802
141	0xbdbcdd27	-0.09221869
142	0x3ea789a3	0.32722196
143	0x3c889a90	0.016675264
144	0xbdaf7c47	-0.08568626
145	0xbd43fa17	-0.047845926
146	0xbefc62e1	-0.4929419
147	0x3e64b3ff	0.22334288
148	0xbe87d6c3	-0.26531038
149	0xbedef8fa	-0.4354933
150	0xbd82bf37	-0.063841276
151	0xbe3c78e7	-0.18405496
152	0xbe9c009b	-0.30469212
153	0xbde1fb51	-0.11034263
154	0xbd63a39e	-0.05557596
155	0x3e20b8f9	0.15695561
156	0x3d8d5fd0	0.069030404
157	0xbd693918	-0.056939214
158	0x3de40808	0.11134344
159	0xbea54fb4	-0.3228737
160	0x3edcbba7	0.43111917
161	0x3e6a7716	0.2289699
162	0x3e9e0b51	0.3086801
163	0xbed9add6	-0.4251544
164	0x3eab08c6	0.3340513
165	0x3dafc72c	0.08582911
166	0xbef81674	-0.4845463
167	0x3eeb9683	0.4601327
168	0xbc027ea1	-0.007964761
169	0x3dde17eb	0.10844406
170	0x3ec89654	0.3917719
171	0x3eaa7816	0.33294743
172	0x3ee126ea	0.43975002
173	0xbeee2fbd	-0.46520796
174	0x3efade55	0.4899775
175	0x3dd297c1	0.10282851
176	0x3c8fd637	0.0175582
177	0xbece702f	-0.40319964
178	0xbe834598	-0.25639033
179	0x3eecbd11	0.46237996
180	0x3ec4d1bb	0.38441262
181	0x3ec2412d	0.3794035
182	0xbd1015a2	-0.03517688
183	0xbe8946b8	-0.26811767
184	0x3de0db7a	0.10979362
185	0xbe6c3768	-0.23068011
186	0xbea9fc88	-0.3320048
187	0x3e26f1c5	0.16303165
188	0x3ec26cdb	0.37973675
189	0xbec88015	-0.3916022
190	0xbee04983	-0.43806085
191	0x3d8e80f3	0.06958189
192	0xbe3c8aee	-0.18412372
193	0xbe84c66d	-0.25932637
194	0xbdcbd36d	-0.09952436
195	0xbcf137b7	-0.029445512
196	0xbe153eba	-0.1457471
197	0x3eb4848d	0.35257378
198	0x3e8f2043	0.279543
199	0x3e153cba	0.14573947
200	0xbe25d717	-0.16195332
201	0xbd01fb9b	-0.03173409
202	0x3ea397e4	0.3195182
203	0x3d1d9cd5	0.038479645
204	0xbef72229	-0.4826825
205	0x3d7ec1d0	0.062196553
206	0x3e85005c	0.25976837
207	0xbdf9ab56	-0.12190883
208	0xbdd6a98d	-0.10481558
209	0xbd9acdec	-0.07558808
210	0x3e9620a6	0.29321784
211	0x3ec63aac	0.38716638
212	0xbec90c4c	-0.39267194
213	0x3ea8001b	0.3281258
214	0x3e500d8f	0.20317672
215	0x3e297ab9	0.16550721
216	0xbe991036	-0.2989518
217	0xbe904976	-0.28181046
218	0x3ef6d307	0.48207876
219	0x3dd8e07f	0.10589694
220	0xbdd94bb5	-0.10610143
221	0xbdc46415	-0.09589402
222	0x3eada63d	0.33915892
223	0xbddbe2fd	-0.10736654
224	0x3eaf00fa	0.34180433
225	0xbe07de02	-0.13268283
226	0x3dec0cb4	0.115258604
227	0x3de56992	0.112017766
228	0xbe84d6d6	-0.25945157
229	0x3c79160b	0.015203009
230	0x3dc65112	0.09683432
231	0xbef3b296	-0.47597188
232	0xbdbef8b8	-0.09324783
233	0x3cfe07d0	0.031009585
234	0x3ed3ec72	0.4139133
235	0x3dd25fd7	0.10272186
236	0xbedb2527	-0.42801782
237	0xbe201e85	-0.15636642
238	0x3ef83a52	0.48481995
239	0xbd9ee038	-0.0775761
240	0x3ebf77c2	0.37396055
241	0x3d3cd349	0.046099935
242	0x3ea926c3	0.33037385
243	0xbe4f4264	-0.2024017
244	0x3ef8367e	0.48479074
245	0x3dda2ccb	0.10653075
246	0xbdde6249	-0.1085859
247	0x3ebb243e	0.36551088
248	0x3e753a3a	0.23947993
249	0xbeb1f881	-0.34759906
250	0xbcc5c607	-0.024142278
251	0x3eadfaa3	0.33980283
252	0x3e00d744	0.12582117
253	0xbe191b17	-0.1495174
254	0xbeab57ea	-0.3346551
255	0xbeac1329	-0.33608368

edge_encoder.layers.0.bias f4 [64]
0	0x3e6ac7e3	0.22927813
1	0x3e362fc3	0.17791657
2	0xbec9ab5a	-0.39388543
3	0xbd6835ea	-0.05669204
4	0x3da33fea	0.07971175
5	0xbec95221	-0.39320472
6	0x3ec373da	0.38174325
7	0xbc496ce9	-0.012294033
8	0xbe1eb4c7	-0.15498649
9	0x3c68047d	0.014161226
10	0x3e07f354	0.13276416
11	0x3d84ab89	0.0647803
12	0x3ed99097	0.42493126
13	0x3e6e6182	0.23279384
14	0xbc0c863e	-0.008576928
15	0x3d2468e7	0.040139105
16	0x3d988bd4	0.07448545
17	0xbe19d6f4	-0.15023404
18	0xbec2328c	-0.3792919
19	0xbc47981c	-0.012182262
20	0xbe11e0fa	-0.14245978
21	0xbed89e64	-0.42308342
22	0x3e059af4	0.13047391
23	0xbe257a13	-0.16159849
24	0x3edbe290	0.4294629
25	0x3e061df0	0.13097358
26	0x3e28aa38	0.16471183
27	0x3dc99660	0.09843135
28	0x3e167c3d	0.1469583
29	0x3e8ae71d	0.2712945
30	0x3ea2f990	0.31831026
31	0x3ae42def	0.0017408709
32	0xbdc19828	-0.094528496
33	0x3db50a9a	0.08839913
34	0xbe3587b0	-0.17727542
35	0x3af2b575	0.0018517213
36	0x3dca1b41	0.098684795
37	0x3e334eeb	0.17510574
38	0xbede67be	-0.43438524
39	0x3e15133d	0.1455812
40	0xbe150ea7	-0.1455637
41	0xbe9b3fe3	-0.3032218
42	0xbe28ab5a	-0.16471615
43	0xba250bf1	-0.000629603
44	0x3e4a811c	0.19775814
45	0xbecad198	-0.39613032
46	0x3db5bbb0	0.08873689
47	0x3ecd770d	0.4012989
48	0xbe6f6966	-0.2338005
49	0x3d9536ad	0.07285819
50	0xbe1c92cb	-0.15290372
51	0x3d9c0e20	0.07619882
52	0x3e2c4b65	0.16825636
53	0xbe84b699	-0.2592056
54	0x3d958c40	0.07302141
55	0x3ee3cddf	0.44493005
56	0x39fb893c	0.00047976698
57	0xbe9ca550	-0.30594873
58	0xb9a850e5	-0.00032103728
59	0x3d8302e0	0.06397033
60	0x3dda1b5d	0.106497504
61	0xba7118bc	-0.0009197106
62	0xbd79cd74	-0.06098695
63	0xbe4cea7b	-0.20011322

edge_encoder.layers.1.weight f4 [64]
0	0x3f7c8d84	0.98653436
1	0x3f7bdd14	0.98384213
2	0x3f7e2070	0.99268246
3	0x3f803ea7	1.001912
4	0x3f7de576	0.99178255
5	0x3f807250	1.0034885
6	0x3f7c906e	0.9865788
7	0x3f805c5c	1.0028186
8	0x3f8006dd	1.0002095
9	0x3f7ca48d	0.98688585
10	0x3f809c8d	1.0047776
11	0x3f7dcec8	0.9914365
12	0x3f7b7f99	0.98241574
13	0x3f7b5bf7	0.981872
14	0x3f7d441c	0.9893205
15	0x3f7d6790	0.9898615
16	0x3f7b4106	0.9814609
17	0x3f7ddbc1	0.9916344
18	0x3f7b09d3	0.98061866
19	0x3f7e528e	0.9934472
20	0x3f7c832b	0.98637646
21	0x3f7c28a6	0.98499525
22	0x3f7d06e9	0.9883867
23	0x3f7cdfb2	0.9877883
24	0x3f7d42ea	0.9893023
25	0x3f7e862b	0.99423474
26	0x3f7c08d7	0.9845099
27	0x3f806d1f	1.0033301
28	0x3f7da482	0.99079144
29	0x3f7cc531	0.9873839
30	0x3f7dd304	0.9915011
31	0x3f7d37af	0.9891309
32	0x3f8045b7	1.0021275
33	0x3f7d89aa	0.99038184
34	0x3f7ce5db	0.9878823
35	0x3f7d8b30	0.9904051
36	0x3f7dc532	0.9912902
37	0x3f7c4c74	0.9855416
38	0x3f7d4778	0.9893718
39	0x3f7d33a1	0.98906904
40	0x3f7cbe03	0.98727435
41	0x3f7e5bcf	0.9935884
42	0x3f7e2913	0.99281424
43	0x3f7f9918	0.9984298
44	0x3f7fac55	0.9987233
45	0x3f7d0b0f	0.98845
46	0x3f8046ab	1.0021566
47	0x3f7cb693	0.98716086
48	0x3f7bb646	0.98325
49	0x3f7c91b7	0.98659843
50	0x3f7ec86d	0.99524575
51	0x3f7be2e9	0.9839311
52	0x3f7a98be	0.97889316
53	0x3f7e0f76	0.9924234
54	0x3f805359	1.0025436
55	0x3f7eb9a6	0.9950203
56	0x3f7bcf8e	0.9836358
57	0x3f8077ee	1.00366
58	0x3f7e9665	0.99448234
59	0x3f7e99a6	0.994532
60	0x3f7fab91	0.99871165
61	0x3f8066e8	1.0031404
62	0x3f7c5350	0.98564625
63	0x3f801012	1.0004904

edge_encoder.layers.1.bias f4 [64]
0	0xbba9082f	-0.0051584463
1	0xbbaa4955	-0.00519673
2	0xbbbad0e7	-0.0057011726
3	0x3bc83c0b	0.0061106733
4	0x3a1ff07b	0.0006101203
5	0x3c0168b6	0.0078985
6	0xbc18635d	-0.009301034
7	0x3bf6a600	0.007527113
8	0x3b776c2a	0.003775368
9	0x3b694d0e	0.0035598907
10	0x3c04da68	0.008108713
11	0xbae2e793	-0.0017311446
12	0xbc09c30b	-0.008408318
13	0xbc437b81	-0.011931301
14	0xbc18ff30	-0.009338185
15	0xbbc00d56	-0.005860965
16	0xbc76fd9e	-0.0150751155
17	0xbbcdee8e	-0.0062845415
18	0xbc8e5cf9	-0.017378317
19	0xbb5ed7f6	-0.0034003234
20	0xbbd45f7d	-0.0064811097
21	0xbc269e4b	-0.010169576
22	0xbbbd13dd	-0.00577019
23	0xbbcad785	-0.0061902427
24	0xbba4b1f4	-0.0050260965
25	0xbae6f3a6	-0.001762022
26	0xbaef62a5	-0.0018263651
27	0x3c01f7b5	0.007932593
28	0xbad6ff38	-0.0016402965
29	0xbbdfb30e	-0.006826765
30	0xbbac7884	-0.00526339
31	0xbbe99a8d	-0.0071290196
32	0x3b893db0	0.004188262
33	0xbb73fae1	-0.0037228393
34	0xbc0c78e0	-0.008573741
35	0xbc04051e	-0.008057861
36	0xbc05d070	-0.008167371
37	0xbc8dc836	-0.017307382
38	0x3a414e15	0.0007374001
39	0xbc111055	-0.0088539915
40	0xbbdfc67a	-0.00682908
41	0xbaeee8fd	-0.0018227395
42	0xbba83611	-0.0051333983
43	0x3bacd1f8	0.0052740537
44	0x3b77d88d	0.0037818283
45	0xbc0cc985	-0.008592968
46	0x3bafe601	0.005367995
47	0xbbfda072	-0.007740074
48	0xbc3497fe	-0.011022566
49	0xbc294145	-0.010330503
50	0xbab5db06	-0.0013874478
51	0xbc3d3212	-0.011547582
52	0xbc8443e7	-0.01614566
53	0xbbb6970a	-0.0055722045
54	0x3c0ce212	0.008598821
55	0xbb7a0c47	-0.003815429
56	0xbbfadccc	-0.0076557156
57	0x3c23e100	0.010002375
58	0xbb55b0cf	-0.0032606607
59	0x39efe0b2	0.00045753043
60	0x3aab43da	0.0013066486
61	0x3bcb3225	0.006201046
62	0xbc38c3d6	-0.01127716
63	0x3b494cc7	0.003071593

edge_encoder.layers.1.running_mean f4 [64]
0	0x3e771fb0	0.24133182
1	0x3e2f016d	0.17090388
2	0xbec2b14a	-0.38025886
3	0xbd24bfa5	-0.04022183
4	0x3d948840	0.0725255
5	0xbec506e1	-0.3848181
6	0x3ec261ce	0.37965244
7	0xbc9c0fec	-0.01905056
8	0xbe2a389b	-0.16623156
9	0x3cd7d5e1	0.026347103
10	0x3e2086f7	0.15676485
11	0x3d63e568	0.0556387
12	0x3ee17103	0.44031534
13	0x3e821c66	0.2541229
14	0x3a386d24	0.0007035306
15	0x3ce369f0	0.027760476
16	0x3d5b2934	0.05350609
17	0xbe0daab6	-0.13834652
18	0xbebaeb69	-0.3650773
19	0xb9b84035	-0.00035143053
20	0xbe1f0493	-0.15529089
21	0xbed8c29e	-0.4233598
22	0x3df72c82	0.12069036
23	0xbe1929ae	-0.14957306
24	0x3ed8a916	0.42316502
25	0x3df83876	0.12120144
26	0x3e29523b	0.16535275
27	0x3dbb05ec	0.09131989
28	0x3e1d276e	0.15347072
29	0x3e94ad15	0.290383
30	0x3ea3cf9d	0.31994334
31	0x3be30906	0.006928566
32	0xbdeb7717	-0.11497324
33	0x3dc83426	0.097755715
34	0xbe2afbe1	-0.16697647
35	0x39be409d	0.00036287765
36	0x3df30549	0.118662424
37	0x3e33152e	0.17488548
38	0xbedccb1d	-0.43123713
39	0x3e0a3fdf	0.13500927
40	0xbe315a9a	-0.17319718
41	0xbe903af3	-0.28169975
42	0xbe239477	-0.15974604
43	0x3b3c8b1b	0.0028769437
44	0x3e6a3e69	0.2287537
45	0xbed41e9e	-0.4142961
46	0x3dd90323	0.105963014
47	0x3ed5f1fa	0.41786176
48	0xbe72833c	-0.23682874
49	0x3d9de95e	0.07710527
50	0xbe231f4d	-0.15929909
51	0x3d901091	0.0703441
52	0x3e3f424c	0.18677634
53	0xbe863249	-0.2621024
54	0x3d9f3864	0.077744275
55	0x3ee1fa5e	0.44136328
56	0x3bf36e56	0.0074289246
57	0xbeaaa03d	-0.33325377
58	0xba42d582	-0.0007432328
59	0x3d72b585	0.05925514
60	0x3dc9733f	0.098364346
61	0x3c788f7c	0.015170928
62	0xbd3de5df	-0.0463618
63	0xbe5b3a02	-0.21408847
