gnn/gnn_outputs/checkpoint_epoch_20.pt (torch, 971164 bytes, 208 tensors)

node_encoder.layers.0.weight f4 [64, 3]
00000000: 0bd9 e33e 7117 f33e 4310 0fbe fe87 093f
00000010: 9edd fabd b0e7 db3d 3aca 8abe 8296 b13e
00000020: bfee 033f 4694 d3be 275c 033f 5a72 c53d
00000030: fec8 da3e b2d1 993d 5c68 8e3e fd7b b7bd
00000040: e991 e03e e8fb b93d 167d 8ebe 8060 183e
00000050: e0e0 81be c190 87bd 2c58 64be ca2f c93e
00000060: 7906 eabe f0bf 83be 5ed9 2abe a468 aebe
00000070: c40e 6c3d 8293 13bf 7686 053f e100 fbbe
00000080: 3e79 e43e 6bfd cb3d 51b7 38be 6ed2 b73e
00000090: b3f1 b63d 2d4f f03e 19e6 733d 3fcd 39be
000000a0: 0766 1d3e be85 26be 55ed 783e 8007 013f
000000b0: c6b4 ae3e 7c57 75be c275 af3e 99cf cf3d
000000c0: 02ee 963e 71b7 b1be 73c4 13bf c939 63be
000000d0: a660 e8be 7f7c ee3e e49f 283e e95f 763e
000000e0: a632 3b3e 0a91 55bc 7c1f eb3e 1632 cebe
000000f0: 85ab ff3c c446 cdbe 9e44 2f3e 5de5 4cbe
00000100: c2b4 2f3e 4575 fcbd 6ed4 f53e 48ab b1be
00000110: 7523 aebe a983 b4be c694 023f c796 433e
00000120: 2b2c 0c3f 0154 f6be 1b01 13bf 3025 e9be
00000130: a50f c5be 35ab 6f3e ce0d 503e 55d8 f83e
00000140: 828f 95be d186 c4be cc1f a03e 7e3b 6ebe
00000150: 7b4b b33e 0012 0fbe b167 a73e 8170 ecbe
00000160: 62b2 90be b8ee 373e 9723 003e a0f7 11be
00000170: 358d b13e 5dfd c73e f763 d7be 55cd 9cbe
00000180: eafb 073f 34d1 4ebe 06d8 4cbe 716d 0dbf
00000190: a829 acbe d2cb 113e b6b1 adbd 6919 d2be
000001a0: 0709 c53b 4a3c cdbe 7b12 00bf c355 9cbe
000001b0: 7734 02bf 075d babe 4f1d 133f 39fb df3d
000001c0: 7779 3f3e 3737 07bf b043 c3be e0bc 41be
000001d0: 05cc bf3d a5bc 00bf 01dd 7fbe e166 b2be
000001e0: a50f 473c 009d 60be ceed 0fbd 2af3 cebe
000001f0: 85b5 cabe a3f3 a8be ee7f 4dbe e237 ebbe
00000200: 360c f63e 52e9 e9bd 1849 f93e 251d 433e
00000210: a062 fabe 1333 d03e e643 20be 46dc 67be
00000220: 337d f5be ab5f 12bf f9b0 2f3e 2a33 f9bd
00000230: 8d7a 5e3e e6ad f3be 41f5 da3e 7485 d8be
00000240: bb51 d1bd 87cb ea3d 72eb 9c3e 8fbd f43e
00000250: 2303 063f 40ed e5be 595c 143e bc25 83be
00000260: a9a3 69bd 0786 debe 6c79 053f 5380 dbbe
00000270: 7c7e a13e bc5b 453e edb1 3f3e ac53 9dbe
00000280: 7ea6 073f 2621 f73d 8f8e 953d bcba 03bf
00000290: c09e 713e 7afb a6bd 17b1 85be e1c8 ff3e
000002a0: e001 023e a724 a3be 3f8e 96be 31c1 07bd
000002b0: 9015 a43e 8d83 18be 8588 a4be a212 51be
000002c0: 5a52 e1be 4657 4a3e 5d41 e03e afac 0dbf
000002d0: bde5 163e eeb8 913e a930 e93d 4dd8 58be
000002e0: a6b1 963e a5fc 9e3e 1d9d 563e 7ae0 cfbd
000002f0: 3e92 1ebe 0b13 8a3d 7e7e c1bd 88db 37be
0.44501528 0.47478822 -0.13971047 0.5372313 -0.122493014 0.1073755 -0.27107412 0.3468514
0.5153617 -0.4132406 0.5131249 0.096409515 0.4273147 0.07510699 0.27813995 -0.08959196
0.4386132 0.090812504 -0.27829808 0.14880562 -0.25366879 -0.066194065 -0.2229926 0.39294273
-0.45708063 -0.25732374 -0.16684482 -0.3406421 0.05763127 -0.57646954 0.52158296 -0.49024108
0.4462375 0.09960445 -0.1803868 0.35902733 0.08932819 0.46935406 0.05954561 -0.18144701
0.15370952 -0.16261956 0.24309285 0.5040207 0.34122294 -0.23959154 0.3426953 0.10147018
0.2947846 -0.34710267 -0.5772163 -0.22190012 -0.45386237 0.46579358 0.16467243 0.24060024
0.1828104 -0.013035068 0.45922458 -0.40272588 0.031209717 -0.40093052 0.17116019 -0.2000937
0.17158797 -0.12327055 0.48013633 -0.3470099 -0.34011427 -0.352567 0.5100826 0.19100486
0.54754895 -0.48110965 -0.5742356 -0.45536184 -0.38488498 0.23405154 0.20317766 0.48602548
-0.2921105 -0.38384107 0.3127426 -0.23264882 0.35018525 -0.1397171 0.32696298 -0.46179584
-0.28261095 0.17962158 0.12513576 -0.14254618 0.34678045 0.39060488 -0.42068455 -0.30625406
0.53118765 -0.20196992 -0.20004281 -0.5524512 -0.3362553 0.14237908 -0.08481161 -0.4103501
0.006013039 -0.4008506 -0.500282 -0.3053418 -0.50861305 -0.363991 0.57466596 0.10936589
0.18698679 -0.52818626 -0.3813758 -0.18919706 0.093650855 -0.5028785 -0.2498665 -0.34844115
0.012149726 -0.21934891 -0.035138898 -0.40419894 -0.39591613 -0.3299838 -0.20068333 -0.45941073
0.4805619 -0.114214554 0.4868858 0.19054087 -0.4890337 0.40663967 -0.15650901 -0.22642621
-0.47947082 -0.5717723 0.17157353 -0.12167962 0.21726437 -0.4759361 0.4276524 -0.42289317
-0.10220667 0.11464601 0.3064838 0.47800872 0.52348536 -0.4490757 0.14488353 -0.25614727
-0.057040844 -0.4346163 0.521384 -0.4287134 0.31541812 0.19273275 0.18720217 -0.307279
0.5298842 0.120668694 0.073025815 -0.5145681 0.23595715 -0.08153434 -0.2611167 0.49957946
0.12696028 -0.318639 -0.294054 -0.033143226 0.320477 -0.14893933 -0.32135406 -0.20417264
-0.44008142 0.19759855 0.43799868 -0.5534162 0.14736076 0.28461403 0.11386234 -0.21176262
0.2943241 0.31052127 0.20958371 -0.101502374 -0.15485474 0.067419134 -0.094479546 -0.17954838

node_encoder.layers.0.bias f4 [64]
00000000: 00c6 b23e 91da f33e 3ab9 1bbd f182 e0bd
00000010: 1ccc 0ebb 9d07 84bc defb f33d 047c 113e
00000020: 6124 01bf 0fef 45be 2fbe ee3e 7404 523e
00000030: f845 2ebc 110c a8be faac aabe c597 febe
00000040: f87a 2cbe 8669 333e 2c51 b23e 50a7 7c3e
00000050: 4419 fbbe de97 a7be d7ad 92bd bee0 093f
00000060: 7042 833d 09ef 04be 6d4d 603e 39e8 4cbe
00000070: 0e27 b5be 4292 cd3e 6884 78be 02de c4bd
00000080: 21ef 0dbf 8ca8 bb3e 8dc5 d53e ce34 433e
00000090: 9bee c3be 29c5 0cbf 95e4 e5be 503e d23e
000000a0: 0ec2 833e e18e ee3e 64b1 903e 8774 013e
000000b0: fe68 853a f49e d6be 4a10 f3be b025 05bf
000000c0: 9aba 5d3e e6f8 86be cebe c5bd d3f2 9fbe
000000d0: 5b67 afbd 2ddf c5be 28fa b6be 23df 2f3e
000000e0: 1b81 1bbe 6150 ac3e e871 29be 12a8 cebe
000000f0: ad96 a8bd 7d22 85be 42ad 20be 7f9c 07bf
0.34916687 0.4762769 -0.038018443 -0.10962475 -0.002178914 -0.016116912 0.11913274 0.14207464
-0.50446135 -0.19329475 0.46629474 0.20509511 -0.010636799 -0.32821706 -0.33335096 -0.49725166
-0.16843784 0.17520723 0.34827554 0.246732 -0.49042714 -0.32733053 -0.071620636 0.53858554
0.06409156 -0.1298181 0.21904536 -0.20010461 -0.3538136 0.40150648 -0.24269259 -0.09612657
-0.55443007 0.3665203 0.41752282 0.19063112 -0.3826798 -0.5498834 -0.44900957 0.41063166
0.2573399 0.46593383 0.28260338 0.12642108 0.0010178385 -0.41918147 -0.47473365 -0.5201063
0.21653214 -0.2636177 -0.09655534 -0.31239948 -0.08564635 -0.38646832 -0.3573773 0.17174964
-0.15185969 0.33655074 -0.16547358 -0.40362602 -0.08231864 -0.26002875 -0.15691093 -0.5297317

node_encoder.layers.1.weight f4 [64]
00000000: ad04 803f dd55 7f3f 1235 7e3f f5b2 7f3f
00000010: 848f 7e3f e4a6 803f d64d 7d3f 1f2b 803f
00000020: f278 7f3f 7569 7e3f d3f1 7f3f b7a2 803f
00000030: af29 803f 164d 813f dd37 7e3f 2b9f 803f
00000040: 8b9c 7d3f abaa 7e3f 0e78 7d3f 8326 803f
00000050: cf84 803f b2fb 7d3f 1e6e 803f 7f81 7e3f
00000060: 98d4 803f 88d3 803f 1d50 803f c996 813f
00000070: 5085 7e3f 7f1e 803f ef73 803f ea02 813f
00000080: 80ad 7f3f b096 803f 8395 803f 1a86 803f
00000090: 8ce7 803f 74e0 803f e920 7f3f 208a 7d3f
000000a0: d16e 803f dff7 7f3f 919c 803f 3e30 803f
000000b0: 1d4d 803f a3c5 7d3f 5ada 803f f392 803f
000000c0: dda0 7f3f 1955 7e3f 1747 813f a146 813f
000000d0: dfbd 7e3f ec56 803f a09c 7e3f e511 803f
000000e0: 07ec 7d3f 578f 7f3f 83ab 7e3f 05b3 803f
000000f0: e973 7d3f a346 7d3f 2bb9 7d3f a463 7d3f
1.0001427 0.9974039 0.9929973 0.9988244 0.9943774 1.0050931 0.98946893 1.001316
0.9979392 0.99379665 0.9997837 1.0049657 1.0012721 1.010165 0.9930399 1.0048574
0.9906699 0.9947917 0.99011314 1.0011753 1.004053 0.9921218 1.0033605 0.99416345
1.0064878 1.0064554 1.0024449 1.0124141 0.9942217 1.0009307 1.003538 1.0079014
0.99874115 1.0045986 1.0045627 1.0040925 1.0070662 1.0068498 0.9965959 0.9903889
1.0033818 0.99987596 1.004778 1.0014722 1.0023533 0.99129695 1.0066636 1.0044845
0.9985483 0.993486 1.009982 1.0099679 0.9950847 1.0026526 0.9945774 1.0005461
0.99188274 0.99828094 0.99480456 1.0054632 0.9900499 0.9893591 0.9911067 0.98980165

node_encoder.layers.1.bias f4 [64]
00000000: 8bfa 81bb ad5c 5cbb e8f3 00bc 8713 003c
00000010: 9c1d 36bc b793 e03b 60c2 7abc 6df1 573b
00000020: 7294 54bc 3c95 9cbb 074e d43b 33aa 7c3a
00000030: aabc 46ba 03f1 f639 d8e3 a9bb 58c6 da3b
00000040: b3d0 24b9 52a2 c137 69d9 d4bb 02b9 69bb
00000050: 5b07 acbb 7bfc 08bc 1b83 4c3a 2304 2dbb
00000060: f392 1e3b 6251 b6bb 3376 543c a69d 2f3c
00000070: 8e0a 2ebc 23aa 5cbb 167b a83b 1e13 663b
00000080: f435 29bb 6b70 b8bb 606a b4ba 2f8f 943b
00000090: 6942 a43b 7496 0d3c 9865 c7bb 5084 90bb
000000a0: 288b f23b 1609 00bc d2b4 70bb a937 ab3b
000000b0: 0a67 b93b 8fc6 2f3b 2cc1 533b 8873 a5bb
000000c0: 09ae 573b 6506 d1bb 546e df3b 3c4f 683c
000000d0: da92 313b 60f1 043a 64f0 cbba d3de 7bbc
000000e0: a681 c9bb ec0e 53bb 60dc fdbb 14fd ef3b
000000f0: 8ba5 c4bb 3581 243c ef5d 49ba 425e 2fbc
-0.0039666346 -0.0033624575 -0.007870652 0.007817156 -0.011115458 0.0068535465 -0.015305132 0.0032950297
-0.012974845 -0.0047785323 0.006479028 0.0009638399 -0.0007581214 0.00047100344 -0.005184632 0.0066764764
-0.00015718005 2.308298e-05 -0.006495644 -0.0035663252 -0.0052499003 -0.008360977 0.00078015187 -0.002640017
0.0024196475 -0.005563901 0.012967634 0.010718739 -0.010622634 -0.0033670745 0.005141626 0.003510661
-0.0025819512 -0.0056286356 -0.0013764612 0.0045336704 0.0050127995 0.008641828 -0.006085109 -0.004410304
0.0074018426 -0.007814666 -0.003672887 0.005225141 0.005658035 0.002682123 0.0032311184 -0.005049173
0.003291013 -0.006378936 0.006818572 0.014179047 0.0027095587 0.0005071368 -0.0015559313 -0.01537295
-0.0061494885 -0.003220494 -0.007747218 0.0073238704 -0.0060011796 0.010040571 -0.00076815387 -0.010703625

node_encoder.layers.1.running_mean f4 [64]
00000000: e2b1 4b3f e245 3b3f 7c0e 943e dbda 0d3d
00000010: ed6c d03e 91ab 7d3e f6b6 7dbd 7ac7 313e
00000020: 44a0 7abf 0821 21bf 08c1 293f a005 a93e
00000030: 9ff6 b13e 55d4 d1be 39fa 8b3e 679c b8be
00000040: 04c1 05bf 62b9 cd3c f9dc 2b3f 62f4 a03e
00000050: dd95 20bf 7015 c7be f622 57be a9f7 423f
00000060: ebba 6fbe 6aa8 f6be 2633 f13e d9bc a8be
00000070: 6861 b8bd bca0 a83d 481d b9bd 62d4 9dbe
00000080: b603 00bf e4c5 54bd 0b11 013e 356b f2be
00000090: c666 12bf 556c 25bf 5a25 36bf d557 38be
000000a0: c3c2 e63d 6544 1dbe 73dc 133e f58c ec3e
000000b0: 5435 acbd d0ea 8ebf 4931 b1be d0b6 37bf
000000c0: 8ef0 c73e 6c09 923d 3c7d 54be b2a6 dfbe
000000d0: edda 923e 318d 24be d5cc 02bf b32e 683e
000000e0: b583 ddbe 035b e03e 2958 2ebf 664c a0be
000000f0: bd69 623e 0eda 05bd 1e30 44be 61f5 23bf
0.795683 0.7315351 0.289173 0.034632545 0.40708104 0.24772479 -0.061942063 0.1736125
-0.97900796 -0.62941027 0.6631017 0.33012104 0.3475847 -0.4098231 0.27339342 -0.36056826
-0.52247643 0.025112811 0.6713405 0.3143645 -0.62728673 -0.38883543 -0.2100943 0.7615915
-0.23411147 -0.48175365 0.47109336 -0.3295658 -0.09002954 0.08233783 -0.09038788 -0.30826098
-0.5000566 -0.051946536 0.12604158 -0.47347417 -0.5718807 -0.64618427 -0.71150744 -0.18002255
0.112676166 -0.15358122 0.14439563 0.46201292 -0.08408609 -1.1165409 -0.34607914 -0.71763325
0.39050716 0.07130703 -0.20750898 -0.43681866 0.28682652 -0.16069485 -0.510938 0.22674064
-0.43264547 0.43819436 -0.6810327 -0.31308287 0.22110648 -0.032678656 -0.1915898 -0.64046293

node_encoder.layers.1.running_var f4 [64]
00000000: 23a0 683d 2e5c 183d a605 703d ba2b 453d
00000010: 8936 1b3d 0f81 083d 8c69 e73c de7a 133d
00000020: cbff 2c3d 72e0 6e3d 9a6f 913d 5dc7 003d
00000030: cedb 173d 3755 af3c fbd1 703d 4cb7 ef3c
00000040: 9ce3 883d 0fd7 7c3d b65a db3c b108 4e3d
00000050: e042 033d a24e ad3c e48a 563d 2f68 463d
00000060: 6a4f b73d 4323 5a3d 7370 4d3d e2c0 183d
00000070: c8f2 113d 7842 343d 5873 f43c efe7 4a3d
00000080: 1dca 2a3d c594 5d3d 7b8a 013d 24d9 843d
00000090: fedb ad3d 4aa1 473d 87d1 003d 4642 633d
000000a0: a935 9e3c 4256 6a3d c093 803d 8de8 263d
000000b0: e1ec 393d 0a03 a13d 73ae ba3c be71 7c3d
000000c0: 3506 db3c 8f29 aa3d 4c54 b33c c3ba 883d
000000d0: ece7 fc3c fdbd 3b3d fba7 333d 5197 443d
000000e0: 5927 0c3d 0530 d63c dece 473d 11c4 8c3d
000000f0: ec1c d83c 9a8a 113d 6a9c ad3c 6e3f 9e3c
0.056793343 0.037197284 0.058599137 0.048137404 0.037893806 0.033326205 0.02824857 0.036005847
0.04223613 0.058319516 0.071013644 0.031440128 0.037074856 0.021402938 0.058794003 0.029262207
0.06684038 0.061728533 0.026776653 0.050301258 0.0320462 0.02115566 0.05237855 0.0484392
0.08950694 0.053256284 0.050156068 0.037293322 0.035631925 0.044008702 0.029840156 0.049537595
0.041696656 0.054096956 0.031626206 0.06486729 0.08489226 0.0487378 0.03144982 0.055483125
0.019312697 0.057211168 0.06278181 0.04074912 0.04539192 0.07861908 0.022788262 0.06163191
0.026736358 0.08308708 0.021890782 0.06676247 0.030872308 0.045835484 0.04386137 0.04799587
0.034217212 0.026145944 0.04878127 0.06873334 0.026380979 0.03553257 0.021192748 0.019317355

node_encoder.layers.3.weight f4 [64, 64]
00000000: ea6e 7c3d 77b5 a0bd a2df 5a3d 41ef 493d
00000010: e19e aa3d eddf d1bd 5a70 a63d a631 8bbd
00000020: 1124 3e3d 1765 ec3d eba8 1cbc d832 e6bb
00000030: c0ce 11bd 2742 e6bd 0fcd 553d dbd2 06be
00000040: 48d2 ae3d 5544 b23d 1300 e23d 9fb0 11bd
00000050: bbb7 bfbd 3109 a73c a478 9f3d 4844 07be
00000060: 9a6a a3bc 8af1 9ebd 512f 93bc 5c6c 8ebd
00000070: 4636 5dbd 90c0 30bd dd4a 00be 9005 e43d
00000080: 8dcd e93d 7e8e b9bc 9c64 d2bb 7634 3fbd
00000090: db4f 01be 21e8 f1bd 4dba 2f3d 6926 8cbd
000000a0: f605 93bd 4abc cbbb c43f 42bd 64de 42bd
000000b0: 98d5 54bb 490b abbc 8758 33bd 79de 8abd
000000c0: 80ea e3bd 5f84 c93d 4374 26bd 81e9 d33c
000000d0: 6489 50bd cdc1 443b a8dc 003e 3ad1 443d
000000e0: 8688 cdbd 1789 313d e75b f73d ef81 e63c
000000f0: 922c 9c3d a4fe e93d 7618 2abc f4e3 083d
00000100: c320 bfbd 2a73 97bc 1ca6 cc3d 71cd 853d
00000110: de7f 93bd dae1 c6bd 4f47 c1bd dca3 e3bd
00000120: 280d c7bd 3c93 1abd 1c00 bc3d 98e0 f83c
00000130: 4994 c5bd 747a e1bd aa8f 883d 6d65 b6bd
00000140: 8462 04bc d256 923d 86f6 59bd ed07 abbc
00000150: 815b 1fbb cd4f 23bd c15a 5ebd 37ee d9bd
00000160: 9bdf bcbd 2f67 7dbd 03cd e93d 92cf 90bd
00000170: fe8d 9dbd d537 083d f65d 323d 86ec 9d3d
00000180: 2103 d53d b622 913d 45c2 eebd 813d 693c
00000190: b9bc b73d 8a40 90bc ca36 95bd 4c8b f13d
000001a0: 3aca 20bd 63c5 8dbd 0288 cfbd ea8f 333c
000001b0: 31f1 363d 0edc fa3c 1664 043d 7b5c d6bd
000001c0: 08b7 d8bd e4ec 84bb ef6b fa3d 5d1b 7f3d
000001d0: 4f28 90bd d272 4fbc ab70 abbd dc97 44bd
000001e0: 7e64 f33c d4e5 763d 9f34 d13d 0b6e f7bd
000001f0: e697 aa3d f306 a7bd 1eb4 673d ee9a e53d
00000200: 8507 573b 6134 ff3d d2e9 e8bd 9974 21bd
00000210: 8b5f aa3d 9e15 acbc 6793 b3bc c371 6bbd
00000220: 4bc6 a33d b555 843d d133 1f3d 1b74 99bd
00000230: 665e c8bd 7076 8e3c 2c1c 293d 2d76 49bd
00000240: fcba 0abd 3f56 a13d aa56 833c 5dd1 273c
00000250: fdb2 0fbd 56f3 debd d366 e7bd 9c33 51bd
00000260: be15 82bd be45 033d a409 07bd aec2 36bd
00000270: 2759 ff3d 5399 153d a60b ae3d 7634 69bd
00000280: a28b 29bd 69a1 1e3d a873 b7bd dd44 b4bd
00000290: d64f 4abc cef0 30bd 9b91 cebd 2077 973d
000002a0: 3e91 c23d 32d3 7b3c 706c dfbc 5673 dfbd
000002b0: 5e55 25bd c5f9 023d 6c15 6b3d 9e73 43bc
000002c0: 4ad2 62bd 84f5 933d 4f82 cdbd a541 aa3d
000002d0: c100 26bd d0ef 233c 544b ebbc f21c 1e3c
000002e0: 5d43 20bd 7dae c53d 993d a2ba 4199 cf3d
000002f0: d137 fa3d ff97 8dbd 97bc b3bd 5fc5 d03d
00000300: 6ae8 b73d 2dbc b2bd b0c4 b3bb 8eee 04be
00000310: 653c c3bd 8932 863c a6d2 c23c 888a 013d
00000320: 3833 fabc 95c6 d83d 2f43 ca3c f80c 8bbd
00000330: 8d80 57bc 0c2e a83c 6171 443d 117a c0bd
00000340: a7ef 2a3d b1c4 6dbd 888b cbbd 16c3 9dbd
00000350: ae37 023e 9eb1 c73d c2ab f03d b196 8d3d
00000360: 2f17 cb3d 30e8 3ebc 7932 9ebd 4641 5a3d
00000370: da03 6ebd b752 a3bd e954 0bbd b7b2 103d
00000380: 626e 8b3d 3cb7 34bd 292e 89bd 107f af3c
00000390: b644 8dbd 71cb b8bd 844a 8e3d 2a39 acbc
000003a0: 3768 f83d 8513 003e 101a 313d c268 2b3d
000003b0: c8ac a63c 86ab 1c3b ce31 2fbb 63c9 febb
000003c0: ce85 4a3d f256 dd3d 6463 c4bc fcff 7ebd
000003d0: 1912 ccbc 902b 89bd 345d e43c 6711 c93d
000003e0: c65a dc3d bac4 463d 44f7 c3bd e3ac 9abd
000003f0: d670 f7bc 0320 88bc 0d80 2a3c ce01 f7bd
0.061629213 -0.07847112 0.05343593 0.049300436 0.08331085 -0.102477886 0.08126898 -0.06796579
0.046421114 0.11542719 -0.009561758 -0.007025104 -0.035597563 -0.11243086 0.052197512 -0.13166372
0.08536202 0.087044396 0.110351704 -0.03556883 -0.09361216 0.020390125 0.07786682 -0.13209641
-0.019948293 -0.07760914 -0.017966898 -0.06954262 -0.054006837 -0.043152392 -0.12528558 0.111338735
0.11416159 -0.022650953 -0.006420685 -0.04668089 -0.12628119 -0.11811853 0.04290228 -0.06843264
-0.07178871 -0.006217514 -0.047424093 -0.04757537 -0.0032475945 -0.020879405 -0.043785598 -0.067807145
-0.11128712 0.09839701 -0.04063822 0.02586818 -0.050912276 0.003002274 0.12584174 0.048051096
-0.100358054 0.04334363 0.12078076 0.028138129 0.076256886 0.11425522 -0.0103818085 0.033420518
-0.09332421 -0.018487532 0.0999262 0.065333255 -0.07202123 -0.097110465 -0.09437429 -0.11115238
-0.09719306 -0.03773807 0.09179708 0.030380532 -0.09647424 -0.11009684 0.06668027 -0.08906064
-0.008080129 0.07145466 -0.05321362 -0.020877803 -0.0024316015 -0.039871026 -0.05428577 -0.10641139
-0.09222337 -0.06186598 0.11416056 -0.07070841 -0.076930985 0.03325637 0.04354664 0.07711129
0.104009874 0.07086699 -0.11658148 0.014235855 0.08971543 -0.0176089 -0.07285841 0.11794147
-0.03925536 -0.06922414 -0.10133363 0.010959605 0.04466361 0.030622508 0.032322012 -0.10466858
-0.105817854 -0.00405656 0.12227618 0.062281955 -0.07038938 -0.012661653 -0.08371099 -0.047996387
0.029711004 0.060277775 0.10215115 -0.12081536 0.083297536 -0.08155622 0.056568258 0.11211191
0.0032810878 0.12461162 -0.11372723 -0.039417837 0.083190046 -0.021006402 -0.021920873 -0.05748154
0.07996806 0.0646166 0.038867775 -0.074928485 -0.0978363 0.01739046 0.041286632 -0.049184967
-0.03386973 0.07877778 0.016032536 0.010242787 -0.035082806 -0.108862564 -0.11298909 -0.05107461
-0.06351803 0.032048933 -0.03296818 -0.044619255 0.12468176 0.036523174 0.084983155 -0.056934796
-0.04139293 0.03872815 -0.089576066 -0.08802197 -0.012348136 -0.0431984 -0.10086366 0.07395768
0.09500359 0.015370177 -0.027273387 -0.109106705 -0.040364616 0.03197648 0.057393476 -0.011929421
-0.05537633 0.07224563 -0.1003462 0.08313302 -0.040528063 0.010005906 -0.028722443 0.009650456
-0.039126743 0.096524216 -0.0012377977 0.10136653 0.122176774 -0.069137566 -0.08776205 0.101938955
0.08979876 -0.08727298 -0.0054860935 -0.12981626 -0.09533004 0.016381519 0.023782086 0.031626254
-0.030542001 0.105847515 0.024690239 -0.06789583 -0.0131532075 0.02052977 0.04795969 -0.09398282
0.041732457 -0.058048908 -0.09938723 -0.07703225 0.12716553 0.09750675 0.1175151 0.06913508
0.09916531 -0.0116520375 -0.07724471 0.053284906 -0.058109142 -0.07974761 -0.034016524 0.035326686
0.06808163 -0.04412006 -0.066982575 0.021422893 -0.06897871 -0.09023178 0.069478065 -0.021023352
0.121292524 0.12507446 0.043237746 0.04184795 0.02034606 0.0023905947 -0.0026732567 -0.007775472
0.049444012 0.10807599 -0.023973174 -0.062255844 -0.024910973 -0.06697762 0.027876474 0.09817772
0.10759501 0.048527457 -0.095686466 -0.07552507 -0.030205172 -0.016616827 0.010406506 -0.12060891

node_encoder.layers.3.bias f4 [64]
00000000: 30e5 4fb9 601c 1f3d 37f9 2c3b 56ce 91bd
00000010: fd8f 013d b2de 5e3d 28c6 3bbd 2a9f 7cbd
00000020: 6a80 86bd a982 2abd 5107 1fb8 a1b3 16bb
00000030: 063c e6b7 cfbc 70bc ed54 6e3d a880 cfba
00000040: 9016 5abd 5b01 71bc 5bc6 5dbd fd00 cfbc
00000050: a850 c9bd 1eba 963b a963 9ebd b89b f03c
00000060: e089 873d cb85 96bd 134a 3fbd 6b4b a2bd
00000070: 5f8a 753c 9aba d83b af74 39bd f3f7 653d
00000080: 7878 063d 522e bfbd 469a da3a 9648 0ebd
00000090: faa7 91bb 9602 4e3d 5378 a83a 91f2 89bd
000000a0: 4d39 8c3d 2ede c1bd 84a4 c5bc 4a54 ef3c
000000b0: 9f2c ba3d ae46 d03d d3c5 38bc 1efe bb3c
000000c0: 8ebb b8bd f64d dcbb 53b1 a5bc 862e 8b3c
000000d0: 31ed 7fbd dbe1 143c 6cb1 393d 4689 9f3d
000000e0: cb9c 83bb 1bc1 c13d 8ab6 c9bd 01a6 8abc
000000f0: b326 e93c 0d4f 613c 059f 223d a716 82bd
-0.00019826437 0.03884542 0.002639366 -0.071194336 0.03163146 0.054411598 -0.045843273 -0.06167523
-0.06567462 -0.041628513 -3.7915368e-05 -0.002299525 -2.7446087e-05 -0.014693453 0.05818646 -0.0015831189
-0.053244174 -0.014709796 -0.054144245 -0.025269026 -0.09829837 0.0045998236 -0.077338524 0.029371127
0.066180944 -0.07349738 -0.046701502 -0.07924541 0.0149866035 0.0066140415 -0.045277294 0.056144666
0.03282973 -0.09335007 0.0016678057 -0.034737192 -0.004445073 0.050295435 0.0012853242 -0.06735719
0.06846867 -0.094662055 -0.024126299 0.029214997 0.09090542 0.10169731 -0.011277634 0.022948321
-0.09020148 -0.006723161 -0.020226156 0.016989958 -0.062482063 0.009087051 0.04533522 0.07789855
-0.004016494 0.0946066 -0.0984927 -0.01692486 0.028460836 0.013751757 0.039702434 -0.06351977

node_encoder.layers.4.weight f4 [64]
00000000: ea5e 7f3f a2bd 803f c668 7f3f a6ed 7f3f
00000010: 826e 7f3f a0a8 803f b379 803f 125f 803f
00000020: 5a30 803f 842c 7f3f cfe4 7c3f c8f4 803f
00000030: 7fcc 7f3f 8f0d 803f 11c0 803f e4af 7d3f
00000040: fda9 803f 2cbc 803f f54a 7e3f 223a 803f
00000050: 31a3 803f 26ab 803f e708 7f3f bdd8 803f
00000060: 4464 813f 3df7 813f 658b 803f 858a 803f
00000070: 5ba7 7c3f 8b2a 7f3f a626 7e3f b720 7d3f
00000080: af81 7f3f 1f6c 813f 99e9 803f e8da 803f
00000090: 1932 7f3f a661 7f3f a334 803f c489 813f
000000a0: c7d3 7f3f 4ddf 7f3f fab9 7e3f 27a1 7f3f
000000b0: da5a 803f 3756 813f f180 803f 8231 7f3f
000000c0: 9216 813f f27b 7f3f 7458 803f e886 7f3f
000000d0: 39eb 7e3f 7d68 7f3f 4aa1 7e3f 0fb1 803f
000000e0: cffe 7e3f 596b 803f 3cd8 7e3f ed65 7f3f
000000f0: b1fb 803f 732c 7f3f cc6d 7f3f cab7 7e3f
0.997542 1.0057871 0.99769247 0.99972 0.99777997 1.005146 1.003714 1.0029013
1.0014756 0.996773 0.98786634 1.0074701 0.9992141 1.0004138 1.0058614 0.9909651
1.0051876 1.0057425 0.99333125 1.0017741 1.0049802 1.005223 0.9962296 1.0066143
1.0108724 1.0153576 1.004254 1.0042273 0.98692864 0.9967429 0.9927772 0.98878044
0.99807256 1.0111121 1.0071288 1.0066805 0.9968582 0.99758375 1.0016063 1.0120168
0.9993252 0.99950105 0.9950253 0.99855274 1.0027726 1.0104436 1.003935 0.9968492
1.0085013 0.997985 1.0026994 0.99815226 0.9957767 0.9976881 0.9946486 1.0054034
0.9960756 1.003276 0.995487 0.997649 1.007681 0.996772 0.9977691 0.9949919

node_encoder.layers.4.bias f4 [64]
00000000: a218 643b 75a8 3cbb b253 aabb 0d1e 00bb
00000010: 96ba c0bb 06b8 c13b c7c5 0d3b 0dda e6bb
00000020: 9baf a93b 124f c0ba b1e9 6dbc 94c6 ca3b
00000030: c247 dd3b 1816 a2ba c24d 1fbb 2cc3 78bb
00000040: fc2d 063c 9ed8 e53a 8e9e 9a3b 9c48 c73b
00000050: c60c 1f3b 558b 363c b54f f4b9 8638 753a
00000060: 48d3 243c eeb2 1b3c dc28 213b ce1f 1bbb
00000070: c341 a1bb 942c 8cbb 7256 72bb 2c46 30bc
00000080: 2c30 e8bb bf56 f73b 2ddc 0f3a 06d9 a73b
00000090: 6aff c8bb 36c2 b4bb 8118 b93b b705 033c
000000a0: 3048 b4bb 7e8a 4a3b b131 c93b 1a5a a5ba
000000b0: 32a2 c6bb cb96 063c d028 773b 4d7a 14ba
000000c0: 9709 ca3b c424 8e3b 3863 113c f1d2 c8bb
000000d0: b425 50bb 323b d73a 21b9 47bb a2a5 203c
000000e0: c6a5 a1ba 5e3f 9abb 7adc 48bb 0014 f3bb
000000f0: 58cb 8d3b f523 98bb f6c1 173c 1f88 9dbb
0.0034804721 -0.0028786932 -0.0051979655 -0.0019549162 -0.005881618 0.00591183 0.0021632777 -0.0070450366
0.0051784045 -0.0014672002 -0.014521048 0.006188223 0.006752939 -0.0012366204 -0.0024307822 -0.0037958128
0.0081896745 0.001753587 0.004718608 0.0060816538 0.0024269088 0.011141618 -0.00046598693 0.0009354431
0.010060139 0.009503109 0.0024591004 -0.002367008 -0.0049211695 -0.004277775 -0.0036977795 -0.010758918
-0.0070858207 0.0075481827 0.0005487826 0.0051223068 -0.0061339634 -0.005516316 0.005648673 0.007996968
-0.0055017695 0.0030905302 0.006139957 -0.0012615353 -0.0060618157 0.008214663 0.0037713535 -0.0005663976
0.006165694 0.004337879 0.008873753 -0.006128662 -0.0031760754 0.001642084 -0.0030475336 0.009805115
-0.001233273 -0.004707261 -0.0030648992 -0.0074181557 0.004327219 -0.0046429583 0.0092625525 -0.0048074867

node_encoder.layers.4.running_mean f4 [64]
00000000: 2b5d 06be 6b7a 80be 285b e3bd 6e09 c7bc
00000010: 0e07 193c 998c a7be 25f8 e33d 7b42 9bbc
00000020: b488 16bb 1aae 1e3e 6882 69be 49ce 45be
00000030: f417 6b3d f566 90bd 7641 a43e f35d f73d
00000040: 261d 8a3d 6514 32be 9981 48be bdf1 5d3e
00000050: 0a61 5bbd 0981 d5bd 5d57 c03c 492f 633e
00000060: e777 e63d 050b 38be d534 92bd deb9 02bf
00000070: 11cd 133e 4477 003f 329c 88be 49b9 e7be
00000080: 3fa9 dfbc f7c3 0bbf 8fc3 393e f2c7 3b3e
00000090: 4906 853e ec64 80be 6820 f63e 30b0 2cbe
000000a0: 69d8 a03e 153c 3fbe dc44 06be a777 373e
000000b0: deb4 6b3c 01bf e93d 5890 493e b1e8 b2be
000000c0: dafd 28be 3992 04be 5b23 4abe aa0e 55be
000000d0: 3ac2 27be d047 5dbe ed02 2f3d aac8 413e
000000e0: 45e6 1fbe dc6c af3e e446 813d 9df8 5f3e
000000f0: fed9 68bd b030 213e 21f8 123e 092d 353d
-0.13121478 -0.25093397 -0.11101371 -0.024296489 0.009340061 -0.32724455 0.11131314 -0.018952599
-0.0022969665 0.15496102 -0.22803652 -0.19316973 0.05739589 -0.070508875 0.32081193 0.12078466
0.06743841 -0.17390592 -0.19580688 0.21674247 -0.05355934 -0.10425002 0.023479158 0.22186007
0.11253338 -0.17972954 -0.07138983 -0.5106486 0.14433695 0.50181985 -0.26681668 -0.4525855
-0.027302383 -0.54595894 0.18141006 0.18337992 0.25981358 -0.25076997 0.480716 -0.16864085
0.31415108 -0.18675263 -0.13112205 0.17916737 0.014386384 0.11413384 0.19683969 -0.34943154
-0.16503087 -0.12946405 -0.1974005 -0.20806375 -0.16382685 -0.21609426 0.0427274 0.18924204
-0.15615185 0.3426274 0.063123494 0.21872182 -0.05684852 0.15741229 0.14352466 0.044232402

node_encoder.layers.4.running_var f4 [64]
00000000: eb36 ea3d 32c3 d63d 9d0f cb3d b97e f93d
00000010: c017 ac3d 8314 273d 5f23 853e 234f 4c3e
00000020: 74b4 513e 3083 c23d 9cd0 423d 36a4 d73d
00000030: 70bb 1b3e 0561 3f3e c709 6e3d 85b3 8a3d
00000040: 9fcc d23d d07b 033e d905 7a3d ce99 903d
00000050: 51f1 9d3d 11ef 713e 0c9d 473e d470 1a3d
00000060: 2a47 1a3e 74d0 243e 287f 4c3e 1f72 663d
00000070: 8c58 2e3d 7f24 043e 8198 a93d 1cfd 603e
00000080: fbd1 5c3d b619 9e3d 32de a33d 2828 eb3d
00000090: 76e5 e63d 8747 9f3e 2282 2f3e b758 813d
000000a0: 2de8 093e d2b3 173e 1f66 0a3e b856 5b3e
000000b0: b0dd c93d 4712 0d3e ca7e d93d b0ca 283e
000000c0: 8c31 073e 4147 b63d e818 ba3d bfd6 0b3e
000000d0: daf1 693e 2688 c83d d2a7 523e c173 1a3e
000000e0: 55d9 613e a0f1 6e3d 53aa 143e 30ef ff3d
000000f0: 054f e43d 8f86 4d3e be4d 503e dc9a 243e
0.11436256 0.10486449 0.09915087 0.121823736 0.084029675 0.040791046 0.26003549 0.19952063
0.20478994 0.09497678 0.047562227 0.105293676 0.1520822 0.18689354 0.058114793 0.06772522
0.102929346 0.128402 0.061040733 0.07060586 0.07712043 0.23626353 0.19493502 0.037705258
0.1506621 0.16095144 0.19970381 0.056261178 0.042564914 0.12904547 0.08281041 0.21971554
0.05391119 0.07719748 0.08001365 0.114822686 0.11274235 0.3110926 0.17139485 0.06315749
0.13467474 0.1481469 0.13515519 0.214198 0.09856737 0.13776504 0.10619886 0.16483569
0.13202494 0.08900309 0.09086782 0.13656138 0.22846165 0.09791593 0.20571831 0.15083219
0.22055562 0.0583359 0.14518099 0.12496793 0.11147884 0.20070861 0.20342156 0.16074699

node_encoder.layers.6.weight f4 [32, 64]
00000000: 36cf ba3d 1997 ddbd f40f a4bd 8a5b 23bc
00000010: 5535 f5bd a9af edbd 9ef7 e6bd 9aa5 ce3d
00000020: 2303 a13c bb4e 2dbd b3e1 11bb 17f6 e8bd
00000030: 96a8 f5bd b20b bebd c0a9 03be a9b8 a03d
00000040: 4671 39bd 5a1b 11bd 8da1 e0bd 9552 703c
00000050: a66e 88bc 496d b4bd 0b00 983d ca24 ce3d
00000060: fa5e c4bd 12e5 943d 1ec0 88bc eacf 3b3c
00000070: d748 703d 0bd7 e7bc fd30 dd3d caf1 993d
00000080: c1af a1bd bf2b 9dbd f8d4 04be e3ba 083d
00000090: f783 d5bd 1c33 cdbd f9b2 aabd 8bcd ffbd
000000a0: a6ac d7bd aa19 e23d 1639 963d 935c d73d
000000b0: 61f4 74bd e010 4cbd a900 57bd 8496 05bc
000000c0: 4aa8 c0bd 7de7 603c 637b 9fbd 52c5 0d3d
000000d0: 2ca1 e53d b345 753c a43b b03d 1836 bfbd
000000e0: d993 d7bc dad1 b1bd d3ab 9ebc 1473 5cbd
000000f0: 47f2 9ebd fbc3 ecbd c081 3abd fbd4 993c
00000100: 32bd 9fbc fcce e2bd 958c a43d d7c5 b73d
00000110: 5754 94bd c790 743c 7423 9f3d 0aad fbbd
00000120: 7eb2 dabd 04ed 863d 4ef0 eb3b 4c11 4b3d
00000130: 94a9 66bd 5a25 9a3c 1c13 a43d 64f8 e5bc
00000140: 200f 35bd cb3a 00be 01ec 7bbc 19fc 9d3d
00000150: cf40 f9bd bc62 97bb 487b af3d 6ae9 c1bc
00000160: bbd2 4abd b01c 3bbd 80ee 42bd 8357 fc3c
00000170: 91a6 ebbd 88b1 2a3d 8f3e a1bc 457a a9bb
00000180: 16df 7cbb 4abe 943d 1292 9dbd a72d fabd
00000190: d506 c5bd 3ae4 babd f7e9 85bd 87e8 dd3d
000001a0: ef26 bcbd 6646 91bd a791 cabd 098b 82bd
000001b0: e46e b63b b978 a6bd d618 d3ba 7f3e 5a3d
000001c0: ba5d c6bc 4923 593d a27f 133d 4523 fa3d
000001d0: e395 0a3a a161 da3d b7b9 c33d 73c6 873d
000001e0: 8f65 a33d 6602 b5bd 455d 9dbd 7fd5 413d
000001f0: 04f8 233d 702d d33d e309 6bbc 6c76 dcbc
00000200: e2c3 b63d 269d 6c3c ae81 003e 82ab 74bd
00000210: 53d5 15bd fcc8 03bc 6406 823d b0f3 e1bd
00000220: 8f26 28bd 19e4 c03d de35 f43c 9c6c a93d
00000230: db86 28bd 1c46 9ebd 5178 b5bd 80f7 8dbd
00000240: eb55 b7bd ccbd 823d 4f93 2a3d fd1c 99bd
00000250: 2c7e f23d cc2e 123d e64e 243d ab2b 6abd
00000260: d742 a23d 2c28 b5bd 48b8 c43d b565 86bd
00000270: 19a8 6a3d a3d6 52bd c6d0 a23d d0a4 d8bd
00000280: 30ca b8bc 3585 2dbd 9e52 a8bd 480c 70bd
00000290: 2763 30bd 4b89 f93b 68c8 ac3d 25a6 88bc
000002a0: 263d f03d 1f26 60bd bb66 76bd 49fd 87bb
000002b0: a8f5 a0bc c026 273d f302 e13d 90c2 123d
000002c0: 92f2 debd a00a 3ebd b552 c4bc fe72 d3bd
000002d0: dd54 343d 2ecd d13d cf2c 7a3d 827b 33ba
000002e0: 5d5d 6fbc ee03 8ebd a252 89bc f6a0 e23d
000002f0: b84e 90bd f802 b83c acfd b0bd 7e1c f9bc
00000300: adaa 913c b4dc bbbd 43ac 223d be9a d1bd
00000310: e7b4 41bd c56f bc3d 9637 fa3d 601d 8abb
00000320: 1b1a bfbd 6845 c4bd 03c2 e8bc 638f 90bd
00000330: 2696 c23d d964 b5bd 59c2 ae3d 60e1 8d3c
00000340: ba69 29bd ea5c d93d 1016 883d 44e4 883a
00000350: 4c49 a2bd d905 36bd b7a5 353d fd84 de3d
00000360: e808 3abd adde 27bd 3ef1 ebbd 35cf a43d
00000370: 225a f33d 9320 a43d 892d 9ebd 59f3 a43d
00000380: 9d08 38bd ab92 893d cc8e 8e3d a6a4 c8bd
00000390: 2889 053d 1592 553d ff53 8ebd 43cc d53d
000003a0: 6710 be3d b68c e53d cfbf b43b 3fb0 8cbd
000003b0: 6e03 85bd bd7d 493d 16f6 ebbc 7d0d bd3d
000003c0: 7cea de3d d2e0 1b3c d468 e2bd 9c71 3e3d
000003d0: 4ca4 e43d 6431 f4bc 86fe 93bd 59cf ebbc
000003e0: 5f30 443c f4f3 c3bd ac45 763d 40f8 5e3d
000003f0: 9c25 22bd 0234 1bbd faec 65bd a295 d43d
0.091215536 -0.10819835 -0.08010855 -0.009970555 -0.11973063 -0.1160577 -0.11277698 0.1009018
0.019654816 -0.04231141 -0.0022259771 -0.11375063 -0.11995046 -0.092795745 -0.12857723 0.07847721
-0.04527404 -0.035426475 -0.10968313 0.014668127 -0.016654324 -0.08809907 0.07421883 0.10065611
-0.09588428 0.07270254 -0.016693171 0.011463145 0.058663215 -0.028300783 0.108003594 0.07516821
-0.078948505 -0.076743595 -0.12971866 0.033381354 -0.10425561 -0.10019514 -0.083349176 -0.12490376
-0.10530977 0.11040051 0.07335107 0.10515704 -0.05980337 -0.04982078 -0.052490864 -0.0081535615
-0.094070986 0.013727066 -0.07787206 0.034612007 0.11212382 0.014970231 0.086051255 -0.093364894
-0.026315616 -0.08682604 -0.019369042 -0.053820685 -0.077610545 -0.11560818 -0.045533895 0.018778315
-0.019499395 -0.110746354 0.080346264 0.08973282 -0.07242649 0.014927096 0.07770434 -0.12288864
-0.10678576 0.06588176 0.0072002774 0.049577042 -0.056314066 0.018816639 0.08011457 -0.028072543
-0.044203877 -0.12522428 -0.015376092 0.077140994 -0.121705644 -0.0046199244 0.08568436 -0.02367087
-0.049517374 -0.045681655 -0.047590733 0.030803448 -0.115063794 0.041673213 -0.01968315 -0.0051720464
-0.0038585118 0.07262857 -0.07693876 -0.12215739 -0.09620444 -0.09125562 -0.06538766 0.10835367
-0.091871135 -0.070935056 -0.09891062 -0.06374175 0.0055674184 -0.08128495 -0.0016105424 0.053282257
-0.024214614 0.053012166 0.036010392 0.122137584 0.0005286617 0.106631525 0.09556907 0.06629648
0.07978355 -0.08838348 -0.076838054 0.047322746 0.040031448 0.10311401 -0.014345619 -0.026911937
0.089240804 0.014441764 0.12549469 -0.059733875 -0.036580395 -0.008043524 0.06348875 -0.11032808
-0.041052397 0.09418506 0.029810842 0.08272669 -0.041144233 -0.07728216 -0.08860839 -0.069319725
-0.089519344 0.06383857 0.04164439 -0.07476232 0.118404716 0.03568916 0.040114306 -0.05717055
0.07922905 -0.08845553 0.09605461 -0.06562368 0.057289217 -0.051474225 0.079499766 -0.105783105
-0.022557348 -0.042363364 -0.08218883 -0.058605462 -0.04306331 0.0076152436 0.08436662 -0.016680786
0.11730413 -0.054723855 -0.060156565 -0.004150067 -0.019648388 0.04080844 0.10986891 0.03583008
-0.1088611 -0.04639685 -0.023965219 -0.103246674 0.044026244 0.10244213 0.06107789 -0.0006846712
-0.014609662 -0.06934343 -0.016763035 0.11065857 -0.070462644 0.022462353 -0.08642134 -0.030409094
0.01778158 -0.09172955 0.039715063 -0.10234593 -0.047291663 0.09201006 0.122176334 -0.0042149276
-0.09331151 -0.09583551 -0.028412824 -0.07058599 0.09501295 -0.08857126 0.085331626 0.017319381
-0.041360594 0.10613425 0.06644833 0.0010444005 -0.079241365 -0.04443917 0.04434749 0.10865209
-0.04541865 -0.040983845 -0.11520623 0.08047334 0.11882426 0.080140255 -0.07723529 0.080542274
-0.04493009 0.06717428 0.0696083 -0.09797029 0.032601506 0.052141268 -0.06949615 0.104393505
0.09280472 0.11208479 0.0055160294 -0.06869554 -0.06494795 0.04919218 -0.028803866 0.09231088
0.10884568 0.009514051 -0.11055151 0.046495065 0.1116415 -0.029808708 -0.07226281 -0.028785395
0.011974423 -0.09568015 0.060125038 0.05443597 -0.03958665 -0.037891395 -0.0561342 0.10380103

node_encoder.layers.6.bias f4 [32]
00000000: 213f 6e3d 5a7e 213d 2815 4f3d 7f72 0bbc
00000010: 198c a2bd e53b 7739 4c61 c13d 535f b53d
00000020: 6bfe 5dbd 5847 883d eff8 173d 7d09 acbb
00000030: 1274 483d 1fe8 2f3a 683a a6b9 efe4 7fbd
00000040: d80e 7a39 9069 d23d 23d1 6d3d b4e2 a6bd
00000050: 2db2 e53a 80a9 763d 3f0c 0dbd b9c0 a538
00000060: 0ba3 303d f91e af3d df24 c03d 1b0b 91bd
00000070: 3811 c9bd 270e 8d3d 9329 153b cb03 bf3d
0.058165673 0.03942714 0.050557286 -0.008511185 -0.07936878 0.00023578068 0.09442386 0.08856072
-0.05419771 0.06654233 0.037102636 -0.0052501545 0.04893882 0.0006710309 -0.00031705503 -0.062474187
0.00023847388 0.10274041 0.058060776 -0.08148709 0.0017524414 0.06022024 -0.034435507 7.9037105e-05
0.04312424 0.085508294 0.093820326 -0.07082196 -0.09817737 0.06887465 0.0022760376 0.09326895

edge_encoder.layers.0.weight f4 [64, 4]
00000000: b826 b43e 4ad5 4dbe e465 103e 2313 243e
00000010: 7755 2ebe 6693 ea3e e3cf 453d 02e5 25be
00000020: 2216 ebbe add9 ce3e 7097 fbbe da75 c63e
00000030: 66d5 27be f627 bfbd 2450 a23d 6e8c f73e
00000040: ca94 a0be 0d9e b4be 650a a03e 6e11 69be
00000050: 4c66 3abe a18a 903e 2ceb 5abe b7e4 9b3e
00000060: 5896 51be 0c21 c63e 765e fb3e 167c 763d
00000070: 82ff 21be 4e37 8b3e 5654 183e bdad d03b
00000080: 96ad de3e bce0 97bc 8b82 3e3e 8dd7 0fbe
00000090: c831 adbd 78de f2bc f1dd 253d 4d8e 603e
000000a0: a14d bf3e a20f 9a3e 1e56 5bbe e2bb de3e
000000b0: 3554 a83e 948a 3f3e f009 633d 17ac 8bbe
000000c0: d37c 9dbe c1a6 223c b960 b9be a389 353e
000000d0: f4ff eabe eb64 e3be 6b75 60be d6eb 8d3e
000000e0: 4b00 ce3e 8e9f d7be e7bb 9dbe bec4 cc3d
000000f0: f55b babd dcd0 d0be edd3 0f3e 193d d0be
00000100: dc3a d63c 1297 503e e848 eb3e efab d8be
00000110: 9c82 bd3e da60 843d 9aaf df3e 135b fc3e
00000120: 5d59 eebd 4ee0 a6bd a4d7 febd 7d80 c43e
00000130: 67a5 61be 371d aa3e 708e 503e 8ca6 ec3e
00000140: 6ae2 b53e 308e cb3e 06df d3be f7bc 83be
00000150: 3848 b7be e78c 773e d876 d03d fd4f 3c3e
00000160: b9b7 473e 0af9 e23c dec6 3b3e b6ef 8dbe
00000170: 62b1 a53e 6807 e0be 08be e8be 8d5a 303e
00000180: 3761 ef3e 675b 33be 1dda f13e 65f7 37be
00000190: f925 c5be b746 a2bd 80b4 8a3e 0bc4 83be
000001a0: 4c23 f03e 58e7 6cbe d4d8 5fbe 0c6f 56be
000001b0: 7cbd c6be 2c84 eb3e 5984 90be a663 6dbe
000001c0: 23e0 11be 0306 d53e 40d6 7b3e 94e1 4a3e
000001d0: 2dac 11be 7aed 7e3e 2b58 aa3d 4487 ce3e
000001e0: 96d9 f03d 7e99 c03e abce ab3e 3a6d a73d
000001f0: 8d44 f1be 842d e43d 68ad c3be e6e7 9d3d
00000200: d8ba 42bd 240b c63e e6cb bcbe 2c1b d0be
00000210: 1057 5b3e 5e41 ad3e 12e9 e4bd d7fe 103e
00000220: 1183 cd3e d21c 6b3d 710c 0ebe c96c 963e
00000230: 6316 ea3e c78b bdbd 97bf a93e 82f2 073d
00000240: 76ef babd 4409 3dbd 0bb4 febe 248a 713e
00000250: b989 89be 599b ddbe 6bc3 83bd d9e0 41be
00000260: fe04 a0be 4e77 e3bd d006 57bd 3c0f 183e
00000270: fdf3 943d 163a 82bd 8b32 dc3d f236 a5be
00000280: a844 dc3e 55d0 733e 1a30 9e3e 7a4c e4be
00000290: 95ec aa3e ddf3 b03d cbbb fabe 90f5 f03e
000002a0: 17eb 0fbc d4a6 d73d d098 cd3e dca1 aa3e
000002b0: 911c e13e 166a efbe 376e fd3e da2d dd3d
000002c0: ebdf 7a3c 36cb cdbe edcd 85be 09e1 f03e
000002d0: 90cd c33e afca c43e 922b 10bd fa52 8ebe
000002e0: 13b9 e23d 109f 6dbe f8b0 a9be e591 293e
000002f0: adff c33e 037f c9be b17b e0be c95f 923d
00000300: 9039 3bbe d2ba 87be 00d1 c9bd 5ceb 06bd
00000310: 32d5 14be 4a2f b83e befc 8c3e 62f8 193e
00000320: 7484 26be a62a 1bbd 5cb6 a43e a668 303d
00000330: 6f69 f7be c31c 653d 4457 853e d6dd 01be
00000340: d2a2 d3bd 5c75 97bd 0ee2 973e f3de cd3e
00000350: 3c07 c8be 1198 a93e b486 513e 0bbd 2e3e
00000360: 7848 99be 6f8b 91be 8b3a f83e 7315 e93d
00000370: df38 dabd 51dd c3bd 3ee6 ad3e c491 e7bd
00000380: 3ca4 af3e 8c3e 09be 6bd0 e83d 79fc f33d
00000390: 82ed 86be c472 533c 7991 c13d 8c87 f4be
000003a0: a1d8 bebd e24c 253d bb22 d53e ecfe db3d
000003b0: 5f97 dcbe e998 1ebe 30d0 f83e 0902 95bd
000003c0: dd00 bf3e fabb 463d 800d aa3e 91ec 55be
000003d0: 4a91 f83e 84c0 d93d b7dd ddbd d7cb c33e
000003e0: 2829 723e 9e27 b2be c171 dbbc b455 b53e
000003f0: e3e5 033e bb4a 1abe 5cb5 aabe 34e3 adbe
0.3518579 -0.20100895 0.14101368 0.16022925 -0.1702479 0.4581558 0.04829396 -0.16200641
-0.45915323 0.40400448 -0.49138975 0.3876179 -0.16389999 -0.09333794 0.07925442 0.48349327
-0.31363517 -0.35276833 0.3125793 -0.22760555 -0.18203086 0.28230765 -0.21378773 0.30447933
-0.20467508 0.38697088 0.49095505 0.06017693 -0.15820125 0.27190632 0.14875922 0.0063683675
0.4349181 -0.018539779 0.18604486 -0.1404707 -0.08456761 -0.029647097 0.040494863 0.21929283
0.37363914 0.30090052 -0.2141957 0.43502718 0.32876745 0.18705207 0.0554294 -0.27279732
-0.30759296 0.009927453 -0.36206606 0.17728285 -0.45898402 -0.44412932 -0.21919791 0.2771899
0.402346 -0.42113918 -0.3080742 0.09998463 -0.09099571 -0.40784347 0.14045687 -0.40671614
0.026151113 0.20370129 0.4595406 -0.42318675 0.3701371 0.064637855 0.4368866 0.49288234
-0.116381384 -0.081482515 -0.12443474 0.3837928 -0.22035752 0.33225414 0.20366836 0.46220815
0.35524303 0.39756918 -0.4138109 -0.25730106 -0.35797286 0.24174844 0.10178918 0.18389888
0.19503678 0.027706642 0.1833758 -0.27721947 0.32361895 -0.4375565 -0.45457482 0.17222042
0.46753857 -0.17515336 0.4723672 -0.17965467 -0.38505533 -0.07923644 0.27090836 -0.25735506
0.4690193 -0.23135126 -0.21860057 -0.20940799 -0.3881644 0.45999277 -0.28225973 -0.23182544
-0.14245658 0.4160615 0.24593449 0.19812614 -0.14225836 0.24895278 0.08317598 0.40337574
0.11760251 0.37617105 0.33556113 0.0817513 -0.47122613 0.11141494 -0.38218236 0.07710247
-0.04754147 0.38680375 -0.36874312 -0.4064573 0.2141993 0.33838934 -0.11177267 0.14159714
0.40139058 0.057400532 -0.13871934 0.2937987 0.45720205 -0.09255176 0.33153984 0.033190258
-0.09127705 -0.046151415 -0.49746737 0.23587853 -0.26862887 -0.43282583 -0.064337574 -0.18933429
-0.3125381 -0.1110674 -0.05249673 0.14849561 0.072730996 -0.06358735 0.10751828 -0.32268482
0.4302113 0.23809941 0.30896074 -0.44589597 0.33383623 0.08640263 -0.489714 0.4706235
-0.008784077 0.10529867 0.4015565 0.33326614 0.43967107 -0.46760625 0.4949815 0.10799761
0.015312175 -0.401941 -0.2613367 0.47046688 0.3824277 0.38435885 -0.035197802 -0.2779768
0.11070456 -0.23205209 -0.3314283 0.1655956 0.38281003 -0.39354715 -0.4384437 0.07147176
-0.18283677 -0.2650972 -0.09854317 -0.0329393 -0.14534453 0.3597358 0.27536577 0.15036157
-0.16261464 -0.03788247 0.3217038 0.04306855 -0.48322627 0.055935632 0.2604314 -0.1268228
-0.1033379 -0.073954314 0.29664654 0.4020916 -0.3906802 0.3312383 0.20461541 0.17064302
-0.29938102 -0.28426692 0.48482165 0.11381044 -0.106553786 -0.09563697 0.33964723 -0.113070995
0.34304988 -0.13402766 0.113678776 0.1191339 -0.2635308 0.01290578 0.09451575 -0.47759664
-0.093186624 0.040356524 0.4162806 0.10741982 -0.43084237 -0.15488018 0.48596334 -0.07275779
0.37305346 0.048519112 0.33213425 -0.20891024 0.48548347 0.106324226 -0.108333044 0.38241455
0.23648512 -0.3479585 -0.02678764 0.3541695 0.12880664 -0.1506757 -0.3334149 -0.33962405

edge_encoder.layers.0.bias f4 [64]
00000000: d825 843e 2567 533e 26a9 d8be 903a aabd
00000010: f1f3 da3d c24f d8be dc6e d23e f252 0cbd
00000020: 55bc 3bbe a0c4 153d 6dbf 243e d071 bb3d
00000030: ce94 e83e aef4 853e 676f f1bc f07e 863d
00000040: 91f4 cf3d ffd2 36be fc2c d1be d2c5 0bbd
00000050: fbc8 2ebe 43a2 e7be ff5f 223e 9e90 42be
00000060: a2e7 ea3e 62e4 223e 74c7 453e 3b12 013e
00000070: 0a70 333e 83be 993e dfe2 b13e 92dc 19bc
00000080: 38fe f9bd b52b ed3d e1bd 52be 787b fbbb
00000090: d455 013e 1a81 503e ca6d edbe b703 323e
000000a0: dbfe 31be ff23 aabe a7c8 45be 29fe 0f3b
000000b0: 14da 673e dfcf d9be 57e1 ed3d 7176 dc3e
000000c0: 5e79 86be 9e86 cc3d 6395 39be 4390 d33d
000000d0: 0570 493e 7a88 93be 83de cc3d c7d5 f23e
000000e0: f806 883c 5b8a abbe 2e8e b4ba 77b9 b93d
000000f0: 1a7a 093e 2c88 8fbc ce62 b3bd 1547 6abe
0.25810122 0.20644815 -0.4231655 -0.08311951 0.106910594 -0.4224835 0.41100204 -0.03425879
-0.18333562 0.03656447 0.16088648 0.091525674 0.4542603 0.26163238 -0.029472066 0.0656718
0.10154069 -0.17853926 -0.40854633 -0.034124203 -0.17068855 -0.45240983 0.15856932 -0.1900048
0.45879847 0.15907434 0.19314367 0.1260461 0.17523208 0.3002816 0.347434 -0.009390967
-0.122066915 0.11580602 -0.20580246 -0.0076746307 0.12630397 0.20361748 -0.46372825 0.1738423
-0.17382376 -0.33230588 -0.19314824 0.002197156 0.22641784 -0.42541406 0.11615246 0.43059114
-0.2626447 0.09986614 -0.18123393 0.1033025 0.19671638 -0.2881506 0.10003378 0.47428724
0.016604885 -0.33503994 -0.0013775283 0.09068578 0.13425484 -0.017520986 -0.0875908 -0.22878678

edge_encoder.layers.1.weight f4 [64]
00000000: 92ae 7d3f e450 7d3f e2e3 7e3f c588 803f
00000010: c879 7f3f 41eb 803f 9990 7d3f 1ae8 803f
00000020: c35f 803f 3833 7f3f b5b9 803f 9040 7f3f
00000030: 3109 7d3f 6a6b 7e3f 7012 7e3f 514e 7e3f
00000040: 57ad 7c3f 0fbb 7e3f 75df 7c3f 6916 7f3f
00000050: 8c8e 7e3f acba 7d3f 6987 7e3f 7722 7e3f
00000060: 357c 7e3f 684d 7f3f e45f 7d3f 0102 813f
00000070: c093 7f3f b82f 7e3f 3c53 7e3f 39c5 7d3f
00000080: 47a7 803f 960e 7f3f e6e9 7e3f 340e 7e3f
00000090: bb4d 7e3f dc99 7d3f 8c14 803f 9117 7e3f
000000a0: 24a3 7e3f 7171 7f3f 2ee8 7e3f ef42 803f
000000b0: 941f 803f 6a27 7e3f deb0 803f e471 7d3f
000000c0: b0db 7d3f 4472 7d3f 00b6 7f3f c375 7d3f
000000d0: acd1 7c3f 7d9f 7e3f 169c 803f 8a1f 7f3f
000000e0: 6931 7e3f dabc 803f 8d21 7f3f 0782 7f3f
000000f0: 9def 7f3f afa4 803f 3554 7e3f cbbf 803f
0.990945 0.98951554 0.9956647 1.0041739 0.997952 1.0071794 0.99048764 1.0070832
1.0029224 0.9968753 1.0056673 0.9970789 0.9884215 0.9938265 0.99246883 0.9933825
0.98701996 0.9950418 0.9877847 0.9964357 0.9943626 0.99112964 0.9942537 0.9927134
0.99408275 0.9972749 0.9897444 1.0078737 0.99834824 0.99291563 0.99345756 0.9912906
1.0051049 0.9963163 0.9957565 0.9924042 0.9933736 0.99062896 1.000627 0.9925471
0.9946768 0.9978247 0.9957303 1.0020427 1.0009637 0.9927889 1.0053976 0.9900191
0.9916334 0.9900248 0.99887085 0.99007815 0.98757434 0.9946211 1.0047634 0.996575
0.99294144 1.0057633 0.9966057 0.9980778 0.99974996 1.0050257 0.9934724 1.005853

edge_encoder.layers.1.bias f4 [64]
00000000: a132 92bb 59d6 81bb efd2 93bb dcb0 cb3b
00000010: 0e6b fc3a 2f61 013c 3bfd 01bc 7947 063c
00000020: 90e6 843b 28cf bc3b eda7 d93b c562 7f39
00000030: 9136 f4bb 59f2 ecbb 9cb4 f6bb 14fe 9fbb
00000040: 3624 43bc 11cf 9ebb c138 42bc 4b0f 30bb
00000050: 34d4 15bb 8f41 d0bb 7eb9 93bb ea86 9cbb
00000060: e631 87bb 355c c1ba c395 4fbb 6e69 083c
00000070: 9d8b 1439 d097 adbb 5c43 adbb 772e fabb
00000080: 8dff af3b 9143 60ba a03b 1bbb ff7d f0bb
00000090: f884 e8bb b026 56bc 855e b83b 038b dbbb
000000a0: 2f51 94bb 3b53 95ba 6e1d 8bbb c6b4 a13b
000000b0: 4b9c 443b 2286 e3bb e8ce da3b ba78 06bc
000000c0: 3312 0cbc 2040 19bc 5617 1dba 1313 06bc
000000d0: ee0b 40bc 17a7 9fbb cc00 fe3b b272 67bb
000000e0: a1a3 c9bb afdf fc3b 776b 42bb b9d1 a43a
000000f0: d77b 8f3a d01b ba3b d5b7 04bc 710e e03b
-0.004461602 -0.00396232 -0.004511229 0.0062161516 0.0019257979 0.0078967055 -0.00793391 0.008195751
0.0040558055 0.0057619996 0.0066423328 0.0002435549 -0.007452794 -0.0072310385 -0.0075288545 -0.0048825834
-0.011910489 -0.0048464616 -0.0118543515 -0.0026864584 -0.0022862079 -0.0063554714 -0.0045081964 -0.004776825
-0.0041258214 -0.0014752211 -0.0031674958 0.008325918 0.0001416639 -0.0052976385 -0.005287571 -0.0076349336
0.00537104 -0.000855499 -0.0023686662 -0.0073392387 -0.0070959292 -0.013070747 0.005626502 -0.006699921
-0.0045262794 -0.0011392602 -0.0042454517 0.00493488 0.0030000384 -0.00694348 0.006677497 -0.008207494
-0.008549261 -0.0093536675 -0.0005992552 -0.008183259 -0.011721594 -0.0048722136 0.00775156 -0.0035316166
-0.0061535393 0.007717095 -0.0029666105 0.0012574709 0.0010946941 0.005679585 -0.00810047 0.006837659

edge_encoder.layers.1.running_mean f4 [64]
00000000: e059 883e 57f4 483e 6745 cebe 5e36 86bd
00000010: c9da c83d d69d d0be 1e52 ce3e 7388 2abd
00000020: c8ba 44be dfa4 493d f31f 3b3e 9928 a63d
00000030: 4314 ed3e e9e9 8e3e 145e acbc 18d8 563d
00000040: b700 a23d e657 27be 00d7 c6be 4df9 babc
00000050: 71ae 39be b73e e4be 361a 163e e304 33be
00000060: c71c e43e 6f00 163e 0f48 433e 273f f03d
00000070: 917e 373e c20b a13e a301 b03e d332 e5bb
00000080: c490 10be 124c fd3d 74f0 44be 58af 3ebc
00000090: 4d51 143e 64d4 4c3e 786b e8be 7acd 243e
000000a0: de41 4cbe a175 9cbe 0406 3ebe 6496 883b
000000b0: 6b0f 823e 77eb dfbe 21d2 063e 5c88 e13e
000000c0: a903 86be 43f6 d23d 931b 3dbe 6cba c43d
000000d0: 48bb 593e 51aa 92be 0eb1 d43d ca2e ed3e
000000e0: 147b d43c 36c7 b6be 240f fcba b771 ae3d
000000f0: 5d17 fe3d 9206 43bb 987c 92bd d114 75be
0.2663107 0.19624458 -0.40287325 -0.065533385 0.09807355 -0.4074542 0.40297025 -0.041634034
-0.19211876 0.0492295 0.18273906 0.08113212 0.4630452 0.27912834 -0.021040954 0.052452177
0.079102926 -0.16342124 -0.38835907 -0.022823954 -0.1813295 -0.44579098 0.14658436 -0.17482333
0.44553205 0.14648603 0.19070457 0.11730795 0.17919375 0.31454283 0.3437625 -0.006994584
-0.14117724 0.12368025 -0.1923235 -0.011638485 0.14484139 0.20002896 -0.45394492 0.16094008
-0.19947001 -0.30558494 -0.18556982 0.0041683186 0.25402388 -0.43734333 0.13166095 0.44049346
-0.26174667 0.10300877 -0.1846755 0.0960587 0.21262848 -0.28645566 0.10385333 0.4632476
0.025937594 -0.3569886 -0.0019230586 0.08517783 0.124068 -0.0029758555 -0.071526706 -0.23933722

edge_encoder.layers.1.running_var f4 [64]
00000000: 0ec1 5c3d b729 2d3d c0dc 763e ce8d ca3c
00000010: 92ca e63d b93c 7b3d 5d78 583e 013c 2d3d
00000020: b917 913d 3853 8d3c 6e0c a33d 705f 1c3d
00000030: 3277 003e 246a d23d 6dd9 033e 71a7 3f3d
00000040: fc94 2f3e 21cd 333e bbf9 ea3c 2eb8 833d
00000050: 0880 323e acbf 4b3d 9683 3a3d 32c9 4d3e
00000060: 0d20 5c3e ef1c be3d f5c1 bb3d 9247 f33d
00000070: f04f a13d c9b4 f33c 88fa e53d 36a9 213e
00000080: c9a3 023e b77e 2d3d 1101 643d 18f8 043e
00000090: 647f 463e db05 433d 6c64 0b3d 9541 c83c
000000a0: 76f6 f43d 5aa0 533e 87b3 083e 9016 7b3e
000000b0: 49cc a43d 2bec 5b3d dc5b cf3d 612e 473e
000000c0: a151 0b3d 70fd ae3d 434d c03d 2dbe d23d
000000d0: 0cb0 a63d 17b5 a73d 1c12 553e 5d1c ce3d
000000e0: 2675 3a3d f502 073d 5dbb 103e 4dc5 5f3e
000000f0: ba3d f03d 50a4 813d 7682 173d e685 cc3d
0.05389505 0.04227611 0.24107647 0.02472582 0.11269106 0.061337207 0.21139665 0.042293552
0.07084603 0.017251596 0.07961355 0.038176954 0.1254547 0.10274151 0.1287591 0.046790544
0.17146677 0.17558719 0.028683534 0.06431614 0.17431653 0.04974334 0.045535646 0.20096281
0.21496601 0.092828624 0.09167854 0.11878885 0.07876575 0.029749291 0.11229426 0.15787205
0.12757792 0.042357173 0.05566508 0.12985265 0.19384533 0.047613006 0.034031317 0.024445334
0.11961071 0.20666638 0.13349734 0.24520326 0.08046777 0.053692024 0.10124943 0.19451286
0.034013394 0.08544433 0.093897365 0.102901794 0.08139047 0.08188837 0.2080769 0.100640036
0.045521878 0.032961804 0.14133973 0.21852608 0.117305234 0.06330168 0.03698965 0.099864766
