gnn/gnn_outputs/final_model.pt (torch, 332229 bytes, 84 tensors)

node_encoder.layers.0.weight f4 [64, 3]
00000000: b804 e53e 9b17 f23e 9abf 0fbe 8ea2 093f
00000010: b0cf fabd 7cea d63d 7313 8abe 7d42 b33e
00000020: e691 033f d83f d3be 1690 033f 8bda bd3d
00000030: fe71 dd3e f3ee 8d3d 20a4 8b3e 46c8 b5bd
00000040: c26f df3e 7bd9 bf3d c628 91be 523c 1b3e
00000050: bdbe 7abe b6b0 83bd 039e 6abe e5b2 c63e
00000060: df5d f0be 57f0 7fbe fac0 23be 83df abbe
00000070: cedf 6b3d d284 14bf 6b41 043f af79 fbbe
00000080: a27a e63e eb4c cc3d 2f8b 33be 8759 ba3e
00000090: 560e ae3d 21ff f03e a5fb 723d 62ef 3bbe
000000a0: 0798 1c3e e070 24be 3195 763e 75a2 fb3e
000000b0: 95a5 b33e b9e9 6fbe a2de b03e 4cb5 d33d
000000c0: ceb5 963e ef0f b0be 7b8c 14bf bb49 61be
000000d0: c14d ebbe cf41 ec3e 3758 253e 471f 733e
000000e0: 9524 493e b20d 83bc 5a07 ec3e 9f0c cdbe
000000f0: b344 fa3c 10f4 ccbe 93e6 2f3e f902 49be
00000100: 9880 333e 80c2 fbbd cd4a f53e 9411 b2be
00000110: bc89 aebe afb3 b6be a480 013f 028a 403e
00000120: ffcd 0c3f 46cd f2be b0b3 13bf 5860 e6be
00000130: fe76 cbbe 3a8a 613e b3cd 4e3e 35e3 f93e
00000140: b35d 94be e4f2 c0be 5337 a43e 2c64 69be
00000150: 401c b33e 658c 15be ffab a53e bd0d efbe
00000160: 0cc8 8fbe 4fee 363e 5106 fe3d 1074 0fbe
00000170: 2386 b33e cc40 c43e cf46 dabe df06 9cbe
00000180: 336e 073f ca8b 52be 9a16 4cbe 7a0b 0dbf
00000190: 088d acbe f037 113e 8e33 b3bd 8663 d0be
000001a0: 0afe 513b 6d59 cbbe a807 04bf dcdd 99be
000001b0: 69ec 01bf 7cbe bbbe 31e3 123f e5ef e33d
000001c0: f286 433e 0dcb 05bf fde5 bebe 2546 45be
000001d0: a334 be3d 3dbe febe 7273 7ebe e9a6 b5be
000001e0: 6cf7 f63b 390c 64be ced1 07bd 072c d0be
000001f0: 1378 ccbe 134e a6be f147 50be d0a0 eabe
00000200: a492 f53e 22a1 debd 553e f83e fcd5 453e
00000210: 736a f9be 56fa d13e 2fcf 1fbe cfb9 67be
00000220: 4455 f5be 6b40 12bf 038a 323e f232 fbbd
00000230: d1ac 543e f64f f1be 1d2b da3e 1123 dabe
00000240: 18c8 cfbd e342 ea3d 2f74 9d3e 85bf f63e
00000250: 42eb 063f f534 e2be a0d5 113e b72e 86be
00000260: b8b2 5cbd 5e65 dfbe d3ce 043f a475 dcbe
00000270: 7860 a13e 5924 443e 2cbd 413e 358d 9cbe
00000280: 5aba 073f 677a 003e d595 9c3d 69b9 03bf
00000290: c4aa 703e 53d5 a5bd f2d3 85be bd52 ff3e
000002a0: 1a78 0b3e 8b92 a2be e9bf 93be 0954 13bd
000002b0: 0279 a33e 6848 19be 242b a3be 1d63 4fbe
000002c0: d697 e3be 6ad8 443e 0326 de3e d9d2 0ebf
000002d0: ff80 1a3e 5300 913e b2bf e43d a304 58be
000002e0: 1279 973e 02f9 9d3e 30c6 603e 0dfe cabd
000002f0: 7de7 19be 332d 883d cf83 c2bd 0322 38be
0.44730163 0.47283635 -0.14037934 0.53763664 -0.122466445 0.10493943 -0.26967964 0.35011664
0.513945 -0.41259646 0.5139173 0.092701994 0.43251032 0.069303416 0.27273655 -0.0887609
0.43639952 0.09367653 -0.2835142 0.15159729 -0.24486823 -0.06430189 -0.22911839 0.3880836
-0.46946618 -0.24994026 -0.15991583 -0.33568963 0.057586484 -0.5801517 0.5166232 -0.49116275
0.45015436 0.099756084 -0.17533563 0.3639643 0.08498828 0.47069648 0.05932202 -0.18353036
0.15292369 -0.16058683 0.2408035 0.49147382 0.35087267 -0.23429002 0.34544855 0.10337314
0.2943558 -0.34387156 -0.58026856 -0.22000782 -0.4595776 0.46143958 0.16146933 0.237424
0.19642861 -0.015997741 0.4609936 -0.40048692 0.030550336 -0.40029955 0.17177801 -0.1963004
0.17529523 -0.12292957 0.4790863 -0.34779036 -0.34089458 -0.35683963 0.50586915 0.18802646
0.55001825 -0.47422236 -0.57696056 -0.4499538 -0.3973922 0.22025385 0.20195656 0.48806158
-0.28977737 -0.3768531 0.3207346 -0.22792119 0.3498249 -0.14604338 0.32357785 -0.4669017
-0.2808231 0.17864345 0.124035485 -0.14009118 0.35063276 0.38330686 -0.42632148 -0.30473992
0.52902526 -0.20561138 -0.19930497 -0.55095637 -0.33701348 0.14181495 -0.08750068 -0.4070093
0.0032042288 -0.39716664 -0.5157418 -0.30052078 -0.5075136 -0.36668766 0.57377917 0.111297406
0.19094446 -0.52262956 -0.37284842 -0.1926504 0.092873834 -0.49754515 -0.24848726 -0.35478905
0.007536819 -0.22270288 -0.03315907 -0.4065859 -0.3993536 -0.3248144 -0.20339943 -0.45825815
0.4796344 -0.108705774 0.48485056 0.1931991 -0.48714027 0.41011304 -0.15606378 -0.22629474
-0.47916615 -0.57129544 0.1743546 -0.122655764 0.20769049 -0.47131318 0.42611018 -0.4260488
-0.10145587 0.11438539 0.30752704 0.48192993 0.52702725 -0.44181028 0.14241648 -0.26207516
-0.053881377 -0.43632025 0.5187809 -0.43058503 0.31518912 0.1915449 0.1891982 -0.30576482
0.53018725 0.12546693 0.07645766 -0.5145479 0.23502642 -0.08097329 -0.26138264 0.49867812
0.13620034 -0.31752428 -0.28857353 -0.035968814 0.3192826 -0.14969027 -0.3186885 -0.20252652
-0.4445178 0.1922318 0.43388376 -0.5579048 0.1508827 0.2832056 0.111693755 -0.21095519
0.29584557 0.3085404 0.21950603 -0.099117376 -0.15029712 0.06649246 -0.09497797 -0.17981724

node_encoder.layers.0.bias f4 [64]
00000000: 056f 8c3e 7ed0 cc3e bca8 51ba 34b0 3dbd
00000010: f225 08b8 bf6a 4cb7 0808 5f3d 9766 993d
00000020: 0e22 dbbe 7d44 fbbd 80bc c73e 8319 093e
00000030: 13b8 40b9 00de 81be 4476 84be d275 d7be
00000040: d93a cbbd 9633 d83d c905 8c3e 2736 323e
00000050: 63fd d3be cf71 81be 4f4c 8abc c27d ec3e
00000060: 0b21 463c c0c4 82bd 43d1 163e 8439 04be
00000070: aac7 8ebe 74e2 a63e 0533 2ebe cbd2 0fbd
00000080: 588c f4be a331 953e 06fe ae3e d909 f63d
00000090: 4a5b 9dbe a839 f2be e4f7 bebe d080 ab3e
000000a0: dabd 3c3e 6d8d c73e 21f8 553e 084c 793d
000000b0: f7b4 b3b6 dbd6 afbe 5402 ccbe ee14 e3be
000000c0: 805b 143e 3202 43be 96fc 10bd 95d6 73be
000000d0: d5c1 dcbc 5e46 9fbe 1496 90be 278d d13d
000000e0: 63c6 abbd 9b13 863e 8595 c5bd 1ff4 a7be
000000f0: cb04 c8bc 026f 3fbe 8f64 b5bd fd07 e8be
0.2742845 0.40002817 -0.00079978607 -0.04631062 -3.2460266e-05 -1.2184201e-05 0.05445102 0.074902706
-0.4279942 -0.122689225 0.39011002 0.13388638 -0.0001837912 -0.25364685 -0.2587148 -0.42082077
-0.09923334 0.10556714 0.27348164 0.1740347 -0.41404256 -0.25282142 -0.01688209 0.46189696
0.012092839 -0.06385183 0.14728265 -0.12912565 -0.27886707 0.32594645 -0.1701165 -0.035113137
-0.47763324 0.29139432 0.3417818 0.12013597 -0.3073371 -0.47309613 -0.372985 0.33496714
0.18431798 0.38975087 0.20895435 0.060863525 -5.355683e-06 -0.3434361 -0.39845526 -0.44351906
0.1448803 -0.19043806 -0.035397135 -0.23812325 -0.026947895 -0.31108373 -0.282395 0.10232001
-0.08387449 0.26186833 -0.09647659 -0.32803437 -0.024416348 -0.1869469 -0.08857071 -0.45318595

node_encoder.layers.1.weight f4 [64]
00000000: caf6 803f 9e45 7f3f a482 7d3f 20f8 7f3f
00000010: 452a 7e3f f8ab 803f b900 7b3f 5966 803f
00000020: c579 7e3f 1a05 7e3f dd0c 7f3f 3040 803f
00000030: f509 803f 5637 823f 6355 7d3f 8cc1 7f3f
00000040: d683 7b3f 893f 7e3f c3aa 7c3f de15 803f
00000050: 43ac 803f 9fdd 7c3f 0f8e 803f 4b5f 7e3f
00000060: 13a4 803f 3833 813f 5f17 803f f515 823f
00000070: 986e 7e3f 3f71 803f a70c 803f 9cce 803f
00000080: d386 7f3f 0cb1 803f ece4 813f a778 803f
00000090: 8d38 813f 1c0e 813f e4f4 7e3f 0c60 7e3f
000000a0: 2d9e 803f 7163 7f3f d695 803f 8ca6 7f3f
000000b0: d358 7f3f af77 7d3f f074 803f c3b3 803f
000000c0: d0f9 7e3f 7f21 7e3f d5cf 813f 61b0 813f
000000d0: 860b 7c3f 222e 803f 470c 7e3f cfcd 7d3f
000000e0: 77b7 7b3f c3c6 7e3f 218f 7d3f 4395 803f
000000f0: 52b4 7d3f 70c7 7c3f e0eb 7c3f bb29 7c3f
1.0075314 0.997156 0.99027467 0.99987984 0.9928325 1.0052481 0.9804798 1.0031234
0.99404556 0.99226534 0.99629 1.0019588 1.0003039 1.0173137 0.98958415 0.99904704
0.9824804 0.99315697 0.9869806 1.0006673 1.005257 0.98775667 1.0043353 0.99364156
1.0050071 1.0093756 1.0007132 1.0162951 0.993875 1.003456 1.0003861 1.0063052
0.998151 1.005403 1.0147986 1.003682 1.0095383 1.0082431 0.99592423 0.99365306
1.0048271 0.9976111 1.0045726 0.99863505 0.9974491 0.9901075 1.0035686 1.0054859
0.99599934 0.9926986 1.014155 1.0131952 0.98455083 1.0014079 0.99237484 0.99142164
0.9832682 0.99522036 0.9904652 1.0045551 0.9910327 0.9874182 0.98797417 0.98501176

node_encoder.layers.1.bias f4 [64]
00000000: b119 fb3a 94a0 82bb a3c3 0ebc 27c0 993c
00000010: c29f 88bc 7063 183c b7d0 d5bc 982e e43b
00000020: 2125 e4bc d2c6 9cbb 4623 ac3b bc02 91bb
00000030: dc57 233b 81e2 153b e601 54bb bad3 fe3b
00000040: 7e70 aabb c718 e03a 0bde 1ebc d88f 85bb
00000050: 548c 14bc 26df 00bc d0d3 063b 62ac 073b
00000060: b6ab 16ba c14f d5bb 8b8b a13c 67a3 673c
00000070: ab36 0abc 3f6d adbb a963 9a3b 1b97 6b3b
00000080: 95ed 6bbb 48f0 3bbc 1184 aebb e475 5ebb
00000090: bb46 143c b296 073c 2249 8bbb e2c2 403a
000000a0: 3819 dd3b 2779 46bc 9874 99bb 6ea1 0b3c
000000b0: 7a17 b83b a09c 133b 53f9 d2ba 4919 20bc
000000c0: 86ce 5f3b f1ff 92bb 79c0 1b3c 1820 be3c
000000d0: ee64 5c3b a6d6 e73b fd28 2ebc d525 09bd
000000e0: 619c 0dbc 21e5 b7bb 31a9 21bc 4ac8 283c
000000f0: 2a6e 86bb 2292 213c 9b02 3f3a 1b16 5ebc
0.0019157437 -0.0039864276 -0.008713636 0.018768383 -0.016677741 0.0093010515 -0.0261005 0.006963562
-0.027849736 -0.0047844434 0.0052532284 -0.004425375 0.0024924194 0.0022870603 -0.0032349764 0.0077767046
-0.0052013984 0.0017097228 -0.009696494 -0.0040759854 -0.00906666 -0.007865703 0.0020573027 0.0020702113
-0.0005747633 -0.0065097515 0.01971986 0.014138079 -0.008435885 -0.005292564 0.0047115874 0.003594822
-0.0035999764 -0.011470862 -0.005325802 -0.003394478 0.009050067 0.008275675 -0.0042506615 0.00073532586
0.006747391 -0.012113846 -0.0046830885 0.008522375 0.005618033 0.0022523776 -0.0016096033 -0.009771653
0.0034150197 -0.004486077 0.009506338 0.023208663 0.0033629495 0.0070751486 -0.01062989 -0.033483345
-0.008643241 -0.005612031 -0.0098669985 0.010301659 -0.004102488 0.009861501 0.000728646 -0.013555075

node_encoder.layers.1.running_mean f4 [64]
00000000: c969 3b3f 1839 2a3f 1d84 ad3e a579 cb3d
00000010: d231 d23e e0c8 8a3e 0f0a febd 2d9a d43d
00000020: 835c 6abf c217 11bf 375e 183f 3823 8a3e
00000030: 251b bb3e d77e afbe 931d b23e c42d 90be
00000040: b7b9 ebbe 5fa0 51bd ed34 1c3f 9a01 7d3e
00000050: 7f7f 0fbf e568 a1be 962d 22be e937 303f
00000060: 4995 93be 1856 debe 800d d13e 3e49 80be
00000070: 4954 b8bc ac8b 8c3b e4ad 6abc 1f99 83be
00000080: 326c debe 26f5 02be 4c13 503d 02c7 0ebf
00000090: c3db 01bf b854 12bf 4ad7 24bf 8539 84be
000000a0: dded 1a3d 81da 6ebe 3687 923d e3bb cf3e
000000b0: 1c21 aabd 924f 87bf a52f 8fbe 6ffc 26bf
000000c0: cc60 a63e be88 1e3e 546f 1cbe 0e40 bfbe
000000d0: 661e b43e 23cf abbd 1191 e2be beb2 233e
000000e0: d7d8 b8be 4dc8 bb3e 2c2a 1fbf 4f04 81be
000000f0: eace 913e fbf4 243d 437e edbd 89f8 12bf
0.7320829 0.6649337 0.33889857 0.09935311 0.41053635 0.2710638 -0.12404262 0.10380969
-0.9154741 -0.56676877 0.5951876 0.26979995 0.36544147 -0.3427646 0.34788188 -0.28159916
-0.46040127 -0.051178332 0.6101826 0.24707642 -0.5605392 -0.3152534 -0.15837702 0.6883531
-0.28824833 -0.4342506 0.40830612 -0.2505588 -0.022501128 0.004289111 -0.014323685 -0.2570276
-0.4344192 -0.12788829 0.050799653 -0.5577241 -0.50725955 -0.5716052 -0.64391005 -0.25825134
0.0378245 -0.2332554 0.07154696 0.40573034 -0.08307096 -1.0571158 -0.27966037 -0.65228933
0.32495725 0.1548185 -0.15276843 -0.37353557 0.35179442 -0.083891176 -0.44251302 0.15986153
-0.36102936 0.36676255 -0.62173724 -0.251986 0.28478175 0.040272694 -0.11596348 -0.57410485

node_encoder.layers.1.running_var f4 [64]
00000000: 70c0 2e3d 5c64 ba3c 73c6 363d 278a 0a3d
00000010: cf20 bf3c 5ddc 983c 381e 5c3c 824d af3c
00000020: 313a e63c 4e4f 363d e359 6a3d 7bb4 8c3c
00000030: bdcc b93c 4b93 db3b 7806 343d 7c5b 723c
00000040: 2f9b 593d fb32 433d 0466 4d3c 395e 133d
00000050: e18a 8f3c 4cd6 d33b 7893 1c3d 794b 0a3d
00000060: 1152 9b3d e2c5 1f3d 821c 133d 2667 b93c
00000070: c524 ac3c b8bf f63c 7c7a 7f3c 4545 103d
00000080: 79e7 de3c db00 233d 4f19 8a3c f82b 553d
00000090: 018e 913d 0116 0b3d 5747 873c 7541 293d
000000a0: 65b6 9b3b 13f1 303d 3539 473d e2c4 d63c
000000b0: 0b42 ff3c fb82 843d 7045 fc3b f36e 423d
000000c0: af6d 483c e205 8e3d 1be4 f43b 3e66 583d
000000d0: 8c03 863c 9ea7 013d be8a f13c a1b4 093d
000000e0: 7724 9f3c fa1e 3c3c f89f 0e3d ed36 603d
000000f0: abec 3f3c 9e24 ac3c e8f4 d83b 9862 983b
0.04266399 0.022752933 0.04462285 0.03382316 0.023331074 0.018659765 0.013434939 0.021399263
0.02810392 0.044509225 0.05721463 0.017175904 0.022680635 0.0067009083 0.04395148 0.014792319
0.05312651 0.04765604 0.012536529 0.03597853 0.017522277 0.006464755 0.038226575 0.033763383
0.07584012 0.039007075 0.03591586 0.022632193 0.021013627 0.030120715 0.015593167 0.03522231
0.027209984 0.039795738 0.016857771 0.052043885 0.07107163 0.03395653 0.01651351 0.04132219
0.0047519677 0.043198656 0.04863854 0.026216928 0.031159421 0.06470295 0.0076987073 0.04746909
0.012233182 0.06934716 0.0074734814 0.05283188 0.016359113 0.031653993 0.029485103 0.033619527
0.019426567 0.011481995 0.034820527 0.05473988 0.011714141 0.021013554 0.006620992 0.004650425

node_encoder.layers.3.weight f4 [64, 64]
00000000: 6d78 723d 4976 9dbd f671 563d 7313 4e3d
00000010: 0028 a53d e4f9 d0bd 3949 a73d 21d8 8cbd
00000020: bed5 2f3d fa15 ef3d ded9 00bc 67ea 05bc
00000030: 74dd 15bd 5c78 e2bd b7ee 4c3d b1da 05be
00000040: 0dae b43d 56db a73d 42b4 dc3d e350 04bd
00000050: b49e bbbd 7c3f b03c 4855 a53d dc74 06be
00000060: f15c 8bbc 2750 acbd 9e4a 8abc 43b0 8bbd
00000070: d477 63bd d54d 49bd 6cc7 01be fe98 e93d
00000080: 17f5 ef3d f117 ebbc a89f c9bb 2b87 45bd
00000090: 5a94 07be 86c0 e5bd d307 183d 5b84 90bd
000000a0: 5d17 90bd 2a0f fdbb e38c 52bd 9af2 40bd
000000b0: 51a5 08bb 7cce a1bc 0393 37bd a814 87bd
000000c0: 6e4f e7bd aa26 cd3d a41f 1cbd 474b e73c
000000d0: 6d28 5ebd 6812 7f3b 85ed 023e 3276 3f3d
000000e0: f61d c8bd 4a20 3a3d 0087 f73d 3e32 093d
000000f0: b97b 963d feda e83d 041e eebb b443 143d
00000100: efdf ccbd d80f 9bbc 8540 cf3d 8272 803d
00000110: 2717 8cbd 11d3 c2bd b8cf c2bd 3642 e0bd
00000120: c2e7 c4bd 5d4c 15bd 25b9 bc3d fc51 073d
00000130: 8f39 c4bd 488a e5bd 74ab 973d 104d b7bd
00000140: b039 09bc 3641 933d 29a5 35bd 996a c6bc
00000150: 87b4 b3ba 1d2a 30bd 450a 60bd 1751 d9bd
00000160: 355c bdbd bea1 82bd 8491 df3d 9006 97bd
00000170: 7c67 99bd ae81 063d a908 3f3d 3878 9e3d
00000180: 7bc7 d13d b6e3 903d dc20 ebbd dbc4 8c3c
00000190: 2aaa b33d 77aa a5bc 3e68 95bd 133c f63d
000001a0: b2ab 19bd 41be 87bd e60e cebd 6a31 663c
000001b0: 7979 283d ab1f 073d 2f4b 0c3d 77d3 dabd
000001c0: fc43 cfbd ecd9 1dbc 3531 fc3d fb46 743d
000001d0: d5b9 85bd f32c 57bc 2344 a9bd a873 3dbd
000001e0: 6319 fa3c fd58 663d 7de8 d53d 6efd febd
000001f0: 33a5 b13d 1e7f a3bd e047 623d 4d1d e63d
00000200: fb12 56bb 91b9 003e 9cc6 f7bd 7dde 0fbd
00000210: 9dee a83d 561c b5bc 8ec4 8fbc 101c 72bd
00000220: 76e7 ac3d 3fbd 8c3d 701b 1c3d 7bd8 9dbd
00000230: f1cb d2bd f796 af3c 0b0b 083d ea1f 3bbd
00000240: b855 07bd eee8 9d3d 8189 1b3c 445c 463c
00000250: dc76 12bd 1cdf d5bd 87cd e1bd 8783 43bd
00000260: d060 80bd b3ad fb3c 7bc8 0ebd 9b11 24bd
00000270: 1713 fe3d c985 123d 4ba8 a83d 157e 56bd
00000280: 0c86 28bd 33fc 1d3d 2f40 b8bd 4d5b adbd
00000290: 5677 6bbc cbea 2abd d991 cebd 6ca0 a63d
000002a0: 176c c33d ec24 a83c 07fb ecbc 52e4 e3bd
000002b0: e2a6 0fbd 13b5 153d 46c6 643d 4b64 03bc
000002c0: 4602 7cbd 7260 8c3d 4922 cabd 11af b13d
000002d0: 1bdf 32bd 868e 4b3c 477d f1bc 31bf 003c
000002e0: b8bf 15bd 136b c83d aaf7 8d3b 5f55 d03d
000002f0: 0095 e93d 0229 9fbd e4b2 b4bd ecd2 d33d
00000300: 2d75 b93d 504b b2bd 3885 e1bb 765d 06be
00000310: 0fc3 c3bd aab6 743c 6186 aa3c 7550 f83c
00000320: be19 03bd 0733 d23d a829 ce3c dcfb 8abd
00000330: b4f7 53bc fd56 953c 2322 473d 769a c3bd
00000340: ec32 2f3d c8dc 6dbd 1f1a c8bd 9369 9fbd
00000350: 6f03 033e f3f6 c13d 6e07 f43d 2c1b 893d
00000360: c6e4 ce3d 3064 47bc f33c 9ebd 1423 4e3d
00000370: 91e0 6cbd 7960 a5bd d228 0bbd 3ea0 173d
00000380: 1368 8c3d f0cc 38bd 7331 88bd 66f8 a93c
00000390: bb25 90bd 8fbe bbbd 957f 8b3d cb2a bebc
000003a0: 06e5 f83d df88 fd3d 4f1f 313d 79aa 233d
000003b0: 6300 8d3c c7a6 6b3a 0195 19bb 2acd 23bc
000003c0: a037 4a3d 57a9 dc3d 2f70 bbbc 322e 83bd
000003d0: 674d cfbc f037 8cbd 2d35 eb3c 462d c63d
000003e0: 7f8f dd3d 013f 463d ede8 c9bd 4649 9cbd
000003f0: 8f38 eebc f8d8 94bc 9795 3b3c 8182 f4bd
0.05919688 -0.07688577 0.052354775 0.050311517 0.0806427 -0.10203913 0.08168263 -0.06877161
0.04292845 0.116741136 -0.007864444 -0.008173562 -0.036588147 -0.11058113 0.050032344 -0.13071705
0.0882226 0.08196132 0.10776569 -0.032303702 -0.091611296 0.021514647 0.08072907 -0.13130516
-0.017012091 -0.08413725 -0.016881283 -0.06820729 -0.0555342 -0.049146492 -0.1267373 0.11406134
0.11716669 -0.02869794 -0.0061530657 -0.04822461 -0.13240185 -0.112183616 0.037116837 -0.07056495
-0.07035706 -0.007722755 -0.05140389 -0.047106363 -0.002085049 -0.01975178 -0.044817936 -0.06595737
-0.11294447 0.1001714 -0.038116112 0.028234137 -0.05423777 0.0038920883 0.12785919 0.04674358
-0.097713396 0.04544095 0.12086296 0.03349518 0.07347817 0.113698944 -0.0072667617 0.03619738
-0.100036494 -0.018928453 0.10119728 0.06271841 -0.068403535 -0.09512914 -0.095122755 -0.10950129
-0.09614517 -0.03644978 0.09215001 0.03303717 -0.09581291 -0.11208016 0.07405749 -0.089502454
-0.00837557 0.071901724 -0.044346962 -0.024220752 -0.0013710418 -0.043008912 -0.054697294 -0.1061117
-0.09246103 -0.06378506 0.10916427 -0.073742986 -0.07490441 0.032838516 0.04663912 0.07737774
0.10243126 0.070746824 -0.11480877 0.017183712 0.087726906 -0.020222886 -0.07295273 0.12023177
-0.037517257 -0.06628085 -0.100614354 0.014049867 0.04113147 0.032989185 0.03425139 -0.10684865
-0.10120389 -0.009634476 0.12314073 0.059638005 -0.06529585 -0.013133275 -0.08264949 -0.046252877
0.030529683 0.05623721 0.10444734 -0.124506816 0.086740874 -0.0798323 0.055244327 0.112360574
-0.0032665122 0.12570788 -0.120984286 -0.03512429 0.08248637 -0.022108238 -0.01754978 -0.059108794
0.08442585 0.06872033 0.038112104 -0.07707306 -0.10292805 0.02143429 0.033213656 -0.045684732
-0.033040732 0.077104434 0.009493233 0.012106959 -0.035757884 -0.10442945 -0.11025529 -0.047732856
-0.062684655 0.030722475 -0.03485916 -0.040055852 0.12405985 0.03577212 0.08235224 -0.052366335
-0.041143462 0.038570594 -0.08996617 -0.0846468 -0.014371714 -0.041727822 -0.10086412 0.08136067
0.09542101 0.020525418 -0.028928293 -0.11127533 -0.03507126 0.03654964 0.05585315 -0.008019517
-0.061525606 0.06854333 -0.098698206 0.086759694 -0.0436698 0.012424117 -0.029478682 0.007858084
-0.03655979 0.09786048 0.0043325024 0.10172533 0.114053726 -0.077714935 -0.08823183 0.103429645
0.09055553 -0.08705771 -0.006882336 -0.1312159 -0.09558689 0.014936129 0.02081603 0.030311802
-0.03200697 0.10263639 0.025166348 -0.067863196 -0.012937475 0.018229956 0.04861654 -0.095509455
0.042773172 -0.05807188 -0.09770607 -0.077838086 0.12794279 0.0947093 0.119154796 0.06694636
0.10102229 -0.012169883 -0.07726469 0.05032642 -0.05783135 -0.08075041 -0.033974476 0.037018053
0.06855788 -0.04511732 -0.06650057 0.020748328 -0.070384465 -0.091672055 0.06811444 -0.023213765
0.12153058 0.12379622 0.04324275 0.039957497 0.017212098 0.00089893903 -0.002343476 -0.009997645
0.049369454 0.107744865 -0.022880642 -0.064052954 -0.025305463 -0.06846607 0.02871188 0.09676604
0.10818385 0.04839993 -0.0985888 -0.07631163 -0.029079704 -0.018169865 0.011449239 -0.11938954

node_encoder.layers.3.bias f4 [64]
00000000: 81f1 2635 ae7e 823a bad7 dab8 7a0c 88bc
00000010: e04c 56b9 007e de3b aff8 4abb 9fc6 2ebc
00000020: baf6 55bc 2c2e e1ba fb45 8cb6 0305 2eb8
00000030: 2a10 22b6 18b6 d5b8 0592 0e3c b597 e037
00000040: 747d cbbb 6edf d7b8 9199 d9bb 635c ea39
00000050: 1910 17bd 969c 8eb8 4ca9 aabc 6a10 c7b9
00000060: 6907 5b3c 4bba 94bc 1f95 5fbb 07da b5bc
00000070: 94e1 b638 61ab 0838 43e2 3dbb 5260 fa3b
00000080: 7a41 9ab8 47ca 06bd 4575 e3b7 51a9 43b9
00000090: 2da9 9c38 6d87 9f3b dd90 86b8 fb11 67bc
000000a0: 82e4 723c 6b1c 0bbd fde4 dd39 8496 c6b9
000000b0: 3ce9 fd3c 2d7c 223d 02fc 43b9 9dc7 c7b9
000000c0: 4c5f f9bc 6bc0 24b8 01a4 7739 7d0f d5b7
000000d0: e676 36bc c617 1c39 0013 3f3b 26f1 ad3c
000000e0: eb78 b938 dbe8 0a3d 43c1 17bd 0b8b ba37
000000f0: 2948 d8b9 af1b 1539 5db2 9d3a 128a 40bc
6.2191253e-07 0.0009955966 -0.00010435232 -0.016607512 -0.00020437269 0.0067899227 -0.003097098 -0.010667472
-0.0130593125 -0.0017179898 -4.180472e-06 -4.14895e-05 -2.414929e-06 -0.00010190549 0.008701806 2.6773525e-05
-0.0062100235 -0.00010293616 -0.006640621 0.00044700791 -0.036880586 -6.800254e-05 -0.02083268 -0.00037968467
0.013368466 -0.018155238 -0.0034115983 -0.02219869 8.7204535e-05 3.2584536e-05 -0.0028973974 0.007640877
-7.355488e-05 -0.03290775 -2.7115117e-05 -0.00018659724 7.470171e-05 0.004868439 -6.416601e-05 -0.014103408
0.014824988 -0.03396265 0.00042323014 -0.00037877646 0.030995004 0.039669205 -0.0001869053 -0.0003810496
-0.030440949 -3.927985e-05 0.00023616852 -2.5398791e-05 -0.011136746 0.00014886176 0.0029155612 0.021233153
8.84401e-05 0.033913475 -0.037049543 2.2237675e-05 -0.00041252494 0.0001422006 0.0012031306 -0.0117516685

node_encoder.layers.4.weight f4 [64]
00000000: 3469 7c3f 5826 813f b3b1 7e3f 2362 7f3f
00000010: b17a 7f3f 8008 803f b277 803f 943e 803f
00000020: face 7f3f c9b5 7e3f 077e 7b3f 9213 813f
00000030: 1f1b 7e3f fd5e 7e3f 2635 803f eb73 7c3f
00000040: c003 803f 18e1 803f 2719 7d3f 831c 7f3f
00000050: 20d1 803f 5e0c 813f 7a11 7f3f 1915 813f
00000060: 1ecc 813f 2685 823f e37b 803f c109 813f
00000070: 8d9d 7b3f 3d05 7e3f 91fc 7c3f 4542 7a3f
00000080: 7236 803f b326 813f 3d03 813f 16cb 803f
00000090: e4a0 7f3f ec8e 7d3f 2d9d 7e3f f275 823f
000000a0: cc73 7f3f 3031 7f3f 1e83 7c3f acdc 7e3f
000000b0: 94ec 803f 78a1 813f dd07 803f 73fd 7e3f
000000c0: 8956 813f f7fe 7d3f 934b 803f c9fd 7d3f
000000d0: 6625 7e3f ffe6 7f3f 5a00 7e3f 9ff5 803f
000000e0: 40f5 7d3f 7ec3 803f 4c31 7d3f 7da3 7f3f
000000f0: 3bd5 803f 3c6d 7f3f 0b21 7f3f c149 7f3f
0.9859803 1.0089827 0.994899 0.9975912 0.9979659 1.0002594 1.0036528 1.0019097
0.99925196 0.9949613 0.9823918 1.0084097 0.99260134 0.9936369 1.001622 0.98614377
1.0001144 1.0068693 0.98866504 0.9965288 1.006382 1.0081899 0.9963604 1.0084563
1.0140417 1.0196884 1.0037807 1.0081102 0.9828728 0.99226743 0.98822886 0.9775737
1.0016615 1.0089935 1.0079113 1.0061977 0.99854875 0.99046206 0.9945858 1.0192244
0.99786067 0.9968443 0.9863757 0.9955547 1.0072198 1.0127401 1.00024 0.9960548
1.0104533 0.9921717 1.0023063 0.9921537 0.99275815 0.9996185 0.99219286 1.0074958
0.99202347 1.005966 0.98903346 0.9985884 1.0065073 0.99776053 0.99659795 0.99721915

node_encoder.layers.4.bias f4 [64]
00000000: 7fd8 febb 6926 0e3b 160b 75bb cbb3 f2ba
00000010: 1828 23bc 5ce2 073b 027b 313a cd69 16bc
00000020: 6529 db3b 308c b739 0d51 aebc 8b95 f13b
00000030: 3500 133c 07c2 a9bb fd25 babb b9bb 18bc
00000040: 6c26 df3b 06e9 39ba dcae 013c 3e55 b53b
00000050: f695 af3b 4b5e 9c3c 2805 4f3a eb7e ac3a
00000060: 1f56 383c 4c08 783c 7cad e33b 9378 7abb
00000070: b36d bcbb d703 86bb e6fd 69bb 0a2e 95bc
00000080: 5549 96ba 1c9c 193c 19bf 4d3b 8d69 9b3b
00000090: b58b f0bb 3912 35bc 6773 883b e3dd 283c
000000a0: bb4e 15bc 2290 173b df62 503b 434b aaba
000000b0: cacb babb 31ae d93b c199 c53b 5f3d aa3a
000000c0: 1efc f73b 9e70 8d3b e932 823c 7285 1ebc
000000d0: 48d6 53bc c70e 253c f19c 42bb e040 273c
000000e0: 1291 16bc aaa2 83bc 6a6a 39bc 99e7 0ebc
000000f0: a21f 113c cde5 20bb 633e 3c3c 06da d7bb
-0.007777273 0.0021690375 -0.003739064 -0.0018516717 -0.00995829 0.0020734286 0.0006770344 -0.009180498
0.006688284 0.00035008928 -0.021278882 0.0073725632 0.008972217 -0.0051806006 -0.005680798 -0.0093221
0.00681 -0.0007091913 0.007915225 0.0055338433 0.005358453 0.019087931 0.00078971917 0.0013160383
0.011251002 0.015138697 0.006948171 -0.003821884 -0.005750382 -0.004089813 -0.0035704314 -0.01821043
-0.0011465946 0.009375598 0.003139442 0.0047428072 -0.007340873 -0.011051708 0.0041641477 0.010306808
-0.009113009 0.0023126681 0.0031797213 -0.00129924 -0.005700563 0.0066430797 0.006030292 0.0012988261
0.0075678965 0.0043164035 0.015893416 -0.0096753705 -0.012929507 0.010074324 -0.0029695595 0.0102083385
-0.009189861 -0.016068775 -0.011316875 -0.008722209 0.0088576395 -0.0024551034 0.0114894835 -0.0065872697

node_encoder.layers.4.running_mean f4 [64]
00000000: ec78 1abe b7e8 8ebe f4da e2bd 5754 3d3c
00000010: 866b b53c d1b1 c3be e455 0c3e 1e99 643d
00000020: daf1 613d 43e9 3e3e 9f42 80be 67ea 3bbe
00000030: 2e83 ae3c 1180 cfbd 88f2 8d3e d6b1 a53d
00000040: 8231 6c3d 55af e5bd 8c27 2abe b273 833e
00000050: c5a7 753c 61a1 29be 50ff 903d cee5 3c3e
00000060: ea26 8b3c 79c7 1bbe 4ecc e2bc 723a e8be
00000070: d58d f33d 3996 e83e e189 6fbe f6a0 e4be
00000080: 247a d9bd dd47 06bf 29b7 333e b574 6c3e
00000090: ef82 8d3e 9ac9 b2be c921 e83e da09 f8bd
000000a0: 40a7 893e 3519 0cbe 3d93 f9bd 9bb1 bd3d
000000b0: ef77 edbc c2a7 d43d 0431 3e3e 90b0 cabe
000000c0: d06a e8bd 10db bcbd 44d7 65be ed63 a6be
000000d0: 08cd 95bd 4671 6ebe f650 2dbd dce1 c13d
000000e0: 7f91 4bbe 7847 8a3e 9986 f73d a0fe 853e
000000f0: 842a fdbc b76f d13d de86 f03d b12f 203e
-0.1508519 -0.27911922 -0.11076918 0.011555753 0.022145998 -0.382216 0.1370464 0.055810086
0.05516229 0.1864367 -0.25050828 -0.18351136 0.021302786 -0.101318486 0.277241 0.0809056
0.0576644 -0.112150826 -0.16616648 0.25674206 0.014993613 -0.16565467 0.07079947 0.18447039
0.01698633 -0.15212812 -0.02768531 -0.4535709 0.11892287 0.4542711 -0.2339244 -0.44654053
-0.106189996 -0.52453405 0.17550339 0.23091395 0.27638957 -0.34919435 0.45338276 -0.12111254
0.26885414 -0.1368149 -0.121862866 0.09262391 -0.028987853 0.1038356 0.18573385 -0.39587831
-0.11348498 -0.0922147 -0.22445399 -0.32498112 -0.07314497 -0.23285398 -0.04231354 0.094669074
-0.19879721 0.2700765 0.12086219 0.26170826 -0.030904062 0.10226386 0.11744474 0.15643193

node_encoder.layers.4.running_var f4 [64]
00000000: 8cd1 073e a12f c13d bb9a b53d cee7 e83d
00000010: b312 c53d 3e61 153d 16f6 823e 63e7 3c3e
00000020: 5b51 4a3e fd89 b53d 5981 013d f0a3 c03d
00000030: 66bc 383e 55ef 3e3e 1127 2e3d e6d4 843d
00000040: c0dd 013e f74b 073e 4d83 4d3d e6eb 6c3d
00000050: b37e ad3d 5e8b 723e 39fc 653e 04fd c33c
00000060: 91f9 073e a055 233e 0c3f 553e 51fb 543d
00000070: 5d26 213d fb7f 023e 2fce a23d ed25 653e
00000080: a788 693d 8f42 843d 287c 973d 3cf9 f73d
00000090: 386d f93d c3c6 bf3e 373e 483e c1f9 6e3d
000000a0: 9134 023e 394e 1f3e b098 023e 6760 753e
000000b0: 386e bf3d 8a7d 163e 3bd7 023e bea6 2c3e
000000c0: 579e f73d 3cd0 bf3d 7c53 c93d 3a0e 043e
000000d0: 0d90 553e 0a77 c43d be17 453e 7a2b 153e
000000e0: 72b4 683e bda5 393d 43dd 073e 0f26 de3d
000000f0: 3c39 d83d 259d 4d3e 6948 403e 35f4 163e
0.1326353 0.094329126 0.08867403 0.11372338 0.09622707 0.03646969 0.25578374 0.18447642
0.19757597 0.0886421 0.031617496 0.094062686 0.18040618 0.18645985 0.042517725 0.0648592
0.12682247 0.13212572 0.050174046 0.057842158 0.084714316 0.23685977 0.22459497 0.023924358
0.13278796 0.15950632 0.20824832 0.051997487 0.039343227 0.12744133 0.07949483 0.22377749
0.057015087 0.064580075 0.07396728 0.121080846 0.12179035 0.3745633 0.19554983 0.058343653
0.12715365 0.15557183 0.12753558 0.23962556 0.093471944 0.14696327 0.12777416 0.16860482
0.12090748 0.093658894 0.098303765 0.12896052 0.20855732 0.095930174 0.19247338 0.14567366
0.22725084 0.045324076 0.13267998 0.10847103 0.105577916 0.20079477 0.18777622 0.14741595

node_encoder.layers.6.weight f4 [32, 64]
00000000: 7f7c bd3d 25df e4bd 15cd 9fbd 1c8c 78bc
00000010: 32e9 f5bd 5d69 eebd d4c3 dfbd 0453 cf3d
00000020: 8ce1 8a3c 2e0e 2ebd 952f 49bb c035 ebbd
00000030: 3dfb f4bd d1ba babd 2c6e 04be 0460 a03d
00000040: 1ff8 41bd ce62 23bd 11fe e6bd ec11 2e3c
00000050: 2feb 86bc e12a babd 842c 983d e67a ce3d
00000060: 29d1 c9bd d4b9 9c3d d6fa 80bc 6603 803c
00000070: 1783 723d 41fa f0bc bd51 cc3d 69fc 8f3d
00000080: 6b61 9fbd c60c 88bd c32e 07be 75cb 043d
00000090: 53e5 d8bd 8d75 c6bd 34b7 a9bd 5d36 02be
000000a0: f715 d9bd 03c3 e83d 6ef6 963d 47df d53d
000000b0: fe4f 7ebd 6afa 49bd 86e5 47bd 3886 0bbc
000000c0: 1efc c5bd 907a 6f3c d5b4 a6bd 5b79 113d
000000d0: d8ba d83d 0eca 3c3c 7d3d ae3d 24b8 cdbd
000000e0: d970 c6bc ab09 b9bd 767b a5bc b9f7 5ebd
000000f0: aff2 9cbd a0f2 efbd 87b2 40bd 910c 973c
00000100: 2c2c 7dbc df1b dbbd a5fd a13d 60c8 a93d
00000110: d854 95bd efe2 853c 7f11 9c3d c0dc fdbd
00000120: 39fd d3bd 2810 873d 8e4e dc3b 797d 433d
00000130: 7edd 6ebd 1f73 9a3c 5353 9b3d 3b1d dfbc
00000140: 2c55 3bbd c859 05be 3779 90bc 7c14 9a3d
00000150: e5b4 ffbd ede8 86bb fff1 ac3d e706 8abc
00000160: 81c1 52bd f871 40bd 4964 4abd e508 1b3d
00000170: 6cf2 debd 3589 293d 1e14 82bc 5c13 e439
00000180: cd1b afbb 0186 9f3d fbbf a5bd f740 00be
00000190: 44d2 cebd 0c21 bbbd 0a9c 87bd 584e ec3d
000001a0: 4c1e b4bd 1cee 91bd 486e c9bd 7066 83bd
000001b0: 7ee9 2f3b 0ed7 a8bd d6bf bc39 cd11 5e3d
000001c0: a56c c9bc 8c9e 593d aa73 143d f707 fe3d
000001d0: 58b6 1dba eddc d43d d99f c43d 466b 7a3d
000001e0: ac57 ab3d 27f1 bebd 63d4 96bd 36a4 3c3d
000001f0: 4daa 403d 7928 cc3d 3138 9abc 2e36 eebc
00000200: dca4 a33d 46d6 9d3c 825e fd3d 0dfb 6ebd
00000210: 4929 11bd 1fa6 6cbb d883 773d 36fe e3bd
00000220: 9c60 3fbd 42e1 c23d 3519 fe3c 256d a53d
00000230: f0ea 37bd f46f 9fbd 4de2 b7bd c788 91bd
00000240: e993 bcbd e546 853d a451 3b3d d36a 96bd
00000250: a0e8 f33d 7d1f 1c3d 890e 243d 6ff4 67bd
00000260: d4be 9f3d 6e4b bebd 64bf c63d 2aa9 88bd
00000270: 50be 5a3d 99fa 57bd 195f a03d 8b44 d6bd
00000280: f995 c7bc 1345 2dbd b46d aabd 824d 68bd
00000290: 7522 32bd 5c82 933b 3ffe ab3d 1b5b 8dbc
000002a0: 8483 ec3d bc7d 58bd 9250 7abd 0a94 1bbc
000002b0: 70e7 97bc 8da0 293d bce7 db3d ddea 0d3d
000002c0: effd dfbd ba02 3ebd 3b1d d0bc 7714 dbbd
000002d0: 098c 413d f468 d13d 568b 7a3d 602d 003a
000002e0: 1c8a 7fbc 785c 91bd 494a 88bc 325b e23d
000002f0: a59e 94bd 2e01 af3c 3a6e acbd 7317 f0bc
00000300: b399 9f3c cf59 c1bd dfc5 173d 2ff8 cfbd
00000310: 3316 3dbd d7b2 ba3d 9818 013e c46e fbba
00000320: f847 bfbd 8db2 bdbd d336 e2bc 425f 90bd
00000330: 60c5 c33d b131 b3bd 78c0 b33d 255b 863c
00000340: 7bf1 24bd da75 db3d 4c85 843d d66d 1c3b
00000350: 3910 9cbd fb28 42bd c2c9 3a3d 9e71 de3d
00000360: 5971 3dbd daf8 16bd 68f5 e9bd 2e4c a73d
00000370: 414d fb3d b7d9 a13d f766 a2bd 2efd 993d
00000380: d2d9 34bd 3de4 893d 1912 8c3d 37df c3bd
00000390: 4816 083d bef6 603d 3d02 86bd 2bf9 ce3d
000003a0: 6c07 b93d 7c07 e83d 3c11 c93b 0fc9 89bd
000003b0: 3bd8 81bd 29d5 513d 79dc e4bc 94bf b83d
000003c0: c880 de3d 462f 293c c029 e5bd cd83 3e3d
000003d0: c782 e13d c8a3 f3bc 02ca 96bd c8df ecbc
000003e0: 523c 403c 433d c8bd af09 6f3d 5ead 6a3d
000003f0: 28c1 12bd 66d3 13bd 2e14 67bd 78fe d93d
0.09252261 -0.11175374 -0.07802788 -0.015170123 -0.12007369 -0.1164119 -0.10926023 0.10123256
0.016953252 -0.04249399 -0.0030698527 -0.114848614 -0.119619824 -0.09117664 -0.12932652 0.078308135
-0.047355767 -0.03988915 -0.11278928 0.01062439 -0.016469566 -0.0909021 0.07430366 0.10082035
-0.09854347 0.076526314 -0.015744608 0.01562662 0.05920705 -0.029416205 0.09976528 0.07030565
-0.07782253 -0.06643061 -0.13201432 0.032420594 -0.10590615 -0.0969039 -0.08286896 -0.1271605
-0.105998926 0.113653205 0.073712215 0.104429774 -0.062088005 -0.04931108 -0.048802875 -0.008515887
-0.09667228 0.0146166235 -0.0813996 0.035516124 0.105825126 0.011522783 0.08507822 -0.10044888
-0.024223732 -0.09035047 -0.020200472 -0.054435465 -0.07663476 -0.11716199 -0.047045257 0.01843861
-0.015452426 -0.10698675 0.07909707 0.082901716 -0.07291573 0.016343562 0.076205246 -0.1239562
-0.10351033 0.065948784 0.0067232316 0.047727082 -0.0583167 0.018853722 0.07584252 -0.027235618
-0.045735523 -0.1302253 -0.017635925 0.07523438 -0.12485675 -0.0041171224 0.084445946 -0.016848994
-0.05145407 -0.04698369 -0.049412046 0.03785028 -0.10886082 0.041390616 -0.015878733 0.00043501973
-0.0053438903 0.07789231 -0.08093258 -0.12524782 -0.10098699 -0.091371626 -0.06621559 0.115383804
-0.08794841 -0.07125494 -0.098354876 -0.06416023 0.0026842053 -0.082441434 0.00036001083 0.054216195
-0.024587939 0.053129718 0.03624312 0.12403863 -0.0006016246 0.10393701 0.09600801 0.06113746
0.083663315 -0.0932334 -0.07364728 0.04605504 0.04703741 0.09968657 -0.018825622 -0.02907857
0.07990429 0.019267213 0.123715416 -0.05834489 -0.035439763 -0.0036109758 0.06042847 -0.11132471
-0.046722993 0.09515621 0.031017879 0.08077458 -0.04490179 -0.07785025 -0.0897871 -0.07106166
-0.09207899 0.06507663 0.045732155 -0.07344594 0.11909604 0.038115967 0.040052924 -0.056629594
0.078000695 -0.09291731 0.097044736 -0.066728905 0.053404152 -0.052729223 0.078306384 -0.10462292
-0.024363505 -0.042302202 -0.083217055 -0.056714542 -0.043489892 0.004501624 0.08398103 -0.017255357
0.11548522 -0.052854285 -0.061111994 -0.0094957445 -0.018542975 0.04141288 0.10737559 0.03464781
-0.10937106 -0.04638932 -0.025404563 -0.10697263 0.04725269 0.10225096 0.061168037 0.0004889574
-0.015596893 -0.07097715 -0.016636984 0.110525504 -0.072568215 0.021362867 -0.084194615 -0.029308056
0.01948247 -0.09440958 0.03705394 -0.10154759 -0.04616375 0.09116142 0.12607038 -0.0019182791
-0.09339899 -0.092625715 -0.027614033 -0.07049419 0.09559131 -0.08749712 0.08776945 0.016400883
-0.040269356 0.10715838 0.06470737 0.0023869178 -0.07620282 -0.047402363 0.045602567 0.108615145
-0.046250675 -0.036858417 -0.11423761 0.08168827 0.122705944 0.07902854 -0.07929795 0.07518993
-0.044153042 0.06732986 0.06839389 -0.09564059 0.033224374 0.05492281 -0.06543396 0.10106119
0.09034619 0.113295525 0.0061360877 -0.06727802 -0.06340071 0.051228676 -0.02793716 0.09020916
0.10864407 0.010326212 -0.11189604 0.046512414 0.11011272 -0.029741183 -0.07362749 -0.028915301
0.0117331315 -0.0977731 0.058358844 0.057294242 -0.03582874 -0.036090277 -0.05641573 0.10644239

node_encoder.layers.6.bias f4 [32]
00000000: e0d3 0e3c 9980 943a 68ac a33b 48e9 05b9
00000010: 36b1 b6bc afdc 1034 e765 0a3d bae6 ee3c
00000020: 904e dabb 5af9 5e3c 138d 1f3a 1011 2238
00000030: 8aa5 8c3b 5c87 2b37 18f1 0438 4f3d 36bc
00000040: bb8d f8b7 45fb 253d e4db 0d3c a939 c3bc
00000050: 6c89 b7b7 7627 213c 4827 17b9 b8cc b4b7
00000060: 1644 0e3b b5ed db3c c652 083d d608 86bc
00000070: 07bd 16bd c34a 773c d2bc 2338 4490 063d
0.008717507 0.0011329829 0.0049949177 -0.00012770772 -0.022301298 1.349133e-07 0.033788588 0.029162753
-0.0066621974 0.013609255 0.00060863903 3.86397e-05 0.0042921947 1.022391e-05 3.169579e-05 -0.011123016
-2.9629902e-05 0.040522832 0.008658383 -0.023831205 -2.1879292e-05 0.009836068 -0.00014415116 -2.1553002e-05
0.0021708063 0.026846746 0.033282064 -0.016361635 -0.036801364 0.015093508 3.903808e-05 0.032852426

edge_encoder.layers.0.weight f4 [64, 4]
00000000: 24a5 b63e 20dd 4abe 1255 093e 0206 243e
00000010: 91a5 2bbe 55d1 e93e 1db8 4b3d 6014 0dbe
00000020: 38e2 e7be e634 cd3e cf7d f9be 268a ae3e
00000030: 9205 22be a0ec b0bd 4664 aa3d 99c6 f53e
00000040: 6cc6 9cbe 57b2 adbe 06b1 a23e cfac 51be
00000050: 5a51 3bbe 0f82 8d3e d4d5 5bbe 7c0d 873e
00000060: c03b 50be e5a5 c23e 80b9 f83e 0a6e 453d
00000070: ed36 1ebe 0f53 893e f0c7 1a3e 2472 f13b
00000080: 6b6a d33e 59f5 87bc a895 483e 773a eebd
00000090: be71 a8bd 213b f4bc 172e 273d 1912 693e
000000a0: 2c68 c03e cdcf 8f3e 330e 58be d13e cc3e
000000b0: 8a51 9e3e f395 443e adb2 7a3d 700f 80be
000000c0: 7559 9ebe 62bb 8d3c 6da5 b3be f30a 143e
000000d0: cc16 e7be bead e2be 6053 5fbe fe86 7d3e
000000e0: 52e0 cf3e d6bc d5be a11b 9bbe 0c3a ca3d
000000f0: 30ce 9fbd 0ca5 ccbe a7f0 153e d3a8 bcbe
00000100: cc0c 953b dc8a 533e c3be df3e 795d c7be
00000110: 512b b13e f0fb 883d b54e e23e b3e0 db3e
00000120: 12b7 d4bd 0103 a7bd 8ebc 04be 0ea6 bf3e
00000130: 31ad 5fbe 1c4a a83e 12e8 503e ff2c e23e
00000140: 8558 b53e c51a c43e f857 cdbe f887 58be
00000150: 0434 b5be 6ec8 693e e0ec d83d ffed 403e
00000160: 38c0 493e d310 fc3c c14c 383e d098 89be
00000170: 974e a33e 3164 debe 7e8c e6be fc53 083e
00000180: f5c3 ee3e 2dc8 29be 5ac1 ec3e 8a1d 1dbe
00000190: 2fef bdbe 22ac aabd 41ed 8e3e 74a4 60be
000001a0: 4815 ee3e 095d 6cbe 0512 60be d7d5 43be
000001b0: ae4e c5be 7d21 e63e 5a28 91be ad46 47be
000001c0: 6ccc 0fbe d7a6 cd3e c2ad 823e 27f2 2d3e
000001d0: 07a0 0fbe 7542 733e 2d53 b43d cee3 c63e
000001e0: 1d25 ef3d 2bdc bc3e b333 a93e 7b96 a73d
000001f0: 34c9 f4be 98b3 e63d 676f b8be 90d1 9a3d
00000200: a57c 40bd f614 c13e e212 bdbe 8d78 c0be
00000210: 1d30 503e 25cd b03e c446 ecbd 4509 003e
00000220: 0dea cb3e 9423 8f3d 7742 0ebe 270b 8b3e
00000230: 67d6 e93e b9aa b7bd ac67 a63e d5a6 35b9
00000240: d0e4 afbd d807 5dbd 7fd3 eebe 1d7d 553e
00000250: fe57 87be 2a2d ddbe 2539 85bd 8cd4 31be
00000260: 7196 96be 10ec e4bd e266 6cbd ea7e 193e
00000270: 23d8 823d bf0e 66bd 8f13 e43d fe82 aabe
00000280: f847 dc3e 01d2 653e 035e 9d3e 7374 c9be
00000290: ea7b ad3e e7cd aa3d 16de efbe a7ac de3e
000002a0: 0f94 33bc de69 db3d 0a53 c33e 91d5 a03e
000002b0: 6313 e13e 30fb eabe 90f8 f43e dfd1 d53d
000002c0: 0167 913c 7c81 cebe 1596 79be fa75 e73e
000002d0: 3434 c43e 87f2 bf3e f496 0ebd fa94 7abe
000002e0: 87ba df3d c6c8 6abe 94d0 a9be 8323 193e
000002f0: ce07 bf3e 48be c4be 0f89 e0be f90f 773d
00000300: 5e08 3ebe abde 81be ba38 ccbd a31d b2bc
00000310: 65a4 14be 1f2f b23e 81d1 8c3e 995b 063e
00000320: 6943 21be 185b e8bc cacf a03e cfed bf3c
00000330: 0f4c f6be ab27 863d 765b 843e 7c62 f4bd
00000340: ebbe d8bd 78df 9fbd 1f36 923e 4cb9 b93e
00000350: 280a cabe afcb a43e d39d 4d3e 1823 263e
00000360: 3f08 96be c723 8dbe 1822 f53e bd07 ce3d
00000370: 37d3 d9bd f3f3 c5bd ac4a ac3e 94a9 ddbd
00000380: 790a ae3e 6feb 05be 9e47 ef3d fbec db3d
00000390: 7817 80be dccd 893c dd6c cb3d 5a0b f5be
000003a0: 6dc7 c0bd 1fab f53c abdc cf3e d576 b63d
000003b0: 8b91 d8be c1fe 1fbe 3156 f63e d8bd b2bd
000003c0: 4dac be3e ca04 2f3d 159e a83e 5471 42be
000003d0: f917 f83e 2aca d33d d56f dcbd 86eb ae3e
000003e0: aa0d 793e 8eb8 aebe 5242 c0bc 1236 a63e
000003f0: 83f2 ef3d 8c59 18be 7759 abbe edce aabe
0.35672867 -0.19810915 0.13411358 0.16017917 -0.16762377 0.4566752 0.04973613 -0.13777304
-0.4528978 0.4007942 -0.48728797 0.34089774 -0.15822437 -0.08638883 0.08319907 0.4800308
-0.30620134 -0.33925125 0.31775683 -0.20476077 -0.18292752 0.2763829 -0.21468288 0.26377475
-0.20335293 0.38017192 0.48579025 0.048200645 -0.1545064 0.2682118 0.15115333 0.007368343
0.41292128 -0.016596483 0.1958834 -0.11632245 -0.082248196 -0.029813351 0.04081544 0.2276081
0.37579477 0.28088227 -0.21099167 0.39891675 0.30921584 0.19197826 0.061205555 -0.25011778
-0.30927625 0.017301265 -0.35087147 0.14457302 -0.4513458 -0.4427318 -0.21809149 0.24758527
0.4060083 -0.41745633 -0.30294517 0.09874353 -0.07802999 -0.3996967 0.14642583 -0.36847553
0.0045486446 0.2065844 0.43700227 -0.389385 0.3460336 0.06688678 0.44200674 0.4294487
-0.103864804 -0.0815487 -0.12962553 0.37431377 -0.21843411 0.3286904 0.20401028 0.44174954
0.35419098 0.38301674 -0.40106177 -0.21145618 -0.35391247 0.22830364 0.10592055 0.18840788
0.19702232 0.030769741 0.1799803 -0.268744 0.31895897 -0.43435815 -0.45029062 0.13313287
0.46633878 -0.16580267 0.46241266 -0.153433 -0.37096545 -0.08333613 0.27915385 -0.21937734
0.4650061 -0.23082365 -0.21881874 -0.19124542 -0.3853659 0.44947425 -0.28351098 -0.19460554
-0.14042825 0.4016635 0.25523192 0.16986905 -0.1402589 0.2375582 0.08804927 0.38845676
0.11677001 0.36886725 0.33047256 0.08182999 -0.47809756 0.112647235 -0.36022493 0.07559502
-0.04699387 0.37711304 -0.3692847 -0.37591973 0.20330854 0.34531513 -0.11536935 0.12503536
0.39827004 0.06989208 -0.13892542 0.27156946 0.45671389 -0.0896811 0.3250097 -0.00017323655
-0.085885644 -0.05396256 -0.46645734 0.20848508 -0.2643432 -0.4319852 -0.0650504 -0.17366236
-0.29411653 -0.11177838 -0.057715304 0.1498982 0.06388881 -0.056166407 0.11136543 -0.33303064
0.43023658 0.22443391 0.30735788 -0.39346656 0.338836 0.08340054 -0.46849126 0.43491098
-0.010960593 0.10713552 0.3814929 0.31412938 0.43960103 -0.45894766 0.47845888 0.1044042
0.017749311 -0.40333164 -0.24373658 0.45207196 0.38321078 0.3748972 -0.03481193 -0.24470893
0.10924249 -0.22928151 -0.33166945 0.14954953 0.37310642 -0.38426423 -0.43854567 0.060317967
-0.1855788 -0.25365195 -0.09971757 -0.021742648 -0.14515837 0.34801576 0.2750359 0.13120879
-0.15748371 -0.02836375 0.3140853 0.023428826 -0.48104903 0.06550535 0.2585103 -0.11932847
-0.1058329 -0.07806295 0.28556916 0.36274183 -0.39460874 0.32186648 0.20079736 0.16224325
-0.29303166 -0.27566358 0.47877574 0.1006007 -0.10635989 -0.0966567 0.3365072 -0.1082336
0.33992365 -0.13078092 0.11683582 0.1073856 -0.25017905 0.016821794 0.099328734 -0.47860223
-0.094130374 0.029988823 0.40598044 0.08909384 -0.4229854 -0.15624525 0.48112634 -0.08727616
0.3724083 0.042729177 0.32933107 -0.18988544 0.4845579 0.10341294 -0.10763518 0.34164065
0.24321619 -0.3412518 -0.023469124 0.32463127 0.11716177 -0.1487791 -0.33466694 -0.33360997

edge_encoder.layers.0.bias f4 [64]
00000000: 3e83 3d3e b373 0a3e 19db b1be ce25 cdbc
00000010: 0e46 343d a082 b1be 72b1 ab3e 746b f0b8
00000020: aee2 e7bd a415 043a 6bcd bc3d 52ef 003d
00000030: 69a0 c13e d007 413e 7dba bf39 26f0 553c
00000040: 29fa 213d a59e debd ff72 aabe 4251 c5b8
00000050: f684 cfbd f9af c0be eb66 b83d 27d1 f4bd
00000060: 13ee c33e 945c b93d c7eb fa3d fff1 773d
00000070: 613f d83d cbae 673e 8e8f 8b3e 5ec0 25b9
00000080: 249b 69bd 7e50 533d cbd1 09be d134 bab8
00000090: 65e1 783d 2eae 073e ac6e c6be 9492 d53d
000000a0: 008a d5bd 00f0 83be e9ed fabd e918 8537
000000b0: a417 1e3e dffe b2be b788 543d c29e b53e
000000c0: a609 42be 8f58 1c3d 54d2 e3bd 09f1 273d
000000d0: c8f0 003e f485 5bbe ffe8 1c3d 5dcb cb3e
000000e0: 2948 d2b5 9350 85be dfe1 c837 797c fc3c
000000f0: 23f2 8a3d 6f04 7a38 a6d6 e8bc 796e 20be
0.18507096 0.13520698 -0.3473747 -0.02504244 0.04401212 -0.3466997 0.33533818 -0.000114641065
-0.113225326 0.0005038625 0.09218868 0.031478234 0.37817696 0.18850636 0.00036569303 0.013057744
0.039545212 -0.10870103 -0.3329086 -9.4088275e-05 -0.10132782 -0.37634256 0.09004005 -0.11953955
0.38267574 0.09050861 0.12252002 0.06053352 0.105589636 0.22625272 0.2725796 -0.00015807289
-0.05703272 0.051590435 -0.13458936 -8.879009e-05 0.060761828 0.13250038 -0.3875631 0.10428348
-0.10426712 -0.25769043 -0.12252409 1.5866435e-05 0.15438706 -0.34960076 0.051888194 0.35472685
-0.18948993 0.038170394 -0.11124101 0.041001353 0.12591851 -0.21437818 0.03830814 0.3980359
-1.5667221e-06 -0.26038036 2.3947037e-05 0.030821072 0.06784465 5.9608774e-05 -0.028422665 -0.15667142

edge_encoder.layers.1.weight f4 [64]
00000000: c289 7b3f 080e 793f 88bf 7c3f 1596 7f3f
00000010: 7006 7b3f b201 7f3f 2f35 7b3f b9ca 7e3f
00000020: 118d 7e3f 03bc 793f 02a9 7f3f 781b 7c3f
00000030: 8733 793f f90d 773f 3f71 7c3f 7943 7c3f
00000040: 0acf 793f 2335 7c3f e51b 793f ae08 7d3f
00000050: 98b7 793f 2c5e 7a3f eef5 793f 5674 7b3f
00000060: e461 7b3f 7bcc 7c3f b20c 793f 4169 7d3f
00000070: 0428 7a3f 0511 7b3f ccc2 7c3f 0d0f 7c3f
00000080: 3dea 7e3f 8710 7b3f 2b89 793f 11ae 7c3f
00000090: c016 7c3f 85d9 7a3f aeeb 793f 51d8 7b3f
000000a0: 9f2c 7a3f 4b85 7b3f a2f6 7c3f a770 7d3f
000000b0: a717 7e3f d9e2 7b3f d0e3 7e3f b21b 7b3f
000000c0: 476b 783f 78ea 7a3f 2ad9 7c3f 5be2 793f
000000d0: e90f 773f d642 7d3f 8669 7f3f 89b9 7d3f
000000e0: 6aa0 773f 569a 7f3f 6917 7d3f bef9 7c3f
000000f0: bbc1 7e3f 4bb9 7f3f 43a6 793f 8178 7e3f
0.98257077 0.97287035 0.98729753 0.9983838 0.980567 0.9961196 0.98128027 0.9952808
0.99434 0.9755251 0.9986726 0.98479414 0.9734425 0.96505696 0.986103 0.98540455
0.9758154 0.9851858 0.9730819 0.9884137 0.97545767 0.97799945 0.97640884 0.9822439
0.98196244 0.9874951 0.97284997 0.9898873 0.9771731 0.98072845 0.98734736 0.98460466
0.9957617 0.98072094 0.97474927 0.98703104 0.98472214 0.9798816 0.97625244 0.9837695
0.97724336 0.98250264 0.9881383 0.9900002 0.9925484 0.9839302 0.99566364 0.98089135
0.9703869 0.9801402 0.98768866 0.97611016 0.9650865 0.9893011 0.9977039 0.9911123
0.9672915 0.9984487 0.98863846 0.98818576 0.9951436 0.9989211 0.9751932 0.99402624

edge_encoder.layers.1.bias f4 [64]
00000000: 28df 61bb fae1 8dbb e422 c7bb 354d b53b
00000010: 5148 54ba 1af9 0d3c e838 21bc c84e da3b
00000020: 3a86 573b aed2 3e3b 3bf0 023c 7b6f 1ebb
00000030: 8ac8 e5bb 35c4 4ebc c9f3 1cbc 5700 c2bb
00000040: 2e1b 7fbc e9d3 02bc ccf7 8ebc 6c16 8ebb
00000050: e7ee e6bb 07cc 57bc 527c f9bb 65c1 b2bb
00000060: 9718 71bb 5e7e 0cbb 2063 15ba 2ba9 763b
00000070: 7897 86bb 7199 e3bb b800 99bb 46cf ccbb
00000080: 7c30 493b e7f5 a3bb e9d1 40bc 640a febb
00000090: 7263 23bc 980a 95bc e8cb 4fbb b5c6 30bc
000000a0: 13dd eabb d10b 30bb eabd 9fbb 0325 b93b
000000b0: eee6 553b 45a6 15bc 6cdb 633b 7d5f dfbb
000000c0: d7f7 67bc a51e 33bc a291 22bb ccb0 48bc
000000d0: f6ef 99bc 50bd aabb 52be 083c bf27 71bb
000000e0: 6fac febb d53c 4e3c f100 54bb db14 1f39
000000f0: cb4b f83a 2ff9 d13b cd23 3fbc 53b5 77b7
-0.0034465287 -0.004329917 -0.0060771573 0.0055328854 -0.0008097934 0.0086653475 -0.009840228 0.0066622235
0.0032886402 0.0029117274 0.007991846 -0.0024175334 -0.0070124315 -0.012620022 -0.009579607 -0.0059204507
-0.015570445 -0.007985094 -0.017452143 -0.004336169 -0.0070475223 -0.0131712025 -0.007613697 -0.0054551833
-0.0036788338 -0.0021437625 -0.00056986697 0.0037637453 -0.004107412 -0.006945782 -0.004669275 -0.006250295
0.0030699065 -0.005003679 -0.0117687965 -0.0077527035 -0.00997244 -0.018193528 -0.003170723 -0.010789563
-0.0071674674 -0.0026862512 -0.0048749344 0.005650164 0.0032638866 -0.00913388 0.0034768237 -0.006816803
-0.014158211 -0.010932599 -0.0024806042 -0.012249183 -0.01879118 -0.005210556 0.008346157 -0.0036797372
-0.0077720205 0.012587746 -0.0032349194 0.00015171191 0.0018943487 0.006407879 -0.01166625 -1.4764565e-05

edge_encoder.layers.1.running_mean f4 [64]
00000000: 6895 493e 5f75 033e 787d abbe 31c4 e1bb
00000010: beef 133d eab6 adbe 8261 aa3e da1e 8cbb
00000020: da8e fcbd 53a2 2c3c c970 ea3d 1497 af3c
00000030: 59d2 c83e bb82 553e b805 483c f743 6eb9
00000040: 5ac4 963c 4ee3 c8bd e52d a3be e07c 613c
00000050: 1d57 e5bd 5292 c0be b056 a33d b238 ddbd
00000060: 4911 c13e 1d99 a53d 3608 fc3d c4d1 5c3d
00000070: 742e e23d 0e42 7a3e 9d43 8c3e b112 b13b
00000080: a5d1 9abd 33d1 723d 2ccb febd 8cc3 0ebb
00000090: 1a79 a13d 4744 073e 43c9 c4be 197d bd3d
000000a0: a6d8 04be 6dbc 72be 6bc4 f0bd 9464 693b
000000b0: 79ac 3c3e 1da4 bbbe 4814 8a3d 6ebc bd3e
000000c0: b75d 44be 643f 263d cabb f0bd 305b 0b3d
000000d0: 8e49 123e ef25 5ebe a305 2a3d dbd9 c93e
000000e0: b322 a43b e52f 93be 92d3 92ba 391c c73c
000000f0: b418 733d 99fe 893c cc75 56bc d41b 2ebe
0.196859 0.12837742 -0.33494163 -0.006889843 0.036117308 -0.33928615 0.33277518 -0.0042761387
-0.12331934 0.010536748 0.11447293 0.021434344 0.39222983 0.20850651 0.012208395 -0.00022722768
0.018404175 -0.0980898 -0.31870952 0.013762683 -0.11198256 -0.37611634 0.07975519 -0.108018294
0.377085 0.08085845 0.123062536 0.053910986 0.110440165 0.2443926 0.27395335 0.0054038395
-0.07559518 0.05928154 -0.12441096 -0.0021784035 0.078844264 0.1320964 -0.384348 0.09252376
-0.1297327 -0.23704691 -0.11756214 0.0035612928 0.18425168 -0.36648646 0.067421496 0.37057823
-0.19176374 0.040587798 -0.11754568 0.03402251 0.14285871 -0.21694158 0.04150928 0.39424023
0.0050090193 -0.28747478 -0.0011201969 0.02430545 0.05934973 0.016845034 -0.013089608 -0.17002803

edge_encoder.layers.1.running_var f4 [64]
00000000: 900b 1f3d 8ad6 e33c 3bce 663e 53fa 273c
00000010: 8386 ce3d 95a8 413d e3a2 473e 79dc e63c
00000020: 8e88 683d 646b 243b 3939 833d 2d6e b63c
00000030: 9ef3 d93d 8970 b33d 653d e83d a653 063d
00000040: 04ae 143e 50fa 273e 93b2 733c 4d77 4d3d
00000050: ce58 1d3e ed73 0f3d 44b1 f83c 1100 3e3e
00000060: 8922 493e 1e87 a53d 95a7 9e3d 93b7 d63d
00000070: 7f59 8a3d c17e 763c 2d3b c43d 40a4 0a3e
00000080: 6f17 eb3d 5ae6 e73c 01fe 283d 4b07 e83d
00000090: 6a79 263e d81c 073d 7168 943c c3ff 273c
000000a0: 719a d63d 4c1d 3a3e 9de8 dd3d d6e8 633e
000000b0: 8b1d 773d da98 1f3d c526 b43d 654c 383e
000000c0: b1ac 9d3c a1c2 923d 8122 9d3d 4961 b53d
000000d0: 335f 803d b105 893d 1292 423e b7d1 af3d
000000e0: 1b28 003d 2a49 943c 4d72 fb3d cb0f 4f3e
000000f0: 3157 d23d f366 483d 546f b83c bdfd b13d
0.038829386 0.027812261 0.22539608 0.010252553 0.1008425 0.047279913 0.1949573 0.028181301
0.056770854 0.0025088424 0.06407399 0.022269333 0.106421694 0.08761699 0.11339835 0.032794617
0.14519507 0.1640408 0.014874118 0.050162602 0.15365908 0.035022665 0.030357964 0.18554713
0.1964208 0.08082412 0.077468075 0.10484233 0.06755351 0.015044869 0.095815994 0.13539219
0.11479079 0.028308082 0.041257862 0.11329516 0.16257253 0.032986492 0.018116208 0.010253849
0.10478676 0.18175238 0.10835383 0.22256789 0.06033091 0.03896413 0.08796457 0.17997892
0.019247385 0.07166029 0.07672597 0.08856446 0.06268158 0.06690539 0.19001034 0.08584922
0.031288248 0.018101294 0.122776605 0.20220868 0.10270537 0.048926305 0.022514023 0.08690975
