gnn/gnn_outputs/final_model.pt (torch, 332229 bytes, 84 tensors)

node_encoder.layers.0.weight f4 [64, 3]
000000 ef 04 e5 3e d3 17 f2 3e 8f be 0f be 0c a2 09 3f
       0.44730327 0.472838 -0.14037536 0.5376289
000010 83 d6 fa bd 61 e6 d6 3d e4 13 8a be 84 3f b3 3e
       -0.12247946 0.1049316 -0.269683 0.35009396
000020 8f 92 03 3f 0e 3f d3 be 80 90 03 3f b9 d8 bd 3d
       0.51395506 -0.41259044 0.51392365 0.09269852
000030 1c 72 dd 3e 5a ea 8d 3d 3a a4 8b 3e 85 cc b5 bd
       0.4325112 0.06929465 0.27273732 -0.088769
000040 d6 6f df 3e 5e d7 bf 3d 3c 28 91 be b0 3a 1b 3e
       0.43640012 0.0936725 -0.2835101 0.15159106
000050 05 c1 7a be b7 b3 83 bd dd 9f 6a be e0 b1 c6 3e
       -0.24487694 -0.06430762 -0.22912546 0.38807583
000060 be 5d f0 be cf f3 7f be 98 bf 23 be 41 de ab be
       -0.4694652 -0.2499535 -0.15991056 -0.33568004
000070 1c d6 6b 3d aa 85 14 bf bc 3f 04 3f 63 7b fb be
       0.057577237 -0.58016455 0.5165975 -0.49117574
000080 17 7c e6 3e a2 49 cc 3d 85 8e 33 be fa 58 ba 3e
       0.45016548 0.09974982 -0.17534836 0.3639601
000090 eb 10 ae 3d 94 ff f0 3e db f0 72 3d 47 ee 3b be
       0.084993206 0.4706999 0.05931173 -0.18352614
0000a0 ea 97 1c 3e 0c 73 24 be 19 97 76 3e 91 a1 fb 3e
       0.15292326 -0.16059512 0.24081077 0.49146703
0000b0 a0 a5 b3 3e 80 e7 6f be e1 df b0 3e 9b b1 d3 3d
       0.350873 -0.23428154 0.34545806 0.1033661
0000c0 2f b4 96 3e a9 10 b0 be a0 8c 14 bf 9a 49 61 be
       0.29434344 -0.3438771 -0.58027077 -0.22000733
0000d0 e9 4c eb be 75 42 ec 3e e1 57 25 3e f9 1c 73 3e
       -0.45957115 0.46144453 0.16146804 0.23741521
0000e0 b5 28 49 3e ed 0b 83 bc a1 07 ec 3e 51 0c cd be
       0.19644435 -0.015996898 0.4609957 -0.4004846
0000f0 f7 34 fa 3c 91 f4 cc be ac e5 2f 3e 8d 02 49 be
       0.030542834 -0.4003034 0.17177457 -0.1962988
000100 e3 81 33 3e 6b c0 fb bd 71 4a f5 3e c4 12 b2 be
       0.17530017 -0.1229256 0.47908357 -0.34779942
000110 a0 89 ae be 6f b3 b6 be a8 80 01 3f 17 8b 40 3e
       -0.34089375 -0.35683772 0.5058694 0.18803059
000120 d7 cd 0c 3f 4a cc f2 be 54 b4 13 bf ed 5e e6 be
       0.55001587 -0.47421485 -0.57697034 -0.44994298
000130 79 78 cb be d4 8a 61 3e b8 ce 4e 3e e9 e2 f9 3e
       -0.3974035 0.22025615 0.20196044 0.4880593
000140 ce 5d 94 be c3 f1 c0 be ec 35 a4 3e cb 69 69 be
       -0.28977817 -0.3768445 0.3207239 -0.22794263
000150 e3 1d b3 3e 66 8c 15 be ff a9 a5 3e 7d 0e ef be
       0.3498374 -0.14604339 0.3235626 -0.4669074
000160 a5 c7 8f be 2d ee 36 3e e2 0e fe 3d a0 73 0f be
       -0.28082004 0.17864294 0.124051824 -0.14008951
000170 39 84 b3 3e 01 42 c4 3e 92 45 da be 3b 07 9c be
       0.35061815 0.38331607 -0.42631203 -0.30474266
000180 87 6d 07 3f 52 8b 52 be 83 18 4c be 4d 0d 0d bf
       0.529015 -0.20560959 -0.19931225 -0.5509842
000190 78 8a ac be e1 36 11 3e cd 38 b3 bd f7 61 d0 be
       -0.33699393 0.14181091 -0.08751068 -0.4069974
0001a0 b7 1c 51 3b fe 5a cb be c3 06 04 bf 95 dd 99 be
       0.0031907985 -0.3971786 -0.5157282 -0.30051866
0001b0 d6 ec 01 bf 48 ba bb be b4 e3 12 3f d9 ea e3 3d
       -0.5075201 -0.3666556 0.573787 0.11128778
0001c0 0c 86 43 3e 89 cb 05 bf 3d e3 be be ce 47 45 be
       0.19094104 -0.52263695 -0.37282744 -0.19265673
0001d0 76 35 be 3d db bd fe be 78 73 7e be 4f a7 b5 be
       0.092875406 -0.49754223 -0.24848735 -0.3547921
0001e0 23 ca f6 3b bb 0a 64 be e8 da 07 bd ed 2b d0 be
       0.007531421 -0.22269718 -0.03316775 -0.40658513
0001f0 e8 76 cc be 2a 4f a6 be 02 48 50 be c9 a1 ea be
       -0.39934468 -0.32482272 -0.20339969 -0.45826557
000200 ef 91 f5 3e 34 a4 de bd 1d 3f f8 3e 98 d4 45 3e
       0.479629 -0.10871163 0.48485652 0.1931938
000210 18 69 f9 be 7a fd d1 3e 17 cf 1f be 3f b9 67 be
       -0.48712993 0.410137 -0.15606342 -0.2262926
000220 5b 55 f5 be 6f 40 12 bf c6 8a 32 3e 72 34 fb bd
       -0.47916684 -0.5712957 0.1743575 -0.122658625
000230 37 aa 54 3e fc 4f f1 be 59 2b da 3e cc 22 da be
       0.20768057 -0.47131336 0.42611197 -0.42604673
000240 67 c8 cf bd 8d 46 ea 3d 96 72 9d 3e 70 bf f6 3e
       -0.101456456 0.11439238 0.30751485 0.4819293
000250 24 eb 06 3f 66 35 e2 be 2f d3 11 3e 61 2f 86 be
       0.52702546 -0.44181365 0.14240716 -0.26208022
000260 8a b9 5c bd 8d 65 df be 61 ce 04 3f ae 76 dc be
       -0.05388788 -0.43632165 0.5187741 -0.43059295
000270 09 62 a1 3e 62 22 44 3e d0 b9 41 3e 42 8d 9c be
       0.31520107 0.19153741 0.18918538 -0.3057652
000280 2d ba 07 3f 85 7e 00 3e d3 8f 9c 3d 89 b9 03 bf
       0.53018457 0.12548263 0.0764462 -0.5145498
000290 a1 aa 70 3e 40 db a5 bd a4 d2 85 be a2 53 ff 3e
       0.2350259 -0.08098459 -0.2613727 0.49868494
0002a0 fa 76 0b 3e 27 93 a2 be 78 bf 93 be 06 5b 13 bd
       0.13619605 -0.31752893 -0.28857017 -0.03597548
0002b0 f8 79 a3 3e 7b 46 19 be ab 2a a3 be 36 63 4f be
       0.31928992 -0.14968292 -0.3186849 -0.2025269
0002c0 7f 98 e3 be 2c d9 44 3e 87 26 de 3e 97 d2 0e bf
       -0.44452283 0.1922347 0.4338877 -0.55790085
0002d0 56 7f 1a 3e 9c fe 90 3e 25 d0 e4 3d 53 04 58 be
       0.15087637 0.28319252 0.11172513 -0.210954
0002e0 4b 79 97 3e d1 f8 9d 3e 11 c5 60 3e 1e fa ca bd
       0.29584727 0.30853894 0.21950175 -0.09910987
0002f0 7e eb 19 be f5 28 88 3d 6a 82 c2 bd 6c 24 38 be
       -0.1503124 0.06648437 -0.09497531 -0.17982644

node_encoder.layers.0.bias f4 [64]
000000 11 6f 8c 3e fc d0 cc 3e ca 1d 51 ba 1a aa 3d bd
       0.27428487 0.40003192 -0.0007977156 -0.0463048
000010 78 26 13 b8 1c ce 89 b7 14 0d 5f 3d b2 65 99 3d
       -3.5083358e-05 -1.642765e-05 0.05445583 0.074901
000020 5a 22 db be a8 43 fb bd 87 bc c7 3e 8d 15 09 3e
       -0.42799646 -0.12268764 0.39011022 0.13387127
000030 14 a6 41 b9 fd dd 81 be 8a 76 84 be 15 76 d7 be
       -0.00018467783 -0.25364676 -0.25871688 -0.42082277
000040 3a 3a cb bd 4f 33 d8 3d 26 06 8c 3e 13 35 32 3e
       -0.09923215 0.10556661 0.2734844 0.17403059
000050 cd fc d3 be b8 71 81 be 3f 55 8a bc 48 7d ec 3e
       -0.4140381 -0.25282073 -0.016886352 0.46189332
000060 b9 33 46 3c 11 c9 82 bd 35 d2 16 3e 22 39 04 be
       0.012097293 -0.063860066 0.14728625 -0.1291242
000070 97 c7 8e be 85 e2 a6 3e cd 31 2e be 29 d1 0f bd
       -0.2788665 0.32594696 -0.17011185 -0.03511158
000080 74 8c f4 be 44 31 95 3e 49 fe ae 3e e6 0a f6 3d
       -0.47763407 0.2913915 0.3417838 0.120137975
000090 23 5b 9d be 0c 3a f2 be bc f7 be be f7 80 ab 3e
       -0.30733594 -0.4730991 -0.3729838 0.3349683
0000a0 94 bf 3c 3e 4c 8d c7 3e 7b f8 55 3e e6 4e 79 3d
       0.18432456 0.38974988 0.20895569 0.06086626
0000b0 c4 38 28 b7 1e d7 af be 24 02 cc be a0 14 e3 be
       -1.0026797e-05 -0.3434381 -0.39845383 -0.44351673
0000c0 55 59 14 3e 70 02 43 be d4 f7 10 bd 2f d6 73 be
       0.14487202 -0.19043899 -0.035392597 -0.23812173
0000d0 80 a0 dc bc 64 46 9f be 6d 96 90 be 68 8e d1 3d
       -0.026932001 -0.3110839 -0.28239766 0.1023224
0000e0 31 c6 ab bd 15 13 86 3e dd 98 c5 bd 5b f4 a7 be
       -0.083874114 0.26186433 -0.09648297 -0.32803616
0000f0 0d e0 c7 bc be 6e 3f be 53 5f b5 bd 6b 07 e8 be
       -0.024398828 -0.18694589 -0.08856072 -0.4531816

node_encoder.layers.1.weight f4 [64]
000000 74 f7 80 3f 29 45 7f 3f 27 83 7d 3f 8d f8 7f 3f
       1.0075517 0.99714905 0.9902825 0.99988633
000010 d0 29 7e 3f ee ab 80 3f cc 00 7b 3f ef 66 80 3f
       0.9928255 1.0052469 0.9804809 1.0031413
000020 1d 7a 7e 3f e7 04 7e 3f 6d 0c 7f 3f a4 40 80 3f
       0.9940508 0.9922623 0.99628335 1.0019727
000030 17 0a 80 3f df 36 82 3f 7f 55 7d 3f 21 c1 7f 3f
       1.0003079 1.0172995 0.9895858 0.99904066
000040 57 84 7b 3f e9 3e 7e 3f fb aa 7c 3f d8 15 80 3f
       0.9824881 0.99314743 0.98698395 1.0006666
000050 05 ac 80 3f c5 dd 7c 3f 16 8e 80 3f 29 5f 7e 3f
       1.0052496 0.98775893 1.0043361 0.9936395
000060 c0 a3 80 3f 12 33 81 3f b1 17 80 3f 25 16 82 3f
       1.0049973 1.009371 1.000723 1.0163008
000070 c4 6e 7e 3f e2 70 80 3f ae 0c 80 3f 84 ce 80 3f
       0.99387765 1.0034449 1.000387 1.0063024
000080 7f 86 7f 3f 20 b1 80 3f d1 e4 81 3f be 78 80 3f
       0.998146 1.0054054 1.0147954 1.0036848
000090 9e 38 81 3f 25 0e 81 3f 4a f5 7e 3f 9c 5f 7e 3f
       1.0095403 1.0082442 0.9959303 0.9936464
0000a0 80 9e 80 3f 6e 63 7f 3f 04 96 80 3f 5b a6 7f 3f
       1.004837 0.9976109 1.0045781 0.99863213
0000b0 51 59 7f 3f 56 77 7d 3f d5 74 80 3f dd b3 80 3f
       0.9974566 0.9901022 1.0035654 1.005489
0000c0 03 fa 7e 3f 7d 21 7e 3f c6 cf 81 3f 8c b0 81 3f
       0.9960024 0.9926985 1.0141532 1.0132003
0000d0 22 0c 7c 3f 1b 2e 80 3f 98 0c 7e 3f f8 cc 7d 3f
       0.98456013 1.001407 0.99237967 0.9914088
0000e0 ea b6 7b 3f 14 c7 7e 3f 78 8f 7d 3f 41 95 80 3f
       0.9832598 0.9952252 0.9904704 1.0045549
0000f0 39 b4 7d 3f 24 c8 7c 3f b9 eb 7c 3f 81 29 7c 3f
       0.9910312 0.9874289 0.98797184 0.9850083

node_encoder.layers.1.bias f4 [64]
000000 98 88 fb 3a 76 b5 82 bb f7 47 0e bc f7 d5 99 3c
       0.0019190488 -0.003988917 -0.00868415 0.018778784
000010 cc 91 88 bc 41 61 18 3c 9b dd d5 bc f6 5a e4 3b
       -0.016671084 0.009300531 -0.026106646 0.006968851
000020 62 2b e4 bc ef f3 9c bb ba 45 ac 3b 88 e3 90 bb
       -0.027852718 -0.0047898213 0.0052573355 -0.004421655
000030 5e 87 23 3b 05 5f 15 3b cd 42 53 bb 90 c9 fe 3b
       0.0024952511 0.0022792232 -0.0032235861 0.007775493
000040 63 d0 aa bb 34 96 de 3a c8 d9 1e bc c3 8e 85 bb
       -0.00521283 0.001698202 -0.009695478 -0.0040758564
000050 af 7b 14 bc b8 2c 01 bc 63 ee 06 3b 83 2b 07 3b
       -0.009062692 -0.007884197 0.0020588867 0.00206253
000060 00 c9 16 ba 18 ae d5 bb 6d 90 a1 3c bf ce 67 3c
       -0.0005751997 -0.0065209977 0.019722188 0.014148413
000070 ad 42 0a bc 64 b9 ad bb 8e 55 9a 3b a6 1f 6b 3b
       -0.008438748 -0.0053016413 0.004709906 0.0035877018
000080 14 fd 6b bb 68 22 3c bc 20 c3 ae bb 60 77 5e bb
       -0.0036009 -0.011482812 -0.0053333193 -0.0033945665
000090 cd 3c 14 3c 6e a7 07 3c 88 16 8b bb 79 32 40 3a
       0.009047699 0.008279664 -0.0042446293 0.000733174
0000a0 3a 39 dd 3b 3d c4 46 bc 64 38 99 bb cd 9c 0b 3c
       0.0067512067 -0.012131748 -0.0046759117 0.008521271
0000b0 6c 5d b8 3b 35 8f 13 3b 96 f5 d2 ba b1 ff 1f bc
       0.005626371 0.0022515778 -0.0016094919 -0.009765551
0000c0 e1 6e 5f 3b 7d 07 93 bb 52 bf 1b 3c d8 3a be 3c
       0.0034093189 -0.0044869767 0.009506064 0.023221418
0000d0 3e 27 5d 3b 84 41 e8 3b 4a ed 2d bc 30 24 09 bd
       0.0033745314 0.007087888 -0.010615656 -0.033481777
0000e0 69 a5 0d bc b5 ab b7 bb 72 97 21 bc 65 b0 28 3c
       -0.008645394 -0.005605186 -0.0098627675 0.010295962
0000f0 73 54 86 bb 2b 9a 21 3c e9 01 3d 3a e2 26 5e bc
       -0.0040994226 0.009863417 0.00072100625 -0.013559075

node_encoder.layers.1.running_mean f4 [64]
000000 0b 6a 3b 3f 58 38 2a 3f f7 82 ad 3e 9a 7f cb 3d
       0.73208684 0.66492224 0.3388898 0.099364474
000010 1b 31 d2 3e 75 c7 8a 3e 15 0b fe bd f7 92 d4 3d
       0.4105309 0.271053 -0.124044575 0.10379594
000020 ef 5c 6a bf 13 18 11 bf 46 5d 18 3f 84 1f 8a 3e
       -0.91548055 -0.5667736 0.59517324 0.2697717
000030 f8 1a bb 3e 09 7f af be 4e 1d b2 3e 21 2d 90 be
       0.36544013 -0.34276608 0.34787983 -0.2815943
000040 cd ba eb be 4c 9a 51 bd 3b 35 1c 3f 68 01 7d 3e
       -0.46040955 -0.05117254 0.61018723 0.24707568
000050 b7 7f 0f bf db 67 a1 be 36 30 22 be e4 37 30 3f
       -0.5605425 -0.31524548 -0.15838704 0.6883528
000060 fa 94 93 be 62 57 de be ed 0d d1 3e 72 4a 80 be
       -0.28824598 -0.43426043 0.40830937 -0.25056797
000070 89 54 b8 bc 29 8e 8c 3b 50 94 6a bc dc 97 83 be
       -0.022501247 0.0042894077 -0.014317587 -0.25701797
000080 4d 6d de be a6 f6 02 be b8 0f 50 3d c8 c6 0e bf
       -0.43442765 -0.12789401 0.05079624 -0.55772066
000090 58 da 01 bf a7 55 12 bf e5 d6 24 bf 61 39 84 be
       -0.5072379 -0.57161945 -0.64390403 -0.25825027
0000a0 f0 f0 1a 3d 56 da 6e be e7 83 92 3d 03 bc cf 3e
       0.037827432 -0.23325476 0.071540646 0.4057313
0000b0 c8 15 aa bd 9f 4f 87 bf 1b 30 8f be 1a fc 26 bf
       -0.08304936 -1.0571173 -0.2796639 -0.65228426
0000c0 77 5f a6 3e 03 88 1e 3e f7 70 1c be f7 40 bf be
       0.3249471 0.15481572 -0.15277468 -0.37354252
0000d0 cf 1f b4 3e fb cb ab bd 76 92 e2 be 06 b4 23 3e
       0.35180518 -0.083885156 -0.44252366 0.15986642
0000e0 54 d9 b8 be 61 c8 bb 3e a5 2a 1f bf b2 03 81 be
       -0.36103308 0.36676314 -0.62174445 -0.25198132
0000f0 e5 d1 91 3e cd f7 24 3d 5b 7b ed bd c4 f8 12 bf
       0.2848045 0.040275384 -0.11595794 -0.57410836

node_encoder.layers.1.running_var f4 [64]
000000 99 c0 2e 3d 3a 63 ba 3c 4e c6 36 3d 54 8a 0a 3d
       0.042664144 0.022752393 0.04462271 0.033823326
000010 a5 20 bf 3c 4c dc 98 3c f3 1e 5c 3c fa 4c af 3c
       0.023330996 0.018659733 0.013435113 0.02139901
000020 03 3b e6 3c 94 50 36 3d 4a 5a 6a 3d 64 b4 8c 3c
       0.02810431 0.04451044 0.057215013 0.01717586
000030 33 cd b9 3c 7a 94 db 3b 32 06 34 3d 2d 5c 72 3c
       0.022680854 0.0067010494 0.04395122 0.014792484
000040 5f 9b 59 3d e2 32 43 3d 00 67 4d 3c 3b 5e 13 3d
       0.05312669 0.047655948 0.012536764 0.035978537
000050 47 8b 8f 3c 38 d6 d3 3b b5 93 1c 3d 97 4b 0a 3d
       0.017522467 0.006464746 0.038226802 0.033763494
000060 58 52 9b 3d 17 c6 1f 3d 80 1c 13 3d 2d 67 b9 3c
       0.07584065 0.039007273 0.03591585 0.022632206
000070 ed 23 ac 3c 01 c0 f6 3c ba 76 7f 3c 3c 45 10 3d
       0.021013224 0.030120851 0.015592271 0.035222277
000080 82 e6 de 3c b3 01 23 3d 2e 18 8a 3c 95 2b 55 3d
       0.027209524 0.039796542 0.016857233 0.052043516
000090 95 8d 91 3d 90 16 0b 3d ed 45 87 3c 70 41 29 3d
       0.07107083 0.033957064 0.016512835 0.04132217
0000a0 21 b5 9b 3b d8 f0 30 3d 52 39 47 3d 9c c5 d6 3c
       0.004751817 0.043198436 0.04863865 0.026217274
0000b0 ff 43 ff 3c fc 82 84 3d b0 42 fc 3b e0 6e 42 3d
       0.031160353 0.06470296 0.0076983795 0.04746902
0000c0 04 6b 48 3c f0 05 8e 3d 4f e5 f4 3b 77 66 58 3d
       0.012232546 0.06934726 0.007473625 0.052832093
0000d0 00 03 86 3c de a7 01 3d 1b 8b f1 3c 09 b5 09 3d
       0.016358852 0.03165423 0.029485276 0.033619914
0000e0 91 24 9f 3c b7 1f 3c 3c 52 a0 0e 3d e2 36 60 3d
       0.019426616 0.011482171 0.034820862 0.05473984
0000f0 35 ec 3f 3c 97 24 ac 3c 23 f7 d8 3b ae 64 98 3b
       0.011714031 0.021013541 0.006621258 0.004650674

node_encoder.layers.3.weight f4 [64, 64]
000000 9e 74 72 3d aa 71 9d bd c3 71 56 3d e1 0f 4e 3d
       0.059193246 -0.07687695 0.052354585 0.050308112
000010 2d 2c a5 3d 80 fa d0 bd da 46 a7 3d f4 d5 8c bd
       0.080650665 -0.10204029 0.08167811 -0.06876746
000020 e1 d5 2f 3d 41 13 ef 3d 7c a8 00 bc b1 c7 05 bc
       0.04292858 0.11673594 -0.00785267 -0.008165286
000030 d3 de 15 bd 94 7b e2 bd b4 f1 4c 3d 56 db 05 be
       -0.036589455 -0.11058727 0.050035194 -0.13071951
000040 59 af b4 3d 14 df a7 3d 24 b6 dc 3d 85 5a 04 bd
       0.088225074 0.08196846 0.10776928 -0.03231289
000050 84 9a bb bd 94 32 b0 3c 39 57 a5 3d 61 75 06 be
       -0.09160331 0.021508493 0.08073277 -0.13130714
000060 0d 56 8b bc 3b 50 ac bd 0a 5c 8a bc ae b3 8b bd
       -0.017008806 -0.0841374 -0.01688959 -0.068213806
000070 59 6b 63 bd 2b 4f 49 bd 83 c5 01 be 7e 9b e9 3d
       -0.055522297 -0.049147766 -0.12673001 0.11406611
000080 04 f7 ef 3d bc 19 eb bc ba 72 c9 bb 99 83 45 bd
       0.11717036 -0.028698795 -0.0061477097 -0.048221204
000090 9c 95 07 be 82 c6 e5 bd 78 06 18 3d f8 83 90 bd
       -0.13240665 -0.11219503 0.037115544 -0.07056421
0000a0 1d 14 90 bd 9a f8 fc bb e3 83 52 bd 64 f2 40 bd
       -0.07035086 -0.0077200653 -0.05139531 -0.04710616
0000b0 b1 1e 09 bb 1b c6 a1 bc fd 85 37 bd f6 17 87 bd
       -0.0020922835 -0.019747784 -0.044805516 -0.06596367
0000c0 64 4f e7 bd b4 1f cd 3d 41 19 1c bd d4 3b e7 3c
       -0.112944394 0.100158125 -0.03811002 0.02822677
0000d0 db 24 5e bd f6 ea 7e 3b b2 ef 02 3e f4 78 3f 3d
       -0.054234367 0.0038897372 0.12786749 0.04674621
0000e0 87 1b c8 bd 6f 19 3a 3d 4c 87 f7 3d f2 25 09 3d
       -0.097708754 0.04543441 0.12086353 0.033483453
0000f0 63 7c 96 3d 00 db e8 3d f4 07 ee bb f7 45 14 3d
       0.07347944 0.11369896 -0.0072641317 0.036199536
000100 a4 de cc bd 31 13 9b bc 54 43 cf 3d dc 81 80 3d
       -0.10003403 -0.01893005 0.10120264 0.06274769
000110 0a 19 8c bd f1 ca c2 bd 73 d2 c2 bd 64 44 e0 bd
       -0.06840713 -0.09511364 -0.09512796 -0.109505445
000120 8c ec c4 bd a1 51 15 bd 8d b6 bc 3d f4 4b 07 3d
       -0.0961543 -0.0364548 0.09214506 0.03303142
000130 8d 34 c4 bd 54 8b e5 bd f3 b2 97 3d d7 42 b7 bd
       -0.09580336 -0.11208215 0.07407179 -0.089482956
000140 ab 59 09 bc 1b 3a 93 3d 7d 93 35 bd b4 5e c6 bc
       -0.008383195 0.07188817 -0.04433011 -0.02421508
000150 15 b4 b4 ba 49 28 30 bd c2 0d 60 bd 68 49 d9 bd
       -0.0013786579 -0.04300717 -0.05470062 -0.10609704
000160 3f 5f bd bd d3 ae 82 bd 54 93 df 3d fb 05 97 bd
       -0.092466824 -0.06381001 0.109167725 -0.073741876
000170 e7 6a 99 bd 49 6d 06 3d 58 03 3f 3d 5b 75 9e 3d
       -0.07491093 0.032819066 0.04663405 0.077372275
000180 2e c8 d1 3d aa db 90 3d 91 26 eb bd f4 b0 8c 3c
       0.10243259 0.070731476 -0.11481965 0.017174222
000190 2d 9f b3 3d f9 9d a5 bc 33 6f 95 bd a0 37 f6 3d
       0.08770595 -0.020216929 -0.072966 0.120223284
0001a0 d5 b4 19 bd 9e c2 87 bd 53 15 ce bd 5c 5a 66 3c
       -0.03752597 -0.06628917 -0.10062661 0.014059629
0001b0 63 7f 28 3d 5e 17 07 3d 31 44 0c 3d 1a d4 da bd
       0.04113711 0.03298127 0.03424472 -0.106849864
0001c0 94 42 cf bd a2 d1 1d bc 3f 2e fc 3d 03 49 74 3d
       -0.10120121 -0.0096325 0.12313508 0.059639942
0001d0 10 b3 85 bd dd d8 56 bc c1 47 a9 bd 2a 77 3d bd
       -0.06528294 -0.013113228 -0.08265639 -0.04625622
0001e0 90 07 fa 3c bc 62 66 3d 9b e4 d5 3d 1c fa fe bd
       0.030521184 0.056246504 0.10443994 -0.12450048
0001f0 0c ad b1 3d 52 7c a3 bd 4c 47 62 3d ff 18 e6 3d
       0.08675584 -0.079826966 0.055243775 0.112352364
000200 22 6c 56 bb 06 bd 00 3e fd cc f7 bd 67 e4 0f bd
       -0.003271826 0.12572107 -0.12099645 -0.03512993
000210 a9 f2 a8 3d 3e 1f b5 bc fd ca 8f bc dc 19 72 bd
       0.08249409 -0.022109624 -0.017552847 -0.059106693
000220 8a e8 ac 3d dc bb 8c 3d db 29 1c 3d a6 d5 9d bd
       0.08442791 0.06871769 0.038125854 -0.07706766
000230 67 cd d2 bd 26 90 af 3c 4d 12 08 3d 8c 27 3b bd
       -0.10293084 0.02143104 0.033220578 -0.04569201
000240 9b 55 07 bd d2 e9 9d 3d 20 a9 1b 3c 84 4e 46 3c
       -0.033040624 0.07710613 0.009500772 0.0121036805
000250 31 70 12 bd be e0 d5 bd 44 c1 e1 bd 71 8d 43 bd
       -0.035751525 -0.10443257 -0.110231906 -0.04774231
000260 d2 5b 80 bd 85 ac fb 3c 59 ce 0e bd 05 15 24 bd
       -0.06267513 0.030721912 -0.034864757 -0.04005911
000270 22 19 fe 3d df 85 12 3d 51 ab a8 3d 76 6b 56 bd
       0.124071375 0.0357722 0.08235801 -0.052348576
000280 8d 6a 28 bd ff fd 1d 3d d5 3d b8 bd 83 58 ad bd
       -0.04111724 0.038572308 -0.089961685 -0.08464148
000290 47 7c 6b bc 8c ed 2a bd be 90 ce bd ec 9f a6 3d
       -0.014372892 -0.04173045 -0.10086201 0.081359714
0002a0 b9 70 c3 3d e3 2a a8 3c f1 f6 ec bc ec e7 e3 bd
       0.095429845 0.020528262 -0.028926345 -0.1112822
0002b0 96 aa 0f bd 75 b6 15 3d 18 d1 64 3d ee 70 03 bc
       -0.035074793 0.036550958 0.05586347 -0.00802253
0002c0 b4 0b 7c bd f0 5c 8c 3d aa 16 ca bd c2 ad b1 3d
       -0.0615346 0.06853664 -0.09867604 0.0867572
0002d0 f8 d3 32 bd ee 7c 4b 3c db 6e f1 bc cd c6 00 3c
       -0.04365918 0.012419922 -0.029471805 0.007859898
0002e0 6c b9 15 bd 8d 69 c8 3d 8e e9 8d 3b 8d 53 d0 3d
       -0.036553785 0.09785757 0.0043308204 0.10172186
0002f0 f4 97 e9 3d d6 31 9f bd b5 a5 b4 bd 9f d2 d3 3d
       0.11405936 -0.07773177 -0.088206686 0.10342907
000300 c6 72 b9 3d af 48 b2 bd ec 03 e2 bb 79 60 06 be
       0.090550944 -0.087052695 -0.00689744 -0.13122739
000310 4a c0 c3 bd a9 8d 74 3c 75 7b aa 3c 04 5b f8 3c
       -0.095581606 0.014926353 0.020810822 0.030316837
000320 d3 1b 03 bd a3 31 d2 3d 67 31 ce 3c b5 f9 8a bd
       -0.032008957 0.10263374 0.025170041 -0.06785909
000330 27 1b 54 bc 6d 4d 95 3c 95 10 47 3d b2 a1 c3 bd
       -0.012945927 0.018225396 0.0485998 -0.09552325
000340 18 2c 2f 3d 11 da 6d bd 5a 1e c8 bd 9a 6a 9f bd
       0.04276666 -0.058069292 -0.09771414 -0.077840045
000350 0e 04 03 3e b7 f4 c1 3d 88 08 f4 3d fa 11 89 3d
       0.12794515 0.09470504 0.1191569 0.06692882
000360 97 e4 ce 3d dc 66 47 bc 45 3e 9e bd 0f 1e 4e 3d
       0.10102194 -0.01217052 -0.07726721 0.050321635
000370 0a dd 6c bd ff 60 a5 bd 21 24 0b bd 52 a2 17 3d
       -0.057827987 -0.08075141 -0.033970002 0.037020035
000380 bb 6a 8c 3d 95 ce 38 bd 13 31 88 bd 55 f4 a9 3c
       0.06856295 -0.045118887 -0.06649985 0.02074639
000390 15 24 90 bd 7e be bb bd c8 7e 8b 3d d8 2d be bc
       -0.07038132 -0.09167193 0.06811291 -0.02321522
0003a0 84 e5 f8 3d 2f 88 fd 3d 1e 22 31 3d 49 95 23 3d
       0.12153152 0.123794906 0.043245427 0.03993729
0003b0 7d f5 8c 3c 51 11 6b 3a 8c 5f 19 bb 59 df 23 bc
       0.017206902 0.0008967119 -0.0023402898 -0.010001981
0003c0 65 38 4a 3d 6a a8 dc 3d cd 6b bb bc 43 30 83 bd
       0.04937019 0.1077431 -0.022878552 -0.064056896
0003d0 39 42 cf bc 70 3e 8c bd 81 3a eb 3c 0c 30 c6 3d
       -0.025300132 -0.068478465 0.02871442 0.09677133
0003e0 42 8d dd 3d 97 3b 46 3d 95 e9 c9 bd cd 49 9c bd
       0.108179584 0.048396673 -0.09859005 -0.07631264
0003f0 fc 56 ee bc 44 ff 94 bc e7 95 3b 3c 14 86 f4 bd
       -0.029094212 -0.018188126 0.011449314 -0.11939636

node_encoder.layers.3.bias f4 [64]
000000 94 db 68 35 e7 9d 82 3a 7d 41 da b8 b0 0a 88 bc
       8.6746263e-07 0.0009965271 -0.00010407248 -0.016606659
000010 5a 16 54 b9 5e 99 de 3b c8 d0 4a bb 84 c0 2e bc
       -0.00020226222 0.006793185 -0.0030947197 -0.0106660165
000020 51 f8 55 bc b6 9a e1 ba f3 13 cd b6 b5 67 2c b8
       -0.0130596915 -0.0017212245 -6.1117985e-06 -4.110458e-05
000030 16 dc 13 b6 31 05 d7 b8 b9 b6 0e 3c a8 04 e8 37
       -2.2032814e-06 -0.00010252966 0.008710557 2.7658723e-05
000040 74 70 cb bb b3 64 d8 b8 38 c4 d9 bb 16 55 ea 39
       -0.006208474 -0.00010318439 -0.0066457056 0.00044695352
000050 e6 13 17 bd 41 cb 8d b8 10 b1 aa bc d5 df c6 b9
       -0.03688421 -6.761263e-05 -0.020836383 -0.0003793227
000060 f1 0a 5b 3c 91 ba 94 bc 0d 7b 5f bb 40 d7 b5 bc
       0.013369308 -0.018155368 -0.0034100444 -0.022197366
000070 7e 7e b6 38 32 60 0c 38 b0 57 3e bb 4c 69 fa 3b
       8.701997e-05 3.346819e-05 -0.0029043965 0.007641947
000080 34 24 a2 b8 47 d3 06 bd df 69 de b7 74 ea 44 b9
       -7.731505e-05 -0.032916334 -2.6513762e-05 -0.00018779357
000090 56 5b 9b 38 f3 8a 9f 3b 93 6a 87 b8 26 0a 67 bc
       7.4079886e-05 0.004868859 -6.4571526e-05 -0.014101541
0000a0 a8 e0 72 3c 57 20 0b bd 84 f1 dd 39 16 91 c6 b9
       0.01482407 -0.03396639 0.00042332348 -0.000378736
0000b0 3b ee fd 3c 23 7b 22 3d f1 07 44 b9 95 be c7 b9
       0.030997386 0.039668214 -0.00018694975 -0.00038098232
0000c0 f6 56 f9 bc ab 18 21 b8 f7 0a 77 39 e8 a6 d7 b7
       -0.030436974 -3.8408365e-05 0.0002355984 -2.5707719e-05
0000d0 05 7b 36 bc 04 5a 1c 39 ef f8 3e 3b f6 ed ad 3c
       -0.011137729 0.00014910853 0.0029140075 0.021231633
0000e0 de 00 ba 38 cf e1 0a 3d 04 c4 17 bd f3 98 ba 37
       8.869333e-05 0.033906754 -0.03705217 2.224415e-05
0000f0 ab ea d7 b9 d7 5c 15 39 ff 8c 9d 3a e9 89 40 bc
       -0.00041182837 0.00014244333 0.001202017 -0.01175163

node_encoder.layers.4.weight f4 [64]
000000 e0 68 7c 3f 3a 26 81 3f 22 b2 7e 3f 47 61 7f 3f
       0.98597527 1.0089791 0.9949056 0.9975781
000010 a1 7a 7f 3f ab 08 80 3f d2 77 80 3f 89 3e 80 3f
       0.9979649 1.0002645 1.0036566 1.0019084
000020 08 cf 7f 3f c2 b5 7e 3f cf 7d 7b 3f 53 13 81 3f
       0.9992528 0.9949609 0.98238844 1.0084022
000030 bc 1b 7e 3f 16 5f 7e 3f 7a 35 80 3f b0 73 7c 3f
       0.9926107 0.9936384 1.001632 0.98614025
000040 a3 03 80 3f 03 e1 80 3f 4b 1a 7d 3f 0f 1d 7f 3f
       1.000111 1.0068668 0.98868245 0.99653715
000050 17 d1 80 3f 59 0c 81 3f 7a 11 7f 3f 0f 15 81 3f
       1.0063809 1.0081893 0.9963604 1.0084552
000060 ed cb 81 3f 49 85 82 3f db 7b 80 3f a7 09 81 3f
       1.0140358 1.0196925 1.0037798 1.0081071
000070 fa 9d 7b 3f 25 05 7e 3f 72 fc 7c 3f 5b 41 7a 3f
       0.9828793 0.992266 0.988227 0.97755975
000080 7d 36 80 3f d6 26 81 3f 3b 03 81 3f 1a cb 80 3f
       1.0016629 1.0089977 1.0079111 1.0061982
000090 df a0 7f 3f 6d 8f 7d 3f 17 9d 7e 3f 6f 76 82 3f
       0.99854845 0.99046975 0.9945845 1.0192393
0000a0 32 74 7f 3f 25 31 7f 3f 2b 83 7c 3f 99 dc 7e 3f
       0.99786675 0.99684364 0.98637646 0.99555355
0000b0 40 ec 80 3f 74 a1 81 3f db 07 80 3f 61 fd 7e 3f
       1.0072098 1.0127397 1.0002397 0.99605376
0000c0 73 56 81 3f 2d 00 7e 3f bf 4b 80 3f 7b fd 7d 3f
       1.0104507 0.9921902 1.0023116 0.99214906
0000d0 a3 25 7e 3f 06 e7 7f 3f 2c 00 7e 3f 49 f5 80 3f
       0.9927618 0.9996189 0.9921901 1.0074855
0000e0 7c f5 7d 3f b2 c3 80 3f 78 30 7d 3f d0 a3 7f 3f
       0.99202704 1.0059721 0.9890208 0.99859333
0000f0 e6 d4 80 3f 1f 6d 7f 3f 60 21 7f 3f 60 49 7f 3f
       1.0064971 0.9977588 0.996603 0.99721336

node_encoder.layers.4.bias f4 [64]
000000 1a b7 fe bb fc 57 0c 3b 73 ed 74 bb 52 a3 f2 ba
       -0.0077732923 0.0021414747 -0.0037372976 -0.0018511808
000010 d1 3b 23 bc e3 47 08 3b 2e 22 33 3a 4d 83 16 bc
       -0.009962992 0.00207948 0.0006833401 -0.009186578
000020 9b 16 db 3b cb 06 b5 39 3e 57 ae bc b9 6a f1 3b
       0.0066860444 0.0003452807 -0.021281835 0.0073674587
000030 38 34 13 3c 59 37 a9 bb d2 fe b9 bb 31 ef 18 bc
       0.008984618 -0.0051640687 -0.005676129 -0.009334371
000040 20 c9 de 3b fc a2 39 ba 01 1c 02 3c 34 75 b5 3b
       0.0067988783 -0.00070814765 0.007941247 0.0055376533
000050 b4 95 af 3b 37 68 9c 3c 5c 7d 4f 3a a5 bf ac 3a
       0.005358422 0.019092662 0.00079151033 0.0013179673
000060 4f 4a 38 3c 99 13 78 3c e2 93 e3 3b 09 21 7a bb
       0.011248185 0.015141391 0.0069451192 -0.0038166663
000070 a1 39 bc bb 75 f2 85 bb f4 22 6a bb 95 4a 95 bc
       -0.0057441746 -0.004087741 -0.00357264 -0.01822404
000080 76 8c 96 ba 77 80 19 3c a1 b6 4d 3b 04 6f 9b 3b
       -0.0011485952 0.009369007 0.0031389373 0.0047434587
000090 46 81 f0 bb b2 b5 34 bc 44 40 88 3b 2c 48 29 3c
       -0.0073396293 -0.011029648 0.0041580517 0.0103321485
0000a0 a1 3c 15 bc c6 37 17 3b ae 22 50 3b 51 dd a9 ba
       -0.009108693 0.0023074015 0.0031758952 -0.0012959634
0000b0 40 af ba bb fa 7d d9 3b 93 5f c5 3b 6b 11 aa 3a
       -0.005697161 0.006637332 0.006023356 0.0012975162
0000c0 54 eb f7 3b 71 c2 8d 3b 34 31 82 3c e0 69 1e bc
       0.007565895 0.0043261577 0.015892603 -0.009668797
0000d0 dc ca 53 bc b6 23 25 3c ff e1 42 bb 77 34 27 3c
       -0.012926783 0.010079315 -0.0029736755 0.01020538
0000e0 21 47 16 bc e8 94 83 bc 28 52 39 bc 79 c3 0e bc
       -0.009172232 -0.016062215 -0.0113110915 -0.0087135965
0000f0 7e 27 11 3c 7b ac 20 bb 86 48 3c 3c 67 3e d8 bb
       0.008859513 -0.002451687 0.0114919 -0.006599236

node_encoder.layers.4.running_mean f4 [64]
000000 76 72 1a be b0 eb 8e be 62 c5 e2 bd ce 27 3c 3c
       -0.15082726 -0.2791419 -0.11072804 0.0114841
000010 1d a4 b5 3c b3 b4 c3 be f2 50 0c 3e af bd 64 3d
       0.022172982 -0.382238 0.13702753 0.05584496
000020 3c d8 61 3d ae e7 3e 3e bf 43 80 be bd ef 3b be
       0.055137858 0.18643066 -0.25051686 -0.18353172
000030 a9 43 ae 3c 42 6b cf bd 71 ef 8d 3e f4 9c a5 3d
       0.021272497 -0.1012788 0.27721742 0.08086577
000040 2c 53 6c 3d 47 da e5 bd 02 09 2a be e7 7b 83 3e
       0.057696506 -0.11223274 -0.16604999 0.25680467
000050 cf 46 75 3c 6e 96 29 be 7d f0 90 3d 85 e5 3c 3e
       0.014970495 -0.1656129 0.070771195 0.1844693
000060 d0 fb 8a 3c e6 b9 1b be c8 a1 e2 bc 3c 36 e8 be
       0.016965777 -0.15207633 -0.027665034 -0.45353878
000070 bd 85 f3 3d 23 9e e8 3e 24 93 6f be b3 ae e4 be
       0.11890743 0.4543315 -0.23395973 -0.44664535
000080 b0 7c d9 bd 89 46 06 bf 39 a7 33 3e 43 6d 6c 3e
       -0.106194854 -0.5245138 0.17544259 0.23088555
000090 6f 7e 8d 3e 4a d1 b2 be e3 19 e8 3e d3 f9 f7 bd
       0.27635524 -0.349253 0.4533225 -0.12108197
0000a0 96 ac 89 3e 73 1f 0c be 21 7e f9 bd 56 96 bd 3d
       0.26889485 -0.13683872 -0.1218226 0.0925719
0000b0 71 51 ed bc 1e ad d4 3d 01 2f 3e 3e bd b7 ca be
       -0.028969498 0.10384582 0.18572618 -0.39593306
0000c0 6e 59 e8 bd 64 d9 bc bd e2 c9 65 be 58 5b a6 be
       -0.11345182 -0.092211515 -0.22440293 -0.32491565
0000d0 b6 d4 95 bd df 85 6e be 2f 03 2d bd 8d e3 c1 3d
       -0.07315962 -0.23293255 -0.042239364 0.0946723
0000e0 f1 81 4b be 0f 48 8a 3e 03 92 f7 3d 97 ff 85 3e
       -0.19873787 0.270081 0.120883964 0.26171562
0000f0 4e 52 fd bc e3 61 d1 3d e6 9b f0 3d 62 3f 20 3e
       -0.030923035 0.102237485 0.11748485 0.15649179

node_encoder.layers.4.running_var f4 [64]
000000 af c8 07 3e 55 13 c1 3d 32 a0 b5 3d 67 f8 e8 3d
       0.13260148 0.094275154 0.088684455 0.11375504
000010 ca 05 c5 3d bb 5d 15 3d ec f6 82 3e 4f ea 3c 3e
       0.09620245 0.03646634 0.2557901 0.18448757
000020 5b 51 4a 3e 99 86 b5 3d 4f 82 01 3d 74 a4 c0 3d
       0.19757597 0.08863563 0.031618413 0.09406367
000030 88 c0 38 3e 04 f1 3e 3e 09 38 2e 3d 10 f2 84 3d
       0.18042195 0.18646628 0.042533908 0.06491482
000040 2a da 01 3e af 4e 07 3e dc ac 4d 3d 6e 1e 6d 3d
       0.12680879 0.13213609 0.05021368 0.057890348
000050 87 79 ad 3d 4c 93 72 3e 03 f9 65 3e c5 1a c4 3c
       0.08470445 0.23689002 0.22458272 0.023938546
000060 29 00 08 3e 0c 53 23 3e fe 41 55 3e 44 1a 55 3d
       0.13281311 0.15949649 0.20825955 0.052027002
000070 b5 22 21 3d aa 7f 02 3e 33 d3 a2 3d a2 14 65 3e
       0.03933974 0.12744012 0.07950439 0.22371152
000080 83 a3 69 3d f3 49 84 3d 4a 72 97 3d 14 e9 f7 3d
       0.057040703 0.06459417 0.07394846 0.12105003
000090 f9 7d f9 3d f5 cf bf 3e d6 37 48 3e 89 09 6f 3d
       0.121822305 0.37463346 0.1955255 0.058358703
0000a0 08 29 02 3e 51 54 1f 3e 28 98 02 3e d7 63 75 3e
       0.12710965 0.15559508 0.12753356 0.23963867
0000b0 70 78 bf 3d 26 7b 16 3e 47 d9 02 3e b7 ac 2c 3e
       0.093491435 0.14695415 0.12778197 0.1686276
0000c0 f2 a9 f7 3d 6b cf bf 3d 78 47 c9 3d b4 0b 04 3e
       0.12092961 0.09365734 0.09828085 0.1289509
0000d0 dc 87 55 3e ad 7b c4 3d 46 0f 45 3e 5e 31 15 3e
       0.20852607 0.09593902 0.19244108 0.14569613
0000e0 45 ae 68 3e 7e a1 39 3d 03 d7 07 3e 2a 20 de 3d
       0.22722729 0.045320027 0.13265614 0.108459786
0000f0 b4 2f d8 3d 7e 99 4d 3e 1b 48 40 3e bd eb 16 3e
       0.10555974 0.20078084 0.18777506 0.14738365

node_encoder.layers.6.weight f4 [32, 64]
000000 9b 7c bd 3d bb de e4 bd 78 c5 9f bd 82 7c 78 bc
       0.09252282 -0.11175295 -0.07801336 -0.015166404
000010 a1 e9 f5 bd e1 68 ee bd 82 c1 df bd de 4d cf 3d
       -0.12007452 -0.11641098 -0.109255806 0.10122274
000020 97 e1 8a 3c 69 0b 2e bd 9b 48 49 bb e0 38 eb bd
       0.016953273 -0.04249135 -0.0030713442 -0.114854574
000030 bb f9 f4 bd 06 bd ba bd 95 6e 04 be fd 5f a0 3d
       -0.11961695 -0.091180846 -0.12932809 0.07830808
000040 b9 f5 41 bd 11 67 23 bd 49 ff e6 bd ef 1b 2e 3c
       -0.04735348 -0.039893214 -0.112791605 0.010626777
000050 4b f2 86 bc 7f 2a ba bd 6b 28 98 3d 30 7a ce 3d
       -0.016472956 -0.09090137 0.07429584 0.10081899
000060 26 d0 c9 bd 74 ba 9c 3d b9 fd 80 bc c4 e6 7f 3c
       -0.09854154 0.076527506 -0.015745984 0.015618984
000070 d6 7d 72 3d 83 fb f0 bc 3f 51 cc 3d d8 fc 8f 3d
       0.059202038 -0.029416805 0.09976434 0.07030648
000080 60 62 9f bd 60 11 88 bd 48 2f 07 be 71 ce 04 3d
       -0.077824354 -0.06643939 -0.1320163 0.03242344
000090 cd e7 d8 bd bd 75 c6 bd 06 bd a9 bd ae 35 02 be
       -0.105910875 -0.096904255 -0.082880065 -0.1271579
0000a0 c3 16 d9 bd c8 c3 e8 3d 4d f7 96 3d b8 df d5 3d
       -0.106000446 0.11365467 0.07371388 0.104430616
0000b0 ab 4c 7e bd f3 00 4a bd d5 e5 47 bd 2d 7c 0b bc
       -0.062084835 -0.04931731 -0.04880317 -0.0085134925
0000c0 8d 02 c6 bd 37 5e 6f 3c fc b4 a6 bd 27 7d 11 3d
       -0.09668455 0.014609865 -0.08139989 0.035519745
0000d0 82 ba d8 3d 7d c1 3c 3c 5e 3f ae 3d 4a b6 cd bd
       0.105824485 0.011520741 0.0850818 -0.100445345
0000e0 53 73 c6 bc 62 0b b9 bd cb 78 a5 bc c8 f5 5e bd
       -0.024224913 -0.09035374 -0.0201992 -0.054433614
0000f0 a3 f0 9c bd 3b f0 ef bd 55 b0 40 bd 66 0c 97 3c
       -0.07663085 -0.11715742 -0.047043163 0.01843853
000100 fa 32 7d bc a6 1c db bd 94 fc a1 3d a9 c7 a9 3d
       -0.015454048 -0.10698824 0.079095036 0.08290035
000110 61 52 95 bd 8b f3 85 3c 28 0e 9c 3d 89 db fd bd
       -0.07291103 0.016351482 0.076198876 -0.12395389
000120 ed ff d3 bd 3e 0f 87 3d 4a 66 dc 3b 95 88 43 3d
       -0.10351548 0.06594704 0.006726061 0.047737677
000130 aa e2 6e bd b3 75 9a 3c 39 57 9b 3d a8 24 df bc
       -0.058321632 0.018854951 0.07584996 -0.027239159
000140 1c 5b 3b bd b6 58 05 be 39 7d 90 bc e2 10 9a 3d
       -0.045741186 -0.13022122 -0.017637836 0.075227514
000150 77 b4 ff bd 2f c4 86 bb 1f f4 ac 3d 69 ed 89 bc
       -0.12485593 -0.0041127424 0.08445 -0.016836839
000160 43 bc 52 bd b7 77 40 bd 5d 68 4a bd 19 08 1b 3d
       -0.05144907 -0.04698917 -0.049415935 0.03784952
000170 47 f3 de bd 27 93 29 3d 21 15 82 bc f3 65 e9 39
       -0.10886245 0.0414001 -0.015879216 0.0004451718
000180 9f 53 af bb 3b 86 9f 3d fd bc a5 bd 8a 40 00 be
       -0.0053505446 0.07789274 -0.08092687 -0.1252462
000190 e0 ca ce bd fe 23 bb bd 3e 9b 87 bd 83 51 ec 3d
       -0.10097289 -0.09137724 -0.06621407 0.115389846
0001a0 b7 15 b4 bd ba ee 91 bd 61 70 c9 bd 43 69 83 bd
       -0.08793204 -0.071256116 -0.09835888 -0.064165615
0001b0 7b a1 2f 3b 9f d5 a8 bd 53 7f bd 39 d6 12 5e 3d
       0.002679913 -0.0824387 0.00036143753 0.054217182
0001c0 b9 60 c9 bc a0 a6 59 3d e4 6f 14 3d b9 04 fe 3d
       -0.024582254 0.05313742 0.03623952 0.124032445
0001d0 92 71 1f ba fc e0 d4 3d 27 9e c4 3d 69 64 7a 3d
       -0.0006082292 0.10394475 0.09600478 0.061130915
0001e0 3d 56 ab 3d 5c ec be bd 56 d3 96 bd 7f 9c 3c 3d
       0.08366058 -0.09322426 -0.07364528 0.046047684
0001f0 0e af 40 3d 30 26 cc 3d 04 35 9a bc b0 36 ee bc
       0.047041945 0.09968221 -0.018824108 -0.029078811
000200 f7 a2 a3 3d 83 f2 9d 3c 8f 5f fd 3d 40 f9 6e bd
       0.079900675 0.019280678 0.12371742 -0.058343172
000210 81 2b 11 bd 20 be 6c bb 46 82 77 3d 85 02 e4 bd
       -0.03544188 -0.0036124066 0.060426973 -0.11133293
000220 7b 63 3f bd bf df c2 3d 12 13 fe 3c c8 6c a5 3d
       -0.04672573 0.095153324 0.031014953 0.08077389
000230 6e ea 37 bd e6 72 9f bd 2c e1 b7 bd 3c 88 91 bd
       -0.044901304 -0.07785587 -0.08978495 -0.07106063
000240 c9 94 bc bd 82 45 85 3d 0e 55 3b 3d 8a 6b 96 bd
       -0.09208066 0.06507398 0.04573541 -0.0734473
000250 f3 e6 f3 3d c0 26 1c 3d 89 0d 24 3d 5e ed 67 bd
       0.119092844 0.038122892 0.04005197 -0.056622855
000260 db c1 9f 3d 7f 4d be bd 76 be c6 3d 62 a8 88 bd
       0.07800647 -0.09292125 0.09704296 -0.066727415
000270 71 b7 5a 3d 61 f6 57 bd 34 5e a0 3d b7 41 d6 bd
       0.0533976 -0.0527252 0.07830468 -0.10461753
000280 3e 99 c7 bc e9 48 2d bd 28 6d aa bd 72 51 68 bd
       -0.024365064 -0.04230586 -0.08321601 -0.056718297
000290 90 21 32 bd ea 66 93 3b 1a f9 ab 3d 2e 53 8d bc
       -0.04348904 0.0044983523 0.08397122 -0.017251577
0002a0 52 85 ec 3d d8 7f 58 bd cd 50 7a bd 46 b5 1b bc
       0.11548866 -0.052856296 -0.061112214 -0.009503668
0002b0 81 eb 97 bc 63 99 29 3d a9 e6 db 3d 94 eb 0d 3d
       -0.018544914 0.041406047 0.10737354 0.034648493
0002c0 f6 fd df bd 9d 04 3e bd b9 0b d0 bc 0f 0f db bd
       -0.10937111 -0.04639112 -0.025396215 -0.106962316
0002d0 75 8e 41 3d 7a 69 d1 3d ee 90 7a 3d 52 ed 00 3a
       0.047255 0.10225196 0.061173372 0.0004918176
0002e0 f4 8e 7f bc 7b 5a 91 bd 93 3d 88 bc 3b 5b e2 3d
       -0.0155980475 -0.07097336 -0.016630923 0.11052557
0002f0 35 9d 94 bd 0c fe ae 3c 79 6d ac bd 90 1b f0 bc
       -0.07256547 0.021361373 -0.08419318 -0.029310018
000300 07 ab 9f 3c 78 5b c1 bd 83 c5 17 3d ea f8 cf bd
       0.019490732 -0.094412744 0.037053596 -0.101548985
000310 37 17 3d bd ad b0 ba 3d 33 1a 01 3e ef 0b fc ba
       -0.046164718 0.091157295 0.1260765 -0.0019229631
000320 2c 46 bf bd da b1 bd bd 42 37 e2 bc 1f 61 90 bd
       -0.09339556 -0.09262438 -0.02761424 -0.070497744
000330 a0 c6 c3 3d ab 33 b3 bd a9 c0 b3 3d 66 5a 86 3c
       0.09559369 -0.08750089 0.087769814 0.016400527
000340 e2 ea 24 bd b8 73 db 3d fe 83 84 3d fe 6b 1c 3b
       -0.040263064 0.10715431 0.06470488 0.002386808
000350 e9 11 9c bd ce 2b 42 bd 31 be 3a 3d 55 6d de 3d
       -0.076206036 -0.047405057 0.045591537 0.10860697
000360 bb 70 3d bd bb f3 16 bd b4 f5 e9 bd a2 4a a7 3d
       -0.046250086 -0.036853533 -0.11423817 0.08168532
000370 3b 4e fb 3d 7b d7 a1 3d 8b 66 a2 bd 33 fd 99 3d
       0.12270781 0.07902428 -0.07929715 0.07518997
000380 c0 db 34 bd f9 e3 89 3d 4d 0f 8c 3d 1e df c3 bd
       -0.044154882 0.067329355 0.06838856 -0.095640406
000390 30 09 08 3d 54 fd 60 3d c6 05 86 bd 5f f8 ce 3d
       0.033211887 0.054929093 -0.0654407 0.10105967
0003a0 0d 06 b9 3d 48 0a e8 3d 63 38 c9 3b cb c7 89 bd
       0.09034357 0.11330086 0.006140755 -0.067275606
0003b0 52 d7 81 bd df d1 51 3d ee e3 e4 bc c2 bf b8 3d
       -0.06339897 0.05122554 -0.027940717 0.0902095
0003c0 bb 7b de 3d 70 0d 29 3c 50 29 e5 bd ac 88 3e 3d
       0.108634435 0.010318145 -0.1118952 0.04651706
0003d0 31 82 e1 3d 9a b6 f3 bc e2 ca 96 bd 3c de ec bc
       0.1101116 -0.029750157 -0.073629156 -0.028914563
0003e0 86 3b 40 3c a4 40 c8 bd 9b 06 6f 3d c2 b0 6a 3d
       0.0117329415 -0.09777954 0.05835591 0.057297476
0003f0 44 bb 12 bd b3 d1 13 bd 15 18 67 bd 5e fd d9 3d
       -0.03582312 -0.036088657 -0.05641945 0.10644029

node_encoder.layers.6.bias f4 [32]
000000 34 cd 0e 3c 31 1b 94 3a d8 b7 a3 3b 38 a1 05 b9
       0.008715916 0.0011299608 0.004996281 -0.00012743927
000010 e2 b0 b6 bc 2a da fc b4 2e 62 0a 3d 21 f5 ee 3c
       -0.022301141 -4.7097393e-07 0.033785038 0.029169621
000020 bf 5f da bb 86 fe 5e 3c df b6 1f 3a 68 53 26 38
       -0.006664246 0.013610488 0.00060926186 3.9655162e-05
000030 0d bf 8c 3b b0 55 17 37 56 07 09 38 a4 48 36 bc
       0.004295236 9.020252e-06 3.2670177e-05 -0.011125717
000040 ee 41 f3 b7 11 f8 25 3d dd dc 0d 3c fb 39 c3 bc
       -2.8998558e-05 0.040519778 0.008658615 -0.023831358
000050 94 73 bf b7 a7 2f 21 3c bd 1c 15 b9 e6 62 aa b7
       -2.2822795e-05 0.009838021 -0.00014220453 -2.0311632e-05
000060 5d 2d 0e 3b 19 e1 db 3c 04 55 08 3d 8a fb 85 bc
       0.002169452 0.026840733 0.033284202 -0.016355295
000070 dd b9 16 bd ff 3a 77 3c b0 f7 22 38 b1 92 06 3d
       -0.036798347 0.015089749 3.8854487e-05 0.03285474

edge_encoder.layers.0.weight f4 [64, 4]
000000 f2 a3 b6 3e 60 da 4a be f1 58 09 3e e5 05 24 3e
       0.35671955 -0.19809866 0.13412835 0.16017874
000010 0b a4 2b be 9c d2 e9 3e a2 b9 4b 3d ca 05 0d be
       -0.16761796 0.45668495 0.04973758 -0.1377174
000020 6f e1 e7 be bf 33 cd 3e bf 7e f9 be b3 8a ae 3e
       -0.4528918 0.40078542 -0.48729512 0.34090194
000030 f6 04 22 be ef e5 b0 bd 51 66 aa 3d bc c6 f5 3e
       -0.15822205 -0.08637606 0.083202966 0.48003185
000040 65 c5 9c be fe b2 ad be 3a b1 a2 3e 3b a9 51 be
       -0.3061935 -0.33925623 0.31775838 -0.20474713
000050 79 50 3b be ba 82 8d 3e df d4 5b be 44 11 87 3e
       -0.18292417 0.276388 -0.21467923 0.2638036
000060 3c 39 50 be b5 a2 c2 3e f4 bb f8 3e aa 6f 45 3d
       -0.20334333 0.3801476 0.48580897 0.048202194
000070 b0 34 1e be d5 53 89 3e 2e c8 1a 3e 05 00 f1 3b
       -0.15449786 0.2682177 0.15115425 0.0073547387
000080 07 6a d3 3e 2f f4 87 bc 79 94 48 3e 61 3d ee bd
       0.4129183 -0.016595928 0.19587888 -0.11632801
000090 e0 6f a8 bd 46 f2 f3 bc 8f 33 27 3d a1 12 69 3e
       -0.082244635 -0.02977861 0.040820654 0.22761013
0000a0 9f 67 c0 3e 83 d3 8f 3e d7 0e 58 be 2e 3d cc 3e
       0.37579057 0.28091058 -0.21099411 0.39890426
0000b0 b6 49 9e 3e 94 a1 44 3e 34 b3 7a 3d 07 10 80 be
       0.30915612 0.19202262 0.061206058 -0.25012228
0000c0 25 5c 9e be db 9a 8d 3c cd a2 b3 be a2 19 14 3e
       -0.30929676 0.017285755 -0.35085145 0.14462903
0000d0 93 17 e7 be ef ad e2 be 4b 51 5f be f9 82 7d 3e
       -0.45135173 -0.44273326 -0.21808355 0.24756993
0000e0 a6 df cf 3e f7 bb d5 be 85 1c 9b be 4c 40 ca 3d
       0.40600318 -0.41744968 -0.30295196 0.09875545
0000f0 57 d7 9f bd ad a5 cc be f5 ed 15 3e 03 ab bc be
       -0.07804745 -0.3997015 0.14641555 -0.36849222
000100 ab 4c 95 3b af 86 53 3e b3 c0 df 3e 11 5c c7 be
       0.0045562587 0.20656846 0.43701705 -0.3893743
000110 46 2f b1 3e 6e fa 88 3d 19 4a e2 3e 9d e0 db 3e
       0.3460638 0.06688391 0.44197157 0.42944804
000120 08 be d4 bd 1a 03 a7 bd 8e bc 04 be 98 a3 bf 3e
       -0.10387808 -0.081548885 -0.12962553 0.374295
000130 8e b1 5f be e3 48 a8 3e 22 e8 50 3e b2 2c e2 3e
       -0.21845075 0.32868108 0.20401052 0.44174725
000140 f7 56 b5 3e b8 1c c4 3e c9 57 cd be 40 96 58 be
       0.3541791 0.3830316 -0.40106037 -0.21151066
000150 a2 32 b5 be 7b c9 69 3e 18 f0 d8 3d 3d eb 40 3e
       -0.35390192 0.22830765 0.10592669 0.18839736
000160 52 bf 49 3e dc 08 fc 3c 50 4e 38 3e e1 96 89 be
       0.19701889 0.030765943 0.17998624 -0.26872924
000170 98 4e a3 3e ce 62 de be 85 8d e6 be c5 4e 08 3e
       0.318959 -0.43434757 -0.45029846 0.13311298
000180 dd c3 ee 3e 71 c4 29 be 16 c2 ec 3e 0e 1a 1d be
       0.46633807 -0.16578843 0.46241826 -0.1534197
000190 0e ed bd be 40 ab aa bd 81 ef 8e 3e 0e af 60 be
       -0.3709492 -0.083334446 0.27917102 -0.21941778
0001a0 34 15 ee 3e de 5c 6c be d5 11 60 be 04 da 43 be
       0.46500552 -0.23082301 -0.21881802 -0.19126135
0001b0 27 4d c5 be 96 20 e6 3e a2 29 91 be eb 55 47 be
       -0.38535425 0.44946736 -0.28352076 -0.19466369
0001c0 dd cb 0f be b6 a6 cd 3e 53 ae 82 3e 31 eb 2d 3e
       -0.14042611 0.40166253 0.25523624 0.1698425
0001d0 4d 9f 0f be fd 44 73 3e 6b 55 b4 3d 6e e2 c6 3e
       -0.14025612 0.23756786 0.08805355 0.38844627
0001e0 7c 1d ef 3d 95 de bc 3e 4d 33 a9 3e b2 98 a7 3d
       0.116755456 0.36888567 0.33046952 0.08183421
0001f0 45 c7 f4 be 79 a2 e6 3d d4 70 b8 be ee d8 9a 3d
       -0.4780828 0.11261458 -0.3602358 0.07560907
000200 4a 78 40 bd 3d 16 c1 3e 79 12 bd be e2 75 c0 be
       -0.046989717 0.3771228 -0.36928156 -0.37589937
000210 2e 2e 50 3e 9f ce b0 3e 5c 46 ec bd b7 0a 00 3e
       0.20330116 0.3453264 -0.115368575 0.12504087
000220 8a e9 cb 3e 8a fb 8e 3d 46 45 0e be 80 0b 8b 3e
       0.39826614 0.06981571 -0.13893613 0.2715721
000230 d9 d6 e9 3e 27 aa b7 bd 0d 67 a6 3e 37 4c 1d b9
       0.45671728 -0.08968001 0.32500497 -0.00015001079
000240 03 df af bd 3d f3 5c bd 0e d5 ee be f4 7d 55 3e
       -0.08587458 -0.053942908 -0.46646923 0.20848829
000250 8a 58 87 be fe 2c dd be 22 38 85 bd e0 cc 31 be
       -0.26434737 -0.4319839 -0.06504847 -0.1736331
000260 b2 99 96 be d5 e4 e4 bd 79 68 6c bd 6d 76 19 3e
       -0.29414135 -0.11176459 -0.05771682 0.14986582
000270 d1 d3 82 3d dd 15 66 bd 69 15 e4 3d 8d 82 aa be
       0.06388057 -0.056173194 0.11136896 -0.33302727
000280 dc 48 dc 3e 56 cc 65 3e a5 5d 9d 3e 7d 74 c9 be
       0.43024337 0.22441229 0.30735508 -0.39346686
000290 5d 7c ad 3e a1 c3 aa 3d cd dd ef be 46 ad de 3e
       0.33883944 0.083380945 -0.46848908 0.43491572
0002a0 46 78 33 bc d7 81 db 3d 59 4f c3 3e 42 d7 a0 3e
       -0.010953968 0.10718124 0.38146475 0.3141423
0002b0 44 16 e1 3e b5 fb ea be 54 f3 f4 3e b1 de d5 3d
       0.439623 -0.45895162 0.47841895 0.10442866
0002c0 ee 66 91 3c d5 82 ce be 37 96 79 be 4d 75 e7 3e
       0.017749276 -0.40334192 -0.24373709 0.4520668
0002d0 ff 34 c4 3e 9b f1 bf 3e 61 96 0e bd a7 92 7a be
       0.38321683 0.37489018 -0.03481138 -0.24470006
0002e0 c0 ba df 3d 7f c9 6a be 69 d0 a9 be 02 1e 19 3e
       0.109242916 -0.22928427 -0.33166817 0.14952853
0002f0 20 0a bf 3e 0a c1 c4 be 77 84 e0 be f0 23 77 3d
       0.37312412 -0.38428527 -0.43851063 0.060337007
000300 c6 07 3e be 51 df 81 be 6a 3a cc bd de fd b1 bc
       -0.18557653 -0.2536569 -0.09972079 -0.021727499
000310 c4 a3 14 be 50 2f b2 3e a4 d1 8c 3e 1c 5a 06 3e
       -0.14515597 0.34801722 0.27503693 0.13120311
000320 c7 40 21 be e1 6b e8 bc 11 d1 a0 3e da d9 bf 3c
       -0.15747367 -0.028371753 0.31409505 0.02341931
000330 1d 4d f6 be 7b 0d 86 3d b6 5a 84 3e 45 5b f4 bd
       -0.48105708 0.0654554 0.25850457 -0.11931471
000340 9b bb d8 bd 34 d8 9f bd f5 36 92 3e 21 bc b9 3e
       -0.10582658 -0.07804909 0.28557554 0.36276343
000350 49 0b ca be ef cb a4 3e 73 9b 4d 3e 21 26 26 3e
       -0.39461735 0.3218684 0.2007883 0.16225483
000360 95 07 96 be 3c 21 8d be de 23 f5 3e d2 06 ce 3d
       -0.2930266 -0.27564418 0.47878927 0.100598946
000370 35 d3 d9 bd 8e e5 c5 bd 2f 4b ac 3e e0 b1 dd bd
       -0.10635988 -0.09662925 0.3365111 -0.108249426
000380 23 0a ae 3e 7b ef 05 be 66 47 ef 3d d3 ef db 3d
       0.3399211 -0.13079636 0.1168354 0.10739102
000390 3f 18 80 be 17 fd 89 3c cd 63 cb 3d 14 0e f5 be
       -0.25018498 0.016844315 0.09931145 -0.47862303
0003a0 e1 c9 c0 bd 60 7f f5 3c 45 dc cf 3e e4 70 b6 3d
       -0.09413505 0.029967964 0.4059774 0.08908251
0003b0 8c 90 d8 be ef 00 20 be eb 56 f6 3e c5 d4 b2 bd
       -0.4229778 -0.15625356 0.48113188 -0.08731989
0003c0 84 ab be 3e 0f eb 2e 3d e5 9e a8 3e d4 75 42 be
       0.3724023 0.042704638 0.32933727 -0.1899026
0003d0 a9 17 f8 3e 51 d3 d3 3d 03 6f dc bd 6e f0 ae 3e
       0.4845555 0.1034304 -0.10763361 0.34167808
0003e0 c5 11 79 3e 2c b6 ae be 53 4d c0 bc 01 3a a6 3e
       0.24323185 -0.3412336 -0.023474371 0.32466128
0003f0 3d f4 ef 3d 57 59 18 be c7 59 ab be 4e cd aa be
       0.11716507 -0.1487783 -0.33466932 -0.3335976

edge_encoder.layers.0.bias f4 [64]
000000 54 83 3d 3e 81 73 0a 3e 2b db b1 be 53 23 cd bc
       0.18507129 0.13520624 -0.34737524 -0.025041258
000010 ea 46 34 3d aa 82 b1 be 77 b1 ab 3e a9 2b f1 b8
       0.04401294 -0.3467 0.33533832 -0.00011499908
000020 d8 e2 e7 bd 7b fa 04 3a 5c cd bc 3d 56 f0 00 3d
       -0.11322564 0.0005072725 0.09218857 0.031479202
000030 68 a0 c1 3e ca 07 41 3e 78 c2 bf 39 5c f2 55 3c
       0.37817693 0.18850628 0.0003657525 0.013058271
000040 2f fa 21 3d 80 9e de bd 03 73 aa be 51 11 c5 b8
       0.039545234 -0.10870075 -0.33290872 -9.3969174e-05
000050 53 85 cf bd e7 af c0 be 09 67 b8 3d 59 d1 f4 bd
       -0.101328515 -0.37634203 0.090040274 -0.119539924
000060 0f ee c3 3e 82 5c b9 3d 88 eb fa 3d 73 f2 77 3d
       0.38267562 0.090508476 0.12251955 0.060533952
000070 e8 3f d8 3d b6 ae 67 3e 83 8f 8b 3e a4 db 25 b9
       0.10559064 0.2262524 0.27257928 -0.00015817449
000080 90 9b 69 bd 57 4e 53 3d c4 d1 09 be 1f 65 ba b8
       -0.05703312 0.051588383 -0.13458925 -8.8880064e-05
000090 b3 e1 78 3d 37 ae 07 3e a4 6e c6 be be 92 d5 3d
       0.06076212 0.13250051 -0.38756287 0.104283795
0000a0 ed 89 d5 bd fd ef 83 be c5 ed fa bd d0 48 86 37
       -0.10426698 -0.25769034 -0.12252382 1.600795e-05
0000b0 c2 17 1e 3e d8 fe b2 be cb 87 54 3d bf 9e b5 3e
       0.1543875 -0.34960055 0.051887315 0.35472676
0000c0 b4 09 42 be f7 58 1c 3d 2b d2 e3 bd e3 f0 27 3d
       -0.18949014 0.03817078 -0.11124071 0.04100121
0000d0 ef f0 00 3e 0f 86 5b be 94 e8 1c 3d 59 cb cb 3e
       0.12591909 -0.21437858 0.03830774 0.3980358
0000e0 dd ee c1 b5 77 50 85 be c3 e3 c9 37 5c 7b fc 3c
       -1.4449139e-06 -0.26037952 2.4067127e-05 0.030820541
0000f0 35 f2 8a 3d aa 9e 78 38 a9 d7 e8 bc 90 6e 20 be
       0.067844786 5.9275575e-05 -0.028423147 -0.15667176

edge_encoder.layers.1.weight f4 [64]
000000 53 89 7b 3f 2c 0e 79 3f 6d bf 7c 3f ee 95 7f 3f
       0.98256415 0.9728725 0.9872959 0.9983815
000010 c2 05 7b 3f e8 01 7f 3f f4 34 7b 3f 51 ca 7e 3f
       0.9805566 0.99612284 0.98127675 0.9952746
000020 6b 8d 7e 3f bf bb 79 3f 0e a9 7f 3f 7c 1b 7c 3f
       0.99434537 0.975521 0.9986733 0.9847944
000030 15 33 79 3f c5 0f 77 3f 09 71 7c 3f 6e 43 7c 3f
       0.9734357 0.9650844 0.9860998 0.9854039
000040 2d cf 79 3f 6d 35 7c 3f 2e 1c 79 3f 52 08 7d 3f
       0.9758175 0.9851902 0.97308624 0.9884082
000050 e7 b6 79 3f cb 5d 7a 3f 70 f6 79 3f 77 74 7b 3f
       0.9754471 0.97799367 0.9764166 0.98224586
000060 5c 62 7b 3f ee cb 7c 3f fe 0b 79 3f 8f 69 7d 3f
       0.9819696 0.9874867 0.97283924 0.98989195
000070 c0 27 7a 3f 10 11 7b 3f ab c2 7c 3f 5e 0e 7c 3f
       0.97716904 0.9807291 0.9873454 0.9845942
000080 94 ea 7e 3f 4e 11 7b 3f 15 88 79 3f 3b ae 7c 3f
       0.9957669 0.9807328 0.9747327 0.98703355
000090 da 16 7c 3f 52 d9 7a 3f 69 ec 79 3f a0 d8 7b 3f
       0.9847237 0.97987854 0.9762636 0.9837742
0000a0 14 2c 7a 3f 8c 85 7b 3f 3b f6 7c 3f b8 70 7d 3f
       0.9772351 0.9825065 0.9881322 0.9900012
0000b0 e7 17 7e 3f 3b e3 7b 3f 1b e4 7e 3f e4 1b 7b 3f
       0.9925522 0.983936 0.9956681 0.9808943
0000c0 a6 6a 78 3f 50 ea 7a 3f 1a d9 7c 3f 3c e2 79 3f
       0.9703773 0.9801378 0.9876877 0.9761083
0000d0 cb 0f 77 3f f4 42 7d 3f 8a 69 7f 3f 55 b9 7d 3f
       0.96508473 0.9893029 0.99770415 0.9911092
0000e0 f8 a0 77 3f af 9a 7f 3f 44 17 7d 3f c8 f9 7c 3f
       0.96729994 0.99845403 0.98863626 0.98818636
0000f0 48 c1 7e 3f b7 b9 7f 3f 25 a6 79 3f 53 78 7e 3f
       0.99513674 0.99892753 0.9751914 0.9940235

edge_encoder.layers.1.bias f4 [64]
000000 d6 b7 61 bb a3 cb 8d bb f6 44 c7 bb ab 5d b5 3b
       -0.003444185 -0.004327254 -0.006081219 0.0055348477
000010 7b 40 56 ba b7 09 0e 3c de 4c 21 bc 06 34 da 3b
       -0.00081730605 0.008669308 -0.009844987 0.0066590337
000020 00 bb 57 3b 8b 2d 3e 3b d4 ee 02 3c da 50 1e bb
       0.0032917857 0.0029018845 0.007991511 -0.0024157078
000030 ba a1 e5 bb 45 57 4e bc ea eb 1c bc f2 f8 c1 bb
       -0.0070078047 -0.012594049 -0.009577731 -0.005919569
000040 af 14 7f bc af b9 02 bc 7d e8 8e bc e0 37 8e bb
       -0.015568896 -0.007978841 -0.017444843 -0.004340157
000050 7f 35 e7 bb d0 de 57 bc bf 53 f9 bb 22 b8 b2 bb
       -0.007055938 -0.013175681 -0.0076088603 -0.0054540792
000060 ca 01 71 bb 71 fd 0c bb f6 91 16 ba 6a f3 76 3b
       -0.0036774748 -0.0021513368 -0.0005743796 0.0037681707
000070 be bb 86 bb 01 5f e3 bb 07 ec 98 bb 7a fd cc bb
       -0.004111736 -0.0069388156 -0.0046668085 -0.0062558027
000080 bf b4 49 3b f7 a9 a3 bb 4d 0b 41 bc b1 ee fd bb
       0.00307779 -0.0049946266 -0.0117824795 -0.0077494015
000090 5c 77 23 bc 5b 1b 95 bc 9b 16 4f bb be aa 30 bc
       -0.009977188 -0.01820152 -0.0031599167 -0.010782896
0000a0 b0 b7 ea bb 82 20 30 bb 0c c5 9f bb a8 08 b9 3b
       -0.0071630105 -0.0026874845 -0.0048757847 0.005646784
0000b0 3d dc 55 3b 66 b2 15 bc 63 38 64 3b 2f 5b df bb
       0.0032632493 -0.009136772 0.0034823648 -0.00681629
0000c0 24 3f 68 bc 08 37 33 bc c3 94 22 bb 38 c4 48 bc
       -0.01417521 -0.010938413 -0.0024807907 -0.012253813
0000d0 72 ef 99 bc 31 a0 aa bb 54 b6 08 3c f9 34 71 bb
       -0.018790934 -0.0052070846 0.008344252 -0.0036805256
0000e0 c0 7e fe bb c2 3a 4e 3c 4a e5 53 bb 8d ee 1f 39
       -0.0077665746 0.012587251 -0.0032332712 0.00015252289
0000f0 29 a3 f7 3a df 05 d2 3b da 03 3f bc 39 86 90 b7
       0.001889323 0.0064093913 -0.011658633 -1.722864e-05
