gnn/gnn_outputs/final_model.pt (torch, 332229 bytes, 84 tensors)

node_encoder.layers.0.weight f4 [64, 3]
0.44730425 0.4728356 -0.14037865 0.53763944 -0.12247217 0.1049239 -0.26969674 0.35012183
0.51392895 -0.41258612 0.5139299 0.09268805 0.43251806 0.069306694 0.27272597 -0.08877323
0.43639398 0.0936781 -0.28352478 0.1515979 -0.24486537 -0.06430551 -0.22912253 0.38807836
-0.46943888 -0.25000203 -0.15989526 -0.33568472 0.057603586 -0.5801527 0.5165844 -0.4911887
0.4501568 0.09975058 -0.17535941 0.3639484 0.08500532 0.47068354 0.059322592 -0.18352497
0.1529246 -0.16059557 0.2408081 0.49146837 0.3508772 -0.23427607 0.34546107 0.10336108
0.2943428 -0.34387326 -0.5802747 -0.22000888 -0.45957404 0.46144193 0.16146345 0.23739946
0.19648477 -0.015985902 0.46100438 -0.4004761 0.030552568 -0.40031025 0.17176528 -0.19631587
0.17528932 -0.12292114 0.47908396 -0.34779745 -0.34089333 -0.35684004 0.50586796 0.18803479
0.5500392 -0.4742033 -0.5769621 -0.44995564 -0.39737973 0.22027339 0.20195839 0.48806193
-0.2897763 -0.37686816 0.32071742 -0.22793472 0.34984204 -0.14605522 0.32354936 -0.466892
-0.2808217 0.17864764 0.12404844 -0.14010556 0.35060072 0.38332483 -0.426311 -0.30472916
0.5290163 -0.20560484 -0.19931313 -0.5509754 -0.33699256 0.1418263 -0.08751238 -0.40699503
0.0032035785 -0.3971659 -0.5157601 -0.30050835 -0.50752515 -0.36667445 0.5737729 0.11127255
0.19094355 -0.5226413 -0.3728117 -0.19267495 0.09286117 -0.49754617 -0.24848816 -0.35479498
0.007537935 -0.22270684 -0.033154238 -0.40658653 -0.39935553 -0.3248122 -0.20339622 -0.45826104
0.47963348 -0.10870671 0.4848542 0.19319575 -0.48713866 0.4100964 -0.15607291 -0.22629207
-0.47915497 -0.5713037 0.17436247 -0.122659035 0.20765272 -0.4713062 0.4261194 -0.42604402
-0.10146248 0.11438903 0.3075148 0.48191717 0.52703243 -0.4418151 0.1424173 -0.26206523
-0.053896114 -0.43632704 0.5187772 -0.4305839 0.31520247 0.1915293 0.18919148 -0.30576646
0.5301846 0.12546946 0.076448634 -0.5145587 0.23501512 -0.08098056 -0.261383 0.49867696
0.13621235 -0.31751376 -0.28857547 -0.03595589 0.31928897 -0.14968622 -0.31867 -0.20253512
-0.44453844 0.19223985 0.43388322 -0.5579048 0.15086143 0.2832213 0.111696534 -0.21095648
0.29584682 0.30853784 0.21949427 -0.09911983 -0.15030713 0.066479415 -0.094988234 -0.17981482
00000000: 1005 e53e 8217 f23e 6cbf 0fbe bda2 093f
00000010: b0d2 fabd 57e2 d63d b115 8abe 2b43 b33e
00000020: d990 033f 7d3e d3be e990 033f 3bd3 bd3d
00000030: 0273 dd3e abf0 8d3d bda2 8b3e bdce b5bd
00000040: 086f df3e 4eda bf3d 292a 91be 7b3c 1b3e
00000050: fdbd 7abe 9bb2 83bd 199f 6abe 35b2 c63e
00000060: 4b5a f0be 4400 80be 95bb 23be dede abbe
00000070: bdf1 6b3d e384 14bf e03e 043f 167d fbbe
00000080: f47a e63e 084a cc3d 6b91 33be 7257 ba3e
00000090: 4517 ae3d 6ffd f03e 3ffc 723d f8ed 3bbe
000000a0: 4498 1c3e 2a73 24be 6696 763e bea1 fb3e
000000b0: 2da6 b33e 11e6 6fbe 46e0 b03e f9ae d33d
000000c0: 19b4 963e 2810 b0be e28c 14bf 024a 61be
000000d0: 4a4d ebbe 1e42 ec3e ad56 253e d818 733e
000000e0: 4e33 493e def4 82bc c408 ec3e 340b cdbe
000000f0: 6149 fa3c 77f5 ccbe 3de3 2f3e 0707 49be
00000100: 0b7f 333e 14be fbbd 7e4a f53e 8212 b2be
00000110: 9289 aebe bdb3 b6be 9080 013f 318c 403e
00000120: 5ecf 0c3f c6ca f2be cab3 13bf 9660 e6be
00000130: 5b75 cbbe 598f 613e 2ece 4e3e 41e3 f93e
00000140: 8f5d 94be ddf4 c0be 1335 a43e b867 69be
00000150: 7f1e b33e 808f 15be 43a8 a53e 780c efbe
00000160: ddc7 8fbe 68ef 363e 1c0d fe3d d577 0fbe
00000170: f081 b33e 2743 c43e 6f45 dabe 7605 9cbe
00000180: 9d6d 073f 138a 52be be18 4cbe b90c 0dbf
00000190: 4a8a acbe ea3a 113e b139 b3bd a761 d0be
000001a0: 21f3 513b 5459 cbbe db08 04bf 3bdc 99be
000001b0: 2bed 01bf c1bc bbbe c8e2 123f dde2 e33d
000001c0: b586 433e d2cb 05bf 2de1 bebe 954c 45be
000001d0: ff2d be3d 5fbe febe ae73 7ebe b0a7 b5be
000001e0: c800 f73b 430d 64be bdcc 07bd 1c2c d0be
000001f0: 5478 ccbe c94d a6be 1947 50be 31a1 eabe
00000200: 8592 f53e a0a1 debd cf3e f83e 1bd5 453e
00000210: 3d6a f9be 28f8 d13e 94d1 1fbe 1cb9 67be
00000220: cd53 f5be f640 12bf 138c 323e a934 fbbd
00000230: eaa2 543e 0c4f f1be 522c da3e 7122 dabe
00000240: 90cb cfbd cc44 ea3d 9472 9d3e d9bd f63e
00000250: 99eb 063f 9735 e2be d7d5 113e 6a2d 86be
00000260: 2cc2 5cbd 4266 dfbe 95ce 043f 7e75 dcbe
00000270: 3862 a13e 4220 443e 69bb 413e 6c8d 9cbe
00000280: 2eba 073f 117b 003e 1a91 9c3d 1eba 03bf
00000290: cea7 703e 23d9 a5bd fed3 85be 9652 ff3e
000002a0: 407b 0b3e 2a91 a2be 2ac0 93be 7c46 13bd
000002b0: d879 a33e 5847 19be b728 a3be 5e65 4fbe
000002c0: 8b9a e3be 86da 443e f125 de3e d9d2 0ebf
000002d0: 6b7b 1a3e 6202 913e 27c1 e43d fa04 58be
000002e0: 3c79 973e acf8 9d3e 1bc3 603e 56ff cabd
000002f0: 1dea 19be 5c26 883d 3189 c2bd 6021 38be

node_encoder.layers.0.bias f4 [64]
0.27428523 0.40002728 -0.00080116466 -0.046304937 -3.0692692e-05 -2.0394587e-05 0.054457694 0.074893855
-0.42799076 -0.12269593 0.39010996 0.13388768 -0.00018487325 -0.25364512 -0.25871566 -0.4208186
-0.099230714 0.10556785 0.27348804 0.17402819 -0.4140426 -0.25281978 -0.016872428 0.4618933
0.0120993415 -0.063854225 0.14728448 -0.12912843 -0.27886754 0.325946 -0.17011201 -0.035114385
-0.47763368 0.29139477 0.3417826 0.12013632 -0.30733463 -0.4730952 -0.37298322 0.33496723
0.18431845 0.38975143 0.20895536 0.060865693 -7.160018e-06 -0.34343797 -0.39845368 -0.44351608
0.14488731 -0.19043697 -0.035382498 -0.23812114 -0.026933713 -0.31108478 -0.2823933 0.10232369
-0.08386737 0.26186702 -0.09647487 -0.3280353 -0.024423737 -0.18694603 -0.08857779 -0.45318362
00000000: 1d6f 8c3e 60d0 cc3e 4005 52ba 3faa 3dbd
00000010: 07bc 00b8 0b15 abb7 080f 5f3d f361 993d
00000020: 9b21 dbbe 0148 fbbd 7ebc c73e da19 093e
00000030: 89da 41b9 c6dd 81be 6176 84be 8975 d7be
00000040: 7939 cbbd f533 d83d a006 8c3e 7234 323e
00000050: 64fd d3be 9871 81be 0c38 8abc 477d ec3e
00000060: 513c 463c 01c6 82bd bed1 163e 3e3a 04be
00000070: bac7 8ebe 65e2 a63e d831 2ebe 1ad4 0fbd
00000080: 678c f4be b231 953e 21fe ae3e 080a f63d
00000090: f75a 9dbe 8939 f2be a8f7 bebe d380 ab3e
000000a0: fabd 3c3e 808d c73e 65f8 553e 4e4e 793d
000000b0: 1640 f0b6 1ad7 afbe 1f02 ccbe 8a14 e3be
000000c0: 575d 143e e901 43be 3ded 10bd 07d6 73be
000000d0: 17a4 dcbc 8146 9fbe db95 90be 158f d13d
000000e0: a8c2 abbd 6f13 863e 9e94 c5bd 3ef4 a7be
000000f0: 4a14 c8bc c86e 3fbe 4668 b5bd af07 e8be

node_encoder.layers.1.weight f4 [64]
1.0075517 0.99715155 0.9902666 0.99986476 0.9928258 1.0052456 0.9804704 1.0031319
0.99404395 0.99226195 0.9962862 1.001967 1.0003216 1.0172839 0.9895745 0.99903417
0.9824589 0.99315995 0.98698896 1.000664 1.0052599 0.9877662 1.0043359 0.9936406
1.0050225 1.0093715 1.000726 1.0163037 0.9938632 1.0034521 1.0003979 1.0063024
0.9981418 1.0054086 1.0147927 1.0036896 1.009544 1.0082374 0.99591625 0.9936596
1.004844 0.9976023 1.0045776 0.99862903 0.9974597 0.9900863 1.0035661 1.005491
0.99601865 0.9926924 1.01416 1.0131996 0.98454225 1.0014008 0.99237335 0.99143463
0.98327285 0.9952382 0.99047214 1.0045564 0.9910252 0.9874379 0.9879616 0.9850101
00000000: 74f7 803f 5345 7f3f 1d82 7d3f 23f7 7f3f
00000010: d529 7e3f e3ab 803f 1c00 7b3f a066 803f
00000020: aa79 7e3f e104 7e3f 9d0c 7f3f 7440 803f
00000030: 8a0a 803f 5c36 823f c154 7d3f b4c0 7f3f
00000040: 6d82 7b3f bb3f 7e3f 4fab 7c3f c215 803f
00000050: 5bac 803f 3fde 7c3f 148e 803f 3b5f 7e3f
00000060: 94a4 803f 1633 813f ca17 803f 3d16 823f
00000070: d26d 7e3f 1e71 803f 0a0d 803f 84ce 803f
00000080: 3986 7f3f 3bb1 803f bae4 813f e778 803f
00000090: bd38 813f ec0d 813f 5ef4 7e3f 7a60 7e3f
000000a0: ba9e 803f dd62 7f3f 0096 803f 27a6 7f3f
000000b0: 8559 7f3f 4c76 7d3f db74 803f eeb3 803f
000000c0: 14fb 7e3f 1721 7e3f ffcf 813f 86b0 813f
000000d0: f60a 7c3f e72d 803f 2e0c 7e3f a9ce 7d3f
000000e0: c5b7 7b3f eec7 7e3f 958f 7d3f 4e95 803f
000000f0: d4b3 7d3f bbc8 7c3f 0deb 7c3f 9f29 7c3f

node_encoder.layers.1.bias f4 [64]
0.0019218975 -0.004001138 -0.008680092 0.018760186 -0.016671527 0.009294971 -0.026134586 0.006958177
-0.027834032 -0.004794887 0.005255264 -0.0044311653 0.0025110207 0.0022983986 -0.0032471435 0.0077767805
-0.005219354 0.0017165487 -0.009698397 -0.004079777 -0.009069662 -0.007875819 0.002060239 0.0020606993
-0.0005725056 -0.006512917 0.019718543 0.01416947 -0.00844626 -0.0052789017 0.0047180005 0.0036151384
-0.0036013774 -0.011453971 -0.00534778 -0.0033825687 0.009050301 0.008272728 -0.0042975615 0.00075640803
0.006760246 -0.012147814 -0.0046876282 0.008516796 0.0056280536 0.0022483305 -0.0016091797 -0.009773508
0.0034386965 -0.0044979923 0.0095187975 0.023236148 0.0033550707 0.0070689637 -0.010614731 -0.033440992
-0.008625957 -0.005595972 -0.009857806 0.010295094 -0.0041107186 0.00988084 0.0007103267 -0.0135647915
00000000: 2ee8 fb3a fa1b 83bb f236 0ebc f6ae 993c
00000010: ba92 88bc ef49 183c 3318 d6bc 6b01 e43b
00000020: 3204 e4bc 6d1e 9dbb 5a34 ac3b 4f33 91bb
00000030: f08f 243b bba0 163b 07ce 54bb 5dd4 fe3b
00000040: 1d07 abbb d1fd e03a 06e6 1ebc a6af 85bb
00000050: eb98 14bc 9409 01bc 1305 073b cc0c 073b
00000060: 3314 16ba 4f6a d5bb c888 a13c 1127 683c
00000070: 2f62 0abc a3fa acbb 7599 9a3b f5eb 6c3b
00000080: 1605 6cbb 70a9 3bbc 6e3c afbb 16ae 5dbb
00000090: b747 143c 568a 073c 8fd2 8cbb af49 463a
000000a0: 0e85 dd3b a007 47bc ad9a 99bb 088a 0b3c
000000b0: 896b b83b ba58 133b 1ceb d2ba 1021 20bc
000000c0: c15b 613b e563 93bb bbf4 1b3c bc59 be3c
000000d0: bfe0 5b3b c4a2 e73b 69e9 2dbc 6cf9 08bd
000000e0: e353 0dbc 6a5e b7bb a382 21bc c1ac 283c
000000f0: 35b3 86bb 3fe3 213c 3835 3a3a dc3e 5ebc

node_encoder.layers.1.running_mean f4 [64]
0.7320842 0.6649238 0.3388834 0.09936465 0.41053703 0.27104568 -0.12404245 0.1037946
-0.915484 -0.56676173 0.59515357 0.26977655 0.3654414 -0.34276378 0.34788236 -0.28158846
-0.46040884 -0.051175933 0.61019903 0.24708714 -0.5605502 -0.3152592 -0.15837148 0.6883532
-0.28822178 -0.43423748 0.4083095 -0.25058484 -0.022514554 0.004297093 -0.0143389935 -0.25700808
-0.43442395 -0.12788022 0.050802305 -0.5577291 -0.50725776 -0.57162285 -0.6439107 -0.25825527
0.037824944 -0.23325512 0.071547374 0.40573373 -0.08307944 -1.0571136 -0.279675 -0.65227526
0.32495612 0.15481497 -0.15275395 -0.37353778 0.35180247 -0.08389441 -0.44252852 0.15985936
-0.36101186 0.366773 -0.62174153 -0.25198165 0.2847747 0.040272545 -0.115983255 -0.5741154
00000000: df69 3b3f 7238 2a3f 2082 ad3e b27f cb3d
00000010: e931 d23e 80c6 8a3e f809 febd 4392 d43d
00000020: 295d 6abf 4c17 11bf fc5b 183f 2720 8a3e
00000030: 231b bb3e bc7e afbe a31d b23e 5d2c 90be
00000040: b5ba ebbe db9d 51bd 0136 1c3f 6904 7d3e
00000050: 3880 0fbf a769 a1be 222c 22be ea37 303f
00000060: ce91 93be 6054 debe f10d d13e a84c 80be
00000070: 7170 b8bc a1ce 8c3b 19ee 6abc 9096 83be
00000080: d16c debe 08f3 02be 1416 503d 56c7 0ebf
00000090: a5db 01bf e055 12bf 55d7 24bf 093a 84be
000000a0: 54ee 1a3d 6eda 6ebe 6e87 923d 55bc cf3e
000000b0: 8e25 aabd 804f 87bf 9031 8fbe 83fb 26bf
000000c0: a660 a63e d187 1e3e 886b 1cbe 5840 bfbe
000000d0: 741f b43e d5d0 abbd 1993 e2be 2cb2 233e
000000e0: 8cd6 b8be acc9 bb3e 742a 1fbf bd03 81be
000000f0: fdcd 913e d3f4 243d a188 edbd 3af9 12bf

node_encoder.layers.1.running_var f4 [64]
0.042664047 0.022752889 0.044621952 0.033823393 0.023331065 0.018659396 0.013435231 0.021399103
0.02810464 0.044509172 0.05721433 0.017175278 0.022679918 0.006701097 0.043951508 0.014792383
0.05312702 0.04765603 0.012537561 0.035978615 0.017522577 0.00646477 0.0382267 0.033763677
0.075840436 0.039007094 0.035915907 0.022632683 0.021012746 0.03012012 0.015591272 0.035221685
0.027209524 0.039796256 0.01685696 0.052045133 0.071070835 0.033957213 0.016512195 0.041322783
0.0047520725 0.043198697 0.048638538 0.026217142 0.031158762 0.06470279 0.0076973606 0.047468856
0.012232446 0.06934714 0.007473226 0.052831814 0.016358826 0.031653836 0.029485565 0.033619516
0.019426303 0.0114822425 0.034821913 0.05474014 0.011714437 0.021013483 0.0066209836 0.0046504363
00000000: 7fc0 2e3d 4464 ba3c 82c5 363d 668a 0a3d
00000010: ca20 bf3c 97db 983c 711f 5c3c 2c4d af3c
00000020: b43b e63c 404f 363d 9359 6a3d 2bb3 8c3c
00000030: 3ccb b93c e094 db3b 7f06 343d c05b 723c
00000040: b89b 593d f832 433d 586a 4d3c 505e 133d
00000050: 828b 8f3c 6cd6 d33b 9a93 1c3d c84b 0a3d
00000060: 3b52 9b3d e7c5 1f3d 8f1c 133d 2d68 b93c
00000070: ec22 ac3c 78be f63c 8972 7f3c 9d44 103d
00000080: 82e6 de3c 6601 233d 9b17 8a3c 472d 553d
00000090: 968d 913d b816 0b3d 9544 873c 1442 293d
000000a0: 46b7 9b3b 1ef1 303d 3439 473d 55c5 d63c
000000b0: a940 ff3c e582 843d 243a fc3b b46e 423d
000000c0: 996a 483c e005 8e3d f7e1 f43b 2c66 583d
000000d0: f202 863c 74a7 013d b68b f13c 9eb4 093d
000000e0: e923 9f3c 0420 3c3c 6ca1 0e3d 3237 603d
000000f0: e9ed 3f3c 7824 ac3c d6f4 d83b b062 983b

node_encoder.layers.3.weight f4 [64, 64]
0.059195653 -0.07688908 0.05234564 0.0503057 0.08063976 -0.10204165 0.081685886 -0.0687799
0.04292775 0.116737515 -0.007865863 -0.008180102 -0.036589734 -0.110580675 0.050027292 -0.13072212
0.088221684 0.08196366 0.10776105 -0.032306023 -0.09160624 0.021513594 0.080729924 -0.1313097
-0.017011795 -0.08413376 -0.016880138 -0.068207994 -0.05553392 -0.049143415 -0.12674291 0.1140627
0.11716756 -0.028695641 -0.0061481697 -0.048224084 -0.13240291 -0.11219361 0.03711872 -0.070566475
-0.07035348 -0.007723406 -0.051402386 -0.047110353 -0.002088131 -0.019752553 -0.04481897 -0.06595725
-0.11295414 0.100174785 -0.03811417 0.028233081 -0.054241657 0.0038878408 0.12786372 0.046735063
-0.09771276 0.045439918 0.12085993 0.033492584 0.07347455 0.11369149 -0.0072660837 0.03619597
-0.10002894 -0.018933631 0.10120005 0.06272653 -0.068407364 -0.09512953 -0.09512406 -0.10950664
-0.09613657 -0.036447737 0.09214249 0.033030305 -0.09581218 -0.11208086 0.074056156 -0.08949851
-0.008376855 0.07189627 -0.044348355 -0.024222452 -0.0013754684 -0.04300844 -0.054701675 -0.10610939
-0.092465065 -0.063779525 0.10916521 -0.073742576 -0.074914075 0.032848954 0.046632204 0.077373765
0.10242515 0.07075835 -0.11481065 0.017186856 0.08772177 -0.020220343 -0.072940126 0.12023702
-0.037520573 -0.066276096 -0.10062037 0.014047963 0.041134153 0.032991245 0.03424198 -0.10684923
-0.101206765 -0.009633648 0.123137414 0.059638616 -0.06528924 -0.0131282965 -0.08265425 -0.046257824
0.030528503 0.056236237 0.1044507 -0.12450748 0.086750306 -0.07983195 0.05524055 0.11235901
-0.0032655934 0.1257265 -0.120996445 -0.03513228 0.08249293 -0.022119144 -0.017555509 -0.05910738
0.08442968 0.06871348 0.038116183 -0.07707396 -0.10293775 0.021427276 0.033205148 -0.045697507
-0.033044383 0.07710809 0.0094873775 0.012102226 -0.035753395 -0.10443574 -0.1102301 -0.047748335
-0.06267961 0.030725965 -0.034862395 -0.040062286 0.12406178 0.03577523 0.08234993 -0.052350737
-0.041109264 0.038573604 -0.08996157 -0.08464502 -0.014368653 -0.041733418 -0.10086099 0.08135923
0.09542606 0.020525679 -0.028924774 -0.11129529 -0.035076793 0.036544003 0.05585286 -0.008026244
-0.061538577 0.06854232 -0.09868311 0.08675314 -0.04366346 0.012414391 -0.02947446 0.007859092
-0.036559902 0.09785495 0.004326982 0.10172223 0.11404856 -0.07773628 -0.088204846 0.103424646
0.09055808 -0.08703904 -0.006908915 -0.1312251 -0.095572345 0.014925932 0.020803912 0.030319544
-0.032014318 0.10262199 0.025178598 -0.0678545 -0.012942465 0.018222068 0.04859608 -0.09552203
0.042757027 -0.05806811 -0.09771329 -0.07783934 0.12794946 0.0947044 0.119162716 0.066928424
0.10102175 -0.0121735595 -0.07726431 0.050320927 -0.057820555 -0.08075583 -0.033964965 0.037025418
0.06857393 -0.045123298 -0.06650019 0.020738114 -0.07038479 -0.09167372 0.068107925 -0.023224795
0.121530846 0.12378589 0.04324696 0.039936338 0.017208036 0.0008830162 -0.0023332967 -0.010004772
0.04936441 0.10774478 -0.02287342 -0.064057454 -0.025283225 -0.06847654 0.028719082 0.09677364
0.10817453 0.04839984 -0.09860417 -0.07631281 -0.029092737 -0.018198196 0.011454722 -0.11940895
00000000: 2477 723d 0678 9dbd 6268 563d 5a0d 4e3d
00000010: 7526 a53d 36fb d0bd ee4a a73d 7adc 8cbd
00000020: 02d5 2f3d 1414 ef3d d2df 00bc d605 06bc
00000030: 1edf 15bd 1f78 e2bd 6be9 4c3d 05dc 05be
00000040: 92ad b43d 90dc a73d d3b1 dc3d 5253 04bd
00000050: 0d9c bbbd 473d b03c bb55 a53d 0d76 06be
00000060: 525c 8bbc 524e acbd 3748 8abc a2b0 8bbd
00000070: 8977 63bd 9b4a 49bd e5c8 01be b499 e93d
00000080: 8cf5 ef3d 1f13 ebbc 9676 c9bb 9e86 45bd
00000090: a194 07be c3c5 e5bd cd09 183d 2885 90bd
000000a0: 7c15 90bd a014 fdbb 4f8b 52bd c9f6 40bd
000000b0: 06d9 08bb 1bd0 a1bc 1994 37bd 9814 87bd
000000c0: 8054 e7bd 7028 cd3d 9b1d 1cbd 1049 e73c
000000d0: 802c 5ebd 25cb 7e3b b5ee 023e 446d 3f3d
000000e0: a11d c8bd 351f 3a3d 6985 f73d 852f 093d
000000f0: d379 963d 15d7 e83d 5418 eebb 3a42 143d
00000100: f9db ccbd b41a 9bbc f941 cf3d c476 803d
00000110: 2919 8cbd 45d3 c2bd 67d0 c2bd 0445 e0bd
00000120: 40e3 c4bd 394a 15bd 34b5 bc3d c94a 073d
00000130: 2d39 c4bd a68a e5bd c1aa 973d ff4a b7bd
00000140: 143f 09bc 5a3e 933d 9fa6 35bd 2a6e c6bc
00000150: 1049 b4ba 9e29 30bd dd0e 60bd e14f d9bd
00000160: 535e bdbd d79e 82bd 0292 df3d 5906 97bd
00000170: 8d6c 99bd a08c 063d 6901 3f3d 2376 9e3d
00000180: 47c4 d13d c1e9 903d d921 ebbd 73cb 8c3c
00000190: 79a7 b33d 22a5 a5bc a261 95bd d43e f63d
000001a0: 2caf 19bd c3bb 87bd 0d12 cebd 6d29 663c
000001b0: 497c 283d d421 073d 5241 0c3d c5d3 dabd
000001c0: 7e45 cfbd 73d6 1dbc 782f fc3d 9f47 743d
000001d0: 5db6 85bd 1118 57bc a246 a9bd d878 3dbd
000001e0: e916 fa3c f857 663d 40ea d53d c7fd febd
000001f0: 25aa b13d ef7e a3bd ea43 623d 7b1c e63d
00000200: 9103 56bb 73be 003e fccc f7bd dee6 0fbd
00000210: 0ef2 a83d 3533 b5bc 92d0 8fbc 951a 72bd
00000220: 78e9 ac3d a7b9 8c3d b71f 1c3d f4d8 9dbd
00000230: 07d1 d2bd 4188 af3c 1f02 083d 4f2d 3bbd
00000240: 8c59 07bd d9ea 9d3d f270 1b3c 6a48 463c
00000250: 2772 12bd 68e2 d5bd 52c0 e1bd c293 43bd
00000260: 2b5e 80bd 05b5 fb3c dfcb 0ebd 5a18 24bd
00000270: 1a14 fe3d 0c89 123d 15a7 a83d ba6d 56bd
00000280: 3062 28bd 5bff 1d3d c63d b8bd 5e5a adbd
00000290: 806a 6bbc a9f0 2abd 3590 cebd ab9f a63d
000002a0: bd6e c33d 7825 a83c a6f3 ecbc c9ee e3bd
000002b0: afac 0fbd 2aaf 153d f8c5 643d 8280 03bc
000002c0: e00f 7cbd ea5f 8c3d 5f1a cabd a1ab b13d
000002d0: 75d8 32bd bb65 4b3c 6c74 f1bc 6cc3 003c
000002e0: d6bf 15bd 2d68 c83d 5bc9 8d3b bf53 d03d
000002f0: 4b92 e93d 3334 9fbd bea4 b4bd 4dd0 d33d
00000300: 8476 b93d 8641 b2bd 2e64 e2bb df5f 06be
00000310: 6fbb c3bd e58b 743c f76c aa3c b160 f83c
00000320: 7221 03bd 7a2b d23d 5943 ce3c 4df7 8abd
00000330: a20c 54bc 7246 953c af0c 473d 0ea1 c3bd
00000340: fe21 2f3d d4d8 6dbd e81d c8bd 3b6a 9fbd
00000350: 2f05 033e 61f4 c13d 950b f43d c511 893d
00000360: 7ee4 ce3d 9c73 47bc c03c 9ebd 511d 4e3d
00000370: 3fd5 6cbd 5063 a5bd d91e 0bbd f7a7 173d
00000380: 7d70 8c3d 35d3 38bd 4031 88bd fae2 a93c
00000390: e725 90bd 6ebf bbbd 2b7c 8b3d ed41 bebc
000003a0: 2ae5 f83d 7583 fd3d b923 313d 4994 233d
000003b0: def7 8c3c 377a 673a 39ea 18bb 0eeb 23bc
000003c0: 5632 4a3d 4ca9 dc3d 0a61 bbbc 8e30 83bd
000003d0: c41e cfbc 6e3d 8cbd 4844 eb3c 4231 c63d
000003e0: 9c8a dd3d e93e 463d fcf0 c9bd e449 9cbd
000003f0: e453 eebc 6214 95bc 96ac 3b3c ae8c f4bd

node_encoder.layers.3.bias f4 [64]
7.588542e-07 0.0009961012 -0.000103277955 -0.016606795 -0.00020265639 0.0067932014 -0.0030954003 -0.010667794
-0.013061856 -0.0017184904 -4.7443136e-06 -4.2660406e-05 -2.3116297e-06 -0.00010338581 0.008711876 2.6454787e-05
-0.0062088873 -0.000101759426 -0.006644584 0.00044732477 -0.03688203 -6.773408e-05 -0.02083298 -0.00037881144
0.013368623 -0.018156134 -0.0034121834 -0.022194518 8.610754e-05 3.361574e-05 -0.002896046 0.007641949
-7.5628326e-05 -0.032906327 -2.6564305e-05 -0.00018751944 7.373744e-05 0.004868934 -6.405149e-05 -0.014103826
0.01482235 -0.033961516 0.00042302636 -0.00037898056 0.030989949 0.039667986 -0.00018683737 -0.0003811994
-0.030437727 -3.9371876e-05 0.00023559839 -2.557647e-05 -0.011136706 0.00014849595 0.0029150154 0.021231052
8.811632e-05 0.033908114 -0.03705094 2.163103e-05 -0.0004117196 0.00014185665 0.001200899 -0.011751045
00000000: 10b4 4b35 9c8f 823a ee96 d8b8 f90a 88bc
00000010: 2980 54b9 8199 de3b 33dc 4abb f9c7 2ebc
00000020: 6501 56bc f83e e1ba 5831 9fb6 43ee 32b8
00000030: 7f21 1bb6 d6d0 d8b8 42bc 0e3c 39eb dd37
00000040: ec73 cbbb ad67 d5b8 cfba d9bb ea86 ea39
00000050: 9d11 17bd 750c 8eb8 eda9 aabc 369b c6b9
00000060: 1208 5b3c 2cbc 94bc f09e 5fbb 47d1 b5bc
00000070: a294 b438 a0fe 0c38 97cb 3dbb 5169 fa3b
00000080: a69a 9eb8 c9c8 06bd 69d6 deb7 dea0 44b9
00000090: 7da3 9a38 948b 9f3b 6253 86b8 bc13 67bc
000000a0: 71d9 723c 3b1b 0bbd a3c9 dd39 e9b1 c6b9
000000b0: a2de fd3c e67a 223d c6e9 43b9 b8db c7b9
000000c0: 8a58 f9bc 3b23 25b8 f60a 7739 0d8d d6b7
000000d0: bb76 36bc 94b5 1b39 d809 3f3b beec ad3c
000000e0: 17cb b838 3ce3 0a3d bac2 17bd 4974 b537
000000f0: 12dc d7b9 5bbf 1439 7c67 9d3a 7487 40bc

node_encoder.layers.4.weight f4 [64]
0.9859835 1.0089782 0.9949022 0.99758255 0.9979661 1.0002636 1.0036623 1.0019065
0.9992531 0.99495864 0.9823844 1.0084232 0.9926023 0.9936411 1.0016316 0.9861381
1.0001168 1.006872 0.9886624 0.99653745 1.0063758 1.008187 0.99635744 1.0084578
1.0140322 1.0196784 1.0037861 1.0080827 0.9828806 0.9922712 0.98823243 0.97756267
1.0016245 1.0090114 1.007906 1.0061992 0.998547 0.990462 0.9945878 1.0192271
0.9978767 0.99683017 0.9863976 0.99555373 1.0072156 1.0127386 1.0002246 0.9960574
1.0104452 0.99218076 1.0023069 0.9921524 0.9927627 0.9996194 0.99218905 1.0074915
0.9920238 1.0059634 0.98902124 0.9986005 1.0065061 0.9977573 0.9966092 0.99722445
00000000: 6a69 7c3f 3326 813f e9b1 7e3f 9261 7f3f
00000010: b57a 7f3f a308 803f 0278 803f 793e 803f
00000020: 0dcf 7f3f 9cb5 7e3f 8b7d 7b3f 0314 813f
00000030: 2f1b 7e3f 435f 7e3f 7735 803f 8c73 7c3f
00000040: d403 803f 2fe1 803f fb18 7d3f 141d 7f3f
00000050: ecd0 803f 460c 813f 4811 7f3f 2515 813f
00000060: cfcb 813f d284 823f 107c 803f db08 813f
00000070: 109e 7b3f 7c05 7e3f cdfc 7c3f 8c41 7a3f
00000080: 3b35 803f 4927 813f 1003 813f 23cb 803f
00000090: c7a0 7f3f eb8e 7d3f 4e9d 7e3f 0976 823f
000000a0: d974 7f3f 4330 7f3f 8e84 7c3f 9cdc 7e3f
000000b0: 71ec 803f 6ba1 813f 5c07 803f 9efd 7e3f
000000c0: 4556 813f 8fff 7d3f 984b 803f b3fd 7d3f
000000d0: b225 7e3f 0fe7 7f3f 1a00 7e3f 7bf5 803f
000000e0: 46f5 7d3f 69c3 803f 7f30 7d3f 48a4 7f3f
000000f0: 31d5 803f 066d 7f3f c821 7f3f 1a4a 7f3f

node_encoder.layers.4.bias f4 [64]
-0.0077757537 0.0021593648 -0.00372622 -0.0018461453 -0.00996861 0.002088888 0.0006826589 -0.009195036
0.0066883075 0.0003426385 -0.021282222 0.0073745926 0.009001013 -0.005152848 -0.005685408 -0.009322845
0.0068145 -0.00071584346 0.007941335 0.0055283494 0.005348806 0.019085163 0.00079316995 0.0013285086
0.011260404 0.015137002 0.0069411844 -0.0038562627 -0.005722812 -0.004079278 -0.003563805 -0.018215086
-0.0011710624 0.0093778 0.0031331913 0.0047339564 -0.0073493207 -0.011035691 0.0041419365 0.010318627
-0.009100071 0.0022941441 0.003195461 -0.0012920377 -0.0057115173 0.006634456 0.0060192617 0.0012991017
0.007560467 0.0043346975 0.015896825 -0.009658928 -0.012912117 0.010093457 -0.002966078 0.010205612
-0.009177238 -0.01603757 -0.011288546 -0.00870971 0.008859075 -0.0024573298 0.011484454 -0.0065942314
00000000: c0cb febb 2184 0d3b 9933 74bb 5bfa f1ba
00000010: 6153 23bc bae5 083b 77f4 323a c7a6 16bc
00000020: 9729 db3b 29a4 b339 0e58 aebc 91a6 f13b
00000030: fc78 133c 39d9 a8bb a94c babb d9be 18bc
00000040: 2b4c df3b 71a7 3bba 601c 023c 2827 b53b
00000050: 0945 af3b 7d58 9c3c bcec 4f3a 5a21 ae3a
00000060: 8f7d 383c 3001 783c e072 e33b 5ab9 7cbb
00000070: 6d86 bbbb 77ab 85bb ba8e 69bb ce37 95bc
00000080: 557e 99ba 58a5 193c 3a56 4d3b 4e1f 9b3b
00000090: 92d2 f0bb 0bcf 34bc 15b9 873b 750f 293c
000000a0: 7718 15bc 5a59 163b f06a 513b 9759 a9ba
000000b0: ae27 bbbb da65 d93b 3a3d c53b 9f46 aa3a
000000c0: cbbd f73b 140a 8e3b 0f3a 823c 7b40 1ebc
000000d0: 588d 53bc 075f 253c 8862 42bb 7035 273c
000000e0: 205c 16bc 3961 83bc 98f3 38bc 2cb3 0ebc
000000f0: a725 113c 270b 21bb 4b29 3c3c 6c14 d8bb

node_encoder.layers.4.running_mean f4 [64]
-0.15088904 -0.27912042 -0.11078213 0.011483202 0.0222294 -0.38231057 0.1371137 0.05592307
0.055237386 0.18635023 -0.2506494 -0.18351698 0.021191914 -0.10129306 0.2772826 0.08076523
0.057529815 -0.11199666 -0.16603026 0.25681764 0.014968125 -0.16571635 0.07073191 0.18445806
0.016850572 -0.15233548 -0.02756836 -0.4535346 0.11885311 0.45423436 -0.2339291 -0.4467077
-0.106114894 -0.5245029 0.17538889 0.23092185 0.2764425 -0.3491557 0.4534677 -0.12111914
0.26912177 -0.13672724 -0.12182162 0.092596866 -0.028957674 0.103932016 0.18572976 -0.39586946
-0.11337242 -0.09230783 -0.22429684 -0.3248885 -0.07335597 -0.2329178 -0.042235307 0.09470847
-0.19871798 0.27007902 0.120949544 0.2617072 -0.030998835 0.10224254 0.11771066 0.15657502
00000000: a882 1abe dfe8 8ebe bee1 e2bd 0a24 3c3c
00000010: 6e1a b63c 36be c3be 8967 0c3e 970f 653d
00000020: 9940 623d 98d2 3e3e 1e55 80be e0eb 3bbe
00000030: aa9a ad3c bc72 cfbd fcf7 8d3e 3e68 a53d
00000040: 62a4 6b3d 815e e5bd d603 2abe 9a7d 833e
00000050: de3c 753c 8cb1 29be e4db 903d 93e2 3c3e
00000060: 360a 8a3c d5fd 1bbe 0bd7 e1bc b035 e8be
00000070: 4269 f33d 6891 e83e 1c8b 6fbe dfb6 e4be
00000080: c452 d9bd d245 06bf 2599 333e c776 6c3e
00000090: df89 8d3e 89c4 b2be eb2c e83e 500d f8bd
000000a0: 54ca 893e 3a02 0cbe 9d7d f9bd 6da3 bd3d
000000b0: a538 edbc 4fda d43d f12f 3e3e 67af cabe
000000c0: cd2f e8bd e30b bdbd 12ae 65be c957 a6be
000000d0: a83b 96bd 0182 6ebe eefe 2cbd 84f6 c13d
000000e0: ba7c 4bbe cc47 8a3e 65b4 f73d 7cfe 853e
000000f0: 45f1 fdbc 8964 d13d 4912 f13d 3455 203e

node_encoder.layers.4.running_var f4 [64]
0.13262968 0.09430648 0.08868916 0.1137445 0.09620517 0.03644832 0.25574797 0.18449336
0.1975686 0.088655084 0.03162309 0.094093226 0.18042059 0.1864452 0.042526532 0.06492725
0.1268691 0.13214788 0.05015417 0.057884667 0.08474112 0.23692517 0.22458223 0.023947742
0.13282129 0.15961972 0.20823029 0.05201774 0.039332297 0.12747541 0.0794683 0.22380309
0.057066206 0.064578466 0.07394265 0.12103657 0.12179244 0.3745348 0.19549121 0.058348954
0.12702413 0.15557069 0.12753165 0.23964311 0.09349584 0.14694285 0.12776035 0.1686069
0.120947026 0.09364359 0.09827721 0.12902293 0.2085514 0.0959481 0.19245933 0.14566179
0.22723262 0.045329317 0.13265666 0.10846754 0.10562524 0.20078968 0.18777339 0.14736009
00000000: 13d0 073e c123 c13d aaa2 b53d e0f2 e83d
00000010: 3707 c53d d54a 153d 66f1 823e d4eb 3c3e
00000020: 6c4f 4a3e cc90 b53d 3787 013d f3b3 c03d
00000030: 2dc0 383e 7eeb 3e3e 4d30 2e3d 94f8 843d
00000040: f9e9 013e c651 073e 756e 4d3d 7918 6d3d
00000050: c18c ad3d 839c 723e e2f8 653e 0e2e c43c
00000060: 4e02 083e 5a73 233e 523a 553e 8e10 553d
00000070: e71a 213d ea88 023e 47c0 a23d a32c 653e
00000080: 41be 693d b741 843d 3e6f 973d 05e2 f73d
00000090: 516e f93d 06c3 bf3e d92e 483e 50ff 6e3d
000000a0: 9d12 023e ec4d 1f3e a897 023e 0165 753e
000000b0: bf7a bf3d 3078 163e 9cd3 023e 4aa7 2c3e
000000c0: 13b3 f73d 36c8 bf3d 9045 c93d 961e 043e
000000d0: 808e 553e 7080 c43d 0f14 453e 5d28 153e
000000e0: abaf 683e 3cab 393d 26d7 073e 3b24 de3d
000000f0: 0c52 d83d cf9b 4d3e ab47 403e 90e5 163e

node_encoder.layers.6.weight f4 [32, 64]
0.092522584 -0.11174468 -0.077989206 -0.015170188 -0.12007712 -0.116415374 -0.10926594 0.101229124
0.016952973 -0.042497866 -0.0030810218 -0.114851184 -0.119621135 -0.0911841 -0.12932126 0.07831002
-0.04735931 -0.03988419 -0.11279038 0.010627494 -0.016472945 -0.0908972 0.074301824 0.10082312
-0.098540224 0.076516636 -0.015750434 0.015613776 0.059203982 -0.029414821 0.09975277 0.07031976
-0.077820055 -0.06646017 -0.13201311 0.032422557 -0.1059056 -0.096907854 -0.0828761 -0.1271559
-0.10599865 0.11364078 0.07371279 0.1044303 -0.06208828 -0.049307544 -0.048800442 -0.008513558
-0.09666705 0.014615487 -0.08138963 0.035515185 0.105824545 0.011528863 0.08508044 -0.100440286
-0.024234202 -0.09034557 -0.020194924 -0.054432884 -0.07663506 -0.11716297 -0.047046594 0.01843644
-0.015435809 -0.10698075 0.079093665 0.08290052 -0.07292025 0.01636727 0.076194815 -0.12395576
-0.10351502 0.06594208 0.0067277 0.047730356 -0.058324233 0.018848853 0.075852394 -0.027244696
-0.045744468 -0.1302227 -0.017639242 0.07523545 -0.124857515 -0.004116567 0.08444672 -0.016866036
-0.051448606 -0.04699051 -0.049414523 0.03785796 -0.10885661 0.041400615 -0.015880276 0.00044860283
-0.0053467937 0.07790287 -0.08092057 -0.1252486 -0.10098239 -0.09137678 -0.066215895 0.11538057
-0.08793925 -0.07126087 -0.09835376 -0.06416482 0.0026826765 -0.08244065 0.00035657064 0.054218385
-0.024583904 0.05313079 0.03624037 0.1240377 -0.0006018629 0.10394638 0.095995754 0.06114618
0.083651066 -0.093222074 -0.07364976 0.04604597 0.04703527 0.0996922 -0.018833961 -0.029077634
0.07990712 0.019275727 0.1237181 -0.058345024 -0.03544172 -0.003606738 0.0604272 -0.11133482
-0.04672427 0.09515202 0.03100814 0.080772266 -0.04489934 -0.07785295 -0.08978552 -0.071050495
-0.09207272 0.065074116 0.045738902 -0.073448 0.1190925 0.03812268 0.04004917 -0.05662418
0.07800913 -0.09292222 0.09703988 -0.0667272 0.0533942 -0.05272476 0.07831251 -0.104612485
-0.024359185 -0.042302817 -0.08321974 -0.056711227 -0.04349267 0.0044908477 0.083969735 -0.017247496
0.11548785 -0.052860692 -0.06111556 -0.00950476 -0.018545575 0.041405722 0.107382976 0.034647938
-0.109373756 -0.04639013 -0.025395494 -0.10695776 0.047250975 0.102249004 0.061173555 0.00048711363
-0.015595481 -0.07097627 -0.016629819 0.11052632 -0.07256652 0.021359546 -0.08419432 -0.029310685
0.019478485 -0.09441515 0.037063017 -0.10155776 -0.046163328 0.09114794 0.12608 -0.0019139643
-0.09339947 -0.0926261 -0.027622594 -0.0705012 0.095594354 -0.087496586 0.087766 0.01640102
-0.040266287 0.107155815 0.06469923 0.0023871388 -0.07620039 -0.04740836 0.04560177 0.108608395
-0.046261344 -0.036852144 -0.114243425 0.08167825 0.12270871 0.079022415 -0.07930629 0.07518531
-0.044154536 0.067329936 0.06838557 -0.095643416 0.033216912 0.054929648 -0.065430984 0.1010554
0.09034446 0.11329517 0.006138671 -0.06727718 -0.06340381 0.051233683 -0.027938124 0.090206794
0.10864466 0.010324385 -0.111897826 0.046509042 0.11010283 -0.029742599 -0.073630586 -0.02892308
0.01173212 -0.09778489 0.058355737 0.057298664 -0.03582333 -0.036094937 -0.056422375 0.10644214
00000000: 7b7c bd3d 65da e4bd ceb8 9fbd 618c 78bc
00000010: feea f5bd 2f6b eebd d2c6 dfbd 3751 cf3d
00000020: f6e0 8a3c 3e12 2ebd f8ea 49bb 1937 ebbd
00000030: edfb f4bd bbbe babd cb6c 04be 0161 a03d
00000040: d6fb 41bd 9b5d 23bd a5fe e6bd f11e 2e3c
00000050: 45f2 86bc 5028 babd 8e2b 983d 5a7c ce3d
00000060: 75cf c9bd c1b4 9c3d 0e07 81bc ecd0 7f3c
00000070: e07f 723d 5af7 f0bc 2e4b cc3d ce03 903d
00000080: 1f60 9fbd 451c 88bd 722e 07be 84cd 043d
00000090: 09e5 d8bd a077 c6bd f2ba a9bd 2835 02be
000000a0: d215 d9bd 7fbc e83d bbf6 963d 8edf d53d
000000b0: 4850 7ebd b5f6 49bd f9e2 47bd 737c 0bbc
000000c0: 60f9 c5bd cc75 6f3c 9baf a6bd 5f78 113d
000000d0: 8aba d83d 8ee3 3c3c a73e ae3d a3b3 cdbd
000000e0: ce86 c6bc 1907 b9bd d36f a5bc 04f5 5ebd
000000f0: d8f2 9cbd 24f3 efbd eeb3 40bd 0408 973c
00000100: 7ae6 7cbc b918 dbbd dcfb a13d bfc7 a93d
00000110: 3657 95bd a714 863c 070c 9c3d 84dc fdbd
00000120: afff d3bd a40c 873d 0a74 dc3b e880 433d
00000130: 64e5 6ebd e968 9a3c 8058 9b3d 4530 dfbc
00000140: 8d5e 3bbd 1959 05be 2c80 90bc 0b15 9a3d
00000150: 4cb5 ffbd 44e4 86bb 67f2 ac3d a42a 8abc
00000160: c6bb 52bd 1f79 40bd e266 4abd f310 1b3d
00000170: 37f0 debd b193 293d 5a17 82bc 7432 eb39
00000180: 2834 afbb 8a8b 9f3d afb9 a5bd 2b41 00be
00000190: dbcf cebd c023 bbbd 339c 87bd a64c ec3d
000001a0: 7e19 b4bd 38f1 91bd b26d c9bd d868 83bd
000001b0: d8cf 2f3b a5d6 a8bd 1af2 ba39 1914 5e3d
000001c0: 2f64 c9bc ac9f 593d c870 143d 7a07 fe3d
000001d0: 56c6 1dba d7e1 d43d 6c99 c43d 6b74 7a3d
000001e0: 4051 ab3d 37eb bebd afd5 96bd b39a 3c3d
000001f0: 0ea8 403d 6d2b cc3d ae49 9abc 3834 eebc
00000200: 58a6 a33d 21e8 9d3c ea5f fd3d 31fb 6ebd
00000210: 562b 11bd 065f 6cbb 8382 773d 8303 e4bd
00000220: f361 3fbd 10df c23d c804 fe3c ee6b a53d
00000230: 5fe8 37bd 5e71 9fbd 79e1 b7bd ec82 91bd
00000240: 9f90 bcbd 9445 853d b758 3b3d e86b 96bd
00000250: c5e6 f33d 8726 1c3d 990a 243d c2ee 67bd
00000260: 40c3 9f3d 014e bebd d8bc c63d 45a8 88bd
00000270: e0b3 5a3d ebf5 57bd 4f62 a03d 123f d6bd
00000280: ea8c c7bc b845 2dbd 1c6f aabd 084a 68bd
00000290: 5f25 32bd f627 933b 53f8 ab3d 9f4a 8dbc
000002a0: e584 ec3d 7484 58bd 4f54 7abd dab9 1bbc
000002b0: e4ec 97bc 0c99 293d 9beb db3d ffea 0d3d
000002c0: 59ff dfbd 9403 3ebd 360a d0bc ac0c dbbd
000002d0: 3d8a 413d ed67 d13d 1f91 7a3d 4963 ff39
000002e0: 3084 7fbc 025c 91bd 423b 88bc a05b e23d
000002f0: c19d 94bd 37fa ae3c 126e acbd f61c f0bc
00000300: 5891 9f3c bb5c c1bd 64cf 173d 84fd cfbd
00000310: c215 3dbd c5ab ba3d 1e1b 013e fcdd faba
00000320: 3948 bfbd c1b2 bdbd c748 e2bc ef62 90bd
00000330: f9c6 c33d 6931 b3bd a9be b33d 6f5b 863c
00000340: 43ee 24bd 8274 db3d 0881 843d 8b71 1c3b
00000350: f30e 9cbd 452f 42bd ecc8 3a3d 146e de3d
00000360: 897c 3dbd 46f2 16bd 75f8 e9bd ed46 a73d
00000370: b44e fb3d 81d6 a13d 566b a2bd c1fa 993d
00000380: 63db 34bd 47e4 893d bc0d 8c3d b2e0 c3bd
00000390: 750e 083d e9fd 603d ae00 86bd 22f6 ce3d
000003a0: 8406 b93d 4c07 e83d e826 c93b 9ec8 89bd
000003b0: dbd9 81bd 69da 513d 7ede e4bc 57be b83d
000003c0: 1781 de3d 9c27 293c b02a e5bd 4480 3e3d
000003d0: 987d e13d c0a6 f3bc a2cb 96bd 18f0 ecbc
000003e0: 1438 403c 7243 c8bd 6d06 6f3d 01b2 6a3d
000003f0: 7cbb 12bd 49d8 13bd 261b 67bd 56fe d93d

node_encoder.layers.6.bias f4 [32]
0.0087160235 0.0011331299 0.0049956753 -0.00012808046 -0.022300005 7.7699946e-07 0.033787318 0.029166585
-0.006659548 0.013603993 0.00060832716 3.8813687e-05 0.0042942395 9.888779e-06 3.2869804e-05 -0.011121023
-2.9451987e-05 0.040521283 0.008665635 -0.023830768 -2.3738614e-05 0.009837271 -0.00014121491 -2.017639e-05
0.0021733756 0.026841812 0.033288665 -0.01635495 -0.036799606 0.015086663 3.918079e-05 0.032856558
00000000: a7cd 0e3c 8885 943a c3b2 a33b 564d 06b9
00000010: 80ae b6bc ff92 5035 9264 0a3d c3ee ee3c
00000020: 5638 dabb 48e3 5e3c 2578 1f3a e1cb 2238
00000030: b1b6 8c3b fbe7 2537 afdd 0938 f434 36bc
00000040: a90f f7b7 a5f9 253d 4ffa 0d3c be38 c3bc
00000050: 4922 c7b7 812c 213c 1713 14b9 7840 a9b7
00000060: 316f 0e3b 5ce3 db3c b259 083d d1fa 85bc
00000070: 2fbb 16bd 0d2e 773c 0e56 2438 9994 063d

edge_encoder.layers.0.weight f4 [64, 4]
0.35672358 -0.19812457 0.13410832 0.16016634 -0.167622 0.45667577 0.049741134 -0.1377703
-0.4528992 0.40076482 -0.48729852 0.34092644 -0.1582192 -0.0864341 0.08320222 0.4799589
-0.3061913 -0.33927768 0.31776223 -0.20473844 -0.18290819 0.27639377 -0.21469262 0.263821
-0.2033667 0.38019055 0.48577332 0.048204668 -0.15451097 0.2681749 0.15116622 0.0073659876
0.4129131 -0.016602464 0.19588493 -0.116363004 -0.08224627 -0.029816939 0.040816694 0.22760642
0.3758032 0.2807394 -0.21099183 0.39889237 0.3091387 0.1920137 0.061238736 -0.25010177
-0.30925617 0.017278755 -0.35088512 0.1445591 -0.45131025 -0.44273126 -0.21812549 0.24757832
0.40600577 -0.41742545 -0.30296633 0.09876521 -0.078025505 -0.39970753 0.14641407 -0.36852387
0.0045495904 0.20654978 0.43703398 -0.38933957 0.3460584 0.06688101 0.44195873 0.42945784
-0.10383204 -0.08153649 -0.12965901 0.37430143 -0.21842949 0.32870072 0.2040043 0.44174367
0.35418043 0.3830004 -0.4010733 -0.21142426 -0.3539204 0.22832751 0.10590766 0.18837512
0.19704325 0.030755473 0.17997095 -0.2687197 0.31895927 -0.4343288 -0.4503107 0.13314092
0.46633348 -0.16578509 0.4624341 -0.15342575 -0.37099192 -0.08332866 0.2791377 -0.21945728
0.46499896 -0.2308313 -0.21882035 -0.19125795 -0.385364 0.449476 -0.28351167 -0.19465229
-0.1404227 0.40164182 0.2552517 0.16989413 -0.14028294 0.23756823 0.08803458 0.38841385
0.11676603 0.36890393 0.3304524 0.08181695 -0.47809818 0.11266338 -0.3602327 0.075619176
-0.046991225 0.377106 -0.36929116 -0.37591875 0.20330846 0.34531194 -0.11536917 0.12502807
0.3982653 0.06984451 -0.13893177 0.2716038 0.45672143 -0.08968699 0.32500198 -0.00015017661
-0.08590245 -0.054031182 -0.4664195 0.20851085 -0.26433855 -0.43199584 -0.065044336 -0.17365494
-0.2940957 -0.111807704 -0.057726037 0.14989184 0.06387995 -0.056220144 0.11137376 -0.33296514
0.43024006 0.22442788 0.30735517 -0.3934822 0.33886507 0.08335532 -0.46845117 0.43493038
-0.010962959 0.10712776 0.38149038 0.31412965 0.43960184 -0.45895532 0.47846523 0.10438176
0.017747553 -0.40332302 -0.24373052 0.45206597 0.3832034 0.37490126 -0.034809463 -0.24468604
0.10924036 -0.22927944 -0.3316715 0.14956386 0.37313336 -0.38427928 -0.4384887 0.060315654
-0.18559094 -0.2536589 -0.09970697 -0.021743845 -0.14517973 0.3480089 0.2749679 0.13120449
-0.15748207 -0.02839639 0.3140675 0.023448946 -0.48105574 0.06540161 0.25850835 -0.11930486
-0.105846725 -0.078045234 0.28556055 0.3627446 -0.39460865 0.3218599 0.20080274 0.16223896
-0.29302534 -0.27564678 0.47879606 0.10060403 -0.10636014 -0.096626684 0.33651224 -0.10824405
0.33991456 -0.13080288 0.116840854 0.10739505 -0.25020036 0.016815599 0.099305734 -0.47861972
-0.0941175 0.029947203 0.40598983 0.08910431 -0.4229966 -0.15625651 0.48111305 -0.087310344
0.37240726 0.042725142 0.32933277 -0.18990733 0.48455346 0.10340102 -0.107641816 0.34165674
0.24322334 -0.34124607 -0.023470415 0.32462123 0.11713351 -0.1487871 -0.33467042 -0.33360153
00000000: 79a4 b63e 2be1 4abe b153 093e a502 243e
00000010: 1aa5 2bbe 68d1 e93e 5cbd 4b3d a813 0dbe
00000020: 67e2 e7be 0c31 cd3e 317f f9be e98d ae3e
00000030: 3704 22be 5d04 b1bd ed65 aa3d 2cbd f53e
00000040: 1bc5 9cbe ceb5 adbe bbb1 a23e f4a6 51be
00000050: 494c 3bbe 7c83 8d3e 62d8 5bbe 8c13 873e
00000060: 5c3f 50be 56a8 c23e 48b7 f83e 4272 453d
00000070: 2038 1ebe 384e 893e 51cb 1a3e 625e f13b
00000080: 5969 d33e e401 88bc 0f96 483e ba4f eebd
00000090: bb70 a8bd a742 f4bc 682f 273d a811 693e
000000a0: 4769 c03e 13bd 8f3e 3e0e 58be 9f3b cc3e
000000b0: 6d47 9e3e 3d9f 443e 78d5 7a3d 570d 80be
000000c0: d356 9ebe 2d8c 8d3c 37a7 b3be 4d07 143e
000000d0: 2312 e7be acad e2be 4a5c 5fbe 2c85 7d3e
000000e0: fddf cf3e cab8 d5be 671e 9bbe 6a45 ca3d
000000f0: d6cb 9fbd 77a6 ccbe 92ed 153e 29af bcbe
00000100: bb14 953b c981 533e ebc2 df3e 8457 c7be
00000110: 912e b13e e9f8 883d 6a48 e23e e6e1 db3e
00000120: e5a5 d4bd 9afc a6bd 55c5 04be 70a4 bf3e
00000130: fbab 5fbe 764b a83e 81e6 503e 3a2c e23e
00000140: 2357 b53e a118 c43e 7b59 cdbe 9a7f 58be
00000150: 0e35 b5be b0ce 693e 1ee6 d83d 68e5 403e
00000160: b5c5 493e e7f2 fb3c 4e4a 383e a195 89be
00000170: a14e a33e 5860 debe 208f e6be 1856 083e
00000180: 43c3 ee3e 91c3 29be 2ac4 ec3e a41b 1dbe
00000190: a7f2 bdbe 37a8 aabd 23eb 8e3e 69b9 60be
000001a0: 5814 ee3e 0a5f 6cbe 7112 60be 20d9 43be
000001b0: 6e4e c5be b821 e63e 7128 91be ee52 47be
000001c0: f8ca 0fbe ffa3 cd3e 5ab0 823e baf8 2d3e
000001d0: 55a6 0fbe 1645 733e 794b b43d 2ede c63e
000001e0: 0723 ef3d fae0 bc3e 0f31 a93e a58f a73d
000001f0: 49c9 f4be 0fbc e63d 6c70 b8be 3ade 9a3d
00000200: df79 40bd 0a14 c13e bb13 bdbe 6c78 c0be
00000210: 1830 503e bacc b03e ac46 ecbd 5c07 003e
00000220: 6ee9 cb3e a30a 8f3d 2144 0ebe a70f 8b3e
00000230: 64d7 e93e d0ad b7bd a966 a63e ba78 1db9
00000240: a0ed afbd cd4f 5dbd 89ce eebe de83 553e
00000250: 6257 87be 8f2e ddbe f735 85bd 9ad2 31be
00000260: b693 96be 70fb e4bd 2372 6cbd 3f7d 193e
00000270: 7ed3 823d 1847 66bd ed17 e43d 687a aabe
00000280: 6d48 dc3e 6cd0 653e a85d 9d3e 8076 c9be
00000290: b97f ad3e 32b6 aa3d d5d8 efbe 32af de3e
000002a0: fc9d 33bc cd65 db3d b552 c33e 9ad5 a03e
000002b0: 7e13 e13e 31fc eabe 65f9 f43e 1bc6 d53d
000002c0: 5163 913c 5b80 cebe 7e94 79be 3175 e73e
000002d0: 3c33 c43e 0ff3 bf3e 5e94 0ebd fa8e 7abe
000002e0: 69b9 df3d 3bc8 6abe d9d0 a9be 4527 193e
000002f0: 560b bf3e 41c0 c4be 9781 e0be 8c0d 773d
00000300: 8d0b 3ebe 94df 81be 2b33 ccbd 2620 b2bc
00000310: ffa9 14be 392e b23e 98c8 8c3e 785a 063e
00000320: fb42 21be 8c9f e8bc 75cd a03e 0118 c03c
00000330: f04c f6be 48f1 853d 355b 843e 1b56 f4bd
00000340: 2bc6 d8bd 2ed6 9fbd fe34 923e a9b9 b93e
00000350: 250a cabe d2ca a43e 3c9f 4d3e f821 263e
00000360: 6b07 96be 9321 8dbe c224 f53e 7c09 ce3d
00000370: 58d3 d9bd 36e4 c5bd 554b ac3e 0eaf ddbd
00000380: 4809 ae3e 31f1 05be 424a ef3d f0f1 db3d
00000390: 431a 80be dec0 893c ce60 cb3d a50d f5be
000003a0: adc0 c0bd d653 f53c e6dd cf3e 527c b63d
000003b0: 0393 d8be b501 20be 7354 f63e c4cf b2bd
000003c0: 2aac be3e 8f00 2f3d 4e9e a83e 1177 42be
000003d0: 6417 f83e eac3 d33d 5073 dcbd a2ed ae3e
000003e0: 8a0f 793e ceb7 aebe 0745 c0bc c134 a63e
000003f0: b2e3 ef3d a55b 18be ec59 abbe d2cd aabe

edge_encoder.layers.0.bias f4 [64]
0.1850709 0.13520658 -0.34737486 -0.025041915 0.04401153 -0.34669942 0.3353383 -0.00011398152
-0.11322543 0.00050571765 0.092188634 0.031478707 0.37817696 0.18850581 0.00036549586 0.013057986
0.03954502 -0.10870081 -0.3329088 -9.474256e-05 -0.10132819 -0.3763427 0.09004024 -0.11953948
0.38267574 0.09050789 0.12251985 0.060533527 0.10558986 0.22625229 0.27257946 -0.00015807492
-0.05703271 0.0515877 -0.1345891 -8.8765155e-05 0.06076177 0.13250056 -0.38756368 0.10428539
-0.10426692 -0.25769034 -0.122523956 1.5828731e-05 0.15438613 -0.3496006 0.051886853 0.35472685
-0.18949153 0.03817083 -0.11124097 0.04100091 0.12591837 -0.21437813 0.03830796 0.39803585
-1.4306424e-06 -0.26038018 2.3992126e-05 0.030821139 0.06784505 5.9528847e-05 -0.028422056 -0.15667129
00000000: 3a83 3d3e 9873 0a3e 1edb b1be b424 cdbc
00000010: 6f45 343d 9682 b1be 76b1 ab3e 5d09 efb8
00000020: bce2 e7bd 2392 043a 65cd bc3d d1ef 003d
00000030: 69a0 c13e ab07 413e 06a0 bf39 2af1 553c
00000040: f5f9 213d 889e debd 0673 aabe 86b0 c6b8
00000050: 2785 cfbd feaf c0be 0467 b83d 1dd1 f4bd
00000060: 13ee c33e 335c b93d b0eb fa3d 01f2 773d
00000070: 7f3f d83d aeae 673e 898f 8b3e eac0 25b9
00000080: 229b 69bd a04d 533d bad1 09be 6e27 bab8
00000090: 55e1 783d 3aae 073e bf6e c6be 9493 d53d
000000a0: e589 d5bd fdef 83be d7ed fabd f1c7 8437
000000b0: 6617 1e3e dafe b2be 4f87 543d c29e b53e
000000c0: 110a 42be 0459 1c3d 4ed2 e3bd 92f0 273d
000000d0: bff0 003e f185 5bbe cfe8 1c3d 5bcb cb3e
000000e0: 8004 c0b5 8d50 85be b342 c937 9d7c fc3c
000000f0: 58f2 8a3d 9dae 7938 5fd5 e8bc 706e 20be

edge_encoder.layers.1.weight f4 [64]
0.98257715 0.9728387 0.98730767 0.9983783 0.9805651 0.99611795 0.9812811 0.9952671
0.99433714 0.97554946 0.9986723 0.9847944 0.9734179 0.9650375 0.9860987 0.9854042
0.9758125 0.98519826 0.9730888 0.9884095 0.975448 0.97800606 0.9764316 0.9822585
0.9819736 0.9874996 0.9728749 0.989903 0.9771296 0.9807497 0.98734915 0.9845978
0.9957742 0.98072064 0.97477555 0.98703355 0.98471016 0.97988015 0.9762363 0.9837705
0.9772287 0.98253137 0.9881369 0.98999935 0.9925379 0.9839486 0.9956682 0.9808729
0.9704217 0.9801521 0.9876865 0.9761217 0.96509624 0.9892999 0.9977009 0.9911135
0.9672701 0.9984593 0.98863745 0.98818743 0.9951374 0.99892336 0.975177 0.99402297
00000000: 2d8a 7b3f f50b 793f 32c0 7c3f b895 7f3f
00000010: 5006 7b3f 9601 7f3f 3d35 7b3f d3c9 7e3f
00000020: e18c 7e3f 9cbd 793f fda8 7f3f 7c1b 7c3f
00000030: ea31 793f b30c 773f f770 7c3f 7343 7c3f
00000040: d9ce 793f f435 7c3f 591c 793f 6808 7d3f
00000050: f6b6 793f 9b5e 7a3f 6cf7 793f 4b75 7b3f
00000060: 9f62 7b3f c6cc 7c3f 540e 793f 486a 7d3f
00000070: 2a25 7a3f 6a12 7b3f eac2 7c3f 9a0e 7c3f
00000080: 0feb 7e3f 8210 7b3f e48a 793f 3bae 7c3f
00000090: f715 7c3f 6dd9 7a3f 9fea 793f 62d8 7b3f
000000a0: a92b 7a3f 2d87 7b3f 8af6 7c3f 9970 7d3f
000000b0: f716 7e3f 0ee4 7b3f 1ce4 7e3f 7d1a 7b3f
000000c0: 8e6d 783f 3feb 7a3f 06d9 7c3f 1de3 793f
000000d0: 8c10 773f c242 7d3f 5469 7f3f 9db9 7d3f
000000e0: 039f 773f 079b 7f3f 5817 7d3f daf9 7c3f
000000f0: 53c1 7e3f 71b9 7f3f 33a5 793f 4a78 7e3f

edge_encoder.layers.1.bias f4 [64]
-0.0034568731 -0.004346949 -0.006071764 0.005526881 -0.0008143497 0.008662712 -0.009845236 0.006658592
0.0032859596 0.0028966346 0.007994486 -0.0024209637 -0.007025072 -0.012614208 -0.009579328 -0.005924091
-0.015570033 -0.007964555 -0.017439358 -0.004348074 -0.007054713 -0.01317213 -0.007580317 -0.0054393304
-0.003681534 -0.002143101 -0.0005504348 0.0037787328 -0.0041118916 -0.0069348924 -0.0046649775 -0.006256515
0.003088461 -0.005009278 -0.011716797 -0.0077498723 -0.009986189 -0.018203257 -0.003186893 -0.010783646
-0.007173686 -0.0026547073 -0.0048734974 0.0056472477 0.003252944 -0.009122194 0.0034838237 -0.0068350993
-0.014184315 -0.010922477 -0.002485908 -0.012251636 -0.018780703 -0.005209266 0.008337618 -0.0036799381
-0.007765709 0.012598668 -0.003237882 0.00015597678 0.0018881528 0.006415376 -0.011691537 -2.1268255e-05
00000000: b58c 62bb da70 8ebb a6f5 c6bb d71a b53b
00000010: 157a 55ba 0cee 0d3c ea4d 21bc 5130 da3b
00000020: 4159 573b 77d5 3d3b 4efb 023c 08a9 1ebb
00000030: 9332 e6bb d3ab 4ebc 9df2 1cbc e11e c2bb
00000040: 7419 7fbc c47d 02bc fcdc 8ebc 4a7a 8ebb
00000050: 392b e7bb ebcf 57bc 4f64 f8bb 693c b2bb
00000060: e445 71bb 4573 0cbb 0e4b 10ba 9ea4 773b
00000070: 0cbd 86bb 183e e3bb abdc 98bb 7403 cdbb
00000080: c767 4a3b df24 a4bb cff7 3fbc a4f2 fdbb
00000090: 1d9d 23bc ff1e 95bc 31db 50bb e4ad 30bc
000000a0: 3d11 ebbb 99fa 2dbb dcb1 9fbb 8c0c b93b
000000b0: 582f 553b 4175 15bc dd50 643b f8f8 dfbb
000000c0: 5465 68bc 30f4 32bc 9eea 22bb 16bb 48bc
000000d0: fdd9 99bc 7eb2 aabb 819a 083c 1e2b 71bb
000000e0: 7d77 febb a56a 4e3c a532 54bb b38d 2339
000000f0: e57b f73a 1338 d23b dc8d 3fbc 3b69 b2b7

edge_encoder.layers.1.running_mean f4 [64]
0.19685847 0.12837712 -0.33494008 -0.0068923202 0.036117792 -0.3392839 0.33277547 -0.004275408
-0.123321205 0.010538939 0.11447283 0.021434708 0.3922298 0.20850612 0.012208914 -0.00022863694
0.018405832 -0.098088585 -0.31870994 0.013761636 -0.11198143 -0.37611806 0.079756565 -0.10801776
0.37708485 0.08085454 0.123061955 0.053908836 0.110441364 0.24439043 0.27395263 0.0054048053
-0.07559505 0.05927858 -0.124408774 -0.002177243 0.07884525 0.13209687 -0.3843483 0.0925287
-0.1297331 -0.23704623 -0.117561825 0.00356028 0.18425035 -0.36648548 0.06742073 0.37057763
-0.19176535 0.04058879 -0.11754427 0.03402381 0.1428585 -0.21694173 0.04150888 0.3942395
0.0050096908 -0.28747508 -0.0011195783 0.024304435 0.059349384 0.016845612 -0.013089511 -0.17002745
00000000: 4495 493e 4b75 033e 447d abbe f9d8 e1bb
00000010: 40f0 133d 9fb6 adbe 8c61 aa3e b918 8cbb
00000020: d48f fcbd 84ab 2c3c bb70 ea3d d797 af3c
00000030: 58d2 c83e a182 553e e607 483c 43be 6fb9
00000040: d4c7 963c abe2 c8bd f32d a3be 7c78 613c
00000050: 8556 e5bd 8c92 c0be 6957 a33d 6a38 ddbd
00000060: 4411 c13e 1197 a53d e807 fc3d 83cf 5c3d
00000070: 152f e23d 7c41 7a3e 8543 8c3e cb1a b13b
00000080: 94d1 9abd 19ce 723d 07ca febd 13b0 0ebb
00000090: 9e79 a13d 6744 073e 4dc9 c4be b07f bd3d
000000a0: c1d8 04be 3fbc 72be 41c4 f0bd 9653 693b
000000b0: 20ac 3c3e fca3 bbbe e113 8a3d 5abc bd3e
000000c0: 235e 44be 6e40 263d 0dbb f0bd 8d5c 0b3d
000000d0: 8049 123e f925 5ebe 3705 2a3d c2d9 c93e
000000e0: 5528 a43b ef2f 93be d0be 92ba 181a c73c
000000f0: 5718 733d cfff 893c 6375 56bc ad1b 2ebe

edge_encoder.layers.1.running_var f4 [64]
0.038828332 0.027812514 0.22540124 0.010253317 0.10084614 0.047281265 0.19494736 0.028182382
0.056770362 0.002508896 0.06406742 0.022265356 0.106425315 0.08762248 0.113405086 0.032792956
0.14521402 0.16401248 0.014878827 0.050161317 0.15366267 0.035022713 0.030356819 0.18555588
0.19643506 0.080821104 0.077467814 0.1048417 0.06755862 0.01504451 0.095809825 0.13539803
0.11479349 0.028307818 0.041257866 0.11329271 0.16254957 0.032986477 0.018116044 0.010255475
0.10478611 0.18172888 0.10835382 0.22257479 0.060327128 0.03896331 0.0879652 0.17994769
0.019246962 0.07163401 0.076718666 0.08856325 0.062678054 0.066906594 0.19002265 0.08585098
0.031288702 0.018099887 0.122782424 0.2022013 0.10270594 0.048926435 0.022514211 0.0869109
00000000: 750a 1f3d 12d7 e33c 95cf 663e 87fd 273c
00000010: 6c88 ce3d 00aa 413d 48a0 473e bdde e63c
00000020: 0a88 683d 4a6c 243b c835 833d d665 b63c
00000030: 84f5 d93d 6a73 b33d ed40 e83d e851 063d
00000040: fcb2 143e e3f2 273e 53c6 733c f475 4d3d
00000050: bf59 1d3e fa73 0f3d ddae f83c 5c02 3e3e
00000060: 4626 493e 8985 a53d 72a7 9e3d 3fb7 d63d
00000070: 2c5c 8a3d 407d 763c f137 c43d c8a5 0a3e
00000080: d918 eb3d cce5 e73c 02fe 283d 0206 e83d
00000090: 6573 263e d41c 073d 1968 943c 9406 283c
000000a0: 1a9a d63d 2317 3a3e 9ce8 dd3d a5ea 633e
000000b0: 9419 773d fe97 1f3d 1927 b43d 3544 383e
000000c0: ceab 9d3c dab4 923d ad1e 9d3d a660 b53d
000000d0: 5a5d 803d 5306 893d 4c95 423e a3d2 af3d
000000e0: 9528 003d 3746 943c 5a75 fb3d dc0d 4f3e
000000f0: 7e57 d23d 1667 483d b96f b83c 58fe b13d
