checkpoints/best_model-2025-04-22_02-44-09-mlp_datatrain_full_hl5_hd50_lr0.0001_bs512_epochs200_lr_schedulerReduceLROnPlateau_lr_reduce_factor0.8_lr_reduce_patience1.ckpt (torch, 48626 bytes, 11 tensors)

model.net.0.weight f4 [50, 5]
00000000: aa73 27bf 029d 7d3e 3af0 3d3e 7337 71bf
00000010: 1954 8cbe de02 5f3f e23c e13c c6d7 b5bc
00000020: f22b 0fbf 6227 fc3e 2dc2 233f d14e 89be
00000030: ae5e 52bf 0637 b23c 2cc2 3a3f d61f 173f
00000040: 83f6 7a3e 3c4b cfbf 4bc7 843f 6ef3 4fbf
00000050: 7b28 213f d989 0d3f 542a 023f cb89 4b3e
00000060: d6ed 863e a5de 31bf b664 173d 24e6 24bf
00000070: c76f 223f 0144 b83e 5695 1cbf 7ce7 e23f
00000080: 0fbd 8f3f 9eb0 213f c089 eabd 17d4 06bf
00000090: 90e7 c4bc 59b6 c63e b72f f1be 6b93 e63e
000000a0: 2513 e33e f007 51be 6140 27c0 7a4b 2f3d
000000b0: cce2 173f 5d0f ee3e 0d77 c33f 284e 00bf
000000c0: c672 46bf 8b8b c7be a662 1abf 82b4 023e
000000d0: 7ed6 81be 069b 313f d6b5 b6be 324c 6fbd
000000e0: e5d7 523f 2a8f 213f aa7b 3b3f 834a c43d
000000f0: f258 8a3f 57db f23e 15b7 a4be 2d31 90bf
00000100: efb8 493e 31df 993f 85a7 6dbf 10e3 2abe
00000110: d7af 903e a01e 8cbf 8826 8c3f 5722 983f
00000120: d10d 94bf 6402 f6be 7187 e33e c9f2 b2bf
00000130: 9658 6d3c 98d2 10bf 44e4 55bf 238a 63bf
00000140: 89b5 663f 45cf ae3e 946a 463e 6b75 613f
00000150: fdde f8bd 6aba 0c3e 3f92 023f e2c1 023f
00000160: 2c7e f93d b27c 89bd ecce 07be 364c 29bf
00000170: 09ae 38be b784 64be 00bb a6bd 25d8 923f
00000180: 6549 a9be 71a6 4e3f e9e4 51bf 5012 3c3f
00000190: 9973 c03e e6be 003f 9b4f 91be ad19 0a3e
000001a0: c47f 193d 0672 403f eaa5 b0bf 7dbc 36bf
000001b0: e4de 19bf aace b13d ba07 2ebf c2cb 71bf
000001c0: 52c4 cc3e 1498 403f 9422 e53e 0a11 78bf
000001d0: 302f 7e3f 3730 1cbf 6dfa e2be 2316 403d
000001e0: e9e8 8c3e 6b45 34be 2d43 10bf bf84 c0be
000001f0: 16d6 ccbe e759 923e 5ac8 c43e cc32 03bd
00000200: a115 8fbf 9d75 a33e d7f9 9e3f c11f 00bf
00000210: dbe9 1e3f 1330 bc3f 6964 febe 46c6 34be
00000220: ce98 e53e 9ebc a2bf e75e 14bf 7421 a53d
00000230: b930 30bf b466 8b3e 1ed8 913f b056 4abf
00000240: d54d 05bf 8f01 f63e 60ae 61bf d22e 2bbf
00000250: 1c60 103f 1842 8a3f aba8 863e a9d5 a5bf
00000260: 6c10 83bf 9efa 8dbf d7a3 09bf 775f 043f
00000270: a71f 173f 1bed 2cbf 6462 4f3d 6a7b 56bf
00000280: 8e43 993e 1ac4 333e a53e d1bf 45c6 a0be
00000290: ca86 1cbf 4e5f 7a3e 908c b0be 977b 2d3f
000002a0: b258 173e a665 9cbf 6808 f4bd 0537 cfbf
000002b0: 279c b03e a3ef 1e3e 7385 8dbd c8bf 1f3f
000002c0: bdb1 b93e 5dc6 0f3f 6440 713f 2ed8 aebe
000002d0: 5f96 83be 94bc ce3d e8e3 57bf 096d a33e
000002e0: 0606 303f e1b0 bb3e 9f70 ed3e f1f4 aabe
000002f0: 4b70 66be 30b9 6a3f 2dea abbf dc5f 463e
00000300: 2bdf 8e3e 141d afbe 6f3e 9ebf d041 fcbe
00000310: 7f9d 06bd 481c bc3c 70f5 aebe bf57 113f
00000320: d6a5 b43f 00b0 d8bf db09 b2be 8396 243c
00000330: fafa 1d3f 999f 10bf fb69 5abf e81e 743e
00000340: ff81 b4be a8a3 a63f 6722 dcbe eff1 b83e
00000350: ee39 25bc f09c 453e 0043 ce3f 2a4f a4bf
00000360: 344d d4bd 74e3 12bd b448 e23e 7c3e 90bf
00000370: 4313 163d 80a7 82bd 1c29 0d3f af0d 22bf
00000380: aa58 35bc 6a87 1f3f 44e2 603f ec3c 823f
00000390: c998 b53e 3657 f9bd 94e6 be3f 677b e73e
000003a0: 8697 14be c24e cdbe 1464 e6be d665 b53f
000003b0: 85f5 f13e c27f 8dbe 91ae 3abf 0cd7 edbe
000003c0: 2473 2abe d975 b4be 760e 3a3f 2d48 4c3d
000003d0: e16b 73bf 382e 303f 7b13 2ebf 2629 963f
000003e0: b90f b2be 4f05 0cbf
-0.65410864 0.24766925 0.1854867 -0.94225234 -0.2740791 0.8711375 0.027494851 -0.022197615
-0.5592643 0.49248797 0.63968164 -0.26817945 -0.8217572 0.021754753 0.7295253 0.5903295
0.245081 -1.6194835 1.0373319 -0.8123082 0.62952393 0.55288464 0.5084584 0.19876783
0.2635333 -0.69480354 0.03696128 -0.64413667 0.6345181 0.35989383 -0.6116537 1.7726893
1.1229571 0.6316012 -0.11452055 -0.52667373 -0.024036199 0.38810995 -0.47106716 0.45034346
0.44350544 -0.20413184 -2.6133044 0.04279659 0.5933044 0.46496096 1.5270706 -0.50119257
-0.7751888 -0.3897365 -0.60306776 0.12764171 -0.25358957 0.6937717 -0.35685605 -0.058422275
0.8236068 0.63109076 0.7323557 0.095845245 1.0808394 0.47432968 -0.3217093 -1.1265007
0.19699453 1.2021238 -0.9283374 -0.1668818 0.28259155 -1.0946846 1.0949259 1.188548
-1.1566716 -0.480487 0.4443927 -1.3980342 0.014486453 -0.5657134 -0.8355143 -0.88882655
0.9012075 0.3414251 0.19376594 0.8806979 -0.12151907 0.13742986 0.51004404 0.5107709
0.121822685 -0.06713237 -0.13262528 -0.66131914 -0.18035139 -0.22316252 -0.08141136 1.1472212
-0.33063808 0.8072272 -0.81989914 0.7346544 0.37588194 0.5029129 -0.28381047 0.13486357
0.037475362 0.75173986 -1.3800633 -0.7138136 -0.6010573 0.08681996 -0.6798054 -0.94451535
0.3999353 0.7523205 0.44752944 -0.96901 0.9929075 -0.6101107 -0.44331685 0.04689611
0.27521446 -0.17604606 -0.563525 -0.37601277 -0.40007085 0.28584215 0.38434106 -0.032030866
-1.1178476 0.3192567 1.2419995 -0.5004845 0.62075585 1.4702171 -0.49685982 -0.1765376
0.44843143 -1.2713811 -0.5795731 0.08063021 -0.68824345 0.27226794 1.1394079 -0.79038525
-0.5207189 0.48048064 -0.881567 -0.6686832 0.5639665 1.080142 0.26300558 -1.2955829
-1.0239387 -1.1092107 -0.53765625 0.5170817 0.5903267 -0.67549294 0.050630942 -0.83782065
0.29934353 0.17555276 -1.6347243 -0.31401268 -0.6114317 0.24450418 -0.3448224 0.6776671
0.14779928 -1.2218521 -0.11915666 -1.6188666 0.34494135 0.15521102 -0.06910219 0.6240201
0.36268416 0.56162053 0.9423888 -0.34149307 -0.25700662 0.10094562 -0.8433213 0.31919125
0.6875919 0.36658385 0.46374986 -0.3339 -0.22503774 0.91688824 -1.343084 0.19372505
0.2790464 -0.34201872 -1.2362803 -0.4926896 -0.032865044 0.022962704 -0.3417163 0.56774515
1.4113109 -1.6928711 -0.34773144 0.01004565 0.61711085 -0.56493527 -0.85317963 0.23839915
-0.3525543 1.3018694 -0.42994997 0.3612208 -0.010084612 0.19298148 1.6114197 -1.2836659
-0.10366288 -0.035861447 0.44196093 -1.1269069 0.036639463 -0.06379604 0.5514085 -0.6330213
-0.011068502 0.62316 0.87845254 1.0174842 0.35468128 -0.12174837 1.4914117 0.45211336
-0.14510927 -0.4009915 -0.4499823 1.4171703 0.4725763 -0.27636534 -0.7292262 -0.4645313
-0.16645485 -0.3524616 0.72678316 0.04987352 -0.95086485 0.68820524 -0.67998475 1.1731308
-0.3477762 -0.546956

model.net.0.bias f4 [50]
00000000: c3b7 b73e cb1f 92bd 97d4 c2bc f2de 003e
00000010: ffb2 8cbc 2b03 e43d 46a9 d63d 79f5 0c3e
00000020: cddb 3aba 33d5 da3c 6a2e 403d e06b 24bc
00000030: 856a 08be e7e6 e93b 2ffd b6bd 1a2f 0b3c
00000040: dcd9 f8bd e27a 80bd daea e13d 6689 79bd
00000050: bbc0 06be 47e8 163e 529c 983d 16b4 813e
00000060: 163d e53d fcdd 82bc 85fe 98bd f901 9b3e
00000070: 87a6 943e 3c4b efbc 00c7 05bf ce37 9e3d
00000080: 4dca 07be 2a26 2cbe f9d3 ae3d fb63 7cbd
00000090: 78b8 ad3d e217 41bd bc6e b5be 5a91 283e
000000a0: 8be2 e1bd c00f 033c db18 94bd 97c9 83bd
000000b0: 19b9 e63d 796a 46bd af6f cebc f7c4 25bd
000000c0: 13cf 673d ebea cebd
0.35882387 -0.0713497 -0.023783011 0.12585047 -0.017175196 0.11133417 0.10481505 0.13765515
-0.000712809 0.02671299 0.046919264 -0.010035485 -0.13321884 0.0071381214 -0.0893501 0.008495117
-0.121509284 -0.06273438 0.110311225 -0.06092205 -0.13159458 0.14737044 0.07451691 0.25332707
0.11193292 -0.015974991 -0.07470421 0.30274943 0.290333 -0.02921068 -0.52256775 0.07725488
-0.13260765 -0.16811433 0.08536524 -0.061618786 0.0848245 -0.047141917 -0.35436046 0.16461697
-0.11029538 0.007999361 -0.07231303 -0.064349346 0.11265773 -0.048441384 -0.02519974 -0.040471043
0.056593966 -0.10103401

model.net.2.weight f4 [50, 50]
00000000: c400 a43e 7538 9bbd accf 74be 6d62 2cbe
00000010: 2bc8 bfbe 731b 473b 6d98 0b3e c99a 81bd
00000020: 0bc9 c0be ad39 6b3e d011 cd3d 83f1 1a3e
00000030: 6d42 77be 008d 9f3e 8225 8cbe 9b99 26bd
00000040: 01ec e8be a877 1d3e 50a3 c13e b628 7fbe
00000050: 7217 c3bb 60e8 9bbe ea47 503e cd9e 723e
00000060: 57f6 fdbe 17da 5cbe 269b 00bf 9eb7 863d
00000070: 325c 193d 03b6 b23e 62a5 99bd c644 8f3d
00000080: 1bc5 5c3c 2ec5 8a3e b1d0 153e 3756 dc3e
00000090: afea 6ebe a6d8 d8bd 67a2 9cbd 4f61 06be
000000a0: a5fc 523c 1236 0b3d eaa5 3c3e c82b d1bd
000000b0: 0203 d93d 5458 7abe e328 aabe 6b09 233e
000000c0: 77bd c73d dc0a 89be fcb7 393d eba8 34bd
000000d0: 85b8 c6be 2757 333e 0e4c f6bc 79c4 503c
000000e0: 8381 9d3e b749 8e3e ae71 a7be 966d 933e
000000f0: 9367 31bd 475d 203e d355 6cbd 108e a93e
00000100: 6d69 70be 4238 9f3d 39b4 4d3c a6cc 75be
00000110: 8c2a bd3e 240b 03be 8726 8a3d d4c5 15be
00000120: 2daa 253e c60b 493e 8e28 5b3e 5542 503e
00000130: a82e 74be b5fe 873e 37d6 923e 29a4 1b3e
00000140: a62a cbbd 2fa2 80be 7a21 ee3d 227c 8bbe
00000150: 6c96 3ebe 1a1c 97be 16f7 363e 180a c13e
00000160: 936b 533d ff70 d23d 1bbf 2b3e 90bc 5a3d
00000170: 57d1 25be f53d e63d 952d a83c 179a 55be
00000180: 462c 39bd fc99 c83d 8a17 07be b790 8e3e
00000190: 2e8b 713e 8ef9 313d 9242 5a3e 1807 1c3e
000001a0: 4187 573e f886 b53b e475 afbd 01c3 0c3e
000001b0: cd99 afbe e726 563e a3c6 2d3e 5da8 7ebe
000001c0: b7cd 8ebd 6201 e0bc 3de7 7e3e 94d7 d7be
000001d0: 2724 033e a3e6 1abe 4cf1 f4bd db98 0e3e
000001e0: 84dd 8f3e d1b4 b23d 0da1 91be 4682 4abd
000001f0: 0f4c f53e a3bc f0bb a5fc 2b3e eaaf 1e3e
00000200: 18bb 09bb af77 2abe e81e f8bd ff33 103e
00000210: 1030 22be 71f7 933e 5f67 853d 1ade 343e
00000220: f1c3 37bf 6753 ccbc d3aa a33e 3fe7 073e
00000230: 792c 16bd e69e 333e 0263 26be 4811 05bf
00000240: a47b ac3e 30b2 a0bc 130d 3f3c 0ee7 47be
00000250: bc6c 9dbd 37c2 5f3e ac43 333e 3b04 6c3e
00000260: b0e0 a23e dc9a c73e 56ed 7abb cad5 e33c
00000270: 4337 3f3d 2743 bbbd 8ac9 183f dbd0 0abd
00000280: 0892 b4bc 956b 84bb cf6a a53e 17a4 0fbe
00000290: 5a28 533e 4dd2 15be 3993 93be dc38 cdbd
000002a0: fcf4 28be 5bf1 89be 390c 01be f44e 0b3e
000002b0: bcee 193e ab8c b43c 262e 983c 113f d13d
000002c0: bd88 a6be 861d d03d 24c8 563e e530 a23e
000002d0: c1d4 95be bc45 a2bc a681 7e3e 66f8 dcbe
000002e0: 0df2 743d a4ba 27bd 3854 dabd 7814 40be
000002f0: 5498 b8be a703 273e 345b 713e 044c 72be
00000300: a6ce d93d 101e 84be 9ec3 5a3e 46f2 3a3e
00000310: 5205 a0be e46b 0ebe e427 53be 36bc 82be
00000320: 01ba 28bd b77e 573e 9a1a 03be 58c8 87bc
00000330: 0d1f 24be cd87 05be a0f9 59be fa47 d2be
00000340: a242 9e3e 20ae ee3d 24fe 22be b993 37bd
00000350: 11a0 8f3e 89d6 9e3d dc1e a73d 46da 593e
00000360: 02f7 9a3e 3daa 873e 91e2 2a3e 5159 943d
00000370: 36c7 efbd 8efd c93d 60ba a93b dab6 99be
00000380: 52c4 22be 5b11 f93d c34a 6d3e 9494 90be
00000390: 102f ab3d 7fed 01bd c4a8 d5bd 1a03 90bd
000003a0: b284 553e e0e8 e43d 33d3 e33d 2f17 32bd
000003b0: ce74 17bd 6c2b 823e ebea b33e 2633 0dbf
000003c0: 28d5 823e 097b a6bd 0805 d83d 085c 273e
000003d0: c5e8 1f3e 924d fb3d 3b9f e23e d8da c33e
000003e0: 4ba6 8bbd a2f9 023e 85f5 953e d795 b0be
000003f0: 9117 9dbe a985 71bd a8bc b83e 3a8f 6f3e
0.32031834 -0.07579128 -0.23907346 -0.16834421 -0.37457404 0.0030381351 0.13632365 -0.06328351
-0.37653384 0.2297122 0.10013163 0.15131192 -0.24146433 0.31162262 -0.27372366 -0.040673833
-0.45492557 0.15377676 0.3781991 -0.24917874 -0.0059537226 -0.30450726 0.20339933 0.2369339
-0.49602005 -0.2156757 -0.5023674 0.06577991 0.03744144 0.3490449 -0.075022474 0.06995539
0.013474728 0.2710356 0.1463039 0.43034527 -0.23331712 -0.105881974 -0.07648163 -0.13123058
0.012877618 0.033987112 0.18422666 -0.10213429 0.10596277 -0.24447757 -0.3323432 0.15921561
0.097529344 -0.26766098 0.045341477 -0.044106405 -0.38812652 0.17513715 -0.030065563 0.012742155
0.30762872 0.27790615 -0.32703918 0.28794545 -0.043311667 0.15660582 -0.057699036 0.33116198
-0.23477717 0.07774402 0.012555175 -0.24003848 0.36946523 -0.12797219 0.0674563 -0.14626247
0.16178198 0.19633397 0.21402189 0.20337804 -0.23845923 0.26561514 0.28679058 0.15199341
-0.09920244 -0.25123736 0.11627479 -0.27243143 -0.18612069 -0.29513627 0.17867693 0.37703013
0.051616263 0.102754585 0.1677212 0.053402483 -0.16193138 0.11242286 0.020529548 -0.20859562
-0.045208238 0.09794995 -0.13192573 0.27844784 0.23588249 0.043450885 0.21314457 0.15237081
0.21047689 0.005539771 -0.08567408 0.13746263 -0.34297028 0.20913278 0.16970305 -0.24868913
-0.06972831 -0.02734441 0.24892898 -0.4215666 0.1280676 -0.15127043 -0.11960086 0.13925497
0.2809869 0.08725894 -0.28443184 -0.049440645 0.4790959 -0.007346706 0.16795595 0.15496793
-0.0021016058 -0.16647218 -0.1211527 0.14082335 -0.15838647 0.2889972 0.06513857 0.1766285
-0.7178336 -0.024942113 0.31966266 0.13271807 -0.036663506 0.17541084 -0.16248706 -0.51979494
0.3368808 -0.019616216 0.011660832 -0.19521734 -0.07686755 0.21851431 0.17506284 0.23048489
0.31812048 0.38985336 -0.0038288436 0.027811904 0.04668356 -0.09143668 0.59682524 -0.033890586
-0.02204229 -0.004041145 0.3230805 -0.14027439 0.20620862 -0.14631005 -0.2882326 -0.10020611
-0.16499704 -0.26941952 -0.12602319 0.13604337 0.15032476 0.022039732 0.018576693 0.10217107
-0.32526198 0.10161881 0.20974785 0.3167793 -0.2926388 -0.019808643 0.24854144 -0.43158263
0.05980115 -0.04094948 -0.10660595 -0.18757808 -0.36053717 0.16309987 0.23569947 -0.2366181
0.10635118 -0.25804186 0.21363685 0.18256482 -0.3125406 -0.13908345 -0.20620686 -0.2553422
-0.041193012 0.21044432 -0.12803116 -0.016575024 -0.1602747 -0.13040085 -0.2128663 -0.4107054
0.30910212 0.116543055 -0.1591726 -0.044818614 0.28051808 0.07755763 0.08160183 0.21274671
0.30266577 0.2649707 0.1668799 0.07243598 -0.11707918 0.09862815 0.0051796883 -0.30022317
-0.15895203 0.121615134 0.2317305 -0.28238356 0.08358586 -0.031720635 -0.1043258 -0.070318416
0.208514 0.1117723 0.111242674 -0.04347914 -0.036976628 0.25423753 0.35140166 -0.5515617
0.2555325 -0.08128936 0.10547835 0.16343701 0.15616138 0.12270655 0.44262108 0.38252902
-0.06818827 0.1279054 0.2928888 -0.3448932 -0.30682042 -0.05896536 0.36081433 0.2339448

model.net.2.bias f4 [50]
00000000: f3d7 853d 661a 843d f24d 803c 151c 813d
00000010: 193a cebd c2f0 8d3d 97ba 57bc 04c1 3a3e
00000020: 4dab b2bb 33ba 58bc e4c9 993b 028f 983e
00000030: ab7a 3dbd b901 d43d a6ff c23c 3141 90bd
00000040: d8c0 d4bb b467 b03d 611a 4a3d d360 8e3d
00000050: 4df3 af3d 2a1b 57bd 2031 c13d 91d4 3dbd
00000060: edd6 183e f949 1a3c 1b4f f0bc fc0e 1fbd
00000070: d42e f03c 191d 2a3e 3f50 eebd 1a54 463d
00000080: 9a71 d43d 33b7 b4bd f058 2b3d f320 c0bb
00000090: 5d44 b6bc 31cc 1d3e f5ef a23d 4ebc 6cbc
000000a0: e554 82bb a332 c53c ad09 873e bf6f 52bd
000000b0: f26f 953e f806 23bd 3037 37bd a03b 97bd
000000c0: 1ebe 1a3c 368d e3bc
0.0653533 0.064503476 0.015662167 0.06304184 -0.10069675 0.069306865 -0.013167045 0.18237692
-0.0054525496 -0.013227987 0.0046932567 0.29796606 -0.046259563 0.10351891 0.023803543 -0.07043684
-0.0064927153 0.0861353 0.049341563 0.069520615 0.08591328 -0.05251614 0.09433198 -0.046345297
0.14925738 0.0094170505 -0.029334595 -0.03883265 0.029319204 0.16612662 -0.116363995 0.04842005
0.1037323 -0.08824005 0.041832864 -0.005863303 -0.022249395 0.15409924 0.079559244 -0.014449192
-0.0039774054 0.024071997 0.2637457 -0.0513761 0.2918697 -0.039801568 -0.044730365 -0.073844194
0.0094447415 -0.027777296

model.net.4.weight f4 [50, 50]
00000000: e023 913e 7e49 213f d2de 433e 99c7 adbe
00000010: 364a 253e 2fb3 be3d 7865 54bc 6a50 d03e
00000020: 805e 053e ec6b 1ebf 0815 e53e d775 0fbd
00000030: b6f0 2d3e 157a c23e 6696 1dbe 3090 8d3e
00000040: 5018 0abe 195f 98be df74 c0be e454 3b3e
00000050: 4556 7c3e 0ac7 3a3e 1643 73bd c88f 963e
00000060: 039f b33e 20f3 6c3d 03e8 13bd b555 03be
00000070: aa4f 3dbd 4ffa ef3e 9956 1fbc 836e 4c3e
00000080: 5b4e 943e 7a47 173e b5f1 133f a37e 1dbe
00000090: a083 943d c184 fb3d 5393 a6bd 8e76 403e
000000a0: 01ff c73e 2e70 7a3e 4b8b 933e 7140 5a3e
000000b0: 1bf8 0e3e 8f08 0b3e 33e9 6a3e 294e 40be
000000c0: 0b45 783e f03a cd3e 7932 cebe ca43 d33e
000000d0: b049 463e b445 5dbe bbb4 893c 27b8 223d
000000e0: 2f06 ab3d 148c 00be 0e94 23be 719f 403e
000000f0: 98e2 13be c9b8 8dbe bb4a 07be 330b a3be
00000100: 115f 1fbe 9b3b 6abd 0590 0e3e b5e0 8fbd
00000110: 4b6b 0f3e 0350 123d d5bd b63e 18af 6abe
00000120: cc8b a2be 39ff bbbd 9260 99be a44c 833d
00000130: ba60 883e a1b3 583e d8df fabd 1ef5 22be
00000140: 90f5 c4bc 018f 78be 5b4d bd3d d9f6 bdbe
00000150: 27b1 30be 5c9e a3bc 73ff 89be 5179 893d
00000160: 08c8 9cbd 6609 b53b 0e02 213e ba11 8e3e
00000170: f71b 90be 9b81 633d 2a9a febd d5f6 efbe
00000180: 7721 78be a432 fb3e 0964 dbbd 01f0 013f
00000190: 43f9 fcbc c995 a13e 3f59 af3d 8c81 623d
000001a0: 7ef5 f5bd f365 793e 4adc 183e 0b63 913e
000001b0: 1b11 20bd 3ad0 963d 6fe4 18bd 901a e03d
000001c0: 1aff acbe 4994 e5bd 9b4e f6be 037c a73d
000001d0: 0b64 85be 5801 2bbe 07ad cfbe bd07 acbd
000001e0: d550 30be 45f7 9bbe 83be b2be 542e f43d
000001f0: 220d 10bf 79c9 53be 47c8 dfbd be1c 3a3c
00000200: f239 193e 41a9 f3be 7590 763e 5077 e9be
00000210: f9f0 f63e a927 77be f40d e5bd dfdf ccbe
00000220: b9e1 bcbe c14b 99be d90b c7bd 2b32 cfbc
00000230: 09d2 653e cf05 373e 2a8a 7a3d 186a f23d
00000240: ba4a 3bbe 728a e0be ebd1 6abc eb54 d8be
00000250: 0ee1 b93d 1c3b f43d c94c 113d f229 8b3e
00000260: cd6a 723e 6fca 003d 8ea5 ba3a 206b b7be
00000270: 3f7c 443e b8b4 033d e274 ec3d ddd8 4ebe
00000280: 7db6 813c 6bcb 103d 26fc 213e 1100 4cbd
00000290: 81a1 56be b2ba 25be dcfd 1e3c 5423 333d
000002a0: faf1 02be e2e1 44be c19d 283e 0428 2ebf
000002b0: 7303 003e 515f 83bd 24c4 b2bd 1c9e c7be
000002c0: ab38 d3bd 00ef e6bc 65f3 c3be b127 f8be
000002d0: b2ff 37be 8a62 6fbe 8129 55bc 4ec4 38be
000002e0: 0981 adbe f2de 25be c4ca 8abe 6bb0 fdbd
000002f0: df66 4b3e f356 c93e 15b6 3a3e 3319 073e
00000300: b7e0 cfbc ce5c e8bd f87b cfbd cba7 c3bc
00000310: 18ab 2abe 6376 dabd a618 18be 140d 70be
00000320: 88c6 20be 2c5b 663d dae6 213e 9d57 0b3e
00000330: b985 813d 269f b2be 40e1 40be e124 8bbd
00000340: 47e0 893e 9eb3 3bbd 1686 e7bd a170 05bf
00000350: 9224 09bf dd35 a3be 542d 29be 9122 1f3c
00000360: 1796 95bd ab2f edbe 992e 323e eacc cabd
00000370: 3d0d 12be 29ed 5bbd e023 08be b5f6 933c
00000380: c20f cabe 7367 58be a1d1 353e ffac 3ebd
00000390: e4ed 22be 4f8e 6bbe 89d6 bebe d0d5 17bf
000003a0: 8795 003c 7578 96be 9259 14bf 1abc a8bd
000003b0: 6ae6 9b3d 1452 313d 2c24 0dbd 232d 963e
000003c0: 9475 00bf fdf2 03be 142e 43bd acb9 433d
000003d0: 1def 213e 07df 973e 4e83 cb3d 9710 b83e
000003e0: 7252 d03b 50db 60bd cdcd 103e 93c5 5b3c
000003f0: e2b1 6b3e 8818 cd3e f89d a83e c8ec b8bb
0.28347683 0.63002765 0.19127968 -0.33941343 0.1614159 0.0931152 -0.012963645 0.4068635
0.1302433 -0.61883426 0.44742608 -0.03502449 0.16986355 0.37983766 -0.15389404 0.2764907
-0.13485837 -0.29760054 -0.37589166 0.18294102 0.24642284 0.1823999 -0.05939015 0.2940657
0.35082254 0.05784905 -0.036109935 -0.12825663 -0.04621855 0.46870658 -0.009725236 0.19964032
0.2896603 0.1477336 0.5779069 -0.1538034 0.07251668 0.1228118 -0.081335686 0.18795225
0.3906174 0.24456856 0.2881721 0.21313645 0.13961832 0.13577484 0.22940521 -0.18779816
0.24245088 0.40084028 -0.40272883 0.41262656 0.19364047 -0.21608621 0.016809812 0.039726403
0.08350789 -0.12553436 -0.15974447 0.18810822 -0.14441907 -0.27680042 -0.13212101 -0.31844482
-0.15563609 -0.05718575 0.13922127 -0.07025281 0.14005773 0.035720836 0.35691705 -0.22918355
-0.31747282 -0.09179539 -0.2995649 0.064111024 0.26636297 0.21162273 -0.12249726 -0.15913817
-0.024042875 -0.24273302 0.0924327 -0.37102392 -0.17255078 -0.019972973 -0.26952705 0.067125924
-0.076553404 0.005524802 0.1572344 0.277479 -0.28146335 0.055543523 -0.12431748 -0.46868005
-0.24231516 0.49062073 -0.107124396 0.5075684 -0.030880576 0.3155959 0.08561944 0.055299327
-0.120097145 0.24355297 0.14927784 0.28395876 -0.039078813 0.07363935 -0.037327226 0.109425664
-0.33788377 -0.11209924 -0.48106846 0.0817795 -0.2605289 -0.16699731 -0.40561697 -0.083999135
-0.17218335 -0.3046209 -0.34910974 0.11922899 -0.5627004 -0.20682324 -0.10926872 0.011359392
0.1496351 -0.47590068 0.24078543 -0.4559884 0.48230723 -0.24136223 -0.11184302 -0.4001455
-0.36890963 -0.29940608 -0.09719057 -0.025292477 0.22443403 0.1787331 0.06116692 0.11836642
-0.18290225 -0.43855625 -0.014332275 -0.42252287 0.09076129 0.11925337 0.03547362 0.2718044
0.23673554 0.031443056 0.0014240013 -0.35823917 0.19188021 0.03215477 0.11545731 -0.20199914
0.015834088 0.035350244 0.15818843 -0.04980475 -0.20960046 -0.161845 0.0097040795 0.043734863
-0.12787619 -0.19226792 0.16466428 -0.6802981 0.12501316 -0.064146645 -0.08728817 -0.38987815
-0.10313543 -0.028190136 -0.38271633 -0.48467782 -0.17968634 -0.23377433 -0.013010384 -0.18043634
-0.3388751 -0.16198328 -0.27107823 -0.12387165 0.19863461 0.3932415 0.18233521 0.13193206
-0.025375707 -0.11345826 -0.10131067 -0.02388372 -0.1666683 -0.10667112 -0.14853153 -0.23442489
-0.15700734 0.056239292 0.15810719 0.1360764 0.06324334 -0.34887046 -0.18835926 -0.067941435
0.26928923 -0.045825593 -0.11304872 -0.52124983 -0.53571427 -0.31877032 -0.16521198 0.009712831
-0.07304018 -0.4632543 0.17400588 -0.099023655 -0.14262863 -0.05369297 -0.13294935 0.018061975
-0.39465147 -0.21133213 0.17755748 -0.0465517 -0.1591106 -0.23003505 -0.37273052 -0.59310627
0.00784815 -0.29388776 -0.57949173 -0.082390025 0.07612307 0.043291166 -0.034458324 0.29331312
-0.5017941 -0.12885661 -0.047651365 0.047784492 0.1581387 0.29662344 0.09937154 0.35950157
0.0063574845 -0.054896653 0.14141007 0.013413805 0.23017076 0.40057778 0.3293302 -0.005643461

model.net.4.bias f4 [50]
00000000: a707 8a3d 7540 f63b f7ff 173d 590b 3fbc
00000010: d608 d23d dc4b 5bbc 3449 26bb e752 5fbc
00000020: 0a96 af3c 99f7 123c 46d7 e73c a5c1 283d
00000030: a79f 813d 31f0 353c 6b40 fbbc 8f30 bbba
00000040: 2ea3 283c aa99 00bc e6a4 c83c c514 8c3d
00000050: 706c 9a3c 8acc 9b3d 19a8 7a3c fa32 593d
00000060: f8eb 0b3b 13ac 86bd 80eb 08bd 696e b0bc
00000070: 6738 b1bc 8a46 25bd e719 12be 7896 9cbd
00000080: 1f18 c73b f1c1 7d3c 4d46 2c3d a65b 0e3d
00000090: 0f43 64bc bb3f 33bc 9256 8bbd 81d9 99bc
000000a0: 654a 013c 55c9 d23d d87c 943c adad c53d
000000b0: 092d 993b 691c d03a 3fdd febb 5531 8e3d
000000c0: ba79 dabc ddc4 acbd
0.06739741 0.007515008 0.03710934 -0.01166042 0.102555916 -0.0133847855 -0.0025373222 -0.013630605
0.021433849 0.008970165 0.028300893 0.0412003 0.063292794 0.011104629 -0.030670365 -0.0014281439
0.010292811 -0.007849136 0.024492692 0.06839899 0.018850535 0.07607372 0.015298867 0.05302713
0.0021350365 -0.06575789 -0.033427715 -0.021537023 -0.02163334 -0.040350474 -0.14267693 -0.07645887
0.0060758735 0.015488134 0.04205923 0.03475537 -0.013932004 -0.0109404875 -0.06803621 -0.018780472
0.007891272 0.10292307 0.018125936 0.09652267 0.004674558 0.0015877608 -0.0077778394 0.06943003
-0.026669372 -0.08435986

model.net.6.weight f4 [50, 50]
00000000: ed09 0abe f49b f5bd 336d 1d3e 710c 563d
00000010: bb9d 50be 6d17 1abd 2671 b2be 6d2f 333f
00000020: bc8e 423e f59c d23e 31b0 b8bd a22b be3b
00000030: 93fb e3bc f148 5ebe 8e53 423e fea5 883d
00000040: 40e3 403e da4f 743d 3b40 f8bd c555 95be
00000050: f29b b43d 9682 5bbe 1a86 cabd 7d81 f93e
00000060: df34 703c a56f 033f 87bd af3d 89b3 833e
00000070: 3d59 61be 308c 6d3d 0580 373e ea23 d43d
00000080: 78ca 17be 663c 9c3e 53b7 b7bd d269 cebe
00000090: dd2f d2bd 33e5 fe3e 1afa 18be f28a d53c
000000a0: f16a a73e 5278 293e 68fd d7bd 4ccf d6be
000000b0: a469 f93d b2f7 08be b903 b7be 297b 9fbd
000000c0: 40d4 3abd ce23 a03d ccad 98be 7723 1b3e
000000d0: 9f1e 52be 23c7 23bd 9548 16bf 422a 033e
000000e0: 522b 433e 4f9a 713e 19c6 223e d7c1 9fbd
000000f0: 284c 13be ff33 8bbe cf70 7a3e 6a99 b1bd
00000100: fca3 afbe c687 083e 90ed 043e e733 49bd
00000110: fbae d6bc 62d6 cfbd c136 d4be 4dba 2c3e
00000120: 0893 51bd 88ab 063e ae66 763d 45d1 bdbd
00000130: 80d7 aebd 9e61 17bd d9f3 2dbd faee 60bd
00000140: 2911 b1bd b20b 053e 25ff a93e 0efa 903e
00000150: b6c5 ccbd b734 213a 6d05 a2be 9646 323e
00000160: 7e61 6cbe 7dca 523d 6d52 ab3c 5015 6e3e
00000170: 0c0e 9b3d 69fd aabd 1908 c33c e532 0abd
00000180: 7683 873e 5ad1 1fbd e955 5f3e 5fa0 e73e
00000190: 6f6e 633e 90a7 22bf 3be4 ca3c ba6e a5bd
000001a0: 5c89 1a3e bbaa 16bd dd8a 4d3e d193 d4bd
000001b0: 0f20 76be 464f 8ebe 32bf 183d d247 df3e
000001c0: c26c 43be 872f 043f c07d de3d 733b 943e
000001d0: 5f77 c73d 2d72 2dbb 4fb1 213d 20be 6dbe
000001e0: a5b2 e1bc 28d7 d7bb 7b81 5e3c bc21 cb3e
000001f0: 1f40 423e dff7 103e 4486 183e 3313 76be
00000200: f7d1 423e 8490 b13d 4570 f53e 6db4 0d3e
00000210: 287d 023d e347 483b dd6d b93d 50af ecbd
00000220: 6d95 80be 6b2c b8bd 008c db3b c4ed 3f3e
00000230: dbf8 ba3e 2685 b6be 88d9 ccbd 29e9 673e
00000240: ece5 8d3e 8f8e 5a3e 307d 90be 42ae c4bd
00000250: abcd d03d e7b1 2d3c 7975 7ebe 5c14 cd3e
00000260: 3f59 353e 766d 953d 1716 9fbe 0f70 a9be
00000270: c44e c7be d480 16bf c05a 3a3e 2759 a0bd
00000280: ecd7 1b3f 92b7 aabe 4c5d 5f3d 258d e93e
00000290: 338c a2bd 8075 3fbe c0b1 b93e 699e 793e
000002a0: 7d89 0a3e 81b5 ec3e 95a9 15bf 5eb9 1cbf
000002b0: 61a9 213e 4eb4 87be aae5 3d3e 2561 e4be
000002c0: fafc 9bbe 1184 cebe 9de5 c5bd 8329 b7be
000002d0: 6916 adbf 959f 86bf 9d98 52be 9b33 e2be
000002e0: 1247 eebd f65f 1d3d ac8f b1be 6f68 ffbd
000002f0: 9f6d 753d b6d6 bc3c 4704 dbbc 7896 66bd
00000300: 9189 c83e eec1 023f f329 b43d 24a4 bfbe
00000310: 12c6 d93d e39e 9a3c 3503 ff3d 27b4 983e
00000320: 5847 4b3e 4099 41be c7dc 02be 3de1 073e
00000330: 38e1 8cbd 13d0 e83d e463 b4bd 571f 3f3e
00000340: 6b11 07be bf96 d23c c40d ce3d 64c3 4e3e
00000350: ab42 93bb 5df8 dd3e 3418 aa3e c4cd 923e
00000360: 3b6a d8bd a310 02be 121d 88be 27ba 00be
00000370: 71d1 b23e 66ce 723e 778e c6bd a943 dd3b
00000380: 20dd 8a3d 9040 15be 4f14 a33e 960d 98be
00000390: 7137 68bd dc12 a0bd 4af9 60be dc7f 3cbe
000003a0: ebe9 94be 2911 623d cd0b a8bb 8040 0f3e
000003b0: b00e 183e 0a78 a8be 0337 23be d1e2 4d3e
000003c0: 910e b5bd c47c 373e 2f8e bd3c fa12 2ebe
000003d0: 2486 9a3e ef21 293e 09f9 bf3c 0137 a33e
000003e0: 004b 843e 8bab ffbc 9929 ae3c 899e 1ebe
000003f0: d4e4 a7be 1cb6 9fbd deef 2e3e ba6f 5bbe
-0.13480349 -0.11992636 0.15373687 0.05225796 -0.2037267 -0.037619997 -0.3485195 0.6999424
0.18999761 0.41135374 -0.09017981 0.0058035413 -0.02782992 -0.21707512 0.18977186 0.066722855
0.18836689 0.059646465 -0.12121626 -0.29167 0.08818807 -0.21436533 -0.09888859 0.48731604
0.014661043 0.5134223 0.08581071 0.25722912 -0.22006698 0.05799502 0.1791993 0.103584126
-0.1482333 0.3051483 -0.08970513 -0.4031511 -0.102630354 0.4978424 -0.14939156 0.02606723
0.32698777 0.16549805 -0.1054638 -0.4195503 0.121783525 -0.13375738 -0.35745028 -0.07787163
-0.045612574 0.07819329 -0.29820096 0.15150248 -0.20519494 -0.039984833 -0.587045 0.12809089
0.19059494 0.2359402 0.15895881 -0.07800644 -0.1438452 -0.27188107 0.24457096 -0.086718395
-0.34304798 0.13333043 0.12981248 -0.049121764 -0.026206484 -0.10148312 -0.41448024 0.16867943
-0.05116561 0.13151371 0.060156517 -0.092684306 -0.08537197 -0.03695833 -0.04246888 -0.054915406
-0.08645851 0.12992743 0.33202472 0.28315777 -0.09998648 0.0006149518 -0.31644765 0.17409739
-0.23084065 0.05146264 0.020913327 0.23250318 0.075710386 -0.083491154 0.023807572 -0.033739943
0.26467484 -0.039018013 0.21810116 0.4523954 0.22210096 -0.6353693 0.024767032 -0.0807776
0.15091461 -0.036783915 0.20072503 -0.10379756 -0.24035667 -0.27794856 0.037291713 0.43609482
-0.19084457 0.5163502 0.10863829 0.28951606 0.09739565 -0.002646576 0.039475735 -0.23217058
-0.027551005 -0.006586928 0.013580675 0.39674175 0.18969773 0.14157055 0.14894968 -0.24030761
0.19025408 0.08670142 0.47937217 0.13838358 0.03185764 0.0030560426 0.09054158 -0.11556876
-0.25114003 -0.08992847 0.006700039 0.18743044 0.36517987 -0.3564846 -0.10002428 0.22647537
0.2771448 0.21343444 -0.2822051 -0.096035495 0.10195478 0.010601497 -0.248495 0.40054595
0.17709826 0.07296269 -0.3107154 -0.33093306 -0.3892728 -0.58790326 0.18198681 -0.078295045
0.60876346 -0.33343178 0.054532334 0.45615497 -0.07936897 -0.18697166 0.36268425 0.24376835
0.1352901 0.46232226 -0.58461887 -0.6122035 0.15787269 -0.2650475 0.18544641 -0.44605365
-0.30466443 -0.40335134 -0.09662936 -0.35773858 -1.3522464 -1.051745 -0.2056603 -0.44179997
-0.11634649 0.038421594 -0.34679925 -0.12471091 0.059918996 0.0230516 -0.026735438 -0.056295842
0.39167455 0.51077163 0.08797064 -0.37429917 0.10633482 0.018874591 0.124517836 0.29824945
0.19851434 -0.18906116 -0.12779532 0.13269515 -0.068788946 0.11367812 -0.08808115 0.18664299
-0.13190238 0.025706647 0.10061219 0.20191723 -0.0044940314 0.4335355 0.3322159 0.28672612
-0.10567137 -0.12701659 -0.2658468 -0.12571011 0.34925416 0.23711547 -0.09695142 0.0067524505
0.067804575 -0.1457541 0.31851432 -0.29697865 -0.056693498 -0.07816097 -0.21970096 -0.1840815
-0.29084715 0.055192146 -0.00512836 0.13989449 0.14849353 -0.32904083 -0.15938954 0.20106055
-0.08840669 0.17918688 0.023139087 -0.16999426 0.30180466 0.16516851 0.023434179 0.31877902
0.2583847 -0.031209728 0.02126007 -0.15490164 -0.3279177 -0.077984065 0.1708369 -0.21429339

model.net.6.bias f4 [50]
00000000: d207 863a f6d0 623c 1704 d8bd 4a3a 9a3c
00000010: 924f 9bbc f29a 4cbc 62d7 2b3c 8ef7 8abc
00000020: b875 003d 769c 08bc 5309 803b 49c7 15be
00000030: db2f bc3b 0cfc 553b b467 903c f69c c8bc
00000040: df15 01be 1af8 08bd b1a2 83bd 5f6b c8ba
00000050: 9c0f c23a 6c5d 0d3d a2b7 dfbb c20b 07bd
00000060: 62c1 36bb fb13 bdbc 003a 94bd 600c 3e3c
00000070: bf35 ec3d 84db bb3d 0e66 88bd 5172 4d3c
00000080: 55c4 09bd 6ec9 df3c 142f 8dbd 5682 04bd
00000090: 9db9 123d 2720 b53c 591b 2bbd b6fb c23b
000000a0: b8a0 4cbd c66e 4d3c 477c c03a 5582 50bc
000000b0: 902d 303d a84e 0bbd e8b9 4bbd 8130 593b
000000c0: 7834 8ebc c85a 2a3b
0.0010225719 0.0138437655 -0.10547655 0.018826623 -0.01895884 -0.012488114 0.010488363 -0.016963746
0.031362265 -0.008338084 0.0039073615 -0.14626803 0.0057430095 0.0032651452 0.017627575 -0.024488907
-0.12606 -0.033439733 -0.06427515 -0.0015290788 0.0014805677 0.034512922 -0.0068273107 -0.032970197
-0.0027886261 -0.023080816 -0.07237625 0.01159963 0.11533689 0.09172729 -0.066600904 0.012539462
-0.033634502 0.027317729 -0.06893745 -0.03235086 0.035821546 0.022110058 -0.041774128 0.0059504164
-0.04995796 0.0125386175 0.0014685475 -0.012726386 0.0430122 -0.03401056 -0.04973784 0.0033140483
-0.017359003 0.0025994051

model.net.8.weight f4 [50, 50]
00000000: cb06 c9be 20a9 943d 7800 073e f311 61bd
00000010: d862 933e a9ce 25be b3f8 3dbe b894 963e
00000020: a992 99be aba8 fbbe 6bec c33e 4cd0 003e
00000030: fe05 db3d 4924 01be aae7 2a3e f0ff a63d
00000040: e0b9 7abe 7261 c2be 4e4b 393e e6a4 b73d
00000050: 0242 a3be 6adc 8ebe 9468 053e 2c0f a5bd
00000060: 6a46 f73e d2af 913d 2482 263f 27d7 6f3e
00000070: 4165 58be 493c 91be 966c e4bd 00e8 d6bc
00000080: 3af4 54be 3521 32bc baa9 b03e e5ce 0cbe
00000090: b30e b2be 8699 5bbe 2407 26be 774d f63d
000000a0: f7f6 debd c75b 053e c4e0 c53b 0957 243e
000000b0: 2c81 11bf 91f3 d1be 04d5 4b3e 0ee5 073e
000000c0: f8ab ae3e 3e64 853e 70d6 383e 2413 cdbd
000000d0: ffab d53d dc76 21be caaf be3e f38c 7e3e
000000e0: 50ef ecbd 8719 d1bc 7d4a b33e 8e8d 803e
000000f0: b303 9c3d f88f d03e 6f66 fcbd 3845 253e
00000100: 55fb fdbc bee6 583e 522a 28be 9189 193e
00000110: ec19 133d 4c07 e1bc 55d2 8fbe 0d09 44be
00000120: bce2 523e fbac e8bd 2f64 e6bc 4119 843e
00000130: c4ac 323e b468 8dbd 0d31 b5bd c271 633e
00000140: ffc4 d93d e751 0d3e 326a 30be 1a0d db3e
00000150: 9431 863e 6ef1 3ebe cea5 3c3e 1794 51bc
00000160: deee 18be 7128 033e e402 2fbd 29c8 b7be
00000170: 03d4 d83d 8ad9 213d 629f 8abe d530 413e
00000180: 6c71 49bd 777e 533e fa87 283e 38b1 c6be
00000190: 7686 2f3d 83ab 793e aefb 993e ef31 513e
000001a0: 7d94 8b3e effc c53e 9c37 8cbe 1202 143c
000001b0: e7b9 953e 2dff 96bc db61 94be 6d28 043e
000001c0: 738f 8bbe 93fa 5a3e c264 cebc 40b9 acbe
000001d0: f269 fe3d 7fba 76be 7745 a13e 22f1 543e
000001e0: 383e d1bd 32b2 f4bc 91e4 923c 6d1e 51bd
000001f0: 20eb 3d3e be20 26be 07c6 d0bd be67 c23c
00000200: 7c73 0abb f349 503e 6239 043e ff22 4bbc
00000210: a4a4 88be 0f91 39be ca8c 0abd e708 35be
00000220: 871b 4b3d f5b1 60be 0c90 923d 7372 6e3d
00000230: a1c2 70be 4217 a33d 3168 183e 0f31 353e
00000240: 0222 06be 75e2 80bd 1c0d bb3d 4be7 643e
00000250: 85e5 ba3e 06da 973d 3bb7 14be 7b27 8cbe
00000260: b2d5 e2bd 0d29 b63d 8633 ad3e 5e3c bc3e
00000270: 5666 9cbe f9a5 aabe 7e35 7f3e 095c 733e
00000280: 581c 8f3e b739 663d e51a a93e 1eab 633b
00000290: b936 d5bd 3df5 87bb 401e 8abe cae9 8f3e
000002a0: b556 ac3e 649f 5ebe dd7f 1ebc c8d0 b53e
000002b0: 4fac 95bd 826e b43d 8399 683d 30e2 d7bd
000002c0: e790 f8bc 5fb2 b6be 0a99 d53d d504 04be
000002d0: 35dd 1bbe 9673 c43d be90 c7bd 7a30 ebbb
000002e0: ea16 39be 9513 8f3e f051 aabe 6f50 293d
000002f0: 3077 34be d05c 1dbc 1a7e 49be 376f b4be
00000300: a4c8 39be b6ac 543e 81ba 6d3e 72f6 ae3c
00000310: 11ca 243d b8ac 6e3d 7528 d8bd 3fae 86be
00000320: ced1 c7be 06e4 7abe dca3 6abe e8cf c2be
00000330: 7529 ddbc d3ea 21be 70c5 c7bd 096f 833d
00000340: ad86 913c cc7a 1ebe c979 30bd 89a2 583e
00000350: 20da 4f3e d63c 1dbe 0af1 a43d 6b69 f63b
00000360: a0a0 f1bd 39af 8bbd b459 6d3e 0dfd 56be
00000370: 3b6d 24be 3590 093e 1e4e b8bd c699 313e
00000380: 5fb2 db3d 5987 d0be 0faf 48bd f613 ac3b
00000390: e780 95bd 7daf a53c 5e06 98be c62b 8a3e
000003a0: 23ff 92be fa7a 003e b60f 113e cf76 193e
000003b0: a7a8 e5bd 530a 21be 723f c83d 3c83 10be
000003c0: 25c0 003e 4cc1 a0be 6ef0 1ebe 0373 cf3e
000003d0: 1d31 ab3e 9f28 91be dd31 9dbe 3299 2cbe
000003e0: 337c cb3d 8b33 abbd ad18 ce3b 9620 013e
000003f0: 0b92 2abb c58d a03d 2c22 e03d 92e8 0ebe
-0.39262995 0.072588205 0.13183773 -0.05494876 0.2878635 -0.16192116 -0.18551902 0.29410338
-0.29994705 -0.4915212 0.3826631 0.12579459 0.10694502 -0.12611498 0.16689935 0.08154285
-0.24484968 -0.3796497 0.18095133 0.08966999 -0.31886297 -0.27902538 0.13028175 -0.080595344
0.4829591 0.07113613 0.6504233 0.23421918 -0.21132375 -0.28366306 -0.111535236 -0.026233673
-0.2079629 -0.010872175 0.3450449 -0.13750799 -0.3477684 -0.21445283 -0.16213661 0.12026494
-0.108869486 0.13023292 0.006038757 0.16048826 -0.56837726 -0.4100614 0.19905478 0.13270971
0.34115577 0.2605304 0.18050551 -0.100134164 0.10433196 -0.15767998 0.3724349 0.24858455
-0.11569083 -0.025524868 0.35017768 0.25107998 0.07617893 0.4073484 -0.12324225 0.16139686
-0.031003634 0.21181771 -0.16422394 0.14993884 0.035913393 -0.0274693 -0.28090158 -0.19144078
0.20594305 -0.113611184 -0.028123943 0.25800517 0.17448717 -0.06904736 -0.08847246 0.22211364
0.10633277 0.13800775 -0.1722801 0.42783433 0.262097 -0.18646786 0.18422624 -0.012791655
-0.1493487 0.12808396 -0.042727366 -0.35894898 0.10587313 0.039514102 -0.27074724 0.18866284
-0.049180433 0.20653711 0.16458121 -0.38807082 0.04285284 0.24381833 0.3007483 0.20429204
0.27261725 0.38669536 -0.27386177 0.009033697 0.29243395 -0.018432224 -0.28980908 0.12906046
-0.2725788 0.21384649 -0.02519453 -0.33735085 0.12422551 -0.2409458 0.3149831 0.2079511
-0.102169454 -0.029870126 0.017931255 -0.051054407 0.18546724 -0.16223428 -0.10194021 0.023731109
-0.0021125963 0.2034071 0.12912515 -0.01239848 -0.2668811 -0.18121742 -0.033825673 -0.17679177
0.0495868 -0.21942885 0.07156381 0.058214616 -0.23511745 0.079634205 0.14883496 0.17694496
-0.1309891 -0.06293193 0.0913336 0.22353856 0.36503235 0.074146315 -0.14523022 -0.2737387
-0.110759154 0.088945486 0.33828372 0.36764807 -0.30546826 -0.33329752 0.2492275 0.23765577
0.27951312 0.056207385 0.3302833 0.0034739445 -0.10410828 -0.0041491077 -0.26976204 0.28108054
0.33659902 -0.2174049 -0.00967404 0.3551085 -0.07308256 0.0881014 0.056787025 -0.10541189
-0.030342532 -0.3568296 0.104295805 -0.12892468 -0.15221103 0.09592359 -0.09744404 -0.0071774097
-0.18075147 0.27944627 -0.33265638 0.041336473 -0.17623591 -0.009604648 -0.1967701 -0.352411
-0.18142945 0.20769009 0.23215677 0.021357749 0.040231768 0.058270186 -0.105545916 -0.26304814
-0.39027256 -0.24501047 -0.2291407 -0.38049245 -0.026997307 -0.15812235 -0.09754455 0.06417663
0.017764414 -0.15476531 -0.043084893 0.21155752 0.20298052 -0.15355238 0.08053787 0.007519891
-0.11798215 -0.068205304 0.2317875 -0.20994969 -0.16057293 0.13433917 -0.08999275 0.17343816
0.10727381 -0.40728262 -0.048995074 0.005251403 -0.07299977 0.02022528 -0.29692358 0.2698652
-0.2871028 0.12546912 0.1416615 0.14986728 -0.112138085 -0.15726595 0.09777726 -0.14112562
0.12573297 -0.31397474 -0.15521404 0.40517434 0.33435908 -0.28351304 -0.30702105 -0.16855314
0.099357985 -0.083594404 0.0062895627 0.12610087 -0.002602699 0.078395404 0.10944018 -0.13955906

model.net.8.bias f4 [50]
00000000: acf7 aa3b 65d0 d0bc c854 9ebc fbf0 9bbc
00000010: e106 b8bc 0ef2 92bc c1c2 9ebc 1664 e03b
00000020: d4cb 9ebc a19f 05bc e72b 52bc dbfa 11bd
00000030: c163 193c ce2f 12ba 6f9c 2bbc f35e 89bc
00000040: 6bdd b5bc dd44 963b b59a 2abc 7014 8bbb
00000050: 38f4 503a 7b14 b43b c6eb 94bc 7ea2 473c
00000060: 12b6 123c d880 45bc 7542 87bd 89b7 80bc
00000070: 235f 7fbc b3ec 8dbc 378b 03bd 9ca2 023b
00000080: db32 81bc 15f2 4c3c a231 33bc 63b0 693b
00000090: 6c15 5a3a 47a7 f7bc 717c 7f3c f49b 91bc
000000a0: 4a6d d7b9 0020 afbc d2a2 48bc fc5a 4f3c
000000b0: 9fb4 573a 176a c8bc 0c44 7ebc 93bb ccbc
000000c0: eaa7 3c3c dd92 313c
0.005217513 -0.025489995 -0.019327536 -0.019035807 -0.022464218 -0.017937686 -0.019379975 0.0068478687
-0.019384302 -0.008155734 -0.01282785 -0.035639625 0.009362162 -0.00055765815 -0.010474308 -0.016768908
-0.022200307 0.004585846 -0.010412862 -0.0042443797 0.0007970962 0.0054956055 -0.018178832 0.012184737
0.008954542 -0.0120546445 -0.066044725 -0.015712516 -0.015586647 -0.017324781 -0.032115187 0.0019933349
-0.01577132 0.012508889 -0.010937126 0.0035658113 0.0008319232 -0.030231131 0.015593634 -0.01777456
-0.00041089422 -0.021377563 -0.012245851 0.01265597 0.0008228514 -0.02446465 -0.015519153 -0.024991786
0.011514643 0.010838238

model.net.10.weight f4 [1, 50]
00000000: f6f1 173e 7683 fdbd 5b0a 16bd cc56 94be
00000010: 376c 84bd d4b5 dbbd 8922 bfbd 57fe 303e
00000020: f0e6 afbe 1a21 423d 3b02 3abd 7dbc f8bd
00000030: e77f 143e b63f 9b3e cae3 bcbd 5510 6bbe
00000040: 1101 96be 62ca cc3d c397 22be 532a b6be
00000050: 14e2 033e 9296 433e e904 44be 6071 b03e
00000060: 5c80 8e3e 1b33 10be fa4e ebbc 759e 56be
00000070: 538a 9bbd e247 dfbc 3e75 8abe bde7 683d
00000080: 0084 b2be be5b 183e bca9 bbbd 2b6a 4a3e
00000090: 33c9 813e 21cb bbbe 6cc6 893e 8a9d bbbd
000000a0: d4d4 6d3d 6fe7 7fbe 4166 88be 6263 143e
000000b0: 496c 103e f717 d9bc c3fa 85bd 008b 01be
000000c0: a70c 923a edd7 e33d
0.14838395 -0.1237859 -0.03663097 -0.2897247 -0.06465953 -0.1072804 -0.09332759 0.17284523
-0.3435588 0.04739485 -0.045412283 -0.12145326 0.14501916 0.30322045 -0.09223135 -0.22955449
-0.2929769 0.09999539 -0.15878205 -0.35579166 0.1287921 0.19100407 -0.19142498 0.34461498
0.27832305 -0.14081995 -0.028724182 -0.20958884 -0.075947426 -0.027255956 -0.27042574 0.056861628
-0.34866333 0.14878747 -0.09163234 0.19767062 0.25348815 -0.36678413 0.26909196 -0.091609076
0.058064297 -0.24990629 -0.26640514 0.14491037 0.14103808 -0.026500685 -0.065419696 -0.1265068
0.0011142687 0.11125169
